models/Old/QLSTM_qal_batch10_epochs5.pth (torch, 237629 bytes, 76 tensors)

r_weight f4 [1, 32]
0	0xbda153f2	-0.078773394
1	0xbdc0646b	-0.09394153
2	0xbec443e0	-0.38333035
3	0xbe8ff37b	-0.28115448
4	0xbed06817	-0.40704414
5	0xbe55f890	-0.208956
6	0xbe852a1f	-0.26008698
7	0xbf001e17	-0.50045913
8	0x3e87fa6a	0.26558238
9	0xbe8bcc70	-0.2730441
10	0xbf03e1c1	-0.5151635
11	0xbea97532	-0.33097225
12	0xbeaeb3c1	-0.34121516
13	0xbdd3dd2f	-0.10344922
14	0xbe616e5c	-0.22014755
15	0xbebb28ac	-0.36554468
16	0xbecc2a5c	-0.39876068
17	0xbc2b1e3b	-0.010444219
18	0xbf16d7fa	-0.58923304
19	0xbe9ce777	-0.30645344
20	0xbf25cc58	-0.6476493
21	0xbf2f6c75	-0.6852487
22	0xbe38a20d	-0.18030567
23	0xbe8c563f	-0.2740955
24	0xbe568296	-0.20948252
25	0xbe35b743	-0.1774569
26	0xbe86dd75	-0.26340833
27	0x3c8c7b44	0.017148621
28	0xbf421e75	-0.75827724
29	0xbf6981d8	-0.9121375
30	0xbf0789b6	-0.52944505
31	0xbed3269d	-0.41240397

i_weight f4 [1, 32]
0	0xbd88b69b	-0.06675454
1	0x3d4ea60c	0.050451323
2	0x3d844cf2	0.06459989
3	0x3e19a623	0.15004782
4	0x3de490a0	0.111603975
5	0xbda09225	-0.07840375
6	0x3d2656a8	0.040609986
7	0x3d7dee55	0.06199487
8	0x3e2e7c08	0.17039502
9	0x3c78cbdf	0.015185325
10	0xbda75656	-0.08170764
11	0xbcfe52d4	-0.031045355
12	0xbdbb6282	-0.09149648
13	0xbe32047f	-0.17384528
14	0x3e64be1f	0.2233815
15	0x3e7e5007	0.24835216
16	0x3d0b6289	0.034029517
17	0xbdb26460	-0.08710551
18	0xbe967515	-0.29386202
19	0xbdfbd2c0	-0.12296057
20	0x3df180fe	0.117921814
21	0x3dd667ef	0.104690425
22	0x3c943242	0.018090371
23	0x3dd1c1da	0.102420524
24	0x3db19e81	0.0867281
25	0x3ce68a8d	0.028142238
26	0x3cbe6f0d	0.023246313
27	0xbe7d0f42	-0.24712852
28	0xbd99321f	-0.07480263
29	0xbdc36ceb	-0.09542259
30	0x3db98ddf	0.09060263
31	0xbcbf215e	-0.02333134

j_weight f4 [1, 32]
0	0xbe839a04	-0.25703442
1	0x3d8de977	0.069292955
2	0xbe1bfb36	-0.15232548
3	0xbe0600ba	-0.13086215
4	0x3db517d2	0.08842434
5	0xbe423b4c	-0.18967932
6	0x3cf8c425	0.030366967
7	0xbcd815dd	-0.026377613
8	0x3d8638f9	0.065538354
9	0x3aeda19b	0.0018129827
10	0xbd3ac7f1	-0.045600835
11	0x3e6538ad	0.22384901
12	0xb9c0473e	-0.00036674173
13	0xbdd6fbf8	-0.10497278
14	0x3d954c08	0.072898924
15	0x3db10c71	0.08644951
16	0xbdc56ca7	-0.096398644
17	0x3e8e692d	0.27814618
18	0x3db1bd89	0.08678729
19	0xbdd7f647	-0.105450206
20	0x3d98a78a	0.074538305
21	0x3e0a1a45	0.13486584
22	0x3e2cd8d3	0.16879587
23	0x3d7f8901	0.062386516
24	0x3dd48917	0.1037771
25	0x3e259b9a	0.16172639
26	0xbd352710	-0.044226706
27	0xbe990e58	-0.29893756
28	0x3e66d07d	0.2254047
29	0xbcbe6e1e	-0.023245867
30	0xbc2c308a	-0.0105096195
31	0xbcd3599d	-0.025799567

k_weight f4 [1, 32]
0	0x3e6c4591	0.23073412
1	0x3d36904a	0.0445712
2	0x3c43b328	0.01194457
3	0x3de818ac	0.11332831
4	0xbdbb8c83	-0.0915766
5	0xbcab9bbb	-0.020948282
6	0x3d6fed6b	0.05857603
7	0xbe1762e1	-0.14783813
8	0x3cefd17c	0.029274695
9	0xbbe4556c	-0.006968191
10	0xbd1217c0	-0.03566718
11	0x3e09d977	0.13461863
12	0x3ddd52bb	0.10806795
13	0xbd3bca1f	-0.045847055
14	0xbdc09e58	-0.09405202
15	0x3e1b0d07	0.15141688
16	0xbd1d4ea3	-0.038405072
17	0x3ddfa3a5	0.109198846
18	0x3e27c9bc	0.1638555
19	0xbd756268	-0.0599083
20	0xbd9c2657	-0.076245
21	0x3cfbe528	0.030748919
22	0x3e3e88ef	0.18606924
23	0xbd5b0a81	-0.053476814
24	0x3d372f0c	0.0447226
25	0xbd855fd2	-0.06512417
26	0x3d6658b8	0.056236953
27	0xbe54f315	-0.20795853
28	0xbd12f2d5	-0.035876114
29	0xbdf4c2fa	-0.11951251
30	0x3db42711	0.08796514
31	0x3c394717	0.011308453

bias f4 [128]
0	0xbecdf58b	-0.40226397
1	0xbe0548be	-0.1301603
2	0xbef9fe2f	-0.4882674
3	0xbe12ac05	-0.14323433
4	0xbf787d16	-0.97065866
5	0xbe06d058	-0.13165414
6	0xbec324d4	-0.38114035
7	0xbf58996b	-0.846091
8	0xbd60d50c	-0.054890677
9	0xbd93c3b2	-0.0721506
10	0xbe94c6b8	-0.2905786
11	0xbf8bf404	-1.0933843
12	0xbe171d8d	-0.14757366
13	0xbeca21b7	-0.39478847
14	0xbdc1412b	-0.09436258
15	0xbeaa28a6	-0.33234137
16	0xbf36cc5d	-0.71405584
17	0xbce37ac2	-0.027768496
18	0xbf8f9c32	-1.1219542
19	0xbf43c1be	-0.764675
20	0xbf2054a4	-0.6262915
21	0xbce1ed4f	-0.027578978
22	0xbfa4d760	-1.2878227
23	0xbe831c8f	-0.25607726
24	0xbf1811bc	-0.5940206
25	0xbeadb939	-0.33930376
26	0xbf20878c	-0.6270683
27	0xbece4e60	-0.4029417
28	0xbf6cb203	-0.92459124
29	0xbdf194b8	-0.11795944
30	0x3c4f9d8e	0.012671841
31	0xbe837c6d	-0.25680867
32	0xbda6f9f1	-0.08153141
33	0xbe3ff484	-0.18745619
34	0xbf36e98f	-0.7145013
35	0xbdf43f15	-0.119260944
36	0xbf95dfa6	-1.1708877
37	0xbe70f50a	-0.23530975
38	0xbeb992b4	-0.36244738
39	0xbf3be5d4	-0.73397565
40	0xbc29f3be	-0.010373054
41	0xbd770f4f	-0.060317334
42	0xbe5b81c0	-0.21436214
43	0xbf7348de	-0.9503306
44	0xbe305ab0	-0.17222095
45	0xbe9b226c	-0.302997
46	0xbdaa7edd	-0.083249785
47	0xbeb94929	-0.3618863
48	0xbf3399c4	-0.701565
49	0xbd676c65	-0.056499857
50	0xbf953f6c	-1.165998
51	0xbef046b5	-0.46928945
52	0xbf31d075	-0.69458705
53	0xbd28b873	-0.04119153
54	0xbf8b2be1	-1.0872766
55	0xbed92101	-0.42407992
56	0xbf140532	-0.5782043
57	0xbe23f61c	-0.16011852
58	0xbe584b66	-0.21122512
59	0xbed6d12c	-0.4195646
60	0xbf586b39	-0.8453861
61	0xbea2ea7c	-0.31819522
62	0xbe7e604b	-0.2484142
63	0xbef6e12e	-0.48218673
64	0xbdca6305	-0.09882168
65	0xbe41bc2d	-0.1891944
66	0xbf32eab4	-0.6988938
67	0xbdda90d2	-0.106721535
68	0xbf9b9b33	-1.2156738
69	0xbe6261f1	-0.22107674
70	0xbefc7fdb	-0.49316296
71	0xbf4f01bc	-0.8086202
72	0xbcc89e18	-0.024489447
73	0xbcd1456e	-0.025545802
74	0xbf405f64	-0.75145555
75	0xbf860cac	-1.0472617
76	0xbe98603c	-0.2976092
77	0xbe95c328	-0.29250455
78	0xbdbbe05b	-0.09173652
79	0xbe82f71d	-0.25579157
80	0xbf382158	-0.7192588
81	0xbd2d9533	-0.042378616
82	0xbf90e0cc	-1.1318603
83	0xbf2847ff	-0.6573486
84	0xbf025c0d	-0.5092171
85	0xbd9454ed	-0.07242761
86	0xbfa7e385	-1.3116308
87	0xbe72b678	-0.23702419
88	0xbee0d3b6	-0.43911523
89	0xbdad8b33	-0.08473816
90	0xbe688665	-0.22707517
91	0xbec5bcc0	-0.38620567
92	0xbf4c3f6b	-0.7978427
93	0xbe089a32	-0.13340071
94	0xbdb39ffd	-0.0877075
95	0xbe4ac7bc	-0.19802755
96	0xbe0ad2ea	-0.1355702
97	0xbda4e2c6	-0.08051066
98	0xbedb4277	-0.42824146
99	0xbe41d6b5	-0.1892956
100	0xbf75b801	-0.9598389
101	0xbe58f82a	-0.21188417
102	0xbf0906be	-0.5352591
103	0xbf45f0da	-0.77320635
104	0xbc2ce678	-0.010552995
105	0xbd55deb4	-0.05221434
106	0xbef27cb6	-0.47360772
107	0xbf6560da	-0.8960091
108	0xbdf7da34	-0.12102166
109	0xbea60aec	-0.32430208
110	0xbdc3fb48	-0.095694125
111	0xbe9eedc9	-0.3104079
112	0xbf39ef64	-0.72630906
113	0x3df1198e	0.11772452
114	0xbf988ab8	-1.1917334
115	0xbf15b3d8	-0.58477545
116	0xbf2c6ea2	-0.6735631
117	0xbd2ff267	-0.042955782
118	0xbf81785e	-1.0114858
119	0xbe8284a8	-0.25491834
120	0xbec100fa	-0.37696058
121	0xbe0b7e17	-0.13622318
122	0xbe6d5f4e	-0.23180887
123	0xbe9a4ab2	-0.30135113
124	0xbf631262	-0.88699925
125	0xbe606c73	-0.2191637
126	0xbd98f946	-0.0746942
127	0xbe9af3c8	-0.30264115

r_weight f4 [32, 32]
0	0xbd52c9d9	-0.05146203
1	0xbe5d0bd2	-0.2158654
2	0x3dc61888	0.09672648
3	0xbe98a61e	-0.29814237
4	0xbd27a833	-0.04093189
5	0xbd3d7a8d	-0.04625945
6	0xbed2680f	-0.41095015
7	0xbe2c7b12	-0.16843823
8	0xbebacd23	-0.36484632
9	0x3f0688f4	0.52552724
10	0x3d0ec2a2	0.034853585
11	0xbe78ce14	-0.24297363
12	0x3ebc91f0	0.3683009
13	0xbd2ad741	-0.04170919
14	0xbee2cf52	-0.44298798
15	0x3db092bf	0.086217396
16	0xbe223927	-0.15842114
17	0xbcbf947d	-0.023386234
18	0x3e06755d	0.13130708
19	0xbd99b681	-0.07505513
20	0x3e516c1f	0.20451401
21	0xbeac9c82	-0.33713156
22	0x3d1b7c06	0.037960075
23	0x3edb9f17	0.42894813
24	0xbe277f98	-0.16357267
25	0xbc139f89	-0.009010204
26	0xbf0c4207	-0.5478825
27	0xbe8cbc9a	-0.27487642
28	0x3e804607	0.25053427
29	0xbf424d5d	-0.75899297
30	0xbec2f8a7	-0.38080332
31	0xbe9cb46a	-0.30606395
32	0x3dddc866	0.108292386
33	0x3e1da2a6	0.15394077
34	0x3dfe27e1	0.1240995
35	0xbdaabb23	-0.08336475
36	0xbe7c4869	-0.24636997
37	0x3e19b884	0.15011793
38	0xbc9e42bd	-0.019318933
39	0x3cc14572	0.023592684
40	0xbdc8f131	-0.098116286
41	0x3cdd201c	0.02699285
42	0xbe3f8c1e	-0.18705794
43	0xbc92a66c	-0.017901622
44	0x3c7da416	0.015481016
45	0x3d6424e6	0.05569925
46	0xbe3b2c50	-0.18278623
47	0x3c63cd11	0.013903872
48	0xbe209cdd	-0.15684839
49	0xbe61a403	-0.22035222
50	0xbde5d9c9	-0.1122318
51	0xbe8fc3c2	-0.2807904
52	0x3da94591	0.08265222
53	0xbe08a28f	-0.13343261
54	0x3d594b81	0.05305052
55	0xbe0dbafc	-0.1384086
56	0x3c7121f1	0.014717565
57	0xbe992817	-0.299134
58	0xbdb160ea	-0.08661063
59	0xbd184de2	-0.03718365
60	0x3eaafec1	0.33397487
61	0xbf015d9a	-0.5053345
62	0x3e40aa83	0.18815045
63	0xbda92a3d	-0.082600094
64	0x3d8f9bba	0.07012124
65	0xbca9ed2d	-0.020742977
66	0xbe1827d6	-0.14858946
67	0xbe6b1a47	-0.22959243
68	0xbe4ba70a	-0.19887939
69	0x3ddb3483	0.10703375
70	0x3e96621a	0.2937172
71	0xbd03c790	-0.03217274
72	0x3ed6c548	0.4194739
73	0xbe9073fd	-0.28213492
74	0xbe0e6bfb	-0.13908379
75	0x39a6fcc4	0.00031850312
76	0x3d100e1a	0.0351697
77	0x3e01c060	0.12671041
78	0xb99fd446	-0.00030485
79	0xbe38e8ac	-0.18057507
80	0xbe86ee0d	-0.26353493
81	0xbeaa8721	-0.3330622
82	0x3cae7a4b	0.021298548
83	0x3daf3493	0.085549496
84	0x3d1d26a6	0.038366936
85	0xbece4ae6	-0.40291518
86	0x3e472d04	0.19450766
87	0xbe0af470	-0.13569808
88	0xbdc356d5	-0.09538046
89	0x3e22bd29	0.15892471
90	0x3c566e22	0.013087781
91	0x3e66d659	0.22542705
92	0xbe09531e	-0.13410613
93	0x3e44a322	0.19202855
94	0x3d1eae2f	0.038740333
95	0x3db13273	0.086522005
96	0x3e120125	0.14258249
97	0x3d23435d	0.039859165
98	0x3e26d7d2	0.16293266
99	0x3e470a1c	0.1943745
100	0x3d039e90	0.03213364
101	0x3cd1ef59	0.025626825
102	0x3d19353a	0.037404276
103	0xbd6b5147	-0.05745056
104	0x3e82234d	0.25417557
105	0x3c99ec47	0.018789424
106	0x3e743642	0.23848823
107	0xbd1d4c9b	-0.038403135
108	0x3dfa117f	0.12210368
109	0x3e84267c	0.2581061
110	0xbd383ffd	-0.0449829
111	0x3dd9ae22	0.10628916
112	0x3ef3d368	0.47622228
113	0x3dca09f1	0.098651774
114	0x3e393d60	0.18089819
115	0x3ea94ec6	0.33067912
116	0x3b38e610	0.00282133
117	0x3c9158a1	0.017742457
118	0x3e0660af	0.1312282
119	0xbdda99cc	-0.10673866
120	0x3e7916fc	0.24325174
121	0x3eb0ad67	0.34507295
122	0x3e000daf	0.1250522
123	0x3d9710f9	0.07376284
124	0x3d8dd821	0.06925989
125	0x3e57ea62	0.21085504
126	0x3cb21e4b	0.02174296
127	0x3d7f33b3	0.062305164
128	0xbeee9ebd	-0.46605483
129	0x3d872242	0.06598331
130	0xbd326465	-0.043552775
131	0x3eb56d84	0.35435116
132	0x3e09d57a	0.13460341
133	0x3ee32fa4	0.44372284
134	0xbe324797	-0.17410122
135	0x3e3c1ed4	0.18371135
136	0xbe73d0cb	-0.23810117
137	0x3d55e56d	0.05222075
138	0xbe5cfc72	-0.21580675
139	0xbe0a8881	-0.13528635
140	0xbd739802	-0.059471138
141	0x3e421f0e	0.18957159
142	0xbe378f06	-0.17925653
143	0x3db2b78a	0.087264135
144	0xbdeb151c	-0.11478636
145	0x3e2a9f07	0.16662227
146	0x3e0a4f01	0.135067
147	0x3e863cec	0.26218355
148	0xbe7ba45d	-0.24574418
149	0x3ed7a176	0.42115372
150	0x3defe0d4	0.117128044
151	0x3a6d68b6	0.00090564357
152	0xbcf6ec8c	-0.030142091
153	0x3dab460a	0.08362968
154	0x3eab6bd9	0.3348072
155	0xbebb4218	-0.36573863
156	0xbe0d48d2	-0.1379731
157	0x3f0ad96d	0.54238015
158	0x3f018af8	0.50602674
159	0x3e32f37d	0.17475696
160	0x3e01cf0e	0.12676641
161	0xbe3eba3e	-0.18625733
162	0xbd874bbd	-0.06606243
163	0xbe73852d	-0.23781271
164	0x3e40a4f8	0.1881293
165	0x3d9bd33e	0.076086506
166	0xbb3d8f56	-0.0028924546
167	0x3dccd5cc	0.10001716
168	0x3d2cdc9b	0.042202573
169	0xbe418c16	-0.18901095
170	0xbeb5eb79	-0.35531214
171	0xbe5b2016	-0.21398959
172	0x3c98977e	0.018626925
173	0xbeb1ef7d	-0.34753028
174	0xbe4c620f	-0.19959281
175	0x3d5e1dcf	0.054227646
176	0xbe512dec	-0.20427674
177	0x3d94c1e2	0.07263543
178	0xbe66e5ea	-0.22548643
179	0xbe4f5b80	-0.20249748
180	0xbe8be9c3	-0.27326784
181	0x3b95c2e0	0.00457035
182	0xbde1803e	-0.110107884
183	0x3d1b1d30	0.037869632
184	0xbe7ffc6d	-0.24998637
185	0xbe7cd2ab	-0.24689738
186	0xbceac04f	-0.028656153
187	0xbe311039	-0.17291345
188	0x3e1734d1	0.14766242
189	0xbefad45b	-0.4899014
190	0x3e441a57	0.19150673
191	0xbeb506bc	-0.353567
192	0x3db1ee6c	0.086880535
193	0x3e38460f	0.17995475
194	0xbe44bb74	-0.19212133
195	0xbc9b45a5	-0.018954108
196	0xbdd59576	-0.10428898
197	0x3eca894e	0.3955788
198	0xbdca4f55	-0.09878413
199	0xbd6530dd	-0.055954803
200	0xbdab003d	-0.08349655
201	0xbcd74eb0	-0.026282638
202	0x3ec28718	0.37993693
203	0x3e300111	0.17187907
204	0xbea25073	-0.31702003
205	0xbdd2000e	-0.10253917
206	0xbd1fdc31	-0.03902835
207	0x3e971c6f	0.2951388
208	0xbd0dc185	-0.034608383
209	0xbe7f13ab	-0.24909846
210	0xbe2cd71c	-0.16878933
211	0xbcdeb888	-0.0271876
212	0xbe42311c	-0.18964046
213	0x3c633b09	0.013869056
214	0xbdf21402	-0.118202224
215	0x3e1afaa8	0.1513468
216	0x3d39000c	0.04516606
217	0xbe6c320f	-0.23065971
218	0x3d92d38a	0.07169254
219	0x3dc492ed	0.09598336
220	0x3cd35b66	0.025800418
221	0x3f0c3a4a	0.5477644
222	0x3e3631d7	0.1779245
223	0x3e82d39a	0.25552064
224	0x3edbb05c	0.4290799
225	0xbee1e002	-0.44116217
226	0x3e966c14	0.29379332
227	0xbeaf2dd1	-0.34214643
228	0xbe63922c	-0.22223729
229	0xbf11fb9a	-0.5702454
230	0x3dfb5353	0.12271752
231	0xbddcfb08	-0.10790068
232	0x3ceb51c9	0.028725522
233	0xbda42474	-0.080147654
234	0xbd8fb10d	-0.07016192
235	0x3de4aa57	0.11165302
236	0x3e3499e0	0.17636824
237	0xbd8b6336	-0.06806032
238	0xbe273b52	-0.16331223
239	0x3dcb81ce	0.09936868
240	0x3e867f71	0.26269105
241	0x3da9bc6c	0.08287892
242	0xbc8cae41	-0.017172934
243	0xbdedcd96	-0.11611478
244	0xbe838d1b	-0.25693592
245	0xbf0dcd30	-0.55391216
246	0xbd1e268b	-0.038610976
247	0xbe812799	-0.25225523
248	0x3d5b784d	0.053581525
249	0xbe86f783	-0.2636071
250	0xbe714c29	-0.23564209
251	0x3e586d1d	0.21135373
252	0x3e383cc4	0.1799193
253	0xbf2998ad	-0.6624859
254	0xbe48bd3d	-0.19603439
255	0xbe8c4a32	-0.27400357

i_weight f4 [32, 32]
0	0x3eec97f3	0.46209678
1	0xbee44b72	-0.4458881
2	0x3d50f015	0.05101021
3	0xbc194c03	-0.0093565015
4	0xbb3ef70a	-0.0029138946
5	0xbeeba477	-0.46023914
6	0x3e582a87	0.21109973
7	0xbd95f390	-0.073218465
8	0x3d7c35da	0.061574794
9	0x3eb701bd	0.35743514
10	0x3d21e30a	0.039523162
11	0xbc88339d	-0.016626174
12	0x3cb86170	0.0225074
13	0xbe24a850	-0.16079831
14	0x3f233be0	0.63763237
15	0xbe6a9081	-0.22906686
16	0x3e85c1c9	0.2612441
17	0x3ecdc2ca	0.40187675
18	0xbc222ea0	-0.009898812
19	0x3dfbf08c	0.1230174
20	0xbce24611	-0.0276213
21	0xbdb3fd78	-0.0878858
22	0x3c8a1125	0.016853878
23	0x3e864e92	0.2623182
24	0xbd8d0ff5	-0.06887809
25	0x3cbf79c5	0.023373494
26	0x3e66a5d2	0.22524193
27	0x3d849535	0.064737715
28	0x3d91e9ff	0.07124709
29	0x3dd096fd	0.10185049
30	0xbf1bfef3	-0.60935897
31	0x3d51405d	0.051086772
32	0x3cbdacb1	0.023153635
33	0xbdae5c09	-0.08513648
34	0x3e1d70c9	0.15375055
35	0x3ba6a2b1	0.0050853123
36	0x3cbd738b	0.023126384
37	0xbd8701b3	-0.06592121
38	0x3b955b98	0.004558038
39	0x3d66a759	0.05631194
40	0x3e7fdb6f	0.24986051
41	0xbd6b826e	-0.057497434
42	0x3c0801c8	0.008301206
43	0x3de4ab97	0.11165541
44	0xbddb8511	-0.1071874
45	0x3d7b3021	0.061325196
46	0x3ea890d5	0.32922998
47	0xbe829422	-0.2550364
48	0xbd77d1f3	-0.060502958
49	0xbd1c01a0	-0.038087487
50	0xbd8abe33	-0.06774559
51	0xbc482475	-0.012215723
52	0xbe1d9deb	-0.15392272
53	0x3c9862d8	0.01860182
54	0x3da619b4	0.08110371
55	0xbd49851a	-0.0491992
56	0xbd84f62b	-0.06492265
57	0xbdd2939b	-0.1028206
58	0x3e70d0b9	0.23517121
59	0x3e2b8d51	0.16753127
60	0x3dd7a39c	0.10529253
61	0x3e103559	0.1408285
62	0xbd47d016	-0.04878243
63	0x3db7f2e4	0.089818746
64	0x3ea94e43	0.3306752
65	0x3f0a5633	0.5403778
66	0xb90fe101	-0.00013721363
67	0xbcb1f48a	-0.02172305
68	0x3b3a2320	0.0028402284
69	0x3e8495d9	0.25895575
70	0xbe982f36	-0.2972352
71	0xbe5a3d94	-0.21312553
72	0xbc8870bb	-0.016655317
73	0x3d1ee162	0.03878916
74	0x3e882d68	0.26597142
75	0xbdff5be0	-0.12468696
76	0xbd71d744	-0.059043184
77	0xbecf47fd	-0.4048461
78	0xbe4c6ffb	-0.19964592
79	0x3ed591bd	0.41712752
80	0x3da94214	0.082645565
81	0xbeed3766	-0.46331328
82	0xbe92c46c	-0.28665483
83	0xbea9af4b	-0.3314155
84	0xbd904c86	-0.07045846
85	0x3e08acd8	0.13347185
86	0xbe3122c2	-0.17298415
87	0x3e4cc33c	0.19996351
88	0xbd6424c2	-0.055699117
89	0xbe820c1d	-0.25399867
90	0xbe16a56d	-0.14711542
91	0xbed0a350	-0.40749598
92	0x3dcc7b02	0.099843994
93	0x3cefc5f6	0.0292692
94	0x3d4e995b	0.05043922
95	0xbe40a349	-0.18812288
96	0xbdd3a434	-0.10334054
97	0xbe636c0b	-0.22209184
98	0x3dcc4851	0.09974731
99	0x3dc28c1f	0.09499382
100	0xbb900bcb	-0.004395937
101	0xbd5e0dc7	-0.054212358
102	0x3d67731c	0.05650626
103	0xbd7d3459	-0.0618175
104	0xbd95897f	-0.07301616
105	0xbd0e2b99	-0.034709547
106	0x3e696073	0.22790699
107	0xbd6b27a6	-0.05741086
108	0x3e140b4a	0.14457431
109	0x3dfcaf94	0.12338176
110	0xbe377bcb	-0.17918317
111	0xbd8c30d2	-0.06845249
112	0x3e1683f5	0.14698775
113	0x3ce710b0	0.0282062
114	0x3debab7a	0.11507316
115	0xbd6d1f46	-0.057891153
116	0x3dbc84b0	0.09204996
117	0xbe724a5f	-0.23661183
118	0x3daaab62	0.0833347
119	0xbda62990	-0.08113396
120	0xbde50a53	-0.1118361
121	0x3e551b13	0.20811109
122	0xbd3fb6cf	-0.0468052
123	0x3de43665	0.111431874
124	0x3ce3c26e	0.027802672
125	0xbe2c01bd	-0.16797538
126	0x3e002cb7	0.12517057
127	0x3de7fe34	0.11327782
128	0x3d7766e0	0.060400844
129	0xbe795e44	-0.24352366
130	0xbb179d8c	-0.0023134677
131	0xbd6428ef	-0.0557031
132	0xbca50749	-0.020145075
133	0xbd97f3e7	-0.074195676
134	0x3e6669d5	0.22501309
135	0xbe8af2d2	-0.27138382
136	0xbd7ac926	-0.061226986
137	0x3dbacddc	0.09121296
138	0x3ddb94b8	0.10721725
139	0x3cc8c297	0.02450685
140	0x3e17c636	0.14821705
141	0xbe98c0c1	-0.2983456
142	0xbe116ef2	-0.14202479
143	0x3cc2c054	0.02377335
144	0x3ddaf837	0.106918745
145	0xbdd73db0	-0.10509813
146	0x3c9a8411	0.018861802
147	0xbd5b925a	-0.05360637
148	0xbb8ba634	-0.0042617563
149	0xbe698c31	-0.22807385
150	0xbd990355	-0.07471339
151	0xbe695375	-0.22785743
152	0xbe0afed2	-0.13573769
153	0xbeb4961c	-0.35270774
154	0xbe4eaab1	-0.20182301
155	0xbeb35de6	-0.35032576
156	0xbdbf6532	-0.09345473
157	0xbe05c5b9	-0.13063706
158	0xbd87645d	-0.0661094
159	0xbea344e8	-0.3188851
160	0x3d7b0182	0.061280735
161	0x3e236e05	0.15959938
162	0xbdef82fe	-0.11694907
163	0x3e0eba3a	0.13938227
164	0xbbb19738	-0.005419638
165	0x3e104d4c	0.14091986
166	0xbd22fc93	-0.039791655
167	0x3dbcd422	0.092201486
168	0xbd0b7b2c	-0.034053013
169	0x3d47e09d	0.048798192
170	0xbdf062d8	-0.11737603
171	0x3d0f9c39	0.035061095
172	0xbdfb0289	-0.12256343
173	0xbcae73a1	-0.02129537
174	0x3e0b3423	0.13594107
175	0xbdb71665	-0.08939818
176	0x3d05062d	0.032476593
177	0xbe8fc9fe	-0.28083795
178	0xbe0bc4b1	-0.1364925
179	0xbdb8970e	-0.090131864
180	0x3bebbfa5	0.0071944767
181	0x3d6017b4	0.054710105
182	0x3d0b4190	0.033998072
183	0x3c85bb06	0.016324531
184	0xbdf230c2	-0.11825706
185	0xbdf50022	-0.11962916
186	0x3e5111e4	0.20416981
187	0x3e4eba2c	0.20188206
188	0xbdca489b	-0.0987713
189	0xbd4e6231	-0.05038661
190	0xbdc9e3a2	-0.09857871
191	0xbccb8900	-0.0248456
192	0xbdf74922	-0.12074496
193	0x3e08a8d3	0.13345651
194	0x3d4ac49a	0.0495039
195	0x3ea49ab3	0.32149276
196	0x3e6d0278	0.23145473
197	0x3dd939f5	0.106067576
198	0xbcce034d	-0.025148058
199	0x3e11027a	0.14161101
200	0xbdfe5190	-0.124179006
201	0xbdf6e53f	-0.12055444
202	0x3ce2594b	0.027630469
203	0xbca7c3e0	-0.020479143
204	0xbd075c65	-0.0330471
205	0x3d59c64c	0.053167626
206	0x3dedcfaf	0.11611878
207	0x3eb3bb2f	0.35103747
208	0x3e306faf	0.17230104
209	0x3d51beea	0.05120746
210	0x3cf2a722	0.02962071
211	0xbdddf192	-0.108370915
212	0x3c9e972f	0.0193592
213	0x3d6963da	0.05697999
214	0xbc05580f	-0.008138671
215	0xbdc5141b	-0.096229754
216	0x3e061f63	0.1309791
217	0x3d23600c	0.03988652
218	0xbde9b893	-0.11412158
219	0xbdcb6aba	-0.09932466
220	0xbdd931b4	-0.10605183
221	0x3e144791	0.14480425
222	0x3be63e1d	0.0070264474
223	0xbdb970a2	-0.09054686
224	0xbe84701c	-0.25866783
225	0x3dec2aaf	0.11531579
226	0xbdc1957d	-0.09452341
227	0x3c77e44b	0.015130113
228	0xbc263901	-0.010145427
229	0x3d0dd4ec	0.034626886
230	0xbe36bace	-0.17844698
231	0x3ccdcca7	0.025122
232	0x3e7da157	0.24768578
233	0x3d5559da	0.052087642
234	0x3d923e74	0.07140818
235	0x3db4717a	0.088107064
236	0x3e66f382	0.22553828
237	0x3dad41da	0.08459826
238	0xbe1331db	-0.14374487
239	0xbe0a4a48	-0.13504899
240	0x3a295984	0.0006460177
241	0xbe78259b	-0.24233095
242	0xbeb980b4	-0.36231005
243	0x3dd9c913	0.10634055
244	0xbdfdc8a6	-0.12391786
245	0x3dd310d6	0.103059456
246	0x3d1f3288	0.03886655
247	0x3e1d24c5	0.15346058
248	0x3d84ac19	0.064781375
249	0x3e8531cb	0.26014552
250	0x3e6529da	0.22379246
251	0x3dd226b0	0.10261285
252	0xb8b66283	-8.6967855e-05
253	0x3eba8684	0.36430752
254	0x3e42d305	0.1902581
255	0x3e17f2b6	0.1483868

j_weight f4 [32, 32]
0	0x3dc3775a	0.09544249
1	0xbf113659	-0.5672355
2	0xbe42d3c2	-0.19026092
3	0xbe43941d	-0.1909947
4	0xbd92453d	-0.071421124
5	0xbd95a359	-0.07306547
6	0x3d7a6206	0.06112864
7	0xbe3c6324	-0.18397194
8	0x3e52c7e5	0.20584066
9	0xbdb35a73	-0.08757486
10	0x3e9cb565	0.30607143
11	0x3dbcc919	0.09218044
12	0x3cdf5059	0.027259992
13	0x3eafc744	0.34331715
14	0xbeccfe97	-0.40037987
15	0xbe8ca3c2	-0.27468687
16	0x3e23b29d	0.15986104
17	0x3e29f853	0.16598634
18	0xbc5ffabb	-0.013670619
19	0xbd8db1d2	-0.06918682
20	0x3e08d737	0.13363348
21	0xbf125a3b	-0.5716893
22	0x3d83058d	0.06397543
23	0xbe5bc8e6	-0.21463355
24	0xbe250755	-0.16116078
25	0xbe28650e	-0.164448
26	0xbd0755ff	-0.033040997
27	0x3ca4577a	0.020061243
28	0x3da4dd12	0.08049978
29	0xbd948f79	-0.07253928
30	0xbe88e7dc	-0.26739395
31	0x3e89db24	0.26925004
32	0xbe3e1b2b	-0.18565051
33	0xbde92286	-0.11383538
34	0xbe1a76e8	-0.15084422
35	0x3e1bf2dc	0.15229362
36	0xbc15f7bd	-0.009153304
37	0x3db59eca	0.08868177
38	0x3d592dde	0.053022258
39	0x3db9fd2a	0.0908149
40	0x3d2e4d94	0.042554453
41	0x3def997f	0.11699199
42	0xbddbf6e6	-0.107404515
43	0xbd3fc029	-0.046814118
44	0x3e2b7f24	0.16747719
45	0xbcc67285	-0.024224529
46	0xbe39d207	-0.18146525
47	0x3dbcf7c1	0.09226943
48	0x3d1cea6e	0.038309507
49	0x3e28f10b	0.164982
50	0x3e459093	0.19293432
51	0x3e23bb17	0.15989338
52	0xbd8de9b7	-0.06929343
53	0xbd5aad5a	-0.053387977
54	0x3e90022d	0.2812666
55	0x3e180406	0.14845285
56	0xbe09d62a	-0.13460603
57	0x3da432f1	0.08017529
58	0x3c90eccc	0.017691039
59	0xbde1240c	-0.109932035
60	0x3d40dae6	0.047083758
61	0x3e4f8a21	0.20267536
62	0xbe197166	-0.14984664
63	0x3c119345	0.008885209
64	0xbd4e96a3	-0.050436627
65	0xbe174522	-0.14772466
66	0x3e9bb3b5	0.30410543
67	0xbe74034d	-0.23829384
68	0xbec1940a	-0.37808257
69	0xbe9d8892	-0.30768257
70	0x3ba11bfd	0.0049166665
71	0x3e5b7131	0.21429898
72	0x3d57d667	0.052694704
73	0x3b9b677a	0.00474256
74	0xbeae5c4d	-0.34054795
75	0x3e03f117	0.12884937
76	0x3e8dd983	0.2770501
77	0x3cbe9887	0.02326609
78	0x3eb3d69f	0.3512468
79	0xbea0149c	-0.31265724
80	0xbea426b9	-0.32060793
81	0x3dd692a9	0.10477192
82	0xbbab8e9b	-0.0052355058
83	0xbdae58ef	-0.085130565
84	0xbe80d81b	-0.25164875
85	0x3e6e310a	0.23260894
86	0x3df5bbb6	0.11998694
87	0xbe06f7b4	-0.13180429
88	0x3d51438d	0.051089812
89	0x3deeec1a	0.116661265
90	0x3e752e6a	0.23943487
91	0x3d5e0924	0.054207936
92	0xbd6df47c	-0.058094487
93	0x3e8e0ff1	0.27746537
94	0x3e5bfd88	0.21483433
95	0x3e0cc4c3	0.13746934
96	0xbe6afd96	-0.22948298
97	0xbdddb151	-0.10824836
98	0xbd56f97a	-0.052484013
99	0x3e36b0e8	0.17840922
100	0xbcecb866	-0.028896522
101	0x3d95c7ff	0.07313537
102	0xbe11868c	-0.14211482
103	0xbe1e9bb3	-0.15489082
104	0x3cf1971d	0.029491002
105	0x3dbe3b3c	0.09288642
106	0xbd399964	-0.0453123
107	0x3e17c1d4	0.14820033
108	0xbdc04e8c	-0.093899816
109	0x3da3104b	0.07962092
110	0x3be73c93	0.0070567816
111	0xbd59f23b	-0.053209525
112	0xbdb30aa6	-0.087422654
113	0x3b19e323	0.0023481331
114	0xbcbe833d	-0.023255939
115	0xbc0a0b76	-0.008425584
116	0xbdc401c4	-0.09570649
117	0x3e919501	0.28433993
118	0xbd9254dc	-0.07145092
119	0xbd803006	-0.0625916
120	0xbda16f8b	-0.07882603
121	0xbdfbe191	-0.12298883
122	0x3cccdb91	0.025007041
123	0xbcf23d88	-0.029570356
124	0xbc574780	-0.0131396055
125	0x3db3c6d0	0.08778155
126	0x3e4e71a2	0.20160535
127	0xbd343d18	-0.044003576
128	0xbce44566	-0.027865123
129	0xbcb27e57	-0.02178876
130	0x3d7cf97b	0.06176136
131	0xbe71bae3	-0.23606448
132	0xbdd5cc1f	-0.10439324
133	0x3d21a81b	0.03946696
134	0xbd256cfe	-0.040387146
135	0x3d54cae9	0.051951323
136	0xbcce0ed3	-0.025153553
137	0xba96dac1	-0.0011509286
138	0x3d05d2bd	0.03267168
139	0xbd6eb0af	-0.058273967
140	0xbe446f6a	-0.19183126
141	0x3e1130ca	0.14178768
142	0xbdd6eeeb	-0.10494789
143	0x3d14ae2a	0.03629891
144	0xbda5a6f0	-0.080884814
145	0x3dd5f620	0.10447335
146	0xbd2d6488	-0.042332202
147	0x3ba1c1ed	0.004936448
148	0x3e1e1930	0.15439296
149	0xbd8c2e00	-0.06844711
150	0xbd770a43	-0.06031252
151	0x3d79541c	0.06087123
152	0x3e4b6d2e	0.19865867
153	0x3dff7dce	0.12475167
154	0x3d662c83	0.056194793
155	0x3d87763c	0.06614348
156	0x3ddac6ac	0.10682425
157	0xbeb39b11	-0.35079244
158	0x3e6fca75	0.23417075
159	0x3dae2619	0.0850336
160	0xbd4a7251	-0.049425427
161	0xbe3ba911	-0.18326212
162	0x3e0ca8c5	0.13736255
163	0xbd81c74f	-0.06336843
164	0x3bdf4a22	0.0068142572
165	0xbe3fddc1	-0.18736936
166	0x3e881a2f	0.26582476
167	0x3e55168d	0.20809384
168	0x3e5e29ac	0.21695584
169	0x3d4a21a1	0.049348477
170	0x3ca22ab5	0.019795755
171	0x3e1ec786	0.155058
172	0x3e4e13bd	0.20124717
173	0x3d835bfe	0.064140305
174	0xbd6f6741	-0.05844808
175	0xbc66829f	-0.014069228
176	0x3ceafce0	0.028685033
177	0x3e47b590	0.19502854
178	0x3d714281	0.058901314
179	0x3d3c53c2	0.045978315
180	0xba03cb82	-0.00050275784
181	0xbcdafd5c	-0.02673214
182	0xbb7d556f	-0.0038655659
183	0x3c5a2f58	0.013316952
184	0x3b3830d3	0.0028105273
185	0x3db5a9f4	0.088703066
186	0xbdaedf38	-0.08538669
187	0x3c4912c5	0.012272541
188	0x3e4502b4	0.19239312
189	0x3b25327e	0.0025207098
190	0xbdc4014a	-0.09570558
191	0x3d347248	0.0440543
192	0xbca2f483	-0.019891983
193	0xbe136bb8	-0.1439656
194	0x3d2e8f29	0.042616997
195	0xbd1becfa	-0.038067795
196	0xbcf0bfbe	-0.029388305
197	0xbec8360b	-0.39103732
198	0x3ca6746e	0.02031919
199	0x3d5af9ca	0.053460874
200	0xbe492a31	-0.19645001
201	0xbd615a54	-0.055017784
202	0xbdab115f	-0.08352923
203	0x3d803e6f	0.06261908
204	0xbe016399	-0.1263565
205	0xbd53c60f	-0.051702555
206	0x3ebfc6bb	0.37456307
207	0xbcc50075	-0.02404807
208	0x3e910874	0.28326762
209	0x3f0d6c5f	0.55243486
210	0x3d4b31f6	0.049608193
211	0xbe1aa5cc	-0.15102309
212	0xbd2ab0b8	-0.04167244
213	0x3d2082a0	0.039187074
214	0xbd2b2e9b	-0.041792493
215	0xbdcebe68	-0.10094911
216	0xbdf54a10	-0.11977017
217	0xbd3f5d80	-0.046720028
218	0x3bc7701e	0.0060863635
219	0xbdc5a413	-0.09650435
220	0x3e45586e	0.19272014
221	0xbedd07b2	-0.43169934
222	0xbe416157	-0.18884788
223	0x3e1d08a6	0.1533533
224	0xbd4e4e17	-0.05036744
225	0xbe9055b2	-0.2819038
226	0xbd3e01e7	-0.046388533
227	0x3e37a5e7	0.1793438
228	0xbe3106f0	-0.17287803
229	0xbdd9be71	-0.10632027
230	0x3d88148e	0.066445455
231	0x3e7f5602	0.24935153
232	0x3e53b0e1	0.20672943
233	0xbdab4970	-0.083636165
234	0xbe316b42	-0.17326072
235	0x3e8578c7	0.26068708
236	0xbda70d7b	-0.08156868
237	0x3eab3bc3	0.33444032
238	0xbd1a914d	-0.037736226
239	0xbddb6350	-0.10712302
240	0xbca2335e	-0.019799884
241	0xbdbe9809	-0.09306342
242	0xbd465ff3	-0.048431348
243	0x3da0e5a4	0.078563005
244	0xbd7a98ac	-0.061180755
245	0xbdfc2d11	-0.12313283
246	0x3e449c16	0.19200167
247	0xbe41eb90	-0.18937516
248	0x3ca5942f	0.020212261
249	0x3de5f934	0.11229172
250	0x3e35c31d	0.17750211
251	0x3e275608	0.16341412
252	0xbc6d10d0	-0.01446934
253	0x3ee0b6a9	0.4388936
254	0x3e1871f8	0.14887226
255	0x3d25a08a	0.040436305

k_weight f4 [32, 32]
0	0x3dba936f	0.09110152
1	0x3ee4da98	0.44698024
2	0xbdca975a	-0.09892149
3	0xbe81bf6a	-0.2534135
4	0xbda3db29	-0.08000786
5	0x3dfc9849	0.123337336
6	0xbdfc97ec	-0.12333664
7	0xbe26e349	-0.1629764
8	0xbd44ae8d	-0.048018027
9	0xbe2d740a	-0.16938797
10	0x3ea270e1	0.31726745
11	0x3dacf5a5	0.084452905
12	0x3ddffa87	0.10936456
13	0xbddf1b70	-0.10893905
14	0xbe12333d	-0.14277358
15	0xbd36ba7e	-0.044611447
16	0xbd48fbd8	-0.049068302
17	0xbc615573	-0.013753283
18	0xbe65a134	-0.22424775
19	0xbd03d52c	-0.03218572
20	0xbe79d2a6	-0.24396762
21	0x3e44d8b0	0.19223285
22	0xbd5eaa65	-0.05436172
23	0xbdb96502	-0.09052469
24	0xbd10541f	-0.035236474
25	0x3e06b637	0.13155447
26	0x3c39736c	0.011319023
27	0xbe7b0b40	-0.2451601
28	0xbbf1408f	-0.0073624323
29	0x3e5fb223	0.21845298
30	0x3e51485c	0.20437759
31	0x3c16f565	0.00921378
32	0xbb9838f4	-0.004645461
33	0xbe858b68	-0.2608292
34	0xbd4a313b	-0.049363356
35	0xbca05063	-0.019569581
36	0xbd95777d	-0.07298181
37	0x3de19a16	0.11015718
38	0xbd79c281	-0.06097651
39	0x3dad4bd2	0.08461727
40	0xbd176476	-0.03696104
41	0xbc9274e6	-0.017878007
42	0x3ebbd715	0.36687532
43	0x3d01b9e5	0.031671423
44	0x3e3f18fe	0.18661878
45	0x3d65f1d7	0.05613884
46	0xbdc60b97	-0.09670179
47	0xbe26fed8	-0.16308153
48	0x3e66d826	0.22543392
49	0xbdcfe235	-0.101505674
50	0xbdb9caa0	-0.09071851
51	0xbd8632f6	-0.06552689
52	0x3cf313b8	0.029672489
53	0xbda0d32f	-0.0785278
54	0x3c65baa9	0.014021554
55	0xbced5e29	-0.028975563
56	0xbdd1685a	-0.102249816
57	0x3d43bd5d	0.047788013
58	0xbd032935	-0.03202172
59	0x3dd8b92a	0.10582192
60	0x3d275226	0.040849827
61	0xbe2d5613	-0.16927366
62	0xbdc98717	-0.098402195
63	0x3e18fc47	0.14939986
64	0xbc16bcbb	-0.00920027
65	0x3df9d47c	0.12198731
66	0x3e0cb40a	0.13740554
67	0xbddad9e1	-0.10686088
68	0xbda406b3	-0.0800909
69	0x3d923e52	0.07140793
70	0x3cc3eb93	0.023916041
71	0x3e4067d2	0.18789604
72	0x3d65c2c4	0.056093946
73	0xbd183196	-0.037156664
74	0x3cd7a1af	0.026322214
75	0xbd5688f9	-0.05237672
76	0x3f105017	0.5637221
77	0x3cacfb8e	0.021116044
78	0xbc40f9ec	-0.011778336
79	0x3dc85c14	0.097831875
80	0xbef87e7e	-0.48534006
81	0xbddb4264	-0.107060224
82	0xbe671076	-0.22564873
83	0xbe8199df	-0.25312707
84	0xbb42db09	-0.0029732606
85	0x3dacb9ad	0.08433852
86	0xbdc30524	-0.09522465
87	0xbd8995a9	-0.067179985
88	0x3e66415c	0.2248587
89	0xbe0b245a	-0.13588086
90	0xbe37e9e4	-0.17960316
91	0x3e03b31a	0.1286129
92	0x3dd02b04	0.101644546
93	0xbe54b685	-0.2077275
94	0x3e21acff	0.15788649
95	0xbd8a64c3	-0.067575
96	0x3e3e42b2	0.1858013
97	0xbe288b7d	-0.1645946
98	0x3c1011cd	0.008793307
99	0xb986f8bd	-0.00025743796
100	0x3e288ae6	0.16459236
101	0xbdcdddb9	-0.10052056
102	0xbe1ce6d7	-0.15322433
103	0xbbf7de89	-0.00756437
104	0x3d983977	0.074328355
105	0x3d9a4486	0.07532601
106	0xbe527722	-0.20553258
107	0xbd96f113	-0.073702
108	0xbe92a24f	-0.28639457
109	0x3c14caee	0.009081585
110	0x3dbbd519	0.091715045
111	0xbcb36180	-0.021897078
112	0x3d314370	0.043277204
113	0xbd973924	-0.073839456
114	0x3da7286b	0.08162006
115	0xbde568db	-0.1120164
116	0xbe427d15	-0.18993028
117	0xbe30383f	-0.17208956
118	0xbda80f30	-0.08206022
119	0xbc114cbf	-0.008868395
120	0xbe2861c9	-0.16443552
121	0xbc68755a	-0.014188135
122	0xbddcf123	-0.10788181
123	0x3e18f5e2	0.14937547
124	0xbddebaa6	-0.10875444
125	0xbe97e500	-0.296669
126	0xbea378d9	-0.31928137
127	0xbe00d27a	-0.1258029
128	0xbe8c2bf6	-0.2737729
129	0xbda2559a	-0.079264835
130	0x3d8376d9	0.06419153
131	0xbd49b905	-0.049248714
132	0xbcd8809f	-0.026428519
133	0xbdee5e8c	-0.11639127
134	0x3e120209	0.14258589
135	0xbcaeab9b	-0.021322062
136	0xbcb95cbc	-0.022627227
137	0x3e01c5ae	0.12673065
138	0xbe7712e8	-0.24128306
139	0xbe0340f9	-0.12817754
140	0xbe0a516c	-0.13507622
141	0x3d9a9d64	0.07549551
142	0x3cbe16f1	0.023204299
143	0xbebc5701	-0.3678513
144	0x3d614b3c	0.05500339
145	0xbda93ac1	-0.082631595
146	0x3d2cd491	0.042194907
147	0xbd63b182	-0.055589207
148	0x3dc29f27	0.09503012
149	0xbd798d0e	-0.060925536
150	0xbd8bc397	-0.06824415
151	0xbde07dc5	-0.10961489
152	0xbe04403a	-0.12915125
153	0x3cb6f1ec	0.022332154
154	0xbe682f9f	-0.22674416
155	0xbe1e2581	-0.15443994
156	0xbd99831c	-0.0749571
157	0x3c30652a	0.010766307
158	0xbe4b50b0	-0.19854999
159	0xbe89a727	-0.2688534
160	0x3da88c35	0.08229867
161	0xbd9e3f4b	-0.07726916
162	0x3d3f7cd3	0.0467499
163	0x3b7716d7	0.0037702823
164	0xbe1282b0	-0.14307666
165	0xbe3ea4f5	-0.18617614
166	0xbdf3c065	-0.11901931
167	0xbbeac4e0	-0.0071645826
168	0x3d87835a	0.0661685
169	0xbc7369d0	-0.014856771
170	0x3ded4a1a	0.115863994
171	0x3e0c338c	0.13691539
172	0x3e37c806	0.17947397
173	0x3e827208	0.25477624
174	0xbd7c188f	-0.06154686
175	0xbd777382	-0.06041289
176	0x3d2907c0	0.041267157
177	0xbbe6e531	-0.0070463647
178	0xbd67da59	-0.056604717
179	0xbe2eb750	-0.17062116
180	0x3d7f4775	0.062324006
181	0xbda3fa5f	-0.08006739
182	0x3cdf3b2c	0.027249895
183	0xbd642974	-0.055703595
184	0xbe270a22	-0.16312459
185	0x3cd888a3	0.026432341
186	0xbbf410a9	-0.007448275
187	0x3e953d0e	0.29148144
188	0x3c63176e	0.013860567
189	0xbe7967e4	-0.24356037
190	0xbbf546c0	-0.0074852407
191	0x3daaeb25	0.083456315
192	0xbe4463d3	-0.19178705
193	0xbea726ad	-0.32646695
194	0xbe53dec0	-0.20690441
195	0xbb1e7ae7	-0.0024182142
196	0xbec8e114	-0.3923422
197	0xbe02d740	-0.12777424
198	0x3db9ef3b	0.09078833
199	0xbd540e45	-0.05177142
200	0x3e1924f5	0.14955504
201	0x3dc75b44	0.097342044
202	0xbe373c6f	-0.17894147
203	0x3c9ef253	0.019402659
204	0xbe10cbc7	-0.14140235
205	0x3d955172	0.07290925
206	0x3e35f709	0.17770018
207	0xbda96b6c	-0.08272442
208	0x3ddcc33b	0.10779425
209	0xbd0e81da	-0.034791805
210	0xbdb681a0	-0.08911443
211	0x3cc22c85	0.02370287
212	0x3d8a4178	0.067507684
213	0xbe6dd537	-0.23225866
214	0xbd972ce3	-0.07381608
215	0x3c40e392	0.011773007
216	0xbdb08bc3	-0.086204074
217	0xbe11a9c7	-0.14224921
218	0x3e24289f	0.1603112
219	0xbe279e54	-0.16368991
220	0x3da55da4	0.08074501
221	0x3e24e16c	0.16101617
222	0x3d9e88c5	0.077409305
223	0xbddd1ac0	-0.10796118
224	0x3d8a5aaa	0.06755574
225	0x3d834d6d	0.06411252
226	0xbdd95760	-0.106123686
227	0xbd99fc48	-0.07518822
228	0xbda95896	-0.082688496
229	0xbd177a05	-0.0369816
230	0x3d4a57df	0.049400207
231	0x3e305302	0.17219165
232	0x3c32bd1a	0.010909343
233	0xbd4803d6	-0.048831783
234	0x3e167e81	0.14696695
235	0x3d100339	0.035159323
236	0x3dac32d8	0.08408135
237	0xbd7cfe31	-0.061765853
238	0x3b941659	0.0045192656
239	0x3d038b1a	0.03211508
240	0xbe22e5d5	-0.15907986
241	0xbe2dec6a	-0.16984716
242	0xbe4bd253	-0.19904451
243	0xbe324ad8	-0.17411363
244	0xbd56ce75	-0.052442987
245	0x3dfec7e5	0.124404706
246	0xbcc190cd	-0.023628617
247	0xbd6fdc90	-0.058559954
248	0xbcc4f96a	-0.024044711
249	0xbdd9aad3	-0.10628285
250	0xbdf7aa5d	-0.12093041
251	0xbd5d6c39	-0.054058287
252	0x3b08a233	0.0020848631
253	0xbe4c8f57	-0.19976555
254	0x3de5beb5	0.11218015
255	0x3d4096b5	0.047018725

r_weight f4 [1, 32]
0	0x3e42bfd3	0.19018488
1	0xbee58f1a	-0.4483574
2	0xbea9ae57	-0.33140823
3	0xbed1b872	-0.40961033
4	0xbefc1519	-0.49234846
5	0xbe401830	-0.18759227
6	0xbdc2e991	-0.095172055
7	0xbed4daca	-0.41573173
8	0x3e4fdad0	0.20298314
9	0x3ddfe791	0.1093284
10	0xbdc81301	-0.0976925
11	0xbf2482db	-0.6426217
12	0x3f1d3e4d	0.6142319
13	0xbf071dec	-0.5278003
14	0xbe209e35	-0.15685351
15	0xbf10ec33	-0.5661041
16	0x3da1de51	0.079037316
17	0x3ddec1b3	0.10876789
18	0xbeeef6b4	-0.46672595
19	0xbed07cc5	-0.40720192
20	0xbf082ab2	-0.5319015
21	0xbcfe0812	-0.031009708
22	0xbf200207	-0.62503093
23	0xbd5621df	-0.052278396
24	0xbe331e8e	-0.17492124
25	0x3e0f3731	0.13985898
26	0xbe3d7160	-0.1850028
27	0xbcc42e83	-0.02394796
28	0xbf32c014	-0.6982434
29	0xbe6ede9e	-0.23327109
30	0xbeaaec95	-0.33383623
31	0xbda0d61e	-0.078533396

i_weight f4 [1, 32]
0	0x3c63fdf5	0.013915529
1	0xbda0de29	-0.07854874
2	0xbeb361d4	-0.35035574
3	0x3d06adbb	0.032880526
4	0x3e87f430	0.26553488
5	0x3e48d2dc	0.19611686
6	0xbe1a5dc9	-0.15074839
7	0x3e859854	0.2609278
8	0xbe8213dc	-0.25405777
9	0x3d56bcf1	0.052426282
10	0x3d673bad	0.056453396
11	0x3d13422a	0.03595177
12	0xbcb6d5ad	-0.022318685
13	0x3da7feb5	0.082028784
14	0xbb4595c9	-0.0030149093
15	0xbc881ba8	-0.01661475
16	0x3cc9035d	0.024537737
17	0x3dd3ce40	0.103420734
18	0xbcef5666	-0.029216003
19	0x3d9c7436	0.07639353
20	0xbad2dced	-0.001608757
21	0xbd1aa44b	-0.03775434
22	0xbe7cd7f0	-0.24691749
23	0x3d1dce03	0.038526546
24	0xbed2dd55	-0.41184488
25	0x3de1f2ea	0.1103266
26	0xbe9d4fd6	-0.30724972
27	0xbe2c14d2	-0.16804817
28	0x3e6c92b8	0.23102844
29	0x3e07ac52	0.13249329
30	0x3d6d5bee	0.057949
31	0x3be71edf	0.0070532407

j_weight f4 [1, 32]
0	0xbe05e921	-0.13077213
1	0x3bc073b3	0.0058731674
2	0xbd8983a9	-0.06714565
3	0xbd8affb9	-0.067870565
4	0x3ea6c1b8	0.3256967
5	0x3d24c588	0.040227443
6	0xbd86e064	-0.06585768
7	0xbe237cf8	-0.1596564
8	0xbe0644b0	-0.1311214
9	0xbad2111d	-0.0016026829
10	0xbd4fec37	-0.05076238
11	0xbe534b33	-0.20634155
12	0xbe141219	-0.14460029
13	0xbd7745df	-0.06036937
14	0x3d93ef92	0.07223429
15	0x3d7d14cc	0.06178741
16	0xbb270bd4	-0.0025489228
17	0x3cff0231	0.031128975
18	0xbedfee39	-0.43736437
19	0xbca280f8	-0.019836888
20	0x3c1df464	0.009640787
21	0xbc64225c	-0.013924208
22	0x3bbe57cc	0.005808806
23	0x3cce06d8	0.025149748
24	0x3da8fc6c	0.08251271
25	0xbd7e3a42	-0.062067278
26	0x3ec5cd26	0.38633078
27	0xbd155da0	-0.03646624
28	0x3e18c730	0.14919734
29	0xbcec3b45	-0.028836856
30	0xbda890f5	-0.08230773
31	0xbe43b4bd	-0.19111915

k_weight f4 [1, 32]
0	0x3cfd11b7	0.030892236
1	0xbdd84304	-0.10559657
2	0x3e562733	0.20913391
3	0x3cb3e938	0.021961793
4	0x3e8279f2	0.25483662
5	0x3d8e4e50	0.06948531
6	0xbdb5dd83	-0.08880141
7	0x3e1429a4	0.1446901
8	0xbd1fe1d9	-0.039033744
9	0x3cde4b88	0.027135625
10	0x3ba4a3c5	0.0050244057
11	0xbde1e5de	-0.11030172
12	0xbd880fb2	-0.06643619
13	0xbe7e8697	-0.2485603
14	0xbd1a918e	-0.037736468
15	0x3dba2570	0.09089172
16	0xbdca7b42	-0.09886791
17	0x3d98fd8e	0.07470237
18	0x3e477fe2	0.19482377
19	0x3d1582e0	0.036501765
20	0xbd86cdd3	-0.065822266
21	0x3dee0b06	0.11623196
22	0x3e11f8bf	0.14255045
23	0x3e35cdab	0.17754237
24	0x3e8da935	0.27668157
25	0xbea1c2e3	-0.31594
26	0x3e88772f	0.2665343
27	0xbccd7946	-0.025082242
28	0xbe6b0ae0	-0.22953367
29	0x3e251d58	0.16124475
30	0xbdd56e37	-0.104214124
31	0x3ddf29b5	0.10896627

bias f4 [128]
0	0xbcedb7a9	-0.02901824
1	0x3d909d89	0.070612974
2	0xbefd67c6	-0.49493235
3	0x3ddb188b	0.106980406
4	0xbf21f410	-0.63263035
5	0x3aa6b01e	0.0012717282
6	0xbe40a647	-0.1881343
7	0xbf24a39d	-0.64312154
8	0x3e107c7c	0.14109987
9	0x3db37268	0.08762056
10	0xbe96dc5f	-0.29465005
11	0xbf6ef569	-0.93343216
12	0x3d8a36df	0.06748747
13	0xbe705482	-0.23469737
14	0x3e19c9b9	0.15018357
15	0xbe9020bc	-0.28149974
16	0xbf1ba93d	-0.6080511
17	0x3e06c217	0.13159977
18	0xbfa11eb4	-1.2587495
19	0xbebf2c88	-0.37338662
20	0xbec20624	-0.3789531
21	0x3d80fb0e	0.06297885
22	0xbf6b19a1	-0.9183598
23	0xbdf6ac1d	-0.12044547
24	0xbe632b76	-0.22184548
25	0xbccf87a5	-0.025333235
26	0xbe974eff	-0.29552457
27	0xbed0d959	-0.40790823
28	0xbf0dd767	-0.554068
29	0xbe39c121	-0.18140079
30	0x3dc6cf5f	0.09707522
31	0xbd94d1f9	-0.072666116
32	0xbcf53949	-0.029934542
33	0xbd2edc47	-0.04269054
34	0xbf2aa50e	-0.66658103
35	0xbc0e706d	-0.008693797
36	0xbf67103f	-0.90259165
37	0xbdedeef3	-0.116178416
38	0xbe751774	-0.23934728
39	0xbef15b54	-0.4713999
40	0x3e058d17	0.13042103
41	0x3db8a338	0.090155065
42	0xbdd16a86	-0.10225396
43	0xbf598ca7	-0.84980243
44	0x3ded6962	0.11592366
45	0xbe100b99	-0.14066924
46	0x3dfd7463	0.12375715
47	0xbe5e2554	-0.21693927
48	0xbf3e6477	-0.7437205
49	0x3de7ceb0	0.113187194
50	0xbf912cae	-1.134176
51	0xbe30fc3b	-0.17283718
52	0xbeca3d02	-0.3949967
53	0x3df056e8	0.11735326
54	0xbf3bcf3d	-0.73363096
55	0xbe7ba35e	-0.24574038
56	0xbe9c1a5f	-0.3048887
57	0x3da4a216	0.08038728
58	0x3cb08ae1	0.021550598
59	0xbea3ff7a	-0.3203085
60	0xbefcf91d	-0.49408808
61	0xbd911f26	-0.07086019
62	0x3dfc7bcf	0.12328302
63	0xbe87fc71	-0.26559785
64	0xbd478f8a	-0.048720874
65	0x3d670086	0.056396984
66	0xbf011377	-0.50420326
67	0x3dbc66fe	0.09199332
68	0xbf6323b5	-0.8872636
69	0x3d1c0ccd	0.038098145
70	0xbe6564d0	-0.22401738
71	0xbf159475	-0.5842965
72	0x3e2981a3	0.16553359
73	0x3e424456	0.1897138
74	0xbf20da52	-0.6283313
75	0xbf9853cb	-1.1900572
76	0xbd429098	-0.047501177
77	0xbe854cca	-0.26035148
78	0x3dfdb8ef	0.12388789
79	0xbe357c15	-0.17723115
80	0xbf015702	-0.5052339
81	0x3e08afa3	0.1334825
82	0xbf9474a6	-1.1598098
83	0xbebb776f	-0.36614558
84	0xbebc0076	-0.36719102
85	0x3dea08ef	0.11427485
86	0xbf7b06ae	-0.9805707
87	0xbdef3d19	-0.11681575
88	0xbe0adb99	-0.13560332
89	0x3c6e0b61	0.01452908
90	0xbdbf4c58	-0.09340733
91	0xbe81adaf	-0.25327823
92	0xbf1650ba	-0.5871693
93	0xbd206164	-0.03915538
94	0x3e1e5b5a	0.15464535
95	0xbbfadb33	-0.007655525
96	0xbccece9a	-0.025245
97	0x3d1f8820	0.03894818
98	0xbf0fa844	-0.5611613
99	0x3c851b13	0.016248262
100	0xbf2974cf	-0.6619386
101	0xbc906696	-0.017627042
102	0xbea90337	-0.33010265
103	0xbf0e12e6	-0.55497587
104	0x3de11a3c	0.10991332
105	0x3df325c7	0.1187244
106	0xbe82a8fc	-0.2551955
107	0xbf665aa9	-0.89982086
108	0x3e1fa030	0.1558845
109	0xbe2cb1c8	-0.16864693
110	0x3c9b8432	0.018983934
111	0xbe35b0aa	-0.17743173
112	0xbf0bd5ea	-0.5462328
113	0x3e399ce1	0.18126251
114	0xbf942ae3	-1.1575588
115	0xbe8da159	-0.2766216
116	0xbf044a56	-0.5167593
117	0x3dde85f9	0.10865397
118	0xbf514d5a	-0.81758654
119	0xbdff1fd7	-0.12457245
120	0xbdd3c122	-0.103395715
121	0x3d249126	0.040177487
122	0xbd8d4c40	-0.06899309
123	0xbddfef30	-0.10934293
124	0xbeebdf1c	-0.46068656
125	0xbe01bd88	-0.12669957
126	0x3e0907ee	0.13381931
127	0xbe25d93a	-0.16196147

r_weight f4 [32, 32]
0	0x3e9fd5b4	0.3121773
1	0xbe82ec79	-0.2557104
2	0x3e814c5f	0.2525358
3	0xbecbca4c	-0.39802778
4	0x3d8f01fe	0.06982802
5	0xbe74014d	-0.23828621
6	0xbe1aad92	-0.15105274
7	0x3e615ca1	0.22007991
8	0xbef651cd	-0.48109284
9	0x3ed6b20f	0.41932723
10	0x3dc6e1fb	0.09711071
11	0x3e27b731	0.16378476
12	0x3e2dc607	0.16970073
13	0xbe6296c5	-0.22127827
14	0xbee5fe69	-0.44920662
15	0x3dacca95	0.08437077
16	0x3da5c97a	0.08095069
17	0x3db1d34e	0.08682881
18	0x3e5a7fde	0.2133784
19	0xbdcf504f	-0.101227395
20	0x3ea139a1	0.3148928
21	0xbef86ec0	-0.48521996
22	0xbe602158	-0.2188772
23	0x3ed88504	0.42288983
24	0xbe95b1ed	-0.2923731
25	0xbe5ebdf9	-0.21752156
26	0xbefbeee5	-0.492057
27	0xbe4e366c	-0.20137948
28	0x3e2cc177	0.16870676
29	0xbf3a6b7b	-0.7282025
30	0xbf3a8cbd	-0.72871
31	0xbdf9dbc8	-0.12200123
32	0xbd857a40	-0.06517458
33	0x3daacc56	0.08339755
34	0x3ecae291	0.3962598
35	0xbdb01eb8	-0.08599609
36	0xbe9a29ca	-0.30110008
37	0xbe3c8228	-0.18409026
38	0xbd229213	-0.03969009
39	0x3d96d9d3	0.073657654
40	0xbe87a26e	-0.26491112
41	0xbd80b5e5	-0.06284694
42	0x3ddb0b86	0.10695557
43	0xbd8ef40d	-0.06980143
44	0xbe2013a6	-0.15632495
45	0xbe6066b3	-0.21914177
46	0x3e439ee8	0.19103587
47	0x3dc3f83a	0.0956883
48	0x3e4ef070	0.20208907
49	0x3e5635fb	0.2091903
50	0xbd9a8110	-0.07544148
51	0xbe372633	-0.17885666
52	0xbce9f15e	-0.028557476
53	0xbde9075f	-0.11378359
54	0xbeab8407	-0.33499166
55	0xbceb9baa	-0.02876075
56	0xbe6ea10e	-0.23303625
57	0xbddb737f	-0.107153885
58	0xbe6ba21b	-0.23011057
59	0x3c37d878	0.011221044
60	0x3d7d2561	0.061803225
61	0xbee464cf	-0.4460816
62	0xbe251fdf	-0.16125439
63	0xbe80f3f6	-0.25186127
64	0xbe7f281d	-0.24917646
65	0x3d5969f1	0.05307955
66	0xbe0df0e5	-0.13861425
67	0x3eb374ae	0.35049957
68	0xbed062c5	-0.40700355
69	0x3ee68ea2	0.45030695
70	0x3e0b113e	0.13580796
71	0x3e1b3fc5	0.15161045
72	0x3e8dae53	0.2767206
73	0xbec33782	-0.38128287
74	0x3e0e748f	0.13911651
75	0xbe434403	-0.19068913
76	0x3e89799e	0.268506
77	0x3f07054d	0.52742463
78	0x3df65a27	0.12028914
79	0x3ddf6578	0.109080255
80	0x3d064d16	0.03278836
81	0x3c0a7e79	0.008453005
82	0xbdbe849d	-0.09302638
83	0x3e1a0ef5	0.15044768
84	0x3dc916e9	0.09818823
85	0xbe48a451	-0.19593932
86	0x3d23c9c7	0.03998735
87	0xbee0f248	-0.43934846
88	0xbed64d63	-0.41855916
89	0xbe188cbd	-0.14897437
90	0xbdd3ea64	-0.10347441
91	0x3ce47921	0.02788979
92	0xbea86897	-0.32892296
93	0x3f3bd354	0.73369336
94	0x3f07cbdd	0.53045446
95	0x3e762cf7	0.2404059
96	0x3e71e7e5	0.23623617
97	0x3e2109ef	0.15726446
98	0xbd688d9d	-0.056775678
99	0x3e8b4abd	0.27205458
100	0x3eb12f3a	0.34606344
101	0x3b72ab87	0.0037028508
102	0xbe2c36c3	-0.16817765
103	0x3d9d6d3d	0.07686851
104	0x3e818d12	0.2530294
105	0xbcc800b0	-0.02441439
106	0xbda3189d	-0.07963679
107	0x3e337f57	0.17529045
108	0xbcb92eea	-0.022605378
109	0x3e22a138	0.15881813
110	0xbeac44f8	-0.3364637
111	0x3dc41460	0.09574199
112	0x3bbf4d5a	0.0058380784
113	0xbee4c5f5	-0.4468228
114	0xbd23d3e2	-0.03999699
115	0x3d3a7b4e	0.04552775
116	0x3ed1082a	0.4082654
117	0x3e7ea73c	0.24868482
118	0x3e5fa4fa	0.21840277
119	0x3d0c9e55	0.034330685
120	0x3df1cb8b	0.11806401
121	0x3d0d55ca	0.034505643
122	0x3ea363d2	0.31912094
123	0x3d0fd452	0.035114594
124	0xbdded2e7	-0.1088007
125	0x3ebcc656	0.36870068
126	0xbe846550	-0.25858545
127	0x3df9a8d7	0.12190407
128	0xbecc5a4b	-0.39912638
129	0x3e9bb439	0.30410936
130	0x3db3d8d0	0.08781588
131	0x3ec2732c	0.37978494
132	0x3e0536ba	0.13009158
133	0x3f0cd6b7	0.5501513
134	0xbe0875b5	-0.13326152
135	0x3e1a9b85	0.15098388
136	0x3dd32307	0.10309415
137	0xbdea79e9	-0.11449034
138	0xbe7905d3	-0.24318628
139	0xbe119c40	-0.14219761
140	0xbe112090	-0.14172578
141	0x3e49a758	0.19692743
142	0x3d1f88f3	0.038948964
143	0x3e0ccf84	0.13751036
144	0xbe11217e	-0.14172933
145	0xbdb198a8	-0.08671695
146	0x3e3b7d9a	0.18309632
147	0x3e60f8d4	0.2196992
148	0xbe8ee8fb	-0.27912125
149	0x3ee5c39d	0.44875804
150	0x3eb0d385	0.34536377
151	0x3d87f285	0.06638054
152	0x3e52b80a	0.20578018
153	0x3ef5fa5d	0.48042575
154	0x3ee73e4a	0.4516471
155	0xbe8e79d7	-0.2782733
156	0x3e967a68	0.29390264
157	0x3ed4eff7	0.4158933
158	0x3e390f6e	0.18072292
159	0x3e88b2cc	0.2669891
160	0x3e991166	0.29896086
161	0xbdd59519	-0.10428829
162	0x3d890c9b	0.066918574
163	0x3c848b8b	0.01617982
164	0xbda13900	-0.078722
165	0xbe29879c	-0.16555637
166	0x3e94ed37	0.2908723
167	0xbd910e0d	-0.07082758
168	0xbe20ed11	-0.15715434
169	0x3e443bf1	0.19163491
170	0xbda4a5a6	-0.080394074
171	0xbc81b186	-0.01583172
172	0x3e7b54d3	0.24544077
173	0xbe76ac8a	-0.24089256
174	0x3dbce689	0.092236586
175	0x3cc95b26	0.024579596
176	0xbd03d640	-0.032186747
177	0x3e4b9c6d	0.1988389
178	0xbca389f7	-0.019963248
179	0xbe910efc	-0.28331745
180	0x3d676a51	0.056497876
181	0xbe85606c	-0.26050127
182	0xbe9a7c60	-0.30173016
183	0xbe2f6205	-0.17127235
184	0xbec4eb8f	-0.38460967
185	0xbe602fd1	-0.2189324
186	0xbe9bba6d	-0.3041567
187	0xbe958470	-0.29202604
188	0x3d18964e	0.037252717
189	0xbdab18c6	-0.083543345
190	0xbd74d8cb	-0.059777062
191	0x3cefa666	0.02925415
192	0xbe940b94	-0.28915083
193	0x3eeb2575	0.45927015
194	0xbe4d026b	-0.20020454
195	0x3e0ff162	0.14056924
196	0xbe384774	-0.17996007
197	0x3ee5a763	0.44854268
198	0x3e0024bf	0.12514018
199	0x3e7c184b	0.24618642
200	0xbe8338b7	-0.25629207
201	0x3e19fb48	0.15037262
202	0x3e582f09	0.21111692
203	0xbdb46e9b	-0.08810159
204	0xbe1a255a	-0.15053311
205	0x3e579b14	0.21055251
206	0x3e1e6cbe	0.1547117
207	0x3e814d7f	0.25254437
208	0x3dc4309e	0.095795855
209	0xbe468859	-0.1938795
210	0x3c0fafd4	0.008769948
211	0xbcb70786	-0.022342455
212	0xbdde9787	-0.10868745
213	0x3ee50446	0.44729823
214	0x3d93b579	0.072123475
215	0x3e557762	0.20846322
216	0x3ef5d1b1	0.48011544
217	0xbaf2e6ee	-0.0018531957
218	0x3e5b950d	0.21443577
219	0x3db74d2d	0.08950267
220	0x3ce52f6a	0.02797671
221	0x3f13b470	0.576972
222	0x3dac3f9f	0.08410572
223	0x3eac50be	0.3365535
224	0x3e68c445	0.22731121
225	0xbecdf105	-0.40222946
226	0x3ea87e31	0.32908776
227	0xbec7034a	-0.38869697
228	0x3d7336a6	0.05937829
229	0xbf27bc49	-0.65521675
230	0xbe064bfe	-0.13114926
231	0xbdc61617	-0.09672182
232	0x3e1ff7dc	0.15621895
233	0x3e8619d9	0.26191595
234	0x3c79e6fa	0.015252823
235	0xbd8da929	-0.0691703
236	0x3e4585cb	0.19289319
237	0xbe056637	-0.13027273
238	0xbdd128d9	-0.10212869
239	0xbdc6bc19	-0.097038455
240	0x3e926e45	0.28599754
241	0x3d3922e0	0.045199275
242	0xbda2fbec	-0.079582065
243	0xbec8191d	-0.3908166
244	0x3d19c187	0.037538078
245	0xbeda4839	-0.42633227
246	0x3da9bb1f	0.08287644
247	0xbe75ea31	-0.24015118
248	0xbdcff4d9	-0.10154123
249	0x3daf8d60	0.08571887
250	0xbe9077f4	-0.28216517
251	0x3e494125	0.19653757
252	0xbdd66e85	-0.10470299
253	0xbf0572f0	-0.52128506
254	0xbe3d7e5b	-0.18505232
255	0xbe87c59f	-0.2651796
