models/Old/VectorizedQLSTM_mse_batch10_epochs5.pth (torch, 170691 bytes, 22 tensors)

r_weight f4 [1, 128]
00000000: af57 88be 8b0b 7fbd a2e0 85bd beb2 27be
00000010: b6e7 fa3e 314d bbbd c0ef 9d3d 9d70 8b3e
00000020: 027c 08be adca 36be 9edd 11be 764c 0cbe
00000030: 1f1c f43d b2c0 b6bc a896 763e 9c90 0cbe
00000040: 5914 aebd 7332 d63d 98fd a6bc 8345 efbd
00000050: 2934 2dbe 2a7d e63c 0525 b33d c068 483d
00000060: 789f 85bd 5f00 febd 889d d63d 3465 5bbe
00000070: f636 d53d 5032 3a3d 16e3 05be 4b38 cfbd
00000080: 7e43 313e 1bb7 253e bb20 ec3d a326 c1bc
00000090: 05bc d0bd 7597 df3d 394b 39bd 75e7 0cbf
000000a0: 8672 8cbd a76e af3e 1644 073a a62c eb3d
000000b0: b78b 91be 0f95 143d 1730 163d 8b62 14be
000000c0: f35a 1fbc 705d 65be 863b 80bc ff68 573b
000000d0: 4773 443e 5415 00be c403 973e 17dc 063e
000000e0: 97e4 aa3e 0a48 993d f655 bfbe 5a41 b8bd
000000f0: 7069 0fbd 72e9 eabd 23bb 1f3e 5c00 943d
00000100: d754 8e3e 86b8 ffbd b5a4 103e 859e 103e
00000110: f1c7 2cbd 4693 c03d 0d45 40bc f1cf c9bd
00000120: 4ba5 a3bc dedc 993e c7cc 9e3d 2e8f 84be
00000130: 438a 723e c633 bd3c 4035 9a3b cac0 f3bd
00000140: 4fad 32be 765a 1ebe 6150 863d 5fa7 e93d
00000150: a065 c0bd 75f3 5a3e 877d 05be 1aae df3d
00000160: 5954 90bd c9b8 fd3c 733e 15be 053e 9fbc
00000170: 6213 5c3c eb0d 70bd 9bda fd3c 3d5a 303f
00000180: 9499 3a3f 1dbd 93be 6647 86bd ed7e 16be
00000190: 87c3 07be 4690 60be 62c6 c43d 3ef1 193e
000001a0: 6b00 b93d c4ec 943c a217 5f3c a0da 5bbe
000001b0: 2d71 c13d c8e8 a53d e531 de3d f432 0dbe
000001c0: 5a10 ca3e 3c42 9abd 4761 d43b e3be 903d
000001d0: ec28 62be e95d 1abe e818 063e eab1 833e
000001e0: 642d bcbe 2892 f93e bd78 03bf 2349 cd3e
000001f0: c9ec 253e 652c c93c 0c6b 29be 1143 c9ba
-0.26629397 -0.062266868 -0.06536986 -0.16376778 0.49004906 -0.091455825 0.07711744 0.27234355
-0.13328555 -0.17850752 -0.14244696 -0.13701043 0.11919426 -0.022308681 0.24080908 -0.13727039
-0.08499975 0.10458841 -0.020384595 -0.1168318 -0.16914429 0.028135855 0.08747295 0.048928022
-0.06524557 -0.124024145 0.104792655 -0.21425325 0.104108736 0.045458138 -0.13074908 -0.10118159
0.17310902 0.1618313 0.1152968 -0.023577994 -0.10192112 0.1091756 -0.045237754 -0.55040675
-0.06857781 0.3426411 0.0005159987 0.114831254 -0.28426906 0.036274966 0.036666956 -0.14490716
-0.009726274 -0.22398925 -0.015653383 0.003286898 0.191846 -0.12508136 0.2949506 0.13169895
0.33377525 0.074844435 -0.3737027 -0.0899684 -0.035012662 -0.114703074 0.1559873 0.07226631
0.27799103 -0.12486367 0.14125331 0.1412297 -0.042182866 0.0940309 -0.011735213 -0.09854115
-0.019976279 0.3005132 0.07753902 -0.25890487 0.23685555 0.023095977 0.004706055 -0.11902006
-0.17448924 -0.15464196 0.065583 0.11408877 -0.093943834 0.21381934 -0.13036166 0.10921879
-0.07047338 0.030971901 -0.14574604 -0.019438753 0.013432356 -0.058607023 0.030988028 0.6888769
0.7289059 -0.2885522 -0.06556587 -0.14696856 -0.13258182 -0.21930036 0.09608151 0.15033433
0.09033283 0.018179305 0.013616474 -0.21470118 0.09445415 0.0810104 0.108493604 -0.13788968
0.394656 -0.075321645 0.006481323 0.07067659 -0.22085923 -0.15074886 0.13095438 0.25721675
-0.3675338 0.4874432 -0.51356107 0.4009486 0.16203608 0.024557302 -0.16544741 -0.001535507

i_weight f4 [1, 128]
00000000: c962 98bd 3baf 4bbe a871 e0be 09af c0bc
00000010: 1d76 973d d193 013e b684 83be fe2a 803c
00000020: 0da2 1bbe ca03 1f3d 2a47 d83d d2b4 753d
00000030: 40b9 e03c 3f6b 3f3e f29e c23d 9022 f3be
00000040: 4d37 863e 0b9e b83d 1fcd 6bbe d038 0f3c
00000050: 7b56 a13d 4261 06bf 8d8c 1f3d 371d d43d
00000060: 8bf7 703d 5663 7b3e c8b0 d1be 8b05 073c
00000070: c4ae 993d bc2b b1bc cf0e c3ba 49e3 8e3e
00000080: 691b cfbd 30d4 5cbe e811 8b3d 2988 a6bd
00000090: 1607 3e3d e37d 043e 1375 d43e d6e3 013b
000000a0: b986 3d3e eb63 48bd 5254 6fbb d7b6 593d
000000b0: 8097 383e 8713 bcbc 1686 2a3d edf8 cb3e
000000c0: 2f58 0cbe 1649 9e3e 889a 42be c0ab ccbd
000000d0: 4846 21be c323 783e 22fd a43c 935d 83bd
000000e0: 5709 00bd 3cb0 9fbd 2394 973d b798 0e3e
000000f0: a64c bb3e 1bac d73d 3943 9dbe 2716 0f3e
00000100: 48cf f5bd 952f e1bd 5026 4fbe 4156 243e
00000110: 0fc0 8bbd 8800 20bd 7844 cbbd 3345 913d
00000120: 03f4 f03e 9902 afbd aa48 27be dc48 1f3d
00000130: 674d ee3b a337 503e 662e 3d3d 9e22 1cbd
00000140: b7d5 06be ad47 d3bd 4741 36be 8fbd 603d
00000150: 44d6 af3d 4140 56bd 571c 83bd 874f 2a3e
00000160: e29c 6abe 052e f43e f38a 313d 2de0 6bbd
00000170: 2aa2 8b3e 6b26 ee3d 2da5 d1bd f12c 123d
00000180: 9d3f 05bb 8b98 debd 24b3 fe3c 5d9c 843d
00000190: 697e 3dbc 940c d03d aa20 923d e830 93bb
000001a0: 19a8 f0bd ee43 d93e a0a6 ddbd 1d47 ce3d
000001b0: 4cd9 6abd 251d 373f b3f1 d83c 5aa3 3f3e
000001c0: fda0 163d 9344 293d 27f1 2cbd 44d7 063e
000001d0: 9b0e 07be 96ba 763e 3830 113d 3d41 94bd
000001e0: 515f 273e d42e 02be 88e7 17bd 0d05 8ebd
000001f0: 5ba7 50be 29ad b9bc 6901 c6ba 3f0a 4dbe
-0.07440717 -0.19891064 -0.43836713 -0.023520963 0.07395575 0.12654044 -0.25687188 0.0156455
-0.15198536 0.038821973 0.105604485 0.059986897 0.027432084 0.18693255 0.09502973 -0.47487307
0.26214066 0.09014519 -0.23027466 0.0087415725 0.07877823 -0.52492154 0.0389524 0.10357135
0.058829825 0.24549612 -0.40955186 0.008241068 0.07504037 -0.0216273 -0.0014881733 0.2790778
-0.1011265 -0.21565318 0.06790525 -0.08131439 0.046393476 0.12938647 0.4149557 0.0019819639
0.18508424 -0.048923414 -0.0036518765 0.053152885 0.18026543 -0.02295853 0.04163178 0.39838353
-0.13705514 0.30915135 -0.19004261 -0.09993696 -0.15749466 0.24232392 0.020140234 -0.06414332
-0.031258907 -0.07797286 0.07401302 0.13925444 0.36581916 0.105308734 -0.3071535 0.13973294
-0.120024264 -0.10995404 -0.20229459 0.16048528 -0.06823742 -0.039063007 -0.09925169 0.07093277
0.47061166 -0.08545417 -0.16336313 0.038887843 0.0072724107 0.20333724 0.046186827 -0.03811895
-0.13167463 -0.103164054 -0.17798339 0.054868277 0.0858579 -0.05230737 -0.0640189 0.166319
-0.22911409 0.4769136 0.043345403 -0.057586838 0.2727216 0.116284214 -0.10236583 0.03568739
-0.0020332106 -0.10868939 0.03109128 0.064751364 -0.011565783 0.10158649 0.071351364 -0.004491914
-0.11750812 0.4243464 -0.10822797 0.100721575 -0.057336137 0.71528846 0.026482439 0.18714657
0.036774624 0.041325163 -0.04222217 0.13168055 -0.13189165 0.24094614 0.035446376 -0.07239006
0.16344954 -0.12713176 -0.03708604 -0.06934557 -0.20376341 -0.022665577 -0.0015106621 -0.2002344

j_weight f4 [1, 128]
00000000: 5bf1 363e dccc 1cbc 2522 35bd fc8d a4be
00000010: e9a3 243e bb1f 173e 06bd aebd a710 d3bc
00000020: 3155 0e3e 208d 0fbe 7f12 fb3d 1b26 823e
00000030: bd9f ee3c 7a8e 93bd b147 cb3c 7b2d b63d
00000040: 7d16 05be f7c6 003f b6b8 163e dac9 c9bc
00000050: 63a6 083f 2f98 0dbe a267 fbbd 77ed a6be
00000060: 4a60 233f 0a19 3abb 847a ae3d 42f3 473e
00000070: 8e1c 06bf 83d3 533e bce2 563e 7212 073e
00000080: 9ab8 413d d9cb 58bb 0d15 c1bd 7241 03bf
00000090: 6ec3 9c3d 0d07 853e ed0e d33c f2f9 2abd
000000a0: 5b8c b4be 2200 213e 045d b9be cb1f 453d
000000b0: d5b7 89bd 855c 2ebe 4dc0 83be fbb8 66bd
000000c0: d0bc 963d 3fcc b1bd 919f 96bc ffe3 123e
000000d0: f240 62bd a05c 01bd a158 6abd 0ee4 28be
000000e0: 9e42 073e 16ac dd3c 6895 3dbd d37a 433d
000000f0: 4197 38bd 83e6 e13d 9193 63bd 3ab6 1dbe
00000100: a8fa 033e a656 583d f612 74bd 1119 8a3d
00000110: dd9e d53e f6ac 88be 24e0 dfbe 7d8c 933e
00000120: 8722 5bbd 02a2 f43d 2b86 be3e 92ac 93bb
00000130: c9ba a93d 80d2 3fbe 9691 9e3e 881e 66be
00000140: 0a53 aa3c e053 003c bc00 9e3d d76e f53d
00000150: 3b14 ddbc 66b7 a53e 6a69 11be 82d9 c5bd
00000160: 842b 0a3c 192a c4bb ebc4 d23c e70d 43be
00000170: ca8a f53c 8aa8 243e e717 f93e 8d48 173e
00000180: 36df 513c 5dd3 3ebe f910 f4bd dbde 2d3e
00000190: c63f 423e d89a 3abe 0d3e c2be 8d12 bd3d
000001a0: c02e c53e 758e 12be 9faf 5d3e 85c3 163d
000001b0: 6a53 903e 19d8 fcbd 15c7 193d c6e0 80be
000001c0: 9430 053e 9c30 383e 36f8 4ebc 71a7 89be
000001d0: 761a 54be 3218 d73d 1891 45bd b036 88bd
000001e0: e973 3abd 9771 59bc 2c79 623e ea6f dd3b
000001f0: cc96 18bd ca94 5c3e e524 85bd b7a1 31bf
0.17865507 -0.009570327 -0.044222016 -0.32139575 0.16078152 0.14758198 -0.08532147 -0.025764776
0.13899685 -0.14018679 0.12259387 0.25419697 0.029128904 -0.072049096 0.024814459 0.088953935
-0.1299686 0.50303596 0.14718899 -0.024632383 0.53378886 -0.13827585 -0.12275626 -0.32603046
0.638188 -0.0028396272 0.08519462 0.19526389 -0.5238732 0.20686154 0.2098493 0.1319063
0.04729519 -0.0033080487 -0.09427843 -0.51271737 0.07654463 0.25981942 0.025763953 -0.041742273
-0.35263333 0.15722707 -0.36203778 0.048126023 -0.06724516 -0.17027481 -0.2573265 -0.056328755
0.07360232 -0.08681535 -0.018386634 0.14344786 -0.055237718 -0.031582475 -0.05721343 -0.16493246
0.13209006 0.027059596 -0.046285063 0.047724556 -0.045066122 0.11030295 -0.055560652 -0.15401545
0.12888587 0.05281701 -0.059588395 0.06743062 0.41722766 -0.2669446 -0.43725693 0.28818122
-0.053499725 0.11944963 0.37211737 -0.004506656 0.082875796 -0.18732643 0.30970448 -0.22472584
0.02079155 0.007832497 0.07714984 0.11984032 -0.026987186 0.32366484 -0.14200369 -0.09660627
0.0084332265 -0.0059864637 0.025728663 -0.19048272 0.029973406 0.16079918 0.4865105 0.1477377
0.012809565 -0.18635316 -0.119173 0.16979544 0.1896964 -0.1822313 -0.37937966 0.09232054
0.3851223 -0.14312156 0.21649025 0.036807556 0.2818864 -0.12345905 0.037543375 -0.2517149
0.13006812 0.17987293 -0.01263242 -0.2688556 -0.20713219 0.10502662 -0.048234075 -0.06651056
-0.045520697 -0.013271711 0.22116536 0.006757726 -0.037253186 0.21541134 -0.06501178 -0.6938738

k_weight f4 [1, 128]
00000000: 86d7 d43c e3bc 8d3e dc18 a33d 839d 8c3d
00000010: f638 13bc 15e9 92be 8bcc c7bd 3d02 96bd
00000020: bad6 ee3c 41c5 9abe f5d6 94be 0a9e 7abc
00000030: 5a5d 433e 1db3 cfbd 0a92 d2bc 401e a73d
00000040: d150 ef3c 0579 00be 2a21 f5bd 7232 c03e
00000050: d49f 77be 165d aebd f32a 6c3e 7f8e 4d3c
00000060: 5482 6fbd d5e6 abbd e09b 183e 4ec8 d83b
00000070: 4885 c73d 519f 953e a017 353d 139f 35be
00000080: b350 bd3e 3785 863e 5b7b 43be 743c fabb
00000090: 103d 20bf 2a53 91bd 0b3d 993d f04b 9fbc
000000a0: 1514 7fbc ff60 9ebd baa8 b5be f8fc 213f
000000b0: 3ce1 aa3d 5577 99be c7ac 883e 199e bdbd
000000c0: bb92 b73e a6c7 a73c 6042 853e a4d3 02bc
000000d0: 96c1 4c3e a378 c6be 2b8f e43d 7e45 38be
000000e0: ad4e e13d ff33 59be 887e 32bd 90ff 153f
000000f0: 9f1d 473e 7581 d43b 4557 0c3e 776d 3d3e
00000100: 3021 68bd a951 d13e 5176 6fbd 2b21 ad3d
00000110: 88be f93c 61a1 d63c b777 11be f627 053d
00000120: 37c7 e63d 16d1 363e c255 4c3e 06f6 cf38
00000130: 530c 02be b1b1 a93d dc3a f93d 9804 ef3d
00000140: 5158 943c 0125 0d3e 8149 8c3e 725b ca3e
00000150: ecaf c83e 78db 8abd d830 893d e9db 19be
00000160: e7d5 ebbe 0c98 403e 66ef e73e 7b47 a0be
00000170: 08fd 7dbc e942 8f3e 2057 bebd 7d74 e0bc
00000180: 5700 1dbd 0610 d53c ef60 c0be 6c6b e5bc
00000190: 43c4 2d3d 0c72 88be 0ad0 9fbd a725 593e
000001a0: 6292 96bd 6cb8 87bd b6ef 4dbd 7210 943d
000001b0: 683f 8d3d 294f 803d 643f 743e d7bc d9bd
000001c0: eb14 8bba 9ecd 8b3d 1344 9ebe 6c16 043d
000001d0: 95b4 9bbd 188e 083e 9951 22be a398 07bd
000001e0: 16ca d23b 11dd 4d3d 92f8 1f3e 7990 9ebc
000001f0: dda9 e8bd 5e50 bcbd a55b 6fbe 38ed 1f3d
0.025981676 0.27683172 0.07963726 0.068659805 -0.0089857485 -0.28693452 -0.0975581 -0.07324646
0.029155124 -0.30228618 -0.2907025 -0.0152964685 0.1907858 -0.10141585 -0.025704402 0.081600666
0.029213341 -0.12546165 -0.11969216 0.37538487 -0.24182063 -0.085138485 0.23063259 0.012546181
-0.0584739 -0.08393637 0.14903212 0.006615675 0.09742218 0.2922311 0.044211984 -0.17736463
0.3697563 0.2627351 -0.19090025 -0.007636601 -0.62593174 -0.070959404 0.07482346 -0.01944539
-0.015568753 -0.07733344 -0.3548029 0.63276625 0.08343741 -0.29973856 0.2669432 -0.0925867
0.35854134 0.020480942 0.26027203 -0.007985029 0.19995722 -0.38763914 0.111601196 -0.17995259
0.11001334 -0.21211241 -0.0435777 0.5859308 0.19444893 0.006485159 0.13705166 0.18498789
-0.056672275 0.40882614 -0.058462445 0.08453592 0.03048636 0.026199998 -0.14205824 0.032508813
0.11268466 0.17853197 0.19954589 9.9163546e-05 -0.12700014 0.08285845 0.1216943 0.11670798
0.018108519 0.13783647 0.2739983 0.39522892 0.39196718 -0.067801416 0.06698769 -0.15025295
-0.46061632 0.18808001 0.45299834 -0.31304535 -0.015502222 0.27980736 -0.092939615 -0.027399296
-0.038330402 0.026008617 -0.37573954 -0.028005324 0.042423498 -0.2664951 -0.07803352 0.2120577
-0.07352139 -0.066269726 -0.050277434 0.07229699 0.068968594 0.062650986 0.23852307 -0.106317215
-0.0010611092 0.06826328 -0.30911312 0.032247946 -0.07602803 0.13335454 -0.1585144 -0.03310455
0.006432782 0.050259653 0.15622166 -0.019356 -0.11360524 -0.09195016 -0.23374803 0.03904459

bias f4 [512]
00000000: 4dc9 76bf 4307 9fbe d52c 1e3d 499c a9be
00000010: fd91 dbbc ec8f 2ebf ecd6 6dbf a5a9 57bf
00000020: 3672 9abf 8c6b 453e 326d 313e a387 5dbf
00000030: 8a5c 97bf edf0 88be 6bd6 27be 439a fe3d
00000040: c2b0 84bf 3d42 203e d862 5fbf f11a 61be
00000050: 1416 7f3c 20ea c13d 30cc 54be e4c9 51bc
00000060: 3c74 713e bcc4 6ebf f975 b93e a22d 93bf
00000070: 3eaf b93c 3ee6 1abf 55a2 5cbf bbbd 88bd
00000080: cb4b af3d 6b06 da3e fb23 babf d4cf 743c
00000090: 0ee4 873e 63c3 70bf 4505 943d 31dd dd3e
000000a0: d0ff 03be 1ac0 d3bd 801d ab3d eeb7 523e
000000b0: 6fee 65be ae16 cfbd 9049 1bbe efb9 803e
000000c0: 7775 30be 4c1e 6fbd e729 5abf f51c dbbf
000000d0: e891 35bf 0faa 293e f61a 6abf d01b 87bf
000000e0: 0d07 7c3e 9081 afbf 6450 29bf 009e 4b3e
000000f0: 65de 7ebe 8d03 d8bf 90ae c2be 684d a3bf
00000100: f679 35be 2fc6 3dbc 47e9 78bf 9c11 88bf
00000110: a6ba d3be 35a8 52bf af38 643d 16c9 abbf
00000120: 613d 3e3d 1d91 a1be 8d39 4b3e 3fd8 86bf
00000130: 9e21 1cbf 46c8 16bd f547 54bf a296 fcbe
00000140: 4da8 62be 7698 fbbe e3f6 b3be af7c 863d
00000150: 3e64 51be 17bb 5abe d554 6ebf 4b7a 9bbf
00000160: 5c2c 363d 03d6 693c eaf0 d9bd 2eeb 09be
00000170: 99df b8bf 91bd cebd d201 aa3e 834a bb3d
00000180: 89fd 6b3e d481 69bf 7e35 d2be 3f93 95bf
00000190: ee74 9fbf ad28 db3e eff5 9cbe 537f 8dbf
000001a0: faac eb3d be57 b93d 1997 a7bf 7d97 a3bf
000001b0: d154 a9bf 2f34 9c3e 81f3 92bf 8518 60be
000001c0: 4b29 5cbe 9f15 d5bf 0e74 87bf 5072 3fbf
000001d0: 5c70 77bf be9b ccbd 2e4a cfbf 4113 23bf
000001e0: 20a9 0fbd 60eb 243d a42c 863d ef23 08bf
000001f0: 73b5 5ebe 5b8a 6ebf b53e 12bf 2ea3 5b3e
00000200: 9ecc 5ebf eb48 07bf 41c1 05bf 2e74 0dbf
00000210: f62a 42be c223 65bf 9f43 93bf a436 7dbf
00000220: 81b5 9dbf dede 24bf e04c 0abf 59e8 72bf
00000230: fb41 87bf c2b2 49bf 31d6 d6be c802 dcbd
00000240: a223 9dbf ce6c f0bd 64c3 72bf 6e7e a0be
00000250: 5a73 9fbe 5bdd 59be d21c 8dbe b2f7 64bf
00000260: d1a5 42be c1fc a6bf f962 a73d 4b53 81bf
00000270: 9037 7fbe 4c93 66bf 19fe 6fbf 8c9d 99be
00000280: 1876 aebd abb8 52bf 19ce a4bf 0425 94be
00000290: 24f2 09be 8222 64bf a854 35bf 696f ce3d
000002a0: 3b7f edbe c6f9 23bf ba94 18be d55e fdbd
000002b0: 2676 2fbf 813a 0abe 67c7 a1be 3a5b 84be
000002c0: 1e88 b7be 9590 cebe 0113 7cbf 96d2 9fbf
000002d0: 3f39 74bf 7992 c7bd 9e79 94bf 02b8 85bf
000002e0: 8f2b 12bf 8591 92bf 37c2 64bf c033 8ebd
000002f0: 0c24 27bf 05ab 9cbf cf93 31bf d8aa a4bf
00000300: 5aa0 7abe 5162 f1bd ccea 87bf 0602 7fbf
00000310: f70a 3bbf 5b7c 64bf 7464 15be d41e 88bf
00000320: fdbb d5bd 093e 60bf f170 43bd 852c 4dbf
00000330: 0f8b 1ebf b5f5 b8be 8610 7cbf b3de 5bbf
00000340: f033 bfbe 4e9f c6be 50a0 d4be e024 28be
00000350: 46e0 aabe 9a54 12bf fdff 48bf dd8b 88bf
00000360: 9db7 27be 1392 81be 8b26 50be 2bae 8dbe
00000370: fcc9 8abf 0a13 43be f532 b1bd a06e 22be
00000380: 19e1 36be 575d 65bf 188e 3bbf 18ef 8fbf
00000390: 9769 92bf f7bb 7ebe e4ac 22bf ea4d 97bf
000003a0: bdb8 69be 3d23 ddbd f031 9bbf 77cf 7bbf
000003b0: 4e05 8fbf e87f b6bd 2872 9abf aaa1 87bf
000003c0: 285f ecbe c179 9cbf 2577 70bf 47ea 65bf
000003d0: 169a 7abf ac7f 93be f670 9abf f664 7bbf
000003e0: 9e52 8ebe 2811 5fbe e6ab f5bd bba1 59bf
000003f0: 49f0 76bf a54a 53bf 0d42 09bf dc6b d0bd
-0.9640091 -0.31060228 0.038616974 -0.3312705 -0.026803011 -0.6818836 -0.9290607 -0.8424323
-1.2066104 0.19279307 0.17326811 -0.8653509 -1.1825116 -0.26746312 -0.16390388 0.12431767
-1.0366442 0.15650268 -0.872602 -0.21982934 0.015569229 0.09468484 -0.20781016 -0.012804482
0.23579496 -0.9326894 0.36222818 -1.1498301 0.02266657 -0.6050757 -0.861852 -0.06676813
0.08559378 0.42583022 -1.454223 0.014942128 0.2654118 -0.94048136 0.072275676 0.43332818
-0.12890553 -0.10339375 0.08355236 0.20577976 -0.22454236 -0.10111748 -0.1516478 0.25141856
-0.1723231 -0.058378503 -0.8522019 -1.7118212 -0.7092576 0.16568778 -0.9144739 -1.0555363
0.24612065 -1.3711414 -0.6613829 0.19884491 -0.24889524 -1.6876084 -0.38023806 -1.2757998
-0.17722306 -0.011582895 -0.9723095 -1.0630374 -0.4135334 -0.82287914 0.05571812 -1.3420742
0.046445254 -0.31556025 0.19846173 -1.0534743 -0.60988796 -0.03681209 -0.829223 -0.49333674
-0.22134514 -0.49139756 -0.35149297 0.0656675 -0.20448396 -0.21360432 -0.93098193 -1.2146696
0.0444759 0.014272216 -0.10641654 -0.1346862 -1.4443237 -0.10094751 0.33204514 0.09145071
0.23045935 -0.91213727 -0.41056436 -1.1685561 -1.2457559 0.4280447 -0.30656382 -1.1054481
0.11507602 0.090499386 -1.3092986 -1.2780606 -1.3229009 0.30508563 -1.1480561 -0.21884353
-0.21500127 -1.6647223 -1.0582292 -0.747838 -0.9665582 -0.09990643 -1.6194513 -0.63701254
-0.0350734 0.040263534 0.06551483 -0.5317983 -0.21748905 -0.93179864 -0.57126933 0.21448967
-0.8703097 -0.5284564 -0.5224801 -0.552554 -0.18961701 -0.8950769 -1.1505011 -0.989115
-1.2321016 -0.6440257 -0.5402355 -0.94885784 -1.0567011 -0.7878839 -0.4196029 -0.10742718
-1.2276499 -0.11739503 -0.9482939 -0.31346458 -0.31142694 -0.21275847 -0.2756105 -0.89440453
-0.19008566 -1.3045884 0.081731744 -1.0103544 -0.24923539 -0.9006851 -0.937471 -0.3000301
-0.08518618 -0.8231303 -1.2875396 -0.2893449 -0.13471276 -0.89115155 -0.708323 0.100798436
-0.46386132 -0.64053 -0.14900485 -0.123716034 -0.68539655 -0.1349888 -0.31597444 -0.2585085
-0.35846037 -0.40344682 -0.984665 -1.2486141 -0.9539985 -0.09744734 -1.1599615 -1.044678
-0.57097715 -1.1450659 -0.8935885 -0.06943464 -0.6528938 -1.2239691 -0.69366163 -1.2864637
-0.24475232 -0.117863305 -1.0618529 -0.9961246 -0.73063606 -0.8925225 -0.14589101 -1.0634408
-0.104362465 -0.8759466 -0.04771513 -0.80146056 -0.61930937 -0.3612496 -0.9846271 -0.8588669
-0.37344313 -0.38793415 -0.4152856 -0.16420317 -0.33374232 -0.5716034 -0.7851561 -1.0667683
-0.16378637 -0.25306758 -0.20327203 -0.27671942 -1.0842891 -0.19050232 -0.086522974 -0.15862513
-0.17859305 -0.8959555 -0.7326369 -1.1244841 -1.1438473 -0.2487639 -0.6354506 -1.1820652
-0.22824378 -0.10797737 -1.2124615 -0.9836344 -1.1173494 -0.08911115 -1.2066088 -1.0596211
-0.46166348 -1.2224656 -0.939318 -0.89810604 -0.97891366 -0.28808343 -1.2065723 -0.9820093
-0.27797407 -0.21783888 -0.11995678 -0.85012406 -0.96460396 -0.82535774 -0.5361641 -0.101768225

r_weight f4 [32, 128]
00000000: 2927 9d3d d007 423e fe3a a33e fcab 3b3e
00000010: 9547 03be 9f78 41be 4ad9 173e aaaa 70be
00000020: bf22 0f3e 2cc6 823e 287a 853c a07a a43d
00000030: fe9f dbbd 0e92 2bbe 40d6 bebe 4e86 9a3e
00000040: a914 afbd 548d 10bd e04a 3d3e 2799 1f3e
00000050: 9c77 c23b 49b1 abbd af10 f2bd e6e6 ab3d
00000060: 25aa be3c 816b fabc 1f79 a03d b8a8 9b3c
00000070: 22ee c9bb da25 9bbc 6c0e 2fbe 7aa4 3dbd
00000080: e3a7 1d3d 507a af3d 0931 a8ba 44e9 a23d
00000090: 95ee 1e3d 7e2b 96be d5f7 a2be be65 c03e
000000a0: 7522 4cbd 3099 b8be 5ead babd 7a0c 09be
000000b0: cd2f 583e 03ca 6b3c 6184 013e ae42 babd
000000c0: a7f4 3c3e b6a0 20be 5439 cc3d 15d1 82bb
000000d0: 5073 29be f856 57be 7168 79be 8b36 00bd
000000e0: 64fa ddbe b83e 6e3c c844 813e b3eb 45bd
000000f0: fbce 62be 9958 c9bd 06c7 0e3d 9f7e efbd
00000100: e0c7 9cbe 2ecb 0d3c 96d9 e43d 3570 6bbe
00000110: e527 8ebd 3174 e03d 5cd6 813d 2207 d73d
00000120: 9ce6 1dbe 7ce7 79be dc37 84bd 9bf7 483e
00000130: b126 a3be c955 97bd 9b5b 76be fe33 6c3e
00000140: 36d8 a73e 08a9 4fbd a57c 053e f3eb 02be
00000150: 143d 413c 5471 8cbe f8ea 1b3e 6d29 68bd
00000160: bfe0 c73c 30e6 a0bc 390c e53d 2445 29bd
00000170: 6127 81bd acbf c1bd a4ec 17be 9dfe 84be
00000180: 4064 85be 0b3f eb3e a0b8 e6bb 4e1e a4bd
00000190: 6ade eabc 22dd 463e acae 053c a9a5 24be
000001a0: 7e1c 67be 90a2 8cbe 513a 26bb 85c8 903d
000001b0: 8b68 1abe fd5f a6ba e7f9 42be ad20 1c3e
000001c0: 93fd a4be 894c 463a 49a7 00be fe91 03be
000001d0: d7b1 5c3e 7294 c3bd 39a8 9dbd b12b 30be
000001e0: bb82 3d3d 00e7 2cbe d2cb db3d 3e63 cebe
000001f0: ca22 523d 66a6 16bd 602a 863e e768 b83d
00000200: ad63 abbe 023f 4fbe dddb 12bc d860 20bd
00000210: 036c 9dbc fe75 41bd b201 bcbc 8abb 533e
00000220: 8848 8cbe 0d9d f8bd 1306 2bbd 29a2 f7bd
00000230: 7eb8 7f3d 52c8 a8bd 2ded 643e 0f03 73be
00000240: 9031 693b 3ff1 4e3d a263 11bd 0fce 8bbd
00000250: 42a5 ce3d cfae 143e 6b82 a63d 3651 a63c
00000260: 4cff 85bd b60b 7ebd d648 46bd 8913 e9bd
00000270: 8b7a d03d 8461 8abd 117c 9fbe 0673 66be
00000280: fbaa 883d b825 df3c 9b12 7e3e d882 473d
00000290: fbc2 873c 3d46 f23d 4f94 d3bd b9cf abbe
000002a0: 7b58 653d 6da5 833e 42fd ab3d 5264 2abd
000002b0: 6377 86be 37e7 2d3e 2d13 74bd 401a 0c3c
000002c0: 8b14 2fbe 3601 a7be 0c09 4ebd e017 c5bc
000002d0: 9269 34bd 75aa abba 9c79 663e 5193 153e
000002e0: 3c4d b53e 498a 3e3d bac6 b7be 4873 33be
000002f0: cb33 1fbe 49d2 0dbd 8f87 783d 0464 9fbd
00000300: 892a afbd cc15 92bd 7453 973e 54d8 babc
00000310: 5c74 07be 402f 393e ad1f b03d e1df 7ebd
00000320: 63c3 1dbd d06a bb3d 2bcd 413d 4f5f 41be
00000330: 053a 6b3e 68fa 9d3c 69e1 44be 88da 14be
00000340: a576 34be 5180 89be 3372 83bd 4eed 3cbd
00000350: 708b 13be 67d2 003c d22d 14bd 51dc 963e
00000360: 47eb c03d 5647 19be 77a7 54be 0b0f 743d
00000370: 57fe a33d d3ce 10be 77fc 833d 84ab 1c3e
00000380: ec90 db3e ec5c 1abe fb44 a63d 4843 8fbe
00000390: 9719 70be 7428 62be 17f4 a03e f4e1 12be
000003a0: 3154 bd3d 886f b83d e06b e13d 1368 abbe
000003b0: 354d 073d 2ebc c33d 8f94 0cbe 5c46 543d
000003c0: f703 083e 4c7b 93bd c674 393d df89 643e
000003d0: a67b aabd 461e 60be 9ff3 5d3e 17af a43e
000003e0: c654 51be bed6 813e 2838 c8bd 06df cb3e
000003f0: 49f2 fe3d 420a 3d3d 6117 a53d 98cc 363d
0.07673485 0.18948293 0.31880945 0.18327326 -0.12820275 -0.1889367 0.14828983 -0.23502603
0.13978098 0.25541818 0.0162936 0.08031201 -0.107238755 -0.16754934 -0.37272835 0.3018059
-0.085488625 -0.03529103 0.18485594 0.15585767 0.0059346687 -0.08383424 -0.118195884 0.0839365
0.02327449 -0.03056884 0.07835602 0.01900135 -0.006162421 -0.018938947 -0.17095345 -0.046299435
0.038490187 0.08568251 -0.0012831996 0.07954648 0.03880175 -0.29330057 -0.31829706 0.37577623
-0.04983755 -0.36054373 -0.091150984 -0.13383666 0.21111985 0.014391425 0.12648155 -0.090947494
0.18452702 -0.15686306 0.09971872 -0.0039922097 -0.16547894 -0.2102927 -0.24356247 -0.031302016
-0.43355095 0.0145413205 0.25247788 -0.048320483 -0.2214927 -0.09831352 0.034857772 -0.11694073
-0.30621243 0.008654399 0.11174314 -0.22992022 -0.06941203 0.10959662 0.06339714 0.10499407
-0.15420002 -0.2440471 -0.06455967 0.19625704 -0.31865457 -0.07389409 -0.24058382 0.23066708
0.32782143 -0.05069831 0.1303583 -0.1278532 0.011794347 -0.27430212 0.15226352 -0.05668013
0.02439916 -0.019641012 0.11183972 -0.041325703 -0.06306339 -0.09460387 -0.14836365 -0.25975505
-0.26053047 0.45946535 -0.007041052 -0.08013593 -0.028670508 0.19420293 0.008159321 -0.1607882
-0.22569463 -0.27467775 -0.002536435 0.07069496 -0.15078942 -0.0012693402 -0.19040643 0.1524684
-0.32224712 0.0007564505 -0.12563814 -0.1284866 0.21552216 -0.09549798 -0.076981016 -0.17204167
0.046267252 -0.16884995 0.10732235 -0.4031009 0.05130271 -0.036779784 0.26204205 0.090043835
-0.33474484 -0.2023888 -0.008963552 -0.039154857 -0.019216543 -0.047231667 -0.022950027 0.20677009
-0.27399087 -0.1213933 -0.04175384 -0.120914765 0.062431805 -0.08241333 0.223561 -0.23731636
0.003558252 0.05052304 -0.035495408 -0.06826412 0.10090114 0.14519809 0.08130344 0.020302396
-0.06542835 -0.062022887 -0.048409306 -0.11380679 0.10179623 -0.06756881 -0.31149343 -0.22504815
0.06673237 0.027239665 0.24811785 0.048708767 0.016572466 0.11829803 -0.10331022 -0.33556917
0.055992585 0.25712147 0.083979145 -0.04159958 -0.2626296 0.16982733 -0.0595886 0.00855118
-0.1709768 -0.3261811 -0.050301597 -0.024059236 -0.044045992 -0.0013097065 0.22507328 0.14606978
0.35410488 0.046518598 -0.35893804 -0.17524445 -0.15547101 -0.03462437 0.060676154 -0.07782748
-0.08553035 -0.07133064 0.29555857 -0.022808231 -0.13227981 0.1808443 0.08599792 -0.062225226
-0.038516413 0.09151232 0.047314804 -0.18884014 0.22971351 0.019284442 -0.19226612 -0.14536488
-0.17623384 -0.2685571 -0.06418266 -0.04612475 -0.1440866 0.007862664 -0.03617651 0.29464963
0.094198756 -0.14968619 -0.20767008 0.05958466 0.08007496 -0.14141397 0.06444638 0.15299803
0.42884004 -0.1507451 0.08118626 -0.2798102 -0.23447262 -0.22085744 0.31436226 -0.14344007
0.09244574 0.09005648 0.11006904 -0.3347784 0.033032615 0.09557377 -0.13728546 0.051824912
0.13282762 -0.072012514 0.04527738 0.22318219 -0.08324365 -0.21886548 0.21674965 0.32164833
-0.20442495 0.25359148 -0.09776336 0.3981859 0.12448556 0.04615236 0.080611 0.04462871

i_weight f4 [32, 128]
00000000: 5b0d ddbd 353c ecbc 9051 98bc 7344 efbd
00000010: 32c5 acbc 4a7c 033d cf9e 323d 62db c23d
00000020: c518 ccbd b893 e7bc 741b 5fbd 9d5a 84bd
00000030: 06b8 513d ddb2 2b3e 2d2e be3b 14c3 94bd
00000040: 3a48 8d3c 900a dd3c 694c 86bd cdd1 b8bd
00000050: 2909 0f3c 01e5 27bd a620 b3bd 6254 793d
00000060: b971 64bd 6977 5d3d eb1a d1bc e719 25be
00000070: 9d6f a23d 0429 d1bc 1e42 14bd 7027 5fbd
00000080: 58c2 ad3d df83 c1bc c6bf 163e c8a6 97bc
00000090: ae93 acbc 2f7c 5abc e731 c83d 1cac 9fbe
000000a0: 67f0 9d3c 188e db3d 7c66 b0bc 6a68 853d
000000b0: 66c2 97bc da6e 4c3c 4a0f 133b a5a0 c53d
000000c0: 6a74 c8bc cb65 8eba 6cfa 09bd c7bb b6bd
000000d0: 067e d73b 291d 36ba 02ed b03d 9ed4 71bd
000000e0: 011d 003d 6e7c 4b3c 3d7f 45be 7e16 793d
000000f0: 7671 ea3d a0e5 93bd 2793 1abc 15d5 d63d
00000100: c758 ae3c 28c8 5d3d bca2 02bd e74a 103e
00000110: 69bc 5bbc ba6a d33c f49e 90bc 6630 143d
00000120: dffb 1b3e 6856 873d 067f 4dba be81 c9bd
00000130: 97d4 c03d d598 9a3d b889 0c3d 1981 a2bc
00000140: d5c3 92bd 8b3d 29bd cb44 933c 3d09 cb3d
00000150: 804f 50bd 81ad da3d 53a0 ccbd 48c5 1c3d
00000160: ba49 b33d 67f1 413c ea75 93bd b1f8 d9bc
00000170: 0d8f d93d c75d 873a 4791 1cbd d9b3 c1bd
00000180: c669 873d bd58 05be d811 dfbc d3f8 c5bd
00000190: 78d0 6ebc 783a 7b3d 0e94 1b3d d505 833d
000001a0: 3f8e 98bc d235 f83c 087c 8cbd af1b 363d
000001b0: 1ee9 15bc 8c51 d83d c2ea e33c 7e5c 9d3c
000001c0: 104f 813d a0cc 89bd a35c 19bd 255c 173e
000001d0: 04d0 d3bd d8ab a9bd 4df7 e13c ab3d 3bbd
000001e0: b41c a2bd 3e7b b73c 9585 043d 9095 073e
000001f0: 0b44 56bd e202 38bd 67af 4fbd b0ab 88bd
00000200: 6c64 9f3e 621e 623e b72f 5ebe 5a3e d7bb
00000210: ffef 1a3e 0e23 f33d e3e5 313e aeca b13e
00000220: 6a9b 1b3c ef62 b3be fa7e 92be 5575 babd
00000230: 0943 86bd 6f4e 92be 2b68 173f 8b96 903d
00000240: 498e a93c c742 98be 60b9 d13d 1328 663d
00000250: 937e b03d 0818 5fbe dbfa b83d de55 a0bd
00000260: a9a5 20be dafa ee3d fdfd 883d 8b72 8c3d
00000270: 0bc2 263d 6722 31be cf1e b6bd 62d4 0cbe
00000280: 9323 bdbd 50bd 523e 95f1 f43d 6813 ae3e
00000290: 2885 97bd cead 1fbe d232 523d f191 2f3e
000002a0: 97a7 d43d fca3 4d3e 5e74 c63b 3a49 8dbd
000002b0: 8e16 4fbd 8a27 64be a3c3 733e c843 07bf
000002c0: 7225 42bb 945c 353e 1289 82bd eab7 7a3d
000002d0: f771 a8be c983 363d c90f 083e eaff d7bb
000002e0: 8412 073f 394a 4a3e 62aa b63e a338 42be
000002f0: e612 85bd 9591 a33d ed1c d1bb b1f3 43be
00000300: 3a79 7b3e 80eb 343d 145e 813e 2dc2 803e
00000310: 10bf 533e adbb e9bd 29a5 8d3e 4a2f 09be
00000320: 372c b23d aa47 183e 7a3c 8d3d f861 66be
00000330: 3ac2 4dbe 383c a73e a308 8d3c 54bc 0bbf
00000340: e8ad 92be e9d6 c33d 66a4 a53e 29fa 01be
00000350: 7350 6b3e 70cd e33e da1b 563e a465 003e
00000360: c195 54be 380a 87be aa4f 9bbd d3bf 4f3d
00000370: 51ff a53b 5c15 05be bf29 5bbd 8748 ab3d
00000380: 1342 0d3e 7f6d 3b3f 8f11 313d ca4a dd3e
00000390: 57fe 6b3e afbb efbe 38d0 433d 30c1 233e
000003a0: 47a9 6dbb 28f2 d8bd 8fe1 043f 19fe 833c
000003b0: cd95 913d 3ea8 b3bd 6866 debc 7e07 5ebe
000003c0: e011 713e e304 373e e291 6f3e 5029 27be
000003d0: af81 af3e 518f 40bd d406 563d dd39 dc3e
000003e0: ea27 903e c91a 923e bc2f 823d 0a82 313e
000003f0: 6ec8 27be 40bf 5f3e 4e65 5d3e 108f cc3c
-0.10793563 -0.028837303 -0.01859358 -0.116829775 -0.021090124 0.032100953 0.043608483 0.095145
-0.09965662 -0.02826868 -0.05446954 -0.064625956 0.05120089 0.1676745 0.0058038444 -0.07263771
0.017246354 0.026982576 -0.06557543 -0.09024391 0.008730211 -0.04098988 -0.087464616 0.06087149
-0.055772517 0.054068957 -0.02552553 -0.16123162 0.07931445 -0.025532253 -0.036195867 -0.05448097
0.08484334 -0.023622451 0.14721593 -0.018512145 -0.021066513 -0.013335272 0.09775143 -0.31185997
0.019279672 0.107204616 -0.021533243 0.06514056 -0.018525314 0.012477601 0.0022439533 0.09649781
-0.024469573 -0.0010864077 -0.033686087 -0.089225344 0.0065763025 -0.0006947094 0.08638956 -0.05904066
0.03127766 0.012419803 -0.19286819 0.060812466 0.11447422 -0.07221532 -0.009434498 0.10489861
0.021282567 0.054145962 -0.031893477 0.14091073 -0.01341162 0.025807727 -0.01765392 0.03617897
0.152328 0.066082776 -0.00078390574 -0.098391995 0.09415548 0.07548682 0.034311026 -0.01983695
-0.07166258 -0.041318458 0.017977139 0.099138714 -0.050857067 0.106776245 -0.09991517 0.03827408
0.087542966 0.01183734 -0.07200225 -0.026607843 0.10622988 0.001032763 -0.038224485 -0.09458131
0.066119716 -0.13022132 -0.027230188 -0.096666 -0.01457607 0.061335057 0.037982993 0.06397597
-0.018622516 0.030299101 -0.068595946 0.044459995 -0.009149818 0.10562429 0.027821902 0.019209143
0.06313908 -0.06728482 -0.03744186 0.14781244 -0.1034241 -0.0828473 0.027583743 -0.045713108
-0.07915631 0.022397634 0.032353956 0.13240647 -0.052310985 -0.044924624 -0.050704386 -0.06673372
0.31131303 0.22081903 -0.2169789 -0.006568712 0.15130614 0.118719205 0.17372851 0.34724945
0.009497503 -0.35036418 -0.286125 -0.091044106 -0.06555755 -0.28575465 0.5914332 0.07059964
0.02069773 -0.29738447 0.102404356 0.05619056 0.08617892 -0.21786511 0.09032222 -0.07828878
-0.15688194 0.1166894 0.066890694 0.06857785 0.040712398 -0.1729828 -0.08892595 -0.13752893
-0.09235301 0.2058003 0.119601406 0.3399918 -0.073984444 -0.15593645 0.051317997 0.17145516
0.10383528 0.20082086 0.0060563525 -0.068987325 -0.05055862 -0.22280708 0.23805098 -0.528378
-0.002962437 0.17711097 -0.063738 0.06121055 -0.32899448 0.044559274 0.13287272 -0.0065917866
0.5276263 0.19754876 0.35676867 -0.18966918 -0.06497745 0.07986752 -0.006381622 -0.1913593
0.24557963 0.044169903 0.25267088 0.25148144 0.20678353 -0.114127494 0.2766507 -0.13396946
0.086998396 0.14871088 0.068963006 -0.2249831 -0.20093623 0.3266313 0.017216032 -0.5458424
-0.28648305 0.09562475 0.3235199 -0.12693085 0.22979908 0.44492674 0.20909062 0.12538773
-0.20760252 -0.26374984 -0.07583554 0.050720047 0.0050658365 -0.12996429 -0.05350661 0.08363443
0.13794737 0.7321395 0.043229636 0.43221122 0.23046242 -0.4682288 0.047805995 0.15991664
-0.0036264227 -0.10593063 0.51906675 0.016112374 0.0710865 -0.08772324 -0.02714844 -0.21682546
0.23541975 0.17872958 0.23395494 -0.16324353 0.34278628 -0.047011677 0.052252606 0.43012896
0.28155452 0.2853606 0.06356761 0.17334762 -0.16385052 0.218503 0.21620676 0.024970561

j_weight f4 [32, 128]
00000000: 8d4f 31bf fbf8 0fbe d5ca 2dbe 434b f8bc
00000010: 5590 ec3c 0c92 13be 8893 22be 684b 753d
00000020: 55e1 70be 9ef4 fcbc e81f 41bd 78cd 1cbe
00000030: 2d40 2a3e d8ec 513e eccb 2a3d 5c83 3bbe
00000040: 2ca5 ee3d 8a27 06be 15e3 94be 80d3 afbc
00000050: c96f 9d3e edf9 02be e1c3 b5be 8d32 0d3e
00000060: cdbf 8cbd 3924 013e 643c d9bd 10c7 57be
00000070: 47e9 d63d 596c 19bd 7f5b eabc f3b9 74bd
00000080: 6123 143e 98b1 9e3a 8eba 753e b76a 0b3e
00000090: 2c8d b4bd a82d 27bd 8602 0dbd fe92 29be
000000a0: 1666 1e3e 91af 0e3d e762 9dbc ac07 583e
000000b0: edfb d03d 5b96 3f3d e804 303e 8ea9 883d
000000c0: dde4 27be a237 2a3c 5f43 3ebe c608 38bd
000000d0: bc03 983e 23e3 aebd 8368 ad3e 1254 f63d
000000e0: 6091 fd3c 1e84 95bd df89 1dbe 5b32 be3d
000000f0: 9a34 203d 6054 b13d 1510 7abd fd0e 793e
00000100: 1804 f4bc a341 22bd 6c18 38be ce06 e23d
00000110: 82fd 24be c31c d13d bd3c 29ba 9736 cabd
00000120: 0441 d33d 718b abbc 2aab 91bd b865 0dbe
00000130: 4a42 833e 4118 33bd 20da 85bd a230 0a3e
00000140: f6b9 7abe 8523 03be c4c9 d8bd e878 153e
00000150: ceaa 103b bb7f 103d 24c1 e5bd b95a 223e
00000160: 7d71 9ebd 715d babe 29e4 043c 7ea8 2bbd
00000170: 9768 ac3d e161 2cbe 14d9 92ba 1578 43bd
00000180: c6f2 2f3c d16a 67bd ff73 233c 742f bcbd
00000190: 923e 57be a9a6 7e3e 25a8 723e cdcb 493e
000001a0: 887a 78be faa2 8a3e 952d 34be f071 28bb
000001b0: 56c5 41be 4c0b c23d e9a4 533c e99c 823c
000001c0: ad86 7f3d c4b6 44be f91c fdbd 96ea 233e
000001d0: 313d 3cbe cdaf bdbe e949 f1bc cabc 5b3c
000001e0: 0cb8 60be adc3 82bd 7064 0bbe 4777 713e
000001f0: d11b bdbd 0779 01be 7532 e3bd ba41 3d3e
00000200: e0f3 863c 07cb 08bf b3ac f0bd 53d8 a7be
00000210: 0d04 a8bc a78f 543e 5c60 a3ba 2b54 b2bd
00000220: 6d7f f13d 29c7 583e c308 5e3e 1304 893c
00000230: f612 b6bc 2bef 853d 8cfa 783d 9656 51bd
00000240: f1b2 04bd f55f 763e 768c a3bd 3f76 96be
00000250: 052d 0b3e ac74 df3d f909 babe 9ca6 4abe
00000260: b1eb aa3d 9779 d03c 11f3 1cbe 8d65 673d
00000270: e32b 1fbe 1df0 4d3b 21bc 193e bbff cf3c
00000280: bf13 25be e4bd ddbc 20c2 fdbc 8c44 1ebe
00000290: e8ec 1f3e afd8 093e ebbc 2dbe fad6 45be
000002a0: d1ed a9bd 1a7d 563e faff 70bb 0961 7ebd
000002b0: dbb3 20be ee79 663e 811b 95be 483a 083b
000002c0: d1b3 9abe 9a31 40be 21ba f0bd 8003 273d
000002d0: 3d1e d4bd 221d b33d 4e48 daba ad3b 603b
000002e0: 6e70 dbbd fab0 28be 0098 abbd 0c29 14be
000002f0: 8d17 73bd d308 973d efb5 76bd fbc8 acbd
00000300: 2f52 02bd 78fa 59be 85e4 1dbe 649a d2bc
00000310: 4258 1f3e 1aba d03c 6565 c2bc b498 213e
00000320: fd17 2dbe 741e b5bd b90f 50bd 450b 3abd
00000330: 0f37 7d3e 5de7 9ebe a89a 07be 52d2 513d
00000340: c8ee 543e 6320 38be 4165 eebd 982b a9bd
00000350: 3fe6 76be 9a7f b53d a3e3 d73b da4d d53d
00000360: 2c4c 883e 1fae 1d3e 1d1f dbbd 1672 043e
00000370: b208 113e b043 01be 91ee 5a3e ea89 1d3d
00000380: 6a01 283e c258 ccbd 3993 363e b6c6 f63c
00000390: 7e12 0fbe b63c 3b3d d97f 99bd 9a4c acbd
000003a0: 1481 f83d 311b 953d 795f d23c 7f7b 05bd
000003b0: f793 b13d 6e80 743d de71 63be 01c9 1fbe
000003c0: 8765 1abd 10df 61bb e089 a33d 355a edbd
000003d0: 4166 e2bb 5709 61bd 7f87 07bd 345e a8bd
000003e0: 36f9 47be 7223 3cbc d328 43be 9187 42be
000003f0: e467 1a3e 7a72 f23d 3ca7 143e 7f31 2cbe
-0.6926201 -0.14059822 -0.16971906 -0.030309325 0.028877417 -0.14411181 -0.15876591 0.059886366
-0.23523457 -0.030878361 -0.04714957 -0.15312755 0.16626044 0.20500505 0.04169838 -0.18311828
0.11652598 -0.1310102 -0.290795 -0.021463156 0.30749348 -0.12790652 -0.35501006 0.13788815
-0.068725206 0.12611474 -0.10607222 -0.2107203 0.10493713 -0.037456844 -0.028608082 -0.059747647
0.14466621 0.001210737 0.23996946 0.13614927 -0.08815989 -0.040815026 -0.034426235 -0.1655998
0.1546863 0.034835402 -0.0192122 0.21096677 0.10204301 0.04677425 0.17189372 0.06672965
-0.16395898 0.01038924 -0.18580388 -0.044930242 0.2969035 -0.08539417 0.338688 0.12027754
0.03095311 -0.0730059 -0.15384625 0.09286948 0.039112665 0.086586714 -0.061050493 0.24322124
-0.029787108 -0.039613377 -0.17978066 0.11036454 -0.1611233 0.10210564 -0.0006455889 -0.098736934
0.10315135 -0.020940514 -0.07112725 -0.13808334 0.25636512 -0.043724302 -0.06535745 0.13495114
-0.24485001 -0.12806518 -0.10585359 0.14596903 0.0022074464 0.035278063 -0.11218479 0.1585492
-0.0773649 -0.36399415 0.008111038 -0.041908734 0.084183864 -0.16834213 -0.001120361 -0.04772194
0.010739034 -0.056498352 0.009976386 -0.091887385 -0.21019962 0.24868263 0.23696955 0.1970665
-0.24265492 0.27077466 -0.17595513 -0.0025702678 -0.18922934 0.09474811 0.012917736 0.015943961
0.062384296 -0.19210345 -0.12359042 0.16007456 -0.18382718 -0.37048188 -0.029454188 0.01341171
-0.21945208 -0.063849784 -0.13612533 0.23580657 -0.09233821 -0.12643825 -0.11093608 0.18482104
0.01647371 -0.53434795 -0.1175169 -0.3278223 -0.020509744 0.20757924 -0.001246463 -0.0870746
0.11791883 0.21169724 0.2168303 0.016725576 -0.022225838 0.06539758 0.060785815 -0.051107965
-0.032397214 0.24060042 -0.07985775 -0.2938709 0.13591392 0.10910925 -0.36335734 -0.19790119
0.08345736 0.025448604 -0.15327097 0.05649333 -0.15544085 0.0031423636 0.15013172 0.025390496
-0.16120814 -0.027068086 -0.030976355 -0.15455836 0.15617716 0.13461564 -0.16966598 -0.19320288
-0.08297313 0.2094616 -0.0036773668 -0.06210426 -0.1569361 0.2250745 -0.29122546 0.0020786691
-0.30215314 -0.18768921 -0.11754251 0.040774822 -0.1035733 0.08745791 -0.0016653629 0.0034215257
-0.10714804 -0.16473761 -0.08378601 -0.14468783 -0.05934863 0.0737473 -0.0602321 -0.084367715
-0.031816658 -0.21286952 -0.15419205 -0.025708385 0.15561011 0.025479365 -0.02372999 0.15780908
-0.16903682 -0.08843699 -0.050796244 -0.045420904 0.24728034 -0.3103589 -0.1324259 0.051225968
0.20794213 -0.17981105 -0.116404064 -0.08260268 -0.2411127 0.08862229 0.0065884157 0.1041524
0.26620615 0.15398453 -0.10699294 0.12934145 0.14163473 -0.12623477 0.21380068 0.038461603
0.1640679 -0.09977867 0.17829598 0.03012405 -0.13971898 0.045712195 -0.07495088 -0.08413048
0.12133995 0.07280577 0.02568029 -0.03258848 0.086708 0.059692793 -0.22211406 -0.1560402
-0.03769448 -0.003446523 0.07985282 -0.11589471 -0.0069091623 -0.054940548 -0.033088204 -0.08221093
-0.1952866 -0.01148306 -0.19058542 -0.18997027 0.15078694 0.11838241 0.1451692 -0.16815756

k_weight f4 [32, 128]
00000000: 986a dcbd 9edd abbd ce34 d83d e9a4 65bd
00000010: 0659 a03c 6730 983c 4e83 753e 0cf5 0b3e
00000020: fef2 e1bc be0e 443d eb9d 77bc 3733 1abe
00000030: da11 3abe 31c7 76be a840 113e bc85 0bbd
00000040: 8404 0abe bdfb a4bd de76 bf3d 42b2 97be
00000050: 2b76 abbd 20a0 e33d 53b4 0abe 03f1 103e
00000060: ae33 cfbd 8d9a 82be e759 b43d 2eec 85be
00000070: 3aaf b53c 8afe 0bbe 8183 68be 8970 32be
00000080: 88af eabd f1e0 1e3e aef5 123e 19f8 083e
00000090: a341 df3d 7f5a 713b 8c68 8ebe 5bb8 6ebe
000000a0: 5d2a 773c 6eca 893e 7fdf 313e ef5a 3cbe
000000b0: 6b94 d0be 7a44 8e3e 61b4 23be c1dd 5abe
000000c0: 57ae a0be 6669 c1be 2fdd ccbd a67e d63c
000000d0: 5aab 4a3d 273a 80bd 7c09 f43d 3f1c ab3e
000000e0: 52cc 973d 4f04 613e e2b3 10be 412a 9ebe
000000f0: 166f 82be a8c1 38be 135c 863c 2475 80bd
00000100: aa31 b63d 6cf1 62be 1345 363e 7b87 f0bd
00000110: a910 bbbc 2a30 2f3e 5da2 703e 9e9c afbd
00000120: e13b 90be c006 713d a2eb 16bc 54ad 643d
00000130: 18cc 303e bf49 2dbe ecd8 39be f1db 03bb
00000140: 45d9 17be 3077 24be ef5b 47be 086b 86be
00000150: 8836 b3be cdd3 3d3e 9e72 713c 192c fc3d
00000160: 8fc0 98bc 5801 68be 0a52 74be 2fe6 8a3e
00000170: 6e6e d7bd 5e21 b6be 3f72 a43c 2ea8 5c3e
00000180: 9554 303e 5276 71bd c4df 183e 9c5c 18be
00000190: 7d23 35be 8628 0fbe d7de 683e e944 c9bd
000001a0: de5b 943d 4f87 98bd 0f00 f3bb e7d8 65be
000001b0: 974e 49bd 58d1 edbd 6ef7 4fbe f30c e93d
000001c0: a8aa cc3d c8c4 41be df87 a43e 1e4a 2b3e
000001d0: de41 623d 00a4 54be 534a b83e 37fa 8f3e
000001e0: ee68 96be 02b6 553d 22fd ddbd eacd 3a3e
000001f0: 713e ee3e 906c e13c 1077 ed3d 4752 9e3c
00000200: e2d9 1b3d 4bf4 9dbe bfcd 4cbd 6328 96bd
00000210: 548f 49bd 7582 923e d22c 053e 3db0 0ebe
00000220: a604 2fbd 443c bd3e 4904 b93d 164c 68bd
00000230: 2575 35be 61f7 973d 4cb0 e7bd 9b14 10be
00000240: 41c8 533e 857d a6bd 681d f1bd 108e 52be
00000250: 753e ccbe 4524 bc3d 2078 b4be 301c dc3e
00000260: 523f 85bc 00eb 863e d284 86be eae7 2c3c
00000270: 0853 9c3d b48e 79be 1e6e 8fbe 1da0 f6bd
00000280: 50f5 22be e3da 59bf 6f3d 633e 29d5 273b
00000290: b855 743e 7a4e 853d d5f4 6ebe b68b d93c
000002a0: 89f0 593d bc35 11bd ea15 213e b8ed 04bd
000002b0: 528a 0cbc 7239 e93e 79cd 2fbe ff9b 753d
000002c0: ac9b bfbe 62bb 513e 3573 5cbe b193 67bd
000002d0: fceb c3be f67c 38be 897f 04be 9e65 6e3d
000002e0: 12c2 61be e3be d23d 0ce5 873d 67f9 ecbd
000002f0: d067 f0bd 778c 153e ec9c 73be c8b9 5c3c
00000300: f119 babd 4ba0 86be 2461 5abc 6785 3ebe
00000310: 9007 c5bd f089 22be a33f 233e 6c61 453d
00000320: 4545 c2bd 783e 97be 6648 94be 46f3 a8bc
00000330: 173a 3d3e e5ad 29be 5053 7d3c e0cc 273d
00000340: e92a a7be 2096 4bbf 7c70 e0be a669 a2be
00000350: 2dff 5fbe 9870 8fbe ff5f 86be cd11 133e
00000360: 82d1 133e 5bcf 2e3e 8963 87be defe 923e
00000370: 3ca9 64bd a610 c6be a2d2 0d3e 7afd 60be
00000380: 6e61 3abd dda7 70bc 7db7 c93e 6e7e fbbd
00000390: 69a5 2f3c 6498 993d 47ec eb3c 3f07 99be
000003a0: 82e6 403d 8505 893e bad4 79be a150 b33e
000003b0: f76a 84be 86c3 423e 5bd6 9ebe 9039 7f3e
000003c0: d77c 21be 26dc 72bc 92d6 243e 12a5 663d
000003d0: 1e76 49bc a85d 69bd c6b0 9d3e 9528 8abd
000003e0: c9c3 ffbd ff6e 8cbe d56e 1ebe 3116 35bd
000003f0: ed1e 983d 6da8 34be 4877 773e a18f fa3c
-0.10762519 -0.083918795 0.10556947 -0.056065474 0.0195737 0.018577768 0.2397587 0.13667697
-0.027581688 0.04786562 -0.015113334 -0.150586 -0.18170872 -0.24099423 0.1418482 -0.034063086
-0.13478285 -0.08055828 0.09348844 -0.29628187 -0.08372148 0.11114526 -0.1354535 0.14154439
-0.10117279 -0.25508538 0.0880621 -0.26156753 0.022178281 -0.13671318 -0.22706415 -0.17425741
-0.11459261 0.15515496 0.14351532 0.13375892 0.10901191 0.0036827622 -0.27814138 -0.23312514
0.015085784 0.26912254 0.17370413 -0.18394063 -0.40738234 0.27786618 -0.15986778 -0.21373655
-0.3138301 -0.37775725 -0.10003125 0.026183438 0.04947982 -0.06261092 0.119158715 0.33419988
0.07412018 0.219743 -0.1413112 -0.30891612 -0.25475377 -0.18042624 0.016401326 -0.06272343
0.088961914 -0.22162408 0.17799787 -0.11744591 -0.022835093 0.17108217 0.23499437 -0.08574794
-0.28170684 0.058844328 -0.009211453 0.05582936 0.17265356 -0.16922663 -0.18149155 -0.002012011
-0.14828975 -0.16061091 -0.19468664 -0.26253533 -0.35002542 0.18537827 0.0147367995 0.123130985
-0.018646507 -0.22656763 -0.2385942 0.2712874 -0.1051911 -0.35572332 0.020074008 0.2154853
0.17219765 -0.05895073 0.1492911 -0.14879078 -0.17689319 -0.13980302 0.22741257 -0.09827597
0.07244085 -0.07447683 -0.0074157785 -0.22446023 -0.049147215 -0.11612195 -0.2030923 0.11379423
0.099934876 -0.18922722 0.3213491 0.16727492 0.055238597 -0.20765686 0.35994205 0.28120586
-0.2937693 0.05217553 -0.10839297 0.18242612 0.46532014 0.027517587 0.11594975 0.019326342
0.038049586 -0.30850443 -0.050000902 -0.07331922 -0.049208954 0.28615156 0.13005379 -0.13934417
-0.042729042 0.36960042 0.090340205 -0.056713186 -0.17720468 0.07420231 -0.11312923 -0.1407036
0.2068186 -0.0812941 -0.11773187 -0.20562005 -0.398914 0.09186605 -0.35247898 0.42990255
-0.016265545 0.26351166 -0.2627321 0.0105533395 0.076330245 -0.24370843 -0.280137 -0.12042258
-0.15913892 -0.8509962 0.22191404 0.002560923 0.23860824 0.06509109 -0.23335584 0.026555877
0.053207908 -0.035451636 0.15731016 -0.03245327 -0.0085779 0.4555164 -0.17168225 0.059963223
-0.37423456 0.20481637 -0.21528323 -0.056537334 -0.3826598 -0.18016419 -0.12939276 0.05820238
-0.22046688 0.10290315 0.06635484 -0.11571007 -0.11738551 0.14604364 -0.2379033 0.013472028
-0.09086979 -0.2629417 -0.013328824 -0.18605576 -0.09620583 -0.15872931 0.15942244 0.048188612
-0.09485868 -0.29539847 -0.28961486 -0.020623814 0.18479191 -0.16570242 0.015461758 0.04096687
-0.32649925 -0.7952595 -0.4383582 -0.31721228 -0.21874686 -0.2801559 -0.26245114 0.14362259
0.1443539 0.17071287 -0.26443127 0.28710073 -0.055825457 -0.38684577 0.13849881 -0.21971694
-0.045503072 -0.014688459 0.39397803 -0.12279974 0.010720589 0.07499769 0.02879919 -0.2988834
0.04709483 0.26762024 -0.24397555 0.35022452 -0.25862858 0.19019899 -0.31022915 0.24924302
-0.15770279 -0.014822995 0.16097477 0.056309767 -0.012296228 -0.056974083 0.3079893 -0.06746022
-0.12488515 -0.27428433 -0.15471967 -0.044210616 0.074277736 -0.17642374 0.24166596 0.030586066

weight f4 [4, 128]
00000000: a8ca e5bd 0e0c ca3d 0e4d 6dbe 4c81 803e
00000010: c959 44be 96d5 f13d 5b5e 60be 8c0d 72be
00000020: 382e ce3b e7b0 0a3e dc25 a33d 85cf c7bc
00000030: 380c 803e 0e4b 3b3e ab7a 20be d22c 20be
00000040: 1d18 153e e798 13be 50d4 81be 9825 783e
00000050: 9d5d cabd 0da0 38be 7e59 5a3e 7877 463e
00000060: 44ef 4ebe ba3d 363e 8c33 abbe afe1 7c3b
00000070: 35f8 3c3e b124 61bc 125a 6a3e 6e66 60bc
00000080: bd5e 8d3d 05ea 8dbe 0a32 cabc d2b0 893e
00000090: 5054 3a3d fc7b acbc 718b 6d3e 22db d03e
000000a0: ba37 6f3e 4284 a2be 392a 543d 873b 723d
000000b0: 266e 883e e955 20be 4c1b 463e 6eb0 463e
000000c0: daf3 d83d c4d0 893e b1a7 6d3d 3bcc e83d
000000d0: 8da4 f4bd 79f1 953d d50c 4cbe 84e7 0abe
000000e0: 5959 8abe 571a f5bd 8975 293e 0908 2a3e
000000f0: a69b 8c3e 247d 5d3d e2dd 7ebe 13a9 233e
00000100: 4604 09be 0fce 003e 9fc5 9dbe 0171 3c3d
00000110: bf5d 48bd ac97 ae3d 1ad2 9e3d d629 313e
00000120: 307b 553e d1fe 1bbe e590 61be 9b7d ff3d
00000130: d51c 1e3d 2544 873d 89f8 0f3d 3105 363e
00000140: b3e2 4bbe 7a8f d73d 742a 31be 5b31 013e
00000150: dea9 873d 685d 81be b836 ccbd ce77 70be
00000160: e57d 3fbe 8d32 053e 09d1 1a3e 514c 6fbc
00000170: 43ea 8fbd 7cfc 353e e8ef 83be 1104 82be
00000180: 5b93 96be 67f0 873d bbfe 43bd e965 8dbd
00000190: d77b 5a3d 67f9 163d 31db a23d 6229 e93c
000001a0: 696f 6dbe b767 f53d f185 10be 8645 9c3d
000001b0: 8c76 f7bc 22db 9e3e 98c5 ee3d 864a 243e
000001c0: ad9a e6bd c661 0fbe 74cb 57be dee5 773e
000001d0: 98eb bfbd 749d 623e 59d6 5abe e0c5 8dbe
000001e0: 1a32 9b3e 98f8 3ebe d27e 1f3e 7026 54be
000001f0: bd86 91be dce3 edbd aff1 87be 7035 493e
00000200: ec8a 123d 5558 68be d648 1ebe d352 6cbc
00000210: 4f80 c23d 5a46 873e 92e1 87bd d0e8 183d
00000220: d465 41bd f972 9f3e abd3 a63e d280 6e3e
00000230: 8e03 b8bd 24f7 b63d 62a9 be3d 4524 d7bd
00000240: 0db6 e1bd 42e9 593e 0608 e63d 428e e3bd
00000250: 741e 1b3e 2e3a d1bd c0e5 883d fa20 053d
00000260: 8811 c63d a850 743e 1b36 f1be 63fa cf3d
00000270: 6b26 01be 0a7d 47be 531e a13d 62b0 973e
00000280: 37bd 8dbe 5ba2 93be 2a8a b33d 44da a6bd
00000290: aee8 0d3f e199 003e 16f9 153e 1e48 c33d
000002a0: 22b6 a13d db76 35bd 1803 8b3e a3d8 e5be
000002b0: 0516 293e 2c87 84bd ebb5 1bbe 3d10 b13e
000002c0: 9ab5 0abe 3f00 f53d be70 59be 391a 143c
000002d0: cd4c 48be fb7f c23e bf13 34be c7a7 523d
000002e0: 215f e2bd 41a0 8f3d 43cf 863e f5c5 dabe
000002f0: 7c9f ee3d 03db 653d fe14 35be 93c4 56be
00000300: 991d 573d 770b 30be f813 d1bb 7d5b 143e
00000310: 4c88 ccbd 4383 8fbc 6e50 743c 8aee 0abe
00000320: 1f57 9b3e e733 10be 0595 41bd 2452 a13c
00000330: d320 7ebe 5498 0d3e cfa0 3abd 798d 3abe
00000340: 1198 a63d 95d4 1b3e 0c8c 60bd ab54 48be
00000350: 02b8 f0bd 0051 ba3d 63d5 673e d9e6 143d
00000360: 157a 463e d358 93bd 679e 61be 89ea ac3d
00000370: 1e50 ea3d 3808 633d eaa3 77bc f15e dc3d
00000380: db23 d33c b663 26bd 1b03 313e ff2b cc3d
00000390: b5c8 a6bd 5a09 be3e fd0e c93d 5d72 e9bd
000003a0: 033f 8cbe 7d73 723e 4046 2b3e 5544 2ebd
000003b0: 812b 91bc 860a db3d 1e85 a43c f85f 173e
000003c0: b998 8a3d 7ca0 a33d d288 7c3d 2b63 033e
000003d0: bf8e bb3c 5acf 52bc 7dd8 8c3d 35f9 a63c
000003e0: 24d4 553e d704 053c 61ce 97bd a125 933c
000003f0: d142 23be c664 1e3e 777a 7dbc d9c7 31be
-0.11220294 0.098655805 -0.23173925 0.25098646 -0.19174875 0.118083164 -0.21910994 -0.2363798
0.006292131 0.13544045 0.079662055 -0.024390945 0.25009322 0.1829035 -0.15671794 -0.15642098
0.1455998 -0.14413796 -0.25357294 0.24233091 -0.098811366 -0.18029805 0.21323201 0.19381511
-0.2020846 0.17796984 -0.33437765 0.0038586666 0.18454058 -0.013741658 0.22885922 -0.013696296
0.069028355 -0.27717605 -0.024682064 0.26892716 0.045490563 -0.021055214 0.23197724 0.40792185
0.23361102 -0.3174153 0.05179808 0.0591388 0.26646537 -0.15657772 0.1934635 0.1940324
0.10593386 0.26917088 0.05802125 0.11367079 -0.11945448 0.07321448 -0.1992677 -0.13564879
-0.27021292 -0.119679146 0.16548742 0.16604628 0.274625 0.05407442 -0.24889329 0.15982465
-0.13380536 0.12578605 -0.30814835 0.046006206 -0.04891753 0.08525023 0.077549174 0.17301115
0.20847774 -0.15233923 -0.22027929 0.12475129 0.038601715 0.066047944 0.03514913 0.17775418
-0.19910698 0.10525413 -0.17301351 0.12616484 0.066241965 -0.25266576 -0.09971374 -0.23483202
-0.18700369 0.13007565 0.15118803 -0.014605598 -0.07027104 0.17772096 -0.2576897 -0.25393727
-0.29409298 0.0663765 -0.04785035 -0.069042034 0.05334076 0.036858942 0.07951964 0.028462116
-0.23187031 0.11982673 -0.14113595 0.07630448 -0.030207895 0.3102656 0.11658782 0.16044053
-0.11259971 -0.14002141 -0.21073705 0.24208781 -0.09371108 0.22130376 -0.2137083 -0.2769003
0.30311662 -0.18649518 0.15575722 -0.20717788 -0.2842311 -0.11615726 -0.26551577 0.19649291
0.035777017 -0.22689946 -0.15457472 -0.014424044 0.09497129 0.2642086 -0.06634821 0.037331402
-0.04721625 0.31142405 0.32583365 0.23291329 -0.08985053 0.08933857 0.09309651 -0.10504965
-0.110210516 0.21280387 0.11231999 -0.11111118 0.15148336 -0.10216175 0.06684446 0.032502152
0.096713126 0.23858893 -0.47111592 0.10155179 -0.12612312 -0.19481292 0.07867112 0.29626757
-0.27683422 -0.28834805 0.08766587 -0.081470996 0.55433166 0.125587 0.146458 0.0953524
0.07896067 -0.044302803 0.27150798 -0.44891843 0.16512306 -0.064710945 -0.15206115 0.345827
-0.13545838 0.119629376 -0.21234414 0.009039455 -0.19560547 0.37988266 -0.17585658 0.051429536
-0.11053301 0.07012988 0.26330003 -0.42729154 0.11651513 0.05611707 -0.17683789 -0.20973425
0.05251846 -0.17191873 -0.0063805543 0.14488025 -0.09986934 -0.017518645 0.014911754 -0.13567558
0.30339906 -0.14082299 -0.047261257 0.019692488 -0.24817209 0.1382764 -0.045563515 -0.1821803
0.08134473 0.15217812 -0.05482106 -0.19563548 -0.11753847 0.09097481 0.22639994 0.036352966
0.19382508 -0.07194676 -0.22033082 0.084431715 0.114410624 0.05542776 -0.015114764 0.10760296
0.025773933 -0.040622436 0.17286341 0.09969329 -0.081437506 0.3711651 0.09817312 -0.11398766
-0.27391824 0.23676868 0.16726017 -0.042545635 -0.01772094 0.106953666 0.020083006 0.14782703
0.06767411 0.07989594 0.06165392 0.12830798 0.022895215 -0.012866819 0.06877229 0.020382503
0.20881706 0.00811883 -0.074124105 0.017962279 -0.15943457 0.1546813 -0.015471092 -0.17361392

bias f4 [4]
00000000: f010 bdbc 07af 02bd e925 6abb a078 d93b
-0.023079365 -0.0319052 -0.0035728163 0.006636694
