models/LSTM_mse_epochs6.pth (torch, 806928 bytes, 10 tensors)

lstm.weight_ih_l0 f4 [512, 4]
00000000: c87e a4bf d288 763f cb14 8e3e 2aaa 113f
00000010: 81e1 bbbe 8575 c1bc 471d 9e3b 9e89 c8bd
00000020: ba9b dbbd 159c dbbe 8f86 dbbd 3b9a c8be
00000030: 3237 9abe 07c4 e33c 7b95 13be 1fe1 60be
00000040: bae2 c8be 92f1 bcbe 994b b2be 763a 60be
00000050: 0196 eabd e413 65be dce9 81bb 1d29 01be
00000060: 7d6c 91be 0a26 fcbe 261f 1abe 191e 6fbe
00000070: 12e8 6dbd ed1f 77be 84e0 463f 5e41 4bbf
00000080: 6686 9bbe e528 46be c6aa 0fbe 5856 f9bc
00000090: 7465 9b3e 07a9 02bf a46a 0c3e d0a7 313e
000000a0: 2b37 cfbe 630e 0abe fe8f 34be 1eed d3bd
000000b0: fb81 7e3e ec78 f93e 24d4 a7be 1f71 893e
000000c0: 8840 73be 9a87 b6be 7807 37be 7c40 8dbe
000000d0: 15f1 c2bd c546 b5be 4c5d b4be 7b8b c5be
000000e0: 72c7 ebbe 77b7 eabd ffeb dbbe 976e 9fbe
000000f0: 41d5 9bbd 407e b9be c9d5 acbe f2c8 253c
00000100: a986 48be 745b 93be ab41 97be be78 77be
00000110: 170c c4be cd1f e3be f440 30be f1ff 0dbf
00000120: e5c9 b6be 5eb4 87be eebd dabe 2e5f 82be
00000130: 6e96 e1be a67a 86be ee49 41be ef2f 41be
00000140: c4ec 89be 8537 c9be b4ff fbbd 5f32 11bf
00000150: 2d8e b6be 3cfe 96be 638c 4abe 9655 a7be
00000160: 0ba2 87be 46b0 d7be f781 a6be 71bd a1be
00000170: 74d9 aebe f1d4 98be 0c8f 6cbe af07 92be
00000180: 33a5 11be daf9 18be 136a a5be fe41 a1be
00000190: 33b1 00be bb17 a6be e73d 313d 1577 3e3e
000001a0: ad70 d83d 9829 133e e350 5a3e 4b5d c5be
000001b0: 056c 35be f3d0 813e 8b16 9a3e 18be 643e
000001c0: 9990 29bd 4033 283b 4afd 243d e640 bebe
000001d0: 492e 78bd 15f6 35be bd75 b2be aedc adbe
000001e0: d941 4a3f 9fb6 073f a559 edbe a268 0bbf
000001f0: 8a77 d2be 7161 353e fa14 d53d ef22 413e
00000200: 5720 00be dec9 0ebf 92a8 5bbe ab12 6fbd
00000210: b8f9 93be 39f9 b1be d391 0abf 59a6 6d3d
00000220: 6d4b 353e 50d0 003e fd99 29bf 5130 2c3e
00000230: 5803 19bf 05a6 0b3e 39c4 a6be 7c60 2cbf
00000240: d625 06be 1b7e 843e 1dbd dfbd 7cb8 91bd
00000250: c39c 3fbe 5c51 1b3e 246c 073e 4a38 3cbf
00000260: 6cc0 74be f1e6 e4bd f861 00bf 38fb 7bbd
00000270: a1ee 43be dd72 b4be 11db 55be cbf1 31be
00000280: b720 44be 6cf7 31be 6c2a 4ebe f46f e9be
00000290: d1e4 21bd 467d 503b 76dc 89bd b5f6 77be
000002a0: 07ba 7cbe 0cd4 43be ee7d 1ebe 4d45 28be
000002b0: a940 6c3e 70a4 f53c 7c4e 03be 14d7 2c3f
000002c0: 5bd9 9fbe 9a7d b4be 719b bfbe 770f 93bd
000002d0: ee4b 33bc 9ff9 913e 0d07 5c3e 74cc 73be
000002e0: c906 06bf 89ab a3bc 4173 e7be 5cef e8bc
000002f0: cacf dbbe 1456 e0bb fe5f 92be fb83 50be
00000300: 3745 15bf 9053 d8bb 5c14 1abe 16b6 2b3d
00000310: f46e cebe ed21 40be cc97 aebe f2d2 e7bd
00000320: 5757 933e 62e1 94be f385 54be d363 ab3c
00000330: 0eeb 61be 957d 56be 89fb 03bf abf1 96be
00000340: 8985 81be cdb8 53be 5004 d0be c3da e4bc
00000350: 3a83 8ebe 3baa d5be d0c0 c1be b3c9 8dbe
00000360: 90cf 823c 59de 55be e126 44bd a836 c6bb
00000370: 52ed 3fbe 210f e0be 6fe5 7fbe 308b 72be
00000380: 4bbe d9be c471 96be 6d44 83be ef42 99be
00000390: 6c74 07bd 7433 5c3f 8e36 373e d8f0 29be
000003a0: b9d7 cdbd 0962 7d3e 28ad 8bbe 4403 24be
000003b0: f104 2bbd ab07 a9be cf8e 8bbe 6b4d 97be
000003c0: 87e1 f6be 4531 b7bd e975 83bc 9b53 b3bd
000003d0: b269 bfbe 1107 94be 81f2 9fbe 26f9 a0be
000003e0: e7ce 8bbd b5cb 903e cca5 953d 2d89 743e
000003f0: 1964 12be 7597 23bd 9d3b 93be 6d5b 8abe
-1.285119 0.9630252 0.2775024 0.56900275 -0.36695483 -0.023615608 0.0048252675 -0.097918734
-0.10723062 -0.4289252 -0.107190244 -0.39180169 -0.30120236 0.027803434 -0.14412491 -0.21960877
-0.3923548 -0.36903054 -0.348233 -0.21897301 -0.11454392 -0.22370869 -0.003964646 -0.1261334
-0.28403082 -0.49247772 -0.15050945 -0.23351325 -0.058082648 -0.24133272 0.77686334 -0.7939662
-0.30375975 -0.19351538 -0.14029989 -0.03043668 0.3035084 -0.51039165 0.13712555 0.17349172
-0.40471777 -0.1348205 -0.17633054 -0.10347961 0.24854271 0.4872507 -0.32779038 0.26844117
-0.23755085 -0.3565033 -0.17873943 -0.2758826 -0.09518639 -0.35405555 -0.3522743 -0.38582978
-0.46050602 -0.114607744 -0.42953488 -0.3113906 -0.07609034 -0.36229134 -0.33756855 0.01011871
-0.19582619 -0.2878071 -0.29542288 -0.24167153 -0.38290474 -0.443602 -0.17212278 -0.5546866
-0.35700908 -0.26504797 -0.4272303 -0.2546324 -0.4406008 -0.26265448 -0.18875858 -0.18865941
-0.2693845 -0.3930017 -0.12304631 -0.56717485 -0.35655347 -0.2949084 -0.19780116 -0.32682484
-0.26490816 -0.42126673 -0.3252103 -0.31589845 -0.3415028 -0.2984996 -0.23101443 -0.28521487
-0.14223175 -0.14939061 -0.3230749 -0.3149566 -0.12567596 -0.3243998 0.043271925 0.18600114
0.10568366 0.14371336 0.21319918 -0.3854774 -0.17716987 0.25354728 0.30095324 0.2233814
-0.041397665 0.0025665313 0.040280618 -0.3715889 -0.060591016 -0.17769654 -0.34855452 -0.33957428
0.79006726 0.5301303 -0.46357456 -0.5445653 -0.41106826 0.17712952 0.104043916 0.18860982
-0.12512337 -0.55776775 -0.21451023 -0.058367413 -0.28901458 -0.34760454 -0.5412876 0.05801997
0.17704554 0.12579465 -0.6625059 0.16815306 -0.5977073 0.1363755 -0.3257158 -0.67334723
-0.13100371 0.2587746 -0.10924742 -0.07115266 -0.18712144 0.15167755 0.13224846 -0.7352339
-0.23901528 -0.11176861 -0.5014949 -0.061518878 -0.19133998 -0.35243884 -0.20884348 -0.17377393
-0.19153105 -0.1737954 -0.2013337 -0.45593226 -0.039524857 0.003181295 -0.06731503 -0.24215205
-0.24680339 -0.19123858 -0.15477726 -0.16432686 0.23071541 0.029985636 -0.12822908 0.67515683
-0.31220517 -0.35252076 -0.3742328 -0.07180684 -0.010943396 0.28510758 0.21487065 -0.23808461
-0.52354103 -0.019979255 -0.4520512 -0.028434448 -0.42931968 -0.006846199 -0.2858886 -0.20362847
-0.5830874 -0.0066017583 -0.15046829 0.041921698 -0.40319026 -0.18762942 -0.34100187 -0.113195315
0.28777573 -0.29078203 -0.20754223 0.020921623 -0.22062322 -0.20946343 -0.5155569 -0.29481253
-0.25297192 -0.20675965 -0.4062829 -0.027936345 -0.27834493 -0.41731438 -0.37842417 -0.27692947
0.015968114 -0.208856 -0.04788864 -0.006048996 -0.18742874 -0.43761542 -0.24989866 -0.23685908
-0.42527995 -0.2938367 -0.25638142 -0.2993388 -0.033070013 0.8601601 0.17891905 -0.16595781
-0.100509115 0.24744429 -0.27280545 -0.1601687 -0.04175276 -0.33013663 -0.27257392 -0.29551253
-0.4821894 -0.08944944 -0.016047435 -0.08756181 -0.37385327 -0.2891164 -0.31239703 -0.31440085
-0.06826573 0.28280416 0.07307014 0.23880453 -0.14295997 -0.039939363 -0.2875642 -0.27022877

lstm.weight_hh_l0 f4 [512, 128]
00000000: 4580 0abe d223 f8be 98f2 61bd 8db5 8dbe
00000010: 9ba7 c8bb ffcf 50bd 2569 eb3d cdeb 36bd
00000020: 2c19 0d3e e50d 33bc e068 05bf c11c b63d
00000030: cb22 b63e 59c6 53bd 2b10 c03d eac5 a63c
00000040: bfeb e1bd 56d6 25bc 2195 40bd 98eb 303e
00000050: 12fc b33d ab3c efbc 9f6b 21bd e2ab 9d3d
00000060: ff4d 56bd 7b0b 83bd 098b e7be 1bcd 163f
00000070: 3fed 70be 6a98 9ebd d809 5b3e 56f1 14bf
00000080: 3385 77bc 99b2 2b3e 6910 33be b7b0 e23c
00000090: 357d 433d b54f 01bd 8b7b b4be 00b7 c93c
000000a0: e2df e1bd 6e4f 253d 8926 81bd 4b7d 25be
000000b0: 884e 063e 607a e7be f5da 9c3d b268 b7bd
000000c0: 3153 be3e 5532 ac3d ff44 5ebd f570 7f3e
000000d0: 7d82 b93d c831 a23d 16c2 813d 1c94 2a3e
000000e0: bc20 d1bd 24d4 81be fc79 d13e 7274 903e
000000f0: ba2a 85be e3ff bfbd 91f5 723f ed43 93bd
00000100: 5945 88be e50e 9a3d 9b66 52be 5102 673e
00000110: 1403 423e 5080 6c3e 53b6 c53e b5c0 ad3d
00000120: b912 313e 90f7 debc 759d 5abd 511b 77be
00000130: f1b0 1abf a9e4 113e 48dc 253e d763 b2be
00000140: 7a88 943d 4f47 52be 553b bf3c 1e09 e8be
00000150: 7731 acbe 57ff f43d 3da3 9b3d 5aa2 75be
00000160: b3c2 a03d b6f2 063e 0e65 6b3e 24b3 143f
00000170: cf93 d3be d064 75be 9a57 93bb 65d6 623e
00000180: c44a 6abe 05fb 9fbd 5645 853e 7ba5 2a3d
00000190: 0c27 883c 1ec7 ad3c e149 6abd 718d 61be
000001a0: 54fc f0be 31c8 b6bd 60a6 b33c 9fd0 38be
000001b0: 44e9 4a3f eba7 7bbe 263b af3e b8c7 0e3f
000001c0: 3a24 9f3d fc1f 7c3c 0989 973b 861f ffbd
000001d0: 2e78 343e def4 353f ec1f a5bd a930 c03c
000001e0: d2f4 223e 01d5 af3d 301b 2ebe 25ba 6cbf
000001f0: 2228 86be 22a6 1dbe e434 5f3d af7a 543e
00000200: 591b 233d ca04 04bd b2d0 813b 0101 9e3d
00000210: cb96 d438 1056 f43d fa3f c3bd 67c2 03be
00000220: bd55 503d 3f22 29be daed c2bd c490 243e
00000230: f661 d53d 2b94 eb3c d904 58bd 6314 0f3e
00000240: c8c8 8ebd 13df a9bc 9ebd dbbd 5244 f03d
00000250: 7690 973c b758 fabd 845f 3c3d b95c 843d
00000260: 58be adbd 003a 25be 427b 3a3c f879 983d
00000270: 5ba4 c73d 975c e93c e8ec 053d 309d 0cbc
00000280: 776a 2d3e 8625 f93c 93c0 c83b 509f 20bd
00000290: e457 e8bd d508 57bd 0d64 abbd 873a 0cbd
000002a0: 1111 fabd 1f0b 89bd 4ff0 b23c 44e1 1bbe
000002b0: 2bdb be3d 841a e2bc a32c 42bd 2ed6 b33d
000002c0: 8f47 69bd a141 293e 530c 41be 45fa 723d
000002d0: 49c5 08bd a671 46bd 409a 2dbc 5692 c63d
000002e0: 5704 8cbd 410f ebbd 3e41 663d c97f 023e
000002f0: 029a 2cbe 461c 743d 950c 813d f4a0 5b3d
00000300: 6f45 fe3c d569 033c 1fe0 8dbd cb74 323d
00000310: 40c4 8abd dffe 37be 3045 bc3c c86b 663c
00000320: dfdb 803d bb2e 9a3d a439 37bd 1537 10bb
00000330: f80a 853d e2b1 513e e721 e03d 02e9 2ebd
00000340: 6ce2 c33d 7178 063d efb5 5cbb b52a 62be
00000350: a525 7bbd 9754 193e 6962 06bd 65f3 a4bd
00000360: d570 643d dec9 623d c0a9 e1bd f583 cb3d
00000370: 424f 3fbe 0c4a 5fbd af5c 753d 8dfb abbd
00000380: 0b20 14be 4fee ba3c 943f 833e 369e c93c
00000390: e0f8 b7bd d0da ccbd 450d 2f3d c124 4abe
000003a0: 2b13 27bd 4a01 86bd 25fd 563a b38e 8dbd
000003b0: 912a 313e c2af 4e3d 5195 033d 5240 bf3d
000003c0: a32c 6abc 6207 c4bc aec3 2a3e c214 eebd
000003d0: 1e16 ff3b 8786 823d 99f8 0fbd 4741 9abc
000003e0: 83e3 a83b 0321 01be 1b7a 26be 2bdb 67bd
000003f0: d174 f5bd 191e 23be 0d24 343d be05 723e
-0.13525493 -0.4846483 -0.055162996 -0.27677575 -0.0061234958 -0.05097961 0.11494664 -0.04465847
0.13779134 -0.010928606 -0.5211315 0.08892203 0.3557342 -0.05170283 0.09378084 0.020358045
-0.11031293 -0.010121902 -0.04701722 0.17277372 0.08788313 -0.029203733 -0.039409276 0.076988
-0.052320477 -0.06398674 -0.45223263 0.58906716 -0.23528002 -0.077439144 0.21390474 -0.5818075
-0.015107441 0.16767348 -0.17486729 0.027672155 0.04772683 -0.031570155 -0.35250506 0.024623394
-0.110290304 0.040358953 -0.06306178 -0.16161077 0.13115895 -0.45210552 0.0765895 -0.08955516
0.37172845 0.084080376 -0.05426502 0.24945433 0.09058092 0.07919651 0.06335847 0.16658062
-0.10211322 -0.25357163 0.4091338 0.2821384 -0.2600916 -0.093749784 0.94905955 -0.0719069
-0.26615408 0.07522372 -0.20546953 0.22559477 0.18946487 0.23095822 0.38615665 0.084840216
0.17292298 -0.027217656 -0.05337282 -0.24131514 -0.6042624 0.14247383 0.16197312 -0.34841797
0.07252593 -0.20535015 0.023343721 -0.45319456 -0.3363149 0.11962765 0.075994946 -0.23987713
0.07849636 0.13178524 0.22987768 0.58085847 -0.41323707 -0.23964238 -0.004496527 0.22152098
-0.22880083 -0.0781155 0.26029462 0.04166172 0.016620182 0.02121311 -0.057199363 -0.22026612
-0.4706751 -0.08924902 0.02192992 -0.18048333 0.79262185 -0.24575774 0.34224814 0.55773497
0.077705815 0.015388485 0.00462449 -0.124571845 0.1762397 0.7107676 -0.08062729 0.023460703
0.15913704 0.08585549 -0.17002559 -0.92471534 -0.26202494 -0.15395406 0.0544938 0.20749925
0.039821003 -0.03223113 0.003961646 0.07715035 0.00010137035 0.119304776 -0.09533687 -0.12867127
0.050863016 -0.1651697 -0.09518023 0.16070849 0.10419075 0.028757175 -0.052738998 0.1397262
-0.0697189 -0.020736253 -0.10729526 0.11731781 0.018501502 -0.12223952 0.04598953 0.06462998
-0.08483571 -0.16135406 0.011381926 0.07445139 0.09748145 0.028486533 0.032696635 -0.008582398
0.16935144 0.0304134 0.0061264723 -0.039214432 -0.11344889 -0.052498657 -0.083686925 -0.034235504
-0.122102864 -0.06691574 0.021843104 -0.15222651 0.09319147 -0.027600534 -0.04740585 0.08781086
-0.05695301 0.16528942 -0.18852358 0.059320707 -0.03339127 -0.048448227 -0.010595858 0.0969588
-0.06836765 -0.11477519 0.056214564 0.12744059 -0.16855624 0.059597276 0.06301228 0.053620294
0.031038968 0.008020838 -0.06927513 0.043568414 -0.06775713 -0.1796832 0.02298221 0.014063783
0.06291937 0.075284444 -0.044732705 -0.0022005488 0.06496233 0.20478013 0.10943966 -0.042702682
0.09564671 0.032829706 -0.0033677777 -0.22086604 -0.061315197 0.14973675 -0.032808695 -0.08054236
0.055771668 0.055368297 -0.11018705 0.09937278 -0.18682578 -0.054513976 0.059902843 -0.08397589
-0.14465348 0.022818713 0.25634444 0.024611574 -0.08983016 -0.10002673 0.042737264 -0.19740583
-0.040789764 -0.065432146 0.00082011736 -0.06911983 0.17301394 0.050460584 0.03212482 0.0933844
-0.014292869 -0.023929302 0.16676208 -0.11625053 0.007784619 0.06373315 -0.03514919 -0.018829955
0.0051540746 -0.12610249 -0.16257517 -0.0566055 -0.119851716 -0.1592945 0.043979693 0.23635003

lstm.bias_ih_l0 f4 [512]
00000000: 92ba 94bd 5767 11be bdd4 b2be b3c1 50be
00000010: 8dbf 62bf f178 08be 6124 2dbf 17bb 05be
00000020: f7bb e7be 9b72 3abd 4283 a3be 2612 c63e
00000030: 0b86 89be 2c11 43bf e3c5 68bf ce0d bcbe
00000040: f358 37bf fb17 2abf 03b2 33bf e42d 3fbf
00000050: 2fed 22bf 5d43 41bf dce0 29bf 0569 68bf
00000060: 4352 16bf f4b3 cebe b25b 663e 281d 683e
00000070: 41fb d9bd 62ca 26bf bead 5bbd 7e9c c53d
00000080: fe51 33bf 1941 0bbf e271 b8bc 1d94 53bf
00000090: 948f e73d 6d92 fdbe 1140 b8be 8a2d 1ebf
000000a0: e55a 08bf 53fd c3be 4c21 c4be 90be 9a3e
000000b0: fe92 37bf 6ff6 2a3e f87b 3cbf b5c7 40bf
000000c0: 08c9 dabd 973e a7be 9ccf 7cbe d753 10bf
000000d0: 3c94 19be f8eb 5cbf 39dd debd 1906 4dbf
000000e0: 3535 47bf 3c64 90be 7f2d dabd 781f c3be
000000f0: eac6 abbe 1fd8 6dbf d05a 243e 96af 55bf
00000100: 1493 16be 6aad 38bf 2155 743e 3072 23bf
00000110: af9e 8dbe c3ef 30bf 6a39 db3d 9919 21bf
00000120: f562 f53e 8b88 06bf d1fa 0dbf 6789 b2be
00000130: 6d5a b43e 3f15 3abf 60fa cabe e801 9b3d
00000140: debd 55bf 635f 163b f869 66be 08aa f7be
00000150: beda b6be 9c33 dbbe ea94 27bf a097 f9be
00000160: b3d3 47bf 14a0 3abf 1850 a4be 0dd9 a63e
00000170: 8c43 03bf 4e57 96be 5d12 5bbf 7373 2dbe
00000180: 58c9 9dbe 65a4 59bf 1e5b f0be 2219 53bf
00000190: a3c8 503e a0b0 5dbf b122 9bbe 8821 06be
000001a0: f1d9 bf3d 4445 c1be 44d2 37bf cf5f a9be
000001b0: 51f3 d53e ff7b aebe f577 0d3f fe28 aabe
000001c0: 2769 6bbf 2205 5cbf b372 acbd 9674 9d3e
000001d0: 96a8 7fbd 2bcc 5b3e 31ab 25bf aeac 19bf
000001e0: 1c57 313e b029 a6be 0087 38bf 5a12 af3e
000001f0: ffc6 81be dcd5 aebe 2011 26bf 7a29 873d
00000200: 1434 0abe a0dd 95be cb66 02bf 2ed5 e7be
00000210: 42f2 0cbf aaa6 66bd c012 11bf 9de9 e9be
00000220: 9daa 62be ea98 b0be 7474 02bf c253 3ebe
00000230: afe1 eebe 4905 29bf 2516 23bf cfd0 f7be
00000240: ea9e fdbe 04ed f1be 1bb4 debe 794d 11bf
00000250: b762 09bf d24b e7be 3f17 0bbf 0af1 14bf
00000260: b4f7 1fbf 2487 13bf 85aa 05be 1d66 d9bc
00000270: 3e7b 9abe dcbd 2ebf 30a5 b0be eeff 01be
00000280: d23e 0fbf 07ba f6be 46ca 87be 908d f9be
00000290: af47 77bd 4d0a 25bf fe52 b9be b524 0cbf
000002a0: 36d1 f3be b80d 28bf e57e cdbe fde1 a7be
000002b0: 1b8a f5be d1f0 59be 59d2 2abf be60 1ebf
000002c0: 4d46 bdbe 694f f9be 3d34 dcbe 39c4 f5be
000002d0: 8655 34be a48b e3be 4be6 a3be 4cb7 febe
000002e0: 126d 03bf 7a99 b3be 9a3b a1be 9acd 0ebf
000002f0: 816c 06bf b7bd 15bf 5ca6 1dbe 5a2e 21bf
00000300: 10fb 4ebe c84a 1abf 60f3 3dbe 0a0a e3be
00000310: 8c9f 14bf 6af5 27bf 7d27 8bbd b356 e7be
00000320: 8450 1ebc 796b 0fbf f0b2 0ebf 9402 b7be
00000330: 6b98 5fbe 804f 20bf df6d 89be 546d 8bbe
00000340: 978c 19bf d54e 7fbe 4214 e3be 152a 0fbf
00000350: ad53 dfbe 2143 17bf e077 2ebf 737a 0bbf
00000360: 8b46 f7be 0f51 e7be cce8 b2be 7ba5 8ebd
00000370: 24ed 05bf d426 f3be fee6 ebbe 8f48 98be
00000380: bac2 1fbf 5d92 15bf 21d0 12bf c87f 1bbf
00000390: b818 7abd b17c f5be 2cbd f4be 7e63 4fbe
000003a0: a3b2 53be e623 d9be 8077 01bf 3128 05bf
000003b0: 574b 71be 5546 13bf 0dc3 41be 6b77 18bf
000003c0: d9b4 0fbf 1ffe 0ebf 4212 8fbe e2fc 3dbe
000003d0: 53e1 93be 6652 f5bc aac5 0abf 3be3 11bf
000003e0: 142a ecbc 68ed babe 6425 e3be 20f1 d6bd
000003f0: cd62 0ebf 420b c3bd 2670 14bf b43a 77be
-0.07262148 -0.14199577 -0.3492793 -0.2038639 -0.88573533 -0.13327385 -0.67633635 -0.1305965
-0.45260593 -0.045519453 -0.3193608 0.3868572 -0.2686008 -0.7619808 -0.9092695 -0.36729282
-0.716201 -0.6644284 -0.701935 -0.746794 -0.63643163 -0.75493413 -0.66358733 -0.9078525
-0.5871927 -0.40371668 0.22495916 0.22667372 -0.10643626 -0.6515256 -0.05363249 0.09648989
-0.70046985 -0.54396206 -0.022515241 -0.8264788 0.11306682 -0.49525777 -0.3598638 -0.6178824
-0.53263694 -0.3827921 -0.38306653 0.30223513 -0.7170867 0.1669557 -0.7362666 -0.7530473
-0.10682875 -0.3266494 -0.24688572 -0.5637793 -0.14997953 -0.8629756 -0.108820386 -0.8008743
-0.7781556 -0.28201473 -0.10653209 -0.38109946 -0.33550197 -0.929079 0.16050267 -0.8347105
-0.14704543 -0.7213961 0.23860599 -0.6384611 -0.27660128 -0.6911585 0.1070431 -0.62929684
0.4792706 -0.525521 -0.5546084 -0.34870455 0.3522524 -0.7268867 -0.39644146 0.07568723
-0.8349284 0.0022945039 -0.22501361 -0.4837191 -0.35713762 -0.42812812 -0.654616 -0.48748493
-0.780574 -0.7290051 -0.32092357 0.32587472 -0.51274943 -0.29363483 -0.85574895 -0.16938572
-0.30817676 -0.8501647 -0.46944517 -0.82460225 0.20389037 -0.86597633 -0.30299905 -0.13098729
0.09367741 -0.37748158 -0.71805215 -0.3308091 0.41787198 -0.34078977 0.55261165 -0.332344
-0.91957325 -0.8594533 -0.08420315 0.3075301 -0.062416635 0.21464603 -0.6471434 -0.60029113
0.17318386 -0.3245368 -0.72080994 0.3419369 -0.25347134 -0.34147537 -0.6486988 0.06599708
-0.13496429 -0.2927065 -0.509381 -0.4527983 -0.55057156 -0.056311287 -0.56669235 -0.45686045
-0.22135396 -0.34491664 -0.50958943 -0.18586639 -0.46656558 -0.6602369 -0.63705665 -0.48401496
-0.49535304 -0.4725114 -0.43496785 -0.5675884 -0.5366625 -0.45175034 -0.54332346 -0.58180296
-0.6248734 -0.57628083 -0.1305333 -0.02653795 -0.3017215 -0.6825845 -0.34501028 -0.12695286
-0.5595523 -0.48188803 -0.2652151 -0.48740816 -0.060371097 -0.6446884 -0.3619613 -0.5474351
-0.47620553 -0.65645933 -0.40135875 -0.32789603 -0.4795693 -0.2128327 -0.66727215 -0.61866367
-0.36967698 -0.48693398 -0.43008605 -0.48001269 -0.1761075 -0.44442475 -0.32011637 -0.4974922
-0.51338303 -0.3507803 -0.31490785 -0.55782473 -0.52509314 -0.58492607 -0.15395492 -0.6296135
-0.2021296 -0.6027036 -0.18549871 -0.44343597 -0.5805595 -0.6560885 -0.06794641 -0.45183334
-0.009662751 -0.56023365 -0.55741787 -0.35744154 -0.21835487 -0.6262131 -0.26841637 -0.27231848
-0.5998015 -0.24932416 -0.44351393 -0.5592359 -0.43618527 -0.59086806 -0.68151665 -0.5448372
-0.48296008 -0.4517903 -0.34943235 -0.06965157 -0.5231497 -0.4749056 -0.4607467 -0.29742858
-0.62406504 -0.5842646 -0.5734883 -0.60741854 -0.06105873 -0.47946694 -0.47800577 -0.20252797
-0.20673613 -0.424102 -0.5057297 -0.5201445 -0.23563896 -0.57529193 -0.18922062 -0.5955722
-0.56135327 -0.5585651 -0.27943617 -0.18553498 -0.28882846 -0.029946517 -0.5420786 -0.5698735
-0.028828658 -0.36509252 -0.44364464 -0.1049521 -0.5561951 -0.09523632 -0.57983625 -0.24143487

lstm.bias_hh_l0 f4 [512]
00000000: 98a7 0b3d b789 f3bd 02d0 cebe d8d3 80be
00000010: a499 65bf 0623 debc 1e5f 46bf feec 79be
00000020: 9ebb b7be 68ad babd f041 9cbe 3b19 f73e
00000030: 100b 62be e375 6abf 4a53 51bf 2fda dbbe
00000040: d0eb 2abf b218 28bf efb5 2abf e112 3dbf
00000050: c2bf 13bf 9f34 41bf 481d 42bf 1976 73bf
00000060: ed4f 29bf fbdd d5be 36b8 f33d 4dd4 263e
00000070: 153d 44bd 0626 25bf c09b 56be 0a75 773e
00000080: 9024 3bbf 437d 24bf 3d09 18be 3c75 4cbf
00000090: fe2f 6a3e 3018 1ebf d7ad 00bf 8952 20bf
000000a0: ea61 30bf c92a dfbe defe 7abe 1bc4 d93e
000000b0: d81d 2fbf 72cd 0f3e b29d 28bf 5851 22bf
000000c0: 35e1 5fbe 7e9b 9cbe 2b2c abbe fdfa 01bf
000000d0: 3c03 efbd dd06 56bf 8510 fcbd 4237 53bf
000000e0: edee 5dbf b40f adbe c4d2 40bd 6985 c2be
000000f0: e398 d2be bbf0 6abf 1fbf 6f3e a832 47bf
00000100: 89e1 50be 3eb9 4ebf 1a95 263e 6259 12bf
00000110: 88df 8ebe 0cbc 18bf 769c 063e 7945 26bf
00000120: 50b6 d03e ca72 04bf 26e8 15bf 0c16 82be
00000130: f665 dc3e d8aa 35bf 3f07 87be c88e 943c
00000140: c22e 4fbf d44d ebbb 53c3 4cbe a4cb b5be
00000150: 8a64 b1be 67f9 c2be ab78 2dbf 1899 f0be
00000160: 800b 3fbf 565a 2bbf 8e67 a4be 02e1 ad3e
00000170: 17be f5be 9415 41be 77f2 49bf d9cb 1fbe
00000180: 19f9 34be 247f 4fbf dd49 d7be 7f4a 2ebf
00000190: 86da 9c3d ff07 43bf c1ac d7be 10d3 85bd
000001a0: 68c1 ab3d b5de 03bf b837 2abf 2c0e b0be
000001b0: 78e7 da3e 8efb abbe 4af2 193f 116a a4be
000001c0: 9656 46bf 24fc 5dbf 8b83 c0bd 60c5 513e
000001d0: 0565 2b3d 708e 4d3e fbd3 1bbf 85aa 23bf
000001e0: eab4 4f3e 1c51 88be aad0 16bf ffe8 d23e
000001f0: 1051 68be dd25 6cbe 7c40 18bf dac6 d23d
00000200: 90b0 1abd 0180 96be 12e3 17bf 6e15 04bf
00000210: 8dd8 33bf c5b5 46bd b6dc e6be aad8 d5be
00000220: 928f bebe 6250 a6be 635a bebe 91ac 7abd
00000230: dadf c1be 3d0e 21bf 2c1d f8be 75cd 04bf
00000240: bbb8 0bbf 94f2 00bf 5c14 13bf fe3b 21bf
00000250: 4fb0 13bf d647 e9be 57ca 20bf d3f3 07bf
00000260: 1b17 f2be eb04 15bf 6705 5ebe b8de 7dbd
00000270: b4f7 c8be 3bed 19bf 1804 c6be 1c17 c4bd
00000280: 06bb 17bf 8f2e 13bf 6614 34be 283d 06bf
00000290: 55f6 46bd ee46 2ebf a93c e8be 710b 10bf
000002a0: ff25 04bf 3a48 19bf 06a1 f4be 4c9e 64be
000002b0: caa0 12bf 79e3 72be 3347 0dbf bbee 12bf
000002c0: 73b9 edbe 771b e2be 539b d9be 98b6 ffbe
000002d0: 1225 a3be 74ae f4be 1287 b8be 0bdf e0be
000002e0: 83de 04bf a588 a3be a466 b0be e497 0fbf
000002f0: 7132 ddbe 769e 0dbf 594b 61be 953c 0fbf
00000300: 404c 39be 65b7 12bf f16f 3abe c7a1 e6be
00000310: 8152 15bf 36ef 24bf 8d99 20be cc2d f4be
00000320: 7e95 6fbc d6fe 1ebf 7ca7 f8be 1e13 fcbe
00000330: 6ba1 ffbd 8d67 0abf 56a3 bfbe 34a6 2dbe
00000340: 6f7b f3be a003 8fbe 9c1c 12bf 251f fabe
00000350: 3121 0ebf 08e1 36bf c1df 2fbf f977 e7be
00000360: fa74 01bf e042 1bbf bcd3 cabe 9cc3 23be
00000370: 6dba 0abf 2a4f c8be 1faf e3be d175 d4be
00000380: b21e 1dbf 65fa 2abf 4cc0 e3be e9e9 0cbf
00000390: e107 41be de97 14bf 87d7 e8be 3dbc 43be
000003a0: 974f 8cbe 227d 06bf 2d5b f2be eded 10bf
000003b0: 1197 48be 9af7 10bf b175 20be d008 e7be
000003c0: 24a4 15bf a27d 13bf b0c1 d7be 38f7 05be
000003d0: a40d a7be b1c7 f53c a234 06bf df69 33bf
000003e0: 7732 d2bd 371a cabe fc10 d0be 1b1d 66be
000003f0: 6982 e6be e0de c0bc 6290 07bf 27c8 53be
0.034095377 -0.118915014 -0.40393072 -0.25161624 -0.8968756 -0.02711631 -0.7748889 -0.24406812
-0.35885328 -0.09115106 -0.30519056 0.48261437 -0.22074533 -0.9158613 -0.81767714 -0.42939898
-0.6676607 -0.6566268 -0.6668386 -0.7385693 -0.57714474 -0.7547092 -0.7582593 -0.9510208
-0.6613758 -0.4177092 0.1190037 0.16291924 -0.047909815 -0.64511144 -0.20957851 0.2416574
-0.73102665 -0.64253634 -0.14847274 -0.79866385 0.2286987 -0.6175566 -0.5026526 -0.6262594
-0.68899405 -0.4358733 -0.24511287 0.4253243 -0.6840491 0.14043215 -0.65865624 -0.6340537
-0.21863253 -0.3058738 -0.33432135 -0.507736 -0.11670539 -0.8360422 -0.12307838 -0.8250619
-0.86692697 -0.33801043 -0.047076 -0.3799241 -0.41132268 -0.91773576 0.2341275 -0.7781167
-0.20398535 -0.8075141 0.16267815 -0.5716764 -0.27904916 -0.59661937 0.13145623 -0.64949757
0.40764093 -0.51737654 -0.58557355 -0.25407445 0.4304654 -0.7096381 -0.26372716 0.01813449
-0.8093072 -0.0071809087 -0.19996385 -0.35506928 -0.34647018 -0.38080904 -0.6776225 -0.469918
-0.7462692 -0.66934717 -0.32110256 0.3396073 -0.4799659 -0.18855888 -0.78885597 -0.15605105
-0.17673148 -0.81053376 -0.4204854 -0.6808242 0.076588675 -0.76184076 -0.42123988 -0.065343976
0.08386499 -0.515117 -0.6649127 -0.34385812 0.42754722 -0.33590358 0.6013533 -0.32112172
-0.7747587 -0.8671286 -0.0940009 0.20485449 0.041844387 0.20073867 -0.6087033 -0.6393207
0.20283857 -0.26624382 -0.58912146 0.41193387 -0.22687173 -0.23061319 -0.59473395 0.10291834
-0.03776604 -0.29394534 -0.59330857 -0.515952 -0.70252305 -0.048513193 -0.45090264 -0.41766864
-0.3721891 -0.32483202 -0.37178335 -0.06119973 -0.37866098 -0.6291235 -0.48459756 -0.51876
-0.5457875 -0.50370145 -0.5745294 -0.62982166 -0.576909 -0.4556262 -0.62808746 -0.5310642
-0.47283253 -0.5821063 -0.21681748 -0.06197998 -0.39251482 -0.6012761 -0.38674998 -0.0957472
-0.5926975 -0.5749292 -0.17585906 -0.5243707 -0.048574764 -0.6807698 -0.4535878 -0.5626746
-0.5162048 -0.59875834 -0.477791 -0.2232601 -0.57276595 -0.23719586 -0.55186766 -0.57395524
-0.4643055 -0.4416158 -0.42501315 -0.49943995 -0.3186422 -0.47789347 -0.3604055 -0.43920168
-0.51902026 -0.3194019 -0.3445331 -0.5609114 -0.43202546 -0.5531992 -0.22001399 -0.55951816
-0.18095493 -0.5731109 -0.18206765 -0.450453 -0.58329016 -0.64427507 -0.15683575 -0.4769119
-0.014623044 -0.621076 -0.4856528 -0.49233335 -0.1248196 -0.54064256 -0.37429303 -0.16957933
-0.4755511 -0.27932453 -0.57074904 -0.48851886 -0.55519396 -0.7143712 -0.68700796 -0.4520872
-0.5056912 -0.6064892 -0.39614666 -0.15992588 -0.54190713 -0.39122897 -0.44469544 -0.41496137
-0.6137496 -0.6678832 -0.44482648 -0.5504442 -0.18850662 -0.5804423 -0.45476934 -0.19114776
-0.27404472 -0.5253469 -0.47335187 -0.56613046 -0.19588877 -0.5662781 -0.15669896 -0.4512391
-0.58453584 -0.57613575 -0.4213996 -0.13082588 -0.32627594 0.030002447 -0.5242406 -0.7008342
-0.10263532 -0.39473125 -0.40637958 -0.2247204 -0.4502137 -0.023543775 -0.52954686 -0.20681821

lstm.weight_ih_l1 f4 [512, 128]
00000000: 772b 123e e3b0 e73e fdd9 9bbd 3d65 833e
00000010: 9781 9dbd a049 0abe bf4e 51bd 0c8f c73c
00000020: 7222 d33d 9087 68bd 8d48 433e ade5 c73d
00000030: bd81 67bd ec8d e33c 8ba9 e9bd 88a5 dbbd
00000040: 938b 2b3e 01f6 e53d 21b1 5c3d dd32 dd3c
00000050: 401b dbbc 8728 1dbd 6098 283d 9dd4 bcbd
00000060: 883e 533d eb7c 58be 80c1 b13d b54a 47bd
00000070: e3c7 a43e 79b1 07bd 5089 fcbd bd07 ffbd
00000080: c9ec 063e c1c6 61be 5262 6a3d 81f4 d33d
00000090: d407 9abe 3895 283e bf61 0f3e d513 60bd
000000a0: d02b 433e 2f01 973c a451 4f3e 4dff 5bbe
000000b0: a57b 613c 98e2 f73d 3f18 9fbe 4550 3a3e
000000c0: c3c7 62be eb9f 2cbe 53fd cbbd b09a 32be
000000d0: 0534 c83b 1243 9cbd 53ad a1bd 5c34 d0bd
000000e0: 8c43 9bbc a376 2bbd 498f 57bd d1b7 2dbd
000000f0: 3a6e 3b3e 1a6f 71ba a51a cabe 8d3a 463e
00000100: 5595 2f3e a93d e6bd 71e6 903c 7350 5dbe
00000110: 7828 acbc 9d3f dbbd cf48 31be fceb 9cbd
00000120: 7080 7fbd a13a b0bc c54b b6bc 0e0f d53d
00000130: 20dc ebbd 499a eebd f05f 51bc 6129 7d3d
00000140: 020f b03c b3c9 5c3e f0c7 ca3d 1735 303d
00000150: a382 183d 9f22 c03d a0ef 2cbe ff70 e83d
00000160: ab51 e5bd 3220 0dbe 4c26 88be 17ea 24be
00000170: 1827 2f3e ce0a 973e a69d d73b d980 483e
00000180: 38bc 50bd bcc7 25bd 203e 1e3e 833e 43be
00000190: 946f 03bd bae4 84bb 307f d3bd bb47 f83d
000001a0: 3846 3e3e 240b 81bd 7ffa 8fbe 6997 a83b
000001b0: 15db 85be f845 f33d 1d08 abbb 020c c7bd
000001c0: 42a7 01bd fdb7 12bd 5f40 0dbd 6064 20be
000001d0: 34f3 96be d5c3 bdbe 685b 9d3d 0054 fe3d
000001e0: 66ba 193b d034 43be a871 bd3d c606 433e
000001f0: aea5 17bd 1e41 963d 428c d8bd b0d0 363e
00000200: df96 b33d 59ac ae3d 76d8 383d 9d9b 5f3d
00000210: 0ba3 48bc 1535 08be a334 d5bc b4a5 3f3b
00000220: 1e8b 77bc 525c 2b3e 91b4 20bd 1e50 23bd
00000230: b046 dbbd 14fd 04bd 5824 d43c 8771 cbbd
00000240: 3cb7 633d 8770 9c3d b508 dfbd 3ebd 0e3d
00000250: e160 23bd 96e2 aabd 9dd3 cc3d 4178 a63c
00000260: 5388 2ebd 2875 95bc 5ac0 9dbd 1927 3e3e
00000270: f7f7 a73d c3e4 dc3c 8927 27bd 00a3 fdbd
00000280: b42f 26bd a1ff 7bbc 7a1d 61bd ecc5 6c3c
00000290: 08ce 48be ac20 abbd fc04 c53d d240 06bd
000002a0: da90 683d e4f4 9ebb f17a 1b3c be95 8cbd
000002b0: 1344 923d daaa 8f3d d567 3ebd ce75 cabb
000002c0: b313 113d 795e 0fbe 7f38 2ebd d498 c7bd
000002d0: c5c8 a33d b28c a9bd b213 31bd 8d6b 803a
000002e0: 9383 cf3d 75a8 b4bb 5758 f2bd 4d5a 943a
000002f0: 114a aa3d 34eb b7bd ce10 26be 1023 c7bc
00000300: 62b8 2c3d b5dc ffba cd5f 4c3d c43b 25bd
00000310: bccc 793c 982b 37bd 82be d93c 12ba 40bd
00000320: 3620 b8bc 4a36 4fbc 3337 b43d d16d c83b
00000330: a375 13be 822f 3abd 8086 e3bd 857b b13d
00000340: 19d0 4e3d a5f5 843c a01c e0bc 4c95 213d
00000350: 7089 163c df59 513c c6ae 83bd c1c8 8fbd
00000360: c44e 8abd 6a52 04bd 688e 1ebd 022c 06be
00000370: 1e6d 43bd fc0c c93d d000 ac3d 4bdd bd3d
00000380: 8f47 cd3c 873d b53c d616 80bb e9aa bcbd
00000390: b6b0 67bd 0bc5 b5bd e6e0 00be e22f 0dbd
000003a0: 7836 903d 8913 67bb 562e cbbc 08fa 013d
000003b0: 681a 81bd 4f03 09bd 97e9 3abd ef3e f53d
000003c0: 3848 b33d ba04 8b3d 73cc c03c ccdc 593c
000003d0: 5417 f3bd dd7c 39bd 29aa a93b 34f2 8c3d
000003e0: 85d1 08bd 10d7 46bd 142e f7bc f46f 59bd
000003f0: d540 b93b 1cd0 c93d 2487 9f3b 9f0e 1f3e
0.14274393 0.4525214 -0.07609937 0.25663176 -0.07690733 -0.13504648 -0.05110049 0.024360202
0.10309304 -0.056769907 0.19070645 0.09760604 -0.056520212 0.027777635 -0.11409291 -0.10724932
0.16752462 0.11228562 0.05387986 0.027001793 -0.026746392 -0.038368728 0.04116094 -0.0922024
0.051573306 -0.21141402 0.08679485 -0.04865523 0.3218375 -0.033128235 -0.12330878 -0.12452648
0.13176264 -0.22048475 0.05722267 0.1034937 -0.30084097 0.16463172 0.14002131 -0.054706413
0.19059682 0.018433182 0.20245987 -0.21484108 0.013762389 0.12103766 -0.31073186 0.18194683
-0.22146516 -0.16857879 -0.09960427 -0.17441821 0.006109717 -0.0762998 -0.07894387 -0.10166237
-0.018953107 -0.041861188 -0.05262688 -0.04241163 0.18303767 -0.0009209976 -0.39473453 0.19358273
0.1714681 -0.112422295 0.017688008 -0.2161272 -0.02101539 -0.10705493 -0.1731293 -0.07662198
-0.062378347 -0.021512331 -0.022252927 0.10403262 -0.11516595 -0.11650521 -0.012779221 0.06180704
0.021491531 0.21561317 0.09901416 0.04301938 0.03723396 0.093816034 -0.16888285 0.11349677
-0.111972176 -0.13781813 -0.26591718 -0.16104923 0.17104757 0.2950043 0.0065800725 0.19580401
-0.05096075 -0.040473685 0.15453386 -0.19066815 -0.03208883 -0.0040555866 -0.103269935 0.121230565
0.18581474 -0.06300953 -0.281208 0.0051450026 -0.2614371 0.1187858 -0.005219473 -0.09719087
-0.03165365 -0.035819996 -0.034485217 -0.1566329 -0.29482424 -0.3706347 0.0768345 0.124183655
0.002345705 -0.19063115 0.09250194 0.19045553 -0.03702324 0.07336639 -0.10573627 0.17853045
0.08769011 0.085289665 0.04512831 0.054591764 -0.012245904 -0.13301499 -0.026026076 0.0029243054
-0.015108852 0.16734436 -0.0392347 -0.039871328 -0.10706842 -0.032467917 0.025896236 -0.09933763
0.055594668 0.076386504 -0.108903326 0.034848444 -0.039887313 -0.08343999 0.100012995 0.020321013
-0.042610478 -0.018244341 -0.07702704 0.18569602 0.082015924 0.02696455 -0.040809188 -0.123846054
-0.040572837 -0.015380771 -0.05495975 0.014451485 -0.19609845 -0.08355841 0.09620091 -0.03277666
0.056778766 -0.0048509706 0.009489761 -0.068644986 0.071418904 0.07015009 -0.04648574 -0.006178594
0.035419177 -0.14000882 -0.042534348 -0.097459465 0.07997278 -0.082787886 -0.043231674 0.0009797678
0.10132518 -0.0055132457 -0.11833256 0.0011318416 0.08314908 -0.08980408 -0.16217348 -0.024308711
0.04216803 -0.0019520732 0.04989605 -0.0403402 0.015246566 -0.04471931 0.026580099 -0.04705245
-0.022476297 -0.012647221 0.08799591 0.0061166068 -0.14400344 -0.045455463 -0.11109638 0.086661376
0.050491426 0.016230414 -0.0273574 0.03944902 0.009188041 0.012777775 -0.0642982 -0.07020713
-0.067533046 -0.03230516 -0.038710028 -0.13102725 -0.047711484 0.0981693 0.083985925 0.09270724
0.025058536 0.022124065 -0.0039089723 -0.09212286 -0.05656501 -0.088754736 -0.12585792 -0.034469493
0.07041639 -0.0035259447 -0.024802368 0.03173259 -0.06303865 -0.03345042 -0.045632925 0.11974894
0.08754009 0.06788011 0.023534989 0.013297271 -0.11869684 -0.045285095 0.0051777554 0.06882134
-0.03340294 -0.048544943 -0.030173339 -0.053085282 0.0056534805 0.09854147 0.004868405 0.15532921

lstm.weight_hh_l1 f4 [512, 128]
00000000: 67f1 5bbb fb3d bdbd 06e7 093e 98a0 8a3d
00000010: a8b0 87b9 8de2 9c3d e931 09be 243f 0a3e
00000020: 8c26 453d caa9 03be 250b ed3c d8ae 543c
00000030: f26c 9b3d 6a36 183e f5d9 943d 5251 06be
00000040: 8f56 c93d 9645 73bd e252 a23d c5f3 2fbe
00000050: 6015 d23d 8b98 febd a34e 74bd eda6 213e
00000060: b7cd 7e3d f8fa f43d 6e70 ddbd db39 54be
00000070: 6063 60bd f9cd 9dbd 4974 8b3c 1311 70bc
00000080: e10c 293e cd86 b3bb 036c 1fbd addd 2b3e
00000090: 95b1 303e 82d5 d2bd f99c aebd 6590 d63d
000000a0: 0dae 96bc b24a 4a3d bd62 81bd bd3e a4bd
000000b0: 08bc ce3d 2198 23bd d4e8 cfbc 81a2 82bd
000000c0: 83c9 03bc 95c9 6ebd a281 ab3c 6fbf 8fbd
000000d0: 0d28 d93d b93c 9abd 0d67 01be 63cf fbbd
000000e0: c8e4 a03d 5d93 6e3d cf95 8b3d cf11 503e
000000f0: d82c 54be 5eef d0bd 98e8 9fbc ae1a 173d
00000100: 8dad 10bd a7b7 2dbd 6197 ff3c 8a34 3b3e
00000110: 3190 8bbc 2118 453d d9d1 a33d 58bd 67bc
00000120: eee0 d6bd 2b8c 4bbd 803c 04be 43fb 92bd
00000130: 8335 b5bd 1ec5 0abe 7d2f adbd 2617 5e3e
00000140: 8f74 42bd bafb 83be e99b b53c a40b f23d
00000150: 0584 aa3d 294d dabd 0b4a 813b 91ec 7cbb
00000160: f0cd c6bc ff77 2a3e 07d1 aabd 6e1b 18bd
00000170: 8423 d3bb 1c96 4b3d b739 f03d 1de2 f8bc
00000180: 9233 893d 7665 32be 8d02 0ebe cfa9 663e
00000190: 4b75 7a3e 9d3a 57bd 9cd2 933e 30fc 123e
000001a0: c323 9c3c 252e 66bd ca7c 31bd c404 cc3d
000001b0: 06bc ea3d 1e2f ebbd 5d4b 8b3d b6de c6bd
000001c0: 8fee 91bd dd91 463d a729 8f3d 5348 093d
000001d0: 9967 1b3e 37cb 4f3d 036d d1bd d449 b23b
000001e0: 8f0a cabd 655d 903c 5e45 1abd 67d2 043e
000001f0: ba0e 02be 2b0c 113e adac c5bd 7e22 283e
00000200: 135e b23c 3551 a23d 2e79 3a3e a6c5 163e
00000210: 882f 9e3d d404 1abe 748b 5b3d c760 5ebd
00000220: 73dd 55be 3c0e 00be 551c 2bbd ddd6 7fbd
00000230: 966f e53d a3ac ef3d 2a99 233e b046 493e
00000240: 3276 7cbd 2889 93bd a9ea 84be e8e3 0a3e
00000250: 2af4 64bc 5835 48be 583f cc3d 1ad6 4cbc
00000260: 39bb 89be eaaf d13d b628 9fbc 2cb2 f5bc
00000270: bc60 1dbd 9060 083c fb0e 1a3e 4e02 743b
00000280: 4c95 4fbc fc1b dabc ad58 0bbd e9aa 29bd
00000290: 23e2 0cbb 4c9c 8fbd 00af efbc 4754 053e
000002a0: 8b8a 543d eb97 acbd dcc0 493d 4a84 92bd
000002b0: a2fb b8bd 41b9 7b3d 5eed 053e 2456 c23c
000002c0: 4de1 cd3d 6f0c c7bd 82d4 89bd b92b 043e
000002d0: 60aa fb3c dac3 473d 08c4 3d3d c464 b33d
000002e0: d31b 2bbc fd6e fa3c 3993 89bd c2f2 023e
000002f0: 3817 e1bd 580f 46be 3782 643d a55c f93d
00000300: 3594 39bd a47b ea3d a6ba 973d e143 9e3d
00000310: a965 5f3d da1b 03be 5b4b 6b3d f6dc cb3c
00000320: 0420 933d e572 2cbe 9b24 6bbd adfb c7ba
00000330: 91d8 d93c 4c06 b4ba f40b 123e e0a7 b83b
00000340: b722 56bd 0149 bebd b3ac 81bd 160c 773d
00000350: b4d3 ab3d 75a4 cb3c 8f0b f3ba 95e6 bbbb
00000360: ce31 6ebc 5e18 da3d 9b38 39be a35f 7ebd
00000370: bbc7 e03c 8e05 003e c903 d73d df42 c7bc
00000380: d3c6 8bbd 343b e0bb f37b a2bd 0a06 0e3e
00000390: 90ee b7bd 1af8 edbc 813f f23c 7d36 593d
000003a0: 3d72 4fbd a1a3 0f3e 8a9b babc a8de 46ba
000003b0: 4a24 bd3d e300 0d3e ce7d 96bd b51e a4bd
000003c0: 005e 25bc be2e f73d 3c08 053e 4966 ab3d
000003d0: e5dc 573d 0f5f 1bbd 2621 13be d47c ac3d
000003e0: 6aa3 85bd a985 a63d 85c9 afbb 78ae 9cbc
000003f0: 52dd 90bd 6571 7b3b 94f3 82bd dd2f 783e
-0.0033560635 -0.092403375 0.13467035 0.06768912 -0.00025880826 0.07660399 -0.13397945 0.13500649
0.048132464 -0.12857738 0.028935978 0.012981139 0.07589139 0.14864507 0.072681345 -0.13116959
0.09830963 -0.059392534 0.07925965 -0.17182834 0.10257983 -0.12431439 -0.059645306 0.15786333
0.062207904 0.11961931 -0.1081246 -0.20725195 -0.05478227 -0.07705302 0.017023223 -0.014652508
0.16508819 -0.005478716 -0.038921367 0.16783781 0.17255242 -0.1029463 -0.08526034 0.1047676
-0.01839354 0.04938764 -0.06317661 -0.08019779 0.10094458 -0.039940003 -0.025379576 -0.063786514
-0.00804365 -0.058297712 0.020935837 -0.07018935 0.10603342 -0.07531113 -0.12636967 -0.12295415
0.078561366 0.058246005 0.06815683 0.20319293 -0.20720232 -0.10201906 -0.019520089 0.036890678
-0.03532176 -0.042411473 0.031200113 0.18281761 -0.01703653 0.048118714 0.0799901 -0.014144264
-0.10492121 -0.04969422 -0.12913704 -0.071768306 -0.08848097 -0.13551757 -0.08456323 0.21688518
-0.04747444 -0.2577799 0.02216907 0.118186265 0.08325962 -0.106592484 0.003945594 -0.0038593153
-0.02426812 0.16647337 -0.0834065 -0.037135534 -0.006443443 0.049703702 0.11729758 -0.030381257
0.066992894 -0.17421517 -0.1386816 0.22525714 0.24458806 -0.052546132 0.2887162 0.14354014
0.019060021 -0.05619635 -0.0433319 0.099618465 0.11461644 -0.11483596 0.06801484 -0.097104475
-0.071255796 0.04847895 0.069903664 0.03351624 0.15176238 0.05073091 -0.102258705 0.00544093
-0.09865295 0.017622659 -0.03766381 0.12970887 -0.1270093 0.14164798 -0.09652076 0.16419408
0.021773374 0.07925645 0.18210289 0.14723834 0.077239096 -0.15040904 0.05359979 -0.054291513
-0.20885257 -0.1250543 -0.041775066 -0.06246077 0.11202924 0.1170285 0.15976396 0.19655871
-0.061636157 -0.07203895 -0.25960281 0.13563502 -0.013974229 -0.19551599 0.09973019 -0.012502218
-0.26900652 0.10238631 -0.019428592 -0.029992186 -0.03842233 0.008323804 0.15044777 0.003723282
-0.0126698725 -0.026624672 -0.034020115 -0.04142276 -0.0021497093 -0.07012233 -0.029258251 0.1302043
0.051889937 -0.084274136 0.04925619 -0.071541384 -0.0903237 0.06145597 0.1307883 0.023722716
0.10052738 -0.097191684 -0.06729986 0.12907304 0.03072089 0.048770763 0.046329528 0.08759454
-0.0104436455 0.030570501 -0.067175336 0.12787917 -0.10990757 -0.1934179 0.055788245 0.12175874
-0.045307357 0.11449364 0.07408647 0.077277906 0.05454031 -0.12803593 0.05744491 0.024885636
0.07183841 -0.16840704 -0.057407957 -0.00152575 0.026592525 -0.0013734787 0.14262372 0.0056352466
-0.0522792 -0.09291268 -0.06331768 0.06031426 0.083899885 0.024858693 -0.0018542873 -0.0057342746
-0.014538242 0.10649179 -0.18088 -0.062102925 0.027438989 0.12502119 0.10498769 -0.024323879
-0.06825032 -0.006842995 -0.07933798 0.13869491 -0.08981049 -0.029048968 0.029571297 0.05303048
-0.050646055 0.14027263 -0.022779245 -0.0007586279 0.09235437 0.1376987 -0.07348214 -0.080136694
-0.010093212 0.12069462 0.12991422 0.08369119 0.052700896 -0.03793245 -0.14368114 0.084222466
-0.065253094 0.081309624 -0.005364599 -0.019126162 -0.070734635 0.003836715 -0.06394115 0.24237008

lstm.bias_ih_l1 f4 [512]
00000000: 58c1 24be 9136 44be 00c2 753e fd17 9abe
00000010: fa9e 3e3e 39f8 3ebd cbfe 0fbf 4c2a 1ebf
00000020: 72af 653f 219a 58bd 5edf 78be 049d 35bf
00000030: c35f c5be 5c69 25bf 9cda 81be 9253 233e
00000040: 286b 78be dc7c 13bf dc43 143e e1d0 69be
00000050: a569 87be b4c3 5f36 7e5b 1bbf 5b91 a2bd
00000060: c4b0 b73c 187e ebbe 05c4 a7be c0cb 223d
00000070: b945 42bd 32c6 19be 7728 02bf 755c 26bf
00000080: 000e 68be 315c 00bf f317 67bf 5faa 093e
00000090: 5826 19bf d421 82be a3b2 43bf efe9 9cbd
000000a0: 2052 73bb e854 69bf 34a6 74be fb01 dbbd
000000b0: 894c 6ebe 3613 8cbe 9a23 2abd 14b1 62bf
000000c0: 7107 0cbf c589 d3be 5d8f b6be 2c49 2cbf
000000d0: 6579 ecbe 64bb 3bbf 0c58 1abf 416d 1ebf
000000e0: 70e7 37bf 531c 1bbf 60fd eabe bf5d 203e
000000f0: 3105 1ebe a757 07bf 2b1a e8be 026d 11bf
00000100: 3120 f0be e20c 1bbf 145a d5bd 8f3a 88be
00000110: 8e37 b2be ce37 12bf 3e67 02bf 709e 94be
00000120: 5624 46bf 13c0 a7bd ac1e 74be 87df 09bf
00000130: b522 cabe dd92 0abe e24b 0dbf f038 a1be
00000140: c2f0 95be 8159 12bf ac21 04bf 9add 953d
00000150: 82d1 dcbe 4441 06bf a8b1 72bf 2d12 0bbf
00000160: f2ac 47be 56c9 e2be 1f67 a5bd 9545 3fbf
00000170: 70fc 0bbf d30a c1be f591 45bf 8cfd b9be
00000180: 3395 19bf a7ae 57bf 0273 b9be f1cf 2cbf
00000190: 9dbe febe 0fa0 6ebf 118a aa3d 7b8a 71be
000001a0: 1e06 95be a5d0 febe 14dc 2bbe 245a 06be
000001b0: a3d5 80be 5dd2 97be 224b 9ebe c673 27bc
000001c0: 218c b3bd 3fe1 a6be 475e 08bf fb7e 02bf
000001d0: 1472 8ebe 4ac8 5ebe 888b 9f3e f994 ecbd
000001e0: d725 743c 0753 bfbe 6986 8abe 3ae1 edbe
000001f0: 0da8 70bf 5866 b3be f711 4fbf a4dc 35bf
00000200: f09d bfbe 902c ebbe cf7a 68bd a9fc e8be
00000210: 20ad a1be ab05 bdbe 5184 fabe 160a 03bf
00000220: 1c30 b2be 82a0 f2be 8526 0dbf 7061 15bf
00000230: e2f7 fdbe 62b5 08bf d52e abbe 188e 0fbe
00000240: 9a92 c6be afb0 2dbf a1b6 fcbe 9ebb 00bf
00000250: 6305 07bf 642e f3be 90c6 f1be 8910 b4be
00000260: d381 4ebe 36a3 0fbf afb5 c8be ae40 c4bd
00000270: 529c f5be 70ba 05bf e801 00bf 243e 0abf
00000280: bd72 0bbf 7704 0abf fec8 16bf b384 8fbe
00000290: ff44 11bf 8b26 e3be c225 26bf dac9 f3be
000002a0: 4b70 90bd 4494 04bf 9195 e5be a803 03bf
000002b0: d400 dcbe b769 cdbe 06b4 96be 074e 1dbf
000002c0: 2119 f8be 447c f9be ef6f dabe fe46 f5be
000002d0: da79 e4be 360f 08bf aa6a 22bf 4329 37bf
000002e0: 04ca f6be ac35 d5be 919b 03bf a1b5 a0be
000002f0: adc3 e8be 0d24 15bf 727b 13bf 8e22 05bf
00000300: 3567 19bf c45b f4be 9bc1 1dbf 44a1 ccbe
00000310: 076e edbe f4c8 2dbf c768 d5be 4c16 adbe
00000320: cdf8 20bf f87c 91be 6f46 cabe 8188 11bf
00000330: e83d c1be eb43 d3be b0db 1cbf 686f 25bf
00000340: 88e3 e8be 5a83 27bf 2c02 0fbf 32ad bcbd
00000350: 0a02 fabe 9ef7 10bf cb9f 25bf d434 1dbf
00000360: ff29 a5be 0821 18bf 9b12 86be 8589 15bf
00000370: 6316 0bbf d821 08bf 5915 14bf d160 ffbe
00000380: 55be 10bf 7ca1 21bf 00f3 07bf 26c0 0ebf
00000390: 431b 12bf b6dc 09bf 7c17 c1be 93e1 a7be
000003a0: ba1e bdbe 24a0 37bf 203d babe 6bf9 f2be
000003b0: 724c d7be 45bb 0bbf 8c9d 0fbf 8175 bdbe
000003c0: f94d b7be 0d26 f9be a0fc 0dbf 43ce 0bbf
000003d0: f941 dcbe c570 01bf a87e 88be 5992 d0be
000003e0: 1799 86be 3b7c 38bf 4a52 09bf 6d55 edbe
000003f0: 1a02 28bf 2b33 0ebf cd6b 36bf 54a2 febe
-0.1608938 -0.1916144 0.23999786 -0.30096427 0.18615332 -0.046623442 -0.5624816 -0.6178329
0.89720833 -0.052881364 -0.24303958 -0.7094271 -0.38549623 -0.6461389 -0.25362098 0.15949848
-0.24259627 -0.57612395 0.14479011 -0.22833587 -0.26447788 3.3343504e-06 -0.6068648 -0.079378806
0.022423156 -0.4599464 -0.3276674 0.039745092 -0.047429774 -0.15017012 -0.50842994 -0.6498483
-0.2266159 -0.5014067 -0.9027092 0.13443898 -0.5982413 -0.25416434 -0.76444453 -0.07661807
-0.0037127808 -0.9114518 -0.23891526 -0.10693737 -0.23271383 -0.27358407 -0.04153786 -0.8855145
-0.54698855 -0.41316047 -0.35656253 -0.6729915 -0.46186367 -0.7333281 -0.602906 -0.6188546
-0.7183752 -0.60590094 -0.45896435 0.15660761 -0.15431668 -0.5286812 -0.45332465 -0.5680696
-0.4689956 -0.6056653 -0.10417572 -0.26607177 -0.3480801 -0.571164 -0.50938785 -0.29027128
-0.77399194 -0.08190932 -0.23839825 -0.538567 -0.39479604 -0.13532586 -0.55193913 -0.31488752
-0.29285246 -0.5716782 -0.5161388 0.07317658 -0.43128592 -0.5244334 -0.9480233 -0.5432461
-0.19499567 -0.44294232 -0.080763094 -0.7471555 -0.54682064 -0.3770357 -0.7717584 -0.36326253
-0.59993285 -0.84250873 -0.36220556 -0.67504793 -0.497548 -0.9321298 0.08327115 -0.23587982
-0.2910623 -0.49768558 -0.16783172 -0.13120323 -0.25162992 -0.29652682 -0.30916697 -0.010220474
-0.08766962 -0.32593724 -0.53268856 -0.50975007 -0.2782141 -0.21756092 0.3116114 -0.11551852
0.0149016 -0.37368032 -0.27055672 -0.46460897 -0.94006425 -0.3503902 -0.8088679 -0.71039796
-0.37425184 -0.45932436 -0.056757744 -0.45505264 -0.31577396 -0.36918387 -0.48929074 -0.51187265
-0.3480233 -0.47388083 -0.551369 -0.583518 -0.49603182 -0.5340177 -0.33434168 -0.14019048
-0.38783723 -0.6784772 -0.49358085 -0.5028628 -0.52742594 -0.4749633 -0.47221804 -0.35168865
-0.20166712 -0.56108415 -0.39201114 -0.09582649 -0.47970825 -0.52237606 -0.5000291 -0.5400107
-0.5447195 -0.5391306 -0.5890044 -0.2803093 -0.56745905 -0.44365343 -0.64901364 -0.47614938
-0.07052668 -0.51788735 -0.44840673 -0.51177454 -0.42969382 -0.40119717 -0.29434222 -0.61447185
-0.48456672 -0.4872762 -0.42663524 -0.47905725 -0.44624215 -0.5314821 -0.63444006 -0.71547335
-0.48201 -0.4164251 -0.5140925 -0.31388572 -0.4546179 -0.58258134 -0.5761024 -0.5200585
-0.59923106 -0.47726262 -0.61623544 -0.39966786 -0.46373007 -0.67884755 -0.416815 -0.33806074
-0.6287964 -0.28415656 -0.39506862 -0.56848913 -0.37742543 -0.41262755 -0.61272717 -0.6462312
-0.45486093 -0.654348 -0.5586269 -0.09212722 -0.4882968 -0.56627834 -0.6469695 -0.61408734
-0.32258603 -0.594254 -0.2618607 -0.58412963 -0.54331034 -0.5317664 -0.57845074 -0.49878553
-0.56540424 -0.6313703 -0.53105164 -0.55761945 -0.5707285 -0.53852403 -0.3771323 -0.32789287
-0.36937505 -0.7172873 -0.3637476 -0.47455916 -0.4205051 -0.54582626 -0.5609977 -0.3700371
-0.35801676 -0.48661843 -0.554636 -0.54611605 -0.43019083 -0.505627 -0.2665913 -0.40736654
-0.26288673 -0.7206456 -0.5364119 -0.46354237 -0.65628207 -0.55546826 -0.7125824 -0.49733222

lstm.bias_hh_l1 f4 [512]
00000000: d6a2 13be d819 6fbe b80e 983e 0504 6dbe
00000010: 3935 013e b6b1 94bd ea52 22bf eb85 25bf
00000020: 4cf6 4f3f 6082 aabd 1a35 54be 78ea 56bf
00000030: fcd4 98be 1c1c 36bf febd 3dbe cf66 333e
00000040: af0e e0bd 568e 17bf 1c28 9f3d fd8e 6ebe
00000050: 9f10 aebe cc4b 12be 6cc5 fcbe 6a44 29be
00000060: 65e6 cb3d 768c f5be 9fc5 dabe 12cb 08bd
00000070: aedf 98bd 9f42 57bc 1bdd fdbe e0bc 19bf
00000080: 2c9b 5ebe 0bca 20bf 746d 5cbf 64a5 533e
00000090: cffc 23bf dd97 44be 9a41 57bf 3725 b3bd
000000a0: 5be4 6ebd d1a3 6dbf fbb3 96be 618a 8cbd
000000b0: dfbb 61be d14d 4cbe ab67 c2bd f9e6 62bf
000000c0: 118b 1bbf dc3a d4be 74b3 b9be 4ef3 20bf
000000d0: 18b6 c4be 7b11 29bf ef49 27bf 80eb ffbe
000000e0: 3115 47bf 09b5 1cbf db78 f9be 5517 903d
000000f0: 8562 43be 1915 12bf 8d39 e9be 5066 29bf
00000100: 6830 05bf ba5e 09bf 9aaf 09be b187 73be
00000110: 0249 b8be d4ce 0abf cdd5 f0be b5a8 2bbe
00000120: 584c 3fbf 819a cebd 09ee 51be b81a 21bf
00000130: dcdd acbe dfd7 0bbd d69d 1bbf 6b34 eebe
00000140: 45fb 50be e3b5 f6be b18f cbbe 09c4 603e
00000150: 5a47 d8be a489 17bf a20e 55bf 17bb 02bf
00000160: 6744 6abd 1a30 febe b12a 7bbd b25c 30bf
00000170: 91cd fcbe 9524 c9be ebbf 3cbf e12e cfbe
00000180: b318 00bf 0f40 3dbf f607 f1be eda5 42bf
00000190: 4d89 f1be 3d70 80bf 3dde 5f3d 820d 82be
000001a0: 076c 9bbe 6a24 0bbf ab74 1cbe 316c 93bd
000001b0: e116 5bbe 506a c7be e3dc a2be 8e01 923d
000001c0: 14f8 32be bc06 bdbe 22a8 fcbe fb64 01bf
000001d0: dba8 8ebe 5b2a 9fbe 801b a73e 24f4 abbc
000001e0: 5af6 8c3d 89d8 01bf a53f 09be 11ab edbe
000001f0: 896f 49bf b376 84be 8c82 2bbf f6f6 52bf
00000200: 1d88 e0be 205d cebe 0a43 32be 62ae 10bf
00000210: 45e9 a4be 1326 c3be 619d 08bf 1b7d dcbe
00000220: 0220 86be 0a7b 07bf cb2a fabe 3b66 14bf
00000230: 02bc 03bf a3e0 e3be f573 83be 788c 81bd
00000240: 77f8 c6be 1460 16bf c8bb 05bf 959f d3be
00000250: efe0 e5be 2083 c0be 043e f7be e63d c7be
00000260: 64be 82be c174 02bf c075 cebe 17fc 9abd
00000270: a689 0abf edf4 11bf fb25 09bf 839e 04bf
00000280: 0108 15bf c92c ffbe 433e 06bf c52d 43be
00000290: 41fe 15bf 00d7 e2be afb5 16bf a26d 9dbe
000002a0: 19a5 e5bd d141 10bf 0e26 c8be 6940 c6be
000002b0: 5f0d d7be fb8e e8be 687f b3be 53c0 28bf
000002c0: 4b49 04bf 2807 0bbf 3273 a6be 5e97 0fbf
000002d0: c4a7 d9be 9912 14bf de02 19bf 4d3d 37bf
000002e0: d047 25bf 3e2d e3be 0233 04bf cce2 6dbe
000002f0: ddd2 bfbe 9941 16bf 7487 0cbf 6d13 f9be
00000300: e071 2dbf 2ed6 15bf 1dd2 1fbf 3c4a 88be
00000310: f2af 00bf 4de6 1fbf 4b1f 04bf cd21 acbe
00000320: e5ee 0fbf 5877 87be 5e33 c2be 3373 e7be
00000330: ac7d c4be c25e ccbe 0699 edbe e055 09bf
00000340: d4f2 e3be 714e 17bf 5930 d7be ffc6 fbbd
00000350: 966a d6be fcb4 11bf ca0d 0cbf 28c6 ebbe
00000360: 4ae6 b6be 04ce 12bf cb0a 43be 5888 fabe
00000370: 5850 1fbf 0232 e6be 9d47 0fbf 1e77 eebe
00000380: b361 f7be 8c8e 38bf e8f0 02bf 5b8f 0dbf
00000390: d1fb 12bf 9427 15bf e34b d5be 8aed d0be
000003a0: d466 f9be c019 21bf 9c25 d9be 987b bcbe
000003b0: 6453 c3be 7b37 11bf fb38 0ebf 7b90 d2be
000003c0: 67a7 d5be d06c 00bf 7629 0bbf dfa7 0abf
000003d0: 88b9 f7be afd0 edbe c03a 65be 1f2b c6be
000003e0: 6585 abbe 3b83 34bf 93f9 cfbe 4ab9 f4be
000003f0: 6a04 0abf a9ef 30bf 4ed7 21bf 7d94 03bf
-0.14417586 -0.23349702 0.2969873 -0.23146065 0.12617959 -0.07260458 -0.63407767 -0.6465747
0.81235194 -0.08325648 -0.20723382 -0.8395152 -0.29849994 -0.7113664 -0.18529508 0.17519687
-0.10940301 -0.5920156 0.07771322 -0.23296733 -0.33997056 -0.14286727 -0.4936937 -0.16530004
0.09956054 -0.47958726 -0.42728898 -0.033396788 -0.074645385 -0.013138442 -0.49582753 -0.60053825
-0.21738881 -0.62808293 -0.8610451 0.2066856 -0.6405763 -0.19198556 -0.84084475 -0.087473325
-0.058323245 -0.9282809 -0.2943419 -0.06862331 -0.22044323 -0.1995156 -0.09492429 -0.88633686
-0.60759073 -0.41451156 -0.36269724 -0.62871253 -0.38420177 -0.660423 -0.6534719 -0.4998436
-0.7776671 -0.6121374 -0.48725018 0.070357 -0.19080551 -0.5706344 -0.4555172 -0.6617174
-0.5202699 -0.53660166 -0.13445893 -0.23782231 -0.359932 -0.54221845 -0.47038117 -0.16763575
-0.74725866 -0.10088063 -0.2050096 -0.62931395 -0.33763015 -0.034141418 -0.60787714 -0.46524367
-0.20408352 -0.48185644 -0.39758065 0.21949781 -0.42241937 -0.591944 -0.8322545 -0.51066726
-0.05719414 -0.49646074 -0.06132001 -0.6889144 -0.49375585 -0.39285722 -0.73730344 -0.40465453
-0.5003769 -0.7392587 -0.47076386 -0.7603443 -0.47175065 -1.0034252 0.054655302 -0.2540093
-0.30355856 -0.5435244 -0.1527888 -0.0719837 -0.21395446 -0.38948298 -0.31809148 0.07129203
-0.17477447 -0.369192 -0.49347025 -0.5054471 -0.27863201 -0.31087002 0.32638168 -0.020990439
0.06882925 -0.5072103 -0.13403185 -0.46419576 -0.78685814 -0.2587181 -0.66996074 -0.8240808
-0.43853846 -0.40305424 -0.17408386 -0.5651609 -0.3220922 -0.38114986 -0.5336514 -0.43064198
-0.26196295 -0.5292212 -0.48860773 -0.5796849 -0.5145875 -0.44507322 -0.25674406 -0.063256204
-0.3886144 -0.58740354 -0.52239656 -0.4133269 -0.44898173 -0.3760004 -0.48289502 -0.38914412
-0.25535882 -0.509594 -0.4032421 -0.075676136 -0.54116285 -0.5701435 -0.5357358 -0.5180437
-0.5821534 -0.49838856 -0.52438754 -0.19060428 -0.58591086 -0.44304657 -0.5887098 -0.30747706
-0.112131305 -0.5635043 -0.39091533 -0.38721016 -0.4200239 -0.45421585 -0.3505814 -0.65918463
-0.51674336 -0.54307795 -0.32509762 -0.56090343 -0.42510808 -0.5784088 -0.5977 -0.7157791
-0.645627 -0.44370455 -0.5164033 -0.23231047 -0.37465563 -0.58693844 -0.54894185 -0.48647633
-0.67751884 -0.5852994 -0.6242998 -0.26619136 -0.5026847 -0.62460786 -0.5161025 -0.33619538
-0.562239 -0.2645824 -0.37929815 -0.45205078 -0.3837713 -0.39916044 -0.4640581 -0.5364666
-0.445212 -0.5910407 -0.42029074 -0.12293815 -0.41878194 -0.56916785 -0.5470854 -0.4604962
-0.35722572 -0.57345605 -0.19047086 -0.48932147 -0.6223197 -0.44960028 -0.5596865 -0.46575254
-0.48316726 -0.7209251 -0.51148844 -0.5529687 -0.5741549 -0.58263516 -0.4165946 -0.40806228
-0.48711264 -0.62929916 -0.42411506 -0.36813045 -0.3814956 -0.5672528 -0.55555695 -0.41125855
-0.4172928 -0.50166035 -0.5436014 -0.541624 -0.48383737 -0.46448275 -0.22385693 -0.38704774
-0.3350021 -0.7051274 -0.40620098 -0.47797614 -0.53912985 -0.6911569 -0.63219154 -0.5139845
