models/LSTM_qal_epochs2.pth (torch, 806928 bytes, 10 tensors)

lstm.weight_ih_l0 f4 [512, 4]
000000 56 c8 07 bf e3 a0 fa bd c2 87 05 bb 8d 4b 47 be
       -0.53040063 -0.12237718 -0.0020375107 -0.19462414
000010 f4 5f c2 be 02 41 dd 3c 8c c4 a8 3d c5 e3 b8 3c
       -0.3796383 0.027008537 0.08240613 0.022569546
000020 2f 80 c0 3d e3 88 35 be e9 2b d4 3c 49 d7 66 be
       0.09399449 -0.17728 0.025899844 -0.22543062
000030 70 5a 2f be b9 fc 36 be 0e 49 fc bd 8c 70 5e be
       -0.17124343 -0.17869844 -0.123186216 -0.2172262
000040 c6 35 9f be 00 e1 9b be a7 73 97 be e7 85 b0 bd
       -0.31095713 -0.304451 -0.29580423 -0.0861929
000050 27 04 0d 3e d7 ce 57 bd 13 4a 6c be f5 ee 7d bd
       0.13771115 -0.052687492 -0.23075132 -0.061995465
000060 72 1c 15 3b 85 31 be be 81 b1 ef 3c 55 49 36 3c
       0.002275255 -0.37147155 0.029259445 0.011125882
000070 bb a6 4e 3d 58 f5 8f be 49 35 86 3e 6e b7 f5 bd
       0.050451975 -0.2811687 0.26212528 -0.11997877
000080 1f 80 e4 ba df f1 da 3c 69 e0 22 3d b2 91 09 3e
       -0.0017433203 0.026726661 0.039764795 0.13434485
000090 be f0 d2 3d be 2b a5 be f9 32 99 3e ab 8d db bd
       0.10299824 -0.32259935 0.29921702 -0.107203804
0000a0 59 3c 0d be dc 37 cf bc 64 42 5d 3d fb ac f1 3b
       -0.13792552 -0.02529519 0.054018393 0.007375357
0000b0 d6 28 df 3d da 0f d2 3e d7 0e 89 be 42 34 7e 3e
       0.10896461 0.4102772 -0.26769134 0.24824622
0000c0 e8 88 9d 3d a4 f0 5b be e8 19 e4 3d 24 75 1e 3e
       0.076921284 -0.21478516 0.11137754 0.15474373
0000d0 be e4 00 be 8b af 84 be cc 96 a7 be 51 4a be be
       -0.12587258 -0.2591518 -0.32732236 -0.37166074
0000e0 a4 f4 80 be b9 b1 81 bd 84 12 ab be d4 b3 f1 bd
       -0.25186646 -0.06332726 -0.33412564 -0.118018776
0000f0 f0 8e 1c 3d 72 9f eb bc c7 03 17 be 0c 43 d5 3c
       0.038222253 -0.028762553 -0.14747535 0.026032947
000100 2f 1e 4b bd 03 65 5d be b1 8d 74 be cb 71 1f be
       -0.049589332 -0.21620564 -0.23882176 -0.15570752
000110 8a 12 96 bd da f6 6d be 6b 7c 6e bc bb 68 97 be
       -0.07327755 -0.23238698 -0.014556031 -0.2957209
000120 9d e9 32 be e8 ca d8 bd 57 1d 20 be b0 c3 70 3b
       -0.17471929 -0.10585576 -0.15636192 0.0036737733
000130 9e 25 2f be 0a 9a 1c be 92 ca d0 bc 02 40 85 bd
       -0.17104194 -0.15293136 -0.025487218 -0.06506349
000140 69 88 69 3d 51 ff 5e be e9 b7 29 3e 13 61 5e be
       0.057014856 -0.21777083 0.16574062 -0.21716718
000150 78 e4 35 be 1c ca f4 bc dd e4 f9 bd ae 18 0f be
       -0.17762935 -0.02988153 -0.12201855 -0.13974258
000160 42 7f 44 3c db ee 3f be c2 8d 25 bd ff e2 06 3c
       0.011993231 -0.1874346 -0.040418394 0.008232831
000170 ca b1 a0 be 52 4d a1 be 17 8d a7 be ac ce 8a be
       -0.31385642 -0.31504303 -0.3272483 -0.27110803
000180 5f 50 d2 bc 17 e2 a7 3d d0 48 0c be 33 e2 d6 bd
       -0.02567309 0.0819742 -0.13699651 -0.10492363
000190 06 55 02 bd ad c8 3a be 22 8f a5 3d 28 c5 a5 3e
       -0.031819366 -0.18240614 0.08083941 0.3237698
0001a0 71 90 00 3e 37 1c a9 3d 44 25 5e 3d 15 97 86 be
       0.125551 0.08257335 0.054234758 -0.2628714
0001b0 52 05 63 be 1a 6b b6 3d 56 66 db 3c bc 8c 01 3e
       -0.22169998 0.08907147 0.026782196 0.12651342
0001c0 0e a3 6a 3d 36 55 98 3d 96 07 10 3e 53 07 9f be
       0.057284407 0.07438128 0.14065394 -0.31060275
0001d0 a2 57 38 be 5d 26 43 be 10 0c 82 be 28 3b 5e be
       -0.1800218 -0.19057603 -0.25399828 -0.21702254
0001e0 3e 0c bd 3e 94 5a aa 3e 94 fa ca bd f2 a7 9c be
       0.36923403 0.3327223 -0.09911075 -0.30596882
0001f0 36 58 94 be 5b 6f 43 3e 50 99 3c 3d 34 90 12 3e
       -0.2897355 0.19085447 0.046044648 0.14312822
000200 2a f0 1e 3e 5f 69 79 be f4 1b 04 be 4f 69 ae 3d
       0.15521303 -0.24356602 -0.12901288 0.0851618
000210 c7 ba 18 be 5d d1 8e 3b a2 f1 72 be ae ad b1 3d
       -0.14915 0.004358454 -0.23724988 0.08675705
000220 b4 b4 33 3d 8b b4 c7 bd 8a 6a 03 bf 89 52 cd bd
       0.043873504 -0.09751233 -0.5133444 -0.10025508
000230 98 7b c8 be 35 61 23 be ad b6 e4 be 3f f8 a6 be
       -0.39156795 -0.1595505 -0.4467062 -0.32611272
000240 cf 6a 49 3e fb f3 88 3e c9 c1 8e 3e 59 0d 81 3e
       0.1966965 0.26748642 0.2788222 0.25205496
000250 80 c2 34 be 59 9a de 3d f2 75 45 3e d2 16 81 be
       -0.17652321 0.10869283 0.19283274 -0.25212723
000260 19 a6 dd bd 62 e4 41 be 16 b5 0c be 32 f0 03 3d
       -0.10822696 -0.18934777 -0.13740954 0.03221149
000270 bc 03 d1 bc c1 c5 e6 bd 5d 64 f5 bd 64 ba ff bd
       -0.025514476 -0.11268187 -0.119820334 -0.12486723
000280 18 8a e5 3d 16 fc ad bd b9 21 0b bc 17 65 3f be
       0.1120798 -0.08495347 -0.008491927 -0.18690906
000290 52 6c 88 3d 11 43 c2 bc d4 2b b8 3d 81 9e 6c bd
       0.066612855 -0.02371362 0.089927346 -0.05776835
0002a0 bc 1a 99 bc cb 55 e9 bc ec c4 5e 3d 0c c1 67 bd
       -0.018689506 -0.028483292 0.054387018 -0.05658059
0002b0 a1 73 59 3e 90 2b b6 3d 4a a4 10 3d 54 a5 06 3e
       0.21235515 0.08895028 0.03531293 0.13149005
0002c0 0c 7e 9c bd 9c 1b 08 be fd fa dc bd 8c 65 b0 bd
       -0.07641229 -0.13291782 -0.1079006 -0.086131185
0002d0 b4 1d 09 3d 62 cc 9d 3e 96 7c 27 3e 6b f1 65 be
       0.033475593 0.30819994 0.1635612 -0.22455375
0002e0 7b 81 68 be 30 5d f2 bd 2e bc f2 bd ff 35 80 3b
       -0.22705643 -0.1183418 -0.11852299 0.003912687
0002f0 6d 8a 44 be 32 7d 94 3d d6 44 42 be 31 52 99 bd
       -0.1919343 0.072504416 -0.18971571 -0.0748638
000300 6c 9d cf be d0 ac 52 bc a2 d1 16 3b d4 cc b5 3d
       -0.4054979 -0.0128585845 0.0023013134 0.088769585
000310 1a e4 11 be e8 08 eb ba e4 bd ae bd de 3b 0d bd
       -0.1424717 -0.0017931731 -0.085323125 -0.034480922
000320 6d 3e db 3e bb f4 8a be a4 41 06 39 c6 0c 5a 3e
       0.42821065 -0.2713984 0.00012803689 0.21293935
000330 ef e0 c5 bd 43 b8 a4 bd a6 ef 8c be 7b d2 7f 3b
       -0.09662043 -0.08042958 -0.27526587 0.0039035368
000340 fa e4 4b be cd 77 3b be 16 3d db be d2 a1 e1 bc
       -0.19911566 -0.18307419 -0.42820042 -0.027542982
000350 f6 a7 4f be 03 99 c2 be 9c cf c1 be ec a5 4e be
       -0.20278916 -0.38007364 -0.37853706 -0.20180482
000360 f0 46 79 3e 9d 4b a9 bd 72 06 13 3e a5 d5 d4 3d
       0.24343467 -0.08266375 0.14357927 0.10392312
000370 a1 0c b3 3b 23 d8 9d be d8 b7 c9 bd 60 5d a1 3b
       0.005464152 -0.30828962 -0.098495185 0.0049244612
000380 a7 04 d2 bd 2b 68 60 be df 2a 3b be 22 88 98 bd
       -0.102547936 -0.21914737 -0.18278073 -0.0744784
000390 45 47 e8 bd 39 14 51 3e 8e 4f 6c 3d 76 2a 01 bd
       -0.113417186 0.2041787 0.057693057 -0.031534635
0003a0 c1 06 3f 3d 13 05 a5 3e 0b 4c 7d be f1 ae 0a be
       0.0466373 0.32230434 -0.2473604 -0.13543297
0003b0 d5 b0 1e 3e 9a 4d ac bd 2f 18 e9 3d 6c 11 ce 3c
       0.15497144 -0.08413239 0.11381566 0.025154792
0003c0 c0 40 62 be e6 7d 82 bc 38 4b 8c 3e 48 bc 12 bb
       -0.22095013 -0.015929174 0.27401137 -0.0022390056
0003d0 85 16 c3 be 81 68 65 be d0 77 5d be b5 63 ae be
       -0.3810312 -0.22403146 -0.21627736 -0.34060445
0003e0 32 2e 11 be 08 fb 9d 3e 89 27 a6 3d 2c a5 8b 3e
       -0.14177778 0.30855584 0.081130095 0.27274454
0003f0 16 4f 4e bd de 02 35 bb 41 9b 0b be 69 19 48 be
       -0.05036839 -0.0027620117 -0.13633443 -0.19540943

lstm.weight_hh_l0 f4 [512, 128]
000000 3a 3b d7 bd e4 b4 87 be a0 90 7f 3d 52 59 47 be
       -0.105093434 -0.26505196 0.062393785 -0.19467667
000010 be 6b 10 3e f1 17 c0 bd 06 1a c0 3d 6e 08 01 bd
       0.141036 -0.093795665 0.093799636 -0.03150218
000020 4b 54 dc bc 4f 01 0a bd 3a 2d 1e be 41 09 9f be
       -0.026895663 -0.033692654 -0.1544694 -0.31061748
000030 15 e2 1c 3e d1 66 2f bd d0 33 58 3e ba c8 7b bd
       0.15320618 -0.042822663 0.21113515 -0.061470725
000040 7e 1d fa bc 52 5d a0 bd ae e8 fd bd 0a 10 51 3e
       -0.030531641 -0.078302994 -0.12397896 0.20416275
000050 a9 c5 1c 3e 42 51 04 be 35 cd c1 3c ea c6 92 3d
       0.15309776 -0.12921622 0.02365742 0.07166846
000060 c9 2b 08 be cb b4 f6 bd f7 7f a5 be ed 57 9b 3e
       -0.13297953 -0.12046202 -0.32324192 0.3034052
000070 c2 87 0a 3c 1d 79 77 be 06 40 a5 3e 09 ac 07 be
       0.008455219 -0.24167295 0.32275409 -0.1324922
000080 04 e0 df 3b 3e a8 1e 3e d1 4b 8e 3d ed 08 f9 bb
       0.0068321247 0.15493867 0.069480546 -0.007599941
000090 6c 2c a8 be db 74 9e 3d 62 19 98 be 31 94 6e 3d
       -0.3284639 0.07737132 -0.29706866 0.058246795
0000a0 d0 d7 28 3e 74 28 d8 3d 8f 4a 06 3e 16 6c ca bd
       0.16488576 0.10554591 0.1311438 -0.09883897
0000b0 47 7f 25 3e 63 a5 18 bd f5 de 11 be 59 3f 60 be
       0.16161834 -0.0372671 -0.14245208 -0.21899165
0000c0 c6 e7 01 3e e5 82 03 be 49 e9 c4 3d e8 f2 fa 3d
       0.12686071 -0.12842901 0.09614808 0.12253362
0000d0 25 bd d3 3d 04 5d c0 3d da 87 16 be b4 b9 8d 3e
       0.10338811 0.09392741 -0.14700261 0.27680743
0000e0 1f db 40 be 01 e2 86 be 38 78 82 bd 44 68 f0 3d
       -0.18833588 -0.26344302 -0.06370586 0.11738637
0000f0 21 bd e1 bd d4 ab b4 bd db ee 54 3e 49 2c f8 bc
       -0.110224016 -0.08821836 0.20794241 -0.030294554
000100 3c 99 08 bd e6 23 27 3e 27 63 c6 3c 31 b6 fb 3d
       -0.03334926 0.16322288 0.024217201 0.1229061
000110 5c 52 99 3e 1f ae 89 3e 0b 92 8d 3e d1 df 4c 3e
       0.29945648 0.26890656 0.27650484 0.20007254
000120 6e 8a 02 3e d0 ce 0e be 49 06 55 be 74 24 5d be
       0.12748119 -0.1394608 -0.20803179 -0.21595937
000130 34 4a ce be 40 25 4e 3e 83 39 69 3d 2e e1 50 be
       -0.40290987 0.20131397 0.056939613 -0.20398399
000140 3f 4d 20 3d 5f 87 3e be a8 f0 84 3e b9 30 c2 be
       0.039136168 -0.18606327 0.25964856 -0.37927797
000150 85 3d e4 bd 74 df 88 3e e9 da e7 3d 0e fc be bd
       -0.111445464 0.2673298 0.11321051 -0.09325419
000160 0d cf 40 3d 7f 45 49 3e 5f 6b fb 3d a7 e4 4f 3c
       0.04707246 0.19655417 0.12276339 0.012688792
000170 10 40 82 be 6c f1 b6 bd 13 24 86 3c dc 51 8e 3e
       -0.254395 -0.08932766 0.016374623 0.2779683
000180 56 52 61 be 59 d6 be bd 33 b3 c9 3e 7a cc 8b 3b
       -0.22004065 -0.09318227 0.3939453 0.004266319
000190 24 af a4 3c 8a bc bf 3c 47 03 13 be 9f 48 5e be
       0.020103045 0.023405332 -0.14356719 -0.2170739
0001a0 fe 07 3f be bf 50 0f be d9 c7 97 bd 6b 59 8c be
       -0.18655393 -0.13995646 -0.07411165 -0.2741197
0001b0 7f 65 11 3e 38 a3 5f be 0d 8b f2 3d 23 b4 b6 3e
       0.14198874 -0.21839607 0.11842928 0.35684308
0001c0 46 14 85 3c f2 ec 66 3d 04 d1 e5 3d 77 96 8a 3d
       0.016245019 0.056378312 0.11221507 0.0676698
0001d0 47 dd b3 bc 0b 25 73 bc 7d a5 d6 bd 4e 62 02 3e
       -0.0219561 -0.014840375 -0.10480783 0.12732813
0001e0 31 da 8a 3e 46 23 b2 bc fd 2e 99 be de b7 b1 be
       0.27119592 -0.021745335 -0.29918662 -0.34710592
0001f0 88 4e ad be 74 6a dc bd 70 35 ff 3d 08 c8 c2 3e
       -0.33848977 -0.10762492 0.12461364 0.38043237
000200 49 d0 c1 3c 36 fa a3 bd 03 5d 5a bd 1c 9d 89 3d
       0.023658888 -0.08006708 -0.05331136 0.06719419
000210 90 d5 3f 3d 8b 67 c4 bd 7e c0 9f bd f2 40 4a 3d
       0.04683453 -0.09590062 -0.07800387 0.049378343
000220 89 4d d0 3d 71 cf b3 bd 2f 91 e1 bd 86 0d 81 bb
       0.10171039 -0.08779801 -0.1101402 -0.0039383797
000230 9b 42 c4 3d 3b 6b 8e 3c 47 01 7f bc a6 a3 b6 3d
       0.095830165 0.017385116 -0.015564269 0.08917932
000240 36 ce cd bd f9 fb e0 bc 4a ef 1a be 55 6e 39 3e
       -0.10049097 -0.0274639 -0.15130344 0.18108495
000250 99 f9 89 3d 32 a1 fa bd 2d 46 85 3d 04 53 04 3e
       0.0673706 -0.12237777 0.065075256 0.12922293
000260 a1 82 eb bd be ea 8f bd b9 10 22 bd 4a f8 74 3d
       -0.11499525 -0.070271954 -0.03956673 0.0598071
000270 5f 5e ca 3d c1 c8 0b bc a4 b8 be 3c f2 3d 20 be
       0.09881281 -0.00853175 0.023281403 -0.1564863
000280 98 af fe 3d 13 d1 4e 3d fc 3c 85 3c ca f6 81 bd
       0.124358356 0.050492357 0.016264431 -0.063458994
000290 f3 25 4a be aa e8 a2 bd 79 76 9c bd 38 3b 98 3b
       -0.19741039 -0.079545334 -0.07639784 0.0046457313
0002a0 ea b1 66 bd d1 52 13 be ae c5 17 3c 6c 01 09 3d
       -0.056322016 -0.1438706 0.009263439 0.03344862
0002b0 72 c8 cc 3d 52 33 a6 bc bb 95 5d 3d 93 55 8d 3d
       0.099991694 -0.020288143 0.054097872 0.069010876
0002c0 5d 4f 84 3c 30 c3 dd 3d 7b cc e3 bd 0d e1 bb 3c
       0.016151125 0.10828245 -0.11122986 0.022934461
0002d0 ee d6 20 3e 07 d9 94 3c c0 1e f6 3b 3f 9f ff 3d
       0.15706989 0.018169893 0.00751099 0.12481546
0002e0 cf d7 10 be ac 21 01 be 5f 88 7a 3d f4 44 7e 3d
       -0.14144824 -0.12610501 0.06116521 0.062077478
0002f0 9f b7 80 be f6 4c 26 3d 42 ec bc 3d 54 75 04 bc
       -0.25140092 0.04060074 0.0922475 -0.008084614
000300 43 24 85 3d 9c df 3f 3d 02 30 cf bd 15 1d 82 3d
       0.06501057 0.04684411 -0.10116579 0.06353203
000310 6e 77 27 3d c4 e1 05 be ca 47 af 3d cf 10 d3 3d
       0.04088538 -0.13074404 0.085586146 0.1030594
000320 9b 37 b3 3d 42 70 01 3d b4 81 bf bc 96 7b d8 bb
       0.0875084 0.031601198 -0.023377277 -0.0066065295
000330 c9 fa 11 bd c5 75 3d 3e c2 81 02 3e 01 e2 ad bd
       -0.035639558 0.18501957 0.12744811 -0.084903724
000340 59 cf 78 3d c1 e1 b3 3c 38 ba 1f 3c c7 90 17 be
       0.060744617 0.021958234 0.009748988 -0.14801322
000350 0c 9b ce bd 44 59 f2 3d 4d 24 d5 3c f3 a7 58 bd
       -0.100881666 0.11833432 0.026018286 -0.052894544
000360 a6 25 cf 3d e8 46 fc 3c 40 93 ea bd b4 7a 4b 3d
       0.10114603 0.03079553 -0.11453867 0.049677566
000370 40 d7 32 be d2 a4 f4 bd e4 63 6e 3c c1 f7 bf 3b
       -0.17464924 -0.119454995 0.014550183 0.005858392
000380 3d 0b dd bd 6b 54 12 3d dd a3 94 3e 6b 10 bf 3d
       -0.10793159 0.03572504 0.29031268 0.09329303
000390 8b f6 8e 3a ab 24 ab bd ee a6 5c 3d 06 2c 1a be
       0.0010907216 -0.08356603 0.053870134 -0.15055856
0003a0 4e eb 91 bd a1 ba 98 bc 44 6c 20 bc f5 ac c8 bd
       -0.07124959 -0.01864368 -0.009791438 -0.09798614
0003b0 f9 b2 12 3e ba ff a0 3c 10 24 23 bc af 0d 27 3d
       0.14326085 0.01965319 -0.009957328 0.040784534
0003c0 b1 4a 71 3d d7 f5 51 3c c8 ad 0d 3e 90 2e ae 3c
       0.058909122 0.01281496 0.13835824 0.021262437
0003d0 03 3f c7 3d 68 d7 05 3d 76 6f b1 bc ff 87 13 3d
       0.097288154 0.03267613 -0.021659594 0.036018368
0003e0 29 4a 07 bb db 69 20 be 6e 3d 59 be 9a a2 a1 bd
       -0.0020643568 -0.1566538 -0.2121484 -0.07892342
0003f0 80 fa bb bd 35 5c 24 be d7 1f 9a 3d 79 90 67 3e
       -0.091786385 -0.16050799 0.07525604 0.22613706

lstm.bias_ih_l0 f4 [512]
000000 58 48 36 be ca 50 ce bc 04 ef 6e bb 1d ef 14 be
       -0.17801034 -0.025185008 -0.0036458382 -0.1454434
000010 61 e2 fd be 59 ce 24 ba a0 7d 06 be 46 58 99 3c
       -0.49586776 -0.0006286852 -0.1313386 0.01871885
000020 a6 c4 17 bd f3 ed 04 be 80 d5 4c 3b 5d bf 92 3e
       -0.037052773 -0.12981395 0.0031255186 0.28661624
000030 43 e0 a7 3d b2 93 f3 be 73 55 cc be d5 62 92 bd
       0.081970714 -0.4757362 -0.39908943 -0.07147757
000040 f6 f1 a1 be c2 3d cb bd 0e 5a ad bd 30 f0 89 be
       -0.31629914 -0.09923889 -0.08464442 -0.2694106
000050 07 38 b8 bd b9 16 80 be 7e 10 03 bd 15 80 33 bf
       -0.08995061 -0.25017336 -0.03199815 -0.7011731
000060 79 ec f3 bd 89 5f 7d 3c 84 32 25 3e 4d e2 b6 3d
       -0.11910338 0.015464672 0.16132551 0.08929882
000070 d5 63 8b 3d 2f 0b cf be 5c 08 99 3d 8b 2c 29 3e
       0.06806151 -0.4043822 0.074722975 0.16520898
000080 e6 ec b7 bd 8f b4 de bd 0e 13 4a be 92 2e 1f bf
       -0.08980732 -0.108742826 -0.19733831 -0.62180436
000090 df 9c b7 3e 19 b5 0a be fa 09 c9 3d 3a fe 86 be
       0.3586187 -0.13545646 0.09816356 -0.26365834
0000a0 69 82 1a bd 30 a1 69 bd c7 0e 26 bc b5 b6 6f 3e
       -0.037722025 -0.057038486 -0.010135359 0.23409541
0000b0 bb ec 5e be 70 da 16 3e 04 d0 b9 be 4d 57 50 be
       -0.21769993 0.14731765 -0.36291516 -0.20345803
0000c0 64 6d cb 3d 55 63 c5 3c 50 6d 4b 3e 06 d4 b4 bc
       0.09932974 0.024095217 0.19865918 -0.022073757
0000d0 e6 0d 7f be 40 c9 03 bf 4d a3 2c 3e 81 9b 58 be
       -0.24907646 -0.5147896 0.1685917 -0.2115307
0000e0 ad 15 26 be 4c cc 01 be 09 cb f5 3c 23 27 3a 3d
       -0.16219206 -0.1267559 0.030004041 0.04544748
0000f0 05 64 80 3d bc d9 10 bf 30 4f e1 3d 70 92 d9 be
       0.06269077 -0.56582236 0.11001432 -0.42494535
000100 54 38 af bc 89 4b 5b be 2f 3a 2d 3e 45 f2 1a be
       -0.021389164 -0.21415533 0.16916727 -0.15131481
000110 a3 ef 1d 3c ac a8 57 be 6f 90 33 3d bb 5f 93 bc
       0.009639653 -0.21060437 0.043838914 -0.017989984
000120 f5 91 af 3e 26 bd e0 bd 94 4c 8f be 4c e2 6b bd
       0.34291044 -0.10973577 -0.27988112 -0.05758886
000130 2c 6f 43 3e c4 89 f5 bd 01 c3 81 3b 6b 64 fb 3d
       0.19085377 -0.11989167 0.003960014 0.122750126
000140 13 0b 97 be 8d a8 2b 3d 55 f1 9f bd 80 40 e8 bd
       -0.29500636 0.04190879 -0.07809702 -0.113404274
000150 c4 6d 2c 3c 84 e1 9c bc 59 ba 48 be 9d 96 26 bd
       0.010524217 -0.019150503 -0.19602336 -0.04067098
000160 e6 b1 bd be 30 7c 3f be 27 4e a0 bc b1 b4 0e 3e
       -0.37049788 -0.18699718 -0.019568516 0.13936116
000170 55 80 7f bd 55 1f 04 be 3c a6 a9 be 25 be de be
       -0.062378246 -0.12902577 -0.3313464 -0.43504444
000180 5a c5 a3 bd e4 44 02 bf 1e 04 03 be d4 aa c6 be
       -0.07996626 -0.5088637 -0.1279454 -0.38802207
000190 fa e4 48 be 55 b9 30 bf d1 9b b3 bd 09 0a 62 bd
       -0.19618598 -0.69032794 -0.08769954 -0.05518535
0001a0 d4 c6 98 3d 29 8a 39 bb 14 c1 4d be 43 4b 0b 3e
       0.074597985 -0.002831111 -0.20093185 0.13602929
0001b0 dd 04 63 3e 8d 7e c6 3d 56 d6 90 3e d1 5f e2 3d
       0.22169824 0.096921064 0.28288525 0.11053432
0001c0 91 87 f0 be f8 9d 23 bf e1 a7 0d bf 43 a7 34 3e
       -0.4697843 -0.63912916 -0.5533429 0.1764193
0001d0 9a f3 8f 3d d7 16 69 3e 87 1c a8 bd 8a 4d dc be
       0.07028885 0.22762619 -0.08208566 -0.43027908
0001e0 dd a2 a6 bc 0d 69 9b bd f6 39 db bd f2 82 01 3e
       -0.020341331 -0.07588396 -0.107044145 0.12647608
0001f0 a2 85 df 3d f5 09 ae bd 38 b7 58 be a1 ae 77 3d
       0.1091416 -0.08497993 -0.21163642 0.060469273
000200 c8 a8 54 be 5f 0c b8 bd ef 4f 06 be 1a 63 8f be
       -0.2076751 -0.089867346 -0.1311643 -0.28005296
000210 96 0e f0 be e7 18 28 bd fd e2 83 be 28 d7 6f be
       -0.46886128 -0.041039374 -0.25759116 -0.2342192
000220 db 55 1a 3e 61 8c a1 be b7 df ef bd 30 a2 0b bd
       0.15071814 -0.31552413 -0.11712592 -0.03409022
000230 59 37 d2 bd fd 39 1c bf 50 5a e7 be 18 7a 42 be
       -0.10264463 -0.61025983 -0.4518609 -0.18991888
000240 07 bb 62 be c7 63 32 be a3 8d 95 bd d9 2d 67 be
       -0.22141658 -0.17420875 -0.07302406 -0.22576083
000250 d0 ed 37 be 4e 05 4b be ff 0d 46 be a4 cd 1b bf
       -0.17961812 -0.19826242 -0.19341277 -0.6086066
000260 20 07 a3 be 64 ca de bd fc 4f 06 bd aa 8a 3c 39
       -0.31841373 -0.10878447 -0.032791123 0.00017980734
000270 80 9c a7 3b f7 cf 06 bf 6f 24 c0 bd 49 99 83 3d
       0.005115092 -0.5266108 -0.09381949 0.06425721
000280 99 cc fe bd fd 9f 32 be 94 7b 9f be 80 6c 04 bf
       -0.12441368 -0.17443843 -0.3114897 -0.5172806
000290 31 c9 8e 3d c9 60 7c be 13 bf e2 bc ef 90 94 be
       0.06971968 -0.24646296 -0.027679002 -0.29016826
0002a0 4f 4c cc bd 74 74 ae be 8f 8a 79 bb ca ad ce bd
       -0.09975492 -0.34073222 -0.0038076972 -0.100917414
0002b0 8c ce 0c be db 6e 16 bd 9a 3d df be 6e 5b 80 be
       -0.13750666 -0.036726814 -0.43601686 -0.25069755
0002c0 82 fd 96 bc 91 fb 35 be fd 22 e6 3c 39 d2 2c bd
       -0.018431429 -0.17771746 0.028092856 -0.04219267
0002d0 e0 2c 89 be ad 92 b2 be 7e 99 26 3d 71 57 48 be
       -0.2679205 -0.3487753 0.040673725 -0.19564606
0002e0 ab 22 35 be d5 a2 82 be 49 86 87 bd 7a 95 15 be
       -0.17689006 -0.25514856 -0.0661741 -0.14607802
0002f0 6a 81 0c be 41 c6 04 bf ee 32 b4 3b fd e5 e3 be
       -0.13721243 -0.5186501 0.0054992354 -0.44511405
000300 56 cc 1a be d7 69 c8 be c0 d9 ab bd e5 5b bb bd
       -0.1511701 -0.3914325 -0.08391142 -0.09148387
000310 83 80 3f be d3 5d 72 be 9c f5 81 bc 21 da ea 3a
       -0.18701367 -0.23668604 -0.015864186 0.0017917791
000320 0b 5e f3 3d 1b 36 0e be 01 0a b8 be e5 15 1b bd
       0.11883172 -0.13887827 -0.35945132 -0.037862677
000330 da e3 f5 bd 3d e7 3e be 25 02 43 bb 04 a0 c5 bd
       -0.1200635 -0.18642898 -0.0029755917 -0.09649661
000340 b0 09 a6 be a0 46 91 bd 17 05 28 be f9 57 4f be
       -0.32429266 -0.07093549 -0.16408192 -0.20248403
000350 43 7f 7f bd c0 dd 1c be 8a f7 6c be 68 cc 30 be
       -0.062377226 -0.15318966 -0.23141304 -0.17265475
000360 da e5 97 be ff 78 ff bd 59 e3 b1 bc ee e1 65 3c
       -0.2966755 -0.1247425 -0.021714853 0.014030917
000370 ca b8 1c be 9c 66 1b be 9a 6f 7c be bf 33 c1 be
       -0.15304866 -0.15175861 -0.24651948 -0.37734792
000380 99 f0 11 be 85 e0 02 bf de cb 82 be 98 fb 9f be
       -0.14251937 -0.5112384 -0.25546163 -0.31246638
000390 fd 28 ce be 3c c9 03 bf b8 88 69 be 2f 35 19 bc
       -0.40265647 -0.51478934 -0.2280606 -0.009351059
0003a0 1b ab b4 bd fc b8 c3 bd ba 6f 48 be 6d 8d 88 bd
       -0.08821698 -0.09556767 -0.1957387 -0.066676
0003b0 c5 ea 0d be f1 7e 1f be c3 e6 75 bd 49 5f 12 be
       -0.13859089 -0.15575768 -0.060034525 -0.14294161
0003c0 c8 17 d8 be d5 3e 1f bf 2b b5 f6 be 3b 7f af bd
       -0.42205644 -0.6220525 -0.48185095 -0.08569189
0003d0 11 0a 56 bc 06 59 3f 3d 84 9a 51 be 1d 98 e3 be
       -0.013063923 0.04671576 -0.204691 -0.4445199
0003e0 57 5b b0 bc 24 c1 dc bd 56 97 95 bd e5 44 82 bd
       -0.02152793 -0.10779026 -0.07304256 -0.06360797
0003f0 8c 93 cd bd 41 06 88 bd 28 e9 53 be c1 96 1d be
       -0.10037908 -0.06641818 -0.20694411 -0.1538954

lstm.bias_hh_l0 f4 [512]
000000 47 03 92 bd cd db 09 bb 62 c9 6e bd 07 d5 45 be
       -0.07129531 -0.0021035552 -0.058297522 -0.19319545
000010 47 cb 01 bf a0 1f d8 3d 94 68 6b be da 0c c2 bd
       -0.507008 0.10552907 -0.22989112 -0.094751075
000020 42 3f 68 3d 26 a8 33 be 32 b2 8d 3c 9a c6 c3 3e
       0.056700952 -0.17544612 0.017296884 0.38237458
000030 e0 f0 04 3e 58 2e 21 bf 57 70 9d be 7e ca 08 be
       0.12982512 -0.6296134 -0.3074977 -0.13358495
000040 95 17 89 be d6 43 bb bd f5 f0 4a bd 42 ba 85 be
       -0.26775804 -0.09143798 -0.0495462 -0.26118666
000050 5b 34 fb bc 6f f2 7f be bf b6 01 be 19 8d 3e bf
       -0.030664613 -0.24994825 -0.12667368 -0.7443405
000060 b7 ec 45 be 76 04 c1 3a 30 cd 62 3d 2a 41 d1 3c
       -0.19328581 0.0014726061 0.055371463 0.025543768
000070 4a a0 01 3e 83 c2 cb be f5 58 a6 bd 3e ea 9e 3e
       0.12658802 -0.39796838 -0.08122436 0.31038088
000080 44 81 f6 bd 5b 4a 54 be 1a 87 a5 be 98 0f 18 bf
       -0.12036374 -0.2073149 -0.32329637 -0.59398794
000090 d4 d0 f2 3e a2 f8 83 be 9c c9 36 bd f8 47 8b be
       0.47424948 -0.2577563 -0.044625863 -0.27203345
0000a0 ac bc 46 be 2a 86 e1 bd 47 e2 02 3e ec df b6 3e
       -0.1940791 -0.11011918 0.1278163 0.35717714
0000b0 ee 17 3d be bf 62 f7 3d 8b 13 92 be ae fc ac bd
       -0.1846616 0.12079381 -0.28530535 -0.08446632
0000c0 8b 5c 4c bc 45 ca 37 3d f2 c8 e3 3d fe 1f 0b 3d
       -0.012473236 0.044870634 0.11122312 0.033966057
0000d0 70 fb 5c be 4a c8 f9 be bf 09 1e 3e 27 60 71 be
       -0.21580291 -0.4878562 0.15433405 -0.23571835
0000e0 5f 7e 80 be 3c 23 3b be 13 36 b7 3d b1 f7 3e 3d
       -0.25096413 -0.1827516 0.08945861 0.046622936
0000f0 8a 1f 57 bc 6f f2 0d bf 8b 0b 3c 3e 39 98 bc be
       -0.013130078 -0.5544805 0.18363778 -0.36834887
000100 ca 6a a0 bd 16 bd 99 be 49 f3 be 3d b4 1e ad bd
       -0.078328684 -0.30027074 0.09323747 -0.08453122
000110 c4 a7 eb 3b f3 b2 ed bd ca c6 8b 3d 3a 6f 1c bd
       0.00719163 -0.116063975 0.068250254 -0.03819201
000120 7e e5 8a 3e f8 0e d0 bd 0b 27 9f be cf b6 17 3d
       0.27128214 -0.10159105 -0.31084475 0.037039574
000130 0c c3 89 3e 8c 36 d2 bd 86 f4 0b 3e b8 85 85 3d
       0.2690662 -0.1026431 0.13667497 0.065196455
000140 92 ec 89 be f0 d8 04 3d cf 46 59 bd c2 c5 79 3c
       -0.269383 0.03243345 -0.053046044 0.015244903
000150 84 9a ad 3c af c0 e6 3c 66 49 60 be b9 44 bd bc
       0.021191843 0.02816805 -0.21903 -0.023104059
000160 89 21 ac be f0 64 02 be 71 c5 a1 bc 97 c4 1c 3e
       -0.33619335 -0.12733817 -0.019747468 0.15309368
000170 80 6e f2 bc 9a 32 c4 bc 81 66 87 be 5f ea d7 be
       -0.029593706 -0.02394991 -0.26445392 -0.42170998
000180 04 dc 52 3d 95 3f f0 be 16 c4 a1 bd b4 1b 7a be
       0.051479355 -0.4692351 -0.078987285 -0.2442463
000190 2f a0 a5 be d3 10 16 bf 4c e2 52 be 09 5a 2b 3c
       -0.32348773 -0.5861942 -0.20594138 0.010458478
0001a0 e2 ad 84 3d e2 d5 0f be bd 56 17 be 34 dd fb 3d
       0.06478478 -0.14046434 -0.14779182 0.122980505
0001b0 19 ed 6c 3e 3c 80 d0 3d 05 cb a9 3e e7 5b f9 3d
       0.2313732 0.10180709 0.33162704 0.12175732
0001c0 fc 62 a6 be f5 94 25 bf 0b 2a 10 bf 90 06 97 3d
       -0.32497394 -0.64680415 -0.5631415 0.073742986
0001d0 44 bd 32 3e 14 d9 5a 3e 05 c8 32 bd 34 49 f0 be
       0.17455012 0.21371871 -0.043647785 -0.4693085
0001e0 5b 98 18 3c d8 1e 90 bc 5e dc c9 3c 76 2f 49 3e
       0.009313668 -0.017592832 0.024641212 0.19647011
0001f0 ea ff 0a 3e 14 0a d4 3c a0 74 21 be 28 74 c7 3d
       0.13574186 0.025883712 -0.15767145 0.09738952
000200 82 42 e2 bd 06 96 ba bd c7 40 5c be c7 b8 af be
       -0.110478416 -0.09110646 -0.21509086 -0.3432066
000210 cb ed 1e bf 4e 28 08 bd 4d 35 11 be 2a b5 47 be
       -0.62081593 -0.033241563 -0.14180489 -0.19502702
000220 ce 9b f4 b8 d9 43 97 be 2b 6c a9 3c d6 7f b9 3d
       -0.000116638475 -0.2954395 0.020681461 0.09057586
000230 eb 7d 71 bc ec 42 14 bf ea 4a 99 be 76 0e 66 be
       -0.014739494 -0.57914615 -0.29939967 -0.22466454
000240 1e 30 8b be ca 53 52 be 87 ad 59 be 70 74 93 be
       -0.27185148 -0.20539775 -0.21257602 -0.28799772
000250 82 23 61 be 55 fd 4e be c2 6c 8e be 4e d0 0e bf
       -0.21986201 -0.20213826 -0.2781735 -0.557866
000260 a0 5b 2a be b3 b8 ea bd 42 dd f3 bd 39 6f 10 bd
       -0.16636515 -0.1146101 -0.11907436 -0.03526232
000270 a2 77 af bd c6 fe e3 be d7 cf 0a be 1f 82 c3 3d
       -0.0856774 -0.44530314 -0.13555847 0.09546303
000280 d8 56 21 be 4f f4 88 be 78 76 63 be 35 e3 0d bf
       -0.15755785 -0.26748893 -0.22213161 -0.55424815
000290 c8 f1 a6 3d b4 a9 90 be b2 56 f4 bd 79 5e 9c be
       0.08151585 -0.28254473 -0.11930598 -0.30540827
0002a0 f1 1b 0f be b8 e9 90 be 61 54 a4 bd 0e c9 73 3b
       -0.13975503 -0.28303313 -0.080239065 0.0037198695
0002b0 ac 3e 6c be 56 3a 7a bd 0e 28 a4 be f0 ee 52 be
       -0.23070782 -0.06109079 -0.3206181 -0.2059896
0002c0 2b 8c e7 bd 80 93 07 be 1d d8 07 3d 07 66 7c bd
       -0.11306032 -0.1323986 0.033165086 -0.06162074
0002d0 a4 26 d2 be 6f b5 c3 be a9 31 ca 39 a9 a6 0c be
       -0.41045105 -0.3822436 0.00038565442 -0.13735451
0002e0 51 e8 3a be 6c 24 65 be 05 32 c4 bd bc be 18 be
       -0.18252684 -0.22377175 -0.09579853 -0.1491651
0002f0 cb d0 34 bd 66 4e f9 be 0a 0e 78 bd 49 02 c0 be
       -0.044144433 -0.48692626 -0.060560264 -0.37501743
000300 7e 1d 05 be c9 42 b9 be fa d2 a4 bd ea ba c9 bd
       -0.12999532 -0.36183766 -0.08048053 -0.09850104
000310 40 4c 42 be 1b 45 66 be b8 89 d6 bd 9d c3 be bc
       -0.189744 -0.22487299 -0.104754865 -0.023286635
000320 37 35 e9 3d 69 83 4c be 4b 4b 93 be e1 e6 30 be
       0.11387103 -0.19972004 -0.2876838 -0.17275573
000330 ac 4e d9 bc b0 8e ce bd 83 ed de bd 7a 94 cc 3b
       -0.026526771 -0.10085809 -0.108851455 0.0062432857
000340 ff d6 4c be 3d b7 ce bd 03 28 95 be e7 ed 06 be
       -0.2000389 -0.10093544 -0.2913209 -0.1317669
000350 e4 bc 39 be 57 aa 8d be 11 97 72 be f7 a4 a3 bd
       -0.18138462 -0.2766902 -0.2369044 -0.07990449
000360 a2 89 a3 be d4 13 8f be e2 23 8c bd 1c 25 9c bd
       -0.31940943 -0.27944815 -0.068427816 -0.076242656
000370 86 ee 2f be 9f 6d 8b bd ec ff 6b be 35 61 fd be
       -0.17180833 -0.06808018 -0.23046845 -0.49488226
000380 a4 60 07 be 45 48 18 bf b6 d7 01 be 23 d0 82 be
       -0.13220459 -0.59485275 -0.12679943 -0.2554942
000390 19 b5 07 bf 99 a2 1d bf 58 bd 51 be 91 ff 04 3b
       -0.5301071 -0.6157623 -0.20482385 0.002029393
0003a0 35 42 1f be 67 89 49 be 43 48 27 be c1 ba e6 bd
       -0.155526 -0.19681321 -0.1633616 -0.11266089
0003b0 5a 6c ca bd 2c 44 16 be a9 61 e1 bc 37 a9 b6 3a
       -0.09883948 -0.14674443 -0.027512388 0.0013935928
0003c0 97 f6 e3 be 42 be 23 bf 98 b2 1f bf 17 cf fd bc
       -0.4452407 -0.63962185 -0.6238189 -0.030982537
0003d0 0b e4 4e bd 5f 73 da 3d 73 56 3f be 9d 52 13 bf
       -0.050510447 0.106665365 -0.18685322 -0.5754793
0003e0 07 3f c3 bd d5 b9 0c be e2 8a 12 bd ec c6 3b be
       -0.09533506 -0.13742764 -0.03577698 -0.18337601
0003f0 8a 93 b7 3b 99 d5 ac 3b 87 6a 20 be a7 48 f4 bd
       0.005602305 0.0052744863 -0.15665637 -0.1192792

lstm.weight_ih_l1 f4 [512, 128]
000000 0a 49 e0 3d d3 74 27 3e 8b 8b 94 bd af ef 43 3e
       0.10951431 0.16353159 -0.07253178 0.19134401
000010 28 f8 78 bd b9 65 dc 3c 4b 38 76 bd 04 c1 07 bd
       -0.060783535 0.026903974 -0.06011228 -0.03314306
000020 5f 65 1d 3e 1d d1 b8 bc 54 bc 21 3e 1c ef 10 3e
       0.15370701 -0.02256065 0.15794498 0.14153713
000030 f5 30 f9 bc 6a 6c 3d 3d 3d 0b 93 bd df 67 bf bc
       -0.030418852 0.04624597 -0.07179878 -0.02336496
000040 1f ee 8a 3d f9 9a c5 3c 5d 4a 91 3d e3 ec 4d 3d
       0.06783699 0.024121748 0.07094262 0.05027474
000050 c5 65 1c bd 96 6b 7f bd 22 21 15 3d c1 f3 7d bd
       -0.038182992 -0.06235846 0.03640855 -0.06200004
000060 97 7f 7a 3d ae 82 08 be ed 55 d7 3d fd ca 10 be
       0.061156835 -0.133311 0.10514436 -0.14139934
000070 6c dd 1d 3e bb ff 32 bd 67 f2 9b bd 5a ce 5d bd
       0.15416497 -0.043700915 -0.07614594 -0.05415187
000080 67 58 00 3e dd 2a ff bd ec af c2 3c 08 17 79 3d
       0.12533723 -0.124593474 0.023765527 0.06081298
000090 62 4e d6 bd 43 4e 43 3e 69 15 ce 3d ff 8b a9 bb
       -0.10464169 0.19072823 0.100626774 -0.0051741595
0000a0 03 48 2d 3e 75 2a df bc 56 03 55 3d 85 b3 b4 bd
       0.16922002 -0.027241925 0.052005135 -0.08823303
0000b0 cb 10 81 3b 89 cf 4a 3d 30 e0 4f be 06 40 d3 3d
       0.0039387695 0.049514327 -0.20300364 0.10314946
0000c0 11 fd 6e be fc 36 0e be 76 44 c9 bd 61 53 ea bd
       -0.23338725 -0.13888162 -0.09827511 -0.114416845
0000d0 f5 9c ca bc 32 d5 50 bd 5b ae 9c bd 43 f1 8a bd
       -0.024733046 -0.05098457 -0.07650443 -0.06784298
0000e0 cb d4 6d bc 82 5e 9e bd 85 1d 59 ba db 74 f4 ba
       -0.014516066 -0.0773287 -0.0008282292 -0.0018650548
0000f0 12 7e c3 3d 91 47 35 3c 4a 77 97 bd dd 93 d2 3d
       0.095455304 0.011064426 -0.073957995 0.10282109
000100 8f 4f 0d 3d 8f 2f 7b bd a2 d7 86 bc e8 61 02 be
       0.0344997 -0.061324652 -0.016460244 -0.12732661
000110 98 30 15 bd 54 3f e3 bd e9 06 ec bd a7 d7 c8 bd
       -0.036423296 -0.11096063 -0.115247555 -0.098067574
000120 71 f5 b2 bd f8 9d 1e bc 43 02 48 bd 80 02 74 3d
       -0.087382205 -0.009681217 -0.048830282 0.059572697
000130 43 55 ef 3a 84 11 b3 bd 30 0d c6 bd 50 39 8f 3d
       0.0018259663 -0.08743575 -0.09670484 0.06993353
000140 ac 51 96 3d d8 48 0e 3e b6 23 6e 3d ab f4 2b 3d
       0.073397964 0.13894975 0.058139525 0.04198138
000150 d2 6d a0 3c 2b 7c 31 3d ba 75 e2 bd e8 e1 03 3e
       0.019583616 0.043331306 -0.11057611 0.12879145
000160 62 8f 0e be 94 99 df bd 40 5a 48 be 8d d5 c3 bd
       -0.13921884 -0.109179646 -0.19565678 -0.09562216
000170 0f eb ea 3d 82 f8 95 3d c2 2e 17 ba 6c 34 fc 3c
       0.11470615 0.0732279 -0.00057671603 0.030786715
000180 a1 9f 6b 3d d4 54 97 bd 9d ae 87 3d c0 33 60 be
       0.05752528 -0.073892266 0.06625102 -0.21894741
000190 b9 0f 99 bd 03 8e cf 3c aa c6 eb bd ae d3 e3 3d
       -0.07473702 0.025336271 -0.115125015 0.11124359
0001a0 40 ae dc 3d 4b 57 2d bd 6b 0a 81 be 6d ea 22 bd
       0.10775423 -0.042319577 -0.2520326 -0.039774347
0001b0 f1 d2 0c be f7 9d 45 3d 25 f3 dc bd 79 6f 0f be
       -0.13752343 0.04824635 -0.10788564 -0.14007367
0001c0 19 b5 47 bd 6e 23 94 bc 89 08 30 3a c5 51 ef bd
       -0.048756693 -0.0180833 0.0006715139 -0.11685518
0001d0 b8 f2 3f be 03 89 67 be b2 a9 76 3d 62 59 14 3e
       -0.18744934 -0.2261086 0.060220428 0.14487222
0001e0 28 41 87 3b 59 e9 00 be 7a 87 e7 3d e9 eb 94 3c
       0.0041276403 -0.12589015 0.11305137 0.018178897
0001f0 61 2e f2 3b dd 95 3a 3d 03 54 95 bd c9 56 d1 3c
       0.0073907827 0.045553077 -0.072914146 0.025554078
000200 af 65 ef 3b 1c 27 ab 3d c6 e4 b3 3d 4c 0f 01 3e
       0.007305823 0.08357069 0.087838694 0.12603492
000210 30 01 91 ba b9 6e a2 bd 7a d3 1a bd 7b 68 d1 bc
       -0.0011062976 -0.07931275 -0.037799336 -0.025562515
000220 ab 72 a2 3c d8 6e de 3d ee 5c 27 bc 2f a2 6b bd
       0.019830069 0.108609855 -0.010215027 -0.057527717
000230 8b b9 b9 bd 80 a9 c5 bc 76 37 74 3a 87 4c b0 bd
       -0.09068593 -0.024128675 0.00093161257 -0.086083464
000240 a6 67 07 3d 28 d5 ab 3d be 97 d7 bd fa 8d 1a 3c
       0.03305783 0.08390266 -0.105269894 0.009433264
000250 41 3b 49 bd 6c 1a 59 bd 00 fa eb 3d 95 eb 65 3c
       -0.049128775 -0.053003713 0.11522293 0.014033218
000260 5e 79 2f bd 6a 15 bc bb 3c 7d 1b bd d7 80 1c 3d
       -0.042840354 -0.0057398574 -0.03796123 0.03820881
000270 a3 98 82 3d d5 4b ef 3d 0b c2 9f bc ec 52 35 3c
       0.063767694 0.11684386 -0.019501707 0.011067133
000280 3a e4 3c bd f9 23 dd bc 36 14 37 bd b5 a1 ad bc
       -0.04611609 -0.026994692 -0.04469701 -0.021195272
000290 ae ef e3 3c 3d e6 c8 bd 94 21 dc 3d b2 60 4e 3c
       0.02782425 -0.098095395 0.10748592 0.012596296
0002a0 6c 47 c5 3d 85 d1 3e bc fc 58 38 bb bf f7 c9 3c
       0.09632763 -0.011646633 -0.002812921 0.024654267
0002b0 af b7 c9 3d 73 9b a2 3c 7d 7f dc bd 0f 4e 32 bd
       0.09849488 0.019849515 -0.10766504 -0.043531474
0002c0 57 f6 a6 3c fe 6c cd bd 2c 30 26 bd cc ac 95 bd
       0.020381136 -0.10030554 -0.040573284 -0.07308349
0002d0 c7 1b 6a 3d e7 66 3e bd 01 5f b1 bd a0 e0 aa 3c
       0.057155397 -0.046484854 -0.08660699 0.020859063
0002e0 bd 55 9d 3d a8 b1 9d 3d 7b da d4 bd 5e b9 13 bd
       0.07682369 0.07699901 -0.10393234 -0.03606545
0002f0 ed e5 cf 3d f1 27 19 be 0d a2 56 be 47 57 a9 bc
       0.10151277 -0.14956643 -0.20960255 -0.0206715
000300 35 8a 73 3d e5 af 56 bd 07 48 47 3c da 80 8f bd
       0.059457976 -0.05241384 0.012163169 -0.07006998
000310 b2 56 b2 bc 98 a0 8c bd 76 db b0 3c c7 bc 29 bd
       -0.021769855 -0.06866568 0.021589022 -0.041439798
000320 9a 1f a6 3b 88 b1 69 bd 4c c8 06 3e 6e ca c0 3c
       0.005069685 -0.057054073 0.13162345 0.023534026
000330 6c a1 54 bd 47 85 32 bd 02 6c 0b be f2 96 da 3c
       -0.051911756 -0.043584134 -0.1361542 0.026683304
000340 69 3d a1 3d 64 94 8f bc 44 44 4f bd 8f fa ae 3d
       0.07873041 -0.017526813 -0.050602213 0.08543884
000350 0d a0 30 3d 23 47 ea bc cf 2d 93 bd ee 75 44 bd
       0.043121386 -0.028598374 -0.07186472 -0.04796403
000360 86 c7 ec bd 16 3b 90 3c a6 66 90 bd 3f 60 b2 bd
       -0.115614936 0.0176063 -0.07050829 -0.08709764
000370 83 88 46 bd c7 cd 13 3e e9 7e 0f 3e 57 d6 78 3d
       -0.04847003 0.14433967 0.14013256 0.060751285
000380 08 7a 59 3d cf 5c fb 3c dc c1 b7 bc b4 8c 6b be
       0.053094894 0.030683903 -0.022431307 -0.23002893
000390 a5 fc 4a bd 14 5b 90 bd 6a 36 1b be 90 05 44 bd
       -0.049557347 -0.07048622 -0.15157476 -0.047856867
0003a0 aa 03 87 3d 2c ea 13 bd a5 77 84 bc 4b a3 18 3b
       0.06592496 -0.036111996 -0.016170332 0.002329069
0003b0 f4 30 50 bc 6d 1f 08 bb fc aa d1 bb 45 54 1c 3e
       -0.012706984 -0.0020770684 -0.0063985568 0.15266521
0003c0 77 ac af 3d 38 e7 af 3d bf d0 b3 bc d7 6e 4e 3c
       0.08577817 0.08589023 -0.021950124 0.012599668
0003d0 16 23 3c bd 9e 5a 95 bc 71 29 3c bd 80 9d 73 3d
       -0.045931898 -0.018231686 -0.04593796 0.059476376
0003e0 6c 4d 7a bd f6 52 31 bd 25 f3 52 bd 3e 8f 96 3d
       -0.06110899 -0.04329201 -0.051501412 0.0735154
0003f0 74 37 a8 bc d4 2e 43 3e 40 34 f0 3c 0b 7b 25 3d
       -0.020534255 0.19060832 0.02932179 0.040400546

lstm.weight_hh_l1 f4 [512, 128]
000000 81 e5 88 ba a0 0d 06 bd 48 32 a2 3d aa d7 2d 3b
       -0.0010444374 -0.032727838 0.07919747 0.002652625
000010 c3 eb 9d bc 2f 3e 5e 3d 38 5c 79 bd 9e 6b 64 3d
       -0.019277459 0.05425852 -0.060878962 0.055766694
000020 e1 aa 96 3c a0 a9 2a be b7 03 48 bc fd 7b 0b bd
       0.018392028 -0.1666627 -0.012207917 -0.03405379
000030 66 71 8b 3d 6d 76 ef 3d 64 4a ca 3d de 34 a2 bd
       0.068087384 0.1169251 0.0987747 -0.0792024
000040 f7 31 16 3e d9 99 81 bd cb fb 86 3d a3 2a df bd
       0.14667498 -0.06328172 0.065909944 -0.10896804
000050 42 38 87 3d d6 50 a7 bd 3d 90 bd 3b b9 68 14 3e
       0.06602527 -0.08169715 0.005785017 0.14493074
000060 09 be cf bb 33 9f ad 3d ba 76 03 be 5e db 95 bd
       -0.0063397926 0.084776305 -0.1283826 -0.073172316
000070 4c ac 33 bd fa c1 be b8 a5 06 16 3d e6 28 05 3d
       -0.043865487 -9.096037e-05 0.03662743 0.032509707
000080 a2 65 f7 3d 61 29 3a bd 91 4f 3f bd 0f 93 07 3e
       0.12079932 -0.04544962 -0.04670674 0.13239692
000090 b8 86 40 3e 73 b3 a6 bd 56 e4 11 bd 3e 05 8a 3d
       0.18801391 -0.08139696 -0.03561815 0.06739281
0000a0 ff 77 77 bc 0d 53 ad 3c 09 a3 1a 3c 7a 2c 95 bd
       -0.015104293 0.021157766 0.009438285 -0.07283874
0000b0 e8 fc c2 3d f8 5b ab bc 5c fc 1e bc ed cb 2e bd
       0.09520894 -0.020917878 -0.009703722 -0.042674948
0000c0 6a 53 32 3d e1 11 4e bd 0e cf 99 3c be 2c 7f bd
       0.04353658 -0.05031002 0.01877549 -0.06229853
0000d0 44 af c1 3d f8 67 c0 bc 45 f1 9d bd 3c 70 4a bd
       0.094572574 -0.023487076 -0.07712034 -0.04942344
0000e0 ae b6 a0 3d ff e8 f0 3d 6c 13 9c bc d6 ae 36 3e
       0.078473434 0.117631905 -0.01905223 0.17840132
0000f0 71 b1 82 be 0a 2b 1b be 2a 01 34 bc 21 42 cb 3c
       -0.25526002 -0.15153137 -0.010986606 0.024811806
000100 a7 42 78 38 0f 62 ab bc 0d 71 06 3e df b4 e2 3d
       5.9189882e-05 -0.020920781 0.13129063 0.11069655
000110 ca 82 1a bd cf 5e 01 3d 7b 09 19 3d 4d bd 8e 3c
       -0.037722386 0.031584557 0.037362557 0.01742425
000120 33 0a 5d bd 3e 30 1b bd 5b 48 8e bd 01 b9 a5 bd
       -0.053964805 -0.037887804 -0.069473945 -0.08091927
000130 e8 16 78 bd a8 8d ee bd e2 cd 74 bd d8 da 02 3e
       -0.06056872 -0.116481125 -0.059766658 0.12778795
000140 aa 0c 4f bd 81 ab 3b be 1d 2d 0f bd ea 20 fa 3d
       -0.050549187 -0.18327142 -0.034955133 0.12213309
000150 32 65 95 bc 9a d2 ec bd cc 49 35 3d d0 a7 b6 bb
       -0.01823673 -0.115636066 0.04425983 -0.005574204
000160 46 be e1 3b 50 44 9b 3d 16 dd 8d bd 19 d6 83 bd
       0.0068891374 0.07581389 -0.069269344 -0.0643732
000170 eb f2 3d 3c 49 32 53 3d 67 bf e4 3d d5 b2 54 bb
       0.011593561 0.051561628 0.111693196 -0.0032455225
000180 01 8c e5 3c 0f 5e fd bd 00 51 b0 bd 73 ef 4f 3e
       0.02802086 -0.12371456 -0.086091995 0.20306186
000190 d1 4a 28 3e 28 2e 9b bd 04 fb 56 3e 25 fa 47 3d
       0.1643479 -0.07577163 0.20994192 0.04882254
0001a0 02 88 32 3d ab 34 12 3c e5 ba 1f bd 5d 5b d3 3d
       0.04358674 0.00892369 -0.038996596 0.103201605
0001b0 83 f0 6c 3d 74 1a 08 be f6 bf 19 3d 53 5e 21 3d
       0.057846557 -0.13291341 0.037536584 0.039396595
0001c0 a8 a6 b2 3c 3a 26 bf 3d f2 26 e8 3d e6 bf 8a 3d
       0.021807984 0.09333463 0.11335553 0.06774883
0001d0 48 06 16 3e a9 da de 3c 23 09 c6 bd f1 d7 45 3d
       0.14650834 0.027203875 -0.096697114 0.04830164
0001e0 c4 2a cc bd da 65 22 bc 7b de c3 bd fc be 3e 3d
       -0.099690944 -0.009911979 -0.09563919 0.046568856
0001f0 2d 60 27 be e1 66 00 3e 99 db 83 bd 3f f6 2f 3e
       -0.16345282 0.12539245 -0.06438369 0.17183779
000200 cf b2 4a 3c 42 61 c9 3d f9 1a 14 3e c6 0b 48 3e
       0.012371733 0.098330036 0.14463414 0.19535741
000210 cc b5 1d bd 3c 23 21 be 53 69 29 3d 61 c2 4f bd
       -0.038503453 -0.15736097 0.04136021 -0.050722484
000220 96 a7 96 bc 88 54 54 be bf 83 2f bd a2 69 4a be
       -0.018390458 -0.20735371 -0.042850252 -0.19766858
000230 0c 76 14 3e 98 45 32 3e 83 75 db 3d ac 79 30 3d
       0.14498156 0.1740936 0.10715773 0.043084785
000240 03 c0 b6 bc 4a d5 13 be 91 a3 90 bd 4c a3 63 3d
       -0.022308355 -0.14436832 -0.07062448 0.055575654
000250 7d 4d 88 bc 0e 38 78 be ad 6a e8 3d 51 c1 32 3d
       -0.016638512 -0.24240133 0.11348472 0.043641392
000260 ea da 4c be f0 41 c3 3d 1f 24 ee bc 5b 73 85 3d
       -0.20005384 0.09534061 -0.029069958 0.06516143
000270 3e be 2b bd df 5c 26 3d db e1 c7 3d c7 8d dd 3b
       -0.041929476 0.040615913 0.097598754 0.006761286
000280 bd c9 a6 3c 2d 74 48 bd 92 6a 65 3c 7c cd d6 bd
       0.020359868 -0.04893892 0.014002459 -0.10488412
000290 40 60 f7 3a 11 c0 27 be 7f d3 33 bd 23 74 53 3e
       0.0018873289 -0.16381861 -0.04390287 0.20649771
0002a0 7c 2a ea bc 31 30 79 bd af 1e 45 bd d5 cb 02 be
       -0.028584711 -0.060836975 -0.048124965 -0.12773068
0002b0 a8 9f 00 be eb fb 87 3d 0f 94 3e 3e 44 e2 0b be
       -0.12560904 0.066398464 0.18611167 -0.13660532
0002c0 58 53 a2 3d 3d 14 a3 bd 90 9d 09 bd 3a 42 10 3e
       0.07926053 -0.079628445 -0.03359753 0.14087763
0002d0 6f c3 bc 3d 85 35 8c 3c 41 53 7c 3d 3c 53 b0 3d
       0.092169635 0.017115364 0.061602835 0.08609626
0002e0 12 85 97 3b 33 f1 e4 3c 09 36 d3 bd 18 6c 5e 3e
       0.0046240175 0.027947044 -0.10313041 0.21720922
0002f0 e7 b5 09 be 0a 91 ec be ed 8d 19 3e b3 59 19 3e
       -0.13448296 -0.46204406 0.14995547 0.14975624
000300 51 65 21 bc 1f a9 cc 3d e7 cd 23 3e 4b b1 f7 3d
       -0.009850816 0.09993195 0.15996514 0.12094363
000310 66 83 95 3c 73 4a 3e be 84 33 5d 3d fa f8 3d 3d
       0.018251132 -0.18583088 0.054004207 0.04638002
000320 a4 12 b2 3d 25 8e 8e bd 17 d4 12 be 16 15 c8 bc
       0.08694962 -0.06960706 -0.14338718 -0.024424117
000330 f9 b2 f4 3c 8a 3d a6 bc 9e 85 65 3e e5 92 c3 3c
       0.029870497 -0.020293016 0.22414252 0.023873756
000340 a7 b7 d5 bd f0 c9 e8 bd cb b8 a7 bd b0 96 1b 3e
       -0.104354195 -0.113666415 -0.08189543 0.15194201
000350 c4 b5 42 3e 6b b8 ed 3c 07 c4 bc bd 42 da de bc
       0.1901465 0.029018601 -0.09217077 -0.027203683
000360 9d a6 73 bd 44 15 23 3e dd 73 36 be e3 08 93 bd
       -0.059485067 0.15926081 -0.17817636 -0.071794294
000370 6f 2d 7a bd 55 d5 1c 3e 0f 16 21 3e aa c6 ac bd
       -0.061078485 0.15315755 0.15731071 -0.0843633
000380 a4 8c a6 bd 06 32 98 bd 9d 8d 93 bd 26 56 24 3e
       -0.08132294 -0.07431416 -0.07204745 0.16048488
000390 db 85 b4 bd 0b ee 4d be 23 27 35 bd e2 1d 8a 3d
       -0.088145934 -0.20110337 -0.044226777 0.06743981
0003a0 16 51 d1 bd a4 98 ed 3d 67 96 1c 3d ae 8d e8 3c
       -0.10220544 0.116013795 0.038229372 0.02838787
0003b0 52 d0 2f 3e c1 3e 3f 3e b5 b7 f7 bd 62 ef 8b 3d
       0.17169312 0.18676282 -0.12095586 0.06832768
0003c0 06 e4 1e bb bd 05 76 3e 29 c6 20 3e a5 56 a7 3d
       -0.00242448 0.24025626 0.15700592 0.08170823
0003d0 af 3f bb 3d 4a a7 9b bc 58 a6 a5 bd dd a6 86 3d
       0.09143006 -0.019000668 -0.08088368 0.065747954
0003e0 71 5a f5 bc bb 46 32 3e d7 c3 67 3c 90 60 b3 ba
       -0.029950352 0.17409794 0.014145813 -0.0013685394
0003f0 1b ea 73 bd 83 15 d3 bb 65 8a ad bd c3 b0 fd 3e
       -0.059549432 -0.0064417734 -0.08473662 0.4954892

lstm.bias_ih_l1 f4 [512]
000000 4e 6c 0f be d9 55 27 3d 1c f6 14 3d a8 b9 9d bd
       -0.14006159 0.040853355 0.03636752 -0.07701427
000010 34 6f 44 bd 9e 63 00 be d2 92 33 bd 0d d8 f3 bd
       -0.047957614 -0.12538001 -0.04384119 -0.11906443
000020 4f 82 91 be 93 e8 b1 bd 79 be 3c be c0 ff 9b be
       -0.2841973 -0.08686938 -0.18432035 -0.3046856
000030 5a b3 85 bd 76 d8 2e bd bc 5d 9e bd b2 0b ef 3d
       -0.06528349 -0.042686902 -0.07732722 0.116721526
000040 e0 a7 a7 bd b5 63 bc be aa aa ac 3d 60 9a 9b bd
       -0.081863165 -0.3679482 0.08430989 -0.07597804
000050 3b e3 36 3d 0e 8b 88 3d c5 e5 e9 bd e6 93 2b 3d
       0.044650298 0.066671476 -0.11420778 0.041889094
000060 8a 7b 53 3d 74 dd c0 ba 31 9c 40 3c 6d df ab 3d
       0.051631488 -0.0014714436 0.011755989 0.083922245
000070 7a 27 a4 be ea c4 fa be dc 9d 9d bc b2 2b d2 bd
       -0.32061368 -0.48978359 -0.019240312 -0.102622405
000080 ad 56 42 bd 95 af 52 bc 20 cc fc be 69 7d 8a 3d
       -0.04744594 -0.012859245 -0.49374485 0.06762201
000090 e2 7e 30 bd 72 bf f4 3b b5 05 45 be 1a be 31 3d
       -0.043089755 0.007469111 -0.19240458 0.043394186
0000a0 54 0b dc 3c 7a 55 f8 be 47 38 5f bb 40 98 84 bd
       0.02686087 -0.48502713 -0.0034060644 -0.06474352
0000b0 b8 34 11 3c 5a 57 8c bd ff 08 59 3d 6e b8 e0 be
       0.008862667 -0.068525985 0.052987095 -0.4389071
0000c0 a7 a4 07 be 5f 3c e4 bd 61 ee 3d be 3a 22 c4 be
       -0.13246404 -0.11144327 -0.18547966 -0.38307363
0000d0 f4 61 e6 bd 6e 5c 6d be b6 b3 a3 be 43 8a 9e be
       -0.11249152 -0.2317979 -0.31973046 -0.3096486
0000e0 fa e8 12 be 29 96 59 bd 5d aa 8e bd 22 c6 bd 3d
       -0.14346686 -0.05312172 -0.06966088 0.092663065
0000f0 00 58 04 3d 06 ff a5 be cc a1 39 be 8d 6f 1a 3d
       0.032310486 -0.3242113 -0.18128127 0.03770404
000100 eb 70 9d be 42 4a f6 bd 1c 5a fd bd 5f 5a 2a bd
       -0.30750212 -0.12025882 -0.123707026 -0.04159009
000110 66 06 54 bd dc 7e bf be f6 2d 30 bd 1a 50 7d bd
       -0.051763915 -0.37401474 -0.04301258 -0.06184397
000120 4f 87 81 be 43 cc 06 be b5 b1 d2 bd 4d 55 14 be
       -0.25298545 -0.13163857 -0.10287801 -0.14485665
000130 c0 a1 7b bc ce 90 98 bd cb 03 4d bd 3c bc b9 3c
       -0.015358388 -0.07449494 -0.050052445 0.022672765
000140 45 d2 86 bd 9e 05 ad be 98 41 a8 bd 93 d1 b5 3c
       -0.065830745 -0.33793348 -0.08215636 0.02219466
000150 a1 01 8f 3b c8 e4 ed bc 94 9f 29 bf fa 27 52 bd
       0.004364208 -0.029039755 -0.6625912 -0.051307656
000160 52 45 e5 bd 21 59 33 bc 6a 0a d5 bd 9c b8 2b be
       -0.111948624 -0.010946543 -0.10402377 -0.16769642
000170 be 8b 83 be 8c d7 20 bd 01 ea 0d be 99 a4 95 3c
       -0.25692552 -0.03926806 -0.13858797 0.018266963
000180 07 db 09 bd 6c c1 02 bf 9b c6 3b 3d 82 e4 4c be
       -0.033656146 -0.5107639 0.0458437 -0.20009044
000190 86 bb f1 bd 3e 4e d5 be 18 5b 76 3d 31 52 e5 37
       -0.118033454 -0.41661257 0.060145468 2.73372e-05
0001a0 fd 3c c6 bc 4a f8 43 be a5 f2 15 3d f0 d0 3e 3c
       -0.024199003 -0.19137684 0.036608357 0.011646494
0001b0 06 4b 0e be 70 ea fe bd 4f 8f 5b be 3a 2a a1 bd
       -0.13895807 -0.12447059 -0.21441387 -0.07869382
0001c0 45 02 97 3d be 8b a4 bd ff 1d 4f bd b1 e5 16 bd
       0.0737348 -0.08034466 -0.050565716 -0.036840145
0001d0 11 e3 c0 3c de 14 6c bc 75 43 ef 3c 2c 6c e5 bc
       0.023545774 -0.014409272 0.02920697 -0.028005682
0001e0 09 fd 7a bc 16 3a d3 be 74 aa 91 bd 1c e9 93 bd
       -0.015319117 -0.41255254 -0.071125895 -0.072221965
0001f0 8c 91 f7 be 50 aa 2d be 97 9e ca be f1 e8 a7 be
       -0.4835323 -0.169595 -0.3957412 -0.32794908
000200 43 e5 26 be bc fc 5d be 60 16 91 bd 0f 1f e2 bd
       -0.16298394 -0.21678442 -0.07084346 -0.1104108
000210 8a 45 8b be 77 d0 8a be 2e ed 05 be f7 29 36 be
       -0.27201492 -0.2711217 -0.13078758 -0.17789446
000220 13 39 17 bf ac 48 9d be 35 75 a1 be d0 79 d2 be
       -0.59071463 -0.30719507 -0.31534734 -0.4110856
000230 3b cd 0c be 85 62 68 be 2f f8 8a bd a1 1b f3 bc
       -0.13750164 -0.22693832 -0.067856185 -0.02967626
000240 e1 3e bb bd ff df 11 bf 9b af 6d be 47 91 3f be
       -0.091428526 -0.56982416 -0.2321152 -0.18707763
000250 9f 17 69 be 7a 5a 46 be b5 68 1d be eb a2 00 be
       -0.22762917 -0.19370452 -0.15371974 -0.12562148
000260 3f b7 4f bd 9c 2f 91 be 77 d5 1c bd af 37 98 bd
       -0.050711866 -0.28356636 -0.038289513 -0.07432496
000270 d1 1d c5 be 41 9a f0 be 45 69 76 be 85 a1 49 be
       -0.3849931 -0.46992686 -0.24063595 -0.19690521
000280 32 37 2f be 78 59 1c be b2 14 fa be 96 e0 c2 bd
       -0.17110899 -0.15268505 -0.48843914 -0.095154926
000290 0d 54 47 be 3b 00 82 bd d7 ca b9 be f9 78 50 be
       -0.19465657 -0.063477 -0.36287567 -0.20358647
0002a0 45 be a9 bc 63 4e c7 be 9f 65 3c be 02 30 80 be
       -0.02072061 -0.38926992 -0.1839814 -0.25036627
0002b0 00 76 04 be 42 7a 0c be 9c 27 88 bd 1f df f2 be
       -0.12935638 -0.13718513 -0.0664818 -0.47435853
0002c0 c5 1c 33 be 42 04 28 be 16 64 83 be 6b 0a a7 be
       -0.17491443 -0.16407874 -0.25662297 -0.32625136
0002d0 32 0b 06 be c3 f5 8b be 3e 49 f3 be c2 11 ea be
       -0.13090208 -0.2733594 -0.47516817 -0.45716673
0002e0 4f fd 3b be 94 1d ec bd 39 6c 5e be 90 db 30 be
       -0.18358348 -0.11529079 -0.21720971 -0.17271256
0002f0 38 86 2a be 40 a7 f7 be 1c a1 df be 8a ac 00 be
       -0.16652763 -0.4836979 -0.43677604 -0.12565818
000300 4c f3 b2 be 54 07 30 be f3 43 bc be 59 dd 86 be
       -0.34951246 -0.17190295 -0.3677059 -0.2634075
000310 b4 9f 2a be dc 4a 05 bf b3 6f b0 bd 97 21 73 bd
       -0.16662484 -0.5206735 -0.08615055 -0.059358206
000320 53 ac cd be 2e 9a d4 bd 85 e1 0f be 28 5a 8e be
       -0.40170535 -0.1038097 -0.14050873 -0.2780316
000330 68 d2 0e be 67 91 34 be 5d c5 a1 be e2 f4 92 be
       -0.13947451 -0.17633592 -0.3159589 -0.28702456
000340 07 22 54 be 6b 4d d1 be a7 f3 62 be 5f 77 13 bd
       -0.20716105 -0.40879378 -0.22163258 -0.036002513
000350 f4 30 2a be 3d 12 66 be 5a 5a 1e bf 00 b5 94 be
       -0.16620237 -0.22467895 -0.61856616 -0.29044342
000360 43 4f bb bd bc 7c 90 be 97 ab 02 be d8 dd 8e be
       -0.09145977 -0.28220165 -0.12760769 -0.27903628
000370 ea 13 72 be 27 40 34 be 85 fd 82 be eb 18 1c be
       -0.23640409 -0.17602597 -0.25584045 -0.1524388
000380 d7 13 80 be f0 c9 f6 be be 91 69 be 99 16 a6 be
       -0.25015137 -0.4820094 -0.22809502 -0.32439116
000390 b2 9f 83 be 6b fc b2 be fd 4d 34 be 59 96 4e bc
       -0.25707775 -0.34958205 -0.17607875 -0.012609088
0003a0 f6 62 97 bd f6 ad cc be a5 9d 28 bd a2 d1 4a be
       -0.07391922 -0.39976472 -0.041165967 -0.19806531
0003b0 35 f2 0f be 8d f1 a5 be 7a 17 bc be e7 56 78 be
       -0.14057238 -0.3241085 -0.3673666 -0.242519
0003c0 88 6a fb bd c0 f3 7a be 12 7c 4e be 18 2a 2e be
       -0.122761786 -0.24507046 -0.20164517 -0.17008245
0003d0 11 53 58 bd 82 61 39 be db e7 4c be 90 45 35 be
       -0.052813593 -0.18103603 -0.20010321 -0.17702317
0003e0 8c 5f 85 bd 5c e0 14 bf b3 b9 7e be 07 d9 c2 bd
       -0.06512365 -0.58154845 -0.24875526 -0.09514051
0003f0 29 c0 ff be c6 ff 81 be 35 e9 f8 be 17 03 b5 be
       -0.49951294 -0.25390452 -0.48615423 -0.3535392
