models/LSTM_qal_epochs13.pth (torch, 806933 bytes, 10 tensors)

lstm.weight_ih_l0 f4 [512, 4]
000000 7f f1 79 bf 75 33 20 3f c4 54 b8 3e 0a 1d c4 3e
       -0.9763412 0.6257852 0.3600217 0.38303405
000010 48 54 3e bf c3 91 9b be 74 f2 c6 bd 75 60 9e bd
       -0.74347353 -0.30384645 -0.09714213 -0.077332415
000020 a1 18 08 bf b4 4b 57 bf 09 62 50 bf b1 84 49 bf
       -0.5316258 -0.8409989 -0.8139959 -0.78718096
000030 9b ee ef be 38 9b 5c bf b0 07 74 bf 66 f0 4a bf
       -0.4686173 -0.86174345 -0.9532423 -0.7927307
000040 bf 82 40 bf 83 e7 fb be 3e c5 15 bf ce c2 07 bf
       -0.751995 -0.49200067 -0.5850409 -0.53031623
000050 00 4b 9d be e2 e6 04 bf 84 e6 0e bf b5 39 0e be
       -0.30721283 -0.519148 -0.5582049 -0.13889201
000060 04 31 28 bf 5d 0b 42 bf 40 a8 37 bf a8 8e 4a bf
       -0.6569979 -0.7579859 -0.71741104 -0.79123926
000070 a8 18 7c 3e ce b6 b0 be 70 e4 42 3f 92 74 8c bf
       0.2461878 -0.3451447 0.7612982 -1.0973074
000080 da d3 ad be 14 87 e5 bd 26 b8 14 be ce da 77 3e
       -0.33950692 -0.11207405 -0.14523372 0.24204561
000090 36 55 ed 3e 54 b5 3b bf 66 99 30 3f 31 e5 8d 3e
       0.46354073 -0.7332356 0.6898407 0.27713922
0000a0 86 26 17 bf f4 3a 2c bf 4f 19 4f bf 79 aa 22 bf
       -0.5904316 -0.67277455 -0.8089799 -0.6354137
0000b0 ce 4f 8b 3e c5 f0 73 3f f8 77 3c bf cb 92 e0 3e
       0.27209324 0.9528926 -0.7362056 0.43861994
0000c0 96 43 48 3d 7a 4e 42 bf 4f ae 3c bd 96 95 fb 3d
       0.04889258 -0.75900996 -0.04606467 0.12284391
0000d0 9f 3a eb be 7b d0 35 bf 76 35 35 bf 4a c6 0f bf
       -0.45943162 -0.7102124 -0.707847 -0.5616194
0000e0 bd 5c 38 bf 86 40 e2 be 72 34 60 bf a4 4d 2e bf
       -0.7201651 -0.44189852 -0.87580025 -0.6808722
0000f0 6b 2f 2b bf 10 ae 67 bf 9f df 41 bf 0d 28 16 bf
       -0.6686923 -0.90499973 -0.75731844 -0.5865486
000100 b7 67 e3 be 49 cf 30 bf f3 05 1d bf 99 40 38 bf
       -0.44415066 -0.6906629 -0.613372 -0.7197357
000110 64 84 3d bf 64 12 4d bf a7 00 00 bf de fe 57 bf
       -0.7403014 -0.80106187 -0.50000995 -0.8437327
000120 f5 1f 12 bf bb e1 32 bf 08 88 3d bf 52 50 31 bf
       -0.5708001 -0.6987569 -0.7403569 -0.69263184
000130 72 1d 31 bf ae ab 2a bf c0 4a 3f bf bf 74 36 bf
       -0.69185555 -0.6666821 -0.74723434 -0.7127189
000140 d5 e6 11 bf 91 a2 45 bf 3a b3 0b bf 23 47 3b bf
       -0.56992847 -0.7720118 -0.54570353 -0.7315542
000150 cd 6b 00 bf fe b6 0f bf f9 3c a2 be d2 e1 01 bf
       -0.5016449 -0.561386 -0.31687143 -0.507352
000160 7e b3 da be 3c 47 19 bf 3d 3e 5a bf 60 6a 41 bf
       -0.42715067 -0.5987432 -0.8525122 -0.7555294
000170 cf 2e 14 bf 7e db 23 bf 40 b1 25 bf 9c 58 1b bf
       -0.57883924 -0.64006793 -0.6472359 -0.6068208
000180 38 0a fc be fe ae 2b bf a9 bd 4e bf a5 40 2e bf
       -0.49226546 -0.6706389 -0.8075815 -0.6806739
000190 0f f0 d7 be 02 fd a5 be 40 0b 8d be 6f 4f 1a 3e
       -0.42175338 -0.32419592 -0.27547646 0.15069364
0001a0 7a c6 57 be 51 60 90 bd 2e f2 39 be 6b 81 94 bf
       -0.21071807 -0.07049621 -0.1815879 -1.1601995
0001b0 63 b6 2a bf c3 ee 7e be c2 55 94 3e 6f 88 e1 bc
       -0.6668455 -0.24895768 0.28971678 -0.027530877
0001c0 38 b4 d0 3b 40 03 86 3e 5c 63 68 3e 1d d1 68 bf
       0.00636914 0.26174355 0.22694153 -0.9094408
0001d0 07 f3 0e bf 56 ac 28 bf f1 a1 1a bf 80 02 f2 be
       -0.5583958 -0.65887964 -0.6040335 -0.47267532
0001e0 ba bf 1a 3f 95 cf a8 3e b6 14 10 bf 0b f1 cb be
       0.604488 0.32970873 -0.562816 -0.3983234
0001f0 e3 c1 12 bf 52 3a 36 3e 6d c2 c9 3e 15 05 a9 3e
       -0.573271 0.17795685 0.39406148 0.3301169
000200 08 06 22 be cf 2a 91 bf 69 56 e1 be 77 1f 03 bd
       -0.15822613 -1.1341189 -0.44011238 -0.03201243
000210 34 f5 0e bf a3 39 2b bf d5 37 20 bf 1d 64 f8 be
       -0.558429 -0.6688482 -0.6258519 -0.4851388
000220 4b 32 a1 be 29 39 90 be 06 b6 9d bf 07 b8 33 bf
       -0.31483683 -0.2816861 -1.2321174 -0.7020268
000230 a8 fe 47 bf 2e 05 11 bf 84 b6 35 bf 61 cd 1b bf
       -0.7812295 -0.5664853 -0.7098162 -0.6086026
000240 f7 74 a7 be 4f 48 cb 3c 1f b2 d1 bd ce 27 19 be
       -0.32706425 0.024814753 -0.10239052 -0.1495659
000250 f9 39 43 be 08 4b 2c 3f 9a 66 23 3e 49 2f 85 bf
       -0.19065084 0.6730199 0.15957108 -1.0405055
000260 df d2 f2 be 5b 0c ee be cf b2 48 bf c4 07 15 bf
       -0.47426507 -0.464938 -0.7839784 -0.58214974
000270 13 0d 99 bd ec 13 9b be cb 10 7b bf 1b 5a ff be
       -0.07473197 -0.30288637 -0.980725 -0.49873433
000280 84 09 dc be 31 ca e1 bd c7 81 04 bf a8 d8 0b bf
       -0.4297601 -0.11024893 -0.51760525 -0.54627466
000290 3f 37 79 be be 95 e5 be b2 c1 59 be 7c 4d 0f bf
       -0.24337481 -0.44840807 -0.21265295 -0.55977607
0002a0 d6 46 83 be ca dc bf 3e db 73 0b 3e 93 8e 3f bf
       -0.2563998 0.37473136 0.13618414 -0.74826926
0002b0 30 c4 12 bf db 6a 27 3d b2 a6 2f be 82 3c e6 3d
       -0.5733061 0.04087339 -0.17153433 0.1124201
0002c0 5e da e0 be 84 15 38 bf 09 a3 23 bf e9 a6 39 bf
       -0.439166 -0.7190783 -0.63920647 -0.7252031
0002d0 3c 1d 8d 3d 38 78 40 3f 2a 33 08 3f 54 a3 24 bf
       0.06890342 0.7518344 0.5320307 -0.6431172
0002e0 b9 3f 3d bf c2 a6 fd be 6e cb 54 bf 24 22 16 bf
       -0.7392536 -0.4954129 -0.8312291 -0.58645844
0002f0 24 a2 4d bf aa 88 2a bf c7 fb 01 bf d1 2c f6 be
       -0.8032553 -0.6661478 -0.50774807 -0.48081067
000300 0d ea 73 bf 62 07 d4 be 63 09 00 bf de 39 69 be
       -0.9527901 -0.41411883 -0.50014323 -0.22775981
000310 0d 67 7f be e8 ff 84 bd 7e d3 7c be d9 1f 09 be
       -0.24941655 -0.06494123 -0.24690053 -0.13391055
000320 db ed fd 3e 12 53 a9 bf 05 0d d2 3d b3 d4 6e 3e
       0.49595532 -1.3228476 0.102563895 0.23323326
000330 ce 65 56 bf 01 3b 29 bf 02 ce 34 bf 4a 62 38 bf
       -0.8374909 -0.6610566 -0.7062684 -0.7202498
000340 6f 77 38 bf cc 8d 18 bf 47 83 5d bf 8e b4 e0 be
       -0.7205724 -0.59591365 -0.8652844 -0.43887752
000350 2c f4 2a bf 25 68 34 bf 8c 75 5e bf e9 1a 38 bf
       -0.66778827 -0.7047141 -0.8689811 -0.7191606
000360 71 ea 16 3e eb 9e 10 bf 72 78 98 be e8 9e 8a 3e
       0.1473787 -0.5649249 -0.29779392 0.2707436
000370 df 3b b7 be e5 fe 2c bf 15 3e 49 bf 04 ee 44 bf
       -0.35787866 -0.6757644 -0.78610355 -0.76925683
000380 48 29 fb be 26 3b 33 bf d9 f1 80 bf cb 56 32 bf
       -0.49054933 -0.7001213 -1.0073806 -0.69663686
000390 4e e7 1a be 42 30 00 3f 12 6d 45 bd ef 85 0b be
       -0.15127298 0.50073636 -0.04819972 -0.1362531
0003a0 13 15 1d bf d5 c2 cd be ce 76 1e bf 2e 89 04 bf
       -0.6136028 -0.40187708 -0.6190003 -0.5177182
0003b0 98 cd 0b 3e 17 49 1a bf 27 10 cc be 06 f0 0b bf
       0.13652647 -0.60267776 -0.39856073 -0.5466312
0003c0 de 3f 4b bf b5 ed 40 bf 91 e5 85 be be ae ff be
       -0.7939433 -0.7536271 -0.26151708 -0.49938005
0003d0 62 ce 24 bf b4 d6 32 bf 93 c0 27 bf a8 a3 32 bf
       -0.64377415 -0.6985886 -0.6552822 -0.6978097
0003e0 db b6 73 be 6a 56 ca 3d ce c8 f0 3a 20 e6 81 3e
       -0.23800223 0.098797634 0.0018370391 0.25370884
0003f0 c9 57 d4 be 36 81 b5 be 95 8d 4c bf 4d f5 ed be
       -0.41473225 -0.35450143 -0.7990354 -0.46476212

lstm.weight_hh_l0 f4 [512, 128]
000000 56 73 4f bf 73 54 ad bf 36 5a be 3d a1 e7 9f be
       -0.81035364 -1.3541397 0.0929455 -0.31231406
000010 34 0b 92 3d f2 a4 03 3e aa 69 e6 bd ec f3 02 3f
       0.07131043 0.1285589 -0.112506226 0.51153445
000020 fd fb bc 3d a2 d1 5a be 66 19 2d bf 3b dd 9b be
       0.092277505 -0.21369031 -0.6761688 -0.30442223
000030 0e 7e 03 3f 18 7d 76 bd cd 0c a4 3e 6f 63 bb 3d
       0.5136422 -0.060177892 0.32041016 0.09149825
000040 30 3d 93 bd 28 cc 6b be 81 c0 3f be 22 5a 8d 3e
       -0.07189405 -0.23027098 -0.18725778 0.27607828
000050 d3 d5 9f 3e b7 39 40 3d 57 c0 4f 3d fd ab 9d 3d
       0.31217822 0.04693004 0.05072054 0.0769882
000060 ce da 07 be f4 bd a5 bd 9a 19 e0 be de f1 6d be
       -0.13267061 -0.08092871 -0.43769532 -0.23236796
000070 f9 eb d6 be 60 b1 5a be d1 4a af 3e 2b 3f f2 3e
       -0.41976908 -0.21356726 0.34236768 0.47313818
000080 14 fb 94 bd c8 7d 88 3d c1 67 c8 be 8e 6f 80 bc
       -0.07274452 0.06664616 -0.39141658 -0.015678193
000090 15 32 89 3f 31 13 80 3e b9 29 a9 be 3f e8 a7 3e
       1.0718409 0.25014642 -0.33039644 0.32794377
0000a0 7c 18 41 bf 54 cf f7 bb 46 60 9b bd 12 70 80 3f
       -0.75427985 -0.0075625572 -0.07586722 1.0034201
0000b0 b1 22 07 3e c9 8e e5 be c0 24 22 bd 19 e7 c4 be
       0.13196827 -0.448355 -0.03958583 -0.38457564
0000c0 b2 2e 75 3b 5e 01 0d 40 5c fc 08 3d fe 16 00 3f
       0.0037411866 2.2032084 0.033443794 0.50035083
0000d0 e5 ab 64 3e a0 4d c2 3d a4 9d 36 3f 4c 9b b4 3e
       0.22331198 0.09487462 0.7133429 0.35274732
0000e0 54 68 5d be 23 87 9c bf 73 2a 43 3e 4d 7f 4d 3f
       -0.2162183 -1.222874 0.19059162 0.8027237
0000f0 55 31 da be 4c b0 aa bd 41 b0 f5 3f 48 19 f3 bd
       -0.42615762 -0.08334407 1.9194413 -0.118700564
000100 34 8f 49 be 49 7f 63 3e 7c 19 74 be e7 c3 ca 3e
       -0.19683534 0.22216524 -0.23837847 0.39602587
000110 f8 a3 20 3f da 51 7f 3e 7f 56 59 3f 46 f5 16 3f
       0.62750196 0.24933568 0.8489761 0.5896801
000120 f3 d1 ec 3e 56 ea 54 bd eb 1d f4 be 22 e8 3d bf
       0.4625393 -0.051981293 -0.47679076 -0.7418233
000130 2d 72 1e be cf 0e 62 3f 7b d5 2b be 2c 22 10 bf
       -0.15473242 0.88303846 -0.16780655 -0.5630214
000140 63 1f 27 be f0 a2 8a bf ec fc 86 be 5d 35 2b bf
       -0.16320567 -1.0830975 -0.2636484 -0.668783
000150 b9 0d 9b be c2 28 7f 3f b1 35 46 3f 95 8f 95 be
       -0.30283907 0.99671566 0.77425677 -0.29211107
000160 e6 d1 3c 3d 7b fe 9f 3e 74 13 69 3e 67 52 c8 3e
       0.046098612 0.3124884 0.22761327 0.39125368
000170 8d 42 31 bf 90 f8 54 bf 41 e4 31 bf 96 06 63 bd
       -0.69242173 -0.83191776 -0.6948891 -0.055426203
000180 06 80 80 be 4b 99 a5 bd 0d a1 e1 3e 99 60 fb 3d
       -0.25097674 -0.08085879 0.44068184 0.12274284
000190 3a 38 44 bf cf 0f 88 3c 7e 79 f1 bd 76 67 37 bf
       -0.76648295 0.0166091 -0.11790751 -0.71642244
0001a0 1a f8 9e bf bd 23 49 be 50 d7 12 3e fc c3 20 bf
       -1.2419465 -0.1964254 0.14339948 -0.6279905
0001b0 9c b8 5f 3f 2c c8 7b bd ba f4 9f 3f b0 59 f1 3d
       0.87391067 -0.061470196 1.249656 0.11784685
0001c0 6f db 5b 3d f7 4a 8d 3d 7f 51 16 3e 0c 02 64 3e
       0.053676065 0.06899064 0.14679526 0.22266406
0001d0 b6 04 3f 3f fa 78 19 40 f4 0e bd be 7d 7e 29 3e
       0.74616563 2.3980088 -0.3692547 0.16552158
0001e0 c9 c8 af 3d 8d ce a3 3e 2a 32 3d bf 13 78 07 be
       0.085832186 0.31993523 -0.7390467 -0.13229398
0001f0 9c 09 4b bf c9 04 c4 bf 31 b0 de 3d 01 61 44 bf
       -0.7931154 -1.531396 0.108734496 -0.76710516
000200 86 7d 90 be 60 77 d0 be 54 75 48 bb 35 7b ca bc
       -0.28220767 -0.40716076 -0.003058751 -0.024716953
000210 8c 8a 61 3e d0 3a 8d bd 9a e6 2a be ee 9b a9 3e
       0.22025508 -0.06895983 -0.1668953 0.33126777
000220 21 df c5 bd 43 fd 26 be 41 db a8 be cd 86 dc bd
       -0.09661699 -0.16307549 -0.32979777 -0.10767899
000230 af 09 94 3e 95 86 84 bc 71 7f 90 3d b1 7c 86 3e
       0.28913638 -0.016177455 0.070555575 0.26267007
000240 6b b4 27 be 3c 8e b1 bd f1 63 aa be f8 79 b6 3e
       -0.16377418 -0.08669707 -0.33279374 0.3563993
000250 2f 1e b2 3b 2f 5d 2a bd 3f b8 c9 bd 48 dc 23 3e
       0.005435727 -0.041592773 -0.09849595 0.16002
000260 85 3a 38 be 10 15 f3 3c f4 65 37 be b1 b6 c8 3e
       -0.17991073 0.02967313 -0.17909986 0.39201882
000270 e3 e9 46 3d 07 0a bb 3c 75 87 54 bd 2f 23 cd be
       0.048562896 0.02283193 -0.051886994 -0.40065905
000280 9e 2d 48 3e ab 76 b1 3d 02 11 57 be 6f 0b 00 be
       0.19548652 0.08665212 -0.21002582 -0.12504362
000290 4c 3f ea bd 14 69 e3 be b2 a5 98 be 77 65 6a 3e
       -0.11437854 -0.44416106 -0.29813915 0.22890268
0002a0 ff f4 01 be d9 58 65 bd 8f 72 9b be 07 b9 aa be
       -0.12691115 -0.055992935 -0.3036084 -0.3334429
0002b0 8d 39 47 3e 5e 39 b5 be 5f c9 39 3e 2c 3d e2 bc
       0.19455548 -0.3539533 0.18143223 -0.02761706
0002c0 ae 55 93 3e 48 ae ea 3e 93 7b e9 bd 27 a2 36 3e
       0.28776306 0.4583609 -0.11400523 0.17835294
0002d0 7f 19 94 3e aa 65 ed bb 82 b5 82 3d f1 c6 78 3e
       0.28925702 -0.0072447853 0.06382276 0.2429464
0002e0 98 ec a6 be 97 05 52 be c9 6e 5e 3e ff 37 b1 3e
       -0.32602382 -0.20509945 0.21721949 0.34613034
0002f0 87 0b b7 be 0c a8 f3 3c e5 e8 fd 3e 00 52 a2 bd
       -0.35750982 0.029743217 0.49591747 -0.079257965
000300 a3 91 0d bd 8e e9 08 3e 3a 1c 53 be 57 0e 1d 3e
       -0.034562718 0.13370344 -0.20616236 0.15337501
000310 87 ed 28 3e 42 ff 63 bd 1c 65 08 be a0 6a 9d 3e
       0.1649686 -0.055663355 -0.1331982 0.3074541
000320 01 55 f7 3d 7c fa 5b 3e 4d 65 f3 bd 28 a9 d2 bd
       0.1207676 0.21482271 -0.11884556 -0.1028617
000330 5f 97 ac be e1 a8 e4 3e c6 66 fa 3d 73 2d 5a be
       -0.33709237 0.44660094 0.12226634 -0.213064
000340 53 fc 28 bd 70 e9 40 be ef 59 86 3e aa cc ae be
       -0.04125626 -0.1883905 0.2624049 -0.3414052
000350 6b c3 60 be 0b fe be 3e f5 d6 4e 3e a3 71 9e be
       -0.21949546 0.37303194 0.20199187 -0.30946073
000360 59 90 ec 3d 42 c2 46 3e b7 7e 17 3e 78 62 d3 3e
       0.1155097 0.19410041 0.14794432 0.41286063
000370 df b1 c8 be e3 db b6 be a1 f5 ef 3b da bd fc 3d
       -0.39198205 -0.35714635 0.0073229824 0.12340899
000380 3a bf 19 bf d6 17 75 bc 98 2f e5 3e 67 4c 40 3e
       -0.60057414 -0.014959296 0.44762874 0.18779145
000390 39 e7 b6 3d 89 99 f2 bc 2b b3 55 be ae a9 c4 be
       0.08930821 -0.029614227 -0.20869128 -0.38410705
0003a0 46 7a d0 be d4 78 30 be f8 61 23 3e 4f 2f 14 be
       -0.40718287 -0.17233592 0.15955341 -0.14471172
0003b0 34 c1 a1 3e e2 23 b3 be eb 13 60 3e 8c 46 ed 3e
       0.31592715 -0.34988314 0.21882598 0.46342885
0003c0 e4 64 98 3d bc ea 92 3c f4 2a 2f 3e 67 f2 e3 bc
       0.07441118 0.017934196 0.17106229 -0.027825547
0003d0 07 c7 a2 3e 03 35 d4 3e df 4c 7a bd 73 a4 a0 3d
       0.3179247 0.41446695 -0.061108466 0.07843866
0003e0 48 72 e1 bb 70 9a 14 3c a1 35 eb be e5 b4 71 be
       -0.0068800785 0.009070024 -0.45939353 -0.23604162
0003f0 91 fd 99 be dd e1 58 be 66 42 89 3e db ea e3 3e
       -0.30076268 -0.2117991 0.2680847 0.44515118

lstm.bias_ih_l0 f4 [512]
000000 42 a7 07 bf 1f c7 23 bf 13 fa ab bf 08 de be bf
       -0.5298959 -0.6397571 -1.3435692 -1.4911509
000010 7b 33 bf bf 52 aa fa be fb 04 b6 bf 15 f0 f6 be
       -1.4937586 -0.4895807 -1.422027 -0.48230043
000020 ab 44 dc be 94 bb 93 be 80 63 a1 bf 0e 27 d3 3e
       -0.4302114 -0.28854048 -1.260849 0.41240734
000030 8c fa af be fd 1c c7 bf 56 46 e2 bf 96 bb a5 bf
       -0.3437084 -1.5555722 -1.7677715 -1.2947872
000040 17 ab be bf af 59 d0 bf 68 a9 ce bf 3a 49 de bf
       -1.4895962 -1.6277369 -1.6145449 -1.7366097
000050 8e d1 b4 bf 73 92 63 bf 41 54 ae bf a9 df d1 bf
       -1.4126451 -0.8889534 -1.3619462 -1.6396381
000060 b2 c8 99 bf 8a 74 5d bf 07 0f 48 bf dd cb f8 be
       -1.2014372 -0.8650595 -0.7814793 -0.48593035
000070 a3 16 09 be 1b cd c8 bf 72 2e f1 be 60 1b b9 3d
       -0.13387541 -1.5687593 -0.47105747 0.090384245
000080 20 59 ad bf 1a fb ca bf b2 5a 95 bf 81 40 ea bf
       -1.3542824 -1.585788 -1.1668303 -1.8300935
000090 34 c2 b0 bd c5 4f bb be dc 2e 9c bf 92 52 3b bf
       -0.08630791 -0.36584297 -1.22018 -0.7317287
0000a0 2b 66 32 bf a6 0f a4 bf 84 b9 17 bf 3f 55 c1 be
       -0.69687146 -1.2817276 -0.5926745 -0.3776035
0000b0 34 5d c5 bf 4a fb 94 3e 70 1f 9c bf ae 88 ea bf
       -1.5419068 0.29097968 -1.2197094 -1.8322961
0000c0 6c 9a 4f bf 3c 27 86 be e7 c5 56 bd f8 22 bb bf
       -0.81095004 -0.26201808 -0.052434828 -1.4620047
0000d0 61 6d cb bf 63 cb d7 bf 85 f8 e5 be 6c e6 c1 bf
       -1.5892755 -1.6858944 -0.44916168 -1.5148444
0000e0 bf 76 c4 bf dc 13 2d bf 06 4a c7 bf 3f 96 2d bf
       -1.5348738 -0.6760843 -1.5569465 -0.6780738
0000f0 68 70 b3 bf 19 65 c9 bf ad 28 d8 bd 33 b3 d1 bf
       -1.4018679 -1.5733978 -0.10554633 -1.6382812
000100 4c dd a2 bf 37 f2 b5 bf 0d 2a f2 be 24 b7 c7 bf
       -1.2723784 -1.4214543 -0.47297707 -1.5602765
000110 37 c7 68 bf a2 3d b5 bf 8f 6f c8 be e6 53 a5 bf
       -0.9092898 -1.4159434 -0.39147612 -1.2916229
000120 46 e3 07 3f 0e b9 bf bf 3b 77 ca bf 60 e2 10 bf
       0.53081167 -1.4978349 -1.5817636 -0.5659542
000130 7b b1 1b 3f d5 f7 9e bf 79 65 0b bf d1 ea 8b bf
       0.6081769 -1.2419382 -0.5445171 -1.0931035
000140 c3 5a 61 bf 7c bf 33 be a9 5e dd 3d 62 be cf bf
       -0.88029116 -0.17553514 0.108090706 -1.6229975
000150 b3 c3 aa bf 18 ce a7 3d dd 4c 49 bf 4f 82 bd bf
       -1.3340973 0.08193606 -0.7863291 -1.4805392
000160 b6 1a c7 bf 17 8c be bf 85 bb 92 bf 56 f4 ac bc
       -1.5555027 -1.4886502 -1.1463476 -0.021112602
000170 d4 cf c1 bf 83 ee 8b bf bc 22 5f bf eb d4 9c bf
       -1.5141549 -1.0932163 -0.87162375 -1.2252477
000180 97 22 66 bf 81 b6 e0 bf 02 4b a2 bf f2 2c a4 bf
       -0.8989653 -1.7555696 -1.267914 -1.2826216
000190 28 45 c6 3d 90 7b d7 bf de fe 93 bf 78 9a 3c be
       0.09681159 -1.6834583 -1.1562154 -0.184183
0001a0 88 a3 44 bf c6 dc a1 bf a2 11 bf bf 1c fe 9c bf
       -0.7681203 -1.26455 -1.4927256 -1.2265048
0001b0 6e 17 78 3c b7 6a 87 bf d7 d6 dc 3e a4 b5 65 bf
       0.015142305 -1.0579442 0.4313266 -0.89730287
0001c0 aa 40 d3 bf 20 a3 d2 bf f4 90 ea bf 6f 9d 1d be
       -1.6504109 -1.6456032 -1.8325486 -0.15392087
0001d0 61 71 f2 be 78 6c 62 bd d2 9a 9b bf 25 da c5 bf
       -0.47352126 -0.055279225 -1.2156622 -1.5457197
0001e0 af 19 86 bd 37 b2 a8 bf 5b 2a a5 bf 4e 12 ab 3d
       -0.065478675 -1.3179387 -1.2903551 0.08353101
0001f0 0f d1 64 bf 34 10 e0 be 51 76 59 bf 94 21 4e 3d
       -0.893815 -0.43762362 -0.8494616 0.05032499
000200 2e 37 c8 be df 67 79 bf 41 5a 93 bf 38 66 7a bf
       -0.391046 -0.9742412 -1.1511918 -0.97812223
000210 90 db 63 bf 61 28 85 be a5 9a 91 bf 9a 43 48 bf
       -0.890069 -0.2600737 -1.1375319 -0.7822815
000220 cd 66 82 3e f0 48 2d bf 62 e0 9d bf 7b c9 7b be
       0.25469056 -0.6768942 -1.2334101 -0.24588577
000230 59 f5 28 bf 95 1d 82 bf 6a 87 85 bf ce 4e 91 bf
       -0.6599937 -1.0165278 -1.043195 -1.1352174
000240 09 1a 83 bf aa 75 5f bf 3b 5d 5b bf e0 a8 76 bf
       -1.024232 -0.87288916 -0.85689133 -0.9635143
000250 4d 6a 90 bf 30 bb 0a bf 2e b6 8f bf c4 3b 5f bf
       -1.128244 -0.54191875 -1.1227472 -0.8720057
000260 df 07 8e bf 63 da ca be 01 95 b3 bf bb 68 9d bf
       -1.1096152 -0.3961974 -1.4029847 -1.2297586
000270 b0 22 f2 be fd 3c 88 bf e4 33 06 bf 95 fa cf be
       -0.4729209 -1.0643612 -0.5242293 -0.40620866
000280 63 53 96 bf cd 58 83 bf 05 0f b0 bf 5d e3 63 bf
       -1.1744198 -1.0261475 -1.3754584 -0.89018804
000290 08 63 2b bd 95 8e 2a bf d7 67 6b bf 1b 7f c7 be
       -0.04184249 -0.6662381 -0.9195532 -0.3896416
0002a0 41 fe fe be 2c a6 a3 bf c9 14 37 bf 82 b4 34 bf
       -0.49803355 -1.2785087 -0.7151609 -0.70587933
0002b0 e5 81 70 bf 37 65 b7 be 7f 35 55 bf 86 b9 7b bf
       -0.93948203 -0.35819408 -0.83284754 -0.9832996
0002c0 67 13 87 bf 40 02 39 bf 12 d7 0c bf c4 39 5c bf
       -1.0552796 -0.7226906 -0.5501567 -0.86025643
0002d0 7f c9 71 bf 16 cd 49 bf a9 05 0c bf d5 aa 6a bf
       -0.94448084 -0.7882856 -0.54696137 -0.9166692
0002e0 9a 8c 63 bf bb 47 4d bf 52 8e 97 bf fd 0b 8f bf
       -0.88886416 -0.80187577 -1.1840308 -1.1175534
0002f0 21 c9 9e bf 79 20 7d bf 5d 6e e8 be 8c eb 89 bf
       -1.240513 -0.98877674 -0.453967 -1.0775008
000300 c9 11 8f bf 5c b5 93 bf 72 9c 66 bf 66 22 7a bf
       -1.1177303 -1.1539721 -0.90082467 -0.9770874
000310 33 59 b3 bf d9 d4 8e bf cf 9d cd be d8 5d 48 bf
       -1.4011596 -1.1158706 -0.4015946 -0.78268194
000320 16 6d 9a bc 59 76 85 bf f2 f9 94 bf a0 c6 cc be
       -0.018850844 -1.0426742 -1.1638777 -0.3999529
000330 84 16 8f be 7e 53 93 bf 5f 63 0a bf 38 95 a7 bf
       -0.27946866 -1.1509855 -0.5405788 -1.3092413
000340 7e ac 33 bf bf 3a 09 bf 0f e9 b7 be d2 cd 92 bf
       -0.7018508 -0.53605264 -0.35919997 -1.1469061
000350 4f c1 8a bf 0c 30 a0 bf f3 dc 14 bf f5 79 89 bf
       -1.0840243 -1.2514663 -0.5814964 -1.0740343
000360 55 30 50 bf 4b 9b 7e bf b3 bc 8d bf d4 2e a3 be
       -0.8132375 -0.9945571 -1.1073211 -0.31871665
000370 d3 7c 85 bf 29 08 b3 bf a7 0b 18 bf 5c 37 4e bf
       -1.0428718 -1.3986865 -0.5939278 -0.8055322
000380 b6 cc 52 bf 55 42 75 bf 7e bb b1 bf 8c c9 55 bf
       -0.82343614 -0.9580434 -1.3885343 -0.8351066
000390 87 b4 e6 be 00 9a 63 bf 02 a5 87 bf 8b ec b9 be
       -0.45059606 -0.8890686 -1.0597231 -0.3631328
0003a0 b5 70 7f bf 11 47 9b bf 7e f6 70 bf 4e 88 7e bf
       -0.9978135 -1.2131063 -0.9412612 -0.99426734
0003b0 eb 7f 09 bf 35 71 96 bf 8d d7 34 be 3f 7c 9a bf
       -0.5371081 -1.1753298 -0.17660351 -1.2069167
0003c0 3a b9 71 bf 3c aa 75 bf d4 76 82 bf 2d e4 3f bf
       -0.9442326 -0.9596288 -1.0192513 -0.74957544
0003d0 cb 67 02 bf ec 09 ec be ad ee 96 bf 71 e4 89 bf
       -0.50939626 -0.4610132 -1.1791588 -1.077284
0003e0 3f e1 db bd 1a 08 aa bf aa 06 5f bf a1 d6 2c bf
       -0.10736322 -1.3283722 -0.87119544 -0.67515
0003f0 9e 68 ab bf 53 d7 8d be aa 98 9b bf c1 7a d6 be
       -1.3391302 -0.27703342 -1.2155964 -0.4189053

lstm.bias_hh_l0 f4 [512]
000000 d2 aa d8 be 91 de 1d bf f7 f8 b2 bf c9 fa c4 bf
       -0.42317826 -0.61667734 -1.3982228 -1.5389034
000010 8b a0 c0 bf e2 4f c4 be 79 a2 c2 bf 0b 84 18 bf
       -1.5048994 -0.38342196 -1.5205833 -0.5957648
000020 88 44 ac be 83 18 ab be 04 93 9f bf ce 16 02 3f
       -0.33646035 -0.33417138 -1.2466741 0.5081605
000030 3d 7a 97 be 32 cf da bf 1a 8d d6 bf b7 ae ad bf
       -0.29585448 -1.7094481 -1.6761811 -1.3568944
000040 97 74 b8 bf 0a 5a cf bf 5d 2b ca bf be 3b dd bf
       -1.441058 -1.6199353 -1.5794483 -1.7283857
000050 99 3a ad bf b0 83 63 bf 70 72 ba bf 29 66 d7 bf
       -1.3533508 -0.88872814 -1.4566174 -1.6828052
000060 86 47 a3 bf 8a 09 61 bf 09 2f 63 bf 2e b8 0c bf
       -1.2756202 -0.8790518 -0.88743645 -0.54968536
000070 a7 4f 9a bd de fa c7 bf 5a 83 20 bf 84 35 71 3e
       -0.07534724 -1.5623434 -0.62700427 0.23555571
000080 58 42 b1 bf 26 99 d7 bf fc 79 a5 bf 04 b1 e6 bf
       -1.3848372 -1.6843612 -1.2927852 -1.8022771
000090 79 3b f0 3c 96 ed f9 be c0 75 ae bf 74 77 3d bf
       0.029325234 -0.48814076 -1.3629684 -0.74010396
0000a0 56 6d 5a bf fc da aa bf 20 d2 e8 be 48 51 82 be
       -0.85323083 -1.3348079 -0.45472813 -0.25452638
0000b0 9f 22 c1 bf d1 66 87 3e 41 30 92 bf 93 4d db bf
       -1.508869 0.2644563 -1.1420976 -1.7133049
0000c0 6b 39 6c bf 97 08 77 be 9d 3a 0f be a8 f6 b3 bf
       -0.9227511 -0.2412437 -0.13987203 -1.4059649
0000d0 0c 2b c7 bf e9 58 d4 bf 5c 45 ed be 02 ff c4 bf
       -1.5560012 -1.6589633 -0.4634198 -1.5390322
0000e0 95 d3 cf bf 92 69 3b bf ca ad bf bf 23 49 2d bf
       -1.6236445 -0.7320796 -1.4974911 -0.6768972
0000f0 fb 24 bd bf 79 f1 c7 bf ea c0 02 bd 8a 74 ca bf
       -1.477691 -1.5620567 -0.03192226 -1.5816815
000100 3a 27 aa bf 05 f8 c0 bf 25 85 0c bf cd 2a bf bf
       -1.3293221 -1.507569 -0.5489066 -1.4934937
000110 9e 67 69 bf 61 23 a9 bf cd ef bb be f7 e9 a7 bf
       -0.9117373 -1.3213922 -0.3670639 -1.3118275
000120 c5 19 eb 3e 3b ae be bf c9 6d ce bf b6 50 f1 be
       0.45918098 -1.4896921 -1.6127254 -0.4713189
000130 5a b7 2f 3f 6b c2 9c bf 45 d7 d2 be b3 48 93 bf
       0.6863915 -1.2246832 -0.41179863 -1.1506561
000140 6b cb 5a bf 53 73 3d be 65 56 08 3e 99 46 bf bf
       -0.8546664 -0.18501024 0.13314207 -1.494342
000150 02 66 a9 bf 43 5b 04 3e 99 30 4f bf 9c 42 bb bf
       -1.3234255 0.12925439 -0.8093353 -1.4629703
000160 87 b6 c2 bf 2a e9 b6 bf 61 c1 92 bf 06 d5 f1 bb
       -1.5211953 -1.4289906 -1.1465265 -0.0073801307
000170 75 9d bd bf 6b f6 7c bf c6 02 4e bf e2 1f 9b bf
       -1.4813677 -0.98813504 -0.8047298 -1.2119105
000180 f0 7b 44 bf dc a3 db bf 9f 06 9c bf b7 c5 91 bf
       -0.76751614 -1.7159381 -1.2189521 -1.1388463
000190 8d cd f9 bc 64 27 ca bf 34 21 a3 bf 5d c4 f2 bd
       -0.030493522 -1.5793271 -1.2744508 -0.118538596
0001a0 84 26 47 bf 84 7a b3 bf 3d 44 b8 bf a9 a9 9e bf
       -0.77793145 -1.4021764 -1.4395825 -1.2395526
0001b0 06 4f cb 3c 93 ca 86 bf 1d cc f5 3e 0d d6 62 bf
       0.024817955 -1.0530571 0.4800729 -0.88607866
0001c0 a7 b7 c0 bf 9a 9e d3 bf 0a d2 eb bf 18 61 83 be
       -1.5056046 -1.6532776 -1.8423474 -0.25660014
0001d0 45 10 bd be c7 b1 8d bd 39 af 96 bf 10 d9 ca bf
       -0.36926475 -0.06918674 -1.1772224 -1.5847492
0001e0 5c bb 12 bd fe 3b a1 bf 48 4f 94 bf 14 36 1d 3e
       -0.03582321 -1.2596433 -1.1586695 0.1535266
0001f0 c9 01 5e bf bf 4d a7 be e3 a5 4b bf 5d ad b2 3d
       -0.86721474 -0.32676503 -0.7955 0.08724473
000200 9b 73 96 be 0d b9 79 bf 4c 18 9e bf 84 48 85 bf
       -0.29385075 -0.9754799 -1.2351165 -1.0412755
000210 ef 61 85 bf 2f 2a 81 be 30 c8 82 bf 49 3b 3e bf
       -1.0420512 -0.25227496 -1.0217342 -0.7430921
000220 f4 b1 d4 3d 9e 24 28 bf ed 3c 8c bf 6a 41 f8 bd
       0.10385504 -0.65680873 -1.0956093 -0.12121852
000230 6b 74 12 bf c7 43 7c bf dc 05 64 bf 18 c1 95 bf
       -0.5720889 -0.9854092 -0.8907144 -1.1699553
000240 e6 8e 89 bf b9 71 67 bf db 16 7f bf 11 4c 83 bf
       -1.0746734 -0.904079 -0.9964425 -1.0257589
000250 2c 91 95 bf 32 b9 0b bf 9f 8f 9a bf 6e 3e 52 bf
       -1.1684928 -0.5457946 -1.207508 -0.8212651
000260 67 22 75 bf f5 d5 cd be 31 a0 be bf 22 f2 a1 bf
       -0.9575562 -0.402023 -1.4892637 -1.2652018
000270 76 4f 10 bf 06 a9 7b bf 44 e3 10 bf 84 00 c0 be
       -0.5637125 -0.98304784 -0.5659678 -0.37500393
000280 80 91 9a bf 7a 41 8f bf d0 9e a4 bf 12 5a 6d bf
       -1.2075653 -1.1191857 -1.2860966 -0.9271556
000290 31 21 f6 bc 34 cb 33 bf 58 6e 81 bf 70 4c cf be
       -0.030045124 -0.7023194 -1.0111799 -0.40488005
0002a0 3d bc 09 bf a0 43 9c bf 98 a5 4a bf f4 ea 19 bf
       -0.53802854 -1.2208138 -0.79158926 -0.60124135
0002b0 fd 2e 84 bf 8c de c3 be 9c aa 37 bf 8f 47 70 bf
       -1.032684 -0.38255727 -0.71744704 -0.9385919
0002c0 1f 30 93 bf 3f 68 2d bf af 8a 0b bf 14 33 61 bf
       -1.149906 -0.6773719 -0.5450849 -0.87968564
0002d0 b3 22 8b bf 64 5e 52 bf 3a 56 16 bf a9 be 5b bf
       -1.0869964 -0.8217528 -0.5872532 -0.858378
0002e0 fa fd 64 bf 3c 3f 45 bf 04 59 9b bf 32 71 8f bf
       -0.8945004 -0.77049613 -1.213654 -1.120642
0002f0 67 df 92 bf 6f 01 75 bf 9f 20 05 bf bc f2 80 bf
       -1.1474427 -0.9570531 -0.520029 -1.0074077
000300 f0 5b 8c bf 92 eb 8f bf a4 bb 65 bf 48 ee 7b bf
       -1.0965557 -1.1243765 -0.8973944 -0.98410463
000310 a9 b2 b3 bf d3 51 8d bf 1c 21 fb be 74 c9 4e bf
       -1.4038898 -1.1040596 -0.49048698 -0.80776143
000320 16 11 c3 bc f5 3f 8d bf 6c ca 8b bf 86 eb 08 bf
       -0.023811858 -1.1035143 -1.0921149 -0.5348438
000330 bb 64 3e be a9 5f 88 bf 02 7e 25 bf 96 6e 9a bf
       -0.18593113 -1.0654193 -0.646454 -1.2064998
000340 8a dd 13 bf d8 e8 10 bf 62 0e f9 be 89 c0 89 bf
       -0.57759917 -0.5660529 -0.48643786 -1.0761882
000350 bb fc 99 bf 6e ff af bf b7 44 16 bf 56 35 7b bf
       -1.2030252 -1.3749826 -0.586986 -0.9812826
000360 3e 02 56 bf 75 1b 93 bf 70 b7 93 bf 0e 67 d1 be
       -0.8359717 -1.1492754 -1.1540356 -0.40898937
000370 96 e3 87 bf 52 52 a8 bf c6 ef 13 bf 0a 4e 6c bf
       -1.0616329 -1.3150122 -0.5778774 -0.9230658
000380 b6 28 50 bf b3 54 85 bf d7 43 a1 bf c4 33 47 bf
       -0.8131212 -1.0416473 -1.2598828 -0.77813363
000390 35 fb 13 bf 5d 73 7d bf f3 ab 84 bf de 18 b4 be
       -0.57805187 -0.99004155 -1.0364975 -0.35175222
0003a0 de 55 88 bf 9d 3c a8 bf a5 ac 68 bf 57 27 85 bf
       -1.0651205 -1.3143498 -0.90888435 -1.040263
0003b0 b9 a5 fe be c4 49 95 bf 8e 89 13 be a5 02 88 bf
       -0.4973581 -1.1663136 -0.14407942 -1.0625807
0003c0 8e a8 77 bf a9 29 7a bf fe a2 94 bf 87 e2 31 bf
       -0.9674157 -0.9771982 -1.1612241 -0.6948628
0003d0 34 fe 0b bf 6d 58 cd be 67 a6 94 bf ac a7 9a bf
       -0.5468476 -0.40106526 -1.1613282 -1.2082419
0003e0 82 84 39 be 3d d3 ad bf 69 7c 55 bf cd 7f 4b bf
       -0.18116954 -1.358009 -0.8339296 -0.79491884
0003f0 c6 d7 9d bf ef 44 52 be 0e 29 95 bf 6f c1 c4 be
       -1.2331474 -0.20534109 -1.1653154 -0.38428828

lstm.weight_ih_l1 f4 [512, 128]
000000 7c 99 a0 3d 4e d4 3c bd 3d 88 d4 bd 65 83 07 3e
       0.07841775 -0.046100907 -0.10377548 0.13233717
000010 4d 9e 50 bd d2 9e c0 bc 4c 80 e0 bd 7a 84 b5 3d
       -0.050932217 -0.023513231 -0.10961971 0.088631585
000020 e1 33 1e 3c 01 dc 0e be fd 1b e3 bb 81 13 e0 3d
       0.009655924 -0.13951112 -0.0069308267 0.1094122
000030 bd 07 c6 3c 22 41 28 3d 19 99 a2 bd af 8a 5e bc
       0.024173612 0.04107774 -0.07939357 -0.013582869
000040 5a e6 b7 3d 07 37 0a bd b2 00 26 3d 51 d6 1b 3d
       0.08979483 -0.033743884 0.040528007 0.038046185
000050 bd b4 d7 3c 6e 3b 07 3d 18 59 4a bd 27 77 4b bd
       0.0263313 0.03301566 -0.049401373 -0.04967418
000060 05 e9 4d 3d 73 e9 ad be 88 cb a3 bc 38 e3 fd bd
       0.050271053 -0.3396717 -0.019994512 -0.12396854
000070 0e 62 54 3e da ef 96 bd eb db 84 bd 43 dd ca bd
       0.2074053 -0.07369967 -0.064872585 -0.099054836
000080 3d 59 fd 3d d8 67 07 be 6a e1 44 be e8 85 3b 3d
       0.123705365 -0.13223207 -0.19226614 0.045782
000090 53 aa c9 3d 1f ba c1 3e f2 08 98 3d 85 0d c6 3d
       0.0984694 0.37837312 0.07423581 0.096705474
0000a0 e8 10 a6 bd ba 25 65 3d e7 28 1c 3e 64 8b e7 bc
       -0.08108693 0.055944182 0.15249978 -0.028264709
0000b0 dc 7e 85 bb 9f af 4b bd 27 a5 7b be 12 e9 02 3e
       -0.0040739607 -0.049728032 -0.2457472 0.12784222
0000c0 e2 b6 f9 bd 32 35 91 3e 0c 94 19 be d3 53 a5 bd
       -0.12193085 0.28360897 -0.14997882 -0.08072629
0000d0 92 d4 14 3d eb a8 65 bd fa 9a 38 3e b9 f1 47 bd
       0.036335535 -0.056069296 0.18027869 -0.04881451
0000e0 ff e8 6b bd be e6 a4 be c0 e0 d5 3d 25 b7 9a 3e
       -0.05759525 -0.32207292 0.10443258 0.30217853
0000f0 39 00 0d 3e 85 e2 22 3c 1d c7 61 3e a8 63 1c 3e
       0.13769616 0.009941702 0.22048612 0.15272391
000100 89 53 1d 3d e7 af 87 bc a5 a1 fc bd db 27 ce bc
       0.038409743 -0.016563369 -0.12335519 -0.025165489
000110 24 0c 9a 3d 14 fb 44 3d 17 42 7d bd 5e 51 45 3d
       0.07521847 0.04809101 -0.061830606 0.0481733
000120 aa 49 16 be 70 4d b3 3b 53 f6 d5 bd 28 94 2d be
       -0.14676538 0.0054718778 -0.10447373 -0.16951048
000130 d3 b8 9a be 13 7e e2 3c 43 83 89 bd 9e 49 0b 3d
       -0.30219135 0.027648007 -0.06714489 0.034005754
000140 0b 2b a5 bd 17 19 93 bc 68 07 37 3e 68 e5 c4 3a
       -0.080648504 -0.0179563 0.17873919 0.0015021982
000150 8d fd 91 bd 04 40 aa 3e 91 47 0b be 8e 26 ae 3c
       -0.07128439 0.33251965 -0.13601519 0.021258619
000160 24 5b a2 bd 1c 99 1c be 2f 40 8c bd 13 42 89 3d
       -0.0792754 -0.15292782 -0.068481795 0.06702056
000170 ee 63 82 ba 1a 81 8f bc 81 c4 f7 bd cd 95 f2 bc
       -0.0009947994 -0.017517615 -0.12098027 -0.029612446
000180 59 95 21 bc 56 c8 9c bd d3 22 1f 3e a3 15 4c be
       -0.009862267 -0.076553985 0.15540628 -0.19930129
000190 f1 c1 42 be 6c d7 fd 3c e5 dc 0f be 32 b2 59 bd
       -0.19019295 0.03098651 -0.14049108 -0.053148456
0001a0 8c 06 63 bc 24 33 58 bc 66 8d 91 be 6c f7 77 bd
       -0.013856541 -0.013195787 -0.2842819 -0.060538694
0001b0 36 e4 b5 bd af 13 bf 3d f5 cf eb 3e 5c 62 3a bd
       -0.088814184 0.09329926 0.46057096 -0.04550396
0001c0 09 fb b9 bc 26 c8 b6 bc c8 4c 9d 3c 8e e7 24 be
       -0.02270271 -0.022312235 0.019201651 -0.16103956
0001d0 f2 dd 80 be de 3b bd bc ce 3d cb 3d a7 19 26 3e
       -0.2516933 -0.023099836 0.09923898 0.16220723
0001e0 f7 25 a5 bc a3 ad dc bb 61 7b 01 bd f4 99 05 be
       -0.020159705 -0.0067345663 -0.031611804 -0.1304701
0001f0 d7 35 13 be 85 f3 e2 bd cb ae 2e bd c7 7c 0a be
       -0.14376007 -0.11081604 -0.042647164 -0.13524161
000200 1c cb 0d be 7e 7e 3f 3d 30 67 c3 3d 26 c5 23 3e
       -0.13847011 0.04675149 0.09541166 0.15993175
000210 51 56 b5 3c a2 77 9c bc 07 3b 4b 3d d9 55 4d 3e
       0.022135885 -0.019100014 0.04961684 0.2005228
000220 ca 0f 38 3c 59 5c 21 3e ca 10 6f 3d 86 02 fe 3d
       0.011234233 0.15757884 0.05836562 0.12402825
000230 ff cc 19 be 3c ca db ba 0d 6e de 38 52 0d b6 bd
       -0.15019606 -0.0016768645 0.000106062835 -0.088892594
000240 97 6b f6 3c 2f 65 ff 3d 9b d1 f2 bd 52 7f 4f 3c
       0.0300806 0.12470471 -0.11856385 0.012664633
000250 e4 20 de 3c f8 30 b0 bc f5 01 47 3d 50 8a 21 3c
       0.027115293 -0.021507725 0.04858585 0.009859636
000260 b2 f4 39 bc 71 a2 43 bd 4c dd cf bc 2e 54 16 3e
       -0.011349844 -0.047762338 -0.025374077 0.1468055
000270 28 a8 0d bd 0f b8 11 3e cd ac 82 be 77 81 a7 3c
       -0.034584194 0.14230369 -0.25522462 0.020447476
000280 c5 62 0b be d7 50 2d bd fa 93 86 bd 66 18 dd bc
       -0.13611896 -0.042313423 -0.06571193 -0.026989173
000290 22 14 c9 bd ed 03 d0 bd f1 d7 a8 3d 76 ce 1e bd
       -0.09818293 -0.10156999 0.082443126 -0.038771115
0002a0 b2 50 a6 3d b7 d7 af bc 24 90 72 be 2d 63 a7 bd
       0.0812086 -0.021465166 -0.23687798 -0.08173213
0002b0 00 54 be 3d 2d 9b 40 bd 6f 99 31 be 3d ca 3b bd
       0.092933655 -0.047022987 -0.17343687 -0.045847166
0002c0 e2 0f e3 3c 26 a2 85 be 79 fb dc 3c 37 95 e7 bd
       0.027717534 -0.26100272 0.02697538 -0.11307757
0002d0 1e 65 26 3d 4f 5f 38 bd f5 e9 a6 3d fe c8 ac 3b
       0.040623777 -0.04501277 0.081500925 0.0052729836
0002e0 be e9 19 3d 3b 8a ad 3d c5 ba ae bd af d3 c0 3c
       0.03757643 0.08473631 -0.08531717 0.023538439
0002f0 b5 2b 44 3e bf 2f 0d be ed b0 18 be 6f 75 8d bc
       0.19157298 -0.13787745 -0.14911242 -0.01726791
000300 20 73 ef 3d 83 a5 c5 bd 23 a2 d2 3d 5a 54 04 be
       0.1169188 -0.096507095 0.102848314 -0.12922803
000310 1f 52 bf bd 18 76 9b bd e7 f3 65 bd 16 70 12 be
       -0.09341835 -0.07590884 -0.056140807 -0.1430057
000320 e9 e5 01 be 4a 6b d6 bd 31 2c ae 3d 62 e0 8f 3c
       -0.1268536 -0.104696825 0.085045226 0.017563049
000330 cb b7 88 be 50 48 4e be 1c ca 7d be a4 f5 75 3e
       -0.26702723 -0.20144773 -0.2478413 0.24019486
000340 9c c3 52 3d 8e da 91 bd fc 00 1a 3d 02 bc e2 3d
       0.05145608 -0.07121764 0.037598595 0.11071016
000350 2b a3 73 3d 9d e2 93 bb a6 d1 28 bd 51 86 82 bd
       0.05948178 -0.0045130984 -0.04121556 -0.06373275
000360 d5 ab b9 bd 9d fa 53 3d 49 a4 c0 bd 3f 87 bb bb
       -0.090659775 0.051752675 -0.09406335 -0.0057229097
000370 5b cd 89 3d 98 0d 80 3e cc a3 48 3e 0a 4d 39 3c
       0.067286216 0.2501037 0.19593734 0.011309871
000380 52 0a 72 bc e6 e7 ba 3c f8 6f 3a bb 6f c7 82 be
       -0.014772968 0.022815656 -0.0028448086 -0.2554278
000390 b5 8d 6d 3c 12 f9 7e bd 18 ba 44 be c0 df c6 bd
       0.014499118 -0.06224925 -0.19211614 -0.09710646
0003a0 2a 29 20 3d 88 0d 96 bd cb 0c 08 bd bb a4 2f 3c
       0.039101757 -0.073268 -0.033215325 0.010720427
0003b0 5e 9e 09 be 40 9f 14 be 45 70 a1 bd 1f 6c 20 3e
       -0.13439319 -0.14513874 -0.07882742 0.15666245
0003c0 01 bc a2 3d 86 0e bf 3d a6 ae 36 bd b7 ac d6 bd
       0.07946015 0.09328942 -0.04460015 -0.104821615
0003d0 9d 62 c5 bd 3c 2f 94 be 41 56 3d ba 4a fe 1c 3d
       -0.096379496 -0.28942287 -0.00072226307 0.038328446
0003e0 36 7c 9b be 03 e8 f9 3c 43 d6 b9 3b 8f 69 6d 3d
       -0.30368203 0.03050614 0.005671294 0.057961997
0003f0 ee da 84 bc 01 1b c2 3e a1 48 9a 3d 09 c1 34 3d
       -0.016217675 0.37911227 0.07533384 0.044129405

lstm.weight_hh_l1 f4 [512, 128]
000000 eb f1 20 3c 05 92 cc bd 65 78 76 3c 33 2a a6 3b
       0.009823303 -0.099887885 0.015043353 0.0050709485
000010 6b b0 18 be dc 1a c3 3c 0a aa 20 be 76 86 83 3d
       -0.14911048 0.023816518 -0.15689865 0.06422131
000020 8e 45 be 3d a2 dc 6f be 0e b7 a8 3c 69 4a 31 bd
       0.0929061 -0.23424008 0.0205951 -0.043283854
000030 d7 a6 fb 3c 8d 83 e2 3d 8b c5 27 bc 0b 92 06 3f
       0.030719204 0.110602476 -0.010239969 0.52566594
000040 38 4b 06 3e e5 ce f4 bd cc 5d fa bd 05 0a 19 be
       0.13114631 -0.119535245 -0.122249216 -0.14945228
000050 58 03 0e 3d b6 ce 8b be d7 85 a4 3d 82 20 70 3e
       0.034671158 -0.27306145 0.080333404 0.23449901
000060 cf 13 49 3e ea cb f6 3d 46 1c 4a bc 11 c9 0e bf
       0.19636463 0.12050612 -0.0123358425 -0.55775553
000070 ad 3c 9b bd ed f1 07 3d 2c b4 ef 3d ff 51 d3 3d
       -0.07579932 0.033189703 0.11704287 0.10318374
000080 35 79 bc 3e 4e 94 58 bc db 7e c3 bc 92 0a 16 3e
       0.36811224 -0.013218952 -0.0238642 0.1465247
000090 61 01 aa 3e 1b a1 ab be d2 55 d5 bd 4a 50 d2 3c
       0.33204177 -0.3352135 -0.104167596 0.02567305
0000a0 84 a0 94 3e 30 16 66 3d 1e 55 b0 bd ed 55 98 be
       0.29028714 0.056173503 -0.08609985 -0.29753056
0000b0 bf bb f1 3b 71 85 8b bd c3 cc b6 3b 0b 92 69 bc
       0.0073771174 -0.06812561 0.0055786087 -0.014256011
0000c0 af 37 35 3c 8d fd 03 be bb 9f 49 bd a0 f7 55 bd
       0.011060639 -0.1288969 -0.049224596 -0.052238107
0000d0 e9 46 ff 3d 04 56 93 bd ce 5a 58 be 7b b9 d0 bd
       0.12464697 -0.071941406 -0.21128389 -0.101916276
0000e0 1b 32 bb 3d 3f 67 96 3d a9 c9 17 3a c3 47 0e 3e
       0.09140416 0.073439114 0.00057902426 0.13894562
0000f0 6b 0d 4c be 37 74 2f be c4 34 8d 3d 05 0e 97 3b
       -0.19926994 -0.17134176 0.0689483 0.0046098256
000100 16 a4 cd 3b 22 93 93 3c ce 27 a3 3d ac 8c 10 3e
       0.006275664 0.018014494 0.079665765 0.14116162
000110 cf 10 95 ba 47 69 f1 3c 08 98 01 3d ed 71 40 3e
       -0.0011372807 0.029469145 0.03163913 0.18793459
000120 b2 33 8c bd b9 09 b8 bd fd cc fb bc 95 d5 db bd
       -0.068457976 -0.089862294 -0.030737394 -0.10734097
000130 c3 c2 81 bc 8f 43 6e be 2b 24 a1 bd 5e 5b 39 3e
       -0.01583994 -0.23267959 -0.078682266 0.1810126
000140 99 92 48 bd d3 bc 4b be 6a 34 de bc 6a 0f ce 3e
       -0.04896793 -0.1989625 -0.027124602 0.40246135
000150 8c af 5f 3d 71 59 78 be 34 0d 36 3d d8 e1 a7 bd
       0.054610774 -0.24252869 0.044446185 -0.08197373
000160 d5 fb cf bc 81 65 2e 3e 2e 5b 1a 3e d4 6a 90 bc
       -0.025388638 0.17030908 0.15073845 -0.017629065
000170 1c b3 14 3e 5f 74 14 3b 2e 35 b4 3d 91 81 39 be
       0.1452145 0.002265237 0.08799206 -0.18115832
000180 c1 9a 99 3d 23 b3 f0 bd 9b e3 1a bd 8d 19 4c 3e
       0.0750022 -0.117529176 -0.037814718 0.19931622
000190 d5 74 6c 3e 35 4b 8e bd 24 92 62 3e 55 69 9a 3d
       0.23091443 -0.06947938 0.2212606 0.07539622
0001a0 86 ca 22 be 48 cd 34 3c 7b a9 57 3e af 6c b2 3e
       -0.15897569 0.011035271 0.21060745 0.34848544
0001b0 64 fe 06 3e 85 10 de bd ad 99 ec 3c 8b dc ae 3e
       0.1318298 -0.108429946 0.028881872 0.34152636
0001c0 3a df a0 3d e1 e2 fd 3d 52 bd d1 3d 3b 97 fb 3d
       0.07855077 0.12396789 0.10241188 0.12284704
0001d0 6b 11 15 be 2d 3c 33 3d f9 e0 1f bd 6e ea 15 bd
       -0.14557426 0.04375856 -0.03903291 -0.036600523
0001e0 3b 92 f0 3d d6 4f a2 bc ab 43 df 39 f3 bb d0 3d
       0.11746641 -0.01981346 0.0004258429 0.101920985
0001f0 2d a5 24 be 16 74 f7 3d 58 61 bc bd 33 ee 40 3e
       -0.16078635 0.120826885 -0.09198254 0.18840866
000200 a5 f0 68 3d 93 73 7f 3d 15 5c 5e 3e 40 65 b6 3e
       0.05687012 0.06236608 0.21714814 0.35624123
000210 6c a9 56 3e 14 6d 25 be 9b ef 3f 3e 6b ad 27 bd
       0.20963067 -0.16154891 0.18743746 -0.04093687
000220 3e 0b fd bd 23 e4 ad be 31 f6 ce bc 4a 2c 57 be
       -0.1235566 -0.33963117 -0.025263878 -0.21012989
000230 c5 5d 78 3e 25 00 8f 3e 3e 03 cc 3e d1 70 ea 3e
       0.2425452 0.27929798 0.39846224 0.45789197
000240 70 3c 2a 3d 9a 66 1b be 3b 83 b7 be 19 66 69 3e
       0.041561544 -0.15175858 -0.35842308 0.22792853
000250 96 c5 c4 3d 75 7c b1 be 25 f4 31 3e d6 ab c6 3d
       0.09607999 -0.34665266 0.1737829 0.09700744
000260 58 f1 a9 be 9f 2c 34 3e a9 23 1d be 40 ef 97 be
       -0.33191943 0.17595147 -0.15345635 -0.2967472
000270 99 5f c1 bd af 85 a8 3d 59 b7 33 3e e4 4c 04 3e
       -0.09442062 0.08228623 0.1755041 0.12919956
000280 a0 ea 0f be ba 06 10 be 52 99 a8 3b 9d 32 1b 3e
       -0.14054346 -0.14065066 0.0051452303 0.15156026
000290 78 55 84 bb ff 69 4f bc 02 cc 24 bd 6c 27 40 3e
       -0.004038509 -0.012659549 -0.04023362 0.18765038
0002a0 40 b9 61 3f 2a 58 43 bd 56 f5 e6 bc a6 58 6c be
       0.88173294 -0.0476915 -0.028193157 -0.23080692
0002b0 5b bc 15 be dd da 82 3d 68 c7 2e 3e 5e 52 0f be
       -0.14622633 0.06389401 0.17068255 -0.13996264
0002c0 ab 1c 6d 3e f0 02 68 bd 36 13 38 bd b0 f9 43 3e
       0.23155467 -0.056643426 -0.044940196 0.19138217
0002d0 cc fe 31 3e 48 9c 47 bd 0a 08 47 3d 86 dd f9 3d
       0.17382354 -0.048733026 0.04859165 0.12200455
0002e0 fe 88 c4 3c b1 3c 22 3e ab c7 ff bd 94 32 95 3e
       0.023991104 0.15843464 -0.124892555 0.2914015
0002f0 4a 0f 9e be 5a 85 03 bf 11 98 36 3e f9 a3 71 3e
       -0.3087104 -0.51375353 0.17831446 0.23597707
000300 ab ed 31 3d 86 db bf 3d d2 39 ca 3e 7f 51 d6 3d
       0.04343955 0.09368043 0.39497238 0.10464763
000310 e9 26 0d 3e 10 41 89 be 2b 7c 1f 3e df 52 eb 3c
       0.13784374 -0.2680745 0.1557471 0.02872604
000320 d2 7a f3 3d 45 fc 49 be df 18 0c be 24 55 68 bd
       0.118886605 -0.1972514 -0.13681363 -0.05672182
000330 95 74 d9 bb e6 d5 1b bd 95 a5 db 3e be 8e 5f bd
       -0.006636212 -0.038045786 0.42899767 -0.05457949
000340 2e 6a 37 bd 0e 4c 55 be 6a c1 c2 bd aa 85 18 3f
       -0.044778995 -0.20829794 -0.09509547 0.59578955
000350 5d 92 55 3e cc e7 87 bd 6f a5 b6 bd 9e 0f 32 bd
       0.20856614 -0.066360086 -0.08918273 -0.043471925
000360 b2 33 78 bc 7d f8 3d 3e e4 c9 81 be 53 70 05 be
       -0.015149044 0.18551822 -0.25349343 -0.1303113
000370 bc 9e 8a bd c5 86 a2 3e 22 3c 5e 3e df 27 2e be
       -0.067685574 0.31743446 0.21702626 -0.17007397
000380 6a 46 8a be bd fd 93 bd e2 f6 2c bd 7e 59 37 3e
       -0.27006847 -0.07226131 -0.042227633 0.17905232
000390 a4 6b df bd 85 f2 3a be 83 ba 88 bd 63 c2 c6 3c
       -0.10909203 -0.18256576 -0.06676199 0.024262613
0003a0 56 9b ad bb 34 f2 42 3e df c1 09 be b6 14 b1 bd
       -0.0052980585 0.19037706 -0.13452862 -0.086465284
0003b0 d6 18 37 3e ac 9a 59 3e ea e6 06 be ee 5b ea 3d
       0.17880568 0.21250409 -0.13174024 0.114433154
0003c0 02 5a dc bc 64 00 be 3e 2e f4 a4 3e df 98 40 3e
       -0.026898388 0.37109673 0.32217544 0.18808316
0003d0 4f 9c 2d 3e 77 c7 88 bd 8f 96 9a be 8c 12 6e 3e
       0.16954158 -0.0667867 -0.30192992 0.23249263
0003e0 7c 0a b4 bd cf a6 42 3e 10 9b 35 bd b1 9e ed 3b
       -0.08791062 0.19008945 -0.044337332 0.0072515835
0003f0 6e ec 84 bd 33 3e 0a 3d 3f 34 e5 bd 20 a4 07 3f
       -0.06490408 0.033750724 -0.11191606 0.5298481

lstm.bias_ih_l1 f4 [512]
000000 71 9b b9 bf 91 09 a4 bf 30 ac 56 3e ea ac cc bf
       -1.4500562 -1.281542 0.20964122 -1.5990269
000010 8d 9b 18 3c de 8b b4 bf f6 a2 62 bf 89 a2 bd bf
       0.00931443 -1.4105184 -0.8852991 -1.4815227
000020 8b e3 9d bf b5 be ca bf 30 da 93 bf 28 44 d5 bf
       -1.2335066 -1.5839449 -1.155096 -1.6661425
000030 dc 02 d7 bf 75 87 d0 bf bd c0 e6 be bc a9 e4 3d
       -1.6797748 -1.6291338 -0.45068923 0.11165187
000040 ac 80 89 bf c7 cc d5 bf 06 da 35 be 48 04 de be
       -1.0742393 -1.6703118 -0.1775895 -0.4336264
000050 62 1d b7 bf 6a 16 98 bf 58 be 82 bf bd 68 84 bf
       -1.4305842 -1.188184 -1.0214338 -1.0344464
000060 67 65 82 be 63 02 cf bf c2 65 a4 bf ff 75 c0 3c
       -0.2546799 -1.6172603 -1.2843554 0.023493765
000070 bd 2a d5 bf 34 ef dc bf ea 99 bf bf 84 2b b4 bf
       -1.6653668 -1.7260499 -1.4968846 -1.407578
000080 bb 83 01 be 1b 80 c9 bf ab fc df bf 40 68 d5 3d
       -0.12647907 -1.574222 -1.7498983 0.10420275
000090 57 80 bd bf cb dd 2c be 02 43 b2 bf 86 72 ee be
       -1.4804791 -0.16881482 -1.3926699 -0.4657175
0000a0 8e 1d bb bd b2 26 e3 bf 10 01 c1 bf 66 3c bb bf
       -0.091364965 -1.7746184 -1.5078449 -1.4627807
0000b0 fc 9b 8e bf 8d 2f a0 bf 43 4c 94 bf d7 d7 dc bf
       -1.1141353 -1.2514511 -1.1585773 -1.7253369
0000c0 d9 9d 74 bf 78 39 8a bf 21 cc c7 bf 53 10 dd bf
       -0.95553356 -1.0798788 -1.560917 -1.7270607
0000d0 10 48 d6 bf 02 23 e4 bf ca e6 70 bf bc f3 dc bf
       -1.6740742 -1.7823184 -0.94102156 -1.7261882
0000e0 9f d5 cb bf bf 7d af bf f7 32 b2 bf a0 c7 e3 3d
       -1.5924567 -1.371025 -1.3921803 0.1112206
0000f0 e5 70 ae bf 1f e7 c6 bf 92 2c c4 bf e9 32 c7 bf
       -1.3628203 -1.5539283 -1.5326102 -1.5562412
000100 dd e0 8e bf 59 88 d5 bf 1d 7b c1 bf 6c 4a ba bf
       -1.1162373 -1.6682235 -1.5115696 -1.4553962
000110 05 1c 7f bf 6f f7 d9 bf f6 40 bf bf fa 42 a7 bf
       -0.9965213 -1.7028636 -1.49417 -1.3067315
000120 8b 1b e4 bf 44 76 79 be 88 40 a5 be a0 0a d6 bf
       -1.7820905 -0.24361521 -0.32275796 -1.6721992
000130 ba 51 d9 bf c9 29 b7 bf 62 17 c0 bf 52 2c b7 bf
       -1.6978066 -1.4309627 -1.5007136 -1.43104
000140 8e 82 c1 bf 08 9c de bf 77 e2 c0 bf 07 c0 b1 bd
       -1.5117967 -1.7391367 -1.5069112 -0.086792044
000150 d2 50 c7 bf fb c5 6d bf da 6e ec bf 00 d9 cb bf
       -1.5571539 -0.9288022 -1.8471329 -1.5925598
000160 b2 5a c5 bf 13 97 b5 bf ca 57 c9 be c8 ef b7 bf
       -1.5418303 -1.4186729 -0.3932479 -1.437005
000170 5b 45 e6 be d3 60 94 bf ec 8a bc bf 53 16 2e be
       -0.4497479 -1.1592048 -1.4729896 -0.17000704
000180 a0 fb ae bf b1 f2 e9 bf 7f 72 c1 bf 9f b5 d2 bf
       -1.367054 -1.8277189 -1.5113066 -1.6461676
000190 a0 17 af bf c4 1f dd bf 93 b3 d3 be 1b e5 92 bf
       -1.3679085 -1.7275319 -0.41347942 -1.1476167
0001a0 96 ef 60 bf e5 00 af bf 36 7c b1 be 55 2f 87 bf
       -0.8786558 -1.3672148 -0.34665078 -1.056132
0001b0 56 ed cc bf e4 19 c5 bf e6 36 c9 bf e1 e6 59 bf
       -1.6009929 -1.5398526 -1.5719879 -0.8511792
0001c0 34 e0 10 be c7 3e 86 bf f6 a5 c0 bf 92 5c 98 bf
       -0.14148027 -1.0487908 -1.5050647 -1.190325
0001d0 97 01 ac bf 77 57 79 bf fc 77 a8 3d 15 a8 84 bf
       -1.3437985 -0.97399086 0.0822601 -1.0363795
0001e0 0d 66 b9 be 73 56 c9 bf 40 98 36 be 91 5b 83 bf
       -0.3621067 -1.5729507 -0.17831516 -1.0262319
0001f0 d8 a5 e7 bf 89 dc bd bf 82 bf ed bf 47 67 d3 bf
       -1.8097486 -1.4832927 -1.8574069 -1.6515893
000200 f9 cd 75 bf 5e 09 9b bf ca 79 11 bf 81 a7 88 bf
       -0.96017414 -1.2112234 -0.5682646 -1.0676118
000210 32 e1 64 bf a8 ea 8e bf be 2f 92 bf 93 c3 86 bf
       -0.8940612 -1.1165361 -1.142082 -1.0528435
000220 97 4c ad bf 50 7f 8d bf 17 b7 9b bf f4 6b 78 bf
       -1.3538998 -1.1054478 -1.216525 -0.97039723
000230 56 54 8e bf d1 9d 7d bf e4 a0 6c bf 4c 96 b7 be
       -1.1119487 -0.99068934 -0.92433 -0.35856855
000240 86 7e 8a bf 65 ed 8f bf 0d 69 56 bf f4 b5 85 bf
       -1.0819862 -1.1244322 -0.83754045 -1.0446153
000250 02 6a 8d bf f8 f7 b3 bf 54 bd 9c bf c0 80 85 bf
       -1.1047976 -1.4060049 -1.2245278 -1.0429916
000260 cc 88 5f bf 6c d5 89 bf d1 d7 74 bf 59 f3 61 be
       -0.8731811 -1.0768256 -0.9564181 -0.22065486
000270 b5 1e 80 bf 9d 67 80 bf e2 6a 8c bf b4 bb 8f bf
       -1.0009371 -1.003162 -1.0970118 -1.1229157
000280 4d c0 8a bf 22 81 87 bf be d5 7f bf b3 f7 28 bf
       -1.0839936 -1.0586283 -0.9993552 -0.6600296
000290 ed c3 8c bf 23 e5 9a bf c4 91 8d bf ab 5a 91 bf
       -1.0997292 -1.2101177 -1.1060109 -1.1355795
0002a0 53 ec e2 bd e5 87 5e bf ef 54 86 bf d3 ef b5 bf
       -0.110802315 -0.8692611 -1.049467 -1.4213814
0002b0 01 db 9b bf f4 ff 90 bf 97 8b 88 bf 52 7c 77 bf
       -1.217621 -1.1328111 -1.06676 -0.9667407
0002c0 00 55 7c bf da f3 8a bf b7 76 9b bf 18 10 66 bf
       -0.985672 -1.0855668 -1.2145604 -0.8986831
0002d0 f0 9d 88 bf 29 af 72 bf f6 9f be bf b5 65 8d bf
       -1.0673199 -0.94798523 -1.4892566 -1.1046664
0002e0 0a 01 62 bf f4 34 7b bf 93 c7 8d bf d0 bf 45 bf
       -0.88282835 -0.98127675 -1.107653 -0.7724581
0002f0 c2 e3 99 bf 12 5b 8a bf ee b4 8d bf 3f 4e 85 bf
       -1.2022631 -1.0809042 -1.107084 -1.0414504
000300 56 9b a8 bf e2 14 63 bf d1 5e a2 bf f3 da 84 bf
       -1.3172405 -0.8870374 -1.2685186 -1.0379318
000310 69 4e 80 bf ce bc 8d bf 3e c6 84 bf 8e 6f 85 bf
       -1.0023929 -1.1073244 -1.0372999 -1.0424669
000320 db 05 86 bf 87 38 41 bf 67 bb 5c bf b1 8b 84 bf
       -1.0470537 -0.7547688 -0.86223453 -1.035513
000330 59 8d 6d bf a8 c8 8b bf eb 22 9d bf d8 51 9f bf
       -0.92793804 -1.092061 -1.2276281 -1.2446852
000340 26 91 7e bf 6b e1 87 bf d2 af 91 bf 47 a3 8b be
       -0.9944023 -1.0615667 -1.1381781 -0.27273008
000350 f4 fb 87 bf b5 8f 91 bf ab 47 82 bf 32 a5 a9 bf
       -1.0623765 -1.1371981 -1.0178121 -1.3253539
000360 68 30 7c bf 5a 43 94 bf 97 27 66 bf 64 19 92 bf
       -0.9851136 -1.1583054 -0.8990416 -1.1413999
000370 48 1a 8f bf b6 65 90 bf 4a 07 84 bf 6f 2c 45 bf
       -1.1179895 -1.128104 -1.0314724 -0.77020925
000380 0d 69 99 bf 10 70 80 bf a2 d7 83 bf dc c7 6f bf
       -1.1985184 -1.0034199 -1.0300181 -0.93664336
000390 0d 8d 96 bf e8 4a 60 bf 52 b4 81 bf 8d 43 8f bf
       -1.1761795 -0.876143 -1.0133154 -1.119249
0003a0 cb d2 7a bf 0d 19 94 bf 15 6d 45 bf 8b 7e a8 bf
       -0.97977895 -1.1570145 -0.7711957 -1.3163618
0003b0 b5 d7 87 bf c4 0d 82 bf 3f 1c 96 bf 70 e0 b0 bf
       -1.0612704 -1.0160451 -1.172737 -1.3818493
0003c0 c5 91 6d bf b6 85 a3 bf 90 6c 88 bf 1d 89 8c bf
       -0.9280055 -1.277518 -1.0658131 -1.0979344
0003d0 96 b3 93 bf 8d ca 96 bf 92 42 14 bf 21 65 98 bf
       -1.153918 -1.1780564 -0.5791408 -1.1905862
0003e0 16 38 57 bf f3 13 83 bf bd 04 6c bf 5f 05 8e bf
       -0.84069955 -1.0240463 -0.9219473 -1.1095389
0003f0 89 50 7e bf a2 e9 85 bf 47 e9 84 bf 88 92 67 bf
       -0.99341637 -1.0461924 -1.038369 -0.90457964
