models/lstm_mse_batch10_epochs3.pth (torch, 808376 bytes, 10 tensors)

weight_ih_l0 f4 [512, 4]
000000 ae ef 17 bc a9 63 b1 bd d7 bb fa 3c 87 b4 ea bc
       -0.009273453 -0.08661587 0.030607147 -0.028650535
000010 61 76 19 3c 56 85 bc bd 8e 5d 02 3d f6 e7 85 bd
       0.009366603 -0.09205119 0.031827502 -0.06538384
000020 55 6e 4d bd 22 26 ad 3b c7 7e e5 3c 7d 7e 6e 3d
       -0.05015405 0.005284087 0.028014554 0.058226097
000030 7c 44 9e bd 36 ad dc 3c 6b 50 10 3d 15 8c 81 bd
       -0.07727906 0.026938062 0.035232943 -0.06325547
000040 3d 32 88 3d f3 55 66 3d 83 c5 8a bd 8b 01 eb bd
       0.06650207 0.05623431 -0.067759536 -0.11474904
000050 35 97 2d bd 76 bc f1 bc ea 9f bf 3d 6d 67 9b bd
       -0.04238053 -0.02950881 0.09356673 -0.07588086
000060 30 ac b8 3d e8 ff fe 3c 46 10 87 bc 08 53 10 3c
       0.09017217 0.031127885 -0.016487252 0.008808859
000070 3e c7 bc bc 05 02 e3 bb ac fb d7 3d 83 1d 9d 3c
       -0.023044225 -0.006927731 0.105460495 0.019179111
000080 bc 1e c4 bc c3 c1 a4 bd 70 66 bd 3c 71 ab a1 bd
       -0.023940437 -0.080447696 0.023120135 -0.07894028
000090 5f b2 ca bc bc fd 8c 3a 0f 3c 84 bd f6 be 06 3d
       -0.024743257 0.0010756771 -0.06456768 0.03289696
0000a0 a5 71 c4 bd 5e c0 5d bd 9b c7 c0 bc 85 b5 a4 3c
       -0.095919885 -0.054138534 -0.02353268 0.020106087
0000b0 f8 23 a4 bd e0 f4 fd 3c 27 18 44 3d ea 11 19 be
       -0.08014673 0.031000555 0.047874596 -0.1494824
0000c0 d3 5c cf bd 7f a1 79 ba da 4f ad bd 6b 77 d5 bc
       -0.10125127 -0.0009522661 -0.08462496 -0.02605792
0000d0 27 32 d1 3d 66 46 72 bc 0e 5a 1d 3a 25 9c 53 bb
       0.10214644 -0.014787292 0.0006002494 -0.0032289114
0000e0 03 16 a9 3c cd ba b3 bd 44 17 88 3c 89 4f f9 bc
       0.020640379 -0.08775864 0.016612656 -0.030433433
0000f0 dd 07 90 3d d3 e6 a1 bd 69 8b 78 3e 40 c5 be bd
       0.0703275 -0.07905354 0.24271931 -0.09314966
000100 ec 2f 04 bd 6d ee c2 bc a6 73 76 bd 18 e4 53 bd
       -0.032272264 -0.02379533 -0.060168885 -0.0517312
000110 53 6b ec bc 2e f2 2d ba cf 3a 19 3e e2 c8 cc bd
       -0.02885977 -0.0006635514 0.1496384 -0.09999253
000120 86 df 44 bd 76 b3 a4 bd 91 ef 8e 3d da b9 9a 3d
       -0.04806473 -0.08042042 0.069792874 0.075549796
000130 06 5c b1 3d 49 8b a4 bd 00 76 1d bd a3 ed 24 3d
       0.0866013 -0.08034379 -0.03844261 0.04026569
000140 05 df f9 bc 40 f3 29 3d e2 2c 2f bd b2 52 01 bd
       -0.030501852 0.041491747 -0.042767413 -0.031573005
000150 4e 17 c3 bd 17 44 00 3e 98 74 59 3d e6 24 ef 3d
       -0.095259294 0.12525974 0.053089708 0.1167696
000160 37 14 d0 3c 38 20 da bc e5 32 ab bd 1e ba 15 bd
       0.025400264 -0.026626691 -0.08359317 -0.03655445
000170 51 eb 95 3d fb 55 78 bc 85 89 c7 3d fe a8 52 3d
       0.07320274 -0.015157218 0.09743027 0.051430695
000180 86 9e 75 bd f1 c4 ec 3d c7 29 8d bd 4e 52 85 3d
       -0.059965633 0.11561001 -0.06892734 0.06509839
000190 f2 96 36 3d cb a6 1e 3d 53 af b9 3b eb f7 42 3d
       0.044577546 0.038733285 0.005666652 0.047599714
0001a0 25 14 a0 3d d6 bb d7 bb 9e 4c 66 bc fe 36 3d bd
       0.07816342 -0.006583671 -0.014056353 -0.046195023
0001b0 ef e0 1e bd 36 bd a0 bd 63 b0 03 bd 30 76 c2 bd
       -0.038788732 -0.07848589 -0.032150637 -0.09495199
0001c0 72 17 0d bd 36 0b 6d bd f2 66 b8 bc ba 12 91 3d
       -0.034446187 -0.05787202 -0.022510026 0.0708365
0001d0 c2 e5 67 3d b7 a1 9b 3d 28 87 8e bd bb 17 c0 3d
       0.0566156 0.07599204 -0.06959373 0.09379526
0001e0 8d a6 d9 bd 91 f4 1b 3d 36 96 17 bd 67 cc 0f 3c
       -0.1062747 0.038075034 -0.037008487 0.008776761
0001f0 0b 5f 32 3d f1 37 b9 3c b5 a7 00 bd 8e 1f c3 3d
       0.04354767 0.022609683 -0.031409938 0.09527503
000200 2d b7 32 bd 97 12 11 3d 60 a1 03 bc 00 82 52 bd
       -0.04363172 0.03541812 -0.00803408 -0.05139351
000210 73 18 1b bc c9 8b 33 bc 2c 42 90 bc 20 cf 5c bc
       -0.009466278 -0.01095862 -0.017609678 -0.013477117
000220 ba 86 02 bd 72 a1 34 3d 44 d3 dd bd 19 bb 6d 3c
       -0.031866767 0.04409928 -0.10831311 0.01450994
000230 2a 4f c2 3c c8 10 19 bc 62 49 a6 bd 93 bf 82 bd
       0.023719389 -0.00934238 -0.081194654 -0.06384196
000240 f0 8f 8d bd 5a d0 bb 3d 3d 52 a0 bd 94 c8 48 bd
       -0.069122195 0.09170599 -0.07828186 -0.04901941
000250 99 0d 07 bd 0f d1 c9 3c 20 00 31 3c 88 fd c8 bd
       -0.032971952 0.02463582 0.010803252 -0.09813982
000260 0d 48 8c bd 63 32 6b bd a7 1e 82 bd ae d4 15 be
       -0.0684968 -0.0574211 -0.06353503 -0.14631912
000270 4c a5 81 3d 09 75 8c 3d 2b 92 c5 bd cc 6d 77 3d
       0.06330356 0.0685826 -0.0964702 0.060407445
000280 7b f5 28 bd 0b 79 5c 3c e9 e6 00 3d 21 cc 1a bd
       -0.041249733 0.013456593 0.031470213 -0.03779233
000290 eb a2 91 3d 21 46 5d 3d d9 9d ae bd f4 8d a4 3d
       0.07111152 0.05402196 -0.08526201 0.08034888
0002a0 15 7e e3 3d 3b d9 33 3c 17 2d f0 bc 4d 68 12 3d
       0.111080326 0.010977085 -0.029318376 0.035744
0002b0 8c de 9e 3d 84 9a 62 bd 5e dd cf bc fa 74 2b bc
       0.07757291 -0.05532314 -0.02537411 -0.010464901
0002c0 3a 16 a3 bc 73 9a a9 3d a6 e9 f1 bc 2a 6f 76 bc
       -0.01990806 0.08281412 -0.029530358 -0.015041152
0002d0 fb 9f 39 3d e7 af 01 3e 29 5e d7 bd c7 38 01 bd
       0.045318585 0.12664758 -0.105160065 -0.031548288
0002e0 d5 91 9a 3d 25 80 d5 3c 4e 86 53 bd cb 12 a3 3c
       0.075473465 0.02606208 -0.051641755 0.019906422
0002f0 57 0e f4 3c 00 75 0f be 68 1c 88 3c bb 48 5d bc
       0.029791994 -0.14009476 0.016615108 -0.01350611
000300 11 4f 0b 3d bf 26 7f bd 1b 94 80 3d 9c 92 1c 3a
       0.03401095 -0.06229281 0.06278249 0.0005972774
000310 22 c4 0a 3d 66 3d 63 bc 40 d2 6b bb 49 4b 8a 3d
       0.033878453 -0.013869619 -0.0035983473 0.06752641
000320 15 c6 c6 3d ca 0d 4b bd 74 26 85 3d 38 57 4d 3d
       0.0970575 -0.049573697 0.06501475 0.050132006
000330 b7 b0 ec 3c 8a 87 25 bc 8f 60 ef bd 5c f2 69 bd
       0.028892858 -0.010103116 -0.11688339 -0.057115898
000340 fa 7d 06 3b fe b1 e0 bc 5f 75 90 3d ba a4 7d 3c
       0.0020521865 -0.027428623 0.07053637 0.015481168
000350 07 02 fa 3c d8 15 24 3d da 69 7d 3d bb 04 16 bd
       0.030518545 0.040059894 0.061868526 -0.036625605
000360 c8 9b 8c bd b7 51 06 3d 05 ee 8e bd 32 9b fa 3b
       -0.068656504 0.032792773 -0.069789924 0.0076478953
000370 16 53 09 bc 64 6d 79 bd 7d ff 5a 3c 09 89 91 bd
       -0.008381626 -0.06089534 0.013366577 -0.071062155
000380 a5 67 d8 3c d2 58 c4 3b ac 2d 9a bc fd 94 e4 3c
       0.026416609 0.0059920335 -0.018820606 0.027903074
000390 20 cb 58 bd 2d f0 06 bd c2 c5 06 bd f5 91 3d bc
       -0.05292809 -0.032943893 -0.03290344 -0.011570443
0003a0 78 25 0f bd ff eb 19 3c 25 6e 06 bd 75 ef 23 3d
       -0.034947842 0.009394645 -0.032819886 0.040023286
0003b0 f7 a0 28 be 61 10 99 3d b2 69 d4 bc 44 90 00 bd
       -0.16467653 0.07473827 -0.025929306 -0.031387582
0003c0 4d a5 0d 3d 0d 79 7d bd 66 3a 58 bd e4 fc 61 bd
       0.03458147 -0.06188302 -0.052790068 -0.055172816
0003d0 d0 d8 7a bd 03 bd 4d bd f4 84 86 bd a2 34 7d bd
       -0.061241925 -0.050229084 -0.065683275 -0.061817773
0003e0 51 39 ae bd b9 44 46 3c 8e 96 47 bd 29 ad 37 bb
       -0.08507026 0.012101346 -0.048727565 -0.0028026795
0003f0 72 4f 5b bd 70 ff 81 bd 23 bd cb bc 4a 10 8b 3d
       -0.05354256 -0.06347549 -0.02487046 0.06790216

weight_hh_l0 f4 [512, 128]
000000 a8 58 08 bc 6c 10 12 3d 52 9a 92 bc d8 f6 29 3c
       -0.008321919 0.035660192 -0.017895851 0.010373794
000010 6d 42 8e bc 77 b0 08 bd 27 d1 3a bd c5 07 a0 bb
       -0.017365659 -0.033371415 -0.04560962 -0.0048837387
000020 e3 08 ab bd 73 1e 64 bc 32 2f 0c bd 00 5c d9 3d
       -0.083513044 -0.013923275 -0.034224696 0.10613251
000030 11 c8 11 bd d4 52 2a 3d 7e 7d 03 3e de 83 b6 3d
       -0.03559119 0.041582897 0.1284084 0.089118704
000040 31 ea ff 3c 72 28 f9 3d 1a 5b 0e bb e0 89 15 bd
       0.0312396 0.121659175 -0.0021721781 -0.03650844
000050 00 72 fb 3d c2 d6 6b bd 35 7c a5 bd 02 e2 8e bc
       0.12277603 -0.057577856 -0.08080331 -0.017441753
000060 e0 3f e9 bd 70 32 a5 3c 58 c2 44 bd 30 49 b4 bd
       -0.11389136 0.020165652 -0.048036903 -0.08803022
000070 28 e7 2c bc c6 1e d3 bd 4d ae 8e bd 62 26 81 bd
       -0.010553159 -0.10308604 -0.06966839 -0.06306149
000080 6c 61 dd bd 98 ab 99 bd e4 12 a5 bd 38 47 05 bd
       -0.108095974 -0.07503432 -0.08060244 -0.032538623
000090 e4 6d 4f bd 77 df 14 bd af 4b 1e 3d bc bd 90 bd
       -0.05064191 -0.036345925 0.038646396 -0.07067439
0000a0 62 e7 52 3d 96 2e ea 3a a9 27 40 bc 7a 84 0e 3d
       0.051490195 0.0017866667 -0.011728206 0.03479431
0000b0 77 ed 46 3d 9e 93 ee 3d ec 79 07 3d 51 e8 ef bd
       0.048566308 0.116492495 0.033075258 -0.11714233
0000c0 78 1d 84 bb 43 27 38 3d b7 3a ba bd 58 0d c5 bd
       -0.0040318333 0.044959318 -0.0909323 -0.09621686
0000d0 0e 2f c9 3d a1 0a dc 3d 80 4f 55 3c bb b9 b3 bd
       0.09823428 0.10744215 0.013019443 -0.0877566
0000e0 b6 1a d2 3c c3 4c 5d bd 53 00 07 bc 64 8a 10 3c
       0.025647502 -0.054028284 -0.008239823 0.008822057
0000f0 bc bf 48 bd 31 f8 33 3d 03 da b7 bd d5 54 14 bb
       -0.049010977 0.043937866 -0.08977129 -0.0022633572
000100 1e 08 f1 bd 9d a3 6d bd 7b 19 05 be 27 17 29 3c
       -0.11769126 -0.058017362 -0.12998001 0.010320461
000110 9a 18 14 3d c3 f0 6d bd 04 29 27 3c c4 7d e7 3d
       0.036156274 -0.058090936 0.01020265 0.11303285
000120 a4 c5 ae bd 83 40 dd bb 50 e9 9b 3d 76 66 88 3d
       -0.08533791 -0.006752075 0.0761286 0.06660168
000130 fa 10 73 3a ba 16 89 3c 55 4c 5a bc 67 72 e3 3c
       0.0009272244 0.01673447 -0.013323863 0.027764512
000140 88 e0 02 3d f3 57 69 3d e8 18 33 bb 17 ad c3 bc
       0.03195241 0.05696864 -0.0027328078 -0.023886247
000150 de a9 8f ba 4b af 1a 3d e1 2c 26 3c 00 93 84 bc
       -0.0010960659 0.03776483 0.010142536 -0.016183376
000160 04 85 7d 3b e5 db a7 bd aa 8d 1d bd bc 46 e9 3c
       0.003868402 -0.081962384 -0.03846518 0.028476112
000170 62 ae a0 bd a6 7f 54 bd 09 02 b5 3c 22 2e 9f bc
       -0.07845761 -0.051879548 0.022095697 -0.019431178
000180 39 d0 28 bb 8f ab 5a 3d d7 00 f2 bc 65 6b d7 bc
       -0.0025758876 0.053386267 -0.029541416 -0.026296327
000190 4e fe bb bc b6 bd 0f bd 2b 93 f7 bd 75 58 5a 3d
       -0.02294841 -0.03509303 -0.12088617 0.053307015
0001a0 17 cf 8b bd 88 55 65 3c 44 0c 8d 3d f5 8b eb 3d
       -0.06826609 0.013997443 0.06887105 0.11501304
0001b0 d3 28 80 3d d1 da da bc 39 cb 1c bd 5c c7 ce 3d
       0.062577866 -0.026715668 -0.038279746 0.100966185
0001c0 e3 6b 1f 3c fd 3e cc bd 33 3f b7 3c 2a bd e8 bc
       0.009730312 -0.099729516 0.022369003 -0.028410513
0001d0 cf dd be 3b 83 00 6a bd fa 6b a2 3d 16 28 40 bd
       0.0058247815 -0.057129394 0.07930751 -0.04691323
0001e0 24 44 88 3d 59 c2 e2 3d aa db b2 38 4e 1b 83 bd
       0.06653622 0.11072225 8.528617e-05 -0.06401692
0001f0 62 73 83 3d bc c0 63 bd ec 1e cb bd c0 57 ca 3b
       0.06418492 -0.055603728 -0.09918007 0.0061750114
000200 22 98 82 bd 3b f4 8d bd a0 d6 aa bc 77 7d aa bc
       -0.06376673 -0.06931349 -0.020854294 -0.02081178
000210 00 c2 ce 3d a0 24 22 bc 68 b7 8b bc b2 9a 6e bd
       0.10095596 -0.009896427 -0.017055228 -0.058252998
000220 5d 92 27 3d 55 88 8f 3c cc 1a 1c 3c 40 69 2a bd
       0.040911067 0.017521063 0.009527873 -0.04160428
000230 f6 5d 49 bd 73 c8 4f bd c4 06 82 bd d8 ef 4f bd
       -0.049161874 -0.050728273 -0.06348947 -0.050765842
000240 ed 6f 2e bd 07 f0 14 3d bd f4 14 bd 9e 05 cb bd
       -0.04258721 0.03636172 -0.036366213 -0.09913181
000250 34 13 89 3c f1 94 25 3d fc 89 b4 bb 6e d0 51 bd
       0.01673279 0.040425245 -0.005509613 -0.051224165
000260 90 db 48 3d e8 56 4c bd 41 2f 68 3d e8 8b c5 bc
       0.049037516 -0.049887568 0.05668569 -0.024114564
000270 1b 6e b9 3d 26 fc 1a bd 1b 82 83 3d 30 97 42 3d
       0.09054204 -0.037838124 0.064213 0.047507465
000280 5e ec f7 3c 50 56 2d 3d 47 bf 42 3c c6 60 49 bd
       0.030264076 0.042318642 0.011886424 -0.049164556
000290 84 ac 2b 3d 78 a5 06 3d 6b 7f 01 3d 9a d4 5e 3c
       0.04191257 0.032872647 0.031615656 0.013600493
0002a0 9a b4 3a 3d 53 3a a1 3c 4c de 30 bd 7d 14 0e 3d
       0.04558239 0.019681131 -0.04318075 0.034687508
0002b0 3f bd 89 3d 21 97 f2 bb 56 49 12 3c 0b 9a 95 3d
       0.06725549 -0.00740327 0.008928617 0.07304772
0002c0 10 64 45 3d fc 01 36 3d 9b c0 55 bd eb d3 1d 3d
       0.04819113 0.044435486 -0.052185636 0.03853218
0002d0 62 01 9c 3c 4f d4 f5 bc f6 d3 91 bd 6b 1f a3 bd
       0.019043628 -0.030008463 -0.071205065 -0.07964977
0002e0 55 45 cb bd ac 46 8c bd 04 fa cd bd 8b 49 8c 3b
       -0.099253334 -0.06849417 -0.10057452 0.004281228
0002f0 4a 27 7f bd 1a 2d 42 bd bb e0 3f 3d bc af 1a bd
       -0.06229333 -0.047406293 0.04684518 -0.03776525
000300 24 19 31 bd 73 4a 58 bd 82 d1 52 bd b0 d5 b9 bc
       -0.043236867 -0.052805375 -0.051469333 -0.022684902
000310 c2 a0 f6 bc 49 0f e1 3c 83 e6 3a bb dd de 65 bb
       -0.030105952 0.027473109 -0.0028518743 -0.0035075464
000320 04 15 d6 bb 4c 2f c8 3d 94 49 f4 bc 8c 02 79 3d
       -0.006533267 0.09774646 -0.029820241 0.060793445
000330 a2 5d 59 3d 95 4b 6f bb a6 32 9b 3d 8e 7c 43 3d
       0.05306781 -0.0036513556 0.0757802 0.047726206
000340 e2 01 27 bd 31 a9 e9 bd 5a 1d dd 3c 8d f6 86 bd
       -0.04077328 -0.11409224 0.026991535 -0.065899946
000350 eb 2a 1e 3d 01 38 2f 3d 20 05 6a bd 45 c1 ad bd
       0.03861515 0.04277802 -0.057133794 -0.08484129
000360 ad 35 23 3d 4c be 66 3d 9f 62 29 3d 68 45 6a 3d
       0.03984611 0.056333825 0.041353818 0.057195097
000370 b8 7c 2d bc af 69 86 bb 53 29 83 bc fd a7 a3 bc
       -0.010588817 -0.004101954 -0.016010916 -0.019977564
000380 91 d1 c3 3b f4 51 06 3d 2c 6a 80 bd 84 ce d0 bd
       0.00597591 0.032793 -0.06270251 -0.1019564
000390 ab ff 99 3d 14 c4 a3 bd 56 31 2e 3c ba b1 a8 3c
       0.07519468 -0.07996383 0.01063188 0.02059256
0003a0 4d 97 7a 3d 65 cc 56 bd 63 51 3f 3d 4d ce f6 bc
       0.061179448 -0.05244102 0.046708476 -0.030127669
0003b0 18 2b 8c 3d 0c de 59 3d f7 54 16 3d 88 cb 7a bd
       0.06844157 0.053190276 0.036702123 -0.06122926
0003c0 1a ee df 3c 64 0d 99 3c e6 10 2b bd cc df a3 bd
       0.027335215 0.018683143 -0.041764162 -0.0800167
0003d0 cc 42 fa bc 70 56 8d 3d 0a aa 85 bd 87 09 8c 3d
       -0.03054943 0.06901252 -0.06526573 0.06837755
0003e0 a6 8b db bc 9a 6f 5e 3c 4d b8 a6 3d 09 5f a9 bd
       -0.026799988 0.013576413 0.08140621 -0.0827008
0003f0 52 0e 57 3c 20 aa 87 3d fb c7 de 3c 84 1a a1 3c
       0.013125973 0.06624246 0.027194967 0.019665964

bias_ih_l0 f4 [512]
000000 8c 92 eb 3d a6 b4 9a 3d 9a 4e 63 bd aa c1 91 bd
       0.11502561 0.07553987 -0.055494882 -0.071170166
000010 99 87 05 ba 23 b5 33 3b d6 0e 67 3d 26 8e 16 bd
       -0.0005093753 0.0027421198 0.056410633 -0.036756657
000020 c7 37 ab 3d 55 df 5a 3d de 38 3d bd 30 1b d5 3d
       0.08360248 0.053435642 -0.04619681 0.10405576
000030 f2 c1 6c 3c fc 8f ad bc dc f2 df bc 3b 57 1c 3d
       0.014450537 -0.021186821 -0.027337484 0.038169127
000040 52 bb 53 3d a7 dd e5 bc 67 d0 b6 bc fb 93 8f 3a
       0.051692314 -0.028059794 -0.02231617 0.0010954136
000050 28 73 9d 3d 51 79 e5 bb c3 30 ab bc 55 b1 75 3b
       0.0768798 -0.0070029874 -0.020897275 0.0037489731
000060 a4 38 09 3e f3 36 1f 3d 89 80 a6 3d 62 eb dc 3d
       0.13400513 0.038870763 0.08129985 0.10787083
000070 50 8b 1b bd fa ec 31 bd 95 d8 b1 3b ed b3 77 3d
       -0.037974656 -0.04343889 0.00542743 0.060474325
000080 4e 85 8a 3b 64 ef 28 3c c7 a3 ac 3d 7c b2 bb 3c
       0.004227317 0.010310981 0.084296755 0.022912256
000090 35 7e 80 3c e2 84 4e bd 42 74 ad 3d cb 79 8c 3d
       0.01568518 -0.050419696 0.0846944 0.06859168
0000a0 fd 32 56 3d 0a 0d f2 3d f1 4d 84 bc 7c db 59 3c
       0.05229472 0.11818893 -0.016150447 0.013296958
0000b0 22 ea 77 bc 3b a2 50 bd 6d 86 8e bd 4a d1 b4 3d
       -0.015131505 -0.050935965 -0.069592334 0.08828981
0000c0 ab 29 5a bc 1f c8 9a 3d 8d 82 a1 3d de 2a bf bb
       -0.0133155985 0.07557701 0.07886229 -0.0058339676
0000d0 f3 93 6d 3d ad de da bc 54 23 9f 3d a8 52 0a bd
       0.058002423 -0.026717508 0.0777041 -0.033770233
0000e0 19 07 9d 3d 6f 2d 29 3a 7a 4b 06 bd d7 70 ed bc
       0.076673694 0.00064536085 -0.032786824 -0.02898447
0000f0 c7 c2 37 bb 7f 6a ba bb 7c b8 17 bd f3 f2 f1 bc
       -0.002803968 -0.005688965 -0.037041172 -0.029534793
000100 ec c6 24 bd 6c 31 9e bd 40 71 d7 3d 90 91 9e bd
       -0.04022877 -0.0772427 0.105196476 -0.077426076
000110 ab 9a a0 3d 8e b7 68 bd e6 0e d3 3c 90 0c c4 3c
       0.078420006 -0.056815676 0.02576394 0.023931772
000120 4f 84 cb 3b 04 71 33 3d 4a f7 1b 3c ad e8 1a 3d
       0.006210841 0.043808952 0.0095194075 0.037819553
000130 77 00 43 3d a0 3b 59 bd 05 40 89 bd fb 98 67 bd
       0.047607865 -0.05303538 -0.06701664 -0.056542378
000140 28 1d 78 bc e4 5d ef bc c7 d2 b2 bd 8b 00 77 bd
       -0.01514367 -0.029219575 -0.08731609 -0.060303252
000150 e1 f9 a8 bb 48 20 53 bd 6c 9f bf 3d b8 e4 51 bc
       -0.005156741 -0.051544458 0.09356579 -0.012810878
000160 2d 03 8d 3d 6c b3 b7 3d 98 5e 30 3c 88 96 66 3d
       0.06885371 0.08969769 0.01076474 0.0562959
000170 1c 91 82 bd c1 cd fa 3c 79 14 ce 3d c5 3a ad 3c
       -0.06375334 0.03061569 0.100624986 0.021146188
000180 47 3c 84 3b fb f9 53 bd 87 2b 67 3d d8 37 cd bc
       0.004035506 -0.05175207 0.056437995 -0.025051042
000190 72 e8 df 3d 3c cb b0 bc 3b d5 29 3d 4f 15 c3 3c
       0.10933007 -0.021581285 0.041463118 0.023813872
0001a0 13 1d b6 bc e7 00 50 bd 33 85 4b bc f9 40 d3 bc
       -0.02223066 -0.05078211 -0.012421894 -0.025787817
0001b0 f2 63 dd 3c 1d 7c 80 3d 31 ae 62 bd bd 53 93 3d
       0.027025197 0.06273673 -0.055341903 0.07193706
0001c0 70 27 8c bd e6 df 39 3c 3c 03 88 bd 41 c5 1c bd
       -0.068434596 0.011344885 -0.06641242 -0.038274053
0001d0 18 75 aa 3c 94 7a aa 3d 05 82 95 bd 51 37 78 bd
       0.020807788 0.08324161 -0.0730019 -0.06059963
0001e0 67 33 6e 3d 49 85 6b bd ca 56 19 3d ec 36 84 bd
       0.05815449 -0.057500158 0.037436284 -0.06455788
0001f0 1a 7e 12 3b 78 88 94 3c 4c ba 2f 3d ab 52 d9 3d
       0.0022352994 0.01813148 0.042902276 0.10611471
000200 8d 64 c3 3d bb 7b 9d 3d ff 6f 36 3d 6d 2d 86 bd
       0.09540663 0.07689615 0.0445404 -0.06551633
000210 53 a6 2b bd 19 e3 d5 bc cb 49 da 3c fd ff bd bc
       -0.041906666 -0.026109265 0.026646515 -0.023193354
000220 32 c0 f9 3c 07 88 b4 bb 6a 9a 41 bd 6e 03 31 bd
       0.030487154 -0.00550938 -0.0472664 -0.04321616
000230 a0 35 61 3d e5 22 80 bd fb 45 b6 bb 75 38 6b 39
       0.05498278 -0.062566556 -0.0055625415 0.00022432378
000240 68 2b a1 bd 1f 2b 86 3d 6d e4 0e bb 8d b5 20 bc
       -0.07869607 0.065511934 -0.0021803633 -0.00980891
000250 24 b5 ae 3d cb 49 a0 bd 34 18 50 bd c5 d9 95 3d
       0.085306436 -0.07826575 -0.050804332 0.07316927
000260 bc 9a a5 3d a3 0f a8 3c e1 e5 96 bc 93 87 4f 3d
       0.08086154 0.020515269 -0.018420162 0.050666403
000270 a3 ef c5 bd 78 56 1f 3c 8d b1 0c bd 75 e3 95 3d
       -0.09664848 0.009725206 -0.034349013 0.073187746
000280 a3 6f 32 bd 31 ef c7 bc 5d 39 a0 3d 12 54 67 bd
       -0.043563496 -0.024406048 0.07823441 -0.05647666
000290 e2 6d 7c 3d 02 90 60 3c 7c c4 5b 3d ba fe 35 3d
       0.06162823 0.013706209 0.05365418 0.04443238
0002a0 bd d6 30 3d 1b 40 a8 3c 83 d4 8b bd 7f dd 77 bd
       0.04317354 0.02053838 -0.06827643 -0.06051397
0002b0 b3 4d b7 3c e5 a9 85 bb d6 7d 60 bc 1b 38 75 bd
       0.022375917 -0.004079091 -0.013701877 -0.05986796
0002c0 1d 26 c3 bc 81 d0 9e 3d 16 fd d1 3c 39 29 ba bd
       -0.023821885 0.07754613 0.025633376 -0.09089894
0002d0 f7 88 96 3d cb ab c2 bd 7a be 26 3d ed 57 86 bd
       0.07350343 -0.09505423 0.040708996 -0.06559739
0002e0 c3 79 30 3d ba ca c7 3c 0f fd 62 3d 81 f9 8d 3d
       0.04308487 0.02438866 0.055417117 0.06932355
0002f0 33 c4 ba 3d 14 b9 a9 bc b2 82 9f bd 25 a9 8e bc
       0.09119453 -0.020718135 -0.077886 -0.017414639
000300 d7 ac 59 bd 44 fd d0 bd 20 38 46 3d a2 fd 70 bd
       -0.05314335 -0.102045566 0.04839337 -0.058835633
000310 9f b3 94 bd 39 63 65 3d 72 d0 f1 bc d6 a9 83 3d
       -0.072608225 0.05600283 -0.02951834 0.06428878
000320 ea c1 a3 bd 5a 3a 9d bd 26 c9 da 3c 33 44 e4 bc
       -0.079959705 -0.07677145 0.026707243 -0.027864551
000330 b1 a9 8f bd ac 54 7d bd 73 ff d2 bb 65 bb 0e bd
       -0.07014788 -0.061848328 -0.0064391433 -0.034846682
000340 5b 8d 72 bd 7f 8e c5 bc 39 70 94 bd 78 93 8d ba
       -0.05921684 -0.024115799 -0.07247967 -0.0010801395
000350 d6 bb b6 bd bf 99 9c bd ca ee 8a bc 40 f8 7f 3d
       -0.089225456 -0.07646512 -0.016959567 0.06249261
000360 6d 7f 3a 3d 61 ba 80 bd 1a 24 44 3d 64 00 27 3d
       0.04553168 -0.06285549 0.04788599 0.040771857
000370 60 67 5c bd 35 6e dd bc e4 9b 0a bd 3d 5a 71 3d
       -0.053809524 -0.02703009 -0.033840075 0.05892395
000380 80 67 c6 bd 37 08 8b 3d 6a c7 b7 3d 3f 6a 9f 3d
       -0.0968771 0.06788676 0.08973582 0.07783937
000390 33 14 14 bd 8b cb 96 bd b1 7b 9b bd 16 5a 87 3d
       -0.036152076 -0.073630415 -0.07591952 0.066089794
0003a0 41 c9 35 3d 1c ee 17 bd f3 35 1b bd bc e0 72 bd
       0.044381384 -0.037092313 -0.037893247 -0.059296355
0003b0 3c 3d 2f 3d 21 94 8c 3d 72 0a ba bc e3 bd da bc
       0.042783007 0.06864191 -0.022710059 -0.026701873
0003c0 aa 8e 61 bd 74 7c 6c bd b0 6e 99 3c 6a b2 a1 bd
       -0.055067696 -0.057735875 0.018729538 -0.07895358
0003d0 82 9e 79 3d f3 3f ee 3b 44 34 e6 bc 28 32 b7 bd
       0.06094218 0.007270807 -0.028101094 -0.089451134
0003e0 9d 62 e8 bc f3 68 58 3d 5f d2 43 3d 7b 41 4f 3d
       -0.028367335 0.052834462 0.047808047 0.050599556
0003f0 d5 e4 80 3d 71 fd 42 3d bc 8d b6 3c 4c ef 5a bc
       0.06293646 0.04760498 0.022284381 -0.013362717

bias_hh_l0 f4 [512]
000000 76 8e cc 3c e3 c7 6a bc 59 60 b0 3c 61 93 41 3d
       0.024970274 -0.014329883 0.021530317 0.047259692
000010 56 b6 5c 3d 30 f0 af 3d eb fc 89 3d fa 5e cd 3d
       0.053884827 0.08590734 0.067376934 0.10027881
000020 08 b2 b6 3d 17 2d 53 3d bf a1 8a bd d9 6c a9 3d
       0.089206755 0.051556673 -0.06769132 0.08272714
000030 fe 04 86 bd 3e e3 83 3d c7 58 65 3c da d5 5b bc
       -0.06543921 0.064398274 0.013998217 -0.013417685
000040 26 98 3a 3d c0 41 df bc 49 e6 d2 3d 82 53 a2 3d
       0.045555256 -0.027253032 0.1029783 0.07926084
000050 48 ae ca 3c 88 55 81 bb a0 3b 5b 3d b1 53 a7 3d
       0.024741307 -0.0039469637 0.05352366 0.0817026
000060 8a c1 ad bb 60 cc 53 bd 26 4f 09 bc 2a 55 9a bc
       -0.0053026127 -0.05170858 -0.008380687 -0.018839438
000070 e1 71 51 3d 7d 90 73 3d 98 37 d2 bc 83 8e 8a 3d
       0.051133994 0.059463967 -0.025661275 0.06765463
000080 e5 3c de 3a 21 6e 86 3d d5 7b 1c 3c 4e 99 5e bd
       0.0016955404 0.06563974 0.009551008 -0.05434542
000090 de dc cc bc 94 24 10 3d 57 ba 93 bd 72 30 ba 3c
       -0.025007661 0.035191134 -0.07213276 0.022728179
0000a0 dd f0 ab 3c 25 45 29 3c bf 16 10 bd 67 ac e5 3d
       0.020988876 0.010331427 -0.035177942 0.11214524
0000b0 e9 90 62 3c 1d e2 9d bd 03 51 74 3d 24 1b 8d 3d
       0.013828495 -0.07709143 0.05964757 0.06889942
0000c0 e2 fa 19 3d 6c 32 6c 3c 5a fd 6e 3d bf 8d ab bc
       0.037592776 0.014416318 0.058347084 -0.020941613
0000d0 1b f9 86 3a 91 7f 74 bd 0e 32 52 bd a2 48 dd 3c
       0.0010297628 -0.05969197 -0.051317267 0.027012173
0000e0 11 8a 12 bd be 3c c0 3d 5c cb e9 3c bc 5f 49 bc
       -0.0357762 0.09386586 0.028539352 -0.012290891
0000f0 90 4b 54 3b f1 bb 90 bd a3 6d 3f bd c1 4b 82 bd
       0.0032393672 -0.07067097 -0.046735417 -0.06362105
000100 1a 1a ec 3c 92 25 54 bc 8d 8d 16 3c fb 60 1b bd
       0.02882104 -0.012948411 0.009189022 -0.037934285
000110 fc 0d 7d 3d b2 ce 8a 3d dc b2 b9 3d ad ef d3 3b
       0.061780915 0.06777705 0.09067318 0.0064677806
000120 2b ce 5d 3d e9 33 6b bd e0 dd 11 3d 13 8d 2a bd
       0.054151695 -0.057422552 0.035611987 -0.041638445
000130 e7 fd b6 bd 27 55 c3 3c 6c 11 23 3d 6b bd 7d 3d
       -0.08935147 0.023844315 0.039811537 0.06194822
000140 ea d6 af 3c 3f a0 15 bd ba 53 bc bd 9f 31 97 3c
       0.021464784 -0.036529776 -0.09195657 0.018456278
000150 18 bf c7 3d 86 cc c0 bd bc 7d 88 3b ee cd ae 3c
       0.09753245 -0.0941401 0.0041653793 0.02133843
000160 91 0e 84 bd b6 46 9b 3d df ec e8 bc 5a d8 82 3b
       -0.06448091 0.075818464 -0.028433261 0.0039930763
000170 24 58 18 3c ac 8d f9 3c 97 97 b1 3d f1 ab f8 3c
       0.009298358 0.030463062 0.086714916 0.030355426
000180 ab ab 1f bd 4b e1 11 3a 4c 2b 29 3c 3f c4 55 3d
       -0.038982075 0.00055648823 0.010325264 0.052189108
000190 91 8a 44 bd 29 c0 aa bd 79 eb 74 bd 28 01 75 bd
       -0.04798371 -0.08337433 -0.059794877 -0.059815556
0001a0 10 f4 24 3d 92 67 a8 3c cc ad 54 3c f9 37 b9 bd
       0.04027182 0.020557199 0.0129808895 -0.09043879
0001b0 9e cd f7 3c db 16 d5 3d 35 79 02 3b b4 f9 0a bd
       0.030249413 0.1040475 0.001990867 -0.03392954
0001c0 a3 89 30 bd a8 9d bc bc 83 74 d9 bc 4e 2b 1f bc
       -0.04310001 -0.023024395 -0.026544815 -0.0097149145
0001d0 6c 5d 74 bc 17 91 0e 3d b3 b5 07 bc 4c 89 32 bd
       -0.014914852 0.034806337 -0.008283067 -0.043587968
0001e0 85 69 82 bd ce e0 ee 3c a7 c5 df 3c 39 5f d3 bc
       -0.063677825 0.02915993 0.027315928 -0.025802242
0001f0 ef 91 71 3d bc 44 55 bc 4e c1 bf 3c 8a 33 12 bc
       0.058977064 -0.013016876 0.023407605 -0.008923421
000200 43 da cd bc b7 f5 89 bd 85 15 5a bd 7f ce a7 bc
       -0.02512849 -0.067363195 -0.05324318 -0.020484207
000210 66 99 59 bd db fc 80 bd bc ec 34 bd 62 2b 25 3d
       -0.053124808 -0.06298228 -0.04417108 0.040324576
000220 5b d5 ff bc 20 fa 15 bd de d8 f7 3c cd e5 84 3d
       -0.031229666 -0.03661549 0.030254778 0.064891435
000230 68 ce b2 bc c8 ee e8 3c 19 53 83 3c 95 00 aa 3d
       -0.021826938 0.028434172 0.016030835 0.08300892
000240 cd 10 69 bd 35 46 0f bc af 90 4b bc 1c 28 68 3d
       -0.056900788 -0.008744766 -0.012424632 0.056678876
000250 ef 4c 96 bd c8 73 50 bc f4 4f 74 bd 51 2c 7a bd
       -0.07338893 -0.012722917 -0.05964656 -0.06107742
000260 ef db 84 bd b1 b8 90 3d a2 4b 4b bd c6 ab b6 3d
       -0.064872615 0.07066477 -0.049632676 0.08919482
000270 6e d1 27 3d cd 5c 23 bd cb 6e b4 bd 37 1f 9a bc
       0.040971212 -0.039883424 -0.088101946 -0.018813713
000280 7e e3 9f 3d 41 61 99 bd 35 83 99 3d 75 55 00 bd
       0.078070626 -0.07489253 0.07495729 -0.0313315
000290 c5 dd 41 bb d1 06 95 bd 0b c4 3c 3d 8b 42 3b 3d
       -0.0029581648 -0.07276691 0.0460854 0.045717757
0002a0 ce 12 8e 3d 79 f6 b4 3d 0d ff 0d bd c2 fa 8d bd
       0.069371805 0.088360734 -0.034667064 -0.06932594
0002b0 c6 57 7b bd 44 9c df bc 65 d7 f0 bc 4c 60 80 3c
       -0.061363004 -0.027296193 -0.029399583 0.015670918
0002c0 1a 8c b6 bd a9 ca 87 3d ff 99 ae 3d e0 82 78 bd
       -0.08913441 0.06630451 0.08525466 -0.060671687
0002d0 45 0c 1b 3d 71 ab 56 bd 26 78 6f 3d d0 2e ce 3c
       0.037853498 -0.052409593 0.05846419 0.025168806
0002e0 13 db 96 3d c7 4c 06 3d 24 c5 a4 3d 9e df 89 3c
       0.07366004 0.032788064 0.08045414 0.016830262
0002f0 e5 d5 9c 3d 3b a8 c3 bd f2 a3 92 3d 15 77 8a 3c
       0.07657985 -0.09553572 0.07160176 0.016902486
000300 e2 e9 78 bd 88 fe 96 3b 00 7d 5c bd f3 5a 73 bd
       -0.060769923 0.004607979 -0.053830147 -0.059412908
000310 bf c7 74 bd 07 3b 72 3c cd 6d 72 3d a9 66 5f bd
       -0.059760805 0.014784581 0.059186745 -0.054541264
000320 a8 60 77 bd 5a 01 b3 bd eb 8b b8 bd 38 b6 4d 3d
       -0.060394913 -0.08740492 -0.09011062 0.050222605
000330 42 8f 68 3b 94 ae 35 bd 39 08 c1 bd ff 9a eb 3c
       0.003548578 -0.044355944 -0.094253965 0.028760431
000340 f2 05 43 3c 96 66 b9 3c 7a d9 48 bc de 27 34 3c
       0.011903273 0.022631925 -0.012258882 0.010995833
000350 6b 8a 73 bd b0 be af bd 88 35 97 bd 4d fe a5 bd
       -0.059458178 -0.08581293 -0.07383257 -0.08105145
000360 73 82 99 3d a5 9c 85 3d c1 51 b0 3c db 34 b1 bc
       0.07495584 0.06524018 0.021523358 -0.021631649
000370 2b 87 4c bd a7 17 cd 3c 18 2e 0e bc 39 de b8 3b
       -0.049933594 0.025035692 -0.008677982 0.0056417254
000380 1d 2c a4 3c 69 0a c4 3c f5 61 41 3c 15 ab 19 bd
       0.020040566 0.023930745 0.01180314 -0.037516672
000390 bd dd ba 3d 27 63 9d bd d8 68 85 bd 09 69 f7 bc
       0.091243245 -0.076849274 -0.06514138 -0.030201452
0003a0 1d 87 8f 3d 33 15 73 3d de db 96 bd 1a e8 89 bc
       0.07008193 0.05934639 -0.07366155 -0.016834307
0003b0 b6 19 af bc af 60 97 3d 1f 45 b0 3c f6 ae 7e bd
       -0.021374565 0.07391488 0.021517335 -0.062178575
0003c0 0e 24 07 bd 40 7f 19 3d 7a ed 37 bd 10 ed 1a 3d
       -0.03299337 0.03747487 -0.04490421 0.037823737
0003d0 77 b8 28 3d 25 1c fc bc da 57 97 bc fb fb 3f 3d
       0.041191544 -0.03077514 -0.018474508 0.046871167
0003e0 7f 4b a7 bd a1 d3 9d 3d 8e 7f 95 bd 41 92 85 3d
       -0.081686966 0.07706381 -0.0729972 0.06522036
0003f0 30 e9 c1 3d c6 4e 9c bc 70 14 93 3c 30 93 28 3d
       0.09468305 -0.01908053 0.017954081 0.041155994

weight_ih_l1 f4 [512, 128]
000000 99 33 96 bd 41 c7 ce 3c 78 df 4c bc 8a ff c6 bc
       -0.0733406 0.025241496 -0.012504451 -0.024291772
000010 bb 1c 9f bc 28 95 c3 bd c6 ec b1 bd 20 9b 7c bb
       -0.01942288 -0.09549934 -0.08687739 -0.003854461
000020 6b 0a 5c 3d 90 af 52 bd fa 3a 18 bd b0 39 26 3d
       0.053720873 -0.05143696 -0.03716562 0.04058236
000030 07 80 9d bd f7 c2 a0 3c 61 ad df bb 1d fb 77 3d
       -0.07690435 0.019624216 -0.0068260883 0.060542215
000040 62 38 91 bc f6 3f 25 3d 95 95 b8 bd c4 bb 55 3d
       -0.01772708 0.0403442 -0.090129055 0.05218102
000050 61 71 b2 bd ad a1 e9 bb de b6 03 bd 50 03 fb bb
       -0.087130316 -0.007129869 -0.032156818 -0.007660307
000060 8c 99 47 bd 38 c4 93 bd bb c3 00 3d 37 46 38 bd
       -0.048730418 -0.0721516 0.031436663 -0.044988837
000070 c1 47 ab bd 71 76 05 bd 24 b3 f1 3c 5e ba a8 3d
       -0.08363295 -0.032583658 0.029504366 0.08238672
000080 08 65 05 bd 01 e6 d2 3c d4 37 02 3d 21 f8 92 bc
       -0.032567054 0.02574444 0.031791523 -0.017940583
000090 6d 28 6e bd 69 8f a8 bd 28 15 8c 3c 46 f7 30 bc
       -0.05814402 -0.08230478 0.017099932 -0.010801142
0000a0 eb 9e 65 3d 91 25 2b bd 7b 58 19 3d f2 b4 ad bb
       0.05605976 -0.041783873 0.037437897 -0.0053011114
0000b0 82 fd 28 bd 4f 8a 47 3d 15 4d 5a bd f0 1c 23 3d
       -0.04125739 0.048715886 -0.053296167 0.03982252
0000c0 d7 a5 10 3c cc 8e db bc 3d d3 b0 3d 09 6a 91 3b
       0.008828602 -0.02680149 0.086340405 0.004437689
0000d0 59 ab a3 bd 37 8d 70 3d 47 d7 0d bc 38 5b 76 bd
       -0.07991666 0.058728423 -0.008657283 -0.060145587
0000e0 38 59 af 3c 1f a7 60 3c 65 0c 8c bd a2 0f 5c bd
       0.021404848 0.01371172 -0.068383016 -0.053725846
0000f0 36 26 de bc 27 cd 6f bc 5e 37 c3 bd e6 77 00 3d
       -0.02711783 -0.0146363145 -0.09532045 0.031364344
000100 77 8e 6b 3d 26 4c 93 bc 8c 65 49 bd 42 b3 6c 3d
       0.057508912 -0.017980646 -0.04916911 0.05778814
000110 4f a3 52 3d e1 b2 d4 bc 60 fe c5 3c 64 50 82 bd
       0.051425274 -0.025964202 0.024169147 -0.063629895
000120 e8 27 09 bd b7 1d 51 bd ac 6f 54 bd 09 3b 0f 3b
       -0.033485323 -0.05105373 -0.05186431 0.0021855256
000130 1e 29 9c 3d 04 57 a8 bd 16 ed a6 3d 6b e3 91 3d
       0.0762503 -0.08219722 0.08150689 0.07123455
000140 b1 89 89 3b e3 4b 5f 3d a2 e9 09 3d 0b a5 79 3d
       0.0041973223 0.05451573 0.033670075 0.060948413
000150 db ab c6 3d 2e 24 af 3d cb dd e7 bc 14 67 23 bd
       0.097007476 0.085518226 -0.028304001 -0.039893225
000160 9a 72 9a bd c9 ea 2a 3d 1f 76 2c 3d 98 85 d6 3c
       -0.0754139 0.041727815 0.042104837 0.02618675
000170 3c 5f a8 3c 8a 51 2c bd a1 c3 81 bd f5 0e 7f bd
       0.020553224 -0.04206995 -0.063361414 -0.062270124
000180 4d 7f ab bd 2d b8 9e bd 0d f6 a8 3d f0 79 7d 3d
       -0.0837389 -0.077499725 0.082500555 0.061883867
000190 6f 32 54 3d 10 57 91 3d 0e 15 8d 3d db 7b 9e 3b
       0.05180591 0.07096684 0.068887815 0.004836542
0001a0 3a 25 2b 3c 07 32 50 3d b3 1d 36 3d 14 d5 72 bd
       0.010445887 0.05082896 0.044461917 -0.05928524
0001b0 8a c5 e9 bc 16 da bd 3d 05 a3 82 3d 00 39 d4 3c
       -0.028536577 0.09270112 0.0637875 0.025906086
0001c0 21 27 cf bc 87 41 68 bc 4e 97 2b bc d2 f6 d1 3c
       -0.025287213 -0.014175779 -0.010473086 0.025630388
0001d0 8b 21 5b bd 00 fd b6 3d 47 6b 4a 3d 58 4a 01 bc
       -0.053498786 0.08934975 0.049418714 -0.00789126
0001e0 06 a1 8e 3d be da 2f 3d 05 1c 92 bd f7 31 20 3d
       0.069643065 0.04293322 -0.071342506 0.03911015
0001f0 57 de 12 3d af 4c 51 3d ac a2 90 bd 05 77 2e 3d
       0.03585657 0.05109852 -0.07062277 0.042593975
000200 35 48 cc 3c f8 5c a6 bd 39 7f f2 bb 53 c7 25 3d
       0.024936775 -0.08123201 -0.00740042 0.040473294
000210 fa 8f 95 bc 91 6f 92 3c 06 2d 75 bc 04 13 3b 3d
       -0.01825713 0.017875465 -0.014964348 0.04567243
000220 90 00 01 3d b7 64 98 bd 51 84 62 3d 61 8f 4a bd
       0.031494677 -0.07441085 0.055301968 -0.049453143
000230 5d 5f f2 bb 18 61 d1 bc 75 a2 89 3d b9 26 7a bb
       -0.007396622 -0.025558993 0.06720439 -0.0038170053
000240 bc 46 ef bc 5a 5f bc 3c 42 e2 0d bd d5 49 6a 3d
       -0.029208533 0.022994686 -0.034639604 0.057199318
000250 08 a5 8a 3d 5d fb c2 3d 93 b1 01 bd 67 46 de 3d
       0.067697585 0.095206 -0.03166349 0.10853272
000260 0b e4 d2 3d 17 e5 16 3d b8 6f 3a 3d 76 3c 38 3c
       0.10297402 0.03683957 0.0455167 0.011244884
000270 a1 87 bb 3d fc 5a 91 bd f3 9e 2c 3d a7 c7 3e bd
       0.091567285 -0.07097432 0.042143773 -0.046577122
000280 95 14 00 3d 32 ec a0 bd 1d 25 a9 3d b2 da 1f bd
       0.03126963 -0.07857551 0.08259032 -0.039026923
000290 6b 34 bf 3c a2 e2 3b 3c 82 fe a3 bd 6c ca 49 bb
       0.023340425 0.011467608 -0.08007528 -0.003079082
0002a0 b8 46 0c bd fb 05 8e bc 2d d9 8f 3d 5a 9f b0 3b
       -0.03424713 -0.017336836 0.07023845 0.00539009
0002b0 4d 9e 0c bd 27 92 93 bd 10 a5 88 3d 0f 6e 01 bc
       -0.034330655 -0.07205611 0.06672108 -0.007899775
0002c0 84 63 20 3d 78 dd af bb ac d3 69 3c 2c 25 7b bd
       0.039157405 -0.0053669773 0.014271658 -0.061314747
0002d0 63 df e0 bc af 7b 59 bd 4d 18 1d bd 98 e8 6e 3d
       -0.02745027 -0.05309647 -0.038353253 0.058327287
0002e0 e3 74 2e bd 1b ae 1b bb 62 03 a6 3d 78 87 89 3d
       -0.04259194 -0.0023754898 0.08106114 0.06715292
0002f0 48 66 76 3c 14 2f 6a bd 1c 16 be 3d 6d 15 0c bc
       0.015039034 -0.057173803 0.09281561 -0.00855003
000300 90 38 93 3d 1a c1 24 3d ee ac 90 bd 36 2e fb bc
       0.07188523 0.04022322 -0.07064234 -0.030661684
000310 77 db 46 3c 46 a2 76 3d 5f 62 52 bb fc 86 7d 3d
       0.012137285 0.06021335 -0.003210209 0.06189631
000320 33 ad 75 bd 32 aa a6 3c e7 51 94 bd e8 a2 3d 3d
       -0.05997963 0.020344827 -0.07242184 0.046297938
000330 55 e5 53 3d 6e ad 81 3d c1 00 b9 3b bc c6 44 bd
       0.05173238 0.06331907 0.005645842 -0.04804109
000340 13 4d 43 bd a4 15 f2 ba 38 c1 f0 bb 7c 7c 76 3d
       -0.047680926 -0.0018469584 -0.007347252 0.06017731
000350 9f d0 84 3c 37 c3 5e 3c 3e 1e ab 3d 28 16 f2 bb
       0.01621276 0.0135963475 0.083553776 -0.007387895
000360 1d 04 c8 bd 49 e6 ba bd 34 17 6d 3d ab 1e 94 3d
       -0.097664095 -0.09125955 0.057883456 0.07232412
000370 39 ec 89 3d 24 4f 19 bd 7d 71 42 3d 2b b2 88 bd
       0.06734509 -0.03742899 0.047471512 -0.06674608
000380 c5 03 db bc f5 67 7e bd e3 49 90 bd 2a 63 99 3c
       -0.026735196 -0.06211086 -0.07045343 0.018724043
000390 98 3e c6 bc aa e4 99 3c 69 fd 67 3d e9 b1 a7 3b
       -0.024199769 0.018785793 0.056638155 0.005117644
0003a0 a5 fe 90 bd f0 6c 93 3c 0a f9 a5 bd 56 aa a2 3d
       -0.070798196 0.017996281 -0.08104141 0.07942645
0003b0 99 22 90 3d 87 6c 27 bc 13 68 61 bc a5 1c b8 bc
       0.07037849 -0.010218746 -0.013757723 -0.022474596
0003c0 2a bb 20 bc 99 2b 8c bd 81 0d d6 3c d9 e2 6a bd
       -0.009810248 -0.06844253 0.026129486 -0.057345245
0003d0 6e 2e 8a bc 2d 33 ae 3c 07 49 c6 3d 73 f1 8c 3d
       -0.016867843 0.021264637 0.096818976 0.0688199
0003e0 5f 97 68 3c 94 65 96 3d 8b 55 91 bd 55 45 89 3c
       0.014196246 0.07343593 -0.07096394 0.016756693
0003f0 f5 29 2c 3d c7 08 4a 3d 7d 46 14 bd b6 26 a4 3c
       0.0420322 0.049324777 -0.036200035 0.02003799

weight_hh_l1 f4 [512, 128]
000000 72 f1 04 3c 81 cb 3f bd 58 75 66 bd dd 88 07 3d
       0.008114206 -0.046824936 -0.05626425 0.033089507
000010 9f b5 48 bc 7a 32 40 3d c2 84 8d bc a3 b8 69 bd
       -0.012250333 0.04692314 -0.017275218 -0.05706085
000020 ba 52 1b bd 48 72 8d bd ce 83 20 3d 6d ca 03 3d
       -0.03792069 -0.06906563 0.0391882 0.03217547
000030 19 dd 91 3d aa b9 56 3d cb 84 02 bd 2c e7 8e 3d
       0.07122249 0.052423157 -0.031864922 0.06977686
000040 8e e1 3c bb 41 d4 05 bd bc da 19 3d 4a b0 fc bc
       -0.0028820965 -0.032673124 0.037562117 -0.03084578
000050 9a 30 19 3d 03 65 52 3d ed 04 11 bd 54 c5 8a 3d
       0.037399866 0.051365864 -0.03540509 0.067759186
000060 20 49 a7 3d a7 5c 6d 3c db f9 0e 3d ea b6 a3 bd
       0.08168244 0.014487422 0.03490625 -0.079938725
000070 ee fb 1b bc eb 90 1a 3d c2 3e 67 bc 31 24 aa bd
       -0.009520514 0.03773586 -0.014114084 -0.08307684
000080 f1 1d 26 bc c6 a0 88 3d e0 0a d0 3c 54 61 2a 3d
       -0.0101389745 0.0667129 0.02539581 0.041596726
000090 d1 a2 a7 3b ba 42 4e 3d e8 28 bb ba ee d3 85 3d
       0.005115845 0.050356604 -0.0014279159 0.06534563
0000a0 d5 1e b4 3d e7 06 3d ba 97 be dd bc f3 76 28 3d
       0.08794943 -0.00072108064 -0.02706842 0.041129064
0000b0 12 85 2b 3c 80 0b ab bd ef 98 a1 3d 14 5d c2 bc
       0.010468738 -0.08351803 0.07890498 -0.023726024
0000c0 20 6f 99 bb dc ec c0 3d fc 92 99 bc fa 2c 16 3d
       -0.0046824366 0.09420177 -0.018746845 0.036663987
0000d0 98 6f c9 3b 21 9d 40 3d e8 30 b3 3d ac f0 9a bd
       0.006147336 0.04702485 0.087495625 -0.07565436
0000e0 fc 5c 13 bd 99 ae 4d bd dd 73 84 3c 7e 48 fd bc
       -0.03597735 -0.050215337 0.01616853 -0.030918356
0000f0 ce 1d 89 bd b1 bf 30 bc 57 31 eb bc e3 55 51 3d
       -0.06695138 -0.01078789 -0.02871005 0.0511073
000100 83 62 bc 3d 4b 6e 81 3d a5 7c 91 3d 6a 99 31 3c
       0.09198477 0.06319865 0.07103852 0.010839799
000110 6c de 2d bc 0b 2b cb 3d 1b a9 40 bc 59 fa c2 bc
       -0.010612112 0.09920319 -0.011759068 -0.023801016
000120 b5 79 ee 3d a7 7b 9d bd 50 65 2c bd 50 99 81 bd
       0.116443075 -0.076896004 -0.042088807 -0.0632807
000130 0b 70 84 bd 76 1b a8 bd d5 95 43 3c d4 17 08 bd
       -0.06466683 -0.08208363 0.011937578 -0.03322585
000140 ff 33 a2 bd cf 31 bb bd 92 ef 7b 3c d0 3c 56 3d
       -0.07920074 -0.091403596 0.015376942 0.05230409
000150 54 45 f4 3b 17 6c 47 3c 88 4f 97 3d 1d 44 ad 3c
       0.0074545536 0.012171767 0.07388216 0.021150643
000160 7c 6b 7b bd 88 a2 51 3d 20 54 c7 bc a2 77 05 bd
       -0.061381802 0.051180393 -0.024332106 -0.032584794
000170 8b ea 16 3d 43 44 54 bd 03 9b 13 3d e4 33 bc 3c
       0.03684477 -0.051822912 0.036036503 0.022973962
000180 b5 fa 9d bd 30 d2 97 3d c6 24 47 bd 4f a9 9a bd
       -0.07713834 0.07413137 -0.048619054 -0.07551824
000190 a9 6c 7f bd da 4a 16 bb af 92 6f 3d 64 76 a1 bd
       -0.062359486 -0.0022932799 0.058489498 -0.07883909
0001a0 4d 90 ec 3c 5c 7b f5 3c c4 24 72 3d ff 85 46 3c
       0.028877402 0.029966049 0.059117094 0.012116908
0001b0 ee 7f 8d bd 10 bc fb 3c e3 7d a1 3c bb a9 b1 3d
       -0.06909166 0.030729324 0.019713348 0.08674952
0001c0 46 52 b5 3d 8e b3 4d bd 1f 55 40 3d 12 46 96 bb
       0.08853583 -0.050220065 0.046956178 -0.0045859898
0001d0 42 9e a8 3c d6 b6 7e bd 69 43 72 bd d0 01 34 3d
       0.020583276 -0.062186085 -0.05914632 0.04394704
0001e0 7e d2 6b 3d 6c ec a4 bd 2b e1 fc 3c 63 f3 3e 3c
       0.057573788 -0.080529064 0.030869087 0.011654708
0001f0 29 90 df bc 59 ce 89 3d a5 93 36 bd 4a 70 8f 3d
       -0.02729042 0.06728811 -0.0445744 0.07003839
000200 10 ad 17 bd 6a 62 1d bc c9 c1 0d 3d cf 90 32 3d
       -0.03703028 -0.009605983 0.034608636 0.04359513
000210 56 92 83 bd 0b ff 49 bc da 2b 30 3d bd 13 ab 3c
       -0.06424396 -0.012328873 0.04301057 0.020883435
000220 3d 28 44 3c c0 ee a7 3d 22 6d 0a bd cc d8 8e bd
       0.011972484 0.08199835 -0.033795483 -0.069749445
000230 b4 ef 7f 3d f9 5b ae bd 4d bd 2c bd 22 90 72 3d
       0.062484458 -0.08513636 -0.04217272 0.059219487
000240 49 5d 99 3c 71 da 12 bd c5 d9 83 bc 76 17 3c bd
       0.01872124 -0.035852853 -0.016095052 -0.04592081
000250 3b 7d 9f bd 79 e8 6c 3c 26 4f 9d bd 50 33 45 bd
       -0.07787558 0.014459723 -0.07681112 -0.04814464
000260 e6 db d1 bc e8 8a 84 bd 38 20 04 bd 70 c9 60 3d
       -0.025617551 -0.06471807 -0.03225729 0.054879606
000270 50 e6 7f bc db 3c 6e 3d 11 38 97 bc a2 b6 5d bd
       -0.015618876 0.058163505 -0.018459352 -0.05412925
000280 1d 75 38 bd 4e 63 6b bc 50 63 9a bd 93 2c d0 3b
       -0.045033563 -0.014366938 -0.075384736 0.00635297
000290 1d 81 08 3d 01 c7 c2 bc 52 0d 78 3d 8e 9a 0f bc
       0.033326257 -0.023776533 0.06055958 -0.008764876
0002a0 66 7a e5 bc 6d 9f 2b bd 40 f3 d0 3d f4 fa b0 3d
       -0.028012466 -0.041900087 0.10202646 0.086416155
0002b0 f9 23 b9 3d 6c 9b 99 3b 60 80 66 bd b6 f0 81 bc
       0.09040064 0.004687717 -0.05627477 -0.01586185
0002c0 d6 56 2b bb 0a a7 dc bd 81 a0 6c bc f2 4a 41 3d
       -0.0026144288 -0.10774048 -0.014442564 0.047190614
0002d0 18 bc 22 bd 08 d6 fb 3b 4e bf 1d 3d ae 1e 52 3d
       -0.03973016 0.0076854266 0.03851252 0.05129879
0002e0 91 36 9f bb 23 49 15 3d d2 8e a3 bd 98 19 9a 3d
       -0.0048587997 0.0364467 -0.07986225 0.07524413
0002f0 b5 76 14 bd 49 bf 80 bd 24 42 c5 3c 43 f5 3b 3d
       -0.03624602 -0.06286485 0.02407939 0.045888197
000300 e6 7e 63 3c ea e0 eb 3c f8 63 d7 3c 7d ab b5 39
       0.013885235 0.02879377 0.026292786 0.0003465078
000310 78 9a 89 bd 7b 51 9e bc 92 59 2c bd b0 76 a7 bd
       -0.06718916 -0.019325962 -0.04207761 -0.08176935
000320 9d c2 6a bd b7 62 8b bd 56 b3 80 bd e6 a6 a8 bd
       -0.057314504 -0.06805938 -0.062842056 -0.08234958
000330 bd cf f7 bc 31 90 a2 3c 74 52 8d 3c f4 6e a7 3d
       -0.030250425 0.019844146 0.01725123 0.081754595
000340 ca 5b 94 bd 17 35 73 bd b9 00 d2 3c c0 b2 47 3d
       -0.0724407 -0.059376802 0.02563511 0.048754454
000350 38 49 0f 3d 21 4e 8a bd 31 dd b7 3c 4e 16 31 bc
       0.034981936 -0.06753183 0.02244434 -0.0108085405
000360 ce 99 35 3b 86 9f fe 3c 6b d8 dd 3c d5 38 f8 bc
       0.0027710083 0.031081926 0.027080735 -0.030300537
000370 15 cf 9c bd 0c e2 a7 bd cc 3e 3f bc 3c d5 b6 3c
       -0.07656685 -0.08197412 -0.011672687 0.022318475
000380 59 5a ab 3d 4f 15 4e 3a bc 0b f2 bc 28 71 80 bd
       0.08366842 0.00078614516 -0.029546611 -0.06271583
000390 c5 fe 7a 3d e0 bc 10 3c 19 61 33 3d b3 1d 8c bd
       0.061278123 0.008834094 0.04379377 -0.06841602
0003a0 3c 7d b9 bc e6 3a eb 3b 7f f1 83 3d 36 c1 b3 3d
       -0.022642724 0.007178652 0.06442546 0.087770864
0003b0 10 5b cf 3d 12 dc a1 3d 85 b3 ec bc a8 89 e9 bc
       0.10124791 0.07903303 -0.028894195 -0.028508022
0003c0 39 ba 72 3d 27 9c 62 3d 0a a9 69 39 f2 26 be 3b
       0.059259627 0.0553247 0.00022283584 0.0058029825
0003d0 7a 82 03 bd 48 9d a0 bd 5c 4f b3 bd 8d 70 ac 3c
       -0.032106854 -0.07842499 -0.08755371 0.021049762
0003e0 22 f8 8c 3c 6b 7d 76 bd ae e7 84 3d 61 a2 8c 3d
       0.017208163 -0.0601782 0.06489502 0.06866909
0003f0 ec 9e bc bc c6 6a 58 3b f0 5e 5e 3c 42 17 06 3c
       -0.023024999 0.0033022626 0.01357244 0.008184256

bias_ih_l1 f4 [512]
000000 8c 8d 89 3d 4a e8 87 3d ef 19 c4 bb 42 0b 56 bd
       0.06716451 0.066361025 -0.005984537 -0.05225683
000010 b3 73 10 3d 1d ad 2c bd 58 21 53 bd e3 12 bd 3c
       0.03526659 -0.04215728 -0.05154547 0.023080295
000020 8e 0e 9c 3d 5c e9 3b 3d 06 3a 59 3c c4 b2 28 bd
       0.076199636 0.045876846 0.013258463 -0.04118611
000030 eb f4 83 3d cb ee 5a bd fa ff 9c bd db 7f d9 bc
       0.06443199 -0.053450387 -0.07666011 -0.026550224
000040 4d 2e 3a 3d fa ec f0 3c 2e bb 82 bc 3c d1 7a bd
       0.045454312 0.029409874 -0.015958395 -0.061234698
000050 ca 31 9d 3d 2a 07 31 3d 58 ae 4f 3d 12 01 ab bc
       0.07675512 0.043219723 0.050703377 -0.020874534
000060 f3 b0 0a 3d 9e bc 03 bc ba ac c9 bc 7f 65 74 3d
       0.03386016 -0.008040575 -0.024618495 0.059667107
000070 73 73 86 3d c2 7b 28 bd 2b 3d af 3d 09 da 9f bd
       0.06564989 -0.04113365 0.08556589 -0.07805259
000080 f4 0b bb 3c a2 06 a3 3d e4 6e 94 bd 11 57 3c 3d
       0.022832848 0.079602495 -0.07247713 0.04598147
000090 29 20 a1 3d 58 92 0f 3d 2a bb 62 3d 5c 0b 65 3c
       0.07867462 0.035051674 0.055354275 0.013979759
0000a0 cb 88 43 3d 31 ac 2e bd 59 b9 07 bb 6c 54 81 3d
       0.047737878 -0.042644683 -0.002070984 0.0631493
0000b0 18 87 18 bd ac 78 01 bd aa a6 33 3d 45 20 1b bd
       -0.03723821 -0.031609222 0.043860115 -0.03787257
0000c0 0c 1d 85 bd 42 ef 5e 3d 14 6a e7 3c 4a 8c ca bd
       -0.06499681 0.054427393 0.028248824 -0.09890039
0000d0 cd 9e 70 bb 57 d2 60 bd d2 8c 8c bd 95 84 06 bc
       -0.0036715746 -0.054888096 -0.06862797 -0.008210321
0000e0 0f 56 83 3a d8 1d 9a bd e4 ea 1f 3d f9 41 8a 3d
       0.0010020154 -0.075252235 0.03904237 0.067508645
0000f0 4c d0 7c 3d 28 c2 f8 bc ea d8 a9 bb 79 12 de 39
       0.061722085 -0.030366018 -0.005183329 0.00042356903
000100 7d 09 d3 3c e2 70 5c bd eb 4b 8d bd ef d4 f3 bb
       0.02576136 -0.05381859 -0.06899246 -0.007441155
000110 2d b3 c5 3b de 27 b9 bd 74 97 97 3d 11 6c 67 3d
       0.0060333223 -0.09040807 0.07401934 0.056499545
000120 35 20 58 3c 1d c2 46 bd db 99 bb bd 34 aa 53 3d
       0.0131912725 -0.048524965 -0.09160205 0.05167599
000130 4b 98 1f 3c 05 8c 06 bd 11 82 c7 3c f7 05 90 bd
       0.009740899 -0.032848377 0.024354013 -0.07032388
000140 22 ef 60 3d 93 7d fd bc 15 e3 cc bd 0e 15 bf bc
       0.054915555 -0.030943668 -0.1000425 -0.02332547
000150 6a c6 b4 3c ed 7a 72 bd cf 33 92 3d 13 5e 65 bc
       0.022067267 -0.059199262 0.07138788 -0.01399948
000160 c1 7b a2 bd 73 43 b4 3d 36 9b 32 3d 88 06 b4 3c
       -0.079337604 0.088019274 0.043605052 0.02197577
000170 1b 09 6a 3d 07 37 1e 3d 8b 55 92 bb b4 d1 76 3b
       0.05713759 0.038626697 -0.004465764 0.0037661614
000180 1b 79 30 bd 67 9a 38 bd 22 b9 96 bd 74 28 94 bc
       -0.043084245 -0.045069125 -0.0735953 -0.018085696
000190 f2 ba 65 3d 70 a8 bd bb e1 6f 7e 3d f9 27 a0 3c
       0.056086488 -0.0057879016 0.062118415 0.01955031
0001a0 a4 79 7d bd 4a 0a 77 3c 83 c7 09 bb 17 5d 48 bd
       -0.061883584 0.015078137 -0.002102346 -0.048916902
0001b0 1e ec a3 bd 93 1b 36 bd 38 82 00 3d f6 a2 b0 bc
       -0.0800402 -0.04445989 0.031374186 -0.02156208
0001c0 17 72 dc 3c 64 c4 a6 bd 14 ab 9b bd 9a 28 3c 3c
       0.026909871 -0.08142927 -0.0760099 0.01148429
0001d0 c7 37 54 bc 03 08 b5 3d 1c fe 21 3d 7a df 4d bd
       -0.0129527515 0.08839419 0.03954898 -0.050261952
0001e0 ef 86 81 3c 14 d1 b3 bd 4d 24 c7 bc 2e a7 a9 3c
       0.015811412 -0.08780113 -0.024309302 0.0207096
0001f0 c6 25 b5 bd b6 33 70 3d 6c d2 62 3d 95 0d 15 3b
       -0.08845095 0.058643065 0.055376455 0.0022743691
000200 79 06 13 bb 19 51 93 3d a5 0e bb bd 50 81 b9 bd
       -0.0022434278 0.071932025 -0.091336526 -0.090578675
000210 e1 3d 5a bd ba 07 80 bd 4a a1 58 bd 1a e5 c3 3c
       -0.05328167 -0.06251474 -0.052888192 0.023912955
000220 30 d4 2a bd 82 22 a0 3d c6 dc 84 3c f4 55 9d bd
       -0.041706264 0.07819082 0.016218554 -0.0768241
000230 bc bf 93 3d 58 5a 77 3d 9b 8e 5c bc 1c 5f 6f bd
       0.07214305 0.060388893 -0.013461734 -0.058440313
000240 e5 12 c6 3c d1 e3 30 bd 76 1d 9f bc f0 8d 7d 3d
       0.024178931 -0.043186013 -0.019423228 0.06190294
000250 c6 a8 11 bc a4 16 c2 bd 9a 4b b7 bc 0e d2 07 bd
       -0.008890336 -0.094769746 -0.022374917 -0.033159308
000260 23 52 56 bd 85 b1 0c bd 37 38 7c 3d ec c0 58 bd
       -0.052324425 -0.034348983 0.06157705 -0.05291836
000270 53 7a 65 3d 26 23 8e 3d 76 b2 30 bc cf bf 9b 3d
       0.05602486 0.06940298 -0.010784736 0.07604944
000280 64 84 14 3d ac 9b 90 bd 05 1f f1 bb 58 de c8 3c
       0.03625907 -0.07060942 -0.007358434 0.024520084
000290 02 fa 45 bd c8 c6 38 3d b4 58 17 bd 16 56 25 bb
       -0.04833413 0.045111448 -0.03694983 -0.0025228313
0002a0 ab 84 a8 bd 93 ea 4b 3d b2 66 ca 3c 10 ed 2b 3d
       -0.082284294 0.049784254 0.024707172 0.041974127
0002b0 99 52 9a 3c c9 46 d5 3c dd 9d 97 bb 0c 42 71 bc
       0.018838214 0.02603473 -0.004626973 -0.014725219
0002c0 70 1d 77 3d 0b 6a 4c 3d 44 2d 14 3c e1 e3 00 3d
       0.06033081 0.049905818 0.009043995 0.031467322
0002d0 b4 e6 0e bd d1 2f c8 bc c1 24 85 bc 5a c4 ac bd
       -0.034887984 -0.024436863 -0.016252877 -0.084358886
0002e0 67 bf 27 bd fc e2 2c bc 14 77 50 3d 12 08 85 bc
       -0.04095402 -0.010552164 0.05089481 -0.0162392
0002f0 a6 ee 8f bd 70 b7 16 bd ed 11 64 37 d9 ad aa bd
       -0.070279405 -0.036796033 1.3594033e-05 -0.0833394
000300 ad 51 ae bd b3 db 36 ba 9b 91 97 bc 89 51 2a 3d
       -0.08511672 -0.0006975487 -0.018502047 0.041581664
000310 b7 40 96 bd 2f 00 9d bd f6 84 59 bd 02 3a 7f 3d
       -0.07336562 -0.07666051 -0.053105317 0.06231118
000320 19 02 44 bb 53 b0 57 bd 93 7a 34 bd db c4 95 bc
       -0.0029908477 -0.05265839 -0.04406221 -0.018282345
000330 ba 26 8e 3d 6a cd af 3c c0 1e 4e bd e1 80 67 bd
       0.0694098 0.021460254 -0.050322294 -0.056519393
000340 83 11 cb bd 0b e1 e5 bc bd 59 e1 bd 99 05 b3 bc
       -0.099154495 -0.02806141 -0.11003444 -0.021853255
000350 3f 66 e8 bc b6 a2 53 3d ef c3 b2 3c 1a 33 98 bc
       -0.028369067 0.051668845 0.021821944 -0.018579055
000360 a3 56 fb 3a 99 c3 46 3d 66 1c 82 3c 01 36 28 3d
       0.00191756 0.04852638 0.015882682 0.041067127
000370 40 ad b7 bc 31 8d 38 3d 6c e3 b4 bd 74 aa bf 3c
       -0.02242148 0.045056526 -0.0883244 0.023396708
000380 16 1f 3b bd 8f 8c 42 bd b9 e0 5d bd a2 6f d7 3d
       -0.045683943 -0.04749733 -0.05416939 0.10519339
000390 30 ca 9b 3d 37 54 3a bd 38 86 bd bd 3e cf 85 3d
       0.076069236 -0.04549047 -0.09254116 0.06533669
0003a0 18 42 1a bc e7 05 55 3d d1 0c 99 bc cb 33 05 bd
       -0.009415172 0.052007582 -0.01868287 -0.032520097
0003b0 5d cf 04 3c 3b 8b 1b 3c f8 99 01 3c ef 65 b2 bd
       0.00810608 0.009493644 0.007910244 -0.087108485
0003c0 f7 26 6e bd 14 e7 a9 bd 26 73 67 3d da cf 85 3d
       -0.05814263 -0.08296028 0.0565063 0.06533785
0003d0 80 e8 b1 bd a5 42 76 bd 12 dd 85 bd 79 69 a9 bd
       -0.08686924 -0.06012215 -0.065363064 -0.082720704
0003e0 7c 03 01 3d d8 e4 32 3c 89 1b 6a bd 46 19 0b 3d
       0.031497464 0.010918818 -0.057155166 0.03395965
0003f0 ef 3a aa bd 68 9f 98 bd cb d2 18 3d 35 04 c4 3c
       -0.08312022 -0.07452279 0.037310403 0.023927787
