models/LSTM_mse_foot_epochs10.pth (torch, 807022 bytes, 10 tensors)

lstm.weight_ih_l0 f4 [512, 4]
0	0xbcad5ac8	-0.021161452
1	0xbe1ed4be	-0.15510842
2	0xbd4d618c	-0.050141856
3	0xbe582082	-0.21106151
4	0xbdd2ecf1	-0.10299099
5	0xbe8d5a3f	-0.27607915
6	0x3cf4a1aa	0.029862244
7	0xbcc6b1bd	-0.024254674
8	0x3edff6c1	0.43742946
9	0xbe2a2f90	-0.16619706
10	0xbec92246	-0.3928396
11	0xbcf9aad6	-0.030476969
12	0x3dccfd13	0.100092076
13	0x3f239c8d	0.6391075
14	0x3ddf9a54	0.10918108
15	0xbf6118ce	-0.87928474
16	0xbe772dcf	-0.24138568
17	0xbebbdb95	-0.36690965
18	0xbf3b1838	-0.7308383
19	0x3f35262a	0.7076136
20	0x3e6ea97d	0.23306842
21	0xbe24ae1c	-0.16082042
22	0xbdad91e8	-0.08475095
23	0xbd9e2f88	-0.077239096
24	0x3e408fb4	0.18804818
25	0xbe36e166	-0.1785942
26	0x3db77842	0.08958484
27	0x3dc783cb	0.097419344
28	0x3f0b7331	0.54472643
29	0xba74f007	-0.0009343628
30	0xbf521fa0	-0.82079506
31	0x3c254902	0.010088207
32	0x3e4fae0e	0.2028124
33	0xbd2f4042	-0.04278589
34	0x3eb927fc	0.36163318
35	0x3da870a0	0.082246065
36	0x3d9da414	0.07697311
37	0x3ce8c55e	0.028414425
38	0xbd917bca	-0.07103689
39	0xbe5ecdde	-0.2175822
40	0xbc4f68de	-0.01265928
41	0x3ec84105	0.39112106
42	0x3c3af663	0.011411282
43	0xbea5915b	-0.3233746
44	0xbdd5959c	-0.10428926
45	0xbdb421dc	-0.08795521
46	0xbc715e38	-0.014731936
47	0x3d8eab13	0.069662236
48	0xbd9fb6e8	-0.077985585
49	0xbd88a38e	-0.066718206
50	0x3d949f6a	0.07256968
51	0xbd840f8b	-0.06448277
52	0xbc957861	-0.018245878
53	0xbc9a722b	-0.018853268
54	0xbd4b0448	-0.04956463
55	0x3d14d629	0.03633705
56	0x3bdd66a8	0.0067566223
57	0xbdc02b9b	-0.09383317
58	0xbe034c59	-0.12822093
59	0x3da6eba5	0.081504144
60	0x3cc444fd	0.023958677
61	0xbe7917cb	-0.24325483
62	0x3d2380f5	0.039917905
63	0x3ea16b3b	0.31527123
64	0x3d21f613	0.039541315
65	0xbe09f62b	-0.13472812
66	0xbcff99c1	-0.031201245
67	0x3d948f9e	0.07253955
68	0xbddf2a3f	-0.1089673
69	0xbe77594a	-0.24155155
70	0x3d2095fd	0.03920554
71	0x3cb71fac	0.02235397
72	0xbeab6b4a	-0.33480293
73	0x3eac0c34	0.3360306
74	0xbf2f6241	-0.685093
75	0x3ee456dd	0.4459752
76	0xbec2e74d	-0.38067093
77	0x3ee378a8	0.4442799
78	0xbcdc474f	-0.026889471
79	0x3e5ce99b	0.21573488
80	0x3eaae2c5	0.33376136
81	0xbd4caa89	-0.049967322
82	0xbeba256e	-0.36356682
83	0x3e444d45	0.19170101
84	0x3ddc285b	0.10749885
85	0xbdb9331a	-0.0904295
86	0x3e5cbbf2	0.2155607
87	0xbe641b07	-0.22275935
88	0x3f079e2b	0.5297572
89	0xbf134110	-0.5752115
90	0xbe66fb30	-0.22556758
91	0xbe8cb1d6	-0.27479428
92	0xbe861d13	-0.26194057
93	0x3ddfc018	0.10925311
94	0x3ce1836c	0.027528487
95	0xbca1cbd7	-0.019750519
96	0xbca4abc5	-0.020101437
97	0xbdc22828	-0.094803154
98	0xbea9cb36	-0.3316285
99	0x3f03066c	0.51181674
100	0x3deaef62	0.1147144
101	0x3f198a6f	0.5997686
102	0xbeecea4f	-0.46272513
103	0x3ee89408	0.4542544
104	0xbdc23132	-0.094820395
105	0x3d398952	0.045296974
106	0xbeeaa090	-0.45825624
107	0x3e309e3d	0.17247863
108	0xbcce0576	-0.025149088
109	0x3e9812a7	0.2970173
110	0x3e354074	0.17700368
111	0xbeb4b25c	-0.35292327
112	0x3f345537	0.7044253
113	0xbce99c58	-0.028516933
114	0x3e4d8bfb	0.2007293
115	0xbed91611	-0.42399648
116	0xbd2910fa	-0.041275956
117	0xbe13ea7b	-0.14444916
118	0x3ba43a87	0.00501186
119	0xbc535ec8	-0.012901016
120	0x3f16b56f	0.58870596
121	0x3dce4e81	0.10073567
122	0xbf016ba8	-0.50554895
123	0x3e4f3c88	0.20237935
124	0xbe622e95	-0.22088082
125	0x3dc88e8e	0.09792815
126	0x3e57281c	0.21011394
127	0xbde308ea	-0.110856846
128	0xbc80b5ae	-0.015711632
129	0xbf42e4a5	-0.76130134
130	0x3ef34f3f	0.47521397
131	0x3ec57810	0.38568163
132	0x3d5f436f	0.05450767
133	0x3dd3d5b3	0.10343494
134	0x3e986687	0.29765722
135	0x3c33c700	0.010972738
136	0x3be1425b	0.0068743653
137	0xbdd88ae2	-0.10573365
138	0xbd85fca1	-0.06542326
139	0xbce2bf37	-0.027679069
140	0xbf15282f	-0.5826444
141	0xbd8cfdfa	-0.0688438
142	0x3e43505f	0.19073628
143	0xbeb7f16f	-0.35926387
144	0xbd6a0682	-0.057135113
145	0x3e59cdd3	0.21269922
146	0x3d4d709d	0.050156225
147	0xbddb65fb	-0.107128106
148	0x3ed86104	0.42261517
149	0x3f4ebc8a	0.8075644
150	0x3f123790	0.5711603
151	0xbe4a14e4	-0.19734532
152	0xbe1f10e9	-0.15533794
153	0xbdf79cc8	-0.120904505
154	0xbe6cbed8	-0.23119676
155	0xbdc800d7	-0.09765785
156	0x3e048981	0.12943079
157	0x3e06044c	0.13087577
158	0xbe70f0fa	-0.23529425
159	0xbe1094e3	-0.14119296
160	0x3cb8d2bf	0.022561429
161	0xbe05dc65	-0.13072355
162	0x3d23d86a	0.04000131
163	0xbe74eaba	-0.23917666
164	0xbdc7e463	-0.09760358
165	0x3ee8f163	0.45496663
166	0x3ee399a2	0.4445315
167	0xbe98884e	-0.29791492
168	0x3ccabcb4	0.024748184
169	0xbdfbf4a4	-0.12302521
170	0x3ee1849f	0.44046494
171	0xbd35abcd	-0.044353295
172	0x3c29b529	0.010358133
173	0x3dc64310	0.0968076
174	0x3eaab284	0.33339322
175	0xbd11c668	-0.035589606
176	0x3d18d7c6	0.037315153
177	0xbd2a58a5	-0.041588444
178	0xbe720431	-0.23634411
179	0x3ebc555d	0.36783877
180	0x3dddee52	0.108364716
181	0xbe83acb1	-0.2571769
182	0xbeabdb97	-0.3356597
183	0x3dd78deb	0.105251156
184	0xbf024b0d	-0.5089577
185	0x3f636f25	0.8884147
186	0x3e58cbf5	0.21171553
187	0xbf68a615	-0.9087842
188	0x3e9158ef	0.28388163
189	0xbf2dc77b	-0.6788251
190	0x3e4f4b7b	0.20243637
191	0x3ed40d32	0.41416317
192	0xbe03643e	-0.12831208
193	0x3e464421	0.19361927
194	0xbd05887e	-0.032600872
195	0xbe33df9f	-0.17565773
196	0x3c09ddf6	0.008414736
197	0x3dc52376	0.09625904
198	0x3ddabb02	0.106802
199	0xbe4bd936	-0.19907078
200	0xbda4d3db	-0.08048221
201	0xbf45f95f	-0.77333635
202	0x3f06d8ac	0.52674365
203	0x3e037dbd	0.12840934
204	0xbe867d82	-0.2626763
205	0xbb9ff62d	-0.0048816414
206	0xbd90bac9	-0.070668764
207	0xbe865847	-0.26239225
208	0xbdbcea09	-0.09224326
209	0xbdbc90c5	-0.092073
210	0xbdcb0afc	-0.099142045
211	0x3d1f1714	0.03884037
212	0x3c629413	0.013829249
213	0xbdccab71	-0.09993637
214	0xbde4bca5	-0.111687936
215	0xbda2c411	-0.07947553
216	0x3d434a03	0.047678005
217	0x3b0e4a6d	0.0021711842
218	0xbe471aa3	-0.19443755
219	0xbe3ae931	-0.18253018
220	0xbea91c6e	-0.33029503
221	0x3e980f16	0.2969901
222	0x3d684aef	0.056712087
223	0x3e723578	0.23653209
224	0xbe923e9f	-0.285634
225	0x3ea25769	0.31707314
226	0x3d10f161	0.035386447
227	0x3e293403	0.16523747
228	0x3dda9b23	0.10674121
229	0xbe062528	-0.13100111
230	0x3db2d4a2	0.08731963
231	0x3e1e9d98	0.15489805
232	0x3e3c6f58	0.1840185
233	0x3d4b5abe	0.049647085
234	0xbed9e282	-0.42555624
235	0xbd8c35bb	-0.06846186
236	0x3eaf74fe	0.34268945
237	0xbe8fc39c	-0.28078926
238	0xbeb6d12f	-0.3570647
239	0xbe217501	-0.1576729
240	0x3d98064a	0.074230745
241	0x3e70061d	0.23439832
242	0x3e8cd500	0.27506256
243	0xbefc872f	-0.49321887
244	0x3e34bf9d	0.1765122
245	0x3ee33d9a	0.44382936
246	0xbf05344b	-0.5203292
247	0x3f171982	0.59023297
248	0x3c36d127	0.011158264
249	0x3e0e1094	0.13873512
250	0x3e82102a	0.25402957
251	0xbe598fda	-0.21246281
252	0xbccf2c54	-0.025289692
253	0x3e2e3818	0.17013586
254	0xbdb2bb27	-0.08727103
255	0xbe9d6e17	-0.30748054

lstm.weight_hh_l0 f4 [512, 128]
0	0xbd31b65d	-0.043386806
1	0xbd825c00	-0.06365204
2	0xbd6c7a69	-0.057733927
3	0xba9da6df	-0.0012027881
4	0x3d83c6b5	0.06434385
5	0xbd892a17	-0.06697481
6	0x3db8b56c	0.090189785
7	0xbe202cd6	-0.15642104
8	0x3a8c5fd9	0.0010709717
9	0xbe542251	-0.20716216
10	0xbba9d22b	-0.0051825247
11	0x3d912780	0.07087612
12	0xbc004fd9	-0.007831537
13	0xbb9bf20c	-0.004759079
14	0x3d14eabd	0.036356676
15	0xbdebd575	-0.11515323
16	0xbd542304	-0.051791206
17	0x3cc4da74	0.024029948
18	0x3df0db2c	0.11760554
19	0xbd65b261	-0.05607832
20	0x3c855961	0.01627797
21	0xbd1819a2	-0.03713382
22	0x3db83c3c	0.08995864
23	0x3d89b122	0.067232385
24	0xbdc7a8ff	-0.0974903
25	0xbdf433d4	-0.11923948
26	0xbddef7f8	-0.1088714
27	0x3d01e592	0.031713076
28	0xbdc5021f	-0.09619545
29	0xbdc1f63d	-0.09470794
30	0x3d9286d6	0.07154624
31	0x3d202566	0.039098166
32	0xbd674ab2	-0.05646772
33	0x3dab9de4	0.083797246
34	0x3d0cd200	0.03437996
35	0x3b3ce099	0.0028820394
36	0xbe5f9117	-0.21832691
37	0x3d4a28ae	0.0493552
38	0xbcc440c3	-0.023956662
39	0xbcbc52d5	-0.022988716
40	0xbd04c815	-0.032417376
41	0x3da739d6	0.08165328
42	0x3defe950	0.11714423
43	0x3ce9ba74	0.02853129
44	0x3d1bb9d7	0.038019028
45	0xbcd8758c	-0.026423238
46	0x3d401fcf	0.046905335
47	0x3d5b014c	0.053468034
48	0xbd86ed97	-0.065882854
49	0xbd6820ea	-0.056672014
50	0x3d80130a	0.062536314
51	0x3a82d289	0.0009980957
52	0xbca9b02f	-0.020713894
53	0x3dddbd83	0.10827162
54	0x3ceb0901	0.028690817
55	0x3dab44d1	0.08362735
56	0xbde238b7	-0.11045974
57	0xbc70108f	-0.014652385
58	0xbd1fd76c	-0.0390238
59	0x3d4cb0f9	0.04997346
60	0x3c972315	0.018449346
61	0xbe00fc3e	-0.12596223
62	0x3e000a47	0.1250392
63	0x3d37d112	0.04487712
64	0x3df0f561	0.11765552
65	0x3baa20b3	0.0051918863
66	0x3cd79e5f	0.026320634
67	0xbcff9170	-0.03119728
68	0x3e13e296	0.14441904
69	0x3b983c59	0.004645866
70	0x3dcabce7	0.098993115
71	0x3d7b47a6	0.061347626
72	0xbc8a09f2	-0.016850445
73	0xbe079772	-0.13241366
74	0xbd8a06e1	-0.06739593
75	0xbe132cfe	-0.14372632
76	0x3cc7c3bf	0.024385331
77	0x3d3198a1	0.04335845
78	0xbd8946f7	-0.067029886
79	0x3d6c8599	0.057744596
80	0x3d9d0451	0.07666839
81	0xbdd0fa4c	-0.1020399
82	0x3cf065a9	0.02934535
83	0xbdd694d5	-0.10477606
84	0x3e061913	0.13095503
85	0x3c9ea3df	0.01936525
86	0xbd8f8b0d	-0.07008944
87	0xbcd030ff	-0.025413988
88	0xbdbcdd64	-0.092219144
89	0x3d066086	0.032806896
90	0x3d184b37	0.037181105
91	0x3be8924e	0.007097519
92	0xbceba2a6	-0.02876408
93	0x3d8b7e53	0.06811204
94	0x3c8887f8	0.016666397
95	0x3cde6261	0.02714652
96	0x3d97f5c1	0.07419921
97	0x3cb883cb	0.022523781
98	0x3e22d7f0	0.15902686
99	0x3cb45219	0.022011803
100	0x3cc82b00	0.024434566
101	0x3d4709ab	0.048593204
102	0xbd58fb44	-0.052974
103	0xbd336e5b	-0.043806415
104	0x3c46e0be	0.012138544
105	0xbe138589	-0.14406408
106	0x3bc88f5e	0.0061206063
107	0xbd7742f6	-0.060366593
108	0x3d9b5f05	0.07586483
109	0x3c8acfc6	0.016944777
110	0x3da8ec46	0.082481906
111	0x3c434ee4	0.011920664
112	0x3de4caf7	0.11171525
113	0xbc98338b	-0.018579265
114	0x3db60e4f	0.08889448
115	0x3d6dc31c	0.0580474
116	0x3d1d4699	0.038397405
117	0x3c82c033	0.015960788
118	0xbdf03f08	-0.11730772
119	0xbd124a94	-0.035715654
120	0x3de451b1	0.11148394
121	0xbd834ea9	-0.064114876
122	0xbd280e4f	-0.04102927
123	0xbdb6d369	-0.08927042
124	0x3ca15d2b	0.019697746
125	0xbd85eb80	-0.06539059
126	0xbd022695	-0.031775076
127	0x3dac11f5	0.084018625
128	0x3ca6940c	0.020334266
129	0xbce7fed5	-0.028319756
130	0xbd54914c	-0.05189638
131	0x3d5b0967	0.053475764
132	0xbcd6b54f	-0.026209502
133	0xbd5b2409	-0.053501163
134	0xbde6196a	-0.11235316
135	0x3ddc4d3a	0.10756917
136	0x3ddf2825	0.10896329
137	0x3d7e94a8	0.06215349
138	0x3b079218	0.0020686444
139	0xbcc84665	-0.02444763
140	0x3c3f21c9	0.01166577
141	0x3da8e432	0.0824665
142	0xbcc58d7a	-0.024115313
143	0x3ce0bbbf	0.027433274
144	0x3cbe8aef	0.023259608
145	0xbb70bd06	-0.003673376
146	0xbd48e940	-0.04905057
147	0x3d54ada9	0.051923428
148	0x3dbf4f9c	0.09341356
149	0xbd6fcedc	-0.058546886
150	0x3d4ac32f	0.049502548
151	0x3cf8756b	0.030329427
152	0xbcf64607	-0.030062689
153	0xbe04e619	-0.129784
154	0x3dc8cbcc	0.09804496
155	0xbd0693da	-0.032855846
156	0xbc646002	-0.013938906
157	0x3d8adc7f	0.067803375
158	0x3be95d49	0.007121716
159	0x3dab27c6	0.083571956
160	0x3d2340b1	0.039856616
161	0x3d474fb9	0.048660014
162	0xbcc8b0f1	-0.024498435
163	0x3ca8092b	0.020512184
164	0xbd56067b	-0.052252274
165	0xbda08510	-0.0783788
166	0xbc22cc10	-0.009936348
167	0xbcc66b17	-0.024220986
168	0xbd3df378	-0.046374768
169	0xbdc5f4a0	-0.09665799
170	0xbdd9ad61	-0.106287725
171	0x3c7531eb	0.014965515
172	0xbc3e6e0e	-0.011622919
173	0xbd5c45ab	-0.053777378
174	0xbd5763d4	-0.052585438
175	0x3dad42b9	0.08459992
176	0xbcb13f25	-0.021636555
177	0x3c59e388	0.013298877
178	0xbdafa91a	-0.085771754
179	0x3d1bdeaa	0.038054146
180	0xbd82bd5f	-0.06383776
181	0x3c953aea	0.018216569
182	0x3d2ddaca	0.04244498
183	0x3c2513a2	0.010075482
184	0xbce4447f	-0.027864693
185	0x3c39380d	0.011304867
186	0x3e11954f	0.14217113
187	0x3d87dfd9	0.066344924
188	0xbdf58823	-0.11988857
189	0x3ce9ffb1	0.028564306
190	0xbd2bd46d	-0.041950632
191	0xbb654b9f	-0.00349877
192	0x3d69bf54	0.05706723
193	0x3c9cd1cc	0.019143008
194	0xbd8eab5a	-0.069662765
195	0x3cac384e	0.021022942
196	0xbd068a32	-0.032846637
197	0x3cf16abf	0.029469846
198	0x3b44750f	0.0029977
199	0x3c46991e	0.012121467
200	0xbd0b3771	-0.03398842
201	0xbdc33935	-0.09532396
202	0xbbd6c444	-0.0065541584
203	0x3ccfa223	0.025345867
204	0x3df862cf	0.12128221
205	0x3aabe264	0.0013113734
206	0xbcc6d2c3	-0.02427042
207	0x3dad7443	0.08469441
208	0x3d435694	0.04768999
209	0xbd6b52bb	-0.057451945
210	0xbb58731e	-0.00330276
211	0xbd1e88ca	-0.03870467
212	0xbe048d26	-0.12944469
213	0x3d342794	0.043983057
214	0xbd917e1e	-0.07104133
215	0x3c5186d8	0.012788497
216	0x3d948045	0.07251028
217	0x3b4dad25	0.003138372
218	0xbd23fb6f	-0.040034708
219	0x3d50a6de	0.050940387
220	0xbd4ad094	-0.04951532
221	0xbca88250	-0.02056995
222	0x3d862309	0.06549651
223	0xbd56b2cd	-0.05241661
224	0x3d804a3c	0.06264159
225	0xbd9916ce	-0.07475053
226	0x3dbbcc4b	0.09169825
227	0xbcbabef5	-0.022796134
228	0x3d02899d	0.03186952
229	0xbd9dda3f	-0.07707643
230	0x3d21db51	0.039515797
231	0xbdec55ef	-0.11539828
232	0xbdddea9c	-0.10835764
233	0x3cd9301a	0.026512194
234	0xbc09b621	-0.008405239
235	0x3ca927bf	0.020648835
236	0x3d995b8b	0.074881636
237	0x3d36f57b	0.044667702
238	0x3d0f9957	0.035058346
239	0xbd4371bf	-0.0477159
240	0xbd1837c4	-0.037162557
241	0xbd81f468	-0.06345445
242	0x3da29761	0.079390295
243	0x3d78fb25	0.060786385
244	0x3d04b72a	0.03240124
245	0xbc4b5e7e	-0.012412665
246	0xbd2cf4c7	-0.042225625
247	0x3cc8c0f4	0.02450607
248	0xbd54783e	-0.051872484
249	0xbc7b9353	-0.015354949
250	0x3bfb53fd	0.0076699243
251	0x3c828ad6	0.015935343
252	0x3db0b1de	0.086276755
253	0xbd3bbe4e	-0.045835786
254	0x3d5756c3	0.052572977
255	0x3d827b2a	0.06371148

lstm.bias_ih_l0 f4 [512]
0	0xbf859488	-1.0435953
1	0xbf91754e	-1.1363924
2	0x3ae09b00	0.0017136037
3	0xbe6bb4d2	-0.23018196
4	0x3dd514d5	0.10404364
5	0xbf22dcb0	-0.6361799
6	0xbf6cf643	-0.92563266
7	0xbcc3ae9f	-0.023886977
8	0xbf2c1af3	-0.6722862
9	0xbe807389	-0.25088146
10	0x3c2a737e	0.010403512
11	0x3efde68b	0.49589953
12	0xbe60ed59	-0.21965541
13	0xbf82cd6f	-1.0218943
14	0xbf823d8e	-1.0175035
15	0xbf434e99	-0.76291806
16	0xbf72ba21	-0.9481526
17	0xbf7d02c7	-0.9883236
18	0xbe7af9fc	-0.24509424
19	0xbcd75e87	-0.026290191
20	0xbf108937	-0.56459373
21	0xbf594702	-0.84873974
22	0x3ed9aba5	0.42513767
23	0xbf780955	-0.9688924
24	0x3e2f2bc1	0.17106535
25	0x3eb39648	0.35075593
26	0x3e4225dd	0.18959756
27	0x3e07bdc3	0.13255982
28	0x3eb3ee45	0.35142723
29	0xbf549f28	-0.83055353
30	0xbec7ca87	-0.39021704
31	0xbf4aacbd	-0.7916983
32	0xbee29fc3	-0.44262514
33	0x3e50d829	0.20394959
34	0xbf890ad2	-1.0706427
35	0xbf8aae71	-1.0834485
36	0x3f78d611	0.9720164
37	0x3e3609fe	0.17777249
38	0xbf4fc44c	-0.811589
39	0xbf253308	-0.6453099
40	0xbf7b5dd6	-0.9819006
41	0x3d4ae80a	0.049537696
42	0xbaa01d78	-0.0012215814
43	0x3f77fa4b	0.9686629
44	0xbd34a8ab	-0.044106167
45	0xbf2e6ea7	-0.6813759
46	0xbdcd6774	-0.10029498
47	0xbf1f4293	-0.6221096
48	0xbf7bb651	-0.9832507
49	0xbefa20b7	-0.48853084
50	0xbe398436	-0.1811684
51	0xbf6046d3	-0.8760807
52	0xbf9a38aa	-1.2048542
53	0xbf909ab5	-1.1297213
54	0xbe857720	-0.26067448
55	0xbf38d204	-0.7219546
56	0xbe01765b	-0.12642805
57	0xbecae030	-0.39624166
58	0xbedd5583	-0.43229303
59	0xbe555d72	-0.20836428
60	0xbed4709e	-0.4149217
61	0xbf222ad7	-0.6334662
62	0xbef96eb8	-0.48717284
63	0xbf452041	-0.7700234
64	0x3ed42e34	0.414415
65	0x3d8338d1	0.06407321
66	0xbf02f1ac	-0.5115001
67	0xbf92dd45	-1.1473776
68	0x3eff7482	0.49893576
69	0xbf1af2d5	-0.6052678
70	0xbee4f6d6	-0.4471957
71	0xbf3c7e48	-0.7363019
72	0x3eb736bc	0.35783947
73	0xbf8e3632	-1.1110289
74	0x3a515774	0.0007985749
75	0xbe4f26fa	-0.20229712
76	0x3d7a6e8d	0.061140586
77	0x3c32e400	0.010918617
78	0xbe4e94b8	-0.20173919
79	0x3d396218	0.045259565
80	0xbf70cf87	-0.9406666
81	0xbeb054ae	-0.34439605
82	0xbf11a607	-0.5689396
83	0xbe05906c	-0.13043374
84	0xbebb3890	-0.3656659
85	0x3f366287	0.7124409
86	0xbf41bb96	-0.7567686
87	0xbeab17ae	-0.33416504
88	0xbf35551d	-0.70833
89	0xbeb4ce20	-0.3531351
90	0x3e2f92f3	0.171459
91	0xbf48de1d	-0.7846392
92	0xbf79fc48	-0.97650576
93	0xbf99bd8a	-1.2010968
94	0xbf7638d6	-0.96180475
95	0xbe0bbeb6	-0.13646969
96	0xbf69c6f3	-0.913192
97	0xbe2f312b	-0.171086
98	0xbdfeea70	-0.12447059
99	0xbf9726e6	-1.1808746
100	0xbe4cdb58	-0.20005548
101	0xbf9934de	-1.1969259
102	0x3cebd16c	0.028786384
103	0xbf366cce	-0.7125977
104	0x3d7bc788	0.061469585
105	0xbe4e086a	-0.20120397
106	0xbf68876d	-0.90831643
107	0xbd13a3b1	-0.03604478
108	0xbed31a74	-0.4123112
109	0x3eb2e0bf	0.34937093
110	0xbe6e41b7	-0.23267256
111	0x3ec7ebcb	0.39047083
112	0xbefbb596	-0.49161977
113	0xbf91578e	-1.1354845
114	0xbf82a3db	-1.0206255
115	0xbf0eeb33	-0.55827636
116	0xbf448cce	-0.7677735
117	0x3cc57fa5	0.024108717
118	0xbf547430	-0.8298979
119	0xbaf281da	-0.0018501834
120	0xbf23fbf9	-0.64056355
121	0xbec8e70f	-0.39238784
122	0xbf5a3ec5	-0.8525203
123	0x3dd8cd21	0.10586
124	0x3df3e35e	0.11908601
125	0xbf94b5b1	-1.1617948
126	0xbec4b426	-0.38418692
127	0xbe70c70f	-0.23513435
128	0xbf61f0d0	-0.88258076
129	0xbf433fa2	-0.7626897
130	0xbe9f4c18	-0.31112742
131	0xbf30c421	-0.6904927
132	0xbef12344	-0.47097218
133	0xbec11d30	-0.3771758
134	0xbf43053d	-0.7617987
135	0xbf039b90	-0.51409245
136	0xbee6b218	-0.4505775
137	0xbf3785f9	-0.716888
138	0xbeb48b0d	-0.35262337
139	0xbeaf5ffc	-0.34252918
140	0xbefdea32	-0.4959274
141	0xbf48287f	-0.7818679
142	0xbf493f5d	-0.7861231
143	0xbf3e019d	-0.7422121
144	0xbf324b68	-0.6964631
145	0xbf27a415	-0.65484744
146	0xbf2180c7	-0.63087124
147	0xbeb16aa4	-0.34651673
148	0xbf2dceaa	-0.6789347
149	0xbf159508	-0.5843053
150	0xbee7062c	-0.45121896
151	0xbf4b8d94	-0.79512906
152	0xbecf3cce	-0.40476078
153	0xbe4e8771	-0.20168854
154	0xbead3f72	-0.33837467
155	0xbe69e70c	-0.22842044
156	0xbe662b8b	-0.22477548
157	0xbf43540b	-0.76300114
158	0xbf34d2f7	-0.70634407
159	0xbf4839d8	-0.7821326
160	0xbf4d9fa7	-0.80321735
161	0xbec85c83	-0.3913308
162	0xbf3f9390	-0.7483454
163	0xbf70a828	-0.94006586
164	0xbd7e11e5	-0.062028784
165	0xbea6c9ef	-0.32575938
166	0xbf3670ee	-0.7126607
167	0xbf5d733f	-0.86503977
168	0xbf3d69e9	-0.7398973
169	0xbf137423	-0.57599086
170	0xbea707f1	-0.32623246
171	0xbe4fd777	-0.20297037
172	0xbe9d0f06	-0.30675524
173	0xbf3533b2	-0.70782006
174	0xbf1bcb43	-0.6085703
175	0xbf66d7fc	-0.90173316
176	0xbf41d2a9	-0.75712067
177	0xbf0e8b11	-0.5568095
178	0xbf2440b2	-0.6416122
179	0xbf4d9dd3	-0.80318946
180	0xbf37038f	-0.71489805
181	0xbf21b92e	-0.63173187
182	0xbf66b411	-0.9011851
183	0xbf58af7d	-0.84642774
184	0xbee6bd04	-0.45066082
185	0xbf306fc6	-0.6892055
186	0xbf182b7b	-0.59441346
187	0xbf300d84	-0.68770623
188	0xbf4bf44d	-0.7966965
189	0xbf650c1f	-0.8947162
190	0xbedc8c9b	-0.43076023
191	0xbf759225	-0.95926124
192	0xbdf1dc03	-0.11809542
193	0xbef268f0	-0.47345686
194	0xbf0b84b8	-0.5449939
195	0xbf3402c3	-0.70316714
196	0xbebf1d3f	-0.37327
197	0xbf288958	-0.6583457
198	0xbf3f79f0	-0.74795437
199	0xbf34606d	-0.70459634
200	0xbe128583	-0.14308743
201	0xbf2cb0bd	-0.6745718
202	0xbf343107	-0.7038731
203	0xbd7d56d9	-0.061850403
204	0xbf34fccf	-0.70698255
205	0xbef20a86	-0.47273654
206	0xbedf2f25	-0.43590656
207	0xbedaa122	-0.4270106
208	0xbf44212c	-0.76613116
209	0xbf277671	-0.654151
210	0xbf08151a	-0.531572
211	0xbf03f813	-0.51550406
212	0xbf34bd71	-0.70601565
213	0xbd5ec21c	-0.054384336
214	0xbf5e9e34	-0.8696015
215	0xbf313df2	-0.69235146
216	0xbf4bef40	-0.7966194
217	0xbf00e2ba	-0.5034596
218	0xbdc09547	-0.094034724
219	0xbf1863cb	-0.5952727
220	0xbf449041	-0.76782614
221	0xbf3feb3d	-0.7496832
222	0xbf316f8a	-0.6931082
223	0xbef66383	-0.48122796
224	0xbf4fc97d	-0.8116682
225	0xbef75510	-0.48307085
226	0xbf3af081	-0.7302323
227	0xbf36a58e	-0.71346366
228	0xbf491989	-0.7855459
229	0xbf2ed251	-0.6828967
230	0xbef4e263	-0.4782897
231	0xbf471890	-0.77771854
232	0xbeb6329d	-0.3558549
233	0xbefeaae7	-0.49739763
234	0xbf44a1fe	-0.7680968
235	0xbf0011d4	-0.50027204
236	0xbf44d801	-0.76892096
237	0xbe8745f5	-0.2642056
238	0xbf22c0c1	-0.6357537
239	0xbe61963d	-0.22029968
240	0xbf0e8284	-0.556679
241	0xbf40466b	-0.7510745
242	0xbf59551f	-0.8489551
243	0xbf41f573	-0.7576515
244	0xbf39edf1	-0.72628695
245	0xbec9ba68	-0.3940003
246	0xbf3bccc3	-0.73359317
247	0xbf43e7df	-0.7652568
248	0xbf58cb1e	-0.8468493
249	0xbf16ed5d	-0.5895594
250	0xbf3cb564	-0.7371428
251	0xbe889e9a	-0.26683503
252	0xbebff650	-0.3749261
253	0xbf3656ec	-0.7122638
254	0xbf22d878	-0.63611555
255	0xbf2bf858	-0.6717582

lstm.bias_hh_l0 f4 [512]
0	0xbf6fd748	-0.9368787
1	0xbf8e810b	-1.1133131
2	0xbd58d575	-0.052937943
3	0xbe8e4e57	-0.27794144
4	0x3dbe43d2	0.092902794
5	0xbf07af6c	-0.5300205
6	0xbf83188d	-1.0241867
7	0xbe0ca775	-0.13735755
8	0xbf141af0	-0.57853603
9	0xbe97d0b2	-0.2965141
10	0x3cc9510c	0.024574779
11	0x3f1776ad	0.5916546
12	0xbe2fecd6	-0.1718019
13	0xbf967ef1	-1.175749
14	0xbf6d07e9	-0.92590195
15	0xbf5334f4	-0.82502675
16	0xbf664cd8	-0.89961004
17	0xbf7b0393	-0.9805233
18	0xbe570906	-0.20999536
19	0xbc93ff77	-0.018066151
20	0xbf015b8c	-0.50530314
21	0xbf593841	-0.8485146
22	0x3ea9325e	0.3304624
23	0xbf818b2e	-1.0120599
24	0x3dc66ac7	0.09688335
25	0x3eac6c3d	0.3367633
26	0x3dab4da4	0.08364418
27	0x3d8ce9cb	0.0688053
28	0x3ed1e5df	0.4099569
29	0xbf52fac4	-0.8241389
30	0xbf0bd152	-0.5461627
31	0xbf258308	-0.6465306
32	0xbef2454c	-0.47318494
33	0x3dd7cf4e	0.10537587
34	0xbf992ade	-1.1966207
35	0xbf871f0b	-1.0556349
36	0x3f8b3810	1.0876484
37	0x3d633535	0.055470664
38	0xbf74524e	-0.95438087
39	0xbf2757e0	-0.6536846
40	0xbf91b27b	-1.1382593
41	0xbb682c14	-0.0035426663
42	0x3e0c036a	0.13673177
43	0x3f8bbde5	1.0917326
44	0xbc3555d7	-0.011067829
45	0xbf3538d6	-0.7078985
46	0xbcb9da2b	-0.022687038
47	0xbf00ccca	-0.50312483
48	0xbf8c2ab8	-1.0950537
49	0xbeef7d9c	-0.4677552
50	0xbe8986f5	-0.26860777
51	0xbf51ee1b	-0.82003945
52	0xbf95f682	-1.1715853
53	0xbf8d2873	-1.1027969
54	0xbe8cc40b	-0.2749332
55	0xbf3f0361	-0.7461453
56	0xbe5c5d21	-0.21519901
57	0xbee78b74	-0.45223582
58	0xbebee47c	-0.37283695
59	0xbe542958	-0.20718896
60	0xbefb4255	-0.49074045
61	0xbf1f4377	-0.6221232
62	0xbed3bcc9	-0.4135497
63	0xbf36a34b	-0.71342915
64	0x3eb7070c	0.35747564
65	0xbcb491d9	-0.022042202
66	0xbf166195	-0.5874265
67	0xbf8a50fc	-1.0805964
68	0x3efe33aa	0.49648792
69	0xbf02be69	-0.5107179
70	0xbed8773b	-0.42278466
71	0xbf41aa4e	-0.7565049
72	0x3e928a58	0.28621173
73	0xbf8d2b51	-1.1028844
74	0xbcf719e8	-0.03016372
75	0xbddc8184	-0.10766891
76	0x3e0eb318	0.13935506
77	0x3ce6be71	0.028166981
78	0xbd8d5bb5	-0.06902257
79	0xbc49634a	-0.012291739
80	0xbf6a403b	-0.9150426
81	0xbeb52e9e	-0.3538713
82	0xbf0b3c73	-0.54389113
83	0xbaea1072	-0.0017857684
84	0xbeb5c284	-0.35499966
85	0x3f427f6c	0.7597568
86	0xbf479f55	-0.77977496
87	0xbea218ff	-0.31659696
88	0xbf2c8cfb	-0.6740262
89	0xbe9642d7	-0.2934787
90	0x3e2f6409	0.17128004
91	0xbf455a21	-0.7709065
92	0xbf7197a9	-0.9437204
93	0xbf8c4a94	-1.096026
94	0xbf651914	-0.8949139
95	0xbdfc2e35	-0.12313501
96	0xbf48208c	-0.7817466
97	0xbe069c5a	-0.13145581
98	0xbd9aa73f	-0.07551431
99	0xbf84bfc2	-1.037102
100	0xbea79bc6	-0.32736033
101	0xbf8be05c	-1.0927844
102	0xbdb73459	-0.089455314
103	0xbf259f19	-0.6469589
104	0x3d539531	0.051655952
105	0xbead7c66	-0.3388397
106	0xbf5aecdc	-0.8551767
107	0xbd491699	-0.049093816
108	0xbece266b	-0.40263686
109	0x3eb5612a	0.35425693
110	0xbe3c5862	-0.1839309
111	0x3ecdaa98	0.40169215
112	0xbeb19128	-0.34681058
113	0xbf925306	-1.1431587
114	0xbf83e516	-1.0304286
115	0xbf293437	-0.660953
116	0xbf29dbf4	-0.66351247
117	0x3c272419	0.010201477
118	0xbf4a9d2c	-0.79146075
119	0xbd277131	-0.040879432
120	0xbf1c647d	-0.6109083
121	0xbeab0ef5	-0.3340985
122	0xbf388871	-0.72083193
123	0x3e341366	0.17585525
124	0x3e152f0d	0.1456873
125	0xbf86842a	-1.0509083
126	0xbea912bf	-0.33022115
127	0xbe4af8d4	-0.19821483
128	0xbf490edb	-0.7853829
129	0xbf4390d7	-0.76392883
130	0xbeca441c	-0.39505088
131	0xbf40eed9	-0.7536445
132	0xbf1f782a	-0.6229273
133	0xbebd1efa	-0.36937696
134	0xbf256124	-0.6460135
135	0xbef32639	-0.474901
136	0xbf19f5d0	-0.60140705
137	0xbf3261ca	-0.69680464
138	0xbe5bf84e	-0.2148144
139	0xbe5f1866	-0.21786651
140	0xbed0e86e	-0.4080233
141	0xbf403156	-0.7507528
142	0xbf2237da	-0.6336647
143	0xbf46e6b4	-0.77695775
144	0xbf3f3498	-0.74689627
145	0xbf2fa013	-0.6860363
146	0xbf453a4f	-0.77042097
147	0xbed147aa	-0.40874988
148	0xbf381baf	-0.7191724
149	0xbf16930a	-0.58818114
150	0xbf0935fe	-0.5359801
151	0xbf3e9045	-0.7443889
152	0xbe81647b	-0.25271973
153	0xbe547eae	-0.2075145
154	0xbed96ca6	-0.42465705
155	0xbe8718e1	-0.2638617
156	0xbea191e1	-0.3155661
157	0xbf2e8367	-0.68169254
158	0xbf3f8244	-0.74808145
159	0xbf403ca2	-0.7509252
160	0xbf561be3	-0.836363
161	0xbef800d5	-0.48438135
162	0xbf28b367	-0.65898746
163	0xbf7a1ee2	-0.97703373
164	0xbd4dc0a8	-0.05023256
165	0xbeb94388	-0.36184335
166	0xbf4de5fc	-0.80429053
167	0xbf615a11	-0.88028055
168	0xbf47a742	-0.7798959
169	0xbf04aeaa	-0.51829016
170	0xbece29eb	-0.40266356
171	0xbdc9633a	-0.09833379
172	0xbeccc735	-0.39995733
173	0xbf3b704c	-0.73218226
174	0xbefc81c3	-0.4931775
175	0xbf5b6600	-0.85702515
176	0xbf5a0c4e	-0.85175025
177	0xbf02f102	-0.51149
178	0xbf22f43e	-0.63653934
179	0xbf5296fa	-0.8226162
180	0xbf5b80a6	-0.85743177
181	0xbf2a4aa6	-0.66520154
182	0xbf71045b	-0.9414727
183	0xbf49c33e	-0.7881354
184	0xbee99ff2	-0.4562984
185	0xbf286773	-0.6578285
186	0xbf1fc0f5	-0.62403804
187	0xbf30d7e3	-0.69079417
188	0xbf3420de	-0.7036265
189	0xbf5cecdb	-0.8629891
190	0xbefe5f4f	-0.4968209
191	0xbf63a051	-0.889165
192	0xbdc67dca	-0.09691961
193	0xbee341f4	-0.44386256
194	0xbf0aa3c9	-0.54156166
195	0xbf35cea8	-0.7101846
196	0xbec0830f	-0.3759999
197	0xbf258325	-0.64653236
198	0xbf563b74	-0.8368447
199	0xbf3acbf5	-0.72967464
200	0xbe1799e8	-0.14804804
201	0xbf3c4418	-0.735414
202	0xbf21d1d1	-0.6321078
203	0xbe4976ea	-0.19674268
204	0xbf1d0b59	-0.6134544
205	0xbec63af3	-0.3871685
206	0xbf0ab20b	-0.5417792
207	0xbea606b0	-0.32426977
208	0xbf245214	-0.6418774
209	0xbf2f2479	-0.6841503
210	0xbf28a761	-0.658804
211	0xbee3ba99	-0.444783
212	0xbf5334c0	-0.82502365
213	0xbe362758	-0.17788446
214	0xbf600620	-0.87509346
215	0xbf197fa9	-0.5996042
216	0xbf51c12c	-0.8193538
217	0xbf287df1	-0.6581717
218	0xbe101fd7	-0.14074646
219	0xbf2f7feb	-0.6855456
220	0xbf495db1	-0.78658587
221	0xbf2a7f43	-0.66600436
222	0xbf2d537c	-0.6770551
223	0xbf194900	-0.59877014
224	0xbf4d257d	-0.8013533
225	0xbf1111f1	-0.56668
226	0xbf1a0024	-0.60156465
227	0xbf28101c	-0.6564958
228	0xbf69b9f8	-0.9129939
229	0xbf48abde	-0.7838725
230	0xbee8fca2	-0.45505244
231	0xbf442ebf	-0.7663383
232	0xbed8a93a	-0.4231661
233	0xbf194066	-0.5986389
234	0xbf3c5828	-0.73572016
235	0xbf0bd7e1	-0.5462628
236	0xbf3aaae8	-0.7291703
237	0xbe82a85e	-0.2551908
238	0xbf1a6d5f	-0.6032314
239	0xbd9b91fa	-0.07596202
240	0xbf1471e7	-0.579863
241	0xbf44c5cd	-0.7686432
242	0xbf7dad26	-0.9909233
243	0xbf33f42c	-0.7029445
244	0xbf438410	-0.76373386
245	0xbeab0899	-0.33404997
246	0xbf373bb6	-0.71575487
247	0xbf656e20	-0.8962116
248	0xbf6bb037	-0.9206576
249	0xbf1e83b4	-0.61919713
250	0xbf332b44	-0.69987893
251	0xbec5f156	-0.38660687
252	0xbe89b37a	-0.26894742
253	0xbf23fc34	-0.64056706
254	0xbf15f8a2	-0.5858251
255	0xbf231bc1	-0.63714224

lstm.weight_ih_l1 f4 [512, 128]
0	0xbb1e8547	-0.0024188326
1	0x3de58421	0.11206842
2	0xbd9424b9	-0.07233567
3	0x3d80e0be	0.06292866
4	0xbdb3c631	-0.087780364
5	0x3d56353c	0.052296862
6	0xbd1119e5	-0.035425086
7	0x3c9d4540	0.01919806
8	0x3d88e998	0.066851795
9	0xbd4b97c4	-0.04970528
10	0x3d0ee645	0.03488757
11	0x3e4ce810	0.200104
12	0x3d257ac1	0.04040027
13	0x3c17d94d	0.009268117
14	0xbcbf280c	-0.023334526
15	0x3c1ddf33	0.009635734
16	0x3d3f543f	0.046711203
17	0x3d4dc7c9	0.050239358
18	0x3dc0acff	0.094079964
19	0x3d80ac9e	0.06282924
20	0xbcb48bca	-0.022039313
21	0x3c2f2a10	0.010691181
22	0xbd866d0a	-0.06563766
23	0xbd997601	-0.074932106
24	0x3dfb03f9	0.12256617
25	0xbe236ac3	-0.15958695
26	0x3e288b9c	0.16459507
27	0xbde088c7	-0.10963588
28	0x3c844a97	0.016148848
29	0x3c85d1c6	0.01633538
30	0xbdd91b54	-0.106009156
31	0xbd5cf510	-0.053944647
32	0x3dd7d028	0.105377495
33	0xbe1d04b6	-0.15333828
34	0x3c04524a	0.00807626
35	0x3d8d576e	0.069014415
36	0xbe09b65d	-0.13448472
37	0x3e06a341	0.13148214
38	0x3d3b5d64	0.04574336
39	0xbc9cbf71	-0.019134255
40	0x3d208dab	0.039197605
41	0xbc913129	-0.017723637
42	0xbc48894c	-0.012239765
43	0xbd9384ec	-0.07203087
44	0xbccef953	-0.025265371
45	0xbcf27494	-0.029596604
46	0xbdce7bd0	-0.10082209
47	0x3dd50214	0.10400787
48	0xbdba2f69	-0.09091074
49	0xbdacf9fc	-0.08446118
50	0xbd653639	-0.055959914
51	0xbd1ebae0	-0.038752437
52	0x3b2152bf	0.002461597
53	0xbc9721e5	-0.01844878
54	0xbdc9cb50	-0.09853232
55	0xbd42812f	-0.04748648
56	0xbcb21436	-0.021738153
57	0xbd5be77e	-0.053687565
58	0x3dbdfcbe	0.09276722
59	0x3c4bf777	0.012449137
60	0xbb7e45db	-0.0038798961
61	0x3d20ca86	0.03925564
62	0x3b9c4374	0.004768783
63	0x3da8d452	0.08243622
64	0x3c47f828	0.012205161
65	0xb8976452	-7.218927e-05
66	0x3c9da872	0.01924536
67	0xbd7d3f00	-0.06182766
68	0xbbb234ab	-0.0054384074
69	0xbc743c61	-0.014906974
70	0xbe0f054a	-0.13966861
71	0xbd90fddb	-0.07079669
72	0xbd4183c4	-0.047244802
73	0x3d1bdb95	0.038051207
74	0xbcc1c9d3	-0.023655808
75	0xbb4f8ca7	-0.0031669529
76	0x3c62a55b	0.013833369
77	0xbccbc63d	-0.0248748
78	0xbdbf91df	-0.093539946
79	0x3d4b87fe	0.04969024
80	0xbc9cc32b	-0.019136032
81	0x3ddb4972	0.10707368
82	0xbd7af8dd	-0.06127249
83	0x3c871e01	0.0164938
84	0xbd963a66	-0.07335357
85	0x3cc55f9d	0.024093444
86	0xbdae0ca2	-0.08498503
87	0x3d3c7d09	0.04601768
88	0xbd9a4889	-0.07533366
89	0xbd49abd7	-0.049236145
90	0xbd69c12c	-0.05706899
91	0x39ed271f	0.0004523331
92	0x3d258582	0.040410526
93	0xbd1dd553	-0.03853352
94	0xbd030568	-0.031987578
95	0x3d4ae189	0.049531493
96	0x3d93834e	0.07202779
97	0xbdffcb43	-0.12489941
98	0x3c6faf18	0.014629148
99	0xbda403bd	-0.080085255
100	0x3cff5800	0.031169891
101	0x3c346cd9	0.011012279
102	0xbc720cbc	-0.014773544
103	0x3d0e2bca	0.03470973
104	0x3da819d2	0.0820805
105	0xbd1d4f18	-0.038405508
106	0xbdecc713	-0.11561408
107	0x3d6735c4	0.05644776
108	0xbd9084a8	-0.07056552
109	0x3d2f9039	0.04286215
110	0xbdd85542	-0.10563137
111	0xbdb64b72	-0.08901109
112	0xbd4bae67	-0.04972687
113	0xbccbf0a8	-0.024895027
114	0xbc93a87b	-0.018024674
115	0xbd91606d	-0.0709847
116	0xbdeb9529	-0.115030594
117	0xbd5ee67b	-0.054419022
118	0x3d7b46bc	0.061346754
119	0x3d74b009	0.059738193
120	0xbd1bf8c9	-0.038079057
121	0xbd214443	-0.03937174
122	0x3cc5a24d	0.024125243
123	0x3d0fa3cd	0.035068322
124	0x3c87a473	0.016557908
125	0xbda45a43	-0.080250286
126	0xbde9b6ea	-0.11411841
127	0xbc0d0c00	-0.008608818
128	0x3d05bcfd	0.032650936
129	0x3e5771aa	0.21039453
130	0x3eb26578	0.3484304
131	0x3d016bbd	0.031596888
132	0x3b819eaa	0.003955682
133	0xbec236a9	-0.37932327
134	0xbddeebec	-0.10884842
135	0x3e19d54f	0.15022777
136	0x3e9f1d48	0.31077027
137	0x3e24b1e1	0.1608348
138	0xbe5ba761	-0.21450569
139	0x3e78db51	0.24302413
140	0x3cd2fa17	0.025754018
141	0xbcdd85d7	-0.027041359
142	0xbdb0ce8e	-0.08633147
143	0x3cbd3b37	0.023099525
144	0xbd108e72	-0.035292096
145	0xbd70102f	-0.058609184
146	0x3ca39ee7	0.019973231
147	0xbdac2279	-0.08405013
148	0x3cf3da7c	0.029767267
149	0xbdf7ff38	-0.12109226
150	0x3d55397d	0.05205678
151	0x3ca939dc	0.020657472
152	0x3db0ab57	0.086264305
153	0x3e67893e	0.22610947
154	0xbeb66250	-0.3562188
155	0xbd6387b9	-0.055549357
156	0xbe8d56c7	-0.27605268
157	0xbd328199	-0.043580625
158	0x3e3653b3	0.17805366
159	0xbd857439	-0.06516308
160	0xbbd31463	-0.0064416393
161	0xbe5e318e	-0.21698591
162	0xbcb68ea0	-0.022284806
163	0xbd87329f	-0.06601452
164	0xbd70e19e	-0.058808915
165	0xbde709a8	-0.11281139
166	0x3ded11f2	0.115756884
167	0xbb3cf16e	-0.0028830427
168	0x3dc3bd16	0.0955755
169	0x3e1f48c9	0.15555109
170	0x3df6b392	0.12045969
171	0xbe34d021	-0.1765752
172	0xbd9b4aac	-0.07582602
173	0xbd96463b	-0.07337614
174	0xbec23b6a	-0.37935954
175	0xbbe2d939	-0.0069228676
176	0x3cec24f5	0.028826216
177	0xbe49c946	-0.19705686
178	0xbe2860c0	-0.16443157
179	0xbe0eb868	-0.13937533
180	0x3def22a4	0.11676529
181	0xbe1f9ab0	-0.15586352
182	0xbd14bb23	-0.03631128
183	0xbc282909	-0.01026369
184	0x3e9cc507	0.3061907
185	0x3e026fe7	0.12738
186	0x3d9fd3f8	0.07804102
187	0xbc31b473	-0.010846245
188	0xbae2e161	-0.00173096
189	0x3e936b2c	0.28792703
190	0xbf0c070a	-0.5469824
191	0xbd8c33de	-0.068458304
192	0xbcad8daa	-0.021185715
193	0xbda26c38	-0.07930797
194	0xbcaaabd2	-0.020833883
195	0xbdb123a6	-0.086493775
196	0xbec184ae	-0.3779654
197	0xbd9b3dce	-0.07580148
198	0x3e5e3769	0.21700825
199	0xbd2f79ad	-0.04284065
200	0x3ac20736	0.0014803174
201	0x3e00ca32	0.12577131
202	0x3e88d1a7	0.26722452
203	0x3f6369a7	0.8883309
204	0x3d7ade55	0.06124719
205	0xbe636439	-0.222062
206	0xbd36e757	-0.044654217
207	0x3d3be52f	0.045872863
208	0x3dd96383	0.106146835
209	0x3d120b3e	0.035655253
210	0x3e8e352d	0.27774945
211	0x3ec9769b	0.393483
212	0xbdd10bd0	-0.10207331
213	0xbdb16616	-0.086620495
214	0xbe30a16f	-0.17249082
215	0xbd6a0f10	-0.05714327
216	0x3dd02dcd	0.10164986
217	0xbe7ec3d8	-0.24879396
218	0x3ea15c6c	0.31515825
219	0xbd9c29ca	-0.07625158
220	0xbe14f1a0	-0.14545298
221	0x3db8b9dc	0.09019825
222	0x3e04741a	0.12934914
223	0x3ca9b5b5	0.020716527
224	0xbe33f74b	-0.17574804
225	0xbe902389	-0.2815211
226	0xbe67b35b	-0.22627012
227	0xbe004d2e	-0.12529442
228	0xbe6b3c81	-0.22972299
229	0xbde13edd	-0.10998318
230	0xbe4cccfe	-0.20000073
231	0xbd2677b3	-0.040641498
232	0x3eea0d95	0.45713487
233	0x3e2090a1	0.15680172
234	0xbdd300a1	-0.10302854
235	0xbdd2e8fd	-0.10298345
236	0x3ce4f346	0.027948033
237	0xbc089909	-0.008337268
238	0xbd689a4b	-0.05678777
239	0x3d45f35e	0.048327796
240	0x3d352707	0.044226673
241	0x3defe443	0.11713459
242	0xbe167d27	-0.1469618
243	0xbe36cc58	-0.17851388
244	0x3c09190f	0.008367791
245	0xbdb8b1a5	-0.09018258
246	0xbd090a22	-0.03345693
247	0x3e01c0ec	0.1267125
248	0x3d753a1f	0.05986988
249	0x3da85247	0.08218818
250	0xbda5710d	-0.08078203
251	0x3ede5692	0.43425423
252	0xbe5b8fa0	-0.21441507
253	0x3e05a71e	0.13052031
254	0xbe2c8cb2	-0.16850546
255	0x3dbe5978	0.092944086

lstm.weight_hh_l1 f4 [512, 128]
0	0x3b87f610	0.004149206
1	0xbcde8394	-0.02716235
2	0x3cde16a4	0.027110405
3	0xbc2b08b0	-0.010439083
4	0x3cdf6453	0.027269518
5	0x3d1555e2	0.036458857
6	0xbd9f3d9e	-0.077754244
7	0x3d21cba6	0.039500855
8	0xbdb2f9c6	-0.08739047
9	0xbe13fd57	-0.1445211
10	0x3d0ea87b	0.034828644
11	0xbd9b1c0a	-0.075737074
12	0x3d8a6eb6	0.06759398
13	0x3e032b58	0.12809503
14	0x3da3bdb0	0.079951644
15	0x3afae4fb	0.0019141728
16	0x3e1179f5	0.14206679
17	0x3cf98787	0.030460132
18	0x3c0626fd	0.0081880065
19	0xbda30994	-0.07960811
20	0xbd07a202	-0.033113487
21	0xbde3ee52	-0.1112944
22	0x3c3f264a	0.011666844
23	0x3d89aea0	0.0672276
24	0xbd5990c2	-0.053116567
25	0x3d04a94b	0.032388013
26	0xbddb68c8	-0.10713345
27	0x3dd5e94d	0.10444889
28	0xbe00ab08	-0.12565243
29	0xbd774285	-0.060366172
30	0xbd40e75c	-0.04709564
31	0xbcd29da6	-0.025709938
32	0x3e19db92	0.15025166
33	0xbb0aca56	-0.002117773
34	0xbcff84cf	-0.031191258
35	0x3d6188d5	0.055062134
36	0x3d4ec952	0.050484963
37	0xbd371dea	-0.044706263
38	0x3d282595	0.041051466
39	0x3d875f36	0.06609957
40	0x3d8be07b	0.068299256
41	0x3dafa77e	0.085768685
42	0xbd8e80df	-0.06958174
43	0xbd42f2fc	-0.04759501
44	0x3dafc4a5	0.08582429
45	0xbc91bafe	-0.01778936
46	0xbd9d59b0	-0.07683122
47	0xbdbdd1df	-0.09268545
48	0xbcb06813	-0.021534001
49	0x3cf108aa	0.029423077
50	0x3dca1dfd	0.09869001
51	0xbd7f2a26	-0.062296055
52	0x3c37abe6	0.011210417
53	0x3cd2c1ac	0.025727116
54	0xbe368f9b	-0.17828219
55	0x3c880771	0.01660511
56	0x3b4d42bc	0.0031320294
57	0x3dae2b1a	0.08504315
58	0x3c90f436	0.017694574
59	0x3e4e61c2	0.20154479
60	0xbe15b3c2	-0.14619353
61	0xbd8188ef	-0.06324946
62	0xbe102496	-0.14076456
63	0x3e1743a4	0.14771897
64	0xbd87f1dc	-0.06637928
65	0xbbe9b4f1	-0.0071321656
66	0x3cb8ac0a	0.022542972
67	0x3cd7e885	0.026355991
68	0x3e15b539	0.14619912
69	0x3d71e80f	0.0590592
70	0xbe9620e8	-0.2932198
71	0xbd79a897	-0.060951795
72	0x3cfba5ce	0.03071871
73	0x3c8e70bb	0.017387738
74	0xbdd6b61d	-0.10483954
75	0xbdb5ab22	-0.088705316
76	0x3cf4f6a5	0.029902766
77	0xbdbcdd9c	-0.09221956
78	0x3d23cbbd	0.03998922
79	0x3e336d70	0.17522216
80	0x3cbcab65	0.023030946
81	0xbd98e15f	-0.07464861
82	0xbcfa7612	-0.030573878
83	0x3e1c2954	0.1525014
84	0xbca5ad6c	-0.020224296
85	0xbd6bd7b8	-0.057578772
86	0xbc7038a6	-0.014661944
87	0xbd81b110	-0.063326
88	0xbc90ca12	-0.01767448
89	0x3c618997	0.013765714
90	0xbd82349a	-0.06357689
91	0x3b25dbae	0.0025307941
92	0x3cf59400	0.029977798
93	0x3e1c6597	0.15273128
94	0x3d1f33f1	0.038867895
95	0xbd8f357e	-0.06992625
96	0xbc32280a	-0.010873804
97	0xbe0cb862	-0.13742211
98	0x3ce9e901	0.028553488
99	0x3e141e4b	0.14464681
100	0x3de4a916	0.11165063
101	0xbdbb01d8	-0.09131211
102	0x3c0febe9	0.008784273
103	0xbd839ec7	-0.06426769
104	0x3c504b71	0.012713299
105	0xbd96e32a	-0.07367547
106	0xbe41d2ad	-0.18928023
107	0x3d25006b	0.0402836
108	0xbc78d700	-0.015187979
109	0xbd452eae	-0.04814022
110	0x3c02254d	0.0079434635
111	0x3d716af6	0.058939897
112	0xbe028f90	-0.12750077
113	0x3d859c4e	0.065239534
114	0x3dd19d9e	0.10235141
115	0x3dafab3e	0.08577584
116	0x3dd15a8e	0.1022235
117	0x3cc1c9c9	0.023655789
118	0x3e2d9d45	0.16954525
119	0xbd1822da	-0.037142612
120	0x3b91b100	0.004446149
121	0x3d2be7fd	0.04196929
122	0xbdb3f5a3	-0.08787086
123	0xbd167908	-0.03673652
124	0xbd030308	-0.031985313
125	0x3db4248e	0.08796035
126	0x3d9bff99	0.07617111
127	0x3e03f162	0.12885049
128	0xbe31d1ea	-0.17365232
129	0x3e038541	0.12843801
130	0x3ea916ab	0.33025107
131	0xbd4f9c9a	-0.050686456
132	0xbeab4249	-0.3344901
133	0xbe5dde4f	-0.21666835
134	0xbda90bd5	-0.0825421
135	0xbd29afcd	-0.041427422
136	0xbe1a97a7	-0.15096913
137	0xbd279a7b	-0.04091881
138	0xbde6e24a	-0.1127363
139	0x3e43fc24	0.19139153
140	0xbbf3f8de	-0.0074454388
141	0x3ed2efda	0.41198617
142	0x3ddf9a04	0.10918048
143	0xbe5034ee	-0.20332691
144	0x3e2fbdde	0.17162272
145	0xbea9e5fe	-0.33183283
146	0x3e6b06dd	0.22951837
147	0xbe197d3c	-0.1498918
148	0x3e7e586c	0.24838418
149	0x3e449a25	0.19199426
150	0x3e50b088	0.20379841
151	0x3eb9b9e0	0.36274624
152	0xbf1917da	-0.5980202
153	0x3d8f7e55	0.07006518
154	0xbd2613a7	-0.040546086
155	0xbe8c055f	-0.27347848
156	0x3f20a1e4	0.62747025
157	0x3edca05c	0.43091094
158	0x3e8f508b	0.27991137
159	0x3db1b6f4	0.08677474
160	0xbdc6b4f0	-0.0970248
161	0x3d3e4cec	0.046460077
162	0x3d0c1683	0.034201156
163	0x3e45a35f	0.19300602
164	0x3e89b46d	0.26895466
165	0xbdfe73cd	-0.12424431
166	0xbe14b59d	-0.14522405
167	0x3eca0d49	0.3946326
168	0xbe20b0c8	-0.15692437
169	0xbe3cbf8d	-0.18432446
170	0xbf0ece23	-0.5578329
171	0x3eedc1f7	0.46437046
172	0xbe124980	-0.1428585
173	0xbe861866	-0.2619049
174	0x3eb2ec69	0.34945992
175	0x3ddcca29	0.107807465
176	0x3ea8dff0	0.3298335
177	0xbe20ffe8	-0.1572262
178	0xbe284547	-0.16432677
179	0xbda8e7c8	-0.08247334
180	0xbf11a859	-0.56897503
181	0xbe56711c	-0.20941585
182	0x3e5387ad	0.20657225
183	0xbd077015	-0.033065874
184	0x3e498039	0.1967782
185	0x3ea0516d	0.31312123
186	0x3e054e6e	0.130182
187	0x3f2fdb90	0.686944
188	0xbea9f326	-0.3319332
189	0xbe5b8fa3	-0.21441512
190	0x3e3e8464	0.1860519
191	0xbe0fbec3	-0.14037614
192	0x3d7798da	0.060448505
193	0xbc4690ce	-0.012119485
194	0x3e09a1ce	0.1344063
195	0x3eda4de6	0.42637557
196	0x3f53689c	0.82581496
197	0xbde1fdb5	-0.11034719
198	0x3e97ceb4	0.2964989
199	0x3e3216b6	0.17391476
200	0xbe4cfefc	-0.20019144
201	0x3d364699	0.04450092
202	0xbeacabcf	-0.3372483
203	0x3dd5cebd	0.10439823
204	0xbe291c0f	-0.1651461
205	0x3e010b7f	0.12602042
206	0xbe970614	-0.29496825
207	0xbe3186c1	-0.17336561
208	0xbee9574c	-0.45574415
209	0xbec01202	-0.3751374
210	0x3d8d59db	0.06901904
211	0xbde646d1	-0.11243976
212	0x3e6964f3	0.22792415
213	0xbe522614	-0.20522338
214	0xbdbab757	-0.091170006
215	0x3e2e06f5	0.16994841
216	0xbe63ac2c	-0.22233647
217	0x3e920f46	0.28527278
218	0xbe1777cf	-0.14791797
219	0xbe1705c4	-0.14748293
220	0x3d3bbd86	0.04583504
221	0x3f2e1d3f	0.68013376
222	0x3ea827d6	0.32842892
223	0x3e832abe	0.25618547
224	0xbed13feb	-0.40869078
225	0xbc289a4a	-0.010290692
226	0xbeb7b4aa	-0.35880023
227	0x3e59698f	0.21231674
228	0x3d20063d	0.03906845
229	0x3d35eaf8	0.044413537
230	0x3ee91511	0.45523885
231	0x3e84e7c1	0.25958064
232	0x3d3afaf8	0.0456495
233	0x3e27651f	0.16347168
234	0x3ed5937d	0.41714087
235	0x3e19e747	0.15029632
236	0xbd95d8b1	-0.07316721
237	0x3d8c9b1b	0.068655215
238	0xbda2393f	-0.07921075
239	0xbe03a6a0	-0.12856531
240	0x3e52b649	0.20577349
241	0x3eaf97b2	0.34295422
242	0x3d6933be	0.05693411
243	0x3d6965aa	0.05698172
244	0x3e109c5a	0.14122143
245	0x3dfb9cde	0.122857794
246	0xbdce891d	-0.10084746
247	0x3e33bd5e	0.17552707
248	0xbe491b51	-0.19639327
249	0xbd8622f4	-0.065496355
250	0xbe0a9be2	-0.13536027
251	0x3ec029bf	0.3753185
252	0xbdbeecad	-0.09322486
253	0xbd49681c	-0.049171552
254	0xbe77d3bd	-0.24201865
255	0x3eec9111	0.46204427

lstm.bias_ih_l1 f4 [512]
0	0xbf6f32b9	-0.9343677
1	0xbd48a92f	-0.04898947
2	0x3ddb94ee	0.107217655
3	0xbf5b5597	-0.85677475
4	0x3eecca24	0.4624797
5	0xbf69daae	-0.91349304
6	0xbef117a7	-0.47088358
7	0xbf8e8a14	-1.1135888
8	0x3f26f474	0.65216756
9	0xbea0cc38	-0.31405807
10	0xbf41e63e	-0.75741947
11	0xbec1f7e5	-0.3788444
12	0xbf5b481f	-0.85656923
13	0xbf32931f	-0.6975574
14	0xbf099edc	-0.53758025
15	0x3eae99de	0.34101766
16	0xbf673a31	-0.9032317
17	0xbf61e7af	-0.88244146
18	0xbf3dda81	-0.74161536
19	0xbf62845b	-0.8848321
20	0xbf433585	-0.7625354
21	0xbdb49b9c	-0.08818743
22	0xbecaf138	-0.3963716
23	0xbf3c8d9a	-0.73653567
24	0xbe92a002	-0.286377
25	0xbf6d5ac6	-0.92716634
26	0xbf66c7ad	-0.9014843
27	0xbdedd57b	-0.11612984
28	0x3eab11d7	0.33412048
29	0xbdfd744d	-0.12375698
30	0xbf5a204e	-0.85205543
31	0xbf5c3de6	-0.8603195
32	0xbe794427	-0.24342404
33	0xbf17e756	-0.59337366
34	0xbf85ba3e	-1.0447462
35	0xbf17c73b	-0.59288377
36	0xbe80c1dc	-0.25147903
37	0xbefb96ed	-0.49138585
38	0xbf78d751	-0.97203547
39	0xbeef14b8	-0.46695495
40	0xbf5b02cb	-0.85551137
41	0xbf23aed1	-0.63938624
42	0x3e6d4498	0.23170698
43	0x3da95efc	0.0827007
44	0xbea7d3e7	-0.32778856
45	0x3e631a10	0.22177911
46	0xbf577a8e	-0.8417138
47	0xbf5096c4	-0.8148005
48	0xbf52e288	-0.8237691
49	0xbf3f6c4e	-0.74774635
50	0xbf7cf304	-0.9880831
51	0xbf80ebe9	-1.0071994
52	0xbe058ec3	-0.1304274
53	0xbf705573	-0.93880385
54	0xbf5fa795	-0.87365085
55	0xbf5c4ef5	-0.8605798
56	0xbe7bc97e	-0.24588582
57	0xbf3aa355	-0.72905475
58	0xbe9dfaea	-0.30855495
59	0x3e0beac0	0.13663769
60	0x39cbf120	0.0003889883
61	0xbf733597	-0.95003647
62	0xbf1d436c	-0.61431
63	0x3e15dc9e	0.1463494
64	0xbf83efec	-1.0307593
65	0xbf727bc1	-0.94720083
66	0xbf6fc6aa	-0.9366251
67	0xbe97b3ca	-0.29629356
68	0x3cf43ab1	0.029813142
69	0xbf4822bd	-0.78178006
70	0x3da1b0e0	0.07895064
71	0xbf2c5b30	-0.6732664
72	0xbf219dfb	-0.63131684
73	0xbf886ad2	-1.0657599
74	0xbe842684	-0.25810635
75	0xbf53d06a	-0.8273989
76	0xbe09be6f	-0.13451551
77	0xbf71036f	-0.94145864
78	0xbf2bfcb6	-0.6718248
79	0xbe9556f4	-0.29167902
80	0xbf0956e5	-0.53648216
81	0xbf842ed6	-1.0326793
82	0xbf37db81	-0.7181931
83	0xbebd18cc	-0.3693298
84	0xbf2eec80	-0.6832962
85	0xbe799b42	-0.24375632
86	0xbf99e92f	-1.2024287
87	0xbe70fdf8	-0.23534381
88	0xbf56f57c	-0.8396833
89	0xbf6add43	-0.9174387
90	0xbf86572a	-1.049535
91	0xbf5440e1	-0.829115
92	0xbf92a4c0	-1.1456528
93	0xbd3c7a88	-0.046015292
94	0xbf01d299	-0.5071197
95	0xbf4d7e0b	-0.8027045
96	0xbe8f1abb	-0.2795008
97	0xbf5712d1	-0.84013087
98	0xbf47ed41	-0.78096396
99	0xbf5fa4ae	-0.87360656
100	0xbf6ffc67	-0.9374451
101	0xbf8c8cd7	-1.0980481
102	0xbe7950d7	-0.24347244
103	0xbf4047c4	-0.75109506
104	0xbf5f5acc	-0.8724792
105	0xbf743a4e	-0.95401466
106	0x3d13bdb0	0.036069572
107	0xbf417f59	-0.7558494
108	0xbf60069b	-0.8751008
109	0xbeaf2294	-0.3420607
110	0xbdeed6d9	-0.11662073
111	0xbf06d4fa	-0.52668726
112	0x3df5e900	0.12007332
113	0xbe76f957	-0.24118553
114	0xbf6b6591	-0.91951853
115	0xbe844198	-0.25831294
116	0xbeeea963	-0.46613607
117	0xbf13126e	-0.57449996
118	0x3e055a7c	0.13022798
119	0xbefb3d0c	-0.49070013
120	0xbc305aff	-0.010763883
121	0xbf89eadb	-1.0774797
122	0x3b873c6f	0.0041270773
123	0xbea2aa48	-0.3177054
124	0xbf9d2488	-1.2276773
125	0xbf735161	-0.9504605
126	0xbf8ebe87	-1.1151894
127	0xbecfd926	-0.4059536
128	0xbf1c7f1f	-0.6113147
129	0xbee0aebc	-0.43883312
130	0xbecd96c1	-0.4015408
131	0xbf306cd4	-0.6891606
132	0xbe2b22b5	-0.16712458
133	0xbf41cc8f	-0.75702757
134	0xbf3cbeab	-0.73728436
135	0xbf4252da	-0.7590767
136	0xbf2f9055	-0.6857961
137	0xbf2ff23b	-0.6872899
138	0xbf375919	-0.7162033
139	0xbf2089f8	-0.62710524
140	0xbf2bda77	-0.67130226
141	0xbf432359	-0.7622581
142	0xbf3ed893	-0.74549216
143	0xbeba4bb3	-0.3638588
144	0xbf20359a	-0.6258179
145	0xbf46fc37	-0.777286
146	0xbf4d5a5e	-0.80216014
147	0xbf3bf6f3	-0.7342369
148	0xbf3b6ccc	-0.73212886
149	0xbf273274	-0.6531136
150	0xbf44e073	-0.7690498
151	0xbf274332	-0.65336907
152	0xbf4536c0	-0.77036667
153	0xbf54814e	-0.83009803
154	0xbf1b3dc1	-0.60641104
155	0xbf16bfa3	-0.58886164
156	0xbec8786f	-0.39154384
157	0xbf42005a	-0.75781786
158	0xbf3d1199	-0.73854977
159	0xbf6cb9dd	-0.92471105
160	0xbf1ce525	-0.61287147
161	0xbf2af402	-0.66778576
162	0xbf42a81c	-0.76037765
163	0xbf37e064	-0.7182677
164	0xbf28d24f	-0.65945905
165	0xbf25a6d2	-0.6470767
166	0xbf4b645f	-0.7945003
167	0xbf40fc60	-0.75385094
168	0xbf30a63c	-0.69003654
169	0xbf212856	-0.6295217
170	0xbdecb837	-0.11558574
171	0xbe97747c	-0.29581058
172	0xbf07aa27	-0.52994007
173	0xbef35e13	-0.4753271
174	0xbf24f8d9	-0.6444221
175	0xbf3aa879	-0.7291332
176	0xbf2a8ee4	-0.66624284
177	0xbf147a7e	-0.5799941
178	0xbf37c8fd	-0.7179106
179	0xbf33c94e	-0.7022904
180	0xbecaf554	-0.39640296
181	0xbf302815	-0.6881116
182	0xbf4b0070	-0.7929754
183	0xbf5b4b6f	-0.8566198
184	0xbeff8360	-0.4990492
185	0xbf3e7848	-0.74402285
186	0xbf43bc8a	-0.7645956
187	0xbec0fae1	-0.37691405
188	0xbed4c766	-0.4155838
189	0xbf4ce526	-0.8003715
190	0xbf5aa764	-0.8541167
191	0xbd2b8746	-0.041877054
192	0xbf36c144	-0.7138865
193	0xbf1ca163	-0.61183757
194	0xbf7607df	-0.9610576
195	0xbf34a42f	-0.70563024
196	0xbe0d0059	-0.13769664
197	0xbf4a4a3f	-0.7901954
198	0xbc591c31	-0.01325135
199	0xbf27b665	-0.65512687
200	0xbf3b9b0d	-0.73283464
201	0xbf26cd81	-0.65157324
202	0xbefd7795	-0.49505296
203	0xbf41c7d9	-0.7569557
204	0xbef5fffb	-0.4804686
205	0xbf1c986f	-0.61170095
206	0xbf6c21b7	-0.92238945
207	0xbf521161	-0.8205777
208	0xbf30624a	-0.6889998
209	0xbf59063c	-0.8477514
210	0xbf3e1efc	-0.7426603
211	0xbf1ea69c	-0.61972976
212	0xbf53c059	-0.82715374
213	0xbf3c857f	-0.736412
214	0xbf59b065	-0.8503478
215	0xbf3c0bbf	-0.73455423
216	0xbf20bed1	-0.6279116
217	0xbf529e57	-0.8227286
218	0xbf26961d	-0.65072805
219	0xbf40fbe2	-0.7538434
220	0xbf2cb30c	-0.67460704
221	0xbea3d05c	-0.31994903
222	0xbf27ff63	-0.65624064
223	0xbf2e3b1a	-0.6805893
224	0xbf6dfa0a	-0.92959654
225	0xbf50efc0	-0.8161583
226	0xbf40e3f3	-0.7534782
227	0xbf2ee6c1	-0.6832085
228	0xbf5245c4	-0.82137704
229	0xbf22ec36	-0.6364168
230	0xbf3042a0	-0.6885166
231	0xbf141e8c	-0.5785911
232	0xbf0f1178	-0.5588603
233	0xbf484e00	-0.7824402
234	0xbe8de779	-0.27715662
235	0xbf3f499d	-0.747217
236	0xbf329fb3	-0.6977493
237	0xbf13329f	-0.57499117
238	0xbf1e4dd4	-0.61837506
239	0xbf2ea075	-0.6821359
240	0xbe815171	-0.25257447
241	0xbf503482	-0.8133012
242	0xbf35f53d	-0.7107733
243	0xbf48f722	-0.78502095
244	0xbf170622	-0.5899373
245	0xbf290dab	-0.6603648
246	0xbebf253d	-0.37333098
247	0xbf45f5de	-0.7732829
248	0xbe523028	-0.20526183
249	0xbf5790b5	-0.8420518
250	0xbedd6ca9	-0.43246964
251	0xbf071d9e	-0.5277957
252	0xbf4c99c8	-0.7992215
253	0xbf2ccaf6	-0.67497194
254	0xbf4fbc59	-0.8114677
255	0xbf244f72	-0.64183724
