models/LSTM_mse_epochs23.pth (torch, 806933 bytes, 10 tensors)

lstm.weight_ih_l0 f4 [512, 4]
000000 e2 2e 11 c0 35 27 05 40 ba c6 ee 3e 27 03 e5 3f
       -2.2684865 2.080518 0.4663599 1.7891587
000010 0e f3 09 bf 81 ad b0 be e5 10 00 bf 92 21 83 be
       -0.538865 -0.34507373 -0.5002578 -0.2561155
000020 84 4a 83 be 15 de f8 be dd 4c 9b be eb b6 1c bf
       -0.25642788 -0.48606935 -0.3033208 -0.6121661
000030 56 15 05 bf 36 9e 43 be 3c df 17 bf 8d fd 0e bf
       -0.5198568 -0.19103321 -0.59325004 -0.5585564
000040 4b ab b1 be e5 a0 d9 be 8b ed f4 be 50 20 ac be
       -0.34701 -0.42505565 -0.4783748 -0.33618402
000050 de a9 f4 be de 6c 03 bf 35 e5 be be 6e 9a 48 be
       -0.47785848 -0.51337993 -0.37284246 -0.1959016
000060 c6 98 bd be 1a 62 11 bf ab 8a be be 88 a6 97 be
       -0.3703062 -0.56790316 -0.3721517 -0.2961924
000070 1f f5 8d 3e d6 35 88 be 01 7a a0 3f 70 f4 c8 bf
       0.27726075 -0.26603574 1.2537233 -1.5699596
000080 62 a0 83 be 3a a9 e0 be e1 b4 a3 be dd 71 9b be
       -0.257083 -0.4387911 -0.31973937 -0.30360308
000090 f0 3b bd 3d 16 e7 79 bf b8 2b b6 bc 3a e4 72 3e
       0.09239948 -0.97618234 -0.022237644 0.23719874
0000a0 1f 21 28 bf 77 36 de be af 5b b2 be 47 32 9e be
       -0.6567554 -0.43400928 -0.34835574 -0.30897734
0000b0 7f c4 ea 3e e8 04 55 3f d0 16 38 bf 49 e5 a0 3e
       0.4585304 0.8321061 -0.7190981 0.3142493
0000c0 8c 75 77 bf 91 b5 ae be 85 b2 fc be b2 46 16 bf
       -0.9666374 -0.341229 -0.4935495 -0.5870162
0000d0 57 69 7f be 74 52 bc be 48 d1 cb be 95 dd ca be
       -0.24942528 -0.36781657 -0.39808106 -0.3962218
0000e0 0e 17 ed be c7 04 6b be 62 5d fe be 85 f1 aa be
       -0.46306652 -0.22951041 -0.4968062 -0.3338739
0000f0 f2 b4 c0 be ea bd 23 bf 65 4f ed be b5 35 25 be
       -0.3763805 -0.6396166 -0.46349636 -0.16133769
000100 83 ee d0 be a6 69 c1 be ac 47 d5 be c3 3b c8 be
       -0.4080697 -0.37775916 -0.41656244 -0.39108095
000110 20 a8 0b bf 18 7d fd be 15 89 b5 be 09 b6 1a bf
       -0.54553413 -0.495095 -0.35456148 -0.60434014
000120 6c 29 cf be d2 3a d5 be 8d 86 0b bf 39 1e 90 be
       -0.4046129 -0.4164644 -0.54502183 -0.28148058
000130 69 db c8 be 83 15 b2 be 5d b8 b5 be d8 6a 9c be
       -0.39229897 -0.34782037 -0.3549222 -0.30550265
000140 5d 7b d9 be 14 3b f1 be 9a 40 d5 be 7f 71 53 bf
       -0.4247693 -0.47115386 -0.4165085 -0.82595056
000150 a8 06 c5 be 36 9b fb be da 0d b0 be a2 0e bf be
       -0.3848164 -0.49141854 -0.34385568 -0.3731585
000160 79 b5 b3 be 03 8c ec be f8 f8 dc be 1d 2f 10 bf
       -0.3509939 -0.4620057 -0.43158698 -0.5632189
000170 c2 85 cd be 70 eb b4 be 1b a5 96 be 5d 09 99 be
       -0.40141112 -0.35335875 -0.2942284 -0.29889956
000180 0d 4d 79 be 3f 9e b5 be 31 47 00 bf f2 1a c3 be
       -0.24345799 -0.35472295 -0.5010863 -0.38106495
000190 dc ea ca be 8d e5 90 be 9a cd fc bd 97 d1 36 bd
       -0.39632308 -0.28300133 -0.12343903 -0.044633474
0001a0 0d 34 7c bd 34 f7 cc 3e 55 b0 7f 3e da 32 8d bf
       -0.061573077 0.4003235 0.24969609 -1.1031144
0001b0 d0 97 bc be eb ac cf 3e c0 a3 1b 3f b3 82 38 3d
       -0.36834574 0.40561613 0.6079674 0.04504652
0001c0 5b e2 ad be f7 30 c3 be 65 5f fe be fd 1f 29 bf
       -0.33961758 -0.38123295 -0.49682155 -0.66064435
0001d0 11 9a 93 be f0 39 86 be 1e b2 9c be c8 5f cb be
       -0.2882848 -0.26216078 -0.30604643 -0.39721513
0001e0 53 2b 42 3f 20 2d 9b 3e 15 23 7f bf c9 a0 3c bf
       0.7584736 0.30307865 -0.99662906 -0.7368284
0001f0 63 c3 4b bf dd 32 2c bd 05 9a cd 3d aa e0 2f 3e
       -0.7959501 -0.042040695 0.100391425 0.17175546
000200 5f 92 69 be d5 ad 19 bf b4 3d 89 be f2 f8 87 be
       -0.22809742 -0.6003087 -0.26804888 -0.26557118
000210 c3 da 08 bf 70 ba 32 bf 4f da 07 bf 18 29 f9 bb
       -0.53458804 -0.6981573 -0.5306749 -0.0076037757
000220 fa 97 2c 3e 02 7e 53 3e 77 4d a0 bf 6d 6e 75 3e
       0.1685485 0.20653537 -1.252364 0.23967905
000230 fc 0d 6b bf cf d7 d1 3d 0a e3 28 bf 72 ec 3c bf
       -0.91818213 0.1024624 -0.65971434 -0.73798287
000240 c0 53 11 bf 56 96 2a be c2 d0 12 bf 15 66 dd be
       -0.5676842 -0.16658911 -0.5734979 -0.43241945
000250 67 22 eb be d6 78 9c 3d 6b 45 c1 bd 53 f2 a4 bf
       -0.45924684 0.07640235 -0.094370686 -1.2886451
000260 5a 61 0b be 39 1f 17 be 88 11 1b bf 1b 82 5c be
       -0.13611355 -0.14758004 -0.60573626 -0.21534006
000270 42 f1 cc be 47 e3 bb be c3 fc 85 be 66 e7 d4 be
       -0.40027815 -0.36696836 -0.26169404 -0.41582793
000280 b3 c3 a9 be 55 6c bb be 33 71 c5 be a2 7f 1c bf
       -0.3315712 -0.36606088 -0.38562927 -0.6113225
000290 ad a5 7d be c0 51 83 3c 52 f4 ff ba c7 62 05 bf
       -0.24770232 0.016030192 -0.0019527769 -0.5210385
0002a0 81 93 db be cf c0 ba be 8e 74 a6 be 28 12 e7 be
       -0.42885974 -0.36475226 -0.325108 -0.4513104
0002b0 35 d9 c1 be c7 16 81 be 1a ed b0 be e2 ed 9a 3f
       -0.37861028 -0.2521269 -0.34555894 1.2103846
0002c0 f1 d9 ba be c2 1e df be 92 83 0b bf 7b fe 39 be
       -0.364944 -0.43578154 -0.54497635 -0.18163483
0002d0 05 41 84 be a6 16 98 3e e1 55 7e 3e 8d a5 3c bf
       -0.25830856 0.2970478 0.24837448 -0.7369011
0002e0 cf e5 2e bf 2c 03 66 be c4 9c 33 bf e8 b9 18 be
       -0.6831941 -0.22462147 -0.7016108 -0.14914668
0002f0 0d 51 25 bf e9 ea 04 be 3d 2f 95 be c7 5d 5d be
       -0.645768 -0.12980236 -0.29137602 -0.21617804
000300 1c e7 76 bf d5 26 a5 be a3 6a ef bd 9c 1d 09 be
       -0.96446395 -0.3225619 -0.11690261 -0.13390201
000310 35 03 ed be 3d 99 ca be 69 cf 1b bf bb 59 99 be
       -0.4629151 -0.39570037 -0.6086336 -0.2995127
000320 98 ee b2 3c 4e 74 b4 be 65 bb bc be 55 3f 83 be
       0.021842286 -0.35244983 -0.3686172 -0.25634256
000330 76 46 cc be 59 b6 ac be ca 2c 44 bf 9b ef a7 be
       -0.39897507 -0.3373287 -0.7663084 -0.32799992
000340 52 31 22 bf 12 2a ee be e4 da 08 bf c4 0c 69 be
       -0.63356507 -0.46516472 -0.53459 -0.22758776
000350 e6 6c 98 be f3 5e f3 be be f1 09 bf ec a7 af be
       -0.29770583 -0.47533378 -0.53884494 -0.34307802
000360 e9 42 9e be c3 c7 14 bf ef 4b 99 be 62 51 8c be
       -0.30910423 -0.5811731 -0.29940745 -0.2740584
000370 fc 3c 99 be b5 87 eb be 26 43 b2 be 07 5a 9b be
       -0.2992934 -0.46001974 -0.34816855 -0.30342123
000380 60 fc fa be 8b f0 cd be f4 47 c1 be fa cb bc be
       -0.49020672 -0.40222582 -0.37750208 -0.36874372
000390 65 40 71 3e ba 42 80 3f bf 51 fd 3e 48 49 e0 be
       0.23559721 1.0020363 0.4947643 -0.4380591
0003a0 29 c9 af be 13 bc 8c be c0 25 fc be 03 9c ba be
       -0.3433316 -0.2748724 -0.4924755 -0.36447152
0003b0 19 05 bd be ba 82 fd be 8d 12 05 bf aa df 38 bf
       -0.36917952 -0.495138 -0.5198143 -0.72216284
0003c0 a7 cf 38 bf f6 64 94 be 69 da a7 be 35 e6 94 be
       -0.7219185 -0.28983277 -0.3278382 -0.29081884
0003d0 fa e1 df be ac d6 cd be 4b ed cb be 40 57 95 be
       -0.43727094 -0.40202844 -0.39829478 -0.2916813
0003e0 9e 8b bd be 88 cd 15 be e0 1d 02 bf a1 39 2b be
       -0.37020582 -0.14629185 -0.50826836 -0.16721202
0003f0 88 da 6c be 88 b3 4c be a8 ac bc be 5b d9 b1 be
       -0.23130238 -0.1999036 -0.36850476 -0.34736142

lstm.weight_hh_l0 f4 [512, 128]
000000 a7 50 b1 3e a4 3c 2e bf e6 ee 65 be aa b3 77 be
       0.34631845 -0.6806128 -0.22454414 -0.2418963
000010 a6 4c 67 bd 69 1a 13 3e 45 64 49 3e d0 48 f6 bd
       -0.056469582 0.14365543 0.19667156 -0.12025607
000020 33 18 96 3d df 2c 9a 3e 6a 2d 1b bf 1d 0b 80 3f
       0.073288344 0.3011236 -0.6061617 1.0003392
000030 ae 1b a2 3e 44 6a 4c 3d 12 b3 6a 3d c5 7e ae bd
       0.31661743 0.04990603 0.05729968 -0.08520273
000040 a5 09 df bd fe 1c 1b 3d 80 7f a4 bd 0f f0 93 3d
       -0.108905114 0.037869446 -0.08032131 0.07223522
000050 79 46 03 3d fe f1 8b 3d 47 19 37 be 32 9c af 3b
       0.03204963 0.06833266 -0.17880736 0.005359196
000060 26 e0 50 3d 44 61 3b be 4c 3f 09 bf 20 ca 7d 3d
       0.050995015 -0.18298823 -0.5361221 0.06196034
000070 e4 4c 02 bf c9 15 cb bd 89 c1 42 3d d5 50 91 be
       -0.50898576 -0.099162646 0.04754785 -0.28381982
000080 f6 35 1c be d2 26 bf 3d a8 0a 15 bf 0e 49 1b 3e
       -0.1525496 0.09333576 -0.58219385 0.15164587
000090 fb 76 13 3f 98 1a 22 be 34 d7 56 be 18 b8 8c bd
       0.57603425 -0.15830457 -0.20980531 -0.068710506
0000a0 7f d7 37 be 6b 71 08 3e 7a 19 51 be 77 26 46 be
       -0.17953299 0.13324516 -0.20419875 -0.1935061
0000b0 c1 80 c6 3d e6 9f 3d bf ac da d9 3c 3a 16 1f be
       0.096925266 -0.7407211 0.026593529 -0.15535823
0000c0 45 2c eb 3e 3c aa 21 3e ce e9 60 3d b0 9d 64 3e
       0.45932212 0.15787596 0.054910474 0.22325778
0000d0 e7 3a 33 3c 41 da 9a 3b 1a 02 92 3e a1 86 9b 3d
       0.010939336 0.004725725 0.28517228 0.07594038
0000e0 d0 89 f1 bc 43 e7 b1 be fd 32 cc 3e 75 d0 fd 3e
       -0.02948466 -0.3474675 0.3988265 0.49573103
0000f0 84 27 95 be 93 b6 07 be 8c a7 d5 3f 6e 31 ee bd
       -0.2913171 -0.1325324 1.6691756 -0.11630522
000100 7e 18 f1 be f2 52 3a 3e 98 55 9a be 95 b2 c8 3e
       -0.47089 0.18195704 -0.30143428 0.39198747
000110 26 f9 30 3e ce 2d 40 3e 6f 5d fd 3e e3 89 e6 3c
       0.17282543 0.18767473 0.49485347 0.028141921
000120 c4 fc 6f 3e 1d 04 bd 3c 3a 34 42 bc 81 38 74 be
       0.23436266 0.02307325 -0.011853272 -0.2384968
000130 2e f9 52 bf d3 d6 0a 3d 09 50 c7 bd 7b 08 05 3d
       -0.8241147 0.03389628 -0.09732062 0.03247879
000140 db 62 aa 3d b5 e7 11 bf d6 f4 a3 be 4a 9c e0 be
       0.083196364 -0.5699418 -0.32022732 -0.4386924
000150 4f c7 cc be 23 a5 39 3e cb 91 f0 bc a6 3e b4 be
       -0.3999581 0.18129401 -0.029366395 -0.35204047
000160 0d 47 16 3e 08 8f b0 3d 5c cb cc 3e cd 04 db 3e
       0.14675541 0.08621031 0.399989 0.427771
000170 a2 69 aa be a1 23 91 be c5 20 c4 3c 72 b7 94 be
       -0.33283716 -0.28347495 0.023941407 -0.29046208
000180 ef 66 0d bd 5f ec 2f bd 21 3c 23 3e 94 de 81 bd
       -0.034521993 -0.04295003 0.15940906 -0.063412815
000190 02 18 8e be 0f 81 1a bd c2 b5 04 3e 83 d8 6c be
       -0.27752692 -0.037720736 0.1295996 -0.23129468
0001a0 0f 76 48 bf 31 d9 80 3d aa 9c fd bb 1e 05 55 bd
       -0.78305143 0.06291426 -0.007739623 -0.052006833
0001b0 71 20 a0 3f 7b a0 9a be 92 95 88 3f 79 e9 0c 3f
       1.25099 -0.30200562 1.0670645 0.5504375
0001c0 36 e8 1b 3d 41 bd 28 bd 3f 16 06 be c4 70 18 be
       0.03806325 -0.04119611 -0.13094424 -0.14886767
0001d0 46 57 7e 3c 21 db d4 3f 3c 91 02 be ca 14 26 3d
       0.015523737 1.6629373 -0.12750715 0.04054717
0001e0 43 11 a2 bd fd 6f 27 3d 78 04 23 be 94 38 0e c0
       -0.07913449 0.040878285 -0.15919673 -2.2222033
0001f0 cb 06 ef bd cc 27 2c bf c4 fd 8e 3d 9a 3a f4 be
       -0.116712175 -0.67248225 0.06981996 -0.4770096
000200 42 c5 4a 3d f5 3c dd 3c 93 ee b4 bd fa 8b d2 bb
       0.049504526 0.027006606 -0.08834567 -0.006425378
000210 c2 0c 6c bb d2 7d 4e 3e 8c 89 ec bc 5c 39 4a be
       -0.0036018346 0.20165184 -0.028874181 -0.19748443
000220 05 c3 d3 3d d2 96 14 be 76 36 13 be 2c 10 28 3e
       0.103399314 -0.14510658 -0.14376244 0.16412419
000230 f3 21 ae 3d 8c fb ce 3c 51 73 9f bc cf 7e 2e 3e
       0.08502569 0.025266431 -0.019464167 0.17040561
000240 db 0d f9 bd df e2 94 bd 4d 23 ba bd 0b 82 00 3e
       -0.12160846 -0.07269835 -0.09088764 0.12549607
000250 9e 46 03 3d ef d8 1e be 77 35 3b 3c b3 9a 95 3d
       0.032049768 -0.15512441 0.011426321 0.07304897
000260 16 bc e1 bc c1 9e 12 be 52 50 5e 3d 53 a4 e1 3d
       -0.027555507 -0.14318372 0.05427582 0.110176705
000270 fb 88 5d 3d 04 0e 28 3d f7 74 46 3d 58 2a 46 bd
       0.054085713 0.04102899 0.04845139 -0.048380226
000280 e1 05 14 3e 25 2f 6e 3d 41 aa 73 bd 7b 51 a9 bc
       0.14455368 0.05815043 -0.05948854 -0.020668736
000290 fc d9 ec bd be 2b 1d be 1f ad 06 be c0 1b 60 bd
       -0.11565015 -0.15348718 -0.13151978 -0.054713964
0002a0 c9 f7 2d be 4a 9d c0 bd f1 49 af bd 66 e5 f7 bd
       -0.16989054 -0.094050005 -0.08559025 -0.12104301
0002b0 d3 d5 d3 3d e4 c6 28 bd 68 1c 88 3c d9 e3 b5 3d
       0.10343518 -0.041205302 0.016615108 0.08881349
0002c0 38 28 02 3d 9f ce 70 3e 35 8e 26 be 47 a3 d4 3c
       0.031776637 0.2351632 -0.16265185 0.025956763
0002d0 a0 35 e0 bd a4 c1 c3 bd 6f 0a 6d 3c ae bc 7b 3d
       -0.10947728 -0.095584184 0.01446782 0.061459236
0002e0 a5 b9 c3 bd e3 6a 9c bd d9 3a ad 3d 88 a1 45 3e
       -0.09556893 -0.076375745 0.0845849 0.192999
0002f0 33 65 41 be 6c f3 bd 3d 2e 5d c8 3d 49 f3 20 3d
       -0.1888626 0.09274945 0.097833976 0.039294515
000300 61 c3 84 3d 8b 87 96 3d 45 52 10 bd 00 ee 16 3e
       0.06482578 0.073500715 -0.03523471 0.14739227
000310 64 08 ab bd fa 00 17 be 87 5f 07 be 5b d6 fe 3c
       -0.0835121 -0.14746466 -0.13220035 0.031108072
000320 51 f5 bb 3c 80 69 e2 3d 6f 9a 87 3c 02 b3 25 bd
       0.022944124 0.11055279 0.016553132 -0.04045392
000330 54 86 28 bc 5b bb 25 3e 93 63 9a 3d 4f 59 d3 3b
       -0.010285933 0.16184752 0.075385235 0.0064498554
000340 f8 21 01 3e 71 b8 bb 3c 4e 1c 45 bd 0c 45 79 be
       0.12610614 0.022915097 -0.048122697 -0.24342746
000350 73 6d 1c be a8 b4 45 3e 82 66 fa 3c fd e4 d4 bd
       -0.15276127 0.19307196 0.030566458 -0.103952385
000360 ee df aa 3d 00 62 6c 3d 32 2c 2f bd 3e f6 2f 3e
       0.083434924 0.057710648 -0.042766757 0.17183778
000370 09 fe 64 be f2 8d f5 bd c6 56 33 3d 12 d4 19 be
       -0.22362532 -0.119899645 0.043783925 -0.15022305
000380 cd 15 4f bc c8 44 e0 bb b1 d6 90 3e 2a 9b 18 3d
       -0.012639475 -0.006844137 0.28288797 0.03725735
000390 f3 8b d7 3c 55 f5 1b be 67 5e cb 3d 8d 4e 12 be
       0.02631185 -0.15230305 0.09930115 -0.14287777
0003a0 a5 b5 c6 bc dc d8 bf 3c 0a 9e ef 3a be 5a c2 3c
       -0.024256537 0.023418836 0.0018281352 0.02372491
0003b0 5f b0 b4 3d e3 19 06 3e 55 5e ec 3c 09 9a 0a 3d
       0.088227026 0.13095812 0.028853575 0.033838306
0003c0 c9 29 1d bd b1 f2 04 bd 25 c2 0f 3e 0d b5 4e be
       -0.038369928 -0.03245801 0.14038904 -0.20186253
0003d0 bd 59 e0 3a 3b e9 ca 3d c0 4c 8c 3c 5f cd 7e bb
       0.0017116588 0.099077664 0.017126441 -0.0038879735
0003e0 e3 a4 86 bc 60 13 11 be 01 0b 52 be f1 f6 d1 bd
       -0.016436046 -0.14167547 -0.2051201 -0.102521785
0003f0 59 0b da bd 6e 11 2a be 46 21 a4 3c b3 06 0f 3e
       -0.10646696 -0.16608211 0.020035397 0.139674

lstm.bias_ih_l0 f4 [512]
000000 cb 1d 85 3c 48 19 75 bf c6 1b 56 bf c2 73 4b bf
       0.016249558 -0.957417 -0.8363613 -0.7947351
000010 f2 b2 96 bf 22 31 0a bf 40 d1 8d bf 7c a7 b5 be
       -1.177336 -0.5398122 -1.1079483 -0.35479343
000020 12 1f 3b bf ad 95 82 be 68 24 5a bf e7 94 db 3e
       -0.73094285 -0.2550482 -0.852118 0.4288704
000030 b6 c8 36 bf 7e de 78 bf 3b ef 90 bf 0b 1a 71 bf
       -0.7140001 -0.97214496 -1.1323007 -0.94180363
000040 f9 32 80 bf 96 8b 80 bf bc cb 86 bf e2 ae 91 bf
       -1.0015556 -1.0042598 -1.0530925 -1.1381495
000050 cd d3 94 bf 1b 96 75 bf 5a 64 83 bf 93 75 89 bf
       -1.1627136 -0.9593217 -1.0265 -1.0739006
000060 3d 5b 7d bf 01 41 5d bf f6 e1 b9 be 42 7c bc be
       -0.98967344 -0.86427313 -0.36305207 -0.3681355
000070 3b 52 59 bf ab fe 72 bf fa 75 eb be 11 56 a1 be
       -0.848911 -0.9491984 -0.45988446 -0.31510976
000080 f7 94 84 bf aa 8c 7d bf 51 a6 b3 be b5 cc 88 bf
       -1.035796 -0.9904276 -0.35087827 -1.0687472
000090 1e d2 96 be 5d dc 50 bf 28 cd 5f bf 76 88 5a bf
       -0.29457182 -0.8158625 -0.8742242 -0.8536447
0000a0 97 19 8b bf 2c ea 1a bf 9b f5 62 bf 48 51 32 be
       -1.0867184 -0.6051357 -0.88656014 -0.17413819
0000b0 eb da 92 bf a2 07 3d be 8e 1d 9a bf ff ea 85 bf
       -1.1473058 -0.18459943 -1.2040269 -1.046234
0000c0 bc a2 25 bf e1 60 78 bf 51 8d 6b bf df 0b 86 bf
       -0.6470144 -0.97022825 -0.92012507 -1.0472373
0000d0 2f be 48 bf bb c2 90 bf e4 69 41 bf e5 b7 7d bf
       -0.784152 -1.1309427 -0.755522 -0.99108726
0000e0 33 63 85 bf 18 61 02 bf 4d 4e 1a bf fc d3 79 bf
       -1.0420898 -0.50929403 -0.6027573 -0.9758909
0000f0 7f 49 5b bf 70 c2 93 bf 9f 34 2f bf 45 62 a0 bf
       -0.8565902 -1.1543713 -0.6843967 -1.252999
000100 d4 27 25 bf 42 a6 70 bf 88 2c 1e 3e 14 47 8b bf
       -0.645139 -0.9400369 0.15446675 -1.0881066
000110 82 52 1b bf be ae 95 bf c9 39 2c be 4f 67 71 bf
       -0.6067277 -1.1693952 -0.16818918 -0.9429826
000120 31 f1 29 3f 37 db 72 bf 7a 86 50 bf 48 ef 59 bf
       0.66383654 -0.94865745 -0.81455195 -0.8513074
000130 29 fe d1 3e 6f 0d 8e bf b2 ae 4b bf d4 8d 31 bf
       0.4101422 -1.109785 -0.7956344 -0.6935704
000140 d9 e6 8f bf 32 72 06 bf 4b 55 1c bf f3 b9 8a bf
       -1.1242324 -0.52518 -0.61067647 -1.0837997
000150 a5 59 8e bf af 36 1c bf 64 cd 7c bf f7 10 82 bf
       -1.1121107 -0.6102094 -0.987509 -1.0161427
000160 97 82 6c bf 42 50 86 bf f5 8f 76 bf aa 0d af 3e
       -0.92386764 -1.0493243 -0.9631341 0.34190112
000170 b1 c6 77 bf bc f8 83 bf 77 a2 8b bf 56 71 fa be
       -0.96787554 -1.0310283 -1.0908955 -0.48914593
000180 db 48 16 bf 98 e9 8d bf 06 aa 67 bf aa fa 90 bf
       -0.5870492 -1.1086912 -0.9049381 -1.1326497
000190 b2 b3 a4 3e cf 5a 95 bf cd 8a e8 be 87 38 38 bf
       0.32168347 -1.1668338 -0.45418397 -0.71961254
0001a0 eb e0 e2 be cb cf 6c bf 81 64 88 bf 46 59 54 bf
       -0.44312224 -0.92504567 -1.0655671 -0.8294872
0001b0 de 52 5b be 10 33 5f bf 67 13 cd 3e 99 1a 6a bf
       -0.2141833 -0.8718729 0.40053865 -0.91446835
0001c0 fe 55 96 bf 82 3d 86 bf 56 2f 9d bd ef c1 aa 3c
       -1.1744993 -1.0487521 -0.07675044 0.020844428
0001d0 4b 98 9f bd fb 59 cb be 4b b3 91 bf 3d 5b 57 bf
       -0.077927195 -0.39717087 -1.1382841 -0.84123594
0001e0 21 9a a0 3e 96 fe 86 bf eb 53 82 bf 84 9f 86 3e
       0.3136759 -1.0546443 -1.018186 0.26293576
0001f0 e8 05 59 bf f1 5a e5 be 35 de 8f bf 5d 94 6e be
       -0.8477464 -0.44795945 -1.1239687 -0.23298784
000200 c3 88 b3 be d3 ee 4c bf e4 60 4b bf b9 4b 69 bf
       -0.35065278 -0.80051917 -0.7944472 -0.9113117
000210 b0 48 29 bf 94 0a 81 be 0b 58 32 bf 4d 3b 6d bf
       -0.6612654 -0.25203383 -0.6966559 -0.9266861
000220 32 9e e7 be c4 64 00 bf e0 0b 69 bf 66 57 ff be
       -0.4523788 -0.50153756 -0.91033745 -0.49871367
000230 83 48 6e bf 43 55 3a bf 97 67 37 bf 12 fb 3d bf
       -0.93079394 -0.7278635 -0.7164244 -0.7421123
000240 cc 70 2d bf 98 d0 0e bf 89 96 12 bf 60 69 25 bf
       -0.6775024 -0.5578704 -0.5726095 -0.64613914
000250 46 4d 38 bf 97 0c e6 be a9 5b 34 bf 0e 1f 36 bf
       -0.7199291 -0.4493148 -0.7045236 -0.71141136
000260 87 bf 49 bf 78 4d 3a bf a3 c7 68 bf 13 d3 11 bf
       -0.7880787 -0.7277446 -0.9092962 -0.569627
000270 9e 3a 4a bf a3 28 4d bf 7e b8 0f bf c2 b0 09 bf
       -0.7899569 -0.8014013 -0.5614089 -0.53785336
000280 41 a8 2a bf bb a8 51 bf 02 0b 81 be de be 42 bf
       -0.66662985 -0.8189809 -0.2520371 -0.7607249
000290 2f 6e 64 be f7 a7 65 bf 66 27 00 bf 11 31 2b bf
       -0.22307657 -0.8970942 -0.5006012 -0.66871744
0002a0 c3 30 38 bf a0 30 55 bf 8c 51 43 bf 8d 0c 55 bf
       -0.71949404 -0.8327732 -0.76296306 -0.83222276
0002b0 13 f9 24 bf c6 b7 64 bf 07 4d 4d bf c2 27 38 bf
       -0.6444256 -0.89342916 -0.8019566 -0.71935666
0002c0 02 49 2d bf 95 4b 5f bf a5 6a 4c bf 3f 03 41 bf
       -0.67689526 -0.87224704 -0.79850227 -0.7539558
0002d0 8b f3 1a bf 4a 80 19 bf b3 12 50 bf 39 dc 39 bf
       -0.6052787 -0.5996138 -0.8127853 -0.7260166
0002e0 d6 e5 36 bf 6b 87 1b bf fb b3 4a bf dc 9e 4d bf
       -0.7144445 -0.60753506 -0.7918088 -0.80320525
0002f0 a1 28 4f bf b6 e6 3c bf d7 7e 60 bf f5 01 34 bf
       -0.8092137 -0.73789537 -0.8769354 -0.70315486
000300 c2 8b 0d bf ce 53 42 bf c7 de 17 bf bf 80 45 bf
       -0.5529138 -0.75909126 -0.59324306 -0.77149576
000310 1e 17 46 bf 59 08 51 bf 4d 9d ad be 44 5f 1e bf
       -0.77379024 -0.8165336 -0.33909073 -0.61864114
000320 cf 72 52 be 30 67 58 bf 5a b4 45 bf 41 a7 16 bf
       -0.20551609 -0.8453245 -0.7722832 -0.5884896
000330 34 a9 03 bf 4e 31 59 bf 8a 2f 33 bf 5e b6 3b bf
       -0.5143006 -0.8484086 -0.69994414 -0.73325145
000340 ad 36 4c bf b5 d5 4f bf 3e ca 6a bf d8 d8 61 bf
       -0.7977093 -0.81185466 -0.9171485 -0.882215
000350 f3 03 22 bf ee b6 55 bf 49 56 3d bf b0 89 3c bf
       -0.63287276 -0.83482254 -0.73959786 -0.73647594
000360 78 f7 2b bf a8 99 33 bf c6 e7 3f bf b7 bc 00 bf
       -0.6717448 -0.70156336 -0.74963033 -0.50287956
000370 a9 87 44 bf d9 d8 73 bf ae 55 0c bf f1 f9 02 bf
       -0.767695 -0.9525276 -0.54818237 -0.5116263
000380 aa 03 af bf 52 42 30 bf 10 43 46 bf f5 4c 46 bf
       -1.3672993 -0.68851197 -0.7744608 -0.7746118
000390 1e e6 48 be 17 b2 1e bf 77 73 db be 84 b1 22 bf
       -0.19619033 -0.61990494 -0.4286153 -0.6355212
0003a0 33 78 22 bf 5f 27 21 bf c3 89 2c bf 3a d9 53 bf
       -0.6346466 -0.629507 -0.6739771 -0.82753336
0003b0 cb d4 78 bf 98 01 44 bf 1a 2d b7 be ee 68 60 bf
       -0.97199696 -0.7656493 -0.35776597 -0.8766011
0003c0 dd 67 34 bf f8 73 33 bf 50 6a e8 be f2 75 06 bf
       -0.7047098 -0.7009883 -0.4539361 -0.5252372
0003d0 d6 42 36 bf 01 45 e6 be 62 74 30 bf 8c 74 5e bf
       -0.71195734 -0.4497452 -0.68927586 -0.86896586
0003e0 db ce 72 be 29 f3 27 bf 96 ca 32 bf a5 0f 07 bf
       -0.23711722 -0.6560541 -0.6984037 -0.52758247
0003f0 e9 0a 74 bf a8 40 18 bf 41 66 30 bf ff f0 fc be
       -0.9532915 -0.5947366 -0.6890603 -0.49402615

lstm.bias_hh_l0 f4 [512]
000000 68 d6 fb 3d 7d 30 6f bf 88 19 64 bf 35 ad 57 bf
       0.12296754 -0.9343336 -0.8910146 -0.8424867
000010 c4 1f 98 bf 50 07 de be bf 6e 9a bf 89 c0 ef be
       -1.1884694 -0.43364954 -1.2065047 -0.4682658
000020 e0 1e 23 bf 30 f3 99 be a9 83 56 bf d1 4c 06 3f
       -0.63718987 -0.3006835 -0.8379465 0.5246096
000030 6a 88 2a bf 0f 22 90 bf d2 35 85 bf 4e 80 80 bf
       -0.666144 -1.1260394 -1.040705 -1.0039155
000040 be f8 73 bf 15 18 7f bf 1a 4e 82 bf 5a a1 90 bf
       -0.95301425 -0.9964612 -1.0180085 -1.129924
000050 36 3d 8d bf 5d 87 75 bf 0b 82 8f bf 11 fc 8e bf
       -1.1034305 -0.9590967 -1.1211561 -1.1170675
000060 68 2d 88 bf fd d5 60 bf 07 22 f0 be 96 20 dd be
       -1.0638857 -0.8782652 -0.4690096 -0.43188924
000070 71 56 4a bf 4f 5a 71 bf 03 a7 1d bf 4c 04 2e be
       -0.7903815 -0.94278425 -0.61582965 -0.16993827
000080 2f 7e 88 bf 74 65 8b bf 5c 24 f4 be 42 3d 85 bf
       -1.0663508 -1.0890336 -0.4768399 -1.0409319
000090 7a 3c 37 be 68 2b 70 bf d2 2d 82 bf 75 ad 5c bf
       -0.17894164 -0.9381623 -1.0170233 -0.86202174
0000a0 ad 1d 9f bf dc 80 28 bf 30 a5 3f bf f3 17 51 bd
       -1.2430931 -0.65821624 -0.7486143 -0.05104823
0000b0 29 a0 8e bf 9b 30 58 be 84 2d 90 bf c0 5f 6d bf
       -1.1142627 -0.21112292 -1.126389 -0.9272423
0000c0 e4 41 42 bf 6a 0f 73 bf 5e f7 80 bf 2b bf 7d bf
       -0.7588179 -0.94945395 -1.007549 -0.99119824
0000d0 7c 39 40 bf 28 50 8d bf 49 10 45 bf 06 f5 81 bf
       -0.75087714 -1.1040087 -0.76977974 -1.01529
0000e0 54 bf 90 bf 82 b6 10 bf 68 16 0b bf f4 86 79 bf
       -1.1308389 -0.56528485 -0.54331064 -0.9747155
0000f0 86 b2 6e bf b4 4e 92 bf c7 5b 1c bf 93 23 99 bf
       -0.93241155 -1.1430268 -0.6107754 -1.1963981
000100 c6 bb 33 bf e5 58 83 bf 3c d8 a0 3d ea ba 82 bf
       -0.70208395 -1.0261503 0.078537434 -1.0213292
000110 f5 f2 1b bf ec 94 89 bf 97 39 13 be 2f 93 76 bf
       -0.609176 -1.0748572 -0.14377438 -0.96318334
000120 05 9b 17 3f 76 c5 70 bf cf 73 58 bf fa b5 41 bf
       0.59220916 -0.940513 -0.8455171 -0.756683
000130 27 0a fa 3e 2a d8 8b bf 0e b5 29 bf 4d 49 40 bf
       0.4883587 -1.0925343 -0.6629189 -0.7511185
000140 73 9f 8c bf 20 df 08 bf bf eb 15 bf db 85 74 bf
       -1.098616 -0.5346546 -0.58562845 -0.9551675
000150 19 fc 8c bf c2 19 10 bf c7 58 81 bf c8 a2 7f bf
       -1.1014434 -0.56289303 -1.0105218 -0.9985776
000160 64 ba 63 bf a7 5a 7d bf ad 9b 76 bf 9f 15 b6 3e
       -0.88956285 -0.9896645 -0.9633129 0.3556337
000170 2a 62 6f bf 72 0a 6d bf d7 12 83 bf 6e 9d f3 be
       -0.9350916 -0.92594063 -1.0240124 -0.47581047
000180 5f 44 e9 be a3 d6 88 bf b0 21 5b bf 8e 26 7d bf
       -0.45559976 -1.0690502 -0.8559828 -0.98886955
000190 19 0d 47 3e 25 06 88 bf 4f 8a 12 bf 6c 6a 27 bf
       0.1943859 -1.0626875 -0.5724229 -0.6539676
0001a0 08 e7 e7 be 0a 06 88 bf 17 97 81 bf 7f b0 57 bf
       -0.4529345 -1.0626843 -1.0124234 -0.84253687
0001b0 b1 6a 51 be d5 f2 5d bf 34 08 e6 3e 07 3b 67 bf
       -0.20450856 -0.8669866 0.44928133 -0.90324444
0001c0 a3 cc 83 bf 2c 39 87 bf eb 3f b1 bd ae 96 a7 bd
       -1.0296825 -1.0564322 -0.086547695 -0.08183037
0001d0 fe bb d7 3c b4 78 d2 be da c7 8c bf 14 59 61 bf
       0.026334759 -0.41107714 -1.099849 -0.8802655
0001e0 76 c9 af 3e 1d 11 7f bf ff f0 62 bf 29 76 aa 3e
       0.3433339 -0.9963549 -0.8864898 0.33293274
0001f0 a9 36 52 bf 00 98 ac be b0 f5 88 bf e2 c5 48 be
       -0.82114655 -0.33709717 -1.0699978 -0.19606736
000200 01 c5 81 be 01 40 4d bf 2b dd 60 bf 5b 76 79 bf
       -0.25345615 -0.8017579 -0.87837476 -0.9744622
000210 fb 2e 50 bf 37 1a 7a be f5 b3 14 bf f7 32 63 bf
       -0.81321687 -0.24424063 -0.5808709 -0.8874964
000220 bb 6b 1a bf 1b 81 f6 be 58 c4 45 bf bb 83 bf be
       -0.60320634 -0.48145375 -0.7725272 -0.3740519
000230 a2 c7 57 bf 37 5e 32 bf fe 5f 10 bf d6 df 46 bf
       -0.8428899 -0.6967501 -0.5639647 -0.77685297
000240 03 5a 3a bf 90 cc 16 bf 4c 51 36 bf e5 57 35 bf
       -0.72793597 -0.5890589 -0.712178 -0.7083724
000250 de 9a 42 bf 9b 08 e8 be c1 0e 4a bf d7 21 29 bf
       -0.7601756 -0.45319065 -0.7892876 -0.6606726
000260 de d3 22 bf 3d cb 3b bf 41 de 7e bf b5 e5 1a bf
       -0.63604534 -0.7335699 -0.9955788 -0.60506755
000270 ed 78 61 bf 02 58 38 bf f0 67 1a bf 0d b3 01 bf
       -0.88075143 -0.7200929 -0.60314846 -0.50663835
000280 75 24 33 bf 50 7a 69 bf 6f 96 26 be 22 35 4c bf
       -0.69977504 -0.9120226 -0.16268323 -0.79768574
000290 08 5a 58 be 98 e4 6e bf 88 9c 17 bf cd 17 2f bf
       -0.21128094 -0.93317556 -0.5922322 -0.6839569
0002a0 2f 6e 42 bf 22 6b 46 bf be e2 56 bf 6b 43 3a bf
       -0.75949377 -0.7750722 -0.8393973 -0.7275912
0002b0 ca d4 3c bf 85 f4 6a bf e1 c1 2f bf bf b5 2c bf
       -0.7376219 -0.9177936 -0.6865521 -0.6746482
0002c0 08 83 45 bf 79 b1 53 bf 2f 1e 4b bf 70 fc 45 bf
       -0.7715306 -0.82692677 -0.7934293 -0.77338314
0002d0 ea 70 3f bf cc 11 22 bf 2a 63 5a bf 01 f0 2a bf
       -0.7478167 -0.63308406 -0.8530756 -0.66772467
0002e0 47 57 38 bf 25 7f 13 bf 7d 49 52 bf 26 69 4e bf
       -0.72008175 -0.5761588 -0.82143384 -0.80629194
0002f0 63 55 37 bf 75 c7 34 bf d7 67 71 bf 30 10 22 bf
       -0.71614665 -0.7061685 -0.9429907 -0.6330595
000300 3f 20 08 bf 6b c0 3a bf f0 fd 16 bf 9d 4c 47 bf
       -0.53174204 -0.72949857 -0.5898123 -0.7785128
000310 13 ca 46 bf 25 02 4e bf 39 20 db be af ca 24 bf
       -0.7765209 -0.8047202 -0.4279802 -0.6437177
000320 2f 87 57 be 8d fa 67 bf 3e 55 33 bf 97 2f 39 bf
       -0.21047662 -0.90616685 -0.70051944 -0.7233824
000330 2b 6f d7 be 5b 49 43 bf e0 4a 4e bf 15 6a 21 bf
       -0.42077002 -0.76283807 -0.80583 -0.63052493
000340 c5 67 2c bf ca 83 57 bf 86 ae 85 bf 46 be 4f bf
       -0.6734584 -0.8418547 -1.0443885 -0.8114971
000350 35 7b 40 bf d5 54 75 bf 2a be 3e bf 58 cb 24 bf
       -0.75188 -0.9583257 -0.7450892 -0.6437278
000360 3f c9 31 bf d6 33 5b bf 73 dd 4b bf 06 d9 17 bf
       -0.694477 -0.8562597 -0.7963478 -0.59315526
000370 f2 54 49 bf 27 6d 5e bf 8b 39 08 bf 11 11 21 bf
       -0.7864524 -0.86885303 -0.53212804 -0.62916666
000380 aa b1 ad bf 5a aa 45 bf f2 52 25 bf 16 b7 37 bf
       -1.3569844 -0.7721306 -0.6457969 -0.7176374
000390 e8 b3 a5 be 8b 8b 38 bf d2 8d cf be c0 c7 1f bf
       -0.3236382 -0.72087926 -0.40537888 -0.6241417
0003a0 93 b3 33 bf 55 12 3b bf c3 3f 24 bf f6 9e 5f bf
       -0.70195884 -0.7307485 -0.6415979 -0.8735193
0003b0 14 a8 6e bf dd b2 41 bf ce 86 a6 be cc 75 3b bf
       -0.93225217 -0.7566355 -0.32524723 -0.7322662
0003c0 28 57 3a bf 7b f3 37 bf 4f 8d 18 bf 17 e9 f0 be
       -0.7278924 -0.71855897 -0.5959062 -0.47052833
0003d0 11 d9 3f bf 58 93 c7 be 5a e3 2b bf 33 fb 7f bf
       -0.7494059 -0.38979602 -0.67143786 -0.99992675
0003e0 5e 30 9f be 92 89 2f bf 47 40 29 bf 4a b9 25 bf
       -0.3109159 -0.6856929 -0.66113704 -0.64735854
0003f0 66 e9 58 bf 44 e6 05 bf 7d 86 23 bf a7 37 eb be
       -0.8473114 -0.5230448 -0.6387709 -0.45940897

lstm.weight_ih_l1 f4 [512, 128]
000000 5f 8a a9 3e a4 09 d9 3e a7 83 f0 bd 6a 24 7a 3e
       0.3311338 0.42390168 -0.11743861 0.24427953
000010 62 d2 d5 bd 82 94 ff bd 28 e7 57 bd 2a f4 27 3e
       -0.10440518 -0.124794975 -0.052710682 0.16401735
000020 71 a6 74 3d c2 5f e2 3d 2b 04 86 3e ac 5a ff 3d
       0.059729043 0.110534206 0.26175055 0.12468466
000030 35 56 8b bd 40 d3 6d 3d 51 6c 01 be 36 07 2f be
       -0.06803552 0.05806279 -0.12638976 -0.17092595
000040 8d c5 4c 3e da 84 fc 3d 4f b1 37 3d 75 83 f2 b9
       0.19997235 0.12330027 0.04484683 -0.0004625578
000050 37 04 0a bd 49 95 b2 3b fa d9 23 3c 22 ac e1 bd
       -0.033695426 0.005449925 0.0100007 -0.1101916
000060 51 25 85 3d 53 21 91 be f3 2e e8 3d 67 7d a2 be
       0.06501258 -0.28345737 0.1133708 -0.317363
000070 93 77 95 3e df 87 78 bd c5 b9 54 be a9 0d 40 be
       0.2919279 -0.06067645 -0.2077399 -0.18755211
000080 ff ed e0 3d 43 b0 a3 be 57 41 8e 3d 0e c1 ec 3d
       0.10982894 -0.31970415 0.06946056 0.1156026
000090 6a 5d 9a be 5b e4 60 3e ca b4 74 3e b8 71 cd bd
       -0.30149394 0.2196211 0.2389709 -0.10031456
0000a0 a3 e8 30 3e 98 31 c4 3d 65 96 45 3e b1 b4 ba be
       0.17276244 0.09579772 0.19295652 -0.36465982
0000b0 1f de ce bc ec 11 7a 3d 07 72 ab be e3 1d 0c 3e
       -0.0252524 0.061052248 -0.33485433 0.13683276
0000c0 f2 b9 25 be 2e 5f 17 be 29 17 7e bd 4a 60 20 be
       -0.16184214 -0.14782402 -0.062033806 -0.15661731
0000d0 3b de cc bc d7 ff a2 bd b5 73 da bb f1 87 e6 bd
       -0.025008311 -0.07958954 -0.0066666254 -0.112563975
0000e0 c7 8f 5b bb 52 11 7c 3c 17 ed 04 be 92 77 a3 3c
       -0.0033502446 0.015384989 -0.12981068 0.019954477
0000f0 00 8c 5d 3e dd 15 c6 bb 8a 37 9b be 26 50 48 3e
       0.21635437 -0.006045087 -0.3031581 0.19561824
000100 d3 cc 1b 3e 70 1e c8 bd 27 84 7f 3d 2a 04 44 be
       0.15214853 -0.097714305 0.06238189 -0.19142213
000110 49 1f 9d 3b 76 4e da bd 68 f4 12 be 9f 62 e4 bd
       0.0047949892 -0.106594965 -0.14351046 -0.11151623
000120 de 25 11 be 74 48 79 bd c5 6d 87 bd 0b 52 01 3e
       -0.14174601 -0.060860112 -0.06612734 0.12628953
000130 fd 69 84 be 58 51 02 be fb 12 d9 3d d4 52 20 3e
       -0.25862113 -0.12726343 0.10599323 0.15656596
000140 0b 74 ad 3c d8 1a ba 3d 12 28 8d bc f7 ee c3 3d
       0.021173498 0.09087151 -0.017231021 0.09567063
000150 e1 e2 0d 3d 01 89 f2 3d 53 1c 76 be 91 5c ee 3d
       0.034640197 0.11842538 -0.24034242 0.116387494
000160 fb 4e fb bd 44 9b 2b be 92 c1 53 be 2b 1d 74 bd
       -0.12270924 -0.16758448 -0.2067931 -0.05959813
000170 f2 aa 75 3e 58 c8 ac 3e c9 03 d1 3c 64 c8 a2 3e
       0.23990992 0.337466 0.0255145 0.3179351
000180 59 8c 11 be 63 91 d3 bc db e2 1c 3e 23 e7 69 be
       -0.14213695 -0.025826162 0.15320913 -0.22842078
000190 54 c8 f1 3d 0b af 95 bb ff cc 56 bd 54 06 18 3e
       0.11805788 -0.004567986 -0.052441593 0.14846164
0001a0 44 44 f2 3d 86 f1 5e bd 3d d5 90 be 42 1d 36 3d
       0.11829427 -0.054429553 -0.28287688 0.044461496
0001b0 1b 8b 97 be b6 73 e6 3d 1b 61 8d 3e 1b 62 fb bd
       -0.29598317 0.11252539 0.27613148 -0.122745715
0001c0 41 fe 0d bd 2b a1 4a bd bd 1e 50 bd 6f 89 f9 bd
       -0.034666304 -0.049470108 -0.050810564 -0.121844165
0001d0 b4 d6 a0 be aa e8 9e be d0 af 85 3d b6 ba 22 3e
       -0.31413805 -0.31036884 0.06527674 0.15891537
0001e0 da 8b e5 bd a0 41 77 be fa 55 17 3e ce 6a c4 bb
       -0.11208315 -0.24146128 0.14778891 -0.0059941774
0001f0 1a ef d4 3c a0 17 f8 3c 0f 45 bd bd cd ce 6a 3e
       0.025992919 0.030284703 -0.092416875 0.2293045
000200 ab a7 24 3e ec 81 ac 3d d8 22 85 3c eb 5a 0a 3d
       0.16079585 0.08423218 0.016251966 0.033778112
000210 99 da 86 bc 67 a5 ab bd 87 66 ff bc be e6 67 3c
       -0.016461657 -0.08381157 -0.031176819 0.014154134
000220 0a 1c 0c bd c4 d7 ae 3e b3 46 7e bd f8 69 ab bc
       -0.034206428 0.3414899 -0.062079143 -0.020924553
000230 59 48 04 be 1d 1e 4a bc 38 79 f6 3c d2 e7 d8 bd
       -0.12918223 -0.012336281 0.030087098 -0.10591091
000240 ba f2 a1 3d dc 91 b8 3d 36 c8 f0 bd f9 8b 0e 3d
       0.079076245 0.090121955 -0.11756937 0.034801457
000250 f1 b1 55 bd af 95 a6 bd 9a 59 bd 3d da 9c 84 3c
       -0.05217165 -0.08134019 0.09245606 0.016188074
000260 c1 da 1e bd 14 35 6f bd c1 2e 05 be a2 9d 1f 3e
       -0.03878284 -0.05840023 -0.13006116 0.15587476
000270 93 e6 02 3e ce 8f 35 3c 8f a5 be 3b 15 e7 75 be
       0.1278327 0.011081649 0.005818076 -0.24013932
000280 ab e9 35 bd 91 af 01 bd 94 83 ad bb 78 01 20 3d
       -0.044412296 -0.031661574 -0.0052952264 0.0390639
000290 a3 02 94 be 0d 31 86 bd ae 8e c5 3d 75 0c 79 bd
       -0.28908262 -0.065523244 0.096463546 -0.060802896
0002a0 9c 3b 83 3d 05 70 f6 3c 86 0b ac 3c f6 98 88 bd
       0.06407854 0.030082712 0.021001589 -0.066698
0002b0 f4 38 8a 3d d8 a8 00 3e 05 da 61 bd f8 1d 1e bd
       0.06749144 0.12564409 -0.05513956 -0.0386028
0002c0 b9 c9 c8 3d b4 d0 06 be 4c d9 da bc e3 70 ef bd
       0.098041005 -0.13165551 -0.026714943 -0.11691453
0002d0 fc 19 6f 3d 6b fb b4 bd aa be 0f 3c 52 2c 59 3b
       0.05837439 -0.08837017 0.008773485 0.003313799
0002e0 d8 2e bc 3d 9f 2e 3a 3d 03 d7 2c be f7 5b 9c 3c
       0.09188622 0.045454618 -0.16878895 0.019086821
0002f0 56 aa 06 3e 24 80 bd bd 66 2f 80 be c6 6c 02 bd
       0.13150916 -0.092529565 -0.25036162 -0.031842016
000300 8a d8 94 3d f1 db 9d 3c 8b fb 27 3d 43 15 0c bd
       0.07267864 0.019269915 0.041011374 -0.034199964
000310 48 cd 4b 3d 63 f8 24 bd 7c bf 5a 3d a5 a8 3c bd
       0.04975632 -0.040275943 0.05340527 -0.04605927
000320 a8 3b 43 bd 0b ad ca bc 4b cb 2d 3d b8 8c ad 3c
       -0.047664315 -0.024740716 0.042430203 0.021185264
000330 68 51 78 be a6 17 6d bd 42 04 09 be 42 33 c5 3d
       -0.24249804 -0.05788388 -0.1338053 0.09628917
000340 e9 eb 2d 3d a3 34 a4 3d 3f 0e fe 3b c3 82 d3 3c
       0.04246131 0.08017852 0.007753163 0.025819188
000350 6d d3 0d 3d c7 a4 a9 3d 27 8a f9 bc ce 2f af bd
       0.03462546 0.08283382 -0.030461384 -0.0855404
000360 95 1a 3b bd aa ec 1d bd 30 c3 15 bd a6 ce f5 bd
       -0.045679647 -0.03855578 -0.0365631 -0.12002306
000370 ab 53 f7 bc ac 3c b6 3d 7b 68 a0 3d db 0b df 3d
       -0.030191263 0.08898291 0.07832428 0.10890933
000380 78 7a dd bc 42 ae 4e 3b 42 a9 15 3d bd c9 ba bd
       -0.027035937 0.0031536971 0.03653837 -0.0912051
000390 02 c1 17 3d ec 16 b9 bd bf c7 3b be 1e e1 e3 bc
       0.0370493 -0.09037575 -0.18337916 -0.027817305
0003a0 87 36 10 3e a1 69 55 bb 1d 75 08 bd e5 33 de 3c
       0.140833 -0.003256418 -0.033314813 0.027124355
0003b0 4c dd e2 bd 91 0c df bc 65 c4 24 bd 22 49 fb 3d
       -0.11077365 -0.027227672 -0.04022636 0.12269808
0003c0 72 3c ab 3d 2b 8a 8b 3d 62 96 31 3d 3f 3a 49 bd
       0.083611384 0.06813463 0.043356307 -0.049127813
0003d0 ad 93 4c be 37 0d 27 be 79 9c ac 3b b3 3e cf 3d
       -0.19978209 -0.16313635 0.0052676764 0.10119381
0003e0 b1 0c c9 3c 35 ed c3 bd 59 5d 15 bd 92 b8 1e 3d
       0.024542185 -0.09566728 -0.036465976 0.03875024
0003f0 9a 71 0d bb 32 b0 21 3e 16 81 b0 3c 70 a9 6d 3e
       -0.0021582604 0.1578987 0.021545928 0.23209167

lstm.weight_hh_l1 f4 [512, 128]
000000 3a f1 88 3c 9f c7 da bd 5e c2 1c 3e 7b 1c 00 3e
       0.016716588 -0.10682606 0.1530852 0.12510864
000010 4c cd be bb 4f 03 9f 3d 88 4f e2 bd 33 eb f7 3d
       -0.005822813 0.07764303 -0.11050326 0.121054076
000020 86 34 20 3e 8e 32 32 be f7 04 9e 3d c9 75 e3 3c
       0.15645036 -0.17402098 0.07715791 0.027766125
000030 72 04 cd 3d 7f 41 18 3e 61 a7 d2 3d 2f 39 1b 3e
       0.100106135 0.14868735 0.10285831 0.15158533
000040 bc 51 fb 3d 65 41 dd bd 6a 26 03 3e 3a b7 35 be
       0.12271449 -0.10803489 0.12807623 -0.17745677
000050 ef 90 c0 3d bc c1 24 be 47 a2 af bc c2 ec 6d 3e
       0.09402644 -0.16089529 -0.021439685 0.23234847
000060 d9 45 c9 3c a4 f1 d5 3d e5 16 1a be 4c f8 d4 be
       0.024569439 0.1044648 -0.15047796 -0.41595685
000070 e3 18 3d bd 92 d8 15 bc ec 9a c9 3c aa c0 60 3c
       -0.046166312 -0.009145873 0.024610005 0.01371781
000080 b4 95 15 3e d7 18 74 bc 04 4f d2 bc b6 89 5c 3e
       0.14607888 -0.0148985 -0.025672443 0.21536908
000090 91 8e 24 3e 91 ff 41 be ad 65 b2 bd d3 dc d8 3d
       0.1607001 -0.18945147 -0.08710799 0.10588994
0000a0 db c7 30 3e cc 07 3b 3d 43 17 e8 bd 66 22 ec bd
       0.17263739 0.045661733 -0.11332562 -0.115299985
0000b0 90 0b 97 3d 8a 68 62 bd a3 12 98 bc 6c 0b 66 bd
       0.07375252 -0.055275477 -0.018563574 -0.056163236
0000c0 c6 66 e9 3c 1b 6b 5e bd ea c3 a0 3c a6 0c b2 bd
       0.028491389 -0.054301362 0.01962467 -0.08693819
0000d0 b0 e8 b5 3d c7 17 98 bd 5d 3a 13 be 96 0c 0c be
       0.08882272 -0.0742641 -0.14377733 -0.13676676
0000e0 63 69 b7 3d 1b b5 8a 3d 22 e5 8a 3d c6 60 7b 3e
       0.08955648 0.067728244 0.06781985 0.24548635
0000f0 c5 e2 50 be 91 62 19 be a2 2d 58 3c 26 4f 6d 3d
       -0.20399006 -0.14979006 0.013194473 0.05793681
000100 4d b4 0b bd 32 33 47 bd 85 ee d6 3c d2 f1 69 3e
       -0.034107495 -0.048632808 0.026236782 0.22846153
000110 af 00 81 3c 31 3b 7a 3d 9c 13 92 3d c7 ae fd bc
       0.015747396 0.061091606 0.071326464 -0.03096713
000120 23 bb cd bd c9 9f 94 bd 79 88 03 be 10 a2 d6 bd
       -0.10045459 -0.07257039 -0.12845029 -0.1048013
000130 86 94 ac bd 18 c4 ce bd af 82 d2 bd ce da 64 3e
       -0.08426766 -0.10095996 -0.10278832 0.22349092
000140 ae 39 9d bd 9b 7d 93 be 61 d8 49 3c bc 2e 8e 3e
       -0.07677017 -0.28806767 0.012319655 0.2777003
000150 7b f0 da 3d 26 25 0f be f0 05 c0 3b cf 15 b4 bc
       0.10690399 -0.13979015 0.005860083 -0.021983055
000160 ef 10 0f bc b7 fb 32 3e b8 7f a7 bd b9 e7 84 bd
       -0.008732065 0.17478834 -0.08178657 -0.0648951
000170 82 f5 04 bd 27 f0 8e 3d af ee 0e 3e a1 e4 14 bc
       -0.032460697 0.06979399 0.13958238 -0.0090877125
000180 50 9a 67 3d 81 46 31 be be 21 00 be 09 be 69 3e
       0.05654365 -0.17312051 -0.12512872 0.22826399
000190 16 af 6f 3e 8d 22 43 bd 69 5c 6f 3e ac 66 00 3e
       0.23406634 -0.047640372 0.23375095 0.12539166
0001a0 c0 43 b5 3c db 9f f0 bc 0a 35 33 3d ce 04 b1 3d
       0.022127032 -0.0293731 0.043751754 0.086434945
0001b0 17 43 0a 3e 40 04 5b bd cb 1a e7 3d 07 c9 8b 3d
       0.13502155 -0.05347085 0.11284407 0.06825452
0001c0 d0 18 ee bd a7 f8 ac 3d d5 26 b5 3d f7 c8 aa 3d
       -0.11625826 0.08445864 0.08845297 0.08339112
0001d0 03 a5 23 3e 29 38 7b 3d a5 25 1e bd 5e 9c 54 bd
       0.15980916 0.061332855 -0.03861012 -0.051906936
0001e0 43 4d bb bd ee 9c c3 3b 2d e6 03 bd ca 9f 05 3e
       -0.09145596 0.005969635 -0.032201935 0.13049236
0001f0 28 b3 ec bd 60 24 bd 3d 90 a0 b7 bd 7f f9 28 3e
       -0.11557609 0.092354536 -0.08966172 0.16501425
000200 69 8a 5e 3d ee 3d 1d 3e bf a2 02 3e d2 cc 34 3e
       0.054331217 0.15355656 0.12757395 0.17656258
000210 05 dc 3d 3e 00 49 c8 bd 69 29 97 3d d6 3a 6e bd
       0.18540962 -0.09779549 0.07380945 -0.05816158
000220 16 90 72 be 8b 1b 2c be 13 9f 01 3d 24 cf 42 bd
       -0.23687777 -0.16807382 0.031645846 -0.047560826
000230 08 86 27 3e 2e 38 ff 3d 2c 50 41 3e a1 0d 39 3e
       0.16359723 0.12461887 0.1887824 0.18071605
000240 ca c7 1a bd 19 95 45 bd 6c ea ae be 87 f1 27 3e
       -0.03778819 -0.048237894 -0.34163225 0.16400729
000250 9e 50 fa bb 1b b2 85 be 2f fc d5 3d 60 c8 69 bd
       -0.007639005 -0.26112446 0.10448491 -0.057075858
000260 84 69 78 be a5 01 f3 3d 55 56 62 bd 60 9a 32 be
       -0.24259001 0.11865548 -0.055258114 -0.17441702
000270 15 10 ab 3c 95 be c0 bc 58 7c 30 3e d3 96 4f 3c
       0.020881692 -0.023528377 0.17234933 0.012670237
000280 0c 1b 3b bc 5e 25 8b bd 31 bb 3f bd e6 77 50 3a
       -0.011420023 -0.067942366 -0.04680938 0.00079524366
000290 f5 16 36 bc 7f 27 cf bd 59 80 45 bc 98 d2 07 3e
       -0.011113872 -0.10114955 -0.012054526 0.13263929
0002a0 95 cf 5a 3e d3 8c c2 bd 42 ec 0f 3d 1a 1a f0 bd
       0.21368249 -0.09499516 0.035137422 -0.117237285
0002b0 2b 99 79 bd ea 50 14 3d a8 a4 b1 3d 52 a6 5f 3c
       -0.060937088 0.03620998 0.08673984 0.013650494
0002c0 9f da f4 3d 9f 83 83 bd 62 ce a6 bd cd b7 f3 3d
       0.11955761 -0.06421589 -0.08144833 0.119002916
0002d0 71 67 a7 3c 7a bc 73 3d c2 ab f9 3c ac 0c f3 3d
       0.020435067 0.059505917 0.030477408 0.11867651
0002e0 1f 83 32 3c a7 6f 02 3d 12 e6 c5 bd 0c 09 5c 3e
       0.0108955195 0.03184476 -0.09663023 0.21487826
0002f0 87 09 0c be b8 c8 5b be dd 47 84 3d ef fb 18 3e
       -0.1367551 -0.21463287 0.06459019 0.14939855
000300 2f 35 cc bd e3 69 b6 3d 31 69 56 3d 5c 81 b9 3d
       -0.099710815 0.08906915 0.052346412 0.090578765
000310 96 4a 7d 3d f9 e6 16 be ad ff 68 3d 50 b6 b5 ba
       0.06183871 -0.14736547 0.056884456 -0.0013863537
000320 35 f0 bc 3d 3c b8 66 be ea 68 06 bd 54 7a 08 bd
       0.09225503 -0.22531217 -0.032814898 -0.033319786
000330 c7 74 85 3d 0a a4 40 3d 5d a5 02 3e d9 a3 4f 3d
       0.06516414 0.04703144 0.12758394 0.050693367
000340 5b 8e 6e bd 9f e7 e9 bd 21 5c d1 bd 10 bf bf 3e
       -0.05824123 -0.11421131 -0.1022265 0.37450457
000350 94 3e ba 3d cf b2 8b 3c ed 2e 33 3c bb 4a 2c bd
       0.09093967 0.017053036 0.010936481 -0.042063456
000360 72 3a 19 3c 4c 53 bb 3d 02 80 86 be 56 8d a1 bd
       0.009352313 0.09146747 -0.26269537 -0.07888286
000370 cd 21 05 bc a6 0c 24 3e e4 b5 fc 3d 3e 08 50 ba
       -0.0081257345 0.1602045 0.123393804 -0.00079357985
000380 f3 42 93 bd 99 db cb bc 22 95 49 bd 83 84 24 3e
       -0.07190504 -0.024884986 -0.04921449 0.16066174
000390 18 83 eb bd 46 8b 00 bd d0 0e 08 3d 77 d1 2c 3c
       -0.114996135 -0.03138282 0.03321725 0.010547987
0003a0 a1 bc c7 bc 3b 74 2c 3e d3 41 fc 3c bf 16 49 bd
       -0.024381937 0.16841213 0.030793106 -0.049093958
0003b0 6a 74 15 3e 59 08 bc 3d 00 5e ee bb f9 20 7f bd
       0.1459519 0.0918128 -0.0072743893 -0.062287305
0003c0 b9 d0 be bd 66 82 03 3e 5c ad 17 3e 65 61 b6 3d
       -0.093171544 0.12842712 0.14812225 0.08905295
0003d0 f5 f5 d7 3d 7a 72 36 bd 08 69 87 bc 69 0d 30 3c
       0.105449595 -0.044542767 -0.016529575 0.010745385
0003e0 b9 5a b9 bd 55 82 0d 3d 95 61 52 bd 4d a5 87 bc
       -0.09050507 0.034548122 -0.051362593 -0.016558314
0003f0 c8 0e 6a bd 0b 76 c6 ba ec 68 58 bd e9 d8 7a 3e
       -0.057143003 -0.0015141381 -0.052834436 0.24496807

lstm.bias_ih_l1 f4 [512]
000000 c6 ca 63 bf aa 5e 4a bf 9f c8 e5 3d bf ad 6e bf
       -0.8898128 -0.79050696 0.11219906 -0.93233865
000010 1d 8a bb 3e 29 28 a0 be f8 08 6f bf cd ba 85 bf
       0.3662881 -0.3128064 -0.9337306 -1.0447632
000020 69 df 5e 3f ce 92 3a bf f8 6f 40 bf 20 ef 7d bf
       0.87059647 -0.72880256 -0.7517085 -0.99193
000030 87 98 7f bf 77 6e 7d bf d4 de 84 bf ad 21 b2 3c
       -0.99842113 -0.9899668 -1.0380502 0.021744573
000040 1c 69 7b bf 94 ae 8c bf 97 44 05 bf e1 93 8a bf
       -0.9820726 -1.0990777 -0.52057785 -1.0826379
000050 1b a8 68 bf d1 6c 34 bf 68 49 84 bf 1f 55 65 bf
       -0.9088151 -0.7047854 -1.0334902 -0.8958301
000060 22 79 8a be 91 4d 6e bf 66 5e 5c bf 97 68 24 be
       -0.27045542 -0.93087107 -0.8608154 -0.16055523
000070 53 18 ed be 94 0f 58 bf ba 94 6e bf 4e 28 7d bf
       -0.4630762 -0.8439877 -0.9319569 -0.98889625
000080 0c 11 7d bf ce e3 5a bf 96 8b 90 bf ae 2e 5b bf
       -0.98854136 -0.8550385 -1.1292598 -0.856181
000090 d2 8b 86 bf aa 96 42 bf 17 31 8e bf 53 3e 82 bf
       -1.051142 -0.76011145 -1.1108731 -1.017527
0000a0 b0 f6 ba bd a6 2a 8e bf 77 7e 70 bf b5 bf 71 bf
       -0.09129083 -1.1106765 -0.9394297 -0.94433147
0000b0 46 b3 66 bf 8f fb 81 bf ae 1d 4d bf 5a a2 90 bf
       -0.901173 -1.0154895 -0.8012341 -1.1299546
0000c0 c2 ab 78 bf d8 29 6a bf 8b d0 7d bf 71 33 8b bf
       -0.9713708 -0.914701 -0.99146336 -1.0875074
0000d0 a6 98 81 bf 3c 5c 94 bf e0 c1 8f bf 3c 31 8b bf
       -1.012471 -1.1590648 -1.1231041 -1.08744
0000e0 89 14 7f bf dd 08 79 bf bc 3d 7e bf ec 78 d2 bd
       -0.9964071 -0.9727915 -0.9931295 -0.1027697
0000f0 9a 79 58 bf 5d 91 52 bf c6 ed 6a bf 1a bc 80 bf
       -0.8456055 -0.82253057 -0.91769063 -1.0057404
000100 fa 65 6b bf 9c 46 89 bf 2e 75 cb be 6e c7 57 bf
       -0.9195248 -1.0724673 -0.39737839 -0.8428868
000110 d6 d6 88 bf 37 24 75 bf 51 46 90 bf b3 39 86 bf
       -1.0690563 -0.95758384 -1.1271459 -1.0486358
000120 36 63 95 bf de 0e f0 be fe 7a 7a bf 68 02 82 bf
       -1.1670902 -0.46886343 -0.9784392 -1.0156984
000130 a7 9a 81 bf c3 68 67 bf 00 e8 8a bf 88 99 6c bf
       -1.0125321 -0.9039423 -1.0852051 -0.9242177
000140 70 14 8d bf 82 41 74 bf 71 7c 85 bf bc eb 4d bd
       -1.1021862 -0.95412457 -1.0428602 -0.050273642
000150 63 5b 76 bf 00 d7 75 bf be 10 8c bf 36 df 86 bf
       -0.96233195 -0.9603119 -1.0942609 -1.0536869
000160 96 09 8c bf e1 05 87 bf ee 71 18 bf 80 fe 8d bf
       -1.0940425 -1.0548669 -0.5954884 -1.1093292
000170 ae 90 4a bf f3 d7 7e bf 5a 32 8b bf d4 d1 86 bf
       -0.79127014 -0.9954826 -1.0874741 -1.0532784
000180 09 83 79 bf 70 93 96 bf 8e e6 82 bf ff 27 78 bf
       -0.9746557 -1.1763744 -1.022661 -0.9693603
000190 51 f0 93 bf b9 b2 93 bf 6d 7b da be ab 5b 88 bf
       -1.1557714 -1.1538917 -0.4267229 -1.0652975
0001a0 04 b1 83 bf d3 cd 31 bf 96 bf 6b bf e5 84 57 bf
       -1.0288396 -0.6945469 -0.9208921 -0.84187156
0001b0 57 c8 6c bf bb 47 42 bf 23 2d 62 bf 47 85 e5 bd
       -0.92493194 -0.758907 -0.88350123 -0.11207061
0001c0 4e 12 f7 be d7 84 4d bf 29 d3 63 bf 06 49 84 bf
       -0.48256153 -0.8028082 -0.8899408 -1.0334785
0001d0 bb ad 5f bf 52 f9 81 bf 1a db 9b 3e 55 7e 5b bf
       -0.87374467 -1.0154212 0.304406 -0.8573964
0001e0 1c df 73 be 63 32 39 bf 6d 39 68 bf 0a 4e 8a bf
       -0.23815578 -0.7234251 -0.90712625 -1.0805066
0001f0 cd 65 9d bf f8 ef 66 bf ef aa 9d bf fc 2e 80 bf
       -1.2296692 -0.90209913 -1.231779 -1.0014338
000200 20 8d 36 bf ce dd 54 bf 5f 16 2f bf d2 38 3e bf
       -0.7130909 -0.8315095 -0.6839351 -0.7430545
000210 82 11 40 bf 24 88 73 bf c0 7e 10 bf 09 1e 1a bf
       -0.75026715 -0.9512961 -0.56443405 -0.6020208
000220 75 d0 77 bf 49 29 59 bf bc ec 7c bf 05 1b 2f bf
       -0.96802455 -0.8482862 -0.9879873 -0.68400604
000230 77 7b 47 bf 2a cb 19 bf 2a f1 30 bf d3 06 e8 be
       -0.7792277 -0.6007563 -0.6911799 -0.45317706
000240 e3 8b 2c bf d0 6b 59 bf 99 6c 81 bf 17 67 59 bf
       -0.6740095 -0.84930134 -1.0111266 -0.8492293
000250 d0 1a 4e bf 6d b7 7d bf f4 9a 14 bf 8d 60 48 bf
       -0.8050966 -0.9910801 -0.5804894 -0.78272325
000260 6f d2 4c bf 70 e6 34 bf 5d b6 0c bf 7d 4c fd be
       -0.80008596 -0.7066412 -0.54965764 -0.49472418
000270 c2 d8 8f bf aa 8b 6e bf 4a fd 31 bf b7 33 2d bf
       -1.1238024 -0.9318186 -0.69527113 -0.67657036
000280 68 6d 56 bf 85 7c 43 bf 91 9c 22 bf 27 50 73 bf
       -0.8376069 -0.76361877 -0.6352015 -0.9504418
000290 66 90 34 bf 88 4f 94 bf ea 7b 38 bf 5f fd 55 bf
       -0.70532835 -1.1586771 -0.7206408 -0.8358974
0002a0 30 ef 3c be 05 09 14 bf d0 7f 4c bf 3d e0 71 bf
       -0.18450618 -0.5782626 -0.79882526 -0.94482785
0002b0 09 c2 4b bf f5 dd 3e bf f6 6a 4e bf b4 a5 2b bf
       -0.7959295 -0.7455743 -0.8063196 -0.6704972
0002c0 63 b0 1a bf 23 1a 37 bf 3e 84 3e bf 1e 1f 16 bf
       -0.60425395 -0.71524256 -0.74420536 -0.5864123
0002d0 29 a6 2c bf 13 2e 1c bf 38 46 6a bf 36 a0 58 bf
       -0.6744104 -0.61007804 -0.91513395 -0.8461946
0002e0 0d 89 16 bf 32 07 05 bf 2e 32 27 bf f3 64 72 bf
       -0.5880287 -0.51964104 -0.65310943 -0.94685286
0002f0 6b 74 4e bf 48 fe 60 bf 23 bd 44 bf d3 01 22 bf
       -0.8064639 -0.87888 -0.768511 -0.63284034
000300 83 da 4c bf 21 e0 1e bf 2e 61 82 bf 6d ab 36 bf
       -0.8002092 -0.62060744 -1.0185907 -0.71355325
000310 ee 75 23 bf d6 a4 68 bf 4a b3 10 bf e9 e0 28 bf
       -0.6385182 -0.9087652 -0.56523573 -0.65968186
000320 c7 3f 33 bf 7e 56 6e bf 4b 57 4a bf 4c 2e 38 bf
       -0.7001919 -0.93100727 -0.7903945 -0.71945643
000330 5c cc 0f bf 4d 04 66 bf 05 3d 3b bf 1f ac 73 bf
       -0.561712 -0.8985031 -0.73139983 -0.9518451
000340 60 de 22 bf d2 00 67 bf ba cb 3b bf 44 4a d8 be
       -0.6362057 -0.90235627 -0.7335774 -0.4224416
000350 4e 35 32 bf de 8c 2e bf 9e b7 40 bf 53 f2 4b bf
       -0.69612586 -0.68183696 -0.7528018 -0.7966663
000360 55 36 1e bf 32 23 40 bf 99 43 78 bf df e7 2a bf
       -0.61801654 -0.75053704 -0.96978146 -0.6676006
000370 58 4e 35 bf ca a4 34 bf 85 89 1f bf 1f 1d 2f bf
       -0.7082267 -0.7056395 -0.62319213 -0.6840381
000380 20 9c 29 bf 45 1d 3e bf c3 37 2a bf b9 c8 22 bf
       -0.6625385 -0.7426341 -0.66491336 -0.6358753
000390 7b df 3e bf 29 cc 18 bf d3 24 77 bf 70 12 13 bf
       -0.74559754 -0.59686524 -0.96540564 -0.5745001
0003a0 94 1c 24 bf ac c6 76 bf a7 d0 56 bf 5c be 7d bf
       -0.64106107 -0.963969 -0.8391213 -0.9911859
0003b0 e3 39 77 bf d3 9b 67 bf 1d b3 73 bf 11 28 2d bf
       -0.96572703 -0.90472144 -0.9519518 -0.6763926
0003c0 89 42 5b bf fb 87 3f bf 04 16 41 bf 7f 09 30 bf
       -0.856484 -0.74816865 -0.7542422 -0.6876449
0003d0 b2 93 46 bf 9e 42 54 bf 56 ca 3e bf ee 2e 61 bf
       -0.77569115 -0.8291415 -0.7452749 -0.87962234
0003e0 28 c8 7b bf 1f 69 64 bf 52 d2 57 bf a3 41 1f bf
       -0.9835229 -0.892229 -0.843053 -0.6220953
0003f0 15 3c 3b bf ee d0 5e bf c4 14 46 bf 55 ea 17 bf
       -0.7313855 -0.8703755 -0.77375436 -0.5934194
