models/LSTM_qal_foot_epochs10.pth (torch, 807022 bytes, 10 tensors)

lstm.weight_ih_l0 f4 [512, 4]
00000000: 1f45 ddbd c37f 2abe 5754 963c cd28 93be
00000010: 993d 16be 8c9c 42be 13e3 7abd 93a8 2fbe
00000020: 235e 0c3f 2ff3 89bd 2905 dcbe 8ce3 89bd
00000030: 2ad5 473d 918a 1d3f d229 cf3d c3f9 6ebf
00000040: f321 ecbe 617b 4abe 21f2 203d 31a5 acbe
00000050: ac03 643e 3c7d 40be 2770 fdbd fecf a13e
00000060: a1a3 89bd 4adb 623c 33b3 323d a4c8 233e
00000070: fa8d f73e 843e 2d3e 866a 53bf e794 a0bd
00000080: c0e4 1c3e 5dae 9fbe 9aa1 063e 2f4c d1be
00000090: a3ac 99bd 513b 293c 3e8c 9bbd 4407 4fbe
000000a0: 6a99 61bd f061 8f3e d1a7 43bd 7482 9bbe
000000b0: 7cdf 89bd a54b 18be 9667 08be 68b3 453e
000000c0: 3df9 28be e023 41be 5894 debc 21d4 05be
000000d0: f11f d5bd 15d7 61bd 0d33 d3bd bd3e 3ebe
000000e0: 17ab a2bd 9e6a e5bd b1c6 bebd 21dd e4bd
000000f0: 326c 71be ab51 25be 2f27 2ebd d83a 8abc
00000100: d1f9 84bd 4cc6 2ebe 1a9f bdbd 896c e3bd
00000110: ed62 29be f51d a9be a612 c93d d73e e7bd
00000120: 9fc4 81be 9296 9d3e f74b 74bf 5cb9 ee3e
00000130: 305c b9be 45ad e63e fb61 e1bd 4c6e 45bd
00000140: 4b82 cfba 296a d8bd d969 d8bd bef1 cf3d
00000150: 690d 4dbe 6b0a 0dbe 6330 493d b755 fcbd
00000160: 3e1c 0e3e b3ce b6be 38cf 84be d4a9 35be
00000170: f324 5dbe 6dfc 04bc efc3 c3bd fde4 0dbe
00000180: 3955 0b3e 7996 6b3a 88ab 1fbf ca87 243f
00000190: 7e62 203d c1c9 453f 2396 02bf 445e 053f
000001a0: 3fa5 873d 9c94 ce3d 2963 03bf 8a28 203e
000001b0: 24ab 723b fc50 843e c6af 013e 55ce 86be
000001c0: b92e 203f c71b 42be 00a4 013f 8f9c 0abf
000001d0: 7d34 b1be 1ee4 a6be 78b9 00bf 2520 dabc
000001e0: 98d5 303f 133e a93e dad9 29bf 2cbc 0f3e
000001f0: 92ac 3bbe 2b30 b63b 9494 383d 7ef8 9ebe
00000200: 1cb5 a2be 7708 17bf 7c73 a43e 90a8 b03e
00000210: 5eaf 77bd 5c61 b33d 5d2f 843e 1da3 a33d
00000220: 4df4 f6bd 591a e3bd 8c5f 23be d2ea f0bd
00000230: 4c30 76be ee73 c8bd 7538 4ebd 3a8f 4bbe
00000240: 13c7 0ebc ae60 603e a53b b83c 2340 43bd
00000250: 7817 a63e 0884 713f d75d c43e 6826 20be
00000260: 64bc 80be 608e 7dbe 50bc 86be e097 19be
00000270: d635 01bd 9d6e 20bd e647 33be 61be 2bbe
00000280: ec1d 1abe 6397 f4bd ea30 43bd 2c7c 74be
00000290: 7a06 1cbe 6d2e 893e 1aa6 0e3e aa8e 52be
000002a0: 2075 1a3c 693c 8abe 5c76 613e b213 073e
000002b0: f1c5 fbbd a68b e93d ac74 b13e 4def 2dbe
000002c0: d77e 28bd e3ff 5fbd 126f dbbe 8f22 073f
000002d0: a185 8abe bf49 5cbe 57fd 4cbe ad17 87bd
000002e0: b443 1bbe 1fdc 1f3d 7daa a13d 333c f7bc
000002f0: 1f9f 50be 2f58 05bf 5577 13be 9695 8e3e
00000300: bc98 27be 25b3 c03c d449 96bd 0141 6fbe
00000310: 5b6f e2be 79c5 d23d 7bf0 f9bd 6462 d8bd
00000320: 89b1 43be 0dab 3ebf 8403 063f ec5c 2b3e
00000330: 5f09 14be 42bd 87be 4026 2ebe ab6e 12be
00000340: c3b2 13be c7bb 4abe 1a27 d0bd a06d cdbd
00000350: eaa4 b1bd 476e 10be 3037 c3bd 24e1 4bbe
00000360: 65c2 35be 7848 18bd 971f 6cbe 5a83 74be
00000370: 98cf 23be 8bc3 923d 3024 bc3d f5dd 5a3d
00000380: d93a 61be b0ca 013e d1c6 c83d 10d9 96bd
00000390: 2906 97bd b97e b5bd b027 96bc 9c06 8f3d
000003a0: 1535 153e dbcd 923d 2b40 10bf 8356 9ebd
000003b0: ff47 c23e 983a 4ebe 3ccc 57be 4c8a 8cbe
000003c0: 974c 1ebd de93 563e aaaf 563e 6637 03bf
000003d0: 64b9 50be 9884 41bd f311 97be 19b1 953e
000003e0: 1ec5 74bd 0805 8a3d 31aa 093e eb9c 32be
000003f0: 841a 4e3d 4d94 93bd cf67 f3bc 05a8 56be
-0.108041994 -0.166503 0.018350763 -0.28742066 -0.14671935 -0.1900503 -0.06125171 -0.1715415
0.5483114 -0.06735837 -0.42972687 -0.06732854 0.048787273 0.6153956 0.101153985 -0.93349856
-0.4611965 -0.19773628 0.039293412 -0.3371978 0.22267026 -0.18797773 -0.12374907 0.31603998
-0.06720663 0.013846228 0.04362793 0.15994507 0.48350507 0.16918379 -0.82584417 -0.07840901
0.15321636 -0.31187716 0.13147584 -0.40878436 -0.07503631 0.010329084 -0.075951084 -0.20217615
-0.055077948 0.28004408 -0.047767464 -0.30372965 -0.067320794 -0.14872606 -0.13320765 0.1930672
-0.16501327 -0.18861341 -0.027170345 -0.13069202 -0.10406483 -0.05513676 -0.103124715 -0.1857862
-0.07942789 -0.11201976 -0.09315241 -0.111749895 -0.2357643 -0.16144435 -0.042517837 -0.016873762
-0.06492961 -0.17067832 -0.09258862 -0.11104686 -0.16541643 -0.33030668 0.0981801 -0.112912826
-0.25345322 0.3077894 -0.95428413 0.46625793 -0.36203146 0.4505407 -0.110050164 -0.04820089
-0.0015831677 -0.105671234 -0.10567064 0.101535305 -0.20024647 -0.13773505 0.04911841 -0.12321036
0.13877961 -0.35704574 -0.25939345 -0.17740566 -0.21596126 -0.008116824 -0.09558856 -0.13856883
0.13606729 0.0008986961 -0.6237111 0.642697 0.03915643 0.7726098 -0.5101034 0.5209696
0.06623315 0.10086939 -0.5132318 0.15640464 0.0037028277 0.25843036 0.12664708 -0.26329294
0.62571293 -0.18955909 0.5064087 -0.5414514 -0.34610358 -0.32595915 -0.50283 -0.026626656
0.6907592 0.3305517 -0.6634804 0.14036626 -0.18327549 0.0055599413 0.04506357 -0.3104896
-0.317788 -0.5899729 0.32119358 0.34503603 -0.060469978 0.08758804 0.25817385 0.07990096
-0.120583154 -0.1108901 -0.15954417 -0.117635384 -0.24041861 -0.09787737 -0.05034681 -0.19878855
-0.008714455 0.2191188 0.022489378 -0.047668587 0.3243978 0.9434209 0.38352844 -0.15639651
-0.2514373 -0.24761343 -0.26315546 -0.14999342 -0.031545483 -0.03916799 -0.17507896 -0.16771843
-0.15050477 -0.11942937 -0.04765407 -0.23875493 -0.15236846 0.26793233 0.1393055 -0.20562235
0.009427339 -0.26999214 0.22017807 0.13191107 -0.12293614 0.11403589 0.34659326 -0.16985817
-0.04113659 -0.054687392 -0.42858177 0.5278711 -0.27055076 -0.21512507 -0.20018516 -0.06596313
-0.15162545 0.039028283 0.07893846 -0.030180072 -0.203732 -0.5208768 -0.1440099 0.278485
-0.16366857 0.023522923 -0.073383 -0.23364641 -0.44225582 0.10291571 -0.12204071 -0.105656415
-0.19110693 -0.7447975 0.52349114 0.16734666 -0.144567 -0.2651158 -0.17006779 -0.14300029
-0.14423661 -0.19798194 -0.10163708 -0.10030675 -0.08674033 -0.14104567 -0.095320106 -0.19910103
-0.17749937 -0.037178487 -0.23058926 -0.23878232 -0.1599716 0.07166203 0.0918659 0.05343433
-0.21995105 0.12674975 0.09803546 -0.0736562 -0.07374222 -0.08862061 -0.018329471 0.069836825
0.1457103 0.0716817 -0.5634791 -0.077313446 0.37945554 -0.20139539 -0.21074003 -0.27449262
-0.03864726 0.20954844 0.20965448 -0.51256406 -0.20383221 -0.047245592 -0.29505882 0.29236677
-0.059758298 0.06739241 0.13443829 -0.17442672 0.050318256 -0.072060205 -0.029712586 -0.20962532

lstm.weight_hh_l0 f4 [512, 128]
00000000: f91d 2c3d f0ae f7bd 51bc bc3d 7d34 cb3c
00000010: 0fd5 113e d884 69bd cf20 463d 4c5e b4be
00000020: 1a7b 433c 6083 afbe 861b 093d b600 123c
00000030: c247 853d ed56 c7bc d22b 9a3d 2fff ecbd
00000040: 0465 db3b a022 523c c096 2f3e 6285 dabd
00000050: 88a6 bfbd 1dc6 5d3b b4a8 613e 12e4 c33d
00000060: 5303 10be be21 393e 2cc0 5ebe 08e9 803d
00000070: 4c82 a7bd 979d 7cbe ec26 fd3d 9466 943c
00000080: dda3 b0bd f2b1 30bc 4840 843c 1c53 483d
00000090: 9bf3 a2bd 304b 2d3e c981 30bc cc68 fbbc
000000a0: 3ff8 e4bb cef8 233e 9fca 413e e1c2 db3d
000000b0: 4f2c 40bc 8e51 76bc 5a69 253e 53d9 a53d
000000c0: 7f8e 03be 23f3 e73b 8cf8 473d 2c44 a33c
000000d0: 9240 70bd 1f79 163e f402 853d eb1e 2e3e
000000e0: d1f2 47be 2b4e bdbd bb36 67be d8a7 ffbd
000000f0: e4b6 0f3d 1ae9 83be 5044 703e a4de 663d
00000100: b343 623e c47d b5bc c3fc 86bd ae1b d8bd
00000110: 41a1 153e e528 06be 9b45 273e 434b ce3d
00000120: 9081 683c a60b 47be bfe9 2ebe f98b 64be
00000130: e381 0dbd 6a7c c43d 6257 0dbe 3a87 c83d
00000140: aa8e 893d c67c f0bd 5402 3abd 693b dabd
00000150: c331 1c3e f6eb 473c 13c2 c0bd 6c8d 5b3d
00000160: 3d59 8fbe e76f b23d 9e39 2cbe 8eee 9b3c
00000170: cc89 5cbc 45d6 a23d 666b 2a3d 25d1 383e
00000180: a11e c13d 0a40 103e 0b2e 3e3e 75b7 053d
00000190: 07b6 233d 6a8e 713d 50b7 7fbe ed92 babd
000001a0: 38b7 763c 795b 81be fc31 a7bc e3a9 c2ba
000001b0: ed61 2a3e a730 04bd 60bf 9b3d e862 babc
000001c0: 9fec 3d3e b5d6 b4bc 9591 363e 37a3 fb3c
000001d0: 2c52 283c d222 213d 1c9e 66be 2857 37bc
000001e0: 2781 3b3e d9c3 2cbe 141e 88bd 827a 05be
000001f0: 2f14 98bc ae85 efbd 78fc 88bc 0ed8 c33d
00000200: c263 993c 00cf bf3c 3544 f3bb 1c76 ca3d
00000210: e53e d3bd 80a0 36bc 44d7 15be 348a 923d
00000220: 5908 f23d f82b 493d d279 be3d a69a d03c
00000230: e77f 143d a44f 183e d654 b3bc 192e b83c
00000240: dca7 593d 4df6 ddbc d4df 6e3c b4b5 383d
00000250: 49dd e13c ee6e 51bd 65b3 123e 8d60 013d
00000260: e927 d4ba 678d 6dbd 9e7e 9a3d 8797 ccbd
00000270: 2807 9c3c 9272 bc3d a38d 9ebc 8729 2a3e
00000280: 059c f93c c779 5fbb b5c3 e3bc 0ae2 903d
00000290: 38b6 aa3d 8726 81bc 1a8c 39bc c8ce 043c
000002a0: 911f 52bc 4550 e4bd 306a 2dba 4321 903c
000002b0: 3297 b2bd 38a5 b1bc c366 c7bd d592 053e
000002c0: ebe1 02bd e657 83bc 2788 12be 7358 b23d
000002d0: 5d40 b0bd d465 7a3d df69 b23b 8ea8 843d
000002e0: e9c6 44bd 0467 3f3d 605d 013e 08a8 67bd
000002f0: 1e85 64bd eef8 983c 2c41 8ebd f148 6fbc
00000300: 59e7 303e 9458 dc3b fddd e8bd 6fc3 ed3b
00000310: 7658 6bbd d448 cebb feac 75bc b522 a13c
00000320: 575c 7a3d c3fa 08be e6c0 babc 414e fd3c
00000330: 6df7 eb3d d170 93bd 3049 a1bd 93d1 ae3d
00000340: 09ce 533d 7037 82bd 3808 c03c 18dd 62bc
00000350: eb6f f6bd 9b62 83bc d504 e5bd d171 983d
00000360: fa6a 2d3d 893a 9e3d e2ea 4cbd 37c0 673d
00000370: 6975 67bd 43a0 b13c e825 bf3d 1817 aabd
00000380: 2be9 6e3d c0da 2ebd 611a dd3d 3f8c 45bd
00000390: 61ba 2f3d 2f34 74bd 2022 b03c 7ee2 26be
000003a0: 6e0f 77bd 0ea2 79bc b283 c8bc f38a 2cbb
000003b0: ae64 e13d a9f5 a33d 89f0 ed3c e8e6 0dbe
000003c0: 5e34 23bc 7608 89bd 5a13 af3d 137b 383d
000003d0: a9dd 723d 9cfb bdbc 1e72 e0bd dea1 d13c
000003e0: 449e 5cbd 27c8 f6bc 6fa4 823d 59b0 7e3d
000003f0: bb19 433d c4e2 b0bc bd3f 273d d2e7 c43c
0.04202077 -0.120939136 0.09215606 0.024805302 0.14241432 -0.057011455 0.048371132 -0.35228193
0.011931205 -0.3427992 0.033473514 0.008911302 0.06507827 -0.024333442 0.07527889 -0.1157211
0.0066953916 0.012825638 0.1714735 -0.10669972 -0.09357935 0.0033840009 0.22037011 0.09564985
-0.14063768 0.18079278 -0.21752995 0.06294447 -0.08179149 -0.24669491 0.123609394 0.01811532
-0.086250044 -0.010784613 0.016143933 0.048907384 -0.0795662 0.16923213 -0.010773131 -0.03068962
-0.006987601 0.1601288 0.1892495 0.107305296 -0.011729314 -0.015034093 0.1615347 0.08098092
-0.12847327 0.0070785447 0.048821017 0.019929968 -0.05865533 0.14694642 0.06494704 0.17003982
-0.19526221 -0.09243425 -0.22579472 -0.124831855 0.035086527 -0.2576378 0.23463559 0.05636467
0.22096138 -0.022154696 -0.06591179 -0.105521545 0.14612295 -0.13101538 0.16335146 0.10072949
0.014191046 -0.19438037 -0.17081355 -0.2231902 -0.034547698 0.095940426 -0.13802865 0.097914174
0.06716664 -0.11742549 -0.045412377 -0.10655863 0.15253358 0.012202254 -0.09412017 0.053601667
-0.2799777 0.0871275 -0.16818854 0.01903465 -0.013460588 0.07951025 0.04160633 0.18048532
0.0942967 0.14086929 0.18572251 0.03264566 0.039968517 0.058973707 -0.24972272 -0.09110055
0.015058331 -0.252651 -0.020409577 -0.0014851656 0.16638918 -0.03227296 0.07604861 -0.02275224
0.18547295 -0.022075037 0.17828973 0.030717475 0.010273498 0.039339848 -0.22521251 -0.011190213
0.18310986 -0.16871585 -0.06646362 -0.13035014 -0.018564312 -0.11695419 -0.016721949 0.095626935
0.018724326 0.023414135 -0.0074239024 0.09885809 -0.103147306 -0.011146665 -0.14632899 0.071552664
0.118179984 0.049114197 0.09300579 0.025464367 0.03625479 0.1487413 -0.021891039 0.022482919
0.0531386 -0.027094984 0.014579732 0.04509516 0.027571337 -0.05113118 0.14326246 0.03158622
-0.001618621 -0.05799618 0.075436816 -0.09989839 0.019046381 0.0920154 -0.019354647 0.16617404
0.030469904 -0.0034099685 -0.027803281 0.070743635 0.08335537 -0.015765442 -0.011324907 0.008105941
-0.012824909 -0.11148123 -0.00066152494 0.017593985 -0.087202445 -0.021685228 -0.09736397 0.13044293
-0.031953733 -0.016033124 -0.1430975 0.087082766 -0.08606026 0.061132267 0.0054447497 0.06477462
-0.048041258 0.046729103 0.12633276 -0.05655673 -0.055791013 0.018673386 -0.06946024 -0.014604793
0.17275752 0.0067244265 -0.11370466 0.0072559635 -0.05745741 -0.006295303 -0.014994858 0.01966987
0.06112322 -0.13376908 -0.02279706 0.030921103 0.11521802 -0.071992524 -0.078752875 0.08536067
0.051710162 -0.0635823 0.023441419 -0.013846658 -0.120330654 -0.01603823 -0.11182562 0.07443584
0.04233835 0.077260084 -0.05002869 0.056579795 -0.056508455 0.021682864 0.09333402 -0.08305186
0.058327835 -0.042689085 0.10796047 -0.048229452 0.042902354 -0.05962008 0.021500647 -0.16297337
-0.06031745 -0.015236391 -0.02447686 -0.0026327937 0.11005531 0.0800584 0.02904536 -0.13857615
-0.009961216 -0.06691067 0.08548613 0.045039248 0.059293423 -0.023191266 -0.10959266 0.02558988
-0.05386187 -0.030124737 0.063790195 0.062179897 0.04763196 -0.021592505 0.04083227 0.024036322

lstm.bias_ih_l0 f4 [512]
00000000: e859 e7bf 8f97 fcbf 8f12 323d ee81 98be
00000010: 486b 57bf c8bd 24bf c5c1 c6bf 464f 9fbe
00000020: f068 0bbf e4e5 06bf c353 22be ca25 b23e
00000030: 8a66 15bf 7a38 ecbf b368 eebf 8e89 dcbf
00000040: 235e e4bf ebaf e0bf a3af 99be f7ba 02bf
00000050: 196c 95bf ab8c e7bf fc51 09bc 4edd d9bf
00000060: 6812 c8bc b439 a03e 1915 dc3d 632d 123e
00000070: 6da2 fd3d 7e79 97bf 97d1 d7be 8f73 d2bf
00000080: fcb0 9bbf 5579 cb3e 7c18 edbf 3100 fdbf
00000090: 019c 793f 7f67 223c 40b2 cbbf 4dbd c7bf
000000a0: 204a dfbf 9cd1 06be c2c1 0e3e cf40 323f
000000b0: ba10 e2be 823a cdbf 4aac e7bf 9bc5 94bf
000000c0: 7f73 d6bf c6a1 43bf 76a6 babd 8a83 ccbf
000000d0: cde6 01c0 0d3b f8bf d1f4 5abf e4ae c7bf
000000e0: aa3f aebf 472e b4bf 3cb1 38bf b0d9 e0be
000000f0: effd 28bf acf6 e3bf 8184 8cbe c641 adbf
00000100: 986a 6c3e f556 1cbe 10cc 94bf 3a92 fdbf
00000110: 62b1 bc3e 85f8 b9bf 1622 5ebf d210 dbbf
00000120: a290 523e 3f9f f8bf 06a5 9dbf ba23 8dbe
00000130: 4b7e 69bf 34bc 64be 3aa5 08bd 5254 003e
00000140: 86a1 e9bf 2e99 32bf b2ee abbf ebfa 27bd
00000150: 263f 80bf 69b6 593f 8f4b e1bf ce3e 46bf
00000160: 12e1 d7bf 8e95 81bf c158 123e 774d c8bf
00000170: 3cd2 cebf b312 01c0 ed7c e7bf 88a7 a2be
00000180: 23fc d7bf 2680 ffbe 1c4e a9bf b675 fabf
00000190: 602e 6cbf 775b fcbf ffbb f8be 739b d3bf
000001a0: bb9a 26be 97c0 59bf 2f5b bdbf 4eb0 1e3e
000001b0: b98d b4bf 058d 9c3e fc9d 4dbf ce4b f43e
000001c0: 6504 88bf f1b1 f6bf 3617 e7bf ca45 acbf
000001d0: 7a45 d8bf e81c 2dbe 9d6e 9fbf f60f edbe
000001e0: c936 9fbf e167 aabf 2754 a1bf 7314 7ebd
000001f0: 437c a83a 42cc edbf 478d 2ebf e4ed 47bf
00000200: c95d a0bf 3bc4 88bf 5a96 7ebe d0b8 43bf
00000210: 2949 cfbf 842b f5be 5025 a2bf a51b 0bbf
00000220: 277f 90be 6a29 c5bf 6a41 22bf b96a d5be
00000230: a70e 70bf a10d 93bf 70ab 92bf da34 98bf
00000240: 5c8b 97bf 16ea 85bf 0722 13bf 936f 88bf
00000250: 914e acbf 8e1b 82bf ae9e 14bf 5cf4 a6bf
00000260: ec5a cbbe 222f cfbd 76fd cebe 93f3 86be
00000270: 1c6b b1be c919 b5bf aa99 56bf 6184 abbf
00000280: bb1a b0bf 9173 42be 1500 92bf c5e2 94bf
00000290: b2b9 d33d 7475 dcbe 00da 98bf b4e8 a5bf
000002a0: 08b7 9cbf 97cb 54bf 5d4d a2be b903 f3be
000002b0: 46a0 1fbf 5688 a1bf c4f1 a5bf f6d0 cdbf
000002c0: da0e 9cbf b48c 1ebf 6089 18bf 876f a6bf
000002d0: e7b1 7cbf 6fa6 82bf 36f3 dabf fd6d c9bf
000002e0: 1050 b7bf b46b 9fbf 7410 5dbf 3e37 89bf
000002f0: 9d21 9cbf 4d89 cabf 37b4 5dbe 3f75 bcbf
00000300: 97aa 44be 3c22 45bf feb9 8bbf 36ca 8abf
00000310: 1195 cabe cce1 adbf 68c5 9bbf 4fb0 9ebf
00000320: fc16 85be 47d3 90bf fe83 acbf acce 08be
00000330: 4847 b1bf 78c1 46bf c360 7dbe 2093 c6be
00000340: 00c1 98bf e11e 93bf 12d8 87bf 96a2 e3be
00000350: 94d4 88bf 7aee 1c3d c370 b4bf 3edc a0bf
00000360: 97e8 b1bf 98d8 7cbf bbd2 e1bd 28f2 87bf
00000370: 6fd5 b1bf f60b 89bf 14a7 9cbf 82e8 35bf
00000380: 79c1 a1bf 7630 2cbf ce44 bcbf dbcc 89bf
00000390: b764 cfbf 48c1 82bf 972f 70bf a36b 99bf
000003a0: 6a11 0bbf b6ff 84bf 407f abbf 872e a4be
000003b0: 514e b4bf da21 a3be 2e74 93bf bbb6 48be
000003c0: cc88 8fbf 22b3 95bf 6236 a5bf 142a 98bf
000003d0: f15d 9dbf bffd 05bf a895 aebf 0e40 b1bf
000003e0: 370e bdbf a0f2 a2bf 7583 a1bf 0c41 44bf
000003f0: 7d98 0abf 1292 8abf ba7e 7cbf 4f55 a6bf
-1.8074312 -1.9733752 0.04347473 -0.29786628 -0.84148073 -0.64352083 -1.5527884 -0.31115168
-0.54456997 -0.52694535 -0.15852265 0.34794456 -0.5835959 -1.8454735 -1.8625702 -1.7229478
-1.7841228 -1.7553686 -0.30016813 -0.51066536 -1.1673614 -1.8089803 -0.008381363 -1.7020662
-0.02442284 0.31294024 0.107462116 0.14275126 0.12384496 -1.1833951 -0.42152092 -1.6441516
-1.2163386 0.39741006 -1.8523097 -1.9765683 0.9750367 0.009912371 -1.5913773 -1.5604645
-1.7444496 -0.13165897 0.139411 0.6963014 -0.44153386 -1.603348 -1.8099453 -1.1622804
-1.6753997 -0.7641872 -0.09113781 -1.5977643 -2.029712 -1.9393021 -0.8552981 -1.5600247
-1.3613179 -1.4076623 -0.7214544 -0.43916082 -0.6601247 -1.7809653 -0.27444842 -1.3535697
0.23087537 -0.15267546 -1.1624775 -1.981025 0.36854082 -1.4528967 -0.8677076 -1.7114508
0.20562986 -1.9423598 -1.2315986 -0.2756632 -0.9120833 -0.22337419 -0.033360697 0.12532166
-1.8252418 -0.69764984 -1.3432219 -0.04101078 -1.0019271 0.8504396 -1.7601184 -0.7743958
-1.6865561 -1.0123765 0.1429167 -1.564864 -1.6157908 -2.0167663 -1.8084999 -0.3176844
-1.6873821 -0.49902457 -1.3226962 -1.9567173 -0.9225826 -1.9715413 -0.4858093 -1.6531814
-0.16269962 -0.85059494 -1.4793452 0.15496942 -1.410575 0.3057634 -0.8031919 0.47714084
-1.0626341 -1.9273053 -1.8053958 -1.3458798 -1.6896203 -0.16905558 -1.2455631 -0.4630124
-1.2438594 -1.3312951 -1.2603806 -0.06203122 0.0012854416 -1.857796 -0.6818432 -0.7809737
-1.2528621 -1.0684885 -0.24862042 -0.76453876 -1.6194202 -0.47884762 -1.2667637 -0.5433906
-0.2822201 -1.5403264 -0.63381064 -0.41682985 -0.9377236 -1.1488534 -1.1458569 -1.1891129
-1.1839404 -1.0462062 -0.57473797 -1.065905 -1.3461477 -1.0164659 -0.58054626 -1.3043323
-0.39717805 -0.10116412 -0.4042775 -0.26357707 -0.3465203 -1.4148494 -0.8382822 -1.3399774
-1.3758157 -0.18989398 -1.1406275 -1.1631705 0.10338153 -0.4305836 -1.1941528 -1.296164
-1.2243357 -0.83123153 -0.31699648 -0.47463778 -0.6235393 -1.2619731 -1.2964406 -1.6079395
-1.2192032 -0.61933446 -0.5958462 -1.3002785 -0.9870896 -1.0207042 -1.7105472 -1.5736691
-1.4321308 -1.2454743 -0.8635323 -1.0719984 -1.2197758 -1.5823151 -0.21650778 -1.4723281
-0.192057 -0.7700536 -1.0916135 -1.084296 -0.39566854 -1.3584533 -1.2169619 -1.2397555
-0.25994098 -1.1314477 -1.3477781 -0.13360089 -1.3849878 -0.7763896 -0.24743943 -0.38784122
-1.1933899 -1.1493798 -1.0612814 -0.4445998 -1.0689874 0.038313366 -1.4096912 -1.2567213
-1.3899106 -0.98767996 -0.11026522 -1.0620775 -1.389326 -1.0706775 -1.2238488 -0.71057904
-1.2637168 -0.67261446 -1.4708498 -1.0765642 -1.6202611 -1.0215235 -0.93822616 -1.1985973
-0.54323447 -1.0390537 -1.3398209 -0.32066748 -1.40864 -0.31861764 -1.151983 -0.19600956
-1.1213622 -1.1695292 -1.2907221 -1.1887841 -1.2294294 -0.5234031 -1.3639421 -1.3847673
-1.4769963 -1.2730293 -1.2618243 -0.76661754 -0.5413893 -1.0825827 -0.9863087 -1.2994784

lstm.bias_hh_l0 f4 [512]
00000000: f0b0 d9bf 2ea3 f9bf db1d 37bc 50f4 b0be
00000010: 5e45 5abf bf90 09bf 135f d3bf ef67 d9be
00000020: ded1 e6be 6194 12bf 0bd1 13be b62c e33e
00000030: 2d26 09bf c0ea ffbf 7baf e2bf b27c e4bf
00000040: 9e27 debf 4eb0 dfbf 75b7 87be 00a0 00bf
00000050: 8dd5 8dbf 4685 e7bf 550f d3bd c863 dfbf
00000060: 08f1 c9bd af0f 993e 1fb2 c53a b1c7 a13d
00000070: ebbf 3a3e 59a7 96bf 3dd5 13bf 9bde bfbf
00000080: 479a 9fbf 8300 993e f037 fdbf b570 f9bf
00000090: 929a 8b3f a02c e6bd 56f9 ddbf bdcf c8bf
000000a0: b84d f3bf 522c 3dbe e303 8e3e 7ac2 513f
000000b0: 3a26 d1be 9d9f d0bf 39bd ddbf 6e8a 85bf
000000c0: 18c3 e4bf 4250 3ebf 83db 36be 4d57 c5bf
000000d0: 988a ffbf 78c8 f4bf 4a9b 5ebf 71c7 cabf
000000e0: 689c b9bf 2c59 bbbf c378 29bf 943f e0be
000000f0: 0367 3cbf 0483 e2bf fca4 4dbe 0603 a6bf
00000100: 4f1b 323e c985 74be 3184 9ebf d005 f5bf
00000110: 9370 bb3e 9ade adbf 28e2 57bf e1a6 ddbf
00000120: ce37 093e 5994 f7bf ca9b a1bf 0661 39be
00000130: cf78 55bf c012 53be ab79 cb3d 6ac9 8a3d
00000140: e059 e6bf 2206 35bf e6b9 a8bf 917b b33d
00000150: 45c3 7dbf b1d3 653f 723d e4bf 96bf 41bf
00000160: 127d d3bf 64e5 73bf d529 123e 718b c6bf
00000170: 10a0 cabf 3bb2 f4bf eaec debf d6d3 9bbe
00000180: ed28 c7bf b435 ebbe fd09 a3bf 4c0e e8bf
00000190: b262 86bf 6d07 efbf 68a3 1abf 5d34 cbbf
000001a0: 25a7 30be 73fc 7cbf f28d b6bf c353 113e
000001b0: b450 b3bf 710d 9f3e 7823 41bf d80a fa3e
000001c0: c6f6 6abf 5fad f7bf 3b58 e8bf 226a b9bf
000001d0: c4ec cabf b15a 3bbe 0383 9abf f485 00bf
000001e0: 066b 9bbf e9f1 a2bf 1c79 90bf c67c 023c
000001f0: ee6f e43c 929b dfbf f1bc 20bf 2d7a 3ebf
00000200: d9ec 93bf d4ec 88bf db43 aabe b0e3 53bf
00000210: 7abc e2bf 6d2d f1be 5253 93bf 4213 01bf
00000220: 05ba ddbe 5197 c2bf e3f3 fdbe 8396 95be
00000230: a18d 59bf 1b12 8fbf 5c4c 7ebf 44a7 9cbf
00000240: 2100 9ebf 49e8 89bf c4db 36bf f766 90bf
00000250: 4f75 b1bf 6d9a 82bf de51 2abf b875 a0bf
00000260: 2f02 7bbe 4a1d dbbd 652a fbbe 2119 99be
00000270: f4e7 dfbe cbb1 aabf 0a49 61bf ca85 a7bf
00000280: c558 b4bf 53de 90be 0290 86bf 359e 99bf
00000290: 63e2 eb3d c7ee eebe 3f94 a4bf 1cdc a7bf
000002a0: ded5 a1bf 0406 46bf 966f c9be db70 bdbe
000002b0: 1d7c 37bf bea6 a4bf 572c 97bf 0418 c8bf
000002c0: 972b a8bf acf2 12bf f93c 17bf 21ec a8bf
000002d0: 4497 90bf dcee 86bf 681b e0bf f0f7 c1bf
000002e0: c608 b8bf 8b67 9bbf d7a5 64bf 569c 89bf
000002f0: d237 90bf c879 c6bf 49ac 90be 587c b3bf
00000300: 9ffb 2ebe c48e 3dbf 9049 8bbf 42b0 8bbf
00000310: e9fa cbbe b75e acbf 2626 a7bf 02e6 a1bf
00000320: 18a1 87be 109d 98bf 4b54 a3bf ff77 89be
00000330: 4b4e a5bf 8ed9 30bf 5de6 b4be a4f8 91be
00000340: 67d9 88bf ddf5 96bf 5321 98bf 886d bfbe
00000350: 2310 98bf b775 aebd b624 b5bf 3dfd 94bf
00000360: 8bd1 b4bf e239 92bf 12bf 20be 1580 93bf
00000370: 143c b4bf 68ad 7cbf 1e99 9abf 6cff 53bf
00000380: 886f a0bf 3c98 41bf e0cc abbf e481 82bf
00000390: f9b4 dfbf 30ae 8fbf c53c 6abf b8f6 97bf
000003a0: 884c 1cbf aaf5 91bf 515a a7bf fcb9 bbbe
000003b0: ab37 afbf 8e84 9ebe 714a 8fbf fba6 53bd
000003c0: a880 92bf d3f2 97bf 6062 b7bf 6a29 91bf
000003d0: 1329 a2bf 6d49 edbe 1a4d acbf 9303 c2bf
000003e0: 9880 c6bf c7bd a6bf 29be 9cbf 20ea 62bf
000003f0: 79ed debe f464 81bf d89e 6fbf f1e6 a1bf
-1.7007122 -1.9502923 -0.011176552 -0.34561396 -0.85262096 -0.5373649 -1.6513389 -0.42462108
-0.4508199 -0.5725766 -0.14435212 0.4437005 -0.53573877 -1.9993515 -1.7709802 -1.7850554
-1.735584 -1.7475679 -0.26507154 -0.5024414 -1.1080796 -1.8087547 -0.10305659 -1.7452326
-0.09860426 0.29894778 0.0015082991 0.07899416 0.18237273 -1.176982 -0.5774725 -1.4989809
-1.2468957 0.29883203 -1.9782696 -1.948752 1.0906546 -0.1123898 -1.7341716 -1.5688397
-1.9008093 -0.18473938 0.2773734 0.8193737 -0.40849477 -1.629871 -1.7323371 -1.043287
-1.7872038 -0.74341214 -0.17857175 -1.5417267 -1.996417 -1.9123678 -0.869557 -1.5842115
-1.4500856 -1.4636588 -0.6619989 -0.43798506 -0.73594683 -1.7696233 -0.20082468 -1.2969673
0.1739323 -0.2387916 -1.2384092 -1.9142399 0.36609325 -1.3583558 -0.8432946 -1.7316552
0.13400194 -1.9342147 -1.2625668 -0.18103418 -0.83387464 -0.20612621 0.09935316 0.06776698
-1.7996178 -0.7071248 -1.3181732 0.08763803 -0.9912608 0.8977614 -1.7831252 -0.7568296
-1.6522543 -0.952719 0.1427377 -1.5511304 -1.5830097 -1.9116892 -1.741605 -0.30435055
-1.5559365 -0.4593941 -1.2737423 -1.8129363 -1.049887 -1.8674141 -0.6040559 -1.5875355
-0.1725126 -0.98822707 -1.4262068 0.14192109 -1.4009004 0.31064942 -0.75444746 0.48836398
-0.91782796 -1.9349784 -1.8151926 -1.4485514 -1.5853505 -0.18296315 -1.2071232 -0.50204396
-1.2142036 -1.2730075 -1.128696 0.007964319 0.027885403 -1.7469351 -0.627883 -0.74405175
-1.1556655 -1.0697274 -0.33254895 -0.827693 -1.7713768 -0.4710497 -1.1509802 -0.5042001
-0.43305984 -1.5202428 -0.49600133 -0.29216394 -0.84981734 -1.11774 -0.99335265 -1.2238545
-1.2343789 -1.0774013 -0.71429086 -1.1281422 -1.3863925 -1.0203377 -0.6653117 -1.2535925
-0.24512552 -0.10698946 -0.49055782 -0.29901984 -0.43731654 -1.3335508 -0.88002074 -1.3087704
-1.408959 -0.2829462 -1.0512698 -1.2001406 0.11517789 -0.46666548 -1.2857741 -1.3114047
-1.2643392 -0.7735293 -0.39342946 -0.37000164 -0.71673757 -1.2863386 -1.1810406 -1.5632329
-1.3138303 -0.5740154 -0.5907741 -1.3197061 -1.1296163 -1.0541644 -1.7508364 -1.515379
-1.4377677 -1.2140974 -0.8931555 -1.0750835 -1.1267035 -1.5505915 -0.28256443 -1.4022322
-0.17088173 -0.7404597 -1.0881824 -1.0913165 -0.39839867 -1.3466405 -1.3058517 -1.2648318
-0.26490092 -1.1922932 -1.2760099 -0.26849362 -1.2914518 -0.6908196 -0.35332003 -0.2851001
-1.0691346 -1.1793782 -1.188517 -0.37388253 -1.1879925 -0.08518546 -1.4151828 -1.1639782
-1.4126447 -1.1423914 -0.15697888 -1.1523463 -1.4080834 -0.98702097 -1.2077978 -0.8281162
-1.2534037 -0.75622916 -1.3421898 -1.019589 -1.7477103 -1.1225033 -0.91498977 -1.1872168
-0.6105428 -1.1403096 -1.3074437 -0.36665332 -1.3688864 -0.30960506 -1.1194593 -0.051672917
-1.1445513 -1.1870979 -1.4326897 -1.1340764 -1.2668785 -0.46345082 -1.346103 -1.5157341
-1.5507994 -1.3026665 -1.2245532 -0.88638496 -0.43540552 -1.0108933 -0.9360175 -1.2648603

lstm.weight_ih_l1 f4 [512, 128]
00000000: 7cff 7cbc 21de 093e d409 693c b25b c5bc
00000010: 48d8 a43d 963a d43d 8df5 423c 648c 6d39
00000020: 0706 133e 0756 00bd ed80 ba3d e3d7 cf3d
00000030: eee8 d23c 403b 83bc cfb2 01bd 5d0a 96bc
00000040: 8eec 503d c64c 853d af37 6e3d ca32 b63d
00000050: 7ec6 45bc f096 ce3b ac89 fabc 1f37 c8bd
00000060: ee05 ff3c 8b0a 63bd 3b6f 603d 52e9 b5bd
00000070: 44cb 5f3b 7cfd b5bb 2333 89bd bb42 93bd
00000080: 2811 d23d b584 1abe 1402 633c 8f82 973d
00000090: e74c 023d af92 273e 6259 1b3d 66b8 67bd
000000a0: c121 7f3d 1c43 913d b83d c03c cd5a f2bd
000000b0: 1ebd fbbc cf5e 8d3b c04b 12be 6d1a c13d
000000c0: 558f 9cbc ea3c d7bd c52a a6bd e681 aebd
000000d0: 84b5 633c 0298 d2bc 8bf1 20be 723d 31bd
000000e0: fd15 693c 1263 f7bc 50df a63c 16b1 16bd
000000f0: 4b60 d0b9 d149 8cbb de40 26bd 8d01 a33d
00000100: 7810 943d 9672 1d3d 5364 3f3d dcce a1bd
00000110: 732a 8b3c 330d 04bd 4f8a 04be fccd 8ebd
00000120: e870 9cbd d177 693d a4aa b23c 5dc8 6fbd
00000130: 6615 323d 7108 edbd 8f11 25be d4d9 d53d
00000140: 2634 1bbd cc60 b43d a95b 43bd c984 f93a
00000150: b321 e3bd 7b0d b73c d0cd b3bd 3f24 fb3c
00000160: 2afa 4ebc baa9 20bc f0ad 1b3d 908b 2abc
00000170: ba4f 323d 500b 6dbd 7f9e 2ebd 0aab 033e
00000180: c909 553d 4924 10be bab6 273d 188d b6bd
00000190: c964 ba3b b2b0 353c 8aec 2cbd 1f20 9dbc
000001a0: d04f e63d 0304 56bd e268 edbd bce8 9d3d
000001b0: 54be bebd fa0e 8a3c af67 a7bd 07ed c4bd
000001c0: cdf4 c1bd 978e 70bd ecd9 3dbd ecf4 61bd
000001d0: 88bf 07be 90aa b2bd a0b3 bc3d fb04 a53c
000001e0: 5fcb 1cbd 8e91 39bd 3350 f43c 99a8 163d
000001f0: 2c2e 1e3b dfa2 78bd a226 cbbd 7f3b bebc
00000200: 7d20 7cbd e86b a33e bda1 323e a8c7 3cbe
00000210: 3b06 843b 27ef 21bf 5b9a 67bb ed14 9c3e
00000220: a659 eb3e 33b7 c23e beb7 59be a08b 173e
00000230: c506 083e 5520 f1bc f7a3 10be 315b 243e
00000240: de27 95bd 82d5 3cbe b59f 633b 15c4 613c
00000250: 77a5 093e 079b 84be fd6c 50bd 118c b33c
00000260: a029 753e 380f ee3e 89f8 98be 6ab8 3f3d
00000270: c3f1 d6be 7a39 13be f440 243e f11d a6bd
00000280: 656c d53c 1087 d2be c74c 4e3c 663c 543b
00000290: 6494 a9bb 9122 04be c70e 4e3d af6a b73d
000002a0: 9150 503e 5e34 5a3e 4d8e 543d 05a8 45be
000002b0: 977f 4bbe 012c 33be 1204 8abe 1579 eb3c
000002c0: 83ec 213e 9241 93be 029c 05be 35d2 e2bd
000002d0: 597a 2b3e d378 8abe 7e34 b3bd f6f4 e3bc
000002e0: f454 9e3e 87e3 043e 4930 5c3e e532 123e
000002f0: 9def 92bd d7b4 043f 4207 73bf 2fdb a4be
00000300: 881f 44be a755 2cbd c7fc 22bc 9c0b 09bc
00000310: d760 f1be 9d64 273d e724 aa3e 6db8 02be
00000320: 9cd4 703d 2fca 3c3e 6812 413e 822c a23f
00000330: a090 de3b 3d65 1ebe c1ec f23c 7480 23bd
00000340: 0028 173e b38f 303e c2b0 de3e e38b 2c3e
00000350: 6c49 76be f858 013c 7d09 24be 8fd6 f2bd
00000360: 9c4c 063e 67fa 8abe ed2f 083f ce68 8cbd
00000370: 7873 6bbe feb2 333d c814 8c3d f91d 333e
00000380: a7b7 9ebe 266c c6be 8c9f 41be 256e 02be
00000390: e836 2fbe 4355 4abe b2f2 743d 3f3d 02be
000003a0: 175f 143f 1b6d 873e bab0 3fbe bb5c c0bd
000003b0: 1a95 833c 73bb cbbd fa7e 06be b7c6 283e
000003c0: ab70 91bc d358 693e 3d0c c3be 1bab 9abe
000003d0: 5b59 473c b4bb a23c 8bd3 2fbd 3c5e 6d3e
000003e0: 67f2 c23d 0897 3f3e 8aa1 44be c911 0f3f
000003f0: 1c98 42be da32 4c3d 7db6 e6bd dba2 9e3d
-0.015441772 0.13463642 0.014223535 -0.024091575 0.08049065 0.10362737 0.011899364 0.00022654381
0.14357768 -0.031332042 0.09106622 0.10148599 0.025745835 -0.016019464 -0.031664666 -0.018315488
0.051006846 0.06508784 0.058158573 0.08896406 -0.01207125 0.0063046142 -0.030583225 -0.097761385
0.031130757 -0.055429976 0.054793578 -0.08882393 0.0034148255 -0.0055538993 -0.06699207 -0.07190462
0.102571785 -0.15089686 0.013855476 0.07397949 0.03181162 0.16364549 0.03792704 -0.05657234
0.06228805 0.07092878 0.02346693 -0.11833725 -0.030729827 0.0043142806 -0.14286709 0.094288684
-0.019111315 -0.10509665 -0.081136264 -0.0852087 0.013898257 -0.025707249 -0.15717141 -0.04327149
0.014226434 -0.030198608 0.020370156 -0.036789976 -0.00039744595 -0.0042812605 -0.040589206 0.0795928
0.07229704 0.038439356 0.046726536 -0.079007834 0.016988015 -0.03223915 -0.12943386 -0.06972882
-0.07638723 0.05699903 0.021809883 -0.05854069 0.04347744 -0.11573876 -0.1611998 0.10441938
-0.03789153 0.08807525 -0.047694836 0.0019036765 -0.11090412 0.022345295 -0.0877949 0.030656932
-0.012632886 -0.009806091 0.038007677 -0.010409251 0.043533064 -0.057872117 -0.042631622 0.12858215
0.052011285 -0.14076342 0.040945746 -0.0891363 0.005688284 0.011089491 -0.04221777 -0.019180356
0.11245692 -0.05224992 -0.115922704 0.07710406 -0.09313646 0.016852845 -0.08174073 -0.09615522
-0.0947052 -0.058729734 -0.046350405 -0.055165216 -0.13256657 -0.087239385 0.09213948 0.020143976
-0.038279887 -0.045304827 0.029823398 0.03678188 0.0024136407 -0.0607022 -0.09919478 -0.02322173
-0.06155442 0.31918263 0.17444511 -0.18435538 0.004029063 -0.6325554 -0.0035339806 0.30484715
0.45966834 0.38030395 -0.21261498 0.14799356 0.13283832 -0.029434362 -0.14125048 0.16050412
-0.07282995 -0.18440822 0.0034732644 0.01377966 0.13442026 -0.25899526 -0.05088519 0.021917375
0.2394166 0.46495986 -0.29877117 0.04680673 -0.41981325 -0.14377394 0.16040403 -0.081111796
0.026052663 -0.4111867 0.012591547 0.0032384633 -0.0051751602 -0.12903811 0.05030706 0.08955895
0.20343234 0.21309039 0.05189352 -0.19302376 -0.1987289 -0.17497255 -0.2695623 0.02874426
0.15812878 -0.28760964 -0.13047794 -0.1107525 0.1674589 -0.27045307 -0.087502465 -0.027826767
0.3092419 0.1297742 0.21502794 0.14277227 -0.07174609 0.5183844 -0.9493295 -0.32198474
-0.19152653 -0.042073872 -0.009947962 -0.008364584 -0.47144195 0.040867437 0.3323128 -0.12765665
0.05879651 0.18436502 0.18854678 1.2669833 0.006792143 -0.15468307 0.029653909 -0.039917424
0.14761353 0.17242317 0.4349423 0.16850238 -0.24051446 0.007894747 -0.16019244 -0.1185733
0.13115162 -0.27144167 0.5319813 -0.068559274 -0.22993267 0.043871872 0.06839901 0.17491902
-0.3099949 -0.38754386 -0.18908519 -0.1273733 -0.17110789 -0.19759087 0.059801765 -0.12718676
0.57957596 0.26450428 -0.1871976 -0.09392687 0.016062308 -0.099478625 -0.13134375 0.16482054
-0.01775392 0.2278779 -0.38095275 -0.30208668 0.0121673 0.019864894 -0.042926352 0.23180479
0.09518891 0.18709958 -0.19202247 0.55886513 -0.19003338 0.049853183 -0.112652756 0.07745906

lstm.weight_hh_l1 f4 [512, 128]
00000000: ef1b 063d af74 aa3d 3fd0 503d 6704 6eb9
00000010: 32ec c13d 2ae8 8a3d e087 a73d 9109 5e3d
00000020: 73e5 75bd 6807 0dbe 49c4 d23d 86b6 6fbd
00000030: 1c93 083e 33b9 243e b423 443e 088a 10be
00000040: e312 2a3e e514 c83d 2239 d2bd 3c99 33bc
00000050: fd84 9abd 717d 4fbe bd48 023d 38c7 c43c
00000060: e2c0 b1bd e8f0 033e 6c5e 23be bce2 233e
00000070: e568 20be 7f56 cfbd 3f77 e3bc 0a3f 0c3d
00000080: 775b 583e 25fe 17bd cdac 95bd 87b8 cd3d
00000090: 0be6 f6ba 65be 82bd fa09 d43d a77e 933d
000000a0: c6f0 003e e76c f83c adc8 7fbe 8a50 c9bd
000000b0: 33a0 a73d 0059 ccbd e0b3 a4bd f942 09be
000000c0: 4b72 a23c 04b9 853d 988a 7b3d ee84 4cbd
000000d0: d0dc d23c f127 da3c c263 6abe 4105 023e
000000e0: b2d9 e93d 170b 423e 88eb ddbc 1ab8 5b3e
000000f0: 97d3 76be 73e9 b2bd 81ba 01be 08bf a03e
00000100: 978b b6bd 78d4 62bd fe57 fc3c 7580 db3c
00000110: 19d8 a43e 805d 6f3c b562 00bf 9009 c5bd
00000120: 703b c13d 1504 b33d 3a50 16be 3631 08be
00000130: ecef 223e c05a 2ebd faea 4d3d f290 823e
00000140: 820d 233d c16c f2bd 9320 07be 27a2 8b3e
00000150: bc24 21bc 2289 cebd 890e c53c 6481 c1bd
00000160: 951e cbbc 8a11 93bc d564 f4bd be3b cfbd
00000170: c636 c33c 4bb3 983e edc7 443d c046 acbc
00000180: 9e5a 06be 0980 46be 63c6 ba3d d1ad 3a3e
00000190: 1bbe 6a3d 25ae 90bd 5cb6 843c bc9d 0dbe
000001a0: eff6 5e3d 1f95 71bc 4e75 ffbd 5506 f1bc
000001b0: 5397 68bd 180c 9dbd 3a94 bd3d 4038 913c
000001c0: 9a55 97be cde0 663d 8289 4d3e 42e2 473e
000001d0: 909d 083e 245c cabc b878 ac3e 66b4 ccbd
000001e0: 3234 743d e756 603c e8aa 2ebe 7f87 b2be
000001f0: fc3c 383c 7ebe 673d 5fb5 b63d 507b 353e
00000200: ec8d b3be 8c31 033e 7c59 ea3e 2ca9 a1bc
00000210: 154b 1dbf 0c92 06bf 3372 81bd 9957 4dbd
00000220: a801 cdbb 959c 03bd a864 f1bd f058 833e
00000230: 8ee5 25bc d805 333f 57de aa3e 3d7c 44be
00000240: 1813 b43e d7ea 08bf 3906 f73e acbc b0be
00000250: 331c 033f 87cf 503e 5f3e b03d 190c 223f
00000260: ad93 e9be 5b67 a83c 9454 61be 441d 90be
00000270: 10cc 1c3f 78ac bc3e 23ba e53e 632e 403e
00000280: a58e 6abe 0442 cb3d 85ac 3f3d 3baf 9f3e
00000290: 4292 193f 1e11 9bbe 3c60 8ebe 2d01 1a3f
000002a0: a979 63be 78d8 7cbe 0ce7 15bf 9283 c93e
000002b0: 5c31 02be 107b 81be bb05 1b3f d29e cf3d
000002c0: bb5d e73e d94a 95be 969b 6abe 9a70 14be
000002d0: f404 bebe 306e 91be 05e9 a63e fe12 2ebe
000002e0: 05fe 3a3e 2723 bf3e a467 573e 4b25 1e3f
000002f0: 4e54 eebe 6d17 a0be aa6b a43e d6b3 1cbe
00000300: 1817 633d aadd e1bd 16f7 9b3e 7797 1f3f
00000310: 574c 2a3f 9e86 02be a84c a53e 865f 563e
00000320: d59b c6be b907 013e 02be cabe d0db 383e
00000330: 02df 1dbe e50f ee3d 9e9c 82be 6ee4 98be
00000340: 1b2d 0abf 20ab 8cbe 3332 293d be05 eabd
00000350: 9f83 b33e 6641 06bf 2d9a 55be 69f1 863e
00000360: bfaf cdbe ac72 ba3e 0c4f 6cbe 191b 99be
00000370: 2013 0a3c c2c2 1c3f 1e56 1f3f d528 853e
00000380: 529a d2be f53f 2e3c 1e40 ffbe 934d b93e
00000390: 2141 173e ea1a 093d e938 c53e 0135 bd3e
000003a0: 069c 093e ef88 563e de2b ff3e a1cc c23e
000003b0: 046c 6abd 095c ac3d f9b7 6ebe f33a 2abe
000003c0: b5f3 6e3e 691b 0d3f f794 813d c2f9 d0bb
000003d0: 9c8f 173e e0f8 da3d 7e58 68be dd9a af3e
000003e0: d954 4dbe 71c8 dcbd 9160 22be 9dfc d23e
000003f0: fcdf 57be 04a8 0cbe 52eb 7fbe fc20 123f
0.032741483 0.08323037 0.05097985 -0.00022699089 0.09468879 0.06782563 0.08180213 0.054208342
-0.060033273 -0.13772357 0.10291345 -0.058523677 0.13337368 0.16086273 0.19154245 -0.14115155
0.16608767 0.0976961 -0.102648035 -0.010961827 -0.07544897 -0.20262696 0.03180765 0.024020776
-0.086793676 0.12884867 -0.15953988 0.16004461 -0.15665014 -0.1012392 -0.027766822 0.034239806
0.21128641 -0.037107605 -0.0730835 0.100449614 -0.0018836869 -0.06383971 0.103534654 0.072018914
0.12591848 0.030325366 -0.24978895 -0.09829815 0.081848525 -0.09977913 -0.08042121 -0.13404454
0.01982989 0.065294296 0.06141147 -0.04993146 0.025740057 0.026630374 -0.22889617 0.12697317
0.11418475 0.18949543 -0.02708985 0.21456948 -0.24104153 -0.08735933 -0.12668802 0.31395745
-0.089133434 -0.055378407 0.030803677 0.026794652 0.3219612 0.0146096945 -0.50150615 -0.096209645
0.09435165 0.08741013 -0.14679042 -0.13300022 0.15911835 -0.042567015 0.05027292 0.2550121
0.039807804 -0.118371494 -0.1319602 0.2727215 -0.009835418 -0.1008475 0.024054782 -0.094485074
-0.024794856 -0.0179527 -0.11933295 -0.10118817 0.023829829 0.2982429 0.048042227 -0.02102983
-0.13120505 -0.19384779 0.091198705 0.18230368 0.057310205 -0.070644654 0.016200237 -0.13829702
0.054434713 -0.014745026 -0.12473546 -0.029421965 -0.05678494 -0.07668322 0.092567876 0.017727017
-0.29557496 0.05636673 0.20071986 0.19519904 0.13341355 -0.02470214 0.3368585 -0.09995346
0.05962009 0.013692594 -0.17057383 -0.34869 0.011245009 0.056578152 0.089213125 0.17722821
-0.35069215 0.1281187 0.45771396 -0.019733988 -0.6144269 -0.525666 -0.0632061 -0.050132368
-0.006256301 -0.03213175 -0.11786777 0.2565379 -0.010125531 0.6993079 0.33372757 -0.19188018
0.35170817 -0.5348334 0.48246935 -0.34518945 0.51214904 0.20391665 0.08605646 0.6329971
-0.4562048 0.020557096 -0.2200492 -0.28147328 0.61248875 0.36850333 0.44868574 0.18767695
-0.22905977 0.09924701 0.046795387 0.31188378 0.59988797 -0.30286497 -0.27807796 0.60158044
-0.22214378 -0.24691951 -0.58555675 0.39358193 -0.12714142 -0.25289202 0.6055562 0.101377144
0.45188698 -0.29158667 -0.22910914 -0.14496079 -0.37113154 -0.2840438 0.32599655 -0.16999432
0.18260963 0.37331507 0.2103563 0.61775655 -0.46548694 -0.31267872 0.3211339 -0.15302977
0.055441946 -0.11028607 0.3046195 0.6234049 0.66522735 -0.12746665 0.32285047 0.20934877
-0.38790765 0.12600602 -0.3959809 0.18052602 -0.15417102 0.116241254 -0.25510114 -0.29861778
-0.53975075 -0.27474308 0.04130764 -0.114268765 0.35061356 -0.5244354 -0.20859595 0.26356056
-0.40173146 0.36415613 -0.23077029 -0.29903486 0.008427411 0.61234677 0.6224078 0.26007715
-0.41133362 0.010635366 -0.49853605 0.36191997 0.14770938 0.033472933 0.38519982 0.369545
0.13438424 0.20950674 0.49838156 0.38046744 -0.057231918 0.08415992 -0.23312367 -0.1662405
0.23335154 0.5511995 0.06327241 -0.0063774297 0.14800876 0.106920004 -0.22690007 0.3429784
-0.20051898 -0.10780419 -0.1585715 0.41208354 -0.21081537 -0.13735968 -0.24992111 0.5708158

lstm.bias_ih_l1 f4 [512]
00000000: fd7a c7bf 0a98 a5bc b2e1 39be c1a4 b1bf
00000010: b966 e63e cadd 97bf ec18 47bd 9149 e6bf
00000020: ffb7 00bf 134a a2be ce9e 83bf b58b c8be
00000030: f791 bdbf 4b4c 8bbf 7695 90be e078 953e
00000040: cd77 b5bf e701 b0bf 9d7a 83bf d5d9 78bf
00000050: 7978 a1bf b39e adbe 63db 35bf 58f3 90bf
00000060: 462b acbf 9274 cabf 73e1 b8bf 81c1 06bf
00000070: a6f5 acbd ab85 bbbf 8eb1 abbf 7d64 c1bf
00000080: 4dfe e5be 4e84 83bf cfc6 ddbf 9d73 6ebf
00000090: 787c 05bf 9184 0dbf 326a c0bf 01b7 43bf
000000a0: b056 bfbf 3805 22be 4ccd 523e 9054 af3d
000000b0: 4675 1a3c 9f5d 9dbe 5223 a2bf 9fd9 c9bf
000000c0: e6ec 6bbf 6a73 56bf dda2 cfbf 4020 ccbf
000000d0: fbdb 0bbf 9e20 dfbf 926d babf 08c8 abbf
000000e0: 1859 73bf 9b1b a9be bb49 afbe dee7 14bb
000000f0: 98ec aa3d 4ef3 dcbf 070d 80bf 04ed 403e
00000100: 90ad dcbf 557b cdbf e0e2 d4bf 2d50 86bf
00000110: cf7e cdbc 7a5d acbf 1d14 383d ff55 f1be
00000120: 223d 6abf 0fba d3bf 582d 63bf 893c a4bf
00000130: ff42 19bd 6803 cabf 4c7a 9cbf cc11 1abf
00000140: 7a78 e6be e2e1 f1bf 4394 2cbf 58df 69bf
00000150: 0a05 93bf 669c 03bf d3e1 f4bf 289c 14bf
00000160: 9387 c9bf 4269 bcbf fdc5 dfbf 9f6e fabe
00000170: 8259 eabf 7423 613b 9124 3ebf 307e 8abf
00000180: 29f8 b8be 848a 9abf d976 b5bf 3670 afbf
00000190: f34b babf 2d85 e8bf fe35 26be 4e2c 92bf
000001a0: 0a67 94bf 29b7 c1bf f823 6fbd 8cde 59bf
000001b0: d16a c2bf d21a 1fbf f720 4fbf 9b9e 4abf
000001c0: 88e0 053e 2095 91bf b2c5 bebf 9867 23bd
000001d0: b142 dbbe 44cc 30bf 1977 e1bd 8b0f b0be
000001e0: faa5 9b3d 59b9 d9bf 8b66 9d3d 0c44 9cbc
000001f0: e8e9 eebf 02f4 c3bf 73c3 e5bf 8152 91bf
00000200: 5ee5 7bbf 8949 e8be fe19 31bf 1f8d 8dbf
00000210: 2aaa 0cbf cac5 8cbf fddb 21bf 7f9a 87bf
00000220: 24d4 babf ab2b 74bf 190d a6bf 6f74 5bbf
00000230: 972d 99bf c860 92bf 6218 3abf 284c e3be
00000240: 9470 7abf 2901 99bf b9a4 b2bf f35c 99bf
00000250: f932 97bf 90db 6cbf bdf7 71bf 2381 85bf
00000260: 4281 92bf a39e 8dbf 729d 77bf 81af 92bf
00000270: 7639 43bf 6371 a7bf 74c2 83bf 8111 a0bf
00000280: d8d6 6abf 1300 a3bf 6479 88bf a19c 94bf
00000290: d915 8bbf e9e9 84bf 43cc 93bf c60c 8cbf
000002a0: 3c8e 84bf 35ba d2be 6d81 21be f0f5 a7be
000002b0: bae0 1bbf 7026 5abf 9123 87bf c2d0 88bf
000002c0: 6784 90bf 7db6 93bf 2354 88bf 4349 89bf
000002d0: 836e 72bf fc3c 83bf 4a37 98bf ae32 99bf
000002e0: c22f 76bf 8b9e 4cbf e751 65bf 100f 1cbf
000002f0: feb8 85be 4d12 8fbf 43b1 b0bf 3403 68bc
00000300: 446e 85bf 0584 7fbf 9511 9dbf 020d 92bf
00000310: ecc9 03be 00ee 9fbf 4263 68bd 9f4d 3ebf
00000320: eeba a0bf c07b 83bf ed7b 86bf 3ff3 a4bf
00000330: a3fa d6be 63dd 80bf 36f8 a0bf 76fb 98bf
00000340: 44cd 30bf a1e2 90bf 1407 87bf b9c6 94bf
00000350: 12e7 a0bf cb16 8fbf 097b 92bf 8e1c 9fbf
00000360: b9be 85bf a215 9cbf 2507 88bf 40de 73bf
00000370: c8e9 76bf 7945 bebe 4d21 6fbf 7052 87bf
00000380: 4e23 8cbf 6107 95bf 98f2 88bf 479a 86bf
00000390: 9ade 95bf 4301 7abf 6dad 2abf 6f4e 84bf
000003a0: 68ef 83bf f4da 98bf 552c 02bf 9225 93bf
000003b0: 13a5 90bf ee4c 6dbf 9ba2 85bf 23aa 8ebf
000003c0: d723 9abe 6090 95bf ca20 8cbf ad4c 32bf
000003d0: bcef 3dbf 42ac 81bf 875c 00bf 9af2 82bf
000003e0: f215 10be ff6b 92bf 7bc4 e2be 8905 8abe
000003f0: d169 91bf c3fe 89bf 6f2c 96bf 8fe0 91bf
-1.5584408 -0.0202141 -0.18152502 -1.3878404 0.45000246 -1.186456 -0.04860775 -1.7991201
-0.50280756 -0.3169714 -1.0282838 -0.39169088 -1.481017 -1.0882658 -0.2823903 0.29193783
-1.4177185 -1.375058 -1.0271794 -0.97207385 -1.261489 -0.3391014 -0.7103788 -1.1324263
-1.3450706 -1.5816824 -1.4443802 -0.52639014 -0.08445291 -1.4650167 -1.341356 -1.5108792
-0.4492058 -1.0274751 -1.7326297 -0.9314516 -0.5214305 -0.55280405 -1.5032408 -0.76451117
-1.494833 -0.15822303 0.20586127 0.08561051 0.009427374 -0.3073549 -1.2667029 -1.5769538
-0.92158353 -0.8376986 -1.6221577 -1.5947342 -0.5463254 -1.7431829 -1.4564688 -1.342042
-0.9505782 -0.33028874 -0.3423594 -0.0022721211 0.08345908 -1.7261751 -1.0003976 0.18840414
-1.7240467 -1.6053263 -1.6631737 -1.0493218 -0.025084881 -1.3466027 0.044941057 -0.47135922
-0.9149953 -1.6541156 -0.88741064 -1.2830974 -0.037417408 -1.578229 -1.2224822 -0.60183406
-0.4501379 -1.8897059 -0.6741373 -0.9135642 -1.1485913 -0.5141052 -1.9131416 -0.58050776
-1.5744499 -1.4719622 -1.7482296 -0.48912522 -1.8308566 0.0034353407 -0.74274546 -1.0819759
-0.3612683 -1.2073522 -1.4176894 -1.3706119 -1.4554428 -1.8165642 -0.16231534 -1.1419771
-1.1593945 -1.5134021 -0.05838391 -0.85105205 -1.5188848 -0.621503 -0.80909675 -0.7914826
0.13073933 -1.1373634 -1.4904082 -0.039893717 -0.4282432 -0.69061685 -0.11009044 -0.34386858
0.07600017 -1.7009689 0.07685574 -0.019075416 -1.8665133 -1.530884 -1.7950271 -1.1353303
-0.9839686 -0.45368603 -0.69180286 -1.1058692 -0.5494715 -1.099786 -0.632263 -1.0594023
-1.459599 -0.9537913 -1.2972747 -0.8572454 -1.1967038 -1.1435785 -0.72693455 -0.4439404
-0.9782803 -1.1953479 -1.3956519 -1.1981491 -1.1812431 -0.92522526 -0.94518644 -1.0430034
-1.1445696 -1.1064037 -0.9672462 -1.145981 -0.76259553 -1.3081478 -1.0293717 -1.2505342
-0.91734076 -1.2734398 -1.0662045 -1.1610299 -1.0866042 -1.0383884 -1.1546711 -1.0941398
-1.0355906 -0.4115769 -0.15772028 -0.32804823 -0.6088978 -0.852149 -1.0557729 -1.0688708
-1.1290406 -1.1540066 -1.0650676 -1.0725483 -0.9469988 -1.0252986 -1.1891873 -1.1968591
-0.9616662 -0.7992942 -0.895781 -0.60960484 -0.261177 -1.117746 -1.3804096 -0.01416092
-1.0424275 -0.9981082 -1.2270991 -1.141022 -0.12869996 -1.2494507 -0.056735285 -0.7433719
-1.2557046 -1.027214 -1.0506569 -1.2886733 -0.41988096 -1.0067562 -1.2575748 -1.195174
-0.6906321 -1.1319162 -1.0549035 -1.1623145 -1.2570517 -1.1178831 -1.1443797 -1.2430589
-1.0448829 -1.2194102 -1.062718 -0.95261 -0.9645047 -0.37162378 -0.9341019 -1.0572033
-1.0948274 -1.1642877 -1.0699034 -1.0515832 -1.1708558 -0.97658175 -0.66670877 -1.0336436
-1.0307436 -1.1941819 -0.50848895 -1.149584 -1.1300377 -0.9269551 -1.0440248 -1.1145672
-0.3010547 -1.1684685 -1.0947506 -0.6964825 -0.7419393 -1.0130694 -0.50141186 -1.0230286
-0.14070871 -1.1439208 -0.44290528 -0.26957348 -1.1360418 -1.0780872 -1.173231 -1.1396655

lstm.bias_hh_l1 f4 [512]
00000000: 2257 c5bf 7959 7ebd 010b ffbd 52bf a8bf
00000010: b5b1 c73e 3431 9bbf e52c f6bd 7ef7 e9bf
00000020: 5271 16bf 46d7 b1be 1e13 7ebf 6b93 05bf
00000030: 436f b2bf 75a5 93bf 5c33 5bbe 7b82 9d3e
00000040: 876b a4bf 970a b2bf b410 8cbf 4209 7abf
00000050: 0522 abbf 07c5 f6be 3de2 18bf e1f2 9bbf
00000060: cf4b a2bf 16f8 ccbf e5a1 c5bf f17a 19bf
00000070: 30b2 e4bd 5bfb a9bf 9714 aabf be14 bbbf
00000080: db44 e1be 46bb 93bf 8971 d8bf a5f4 5bbf
00000090: bd52 10bf 6633 fbbe d631 cabf 5b7e 46bf
000000a0: 2654 c6bf b340 33be 000b 1a3e cfcb fd3d
000000b0: 95be b13c b9e2 6ebe b4f8 a8bf 91f4 c9bf
000000c0: 6a70 7bbf f1cb 56bf dd6b d0bf 4675 c6bf
000000d0: aaf4 efbe 88cb d5bf 7be6 c0bf 898c 9cbf
000000e0: 6b43 81bf f54c acbe 45c5 bdbe 094c b5bd
000000f0: 8a65 403d 0c52 e2bf e354 80bf c70c c23d
00000100: b83d e3bf 36a4 c4bf 28c3 d8bf 7fb2 82bf
00000110: 1f4b 17bd f4a8 a8bf 87eb ab3d 768b b2be
00000120: 0165 63bf b527 d6bf 44a1 5abf 24da afbf
00000130: 85c7 a13c d30f bdbf 48a3 a3bf b68f 40bf
00000140: 8005 b9be c562 e6bf c83a 0ebf 296a 44bf
00000150: 7de2 91bf a5e4 14bf 6710 e6bf f644 0cbf
00000160: 10e4 b7bf de42 c3bf cb48 ddbf af9c dcbe
00000170: d48e e3bf a5f3 4abc 5d52 35bf abca 8fbf
00000180: 84fe 85be 7753 8dbf f75b c3bf 3a5b babf
00000190: aafe b6bf 99a5 f1bf 9a83 43be 5b7e 94bf
000001a0: 7b00 96bf 2a95 c7bf 2f86 31bd adb5 4abf
000001b0: 2c98 bdbf 9fe6 36bf d469 51bf 5dc0 35bf
000001c0: 8fb9 323d 811e 97bf a1c0 b9bf 5cc8 11bd
000001d0: 7e79 dbbe 9baf 48bf bc36 c3bd b052 7fbe
000001e0: dc0b 053e e1d0 eabf be80 5a3e b2e1 98bc
000001f0: b64d dbbf 3138 b8bf 9efb d3bf dddf 9fbf
00000200: 0a2d 86bf c479 cbbe 7123 4fbf 48a5 9bbf
00000210: 4948 0ebf dc4d 8ebf c536 2dbf 0c6a 7abf
00000220: 6dd0 afbf 432b 81bf 9704 9ebf 4079 5abf
00000230: aa8d 9bbf 1afe 86bf 243b 26bf 48e8 bbbe
00000240: 7ca3 7abf 6f58 8dbf 0755 b6bf d7e6 8dbf
00000250: 9328 8dbf ce85 53bf 6db3 74bf 7d4c 8abf
00000260: 9e60 99bf 8307 87bf 757d 7abf 491b 90bf
00000270: 23f5 52bf a88e adbf 7954 88bf 9e41 9dbf
00000280: 266c 74bf fcc8 9dbf 5133 80bf 6121 89bf
00000290: 7d72 8dbf 06d6 84bf 5614 8cbf 37eb 6cbf
000002a0: 88e1 89bf a814 eabe 7544 cdbd 9f5d 50be
000002b0: e466 19bf f9b8 67bf 9056 8ebf c889 8ebf
000002c0: 96a2 94bf 75da 9abf 42a9 76bf d9c2 93bf
000002d0: 7b05 6dbf 7e3e 89bf a483 93bf b23c 99bf
000002e0: 5409 90bf 569a 53bf 4fe9 65bf df2c 07bf
000002f0: 4b91 39be 0ca1 8fbf 4637 adbf ff1a 9f3c
00000300: c473 8fbf 0795 8dbf cc19 9ebf fdf6 80bf
00000310: c2ad 2bbe dcfc 98bf 38c4 1fbe 4ed3 3dbf
00000320: fe35 98bf 2efa 80bf 3277 84bf c60b 96bf
00000330: 913a dabe 5e48 7ebf b4f0 8dbf 7bee 8abf
00000340: df54 2ebf 34c8 88bf 15a4 6abf 66b8 98bf
00000350: 1201 98bf 7475 8fbf 25b2 85bf 9973 8bbf
00000360: 932d 8abf 256c 99bf 34c8 7dbf f998 5bbf
00000370: d992 85bf f033 94be 5e53 6abf d817 83bf
00000380: a49c 81bf 397e a0bf 5971 86bf 0402 86bf
00000390: e54e 96bf e4a5 82bf d4c7 34bf 7891 8ebf
000003a0: 3301 93bf a497 8dbf c5a0 11bf 1686 85bf
000003b0: eea6 8bbf 1ec9 72bf 35f0 84bf 1bf1 93bf
000003c0: ae7d b8be 567d 97bf 33b7 8abf 4226 31bf
000003d0: 6cab 4bbf 2fd0 78bf ccd7 eabe f658 80bf
000003e0: beee 59be 896f 90bf 021a a0be 6369 91be
000003f0: 206b 82bf 0e5d 9bbf 7fe2 8bbf 2e02 94bf
-1.5417216 -0.062097047 -0.12453271 -1.3183386 0.39002767 -1.2124391 -0.12020282 -1.8278654
-0.58766663 -0.34734553 -0.9924792 -0.52178067 -1.3940204 -1.1534868 -0.21406311 0.3076361
-1.2845315 -1.3909482 -1.0942597 -0.97670376 -1.3369757 -0.48197195 -0.5972021 -1.2183496
-1.2679385 -1.601321 -1.5440031 -0.5995322 -0.11166799 -1.3279833 -1.3287534 -1.4615705
-0.43997845 -1.1541526 -1.6909648 -0.8592017 -0.5637625 -0.4906265 -1.5796459 -0.77536553
-1.549443 -0.1750515 0.15043259 0.12392389 0.021697322 -0.23328675 -1.3200898 -1.5777761
-0.98218405 -0.8390494 -1.6282917 -1.5504539 -0.4686635 -1.6702738 -1.5070337 -1.2230388
-1.0098699 -0.33652464 -0.37064567 -0.08852393 0.046971835 -1.7681289 -1.0025905 0.09475093
-1.775321 -1.5362613 -1.6934557 -1.0210723 -0.036936875 -1.317656 0.08394533 -0.34872025
-0.88825995 -1.6730868 -0.8540232 -1.3738446 0.019748459 -1.4770454 -1.2784204 -0.75219285
-0.3613701 -1.7998892 -0.55558443 -0.7672449 -1.1397244 -0.58161384 -1.7973756 -0.54792726
-1.4366474 -1.5254781 -1.728784 -0.4308829 -1.7777963 -0.012387191 -0.708288 -1.1233724
-0.26170743 -1.1041096 -1.526244 -1.455909 -1.4296467 -1.8878661 -0.19093171 -1.1601061
-1.1718897 -1.5592396 -0.043340858 -0.79183465 -1.4812064 -0.7144565 -0.81802106 -0.7099665
0.043633994 -1.1806184 -1.4511911 -0.03559147 -0.4286613 -0.7839295 -0.09531924 -0.24933887
0.12992805 -1.8344995 0.21338174 -0.018662307 -1.713309 -1.4392148 -1.6561162 -1.2490193
-1.0482495 -0.39741337 -0.80913454 -1.2159815 -0.5557905 -1.1117511 -0.67661697 -0.97818065
-1.3735482 -1.0091327 -1.2345151 -0.8534126 -1.2152607 -1.0546296 -0.6493399 -0.36700654
-0.9790571 -1.1042613 -1.4244698 -1.1086072 -1.1028007 -0.82626045 -0.9558628 -1.0804592
-1.198261 -1.0549167 -0.9784768 -1.1258327 -0.824053 -1.355916 -1.0650779 -1.228565
-0.9547752 -1.232696 -1.001566 -1.0713311 -1.1050564 -1.0377815 -1.0943706 -0.9254641
-1.0771952 -0.45718884 -0.10022823 -0.20348214 -0.59922624 -0.9051662 -1.1120167 -1.1135798
-1.1612117 -1.2097918 -0.96352017 -1.1543838 -0.9258649 -1.0722196 -1.1524549 -1.1971648
-1.1252847 -0.8265737 -0.89809126 -0.5280284 -0.18121831 -1.1221023 -1.3532493 0.019422052
-1.1207204 -1.1061105 -1.2351623 -1.0075375 -0.16765502 -1.1952167 -0.15602195 -0.7415055
-1.1891477 -1.0076349 -1.0348876 -1.1722343 -0.42622808 -0.99329174 -1.1089082 -1.0854028
-0.68098253 -1.0686097 -0.9165662 -1.1931274 -1.1875327 -1.1207719 -1.044499 -1.0894653
-1.0795158 -1.1986128 -0.9913361 -0.8578029 -1.0435439 -0.28945875 -0.9153346 -1.0241652
-1.0125928 -1.253852 -1.0503341 -1.0469365 -1.1742827 -1.0206876 -0.70617414 -1.1138144
-1.1484741 -1.1061902 -0.5688594 -1.0431545 -1.0910318 -0.9483813 -1.0385805 -1.1557955
-0.36033386 -1.1835124 -1.0837158 -0.69199 -0.79558444 -0.9719266 -0.45867765 -1.0027149
-0.21282479 -1.1284038 -0.31269842 -0.28400716 -1.0188942 -1.2137773 -1.0928496 -1.1563165
