models/QLSTM_mse_epochs11.pth (torch, 168347 bytes, 76 tensors)

layers.0.wfx.r_weight f4 [1, 32]
0	0xbf18da09	-0.59707695
1	0xbe774e07	-0.24150859
2	0xbf11d891	-0.5697108
3	0xbeb8c315	-0.36086336
4	0xbf029754	-0.5101216
5	0xbf29384d	-0.66101533
6	0xbf1c76bc	-0.61118674
7	0xbf0dc538	-0.55379057
8	0xbdad63f4	-0.0846633
9	0xbe986105	-0.2976152
10	0xbede2f39	-0.43395403
11	0xbea369f2	-0.31916767
12	0xbf13058d	-0.57430345
13	0xbf347828	-0.70495844
14	0xbe96b038	-0.2943132
15	0xbe0ea426	-0.13929805
16	0xbf0825e6	-0.5318283
17	0xbdfaaee7	-0.12240391
18	0xbf3f531a	-0.7473618
19	0x3de3a03c	0.11114547
20	0xbf20792c	-0.62684894
21	0xbe5e5325	-0.21711405
22	0xbf0ba009	-0.5454107
23	0xbeb20733	-0.34771118
24	0xbef075a1	-0.46964744
25	0xbf23ca9d	-0.6398104
26	0xbee72e4e	-0.45152515
27	0xbf51ac1b	-0.8190324
28	0xbeca2521	-0.39481452
29	0xbefb6194	-0.49097884
30	0xbeb7c37d	-0.35891333
31	0xbf6cd60c	-0.9251411

layers.0.wfx.i_weight f4 [1, 32]
0	0x3f13106f	0.5744695
1	0x3eb35e4c	0.3503288
2	0xbd82b783	-0.06382658
3	0xbc9932b7	-0.01870094
4	0x3de22a99	0.11043281
5	0x3df19e4d	0.117977716
6	0x3e321228	0.17389739
7	0xbd3845af	-0.04498833
8	0x3e5f2e61	0.21795036
9	0x3db52172	0.0884427
10	0xbded56c2	-0.11588813
11	0xbccc586e	-0.02494451
12	0xbd850281	-0.06494618
13	0x3d582262	0.052767165
14	0x3d1d2326	0.0383636
15	0x3e764943	0.24051385
16	0xbd3ceac5	-0.04612233
17	0x3d159691	0.036520544
18	0x3cd288b1	0.025699945
19	0x3d901952	0.070360795
20	0xbd32e952	-0.043679543
21	0x39e71eda	0.0004408274
22	0x3e0b61a8	0.13611472
23	0x3dadf59a	0.084941104
24	0xbe5d7a07	-0.21628581
25	0x3d2e5875	0.042564828
26	0xbc99b3e3	-0.018762534
27	0x3e414c09	0.18876661
28	0x3bee4a63	0.007272051
29	0x3e8adbe7	0.27120897
30	0x3ddcd0ed	0.10782037
31	0x3d62b9c5	0.055352945

layers.0.wfx.j_weight f4 [1, 32]
0	0xbe109522	-0.1411939
1	0x3ebff125	0.37488666
2	0x3c807848	0.015682355
3	0xbe044a70	-0.1291902
4	0x3d3b84a4	0.045780793
5	0x3d5328d7	0.05155262
6	0xbd9823fe	-0.0742874
7	0xbda2c25a	-0.07947226
8	0x3e96494e	0.29352802
9	0x3e65ccce	0.22441408
10	0xbd65811b	-0.056031328
11	0x3d7dbc06	0.06194689
12	0x3de2d730	0.110762
13	0xbd77ee0a	-0.060529746
14	0x3a2d4926	0.0006610326
15	0x3d984e96	0.07436864
16	0xbd980403	-0.0742264
17	0xbd2e43cc	-0.042545125
18	0xbd8379e4	-0.06419733
19	0xbd03857e	-0.03210973
20	0x3d483358	0.04887709
21	0x3c428eaf	0.011874839
22	0x3e880e92	0.26573616
23	0xbc272972	-0.010202752
24	0x3d5933ce	0.05302792
25	0xbddee83d	-0.1088414
26	0x3d84110c	0.06448564
27	0x3d99a0d3	0.07501378
28	0x3d63212f	0.05545157
29	0xbe14bef4	-0.14525968
30	0xbd2aa99d	-0.041665662
31	0xbd7773de	-0.060413234

layers.0.wfx.k_weight f4 [1, 32]
0	0xbe4e7f72	-0.20165804
1	0xbe28bfb6	-0.16479382
2	0x3c36530d	0.011128199
3	0xbdb29e39	-0.08721585
4	0x3d6f2f7c	0.058394894
5	0xbd990453	-0.07471528
6	0xbd0fd41b	-0.03511439
7	0x3e0d4d53	0.13799028
8	0x3cf5ad99	0.029990004
9	0xbbfb4158	-0.0076677017
10	0xbc27cb07	-0.010241277
11	0x3d72566c	0.05916445
12	0x3e3e4c9a	0.18583909
13	0xbc8a1bc9	-0.016858952
14	0x3deaa1e9	0.11456663
15	0x3de0b4ab	0.1097196
16	0x3ced4d7a	0.028967608
17	0xbd71b95e	-0.05901467
18	0xbd354259	-0.044252727
19	0xbd8e1091	-0.069367535
20	0xbd8f7562	-0.07004811
21	0xbd15e68b	-0.036596816
22	0x3e8be4d5	0.27323022
23	0x3b86edb4	0.004117692
24	0x3ed5ea82	0.41780478
25	0xbdb18151	-0.08667243
26	0xbdf698ce	-0.12040864
27	0x3e1aaf39	0.15105905
28	0xbcfb1ea8	-0.030654266
29	0xbe211b51	-0.15733077
30	0xbd8dd014	-0.069244534
31	0xbe081df8	-0.13292682

layers.0.wfx.bias f4 [128]
0	0xbf0b314b	-0.5437209
1	0xbe668178	-0.22510326
2	0xbf5f0594	-0.87117887
3	0xbf4bf07a	-0.79663813
4	0xbee10b47	-0.43953916
5	0xbf762ad0	-0.96159077
6	0xbeec0594	-0.46098006
7	0xbf41231c	-0.754442
8	0xbdc778c9	-0.09739835
9	0xbd81fdb2	-0.06347217
10	0xbf0cb0dc	-0.54957366
11	0xbe535dcb	-0.20641248
12	0xbf264ae9	-0.64958054
13	0xbd160a39	-0.036630843
14	0xbf2df385	-0.67949706
15	0xbb1694c7	-0.0022976862
16	0xbf13054d	-0.57429963
17	0xbf5329b7	-0.82485527
18	0xbf793670	-0.9734869
19	0xbdbf203c	-0.0933232
20	0xbf54b3b3	-0.830867
21	0xbf19cc98	-0.6007781
22	0xbf906228	-1.1279955
23	0xbf787f59	-0.9706932
24	0xbee64a63	-0.44978628
25	0xbf309a32	-0.68985283
26	0xbf62896f	-0.8849096
27	0xbf286790	-0.65783024
28	0xbf644e36	-0.8918184
29	0xbf8a7308	-1.0816355
30	0xbf63e2d2	-0.89017975
31	0xbed2a7e0	-0.41143703
32	0xbf234bf7	-0.6378779
33	0xbedb098e	-0.42780727
34	0xbf4c76a8	-0.79868555
35	0xbf8060f3	-1.0029587
36	0xbe6448e7	-0.22293435
37	0xbf921749	-1.1413356
38	0xbf1fd00d	-0.62426835
39	0xbf40a9cd	-0.75259095
40	0x3cdf1909	0.027233617
41	0xbe0d1134	-0.13776094
42	0xbf1be6c6	-0.6089901
43	0xbe784385	-0.24244507
44	0xbf08ed8b	-0.5348746
45	0xbdee17f9	-0.11625666
46	0xbf3e2bd6	-0.7428564
47	0xbe60ab5c	-0.21940368
48	0xbf4492a9	-0.76786286
49	0xbf38eaef	-0.7223348
50	0xbf7289c0	-0.9474144
51	0xbe90f86b	-0.28314528
52	0xbf830571	-1.0236036
53	0xbf0f3bc2	-0.5595056
54	0xbf203e47	-0.6259503
55	0xbf8445a9	-1.0333759
56	0xbebd8a18	-0.3701942
57	0xbf4a0264	-0.789099
58	0xbf6fc7b7	-0.93664116
59	0xbf71f071	-0.9450751
60	0xbf7d1fee	-0.98876846
61	0xbf6b6bcb	-0.91961354
62	0xbf4cf6b6	-0.8006395
63	0xbf514569	-0.81746536
64	0xbeef6a75	-0.46760908
65	0xbe713fa8	-0.23559439
66	0xbf68fde1	-0.9101239
67	0xbf60d67f	-0.87827295
68	0xbe5af16b	-0.21381156
69	0xbf72af67	-0.9479889
70	0xbf54dbc9	-0.83147866
71	0xbf6669a9	-0.90004975
72	0x3e15d701	0.14632799
73	0xbe0a2266	-0.13489684
74	0xbf6fb8a5	-0.9364112
75	0xbe68875e	-0.22707888
76	0xbef6f1eb	-0.48231444
77	0xbe0f5bf8	-0.13999927
78	0xbf3e7199	-0.74392086
79	0xbde5ce47	-0.11220985
80	0xbf2e02ba	-0.6797291
81	0xbf455ad1	-0.770917
82	0xbf69ba94	-0.9130032
83	0xbe0b79b2	-0.13620642
84	0xbf124caf	-0.5714826
85	0xbf144020	-0.57910347
86	0xbf4a69a3	-0.7906744
87	0xbf832a1f	-1.0247229
88	0xbe81b208	-0.2533114
89	0xbf0cb0ce	-0.5495728
90	0xbf6765ca	-0.9038969
91	0xbf4aee36	-0.7926973
92	0xbf5336c8	-0.82505465
93	0xbf5c97cd	-0.8616913
94	0xbf59d880	-0.8509598
95	0xbf190bb7	-0.597835
96	0xbf54c014	-0.8310559
97	0xbebfb80b	-0.374451
98	0xbf57a698	-0.84238577
99	0xbf55a3fd	-0.8345335
100	0xbe7ce27f	-0.24695776
101	0xbf682a0a	-0.90689147
102	0xbeed62dd	-0.4636449
103	0xbf64b531	-0.89338976
104	0xbe22bf42	-0.15893272
105	0xbdd6cddc	-0.10488483
106	0xbefdd0fd	-0.49573508
107	0xbe1e0d63	-0.15434794
108	0xbf2f959e	-0.6858767
109	0xbd847f69	-0.06469614
110	0xbf2ea3b1	-0.68218523
111	0xbe345775	-0.17611487
112	0xbf229192	-0.6350337
113	0xbf52268b	-0.8209006
114	0xbf82a254	-1.0205789
115	0xbcf95560	-0.030436218
116	0xbf5f5583	-0.87239856
117	0xbf177ca7	-0.5917458
118	0xbf43c4b5	-0.76472026
119	0xbf842f5d	-1.0326954
120	0x3d3bc91e	0.045846097
121	0xbf20a3fa	-0.6275021
122	0xbf5409d2	-0.82827485
123	0xbf3daa1d	-0.740877
124	0xbf52dac5	-0.82365066
125	0xbf46721c	-0.7751787
126	0xbf3cb46c	-0.737128
127	0xbf3f9d9b	-0.7484986

layers.0.ufh.r_weight f4 [32, 32]
0	0xbbc05fb4	-0.0058707837
1	0xbead9e7c	-0.33909976
2	0xbe32da64	-0.17466122
3	0x3e581592	0.21101978
4	0xbf27ef86	-0.6559986
5	0xbe15ad15	-0.14616807
6	0x3deb7c7e	0.114983544
7	0xbca55478	-0.02018188
8	0x3d242187	0.040071037
9	0xbea0fc9b	-0.31442723
10	0x3df852da	0.12125178
11	0x3ec21183	0.37903985
12	0x3c9732a6	0.018456768
13	0xbede1740	-0.43377113
14	0x3d8b172a	0.067915276
15	0x3e4e43eb	0.20143096
16	0xbd8f3410	-0.06992352
17	0x3dc9bc72	0.09850396
18	0xbd88611a	-0.06659146
19	0xbe422d6f	-0.18962644
20	0x3e4fc9d0	0.20291829
21	0xbded7ae0	-0.11595702
22	0x3d591e10	0.053007185
23	0xbd203341	-0.03911138
24	0x3d5851b1	0.052812282
25	0xbe3c9664	-0.18416744
26	0x3e4b63fd	0.19862361
27	0x3c943666	0.018092345
28	0x3df86655	0.12128893
29	0x3d631f4a	0.05544976
30	0x3d40ccc8	0.047070295
31	0x3db0628e	0.08612548
32	0xbe3fbc50	-0.1872418
33	0x3c00e161	0.0078662345
34	0x3dde4b27	0.10854178
35	0x3d9e9538	0.07743305
36	0x3f2d471b	0.67686623
37	0xbd3dd805	-0.04634859
38	0x3c9caf38	0.01912652
39	0xbddb3282	-0.10702993
40	0x3b47619c	0.003042317
41	0x3e811f48	0.25219178
42	0x3d4eaebc	0.05045961
43	0x3e83809a	0.25684053
44	0x3ce0ba34	0.027432539
45	0x3ecc7d55	0.3993937
46	0x3daf73a3	0.08566978
47	0x3ce68b65	0.02814264
48	0xbe03e1ab	-0.12879054
49	0x3eb4cd4a	0.35312873
50	0x3c739919	0.014868044
51	0x3e77ab35	0.24186404
52	0xbe47cc67	-0.19511567
53	0x3dfad5cb	0.12247809
54	0x3e013ca1	0.12620784
55	0xbddb40da	-0.10705729
56	0xbe6806ff	-0.22658919
57	0x3edd8ffd	0.43273917
58	0xbde9821e	-0.11401771
59	0x3e86eb25	0.26351276
60	0x3e8156b0	0.2526145
61	0x3e99caf5	0.30037656
62	0x3c83d263	0.016091531
63	0x3dda1ee0	0.1065042
64	0xbe98c934	-0.29841006
65	0xbb937993	-0.0045005768
66	0x3da2f6d6	0.079572365
67	0xbe1e2601	-0.15444185
68	0xbe086463	-0.13319544
69	0x3d990bef	0.07472979
70	0xbe714b14	-0.23563796
71	0xbe0ef947	-0.1396228
72	0xbe889572	-0.26676518
73	0x3d10479c	0.035224542
74	0x3e7b870b	0.24563234
75	0xbe079fe9	-0.13244595
76	0xbe2ff6a5	-0.17183931
77	0x3e633909	0.22189726
78	0xbd51d87f	-0.051231857
79	0x3d973ef9	0.07385058
80	0xbdf1bf1b	-0.118040286
81	0x3dae582e	0.08512913
82	0x3d383fab	0.044982594
83	0x3e3a962d	0.1822135
84	0xbdc6227c	-0.09674546
85	0xbe005d9d	-0.1253571
86	0xbea372ba	-0.31923467
87	0xbe54a359	-0.20765437
88	0x3e0500c7	0.12988578
89	0x3ea204a3	0.31644163
90	0xbe36f808	-0.17868054
91	0xbd256685	-0.040380973
92	0x3c2090d0	0.009800151
93	0x38621350	5.3900585e-05
94	0x3e1769d1	0.1478646
95	0x3e05e527	0.13075696
96	0x3b3952c8	0.0028278101
97	0xbdcb7570	-0.09934509
98	0xbe618860	-0.22024679
99	0x3e458306	0.19288263
100	0xbdef83b3	-0.116950415
101	0x3c60002b	0.013671915
102	0x3db21bc3	0.086967014
103	0xbd1437f7	-0.036186185
104	0xbda9bde9	-0.082881756
105	0xbd81ccb2	-0.06337871
106	0xbe3008ec	-0.17190903
107	0xbea145d4	-0.31498587
108	0x3dcbb65a	0.0994689
109	0x3e866b39	0.2625368
110	0xbd329983	-0.04360343
111	0xbdcfb14e	-0.1014124
112	0x3dbbf151	0.09176887
113	0x3c2cac09	0.010539063
114	0xbe0d6601	-0.13808443
115	0xbd2208d7	-0.03955921
116	0x3bc7ff28	0.006103415
117	0xbe0ff14b	-0.1405689
118	0xbe506235	-0.20349963
119	0xbe814a49	-0.25251988
120	0x3e33c18c	0.17554301
121	0x3c394089	0.01130689
122	0x3d801a17	0.06254976
123	0x3de6874b	0.11256274
124	0x3c24415e	0.01002535
125	0xbe185f4c	-0.14880103
126	0xbd2ac311	-0.041689936
127	0x3e857b9b	0.26070866
128	0xbdc9efd5	-0.098601975
129	0xbc086cb3	-0.008326697
130	0x3e18721f	0.14887284
131	0x3d17c34d	0.037051488
132	0x3e0298cd	0.12753601
133	0xbe351ca2	-0.17686704
134	0x3ddda87a	0.1082315
135	0xbdf61ea3	-0.12017562
136	0x3dbc7a74	0.092030436
137	0x3ceaeab1	0.028676363
138	0x3c2ff3b9	0.01073926
139	0x3e55b91d	0.20871396
140	0x3eb4785f	0.35248086
141	0x3e7d7b6a	0.2475411
142	0x3db1362e	0.08652912
143	0x3e280f1c	0.16412014
144	0xb99dcb1d	-0.00030096705
145	0x3e89a9d7	0.2688739
146	0x3ddc5131	0.107576735
147	0x3ef8c219	0.48585585
148	0xbd3d6142	-0.04623533
149	0x3e88b152	0.26697785
150	0xbe145719	-0.1448635
151	0x3dfcf848	0.123520434
152	0x3d906125	0.07049779
153	0x3e77b92d	0.24191733
154	0x3e4b439b	0.19850008
155	0x3dea71d4	0.11447492
156	0xbcc108b4	-0.02356372
157	0xbc320708	-0.010865934
158	0x3e2d07e2	0.16897538
159	0x3d1d2961	0.03836954
160	0xbd48f909	-0.049065623
161	0xbe87062d	-0.263719
162	0xbe55bbed	-0.20872469
163	0x3e6d26b7	0.231593
164	0x3c6d68c7	0.014490313
165	0x3de06178	0.10956091
166	0x3d9589f0	0.073017
167	0x3d219c49	0.039455686
168	0xbd8de992	-0.069293156
169	0xbe349a82	-0.17637065
170	0xbe4f8db6	-0.20268902
171	0xbe6c1212	-0.23053768
172	0xbe1f4400	-0.15553284
173	0x3e4278e2	0.18991426
174	0xbe0c9e5f	-0.13732289
175	0xbd98a86a	-0.074539974
176	0xbe22a7f1	-0.15884377
177	0x3bde3836	0.006781603
178	0x3d151370	0.03639549
179	0xbd1f2973	-0.03885789
180	0xbe973196	-0.2953002
181	0x3e07c5a7	0.13258992
182	0xbddc3f90	-0.10754311
183	0x3c88f0ae	0.016716328
184	0x3dfbfd9a	0.1230423
185	0xbcc072d4	-0.023492254
186	0x3e492264	0.19642025
187	0xbd36d64d	-0.044637967
188	0x3e81f50a	0.25382262
189	0x3d528808	0.05139926
190	0x3dff9948	0.12480408
191	0x3d1f7e99	0.038939092
192	0x3e01be4e	0.12670252
193	0x3d02827d	0.031862725
194	0xbc8da47a	-0.017290343
195	0xbe350ec0	-0.17681408
196	0x3e71c35c	0.2360968
197	0x3c906de5	0.017630527
198	0xbde2560c	-0.110515684
199	0x3e361017	0.17779575
200	0x3e0eb3a9	0.13935722
201	0xbd573ce9	-0.052548323
202	0xbdbb4e7a	-0.091458276
203	0x3e1aa50e	0.15102026
204	0xbcece13f	-0.028916
205	0x3dd265c7	0.10273319
206	0x3d9ee019	0.07757587
207	0xbe09f4dc	-0.13472313
208	0xbdca3496	-0.09873311
209	0x3d6dfa74	0.05810018
210	0xbdeec086	-0.11657815
211	0x3e49e4e0	0.19716215
212	0x3e5c9a04	0.21543127
213	0x3d209705	0.039206523
214	0x3e27fb4b	0.16404454
215	0xbe131df2	-0.14366892
216	0x3e0e2ae0	0.13883543
217	0xbd969d37	-0.07354205
218	0xbda55be7	-0.080741696
219	0x3ea21e65	0.31663814
220	0x3db6f96c	0.08934292
221	0x3de2333d	0.11044929
222	0x3d95b6aa	0.07310231
223	0x3c8b3340	0.016992211
224	0x3c8577ed	0.016292537
225	0xbdc77f77	-0.09741109
226	0x3d050279	0.03247306
227	0x3da70caa	0.08156712
228	0xbe71377b	-0.2355632
229	0x3d4b0df6	0.04957386
230	0x3e637925	0.22214182
231	0xbdc6001a	-0.09667988
232	0x3e16381c	0.14669842
233	0x3dafd814	0.085861355
234	0x3e801a59	0.25020102
235	0x3e8c1f04	0.27367413
236	0x3e4b035f	0.19825505
237	0x3e10debe	0.1414747
238	0x3d84df0c	0.06487855
239	0x3e0d01c5	0.13770206
240	0x3c4823d4	0.012215573
241	0xbd91d08e	-0.07119857
242	0x3dcd726a	0.100315884
243	0x3d150291	0.0363794
244	0x3e8da25c	0.27662933
245	0x3d7f60e2	0.062348254
246	0x3e81a931	0.25324395
247	0xbe53711c	-0.20648617
248	0xbe1f0c3d	-0.15532012
249	0xbccf5073	-0.025306916
250	0x3e1ef1c2	0.15521911
251	0x3ac1f4ac	0.0014797649
252	0xbdbc15b4	-0.09183827
253	0x3d3269ae	0.043557815
254	0x3d75be13	0.059995722
255	0xbddc05ef	-0.10743319

layers.0.ufh.i_weight f4 [32, 32]
0	0xbc3f6506	-0.011681801
1	0x3e542113	0.20715742
2	0xbdc8bd04	-0.09801677
3	0x3cf3d4b6	0.029764514
4	0x3ea507bf	0.32232472
5	0x3d136bee	0.0359916
6	0x3da9312f	0.08261334
7	0x3d3443c6	0.044009946
8	0x3e2c436f	0.16822599
9	0x3e25408b	0.16137902
10	0x3d8eef84	0.06979278
11	0x3e455b01	0.19272996
12	0xbeae62c2	-0.3405972
13	0x3da76e79	0.08175368
14	0x3d7eb238	0.06218168
15	0xbd62f354	-0.055407837
16	0xbd3e5958	-0.046471924
17	0x3dba28e1	0.09089828
18	0xbc0cb1cf	-0.008587315
19	0x3d93ec74	0.07222834
20	0x3d55eb0d	0.052226115
21	0x3b5367fd	0.0032258027
22	0x3d7cc3bd	0.061710108
23	0xbddcade4	-0.107753545
24	0x3e8e0755	0.2773997
25	0x3e2ace07	0.16680156
26	0x3caaaa26	0.020833086
27	0xbdbaaf3e	-0.09115456
28	0x3e512fb7	0.20428358
29	0x3cc2e551	0.023790987
30	0x3d5fcade	0.05463683
31	0x3de1391f	0.10997223
32	0xbe3a3ff0	-0.18188453
33	0xbd816f62	-0.06320073
34	0x3cab6e43	0.0209266
35	0x3d250099	0.040283773
36	0xbc71fdae	-0.014769955
37	0xbd29cc22	-0.04145444
38	0x3cd47a24	0.025937147
39	0xbd0f7880	-0.035027027
40	0xbd34e9e1	-0.044168357
41	0x3d4fd725	0.050742287
42	0x3cfb9a2e	0.030713167
43	0xbcb48ab9	-0.022038804
44	0x3df5732e	0.119848594
45	0x3c0f3fd0	0.008743241
46	0x3df4dfc5	0.11956743
47	0xbd6c9036	-0.057754718
48	0xbc9738ac	-0.01845964
49	0xbcd49d71	-0.02595398
50	0x3e1ae765	0.15127333
51	0xbe6b5c4e	-0.2298443
52	0xbb1e33aa	-0.002413968
53	0xbc785510	-0.015156999
54	0x3e0c0761	0.1367469
55	0x3758e99b	1.2928994e-05
56	0xbc8f00a9	-0.01745637
57	0x3e2a8ebd	0.16656013
58	0xbdf1c512	-0.11805166
59	0xbe12609a	-0.14294663
60	0x3e5a5111	0.21319987
61	0x3cfda2ee	0.03096148
62	0x3d8ceb69	0.068808384
63	0xbdf9bd8d	-0.12194357
64	0xbc8d41ad	-0.01724323
65	0x3b1fa96f	0.0024362465
66	0x3dff64f5	0.12470428
67	0xbcb5d877	-0.022197945
68	0x3b8ab791	0.0042333086
69	0xbc62754e	-0.013821913
70	0x3e05499c	0.13016361
71	0x3d961c80	0.07329655
72	0xbd269e85	-0.04067852
73	0xbccf7237	-0.025323017
74	0x3c9b29fe	0.018940922
75	0x3dac9c0e	0.084282026
76	0x3e41cedc	0.18926567
77	0xbded6370	-0.11591232
78	0xbd3eaf07	-0.046553638
79	0x3d60f524	0.054921284
80	0x3c94a3ac	0.018144451
81	0xbdf700b3	-0.1206068
82	0xbb9f39e7	-0.0048591974
83	0x3daeb1d0	0.08530009
84	0x3e0c1107	0.1367837
85	0x3d143e74	0.036192372
86	0xbbc42cf7	-0.0059868055
87	0xbd257598	-0.04039535
88	0x3e37c2db	0.17945425
89	0xbd3daccd	-0.046307374
90	0x3e25cfbd	0.16192527
91	0xbda3ec28	-0.080040276
92	0x3d8c54ab	0.06852087
93	0xbd360b67	-0.044444468
94	0x3c3fa59d	0.0116972
95	0x3ab3259c	0.0013667825
96	0xbe37dadb	-0.1795458
97	0xbe3b6545	-0.1830035
98	0x3d5b65a6	0.053563736
99	0x3da44b6d	0.08022199
100	0xbe4f4175	-0.20239814
101	0x3bf05ab4	0.0073350314
102	0x3dfb6ae3	0.122762464
103	0xbdf4e58f	-0.11957847
104	0xbdaf2956	-0.08552806
105	0xbc164cfa	-0.009173626
106	0xbc743dc2	-0.014907302
107	0xbda1210d	-0.07867632
108	0x3d946195	0.07245175
109	0xbdd8f4b2	-0.10593547
110	0x3e2e2c0f	0.17008995
111	0x3d574bc8	0.052562505
112	0xbdf1f745	-0.11814741
113	0xbc777f40	-0.015106022
114	0x3d805e23	0.06267955
115	0xbd25a57c	-0.04044102
116	0xbdb66397	-0.08905714
117	0x3d0466c6	0.032324575
118	0x3d2f3ee5	0.04278459
119	0x3d8cbe4e	0.06872235
120	0xbc00c59a	-0.007859612
121	0x3e38e01d	0.18054242
122	0xbbe4600f	-0.006969459
123	0x3c56657f	0.013085722
124	0xbdb24368	-0.08704263
125	0x3dcc1117	0.09964197
126	0x3e357562	0.17720559
127	0x3d87f5a5	0.0663865
128	0xbe491320	-0.19636202
129	0xbeac8fa5	-0.33703342
130	0x3dcfe805	0.10151676
131	0x3da04614	0.07825866
132	0xbd24f513	-0.040272783
133	0x3dbd69a3	0.09248664
134	0x3e0b70a9	0.13617195
135	0x3e43a05b	0.1910414
136	0xbe5f82a2	-0.21827176
137	0xbc746b67	-0.014918185
138	0xbbe886fe	-0.0070961704
139	0xbdeb03fe	-0.11475371
140	0xbcf03747	-0.029323233
141	0x3dd878b0	0.10569894
142	0x3e3335ee	0.17501041
143	0xbda73637	-0.081646375
144	0xbcd7af0c	-0.026328586
145	0x3d1c854d	0.038213063
146	0x3c6e2efd	0.01453757
147	0xbe42aa7c	-0.19010347
148	0xbd74668d	-0.059668113
149	0x3c153958	0.00910791
150	0x3e4ecfe5	0.20196493
151	0xbd4ca9d4	-0.04996665
152	0x3e185889	0.14877523
153	0x3ceff138	0.029289827
154	0xbd828b49	-0.06374223
155	0xbe79829c	-0.2436623
156	0xbc905f0d	-0.017623449
157	0xbd558828	-0.0521318
158	0xba97dbe8	-0.0011585923
159	0x3b9e4e15	0.0048310854
160	0xbe152ad7	-0.14567123
161	0x3ca83809	0.020534532
162	0x3d199f2d	0.037505317
163	0xbd33440d	-0.04376607
164	0x3d8b775f	0.068098776
165	0x3cc8d569	0.024515824
166	0xbc0f6c18	-0.008753799
167	0x3dd5bd16	0.10436456
168	0x3da12f8c	0.07870397
169	0x3e057f4f	0.13036846
170	0xbd488525	-0.0489551
171	0xbe767be6	-0.24070701
172	0x3bd3c229	0.0064623547
173	0x3b173d18	0.0023077186
174	0x3e089305	0.13337334
175	0xbc5a08c7	-0.013307757
176	0xbd5d7313	-0.05406482
177	0xbbebd6b8	-0.0071972273
178	0xbe095998	-0.13413084
179	0xbdc1066e	-0.094250545
180	0xbbe5ae40	-0.0070092976
181	0x3c19bdea	0.009383658
182	0x3ca10ffc	0.019660942
183	0xbd8f39cd	-0.069934465
184	0x3dbb47d2	0.09144558
185	0xbca6f543	-0.020380622
186	0xbe226316	-0.15858111
187	0x3da16a30	0.07881582
188	0xbdb02fba	-0.08602853
189	0xbe26501a	-0.16241494
190	0x3acbf90b	0.0015561891
191	0xbe0b6c7d	-0.13615604
192	0xbd9277fc	-0.071517915
193	0x3e3ae19c	0.18250126
194	0xbc0adfd0	-0.008476213
195	0xbce2da88	-0.027692094
196	0x3de82c8f	0.11336624
197	0xbdeeca2c	-0.11659655
198	0x3d8f983c	0.07011458
199	0x3e19d665	0.15023191
200	0xbe6bc41c	-0.23024029
201	0x3e14e2d1	0.14539649
202	0xbb935c4e	-0.0044970876
203	0x3e22c331	0.15894772
204	0x3d393252	0.045214005
205	0x3e1317f5	0.14364608
206	0xbe085931	-0.13315274
207	0x3d53c600	0.0517025
208	0x3caffcd0	0.021482855
209	0x3d9d04dd	0.07666943
210	0xbba61f70	-0.0050696656
211	0x3e14012d	0.14453574
212	0xbd99e92d	-0.07515178
213	0x3dda5a87	0.10661798
214	0xbe21190a	-0.15732208
215	0xbd14c17f	-0.036317345
216	0x3c9aae8a	0.018882055
217	0xbd9f51ce	-0.07779275
218	0x3dc93b9e	0.09825824
219	0xbc2cb152	-0.010540323
220	0x3cda925d	0.02668112
221	0x3db83905	0.089952506
222	0xbe50f136	-0.20404515
223	0x3d1000f6	0.035157166
224	0x3cfd6f71	0.030936928
225	0xbdc3ccf4	-0.09560576
226	0x3db6cc31	0.08925665
227	0x3c417b4d	0.011809182
228	0xbdbd1469	-0.092324086
229	0xbd118d8c	-0.03553538
230	0x3c06198f	0.008184805
231	0xbc4c51fa	-0.012470717
232	0x3c9b3a7b	0.018948784
233	0x3d5da722	0.05411447
234	0xbdece6da	-0.11567469
235	0xbd970fbe	-0.073760495
236	0xbdec57d2	-0.11540188
237	0x3eb08d33	0.34482726
238	0x3db3f872	0.087876216
239	0x3ce254ee	0.027628388
240	0xbd3e98df	-0.046532508
241	0xbd251d39	-0.040311072
242	0xbda7d32a	-0.08194573
243	0x3aeb59f2	0.0017955883
244	0xbcee6f20	-0.029105723
245	0x3e2adc2b	0.1668555
246	0x3e0e0f4a	0.1387302
247	0x3d131541	0.03590894
248	0xbd5ac87b	-0.05341385
249	0x3e7464de	0.23866603
250	0x3d923386	0.071387336
251	0x3e0020bd	0.12512489
252	0x3d92b2b8	0.07162994
253	0x3d8ec785	0.06971649
254	0x3dc3d0ad	0.09561286
255	0x3db9cf49	0.0907274

layers.0.ufh.j_weight f4 [32, 32]
0	0xbd56853a	-0.05237315
1	0x3e2da4a2	0.16957334
2	0x3da61d1f	0.08111023
3	0xbd9e4566	-0.077280805
4	0x3dbad4e5	0.09122638
5	0x3c920142	0.017822865
6	0xbd1b847d	-0.037968148
7	0x3e062d64	0.13103253
8	0xbdd87cfe	-0.10570715
9	0x3d888fdd	0.06668065
10	0xbcd2e761	-0.025745096
11	0x3ea54e23	0.32286176
12	0x3d609309	0.054827724
13	0x3dfbb998	0.122912586
14	0x3e9f18a1	0.31073478
15	0x3e8c6008	0.27417016
16	0xbd8665bc	-0.06562373
17	0x3d50a6da	0.050940372
18	0xbd73db7a	-0.05953548
19	0x3e2c77ec	0.16842622
20	0x3d5a6227	0.05331626
21	0x3e2a72c6	0.16645345
22	0x3e8fb779	0.28069666
23	0x3e40fb94	0.1884597
24	0x3e02a461	0.12758018
25	0x3b8f2a46	0.004369053
26	0x3d803a8c	0.06261167
27	0x3d88bc4c	0.0667654
28	0x3b8a39a3	0.0042182966
29	0xbe0bf9ef	-0.13669561
30	0xbd326872	-0.043556638
31	0x3ded9b32	0.11601867
32	0x3d180235	0.03711148
33	0xbe7147c3	-0.23562531
34	0x38882743	6.4922984e-05
35	0x3e2202b8	0.1582135
36	0xbde99fe4	-0.1140745
37	0x3dd8a2e6	0.105779454
38	0x3d185bfe	0.037197106
39	0xbda9fba8	-0.08299953
40	0x3d85a597	0.065257244
41	0xbc6248fb	-0.013811345
42	0x3ac27f1e	0.0014838909
43	0x3d46808a	0.04846243
44	0xbd83d199	-0.06436462
45	0xbdb88b0e	-0.090108976
46	0x3d956ead	0.072965
47	0xbd99c557	-0.07508343
48	0x3e0a240f	0.13490318
49	0x3dcde98f	0.100543134
50	0x3d833f57	0.064085655
51	0xbd734ecf	-0.05940133
52	0xbd313285	-0.04326107
53	0xbda9c903	-0.08290293
54	0x3deccd31	0.11562575
55	0xbdb4c5bb	-0.088267766
56	0xbd38f775	-0.04515787
57	0x3e456653	0.19277315
58	0xbe20c433	-0.15699844
59	0x3d6cb002	0.05778504
60	0x3e05a07d	0.13049503
61	0xbde6bc3a	-0.1126637
62	0xbd89c0b7	-0.067262106
63	0x3e055a15	0.13022645
64	0xbdea6b90	-0.11446297
65	0xbe8d3248	-0.27577424
66	0xbd53e68f	-0.05173355
67	0x3a67beef	0.0008840402
68	0xbe74dbab	-0.23911922
69	0xbcae49f0	-0.02127549
70	0xbe38aeae	-0.18035385
71	0xbd426930	-0.047463596
72	0xbdc7a60c	-0.09748468
73	0x3ab79fcf	0.0014009419
74	0xbdedc11b	-0.116090976
75	0xbe34b177	-0.17645822
76	0x3dc13c62	0.09435345
77	0xbe90b71f	-0.2826471
78	0xbd43a6d0	-0.047766507
79	0x3d174719	0.03693304
80	0xbdb17c93	-0.08666339
81	0xbe2d3a1e	-0.16916701
82	0x3d51c664	0.05121459
83	0xbe09cc75	-0.134569
84	0xbe088b19	-0.13334312
85	0xbe1792a6	-0.14802036
86	0xbd6ba5ac	-0.057531044
87	0x3b638b71	0.0034720565
88	0x3d574e84	0.052565113
89	0xbe9a5d91	-0.3014951
90	0xbdb66efe	-0.08907889
91	0xbdde3fb0	-0.10851991
92	0xbdb8f9a0	-0.09031987
93	0xbded8d11	-0.11599172
94	0xbd4f896f	-0.050668176
95	0xbe92206a	-0.28540355
96	0x3c35668f	0.011071815
97	0xbe24bf6a	-0.16088644
98	0x3aa8f600	0.0012890697
99	0x3d569c6e	0.052395277
100	0xbd3d9bd0	-0.046291173
101	0xbda28fad	-0.0793756
102	0x3d91e404	0.07123569
103	0xbddccbd2	-0.10781063
104	0xbda31159	-0.07962293
105	0x3d4b80eb	0.049683493
106	0xbd8f874c	-0.07008228
107	0xbd3058ee	-0.04305356
108	0x3a3a3e3a	0.00071046094
109	0xbe8a9769	-0.27068642
110	0xbe50b178	-0.20380199
111	0xbd8cb68e	-0.06870757
112	0x3c91bd86	0.017790567
113	0x3d174ad8	0.03693661
114	0xbcfb1bc9	-0.030652897
115	0x3cf95065	0.030433843
116	0x3d5728ba	0.052529074
117	0xbd7f5592	-0.062337466
118	0xbd30a950	-0.04313022
119	0xbd1cda1c	-0.038293943
120	0xbe5c0b73	-0.21488743
121	0xbe60ffca	-0.21972576
122	0xbe2df355	-0.16987355
123	0xbc451904	-0.01202989
124	0x3d456f65	0.048201937
125	0x3c3d9287	0.011570579
126	0x3e00ab29	0.12565292
127	0xbe3fe887	-0.18741046
128	0x3d0e36b2	0.03472013
129	0xbe917eea	-0.2841714
130	0x3c569ec4	0.013099376
131	0x3c81ec06	0.015859615
132	0xbd908c3f	-0.07058
133	0xbd835a4d	-0.06413708
134	0xbd7498aa	-0.059715904
135	0xbe0aa70d	-0.13540287
136	0xbd9d8140	-0.07690668
137	0x3e11910c	0.14215487
138	0x3d9362be	0.07196568
139	0x3d491a76	0.0490975
140	0x3ca56191	0.020188125
141	0x3e393125	0.18085153
142	0xbd993cf1	-0.07482327
143	0xbcb25e7f	-0.021773575
144	0x3cd20928	0.025639132
145	0x3e906677	0.28203174
146	0xbd017255	-0.031603176
147	0x3ceda431	0.029008957
148	0xbd753c69	-0.059872065
149	0xbd1d5057	-0.038406696
150	0x3e2dcbcb	0.16972272
151	0x3ca55ba0	0.020185292
152	0x3dcb932a	0.09940179
153	0x3e2e89ef	0.17044805
154	0x3d60efe9	0.054916296
155	0x3e0ae9c2	0.13565734
156	0x3d905f16	0.07049386
157	0xbd29817c	-0.04138325
158	0x3d732d7b	0.059369545
159	0x3e45b1c3	0.19306092
160	0x3c9a9294	0.018868722
161	0x3dc29702	0.09501459
162	0xbe0aa8eb	-0.13541
163	0x3dd0714e	0.10177861
164	0x3af38c78	0.0018581292
165	0xbd7033d5	-0.05864318
166	0xbd3759de	-0.04476344
167	0x3e2b7d63	0.1674705
168	0x3e17df01	0.14831163
169	0x3d5de7fa	0.05417631
170	0x3d56fe81	0.052488808
171	0xbc57277e	-0.013131974
172	0x3e121a98	0.14267957
173	0xbda1ffad	-0.079100944
174	0xbdec314a	-0.11532839
175	0xbcd2c60d	-0.025729204
176	0x3d9e7049	0.077362604
177	0x3d101691	0.03517777
178	0xbdfd5feb	-0.123718105
179	0x3cd1f433	0.025629139
180	0x3d7dc2e1	0.06195343
181	0xbc64a6f8	-0.013955824
182	0x3d0fc4d4	0.03509982
183	0xbd76b067	-0.060226824
184	0x3d15daa2	0.036585458
185	0xbd50e4ef	-0.050999578
186	0x3d8b8b3e	0.06813668
187	0x3e38a5bc	0.18031973
188	0xbd062829	-0.032753143
189	0xbd917cc0	-0.07103872
190	0x3df0a2ed	0.117498256
191	0xbddf533c	-0.109045476
192	0x3d6d0e94	0.05787523
193	0xbdc8fa29	-0.09813339
194	0xbd84e455	-0.064888634
195	0xbcaf1d54	-0.02137629
196	0x3e2e3df0	0.17015815
197	0xbcce59af	-0.025189249
198	0xbba3de7a	-0.0050008865
199	0x3dde605b	0.10858222
200	0x3e359ce4	0.1773563
201	0x3df44c3a	0.119286016
202	0x3d06f389	0.032947097
203	0xbcba7155	-0.022759119
204	0xbc098e8e	-0.008395804
205	0xbdd2b38f	-0.10288154
206	0x3db12655	0.086498894
207	0xbe0fe45c	-0.14051956
208	0xbdd2b60e	-0.102886304
209	0xbe185837	-0.14877401
210	0x3c85350c	0.016260646
211	0xbe3caf94	-0.18426353
212	0x3cb2d680	0.021830797
213	0x3d983cd5	0.07433478
214	0x3e758b44	0.23978907
215	0x3c18ada6	0.009318745
216	0x3dad6c80	0.0846796
217	0xbc6f117c	-0.014591571
218	0xbdb389d4	-0.08766523
219	0xbd6fc9c2	-0.05854202
220	0x3d637092	0.055527277
221	0x3c6dc02e	0.014511151
222	0x3dbeb29a	0.09311409
223	0xbbcb0718	-0.006195914
224	0xbdbb29cc	-0.091388315
225	0x3d9feaed	0.078084804
226	0x3dfd3a5c	0.12364647
227	0x3d62076e	0.055182867
228	0xbdbe098a	-0.09279163
229	0x3c84e60d	0.016222978
230	0x3dc9147e	0.09818362
231	0x3d2bb514	0.041920736
232	0x3e19c372	0.15015963
233	0xbd90b308	-0.070653975
234	0xbe0ffee5	-0.14062078
235	0xbe2e699e	-0.17032477
236	0x3c6db5e7	0.014508701
237	0x3e6580a7	0.22412358
238	0x3da269c7	0.07930332
239	0xbd2135fc	-0.039358124
240	0x3dcc3504	0.099710494
241	0x3d804756	0.06263606
242	0x3d6b7b99	0.05749092
243	0xbd94ff79	-0.0727529
244	0xbdad16e8	-0.08451635
245	0xbb459f5c	-0.00301548
246	0x3e2ffa6c	0.17185372
247	0x3c3f3fdc	0.01167294
248	0x3dfdc895	0.123917736
249	0x3e736ce8	0.23772013
250	0xbcba9545	-0.022776255
251	0x3d5334b7	0.051563945
252	0x3d939ba4	0.072074205
253	0xbdb42520	-0.087961435
254	0xbdb2b7cc	-0.08726463
255	0x3dc89efe	0.0979595

layers.0.ufh.k_weight f4 [32, 32]
0	0xbce835e0	-0.028346002
1	0xbb12ae63	-0.0022381775
2	0xbd1b8d59	-0.037976597
3	0xbe2dab4e	-0.16959879
4	0x3d4ec8ef	0.050484594
5	0x3d121c22	0.03567136
6	0xbcbf507a	-0.023353804
7	0xbe076d39	-0.13225259
8	0xbe53c845	-0.20681866
9	0xbd678d85	-0.056531448
10	0x3d5d2aac	0.053995773
11	0x3d28c7f0	0.0412063
12	0x3c876bf0	0.01653096
13	0xbe5e19a6	-0.21689472
14	0x3d966ef6	0.07345383
15	0x3e00d49c	0.12581104
16	0x3cfba6ae	0.030719128
17	0x3e2907ba	0.16506854
18	0xbdbc5966	-0.09196739
19	0xbdd0d1f1	-0.10196293
20	0xbdf30884	-0.118668586
21	0x3e048478	0.12941158
22	0x3e2e10c0	0.16998577
23	0x3e076593	0.13222341
24	0xbda2cc42	-0.07949115
25	0xbe332d7d	-0.17497821
26	0xbe5686c7	-0.20949851
27	0x3ceca8b5	0.02888904
28	0x3d640359	0.055667255
29	0xbd0afd5b	-0.033933025
30	0x3d8e3d9b	0.06945344
31	0x3dffd4ab	0.12491735
32	0x3ddb0128	0.1069358
33	0x3e2fd119	0.17169608
34	0x3bc59fb6	0.006031002
35	0x3d35a7c9	0.044349466
36	0xbe70abeb	-0.23503082
37	0xbcc00a69	-0.023442464
38	0xbe0cd56b	-0.13753287
39	0x3ac59bf7	0.0015076388
40	0xbe4c67b6	-0.19961438
41	0xbd154db8	-0.03645107
42	0xbd97d3ae	-0.074134216
43	0xbe1dee62	-0.15422967
44	0xbcb5ee2a	-0.022208292
45	0x3d76642c	0.060154125
46	0x3d6bcbb8	0.05756733
47	0xbc165369	-0.00917516
48	0xbdd068e3	-0.101762556
49	0xbe59f223	-0.21283774
50	0x3d62e534	0.055394366
51	0xbe5f7cd8	-0.21824968
52	0x3b033c1d	0.0020024844
53	0xbcd95475	-0.02652953
54	0xbd286160	-0.04110849
55	0x3d0d619e	0.034516923
56	0xbe24c8a5	-0.16092165
57	0xbbb37506	-0.0054765968
58	0x3df3be1f	0.11901497
59	0xbdee3547	-0.116312556
60	0xbcd70221	-0.026246132
61	0xbdfe044c	-0.12403163
62	0xbda95fc2	-0.082702175
63	0xbe0939f0	-0.13401008
64	0xbd8e63c6	-0.06952624
65	0xbe690093	-0.22754125
66	0xbd833214	-0.06406036
67	0x3d47b90a	0.04876045
68	0xbd7f7786	-0.062369846
69	0xbdd00fdb	-0.10159274
70	0x3e062b5d	0.1310248
71	0x3d55704a	0.05210904
72	0x3d6f1cc5	0.058377046
73	0x3d1f4786	0.03888657
74	0x3de4755c	0.11155197
75	0x3d665947	0.056237485
76	0xbd203247	-0.03911045
77	0xbe36f3dc	-0.17866462
78	0xbe1f982e	-0.15585396
79	0x3d8447d3	0.06459012
80	0x3abe0019	0.0014495879
81	0xbd490133	-0.04907341
82	0xbd8b7683	-0.06809714
83	0xbdf9d24e	-0.121983156
84	0x3d335b5b	0.043788295
85	0xbdbe73f8	-0.09299463
86	0xbd0c7523	-0.034291398
87	0xbbf3d7bf	-0.0074414904
88	0x3ddbfe51	0.107418664
89	0xbde723bd	-0.112861134
90	0x3d79579d	0.06087457
91	0x3d8a6558	0.06757611
92	0xbda8ab53	-0.082358025
93	0x3cba89ad	0.022770727
94	0x3c7ddd24	0.015494619
95	0xbe438899	-0.19095077
96	0xbd836f02	-0.064176574
97	0xbdd3d2ed	-0.10342965
98	0xbe0492db	-0.12946646
99	0x3da5fd99	0.081050105
100	0x3e94e054	0.290774
101	0xbc585331	-0.013203428
102	0x3e7b825b	0.24561445
103	0xbcef7f1d	-0.029235417
104	0x3e3a5ea9	0.18200172
105	0xbd4a5ca7	-0.049404766
106	0x3d2a4fec	0.041580126
107	0xbd3da697	-0.04630145
108	0xbd0fa447	-0.035068776
109	0x3e16b483	0.14717297
110	0xbcb6325b	-0.022240808
111	0xbdab0e61	-0.08352352
112	0x3dbff86d	0.09373555
113	0x3e2f03af	0.17091249
114	0x3c5583d7	0.013031921
115	0x3d9a7813	0.075424336
116	0xbdd9753e	-0.10618065
117	0x3db9ced8	0.090726554
118	0xbd3671f1	-0.044542257
119	0x3d565cb9	0.05233452
120	0x3d61cf6e	0.05512946
121	0x3ec2033a	0.37893087
122	0x3b86ddf8	0.004115816
123	0x3b141422	0.0022595008
124	0x3d2dace6	0.042401217
125	0x3d922893	0.07136645
126	0x3d17c20a	0.037050284
127	0x3e14666a	0.14492193
128	0x3bd54358	0.006508272
129	0xbdaf9721	-0.085737474
130	0xbd656aa3	-0.0560099
131	0x3d338d8d	0.043836165
132	0x3e136198	0.14392698
133	0xbe037bbc	-0.1284017
134	0x3d0ddf66	0.034636877
135	0xbe02d760	-0.12777472
136	0xbe92309d	-0.28552714
137	0x3cd13c98	0.025541589
138	0x3dd77c48	0.10521752
139	0xbd6645d3	-0.056218933
140	0x3d343506	0.04399588
141	0x3d92ab30	0.07161558
142	0x3e161428	0.14656126
143	0x3d40368d	0.046927024
144	0xbd82f07f	-0.06393527
145	0xbe20ea4c	-0.15714377
146	0x3d166a38	0.03672239
147	0xbd7bbb6c	-0.061458036
148	0x3de146af	0.1099981
149	0x3d12e359	0.035861347
150	0x3e36c794	0.1784957
151	0x3da7d457	0.081947975
152	0xbe255332	-0.16145018
153	0x3d846b30	0.06465757
154	0x3e2b079e	0.16702124
155	0xbd3263b7	-0.043552127
156	0x3df3b04f	0.118988626
157	0xbbaab1a7	-0.005209166
158	0x3c718952	0.014742212
159	0xbcd17f56	-0.025573414
160	0x3e819863	0.25311574
161	0xbe14668c	-0.14492244
162	0xbcf6755d	-0.03008526
163	0xbce75e74	-0.028243281
164	0x3e57391f	0.21017884
165	0xbda5d747	-0.080977015
166	0x3c16de51	0.009208278
167	0x3d0bd875	0.034141976
168	0xbd90bcd7	-0.07067268
169	0x3de1f862	0.110337034
170	0xbd64660e	-0.05576139
171	0x3cfb7f4d	0.03070035
172	0x3e07b436	0.13252339
173	0x3e5f0908	0.21780789
174	0xbd06638d	-0.032809783
175	0xbdd45f30	-0.10369718
176	0x3c64fd03	0.013976338
177	0x3e03eb0e	0.12882635
178	0x3ad02c70	0.0015882384
179	0x3e3a19cd	0.18173905
180	0xbc89bdb7	-0.016814096
181	0xbd14879e	-0.036262147
182	0xbb87b30f	-0.0041412185
183	0x3d689248	0.05678013
184	0x3dabd9a4	0.08391121
185	0x3e37118e	0.1787779
186	0xbbe6b649	-0.007040773
187	0x3d501168	0.05079785
188	0xbd7931d7	-0.060838547
189	0xbd0de6e9	-0.03464404
190	0xbe4886ea	-0.19582716
191	0x3e03160b	0.12801377
192	0xbc87be1b	-0.016570142
193	0x3ddef2e5	0.10886172
194	0xbe2e5771	-0.17025544
195	0xbe3ede1e	-0.18639418
196	0xbe38a93a	-0.18033305
197	0xbda194ea	-0.07889731
198	0xbeb5d1b0	-0.3551154
199	0xbe00a3cd	-0.12562485
200	0x3e48c734	0.1960724
201	0xbd0ac37a	-0.033877827
202	0xbe6e7cf5	-0.23289855
203	0xbdddbfbb	-0.10827585
204	0xbe2fb406	-0.17158517
205	0xbe882286	-0.2658884
206	0xbc7c67ca	-0.015405605
207	0xbd6c8838	-0.057747096
208	0x3b0401d0	0.0020142682
209	0xbe01e6c4	-0.12685686
210	0xbd07c9f0	-0.033151567
211	0xbdc010cf	-0.09378206
212	0x3e041085	0.12896927
213	0x3b2560db	0.0025234732
214	0xbd4cc414	-0.049991682
215	0xbd641890	-0.055687487
216	0xbd7becf6	-0.06150528
217	0xbeda12a1	-0.42592338
218	0xbe678216	-0.22608218
219	0x3c541da3	0.012946519
220	0xbcdeafe2	-0.027183477
221	0x3d880f6e	0.06643568
222	0xbcfe6922	-0.03105599
223	0xbe900abf	-0.281332
224	0x3dd3ca0b	0.10341271
225	0x3cfdba28	0.030972555
226	0x3cfd657f	0.030932186
227	0x3dab2d94	0.08358303
228	0x3c2f5829	0.010702171
229	0x3e0d94cb	0.13826291
230	0xbd8b528f	-0.06802856
231	0xbd6e6e48	-0.05821064
232	0x3db9fe9a	0.090817645
233	0x3b94bc5a	0.004539055
234	0xbe04cbd5	-0.12968381
235	0x3d69a680	0.057043552
236	0x3d96401c	0.07336447
237	0xbb23b7ac	-0.0024981303
238	0x3e26e009	0.162964
239	0x3cb5d095	0.022194186
240	0xbdb9e88d	-0.09077559
241	0x3c9088eb	0.017643413
242	0x3dbf94ff	0.093545906
243	0xbdfbbe7b	-0.12292191
244	0x3b9c7c44	0.004775556
245	0x3da8b898	0.082383335
246	0x3e4f49ec	0.20243043
247	0x3cef7cab	0.029234251
248	0x3be708cf	0.0070506106
249	0xbe2a1a7a	-0.16611663
250	0x3d86ca4a	0.06581552
251	0xbdcd117d	-0.10013101
252	0x3d627301	0.055285458
253	0x3e080427	0.13282834
254	0xbd01eba0	-0.03171885
255	0xbcaaf598	-0.020869061

layers.0.wix.r_weight f4 [1, 32]
0	0xbf4261d3	-0.7593052
1	0xbea09dbb	-0.3137034
2	0xbea468ec	-0.321113
3	0xbf3c3c46	-0.7352947
4	0xbe6d5573	-0.23177128
5	0xbf2e6a11	-0.68130594
6	0xbec9778d	-0.39349023
7	0xbf4207a8	-0.7579293
8	0x3e2664c5	0.16249378
9	0x3d60e996	0.054910265
10	0x3d5afe0c	0.053464934
11	0xbddb2d28	-0.10701972
12	0xbdf0016d	-0.11719022
13	0xbeb5a5b3	-0.3547798
14	0xbf2f11be	-0.6838645
15	0x3dc2e3cb	0.09516104
16	0x3cc6d74b	0.024272582
17	0xbefd9340	-0.49526405
18	0xbf36cdc1	-0.71407706
19	0x3dc0d378	0.094153345
20	0xbea9bae3	-0.33150396
21	0x3dd6ddf2	0.104915515
22	0xbf3fa9ff	-0.7486877
23	0xbf449537	-0.76790184
24	0x3ed3fea5	0.41405216
25	0xbebc6e0f	-0.36802718
26	0xbea7d73a	-0.32781392
27	0xbf51324c	-0.8171737
28	0xbf113527	-0.5672173
29	0xbf1462c1	-0.57963187
30	0xbf2e5622	-0.6810018
31	0xbee411f1	-0.44544938

layers.0.wix.i_weight f4 [1, 32]
0	0xbdda4c22	-0.106590524
1	0x3ddf5024	0.109039575
2	0xbd09703a	-0.033554293
3	0x3dc10e85	0.094265975
4	0xbdb730aa	-0.08944829
5	0x3dc99966	0.098437116
6	0xbe3209e4	-0.17386585
7	0x3e90c7e2	0.28277498
8	0x3e94fbd6	0.29098386
9	0x3da9720a	0.08273704
10	0x3e0d3bf1	0.13792397
11	0x3dbcd023	0.092193864
12	0x3ed0b430	0.40762472
13	0x3d574c0d	0.052562762
14	0x3e251986	0.16123018
15	0xbd931122	-0.07181002
16	0x3cb8f170	0.022576064
17	0xbdee1e73	-0.116269015
18	0x3cff94e5	0.031198928
19	0xbdf60e34	-0.12014428
20	0x3e824f59	0.25451162
21	0x3e9b6107	0.30347463
22	0xbdedc68d	-0.11610136
23	0xbe94fc32	-0.2909866
24	0x3e5956df	0.21224545
25	0x3e0ba3c3	0.13636689
26	0x3e939a04	0.28828442
27	0xbf0998f1	-0.53748995
28	0x3b975925	0.004618781
29	0xbe0423c8	-0.12904274
30	0xbe86b7d0	-0.26312113
31	0xbe5026c8	-0.20327294

layers.0.wix.j_weight f4 [1, 32]
0	0x3d9a8d41	0.07546473
1	0x3d7a30fd	0.061081875
2	0xbd9489c7	-0.072528414
3	0x3e127e17	0.14305912
4	0xbe5f5ae8	-0.21812022
5	0xbe5d2dbe	-0.2159948
6	0xbdab2c98	-0.08358115
7	0x3d674a7e	0.056467526
8	0xbdcc13db	-0.09964725
9	0x3c184b07	0.009295232
10	0xbe527e6c	-0.20556039
11	0xbd18fc74	-0.037350133
12	0x3e463138	0.19354713
13	0xbb78af52	-0.0037946296
14	0xbe0388ea	-0.12845197
15	0x3d3ab488	0.045582324
16	0x3c4ed0e7	0.012623048
17	0xbd63d650	-0.055624306
18	0x3e125cf9	0.14293279
19	0xbd37356a	-0.044728674
20	0xbd670b67	-0.05640736
21	0x3d401d79	0.046903107
22	0xbdd9a9cf	-0.106280915
23	0xbe5e5bf6	-0.21714768
24	0x3e7f7f15	0.24950822
25	0xbe88e434	-0.26736605
26	0xbdd5a3bb	-0.1043162
27	0xbed38706	-0.41313952
28	0xbd902b2f	-0.070394866
29	0xbe6b8d5d	-0.23003145
30	0xbe0564bb	-0.13026707
31	0x3c861450	0.016367108

layers.0.wix.k_weight f4 [1, 32]
0	0xbe9445f4	-0.2895962
1	0xbe5122c3	-0.20423417
2	0xbd479cd8	-0.048733562
3	0x3b37c5be	0.0028041448
4	0xbd44cd3b	-0.048047286
5	0xbcf34431	-0.029695602
6	0x3d0b0815	0.033943255
7	0x3e80bea1	0.25145438
8	0xbe41b15b	-0.18915312
9	0x3dc5d4e6	0.09659748
10	0x3dff9051	0.12478698
11	0x3c8f3bc7	0.017484559
12	0xbe1584b6	-0.14601406
13	0xbd571ba8	-0.05251661
14	0xbdb29bcf	-0.087211244
15	0x3dcc899c	0.099871844
16	0x3d426632	0.047460742
17	0xbe44e6a2	-0.19228604
18	0xbbe33b48	-0.006934557
19	0x3d0f65c0	0.035009146
20	0xbda5b2bc	-0.080907315
21	0xbd0220c0	-0.031769514
22	0xbe274a43	-0.16336922
23	0xbe38addc	-0.18035072
24	0xbe9ce8bd	-0.30646315
25	0xbeb75346	-0.3580572
26	0x3e8e0b7c	0.27743137
27	0x3d614fea	0.055007853
28	0x3e5c5f75	0.21520789
29	0x3c4daa55	0.012552817
30	0x3cbcd162	0.02304906
31	0xbd83bd3b	-0.06432577

layers.0.wix.bias f4 [128]
0	0xbdebb8d3	-0.11509862
1	0x3e3f1b78	0.18662822
2	0xbf3a0ce5	-0.72675925
3	0xbf784e45	-0.9699443
4	0x3d5ff66d	0.05467837
5	0xbf902467	-1.1261109
6	0xbf03d703	-0.51499957
7	0xbf893d6b	-1.0721868
8	0x3ed4a9e5	0.4153587
9	0x3eb5821b	0.35450825
10	0xbf1c8412	-0.61139023
11	0x3e49f96f	0.19724058
12	0xbf38079a	-0.718866
13	0x3e3720f3	0.17883663
14	0xbf6f4031	-0.93457323
15	0x3df3724d	0.118870355
16	0xbf2c196d	-0.67226297
17	0xbf6514da	-0.8948494
18	0xbf8818ad	-1.063253
19	0x3eb9e4af	0.36307284
20	0xbeb53d7c	-0.3539847
21	0xbe0fb906	-0.14035425
22	0xbf8cbf0d	-1.0995804
23	0xbfc3d2ac	-1.5298667
24	0xbd569f5f	-0.052398082
25	0xbe7c23f8	-0.24623096
26	0xbf87b987	-1.0603493
27	0xbd9e05ed	-0.07715974
28	0xbf34dffb	-0.7065427
29	0xbf77c29c	-0.96781325
30	0xbf53628a	-0.82572234
31	0xbe0d5f0f	-0.13805793
32	0xbefc5388	-0.4928248
33	0x3e2f4a0e	0.17118093
34	0xbf3ea755	-0.7447408
35	0xbf854dc8	-1.0414362
36	0x3da59be9	0.08086378
37	0xbf9cf1ec	-1.2261329
38	0xbf2182b1	-0.63090044
39	0xbf6dec97	-0.9293913
40	0x3ec26cbc	0.37973583
41	0x3e7a5744	0.24447352
42	0xbf1d19e5	-0.61367637
43	0x3dc2e01a	0.095154
44	0xbf209f9e	-0.62743556
45	0x3e36685a	0.17813244
46	0xbf5b25e4	-0.8560469
47	0x3e470f2c	0.19439381
48	0xbf4e3f98	-0.80565786
49	0xbf523fee	-0.821288
50	0xbf9ccb36	-1.2249515
51	0x3ea0c88e	0.3140301
52	0xbf91611d	-1.1357762
53	0xbe894aa1	-0.2681475
54	0xbf671d90	-0.90279484
55	0xbfcae200	-1.585022
56	0xbe69fc8f	-0.2285025
57	0xbe88087f	-0.26568982
58	0xbf614fc1	-0.8801232
59	0xbf1a4c7b	-0.6027295
60	0xbf7f1339	-0.99638706
61	0xbf40fc7e	-0.7538527
62	0xbf158909	-0.58412224
63	0xbe3876b0	-0.18014026
64	0xbeb1a0d1	-0.34693006
65	0x3e8ce09a	0.27515107
66	0xbf4e1a11	-0.80508524
67	0xbf5fd4cc	-0.8743408
68	0x3d8e5098	0.06948966
69	0xbf8b72ca	-1.0894406
70	0xbf55dcf2	-0.8354026
71	0xbf94b8ce	-1.1618898
72	0x3ef1658e	0.47147793
73	0x3e8b846e	0.27249473
74	0xbf80aad5	-1.0052134
75	0x3d6392e4	0.055560008
76	0xbf2c91a9	-0.6740976
77	0x3e846ca7	0.25864145
78	0xbf663960	-0.899313
79	0x3e01c6f3	0.1267355
80	0xbf26a5e0	-0.65096855
81	0xbf4fd61c	-0.8118608
82	0xbf847a0b	-1.0349745
83	0x3e9fbf4e	0.3120064
84	0xbf06f0f6	-0.5271143
85	0xbdb34823	-0.08753993
86	0xbf8a89f3	-1.0823349
87	0xbfc53fe7	-1.5410126
88	0xbe514dca	-0.2043983
89	0xbe029a16	-0.12754092
90	0xbf70840c	-0.9395149
91	0xbe67d790	-0.22640824
92	0xbf3bc49d	-0.73346883
93	0xbf564750	-0.83702564
94	0xbf46b45a	-0.77618945
95	0xbdf421fc	-0.119205445
96	0xbeab90c9	-0.335089
97	0x3df909ee	0.12160097
98	0xbf420fb8	-0.75805235
99	0xbf7168e5	-0.9430068
100	0x3cf4841a	0.029848147
101	0xbf8c856a	-1.0978215
102	0xbf06eaf2	-0.5270225
103	0xbf97f686	-1.1872108
104	0x3ec60cae	0.3868155
105	0x3e896454	0.26834357
106	0xbf0a9743	-0.5413706
107	0x3e3e53f7	0.18586718
108	0xbf02edcd	-0.51144105
109	0x3e7877f7	0.24264513
110	0xbf69a747	-0.9127087
111	0x3df9c9e6	0.12196712
112	0xbf254868	-0.6456361
113	0xbf5cc35b	-0.8623559
114	0xbf8b04cd	-1.086084
115	0x3ead0770	0.33794737
116	0xbf31ea55	-0.6949819
117	0xbed9c478	-0.42532706
118	0xbf59171d	-0.84800893
119	0xbfce5bdc	-1.6121783
120	0xbe1e1418	-0.15437353
121	0xbe534827	-0.20632993
122	0xbf6fa3e3	-0.93609446
123	0xbe44ddb9	-0.19225205
124	0xbf33dcc3	-0.7025873
125	0xbf47c520	-0.78035164
126	0xbf12cddc	-0.57345366
127	0xbe0d966a	-0.1382691

layers.0.uih.r_weight f4 [32, 32]
0	0xbd1fa7a8	-0.03897825
1	0xbec0934f	-0.37612388
2	0xbd4fcb85	-0.0507312
3	0x3e9f1bdf	0.3107595
4	0xbf2dcf50	-0.6789446
5	0xbe5a191c	-0.21298641
6	0x3ea9ce68	0.33165288
7	0x3deba23b	0.115055524
8	0x3dc7dae6	0.097585484
9	0xbdbcde20	-0.092220545
10	0x3e53c88d	0.20681973
11	0x3e9a23a2	0.3010531
12	0xbd88df3f	-0.06683206
13	0xbe8402b1	-0.25783303
14	0x3a492f17	0.00076745584
15	0x3e42e316	0.19031939
16	0x3d6159ba	0.05501721
17	0x3d362ed6	0.04447826
18	0x3c116f51	0.008876638
19	0x3dedbfd9	0.11608858
20	0xbe0b684d	-0.13614006
21	0x3e03dee1	0.1287799
22	0xbe436df8	-0.19084918
23	0xbe16b369	-0.14716877
24	0x3e3097b1	0.17245366
25	0x3d27c56a	0.040959753
26	0x3db0eedd	0.086393096
27	0xbdd19903	-0.10234263
28	0x3c7855de	0.015157191
29	0x3e23afac	0.15984982
30	0xbcad2ce4	-0.02113957
31	0x3d103994	0.03521116
32	0x3e9c49fe	0.30525202
33	0x3e3ea40b	0.18617265
34	0xbe52b22b	-0.20575778
35	0xbe90b23b	-0.2826098
36	0x3eeb55c0	0.4596386
37	0xbe4b67c1	-0.19863798
38	0xbe036637	-0.1283196
39	0x3e2980ab	0.16552989
40	0x3d615d69	0.055020723
41	0x3d87aef9	0.0662517
42	0xbec89563	-0.39176473
43	0xbca44685	-0.020053158
44	0xbe595bc5	-0.21226414
45	0x3f2f67c1	0.6851769
46	0x3cb6cb32	0.022313688
47	0xbe2e8283	-0.17041974
48	0x3c175cd2	0.009238439
49	0xb9d601fc	-0.0004081874
50	0x3d9cad93	0.07650294
51	0xbd157ac0	-0.036494017
52	0xbe75b16a	-0.2399346
53	0x3d838123	0.06421115
54	0x3d8eb8ca	0.069688395
55	0x3e62ada2	0.22136548
56	0xbebde4bb	-0.3708857
57	0x3eb3a96d	0.350902
58	0xbe62f505	-0.2216378
59	0x3f157ae9	0.5839067
60	0xbbdabb45	-0.0066751563
61	0x3d59c6bb	0.05316804
62	0xbe345a4d	-0.17612572
63	0x3e2a6a6a	0.16642156
64	0x3e8a307b	0.26990113
65	0x3d33cef1	0.043898527
66	0x3e6aa065	0.22912748
67	0x3cc96387	0.024583591
68	0x3e122783	0.14272885
69	0xbd113528	-0.035451084
70	0xbe107009	-0.14105238
71	0x3dfef1da	0.12448473
72	0xbdd6b4bd	-0.10483692
73	0xbd8067d5	-0.062698044
74	0x3e8693c4	0.2628461
75	0x3df528ad	0.11970649
76	0x3e5c7773	0.21529941
77	0x3e56a58d	0.2096159
78	0xbe3f0d56	-0.18657431
79	0x3e328612	0.17433956
80	0x3ceea353	0.029130613
81	0x3dbe3e55	0.09289233
82	0xbdbde99d	-0.09273074
83	0xbd1cad48	-0.03825119
84	0x3bbf55d6	0.00583909
85	0x3d519617	0.051168527
86	0x3dd6b177	0.104830675
87	0x3db032b8	0.08603424
88	0x3d9ec9e9	0.07753355
89	0x3e83e655	0.25761667
90	0xbd95e169	-0.07318384
91	0xbd9824cf	-0.07428896
92	0x3d912aff	0.07088279
93	0xbe77e6fc	-0.24209207
94	0xbc0d91c4	-0.00864071
95	0x3dd4baee	0.103872165
96	0xbce279cb	-0.027645966
97	0x3bb7e70f	0.005612261
98	0xbdd615af	-0.104533546
99	0x3dff154f	0.12455236
100	0xbe882562	-0.2659102
101	0xbcc5cc9d	-0.024145419
102	0xbdb4b17a	-0.088229135
103	0x3c24fad3	0.010069567
104	0xbecbfd03	-0.3984147
105	0x3c5ca5c3	0.013467255
106	0xbd6147e7	-0.055000212
107	0xbf16d11e	-0.5891284
108	0xbe2eebda	-0.17082158
109	0xbe665629	-0.22493805
110	0xbd97b6e0	-0.074079275
111	0x3d997437	0.07492869
112	0xbe68c30f	-0.22730659
113	0x3d588755	0.052863438
114	0xbd727a2c	-0.059198543
115	0xbd95f885	-0.07322792
116	0xbe8d56e5	-0.27605358
117	0xbe8dff1c	-0.27733696
118	0xbe9a0096	-0.30078572
119	0x3e1b0cbd	0.15141578
120	0xbd256227	-0.04037681
121	0xbe8fff24	-0.28124344
122	0x3c846cea	0.016165216
123	0x3e3458a9	0.17611946
124	0xbc1e2514	-0.009652395
125	0x3e49c6ec	0.19704789
126	0xbe31494e	-0.1731312
127	0xbd495315	-0.0491515
128	0x3dd6fe18	0.10497683
129	0x3e2b6c38	0.16740501
130	0x3e3e8b13	0.1860774
131	0xbe988985	-0.2979242
132	0x3e84148a	0.2579692
133	0xbd8b1c7b	-0.067925416
134	0x3dca65c5	0.09882692
135	0x3bd366be	0.006451457
136	0xbdee1aaf	-0.11626183
137	0xbd8d9964	-0.069140226
138	0xbe8f4441	-0.2798176
139	0x3e05d36f	0.13068937
140	0x3e72ac60	0.23698568
141	0x3f24d86f	0.6439275
142	0xbe2d340f	-0.1691439
143	0xbe1bc987	-0.15213595
144	0x3db25aa7	0.08708697
145	0x3e393794	0.18087608
146	0x3e32f91c	0.1747784
147	0x3e60bbae	0.21946594
148	0xbd6d6de0	-0.057966113
149	0xbd719fcc	-0.058990285
150	0xbd925f1f	-0.07147049
151	0x3cff79ea	0.031186063
152	0x3e123287	0.14277087
153	0x3eee081a	0.46490556
154	0x3d3af1bc	0.045640692
155	0x3deb49d0	0.11488688
156	0xbd3fdd0a	-0.04684166
157	0x3e3554dd	0.17708154
158	0x3e7f24b2	0.24916342
159	0x3e638c50	0.22221494
160	0x3d1b8535	0.037968833
161	0xbdc0594e	-0.093920335
162	0xbd8ff348	-0.07028824
163	0x3e25cf5f	0.16192387
164	0x3cc53ed6	0.024077814
165	0xbc393cac	-0.011305969
166	0x3db5696e	0.08858
167	0xbe89e7b9	-0.26934603
168	0xbc9acade	-0.018895563
169	0xbdc1e51b	-0.094675265
170	0xbf03985e	-0.5140437
171	0xbdcdb0f4	-0.10043517
172	0x3e3b3300	0.18281174
173	0x3eabcd4e	0.33555073
174	0xbe06e7ee	-0.13174412
175	0x3d87cb36	0.06630556
176	0x3d5b93b5	0.05360766
177	0x3ea11b29	0.31466034
178	0x3c37b039	0.011211448
179	0x3e08deaa	0.1336619
180	0xbe7c543a	-0.24641505
181	0xbd5cb7d3	-0.053886246
182	0xbde2d555	-0.11075846
183	0xbb532d08	-0.0032222886
184	0x3d1c50b4	0.038162902
185	0x3e4a7b50	0.19773602
186	0xbcc9445f	-0.024568735
187	0x3e5bc202	0.21460727
188	0x3dd25cf4	0.10271636
189	0xbe31b2f2	-0.17353418
190	0x3e1cfa91	0.15329958
191	0xbe009ac8	-0.12559044
192	0xbe89f699	-0.26945952
193	0xbe712fed	-0.23553438
194	0x3e498f8d	0.19683667
195	0xbd20780e	-0.039176993
196	0x3deb506e	0.1148995
197	0x3d10f6b3	0.03539152
198	0x3da94367	0.08264809
199	0xbda282e3	-0.07935121
200	0x3bc8d4ff	0.0061289067
201	0x3c1a8510	0.009431139
202	0x3e65ed23	0.22453742
203	0x3e477a01	0.19480135
204	0xbbba4553	-0.0056845336
205	0xbece38f2	-0.4027782
206	0xbd873c42	-0.0660329
207	0x3e6e02ac	0.23243207
208	0x3e8b2993	0.27180156
209	0x3c03072f	0.007997318
210	0x3e1ed3e5	0.15510519
211	0xbd21c30d	-0.039492656
212	0x3cd55185	0.026039848
213	0xbb99addd	-0.0046899156
214	0x3dd8970d	0.10575686
215	0x3dc2939f	0.09500813
216	0xbd3b218c	-0.04568629
217	0x3d275313	0.04085071
218	0x3e079b65	0.13242872
219	0xbe812509	-0.25223568
220	0xbd59c813	-0.05316932
221	0xbe56ed86	-0.20989046
222	0x3e390103	0.18066792
223	0xbd9d9d57	-0.07696026
224	0x3def3542	0.1168008
225	0xbcd9023b	-0.026490321
226	0xbdb507ba	-0.08839364
227	0x3e277a7d	0.1635532
228	0xbd8b6ac5	-0.06807474
229	0xbbacdfad	-0.0052756877
230	0xbe0f7d83	-0.14012723
231	0xbe18037d	-0.1484508
232	0x3d227068	0.03965798
233	0x3e67688d	0.22598477
234	0x3e03a623	0.12856345
235	0x3ebc1839	0.3673723
236	0x3e9260af	0.2858939
237	0x3eaf1af4	0.3420025
238	0x3d40c2ca	0.047060765
239	0x3de49a88	0.11162287
240	0x3e1d5909	0.15365995
241	0x3e2375d3	0.15962915
242	0x3e7e50cf	0.24835514
243	0x3e66819c	0.2251038
244	0xbd334187	-0.043763664
245	0xbde61b67	-0.11235695
246	0x3e55b14b	0.20868413
247	0xbdf1e6e8	-0.1181162
248	0x3de7151a	0.11283322
249	0x3e613ce9	0.21995892
250	0xbd838c8b	-0.06423291
251	0x3d01c53a	0.03168223
252	0x3dabb22f	0.08383595
253	0x3e2ada89	0.16684927
254	0x3d924917	0.07142847
255	0x3e787b7d	0.24265857
