models/QLSTM_qal_batch10_epochs3.pth (torch, 237629 bytes, 76 tensors)

r_weight f4 [1, 32]
0	0xbdf654e1	-0.12027908
1	0xbd80984d	-0.06279049
2	0xbdf51806	-0.11967473
3	0xbe78be73	-0.242914
4	0xbe827c7c	-0.254856
5	0xbe16f44b	-0.14741628
6	0xbe41f821	-0.1894231
7	0xbe939308	-0.28823113
8	0x3e8a1de7	0.2697594
9	0xbe707bcb	-0.23484723
10	0xbeb90185	-0.36133972
11	0xbe5ab831	-0.21359326
12	0xbe70adc2	-0.23503783
13	0x3cddf692	0.027095113
14	0xbdecb5da	-0.11558123
15	0xbe131058	-0.14361703
16	0x3c18e6ea	0.009332398
17	0xbca5056b	-0.020144185
18	0xbed6c41f	-0.41946504
19	0xbe63ce07	-0.22246562
20	0xbeae8a75	-0.3409001
21	0xbf1a7ae2	-0.60343754
22	0xbdaf59ec	-0.08562073
23	0xbd89d8c9	-0.067308016
24	0xbd18a69f	-0.037268277
25	0xbe38dbab	-0.18052547
26	0xbdff668d	-0.12470732
27	0x3db9eab1	0.09077967
28	0xbf1b033a	-0.605518
29	0xbf4fa54e	-0.8111161
30	0xbefba4a9	-0.49149063
31	0xbeac9dfc	-0.33714283

i_weight f4 [1, 32]
0	0xbd9a56cf	-0.07536089
1	0xb9da6c49	-0.0004166088
2	0x3d9f4232	0.07776298
3	0x3e1ff022	0.15618947
4	0x3e12da58	0.14341104
5	0xbdf09c6f	-0.11748587
6	0x3bf45be8	0.007457245
7	0x3ccc00e9	0.024902778
8	0x3e4f3f95	0.20239098
9	0x3b54601b	0.0032405916
10	0xbd76af6f	-0.0602259
11	0xbdbdf8c8	-0.09275967
12	0xbdc6b3c7	-0.097022586
13	0xbe07a9d2	-0.13248375
14	0x3e71fb88	0.23631108
15	0x3e385bce	0.1800377
16	0xbac3fed8	-0.0014953269
17	0xbbfc2f2f	-0.0076960544
18	0xbe65dbfa	-0.22447196
19	0xbe131186	-0.14362153
20	0x3db36c8f	0.0876094
21	0x3dbcc634	0.09217492
22	0x3cbdbc9d	0.023161227
23	0x3e1a567e	0.15072057
24	0x3e000111	0.12500407
25	0x3d328b35	0.04358979
26	0x3d71c52d	0.059025932
27	0xbe71bf75	-0.23608191
28	0xbd39a680	-0.045324802
29	0xbdd20a26	-0.10255842
30	0x3d87dd2d	0.06633983
31	0xbcd15ee7	-0.025557948

j_weight f4 [1, 32]
0	0xbe806363	-0.25075826
1	0x3dbdac6d	0.09261403
2	0xbe52a46f	-0.20570539
3	0xbdaf9534	-0.0857338
4	0x3dbb265b	0.09138175
5	0xbe2871fe	-0.16449735
6	0xbc961957	-0.01832263
7	0xbdd73e36	-0.10509913
8	0x3d8e33bc	0.06943461
9	0x3c7b01dd	0.015320268
10	0xbd5f390e	-0.05449777
11	0x3d758405	0.059940357
12	0xbd345f09	-0.044035945
13	0xbdf5709f	-0.119843714
14	0x3d2007fe	0.039070122
15	0x3ccc0c0b	0.024908086
16	0xbd6e45ab	-0.05817191
17	0x3e92fb50	0.2870736
18	0x3df84fc3	0.12124588
19	0xbe03f782	-0.12887385
20	0x3ddbd186	0.10733323
21	0x3e10f812	0.14157131
22	0x3d129fbb	0.035796862
23	0x3d74798f	0.05968624
24	0xbd8dd686	-0.06925683
25	0x3e13455d	0.14381929
26	0xbda9c2a9	-0.082890816
27	0xbe91e612	-0.28495842
28	0x3e5b9cb5	0.21446498
29	0x3d548644	0.05188586
30	0x3d3441ee	0.044008188
31	0x3cc21375	0.023690918

k_weight f4 [1, 32]
0	0x3e205886	0.15658769
1	0x3dc1d1c2	0.09463836
2	0x3d451eb6	0.04812499
3	0x3db3aa1e	0.08772682
4	0xbe0382c4	-0.12842852
5	0x3cb61f9f	0.022231875
6	0x3d816a11	0.06319059
7	0xbe10e034	-0.14148027
8	0x3b85613a	0.004070428
9	0xbcc8a93c	-0.02449476
10	0xbcdefdbe	-0.027220603
11	0xbd5e8ce5	-0.054333586
12	0x3da62b87	0.08113771
13	0x3bf70d8b	0.0075394562
14	0xbdbc2730	-0.09187162
15	0x3e1bdabe	0.15220162
16	0x3ba0d989	0.0049087447
17	0x3d9a7577	0.07541936
18	0x3db8e132	0.090273276
19	0xbdf2cda0	-0.11855626
20	0xbdc36848	-0.095413744
21	0x3d5c7c1b	0.053829294
22	0x3dc03c7e	0.09386538
23	0xbdee5656	-0.11637561
24	0x3c029e95	0.007972379
25	0xbddd1865	-0.107956685
26	0x3c6e9044	0.014560763
27	0xbe636f2c	-0.22210377
28	0xbd9c0b7c	-0.07619378
29	0xbdf5bbd1	-0.11998714
30	0x3dbf090e	0.09327899
31	0x3c5f3a95	0.013624807

bias f4 [128]
0	0xbebb9a2a	-0.36641055
1	0xbdfd0576	-0.12354557
2	0xbced22ca	-0.028947253
3	0xbe165efe	-0.14684674
4	0xbeb40b4d	-0.35164872
5	0xbddb85c3	-0.107188724
6	0xbdd61373	-0.104529284
7	0xbe32dbd4	-0.1746667
8	0xbd2c5cb0	-0.04208058
9	0xbced2e9e	-0.028952893
10	0xbdb0e740	-0.086378574
11	0xbedcffd2	-0.43163925
12	0xbd61e39f	-0.055148717
13	0xbe0905b6	-0.13381085
14	0xbd038dbc	-0.03211759
15	0xbe0f73f7	-0.14009081
16	0xbe295c69	-0.16539158
17	0xbd14fa82	-0.036371715
18	0xbf22272c	-0.6334102
19	0xbe41c9e7	-0.18924676
20	0xbe58435a	-0.21119443
21	0xbd032018	-0.03201303
22	0xbf23efc8	-0.6403775
23	0xbdc39d4d	-0.09551487
24	0xbe102e90	-0.14080262
25	0xbde175f1	-0.11008824
26	0xbe74817d	-0.23877521
27	0xbe1e0da2	-0.15434888
28	0xbf1d0831	-0.61340624
29	0xbdd224ad	-0.102609016
30	0x3b43cab4	0.002987546
31	0xbdc604c9	-0.096688814
32	0xbdbd4628	-0.09241897
33	0xbe2b9837	-0.16757284
34	0xbe892cf2	-0.26792103
35	0xbde0e23b	-0.1098065
36	0xbf1b774b	-0.607289
37	0xbe3bfa09	-0.183571
38	0xbe017261	-0.12641288
39	0xbe3bf8d5	-0.1835664
40	0xbc5351f4	-0.012897957
41	0xbd4de77a	-0.05026958
42	0xbd5f6ff9	-0.054550145
43	0xbeec03bd	-0.46096602
44	0xbdb21aa4	-0.086964875
45	0xbde6f41c	-0.11277029
46	0xbd058a9f	-0.032602903
47	0xbd6b5c13	-0.057460856
48	0xbe654347	-0.22388946
49	0xbd76876f	-0.060187753
50	0xbf1f435f	-0.62212175
51	0xbe5c19cd	-0.21494217
52	0xbe3bfa3b	-0.18357174
53	0xbcbcb1ba	-0.023033965
54	0xbeea60c4	-0.4577695
55	0xbe0cfff5	-0.13769515
56	0xbe4914ff	-0.19636916
57	0xbdaa130b	-0.083044134
58	0xbd4dcafc	-0.05024241
59	0xbe208dda	-0.15679112
60	0xbef4e3f5	-0.47830167
61	0xbe60d7d6	-0.21957335
62	0xbe6432b4	-0.22284967
63	0xbe3a3947	-0.18185912
64	0xbe0ba628	-0.13637602
65	0xbe199212	-0.14997128
66	0xbe8981a4	-0.2685672
67	0xbdaa3902	-0.083116546
68	0xbf2c3f5b	-0.6728417
69	0xbe143037	-0.14471518
70	0xbe269a79	-0.16269864
71	0xbe990d6d	-0.29893056
72	0xbcc2f0fa	-0.023796547
73	0xba263cf1	-0.00063414784
74	0xbeb0bf7f	-0.345211
75	0xbf17d332	-0.59306633
76	0xbde95c89	-0.11394603
77	0xbe210007	-0.15722667
78	0x3cfee997	0.031117244
79	0xbdb68018	-0.08911151
80	0xbe4d00f4	-0.20019895
81	0xbd40d11e	-0.04707443
82	0xbf13a383	-0.57671374
83	0xbe50f061	-0.20404197
84	0xbe078b22	-0.13236669
85	0xbd74d85f	-0.05977666
86	0xbf4218b8	-0.7581897
87	0xbdc5ea41	-0.09663821
88	0xbe077e36	-0.1323174
89	0xbd6dbad8	-0.058039516
90	0xbe16b37f	-0.1471691
91	0xbe3b9909	-0.18320097
92	0xbee473a4	-0.44619477
93	0xbd8f1541	-0.06986476
94	0xbd2f5f7b	-0.042815667
95	0xbdd85849	-0.10563714
96	0xbdf7538b	-0.120764814
97	0xbd978012	-0.07397474
98	0xbe39608b	-0.18103234
99	0xbe2a378c	-0.16622752
100	0xbed813a6	-0.4220249
101	0xbe0a05e0	-0.13478804
102	0xbe784a3f	-0.24247073
103	0xbe632cd6	-0.22185072
104	0xbcb64ec1	-0.02225435
105	0xbce3a0a1	-0.027786555
106	0xbe1496b6	-0.14510617
107	0xbf019462	-0.5061704
108	0xbd46f333	-0.048571777
109	0xbdac364e	-0.08408795
110	0xbce49ca3	-0.027906721
111	0xbde8ac68	-0.11361009
112	0xbe78c053	-0.24292116
113	0x3ce7653f	0.02824652
114	0xbf4e1e1c	-0.80514693
115	0xbe948a74	-0.2901188
116	0xbe639644	-0.2222529
117	0xbd1a5715	-0.037680704
118	0xbef717fd	-0.4826049
119	0xbdf5d5b8	-0.12003654
120	0xbd865c99	-0.0656063
121	0xbcaf7c56	-0.021421593
122	0xbd31be0e	-0.04339414
123	0xbd999da2	-0.07500769
124	0xbf12ddae	-0.57369506
125	0xbe14e481	-0.14540292
126	0xbd5ed4dd	-0.05440222
127	0xbdd4d402	-0.10392

r_weight f4 [32, 32]
0	0xbdc25406	-0.094886824
1	0xbe09a69a	-0.1344246
2	0x3d16f812	0.036857672
3	0xbddc0ba5	-0.107444085
4	0xbc7911df	-0.015202015
5	0x3db2270d	0.086988546
6	0xbeb50975	-0.35358778
7	0xbe03c118	-0.12866628
8	0xbdd797d8	-0.10527009
9	0x3ea47e9c	0.32127845
10	0x3db21fa6	0.08697443
11	0xbe3d71b2	-0.18500403
12	0x3eb699a2	0.35664088
13	0xbc9cca8c	-0.01913955
14	0xbe8c2d17	-0.2737815
15	0x3d738650	0.059454262
16	0xbe27b98d	-0.16379376
17	0x3d41e059	0.047333095
18	0x3e2cf455	0.1689008
19	0xbbb8111d	-0.0056172744
20	0x3e57e0f6	0.2108191
21	0xbe42b6b2	-0.19015005
22	0x3d886792	0.066603795
23	0x3eaa2444	0.33230793
24	0xbd98f10c	-0.07467851
25	0x3c99124a	0.018685479
26	0xbef21c23	-0.47287092
27	0xbe8474d4	-0.25870383
28	0x3e69c227	0.2282797
29	0xbecdb6d9	-0.40178564
30	0xbe06e989	-0.13175024
31	0xbe90383d	-0.28167906
32	0x3dc0d734	0.09416047
33	0x3dc7e90e	0.097612485
34	0x3d71b2de	0.05900847
35	0xbda9d61c	-0.08292791
36	0xbe967199	-0.29383543
37	0x3dd27287	0.102757506
38	0xbd6b1863	-0.057396304
39	0xbcc433ed	-0.023950541
40	0x3ca6e5a4	0.020373173
41	0x3c0bc91b	0.008531834
42	0xbe7da50f	-0.24769996
43	0xbde8f465	-0.113747396
44	0x3c3bcf23	0.011462959
45	0x3df4096a	0.11915858
46	0xbdd61848	-0.1045385
47	0xbd4e060b	-0.05029873
48	0xbe299deb	-0.16564147
49	0xbdf6f6fe	-0.12058829
50	0xbe1dc0f8	-0.15405643
51	0xbe96e10b	-0.2946857
52	0x3e0c0379	0.136732
53	0xbe0c4fbb	-0.1370229
54	0xbcac362e	-0.021021929
55	0xbe216cab	-0.1576411
56	0x3d2f9da8	0.042874962
57	0xbeaf8a88	-0.34285378
58	0xbdb673dd	-0.08908818
59	0xbc2fb3da	-0.010724032
60	0x3e7ab7fc	0.24484247
61	0xbecb44f5	-0.39701048
62	0x3e3d6998	0.18497312
63	0xbdb863b6	-0.09003393
64	0xbc7d824f	-0.0154729625
65	0xbdb2b08f	-0.08725082
66	0xbe3341ab	-0.17505519
67	0xbdb7c68c	-0.08973417
68	0xbe37f972	-0.1796625
69	0x3de20741	0.1103654
70	0x3e71a13b	0.23596661
71	0xbd87c89f	-0.06630062
72	0x3e5d397d	0.21603961
73	0xbe6d6bda	-0.23185673
74	0xbe197c7a	-0.1498889
75	0x3cb26301	0.021775724
76	0xbd5e20f6	-0.054230653
77	0x3c80a644	0.015704282
78	0xbe17c6da	-0.1482195
79	0xbdbe45cc	-0.092906564
80	0xbe6c810e	-0.23096105
81	0xbeea9404	-0.45816052
82	0xbc83a26d	-0.016068662
83	0x3befa3ad	0.007313213
84	0xbc1897f4	-0.009313572
85	0xbed66931	-0.4187713
86	0x3e28c69b	0.16482012
87	0x3ccdeeef	0.025138346
88	0xbd2b479d	-0.041816343
89	0x3e048f75	0.1294535
90	0xbc2fa903	-0.010721448
91	0x3e08dc6d	0.13365336
92	0xbe2c5997	-0.16831051
93	0x3ef804a4	0.4844104
94	0x3d2fe6ed	0.042944837
95	0x3e3484e4	0.17628819
96	0x3e2db523	0.1696363
97	0x3cd5de1c	0.026106887
98	0x3e14c2ec	0.14527482
99	0x3e524cad	0.20537062
100	0x3d71110e	0.058854155
101	0x3b84fb65	0.004058289
102	0x3d2fe704	0.042944923
103	0xbd9a79c5	-0.07542757
104	0x3e52961c	0.20565075
105	0x3d88d750	0.066816926
106	0x3e6b886c	0.2300126
107	0x3dc44d99	0.09585113
108	0x3e2658c5	0.162448
109	0x3e47e408	0.19520581
110	0xbdd6fccf	-0.10497438
111	0x3c34c406	0.011033064
112	0x3ebdca4c	0.37068403
113	0x3e32ab84	0.1744824
114	0x3e7d44a1	0.24733211
115	0x3ea72536	0.32645577
116	0xbd38a85b	-0.04508243
117	0xbd069702	-0.032858856
118	0x3e5876eb	0.21139114
119	0xbdc8cea1	-0.09805036
120	0x3e57a50d	0.21059056
121	0x3ea89ed6	0.32933682
122	0x3e16e074	0.1473406
123	0x3d84ba06	0.06480794
124	0x3d393717	0.045218553
125	0x3e238173	0.1596735
126	0x3cc0a423	0.023515766
127	0x3d64d780	0.05586958
128	0xbe583c6f	-0.21116804
129	0x3dd178bd	0.10228107
130	0xbde25df5	-0.11053077
131	0x3ea12ec0	0.3148098
132	0x3dfb6813	0.1227571
133	0x3ecde533	0.40213928
134	0xbe38cd85	-0.1804715
135	0x3e4000eb	0.1875035
136	0xbe60ce34	-0.2195366
137	0x3cd83f7e	0.026397463
138	0xbe4e02f0	-0.20118308
139	0xbe32a12b	-0.17444293
140	0x3c8e2e3f	0.017356036
141	0x3dd38ed2	0.10329975
142	0xbcc6952f	-0.024241058
143	0x3da08a6f	0.07838904
144	0xbdfe7fec	-0.12426743
145	0x3e23801b	0.15966837
146	0x3de8e00b	0.11370858
147	0x3e5fed25	0.21867807
148	0xbe81ee71	-0.2537723
149	0x3eef5618	0.46745372
150	0x3e35dd57	0.17760216
151	0xbcaa46d9	-0.020785736
152	0xbc813c59	-0.015775846
153	0xbd42fe76	-0.047605954
154	0x3e84625d	0.25856295
155	0xbe9ad421	-0.30239967
156	0xbe3cceac	-0.18438214
157	0x3ecc1a8a	0.39863998
158	0x3ee2f01f	0.44323823
159	0x3e8f758b	0.28019366
160	0x3df8ddd7	0.121516876
161	0xbe552029	-0.2081305
162	0xbdaaf971	-0.083483584
163	0xbe6d5c99	-0.23179854
164	0x3e1f8f82	0.15582088
165	0x3d4aadfb	0.049482327
166	0xbd61c7c9	-0.05512217
167	0x3db5709a	0.08859368
168	0x3e0ed09f	0.1394677
169	0xbe404438	-0.18776023
170	0xbea7bfe3	-0.32763585
171	0xbe87ae80	-0.2650032
172	0xbd11e958	-0.035622925
173	0xbe88bd37	-0.2670686
174	0xbe070768	-0.13186419
175	0x3cf2eee3	0.029654926
176	0xbe25c619	-0.1618885
177	0x3e53c71e	0.20681426
178	0xbe8048c8	-0.25055528
179	0xbe45affb	-0.19305412
180	0xbe5f6206	-0.21814737
181	0x3ce76b2d	0.028249348
182	0xbe2756d0	-0.1634171
183	0x3dc083cb	0.094001375
184	0xbe312feb	-0.17303436
185	0xbe8a993f	-0.27070042
186	0x3d8205d7	0.0634877
187	0xbe0cd2f9	-0.13752355
188	0x3dacaadf	0.084310286
189	0xbec415b4	-0.38297808
190	0x3e4d82c4	0.20069414
191	0xbeb35cfa	-0.35031873
192	0x3e325a58	0.17417276
193	0x3e476e70	0.19475722
194	0xbe4d42c8	-0.20045006
195	0x3d43552d	0.04768865
196	0xbd8a9feb	-0.06768783
197	0x3ebb5062	0.36584765
198	0xbdb1d6a8	-0.086835206
199	0xbbe8bd52	-0.007102647
200	0xbdde06ac	-0.10841116
201	0xbdfd0eb5	-0.12356321
202	0x3e6e92c9	0.23298182
203	0x3e4b823e	0.19873902
204	0xbe97a03c	-0.29614437
205	0xbdd8152f	-0.105509154
206	0x3d383320	0.04497063
207	0x3e796e7f	0.24358557
208	0xbd1ab911	-0.03777415
209	0xbec0f4bc	-0.37686718
210	0xbe03070c	-0.12795657
211	0x3d210218	0.039308637
212	0xbe3d483e	-0.1848459
213	0x3cff5c2d	0.031171883
214	0xbd81025e	-0.0629928
215	0x3d0fcbb8	0.03510639
216	0xbcb2af68	-0.021812156
217	0xbe4f8c1a	-0.20268288
218	0x3d8696c6	0.065717265
219	0x3e3022c2	0.17200759
220	0x3d65d5f2	0.056112237
221	0x3ef072ff	0.46962735
222	0x3e607a2c	0.21921605
223	0x3e444dda	0.19170323
224	0x3eb9cdb1	0.36289743
225	0xbec334a2	-0.38126093
226	0x3e870406	0.26370257
227	0xbed8c5c9	-0.42338398
228	0xbe8229e9	-0.254226
229	0xbeff9be1	-0.49923614
230	0x3e1ecafe	0.15507123
231	0xbdf88c44	-0.121361285
232	0x3dc99b1e	0.098440394
233	0xbd7d301d	-0.061813463
234	0xbd79a70e	-0.06095033
235	0x3e20145f	0.15632771
236	0xbd8c38e5	-0.06846789
237	0x3d4ab14a	0.049485482
238	0xbe23ec17	-0.1600803
239	0x3db7f846	0.08982901
240	0x3e90da71	0.28291658
241	0x3e0fa6b4	0.14028436
242	0x3c7449e6	0.014910197
243	0xbdfc3a7c	-0.123158425
244	0xbe7c5154	-0.24640399
245	0xbf03cf72	-0.5148841
246	0xbd91ea23	-0.07124736
247	0xbe1d7279	-0.15375699
248	0x3dca7893	0.09886279
249	0xbe77a6e6	-0.2418476
250	0xbe3fd0a7	-0.18731938
251	0x3e69a1df	0.22815655
252	0x3e4f33ed	0.20234652
253	0xbf04178a	-0.5159842
254	0xbe196cf9	-0.14982976
255	0xbe8d2e67	-0.27574465

i_weight f4 [32, 32]
0	0x3edb1642	0.4279042
1	0xbddec834	-0.108780295
2	0x3c3f2929	0.011667528
3	0x3b998a31	0.004685663
4	0xbd22dc4c	-0.039760873
5	0xbe0bad9a	-0.13640442
6	0x3e196af1	0.14982201
7	0xbdbd2cea	-0.09237082
8	0x3dc22d47	0.09481292
9	0x3e98034c	0.29690015
10	0x3c632b27	0.013865269
11	0xbda33a51	-0.07970107
12	0x3db63392	0.08896555
13	0xbdc0f4bd	-0.0942168
14	0x3f071d6a	0.5277926
15	0xbe1df609	-0.15425886
16	0x3e3dce17	0.18535648
17	0x3ea1663d	0.31523314
18	0xbd7f1bcf	-0.06228238
19	0x3e0a245d	0.13490434
20	0xbd521114	-0.05128582
21	0x3d99b607	0.07505422
22	0x3c16e3db	0.009209598
23	0x3e047eee	0.12939045
24	0xbdcb70a8	-0.09933597
25	0x3d18dc54	0.037319496
26	0x3d88d314	0.06680885
27	0x3decad8e	0.115565404
28	0xbb532dbd	-0.0032223307
29	0xbd25933a	-0.04042361
30	0xbe6929b3	-0.22769813
31	0x3cf53f4c	0.029937409
32	0x3b659ef8	0.003503738
33	0xbc8a79de	-0.016903814
34	0x3e4a9cd0	0.19786382
35	0xbb8ca369	-0.004291941
36	0x3c745bf7	0.014914504
37	0xbcaed549	-0.021341937
38	0xbc58de4b	-0.0132365925
39	0x3bdf207e	0.0068092933
40	0x3e3cedc9	0.18450083
41	0xbd7aa3f0	-0.0611915
42	0x3d3355ec	0.043783113
43	0x3d936215	0.07196442
44	0xbcc90094	-0.024536408
45	0x3db26485	0.08710579
46	0x3e12bac5	0.1432906
47	0xbe5ee9b7	-0.21768843
48	0xbd3e1b6d	-0.046412874
49	0xbce398e8	-0.027782872
50	0xbcedc546	-0.029024731
51	0x3cbd9b02	0.023145203
52	0xbe0d3c51	-0.1379254
53	0xbc036da6	-0.008021748
54	0x3d9b7502	0.07590677
55	0xbd819201	-0.06326676
56	0xbd8446b4	-0.06458798
57	0x3caaa587	0.020830883
58	0x3dfdd25c	0.123936385
59	0x3e223a44	0.15842539
60	0x3e06df10	0.13171029
61	0x3db66bd6	0.08907287
62	0x3c2f4a50	0.01069887
63	0x3ca409b5	0.02002416
64	0x3ed0dcdc	0.40793502
65	0x3ee97a42	0.45601088
66	0xbd237641	-0.039907698
67	0xbdf437e1	-0.119247206
68	0x3d5e5ade	0.054285876
69	0x3e9a79ea	0.30171138
70	0xbe57c361	-0.21070625
71	0xbe19ca9d	-0.15018697
72	0x3dc10982	0.094256416
73	0xbc24ff93	-0.010070699
74	0x3e2f309f	0.17108391
75	0xbd89b794	-0.06724468
76	0xbe0b3e8b	-0.13598077
77	0xbe5e9311	-0.21735789
78	0xbd533437	-0.051563468
79	0x3ed68f7c	0.41906345
80	0x3d9f6d78	0.077845514
81	0xbecf1a6b	-0.40449843
82	0xbe7445ab	-0.23854701
83	0xbe72fb24	-0.23728615
84	0xbd85e3dc	-0.06537601
85	0xbbb072e1	-0.0053847884
86	0xbdfbff4f	-0.123045556
87	0x3e64e1fc	0.22351831
88	0xbd2c3201	-0.042039875
89	0xbe4d1d47	-0.200307
90	0xbd7d51ed	-0.06184571
91	0xbea0d979	-0.31415918
92	0x3df67795	0.12034527
93	0xbdc1c9b8	-0.09462303
94	0xbbbe76a0	-0.005812481
95	0xbd5d4ff5	-0.05403133
96	0xbd0882be	-0.03332781
97	0xbe77e5e6	-0.24208793
98	0x3db512a2	0.088414446
99	0x3d32dfd2	0.043670483
100	0xbb837654	-0.0040119085
101	0xbd80e587	-0.06293779
102	0x3d921be5	0.07134227
103	0xbd2a6503	-0.04160024
104	0xbb608b55	-0.0034262736
105	0xbc8511f1	-0.016243907
106	0x3e45c5a8	0.19313681
107	0xbd940305	-0.072271384
108	0x3db42821	0.087967165
109	0x3e042d96	0.12908015
110	0xbddcfcc0	-0.10790396
111	0xbd0c374a	-0.034232415
112	0x3e06a17a	0.13147536
113	0x3d4763e9	0.048679266
114	0x3de515a5	0.11185769
115	0xbd73afee	-0.05949395
116	0x3def589e	0.11686824
117	0xbe69ce45	-0.22832592
118	0x3d909ee9	0.0706156
119	0xbda12f5e	-0.07870363
120	0xbe024b7d	-0.12724109
121	0x3e671aff	0.22568892
122	0xbd9507cd	-0.072768785
123	0x3d63f5ec	0.05565445
124	0xbd04edfc	-0.032453522
125	0xbe3a4ff4	-0.18194562
126	0x3d9c58cd	0.07634125
127	0x3e16deae	0.14733383
128	0x3da54bf7	0.0807113
129	0xbe3e70d1	-0.18597724
130	0x3cb22a55	0.021748701
131	0xbd979e32	-0.0740322
132	0xbd08825d	-0.03332745
133	0x3d0cbc55	0.034359295
134	0x3e3e23c5	0.18568332
135	0xbe736942	-0.23770621
136	0xbd40dd75	-0.047086198
137	0x3da3f1f1	0.08005131
138	0x3deb32c9	0.11484296
139	0x3d80f43c	0.06296584
140	0x3d843f93	0.06457438
141	0xbe32c906	-0.17459497
142	0xbdf9285c	-0.12165901
143	0x3c3ee135	0.011650373
144	0x3e15b1c2	0.1461859
145	0xbda516c4	-0.08060983
146	0x3d7cac65	0.061687846
147	0xbd5b0c57	-0.053478565
148	0x3bd9f1e4	0.00665115
149	0xbe34d39e	-0.1765885
150	0xbdc0083e	-0.09376572
151	0xbe2d5207	-0.16925822
152	0xbe1130ad	-0.14178725
153	0xbe886661	-0.2664061
154	0xbe10825a	-0.14112225
155	0xbe83eb12	-0.25765282
156	0xbda5e8a7	-0.081010155
157	0xbdcad19b	-0.0990326
158	0x3a155283	0.0005696194
159	0xbe8aa670	-0.27080107
160	0x3ceb8401	0.028749468
161	0x3e2129c3	0.15738587
162	0xbda0c78b	-0.0785056
163	0x3e3bc37d	0.18336292
164	0x3c8bbd7a	0.017058123
165	0x3e15f7d8	0.14645326
166	0xbd44c448	-0.04803875
167	0x3d36e7a2	0.044654496
168	0xbd3f74a8	-0.04674211
169	0x3d3446a4	0.04401268
170	0xbded1239	-0.11575741
171	0x3a9415e6	0.001129803
172	0xbd90620f	-0.07049953
173	0x3cff1409	0.031137483
174	0x3d1f4ce5	0.03889169
175	0xbdb24bbe	-0.08705853
176	0x3d1d3950	0.038384736
177	0xbe4ae6cb	-0.19814603
178	0xbd925c4e	-0.07146512
179	0xbd52a92d	-0.05143087
180	0x3cd31920	0.025768816
181	0x3cebfd5a	0.02880733
182	0x3d2a8153	0.04162724
183	0x3cdabb23	0.026700562
184	0xbd98676b	-0.074416004
185	0xbd181123	-0.037125718
186	0x3e1bc0e4	0.152103
187	0x3e460d95	0.19341119
188	0xbd643f5c	-0.055724487
189	0xbd8c050b	-0.06836899
190	0xbd803baf	-0.06261384
191	0xbd2703de	-0.040775172
192	0xbd02f14b	-0.031968396
193	0x3db5b82d	0.08873019
194	0x3de4e89c	0.11177179
195	0x3e8479a9	0.2587407
196	0x3e760172	0.24023989
197	0x3e0973f4	0.13423139
198	0x3c8d2eb1	0.017234178
199	0x3de2f86f	0.11082541
200	0xbe7b4828	-0.24539244
201	0xbd2c6b9d	-0.042094816
202	0x3dc1e07d	0.09466646
203	0xbc8e1362	-0.017343227
204	0x3e15b015	0.14617951
205	0xbd50b96f	-0.050958093
206	0x3dc9202c	0.098205894
207	0x3e84ac5c	0.2591275
208	0x3e2a5fdb	0.16638128
209	0x3c9611ce	0.018319037
210	0x3cf1fe89	0.029540317
211	0xbcc62416	-0.024187129
212	0xbc918bc3	-0.017766839
213	0x3dfd8952	0.123797074
214	0x3c7b2818	0.015329383
215	0xbe11621e	-0.14197585
216	0x3e18d6fc	0.1492576
217	0xbbf22b9d	-0.007390453
218	0xbdff1636	-0.12455408
219	0xbdfd5de2	-0.12371422
220	0xbdda2e3e	-0.10653351
221	0xbe2096ec	-0.15682572
222	0xbd20ef25	-0.039290566
223	0xbd9b5549	-0.07584626
224	0xbe3fce4c	-0.1873104
225	0x3d327dbd	0.043576945
226	0xbdd69395	-0.10477368
227	0xbc4c5251	-0.012470798
228	0x3cb21bbb	0.021741739
229	0xbce67c51	-0.02813545
230	0xbdede005	-0.11614994
231	0x3d170521	0.036870126
232	0x3e349cd8	0.17637956
233	0x3d9cae25	0.07650403
234	0xbd79c153	-0.060975384
235	0x3cd85c0a	0.026411075
236	0x3e47775b	0.19479124
237	0x3da1fcfb	0.0790958
238	0xbdae437a	-0.08508964
239	0xbe04039e	-0.12892005
240	0xbd81d3c8	-0.06339222
241	0xbe73f457	-0.23823677
242	0xbeb16bd0	-0.34652567
243	0x3e0f3c36	0.13987812
244	0xbdbe076f	-0.092787616
245	0x3e0f29db	0.1398081
246	0x3d823bb2	0.06359042
247	0x3d4e2bd6	0.050334774
248	0x3c9b6649	0.018969672
249	0x3e74697a	0.23868361
250	0x3e347287	0.17621814
251	0xbad44479	-0.0016194723
252	0x3cad2b4d	0.021138811
253	0x3e420f99	0.18951263
254	0x3e25e894	0.16202003
255	0x3d94b711	0.0726148

j_weight f4 [32, 32]
0	0x3db34590	0.08753502
1	0xbeef3699	-0.46721342
2	0xbe49309d	-0.19647451
3	0xbe412d02	-0.18864825
4	0xbdc248b7	-0.094865255
5	0xbe11c195	-0.14234002
6	0x3b2de955	0.0026536782
7	0xbe557f65	-0.20849378
8	0x3dc23533	0.09482803
9	0x3c80f8a2	0.015743557
10	0x3ea17ea9	0.31541947
11	0x3e125676	0.14290795
12	0xbcc7914f	-0.02436128
13	0x3ea225cb	0.3166946
14	0xbeb69844	-0.35663044
15	0xbe53431c	-0.20631069
16	0x3e4fd9e9	0.2029797
17	0x3ceb2395	0.02870349
18	0x3c8d4596	0.017245095
19	0xbe0885a8	-0.13332236
20	0x3deb4659	0.11488027
21	0xbef2a430	-0.4739089
22	0x3d041828	0.0322496
23	0xbe114844	-0.14187723
24	0xbe53b7df	-0.2067561
25	0xbe1ab023	-0.15106253
26	0xbd8fc2e2	-0.07019593
27	0xbd1a864f	-0.037725743
28	0x3dbcd985	0.09221176
29	0xbe1aa669	-0.15102543
30	0xbe8f0c63	-0.27939138
31	0x3e66df49	0.22546114
32	0xbde0764f	-0.109600656
33	0xbd2283e5	-0.039676566
34	0xbe4fba0b	-0.20285814
35	0x3e1b55f4	0.15169507
36	0x3c1bede3	0.009517166
37	0x3dfd1057	0.12356632
38	0x3cbb8d05	0.022894392
39	0x3d211871	0.03932995
40	0x3d4ad52d	0.049519707
41	0x3e22fcb2	0.15916708
42	0xbdb0ec7a	-0.08638854
43	0xbda068ed	-0.07832513
44	0x3e205dbb	0.15660755
45	0xbd83f976	-0.06444065
46	0xbe35249a	-0.17689744
47	0x3d3b22d2	0.045687504
48	0x3d1cc4af	0.03827351
49	0x3d8dd0e9	0.06924612
50	0x3e26c135	0.1628464
51	0x3dbcc6e7	0.09217625
52	0xbd5612d3	-0.052264046
53	0xbbffb384	-0.0078033824
54	0x3e823f9a	0.2543915
55	0x3ddd17b1	0.107955344
56	0xbe48a40d	-0.1959383
57	0x3d1849fb	0.03717993
58	0x3c5eb164	0.013592098
59	0xbd95593c	-0.07292411
60	0x3bda5714	0.0066632126
61	0x3e5a8c1d	0.21342511
62	0xbe0397bc	-0.12850851
63	0x3c986bd0	0.018606097
64	0xbc50e025	-0.012748753
65	0xbd6ef4a8	-0.05833879
66	0x3e82a460	0.25516033
67	0xbd98435c	-0.07434723
68	0xbed81c65	-0.42209163
69	0xbe52b2d1	-0.20576026
70	0x3b72fc2b	0.0037076573
71	0x3e2c1687	0.16805468
72	0x3c2c23af	0.0105065545
73	0xbdb56360	-0.08856845
74	0xbe9a2c8a	-0.30112106
75	0x3d4f13d5	0.050556023
76	0x3dae0ba9	0.08498318
77	0xbc1f650b	-0.00972868
78	0x3e82049b	0.2539414
79	0xbe4e018b	-0.20117776
80	0xbe97173c	-0.29509914
81	0x3e033582	0.1281338
82	0xbd21fb1c	-0.039546117
83	0xbe1e1b68	-0.15440142
84	0xbe6c386f	-0.23068403
85	0x3e95fa3a	0.2929247
86	0x3db59ecc	0.08868179
87	0xbe18d0bb	-0.14923374
88	0xbc178c1f	-0.009249716
89	0x3d8391a3	0.064242624
90	0x3dd45365	0.10367469
91	0x3d01b3c8	0.031665593
92	0xbd529fa2	-0.05142177
93	0x3e8282b1	0.25490335
94	0x3e940e76	0.28917283
95	0x3de958f5	0.1139392
96	0xbe4aabe7	-0.19792138
97	0xbe09b2a2	-0.1344705
98	0xbb3e92fc	-0.0029079309
99	0x3d7a8790	0.06116444
100	0xbd302bbe	-0.043010466
101	0x3d164b94	0.03669317
102	0xbdc3dc2e	-0.0956348
103	0xbce98979	-0.028507935
104	0x3d25163f	0.04030442
105	0x3d4e16a3	0.050314557
106	0xbde12e58	-0.109951675
107	0x3e6cd757	0.2312902
108	0xbde10fbb	-0.109893285
109	0x3de35747	0.11100631
110	0x3c3f8531	0.01168947
111	0x3d79239f	0.060824987
112	0xbde8f8b4	-0.11375561
113	0x3d9eacce	0.07747804
114	0x3bd04bf1	0.006356709
115	0xbaa695d1	-0.0012709444
116	0xbdf41169	-0.11917383
117	0x3e74bd51	0.23900343
118	0x3c314498	0.010819577
119	0xbd369b37	-0.04458162
120	0x3d784983	0.06061698
121	0xbd60ab3c	-0.0548508
122	0x3d4e104e	0.050308518
123	0xbd1e5f7d	-0.038665283
124	0xbd25ca3a	-0.04047606
125	0x3c9f2ed8	0.019431517
126	0x3dc106a2	0.09425093
127	0xbd0a7c6b	-0.03381006
128	0xbdb71fe5	-0.0894163
129	0xbc81bc02	-0.01583672
130	0x3d725e9a	0.05917225
131	0xbe6f5c35	-0.23375018
132	0xbe0b1b2f	-0.13584588
133	0xbd4d9682	-0.050192364
134	0xbdb381c2	-0.08764984
135	0x3d565609	0.052328143
136	0xbd75cf29	-0.060012016
137	0x3d557dcf	0.052121934
138	0x3d417e2b	0.047239464
139	0xbd88aa9b	-0.066731654
140	0xbdd92f22	-0.10604693
141	0x3d2741f8	0.040834397
142	0x3d714341	0.05890203
143	0x3c5d2e6a	0.0134998355
144	0xbdf9b828	-0.12193328
145	0x3e2e3ac3	0.17014603
146	0xbd97b051	-0.074066766
147	0x3b4fc32c	0.0031702025
148	0x3dd97724	0.106184274
149	0x3cc06c01	0.023489
150	0xbd45081f	-0.048103448
151	0x3d01da35	0.03170224
152	0x3e5f79a8	0.21823752
153	0x3d719d52	0.058987923
154	0x3d132432	0.03592319
155	0x3c63808f	0.013885631
156	0x3ceca90e	0.028889205
157	0xbe873c4c	-0.2641319
158	0x3e80d9bf	0.25166127
159	0x3d82d172	0.06387605
160	0x3b8c5cff	0.004283547
161	0xbdebbcb1	-0.115105994
162	0x3d73f544	0.059560075
163	0xbd8caef7	-0.068693094
164	0x3cd4ab08	0.02596046
165	0xbe0c5e79	-0.13707913
166	0x3e7d9f82	0.24767879
167	0x3e472096	0.19446024
168	0x3e50aeaa	0.20379129
169	0x3dc460fa	0.09588809
170	0x3d075da7	0.0330483
171	0x3ddcb81d	0.10777304
172	0x3e2be9aa	0.16788355
173	0x3ce9906a	0.028511245
174	0xbda56825	-0.080765046
175	0xbce47e7b	-0.027892342
176	0x3d4806b0	0.048834503
177	0x3dcac4a3	0.09900787
178	0x3ce68ef7	0.028144343
179	0x3d896427	0.06708556
180	0x3cc1973e	0.023631688
181	0x3be9b94f	0.007132686
182	0xbd3fb0ae	-0.046799354
183	0x3b587fd8	0.0033035185
184	0xbda65c6c	-0.08123097
185	0x3d9faac0	0.0779624
186	0xbd586196	-0.05282744
187	0x3ca0eb1f	0.019643364
188	0x3df9c9c3	0.12196686
189	0x3caa6384	0.020799406
190	0xbd73fc0f	-0.059566554
191	0x3db4e937	0.08833545
192	0x3d954ef9	0.072904535
193	0xbdab7057	-0.083710365
194	0x3d0df73d	0.034659613
195	0xbe05f9e9	-0.13083614
196	0xbd4c4e9c	-0.049879655
197	0xbe8ec977	-0.2788808
198	0xbc758606	-0.014985567
199	0x3d2ab060	0.04167211
200	0xbe6a09be	-0.22855279
201	0x3c089b32	0.008337783
202	0xbdbeb40a	-0.093116835
203	0x3d822bd7	0.06356018
204	0xbe33500c	-0.17511004
205	0xbd648cad	-0.05579822
206	0x3ec2d29b	0.38051304
207	0x3d3681f7	0.044557538
208	0x3e6c9f4c	0.23107642
209	0x3eda104f	0.42590567
210	0x3cbd36f5	0.023097495
211	0xbe0b931e	-0.1363034
212	0xbdb68318	-0.08911723
213	0x3da2e4f7	0.07953828
214	0xbc7872f6	-0.015164128
215	0xbe02a3cb	-0.12757795
216	0xbdd074cf	-0.101785295
217	0xbdeae3de	-0.114692435
218	0xbd671f3c	-0.05642627
219	0xbd547170	-0.051865995
220	0x3dce4cc1	0.100732334
221	0xbe9a601a	-0.30151445
222	0xbdea2b99	-0.11434097
223	0x3de089c3	0.10963776
224	0x3ca55ef3	0.020186877
225	0xbe4cfac0	-0.20017529
226	0xbd0b0894	-0.033943728
227	0x3daa7b57	0.083243065
228	0xbe4fb19b	-0.20282595
229	0xbd77b80d	-0.06047826
230	0x3d8104ef	0.06299769
231	0x3e4ac353	0.19801073
232	0x3e25277b	0.16128342
233	0xbdb63254	-0.08896318
234	0xbda0c0f0	-0.078493
235	0x3e28feef	0.165035
236	0xbd9d0697	-0.076672725
237	0x3e82a4fe	0.25516504
238	0xbe21fc80	-0.15818977
239	0xbdf3648a	-0.11884411
240	0xbd00bdb6	-0.031430922
241	0xbda589cd	-0.08082924
242	0xbdb63555	-0.08896891
243	0x3cb90c50	0.022588879
244	0xbd3eb11f	-0.046555635
245	0xbdc5ded0	-0.09661639
246	0x3e18810b	0.14892976
247	0xbdf24794	-0.11830059
248	0xbd6f6a77	-0.058451142
249	0x3deef3e9	0.11667616
250	0x3e0bfd1d	0.13670774
251	0x3e235ab8	0.15952575
252	0x3d44b0ee	0.048020296
253	0x3e953b1a	0.29146653
254	0x3da2f66c	0.079571575
255	0x39ce3e2b	0.000393377

k_weight f4 [32, 32]
0	0x3c2d72c0	0.010586441
1	0x3e7193c3	0.23591523
2	0xbdc66845	-0.096878566
3	0xbdcea1dc	-0.10089466
4	0xbc7730e2	-0.015087338
5	0x3bfb39eb	0.0076668165
6	0xbd075221	-0.03303731
7	0xbdbdd665	-0.09269408
8	0xbd8b4654	-0.068005234
9	0xbe2973c2	-0.16548064
10	0x3e3408a4	0.17581421
11	0x3d7d0c7c	0.061779484
12	0xbcb43c98	-0.02200155
13	0xbd0ee5ac	-0.034887
14	0x3dc6ac96	0.09700887
15	0xbd60b530	-0.054860294
16	0xbd8e1a55	-0.06938616
17	0xbda947e2	-0.08265664
18	0xbe4d7d07	-0.20067225
19	0x3d2b7cd1	0.04186708
20	0xbe6782db	-0.22608511
21	0x3e0ecb75	0.139448
22	0xbc47597b	-0.01216733
23	0xbd1792ef	-0.03700536
24	0xbd521eac	-0.051298782
25	0x3d624525	0.055241723
26	0x3b4dfcd2	0.003143121
27	0xbe2b2d0f	-0.16716407
28	0x3cf004bd	0.029299134
29	0x3e3fc5c4	0.18727785
30	0x3e12e2bf	0.1434431
31	0x3c4cc0a6	0.012497103
32	0xbd7f4d86	-0.06232979
33	0xbe5dded2	-0.2166703
34	0xbd8e10f0	-0.06936824
35	0xbc1be731	-0.00951557
36	0xbc10d80a	-0.00884057
37	0x3dcf66a3	0.10126998
38	0xbdc29a23	-0.095020555
39	0x3de2c304	0.110723525
40	0x3a548d9e	0.0008108261
41	0xbda697ad	-0.081343986
42	0x3e8a831e	0.2705316
43	0xbd694947	-0.05695465
44	0x3dc6a827	0.09700041
45	0x3d33915c	0.043839797
46	0xbd5fe983	-0.054666054
47	0xbd88cca4	-0.06679657
48	0x3e285cf6	0.16441712
49	0xbdc97df5	-0.098384775
50	0xbddc86c8	-0.10767895
51	0xbd9aafc0	-0.07553053
52	0xbd8920f7	-0.06695741
53	0xbd29ac5e	-0.041424148
54	0xbc6aef73	-0.014339316
55	0xbd42b931	-0.047539894
56	0xbdae2630	-0.085033774
57	0x3d0946c5	0.033514757
58	0xbdf9877e	-0.12184046
59	0x3be8b8d1	0.00710211
60	0x3c436ea9	0.011928239
61	0xbe17d129	-0.14825882
62	0xbdfe65e7	-0.1242178
63	0x3df49270	0.11941993
64	0xbdc94d5c	-0.09829208
65	0x3db22559	0.0869853
66	0x3e390046	0.1806651
67	0x3dc309f7	0.09523385
68	0xbcf08418	-0.029359862
69	0xbdc0077b	-0.09376427
70	0x3d9f1943	0.0776849
71	0x3e7f8bbb	0.24955647
72	0x3d41b7dc	0.047294483
73	0xbc1f356f	-0.009717329
74	0x3cb0b2be	0.021569606
75	0xbb8319d1	-0.0040008803
76	0x3ef814cb	0.48453364
77	0x3d4c0f4e	0.049819283
78	0xbcc64392	-0.024202142
79	0x3de5e930	0.112261176
80	0xbed2de87	-0.411854
81	0xbdf7cd4a	-0.12099703
82	0xbe47c830	-0.19509959
83	0xbe7db909	-0.24777617
84	0x3d8f2a6f	0.069905154
85	0x3d1648e2	0.0366906
86	0xbd404784	-0.046943203
87	0xbcdd98e0	-0.027050436
88	0x3e6a4879	0.22879209
89	0xbe04a67d	-0.12954135
90	0xbdf1835f	-0.11792635
91	0x3e1346f8	0.14382541
92	0x3e2c3e7d	0.16820712
93	0xbda49ee7	-0.08038121
94	0x3e324e4b	0.17412679
95	0xba21e5e8	-0.00061759213
96	0x3e4c2a86	0.19938096
97	0xbe36a651	-0.17836882
98	0xbd2e8fbf	-0.042617556
99	0x3d4a17bc	0.04933904
100	0x3dedd54b	0.11612948
101	0xbd9e091f	-0.077165835
102	0xbe171745	-0.1475497
103	0xbd8614fa	-0.0654697
104	0x3d4431cb	0.04789905
105	0x3da1c0dd	0.07898114
106	0xbe453bf2	-0.19261149
107	0xbcd8d02a	-0.026466448
108	0xbe528127	-0.2055708
109	0x3986b8b1	0.00025696078
110	0x3d8f7884	0.070054084
111	0xbd7ece71	-0.062208597
112	0x3d3bfc83	0.04589511
113	0xbcede072	-0.029037688
114	0x3dbfcd8d	0.093653776
115	0xbdc094de	-0.09403394
116	0xbe3215ba	-0.173911
117	0xbe34bb20	-0.17649508
118	0xbd864f5e	-0.06558107
119	0x3ca9ea9d	0.020741755
120	0xbe1d2047	-0.15344344
121	0x3d08e898	0.033424944
122	0xbd6b0adf	-0.057383414
123	0x3e4556ab	0.19271342
124	0xbdc5271f	-0.096266024
125	0xbe8ff068	-0.28113103
126	0xbe783e0c	-0.24242419
127	0xbddf0ed0	-0.10891497
128	0xbdd2ef3a	-0.10299535
129	0xbde86029	-0.11346466
130	0x3d3c9bb0	0.046046913
131	0xbdd07e09	-0.10180289
132	0xbd812759	-0.06306333
133	0xbd762a57	-0.060098972
134	0x3e19e42f	0.15028451
135	0xbd6aaa7e	-0.0572915
136	0x3d8309cd	0.06398354
137	0x3dcbda85	0.09953789
138	0xbe2f5916	-0.17123827
139	0xbe069302	-0.13142017
140	0xbded05cf	-0.115733735
141	0x3d6b2e77	0.05741736
142	0x3d4e3710	0.05034548
143	0xbe9fb32f	-0.31191394
144	0x3d78431b	0.06061087
145	0xbd043ea9	-0.03228632
146	0xbbc32f94	-0.0059565995
147	0xbd041c73	-0.032253694
148	0x3dcced23	0.10006168
149	0xbd8781cd	-0.066165544
150	0xbdba3050	-0.09091246
151	0x3d14cadc	0.036326274
152	0xbd286d46	-0.041119836
153	0xbc7e29fa	-0.015512938
154	0xbe4f0612	-0.2021716
155	0xbddbd879	-0.10734648
156	0xbdda5d7b	-0.10662361
157	0xbd9b2dcb	-0.07577094
158	0xbe04a345	-0.12952907
159	0xbe837c90	-0.2568097
160	0x3cb59bae	0.02216896
161	0xbbcaa0b8	-0.00618371
162	0x3d06b54b	0.03288774
163	0x3be871ac	0.007093629
164	0xbdde49b9	-0.10853905
165	0xbe1a5cb0	-0.1507442
166	0xbe001973	-0.12509708
167	0xbbbc9c58	-0.0057559423
168	0x3da847a5	0.0821679
169	0xbd690aae	-0.05689495
170	0x3ba34d60	0.004983589
171	0x3cb14fa2	0.021644417
172	0x3e03d3e0	0.12873793
173	0x3e864064	0.26221
174	0xbcb16f21	-0.021659436
175	0xbc0fd0f4	-0.008777846
176	0x3cd8aab4	0.026448585
177	0xbd01237b	-0.031527977
178	0xbdbda3b7	-0.09259742
179	0xbe0afe21	-0.13573505
180	0xbc9f3b50	-0.019437462
181	0xbd19e565	-0.037572283
182	0xbc8b335c	-0.016992263
183	0xbd889c07	-0.06670385
184	0xbe1c3509	-0.15254606
185	0xbc3daa2a	-0.011576215
186	0xbd432a43	-0.047647726
187	0x3e496e66	0.1967102
188	0xbc526063	-0.012840363
189	0xbe5e1dba	-0.21691027
190	0xbc34cf8c	-0.011035811
191	0x3da3fd17	0.080072574
192	0xbd8e0dbf	-0.069362156
193	0xbe328c28	-0.17436278
194	0xbe35dda2	-0.17760327
195	0xbc8dea9d	-0.017323786
196	0xbed1a920	-0.40949345
197	0xbc8e22a6	-0.017350506
198	0x3db0939b	0.086219035
199	0xbdc17458	-0.09446019
200	0x3d87c521	0.06629396
201	0x3be8957e	0.007097899
202	0xbe326649	-0.17421831
203	0xbca19e18	-0.019728705
204	0xbdbc0dc0	-0.0918231
205	0x3e00097e	0.12503621
206	0x3d8fcd2c	0.07021555
207	0xbda84b6e	-0.08217512
208	0x3dc50cb8	0.096215665
209	0x3d157140	0.036484957
210	0xbe028005	-0.12744148
211	0xbbbb657a	-0.005718884
212	0x3c6f5627	0.014607943
213	0xbe1ffc82	-0.15623668
214	0xbde21ba3	-0.110404275
215	0x3d4c2b6d	0.0498461
216	0xbe2b6b5b	-0.16740172
217	0xbe2acccf	-0.16679691
218	0x3da95fe5	0.082702436
219	0xbdea6712	-0.1144544
220	0x3c878c35	0.016546348
221	0x3e3e72b3	0.18598442
222	0x3e067c2a	0.13133302
223	0xbda21987	-0.07915025
224	0xbd3c5564	-0.045979872
225	0x3dbc4c0d	0.09194193
226	0xbddd3b48	-0.108023226
227	0xbd8602b7	-0.065434866
228	0xbd19337f	-0.037402626
229	0x3d1f0eea	0.038832583
230	0x3ce521e2	0.027970258
231	0x3e352622	0.17690328
232	0xbd9d746c	-0.07688221
233	0xbd51b1cf	-0.051194962
234	0x3da48ad4	0.08034292
235	0x3d6299d6	0.05532249
236	0x3d859537	0.06522601
237	0x3d289b57	0.04116377
238	0xbe592a02	-0.21207431
239	0x3d8555bf	0.065104954
240	0xbe004f64	-0.12530285
241	0xbe2752d8	-0.16340196
242	0xbe25ac47	-0.16179
243	0xbe54de89	-0.20788015
244	0xbcc8e9cb	-0.024525544
245	0xbbc5cb93	-0.006036231
246	0xbccf4dcb	-0.02530565
247	0xbc8e6f36	-0.017387014
248	0xbd023f33	-0.031798553
249	0xbd3d8828	-0.046272427
250	0xbd6ac3e1	-0.05731571
251	0xbdc3f5ba	-0.09568353
252	0x3d46632d	0.048434425
253	0xbdd20d8a	-0.102564886
254	0x3d9ce586	0.076609656
255	0x3e1a8ab8	0.1509198

r_weight f4 [1, 32]
0	0x3d9b5f3c	0.07586524
1	0xbeeeb456	-0.4662196
2	0xbd2b9086	-0.041885875
3	0xbee24554	-0.44193518
4	0xbe9d41c0	-0.30714226
5	0xbe2b76d2	-0.16744545
6	0xbd83b590	-0.06431115
7	0xbe415a76	-0.18882164
8	0x3e5cfaba	0.2158002
9	0x3dfb57d4	0.12272611
10	0x3dae111f	0.08499359
11	0xbea68c60	-0.32528973
12	0x3f24714d	0.64235383
13	0xbed94fd9	-0.4244373
14	0xbe206aff	-0.15665816
15	0xbea3c5bf	-0.31986806
16	0x3ea569ec	0.32307374
17	0x3e115863	0.14193873
18	0xbe6aa579	-0.22914685
19	0xbe87e77e	-0.26543802
20	0xbe8c639c	-0.27419746
21	0xbd160f7d	-0.036635865
22	0xbee7755a	-0.4520672
23	0x3e1e8a6f	0.15482496
24	0xbd0fb8d8	-0.03508839
25	0x3df12a24	0.11775616
26	0xbc894b2a	-0.016759474
27	0x3dbccff5	0.09219352
28	0xbf075020	-0.52856636
29	0xbe7a93f6	-0.24470505
30	0xbec1da30	-0.37861776
31	0xbd0134a7	-0.031544354

i_weight f4 [1, 32]
0	0x3d2aa02a	0.04165665
1	0xbdcd2d3d	-0.10018394
2	0xbe84510d	-0.25843087
3	0x3d453d5a	0.048154213
4	0x3e9372c4	0.28798497
5	0x3e4b003d	0.1982431
6	0xbe04d966	-0.12973556
7	0x3d9a725b	0.07541343
8	0xbe6cf49e	-0.23140189
9	0x3d3cea61	0.04612196
10	0x3d1d39ea	0.03838531
11	0x3e0c8632	0.13723066
12	0x3cd27268	0.025689319
13	0x3da9ffe1	0.08300758
14	0x3b2cddb7	0.002637727
15	0xbd372d03	-0.04472066
16	0xbbb86fff	-0.0056285853
17	0x3e021de3	0.12706713
18	0x3da970e3	0.082734846
19	0x3ddad40b	0.10684975
20	0xbd048b81	-0.032359604
21	0xbd149053	-0.03627045
22	0xbe56266d	-0.20913096
23	0x3d1e0ede	0.038588397
24	0xbe89d005	-0.2691652
25	0x3e0057ca	0.12533489
26	0xbe631b16	-0.22178301
27	0xbdda3433	-0.106544875
28	0x3d92f226	0.071750924
29	0x3dc3f996	0.09569089
30	0x3d8161eb	0.063175045
31	0x3d1a45aa	0.037664093

j_weight f4 [1, 32]
0	0xbdb73b75	-0.089468874
1	0xbbe1c5eb	-0.0068900487
2	0xbc7e0f0f	-0.01550652
3	0xbd2839a6	-0.041070603
4	0x3e9fb81b	0.3119515
5	0x3d3147c9	0.04328135
6	0xbc8e8504	-0.017397411
7	0xbdb2dc93	-0.087334774
8	0xbde99f6c	-0.114073604
9	0x3ced9a49	0.029004233
10	0xbd09ab8a	-0.033610858
11	0xbeb49fba	-0.35278112
12	0xbde9acb4	-0.11409894
13	0xbd0c4f54	-0.03425534
14	0x3d12c61f	0.035833474
15	0x3b5bf6fc	0.0033563962
16	0x3d84c2a5	0.06482438
17	0x3d127e56	0.035765015
18	0xbe952cbe	-0.29135698
19	0x3d95f631	0.07322348
20	0x3bdeccf6	0.0067993356
21	0xbcfda060	-0.030960262
22	0xbdd9a63c	-0.1062741
23	0x3d207c06	0.039180778
24	0x3c1f0372	0.009705411
25	0xbd40928f	-0.04701477
26	0x3eb9675e	0.36211675
27	0xbca775f1	-0.020441981
28	0x3d2b3c43	0.041805517
29	0x3ba70b3f	0.005097776
30	0xbda8588c	-0.08220014
31	0xbdd75d09	-0.10515792

k_weight f4 [1, 32]
0	0x3da68dff	0.08132552
1	0xbda9868f	-0.08277618
2	0x3e38a939	0.18033303
3	0xbafb73d5	-0.0019184301
4	0x3e3a7f30	0.1821258
5	0x3d8bf0ff	0.06833076
6	0xbd8862b9	-0.06659455
7	0x3e1b2ccd	0.15153809
8	0xbd227d20	-0.03967011
9	0xbb9e9560	-0.004839584
10	0x3d2f3cd2	0.042782612
11	0xbc53be2a	-0.012923757
12	0xbd01496f	-0.031564172
13	0xbe61c5ff	-0.22048186
14	0xbcee39be	-0.029080268
15	0x3dad7e90	0.084714055
16	0x3d418d40	0.047253847
17	0x3d955fb0	0.072936416
18	0x3e29ec68	0.16594088
19	0x3d0d5712	0.034506865
20	0xbd22957f	-0.03969335
21	0x3ddf7bf2	0.109123126
22	0x3dc1fde8	0.09472257
23	0x3dd94ef5	0.10610763
24	0x3e7ae766	0.24502334
25	0xbe8ffa00	-0.28120422
26	0x3ea79717	0.3273246
27	0xbda55728	-0.08073264
28	0xbe7ee2a6	-0.24891147
29	0x3e089f26	0.1334196
30	0xbe01a923	-0.12662177
31	0x3daf0f18	0.08547801

bias f4 [128]
0	0xbd978990	-0.07399285
1	0x3cf27b22	0.02959973
2	0xbb8c4860	-0.0042810887
3	0x3ce93eba	0.028472293
4	0xbe42434d	-0.18970986
5	0xbc04b449	-0.008099624
6	0xba9e33bd	-0.0012069863
7	0xbd98b8b4	-0.07457104
8	0x3dbc5c41	0.091972835
9	0x3db91ef5	0.09039108
10	0xbd36adf7	-0.0445995
11	0xbea1bca7	-0.31589243
12	0x3dbe680a	0.092971876
13	0xbcbf20cf	-0.023331074
14	0x3de9dbf0	0.11418903
15	0xbdd6948d	-0.104775526
16	0xbda0d1f7	-0.078525476
17	0x3db48052	0.08813538
18	0xbf33c18b	-0.702172
19	0xbd99440b	-0.07483681
20	0xbdf2242e	-0.11823307
21	0x3cc3e4e0	0.023912847
22	0xbeb7f613	-0.35929927
23	0x3c725d6b	0.01479278
24	0x3c9b15c2	0.018931273
25	0x3e04cb50	0.12968183
26	0xbcb9a8e3	-0.02266354
27	0xbd583658	-0.0527862
28	0xbe84aa9f	-0.25911424
29	0xbe2979fa	-0.16550437
30	0x3d5fa7fa	0.054603554
31	0x3cccab41	0.024984004
32	0xbd50dfec	-0.0509948
33	0xbd9ce343	-0.07660534
34	0xbe188b81	-0.14896967
35	0xbcde863b	-0.027163615
36	0xbef589dd	-0.47956744
37	0xbe01929a	-0.1265358
38	0xbb2b18ae	-0.002610724
39	0xbda19756	-0.07890193
40	0x3db61cb2	0.08892192
41	0x3d756831	0.059913818
42	0x3d9e83e9	0.077400036
43	0xbeba4b36	-0.36385506
44	0x3e131f51	0.14367415
45	0xbd17874c	-0.036994264
46	0x3e05feab	0.1308543
47	0x3c82ee04	0.015982635
48	0xbe3a8f48	-0.1821872
49	0x3da595ca	0.080852106
50	0xbf0f1603	-0.5589296
51	0xbd6fb2cd	-0.058520127
52	0xbd521e7f	-0.051298615
53	0x3df7f207	0.1210671
54	0xbe8a7c60	-0.27048016
55	0xbbe770ec	-0.007063022
56	0xbd2254e8	-0.039631754
57	0x3d9dd33e	0.07706307
58	0x3dc5e1ee	0.09662233
59	0xbd72b7f8	-0.059257478
60	0xbe8d09a0	-0.27546406
61	0xbcfeb0bc	-0.031090133
62	0x3dd45460	0.10367656
63	0xbd6ed409	-0.05830768
64	0xbdb0f3c5	-0.08640245
65	0xbb4459b2	-0.002996069
66	0xbe1736b2	-0.14766958
67	0x3cedfd03	0.02905131
68	0xbeecbd2d	-0.4623808
69	0x3c367d8a	0.011138329
70	0x3d281140	0.041032076
71	0xbe3d37f5	-0.18478377
72	0x3de8dacd	0.11369858
73	0x3e28dbee	0.16490147
74	0xbe1ddc43	-0.15416054
75	0xbf17ff44	-0.5937388
76	0x3cc9a985	0.024616966
77	0xbe07006d	-0.13183756
78	0x3e51f487	0.20503436
79	0xbbb4c6e7	-0.005516875
80	0xbd6c92a1	-0.057757024
81	0x3d945ec4	0.072446376
82	0xbf034a41	-0.5128518
83	0xbda38740	-0.07984781
84	0xbd304d65	-0.04304256
85	0x3d65fc31	0.05614871
86	0xbeec6202	-0.46168524
87	0xbc66f4a0	-0.014096409
88	0xbb06d954	-0.0020576315
89	0x3ccf59f1	0.025311442
90	0xbcefd4f3	-0.029276347
91	0xbd862f90	-0.065520406
92	0xbe8e4a39	-0.27791002
93	0xbc8bb8b5	-0.017055849
94	0x3dc2f299	0.09518928
95	0xbd31e05b	-0.043426853
96	0xbd976747	-0.073927455
97	0xbb41efbf	-0.0029592363
98	0xbda1863c	-0.07886931
99	0x3c1eb810	0.009687439
100	0xbe82eeea	-0.25572902
101	0xbc3854af	-0.011250659
102	0xbdd10b06	-0.10207181
103	0xbe108807	-0.1411439
104	0x3d55c4ef	0.052189764
105	0x3dac557d	0.08414743
106	0xbc9b750f	-0.018976716
107	0xbe94ca84	-0.29060757
108	0x3e00b133	0.12567596
109	0xbb685aa5	-0.003545442
110	0x3d8b0de3	0.06789758
111	0xbcb26ff9	-0.021781908
112	0xbd8d3e35	-0.06896631
113	0x3de51351	0.11185325
114	0xbf0a3c1b	-0.53997964
115	0xbe03d609	-0.12874617
116	0xbe2b55b2	-0.16731909
117	0x3d9bf672	0.07615365
118	0xbeb30bfe	-0.34970087
119	0xbd135e19	-0.03597841
120	0x3d4fc68e	0.050726466
121	0x3e05a273	0.1305025
122	0x3dcb05ed	0.0991324
123	0x3de18d3d	0.11013267
124	0xbe7dc1a5	-0.24780901
125	0xbdedd639	-0.11613125
126	0x3ddbdf88	0.107359946
127	0x396fd0a1	0.00022870536

r_weight f4 [32, 32]
0	0x3e5fc106	0.21850976
1	0xbdf3c059	-0.11901922
2	0x3e1773d3	0.14790277
3	0xbe3163d7	-0.17323242
4	0x3d83368a	0.06406887
5	0xbcd0cd4f	-0.025488524
6	0xbdc03a10	-0.093860745
7	0x3e6dcc3a	0.23222438
8	0xbe49bb9d	-0.19700475
9	0x3e4cae7d	0.19988437
10	0x3e267827	0.16256772
11	0x3e451a24	0.19248253
12	0x3e359823	0.17733817
13	0xbe60b135	-0.21942599
14	0xbe958a0f	-0.29206893
15	0x3d4e33c5	0.05034234
16	0x3dae2d36	0.08504717
17	0x3dfc4c1f	0.123192064
18	0x3e57842f	0.21046518
19	0xbd50ab7c	-0.05094479
20	0x3e907570	0.28214598
21	0xbe8174c0	-0.25284386
22	0xbe5d8c23	-0.21635489
23	0x3e9e3669	0.30900887
24	0xbe362a30	-0.17789531
25	0xbe311ee5	-0.17296942
26	0xbeb5be1a	-0.35496598
27	0xbe4d23a7	-0.20033132
28	0x3e1a16b5	0.15047725
29	0xbe6b35fb	-0.2296981
30	0xbec8a62c	-0.3918928
31	0xbddd9038	-0.10818523
32	0xbdf4f03d	-0.11959884
33	0x3cb99023	0.022651738
34	0x3eb65d77	0.35618183
35	0xbe12046d	-0.14259501
36	0xbe8e3f3c	-0.2778262
37	0xbe69d1a4	-0.22833878
38	0xbdf01d6a	-0.1172436
39	0x3e032b22	0.12809423
40	0xbdb99a5c	-0.09062645
41	0xbd941449	-0.072304316
42	0x3d681b7c	0.056666836
43	0xbe1b2968	-0.15152514
44	0xbe11dd11	-0.14244486
45	0xbe0fa2f8	-0.14027011
46	0x3e42123a	0.18952265
47	0x3dcddcbd	0.10051868
48	0x3ddf2cda	0.10897227
49	0x3ea5bee0	0.3237219
50	0xbe13d0a9	-0.14435066
51	0xbe1587fd	-0.14602657
52	0x3cbf9a81	0.023389103
53	0xbe0e7af3	-0.13914089
54	0xbea9887f	-0.3311195
55	0xbcfd4a8b	-0.030919334
56	0xbe3a7bfd	-0.1821136
57	0xbde63c6a	-0.11241992
58	0xbe46363f	-0.1935663
59	0x3d707f6a	0.05871526
60	0xbc01dc89	-0.007926115
61	0xbed0ee6b	-0.40806898
62	0xbe5a0225	-0.2128988
63	0xbe874f45	-0.26427665
64	0xbe88bd08	-0.2670672
65	0xbd185ba0	-0.037196755
66	0xbe393d8e	-0.18089887
67	0x3ee81bf2	0.4533382
68	0xbeac0475	-0.3359715
69	0x3ec59807	0.3859255
70	0x3dd9322b	0.10605272
71	0x3e23055c	0.15920013
72	0x3d836cb3	0.06417217
73	0xbea04185	-0.31299987
74	0x3e101b57	0.1407293
75	0xbe02751a	-0.12739983
76	0x3e3e9afe	0.18613812
77	0x3ed88720	0.42290592
78	0xbb26ff92	-0.0025481922
79	0x3e50a6f9	0.20376195
80	0x3d3eb404	0.046558395
81	0xbe1cf6df	-0.15328549
82	0xbe0f7a84	-0.1401158
83	0x3da0479e	0.0782616
84	0x3dc73621	0.09727121
85	0xbe64041b	-0.22267191
86	0x3b6c85b7	0.0036090442
87	0xbe80f768	-0.25188756
88	0xbe9bbe2a	-0.3041852
89	0xbe3f3daf	-0.18675874
90	0xbde9371c	-0.113874644
91	0xbcf3f593	-0.029780185
92	0xbeabc011	-0.33544973
93	0x3f661e2c	0.8988979
94	0x3eea9a2b	0.45820746
95	0x3eb27884	0.3485757
96	0x3e353f4e	0.1769993
97	0x3e239b3d	0.15977187
98	0xbe3a6583	-0.18202786
99	0x3e9e8c03	0.30966195
100	0x3e9a0e22	0.30088907
101	0x3b5eff92	0.0034026843
102	0xbe086062	-0.13318017
103	0xbd6bd645	-0.05757739
104	0x3e26118d	0.16217633
105	0x3cbe559e	0.023234185
106	0xbde78561	-0.11304737
107	0x3dc48b8c	0.09596929
108	0x3baac6fb	0.0052117086
109	0x3df11fa5	0.11773614
110	0xbeafe6bd	-0.34355727
111	0xbcdc222d	-0.026871765
112	0xbc718a10	-0.014742389
113	0xbecca358	-0.3996837
114	0xbcc8111e	-0.024422225
115	0xbcec1122	-0.028816763
116	0x3e99dbed	0.30050603
117	0x3e797e79	0.24364652
118	0x3e2b7de4	0.16747242
119	0x3d150100	0.036377907
120	0x3d2bebca	0.041972913
121	0xbaa70144	-0.0012741466
122	0x3e4ceeeb	0.20013015
123	0xbc92c733	-0.017917251
124	0xbdd02b9e	-0.10164569
125	0x3eb9d58c	0.36295736
126	0xbe5619b4	-0.20908242
127	0x3dd83920	0.10557771
128	0xbe188a70	-0.1489656
129	0x3ead53fa	0.33853132
130	0x3d7a6643	0.06113268
131	0x3eb30d06	0.34970874
132	0x3dd4463f	0.10364961
133	0x3f021232	0.50809014
134	0xbdfe5efb	-0.1242046
135	0x3e292d98	0.16521299
136	0x3d6d4125	0.057923455
137	0xbe1880f0	-0.14892936
138	0xbe5448f8	-0.2073096
139	0xbe397f4c	-0.18114966
140	0xbdceb648	-0.10093361
141	0x3dc8169f	0.0976994
142	0x3e4fb335	0.20283206
143	0x3e0301da	0.12793675
144	0xbdf5a213	-0.11993804
145	0xbdb35960	-0.08757281
146	0x3e4c9f25	0.19982584
147	0x3e1a57cb	0.15072553
148	0xbe905622	-0.28190714
149	0x3f01d380	0.5071335
150	0x3ec36147	0.38160154
151	0x3bc03ce8	0.0058666356
152	0x3e4d933e	0.200757
153	0x3e9c6515	0.3054587
154	0x3eb16159	0.34644583
155	0xbe46a36c	-0.19398278
156	0x3ea10d8e	0.31455654
157	0x3e970859	0.29498556
158	0x3e257872	0.16159227
159	0x3eaad437	0.33365032
160	0x3e62cd05	0.22148521
161	0xbe0da9bb	-0.13834278
162	0x3d9a39d9	0.07530565
163	0xbd1b3b9e	-0.037898652
164	0xbcb937ea	-0.02260967
165	0xbe2d83dd	-0.16944833
166	0x3e4f5c0e	0.2024996
167	0x3c3fbaa2	0.011702212
168	0xbc6860e6	-0.014183259
169	0x3e4716cb	0.19442289
170	0xbd995629	-0.07487137
171	0xbd0c4b6c	-0.034251615
172	0x3e4144fd	0.18873973
173	0xbe096f49	-0.13421358
174	0x3d9937fd	0.07481382
175	0x3d92bd1c	0.07164976
176	0xbe1c2992	-0.15250233
177	0x3ea3910d	0.31946602
178	0xbd36451e	-0.04449951
179	0xbe70ead5	-0.23527081
180	0x3e006674	0.12539083
181	0xbe8b6d51	-0.2723184
182	0xbe880d32	-0.26572567
183	0xbdc66e33	-0.096889876
184	0xbe8ddaa5	-0.27705875
185	0xbe549e3f	-0.20763491
186	0xbe4ea864	-0.20181423
187	0xbe6adbd3	-0.22935419
188	0xbc8f59ee	-0.017498937
189	0xbd9010e8	-0.070344746
190	0xbdd46c59	-0.10372228
191	0x3d190f29	0.037367973
192	0xbe36e2cc	-0.17859954
193	0x3ee716ed	0.45134678
194	0xbe1ca6f7	-0.15298067
195	0x3e4d96f6	0.20077118
196	0xbe2e82f5	-0.17042144
197	0x3ed55e2c	0.4167341
198	0x3daeee69	0.08541567
199	0x3e5acafd	0.21366496
200	0xbea0373d	-0.31292143
201	0x3d7d25ab	0.0618035
202	0x3d8f216e	0.06988798
203	0xbd393b5b	-0.04522262
204	0xbe0627ad	-0.13101073
205	0x3e57852f	0.210469
206	0x3e467bf1	0.19383217
207	0x3e503a8c	0.20334834
208	0x3dee2dbc	0.11629817
209	0xbe9c7e77	-0.30565235
210	0x3d8c108c	0.068390936
211	0xbd032408	-0.032016784
212	0xbe0f61a0	-0.14002085
213	0x3edeb3d4	0.43496573
214	0x3db8d89a	0.090256885
215	0x3db1e50b	0.086862646
216	0x3ed15a6c	0.408893
217	0x3b9bfc52	0.0047603035
218	0x3e392629	0.18080963
219	0x3ddbbac5	0.10728983
220	0x3d3499b7	0.044091906
221	0x3ee5308c	0.447636
222	0x3e19d0d4	0.15021068
223	0x3e98826d	0.29787007
224	0x3dbf5b44	0.093435794
225	0xbea85963	-0.32880697
226	0x3e49d642	0.19710639
227	0xbeef1afb	-0.46700272
228	0x3d9a3acc	0.07530746
229	0xbf05cf5f	-0.5226955
230	0xbe2068c9	-0.15664972
231	0xbd902aca	-0.07039411
232	0x3e88e551	0.26737455
233	0x3e8c06af	0.2734885
234	0x3cb3cf4e	0.021949437
235	0xbdbf9d5b	-0.09356185
236	0xbd957ba9	-0.07298977
237	0xbcca9d1c	-0.024733119
238	0xbdd56d77	-0.104212694
239	0xbd5920c0	-0.05300975
240	0x3e9a97b4	0.30193865
241	0x3d29e8d3	0.041481804
242	0xbdb0b5ac	-0.08628401
243	0xbeaa1f7f	-0.33227155
244	0xbd1dc72b	-0.03852002
245	0xbec02816	-0.37530583
246	0x3d5d981b	0.054100137
247	0xbe01e1fb	-0.12683861
248	0xbce43899	-0.02785902
249	0x3da85424	0.082191736
250	0xbe5d9362	-0.21638253
251	0x3e6cfbcf	0.23142932
252	0xbdd1db52	-0.1024691
253	0xbed3c1a7	-0.41358683
254	0xbe1b880b	-0.15188615
255	0xbe861fde	-0.26196188
