models/QLSTM_qal_epochs6.pth (torch, 168269 bytes, 76 tensors)

layers.0.wfx.r_weight f4 [1, 32]
-0.619227 0.028058436 -0.81448394 -0.43125966 -0.47271144 0.37873587 -0.28348523 -0.43711355
-0.5602301 -0.5615961 -0.23508203 -0.018323077 -0.52437454 -0.51727724 -0.40155253 -0.75414443
-0.4232181 -0.18282068 -0.34496328 -0.071734734 -0.29878518 -0.67733514 -0.22965792 -0.25111255
-0.57105225 -0.55337274 -0.30823714 -0.28554428 -0.6016281 -0.6224021 -0.2442083 -0.6707086
00000000: a985 1ebf ceda e53c 0582 50bf 11ce dcbe
00000010: 3c07 f2be abe9 c13e fa24 91be 59cd dfbe
00000020: 3d6b 0fbf c3c4 0fbf 58b9 70be 471a 96bc
00000030: 693d 06bf 486c 04bf 4b98 cdbe 9c0f 41bf
00000040: 0bb0 d8be 5835 3bbe 079f b0be a9e9 92bd
00000050: 5ffa 98be d665 2dbf 722b 6bbe d391 80be
00000060: 7b30 12bf d6a9 0dbf 42d1 9dbe dc32 92be
00000070: 4d04 1abf be55 1fbf be11 7abe 8fb3 2bbf

layers.0.wfx.i_weight f4 [1, 32]
0.18059865 0.044885598 -0.054970864 -0.06312219 -0.06714497 0.115648605 -0.060124543 -0.07857418
0.11521786 0.12854137 0.06090255 0.069429815 -0.03587492 0.16294557 0.0045840056 0.12712222
-0.0044969963 -0.013460185 -0.1899027 -0.11650922 0.18731421 0.20509373 -0.0026291707 0.09267377
0.067326 0.09905733 -0.060379084 0.03173493 0.14843078 0.121236816 0.04465271 0.00045776382
00000000: daee 383e f6d9 373d 2129 61bd 3546 81bd
00000010: 4d83 89bd 2dd9 ec3d 2745 76bd 80eb a0bd
00000020: 57f7 eb3d 59a0 033e f474 793d 3831 8e3d
00000030: 95f1 12bd 34db 263e 6d35 963b 542c 023e
00000040: 8a5b 93bb 1c88 5cbc da75 42be 639c eebd
00000050: 4ccf 3f3e 1704 523e 2a4e 2cbb bfcb bd3d
00000060: 37e2 893d 92de ca3d 0f50 77bd 7cfc 013d
00000070: 3dfe 173e 024b f83d c3e5 363d 0500 f039

layers.0.wfx.j_weight f4 [1, 32]
0.05103451 0.18978035 0.12201169 0.063372746 0.06884312 -0.08861517 0.17971353 0.022566738
0.11400901 -0.06297583 -0.028062792 -0.12444967 0.06504775 -0.09231358 0.23550488 0.0032139204
-0.050733604 0.040926848 0.14717634 0.20577227 0.009221964 0.03551391 -0.049265813 0.23510422
0.24566144 0.16621235 0.072121255 -0.06406549 -2.3058288e-05 0.04091228 0.22399601 0.18982051
00000000: 9009 513d c855 423e 44e1 f93d 92c9 813d
00000010: 9ffd 8c3d df7b b5bd d306 383e e1dd b83c
00000020: 8e7d e93d 79f9 80bd f1e3 e5bc 78df febd
00000030: c137 853d e70e bdbd 3128 713e a3a0 523b
00000040: 0ace 4fbd e9a2 273d 65b5 163e f7b5 523e
00000050: b817 173c 0977 113d f3ca 49bd 29bf 703e
00000060: ac8e 7b3e 9233 2a3e 4fb4 933d c534 83bd
00000070: 4c6d c1b7 a393 273d 365f 653e 4f60 423e

layers.0.wfx.k_weight f4 [1, 32]
0.15918727 0.25976554 0.035446778 0.047636155 0.04344432 -0.20944056 -0.07228095 -0.033781197
0.035788946 -0.10821763 0.15782507 -0.022670688 0.09779695 0.022660136 0.15703371 0.108187616
-0.023162382 -0.047660604 -0.008035022 0.29455587 0.07977649 0.05917089 0.16580233 -0.07600259
0.120960735 0.016788473 0.0073565915 0.07173951 0.045098 -0.061372526 -0.08325276 0.039057262
00000000: fd01 233e fdff 843e a430 113d 211e 433d
00000010: acf2 313d 9677 56be 0908 94bd 275e 0abd
00000020: 6e97 123d 34a1 ddbd e59c 213e e1b7 b9bc
00000030: c449 c83d c0a1 b93c 72cd 203e 7891 dd3d
00000040: 09bf bdbc c437 43bd 53a5 03bc 07d0 963e
00000050: db61 a33d 2d5d 723d 16c8 293e 3fa7 9bbd
00000060: 43ba f73d fb87 893c 900f f13b 2aec 923d
00000070: aeb8 383d c261 7bbd 6c80 aabd 82fa 1f3d

layers.0.wfx.bias f4 [128]
-1.2502031 -0.1738868 -1.6324716 -1.637149 -1.4614481 0.18162726 -0.70880324 -0.2865418
-0.7729076 -1.1783296 -0.03849312 -0.11002091 -1.819511 -1.4460795 -0.67217606 -1.0663149
-0.108461685 -0.043751545 -0.64521146 -0.6024341 -0.1908312 -0.14113311 -0.15819733 -0.40212715
-0.45747823 -0.14374371 -0.046015255 -0.6717943 -0.73455113 -0.44527462 -0.3562437 -1.7536119
-1.4940963 -0.2308964 -1.4586966 -1.4862267 -1.5807596 -0.18021028 -0.8404023 -0.30144104
-0.50363845 -1.0446527 -0.056042694 -0.07172356 -1.5784252 -1.5938629 -1.419031 -0.80506855
-0.18030179 -0.16139962 -0.49803594 -0.39209545 -0.24160206 -0.4545062 -0.70693886 -0.4406913
-0.20302275 -0.31659737 -0.11777279 -0.82040393 -0.6643647 -0.7723753 -0.2760231 -1.6928428
-1.0391635 -0.17777067 -1.2791517 -1.6484799 -1.6456119 0.1092189 -0.64666706 -0.24404168
-0.65560496 -1.0388457 -0.020921506 -0.1406816 -1.7541802 -1.6002841 -1.1459252 -1.0184277
-0.13789825 -0.11254431 -0.66374916 -0.42525682 -0.13759811 -0.14203769 -0.58114105 -0.49997002
-0.18584253 -0.10828044 -0.02771731 -0.413805 -0.8441969 -0.5844004 -0.38478696 -1.5004544
-1.4695668 -0.3474467 -1.6141521 -1.340385 -1.590978 0.016181882 -0.58893514 -0.15940332
-0.85884166 -0.9926837 0.027703514 -0.20879403 -1.613694 -1.6035733 -1.2315105 -0.75989133
-0.30864012 -0.14100903 -0.73060006 -0.5461605 -0.34047902 -0.23256224 -0.22517061 -0.6347957
-0.3333577 -0.3013768 -0.0077492734 -0.3852159 -1.0229107 -0.67627895 -0.24996959 -1.4744232
00000000: a806 a0bf 620f 32be d4f4 d0bf 198e d1bf
00000010: bb10 bbbf 7ffc 393e 2174 35bf 9bb5 92be
00000020: 46dd 45bf 81d3 96bf f6aa 1dbd a552 e1bd
00000030: bde5 e8bf 2219 b9bf bb13 2cbf 027d 88bf
00000040: 2921 debd d234 33bd 942c 25bf 1f39 1abf
00000050: 4169 43be 3385 10be 7bfe 21be 9ce3 cdbe
00000060: 963a eabe 8d31 13be 7e7a 3cbd b6fa 2bbf
00000070: 8b0b 3cbf 09fb e3be 9365 b6be 5b76 e0bf
00000080: 8c3e bfbf 1b70 6cbe 92b6 babf ad3c bebf
00000090: 5556 cabf 0b89 38be 9b24 57bf 7b56 9abe
000000a0: 73ee 00bf 2eb7 85bf 068d 65bd cde3 92bd
000000b0: d609 cabf b303 ccbf cfa2 b5bf f918 4ebf
000000c0: 08a1 38be f145 25be 91fe febe bcc0 c8be
000000d0: 8866 77be 09b5 e8be f2f9 34bf 4aa2 e1be
000000e0: 32e5 4fbe 0d19 a2be dc32 f1bd fe05 52bf
000000f0: ce13 2abf 63ba 45bf e652 8dbe 13af d8bf
00000100: 4f03 85bf 8409 36be 3ebb a3bf 6401 d3bf
00000110: 69a3 d2bf 29ae df3d f98b 25bf 10e6 79be
00000120: bad5 27bf e5f8 84bf 9463 abbc d60e 10be
00000130: fa88 e0bf 1cd6 ccbf adad 92bf d75b 82bf
00000140: 3335 0dbe a27d e6bd 77eb 29bf 43bb d9be
00000150: 85e6 0cbe 5472 11be a9c5 14bf 12fc ffbe
00000160: 814d 3ebe 23c2 ddbd 690f e3bc 40de d3be
00000170: 4a1d 58bf 449b 15bf cc02 c5be e40e c0bf
00000180: c41a bcbf 89e4 b1be 899c cebf bc91 abbf
00000190: 2ba5 cbbf de8f 843c 74c4 16bf a03a 23be
000001a0: 0cdd 5bbf 8520 7ebf 7bf2 e23c 1ace 55be
000001b0: 868d cebf e441 cdbf 23a2 9dbf 3d88 42bf
000001c0: 1406 9ebe ac64 10be 9b08 3bbf 2dd1 0bbf
000001d0: 4453 aebe cc24 6ebe 2093 66be f981 22bf
000001e0: dcad aabe 0f4e 9abe 9eed fdbb 053b c5be
000001f0: bdee 82bf 9e20 2dbf 07f8 7fbe e6b9 bcbf

layers.0.ufh.r_weight f4 [32, 32]
0.023165831 -0.11698257 0.1924642 -0.17183465 0.19544542 -0.5433218 0.07704965 0.20639734
-0.11446114 0.078383125 0.095774114 -0.054157544 0.041345254 0.26571316 -0.18853956 0.19477874
0.07288101 0.24231283 0.16423288 -0.08460841 -0.25075573 -0.21409029 0.27188566 -0.19352229
0.23205014 0.062495273 -0.07267243 -0.2262046 0.11491481 -0.09963652 0.24735756 0.10500103
0.2454535 0.03304903 0.30899686 0.07663853 0.4431196 0.28465745 0.10631773 0.076091565
0.11121858 0.014140799 -0.22213213 -0.034603298 0.0021299133 0.14993209 0.038551163 -0.098139934
-0.18132894 -0.2175174 -0.25076935 -0.041759986 -0.22429919 -0.61506367 -0.47106323 -0.13325988
-0.07748813 -0.15704814 -0.15738587 -0.081075415 0.25747117 -0.27488217 -0.27875468 0.31059727
-0.27521095 -0.046335284 -0.15627389 0.11502662 -0.16999719 -0.07505333 -0.38546744 -0.07674591
0.22360863 -0.15427801 -0.17618394 -0.19806948 -0.0063775815 -0.021826914 -0.22034618 0.31340772
-0.011320089 0.34935433 0.017247586 -0.075164355 0.15942664 -0.21265239 0.053480927 -0.033038747
0.19623226 0.09644091 -0.075222924 -0.30851546 0.15630375 -0.24899702 -0.36288375 -0.20162055
-0.03302078 -0.14906782 0.09087077 0.043064 -0.09446027 -0.13348533 -0.003891981 -0.046289906
-0.06930466 0.03629569 0.12152123 0.035301805 -0.3575922 0.21681559 -0.018375328 0.34627682
0.17579322 0.121881455 0.077242605 -0.21298587 0.14704362 0.20551614 0.16329741 0.21917255
0.035515398 -0.021757156 0.14657958 0.04022007 -0.15175296 -0.07776121 -0.11530781 -0.08205217
0.07232845 0.1989107 0.19130333 -0.06041747 0.08014558 -0.1306934 0.27631 0.18527834
-0.08323998 -0.0709943 -0.046741936 -0.09666807 0.13142754 -0.039487995 -0.020756984 -0.1247217
0.2536642 -0.042440575 -0.15789936 0.052012164 -0.15412581 -0.10345808 -0.33670253 0.15503426
-0.0457256 -0.30903423 0.039985858 0.122135095 0.0074782604 0.2189523 -0.2067251 0.14079383
0.53779 0.47191745 0.35046494 -0.015572843 0.34969357 0.4511289 -0.022266582 0.19188511
0.20319524 0.22734803 -0.29240137 0.12916322 0.23983245 0.6530521 0.17724462 0.042484522
-0.26095477 -0.20656207 0.13904645 0.4947199 0.18450344 0.024469556 -0.17633636 -0.020205159
0.17278706 -0.55190265 0.43998706 0.22724856 0.20052266 0.22416344 0.3492048 0.5302777
-0.16032583 0.08135002 -0.1440699 0.102701895 0.016841376 -0.32866877 0.13586874 0.14788973
0.030812122 -0.065628596 0.08362636 -0.14048596 -0.14816435 -0.008089024 -0.22104606 -0.059002776
0.28275487 -0.018238066 -0.049596883 0.14046441 -0.08366562 -0.023946198 0.28943628 -0.17471375
0.0012182872 0.15352675 -0.16428451 0.020510875 -0.073873974 0.1326492 -0.32600996 -0.25543806
-0.021931225 -0.010215582 -0.115368426 -0.07074597 0.110290855 -0.20752321 0.015417285 0.06344343
-0.47996566 -0.15585811 0.15088017 -0.021513227 -0.10422531 0.00014843907 0.20940198 -0.04401159
0.13103761 0.28924036 -0.19481395 0.076781236 0.07484325 0.5077945 0.33234757 0.03078271
0.024604283 0.5198449 0.007308267 0.32306018 -0.059686918 0.18193431 0.06353569 0.098084144
00000000: 45c6 bd3c 8f94 efbd 5615 453e 6cf5 2fbe
00000010: d822 483e 2317 0bbf 35cc 9d3d d359 533e
00000020: 9a6a eabd 5587 a03d 3825 c43d 4dd4 5dbd
00000030: a459 293d 8e0b 883e 8410 41be 1474 473e
00000040: a442 953d db20 783e aa2c 283e 2d47 adbd
00000050: 0e63 80be 7c3a 5bbe 9934 8b3e b52a 46be
00000060: 8d9e 6d3e 0bfb 7f3d 48d5 94bd 2ea2 67be
00000070: 7558 eb3d 3b0e ccbd 4d4b 7d3e c80a d73d
00000080: 2a58 7b3e 6b5e 073d d634 9e3e a9f4 9c3d
00000090: 92e0 e23e 9fbe 913e 1cbd d93d e5d5 9b3d
000000a0: 91c6 e33d cfae 673c 9b76 63be 30bc 0dbd
000000b0: 0496 0b3b cc87 193e d3e7 1d3d 97fd c8bd
000000c0: 4bae 39be e2bc 5ebe d764 80be 850c 2bbd
000000d0: b0ae 65be d074 1dbf 332f f1be 4775 08be
000000e0: 19b2 9ebd 3ad1 20be c329 21be de0a a6bd
000000f0: 43d3 833e 5bbd 8cbe efb8 8ebe 9b06 9f3e
00000100: 73e8 8cbe 11ca 3dbd 4306 20be 1493 eb3d
00000110: be13 2ebe 8fb5 99bd fd5b c5be f62c 9dbd
00000120: a9f9 643e 0efb 1dbe 9069 34be bad2 4abe
00000130: 08fb d0bb 5bce b2bc 6ea2 61be fa76 a03e
00000140: e577 39bc 92de b23e cf4a 8d3c c5ef 99bd
00000150: bd40 233e 8cc1 59be d10e 5b3d a353 07bd
00000160: 1cf1 483e d082 c53d 7a0e 9abd bdf5 9dbe
00000170: 170e 203e 13f9 7ebe e6cb b9be 9e75 4ebe
00000180: cc40 07bd 3ca5 18be 741a ba3d e063 303d
00000190: 6374 c1bd 61b0 08be 9b10 7fbb 7c9a 3dbd
000001a0: 9aef 8dbd caaa 143d 1fe0 f83d a098 103d
000001b0: 5316 b7be e804 5e3e db87 96bc 324b b13e
000001c0: 2303 343e fc9c f93d 5f31 9e3d f818 5abe
000001d0: 9a92 163e d372 523e 7037 273e c56e 603e
000001e0: 9878 113d 103c b2bc f518 163e cdbd 243d
000001f0: 2165 1bbe 4541 9fbd 8026 ecbd f80a a8bd
00000200: f020 943d 3faf 4b3e 05e5 433e 4f78 77bd
00000210: 5e23 a43d 7ed4 05be 8178 8d3e 9bb9 3d3e
00000220: b979 aabd 7665 91bd 7974 3fbd e9f9 c5bd
00000230: f194 063e 2abe 21bd 8d0a aabc 176e ffbd
00000240: 46e0 813e 2bd6 2dbd 5fb0 21be b50a 553d
00000250: 28d3 1dbe d4e1 d3bd 4664 acbe 4dc1 1e3e
00000260: c44a 3bbd bc39 9ebe 36c8 233d f721 fa3d
00000270: 320c f53b 0835 603e bfaf 53be 422c 103e
00000280: 9bac 093f 2a9f f13e 2470 b33e 3d25 7fbc
00000290: 090b b33e 5efa e63e 6868 b6bc 887d 443e
000002a0: 6a12 503e eccd 683e a2b5 95be 5d43 043e
000002b0: a396 753e 6c2e 273f 9d7f 353e 4004 2e3d
000002c0: dd9b 85be 0285 53be 3162 0e3e ed4b fd3e
000002d0: 78ee 3c3e 6174 c83c 8591 34be 4a85 a5bc
000002e0: 17ef 303e 7e49 0dbf fc45 e13e d9b3 683e
000002f0: d055 4d3e 1a8b 653e f9ca b23e 48c0 073f
00000300: 742c 24be d79a a63d 0f87 13be 5f55 d23d
00000310: edf6 893c 4647 a8be 2d21 0b3e 6870 173e
00000320: b469 fc3c 4968 86bd 4c44 ab3d 8ddb 0fbe
00000330: 65b8 17be d387 04bc e659 62be e5ac 71bd
00000340: 3fc5 903e ff67 95bc 1a26 4bbd e7d5 0f3e
00000350: e158 abbd d12a c4bc fe30 943e 29e8 32be
00000360: efae 9f3a 1e36 1d3e 333a 28be 6c06 a83c
00000370: 3d4b 97bd 31d5 073e c7ea a6be c7c8 82be
00000380: 1da9 b3bc 425f 27bc 4846 ecbd 43e3 90bd
00000390: 2ce0 e13d f780 54be c898 7c3c a1ee 813d
000003a0: 0fbe f5be 4599 1fbe 5580 1a3e 823c b0bc
000003b0: 1474 d5bd 4fa6 1b39 796d 563e 7f45 34bd
000003c0: b92e 063e 5017 943e 4f7d 47be 7b3f 9d3d
000003d0: 6b47 993d d2fe 013f 7629 aa3e 062c fc3c
000003e0: ec8e c93c 8e14 053f 307a ef3b 2568 a53e
000003f0: 457a 74bd fd4c 3a3e 001f 823d 57e0 c83d

layers.0.ufh.i_weight f4 [32, 32]
0.0022660987 0.24317159 -0.057109885 -0.023164313 0.11017841 -0.15166624 0.036964986 0.047737878
0.003051138 0.043409638 -0.005613563 -0.22209866 0.09411688 -0.060978163 0.0012609713 -0.07635936
-0.06718698 -0.0693123 -0.07204313 0.08796463 0.2373443 -0.13412689 -0.0031420058 0.20015584
-0.224697 -0.18004856 0.1871467 -0.17537686 -0.0020708488 -0.119790666 -0.12526824 -0.0058927
0.24328674 -0.12919793 -0.14989029 0.08431012 0.10261577 0.39653122 0.041124973 0.039492168
0.065210775 -0.025988732 -0.038553398 0.0783354 0.27201968 0.13225204 0.016886434 0.07806021
-0.008038255 -0.04133398 -0.098885305 0.020388545 0.03173771 -0.17433032 0.09148306 0.12873858
-0.10167066 -0.056129407 0.094781056 0.34652486 0.037899286 0.072778784 0.36334234 0.012639082
0.22813514 -0.09451811 -0.024916433 -0.049954522 0.093963355 -0.03137634 -0.1692958 -0.090668775
-0.16649315 -0.18998076 0.076874465 0.018037345 0.22914226 -0.0012656267 0.09867026 -0.14602849
0.27215296 0.030727196 -0.33956674 0.029449765 0.20723435 -0.2605367 0.2458203 0.22370566
-0.10434382 0.18903403 -0.07446382 0.057381816 0.07208721 -0.11441322 -0.4634375 0.22851276
0.0076754135 -0.016947186 0.056641173 0.15059371 0.14716174 0.102962434 0.23156618 0.012925958
-0.14478317 0.043781057 0.118243456 0.07062832 0.14835896 0.20856647 0.23400441 0.053248405
0.20597374 0.20078638 -0.08901703 0.1911156 -0.054840483 -0.14744243 -0.16406499 -0.01643654
0.09987274 0.08900083 -0.0835783 0.021689499 0.17232113 0.051282324 -0.03727494 0.12252907
0.021491462 -0.15532821 -0.025858123 -0.039110925 -0.06137107 0.3357669 -0.032210723 -0.008673989
0.0015864077 0.19192123 -0.16683266 -0.21368162 0.018554144 0.2280476 0.0008071423 -0.120188996
-0.30077735 -0.10355261 0.18322764 0.008827681 0.023518473 -0.20695598 -0.12545054 -0.18030311
0.2930765 -0.30588713 0.11914427 -0.07773148 -0.26161706 -0.055350017 -0.061588537 -0.044235047
0.017908642 -0.07212166 0.021775061 0.09205417 0.16743325 0.24066556 -0.09165611 0.101338126
0.2495547 0.03317129 0.0037296899 -0.19689602 -0.047697894 0.17176825 0.0358694 0.20298354
0.04483142 0.121841595 0.34881383 0.29937825 0.1340986 -0.11090716 0.017415514 -0.08455786
0.14842941 -0.6821179 -0.09102526 0.16974401 -0.33361003 0.06349391 0.6888589 0.1862647
-0.21672377 -0.19254655 -0.029198142 -0.06210002 -0.02519609 0.032265868 -0.0045474283 0.083629325
-0.13976929 0.06742366 -0.10923544 -0.05996387 -0.14740753 0.04611942 0.015051308 -0.15980372
0.095565066 -0.09042905 -0.042345304 -0.03896313 -0.2491435 -0.016740419 0.2805674 0.040105134
0.05320157 0.24017422 0.34796336 0.31321302 0.18883377 0.064269334 -0.17132491 -0.030566545
0.07796257 -0.075100556 -0.13625084 0.03771712 -0.08502906 -0.06376179 -0.22040755 -0.09862884
0.08180407 -0.032199997 0.0039964644 -0.0143058 0.11779962 -0.054080315 0.10248183 0.065486684
-0.07503369 0.09614693 0.013841054 -0.14016901 -0.094463386 -0.16891469 -0.47935238 -0.058652725
0.048008155 -0.2621833 -0.08840336 -0.26543656 -0.12203627 -0.11626855 -0.28362733 -0.09130149
00000000: d482 143b f901 793e 0eec 69bd 16c3 bdbc
00000010: 38a5 e13d 654e 1bbe 9968 173d cb88 433d
00000020: 9af5 473b 4ece 313d fbf1 b7bb d56d 63be
00000030: 5ac0 c03d 3dc4 79bd 2d47 a53a 4c62 9cbd
00000040: 5499 89bd 9bf3 8dbd 598b 93bd cd26 b43d
00000050: 620a 733e 8f58 09be 1cea 4dbb a7f5 4c3e
00000060: f816 66be a65e 38be 62a3 3f3e fe95 33be
00000070: 14b7 07bb cf54 f5bd 5146 00be 8d17 c1bb
00000080: 2920 793e 764c 04be d77c 19be c9aa ac3d
00000090: 3828 d23d 2406 cb3e a972 283d 8ac2 213d
000000a0: 3a8d 853d 52e6 d4bc 2bea 1dbd 4f6e a03d
000000b0: 2a46 8b3e 146d 073e 6b55 8a3c 08de 9f3d
000000c0: e3b2 03bc d24d 29bd 6184 cabd e105 a73c
000000d0: 67ff 013d a683 32be 785b bb3d 0cd4 033e
000000e0: b538 d0bd f3e7 65bd 921c c23d b56b b13e
000000f0: 483c 1b3d 0b0d 953d 0208 ba3e 2714 4f3c
00000100: 429c 693e b692 c1bd 8c1d ccbc 1d9d 4cbd
00000110: dc6f c03d 7a84 00bd e15b 2dbe 8db0 b9bd
00000120: 2e7d 2abe 518a 42be 5c70 9d3d 0ec3 933c
00000130: 45a4 6a3e 63e3 a5ba a213 ca3d 7e88 15be
00000140: a257 8b3e 9ab7 fb3c b1db adbe a240 f13c
00000150: 3e35 543e 1165 85be 51b8 7b3e 1913 653e
00000160: 36b2 d5bd 2392 413e 7d80 98bd 3209 6b3d
00000170: 76a2 933d 7a51 eabd ae47 edbe 40ff 693e
00000180: 0982 fb3b d3d4 8abc 9300 683d 3d35 1a3e
00000190: 91b1 163e f8dd d23d af1f 6d3e 66c7 533c
000001a0: 0a42 14be c453 333d a029 f23d 95a5 903d
000001b0: 69eb 173e 7392 553e da9e 6f3e 001b 5a3d
000001c0: c8ea 523e f29a 4d3e 904e b6bd cfb3 433e
000001d0: 6aa0 60bd 26fb 16be a700 28be eca5 86bc
000001e0: 148a cc3d 1146 b63d 1a2b abbd 2dae b13c
000001f0: f374 303e 6a0d 523d 9cad 18bd 85f0 fa3d
00000200: dd0e b03c 5c0e 1fbe 6ad4 d3bc c732 20bd
00000210: 3b60 7bbd a4e9 ab3e 64ef 03bd 591d 0ebc
00000220: 02ef cf3a 0087 443e 2ed6 2abe 5bcf 5abe
00000230: dcfe 973c 4f85 693e 6796 533a a625 f6bd
00000240: 7dff 99be 6413 d4bd 07a0 3b3e faa1 103c
00000250: d0a9 c03c 45ec 53be 1b76 00be 61a1 38be
00000260: 1f0e 963e 3d9d 9cbe e901 f43d af31 9fbd
00000270: acf2 85be b3b6 62bd 4344 7cbd cf2f 35bd
00000280: 25b5 923c 85b4 93bd 9d61 b23c e686 bc3d
00000290: 9f73 2b3e 0871 763e 33b6 bbbd 5d8a cf3d
000002a0: 448b 7f3e 9ede 073d d06d 743b 1c9f 49be
000002b0: de5e 43bd 04e4 2f3e cbeb 123d ebda 4f3e
000002c0: 27a1 373d 1688 f93d ba97 b23e 1b48 993e
000002d0: 2551 093e 4b23 e3bd fbaa 8e3c ac2c adbd
000002e0: e1fd 173e 479f 2ebf 746b babd 60d1 2d3e
000002f0: efce aabe 1809 823d 0f59 303f 2cbc 3e3e
00000300: d6ec 5dbe ec2a 45be f130 efbc 975c 7ebd
00000310: 0868 cebc 3729 043d 9802 95bb da45 ab3d
00000320: ae1f 0fbe 6a15 8a3d d5b6 dfbd ad9c 75bd
00000330: 00f2 16be b8e7 3c3d c399 763c 96a3 23be
00000340: 9eb7 c33d de32 b9bd 4572 2dbd ce97 1fbd
00000350: 791f 7fbe 3423 89bc 88a6 8f3e 4845 243d
00000360: e4e9 593d 3bf0 753e 4128 b23e 755d a03e
00000370: a45d 413e a49f 833d cc6f 2fbe b166 fabc
00000380: d7aa 9f3d 52ce 99bd 5785 0bbe 447d 1a3d
00000390: b723 aebd 8b95 82bd 84b2 61be ebfd c9bd
000003a0: e488 a73d 25e4 03bd c6f4 823b e062 6abc
000003b0: ed40 f13d 5283 5dbd fee1 d13d e21d 863d
000003c0: 43ab 99bd aee8 c43d 97c5 623c 7788 0fbe
000003d0: 0576 c1bd f9f7 2cbe ad6d f5be d73d 70bd
000003e0: 33a4 443d e43c 86be d20c b5bd 4de7 87be
000003f0: 27ee f9bd 351e eebd 9a37 91be 47fc babd

layers.0.ufh.j_weight f4 [32, 32]
-0.043364223 -0.20553131 -0.10768242 -0.10316743 -0.13498598 0.16460279 0.08466363 -0.1391633
-0.2722625 0.021833226 0.025971016 -0.02784525 -0.16764654 -0.013514137 0.1456266 -0.014795748
0.113784544 -0.06363002 0.044106103 -0.19612683 -0.029860679 0.024663437 -0.21592262 0.113316625
-0.2865212 -0.087138124 0.40007335 0.20676059 -0.076355964 0.07761473 0.08302427 -0.11276216
-0.11234278 -0.02789659 -0.12841848 -0.10934572 -0.09738038 0.033099018 0.05989867 -0.10653941
0.10020433 0.05779335 -0.06728092 0.08974139 -0.045724664 -0.16864295 -0.046701405 -0.20074919
-0.024200287 -0.11097888 -0.10077554 0.018192256 -0.20006353 -0.11304368 0.01874701 -0.024522806
0.0763483 0.21445827 -0.00259346 0.010845363 -0.12535752 0.050282285 -0.15320544 -0.12856996
-0.15147586 -0.14527638 -0.018314978 0.057781406 -0.019333428 0.041937854 -0.0702661 -0.2770862
-0.020487493 0.17627655 -0.02330583 -0.071667776 -0.0572031 -0.17022319 0.018392596 0.04404503
-0.017001908 0.13165508 0.08069374 -0.1978738 -0.33089012 -0.100866355 0.032740615 -0.11473698
-0.2652204 -0.14104573 -0.15401873 -0.10113909 0.08995278 0.014164407 -0.10719283 0.14693421
0.24417269 -0.1452597 0.05930076 -0.17644338 -0.18408078 -0.0042701187 0.069653176 -0.00018702664
-0.10604405 0.016955059 0.06494633 0.060562767 0.061635114 0.11436615 -0.12480612 0.1725061
-0.005897808 0.15661615 0.15714543 -0.31490073 -0.07080397 -0.046405923 -0.22860996 -0.119226374
-0.0057676663 -0.03349645 0.11862886 0.10826344 0.23282935 0.19291244 0.3073813 0.055437546
-0.014328426 -0.102180675 -0.19581561 0.13384204 -0.018562986 -0.21681541 -0.16371013 -0.16970128
-0.18248032 -0.12920204 0.026822355 0.12246791 0.05280469 0.08173965 -0.12905958 0.15701047
0.2648729 -0.20587367 0.017376723 -0.08732541 -0.38650084 -0.01102708 -0.10743612 -0.071871154
-0.25103447 0.07137804 0.03001985 0.008673814 -0.04817108 0.09954205 0.10222211 -0.006275429
0.08430011 0.043620836 -0.13578142 -0.07153081 -0.054178726 0.04231092 -0.17506929 0.06970013
0.16543765 -0.055455748 -0.033015687 0.0030654615 0.17973508 -0.0016848275 -0.21002302 0.35110754
-0.10620726 0.017561065 -0.17126974 0.060025122 0.10209994 -0.6220522 -0.60856736 -0.247308
-0.06561143 -0.22565496 0.1416382 0.34093148 0.19446075 -0.30809435 -0.015833378 -0.10245854
-0.1949853 0.15198058 -0.060938813 0.12744378 0.12540613 -0.093251236 0.134317 -0.19390786
0.047102354 -0.10242178 -0.019522477 -0.04657972 -0.24603884 0.12036816 0.19530971 -0.093498304
0.015717888 -0.05590424 0.01716146 -0.13508978 -0.36308274 0.19280447 0.19702546 0.07322916
0.025805186 0.075296566 -0.40881324 -0.26964292 -0.2672328 0.062269926 -0.26358014 -0.042115375
-0.12733999 -0.13369545 0.060896542 0.015077538 0.028692832 0.15546203 0.044981714 0.011580126
-0.055306196 0.033834644 -0.114639714 0.01896688 0.056306873 0.102519855 -0.10522428 0.027422603
-0.006201431 0.17390068 0.040586635 -0.12855673 -0.106256075 -0.10266798 -0.21633635 -0.020513328
-0.19212599 -0.10234263 0.2795847 0.19034517 0.0653822 -0.07175831 -0.14842267 0.15417202
00000000: af9e 31bd cd76 52be 9a88 dcbd 7249 d3bd
00000010: c439 0abe a28d 283e 2064 ad3d d380 0ebe
00000020: fe65 8bbe 98db b23c 2bc1 d43c b91b e4bc
00000030: 89ab 2bbe 666a 5dbc 241f 153e dd69 72bc
00000040: df07 e93d 7550 82bd 9aa8 343d 79d5 48be
00000050: 629e f4bc fa0a ca3c d21a 5dbe 8c12 e83d
00000060: e8b2 92be 7975 b2bd 6ad6 cc3e 0cb9 533e
00000070: 8460 9cbd 79f4 9e3d a108 aa3d d9ef e6bd
00000080: f913 e6bd 6487 e4bc 2280 03be a6f0 dfbd
00000090: 5d6f c7bd d692 073d 4f58 753d 5631 dabd
000000a0: ee37 cd3d b8b8 6c3d 94ca 89bd 55ca b73d
000000b0: c949 3bbd bdb0 2cbe f949 3fbd 3291 4dbe
000000c0: ae3f c6bc e548 e3bd 6863 cebd ed07 953c
000000d0: 74dd 4cbe 7283 e7bd 5493 993c 0de4 c8bc
000000e0: 7f5c 9c3d f39a 5b3e 0af7 29bb c0b0 313c
000000f0: b95d 00be ccf4 4d3d e3e1 1cbe d8a7 03be
00000100: 7d1c 1bbe 55c3 14be 4b09 96bc 32ac 6c3d
00000110: 2361 9ebc 07c7 2b3d ace7 8fbd 3ede 8dbe
00000120: 63d5 a7bc d781 343e deeb bebc 8ec6 92bd
00000130: cc4d 6abd fd4e 2ebe 12ac 963c 9068 343d
00000140: 9647 8bbc 97d0 063e c242 a53d 6e9f 4abe
00000150: 6e6a a9be 0593 cebd 061b 063d 39fb eabd
00000160: f8ca 87be 4b6e 10be 16b7 1dbe 0322 cfbd
00000170: 2a39 b83d d411 683c ea87 dbbd ec75 163e
00000180: 6808 7a3e f5be 14be 5be5 723d 93ad 34be
00000190: ac7f 3cbe 5aec 8bbb 53a6 8e3d 951c 44b9
000001a0: 9f2d d9bd 56e5 8a3c 9502 853d aa10 783d
000001b0: 1a75 7c3d cd38 ea3d 5a9a ffbd 70a5 303e
000001c0: 6642 c1bb fc5f 203e bbea 203e ab3a a1be
000001d0: ac01 91bd 2314 3ebd bb18 6abe f52c f4bd
000001e0: b1fe bcbb 9333 09bd b0f3 f23d 39b9 dd3d
000001f0: d16a 6e3e d78a 453e 1561 9d3e 7b12 633d
00000200: c6c1 6abc 1a44 d1bd e383 48be e30d 093e
00000210: 6711 98bc dc04 5ebe a1a3 27be 2cc6 2dbe
00000220: 1fdc 3abe 8a4d 04be 8eba db3c 75d0 fa3d
00000230: bb49 583d 1e67 a73d 3228 04be 5ac7 203e
00000240: 6c9d 873e 8cd0 52be a159 8e3c aad7 b2bd
00000250: 70e3 c5be edaa 34bc 7807 dcbd 2f31 93bd
00000260: 9787 80be a62e 923d 30ec f53c 9d1c 0e3c
00000270: 0a4f 45bd b4dc cb3d d359 d13d 1da2 cdbb
00000280: 89a5 ac3d c3ab 323d 490a 0bbe bf7e 92bd
00000290: 83ea 5dbd 374e 2d3d 5d45 33be f1be 8e3d
000002a0: 7d68 293e 9125 63bd 753b 07bd e9e5 483b
000002b0: 790c 383e 6ed5 dcba 4610 57be 5ec4 b33e
000002c0: 3183 d9bd 39dc 8f3c 5661 2fbe e7dc 753d
000002d0: c619 d13d d03e 1fbf 12cb 1bbf 4f3e 7dbe
000002e0: 495f 86bd 1812 67be 9b09 113e 928e ae3e
000002f0: b820 473e 8bbe 9dbe 00b5 81bc c8d5 d1bd
00000300: 3aaa 47be cca0 1b3e fa9a 79bd 9f80 023e
00000310: 776a 003e 81fa bebd 658a 093e c88f 46be
00000320: 66ee 403d 83c2 d1bd 9aed 9fbc 60ca 3ebd
00000330: 9bf1 7bbe 9583 f63d 45ff 473e 0a7c bfbd
00000340: cdc2 803c d8fb 64bd 3196 8c3c fa54 0abe
00000350: fbe5 b9be 896e 453e 0bc1 493e 2bf9 953d
00000360: 6665 d33c 1635 9a3d f84f d1be a30e 8abe
00000370: bdd2 88be c00e 7f3d faf3 86be 2c81 2cbd
00000380: 6a65 02be 76e7 08be a76e 793d c707 773c
00000390: 3b0d eb3c 7031 1f3e bf3e 383d 92ba 3d3c
000003a0: c088 62bd 3296 0a3d 3ac8 eabd 6e60 9b3c
000003b0: 09a2 663d eef5 d13d d47f d7bd 5ea5 e03c
000003c0: 6035 cbbb 0513 323e 2c3e 263d 60a4 03be
000003d0: c99c d9bd 9743 d2bd 4787 5dbe 910b a8bc
000003e0: adbc 44be 0399 d1bd ba25 8f3e d8e9 423e
000003f0: 1ae7 853d 05f6 92bd 1dfc 17be 45df 1d3e

layers.0.ufh.k_weight f4 [32, 32]
0.1104881 0.098915905 -0.10319789 0.025470525 0.1392795 -0.22442931 0.044323962 0.018685626
0.02183879 0.163289 0.020655725 0.12814397 0.076726384 0.122154474 0.04871288 0.021276448
-0.115875304 0.25441736 -0.022246927 0.025325064 -0.015876796 0.12317264 0.02332255 -0.021461979
0.06613115 0.16521874 0.2837112 0.28901577 0.110532664 0.08014088 0.13554247 0.07615232
-0.058247793 -0.045808338 -0.012617739 0.016679993 -0.05793555 -0.38141492 -0.17681237 -0.116969414
-0.2083795 -0.082273066 -0.010903293 0.013248687 0.03977208 0.05711306 -0.0461528 -0.0817117
-0.08083544 -0.04798314 -0.16591856 -0.4426552 -0.040622726 -0.017464401 0.06019651 0.072226234
0.0595372 0.05328942 -0.14920376 -0.20853955 -0.09832968 -0.023013873 0.16228025 0.07172238
-0.103032395 0.015089526 0.045564037 -0.10993014 -0.08407657 -0.26405042 -0.14643341 -0.07640178
0.11093544 0.07958249 -0.15459931 -0.105253026 -0.24277028 -0.1761429 0.008426372 -0.03207752
-0.25518653 -0.10173439 -0.08216658 -0.02342387 0.11379617 0.14427023 -0.14740483 0.08960717
0.23055784 -0.2767366 -0.0011871369 -0.12390945 -0.09501782 0.15632376 -0.18771555 0.15668033
0.20207782 0.29822057 0.04299526 0.044451896 0.23253837 0.037842184 -0.09864413 0.29665175
-0.06137153 0.14192036 0.0061041643 0.05738876 0.001678769 0.11207411 -0.031295136 -0.055420928
0.095226936 0.12759218 0.017889353 0.049102835 0.40656298 0.32568988 0.31040964 0.20384338
0.24949345 0.07655111 0.0009873973 0.001722118 0.2761792 0.26886478 -0.005720124 -0.0600861
0.012477192 -0.24489188 -0.079078734 0.05531151 -0.075659074 0.003978733 0.13475834 0.2258847
0.34727138 0.29170987 0.117126845 0.025573548 0.008979992 -0.061771236 0.04288655 -0.1655212
-0.14837247 -0.22416326 -0.061373964 -0.059164643 0.20371817 -0.07971835 0.10516329 0.2213946
0.095897004 0.122394465 0.06014268 0.05245407 0.05645318 -0.14972366 -0.12891503 -0.17074925
0.3325388 -0.08647309 -0.1710921 0.25218788 0.16313106 -0.572321 0.33577588 0.14121561
0.50958127 0.54057056 -0.31500393 0.0868785 0.24154873 -0.05285467 -0.2884429 -0.19926447
-0.22382271 0.091057554 0.14602235 -0.32815045 -0.049068686 -0.11079578 0.01755137 -0.14543727
-0.11289882 0.559385 0.7159004 0.00907382 -0.10279269 -0.08291162 -0.043248136 0.24395102
-0.15604903 -0.11938321 -0.06604478 -0.10496787 0.01607774 -0.34431222 -0.32320994 0.11239372
-0.13830388 -0.09307448 -0.02479439 -0.068939246 0.008994508 -0.037935875 -0.13557045 0.06679825
-0.06619414 -0.06917873 -0.07377547 -0.029386867 0.04179119 -0.21404628 -0.070466354 0.04453304
-0.14838435 0.19380279 -0.13840905 -0.19771667 -0.025343971 0.0149666555 0.17144485 -0.026770005
-0.15974857 0.16786306 0.02925894 0.2512106 0.005054009 0.13867843 0.039509024 0.05089421
-0.033996478 0.0617729 0.05197303 -0.001606208 0.072701074 0.05506314 -0.0045304843 -0.0631985
-0.08176585 0.07485258 0.04856362 0.16134161 -0.12518407 0.11836294 0.22451763 0.017331382
0.12886268 -0.065433085 0.0864491 0.070516385 0.109795965 -0.040893476 0.0052110604 0.023306115
00000000: 9647 e23d 6c94 ca3d 6a59 d3bd 90a7 d03c
00000010: 499f 0e3e ccd0 65be 0b8d 353d 9912 993c
00000020: 43e7 b23c 3b35 273e 3236 a93c 2c38 033e
00000030: b922 9d3d 202c fa3d 2887 473d f24b ae3c
00000040: 0850 edbd fe42 823e 303f b6bc 8276 cf3c
00000050: 0e10 82bc f041 fc3d ef0e bf3c 08d1 afbc
00000060: c56f 873d 1a2f 293e 9842 913e e0f9 933e
00000070: f35e e23d e720 a43d a5cb 0a3e bff5 9b3d
00000080: 3d95 6ebd 86a1 3bbd a2ba 4ebc 7ba4 883c
00000090: d44d 6dbd d148 c3be 4d0e 35be a98d efbd
000000a0: 7061 55be c87e a8bd baa3 32bc 0511 593c
000000b0: 0ce8 223d 62ef 693d b80a 3dbd 7758 a7bd
000000c0: 0d8d a5bd f889 44bd 8ee6 29be b4a3 e2be
000000d0: 0464 26bd 8111 8fbc 9e90 763d 59eb 933d
000000e0: 47dd 733d 0246 5a3d dfc8 18be 648b 55be
000000f0: 1261 c9bd 9787 bcbc cb2c 263e 2fe3 923d
00000100: a602 d3bd 0f3a 773c 5ba1 3a3d 0e23 e1bd
00000110: 5630 acbd 9e31 87be a4f2 15be 8978 9cbd
00000120: 1f32 e33d 25fc a23d 484f 1ebe e68e d7bd
00000130: c698 78be ce5e 34be c40e 0a3c b863 03bd
00000140: cfa7 82be 1f5a d0bd f446 a8bd 6ae3 bfbc
00000150: f70d e93d 93bb 133e 4bf1 16be f783 b73d
00000160: 5b17 6c3e 6bb0 8dbe b499 9bba 3dc4 fdbd
00000170: b498 c2bd 5613 203e 8138 40be cf70 203e
00000180: 7ded 4e3e 5eb0 983e cc1b 303d 3113 363d
00000190: 8a1e 6e3e 6800 1b3d ef05 cabd bde2 973e
000001a0: b760 7bbd 9253 113e 7105 c83b 7a10 6b3d
000001b0: 240a dc3a 1c87 e53d 542f 00bd 0e01 63bd
000001c0: 5706 c33d 86a7 023e b18c 923c 0e20 493d
000001d0: 0629 d03e d3c0 a63e 03ee 9e3e 52bc 503e
000001e0: 367b 7f3e d4c6 9c3d 8e6b 813a b1b8 e13a
000001f0: 5c67 8d3e a5a8 893e e16f bbbb d81c 76bd
00000200: 236d 4c3c f0c4 7abe 08f4 a1bd 528e 623d
00000210: 25f3 9abd 0860 823b 17fe 093e 524e 673e
00000220: 8ecd b13e ff5a 953e 33e0 ef3d 9e7f d13c
00000230: d120 133c d603 7dbd cfa9 2f3d 647e 29be
00000240: f4ee 17be 0e8b 65be 4463 7bbd a056 72bd
00000250: 7f9b 503e 6043 a3bd da5f d73d 44b5 623e
00000260: a665 c43d f3a9 fa3d 2c58 763d 14da 563d
00000270: 733b 673d 2951 19be 4d02 04be e4d8 2ebe
00000280: 8742 aa3e ce18 b1bd c432 2fbe c51e 813e
00000290: d40b 273e a183 12bf d1ea ab3e d39a 103e
000002a0: eb73 023f d562 0a3f 3248 a1be 5bed b13d
000002b0: 8d58 773e 237e 58bd caae 93be fc0b 4cbe
000002c0: c831 65be 627c ba3d e286 153e 5603 a8be
000002d0: 3ffc 48bd e6e8 e2bd e4c7 8f3c 82ed 14be
000002e0: 7f37 e7bd db33 0f3f 4045 373f 5caa 143c
000002f0: f984 d2bd 91cd a9bd f524 31bd 4cce 793e
00000300: 51cb 1fbe 2f7f f4bd 7c42 87bd 65f9 d6bd
00000310: 77b5 833c b149 b0be c67b a5be ae2e e63d
00000320: 889f 0dbe d59d bebd 9b1d cbbc 0530 8dbd
00000330: b35d 133c a662 1bbd fbd2 0abe 85cd 883d
00000340: cb90 87bd 94ad 8dbd 9817 97bd babc f0bc
00000350: 3d2d 2b3d f32e 5bbe aa50 90bd 4768 363d
00000360: 11f2 17be 3d74 463e 1abb 0dbe 3d76 4abe
00000370: 299e cfbc b436 753c 3d8f 2f3e c54c dbbc
00000380: 2195 23be 4be4 2b3e 72b0 ef3c ad9e 803e
00000390: 1a9c a53b b801 0e3e 37d4 213d 7276 503d
000003a0: e43f 0bbd 9505 7d3d ace1 543d 6687 d2ba
000003b0: 4de4 943d e389 613d 7574 94bb 376e 81bd
000003c0: db74 a7bd 4f4c 993d a5ea 463d bc36 253e
000003d0: 4130 00be 4568 f23d f3e7 653e 8bfa 8d3c
000003e0: 94f4 033e c801 86bd 3a0c b13d e56a 903d
000003f0: b5dc e03d eb7f 27bd 8bc1 aa3b 77ec be3c

layers.0.wix.r_weight f4 [1, 32]
-0.802459 0.16413428 -1.0753263 -0.714434 -1.0373573 0.33963624 -0.08532107 0.042112026
-0.2667375 -0.25404692 0.06593765 0.05726409 -1.3627851 -0.8614094 -0.35980687 -0.38084278
-0.23006365 -0.069420956 -0.49500877 -0.46470726 0.18779372 -0.2564073 -0.34872252 -0.12829505
0.15584129 -0.24128367 0.20156762 -0.49655718 -0.52316177 -0.39239758 0.096323766 -1.039313
00000000: f46d 4dbf d112 283e 4ba4 89bf 26e5 36bf
00000010: 20c8 84bf cde4 ad3e d0bc aebd a97d 2c3d
00000020: d191 88be 7012 82be 520a 873d c08d 6a3d
00000030: be6f aebf 5485 5cbf 9b38 b8be d3fd c2be
00000040: ce95 6bbe 932c 8ebd ca71 fdbe 1cee edbe
00000050: ff4c 403e d147 83be c28b b2be c75f 03be
00000060: dc94 1f3e 1113 77be be67 4e3e be3c febe
00000070: eeed 05bf 56e8 c8be 6545 c53d 3508 85bf

layers.0.wix.i_weight f4 [1, 32]
0.08582894 0.09888565 -0.14205755 -0.12458639 -0.087362155 -0.15029952 -0.00083204935 -0.15566954
0.12107138 0.08445094 -0.07026195 -0.014192988 -0.064262144 -0.2648413 0.046601173 0.08547021
-0.26444858 0.04874485 0.055277362 -0.11260352 -0.096838646 -0.01690925 0.2026848 -0.008709261
0.043896798 0.15281211 -0.010639519 0.0025499573 0.06717451 -0.22325289 0.05011647 0.09105447
00000000: 15c7 af3d 8f84 ca3d 8977 11be 2627 ffbd
00000010: eeea b2bd 1ee8 19be e31d 5aba d667 1fbe
00000020: 46f4 f73d 9df4 ac3d 7fe5 8fbd b589 68bc
00000030: df9b 83bd 4799 87be dfe0 3e3d 010b af3d
00000040: ce65 87be aea8 473d 846a 623d ad9c e6bd
00000050: 5753 c6bd 4485 8abc 9b8c 4f3e 4ab1 0ebc
00000060: 21cd 333d c77a 1c3e 6151 2ebc 2f1d 273b
00000070: ca92 893d 689c 64be ed46 4d3d c47a ba3d

layers.0.wix.j_weight f4 [1, 32]
-0.31224662 -0.03535463 -0.63430303 -0.19627321 0.2238758 0.076949105 0.15691362 0.19615982
-0.051515587 0.03607852 -0.042382147 0.15087491 -0.027231455 -0.16538733 -0.12112872 -0.14335655
-0.27716446 -0.038607106 0.14373611 -0.046351362 0.23068695 0.15504633 -0.027999965 -0.21287474
-0.0100968 -0.02773042 0.08521819 -0.10626515 0.04170904 -0.086523406 -0.07459771 0.16658035
00000000: cade 9fbe 04d0 10bd af61 22bf d8fb 48be
00000010: b33f 653e 7e97 9d3d f7ad 203e 1fde 483e
00000020: 0202 53bd 12c7 133d e798 2dbd f47e 1a3e
00000030: 8014 dfbc 4c5b 29be 5612 f8bd 0fcc 12be
00000040: 80e8 8dbe 7c22 1ebd 8f2f 133e edda 3dbd
00000050: 3339 6c3e 77c4 1e3e 2f60 e5bc d6fb 59be
00000060: 0c6d 25bc e82a e3bc e086 ae3d 8ba1 d9bd
00000070: 19d7 2a3d 2f33 b1bd afc6 98bd 0a94 2a3e

layers.0.wix.k_weight f4 [1, 32]
-0.16953044 0.017687982 -0.1112537 -0.15247296 0.013214779 0.055184476 -0.06479967 -0.14182493
-0.07650832 0.08403774 0.005147876 -0.09110815 0.03687381 0.17983851 -0.07408421 0.11010916
-0.233033 0.13569851 0.025760429 0.0019159099 -0.04357033 0.063711226 0.12932748 0.16877499
0.09060989 -0.12618421 -0.00998062 -0.062147558 0.150846 -0.11116829 0.036748793 0.027632972
00000000: 6399 2dbe 63e6 903c fbd8 e3bd df21 1cbe
00000010: cd82 583c 1e09 623d b0b5 84bd 8e3a 11be
00000020: 65b0 9cbd fb1b ac3d 84af a83b e996 babd
00000030: fe08 173d 9627 383e 76b9 97bd e980 e13d
00000040: 34a0 6ebe 8df4 0a3e 8907 d33c 451f fb3a
00000050: cd76 32bd 087b 823d 6c6e 043e 5ad3 2c3e
00000060: ae91 b93d 6f36 01be c185 23bc 708e 7ebd
00000070: 6077 1a3e 33ac e3bd e785 163d 8b5e e23c

layers.0.wix.bias f4 [128]
-1.3114706 0.0071580396 -1.4674569 -1.4471093 -1.9553442 -0.24984792 -0.56387573 -0.026467633
-0.61102355 -0.91570336 0.22653578 0.11209029 -2.1888242 -1.3618836 -0.623556 -0.86543936
0.0750765 0.2799851 -0.36292422 -0.56209177 -0.04620981 0.17371632 0.14776792 -0.3212997
-0.053809874 0.11404383 0.10683381 -0.31891575 -0.58196473 -0.077447295 -0.078618445 -1.8925999
-1.0908254 -0.097886525 -1.2606578 -1.4106115 -1.6012253 -0.17100379 -0.45783833 -0.093933575
-0.30431655 -1.0095198 0.30841416 0.25485846 -2.334915 -1.4291844 -0.9789414 -0.8427892
-0.0060309353 0.12755382 -0.43297908 -0.2926031 0.07241309 -0.090020955 -0.09328522 -0.26790664
0.09003825 0.050932232 0.075121075 -0.20863858 -0.6052408 -0.34334064 -0.26113382 -1.5316545
-1.4023339 -0.07978518 -1.3387077 -1.4451163 -1.6591696 -0.032838065 -0.5312239 -0.05276855
-0.4104808 -0.75638604 0.3133191 0.11127659 -2.4116228 -1.7958046 -0.90997386 -0.88540673
-0.0015822495 0.2539786 -0.40758762 -0.2975067 -0.05124134 -0.018254027 -0.3748236 -0.5087751
0.03792036 0.13429852 0.10365832 -0.002990058 -0.58262926 -0.23984672 -0.22552471 -1.7851027
-1.3637352 -0.0002687869 -1.3432038 -1.2602245 -1.7465646 -0.23920299 -0.46671394 0.14068693
-0.76256216 -0.88663876 0.19674413 0.1741802 -2.1927152 -1.6805644 -0.72356176 -0.73027825
0.019610943 0.23432231 -0.6501557 -0.34630954 0.0038200624 0.12735271 0.1381373 -0.36453205
-0.022745682 -0.013634366 0.07784052 -0.042750392 -0.87042797 -0.28455848 -0.13228709 -1.7858635
00000000: 45de a7bf fd8d ea3b a1d5 bbbf e13a b9bf
00000010: b848 fabf 22d8 7fbe 295a 10bf a6d2 d8bc
00000020: 0a6c 1cbf 896b 6abf fff8 673e 988f e53d
00000030: b215 0cc0 3452 aebf 5ea1 1fbf 6f8d 5dbf
00000040: b5c1 993d 355a 8f3e 34d1 b9be 3fe5 0fbf
00000050: 7f46 3dbd b1e2 313e 7950 173e 6581 a4be
00000060: be67 5cbd d08f e93d afcb da3d ed48 a3be
00000070: a4fb 14bf b09c 9ebd b502 a1bd b740 f2bf
00000080: 2ba0 8bbf bb78 c8bd 3c5d a1bf eb8e b4bf
00000090: f3f4 ccbf 9e1b 2fbe c969 eabe 3f60 c0bd
000000a0: 61cf 9bbe f237 81bf 76e8 9d3e cf7c 823e
000000b0: 3f6f 15c0 84ef b6bf e79b 7abf 08c1 57bf
000000c0: 279f c5bb 789d 023e 6faf ddbe 13d0 95be
000000d0: 504d 943d e85c b8bd 520c bfbd 0f2b 89be
000000e0: f965 b83d 519e 503d 14d9 993d 5aa5 55be
000000f0: 10f1 1abf 58ca afbe 55b3 85be 410d c4bf
00000100: ad7f b3bf 6a66 a3bd c65a abbf 92f9 b8bf
00000110: ab5f d4bf 3581 06bd 4afe 07bf d623 58bd
00000120: 8a2a d2be 84a2 41bf 5c6b a03e fbe4 e33d
00000130: 0758 1ac0 eddc e5bf 0cf4 68bf 04aa 62bf
00000140: 7c63 cfba 7c09 823e 53af d0be cc52 98be
00000150: 70e2 51bd 7889 95bc e1e8 bfbe 163f 02bf
00000160: 6152 1b3d 8d85 093e d04a d43d d9f4 43bb
00000170: 3127 15bf 619a 75be f3ef 66be 3f7e e4bf
00000180: e08e aebf f8eb 8cb9 1aee abbf 094f a1bf
00000190: 6e8f dfbf a1f1 74be 21f5 eebe 3c10 103e
000001a0: 4637 43bf c2fa 62bf 4b77 493e 4b5c 323e
000001b0: 7255 0cc0 bc1c d7bf 583b 39bf 84f3 3abf
000001c0: 21a7 a03c 30f2 6f3e 9b70 26bf 7c4f b1be
000001d0: 035a 7a3b c068 023e dd73 0d3e f2a3 babe
000001e0: 2755 babc ad62 5fbc da6a 9f3d 091b 2fbd
000001f0: 5ed4 5ebf a6b1 91be 4476 07be 2d97 e4bf

layers.0.uih.r_weight f4 [32, 32]
-0.11015146 0.007482733 -0.06608527 -0.2086399 0.13471895 -0.06896399 -0.17592058 0.25919068
0.112507105 -0.07546938 0.05777382 0.09867356 0.037277337 0.11341501 -0.008918761 0.14091502
0.14964601 0.14243376 -0.10216538 -0.14091288 -0.031586345 0.12099664 -0.046144232 0.07068258
-0.046602394 -0.04533383 0.031654887 -0.25168923 0.029260097 0.3435722 -0.09383767 -0.011088766
0.21730202 0.09877216 -0.20343506 -0.30577826 0.3079534 0.26299736 0.15713859 0.08291658
0.14537996 -0.37289515 -0.092648596 0.15634376 -0.041745964 0.0421729 0.14941736 -0.16141902
-0.3177626 -0.3664153 -0.21533422 -0.23487894 -0.06379343 -0.21047683 -0.08749556 -0.049716335
0.16090554 -0.4106757 -0.10643135 -0.3971038 -0.1147053 -0.5003336 0.0011637261 0.13087516
-0.2245907 -0.21779755 0.17260405 0.17768994 0.2146793 0.18798241 -0.12923147 -0.0077132224
0.012948471 -0.080998525 -0.15445542 -0.18397516 0.09455368 0.21908577 0.042349756 0.34317356
-0.07182002 0.27280575 -0.16703866 -0.13225274 0.26881427 -0.13731894 0.014688674 -0.17593004
0.23461403 -0.02054549 -0.13843413 -0.11891253 0.11061582 -0.15033022 -0.25609958 0.16044115
0.065238394 -0.021994667 -0.28744483 0.2133824 -0.09449275 0.20131698 0.04396334 -0.2111158
0.27700102 -0.21911322 -0.053247303 0.01271338 0.10872996 0.018030293 -0.008801824 0.018847222
-0.017133303 0.033417467 0.1208685 -0.10539501 0.119281724 0.26592523 0.083779186 0.17705013
0.048999105 -0.09595574 -0.09014961 0.044719346 -0.03184003 0.23699227 0.101543605 -0.106839456
-0.24429297 0.15801802 0.104027145 0.021208437 -0.094468206 -0.11594526 0.23371896 0.1326646
0.120755196 -0.326892 -0.094373256 0.04140804 -0.09620855 -0.19648868 -0.08093714 -0.06108671
0.15309629 -0.24931195 0.07609351 -0.047648966 -0.11353756 0.13187419 -0.2551829 -0.10777824
-0.13186052 -0.37783167 0.37990445 0.1969794 -0.0054698135 -0.29269144 0.11454252 0.013123616
0.7084974 0.7708864 0.25132307 0.43037912 0.10646775 0.2082308 0.04830854 0.31493512
0.20981336 0.29858735 -0.5452743 -0.11355169 0.4750644 0.6173313 0.2807879 -0.045838628
-0.24431065 -0.88494045 0.126897 0.3379802 0.08939261 -0.4000482 -0.3115038 0.060125325
0.26551467 -1.0184307 0.5391597 -0.01935727 0.014473143 -0.2562243 -0.005496338 0.41843814
-0.17553574 0.2677492 -0.27710107 0.088557646 -0.11984376 -0.41473025 0.2537982 0.03680994
0.31287792 0.24735175 -0.11802062 0.35882354 -0.10392374 -0.29495636 -0.1356187 0.28849906
0.10340659 0.063808374 0.08125247 0.12627448 0.3206062 0.106208 0.092023775 -0.1020512
0.47686315 0.4242189 0.091815084 -0.11592212 -0.29700387 0.008843983 -0.3669802 -0.28830212
0.08908564 -0.26107693 -0.2553929 0.0971382 0.04557622 -0.18320832 -0.027240872 -0.07738267
-0.30577177 0.18231551 0.041142054 0.04156063 0.22637881 0.038715094 -0.047584224 0.024435462
0.2035753 0.55749923 0.04751695 -0.1027322 -0.23221761 0.38768613 0.19256791 0.17231376
-0.21677212 0.36872312 0.027931016 0.3841901 0.19240755 0.55061454 0.0316077 0.040633947
00000000: 1797 e1bd b731 f53b b757 87bd b3a5 55be
00000010: c4f3 093e fe3c 8dbd 8624 34be a4b4 843e
00000020: 206a e63d b18f 9abd 3ea4 6c3d 5d15 ca3d
00000030: 1fb0 183d 2146 e83d ff1f 12bc 074c 103e
00000040: ce3c 193e 28da 113e 153c d1bd 774b 10be
00000050: af60 01bd 16cd f73d bc01 3dbd 07c2 903d
00000060: 27e2 3ebd f7af 39bd 8ea8 013d 69dd 80be
00000070: dfb2 ef3c b2e8 af3e f72d c0bd a8ad 35bc
00000080: 6c84 5e3e 0f49 ca3d 4851 50be f88e 9cbe
00000090: 11ac 9d3e 97a7 863e f0e8 203e 2bd0 a93d
000000a0: 7cde 143e 1dec bebe 8cbe bdbd 9418 203e
000000b0: d1fd 2abd 7ebd 2c3d dd00 193e 074b 25be
000000c0: c8b1 a2be c99a bbbe 9380 5cbe 1b84 70be
000000d0: 21a6 82bd 3d87 57be df30 b3bd 5ba3 4bbd
000000e0: 6cc4 243e 1644 d2be aef8 d9bd 3051 cbbe
000000f0: 9dea eabd dd15 00bf 2b88 983a 2304 063e
00000100: 1bfb 65be 5206 5fbe 1ebf 303e 5af4 353e
00000110: e4d4 5b3e 767e 403e 4155 04be 33bf fcbb
00000120: d325 543c 8ee2 a5bd 9029 1ebe fc63 3cbe
00000130: 5ca5 c13d 0558 603e f076 2d3d 72b4 af3e
00000140: 6016 93bd 32ad 8b3e 2f0c 2bbe 436d 07be
00000150: 06a2 893e 569d 0cbe c4a8 703c 0127 34be
00000160: a93e 703e 044f a8bc adc1 0dbe 6a88 f3bd
00000170: 8c8a e23d 2af0 19be 7c1f 83be af4a 243e
00000180: b59b 853d 292e b4bc f82b 93be ea80 5a3e
00000190: 6a85 c1bd 0a26 4e3e e712 343d be2e 58be
000001a0: 14d3 8d3e 375f 60be d819 5abd c84b 503c
000001b0: d0ad de3d 44b4 933c 8735 10bc 7d65 9a3c
000001c0: 245b 8cbc c1e0 083d e789 f73d 57d9 d7bd
000001d0: fa49 f43d 5a27 883e 6c94 ab3d a14c 353e
000001e0: 49b3 483d 7184 c4bd 5ca0 b8bd a22b 373d
000001f0: b16a 02bd 1aae 723e 18f6 cf3d a5ce dabd
00000200: f027 7abe 7acf 213e 2f0c d53d 51bd ad3c
00000210: 8c78 c1bd b574 edbd 0654 6f3e 3bd9 073e
00000220: 804e f73d 635e a7be c446 c1bd 7a9b 293d
00000230: fd08 c5bd 5434 49be 5fc2 a5bd 0f36 7abd
00000240: 46c5 1c3e a24b 7fbe ead6 9b3d 902b 43bd
00000250: 6186 e8bd 070a 073e 55a7 82be d7ba dcbd
00000260: 7206 07be 2773 c1be d682 c23e f8b4 493e
00000270: 1f3c b3bb a7db 95be 4595 ea3d 6f04 573c
00000280: 1660 353f d058 453f 6bad 803e a75a dc3e
00000290: c40b da3d 743a 553e 2ddf 453d 2d3f a13e
000002a0: 50d9 563e 71e0 983e 1997 0bbf ca8d e8bd
000002b0: a43b f33e 6d09 1e3f 6ec3 8f3e 49c1 3bbd
000002c0: 922c 7abe 758b 62bf 4af1 013e be0b ad3e
000002d0: 7913 b73d 1ed3 ccbe 6d7d 9fbe f945 763d
000002e0: 8af1 873e f05b 82bf 5f06 0a3f 2393 9ebc
000002f0: c320 6d3c d52f 83be a01a b4bb 863d d63e
00000300: a4bf 33be 6c16 893e 31e0 8dbe b65d b53d
00000310: a570 f5bd 8657 d4be d6f1 813e 05c6 163d
00000320: 8931 a03e c749 7d3e cbb4 f1bd b8b7 b73e
00000330: f8d5 d4bd 8504 97be a1df 0abe 26b6 933e
00000340: d6c6 d33d f7ad 823d b267 a63d 194e 013e
00000350: 7f26 a43e 9483 d93d f676 bc3d 3800 d1bd
00000360: 6827 f43e 3833 d93e 8c09 bc3d 9468 edbd
00000370: e410 98be 5ae6 103c d4e4 bbbe 569c 93be
00000380: 8872 b63d e0ab 85be dcc2 82be 65f0 c63d
00000390: 21ae 3a3d f69a 3bbe 4028 dfbc ce7a 9ebd
000003a0: 1e8e 9cbe ebb0 3a3e 9284 283d 7b3b 2a3d
000003b0: d9cf 673e b893 1e3d ade7 42bd e12c c83c
000003c0: 0b76 503e 45b8 0e3f 22a1 423d 4265 d2bd
000003d0: 74ca 6dbe cc7e c63e 8630 453e 0573 303e
000003e0: 83f9 5dbe 47c9 bc3e 96cf e43c 91b4 c43e
000003f0: 7c06 453e 13f5 0c3f 1377 013d c86f 263d

layers.0.uih.i_weight f4 [32, 32]
0.050664853 0.22807765 0.26313677 -0.04297708 0.019320842 -0.08071507 0.036772717 0.089546844
0.16990034 -0.065913506 -0.07265851 -0.077581204 0.09262184 -0.2466547 0.14559077 -0.12360654
0.051078048 0.083446406 -0.122909136 0.039188854 0.06213771 0.06518087 0.20323132 0.007861274
-0.06550104 -0.02744544 0.106369264 -0.12518433 0.07899119 -0.091258876 -0.067196615 0.2715894
0.3171484 -0.15554339 0.12525132 0.030948559 -0.01568562 0.10180215 0.15288784 0.0750534
0.15259983 -0.08622945 -0.019375509 0.08353705 0.23616813 -0.079908684 0.1684161 -0.10909712
0.073329344 -0.14158477 0.14237234 0.2666283 -0.25992525 -0.30630386 0.14160499 0.06960004
0.063770615 -0.23286468 0.20374545 0.17839931 -0.22851 -0.28562605 0.20145984 0.27092683
0.23662959 -0.026336238 -0.01187052 -0.03362748 0.07198046 0.10494943 -0.013711302 -0.23894596
-0.007920973 -0.08857981 -0.037052184 -0.13829675 -0.018620392 -0.05128916 0.38516256 -0.11405284
-0.009191319 0.05163695 -0.48050365 -0.05713808 0.18954732 -0.16328515 0.36382684 0.13634753
-0.08820354 -0.13059983 -0.1148409 0.03509911 -0.008309044 0.06378531 -0.51628745 0.09047883
0.17211317 0.11569667 0.096938625 -0.00016499823 -0.04359388 0.21540114 -0.014871195 -0.0381234
-0.16887072 -0.17344496 -0.069641 -0.03555332 0.044742107 0.21202727 0.23191425 -0.09622281
0.31518516 0.1309767 -0.019155981 0.0043462953 -0.17525615 -0.08443752 -0.07532235 -0.052575335
-0.08025923 -0.009309879 -0.23828028 -0.07019688 0.21058525 0.08577064 -0.041901175 -0.052419905
0.07934653 -0.013535761 0.028649997 0.006048076 0.07406248 0.2001889 -0.077270925 -0.13910872
0.07865043 0.18271068 -0.07374012 -0.031935602 -0.041161235 0.15231125 -0.042428542 -0.007210753
-0.1627218 -0.24851765 0.2562802 -0.06067008 -0.07583219 -0.18705516 -0.16334108 -0.100595504
0.25603038 -0.17917338 0.26754937 -0.27883154 -0.18420872 -0.29763514 -0.04649012 0.028768562
-0.026177056 -0.08304633 -0.042855967 -0.0135602215 0.08315731 -0.18087785 -0.22618516 0.14112729
0.098924 -0.088139005 0.13959895 -0.15094967 0.0418674 0.15610464 -0.14783287 0.17837396
-0.20236461 -0.3533679 0.5162375 0.1656605 0.11389691 -0.08244218 -0.015821733 -0.1959469
0.059125468 -0.5245708 0.0028739779 0.013225863 -0.38676044 0.06105985 0.5435259 0.15980712
-0.11446467 -0.19455497 -0.15802597 -0.18555623 0.0108447615 -0.04480674 0.06181185 0.09135452
-0.16439712 -0.10748573 -0.092458606 -0.16278064 -0.017834045 0.02687986 -0.09253209 -0.21821725
-0.06508501 0.24941652 -0.011167766 0.043462228 -0.23620254 0.21176507 0.07881096 0.24048676
-0.11103683 0.2708827 0.36091423 0.11838322 0.06985366 0.066349655 -0.26382694 -0.20033391
0.24060237 0.035885345 -0.054163832 0.03144136 -0.068142205 0.23233345 -0.21491465 -0.11917016
0.07135981 0.0121943895 0.058434203 0.14023823 0.14010845 0.18392365 0.021768888 0.04670547
-0.06028794 -0.22581817 -0.0031934038 -0.18251815 0.15252046 -0.16334909 -0.31995568 -0.07050889
0.0019834451 -0.22296135 0.038239278 0.071201816 0.21573295 0.022274915 -0.022351531 0.07982323
00000000: f385 4f3d 308d 693e ddb9 863e bc08 30bd
00000010: be46 9e3c f14d a5bd fd9e 163d 5664 b73d
00000020: 5bfa 2d3e a9fd 86bd fccd 94bd e5e2 9ebd
00000030: 85b0 bd3d 0d93 7cbe bf15 153e 6d25 fdbd
00000040: 3737 513d f3e5 aa3d c9b7 fbbd 7e84 203d
00000050: 1d84 7e3d 8c7d 853d df1b 503e 93cc 003c
00000060: 6925 86bd 42d5 e0bc 21d8 d93d 5230 00be
00000070: 22c6 a13d efe5 babd 619e 89bd c40d 8b3e
00000080: 4661 a23e c446 1fbe e241 003e d587 fd3c
00000090: 217f 80bc a57d d03d a18e 1c3e 99b5 993d
000000a0: 2143 1c3e 1199 b0bd 63b9 9ebc 7915 ab3d
000000b0: 0fd6 713e 2aa7 a3bd 4575 2c3e 506e dfbd
000000c0: b22d 963d 99fb 10be 0eca 113e 8183 883e
000000d0: ec14 85be dcd3 9cbe e600 113e 778a 8e3d
000000e0: 2b9a 823d 1474 6ebe a6a2 503e 4fae 363e
000000f0: 87fe 69be 943d 92be 7d4b 4e3e ecb6 8a3e
00000100: 074f 723e 18bf d7bc 927c 42bc f8bc 09bd
00000110: 7e6a 933d baef d63d 5ea5 60bc 40ae 74be
00000120: f8c6 01bc 5569 b5bd 08c4 17bd aa9d 0dbe
00000130: cb89 98bc 9514 52bd 0734 c53e 8994 e9bd
00000140: 3097 16bc 4481 533d 9304 f6be 9f09 6abd
00000150: b118 423e 3934 27be 8347 ba3e b09e 0b3e
00000160: 0fa4 b4bd f6bb 05be b531 ebbd 16c4 0f3d
00000170: a822 08bc dfa1 823d 6a2b 04bf f74c b93d
00000180: 6f3e 303e 60f2 ec3d c287 c63d 6003 2db9
00000190: 7f8f 32bd 1e92 5c3e 50a6 73bc 4827 1cbd
000001a0: 72ec 2cbe 8e9b 31be f19f 8ebd 5ca0 11bd
000001b0: 8043 373d ad1d 593e ee7a 6d3e 7710 c5bd
000001c0: f35f a13e c21e 063e 01ed 9cbc 5e6b 8e3b
000001d0: 5976 33be 94ed acbd 9b42 9abd 3c59 57bd
000001e0: f45e a4bd 7688 18bc bfff 73be 62c3 8fbd
000001f0: a9a3 573e 84a8 af3d 91a0 2bbd 41b6 56bd
00000200: 6f80 a23d 19c5 5dbc 66b3 ea3c f02e c63b
00000210: 12ae 973d 52fe 4c3e 3840 9ebd 8472 0ebe
00000220: 7a13 a13d 8218 3b3e 0f05 97bd e8ce 02bd
00000230: af98 28bd 7bf7 1b3e 8dc9 2dbd 2e48 ecbb
00000240: 8ba0 26be 697b 7ebe 2937 833e 3181 78bd
00000250: e84d 9bbd 638b 3fbe e242 27be 0405 cebd
00000260: 6a16 833e 3a79 37be 3bfc 883e 02c3 8ebe
00000270: 36a1 3cbe a263 98be 6d6c 3ebd 0cac eb3c
00000280: 4471 d6bc 3214 aabd bd89 2fbd b12b 5ebc
00000290: 614e aa3d 0b38 39be 159d 67be ac83 103e
000002a0: ab98 ca3d 3982 b4bd 07f3 0e3e 8d92 1abe
000002b0: 277d 2b3d e5d9 1f3e 8061 17be aaa7 363e
000002c0: ab38 4fbe a3ec b4be 2428 043f e8a2 293e
000002d0: c842 e93d 72d7 a8bd 949c 81bc 4ea6 48be
000002e0: 8c2d 723d 464a 06bf 5959 3c3b 4ab1 583c
000002f0: 7705 c6be e519 7a3d 8324 0b3f 7aa4 233e
00000300: 746c eabd 6b39 47be 8fd1 21be 7402 3ebe
00000310: 3aae 313c 4687 37bd 6c2e 7d3d 1418 bb3d
00000320: b857 28be 7a21 dcbd f05a bdbd f8af 26be
00000330: b418 92bc 2733 dc3c 7781 bdbd 5874 5fbe
00000340: 4a4b 85bd 0b67 7f3e 01f9 36bc 7305 323d
00000350: 14df 71be f1d8 583e a467 a13d 2942 763e
00000360: 4767 e3bd 23b1 8a3e c0c9 b83e e772 f23d
00000370: 700f 8f3d 54e2 873d 5314 87be 5524 4dbe
00000380: 7860 763e 83fc 123d e5da 5dbd a8c8 003d
00000390: 248e 8bbd d2e8 6d3e 9612 5cbe 7c0f f4bd
000003a0: 1825 923d faca 473c b458 6f3d 9c9a 0f3e
000003b0: 9778 0f3e 7b56 3c3e ab54 b23c 3c4e 3f3d
000003c0: 7df0 76bd e13c 67be 6d48 51bb 0ae6 3abe
000003d0: 532e 1c3e fc44 27be 3bd1 a3be f766 90bd
000003e0: b0fc 013b fb4f 64be caa0 1c3d 42d2 913d
000003f0: 19e9 5c3e e279 b63c 8f1a b7bc 5d7a a33d
