models/QLSTM_mse_epochs6.pth (torch, 168269 bytes, 76 tensors)

layers.0.wfx.r_weight f4 [1, 32]
00000000: 95d8 20bf 2f5e 61be 986c e7be a9ca 8ebe
00000010: 2176 72be 8bdb 18bf 097b d2be 75d1 e4be
00000020: 0266 babc 47bf 64be 28f7 5bbe 8bd5 4abe
00000030: 427e e6be 4772 1bbf 563f 4fbe 1c8d d1bd
00000040: 363b d8be 43e3 0dbd 1e8c 3bbf 5f80 11ba
00000050: 63a5 06bf 6817 09bd 61b3 f1be 77b5 a2be
00000060: f946 30be d671 ccbe ebbb bcbe f924 23bf
00000070: c678 a8be 3c51 dbbe c0b4 b1be 611a 26bf
-0.6283048 -0.22008584 -0.45200038 -0.27888992 -0.23677875 -0.59709996 -0.41109493 -0.44691053
-0.02275372 -0.22338592 -0.21481001 -0.19808023 -0.45018202 -0.6072125 -0.20239004 -0.102319926
-0.42232674 -0.03464056 -0.73260677 -0.000555044 -0.5259611 -0.033469588 -0.47207168 -0.31779072
-0.17214574 -0.399306 -0.3686212 -0.6372829 -0.32904643 -0.42835414 -0.34708214 -0.64884

layers.0.wfx.i_weight f4 [1, 32]
00000000: 06e7 033f f5ca 643e 7cd5 25bd 40df d23c
00000010: 2ee2 cd3d bb13 f73d e838 703d dbd6 76bd
00000020: 1ddc 6c3e e9a5 013e 3c4e 98bd 0d9a db38
00000030: 750c a53d 144b 543c 7ae7 623d 03b5 363e
00000040: 380f 25bd 6e11 bebc f3e6 ee3c 0c2f 1f3e
00000050: d428 8ebd 447f 4b3d 6480 e03d 0889 a53c
00000060: 6fe1 01be 0e1d 9cbc 2843 653b 4c04 293d
00000070: d704 943d a441 873e b191 2f3c cebc be3d
0.5152439 0.22343047 -0.040486798 0.02574122 0.10052906 0.1206431 0.05864802 -0.060263496
0.23130842 0.12660946 -0.07436797 0.00010471428 0.080590166 0.012957353 0.055396535 0.17842488
-0.040297717 -0.02320167 0.02916286 0.1554529 -0.06941381 0.049681917 0.109619886 0.020206943
-0.12683652 -0.019056823 0.0034982655 0.041263863 0.072274856 0.26417267 0.010715888 0.093133554

layers.0.wfx.j_weight f4 [1, 32]
00000000: 6d1e c0bd ed3f cf3e 1ffd b03d 0d69 47bc
00000010: 4698 163d dd5e c03d 8a8e ed3c 74c1 9d3d
00000020: cf8b 9e3e 33b9 323e f62f cabd 6e92 223c
00000030: c326 0a3e 01fe b0ba 3dc4 f23b 4b48 a73d
00000040: a3be 55bd 9ce3 93bd c845 5cbd 054e e93c
00000050: 56f3 79bd e41b c5bc 0e88 463e 8c4c 9dbc
00000060: c150 2d3c 2726 21bd ca54 ca3d 3897 40bb
00000070: bee5 e3bc e6b0 13be 03d4 d7bd 77ab e9bd
-0.09380803 0.4047846 0.08642029 -0.012171042 0.036766313 0.09393094 0.028998632 0.07702914
0.3096604 0.1745346 -0.09872429 0.009922607 0.13491349 -0.0013503433 0.0074086473 0.08168086
-0.05218376 -0.072211474 -0.053777486 0.028479585 -0.06102308 -0.02406115 0.19387838 -0.01920154
0.010578335 -0.039343026 0.098794535 -0.0029387008 -0.02781951 -0.1442295 -0.10538485 -0.114096574

layers.0.wfx.k_weight f4 [1, 32]
00000000: 10df 86bd 4c78 31be 6206 e93c f5e7 81bd
00000010: ee92 5a3d 0547 b5bd b7b9 c2bd 2da8 b43d
00000020: 5d12 983d e2f2 87bc 6d5a 9bbd efbc 3bbc
00000030: 8653 553e 5f7a fb3b 2bd2 3c3d 63eb 2b3d
00000040: 8f1f 493d 38a9 42bb 2a29 50bc 98f6 2fbe
00000050: 403c 21bd 4ead dabd 8233 203e 1dd2 c6bc
00000060: 28d6 3a3e d2ce 27bd c526 0cbe 3add 643e
00000070: b2b4 51bd ae30 44be ae29 18bd 602d 7cbd
-0.065855145 -0.17331046 0.028445426 -0.063430704 0.05336278 -0.088514365 -0.095080785 0.088211395
0.074253775 -0.016595308 -0.07585607 -0.0114586195 0.20832643 0.0076745 0.04609887 0.04197253
0.049102362 -0.0029702913 -0.012705127 -0.17183912 -0.0393641 -0.106775865 0.15644649 -0.024270112
0.18245757 -0.040968724 -0.13686664 0.22350016 -0.051197715 -0.19159195 -0.037149124 -0.06156671

layers.0.wfx.bias f4 [128]
00000000: 60d5 fcbe 4333 16be 23be 10bf 9341 09bf
00000010: f1c9 59be 5b7b 54bf 5a7c fcbd d1bb 01bf
00000020: 9985 7ebd 7bfb 81bd 88e0 52be e45a 90bd
00000030: 8c2b e1be dff1 d73c e41c a3be 1cc2 3f3d
00000040: d52f 81be 577e 03bf 5d38 46bf a5b7 0dbe
00000050: fb4f 14bf 1569 8fbe 1b97 44bf 023e 62bf
00000060: 0167 72be 150b c1be c283 1ebf 2158 c7be
00000070: 343b 2fbf a8ac 46bf 2aaa 0fbf 6bd1 ffbd
00000080: 3dd7 14bf ba23 a1be c2fd fcbe 0ccd 20bf
00000090: 4f58 82bd 4e99 82bf 4133 8fbe 065d f4be
000000a0: 04b8 e0bb 875f 30be 30a5 1abe 2691 3abe
000000b0: 12f5 b2be aee9 b0bd d7d1 cbbe 38d3 0bbe
000000c0: 6aea babe e53b efbe 7bce 47bf 2f8d 92be
000000d0: 78e5 5abf 50d5 6ebe f2a5 b5be dda9 73bf
000000e0: 4871 3bbe d6d2 c9be c08e 17bf 4b6f 2bbf
000000f0: a5dc 41bf 5d57 14bf 4e3e 14bf dde8 03bf
00000100: 0e02 83be 12a9 19be e7e7 1ebf f972 f5be
00000110: f648 dcbd 1775 42bf 8338 00bf b7a3 22bf
00000120: 5f21 b33d 1f40 2cbe bd9e 21bf f101 16be
00000130: 8278 79be ae3b ffbd 3418 c6be 2ca3 a43c
00000140: 73ad c9be 5d28 e6be bf9e 2abf 70ec 27be
00000150: d36d fbbe f574 9ebe 9a8c f0be 0a5d 73bf
00000160: a72a d3bd 079c a0be e7d5 1fbf 19bc 1ebf
00000170: 282f 0fbf 1da9 30bf 0f71 13bf d5a0 11bf
00000180: bb36 10bf 370c 6dbe f2d0 07bf 566c 00bf
00000190: 07e0 24be 7339 3ebf c444 9dbe 136c 38bf
000001a0: a1ae d6bd 018c d7bd eda5 0fbe 7ab9 a4bd
000001b0: 5a2e c7be 5f6a 04bd 150f b7be d776 0b3d
000001c0: 5533 94be daad 00bf 02c0 52bf 79f8 94bd
000001d0: e3d7 3fbf 32da b9be 9f3b 26bf e614 7fbf
000001e0: 84ce d23b 73b5 abbe 08c7 1abf 59b9 e3be
000001f0: fb65 0fbf 0666 14bf 434c 04bf d0e1 d1be
-0.49381542 -0.14667992 -0.56540126 -0.53615683 -0.21268441 -0.83000726 -0.12328406 -0.5067721
-0.062139127 -0.06346794 -0.20593464 -0.07048586 -0.43978536 0.02636045 -0.3185798 0.046815977
-0.25231805 -0.51364654 -0.77429754 -0.13839586 -0.5793454 -0.2800986 -0.7679307 -0.88375866
-0.23672105 -0.37703767 -0.61919796 -0.38934425 -0.6844971 -0.776072 -0.56119025 -0.12491115
-0.5814093 -0.3147257 -0.49412352 -0.62812877 -0.063645 -1.0203035 -0.2796879 -0.4772722
-0.006857874 -0.17223941 -0.15102077 -0.18219432 -0.349526 -0.08638321 -0.39808533 -0.13654792
-0.3650697 -0.46725383 -0.7804944 -0.2862334 -0.8550639 -0.2332356 -0.3547817 -0.95181066
-0.18304932 -0.39418668 -0.59202194 -0.66966695 -0.757273 -0.57945806 -0.5790757 -0.51527196
-0.25587505 -0.15005901 -0.62072605 -0.4793928 -0.10756104 -0.75959915 -0.5008623 -0.6353106
0.087465994 -0.16821335 -0.6313284 -0.14649178 -0.24362376 -0.12462555 -0.3869034 0.020097338
-0.39390144 -0.4495267 -0.6664848 -0.16398787 -0.49107227 -0.30948606 -0.4698227 -0.9506384
-0.1031087 -0.3136904 -0.62435764 -0.62005764 -0.5593133 -0.69008046 -0.5759439 -0.56886035
-0.5633351 -0.23149191 -0.530532 -0.5016531 -0.16101085 -0.7430641 -0.30716527 -0.7203991
-0.104825266 -0.105247505 -0.1402814 -0.08043189 -0.3890255 -0.032328006 -0.35753694 0.03404888
-0.28945413 -0.50265276 -0.8232423 -0.07273955 -0.7493879 -0.36299282 -0.64934725 -0.99641263
0.00643331 -0.33536872 -0.6045995 -0.44477347 -0.56014985 -0.57968175 -0.51678866 -0.40992594

layers.0.ufh.r_weight f4 [32, 32]
00000000: f86e c5bc f9b0 b9be 7a92 2ebe 2ca5 553e
00000010: 355a 15bf 8516 1bbe 11ab ed3d dd74 a2bc
00000020: d00e d7bc 79b7 9ebe 370b dc3d 77bd 9b3e
00000030: a6f0 8b3c 8239 58be 1b9b 903d 46a1 173e
00000040: ff66 86bd 8bae c63d f364 94bd b9de 8cbe
00000050: a9c1 4a3e a069 e3bd 2697 563d 4e96 1dbd
00000060: 8075 873b b39e 4bbe 7f18 493e 6e00 04bc
00000070: 2562 fa3d e3b4 433d 9c32 113d 550b 8a3d
00000080: 9435 08be 7195 bfbc 16ed f23d 12b2 d33d
00000090: 3fa2 cc3e c138 5cbd 4b22 a1bc 60e9 00be
000000a0: 6264 80bd cd05 ea3d ebda 543c ebd6 203e
000000b0: f962 8abb 64ce 9e3e f0a2 d03d e8d5 6e3d
000000c0: b50e b2bd 99e3 b23e dec9 f33c fc15 8b3e
000000d0: e3fa 59be f1dd c23d bc5f e03d 3d1f e3bd
000000e0: f965 7abe 6d26 b63e 5df6 edbd a6c2 913e
000000f0: 4479 883e 1fa7 9c3e 7847 813d daa1 8c3d
00000100: 0489 97be dbde e63b 128d a23d a676 1ebe
00000110: 6749 d0bd 7076 9c3d a2fc 77be 2573 0cbe
00000120: b140 90be f4d0 df3c 0bf0 7a3e b4c9 02be
00000130: 6825 2bbe 21c9 963e 39b4 4ebd 55ea db3c
00000140: 32b3 fbbd 978d b63d 1b6a 363d 54e8 403e
00000150: 9b22 d0bd 28c9 05be 30e4 a4be e5e1 54be
00000160: 8be3 ae3d 175e a13e 2510 34be 3172 b8bc
00000170: 03f9 3f3c 89d3 f63b 0fbf 193e 09c1 073e
00000180: 8820 033c 12a4 8bbd afe3 63be 06e0 473e
00000190: b5a2 2dbe 4f4e 8e3c 5fcd b73d 1631 0ebd
000001a0: 3909 32be e029 123d bb87 29be ef8c 8fbe
000001b0: c6aa cd3d 5875 093e 6052 33bd bb09 d6bd
000001c0: e19f bb3d a288 283c d20f 0ebe 80e8 babc
000001d0: 6a70 023c bf5e 12be ca8d 52be 796d 81be
000001e0: 8988 1f3e 1907 a03c 9e8b 853d b1c6 043e
000001f0: 6911 373c 4d4d 17be 4886 0abd c099 8e3e
00000200: 6c48 38bd 056f bd3c 9e2c 2a3e 7fde 713d
00000210: 3c6a 7a3a 5c12 2bbe c5ad 943d 9014 02be
00000220: 169e b53d f0f6 01bd 07df 96bc 4f03 a53d
00000230: 3295 b03e a06b 0e3e 2b20 cc3d 1034 273e
00000240: 859f f73c 6940 803e ad4d f43d 3101 e93e
00000250: cd90 a7bd d4ec 7b3e 4a65 31be e4a2 f43d
00000260: 8888 903c cf66 5b3e df3f 473e c7b1 093e
00000270: b0b0 d6bc 37e7 cdbc 25db 4f3e 4a85 f53c
00000280: 6f94 2cbd 9c62 81be e7b1 55be f4fd 6d3e
00000290: 5218 863d 900f df3d e6f4 993d 8419 223d
000002a0: 0d9e 50bd b3b9 52be 2d02 52be 347e 66be
000002b0: d701 21be dd15 023e e2b1 0dbe d89d abbd
000002c0: 27ff 1dbe d915 aa3a a5c4 173d a667 b3bc
000002d0: 314d 96be e156 0b3e 5f3e e5bd f7de 863c
000002e0: 6082 f63d bc83 b0bc 8e47 493e 9685 3fbd
000002f0: 6c42 803e e87c 413d 222a 073e b064 6c3d
00000300: cc52 ed3d 4833 fd3a f67f 4dbc 8dfd 38be
00000310: 5c8f 793e ed34 513c 269d e9bd 19c5 353e
00000320: 316c fb3b e072 0abd 4fb2 cbbd 1fcd f93d
00000330: 03b3 0dbd 367f c33d 874a a13d 5b14 c8bd
00000340: d4ea cdbd bb57 603d b301 f1bd e768 303e
00000350: 0910 513e 5490 0a3d edd3 2b3e 07e2 13be
00000360: aa53 363e d669 acbd fdd5 adbd 5f33 973e
00000370: 374d b73d cd03 d23d 84a2 793d 6254 f13b
00000380: e77b d43c e076 d4bd 2cc7 023d ac92 a53d
00000390: 2612 6ebe 8ed4 443d 1faf 5d3e bdde c4bd
000003a0: 4695 603e 7d76 e93d 8157 7f3e f926 813e
000003b0: f759 493e 8ce2 8b3e eb34 863d 23fd 043e
000003c0: add2 5c3c c177 94bd 4c3a d03d a7c5 6f3d
000003d0: cad7 8c3e 83b3 853d ce9f 823e 014b 53be
000003e0: d04c 3dbe 7f7b 05bd 042f 1e3e dda9 07bc
000003f0: e591 bfbd 1ba3 253d 3d6b 653d f671 f5bd
-0.024100766 -0.36267832 -0.17048064 0.2086379 -0.5834077 -0.1514531 0.11604894 -0.019831115
-0.02625218 -0.30999354 0.107443266 0.30417988 0.017082524 -0.21115687 0.07060834 0.14807615
-0.06562614 0.0970126 -0.07245817 -0.27513674 0.19800438 -0.11104131 0.05239024 -0.03847342
0.00413388 -0.19884758 0.19638251 -0.008056743 0.12225751 0.04777993 0.035448655 0.06740443
-0.13301688 -0.023386689 0.11861627 0.103366986 0.39967534 -0.053765062 -0.019669672 -0.12589025
-0.062691465 0.11426888 0.012991647 0.15706985 -0.0042232242 0.3101684 0.10187328 0.058309466
-0.086942114 0.34939268 0.029759344 0.2716521 -0.21287112 0.09514988 0.1095576 -0.110899426
-0.24452962 0.35576192 -0.11619256 0.28468817 0.26655018 0.30596253 0.0631246 0.06866808
-0.29596722 0.0070456094 0.07937063 -0.15474948 -0.101702504 0.07639778 -0.24217466 -0.13715799
-0.28174356 0.027321316 0.24505632 -0.12772256 -0.16713488 0.29450324 -0.050464842 0.026845137
-0.12290038 0.08913725 0.044534784 0.18838626 -0.101628505 -0.13065016 -0.32205343 -0.20789297
0.08539494 0.31517097 -0.17584284 -0.022515388 0.011717084 0.007532541 0.1501429 0.13257231
0.0080033615 -0.06818403 -0.22254823 0.19519052 -0.16956599 0.017371325 0.08974718 -0.03471478
-0.1738633 0.035684466 -0.16555683 -0.2803721 0.10042338 0.1342367 -0.04377973 -0.10451075
0.09161354 0.010286482 -0.13873222 -0.022815943 0.007961372 -0.14293955 -0.205619 -0.25278834
0.15579428 0.019534634 0.065207705 0.1296642 0.0111735845 -0.14775582 -0.033819467 0.27851677
-0.044990942 0.023124227 0.16618583 0.05905008 0.00095525733 -0.16706222 0.072597064 -0.12703156
0.08868043 -0.03172964 -0.018416895 0.08057272 0.34488827 0.13908243 0.09967073 0.16328454
0.030227432 0.2504914 0.11928878 0.4550872 -0.081819154 0.24602062 -0.17323795 0.119451314
0.017643228 0.21425937 0.19457959 0.13446723 -0.026207298 -0.025134666 0.20298441 0.029970784
-0.042133745 -0.25270545 -0.20868646 0.23241407 0.065476075 0.1089164 0.07517414 0.039575115
-0.05093198 -0.20578651 -0.20508642 -0.2250908 -0.15723358 0.12703653 -0.13837388 -0.08379716
-0.15429364 0.0012976482 0.03705277 -0.02190001 -0.29355767 0.1360736 -0.11193537 0.01646374
0.12036586 -0.02154719 0.19656202 -0.046758257 0.25050676 0.04723826 0.13199666 0.05771321
0.11588058 0.0019317651 -0.012542715 -0.18065472 0.24371094 0.012768966 -0.11406927 0.17750968
0.0076728095 -0.03380096 -0.09946119 0.12197327 -0.034594547 0.09545748 0.07875543 -0.097695075
-0.100545555 0.054771166 -0.11767902 0.17227517 0.20416273 0.03382905 0.16780062 -0.14441691
0.17805353 -0.08418624 -0.08488081 0.2953138 0.089502744 0.10254631 0.060946003 0.0073647955
0.025937987 -0.10374236 0.031928226 0.08084616 -0.2324911 0.04805427 0.21648835 -0.096127965
0.21931943 0.11399553 0.24935724 0.25225046 0.19663225 0.2732128 0.06553062 0.12987189
0.013477963 -0.07249404 0.10167369 0.058538105 0.27508384 0.0652838 0.25512546 -0.2063408
-0.18486333 -0.03258848 0.15447623 -0.008280245 -0.09353999 0.040438753 0.056010474 -0.11984627

layers.0.ufh.i_weight f4 [32, 32]
00000000: 511f 91bc ff49 423e 6678 bdbd 7669 fa3c
00000010: 97a2 9d3e 821f 333d ef9b bc3d 2486 443d
00000020: a4c0 633e f4ba 0f3e 6c54 b43d d554 1b3e
00000030: b262 aabe 63eb 2b3e f0d3 823d 4cd1 49bd
00000040: ce53 40bd f043 aa3d 2147 dabb fac0 333d
00000050: 3a3a 703d d294 8b3c 62da 843d 3a44 dcbd
00000060: 6336 983e df3b 313e 0440 be3c dce8 a0bd
00000070: c6da 4b3e 887b 283d 64ea 9b3d 919b 083e
00000080: 109d 07be b110 9bbc 6013 6f3c 3e12 f93b
00000090: 31c8 483c bda2 61bd f49a 8b3d 0e06 6cbd
000000a0: 1133 6dbd cb27 1d3d 7158 a9bb 2df0 013d
000000b0: 3822 3d3d 72d6 dd3c 4e48 c33d 5bce b93a
000000c0: 7416 16bd 3dc4 3d3a 065d fd3d d665 1abe
000000d0: ad38 20bd 7e26 77bd a898 0d3e 8eb6 b93c
000000e0: ccb0 bebc b28d 3d3e 33ea 03be fa68 eebd
000000f0: 8f29 2e3e b56d f53c 6761 8d3d 77be 3abe
00000100: ccd3 83bc c90e 1d3c 8004 f93d bb07 b9bc
00000110: d45f 33bd c054 58bc 5c03 fc3d e8e3 8f3d
00000120: 5d52 af3d 497d b7bc 04c9 633c 0a1d c23d
00000130: b6f8 443e 8e05 21bd 32f2 43bd bba2 303d
00000140: f322 a63c f732 f0bd 6c7e acbb 16e7 173d
00000150: e139 063e 772c ca3c 4ad6 03bc 427a 26bd
00000160: 6782 363e 3b0e 3fbd e6a1 223e 9af9 85bd
00000170: 2c64 923d c5d7 35bd 13bd 173c 393e cbbb
00000180: 0f5d 3ebe 6f25 40be 8719 523d 4bb6 9f3d
00000190: d85e 2ebe 9403 b83b 015d f33d e143 f6bd
000001a0: 97e6 7abd 16cc 4b3d 5c7b e3bc 4776 76bd
000001b0: 773b 9b3d 0867 4ebe c4ae 2c3e 6944 713d
000001c0: 20d8 e7bd a6cc 7cbc 98eb 7a3d 2b16 fbbc
000001d0: 3ec8 babd 624d aa3c 58dd 193d 71d9 8a3d
000001e0: d7b9 2dbc fff0 383e 9759 17bc e14e 413c
000001f0: b494 b0bd 34fd cd3d c8fa 343e e151 853d
00000200: a552 25be 9c00 99be 4240 da3d 9118 9a3d
00000210: d896 ab3b a9f9 b13d 51b8 1b3e f869 313e
00000220: bac7 2dbe 3c73 7ebc 13da 02bd 755b 92bd
00000230: cbaa 50bd ce4f de3d 1307 1e3e 8d83 d1bd
00000240: 0b06 25bd cece 463d b99f edba 4bc3 36be
00000250: c4c9 9fbd 66fe 07bd ed06 443e c7cb 39bd
00000260: d5e2 a03d abc0 843d b4dc 96bd 832b 32be
00000270: 94ca 32bd 9c2c 26bd 1f6a 0e3d 08d6 2d3c
00000280: f061 19be 69d7 6f3c cfbb 173d 2c7e 37bd
00000290: 13ec 8d3d ed10 be3c 000f 0bbc 6633 d43d
000002a0: 4b14 583c 73fe 403e c83e 5fbd af9e 60be
000002b0: 522a c83b b8a0 44bd 4ffa 073e 390d 5abc
000002c0: 6633 6ebd 7404 d0bb bfa4 0abe 3de5 88bd
000002d0: 9283 fcbb 982e ae3a 6f98 a13c 86f8 8ebd
000002e0: 5aed 8f3d db8f b1bc 46c9 21be 8134 953d
000002f0: 9f7f b2bd b80d 24be 07d3 a3bb 0001 14be
00000300: 2c55 8ebd 828d 3f3e 3faf 24bb 97d1 cfbc
00000310: 5669 573d ee31 e9bd 4f92 8e3d 343e 183e
00000320: a157 05be 57ee 8d3d 8edd 193b dacc 293e
00000330: 7c35 2d3d f3c3 763d b947 04be 6a1c 3c3d
00000340: 6b06 d53c 9848 9a3d 9539 a7bb 7b4f fa3d
00000350: fbcf b1bd dae0 f73d d8e9 22be b4d6 13bd
00000360: 4a84 abbb d3ab a2bd 1511 c73d 5172 4d3c
00000370: 1af8 023d c6c4 b33d 1d01 45be 691a 513d
00000380: bbbe 243d 81b6 cbbd 5be3 bb3d ca30 593c
00000390: 1573 ecbd a6a3 11bd ee4f 053c e946 71bc
000003a0: 28f3 17bd 568a 943c da09 d8bd 52b1 cdbd
000003b0: 9baf eabd 641c d03e 47db b43d c231 443d
000003c0: d58b 38bd ea58 41bd a103 a7bd 6899 31bc
000003d0: 0014 ddbc 9b08 2d3e 17a3 0d3e ca2e 133d
000003e0: 5f0a babd 38b5 763e e659 923d 294e 033e
000003f0: c456 8a3d c74c 833d 37a5 d03d 1f1e e63d
-0.017715128 0.1897354 -0.0925148 0.030567866 0.3078811 0.04373122 0.092094295 0.04797949
0.22241455 0.1403616 0.08805165 0.1516908 -0.33278424 0.16789012 0.0638808 -0.049271867
-0.046954922 0.08313739 -0.0066613113 0.04388521 0.05864928 0.017038736 0.06486966 -0.10755201
0.29728994 0.17307995 0.023223884 -0.078569144 0.19907674 0.041133434 0.07613066 0.13340594
-0.13243508 -0.018928858 0.014592022 0.0076010516 0.012254761 -0.05508684 0.06816664 -0.05762296
-0.05791003 0.038368028 -0.0051680137 0.03172319 0.04617521 0.027079795 0.095352754 0.0014175879
-0.036642507 0.00072390196 0.123712584 -0.1507791 -0.03911655 -0.060339443 0.13827765 0.022670057
-0.023277663 0.18511084 -0.12882309 -0.116411164 0.17008041 0.029959539 0.06903344 -0.18236719
-0.016092204 0.009586045 0.121590614 -0.022586694 -0.04379256 -0.0132038 0.12305328 0.070258915
0.085606314 -0.022398608 0.013902906 0.09478195 0.192355 -0.039311938 -0.047838397 0.043123942
0.020280337 -0.11728471 -0.005264094 0.037085615 0.13108017 0.024679406 -0.008046696 -0.040643938
0.17823182 -0.04664443 0.15882072 -0.06541748 0.071480125 -0.044395227 0.009261387 -0.006202486
-0.18590187 -0.1876428 0.051293876 0.077984415 -0.17028368 0.005615661 0.118829735 -0.120246656
-0.061255064 0.04975518 -0.027768783 -0.06017139 0.075797014 -0.20156491 0.16863543 0.05890313
-0.113205194 -0.015429651 0.061259836 -0.030650219 -0.091202244 0.020788852 0.037564605 0.06779755
-0.01060339 0.18060683 -0.0092376685 0.011798591 -0.08622113 0.1005806 0.1767379 0.06509758
-0.16144808 -0.29883277 0.106567875 0.07524217 0.005236488 0.08690197 0.1520703 0.1732558
-0.16970721 -0.015530404 -0.031946253 -0.0714635 -0.05094413 0.10855065 0.15432386 -0.102301694
-0.040288966 0.048537068 -0.0018129266 -0.17847936 -0.078021556 -0.033201598 0.19143267 -0.045360353
0.07855765 0.06482061 -0.073663145 -0.17399411 -0.043650225 -0.040569887 0.034769174 0.010610111
-0.14978766 0.01463876 0.037044343 -0.04479806 0.06929793 0.02320143 -0.008487463 0.10361366
0.013188432 0.18847065 -0.054503232 -0.21935533 0.0061085606 -0.048004836 0.13279079 -0.013308817
-0.058154486 -0.006348187 -0.13539408 -0.06684349 -0.007706114 0.0013289033 0.019726006 -0.06980996
0.07027693 -0.021675041 -0.15799436 0.07285405 -0.08715748 -0.16020858 -0.0049995217 -0.14453506
-0.06949839 0.18706325 -0.002512887 -0.025368495 0.05259069 -0.113864765 0.069615 0.14867479
-0.13021709 0.06930225 0.0023478004 0.16582051 0.042287335 0.060245465 -0.12917985 0.045925535
0.026004037 0.075333774 -0.0051033 0.12222191 -0.08682247 0.12103434 -0.15909517 -0.03609343
-0.005234276 -0.07942929 0.09720055 0.012539462 0.03197489 0.08777766 -0.19238706 0.051050577
0.040220957 -0.09946919 0.09174224 0.013256261 -0.11545388 -0.035556458 0.0081367325 -0.014726379
-0.037097126 0.01813237 -0.10548754 -0.10043587 -0.11459275 0.4064666 0.08830886 0.047899015
-0.04505523 -0.047203936 -0.08154989 -0.010839798 -0.026987076 0.16897814 0.13831745 0.035933293
-0.090840094 0.24092567 0.07146053 0.12822784 0.067548305 0.064111285 0.10187762 0.11236214

layers.0.ufh.j_weight f4 [32, 32]
00000000: 0c9c 5dbd e139 483e abb3 a03d 0ab7 9fbd
00000010: 41ce a43d f880 8e3c 3741 17bd 5006 043e
00000020: 0f52 47bd 5583 fa3c 30e4 1cbd 8ddc 893e
00000030: 065e 6a3d 42ec 7c3e fef7 9e3e 335e 7d3e
00000040: 0a80 4cbd 74fc 4b3d 029c 71bd d65d f23d
00000050: cdcb 253d acac 273e 651e 903e 919f 403e
00000060: 27c1 173e 3eae edbb 2b6f 6f3d 680b 9c3d
00000070: 1e3c cb3b 3ed4 10be 45d0 2ebd 0740 e63d
00000080: 3843 153a c73f 7cbe 524f d4bc d33e ef3d
00000090: b17f 93bd 72b4 983d 55b0 febb 54bc 14be
000000a0: d3d9 ba3b e814 de3c 5da2 db3c 82f6 483d
000000b0: 2d1e abbd 1e30 0abe 719b 6f3d 9eb6 59bd
000000c0: c513 e13d 4a11 c43d 9f4c 593d 14cf 80bd
000000d0: f21b e03c b419 15bd b658 1a3e 698b a4bd
000000e0: bc99 a83c 1245 1d3e 31da 1dbe a43a 4d3d
000000f0: 600c 0f3e 9172 b0bd 9f8b 10bd 9cf1 0d3e
00000100: a643 eebd 695f 8abe 1114 64bd f240 0cbb
00000110: 29b9 4dbe 29d1 c3bc e807 3bbe 7b1f 4abd
00000120: b6ab 42be f6c8 033d f1cc 04be 031b 08be
00000130: 5e39 b43d c641 a4be 9939 4cbd 50b3 ad3c
00000140: 57e8 b1bd 05cc 2abe 4578 4c3d acb0 e4bd
00000150: 685c 0abe 4160 1cbe 09b9 72bd aad0 543b
00000160: b192 ad3d 6bbe 98be faf5 b8bd 26b0 e9bd
00000170: a29f babd 8007 f3bd 9a0f 78bd 77fb 97be
00000180: caec 033c 8ab4 0fbe befe 5d3a 64f8 553d
00000190: f0fb debc 5679 a0bd 6109 8f3d eac4 d5bd
000001a0: d26a 0a3b c190 223e 94d1 9ebd 2b9a 2f3c
000001b0: eae8 acb9 e48c b7be effb 4fbe 693d a6bd
000001c0: 6f56 793c d13a 213d f576 00bd 89b0 873d
000001d0: d6b7 443d 34d6 76bd 2a07 29bd 7a99 1cbd
000001e0: 133e 4ebe fad2 5dbe 4798 2cbe dac5 5fbc
000001f0: d604 503d 2075 523c 2a82 fd3d 7011 45be
00000200: 4d44 9c3c de64 8bbe 3977 8d39 ff8a 103c
00000210: 36e3 83bd abfe 99bd 47e7 b0bd 5739 12be
00000220: f519 fdbd 25a4 243e 914e 863d 3480 8a3d
00000230: 7af6 213c 3458 033e cfda a0bd 5a65 66bd
00000240: 7203 693c 582c 8d3e c987 f6bc 0795 843d
00000250: 0d0f 13bc 9396 803b 09b6 2e3e 203c b63c
00000260: 5cb5 ce3c 49dc 203e 446f 873d a67c 293e
00000270: 1fe6 963d a182 39bc 5bdc be3d 25da 5c3e
00000280: fe8f 493c 86a4 a23d 352e 0cbe c4c8 d03d
00000290: 838c cc3c 8eb9 71bd eba0 29bd 394a 2e3e
000002a0: 6b7d 9d3d b9b2 473d c9f8 613d 7fe9 b4bc
000002b0: f22e 143e e668 dcbd 193c eebd 9b5f 0bbd
000002c0: 6334 963d 45e6 0d3d 2ffe fcbd 80d0 033d
000002d0: cce5 8d3d 2868 60bc 505a 1a3d e8fd 75bd
000002e0: 9cb9 8d3d 5a15 55bd eb21 8e3d e7fc 2b3e
000002f0: e600 0bbd 2976 8abd f147 ea3d c41d f8bd
00000300: 3bb3 423d 23b3 dcbd f014 89bd da2f bcbc
00000310: 0eee 753d 9781 d9bc 2678 3dbc 94dd d33d
00000320: ecdf 8a3c 64db fe3d ee36 cc3c 2899 a5bc
00000330: 5c45 1fbc 604e a6bd e7ba ac3d f338 9bbd
00000340: 1d23 d2bd 329f 1cbe a72d 6e3c ffad 3dbe
00000350: b598 af3c 7814 873d 9dbd 763e b92b 243c
00000360: c31d 953d 34c8 0abc f199 b8bd cdef 51bd
00000370: bdf4 673d f59e 773c e65e ac3d 0b39 41bc
00000380: e688 bdbd ca95 b13d 9562 fe3d a66b 5f3d
00000390: 8a61 cbbd 30cd 653c f6bd c33d 7a18 273d
000003a0: 9568 783d a539 11be 43f2 14be c8bc 49be
000003b0: 8343 983c 88d1 163e 3a82 a33d 01a0 60bd
000003c0: b50e cb3d f142 873d 67d0 6b3d 6af4 aebd
000003d0: 77f9 abbd bcfb 0bbc b7f1 2b3e 6a4d 3d3c
000003e0: f97c c43d 0471 6f3e f630 c0bc 0124 3e3d
000003f0: a3a1 903d fcd0 adbd b37f b7bd 1f7b af3d
-0.054103896 0.19553329 0.07846769 -0.07798584 0.08047152 0.017395481 -0.036927428 0.12893033
-0.04866224 0.030580202 -0.038303554 0.2692608 0.057218574 0.246995 0.31048578 0.24742965
-0.049926795 0.049801305 -0.05898667 0.11834304 0.040477563 0.16374463 0.2814819 0.1881087
0.14819776 -0.0072534373 0.058455627 0.07619363 0.006202235 -0.14143464 -0.04267909 0.11242681
0.00056939153 -0.24633704 -0.02591673 0.11681905 -0.072020896 0.07456292 -0.0077724853 -0.14524966
0.005702236 0.027109578 0.02681082 0.049063213 -0.08355365 -0.13494918 0.05849785 -0.053152673
0.10990099 0.0957361 0.053051587 -0.06289497 0.027357075 -0.036401466 0.15072903 -0.08034403
0.020581119 0.1535838 -0.15415265 0.050104752 0.13969564 -0.08615602 -0.035289403 0.13861698
-0.11633997 -0.27025917 -0.0556832 -0.0021401015 -0.20090164 -0.023903446 -0.18264735 -0.04934643
-0.19010815 0.032174073 -0.12968804 -0.13291554 0.088000044 -0.3208143 -0.049859617 0.021203667
-0.086868934 -0.1667939 0.049919385 -0.1116651 -0.13511813 -0.15271093 -0.059258495 0.0032473006
0.08475245 -0.29832777 -0.09031291 -0.11410551 -0.09112479 -0.11866665 -0.060561754 -0.2968404
0.00805206 -0.14033714 0.00084684405 0.052238837 -0.027219743 -0.07835643 0.06984211 -0.10437949
0.0021120799 0.15875532 -0.077548176 0.010717909 -0.0003297993 -0.3584968 -0.20310949 -0.08117182
0.015218361 0.039362732 -0.031363446 0.06625468 0.048026882 -0.060262874 -0.041266598 -0.038232304
-0.20140867 -0.21662512 -0.16854964 -0.013658011 0.050785862 0.012845308 0.123783424 -0.19244933
0.019075537 -0.27225393 0.00026982444 0.008822202 -0.064398214 -0.07519277 -0.08637863 -0.14279686
-0.123584665 0.16078241 0.06557954 0.06762734 0.009885425 0.12826616 -0.078542344 -0.056249
0.014222013 0.27572894 -0.030094044 0.06473737 -0.008975756 0.0039242 0.17061628 0.022245467
0.025232963 0.15709032 0.06613019 0.16551456 0.07368111 -0.011322648 0.09319373 0.2156759
0.012302397 0.079415366 -0.13689502 0.10194543 0.024969345 -0.05901485 -0.04141323 0.17020501
0.07689937 0.048754428 0.0551689 -0.022083996 0.14471033 -0.10762195 -0.116325565 -0.034026723
0.07334211 0.03464343 -0.12353169 0.032181263 0.06928596 -0.013696708 0.037683785 -0.060056597
0.06920168 -0.052022316 0.06940063 0.16795693 -0.033936404 -0.067608185 0.11439503 -0.12115052
0.04753421 -0.10776355 -0.06693447 -0.022972036 0.06004148 -0.026551051 -0.01156429 0.10344997
0.016952477 0.12444189 0.024928536 -0.020214632 -0.009721126 -0.081204176 0.08434086 -0.075792216
-0.102606036 -0.15295103 0.014537252 -0.18523405 0.021435121 0.06595701 0.24095769 0.01002019
0.07281067 -0.008470584 -0.09013737 -0.051254082 0.056629885 0.015113582 0.08416538 -0.011793385
-0.09254627 0.08671148 0.12421147 0.05454602 -0.099307135 0.014025971 0.095577165 0.040794827
0.060646612 -0.14182146 -0.1454554 -0.1970092 0.01858688 0.14728367 0.07983823 -0.05484009
0.099149145 0.06604565 0.057571795 -0.08542712 -0.08397191 -0.008543905 0.16791426 0.0115541015
0.09594149 0.23382956 -0.023460846 0.046421055 0.0706208 -0.08487126 -0.089599036 0.08568405

layers.0.ufh.k_weight f4 [32, 32]
00000000: 8afc 22bd 890a 19bd f05d 0bbd 4cf5 2abe
00000010: a88a 3a3d 5bd5 0e3d 6838 68bc 811d 08be
00000020: 6946 03be d274 6bbd 7fa8 413d c48d 0c3d
00000030: d97f 453c 1a0d 30be 06d6 963d 5001 c33d
00000040: 4737 e73c eefe 243e 8361 c1bd c1cc 99bd
00000050: 6ef1 e5bd c1af 033e d9cd 313e 3866 083e
00000060: 8f1d 47bd 9ecd 2cbe 77a0 55be 9033 d73c
00000070: 6761 4f3d 7129 03bd 8cd8 9a3d 385d 0d3e
00000080: 0783 813d 9b31 313e 96b3 82bc 7d27 e93c
00000090: 3c67 1bbe 33da 01bc a066 e1bd 95ef e63c
000000a0: ced9 59be 7eed cb3b 46de 25bd 1312 40bd
000000b0: 5e09 06bd db5b 82bc 3835 aa3d afbc 683c
000000c0: e08b 0abe 7012 5fbe 2844 3f3d 4710 e7bd
000000d0: 4c5d c9bc 8e96 2bbb 6e96 63bb f3c1 533d
000000e0: 6f66 78bd 7a6b 3dbd 848d 163e dac3 28be
000000f0: ffe8 603c 365f e1bd a537 febd cbdd 21be
00000100: ad1b a3bd c677 74be aa0a 86bd 6b1b 3e3d
00000110: d19b 86bd a07d d4bd ce86 043e 0d68 583d
00000120: 6b2f 2b3d f60f fb3c 19e4 db3d 84bf 6a3d
00000130: ef37 29bd 983c 60be 42a9 1fbe cfa6 943d
00000140: 4dbe 3abb 47d4 42bd ae4d 8dbd 7dd6 a0bd
00000150: 4f9d 303d 1374 bebd 8d96 d2bc 419c e3bb
00000160: ce46 e83d fec1 efbd 476b 783d 5cc1 533d
00000170: 76ae a7bd 3911 c53c e394 933b 16a5 5abe
00000180: fa4a 5dbd a262 9cbd 1c6b 02be cc3a a53d
00000190: 5c61 8a3e 7a59 66bc cd54 763e 41c5 f8bc
000001a0: 6653 8a3e 1815 fbbd ff52 243d a707 9cbd
000001b0: b719 0cbd d3f6 593e 44ad a1bc 177b 7ebd
000001c0: b980 c23d 509c 2e3e e118 583c 9056 bd3d
000001d0: efe6 e3bd bde3 ca3d 96a4 3dbd 1441 553d
000001e0: e675 a53c a3f5 c13e 3a0b 933b 10f2 63bb
000001f0: 12c8 2b3d 23bb 8f3d b1a1 103d 67cb 143e
00000200: ea54 50bc da3f 3ebd f65e 9ebd 8882 dd3c
00000210: d322 0c3e fa5f f9bd ae88 6c3d da67 f7bd
00000220: de27 a8be c3ae 833d 11a2 b03d a9d2 3fbc
00000230: 01db 1e3d 45b0 b43d 617a 1d3e 8fda c33d
00000240: 1303 babd 4a57 1bbe 4808 da3c 51b9 5f3c
00000250: 9bb5 863d 8b3a c53c 148b 3c3e 4452 b93d
00000260: 2f1a 03be 2f8d 9b3c 99c4 393e 605b 92bd
00000270: a69f 073e 4939 603c 8ca0 50bc e9f7 8bbd
00000280: ccf9 823e da74 15be 44bb ebbc 7fc3 eabc
00000290: 5286 4b3e e9b9 a4bd 4e62 df3b d9ec 0d3d
000002a0: 6961 70bd c530 083e b652 5abd 6074 883d
000002b0: 0d37 093e a72a c13d f38c 01bd 93e5 97bd
000002c0: f20c 4e3c ec32 063e cc21 033b 9336 7b3e
000002d0: b6f5 b4bc 7355 15bd d2bb 8cbb 964a 683d
000002e0: 07f7 583d d979 353e ae26 dbbb 9178 493d
000002f0: d24d 75bd 07bc 0dbd 6b80 48be cdda f83d
00000300: 5b25 e8bc 21c0 b93d ef03 2ebe 49e0 3bbe
00000310: 96be 21be 92ed 9abd e29a aebe 3ef8 fcbd
00000320: 0c47 1d3e 18ca a0bd 43b8 63be a450 16be
00000330: 64a4 27be 168f 3bbe ca23 6bbc efc8 98bd
00000340: 20db d4bb ffb9 fabd 3fea 10bd 6eb9 0dbe
00000350: dff2 0c3e ed1e 11bc d4d9 22bd a9ea 5fbd
00000360: ea2b 96bd 4c94 d4be a0f6 65be de55 9a3c
00000370: 267f c3bc 30ee 973d 2100 f0bc 7170 98be
00000380: 0623 d63d 9af8 7f3c a833 083d adce a93d
00000390: 9af6 473a 7340 0d3e 6b85 86bd 4108 77bd
000003a0: 9799 02bc b9de cf3c 40eb 02be 4c3f 103d
000003b0: 4165 8e3d 83af 563d b131 273e 7506 253d
000003c0: 0ef2 b9bd b154 993c 863b c13d 7fcf 10be
000003d0: 2288 053b 3602 af3d e20b 513e 1310 f23c
000003e0: 2132 1c3d 5c61 2ebe b7df 823d 4bb6 d3bd
000003f0: 17e2 613d a32e 033e 2016 11bd 1cab cabc
-0.03979162 -0.037363563 -0.034025133 -0.16695136 0.04554239 0.03487144 -0.014173605 -0.13292505
-0.12819828 -0.057484455 0.04727983 0.034314886 0.012054407 -0.17192498 0.073650405 0.09521735
0.0282246 0.16112873 -0.09442427 -0.07509757 -0.1122769 0.12860014 0.17363681 0.13320243
-0.048612174 -0.16875312 -0.20861994 0.026269704 0.05063 -0.032021943 0.07560834 0.13805091
0.063238196 0.17304079 -0.015954774 0.028461212 -0.151761 -0.007925558 -0.11005902 0.028190413
-0.21274492 0.0062233796 -0.04049518 -0.046892237 -0.032723777 -0.01591294 0.08310932 0.014205142
-0.1352992 -0.21784377 0.04669586 -0.112824015 -0.02458062 -0.0026182267 -0.0034727114 0.051698636
-0.060644563 -0.046245076 0.14702421 -0.16480961 0.013727426 -0.11004488 -0.12412957 -0.15807264
-0.07964263 -0.23873815 -0.06545003 0.046412867 -0.06572688 -0.103755236 0.12942049 0.052833606
0.04179327 0.03064726 0.107368656 0.05731155 -0.041313108 -0.21898115 -0.1559191 0.07258379
-0.0028494776 -0.047565725 -0.06899582 -0.078534104 0.04311877 -0.09299483 -0.025706554 -0.006946117
0.1134163 -0.11706923 0.060649183 0.051698074 -0.08187573 0.024056064 0.0045038327 -0.21352038
-0.05402658 -0.07636 -0.12736171 0.08067855 0.27027404 -0.014059419 0.24055786 -0.030367495
0.27016753 -0.12259883 0.040118214 -0.07618647 -0.03420421 0.21285562 -0.01973594 -0.062129106
0.09497208 0.17051816 0.013189525 0.09245026 -0.111280315 0.09906719 -0.04629954 0.052064016
0.02019782 0.37882718 0.0044874223 -0.0034781732 0.04193885 0.07018115 0.03531045 0.14530717
-0.012715558 -0.046447612 -0.07732956 0.027039781 0.1368516 -0.12176509 0.057747535 -0.12080355
-0.32842916 0.064298175 0.08624662 -0.01170794 0.038783077 0.08822683 0.15378715 0.09563171
-0.090826176 -0.15170017 0.026615277 0.013655023 0.06577607 0.024075767 0.18412429 0.09048894
-0.12802957 0.01898822 0.18141402 -0.07146335 0.13244495 0.013685533 -0.01273359 -0.068343945
0.25581205 -0.14595357 -0.028775819 -0.028657673 0.19875458 -0.08043272 0.0068171388 0.034649704
-0.058686648 0.13299854 -0.053301536 0.06662822 0.13399906 0.094319634 -0.03162856 -0.07416835
0.012576329 0.13105363 0.0020009158 0.24532537 -0.02208982 -0.036458444 -0.004294851 0.056711756
0.05296996 0.17722262 -0.0066879606 0.049187247 -0.05988867 -0.034603145 -0.19580238 0.12151108
-0.028338125 0.09069849 -0.16993688 -0.18347277 -0.15795359 -0.07564844 -0.3410254 -0.12352036
0.15359133 -0.07851046 -0.22238259 -0.146792 -0.16371304 -0.18316302 -0.0143517945 -0.074602
-0.0064958483 -0.12242507 -0.035379644 -0.13840267 0.13764523 -0.008857471 -0.03975852 -0.05466715
-0.07332595 -0.41519392 -0.22457361 0.018839773 -0.02386434 0.074184775 -0.029296936 -0.29773286
0.10455899 0.015623236 0.03325239 0.082913734 0.0007627994 0.13794117 -0.06568416 -0.060310606
-0.007971189 0.025374757 -0.12785053 0.035216615 0.069529064 0.052413475 0.1632755 0.04028936
-0.090793714 0.018717142 0.09435181 -0.14141653 0.002037533 0.085453436 0.20414689 0.02954868
0.038133744 -0.17029327 0.063903265 -0.10337504 0.055147257 0.12810759 -0.03542149 -0.024739794

layers.0.wix.r_weight f4 [1, 32]
00000000: 812a fbbe c306 7cbe e87a 023c 02aa cbbe
00000010: ab8e c8bd 439c 1abf 3cbe 5cbd 0c62 e0be
00000020: a8a3 f73d 2708 b7bc 15c6 bd3e 2e74 5dbd
00000030: 8aeb 133e 650a a6be 3a0c dfbe dc78 f33d
00000040: c6c1 663e a0e4 cdbe 50ae 1dbf 9bd5 99bd
00000050: 0a6d fcbd b9a3 183e e63c 16bf 4397 36bf
00000060: a25c 043f 28e5 03be 5f2a aebd b2ab bbbe
00000070: ab72 d3be 6749 bcbe ba46 f9be 30f8 97be
-0.49055865 -0.24611954 0.007963873 -0.39778143 -0.09792837 -0.60394686 -0.05389236 -0.43824804
0.12091762 -0.022342755 0.37065187 -0.054065876 0.1444532 -0.32429805 -0.43564016 0.118882865
0.22534856 -0.4021349 -0.61594105 -0.07511445 -0.12325485 0.14906205 -0.58686674 -0.7132456
0.51703846 -0.12880385 -0.085041754 -0.3665443 -0.41298422 -0.36774752 -0.48686773 -0.2968154

layers.0.wix.i_weight f4 [1, 32]
00000000: a0d1 39be 7ca1 db3c 279f 52bd 9229 be3d
00000010: 9355 06be 58c8 ca3d da69 d8bd b00a 893e
00000020: fa14 6c3e 8fae 343d fbe6 52bd 8a19 a33d
00000030: d27d 043f 9eb2 263d a51a 533e 8f72 fbbc
00000040: 4d86 283d 502d 0ebe d7d1 78bc a671 1bbe
00000050: f6c3 173e 5351 b43d 57b5 20bb 91a2 99be
00000060: acb0 5a3e a7c6 003e 7891 7b3e 4b19 d6be
00000070: aa56 b53c 32f1 f2bd 016f 29be c2a4 9abd
-0.18146372 0.0268104 -0.05142131 0.09285273 -0.13118581 0.09901494 -0.105670646 0.26765966
0.23054877 0.044111785 -0.05148981 0.079638556 0.51754487 0.040697686 0.20615633 -0.030694274
0.041143704 -0.13884473 -0.0151867485 -0.15180072 0.14820847 0.08804574 -0.002452215 -0.3000684
0.21356457 0.1257578 0.2456721 -0.41816172 0.022136051 -0.118624106 -0.16546251 -0.07550956

layers.0.wix.j_weight f4 [1, 32]
00000000: 014c 1c3e ea69 273d ae68 08bd d421 493e
00000010: 0165 40be c090 6fbe 6c34 1fbd e816 4e3e
00000020: 224e ccbd 257a cc3a 96d1 3ebe a475 a4bd
00000030: 47aa 693e 39ca 92bc b90a 30be f56e 8c3c
00000040: 8ab2 b13b 4e22 03be f564 113e 27ed 093d
00000050: cc96 96bc 5644 363d c3eb a5bd c113 41be
00000060: f295 583e fb5b fd3b 4463 b0bd 42cb bbbe
00000070: 02a9 3bbe dd67 20be 5396 3dbe cc88 1a3d
0.15263368 0.040872492 -0.033302955 0.1964181 -0.1878853 -0.23395061 -0.038868353 0.20125926
-0.0997584 0.0015600367 -0.18634638 -0.08030251 0.22818862 -0.017918693 -0.1719159 0.017142752
0.005422895 -0.12806055 0.14198668 0.03367343 -0.018382452 0.044498764 -0.081016086 -0.18855192
0.2115095 0.007731912 -0.086126834 -0.3667851 -0.1832619 -0.1566462 -0.18514375 0.037728116

layers.0.wix.k_weight f4 [1, 32]
00000000: 7ff7 363c 8dd4 dfbd f421 b3bd 9080 5b3c
00000010: a597 f3bc 66a6 3b3d d370 803d ce3c b33e
00000020: 62fd 3abe 8d0f db3d 3127 013e 5c86 7e3d
00000030: bf14 edbd facd 14bd 8a0b 1ebe 751d 253d
00000040: f3bc 61bb 2778 19be 1a0a 1dbd 30f9 8d3d
00000050: 4ecd fdbc fbd6 5ebd 0c3a 95be 9c1f 12be
00000060: fc33 5ebe 1e58 91be 7c45 c03e 67db 333d
00000070: 631e 813e 274a 933d 14eb 873c 9405 593d
0.011167406 -0.10929213 -0.087467104 0.013397351 -0.029735396 0.045812987 0.062715195 0.35007328
-0.1826072 0.106963255 0.12612607 0.062139854 -0.11576223 -0.036329247 -0.1543409 0.040311296
-0.0034444898 -0.1498724 -0.03833971 0.06932294 -0.030981686 -0.05440424 -0.2914585 -0.1426987
-0.21699518 -0.2838754 0.37553012 0.04391041 0.25218496 0.07191878 0.016591586 0.052983835

layers.0.wix.bias f4 [128]
00000000: 9fa6 193d 52e1 c33d d432 bcbe 0eab eebe
00000010: d67c be3d cccd 4ebf b62d 20be 0e1c 12bf
00000020: 50b8 a73e 9239 733e c569 45bd 725a 383e
00000030: 306f e6be 5338 403e da7d a8be 6bac 503e
00000040: 21ed 4ebe 5fc5 d2be 1b36 25bf 1d0d 3e3e
00000050: 0697 87bd a1bb eb3d 0299 f6be 325b 99bf
00000060: de24 0c3d 3723 eebd 5206 1ebf 3ec4 5e3e
00000070: e234 d1be f86e 08bf cc47 c2be 634a 543d
00000080: 3b7a 4abe 1683 823e df03 92be 4141 e0be
00000090: a443 e83d 6d43 70bf fdf5 44be c09f e9be
000000a0: 53ab 733e db00 063e 1cd0 4dbd 26b7 ff3d
000000b0: 66fe 28be fddb 593e 76ae 98be fa0a 873e
000000c0: 2c30 86be 7b90 c3be 408d 60bf 1283 073e
000000d0: 33c0 40bf 5130 aebd 4c16 cebe 9c34 abbf
000000e0: 46a7 d5bd 1d58 90bd fb26 d8be c2d9 a9be
000000f0: 6385 29bf 988c aebe f207 9fbe b858 9cbd
00000100: 5b14 a53d 512b 873e d7af d5be 7fb1 98be
00000110: fab8 043e 1b7a 2ebf 03d9 afbe 15a0 28bf
00000120: 622b c23e 9744 273e 7f55 fabe 48e3 043e
00000130: 0161 7bbe 7729 7e3e 907f cebe 7df8 353e
00000140: fc39 68be b98b acbe bfc8 16bf 7a99 563e
00000150: 882f 7ebe 4f93 b13d 12d6 1fbf 4090 9ebf
00000160: 0190 80bb 0982 693d de1f edbe 4892 e3bd
00000170: 4dab b9be a081 dfbe 3897 d6be 5bef 643c
00000180: 4c82 2abe 2521 ec3d 32f3 acbe 0b5c d3be
00000190: 5714 c83d 7d64 36bf af10 f5bd 6ce4 2abf
000001a0: cf20 8d3e 942c 183e 7852 3abd 5e13 653e
000001b0: 6b96 27be a704 5f3e 4bf9 8fbe 6a1a 303e
000001c0: 0748 30be c5e6 c7be 2a56 4cbf f1e8 2f3e
000001d0: 2358 f1be 6a93 fabd 7e97 f5be 8d02 b1bf
000001e0: cf1d 3c3d c073 3ebd 19f4 e5be 76ec 693d
000001f0: 5d07 83be 8f62 a0be 611e 9bbe bdb4 a23c
0.037512418 0.09564461 -0.3675753 -0.4661488 0.09301154 -0.8078277 -0.15642437 -0.5707406
0.32757807 0.2375243 -0.048196573 0.18003252 -0.45006704 0.18771486 -0.32908517 0.20378272
-0.20207645 -0.41166207 -0.64535683 0.1855969 -0.06620602 0.11510397 -0.4816361 -1.1980956
0.034214847 -0.116278104 -0.61728394 0.21754548 -0.4086066 -0.53294325 -0.37945402 0.051828753
-0.1977319 0.25490636 -0.28518578 -0.43799785 0.113410264 -0.93852884 -0.19234462 -0.45629692
0.23795824 0.13086264 -0.050247297 0.12486105 -0.16503295 0.21275325 -0.29820603 0.26375562
-0.26208627 -0.38196167 -0.8771553 0.13233593 -0.7529327 -0.085053094 -0.40251386 -1.337543
-0.104322955 -0.07048056 -0.4221724 -0.3317395 -0.66219157 -0.3409164 -0.3106075 -0.07634109
0.08060523 0.26400235 -0.41735718 -0.2982292 0.12961188 -0.6815507 -0.34345254 -0.65869266
0.37923723 0.16334759 -0.48893353 0.12977326 -0.24548723 0.24820505 -0.40331697 0.17770572
-0.2267837 -0.3370035 -0.58900064 0.20956984 -0.24822819 0.08670675 -0.6243602 -1.2387772
-0.0039234166 0.057008777 -0.46313375 -0.11111885 -0.36263505 -0.43653584 -0.41912246 0.013973082
-0.16651267 0.11529759 -0.33779293 -0.4128116 0.097695045 -0.7124708 -0.11966073 -0.66754794
0.27564093 0.14860755 -0.045488805 0.22370669 -0.16365974 0.21779118 -0.28119883 0.17197576
-0.17214976 -0.3904325 -0.79818976 0.17178704 -0.47137555 -0.12235148 -0.47967142 -1.3828903
0.045926865 -0.046497107 -0.44912794 0.057110272 -0.25591555 -0.31325194 -0.30296615 0.019861573

layers.0.uih.r_weight f4 [32, 32]
00000000: 95a4 1bbd 2be3 d6be 6ee8 63bd fc32 9f3e
00000010: a9d4 24bf 363f 60be 74ae a53e aef2 fd3d
00000020: 02b6 583d 1d87 2cbe 0517 523e 43c9 743e
00000030: 5cdb 8fbd 6c25 31be 1a5c d83b 5616 223e
00000040: 04be 103d 8748 503d d4ca 253c 4e52 5e3d
00000050: eb96 12be 4b86 1f3e d75b 37be 19bd 14be
00000060: 32a0 0f3e 45e0 ba3c b19a aa3d d6fe f8bd
00000070: 4fb7 063b 65b3 233e 8267 17bd 3d84 46bb
00000080: 753b 843e 143a 2d3e 94f7 82be b676 aabe
00000090: af08 8d3e fda0 20be d647 3dbe 46d2 0f3e
000000a0: 8381 6b3d 905d 383d 7017 e6be fcaa 74bd
000000b0: bea7 7bbe 8b6e 143f 1211 543d 1d43 fdbd
000000c0: fce9 2d3c fff1 7b3d 5414 ba3d d3df bd3d
000000d0: 533b 9cbe d27b f53d 0561 883d c2c0 6b3e
000000e0: bcf1 c9be 9c7a 563e 18bf 73be 8a92 ec3e
000000f0: a90f 8a3c 7374 db3c c0dc 32be 5558 fb3d
00000100: deb0 8c3e c91c 873d e71c 723e 38fc cf3c
00000110: 1a05 083e 7630 f4bc a930 12be 394c 043e
00000120: 2197 2fbe 6bab d5bd d08b 833e 74cd 003e
00000130: e791 653e ca67 063e 890e 3bbe 9d74 f73d
00000140: 473b fe3c f6fe b53d a35b bdbd 4c30 09bd
00000150: 5ef4 fb3b 25fc 513d 9431 c73d 3f8f b03d
00000160: 98f9 0d3d 4e4a 823e 9174 8ebd 3dc4 3ebd
00000170: d0f9 8b3d fb72 72be 2f87 2bbb e872 033e
00000180: 77e1 2dbc 1737 203d 31e1 dabd a7b5 fc3d
00000190: ab16 a2be de74 b3bc dbf5 b0bd fa7b 283c
000001a0: 4fe1 efbe 879f 233e c8ee 4bbd b8c9 0ebf
000001b0: 8850 2ebe 3ee3 9bbe 5fdf 98bd f12f 8e3d
000001c0: 1b68 6dbe 187a 503d 62d6 71bd 6660 8bbd
000001d0: f056 89be 7878 91be dcab 99be 854b 1a3e
000001e0: 5305 68bd f6e0 8ebe b0eb 893c 07f6 303e
000001f0: af61 26bc b152 503e fe27 1dbe 8f23 90bc
00000200: c81d 113e 56d6 b73d 62e1 1b3e ecf0 a2be
00000210: af18 243e 1895 06bd d416 9d3d 9ccc 8f3c
00000220: dbc8 9bbd f9ae 50bc 4a15 96be 2aa3 8b3d
00000230: 3a74 6d3e 1fe9 153f c3bf 37be d2f0 01be
00000240: 8475 8f3d 1b91 603e 2df1 323e c3bd 8d3e
00000250: 63b8 f6bd f672 9cbc de44 22bd d941 2b3d
00000260: b151 fc3d d24e c63e af72 ef3c 7ab4 673d
00000270: 501a c1bc 231c 483e 58ff 853e 8e6b 773e
00000280: 8d14 023d 459e ebbd e490 9abd a50b 243e
00000290: 1ce4 b03d 3b28 64bc b2c5 b33d f484 89be
000002a0: f553 51bc 7dee edbd 4632 03bf 7ca2 c1bd
000002b0: 0f77 3a3e 9acc 8e3e ffe7 06be 5588 333d
000002c0: 37d3 3f3d 31ff a43e 347d 323c 9cde 153e
000002d0: 0060 79be c522 66bd 81bf dabd 945f 79bb
000002e0: ac34 253d dc37 483e 94e4 e5bc 2654 493e
000002f0: e73d e53d 4e3f 38be 3d9b 263e 6eef fcbd
00000300: 14f2 90be 34f6 96be 89e3 4a3e 9925 27bd
00000310: 86e1 293e 1616 173d 195c 9f3d aa50 9bbd
00000320: 9351 f4bd 77d1 9d3c 9106 623e f820 223e
00000330: 36ab 25bb f50c b2be 6123 82bd b286 823e
00000340: f470 873e 217b 073c 3f02 1f3e 97ec c0bd
00000350: 4c5c 2d3d dbfc 903c ee7d e73d fff7 c13d
00000360: 54d3 ffba 9b5c 4b3d bf75 093e ea58 81be
00000370: 09be 68bd 8f8f 5abe 4331 2a3e b2c8 debd
00000380: 6d02 fd3d 6136 12bd 28a6 b6bd 775f 273e
00000390: 4492 90bd 82b0 cfbb e832 0bbe fb24 1bbe
000003a0: 0e57 b63d 9cad 753e bc1c 023e 38d0 c03e
000003b0: d2fd 8d3e bed3 b93e 2b3d 2c3d 2bb8 dc3d
000003c0: e35a 183e 9ae5 223e aceb 7d3e 4439 7d3e
000003d0: 01b2 13bd f974 f6bd 1c50 573e 5577 eebd
000003e0: e281 903d 8006 5a3e 3e1f 7ebd bb1f 003d
000003f0: 4f0b aa3d bd78 293e dbec 7a3d 61ab 693e
-0.037998755 -0.4197019 -0.055641584 0.31093585 -0.64386994 -0.21899113 0.3235966 0.12399803
0.05290795 -0.16848417 0.20516594 0.239049 -0.07024261 -0.17299432 0.0066027762 0.15828833
0.035337463 0.050850417 0.010119159 0.05427771 -0.14315383 0.15578572 -0.17906128 -0.1452526
0.14025953 0.022812018 0.08330286 -0.12157981 0.0020556038 0.15986402 -0.036963947 -0.0030291223
0.25826612 0.16916686 -0.25579512 -0.33293694 0.27545688 -0.15686412 -0.18484434 0.14045057
0.05749656 0.045011103 -0.44939756 -0.059733376 -0.24575707 0.57981175 0.051774092 -0.123663165
0.010614868 0.061510082 0.090859085 0.09271207 -0.3051401 0.119865075 0.0665913 0.2302275
-0.3944224 0.2094521 -0.23803365 0.4620555 0.01685317 0.026788926 -0.17467022 0.122727074
0.2747869 0.06597287 0.23643838 0.025388822 0.13283196 -0.029808264 -0.14276375 0.12919702
-0.17147495 -0.10433086 0.25692606 0.12578374 0.22418939 0.1312553 -0.18267263 0.12082789
0.031034125 0.088865206 -0.09245994 -0.033493325 0.007689043 0.051265854 0.09726253 0.08621072
0.03466186 0.25447315 -0.06955827 -0.046573866 0.06834757 -0.23676674 -0.0026173105 0.12836802
-0.010612837 0.039115038 -0.10687483 0.12339335 -0.3165792 -0.021906313 -0.08640643 0.010283465
-0.46851584 0.15978824 -0.049788266 -0.5577655 -0.17022908 -0.3044681 -0.0746448 0.06942738
-0.23184244 0.050897688 -0.059042342 -0.06805496 -0.2682414 -0.28412223 -0.3001393 0.15067871
-0.056645703 -0.27906007 0.016836017 0.17281352 -0.0101551255 0.20344044 -0.15347287 -0.01759508
0.14171517 0.08976428 0.15222695 -0.31824434 0.16025041 -0.03285703 0.0767037 0.01755362
-0.076066695 -0.012737029 -0.29313117 0.068182305 0.23188868 0.5855884 -0.17944245 -0.12689522
0.07004836 0.21930353 0.17474814 0.2768384 -0.12046888 -0.019097786 -0.039616458 0.041810844
0.12320269 0.3873201 0.02922949 0.0565686 -0.023572117 0.19541983 0.26171374 0.24162123
0.03175788 -0.11504797 -0.07547167 0.16020067 0.086372584 -0.013925607 0.08777942 -0.26859248
-0.012776365 -0.11617754 -0.51248586 -0.094548196 0.1820948 0.27890474 -0.13174437 0.04383119
0.04683229 0.32225946 0.010894109 0.146357 -0.24353027 -0.056185503 -0.10681058 -0.0038051354
0.040333435 0.19552559 -0.028063096 0.19661006 0.111934476 -0.17992899 0.16270156 -0.12350355
-0.2830969 -0.29484713 0.1981336 -0.04080734 0.16589937 0.036886297 0.07781238 -0.07583745
-0.119296215 0.01926492 0.22072817 0.15832889 -0.0025279052 -0.3477551 -0.06354404 0.2549339
0.26453364 0.008269102 0.155282 -0.09420126 0.04232435 0.017698696 0.11303316 0.094711296
-0.0019517937 0.049648862 0.13423823 -0.2526315 -0.056821857 -0.21343826 0.16620354 -0.10878123
0.12353978 -0.03569639 -0.089184105 0.1634501 -0.07059148 -0.00633818 -0.13593638 -0.15150826
0.08903323 0.23992008 0.12706274 0.37658858 0.27732712 0.3629436 0.04205052 0.10777315
0.1487842 0.15907899 0.24796933 0.24728876 -0.03605843 -0.120340295 0.21026653 -0.116438545
0.07056023 0.21291542 -0.062041514 0.03128026 0.08302938 0.16549964 0.06126104 0.22819282

layers.0.uih.i_weight f4 [32, 32]
00000000: ba29 b83d 9cf2 fd3d d277 26be 6e00 d2bd
00000010: 88a9 163e eb65 44bc 950a 413c 4436 a23b
00000020: 2692 853d 01da 273e 91e8 8e3d dc8a 08bc
00000030: ac53 5ebe 5536 2e3d a30c 373d 9fa6 37bd
00000040: c251 1e3e f00f bb3d 8bca e3bc 581f b13b
00000050: 15f8 4cbd 2edf 6f3d a563 923d 01fd aa3d
00000060: b99a 493e bdda 733e 1a42 fc3d f6c9 11bd
00000070: 21e6 12bd 8a3d 1bbe 0f18 a53d 64e3 793d
00000080: df2d 283d 4f2c bbbd 2abf d53a f93b 3dbd
00000090: cc81 103b bf21 003d 78c5 ef3d 800b 19bc
000000a0: 19f9 cc3c cc00 0a3e 26e0 16be 00d5 b2be
000000b0: c1bb abbd a396 25be 3181 08bd 0f48 a3bd
000000c0: 6e86 42bd a281 9a3d 05eb ae3c aec3 72be
000000d0: a0eb 37be fb4b 54be 7855 f8bc 45d9 0a3e
000000e0: 94e8 213e cd84 dcbd d05b 7ebd 4d21 053e
000000f0: 5cfc ab3d 337a 003e 153a d6bc 12ad f4bd
00000100: 299c fe3d 375e 3cbd e7b9 fc3d 0986 ecbd
00000110: a70d e03d e05e 19be 5fae 5f3e ab03 cf3c
00000120: 6d4b 9e3d 07e8 263e 446e 15be 371f 1d3b
00000130: a593 6d3d d416 1a3e 337e 23bd 625b 573c
00000140: 19ab 583d bfde 40bd 2492 2bbe e6dc 5f3d
00000150: 97bd bcbd 2658 803d 5132 dfbd 7d71 e4bc
00000160: cd80 1a3e c204 1abd 2cc5 c83d fdb1 d6bc
00000170: 17a3 4cbe bcfd fc3c 29f6 023e 46ab 4a3c
00000180: ece3 3c3d 9264 dfbd 6802 0cbe 20fc ea3d
00000190: 7646 d3bd c7b3 a93d 09d6 6a3d c2fa 13bc
000001a0: 35b4 dfbd 8f28 ba3c 4bcc 7a3e edbe 5ebc
000001b0: 90b9 023e 4290 a13b fc50 343d b03c 1d3d
000001c0: 864d 1fbe 5ff9 3d3c 2025 19bd b140 823d
000001d0: 489c 00be 9340 b03c 6cf6 163e 49fe 933d
000001e0: 107a 203d 67bd b23d 01e7 f43d baf7 a63b
000001f0: 7b04 f03d 2df2 bdbd 65ed d43d 3fc1 9fbd
00000200: e6dc 873d fa9d 303e a641 8ebd b7f2 81bd
00000210: 09d8 e43c 9d53 c7bd 19c9 963d f56a 39bd
00000220: b090 b13d 71fb 3e3d b1a6 64be 2fe0 483c
00000230: c59e 8ebd 4d01 97bd c0fe 36bd d77f 5bbb
00000240: 180a aebd 97d5 123e cc25 f6bd b6ad 2bbc
00000250: e320 b13c 572d f1bd 92fd 39bd 9d5f 583d
00000260: e727 70bd 7e22 2ebd fe3e 11be 2e80 8a3e
00000270: b832 43bd e0a2 983d ed39 ad3a 1621 173e
00000280: 4821 4bbc c358 17be ea40 413e a76a eabd
00000290: 5f9d c9bd 9cc4 713d 70bb d3bd 0746 10bb
000002a0: 88ac a4bd 337e c0bc 17f9 2d3e c37e 7bbe
000002b0: babd 8cbd 1665 38be bad2 7dbd 8769 35bd
000002c0: 28e6 d3bc 2465 803c b684 5bbe 8242 69be
000002d0: 5946 d23c 9286 4ebd b9f1 913d feeb 8abd
000002e0: 4aff 13bd 75d7 02be 76a8 93bd 4747 d93d
000002f0: d339 f83c 1d4c 0cbe 0145 c63d 0305 0dbe
00000300: 96ec 713e 09f8 393e bd49 023b 4e38 30bc
00000310: aac3 e33d d1e0 4dbe 9e4c 803d 610c a4bd
00000320: d584 783d 6811 363e ca8c 0abe 623a 183e
00000330: 79cb 883e 4ab3 7d3e a677 873d bca9 21be
00000340: 4511 123c bc70 5c3d 007f 6fbd 044e b43d
00000350: 7ae4 4bbe 30e2 0fbd 9ac1 1ebe 273b 10be
00000360: 5e6c 5b3c 720f d63d fa0a be3d 1025 823e
00000370: ace3 d33c 646c a73e 7cba cfbd cbb2 a33e
00000380: f8ba cf3d e9b3 b6bd b84a 3abe 6982 06bc
00000390: 75e9 afbd 0c08 64bd d2b0 d33c 965f 96bd
000003a0: beef fcbd 583c 443d 4f68 e0bd 7337 35be
000003b0: f98c 10be 7ec3 b8bc 032e f1bd 692d 3f3e
000003c0: 95b8 8fbc 2250 043d c49e b83d e733 a63c
000003d0: 0d04 6b3d 9f86 dfbd c1bb 40bd 3d90 a73c
000003e0: 2cfa eebc 06cb d6bd 9cd2 51bc 5e0d 24be
000003f0: ea7c 073c 224b 9ebc aba8 173c 6035 e83d
0.08992334 0.1239979 -0.16256645 -0.10253988 0.14713109 -0.01198719 0.011782308 0.0049503166
0.06522016 0.16391756 0.06977952 -0.008333888 -0.21711606 0.042532284 0.044689786 -0.044836637
0.15460876 0.09133899 -0.027806541 0.005405348 -0.050041277 0.05856245 0.07147912 0.08349038
0.19687928 0.23813911 0.12317295 -0.035592996 -0.035864 -0.15160194 0.080612294 0.061007872
0.04105937 -0.091393106 0.0016307582 -0.046199773 0.0022050021 0.031282183 0.11707586 -0.009341121
0.025021123 0.13476866 -0.14733943 -0.3492813 -0.083854206 -0.16170745 -0.03332633 -0.079727285
-0.047491483 0.07544257 0.0213523 -0.23707458 -0.17960978 -0.20732109 -0.030314192 0.13559444
0.15811378 -0.10767517 -0.062099278 0.13000984 0.08397743 0.12546615 -0.026150743 -0.11947073
0.12432129 -0.045988288 0.123401456 -0.11549003 0.10940104 -0.14977598 0.21843861 0.025270304
0.0772923 0.16299449 -0.14592844 0.0023974904 0.058002133 0.1504777 -0.039915275 0.013144346
0.052897546 -0.047087427 -0.16754967 0.054654025 -0.09215849 0.06266813 -0.10898269 -0.027886147
0.15088196 -0.037602194 0.098032326 -0.026207918 -0.19984089 0.030882709 0.12789215 0.012369936
0.0461158 -0.10907854 -0.13672793 0.1147387 -0.10316174 0.08286243 0.057333026 -0.009031953
-0.10923044 0.022724418 0.24491994 -0.013595325 0.12766099 0.004930527 0.044022545 0.038387954
-0.15556917 0.011595099 -0.03738892 0.06359995 -0.12559617 0.021515166 0.1474244 0.072262354
0.039178908 0.08727532 0.11958123 0.0050954493 0.117196046 -0.09274707 0.10396842 -0.07800531
0.0663393 0.17247763 -0.06946115 -0.06345122 0.027935045 -0.09732745 0.07362575 -0.045268018
0.08670175 0.046626512 -0.22329213 0.012260481 -0.06963877 -0.07373295 -0.044676542 -0.0033492947
-0.08498019 0.1433929 -0.12018928 -0.010478428 0.021622127 -0.11776226 -0.04540784 0.05282556
-0.058631804 -0.042513363 -0.14184186 0.27050918 -0.04765579 0.07452941 0.0013216116 0.14758715
-0.012398072 -0.14779954 0.18872419 -0.114461236 -0.09844469 0.059025392 -0.10338485 -0.0022014396
-0.0804072 -0.023497676 0.16989551 -0.24560075 -0.06872125 -0.18007311 -0.061968543 -0.04429009
-0.025866583 0.015673228 -0.21437344 -0.22779277 0.02566831 -0.050421305 0.07126183 -0.06783293
-0.036132134 -0.12777503 -0.07209866 0.10609298 0.03030101 -0.1370091 0.0968113 -0.13771443
0.23625407 0.18161024 0.0019880377 -0.010755612 0.11121304 -0.20105292 0.062646136 -0.080101736
0.060673553 0.17780077 -0.1353027 0.14866021 0.26717737 0.24775425 0.06614618 -0.15787405
0.00891525 0.05381845 -0.058470726 0.08803943 -0.19911376 -0.03512782 -0.1550354 -0.14085065
0.013392536 0.10452165 0.09279437 0.254189 0.025865398 0.32699883 -0.10142991 0.31972346
0.10143083 -0.08921034 -0.18192565 -0.008209803 -0.0858945 -0.055671737 0.02584115 -0.0734245
-0.12350415 0.04790911 -0.10957395 -0.17696933 -0.14116277 -0.022554155 -0.11776354 0.18669666
-0.01754407 0.032302983 0.09014657 0.02028842 0.05737691 -0.10914349 -0.047054056 0.02045452
-0.029172026 -0.104879424 -0.012806561 -0.16020724 0.008269528 -0.019322935 0.009256522 0.113383055
