models/QLSTM_qal_batch10_epochs10.pth (torch, 237707 bytes, 76 tensors)

r_weight f4 [1, 32]
-0.10246025 -0.2241388 -0.7899776 -0.31775278 -0.69639736 -0.29512993 -0.46219558 -0.7127315
0.29282045 -0.53494364 -0.80781555 -0.45229954 -0.628157 -0.4564992 -0.54046404 -0.69639224
-0.67978084 0.061762284 -0.66062677 -0.43377775 -0.9975563 -0.83648473 -0.44372177 -0.8610097
-0.4229628 -0.3399733 -0.40260488 -0.1674488 -0.90008605 -1.020246 -0.5915604 -0.5589668
00000000: aed6 d1bd a484 65be f93b 4abf 7eb0 a2be
00000010: 1947 32bf 451b 97be e6a4 ecbe 9275 36bf
00000020: 90ec 953e 11f2 08bf 00cd 4ebf ce93 e7be
00000030: e6ce 20bf 43ba e9be da5b 0abf c346 32bf
00000040: 1e06 2ebf 73fa 7c3d d61e 29bf 1e18 debe
00000050: da5f 7fbf dd23 56bf 802f e3be 226b 5cbf
00000060: 958e d8be fb10 aebe 3a22 cebe b377 2bbe
00000070: 0a6c 66bf 6c97 82bf 8170 17bf 7318 0fbf

i_weight f4 [1, 32]
-0.17047116 0.08908632 -0.0027615146 0.17590211 -0.03089006 0.045829594 0.021211281 0.10823594
0.17526175 0.003957368 -0.11294418 -0.20643355 -0.084180854 -0.1848515 0.013008766 0.27242723
-0.031364366 -0.2648348 -0.26302367 -0.08729224 0.03178274 0.13590935 -0.12243177 -0.011870611
0.31576362 -0.27138448 -0.21072589 -0.20943603 -0.26815078 -0.05543092 0.23000112 0.19475383
00000000: fe8f 2ebe e372 b63d 87fa 34bb af1f 343e
00000010: 270d fdbc d0b7 3b3d 48c3 ad3c ceaa dd3d
00000020: d177 333e cfac 813b 474f e7bd 5163 53be
00000030: 0367 acbd b649 3dbe b822 553c 957b 8b3e
00000040: ec77 00bd 6d98 87be 0aab 86be 46c6 b2bd
00000050: 9e2e 023d d22b 0b3e 82bd fabd f47c 42bc
00000060: c5ab a13e e8f2 8abe 87c8 57be 6676 56be
00000070: 0f4b 89be 880b 63bd 6a85 6b3e 8c6d 473e

j_weight f4 [1, 32]
-0.30994466 0.09313099 -0.04789531 -0.13367999 0.09315422 -0.15683897 0.053116355 -0.18413696
0.041247196 -0.023790568 -0.04086222 0.091408 0.032182626 -0.08891466 -0.024274986 -0.19212623
-0.17924966 0.15773518 -0.011564165 0.007209141 -0.061937764 0.11848437 0.17108767 0.025414055
0.2199985 0.13256422 0.24270128 -0.28973815 0.07833391 -0.1797891 -0.06558799 0.032602273
00000000: 11b1 9ebe 76bb be3d df2d 44bd 68e3 08be
00000010: a4c7 be3d 659a 20be 8990 593d 668e 3cbe
00000020: d2f2 283d 70e4 c2bc 255f 27bd 1e34 bb3d
00000030: eed1 033d e418 b6bd 56dc c6bc bdbc 44be
00000040: 398d 37be 5585 213e a077 3dbc a83a ec3b
00000050: 74b2 7dbd efa7 f23d 9b31 2f3e 2331 d03c
00000060: 4947 613e eabe 073e af86 783e 8f58 94be
00000070: 876d a03d a21a 38be ff52 86bd f689 053d

k_weight f4 [1, 32]
0.1452684 0.02780053 -0.10338167 0.14210914 -0.06566886 0.0036454333 0.24844198 -0.042030133
0.07606197 -0.036802817 -0.02669551 0.040033344 0.044771243 -0.09089468 -0.17666726 0.084941305
-0.074344024 0.17932746 0.20803565 0.0359109 -0.05291096 0.009980476 0.1700463 -0.1355977
-0.03781534 0.0110215 -0.021802243 -0.14775616 0.04532605 -0.06186484 0.089841194 -0.0065455236
00000000: 3dc1 143e f0bd e33c c5b9 d3bd 0f85 113e
00000010: 657d 86bd 39e8 6e3b 9367 7e3e ca27 2cbd
00000020: 61c6 9b3d 8dbe 16bd 8bb0 dabc 01fa 233d
00000030: 0d62 373d fd26 babd 43e8 34be b5f5 ad3d
00000040: ae41 98bd 9ea1 373e 4c07 553e 4f17 133d
00000050: 2ab9 58bd 2785 233c 9e20 2e3e 20da 0abe
00000060: 42e4 1abd 8693 343c 9e9a b2bc 644d 17be
00000070: cfa7 393d fd65 7dbd a9fe b73d d57b d6bb

bias f4 [128]
-0.60212016 -0.29062217 -1.4397936 -0.14643645 -1.694101 -0.21056312 -1.4154148 -1.7514344
0.08765108 -0.22151096 -1.3251765 -1.8734152 -0.5916301 -1.1830531 -0.25202784 -1.405521
-1.6047446 -0.18937925 -1.7015755 -1.6118784 -1.6202834 -0.12117021 -1.6960478 -1.311151
-1.1756746 -0.61165833 -0.663575 -1.4038746 -1.2752173 -0.18224709 0.015681334 -1.1103883
-0.1505126 -0.23279202 -1.5586212 -0.13661578 -1.8588358 -0.26658422 -1.2816708 -1.7611705
0.06185089 -0.18510294 -1.2348444 -1.7189204 -0.6109277 -1.1978378 -0.42374825 -1.2283634
-1.3275774 -0.19830427 -1.9524952 -1.2806884 -1.5905769 -0.0726181 -1.8410988 -1.5295846
-0.8253082 -0.6768783 -0.36020213 -1.4129528 -1.4779139 -0.5371008 -0.24608685 -1.4798219
-0.34018108 -0.36401346 -1.6438255 -0.17980325 -1.81358 -0.31675062 -1.6290947 -1.7164088
0.050250273 -0.21682508 -1.6389357 -1.5849578 -0.8767457 -1.0970508 -0.5082554 -1.1147021
-1.5190867 -0.13831423 -1.780162 -1.4316279 -1.5978895 -0.15544121 -1.8996602 -1.2299799
-1.0374753 -0.5658409 -0.5571862 -1.5045117 -1.203314 -0.31868455 -0.13489786 -1.1352359
-0.3227553 -0.17012331 -1.4763278 -0.2142619 -1.9579033 -0.30517787 -1.5123163 -1.7854909
0.21228012 -0.24446957 -1.4770275 -1.6522211 -0.46543294 -1.191634 -0.33424813 -1.2667792
-1.5949736 0.059755765 -1.710965 -1.4385128 -1.6621721 -0.090581566 -1.6882732 -1.3863362
-0.94875526 -0.7637708 -0.5848224 -1.4700046 -1.4495567 -0.3435053 -0.053826887 -1.2300602
00000000: 8c24 1abf 6ecc 94be 284b b8bf 70f3 15be
00000010: 4dd8 d8bf dc9d 57be 502c b5bf 012f e0bf
00000020: 6982 b33d c5d3 62be 629f a9bf 12cc efbf
00000030: 1275 17bf 496e 97bf cb09 81be 1de8 b3bf
00000040: 4568 cdbf a2ec 41be 3acd d9bf 0852 cebf
00000050: 7265 cfbf 1628 f8bd 1818 d9bf ccd3 a7bf
00000060: 817c 96bf a495 1cbf 0de0 29bf 2ab2 b3bf
00000070: 523a a3bf fb9e 3abe 2476 803c 3421 8ebf
00000080: fa1f 1abe 0861 6ebe e680 c7bf 02e5 0bbe
00000090: 55ee edbf ba7d 88be ca0d a4bf 096e e1bf
000000a0: 5c57 7d3d a08b 3dbe 620f 9ebf 9505 dcbf
000000b0: c265 1cbf c052 99bf 88f5 d8be 033b 9dbf
000000c0: 0eee a9bf 4610 4bbe 5deb f9bf 99ed a3bf
000000d0: 0698 cbbf ccb8 94bd 20a9 ebbf 6ec9 c3bf
000000e0: 6647 53bf e547 2dbf 6a6c b8be a3db b4bf
000000f0: 482c bdbf 707f 09bf 31fe 7bbe ce6a bdbf
00000100: 372c aebe f95f babe e068 d2bf 581e 38be
00000110: 6423 e8bf 232d a2be 2d86 d0bf 49b3 dbbf
00000120: 3bd3 4d3d 6507 5ebe a5c8 d1bf e6df cabf
00000130: 6872 60bf 296c 8cbf 071d 02bf 8fae 8ebf
00000140: 6f71 c2bf 3fa2 0dbe 59dc e3bf 953f b7bf
00000150: a587 ccbf fb2b 1fbe 1128 f3bf fb6f 9dbf
00000160: fecb 84bf f3da 10bf c1a3 0ebf d793 c0bf
00000170: 3106 9abf 9f2a a3be aa22 0abe 694f 91bf
00000180: 2f40 a5be ce34 2ebe 4ff8 bcbf 7967 5bbe
00000190: 939c fabf 4640 9cbe 9593 c1bf f78a e4bf
000001a0: f65f 593e 3b56 7abe 3d0f bdbf fb7b d3bf
000001b0: 3a4d eebe 7787 98bf 9222 abbe d225 a2bf
000001c0: 1828 ccbf 76c2 743d e700 dbbf 3021 b8bf
000001d0: 0ec2 d4bf d482 b9bd 5619 d8bf 7773 b1bf
000001e0: a0e1 72bf 7c86 43bf ecb6 15bf 1c29 bcbf
000001f0: 138b b9bf eddf afbe 9579 5cbd 9d72 9dbf

r_weight f4 [32, 32]
0.117712654 -0.14247422 0.017866088 -0.24514842 -0.0451783 -0.27414107 -0.41860074 -0.24408388
-0.43249774 0.25966135 0.022839362 -0.20225564 0.24742872 -0.113012135 -0.57633626 0.103255145
-0.110869884 -0.20168337 0.1713165 -0.092801265 0.18114252 -0.2081409 0.028628817 0.32899728
-0.20029637 0.010790758 -0.67871714 -0.36061165 0.2681958 -0.6121201 -0.41654766 -0.36542794
0.00029481947 0.16735698 0.19611332 -0.048594177 -0.25907427 0.11035904 0.17430516 0.13069196
-0.21970788 0.05189312 -0.037330937 0.07042082 0.060503993 0.14014688 -0.43238106 0.115244046
-0.16118844 -0.37556982 -0.07358535 -0.11700083 0.2398853 -0.15237029 0.07325745 -0.09143648
-0.03089819 -0.402384 -0.06929524 0.16325939 0.46286514 -0.59343684 0.15769263 0.08301615
-0.027729137 -0.093471594 -0.18342215 -0.62519443 -0.22166207 0.060550142 0.31986564 -0.041697416
0.4791911 -0.2453668 -0.20083693 -0.018562373 0.04774105 0.14477758 -0.064052716 -0.17575322
-0.29549637 -0.30799592 0.006988548 0.11268726 0.017413516 -0.49584076 0.17608498 -0.10282807
-0.08256816 0.14130291 -0.06607483 0.27549782 -0.21623391 -0.4031696 -0.117513195 0.14764194
0.21168643 0.06678728 0.21938841 0.18218753 0.036871303 0.061360233 -0.091186106 -0.1090412
0.037087 0.16664203 0.25119373 -0.06449882 0.2976578 0.30494726 0.14429837 0.071200654
0.54793894 -0.16867356 0.1549424 0.17189959 -0.11546396 0.0918823 0.11245405 -0.10991961
0.342929 0.39685932 0.22661413 -0.08266863 0.028167827 0.24330023 0.037220802 -0.03289696
-0.34813163 0.15195781 -0.021409873 0.28226638 0.16330871 0.49626842 -0.21037348 0.23138952
-0.2566593 0.11211322 -0.15171671 -0.09155906 -0.0046840534 0.14697163 -0.012135951 0.16093875
-0.13833506 0.094112754 0.16241813 0.20062537 -0.21758357 0.44280112 0.13723786 -0.0432014
-0.053781696 0.12203366 0.38202727 -0.3859081 -0.11170859 0.5845856 0.4243276 0.1052255
0.12092026 -0.22964486 -0.047863904 -0.22182038 0.15620911 0.011343932 0.13459772 0.15810232
-0.0972128 -0.2982781 -0.26183307 -0.14171395 0.011726957 -0.3422903 -0.47959355 0.15584743
-0.220744 0.001323179 -0.19361533 -0.09316642 -0.11621714 -0.049578663 -0.07883699 0.006368973
-0.28716987 -0.315997 -0.12259274 -0.04918635 0.22065826 -0.60209984 0.15938081 -0.27188602
0.12934078 0.12170313 -0.17028555 0.028820518 -0.14429893 0.3769394 -0.14500779 -0.049928356
0.024039986 0.22853099 0.4660812 0.2291615 -0.30820104 -0.026189668 -0.08812422 0.31628492
0.04659503 -0.07445618 -0.16994952 -0.049811002 -0.19147332 0.12495799 -0.114101104 0.059404776
-0.046210714 -0.17160836 0.17808585 0.104600884 0.031896114 0.7289685 0.23348537 0.18017025
0.18951218 -0.48681346 0.31197152 -0.17478175 -0.27052405 -0.6255653 0.21978469 -0.1279555
-0.1440338 -0.24159935 -0.048876848 0.08822687 0.2348538 -0.00406188 -0.31401852 0.028162863
0.25279477 -0.05960227 -0.053270485 -0.1464586 -0.25396606 -0.5437406 -0.079773806 -0.21269846
0.005040463 -0.39696667 -0.30579194 0.27421427 0.09690873 -0.5680954 -0.099828474 -0.21232899
00000000: 5513 f13d c3e4 11be e75b 923c 3008 7bbe
00000010: e20c 39bd 385c 8cbe d652 d6be 20f1 79be
00000020: 5870 ddbe 55f2 843e 9d19 bb3c 1a1c 4fbe
00000030: f45d 7d3e e872 e7bd c68a 13bf 6f77 d33d
00000040: c00f e3bd 1686 4ebe 986d 2f3e 970e bebd
00000050: 6d7d 393e e322 55be fb86 ea3c 5572 a83e
00000060: 7e1a 4dbe b8cb 303c 68c0 2dbf 17a2 b8be
00000070: f650 893e e7b3 1cbf bc45 d5be 5f19 bbbe
00000080: 0092 9a39 a15f 2b3e eed1 483e b00a 47bd
00000090: 62a5 84be ec03 e23d 0d7d 323e 1dd4 053e
000000a0: 1afb 60be e18d 543d 53e8 18bd ca38 903d
000000b0: 09d3 773d aa82 0f3e 0d61 ddbe 1205 ec3d
000000c0: 950e 25be b04a c0be eab3 96bd 229e efbd
000000d0: 7ea4 753e f506 1cbe 0008 963d 0d43 bbbd
000000e0: 331e fdbc 4705 cebe aaea 8dbd 782d 273e
000000f0: a9fc ec3e 7aeb 17bf 2d7a 213e 5f04 aa3d
00000100: 3728 e3bc 096e bfbd 04d3 3bbe be0c 20bf
00000110: 62fb 62be 6d03 783d 6ec5 a33e e9ca 2abd
00000120: 8958 f53e 6f41 7bbe 32a8 4dbe 1e10 98bc
00000130: 1f8c 433d 9340 143e 122e 83bd a7f8 33be
00000140: 4d4b 97be a4b1 9dbe 3100 e53b 94c8 e63d
00000150: caa6 8e3c d7de fdbe 9f4f 343e 8697 d2bd
00000160: 7f19 a9bd b6b1 103e 3e52 87bd 0d0e 8d3e
00000170: 6c6c 5dbe 3f6c cebe c2aa f0bd 732f 173e
00000180: 54c4 583e c5c7 883d 5ba7 603e 5e8f 3a3e
00000190: 5d06 173d de54 7b3d c8bf babd fe50 dfbd
000001a0: 8ae8 173d 35a4 2a3e 779c 803e f517 84bd
000001b0: 9a66 983e 0c22 9c3e f4c2 133e a6d1 913d
000001c0: ba45 0c3f c3b8 2cbe 38a9 1e3e 7206 303e
000001d0: 5e78 ecbd ca2c bc3d 4f4e e63d 881d e1bd
000001e0: 6494 af3e 2531 cb3e 890d 683e 2c4e a9bd
000001f0: 37c0 e63c b223 793e d774 183d f6be 06bd
00000200: 4f3e b2be d49a 1b3e c263 afbc 3885 903e
00000210: 663a 273e e516 fe3e 256c 57be 60f1 6c3e
00000220: d968 83be 9e9b e53d a05b 1bbe 5183 bbbd
00000230: b07c 99bb bb7f 163e ded5 46bc 21cd 243e
00000240: b5a7 0dbe 30be c03d f050 263e bd70 4d3e
00000250: 3ace 5ebe d4b6 e23e 1588 0c3e f4f3 30bd
00000260: 324a 5cbd c9ec f93d 1499 c33e bf95 c5be
00000270: 79c7 e4bd 67a7 153f 7841 d93e 7880 d73d
00000280: 0ba5 f73d 0628 6bbe f10c 44bd e224 63be
00000290: 48f5 1f3e e6db 393c fcd3 093e 93e5 213e
000002a0: 8117 c7bd e8b7 98be fc0e 86be 761d 11be
000002b0: 6c22 403c ad40 afbe 498d f5be 7896 1f3e
000002c0: b70a 62be 856e ad3a 1943 46be 09ce bebd
000002d0: 4003 eebd ff12 4bbd 4a75 a1bd d1b2 d03b
000002e0: ee07 93be 5cca a1be e711 fbbd a077 49bd
000002f0: 3df4 613e 3723 1abf b934 233e a534 8bbe
00000300: e971 043e 7e3f f93d 565f 2ebe 0219 ec3c
00000310: 19c3 13be 33fe c03e ec7c 14be ad81 4cbd
00000320: 81ef c43c 0704 6a3e 32a2 ee3e 50a9 6a3e
00000330: 87cc 9dbe b78b d6bc 797a b4bd 19f0 a13e
00000340: 6eda 3e3d 7b7c 98bd 3f07 2ebe 9f06 4cbd
00000350: 9511 44be fae9 ff3d d7ad e9bd 6c52 733d
00000360: 7247 3dbd 1aba 2fbe 235c 363e fd38 d63d
00000370: 80a5 023d ae9d 3a3f ca16 6f3e 8d7e 383e
00000380: 7b0f 423e 9d3f f9be bbba 9f3e fdf9 32be
00000390: 2182 8abe 0c25 20bf 3d0f 613e c406 03be
000003a0: 997d 13be d265 77be 1733 48bd 4ab0 b43d
000003b0: 847d 703e 8519 85bb 09c7 a0be ceb5 e63c
000003c0: 516e 813e 8321 74bd 2732 5abd 3ef9 15be
000003d0: d707 82be 9532 0bbf 7360 a3bd a0cd 59be
000003e0: 782a a53b 373f cbbe c390 9cbe d065 8c3e
000003f0: 1678 c63d b36e 11bf df72 ccbd c56c 59be

i_weight f4 [32, 32]
0.29400882 -0.4438912 0.047073208 0.3570503 -0.009765569 -0.6503893 0.26117653 -0.15029274
-0.1131013 -0.2352852 0.021676663 -0.023544833 0.15062366 -0.31237057 0.60595804 -0.26209983
0.23536776 0.26003343 -0.037166655 -0.01435568 -0.09972366 0.024773248 -0.050015863 0.14597596
-0.17016669 -0.2462376 0.09163051 0.10547973 0.087834544 0.52451575 -0.6487634 0.051214732
-0.19094847 -0.24693166 0.027150813 0.010822655 -0.016561173 -0.032352254 0.013129407 0.16985105
0.18287468 -0.047477476 -0.047713883 0.04247796 -0.25458378 0.12802677 0.21317795 -0.3416679
-0.14816613 0.025438197 -0.11041981 0.101211116 -0.19945341 -0.045971476 0.061718196 -0.08521247
0.017965453 -0.35001808 0.14397265 0.19038227 0.048330776 0.19558653 -0.09596172 0.27172437
0.13258204 0.46775797 0.025754785 -0.04571851 -0.049530547 0.17645188 -0.28064242 -0.23528846
-0.07962278 0.15153909 0.31672952 -0.118935816 -0.002372068 -0.36436564 -0.13243592 0.38441786
0.06380079 -0.5262083 -0.29961473 -0.3800204 -0.09112435 0.200511 -0.21860042 0.16926807
-0.10116802 -0.35335386 -0.13882647 -0.3316935 0.052713312 -0.02009397 0.17920026 -0.23620665
0.047156382 -0.18366876 0.21894395 0.13304986 0.050667707 -0.16408142 0.013734929 -0.16056773
-0.06960318 -0.08748291 0.33227682 0.06917979 0.2333901 0.07050096 -0.092183664 -0.06763867
0.18425445 0.08558139 0.15632269 -0.14167419 0.08212011 -0.22225769 0.097383656 -0.0753233
-0.2820599 0.34102532 0.1154371 0.10487165 0.055839486 -0.13533735 0.047126327 -0.052587625
0.10768865 -0.36909372 0.0680617 0.085449755 -0.034907326 -0.16894346 0.21898805 -0.2347982
0.08605325 -0.05080434 0.12584049 0.029146904 0.25231063 -0.24360913 -0.115008466 0.0066871415
0.12676342 0.0315605 0.028986381 -0.06359952 -0.05280557 -0.2863627 -0.11758671 -0.23989719
-0.22593856 -0.35844418 -0.26196405 -0.2926512 -0.10060411 -0.19104423 -0.17441209 -0.3100985
-0.089485936 0.14495568 -0.2537998 0.14537217 -0.08159003 0.21548505 -0.043563794 0.12982863
-0.07928526 0.079696745 -0.118693575 -0.09028664 -0.23823261 -0.0006320467 -0.029694945 -0.13929228
-0.08376322 -0.36904714 -0.20676579 -0.0018311441 -0.044147603 0.013111163 -0.031143041 -0.037848864
-0.00507746 -0.3946037 0.015101249 0.20447227 -0.2454453 -0.011337367 -0.057873856 0.11951758
-0.08249244 0.17274426 0.025402606 0.4751433 0.20620379 0.106962815 -0.075093895 0.050996445
0.056093726 -0.22579089 -0.023020849 -0.020185405 -0.0749948 0.065026104 0.076730594 0.28631964
0.17196968 0.09352725 0.035146818 -0.20997895 -0.031771865 -0.0044281953 -0.06668848 -0.1909398
0.07175838 0.0484058 -0.1370994 -0.18133591 -0.052620623 0.42026514 0.09283495 -0.17581773
-0.28223836 0.0066134883 -0.14096543 -0.06342889 0.004812802 0.01242535 -0.14210391 0.07853067
0.17248175 0.13365313 0.19129586 0.12307774 0.18577468 0.081473656 0.02810811 -0.05905026
0.035679244 -0.21113896 -0.3571125 0.20022964 -0.047838215 -0.0043311953 0.10160812 0.17522176
0.12799184 0.32855672 0.37659597 0.0631476 -0.02935539 0.15238138 0.097732164 0.19242659
00000000: 5388 963e b545 e3be d6cf 403d 4ccf b63e
00000010: c4ff 1fbc ea7f 26bf eeb8 853e 57e6 19be
00000020: a8a1 e7bd 9aee 70be 4293 b13c 18e1 c0bc
00000030: 173d 1a3e 09ef 9fbe 1120 1b3f f331 86be
00000040: 3f04 713e 1a23 853e 103c 18bd 1634 6bbc
00000050: eb3b ccbd 44f1 ca3c 6fdd 4cbd b97a 153e
00000060: 2d40 2ebe b625 7cbe c7a8 bb3d c205 d83d
00000070: 99e2 b33d aa46 063f 5c15 26bf 8ac6 513d
00000080: ff87 43be a7db 7cbe 626b de3c 8151 313c
00000090: 4cab 87bc cc83 04bd b91c 573c 6fed 2d3e
000000a0: 8043 3b3e be77 42bd a26f 43bd 5ffd 2d3d
000000b0: ce58 82be 7319 033e 524b 5a3e 18ef aebe
000000c0: ddb8 17be c463 d03c c823 e2bd c647 cf3d
000000d0: 843d 4cbe 964c 3cbd 38cc 7c3d e083 aebd
000000e0: 492c 933c 9235 b3be 916d 133e 92f3 423e
000000f0: 7ef6 453d d647 483e 9487 c4bd 751f 8b3e
00000100: 96c3 073e f97d ef3e b3fb d23c 5543 3bbd
00000110: 8be0 4abd cdaf 343e 5db0 8fbe 75ef 70be
00000120: 4511 a3bd 102d 1b3e 5f2a a23e 9f94 f3bd
00000130: b274 1bbb 228e babe 489d 07be 6bd2 c43e
00000140: fda9 823d 96b5 06bf 1a67 99be 0992 c2be
00000150: 679f babd c152 4d3e cad8 5fbe 9c54 2d3e
00000160: 2e31 cfbd ccea b4be 8728 0ebe bbd3 a9be
00000170: eae9 573d 1c9c a4bc 4680 373e 28e0 71be
00000180: 0d27 413d aa13 3cbe d832 603e 393e 083e
00000190: f188 4f3d f604 28be 7808 613c de6b 24be
000001a0: 1d8c 8ebd 3d2a b3bd 3020 aa3e 22ae 8d3d
000001b0: d0fd 6e3e cf62 903d caca bcbd 2586 8abd
000001c0: 33ad 3c3e 4c45 af3d 0e13 203e 0a13 11be
000001d0: 972e a83d 8597 63be 1571 c73d 1a43 9abd
000001e0: 286a 90be df9a ae3e 496a ec3d f3c6 d63d
000001f0: f2b7 643d e095 0abe 8907 413d 1f66 57bd
00000200: de8b dc3d daf9 bcbe ef63 8b3d 4800 af3d
00000210: fcfa 0ebd 84ff 2cbe 673e 603e f06e 70be
00000220: b03c b03d 3618 50bd 54dc 003e 7dc5 ee3c
00000230: dc2e 813e ac74 79be 8f89 ebbd cf1f db3b
00000240: 45ce 013e 9545 013d d974 ed3c 7740 82bd
00000250: a74a 58bd 229e 92be 4dd1 f0bd 9ca7 75be
00000260: 705c 67be ff85 b7be 2720 86be 61d6 95be
00000270: 8709 cebd 19a1 43be 1599 32be 3bc5 9ebe
00000280: 6744 b7bd 436f 143e 0cf2 81be 71dc 143e
00000290: ac18 a7bd 1da8 5c3e f36f 32bd ccf1 043e
000002a0: 4f60 a2bd 0c38 a33d 9e15 f3bd 34e8 b8bd
000002b0: 40f3 73be f0af 25ba d042 f3bc a3a2 0ebe
000002c0: 0d8c abbd bff3 bcbe 69ba 53be 0003 f0ba
000002d0: 1ed4 34bd 34d0 563c b11f ffbc 6907 1bbd
000002e0: d260 a6bb 7f09 cabe 3b6b 773c 2e61 513e
000002f0: 0356 7bbe 5dc0 39bc 230d 6dbd a2c5 f43d
00000300: ccf1 a8bd dfe3 303e 2019 d03c fc45 f33e
00000310: 1627 533e 520f db3d d4ca 99bd a6e1 503d
00000320: 89c2 653d ba35 67be 3896 bcbc dd5b a5bc
00000330: e096 99bd 682c 853d ee24 9d3d 7d98 923e
00000340: d218 303e 378b bf3d 1cf6 0f3d b904 57be
00000350: 3723 02bd 651a 91bb f893 88bd b985 43be
00000360: 0ff6 923d 2945 463d c963 0cbe 1fb0 39be
00000370: b988 57bd fe2c d73e 4020 be3d 9009 34be
00000380: 8c81 90be f6b5 d83b 3e59 10be 02e7 81bd
00000390: b6b4 9d3b b293 4b3c b083 11be b0d4 a03d
000003a0: 0e9f 303e 5edc 083e 10e3 433e 2f10 fc3d
000003b0: b83b 3e3e a9db a63d fb42 e63c afde 71bd
000003c0: 6624 123d d034 58be 73d7 b6be 0009 4d3e
000003d0: 01f2 43bd b3ec 8dbb eb17 d03d 556d 333e
000003e0: 4b10 033e 9638 a83e 30d1 c03e 8753 813d
000003f0: b77a f0bc dd09 1c3e cd27 c83d 7a0b 453e

j_weight f4 [32, 32]
0.09867311 -0.18669447 -0.15754779 -0.23893432 -0.058006536 0.16099024 0.11341717 -0.15597357
0.14755455 -0.4636489 0.4255253 0.06487813 0.028171131 0.373647 -0.20413162 -0.20427497
0.1434047 0.19902146 -0.06862252 -0.12509625 0.21131003 -0.39252692 0.08822931 -0.15323709
-0.14286304 -0.19451848 -0.14487736 0.07484557 0.027985003 -0.14221969 0.015415618 0.31947428
-0.07743172 -0.08687789 -0.053045083 0.2970454 0.005607475 0.11128953 -0.014297748 0.027519861
0.012997011 0.02435733 -0.09720001 -0.12058922 0.15487452 -0.12497257 -0.061491128 0.033633895
0.00095450116 0.13954784 0.202177 0.16229625 -0.15750653 -0.15811652 0.25900754 0.16708009
-0.1286857 0.2506062 0.32402128 -0.1956744 -0.076065466 0.2399877 -0.15268351 0.08258443
-0.019186167 -0.3538323 0.2971458 -0.27685314 -0.38476422 -0.29984218 0.005011475 0.2597511
0.15577139 0.31786725 -0.26773486 0.116434194 0.3448485 0.11534413 0.56306475 -0.28827024
-0.3331507 0.12975793 -0.0052526067 -0.023168748 -0.24310505 0.0732791 0.11945155 -0.056991618
0.030251887 0.13211499 0.27899808 0.06044431 -0.08402278 0.14754418 0.07786099 0.16983204
-0.23899205 -0.07458646 -0.07408908 0.1474341 -0.025439974 -0.049548354 -0.15149836 -0.22991411
-0.03266004 0.19324538 -0.09242506 0.21114637 -0.018454418 0.11535565 0.05218095 0.029083664
-0.007345874 -0.00046340612 -0.010548166 -0.1703259 -0.017600993 0.37418717 -0.06877255 -0.06148062
-0.22697611 -0.17746377 -0.27039078 -0.033269476 0.14430647 0.16884178 0.20418088 -0.20805892
-0.07908932 0.04357471 0.076151974 -0.2845959 -0.11893945 0.018366992 -0.06345512 0.059409652
-0.06499779 -0.12280406 -0.06726061 -0.05142727 -0.2738439 0.07069895 -0.22987077 -0.011321706
-0.11248027 0.05609155 -0.06490257 -0.022971306 0.11906125 -0.012516321 -0.06463612 0.02076139
0.11633292 0.11411647 0.06903576 0.107517466 0.14669156 -0.3129503 0.1816199 0.045642767
-0.027390655 -0.18497762 0.20901334 0.004307468 0.025541838 -0.19780047 0.23599033 0.18909551
0.21013173 0.008339868 0.03306712 0.09211951 0.2347981 -0.008395441 -0.038023025 -0.118104786
-0.04954454 0.15192369 0.06414068 0.09296998 -0.095436156 -0.06286596 -0.036507502 0.027573813
0.028266277 0.19735561 0.24333341 -0.026463117 0.133858 -0.034189057 -0.0869685 0.021563094
-0.19420902 0.007946938 0.062359877 0.29443747 -0.061851196 -0.354217 -0.025533287 0.021849575
-0.23632689 -0.22753301 -0.07377873 0.072207175 -0.106650785 -0.04033522 0.37011415 -0.050255213
0.25134778 0.4236924 0.07022156 -0.22155388 -0.0533409 0.1458897 -0.115446694 -0.15288083
-0.23797101 -0.115373485 -0.04180661 -0.047472738 0.1344591 -0.439777 -0.10139488 0.115498364
-0.08100744 -0.44847214 0.015863355 0.17395766 -0.19348516 -0.21683669 0.040610712 0.30033585
0.20483972 0.12612614 -0.12328849 0.23568709 -0.069267415 0.37464547 0.08685816 -0.13348639
0.006201925 0.0015401902 -0.01186797 0.12941618 -0.09390322 -0.28925386 0.1538029 -0.10671608
-0.039530523 0.18617551 0.19337991 0.16526958 0.0013260314 0.2550472 -0.13683574 0.09919127
00000000: 2115 ca3d d62c 3fbe 3554 21be 33ab 74be
00000010: 4398 6dbd a0da 243e 4347 e83d 89b7 1fbe
00000020: 8a18 173e 6363 edbe 74de d93e d3de 843d
00000030: 25c7 e63c a94e bf3e e107 51be 752d 51be
00000040: afd8 123e 48cc 4b3e f789 8cbd 3b19 00be
00000050: a861 583e 4af9 c8be 92b1 b43d 2fea 1cbe
00000060: b04a 12be da2f 47be bb5a 14be a248 993d
00000070: ce40 e53c 0aa2 11be ca91 7c3c 2292 a33e
00000080: 8694 9ebd 09ed b1bd cd45 59bd 5616 983e
00000090: e9be b73b c4eb e33d 1a41 6abc 5571 e13c
000000a0: 6af1 543c 0689 c73c cd10 c7bd 7bf7 f6bd
000000b0: 6d97 1e3e 9ef1 ffbd 1fde 7bbd b2c3 093d
000000c0: 7d37 7a3a a1e5 0e3e 7d07 4f3e fd30 263e
000000d0: 6449 21be 4ce9 21be a39c 843e 0b17 2b3e
000000e0: 2fc6 03be 754f 803e 1ee6 a53e df5e 48be
000000f0: 36c8 9bbd 56bf 753e 1159 1cbe 0722 a93d
00000100: 4f2c 9dbc 8229 b5be 7f23 983e b2bf 8dbe
00000110: d1ff c4be ea84 99be 4d37 a43b 19fe 843e
00000120: 8982 1f3e 7fbf a23e 8b14 89be 0d75 ee3d
00000130: fc8f b03e 8b39 ec3d 0325 103f 2898 93be
00000140: bb92 aabe 43df 043e 0f1e acbb 63cc bdbc
00000150: 88f0 78be 5a13 963d 04a3 f43d 0b70 69bd
00000160: ced2 f73c 2749 073e d6d8 8e3e 7494 773d
00000170: 2314 acbd d215 173e 9575 9f3d 73e8 2d3e
00000180: 55ba 74be c9c0 98bd 04bc 97bd f7f8 163e
00000190: 7e67 d0bc 37f3 4abd 6322 1bbe 9b6e 6bbe
000001a0: 89c6 05bd 1ee2 453e 5a49 bdbd c136 583e
000001b0: b82d 97bc 953f ec3d b1bb 553d dd40 ee3c
000001c0: a8b5 f0bb 51f5 f2b9 37d2 2cbc ea69 2ebe
000001d0: f52f 90bc 7695 bf3e 9fd8 8cbd 1ad3 7bbd
000001e0: 6d6c 68be 10b9 35be a970 8abe 9345 08bd
000001f0: 13c5 133e dce4 2c3e cb14 513e 660d 55be
00000200: 95f9 a1bd 657b 323d 91f5 9b3d 8eb6 91be
00000210: 8796 f3bd 6076 963c c2f4 81bd 8957 733d
00000220: 901d 85bd b280 fbbd eebf 89bd 67a5 52bd
00000230: 4535 8cbe 9cca 903d 3e63 6bbe ad7e 39bc
00000240: 0e5c e6bd 41c0 653d a3eb 84bd 522e bcbc
00000250: 62d6 f33d 4111 4dbc f15f 84bd ca13 aa3c
00000260: f43f ee3d e5b5 e93d 9f62 8d3d 1e32 dc3d
00000270: 5036 163e 063b a0be 91fa 393e e9f3 3a3d
00000280: 5e62 e0bc c66a 3dbe 9807 563e a925 8d3b
00000290: 1e3d d13c 358c 4abe 73a7 713e 41a2 413e
000002a0: c62c 573e f1a3 083c 6371 073d 27a9 bc3d
000002b0: ea6e 703e 088d 09bc 08be 1bbd ece0 f1bd
000002c0: 37ef 4abd e291 1b3e 305c 833d 0b67 be3d
000002d0: 0874 c3bd debf 80bd e488 15bd 7ae2 e13c
000002e0: ae8e e73c 9717 4a3e 652c 793e 2ec9 d8bc
000002f0: 1212 093e d309 0cbd 8a1c b2bd 16a5 b03c
00000300: bbde 46be e033 023c 126d 7f3d 82c0 963e
00000310: ae57 7dbd ee5b b5be 2f2b d1bc e1fd b23c
00000320: adff 71be 6afe 68be 4e19 97bd 5be1 933d
00000330: ba6b dabd 8b36 25bd 9a7f bd3e 69d8 4dbd
00000340: a8b0 803e 36ee d83e 52d0 8f3d 05df 62be
00000350: fd7b 5abd 1c64 153e 516f ecbd cb8c 1cbe
00000360: acae 73be ef48 ecbd 683d 2bbd c672 42bd
00000370: a5af 093e 732a e1be 1ea8 cfbd 688a ec3d
00000380: 3be7 a5bd 249e e5be def3 813c f521 323e
00000390: f920 46be 700a 5ebe 6b57 263d 9fc5 993e
000003a0: 81c1 513e 3627 013e ad7e fcbd f557 713e
000003b0: 13dc 8dbd 88d1 bf3e b1e2 b13d a8b0 08be
000003c0: 8539 cb3b 35e0 c93a e071 42bc ad85 043e
000003d0: 5550 c0bd 1519 94be 827e 1d3e f68d dabd
000003e0: c2ea 21bd cba4 3e3e 6205 463e 6e3c 293e
000003f0: 3bce ad3a 8c95 823e ab1e 0cbe cb24 cb3d

k_weight f4 [32, 32]
0.10776846 0.5083585 -0.033187237 -0.23616129 -0.062374335 0.17555803 -0.17863785 -0.115604155
-0.12459548 0.087177835 0.4147422 0.12055236 0.16286844 -0.13434447 -0.26273414 0.025676394
0.013258502 -0.06001931 -0.21489197 -0.057899337 -0.21097887 0.2782918 0.015603059 -0.18419935
-0.0012382938 0.16962196 0.14718063 -0.19882984 0.003056474 0.16963875 0.3803496 0.0078456765
-0.03168067 -0.36189863 -0.11326448 -0.1320589 -0.017553257 0.15245417 0.12266359 0.19518073
-0.07413584 0.14745058 0.27953884 0.067933775 0.23667225 0.024479264 -0.13719375 -0.23268628
0.24473773 -0.20302871 -0.07803441 0.15908185 0.114275664 -0.22451852 0.06571046 0.011148187
-0.039970785 0.23143075 0.09627637 0.17043585 0.103576474 -0.24090034 -0.11557068 0.23560458
0.14989947 0.042605467 0.10185462 -0.16427383 -0.07043856 0.1676182 0.029023847 0.21028636
0.25170195 0.027150057 0.0680642 -0.039804876 0.52577215 0.042367242 -0.054856796 0.07347225
-0.44603527 0.04519754 -0.2419336 -0.2200738 0.039569832 0.093461536 -0.05975388 -0.097968005
0.23178238 -0.071983375 -0.13991417 0.11744413 0.073462516 -0.27102107 0.13886411 -0.073862635
0.30252457 -0.14875554 0.10642842 -0.02243393 0.13228925 -0.20842314 -0.2082043 -0.09008155
0.049196664 0.11656936 -0.053578682 0.003917656 -0.22387092 0.045067947 0.19617678 0.088633195
0.08364892 -0.059834905 0.071991436 -0.22058538 -0.23681188 -0.1604272 -0.08625686 -4.8748087e-05
-0.17398655 -0.2048825 -0.12927334 0.1352913 -0.15504965 -0.35845035 -0.4123882 -0.1018461
-0.32914126 -0.09508154 0.059403993 -0.14497489 -0.036041394 -0.14814101 0.17297713 -0.04825486
-0.08247627 0.15099548 -0.2095779 -0.13581274 -0.046294555 0.09597194 0.09174916 -0.35546485
0.033111136 -0.020985326 0.016622484 -0.10476925 0.124375045 -0.10467403 -0.083809316 -0.13411658
-0.09771228 -0.021978652 -0.1969934 -0.18873066 -0.092223525 0.07339515 -0.21039067 -0.23261984
0.013557176 -0.20279883 -0.012749148 -0.08641402 -0.12329963 -0.21406443 0.10075305 0.10367799
-0.040658 0.07773119 0.042760175 0.1491985 0.21225835 0.21383493 -0.2175853 -0.115709685
0.07094733 -0.04109597 -0.037337616 0.047513902 0.16296646 -0.22793025 0.036609035 -0.093334466
-0.12563075 0.17994358 -0.04117914 0.36936614 0.07631013 -0.31495917 -0.11271204 0.16377735
-0.33334127 -0.4439334 -0.14199868 -0.09782862 -0.3918346 -0.16373563 0.06592668 -0.0013322457
0.08871511 0.2460277 -0.11308715 0.029467374 -0.1751204 0.07042155 0.22453752 -0.06877172
0.1265881 -0.0034972513 -0.09632867 0.0054284674 0.08235913 -0.44825673 -0.023304632 0.03363989
-0.06496242 -0.1755034 0.34449354 -0.15792857 0.034782417 -0.028506087 -0.13663475 -0.08786778
0.13698345 -0.048487496 -0.122960195 -0.05807788 -0.06792225 -0.07601702 0.07480926 0.20360877
0.18667132 0.035210814 0.14820217 0.024750113 -0.005361307 0.013393388 0.03212103 0.021888385
-0.14195181 -0.013166151 -0.18259391 -0.040900722 0.010300146 0.07853143 0.017827269 0.071666986
-0.024689699 0.0022265757 -0.123257756 -0.04888812 0.010131186 -0.2540711 0.16078515 0.13854347
00000000: b6b5 dc3d c823 023f 57ef 07bd 44d4 71be
00000010: 3b7c 7fbd 7cc5 333e d7ec 36be dfc1 ecbd
00000020: ea2b ffbd 4b8a b23d 1759 d43e 28e4 f63d
00000030: fcc6 263e 9991 09be 1785 86be 4d57 d23c
00000040: 303a 593c cfd6 75bd a40c 5cbe db27 6dbd
00000050: d80a 58be 437c 8e3e f9a3 7f3c c19e 3cbe
00000060: 3f4e a2ba 61b1 2d3e 85b6 163e 0d9a 4bbe
00000070: 204f 483b c8b5 2d3e 2fbd c23e 278b 003c
00000080: 97c3 01bd c74a b9be 35f7 e7bd 733a 07be
00000090: d9cb 8fbc f21c 1c3e 0c37 fb3d 75dd 473e
000000a0: 88d4 97bd 49fd 163e b71f 8f3e dd20 8b3d
000000b0: 365a 723e bd88 c83c 857c 0cbe 5045 6ebe
000000c0: 879c 7a3e c2e6 4fbe 81d0 9fbd 5ae6 223e
000000d0: 5c09 ea3d 2fe8 65be 3593 863d e3a6 363c
000000e0: 68b8 23bd 2ffc 6c3e 8c2c c53d bc86 2e3e
000000f0: e71f d43d 94ae 76be 52b0 ecbd 5442 713e
00000100: 3f7f 193e 1283 2e3d 2899 d03d 6637 28be
00000110: 1742 90bd 1ba4 2b3e 6bc3 ed3c 4f55 573e
00000120: 14df 803e cc69 de3c 3e65 8b3d 700a 23bd
00000130: 0199 063f 4689 2d3d 85b1 60bd 9e78 963d
00000140: bc5e e4be 0e21 393d 71bd 77be 075b 61be
00000150: fa13 223d c368 bf3d 7cc0 74bd 73a3 c8bd
00000160: 5c58 6d3e 056c 93bd a945 0fbe 8c86 f03d
00000170: 8473 963d 46c3 8abe 6532 0e3e 4b45 97bd
00000180: 80e4 9a3e 5f53 18be 25f7 d93d 5cc7 b7bc
00000190: d576 073e e06c 55be 8233 55be ad7c b8bd
000001a0: 7182 493d ebbb ee3d 5275 5bbd ae5f 803b
000001b0: 6b3e 65be 2b99 383d 91e2 483e 5285 b53d
000001c0: 2050 ab3d 7215 75bd 3f70 933d 22e1 61be
000001d0: d07e 72be 0747 24be 70a7 b0bd dc76 4cb8
000001e0: 8829 32be b8cc 51be 3b60 04be cd89 0a3e
000001f0: 56c5 1ebe ce86 b7be 8c24 d3be b094 d0bd
00000200: 3485 a8be 1cba c2bd 9a51 733d 4c74 14be
00000210: 24a0 13bd 47b2 17be eb20 313e e3a6 45bd
00000220: 52e9 a8bd 8f9e 1a3e 979b 56be 7f12 0bbe
00000230: 5c9f 3dbd f08c c43d fce6 bb3d 7dff b5be
00000240: 8b9f 073d 6be9 abbc e02b 883c 4391 d6bd
00000250: 58b8 fe3d 565f d6bd 38a4 abbd db55 09be
00000260: 601d c8bd 930c b4bc a3b8 49be 9c42 41be
00000270: b0df bcbd 3250 963d a770 57be e533 6ebe
00000280: eb1e 5e3c 7faa 4fbe cde1 50bc d5f9 b0bd
00000290: 8484 fcbd b533 5bbe 9d57 ce3d 2055 d43d
000002a0: 0189 26bd 8831 9f3d 4b25 2f3d 7ec7 183e
000002b0: 415a 593e 8bf7 5a3e aece 5ebe 33f9 ecbd
000002c0: d54c 913d 3f54 28bd 54ef 18bd f09d 423d
000002d0: aee0 263e 8c66 69be 5bf3 153d 2426 bfbd
000002e0: 59a5 00be 2143 383e 75ab 28bd 8f1d bd3e
000002f0: 7c48 9c3d 5442 a1be 92d5 e6bd 40b5 273e
00000300: b5ab aabe 3d4b e3be 1a68 11be 5f5a c8bd
00000310: 8b9e c8be 50aa 27be 9104 873d bf9e aeba
00000320: 45b0 b53d afee 7b3e 3c9a e7bd 9065 f13c
00000330: c352 33be 2c39 903d 2aed 653e 30d8 8cbd
00000340: 50a0 013e 2432 65bb f747 c5bd 49e1 b13b
00000350: e7ab a83d e881 e5be 5be9 bebc fbc9 093d
00000360: 040b 85bd 2ab7 33be 7561 b03e 07b8 21be
00000370: 0278 0e3d 9985 e9bc fbe9 0bbe 06f4 b3bd
00000380: 6445 0c3e d39a 46bd 8ed2 fbbd 12e3 6dbd
00000390: d21a 8bbd d0ae 9bbd 9935 993d d17e 503e
000003a0: c426 3f3e 3739 103d 4fc2 173e c0c0 ca3c
000003b0: e7ad afbb f16f 5b3c 5791 033d 454f b33c
000003c0: d15b 11be d7b6 57bc e6f9 3abe 8487 27bd
000003d0: f2c1 283c 16d5 a03d 7e0a 923c 24c6 923d
000003e0: 0d42 cabc beeb 113b 906e fcbd e93e 48bd
000003f0: 46fd 253c 9b15 82be dda4 243e 57de 0d3e

r_weight f4 [1, 32]
0.13936797 -0.42811608 -1.2121179 -0.31909803 -0.7721618 -0.13802359 -0.49376726 -0.6778802
0.16890046 -0.04782013 -0.6405809 -1.0252737 0.47848192 -0.83606577 -0.21923065 -0.9727826
-0.43696025 0.008164155 -0.7712123 -0.4902327 -1.1254005 -0.05205666 -0.82909584 -0.86990833
-0.32951772 -0.1523444 -0.28654626 -0.5032232 -0.89987653 -0.21797298 -0.268883 -0.24019094
00000000: 7ab6 0e3e 0832 dbbe ae26 9bbf d160 a3be
00000010: 65ac 45bf 0e56 0dbe 10cf fcbe 8f89 2dbf
00000020: 3ef4 2c3e 0adf 43bd 1cfd 23bf 2b3c 83bf
00000030: 95fb f43e 6808 56bf 007e 60be 4808 79bf
00000040: 41b9 dfbe f3c2 053c 2b6e 45bf c8ff fabe
00000050: 200d 90bf 5d39 55bd a03f 54bf 50b2 5ebf
00000060: 8cb6 a8be 2c00 1cbe 31b6 92be 3cd3 00bf
00000070: 4f5e 66bf 4f34 5fbe 08ab 89be 9df4 75be

i_weight f4 [1, 32]
-0.009595028 0.014905692 -0.39101398 0.021395065 0.27752474 0.20924306 -0.05252824 0.32690492
-0.07346221 0.077502176 0.018814996 0.033845652 -0.111231804 0.21231858 -0.004936444 0.054355673
0.17254911 0.22229369 -0.048594993 0.119499184 -0.028561257 0.034345187 -0.28743786 0.06037068
-0.7083108 0.21506713 -0.4851156 -0.3630247 0.1218907 0.15585534 0.05734337 -0.101850115
00000000: 7734 1dbc 0137 743c fc32 c8be b444 af3c
00000010: b917 8e3e d043 563e da27 57bd 1560 a73e
00000020: 5b73 96bd 76b9 9e3d e821 9a3c bda1 0a3d
00000030: 80cd e3bd 0b6a 593e e5c1 a1bb 0ea4 5e3d
00000040: b7b0 303e f5a0 633e 8b0b 47bd fdbb f43d
00000050: 4cf9 e9bc 8aad 0c3d 0e2b 93be 3f47 773d
00000060: db53 35bf 8f3a 5c3e 1261 f8be 60de b9be
00000070: d5a1 f93d 8b98 1f3e e2e0 6a3d cb96 d0bd

j_weight f4 [1, 32]
-0.12520407 -0.0038712984 -0.043589424 -0.036859818 0.51503366 -0.005199477 -0.088418335 -0.1820648
-0.1224046 -0.05527219 0.04553067 -0.09154079 -0.23880559 0.034884535 0.10260207 -0.045118168
-0.011045571 0.049308963 -0.7507794 0.0305406 -0.05243264 0.030464906 -0.008180783 0.060053464
0.1546256 -0.051649723 0.5387905 0.10329174 0.48179328 -0.040078636 -0.031864464 -0.108887866
00000000: 7f35 00be 9cb5 7dbb d38a 32bd 52fa 16bd
00000010: 3fd9 033f 6060 aabb ac14 b5bd 326f 3abe
00000020: 43af fabd 1865 62bd 5e7e 3a3d bd79 bbbd
00000030: 7489 74be 16e3 0e3d 0921 d23d d4cd 38bd
00000040: 7cf8 34bc 32f8 493d 1433 40bf 4830 fa3c
00000050: 9cc3 56bd 8a91 f93c b108 06bc 9ffa 753d
00000060: 2c56 1e3e a98e 53bd 2dee 093f 9f8a d33d
00000070: 9cad f63e 7f29 24bd 5084 02bd 9a00 dfbd

k_weight f4 [1, 32]
0.04944563 -0.07388966 0.27122116 0.05575785 0.27556044 0.03185764 -0.375082 0.06681241
-0.03824581 0.058738023 -0.011317441 -0.034619622 -0.00096355035 -0.36261863 0.0020714784 0.074465625
-0.31554642 -0.015370585 0.24172768 -0.08576076 -0.16028842 0.19598344 0.019222964 0.14608023
0.040886387 -0.43742776 0.17916882 0.020496285 -0.07148708 0.27680713 -0.0865432 0.020897727
00000000: 8087 4a3d 7653 97bd 80dd 8a3e 5862 643d
00000010: 4216 8d3e 287d 023d bf0a c0be f2d4 883d
00000020: a3a7 1cbd 4897 703d ca6c 39bc 4ecd 0dbd
00000030: c596 7cba 26a9 b9be a4c1 073b 6f81 983d
00000040: 4d8f a1be e8d4 7bbc 7687 773e 56a3 afbd
00000050: a622 24be e2af 483e 7a79 9d3c 0e96 153e
00000060: 7c78 273d 88f6 dfbe 0878 373e d3e7 a73c
00000070: d167 92bd aab9 8d3e 903d b1bd b631 ab3c

bias f4 [128]
-0.14362119 0.09864402 -1.7744203 0.2451298 -1.6258117 0.11193084 -1.2261294 -1.6589624
0.2915626 0.08729235 -1.7488894 -2.1316366 -0.29741502 -1.2033072 0.098298505 -1.1716185
-1.7920277 0.027347215 -2.2179332 -0.7880254 -1.5532299 0.006099676 -1.6216909 -1.3391342
-0.64385533 -0.13849266 -0.34444585 -1.8122452 -1.3217826 -0.30565125 0.22327599 -0.44805294
-0.12618108 -0.115539744 -2.0806546 -0.014312776 -1.5867789 -0.07724266 -1.245442 -1.3632088
0.3219357 0.10967433 -1.3926575 -2.0451314 -0.23176065 -1.0113101 -0.13525473 -0.9749321
-1.8505592 -0.035061922 -2.4848948 -0.61794215 -1.3510709 0.025228528 -1.5811392 -1.439229
-0.38631257 -0.29896948 -0.055298053 -1.5458362 -1.2824912 -0.220876 0.17222077 -0.87978923
-0.23836876 -0.013539702 -1.7714249 0.1616638 -1.592667 0.046553157 -1.4723788 -1.6065236
0.24791001 0.08537675 -1.721207 -2.3403463 -0.64964795 -1.0996933 -0.21808475 -1.0428877
-1.6156217 -0.16699769 -2.4563825 -0.9172834 -1.6251978 0.0684828 -1.7392398 -1.420066
-0.36569813 -0.55641526 -0.18594712 -1.5188069 -1.0386765 -0.17298692 0.2144096 -0.4858815
-0.19725215 0.01721192 -1.9703343 -0.002133893 -1.727998 -0.0043858443 -1.1625221 -1.6876258
0.33519495 0.19788289 -1.5604783 -2.2008784 -0.15909185 -1.1652929 -0.06990267 -1.1340058
-1.6657629 -0.05372197 -2.2948384 -0.7655565 -1.5951724 0.12077246 -1.8029609 -1.422648
-0.6881665 -0.5813984 -0.34462744 -1.7543274 -0.9905871 -0.21038605 0.17452618 -0.97093827
00000000: 6f11 13be e005 ca3d 3420 e3bf 4e03 7b3e
00000010: 991a d0bf ff3b e53d cff1 9cbf e158 d4bf
00000020: b147 953e 55c6 b23d 9cdb dfbf bc6c 08c0
00000030: c846 98be f805 9abf ba50 c93d 98f7 95bf
00000040: 2a61 e5bf 4407 e03c 9ef2 0dc0 08bc 49bf
00000050: 3dd0 c6bf cadf c73b 9193 cfbf c068 abbf
00000060: b4d3 24bf 05d1 0dbe 355b b0be a7f7 e7bf
00000070: 2c30 a9bf 527e 9cbe 76a2 643e 3267 e5be
00000080: 9d35 01be 1aa0 ecbd 7229 05c0 2280 6abc
00000090: 921b cbbf 6631 9ebd a56a 9fbf a07d aebf
000000a0: c2d4 a43e ef9c e03d 9a42 b2bf 6fe3 02c0
000000b0: aa52 6dbe 9c72 81bf 3780 0abe 2695 79bf
000000c0: 20df ecbf 179d 0fbd 8408 1fc0 7531 1ebf
000000d0: e4ef acbf 0fac ce3c c562 cabf a838 b8bf
000000e0: c3ca c5be 8712 99be 3680 62bd f6dd c5bf
000000f0: ac28 a4bf 512d 62be a45a 303e de39 61bf
00000100: f116 74be a0d5 5dbc 0dbe e2bf 328b 253e
00000110: 83dc cbbf 86ae 3e3d e976 bcbf 91a2 cdbf
00000120: 1fdc 7d3e 01da ae3d 8350 dcbf 3cc8 15c0
00000130: 544f 26bf c0c2 8cbf 9c51 5fbe 587d 85bf
00000140: b1cc cebf 7101 2bbe 5f35 1dc0 16d3 6abf
00000150: 7b06 d0bf b640 8c3d 699f debf b9c4 b5bf
00000160: c93c bbbe 3b71 0ebf ec68 3ebe 4468 c2bf
00000170: 5af3 84bf 7c23 31be 318e 5b3e 76c5 f8be
00000180: 78fc 49be 0300 8d3c ea33 fcbf c9d8 0bbb
00000190: 0a2f ddbf 21b7 8fbb 86cd 94bf 1f04 d8bf
000001a0: ac9e ab3e d0a1 4a3e c1bd c7bf 31db 0cc0
000001b0: f9e8 22be 5128 95bf 2229 8fbd 1a27 91bf
000001c0: b837 d5bf 920b 5cbd a2de 12c0 83fb 43bf
000001d0: 9c2e ccbf 8d57 f73d 6cc7 e6bf 5419 b6bf
000001e0: ae2b 30bf 87d6 14bf 0273 b0be cd8d e0bf
000001f0: 1e97 7dbf 716f 57be feb6 323e 698f 78bf

r_weight f4 [32, 32]
0.3773325 -0.301767 0.18297426 -0.5109713 0.09170129 -0.59106815 -0.114271045 0.15957198
-0.56658524 0.19780613 0.08523971 0.28445232 0.09354957 -0.15847358 -0.49118763 0.090881824
0.16952425 -0.042609945 0.2813943 -0.16623408 0.30513892 -0.4175458 -0.26267365 0.38079384
-0.25986075 -0.1497505 -0.7879765 -0.3324332 0.24091057 -0.72743255 -0.940986 -0.19292986
-0.13866988 0.15931812 0.5004753 0.034587525 -0.21218076 -0.1627069 0.03603092 0.22953606
-0.51493406 0.016787302 0.37661108 0.1679971 -0.008255278 -0.04098521 0.16446348 0.21932939
0.31375888 0.04510667 0.0001798127 -0.15964 0.03559028 -0.12799226 -0.24110834 0.106000744
-0.3307366 -0.20088811 -0.4329093 0.13107374 0.31768483 -0.46472293 -0.10996409 -0.3081894
-0.2017863 0.06312244 -0.2044513 0.10554693 -0.38691926 0.46740738 0.13182142 0.13468626
0.33224684 -0.35004508 0.07638609 -0.21872509 0.24636103 0.46490714 0.10698651 0.15967894
0.045716308 0.095054746 -0.14232188 0.21402282 0.048439447 -0.2611876 0.06284505 -0.40279582
-0.47238663 -0.16060512 -0.09138777 0.03005028 -0.3612587 0.4449457 0.457517 0.19280474
0.31434983 0.09874588 0.08142145 0.17829165 0.24786535 -0.027311638 -0.069150515 0.030940708
0.16703574 0.11420318 -0.062410988 0.10705757 0.04953063 0.19722661 -0.3053133 0.012328585
0.07358797 -0.4938058 -0.111566305 0.008682396 0.53647006 0.2628306 0.17903018 0.06720087
0.16088879 0.2059454 0.44563952 0.06574297 -0.29416233 0.31460658 -0.32938266 0.2695746
-0.46947932 0.34921947 0.15904361 0.25954774 0.14934513 0.52709216 -0.13266896 0.16036151
0.11230654 -0.024853464 -0.19602853 -0.09342234 -0.107011035 0.13054413 0.16411571 0.1457475
-0.19788808 -0.12065185 0.23099338 0.13173479 -0.2001433 0.48446444 0.3266389 0.07030785
0.14720507 0.5570865 0.3345882 -0.2341531 0.3013077 0.42018762 0.08031829 0.24807905
0.30001935 -0.07822112 -0.024409512 0.119177714 -0.12541026 -0.16195858 0.28096327 -0.02092581
-0.39652884 0.12404535 0.08953773 0.110309534 0.31810218 -0.20602892 0.022770911 0.10078917
-0.053339068 0.015851473 0.0021919848 -0.27280462 -0.013360402 -0.28133032 -0.24189433 -0.17563368
-0.52630806 -0.36439088 -0.41695437 -0.3062006 0.06673295 -0.04810402 7.172736e-05 -0.08268756
-0.29611346 0.40408662 -0.16569456 0.14737937 -0.27482462 0.44489127 0.107472025 0.24937283
-0.17697953 0.41745386 0.26845828 -0.10318581 -0.17732081 0.29664278 0.072532274 0.18768384
0.14144948 -0.061807334 -0.024123522 0.03576019 -0.082582355 0.42879263 0.057742495 0.12975986
0.43614548 0.049911883 0.28389838 0.13545923 0.005713406 0.7254601 0.051415548 0.40217322
0.08981217 -0.4653761 0.2884325 -0.3200199 0.024916729 -0.7215183 -0.03959402 -0.029381035
-0.012474782 0.07811401 0.060293745 -0.13730876 0.22427464 -0.13366854 -0.27821457 -0.06419036
0.3348027 -0.0075830263 -0.12428917 -0.3283707 -0.013243126 -0.522926 0.11051955 -0.22277814
-0.09033878 0.06448529 -0.28575656 0.257552 -0.16729216 -0.5203134 -0.18623792 -0.22937863
00000000: ba31 c13e 3481 9abe 9b5d 3b3e 04cf 02bf
00000010: e3cd bb3d 3e50 17bf f006 eabd d666 233e
00000020: bb0b 11bf b18d 4a3e 2892 ae3d bca3 913e
00000030: eb96 bf3d e646 22be f27c fbbe 4020 ba3d
00000040: c497 2d3e c487 2ebd ea12 903e 4439 2abe
00000050: 2b3b 9c3e 90c8 d5be 297d 86be 69f7 c23e
00000060: 780c 85be 3258 19be d4b8 49bf af34 aabe
00000070: 43b1 763e 0539 3abf 75e4 70bf 688f 45be
00000080: 7aff 0dbe 4a24 233e 261f 003f a6ab 0d3d
00000090: ea45 59be a39c 26be 2895 133d 800b 6b3e
000000a0: b8d2 03bf 8685 893c 2bd3 c03e 6f07 2c3e
000000b0: 2541 07bc 1ce0 27bd 1d69 283e e297 603e
000000c0: 01a5 a03e c6c1 383d 1b8c 3c39 ab78 23be
000000d0: 1dc7 113d 6710 03be 1be5 76be eb16 d93d
000000e0: 4f56 a9be 9db5 4dbe 4aa6 ddbe 3238 063e
000000f0: 96a7 a23e 2af0 edbe da34 e1bd 00cb 9dbe
00000100: 11a1 4ebe 5646 813d ae5b 51be fd28 d83d
00000110: 481a c6be 0550 ef3e 32fc 063e 32eb 093e
00000120: 421c aa3e 1c39 b3be 4f70 9c3d 78f9 5fbe
00000130: 1146 7c3e 4f08 ee3e be1b db3d e082 233e
00000140: 0641 3b3d 10ac c23d d4bc 11be cc28 5b3e
00000150: 7168 463d 62ba 85be e8b4 803d 413b cebe
00000160: a9dc f1be ab75 24be 8329 bbbd 012c f63c
00000170: e6f6 b8be eccf e33e ab3f ea3e 9b6e 453e
00000180: 76f2 a03e 483b ca3d 4ac0 a63d 1692 363e
00000190: 6ad0 7d3e a8bc dfbc c99e 8dbd 5e77 fd3c
000001a0: 6b0b 2b3e 5be3 e93d aaa2 7fbd 0041 db3d
000001b0: a1e0 4a3d c6f5 493e 0652 9cbe d5fd 493c
000001c0: 4ab5 963d 1dd4 fcbe e07c e4bd 9c40 0e3c
000001d0: 1a56 093f bb91 863e b053 373e 9ca0 893d
000001e0: 08c0 243e 5ae3 523e dd2a e43e 40a4 863d
000001f0: 729c 96be 1d14 a13e d8a4 a8be af05 8a3e
00000200: 985f f0be e5cc b23e 54dc 223e 71e3 843e
00000210: eeed 183e 83ef 063f 5fda 07be cf35 243e
00000220: f900 e63d 7e99 cbbc b4bb 48be 3654 bfbd
00000230: 9a28 dbbd 5cad 053e f30d 283e d53e 153e
00000240: 2ca3 4abe 5118 f7bd 8789 6c3e 7ce5 063e
00000250: 5ef2 4cbe b90b f83e 373d a73e 90fd 8f3d
00000260: edbc 163e 399d 0e3f 254f ab3e d5c5 6fbe
00000270: 0145 9a3e d522 d73e ea7d a43d 6f08 7e3e
00000280: 239c 993e 6532 a0bd 75f6 c7bc 7213 f43d
00000290: 8c6b 00be 78d8 25be 6bda 8f3e 9b6c abbc
000002a0: d405 cbbe 7d0b fe3d 8f5f b73d f7e9 e13d
000002b0: 4ade a23e 3ff9 52be 108a ba3c 8d6a ce3d
000002c0: 117a 5abd f3da 813c 67a7 0f3b 0cad 8bbe
000002d0: 96e5 5abc 870a 90be 26b3 77be 51d9 33be
000002e0: 20bc 06bf 7191 babe 0b7b d5be 53c6 9cbe
000002f0: 49ab 883d b908 45bd 556c 9638 1858 a9bd
00000300: 2f9c 97be 71e4 ce3e d6ab 29be 9eea 163e
00000310: d0b5 8cbe cac8 e33e 4b1a dc3d 975b 7f3e
00000320: 1f3a 35be 83bc d53e 5d73 893e 1553 d3bd
00000330: 9693 35be 90e1 973e cd8b 943d 3130 403e
00000340: 22d8 103e b029 7dbd b19e c5bc 4779 123d
00000350: f020 a9bd b58a db3e 6583 6c3d c5df 043e
00000360: 764e df3e 6770 4c3d 215b 913e d3b5 0a3e
00000370: 8637 bb3b c1b7 393f 1c99 523d a6e9 cd3e
00000380: 71ef b73d c745 eebe 6dad 933e a6d9 a3be
00000390: 2b1e cc3c 6cb5 38bf 572d 22bd 7fb0 f0bc
000003a0: 0763 4cbc 3dfa 9f3d 93f6 763d ab9a 0cbe
000003b0: 40a8 653e 68e0 08be 2472 8ebe 3c76 83bd
000003c0: 426b ab3e 097b f8bb 528b febd 3420 a8be
000003d0: b2f9 58bc 7ade 05bf 1358 e23d f41f 64be
000003e0: 8a03 b9bd dd10 843d af4e 92be dbdd 833e
000003f0: a34e 2bbe 4233 05bf 27b5 3ebe 3be2 6abe

i_weight f4 [32, 32]
-0.048566647 -0.61753356 -0.08341314 -0.12785369 -0.11697984 -0.67559147 0.20781127 -0.10269949
-0.15916811 -0.14875719 0.12369306 0.14784275 0.23194912 -0.15762097 0.34341502 -0.39910784
0.12581147 0.30830753 -0.08312371 -0.18304574 0.08361107 -0.62260675 -0.05049725 0.18041794
-0.23019184 -0.26135686 -0.15470552 -0.0056930296 0.11639756 -0.36632335 -0.91132367 0.12178223
-0.12652886 -0.0038253209 0.00943628 0.17883594 0.21883024 -0.050004654 -0.13780646 0.26356995
0.11171319 0.06268769 -0.091022454 -0.15335697 -0.19224106 0.12605436 0.38881856 -0.25902277
-0.05043477 0.30883104 -0.2027422 0.17248257 -0.09762688 0.16088694 0.17622279 -0.07732744
-0.45548898 -0.04907209 0.115266144 0.19897662 0.13136306 0.19021192 0.044745117 0.18295313
0.09413308 0.34527358 -0.12033619 -0.10582372 -0.062083755 -0.034710642 -0.13397975 -0.20786949
-0.067265645 0.07795641 0.33323708 -0.087007605 -0.1340921 -0.58909714 -0.14597487 0.27982387
0.19255075 -0.5211663 -0.12506795 -0.40959218 -0.008883885 0.2131128 -0.17794006 0.15334564
-0.18959698 -0.5471921 -0.07640711 -0.15135555 0.044123176 -0.23426004 -0.19737627 -0.19739087
0.001781501 -0.09926238 0.090961404 0.0060747624 -0.28562793 0.046498425 0.03621751 -0.20389031
-0.3246388 -0.0029941432 -0.04470552 0.07873299 0.24830718 0.026269147 -0.27349496 0.14513025
-0.082493305 -0.21447864 -0.113280006 -0.18299745 -0.006082079 -0.08606206 -0.122805886 0.09453346
0.26103765 -0.10030983 0.121492125 0.20438656 -0.29771614 -0.092705324 0.0818076 0.20478529
0.34182945 -0.491812 0.13105696 -0.010806181 0.044807013 -0.050626524 0.1877063 -0.075870894
0.16795859 -0.15796918 0.1184656 0.009110296 0.19374894 -0.30406946 -0.07121566 -0.03921284
-0.005532342 0.19873703 -0.16168417 -0.021022387 0.05808401 -0.34873277 -0.11984116 -0.18337737
0.04415731 -0.08690744 -0.08479446 -0.22964868 -0.16916187 0.027415007 -0.028673388 -0.22337005
0.018296411 0.075564206 -0.32389247 0.06328802 0.087282576 0.10730442 -0.050604068 0.18491879
0.01434825 0.19560185 0.09936494 -0.14265075 -0.14148247 0.15482588 0.11340921 -0.114694804
0.0011291021 0.012059892 -0.11943478 0.08914488 0.2183313 0.27535748 -0.049563605 -0.07271898
-0.70943326 -0.11934195 -0.0072484235 -0.10956753 0.043798715 0.123738624 0.14594088 -0.07890833
-0.049968995 0.1459756 0.1711107 0.27786005 0.2192335 0.1323413 -0.034987625 -0.113359176
0.19694813 -0.121545926 -0.13931486 0.1061162 -0.34323126 0.15491408 0.04859119 0.2676148
0.12253779 0.006147653 0.033859346 -0.12405092 0.15450123 -0.08108346 -0.22947794 -0.12650116
0.20231909 -0.096517906 -0.102121465 0.084444635 -0.12047908 -0.06275641 0.17279655 -0.13523358
-0.13564865 0.115671024 0.082144804 -0.008784642 -0.038669262 -0.012242582 -0.1529088 0.13949767
0.09637512 0.10292182 0.36467275 -0.010280126 0.14123704 0.06650607 0.18778013 -0.25196016
0.10114274 -0.076954074 -0.2558788 0.13354376 -0.10763859 0.25080177 -0.034589846 0.18578109
-0.011163847 0.30200592 0.38022947 0.1928283 -0.00043308377 -0.084494054 0.0668636 0.27141476
00000000: d2ed 46bd ae16 1ebf 82d4 aabd 14ec 02be
00000010: 2093 efbd 90f3 2cbf 7acc 543e 1c54 d2bd
00000020: f7fc 22be ce53 18be c952 fd3d 1764 173e
00000030: 1284 6d3e 6467 21be 18d4 af3e dd57 ccbe
00000040: b9d4 003e 7cda 9d3e c33c aabd 5870 3bbe
00000050: 483c ab3d 2863 1fbf 34d6 4ebd 7bbf 383e
00000060: 69b7 6bbe 91d0 85be 206b 1ebe 988c babb
00000070: d861 ee3d bc8e bbbe 824c 69bf f668 f93d
00000080: c890 01be 3cb2 7abb a09a 1a3c c520 373e
00000090: 0915 603e aed1 4cbd 231d 0dbe a4f2 863e
000000a0: e3c9 e43d 6762 803d fb69 babd 9c09 1dbe
000000b0: d7da 44be 6514 013e 3a13 c73e a29e 84be
000000c0: b094 4ebd 1a1f 9e3e a79b 4fbe 459f 303e
000000d0: 9af0 c7bd 8cbf 243e bf73 343e d95d 9ebd
000000e0: da35 e9be d1ff 48bd a810 ec3d 87c0 4b3e
000000f0: 0a84 063e eac6 423e a846 373d 1158 3b3e
00000100: d8c8 c03d b3c7 b03e d272 f6bd 1bba d8bd
00000110: 894b 7ebd bf2c 0ebd fd31 09be bddb 54be
00000120: 92c2 89bd 9ca7 9f3d 0d9e aa3e 0b31 b2bd
00000130: 714f 09be 12cf 16bf 707a 15be 1345 8f3e
00000140: 062c 453e 286b 05bf d011 00be 11b6 d1be
00000150: b78d 11bc 3e3a 5a3e eb35 36be a406 1d3e
00000160: b625 42be c814 0cbf 557b 9cbd f3fc 1abe
00000170: 81ba 343d dde1 6fbe 011d 4abe d520 4abe
00000180: 4181 e93a 134a cbbd f949 ba3d cd0e c73b
00000190: d33d 92be 2275 3e3d d058 143d 9fc8 50be
000001a0: 0f37 a6be 6339 44bb 231d 37bd c33e a13d
000001b0: 3d44 7e3e 6532 d73c 8807 8cbe 069d 143e
000001c0: 40f2 a8bd 4aa0 5bbe 59ff e7bd af63 3bbe
000001d0: 2d4c c7bb 4e41 b0bd a781 fbbd c29a c13d
000001e0: baa6 853e 3d6f cdbd ddd0 f83d b64a 513e
000001f0: 406e 98be 4adc bdbd be8a a73d 3cb3 513e
00000200: 4504 af3e c8ce fbbe cc33 063e 680c 31bc
00000210: 8f87 373d c25d 4fbd 1536 403e 3362 9bbd
00000220: 56fd 2b3e acc2 21be 189e f23d 5a43 153c
00000230: 1f66 463e feae 9bbe 84d9 91bd a59d 20bd
00000240: a648 b5bb b881 4b3e 8990 25be 2437 acbc
00000250: 80e9 6d3d 1a8d b2be 486f f5bd 47c7 3bbe
00000260: 4cde 343d 87fc b1bd b8a8 adbd 0629 6bbe
00000270: c538 2dbe 7095 e03c 74e4 eabc 1ebb 64be
00000280: 5be2 953c 68c1 9a3d 3cd5 a5be 269d 813d
00000290: 35c1 b23d 6bc2 db3d 3646 4fbd 5a5b 3d3e
000002a0: ec14 6b3c da4b 483e d87f cb3d 0a13 12be
000002b0: c8e0 10be ad8a 1e3e 1743 e83d 1ce5 eabd
000002c0: 61fe 933a da96 453c 399a f4bd 9791 b63d
000002d0: 3e92 5f3e a8fb 8c3e 3503 4bbd b0ed 94bd
000002e0: 6b9d 35bf 8d69 f4bd 2f84 edbb f164 e0bd
000002f0: 4866 333d ad6a fd3d 8771 153e b19a a1bd
00000300: 4aac 4cbd a17a 153e a537 2f3e ac43 8e3e
00000310: bf7e 603e 7a84 073e 2f4f 0fbd db28 e8bd
00000320: c5ac 493e 12ed f8bd 8ea8 0ebe 7353 d93d
00000330: 02bc afbe cca1 1e3e 8e07 473d cf04 893e
00000340: 18f5 fa3d 4072 c93b 19b0 0a3d 690e febd
00000350: 9235 1e3e 160f a6bd 44fc 6abe 8589 01be
00000360: bc2c 4f3e 2eab c5bd 0f25 d1bd 4ff1 ac3d
00000370: bcbd f6bd 6f86 80bd 94f1 303e ac7a 0abe
00000380: 7be7 0abe eee4 ec3d 893b a83d 76ed 0fbc
00000390: a963 1ebd 1c95 48bc 2094 1cbe 7ad8 0e3e
000003a0: 5260 c53d adc8 d23d 63b6 ba3e f96d 28bc
000003b0: 71a0 103e 5634 883d 6f49 403e ec00 81be
000003c0: ed23 cf3d 199a 9dbd 8c02 83be b2bf 083e
000003d0: 9f71 dcbd 1769 803e 15ae 0dbd 663d 3e3e
000003e0: 91e8 36bc 85a0 9a3e 70ad c23e c874 453e
000003f0: 850f e3b9 380b adbd c8ef 883d e0f6 8a3e
