models/QLSTM_mse_neck_epochs5.pth (torch, 168723 bytes, 76 tensors)

layers.0.wfx.r_weight f4 [1, 32]
0	0xbe7949d0	-0.24344563
1	0xbea1e3f9	-0.31619242
2	0xbeaa3491	-0.3324323
3	0xbf0a69ff	-0.5406799
4	0xbf195708	-0.59898424
5	0xbe41f9df	-0.18942975
6	0xbe22ea69	-0.15909733
7	0x3c3f0734	0.011659432
8	0xbd2c6c93	-0.042095732
9	0xbb89797f	-0.0041953917
10	0xbf0b2250	-0.5434923
11	0xbe4c8d66	-0.19975814
12	0x3dfcfb7f	0.123526566
13	0xbda3e7fe	-0.080032334
14	0xbda95162	-0.08267476
15	0x3d9ce764	0.07661322
16	0x3e3ecf0d	0.18633671
17	0xbdb767f4	-0.08955374
18	0xbe92fcef	-0.28708598
19	0xbe383d0f	-0.17992042
20	0x3d2066ae	0.039160423
21	0x3d29ebc7	0.04148462
22	0xbe6a9c7c	-0.22911257
23	0xbe8e3c9d	-0.2778062
24	0xbe7761d2	-0.24158409
25	0xbe81646d	-0.2527193
26	0xbe67c2c0	-0.22632885
27	0xbdba46a9	-0.090955086
28	0xbee0afd2	-0.4388414
29	0xbf094278	-0.5361705
30	0xbd23421b	-0.039857965
31	0xbf2392f4	-0.6389611

layers.0.wfx.i_weight f4 [1, 32]
0	0x3d5dd943	0.054162275
1	0xbd4ed71e	-0.05049812
2	0xbd97a61a	-0.07404728
3	0xbc1848f3	-0.009294736
4	0xbe041612	-0.12899044
5	0x3ce5669c	0.02800303
6	0x3e0a983b	0.13534634
7	0x3dc831a9	0.09775097
8	0xbdc6ff0d	-0.09716616
9	0xbd97a8ff	-0.0740528
10	0x3e22870c	0.15871829
11	0x3d4ce7eb	0.05002586
12	0x3bc98871	0.0061502983
13	0xbe12d47a	-0.14338866
14	0x3ceabf37	0.028655631
15	0x3cf4bd0d	0.029875303
16	0xbdb885d7	-0.09009903
17	0xbde8a5f9	-0.11359782
18	0xbe756978	-0.23966014
19	0xbdec8a3c	-0.115498036
20	0x3e086e13	0.1332324
21	0x3cd04da1	0.025427641
22	0xbe641480	-0.22273445
23	0xbcf25466	-0.02958126
24	0xbe1a48e0	-0.15066862
25	0xbe93cc99	-0.28867033
26	0x3d3fc034	0.04681416
27	0x3d159681	0.036520485
28	0xbdcf18ab	-0.10112127
29	0xbdba58b3	-0.09098949
30	0xbe34702b	-0.17620914
31	0xbec688bf	-0.38776204

layers.0.wfx.j_weight f4 [1, 32]
0	0x3bae743d	0.0053239153
1	0x3b74be70	0.0037344955
2	0x3c7cf0fb	0.015438314
3	0x3e4c9435	0.19978411
4	0xbe010e70	-0.12603164
5	0x3e817f24	0.25292313
6	0xbe8826af	-0.26592013
7	0x3cb9f0aa	0.022697765
8	0x3c9a7468	0.018854335
9	0x3d686d9c	0.056745157
10	0xbdda50f6	-0.10659973
11	0x3c496410	0.012291923
12	0x3d616f43	0.055037748
13	0xbe1f5e0c	-0.1556322
14	0xbdb83599	-0.08994598
15	0x3c9a2b0e	0.018819358
16	0x3e7274d5	0.2367738
17	0x3c5c8730	0.013459966
18	0x3cb9a892	0.022663388
19	0xbba7066a	-0.0050972
20	0xbdc5b4e5	-0.096536435
21	0x3db11418	0.08646411
22	0xbe00c983	-0.1257687
23	0xbe07ca2d	-0.13260718
24	0xbd236a70	-0.03989643
25	0x3d906768	0.07050973
26	0xbca8e5fb	-0.020617476
27	0x3bb51db8	0.0055272244
28	0x3d495aa0	0.049158692
29	0xbdb04ea5	-0.0860875
30	0xbdcecd14	-0.10097709
31	0xbd2d961a	-0.042379476

layers.0.wfx.k_weight f4 [1, 32]
0	0x3d0d6afc	0.034525856
1	0xbd780964	-0.06055583
2	0xbd39ca90	-0.045359194
3	0xbc20a749	-0.009805509
4	0x3d65c529	0.05609623
5	0x3c4f4909	0.01265169
6	0xbbcda4db	-0.006275756
7	0xbd09f906	-0.033684753
8	0xbce903fa	-0.028444279
9	0xbe3153f9	-0.1731719
10	0xbe03d60a	-0.12874618
11	0x3d804cc0	0.06264639
12	0x3c9f8aaf	0.01947531
13	0x3e5c16c5	0.21493061
14	0x3db8bc85	0.09020332
15	0xbbcd26b1	-0.006260716
16	0xbe366c1c	-0.17814678
17	0xbd5b786f	-0.05358165
18	0x3e13c5ac	0.14430875
19	0xbbe4ef0a	-0.0069865035
20	0x3c893d0d	0.016752744
21	0x3daf5d4f	0.08562719
22	0xbd973eca	-0.07385023
23	0xbe8baf49	-0.2728217
24	0xbdcef347	-0.10104995
25	0x3d2140ce	0.039368443
26	0x3d9012d7	0.070348434
27	0x3dab71a1	0.08371282
28	0xbd1f1bdb	-0.038844924
29	0xbd503b00	-0.050837517
30	0x3d0ba004	0.03408815
31	0x3dfab619	0.122417636

layers.0.wfx.bias f4 [128]
0	0xbef58e6a	-0.47960216
1	0xbe7a9ebe	-0.24474618
2	0xbf52f30d	-0.82402116
3	0xbe03a952	-0.1285756
4	0xbdb7ab1b	-0.08968183
5	0xbe29f586	-0.16597566
6	0xbe13a8d9	-0.14419879
7	0xbea476b8	-0.32121825
8	0xbf4f1d96	-0.8090452
9	0xbc9be78c	-0.019031309
10	0xbea4e4a4	-0.3220569
11	0xbef052fc	-0.46938312
12	0x3d13659e	0.03598558
13	0xbf2cc239	-0.6748386
14	0xbdb741d4	-0.089481026
15	0xbf0745bc	-0.5284078
16	0xbde13911	-0.10997213
17	0xbd237e52	-0.03991539
18	0xbe866e6a	-0.26256114
19	0xbe6ebac6	-0.23313436
20	0xbec049e3	-0.3755637
21	0xbd7bb2f3	-0.061449956
22	0xbe63ee37	-0.2225884
23	0xbeedbf4e	-0.46435016
24	0xbe2890be	-0.16461465
25	0x3d34ce80	0.044142246
26	0xbf6fd3b3	-0.936824
27	0xbf0defdd	-0.5544413
28	0xbe8f324e	-0.27968067
29	0xbf2e0d4a	-0.6798903
30	0xbdce8d29	-0.10085518
31	0xbdfc0093	-0.12304797
32	0xbf4ca256	-0.79935205
33	0xbf2524c7	-0.6450924
34	0xbf000f32	-0.50023186
35	0xbe302caf	-0.17204545
36	0xbdb9e575	-0.090769686
37	0xbe221ea3	-0.15832
38	0xbe361c66	-0.1778427
39	0xbe56a729	-0.20962204
40	0xbf4190ef	-0.75611776
41	0xbdb0e33f	-0.08637094
42	0xbf0e5e74	-0.55612874
43	0xbedefc3e	-0.4355182
44	0xbd6c87d8	-0.05774674
45	0xbf23da98	-0.6400542
46	0xbeba5b6a	-0.36397868
47	0xbee8d199	-0.4547241
48	0x3ce8b648	0.028407231
49	0xbda10207	-0.07861715
50	0xbe2651b0	-0.16242099
51	0xbea32763	-0.31865987
52	0xbf1d0e04	-0.6134951
53	0xbeaa3828	-0.3324597
54	0xbdadbfaa	-0.08483823
55	0xbf165b87	-0.5873341
56	0xbe14a176	-0.14514717
57	0x3d1d6c92	0.03843362
58	0xbf367028	-0.71264887
59	0xbf1a7c7c	-0.603462
60	0xbebd7e54	-0.37010443
61	0xbf0d6003	-0.5522463
62	0x3c0cd0f0	0.008594736
63	0xbdee119d	-0.11624453
64	0xbf271da0	-0.6527958
65	0xbed92b5e	-0.424159
66	0xbf3948a1	-0.7237645
67	0xbe5d20c4	-0.2159453
68	0xbe2c42f9	-0.16822423
69	0xbe4783a0	-0.19483805
70	0xbe700a57	-0.23441444
71	0xbe5653e4	-0.20930439
72	0xbf5003b0	-0.81255627
73	0xbd37cacb	-0.044871133
74	0xbeed58f6	-0.46356934
75	0xbf20baa4	-0.6278479
76	0xbe0d48df	-0.1379733
77	0xbeedc26f	-0.46437404
78	0xbea14e35	-0.3150498
79	0xbeec2c99	-0.46127775
80	0x3d388407	0.045047786
81	0xbe22dd0a	-0.15904632
82	0xbdaad1ff	-0.08340835
83	0xbeb016a3	-0.3439227
84	0xbeda3e29	-0.4262555
85	0xbe026caf	-0.12736772
86	0xbe8be1d7	-0.2732074
87	0xbf0c87f4	-0.5489495
88	0xbed43d85	-0.41453186
89	0x3d8659eb	0.06560119
90	0xbf48f36e	-0.78496444
91	0xbf355daa	-0.70846045
92	0xbeb4185b	-0.35174832
93	0xbf17ab1c	-0.5924547
94	0xbd9f818a	-0.077883795
95	0xbdd5d5f5	-0.104412
96	0xbf08dfef	-0.53466696
97	0xbede83a6	-0.43459815
98	0xbea28dc3	-0.3174878
99	0xbd8b446d	-0.068001606
100	0xbad8e67e	-0.0016548184
101	0xbe84a53c	-0.25907314
102	0xbe5ca9a1	-0.21549083
103	0xbe2be380	-0.16786003
104	0xbf48ce32	-0.7843963
105	0xbda3ef70	-0.080046535
106	0xbe358dd3	-0.17729883
107	0xbed4224c	-0.41432416
108	0xbdbc88b4	-0.092057616
109	0xbf2069e3	-0.6266157
110	0xbe97ba70	-0.29634428
111	0xbed0d927	-0.40790674
112	0xbc0eddd1	-0.008719877
113	0xbdb0f384	-0.08640197
114	0xbd902c7c	-0.07039735
115	0xbe84a42f	-0.25906512
116	0xbeb09030	-0.34485006
117	0xbe2fe832	-0.17178419
118	0xbe1ff53b	-0.15620892
119	0xbf019e72	-0.50632393
120	0xbe2ddd23	-0.16978888
121	0xbc4ddf74	-0.012565482
122	0xbf4c7efb	-0.79881257
123	0xbf24a32c	-0.6431148
124	0xbe78450f	-0.24245094
125	0xbf0873c4	-0.53301644
126	0xbc7e3fd0	-0.015518144
127	0xbcf34021	-0.029693665

layers.0.ufh.r_weight f4 [32, 32]
0	0x3d47d64b	0.04878835
1	0x3d3b5e38	0.04574415
2	0xbc2de837	-0.010614446
3	0xbe881c75	-0.2658421
4	0xbe6532ee	-0.2238271
5	0x3e8eefde	0.2791738
6	0x3d560932	0.052254863
7	0xbdb208b8	-0.08693069
8	0x3d5fdf38	0.054656237
9	0xbd9084a9	-0.07056553
10	0xbe4ce0c3	-0.20007615
11	0xbd9d6113	-0.07684531
12	0x3c9d927b	0.019234886
13	0x3d0349a1	0.03205264
14	0x3dfc6358	0.12323636
15	0x3e798f49	0.24371065
16	0x3d5f618b	0.054536384
17	0xbe2a7c75	-0.16649039
18	0xbe7c8a68	-0.24662173
19	0x3ead6884	0.33868802
20	0x3e71ad63	0.23601298
21	0x3de8ac9b	0.11361047
22	0xbe8e74c1	-0.2782345
23	0x3e8f3ca4	0.27975953
24	0x3ded682f	0.11592137
25	0xbe37eefd	-0.1796226
26	0x3d8dfb60	0.069327116
27	0x3e3a08b8	0.18167388
28	0x3b51c6c9	0.0032009354
29	0xbce0835b	-0.027406385
30	0xbe46b8ef	-0.19406484
31	0xbd44d134	-0.048051074
32	0xbe5bbc30	-0.21458507
33	0x3e3e9e61	0.18615104
34	0x3d53ab96	0.05167731
35	0xbe22334b	-0.15839879
36	0x3dde389f	0.10850643
37	0xbe31cac3	-0.17362504
38	0xbd7dacc0	-0.061932325
39	0xbe2e72b2	-0.1703594
40	0xbc8939cf	-0.016751198
41	0x3db6735b	0.08908721
42	0xbe874b24	-0.26424515
43	0x3d705214	0.058672026
44	0x3c5605cf	0.013062908
45	0xbe907df5	-0.28221098
46	0xbcdfcb5a	-0.027318645
47	0x3e2c067a	0.16799346
48	0x3ded2883	0.115799926
49	0xbd6a8a97	-0.057261076
50	0xbe89ce2c	-0.2691511
51	0x3e34f329	0.17670883
52	0xbdfade59	-0.12249441
53	0xbd29ac25	-0.041423935
54	0x3daecbf4	0.08534995
55	0x3e0abb0b	0.13547914
56	0x3d8471b5	0.064670004
57	0xbd91fc3c	-0.07128188
58	0x3e116ce1	0.1420169
59	0x3e514278	0.20435512
60	0x3da2a108	0.079408705
61	0xbe057a53	-0.13034944
62	0xbddd15fd	-0.107952096
63	0x3cd4d097	0.02597837
64	0x3e4f26b9	0.20229615
65	0xbdbacf36	-0.091215536
66	0xbd41a1ad	-0.047273327
67	0xbc0f6723	-0.008752617
68	0x3e2bcdf2	0.1677778
69	0xbd8da00c	-0.06915292
70	0xbeedea7d	-0.46467963
71	0xbe63adfe	-0.22234342
72	0xbe4c0169	-0.19922413
73	0x3c42949e	0.011876253
74	0xbe831972	-0.2560535
75	0xbe5c2f5d	-0.21502443
76	0xbd23c3fa	-0.03998182
77	0x3da87cb4	0.0822691
78	0xbca56299	-0.020188617
79	0x3ca6e4b5	0.020372728
80	0xbd6af46d	-0.05736201
81	0x3e823818	0.2543342
82	0x3e84e29c	0.2595414
83	0xbe0adbfa	-0.13560477
84	0xbdbd40a7	-0.09240847
85	0x3d6d1aa9	0.057886753
86	0x3db28c61	0.087181814
87	0xbdaf4010	-0.08557141
88	0x3cb8144e	0.02247062
89	0x3e3bc58f	0.18337081
90	0xbe2be762	-0.16787484
91	0x3c2eeee0	0.010677069
92	0x3dcfbb98	0.101432025
93	0x3da1fdeb	0.07909759
94	0xbd9c82b6	-0.07642119
95	0x3d1dab25	0.038493294
96	0xbe5f133d	-0.21784683
97	0xbe05b4d4	-0.13057262
98	0xbd523d8e	-0.051328234
99	0xbe40112d	-0.18756552
100	0x3a9938da	0.0011689917
101	0x3e576bca	0.21037212
102	0x3d1cb73f	0.038260695
103	0xbc67bf4a	-0.014144728
104	0xbcd0cdb8	-0.02548872
105	0x3eab3ce5	0.33444896
106	0xbc237661	-0.009976954
107	0x3d9c8054	0.07641664
108	0x3ea54c9a	0.32285005
109	0x3e28097b	0.16409867
110	0x3e6825c6	0.2267066
111	0x3e0c88f0	0.13724113
112	0x3ceb1609	0.02869703
113	0xbd530e35	-0.05152722
114	0xbd08ec12	-0.03342826
115	0xbc74a60b	-0.014932166
116	0x3e167728	0.14693892
117	0x3e7be52e	0.24599144
118	0xbf0ef6ac	-0.5584514
119	0xbdc9f51d	-0.09861205
120	0xbe5b300c	-0.21405047
121	0xbe463efd	-0.19359966
122	0xbdce5454	-0.10074678
123	0xbe17084f	-0.14749263
124	0xbe354444	-0.17701823
125	0x3db65bee	0.08904253
126	0x3e4d5149	0.20050539
127	0x3d1e0ff4	0.038589433
128	0xbe8212b4	-0.25404894
129	0x3e237ff2	0.15966776
130	0x3e897292	0.26845223
131	0xbd372ca8	-0.044720322
132	0xbe9e52b0	-0.3092246
133	0x3e6d274f	0.23159526
134	0x3e4a2658	0.1974119
135	0xbdc2e790	-0.09516823
136	0x3bf3236d	0.0074199946
137	0x3e2e5cff	0.17027663
138	0x3e36b5f9	0.17842855
139	0x3da7ebd7	0.0819928
140	0x3db40bf3	0.08791342
141	0xbc875ad2	-0.016522799
142	0x3d042ad8	0.03226742
143	0x3da1ec12	0.07906355
144	0xbb98dfd2	-0.0046653533
145	0xbea9c280	-0.33156204
146	0xbe59be48	-0.21263993
147	0x3a85103b	0.0010151932
148	0x3e33ea10	0.17569757
149	0x3e83c0b0	0.25732946
150	0xbed815bc	-0.42204082
151	0x3d4a3e7a	0.04937599
152	0xbdb1365f	-0.086529486
153	0xbe666dda	-0.22502843
154	0xbdd887fc	-0.10572812
155	0xbe3609c1	-0.17777158
156	0x3d44c4fe	0.04803943
157	0x3e3012dc	0.17194694
158	0xbda9e5f7	-0.082958154
159	0xbda7b367	-0.08188515
160	0x3e0de67e	0.13857457
161	0x3d0362d2	0.032076664
162	0xbd1133bf	-0.03544974
163	0xbdf6b3f9	-0.12046046
164	0xbe637b83	-0.22215085
165	0x3dee830b	0.11646088
166	0x3df506ca	0.119641855
167	0xbe1d9844	-0.15390116
168	0x3e2a5e92	0.16637638
169	0x3d993d88	0.07482439
170	0x3e097e85	0.1342717
171	0xbd9ddd1d	-0.0770819
172	0xbd1a1364	-0.03761615
173	0x3de4138a	0.11136539
174	0xbdd3d692	-0.103436604
175	0x3c3d57cd	0.011556578
176	0x3e308f27	0.17242108
177	0x3c9544d4	0.018221296
178	0xbd9e7a3b	-0.07738157
179	0x3e63cb84	0.22245604
180	0x3db80aa4	0.089864045
181	0x3e71cced	0.23613329
182	0xbe0fc9d9	-0.14041843
183	0xbdd4b5ed	-0.10386262
184	0xbd36c95a	-0.044625618
185	0xbc91b792	-0.017787728
186	0xbd2e38ea	-0.042534746
187	0xbd3f9262	-0.04677046
188	0xbe096b50	-0.13419843
189	0xbe435c9d	-0.19078298
190	0x3e88fda9	0.26756027
191	0xbc244855	-0.010027011
192	0xbd5c6429	-0.053806458
193	0x3e384d5b	0.17998259
194	0x3d2fc954	0.04291661
195	0x3ad38a4e	0.001613924
196	0xbe056e46	-0.13030347
197	0x3dee48f1	0.11635006
198	0xbeaf82fd	-0.34279624
199	0xbcb06f5d	-0.021537477
200	0xbc8f39a2	-0.017483536
201	0xbd051263	-0.032488238
202	0x3db684e7	0.08912068
203	0x3dca39b7	0.098742895
204	0x3db79ac2	0.089650646
205	0xbd1bbf3e	-0.03802418
206	0xbd7ef9a8	-0.06224981
207	0x3e1b27ae	0.15151855
208	0xbe970581	-0.29496387
209	0x3ed55456	0.41665906
210	0x3e3b62ff	0.18299483
211	0x3e2fd1c4	0.17169863
212	0xbe110137	-0.1416062
213	0xbeab7f77	-0.33495685
214	0xbe980969	-0.2969468
215	0x3df4155c	0.119181365
216	0x3eb165f2	0.3464809
217	0xbe96e565	-0.2947189
218	0x3e236243	0.15955453
219	0x3e5bcb32	0.21464232
220	0xbd5c38db	-0.05376516
221	0x3d55b396	0.05217322
222	0x3d3642e5	0.04449739
223	0x3dc05c7b	0.09392639
224	0x3e32ccf0	0.1746099
225	0x3df78530	0.120859504
226	0x3e62c968	0.22147143
227	0x3e26e7eb	0.16299407
228	0x3cd1c1ee	0.025605168
229	0xbd02f809	-0.031974826
230	0x3df07045	0.11740164
231	0xbca13ed5	-0.019683281
232	0xbde3df6d	-0.111265995
233	0xbeaf15c2	-0.34196287
234	0xbd743287	-0.0596185
235	0xbd5c6a1c	-0.05381213
236	0xbee09d30	-0.43869925
237	0x3e07c1f3	0.1325758
238	0x3e2ff753	0.1718419
239	0xbd584efc	-0.0528097
240	0xbde3a698	-0.111157596
241	0x3e1c5fef	0.15270971
242	0x3e4f9e90	0.2027533
243	0xbe23274c	-0.1593296
244	0x3da4e3b6	0.08051245
245	0xbe903a31	-0.28169397
246	0xbe0bb20c	-0.13642138
247	0x3d087551	0.033315007
248	0xbe3e7a1f	-0.18601273
249	0xbdc0b00c	-0.09408578
250	0x3d97c3c0	0.07410383
251	0x3d97e3ce	0.07416497
252	0xbdbd1918	-0.09233302
253	0x3dc38e58	0.09548634
254	0xbdce0e8d	-0.10061369
255	0x3e1b0c9f	0.15141533

layers.0.ufh.i_weight f4 [32, 32]
0	0x3b47fe90	0.0030516721
1	0x3dddbe48	0.10827309
2	0xbd6686c4	-0.056280866
3	0xbe20139d	-0.15632482
4	0xbe29c997	-0.16580807
5	0x3c6c7156	0.014431318
6	0x3e8dcb47	0.2769415
7	0x3dc7db84	0.09758666
8	0x3ce02f09	0.027366178
9	0x3e098cf4	0.13432676
10	0xbd85d2bd	-0.06534336
11	0x3e4e02c9	0.2011825
12	0x3dbac73d	0.09120033
13	0xbcbc9ffc	-0.023025505
14	0xbdb68095	-0.08911244
15	0x3cfbaf52	0.030723248
16	0x3e332bd1	0.17497183
17	0xbdd5e2d8	-0.10443658
18	0x3db6790e	0.08909808
19	0x3dd01af3	0.1016139
20	0x3e2378ee	0.159641
21	0x3cd3f89b	0.02587538
22	0xbb1186cd	-0.0022205592
23	0x3d46b55e	0.04851281
24	0x3d8209b8	0.0634951
25	0xbec2c67f	-0.38042066
26	0xbd91a5f1	-0.07111729
27	0xbddbe3f7	-0.1073684
28	0xbd01040c	-0.031498
29	0x3dfe6f62	0.12423588
30	0x3dd4d3c6	0.10391955
31	0xbb61b6e5	-0.003444129
32	0xbd3fb967	-0.046807673
33	0xbd01a108	-0.031647712
34	0x3d763849	0.06011227
35	0xbd9cf05c	-0.076630324
36	0xbd9a6854	-0.0753943
37	0xbdaea02a	-0.085266426
38	0x3be45746	0.0069684116
39	0x3e14a6ce	0.14516756
40	0xbbc92e10	-0.0061395243
41	0x3e26e434	0.1629799
42	0xbd7230da	-0.05912862
43	0x3dd2f960	0.10301471
44	0xbbaf88c2	-0.005356879
45	0x3d1b6268	0.037935644
46	0xbd077b21	-0.03307641
47	0xbe54b3ed	-0.20771761
48	0xbb9362fe	-0.004497885
49	0x3be19342	0.0068840096
50	0xbd6b9c7f	-0.057522293
51	0x3e12eda6	0.14348468
52	0x3d7fbc4d	0.062435437
53	0xbda7c1b0	-0.0819124
54	0x3d98c0a4	0.07458618
55	0xbd821774	-0.063521296
56	0xbb937dd3	-0.0045010834
57	0xbe38b87a	-0.18039122
58	0xbde675c2	-0.11252929
59	0xbd872aa1	-0.06599928
60	0xbc2a4e65	-0.010394667
61	0x3cdce7f7	0.026966078
62	0x3d8618fd	0.06547735
63	0xbbc617a4	-0.0060452987
64	0x3d8129b5	0.06306783
65	0x3dc2f3e5	0.095191754
66	0x3d94e164	0.07269552
67	0x3e136482	0.1439381
68	0x3d909e65	0.07061461
69	0xbda362cd	-0.07977829
70	0x3ccf260b	0.025286695
71	0xbafdef40	-0.001937367
72	0xbcd4c707	-0.02597381
73	0xbea26162	-0.31714922
74	0x3c49ab7c	0.0123089515
75	0x3d026edc	0.031844005
76	0x3d03ef7c	0.032210812
77	0xbd3fb3f6	-0.046802483
78	0xbd968ea6	-0.07351427
79	0xbe8491d9	-0.25892523
80	0x3d537b9e	0.051631562
81	0x3d955282	0.07291128
82	0x3e15e6d9	0.14638843
83	0x3d94d367	0.07266884
84	0xbe10a9d1	-0.1412728
85	0x3d935c16	0.071952984
86	0xbe2aa1bf	-0.16663264
87	0xbd7a4adb	-0.061106544
88	0x3ba21b1b	0.004947079
89	0xbd7570c5	-0.059922
90	0x3d5cf9c8	0.053949147
91	0x3e2791af	0.16364168
92	0xbe226959	-0.158605
93	0xbd49f4e8	-0.049305826
94	0xbce8aee3	-0.028403705
95	0x3e117ff3	0.14208965
96	0x3d419f34	0.04727097
97	0x3e900ad9	0.28133276
98	0xbdae6c2b	-0.08516725
99	0xbddb09ca	-0.106952265
100	0xbcdf6b92	-0.027272973
101	0x3d7baf16	0.06144627
102	0x3e09ea88	0.13468373
103	0xbd1bbb00	-0.038020134
104	0xbdaac916	-0.08339135
105	0x3dafd774	0.08586016
106	0x3c880293	0.01660279
107	0xbe4542d6	-0.19263777
108	0xbdaf286e	-0.08552633
109	0xbc241e94	-0.010017056
110	0xbe38b120	-0.18036318
111	0x3d10eae6	0.035380267
112	0x3e4e1019	0.20123328
113	0xbd46b77f	-0.04851484
114	0xbd54e8d0	-0.05197984
115	0x3dd7149e	0.10501979
116	0x3e3dd571	0.18538453
117	0x3da0d19d	0.078524806
118	0x3e9f9403	0.3116761
119	0x3e833607	0.25627157
120	0x3e32cd53	0.17461137
121	0xbe58b07a	-0.2116107
122	0x3ded0855	0.11573855
123	0xbcbec309	-0.02328636
124	0x3e776d5a	0.24162808
125	0x3d849151	0.064730294
126	0x3d147fae	0.036254577
127	0xbe34578f	-0.17611526
128	0xbde9e5a9	-0.11420757
129	0xbe20b6e5	-0.15694769
130	0x3d52d07c	0.051468357
131	0xbd4922bc	-0.04910539
132	0xbe2b0bb2	-0.1670368
133	0x3d45e60a	0.048315085
134	0x3ca5854c	0.020205162
135	0x3e18a343	0.1490603
136	0x3e10f117	0.14154468
137	0x3d17cbea	0.037059702
138	0x3db104ce	0.086434945
139	0x3e5c89b6	0.21536908
140	0xbd931ca1	-0.07183195
141	0x3ce9461c	0.028475814
142	0x3cdbede4	0.026846834
143	0x3a19ec18	0.00058716675
144	0xbd4b247e	-0.04959535
145	0xbdfaa75e	-0.12238954
146	0xbd02b2a5	-0.03190865
147	0x3d93f0fc	0.072236985
148	0x3eccf7bc	0.40032756
149	0x3e6c8d79	0.23100843
150	0x3e2d5bac	0.16929501
151	0xbbe0922b	-0.006853362
152	0xbe49174f	-0.19637798
153	0x3d92aa0b	0.07161339
154	0xbce1b980	-0.027554274
155	0x3e10ad64	0.14128643
156	0x3d9c3f92	0.076293126
157	0x3c6b9af9	0.01438021
158	0xbccfa42e	-0.025346842
159	0x3bbfc164	0.0058519114
160	0x3d8613ea	0.06546767
161	0x3d81af16	0.06332223
162	0x3d9fb54a	0.0779825
163	0x3e60caff	0.21952437
164	0x3dc86944	0.09785703
165	0xbeca1689	-0.39470318
166	0x3cd761f9	0.026291834
167	0xbd8f818f	-0.07007133
168	0xbdefe672	-0.11713876
169	0xbbcdaf23	-0.0062769814
170	0xbd1d850c	-0.03845696
171	0x3db7e845	0.08979849
172	0x3db93298	0.09042853
173	0xbd921c46	-0.07134299
174	0x3d939486	0.07206063
175	0xbc4d54a9	-0.012532392
176	0xbdb2e49e	-0.087350115
177	0x3c5ce0ec	0.01348136
178	0x3dad9332	0.08475341
179	0x3dbf9ab3	0.093556784
180	0xbd97de79	-0.0741548
181	0xbd07af84	-0.03312637
182	0x3e137de7	0.14403497
183	0xbe105ff6	-0.14099106
184	0x3e0f6bb2	0.14005926
185	0x3e83070c	0.25591314
186	0xbd703d82	-0.05865241
187	0x3df59848	0.11991936
188	0xbd56f82e	-0.052482776
189	0xbd86429d	-0.06555674
190	0x3d92d40b	0.0716935
191	0x3e075a4f	0.13218044
192	0xbe0fc1de	-0.14038798
193	0x3e236778	0.15957439
194	0x3da2d5c4	0.07950929
195	0xbf15aaac	-0.5846355
196	0xbec1708a	-0.37781173
197	0x3daf50df	0.08560347
198	0x3d9788a9	0.07399113
199	0xbd9cc45f	-0.07654642
200	0xbd4be934	-0.049782947
201	0x3e9e4e8d	0.30919304
202	0x3e08bb6f	0.1335275
203	0xbbe5a601	-0.0070083146
204	0x3e1ce49f	0.15321587
205	0x3e017904	0.1264382
206	0x3e217fba	0.1577138
207	0x3dd03884	0.101670295
208	0xbe39e773	-0.18154697
209	0xbec5960f	-0.38591048
210	0xbeab5f71	-0.33471254
211	0xbd5762a4	-0.052584305
212	0x3eb16ad0	0.34651804
213	0x3d03e380	0.032199383
214	0xbd89b4d4	-0.06723943
215	0xbcee24a7	-0.029070212
216	0xbec22d6e	-0.37925285
217	0xbde18b89	-0.11012942
218	0x3d1b6b66	0.03794422
219	0x3cccaf15	0.02498583
220	0xbbba5ef6	-0.0056875898
221	0x3dcca01b	0.09991475
222	0x3d2c2bb7	0.042033877
223	0x3d0e71d3	0.03477652
224	0xbd69f555	-0.057118732
225	0xbc738828	-0.014864005
226	0x3c82b620	0.015955985
227	0xbe95527c	-0.29164493
228	0x3c145703	0.009053948
229	0x3d93a05e	0.07208322
230	0xbcb847ee	-0.022495236
231	0xbc30b2da	-0.010784829
232	0x3d7babdc	0.061443195
233	0x3ddda24d	0.10821972
234	0x3d9970a4	0.074921876
235	0xbd4e3585	-0.05034401
236	0x3d5469a3	0.051858556
237	0xbd9fc640	-0.07801485
238	0xbd17d800	-0.037071228
239	0x3e2e1c98	0.17003095
240	0x3c94df18	0.018172786
241	0xbd17c9d2	-0.037057705
242	0xbdbc52c3	-0.09195473
243	0xbc24df0d	-0.010062945
244	0x3dcd3677	0.10020154
245	0x3da146f0	0.078748584
246	0xbe04bb7a	-0.12962142
247	0x3d8e5334	0.069494635
248	0xbcdd64f4	-0.027025677
249	0x3d33795a	0.0438169
250	0x3db06de9	0.08614714
251	0x3dafa59b	0.085765086
252	0xbca3fb9c	-0.020017438
253	0x3da87b2f	0.082266204
254	0x3dc4114e	0.09573613
255	0xbe092025	-0.13391168

layers.0.ufh.j_weight f4 [32, 32]
0	0x3d9b418f	0.07580864
1	0xbe281a90	-0.16416383
2	0x3c8cb8c4	0.017177947
3	0xbe8a1aaa	-0.26973468
4	0xbcbf6990	-0.023365766
5	0x3dc98a6e	0.098408565
6	0x3b6fbdda	0.0036581666
7	0xbd42322b	-0.047411125
8	0x3e02529c	0.12726825
9	0x3cdfb397	0.027307315
10	0xbdc45507	-0.0958653
11	0xbd53d1c9	-0.05171374
12	0xbc42bb80	-0.011885524
13	0x3dedca40	0.11610842
14	0xbdcbc22c	-0.09949145
15	0x3bca9214	0.0061819647
16	0x3c617a22	0.013762029
17	0xbd776427	-0.060398247
18	0xbe1aaa6e	-0.15104076
19	0x3d017917	0.03160962
20	0x3e3a8334	0.18214113
21	0xbded6120	-0.11590791
22	0x3d1002a0	0.035158753
23	0x3e386861	0.18008567
24	0x3c2cff36	0.010558894
25	0x3dc7a4e5	0.09748248
26	0xbe299f89	-0.16564764
27	0xbd36ad08	-0.04459861
28	0x3e68031e	0.22657439
29	0xbdc078f7	-0.09398072
30	0x3d692b1c	0.056925878
31	0xbe20432a	-0.15650621
32	0xbe8e2193	-0.2775999
33	0xbdabfe78	-0.083981454
34	0x3d3265b1	0.04355401
35	0xbe60f3d9	-0.2196802
36	0xbe71a722	-0.23598912
37	0xbc879a86	-0.016553175
38	0x3dd45343	0.103674434
39	0xbdfb181c	-0.12260458
40	0xbda9132b	-0.08255609
41	0x3e052647	0.13002883
42	0xbd4a3741	-0.0493691
43	0xbdb21d34	-0.08696976
44	0xbe0de19b	-0.13855593
45	0x3de55e78	0.11199659
46	0x3de5d420	0.112221
47	0x3e15b326	0.14619121
48	0x3ae65cc8	0.0017575258
49	0xbe55d1b6	-0.2088078
50	0xbca23fb5	-0.019805769
51	0xb9af2ae0	-0.00033410545
52	0x3e74c3e3	0.2390285
53	0xbca4ace7	-0.020101978
54	0xbe38b48f	-0.18037628
55	0xbca928ac	-0.020649277
56	0xbdf6ec00	-0.12056732
57	0xbda0184f	-0.078171365
58	0xbc698396	-0.014252564
59	0xbdd8668b	-0.105664335
60	0x3d027454	0.03184922
61	0x3d810bea	0.063011006
62	0xbdfa460c	-0.12220392
63	0xbe63889a	-0.22220078
64	0x3caa4f52	0.020789776
65	0x3dc32947	0.095293574
66	0xbd908686	-0.07056908
67	0xbb296d50	-0.002585251
68	0xb9dcd78f	-0.00042122274
69	0xbdd2682a	-0.10273774
70	0x3e979bae	0.29610962
71	0x3e56ef7e	0.20989797
72	0x3dc29ba8	0.09502345
73	0x3e0e6564	0.13905865
74	0x3c92bc10	0.01791194
75	0x3db1d14a	0.08682497
76	0xbe821990	-0.25410128
77	0x3d97c638	0.07410854
78	0xbdf5b477	-0.119973116
79	0xbe0a71f3	-0.1352003
80	0x3e7375fe	0.23775479
81	0xbe3eaebb	-0.18621342
82	0xbe19d353	-0.1502202
83	0xbd8247f1	-0.06361378
84	0x3df6cba7	0.12050562
85	0xbd0cedf6	-0.034406625
86	0xbc5d4a97	-0.013506553
87	0xbc15b5af	-0.009137555
88	0x3dc9b764	0.09849432
89	0x3d5978c0	0.05309367
90	0x3b39fb32	0.0028378484
91	0xbd2713af	-0.040790256
92	0x3d66a3cd	0.056308556
93	0xbc5b2b4e	-0.013377024
94	0x3d6c1f08	0.05764678
95	0x3db6723b	0.089085065
96	0x3d523540	0.051320314
97	0xbd019be5	-0.031642813
98	0x3d153bc7	0.03643396
99	0x3ce68d82	0.028143648
100	0x3e296d20	0.16545534
101	0x3e1a3467	0.15059052
102	0xbe094bc1	-0.13407804
103	0x3ebfbf17	0.37450477
104	0x3d97b43d	0.074074246
105	0xbd280642	-0.041021593
106	0xbd1a8c28	-0.03773132
107	0xbc62e7f8	-0.013849251
108	0x3b56b60e	0.0032762322
109	0xbd3955d2	-0.04524786
110	0xbe3d2863	-0.18472438
111	0x3d2c66fb	0.042090397
112	0xbd2a2a9d	-0.041544545
113	0x3e87ce6b	0.26524672
114	0x3e075ebd	0.13219734
115	0xbda59ac7	-0.08086162
116	0x3e60900e	0.21929953
117	0xbe414761	-0.18874885
118	0x3ea0e983	0.31428155
119	0x3d7c4a62	0.061594374
120	0xbd81f1c0	-0.06344938
121	0x3cf53ce6	0.029936265
122	0x3db2f386	0.08737855
123	0x3d1503ee	0.0363807
124	0x3e8174d1	0.25284436
125	0xbdd3dd4e	-0.10344945
126	0xbe01f9e8	-0.12692988
127	0x3cd01d18	0.025404498
128	0xbd14eb4f	-0.03635722
129	0xbbbdb068	-0.0057888515
130	0xbdb8b162	-0.09018208
131	0xbe6cb6fd	-0.2311668
132	0x3c6683c7	0.014069504
133	0x3e275f1b	0.16344874
134	0x3d91274d	0.07087574
135	0x3d98bfb2	0.07458438
136	0x3dd43dc6	0.10363345
137	0x3d5ff589	0.05467752
138	0x3d793fca	0.06085185
139	0xbe901e38	-0.28148055
140	0x3c862a3e	0.016377565
141	0x3cfdea29	0.030995445
142	0x3df456d0	0.11930621
143	0x3df32ee5	0.11874179
144	0x3e41ade3	0.18913989
145	0x3b8e1a72	0.0043366486
146	0xbe9265b7	-0.28593227
147	0xbe50aa3e	-0.20377442
148	0x3e7cde90	0.24694276
149	0x3e2abe1b	0.16674082
150	0xbe374ed4	-0.17901164
151	0x3e876402	0.26443487
152	0xbe8aafec	-0.27087343
153	0xbdbcca22	-0.09218241
154	0x3b9358d6	0.004496674
155	0xbdc4e6e9	-0.09614355
156	0x3ea95196	0.33070058
157	0x3d08b1ed	0.03337281
158	0xbe920dce	-0.28526157
159	0x3d13d544	0.036092058
160	0xbdd0616f	-0.10174834
161	0x3d1760e4	0.036957636
162	0xbd7e7c1f	-0.06213009
163	0xbd7f7016	-0.062362753
164	0xbe25987e	-0.16171452
165	0xbbc3f429	-0.005980034
166	0x3dc18ad0	0.094503045
167	0x3db45408	0.0880509
168	0x3dded380	0.10880184
169	0x3d357f3f	0.044310804
170	0x3d976c91	0.07393754
171	0xbe27404d	-0.16333123
172	0x3e552357	0.20814262
173	0x3ce91d2d	0.028456295
174	0x3dbe51de	0.09292959
175	0x3e3326a3	0.17495207
176	0x3de004f2	0.10938443
177	0xbd12b3ea	-0.03581611
178	0xbe68fa58	-0.22751749
179	0xba5d4fd3	-0.00084423757
180	0x3e92caa0	0.28670216
181	0x3e60ad50	0.21941113
182	0x3da8c7f2	0.082412615
183	0x3dcb5a21	0.099293
184	0xbe40842b	-0.18800418
185	0x3d5d06f2	0.0539617
186	0x3dd7fd5d	0.10546372
187	0x3a325406	0.00068026816
188	0x3de7b594	0.1131393
189	0x3d42a14e	0.047517113
190	0x3e38db9c	0.18052524
191	0x3e2d57ec	0.16928071
192	0x3d99c203	0.07507708
193	0x3e25264c	0.1612789
194	0xbdc9f9cf	-0.098621
195	0xbeb6b082	-0.3568154
196	0x3dad99ea	0.084766224
197	0x3ebaa6ba	0.36455327
198	0x3d770513	0.060307574
199	0xbcd6ff81	-0.02624488
200	0xbd6766fe	-0.056494705
201	0x3d666661	0.05624998
202	0x3e029fd0	0.12756276
203	0xbe4cbd5e	-0.19994113
204	0x3d972b8d	0.073813535
205	0xbd6d0249	-0.057863507
206	0xbb99d460	-0.0046945065
207	0x3d5a1d28	0.05325046
208	0x3e51cef3	0.20489101
209	0x3cfd0b04	0.030889042
210	0xbde81609	-0.11332328
211	0x3e36bcbb	0.17845432
212	0x3de3a1f4	0.111148745
213	0x3e958caa	0.2920888
214	0xbbdf728e	-0.006819076
215	0xbd345c5a	-0.044033386
216	0xbe24f628	-0.16109526
217	0xbe205a35	-0.15659411
218	0xbbfff49b	-0.0078111417
219	0xbdda59f6	-0.1066169
220	0x3de7c1e5	0.11316279
221	0xbe0c7115	-0.13715012
222	0x3e0c3ab7	0.13694273
223	0xbea3a9c8	-0.3196547
224	0x3d2247a5	0.039619107
225	0x3e0ab9ab	0.13547389
226	0xbc8bae70	-0.017050952
227	0xbe5d63f6	-0.21620163
228	0x3e32b4a4	0.17451721
229	0x3db17f9a	0.08666916
230	0xbdc2e5c8	-0.095164835
231	0xbcc81f02	-0.024428848
232	0x3cfa6a22	0.030568186
233	0xbe5d438e	-0.21607801
234	0x3e0f0d2a	0.13969865
235	0xbd89f558	-0.06736249
236	0x3e8d5e7d	0.2761115
237	0x3c18dd85	0.009330158
238	0x3df8d001	0.121490486
239	0x3db730af	0.089448325
240	0xbcf732e0	-0.030175626
241	0x3d394f4f	0.04524165
242	0x3c81e3a8	0.015855625
243	0x3e0d0453	0.13771181
244	0xbdf01c52	-0.11724152
245	0x3d2bf5ca	0.04198245
246	0xbd5b6dd5	-0.05357154
247	0xba8d8843	-0.0010798055
248	0xbdaefbfb	-0.08544155
249	0xbcbac1a6	-0.022797417
250	0xbe382e7a	-0.1798648
251	0x3b035082	0.0020037
252	0xbe2968b4	-0.16543847
253	0xbe28a3ca	-0.1646873
254	0xbd354bff	-0.04426193
255	0xbb8ca261	-0.004291818

layers.0.ufh.k_weight f4 [32, 32]
0	0x3e71b09e	0.2360253
1	0x3dbdf6fa	0.09275623
2	0xbdb1e9a5	-0.08687142
3	0xbcca36e3	-0.024684375
4	0x3ec0965c	0.37614715
5	0x3db6e133	0.08929672
6	0xbe8b714d	-0.2723488
7	0xbcdc0d0d	-0.026861692
8	0x3d172127	0.03689685
9	0xbdc7db36	-0.09758608
10	0xbdbafaad	-0.09129844
11	0xbc4113fb	-0.011784549
12	0x3e5f2b6b	0.21793906
13	0x3cf0dba8	0.029401615
14	0xbcfe43a8	-0.03103812
15	0xbd0163ad	-0.0315892
16	0xbd05a18e	-0.032624774
17	0x3ecbd11e	0.3980798
18	0x3d2cfb2d	0.042231727
19	0xbd045667	-0.032308962
20	0xbe0c4fc8	-0.13702309
21	0x3c8e5f4b	0.017379424
22	0x3e4b90da	0.19879475
23	0x3db224ff	0.08698463
24	0x3e936bf7	0.28793308
25	0x3db55b43	0.088552974
26	0x3e2aa01e	0.16662642
27	0x3e17bbe1	0.14817764
28	0x3e703370	0.23457122
29	0x3c67b640	0.014142573
30	0xbe24917f	-0.16071127
31	0xbe37fe74	-0.1796816
32	0xbd91ebff	-0.07125091
33	0x3c8f60f5	0.017502287
34	0xbd92f6a0	-0.07175946
35	0x3e391381	0.18073846
36	0x3e6f67fb	0.23379509
37	0x3d41334c	0.04716806
38	0xbe24ba2e	-0.16086647
39	0xbd4d21ee	-0.050081186
40	0xbca57699	-0.020198153
41	0xbdb8f7fb	-0.090316735
42	0x3d5d0462	0.053959258
43	0xbc5a41a1	-0.013321311
44	0x3def9408	0.116981566
45	0xbcb8de59	-0.022566961
46	0x3d53618c	0.0516067
47	0xbc930846	-0.017948281
48	0xbd99ec3a	-0.0751576
49	0x3e6cfb9f	0.23142861
50	0x3e3f7c78	0.18699825
51	0xbda47e6a	-0.08031924
52	0x3dbf2352	0.09332909
53	0x3dde60e2	0.10858323
54	0x3ee37681	0.4442635
55	0x3e39794d	0.18112679
56	0x3e42aa93	0.19010381
57	0x3e4db5ff	0.20088957
58	0x3c0c8109	0.008575686
59	0x3e0dbf08	0.13842404
60	0x3dd349da	0.103168204
61	0xbd36b06a	-0.044601835
62	0x3e62120e	0.220772
63	0x3dacd62c	0.084392875
64	0x3dc78e7c	0.097439736
65	0x3b0c3c7e	0.002139836
66	0xbc4b7410	-0.012417808
67	0x3d9d1084	0.07669166
68	0xbda3673e	-0.07978676
69	0x3c58becb	0.013229082
70	0x3d0a6419	0.033786867
71	0xbe1e9628	-0.15486968
72	0x3d0f96c8	0.035055906
73	0xbf04a5b7	-0.5181536
74	0xbb382247	-0.0028096603
75	0x3cf3aff9	0.029746996
76	0xbe11eeaf	-0.14251207
77	0x3ddc1426	0.107460305
78	0xbd5f894a	-0.05457429
79	0x3dcffd4a	0.10155733
80	0xbe38f4af	-0.1806209
81	0x3de4d236	0.11172907
82	0x3dd13f42	0.102171436
83	0x3d549f4c	0.05190973
84	0xbda5ece1	-0.08101822
85	0xbcce7e84	-0.025206812
86	0x3d86852f	0.065683715
87	0x3c814c7f	0.015783546
88	0xbdc353bb	-0.09537455
89	0x3d8ace17	0.0677759
90	0x3d1ec664	0.03876342
91	0xbcacf2f7	-0.021111948
92	0x3e0606c0	0.13088512
93	0x3d15a3ca	0.036533155
94	0xbdb4ad7b	-0.08822151
95	0xbe01469f	-0.12624596
96	0x3d6c86e7	0.05774584
97	0x3d24f272	0.040270276
98	0x3cbfb7e1	0.02340311
99	0x3e8fb249	0.28065708
100	0x3e93aaab	0.28841147
101	0x3e7b7d6b	0.24559562
102	0xbe268e11	-0.16265132
103	0xbe0c75c3	-0.13716798
104	0x3e394c6e	0.18095562
105	0x3db33dfd	0.08752058
106	0xbdde0a6b	-0.10841831
107	0x3d0b0290	0.03393799
108	0x3dd7e4f5	0.10541717
109	0xba1a5179	-0.0005886774
110	0xbd4b4430	-0.049625576
111	0xbd0d3088	-0.03447011
112	0x3a8ed50c	0.0010897233
113	0x3e53f566	0.20699081
114	0x3db27078	0.08712858
115	0x3ba9a3d5	0.005177001
116	0xbde459d4	-0.11149946
117	0xbd12a827	-0.035804894
118	0xbb7dfeb9	-0.0038756563
119	0xbda14dce	-0.07876168
120	0x3eb4470d	0.35210457
121	0x3da43cf2	0.08019437
122	0xbdd15d99	-0.102229305
123	0x3e7d7015	0.24749787
124	0x3e5e47d9	0.21707095
125	0xbc8bc13b	-0.017059913
126	0xbe445fe8	-0.1917721
127	0x3e2973a3	0.16548018
128	0xbd14b7af	-0.036307987
129	0x3e46b280	0.1940403
130	0x3e07f005	0.13275154
131	0xbe4c2325	-0.19935282
132	0xbcbb6fac	-0.022880398
133	0x3e928b53	0.2862192
134	0x3b1cd974	0.0023933323
135	0x3dd0b77b	0.10191246
136	0xbcb86cb6	-0.022512775
137	0x3e00cdda	0.12578526
138	0xbcf9521b	-0.030434659
139	0xbd45d459	-0.048298214
140	0x3c3630ce	0.011120034
141	0xbd11e3b6	-0.035617553
142	0xbd22bff1	-0.03973383
143	0xbc20ed28	-0.009822167
144	0x3e1b051d	0.1513867
145	0x3c077afa	0.008269066
146	0xbdb66cfa	-0.089075044
147	0x3e2ef64d	0.17086144
148	0x3e850459	0.2597988
149	0x3e8f1d03	0.27951822
150	0x3dbf0554	0.09327188
151	0x3d1070bc	0.035263762
152	0x3d0792aa	0.033098854
153	0xbe46f3f7	-0.19429003
154	0xbd382a05	-0.044961948
155	0x3b013417	0.0019714886
156	0x3d03d88f	0.03218895
157	0xbceac0b9	-0.02865635
158	0x3dbb4bc6	0.09145312
159	0x3d4cd36a	0.050006308
160	0x3e0c0bc7	0.13676368
161	0xbe2022b3	-0.15638237
162	0xbc9bd3bb	-0.01902186
163	0x3e367b11	0.17820384
164	0x3e1cd746	0.15316495
165	0x3ec24c68	0.37948918
166	0x3e07af41	0.13250448
167	0x3de5fc20	0.1122973
168	0x3e2a69ca	0.16641918
169	0xbe5c9567	-0.21541367
170	0xbccb8d4d	-0.02484765
171	0x3c849dc5	0.016188512
172	0x3e70d825	0.23519953
173	0x3e2de4e2	0.16981843
174	0xbe0f2e41	-0.13982488
175	0x3d523475	0.05131956
176	0xbd214e8d	-0.039381552
177	0x3e5ae48d	0.21376248
178	0x3be2d97b	0.0069228983
179	0xbd0046ee	-0.031317644
180	0x3d012b68	0.031535536
181	0x3dd2480a	0.102676466
182	0x3ec7d1ae	0.3902716
183	0xbcfa631d	-0.030564839
184	0x3c3eb8de	0.011640755
185	0x3dbc01f4	0.0918006
186	0x3d77123b	0.06032012
187	0x3e0c7e73	0.13720112
188	0x3e4c383d	0.19943328
189	0xbcc44cae	-0.023962345
190	0x3e1b429a	0.15162125
191	0x3e423df6	0.18968949
192	0xbdefb28f	-0.11703979
193	0x3e068ad2	0.13138893
194	0xbc90809e	-0.017639454
195	0x3e40e919	0.1883892
196	0xbd0322f3	-0.032015752
197	0xbb2bc0df	-0.002620749
198	0xbe4d4be3	-0.2004848
199	0x3d1ad188	0.03779748
200	0x3da615e5	0.08109645
201	0xbdc7de33	-0.09759178
202	0x3d84f2ec	0.06491646
203	0x3e724692	0.23659733
204	0xbca95f01	-0.020675184
205	0x3e14da4c	0.14536399
206	0xbd797a49	-0.060907636
207	0x3c63f816	0.013914129
208	0xbcb5a41f	-0.022172986
209	0xbb98d0ca	-0.0046635615
210	0x3b36438a	0.0027811253
211	0x3c8a03ec	0.016847573
212	0xbd8a9e1d	-0.06768439
213	0xbdfb2d7c	-0.12264535
214	0x3e02a362	0.12757638
215	0x3dc66273	0.096867464
216	0xbdc023de	-0.09381841
217	0x3be5b550	0.0070101395
218	0xbbf03e25	-0.007331627
219	0xbda10883	-0.078629516
220	0xbded5e80	-0.1159029
221	0x3dd222d4	0.10260549
222	0x3c379153	0.011204082
223	0x3d9c83eb	0.07642349
224	0xbc67273c	-0.014108475
225	0xbd0c91a6	-0.03431859
226	0x3c820731	0.01587257
227	0x3e26a13a	0.1627244
228	0xbe04af5d	-0.12957521
229	0xbe29e6b2	-0.1659191
230	0x3e43c5cc	0.19118422
231	0xbdb9f47c	-0.09079835
232	0x3d8ee194	0.06976619
233	0x3d127149	0.03575257
234	0x3dcfb05c	0.1014106
235	0x3e12189e	0.14267203
236	0x3e1e8bc1	0.15483
237	0xbdfc5b26	-0.12322073
238	0x3d06a005	0.03286745
239	0xbd40e53b	-0.04709361
240	0xbdaab66e	-0.08335577
241	0xbddcda7c	-0.1078386
242	0xbe3abcca	-0.1823608
243	0x3df3c576	0.11902897
244	0xbe48b373	-0.19599704
245	0x3d1e1a12	0.03859908
246	0x3d15722c	0.036485836
247	0x3c8bf476	0.017084341
248	0xbd1f110c	-0.038834617
249	0x3e708e9d	0.23491903
250	0x3d79966d	0.060934473
251	0x3e3a666f	0.18203138
252	0xbd764460	-0.0601238
253	0x3d8aab14	0.06770912
254	0x3a5c140a	0.000839532
255	0x3ad1ee39	0.001601643

layers.0.wix.r_weight f4 [1, 32]
0	0xbe8c818f	-0.27442595
1	0xbe62c425	-0.22145136
2	0xbeffa970	-0.49933958
3	0xbee71092	-0.4512983
4	0xbe708833	-0.23489456
5	0xbea22666	-0.3166992
6	0xbe1f3ec9	-0.15551294
7	0xbe4e3231	-0.20136334
8	0xbf119f2c	-0.568835
9	0x3e7dd333	0.24787597
10	0xbf176c96	-0.59150064
11	0xbf0e67c1	-0.55627066
12	0x3e52a63a	0.20571223
13	0xbedb5396	-0.42837209
14	0x3e324b92	0.1741164
15	0xbec7bd43	-0.39011583
16	0x3df96a02	0.121784225
17	0xbea3475a	-0.31890374
18	0xbe3e124d	-0.18561669
19	0x3c90bae2	0.017667238
20	0x3e6fe83b	0.23428433
21	0xbd20a72c	-0.039221928
22	0xbebd361b	-0.36955342
23	0xbe7302f8	-0.23731601
24	0xbea1b723	-0.31585035
25	0x3c56565b	0.013082112
26	0xbf378c15	-0.71698123
27	0xbf04a080	-0.51807404
28	0xbe366bd3	-0.17814569
29	0xbf0ffd18	-0.56245565
30	0xbd70d090	-0.05879265
31	0xbec80f92	-0.3907438

layers.0.wix.i_weight f4 [1, 32]
0	0x3e81e219	0.2536781
1	0x3e3feb64	0.18742138
2	0x3e210faa	0.15728632
3	0xbe8106c5	-0.25200477
4	0x3d0e09cb	0.034677308
5	0xbe5a76a4	-0.2133432
6	0xbdcb1cef	-0.09917628
7	0xbd96b168	-0.07358056
8	0x3df216ed	0.11820779
9	0xbe141171	-0.14459778
10	0x3e1efbbf	0.15525721
11	0xbd9ab402	-0.07553865
12	0x3e22bdd6	0.15892729
13	0x3ddbebb7	0.107383184
14	0x3e7c7d7e	0.24657246
15	0x3d62f666	0.055410765
16	0xbe453c37	-0.19261251
17	0xbc60ed34	-0.013728429
18	0xbc7ead36	-0.015544226
19	0xbe5a334c	-0.2130863
20	0xbe8a2206	-0.26979083
21	0xbda920c6	-0.08258204
22	0xbeca6641	-0.3953114
23	0x3c1e2543	0.009652439
24	0xbd6912c1	-0.05690265
25	0x3e011ee7	0.12609445
26	0x3cf912ae	0.030404415
27	0xbe0cba8e	-0.1374304
28	0xbe3c757c	-0.18404192
29	0xbdc56b24	-0.09639576
30	0xbddbaeb5	-0.10726682
31	0xbe401637	-0.18758474

layers.0.wix.j_weight f4 [1, 32]
0	0x3de514a9	0.11185581
1	0xbc1347fc	-0.00898933
2	0xbd8aa5e7	-0.067699246
3	0xbd4aa66d	-0.049475122
4	0x3de1a44c	0.11017665
5	0x3d939a31	0.07207144
6	0x3cf28655	0.02960507
7	0xbdbe42df	-0.092900984
8	0xbdb64536	-0.0889992
9	0x3d92bc80	0.0716486
10	0xbd770a91	-0.06031281
11	0xbd809d55	-0.06280009
12	0xbd77dba0	-0.060512185
13	0x3dc5a05c	0.09649727
14	0xbd58f0d2	-0.05296404
15	0x3dbe7c5f	0.09301066
16	0x3ebf88aa	0.37408954
17	0x3d45f8b1	0.048332874
18	0x3d5770bd	0.05259775
19	0x3ded5d8c	0.11590108
20	0xbbe06010	-0.006847389
21	0xbe07c160	-0.1325736
22	0xbd813464	-0.06308821
23	0x3c8c4b52	0.01712576
24	0xbe5b77ff	-0.21432494
25	0xbdebb031	-0.11508215
26	0xbebc536f	-0.36782405
27	0x3e617091	0.22015597
28	0x3d315306	0.043292068
29	0xbe5094b5	-0.20369227
30	0x3e2d8c6e	0.16948101
31	0x3d85b6a4	0.065289766

layers.0.wix.k_weight f4 [1, 32]
0	0x3c870fbf	0.016487
1	0x3bbba890	0.0057268813
2	0x3ce06044	0.027389653
3	0x3ca5bb1b	0.02023082
4	0xbe05b1f0	-0.13056159
5	0x3e16408d	0.14673062
6	0xbd0dd6bb	-0.03462861
7	0x3d85702f	0.06515538
8	0x3d42cec0	0.047560453
9	0x3c645ab4	0.013937641
10	0xbe524ec6	-0.20537862
11	0x3e0b8728	0.13625777
12	0x3d6c17c3	0.05763985
13	0xbd022daa	-0.03178183
14	0xbd89d665	-0.06730346
15	0xbc9dd05f	-0.019264398
16	0xbe68b72a	-0.22726122
17	0xbda188b3	-0.078874014
18	0xbceebca8	-0.029142693
19	0xbe8c4cea	-0.2740243
20	0xbe3fa44f	-0.18715023
21	0xbdf00062	-0.11718823
22	0xbcea72eb	-0.02861925
23	0xbd1eecd8	-0.03880009
24	0x3d6c6216	0.05771073
25	0x3d9999eb	0.07500061
26	0x3d0c66d1	0.03427774
27	0xbd36d6ae	-0.04463833
28	0xbe217694	-0.1576789
29	0x3dd75da4	0.105159074
30	0x3daa5e77	0.08318799
31	0xbd66ea46	-0.056375764

layers.0.wix.bias f4 [128]
0	0xbf23fbd7	-0.6405615
1	0xbe5966f3	-0.21230678
2	0xbf9ecda4	-1.2406507
3	0xbd13c5ac	-0.036077186
4	0x3d3971e7	0.04527464
5	0xbdbe9c92	-0.09307207
6	0xbe360c2f	-0.17778085
7	0xbe84c5f0	-0.25932264
8	0xbf8339a9	-1.0251971
9	0x3da66e28	0.081264794
10	0xbe75349a	-0.23945847
11	0xbf0a2c88	-0.539742
12	0x3e361225	0.17780359
13	0xbf6b1f8c	-0.9184501
14	0xbdb55091	-0.088532574
15	0xbf1531d9	-0.58279186
16	0x3dbc1685	0.09183983
17	0x3da36a22	0.079792276
18	0xbe2ddc4b	-0.16978566
19	0xbe55a103	-0.20862202
20	0xbeeb42fe	-0.45949548
21	0xbd64fde9	-0.05590621
22	0xbe33450f	-0.17506813
23	0xbf118114	-0.5683758
24	0x3c53db2c	0.012930673
25	0x3ddf6c03	0.109092735
26	0xbf9ad522	-1.2096293
27	0xbef33dcd	-0.47508088
28	0xbe5afcb1	-0.21385457
29	0xbf5f008b	-0.87110204
30	0xbe8a26c3	-0.26982698
31	0xbd3bee2a	-0.045881428
32	0xbf86921f	-1.0513343
33	0xbf2ff2a9	-0.68729645
34	0xbf4476b1	-0.7674361
35	0x3d2f5ec5	0.04281499
36	0x3d86ac2c	0.06575808
37	0xbdf7f1a5	-0.12106637
38	0xbe417f74	-0.18896276
39	0xbe1e9469	-0.15486301
40	0xbf8b7a8a	-1.0896771
41	0xbb7d660f	-0.0038665568
42	0xbed48275	-0.4150578
43	0xbf03ca9a	-0.5148102
44	0x3ddabc57	0.10680454
45	0xbf6573fd	-0.8963011
46	0xbeaeeb6c	-0.34163988
47	0xbedef440	-0.43545723
48	0x3e5244a8	0.20534003
49	0x3df62d08	0.12020308
50	0xbd1ee100	-0.038788795
51	0xbe92e93d	-0.28693572
52	0xbf46f7f2	-0.77722085
53	0xbe9184e2	-0.28421694
54	0x3c9e7cc4	0.019346602
55	0xbf2b84e9	-0.6699968
56	0x3cefdbd9	0.029279636
57	0x3e0e539b	0.1389908
58	0xbf6deb78	-0.9293742
59	0xbf21b542	-0.631672
60	0xbeaba49c	-0.33524024
61	0xbf3477e9	-0.7049547
62	0xbd922942	-0.071367756
63	0x3dbe5cc0	0.092950344
64	0xbf3a66e8	-0.7281327
65	0xbed0c56e	-0.40775627
66	0xbf844a11	-1.0335103
67	0xbb762a45	-0.0037561816
68	0xbd0181f7	-0.031618085
69	0xbe41ccff	-0.18925856
70	0xbe8157e8	-0.2526238
71	0xbdec7fa0	-0.1154778
72	0xbf92b0ce	-1.1460207
73	0x3d215af2	0.039393373
74	0xbeccdeae	-0.4001364
75	0xbf54a27e	-0.83060443
76	0x3ce844d9	0.028353142
77	0xbf40fc47	-0.75384945
78	0xbe69b916	-0.22824511
79	0xbee78580	-0.4521904
80	0x3e34d57c	0.17659563
81	0xbcd23c43	-0.0256635
82	0x3ce518bd	0.027965898
83	0xbe9123b8	-0.28347564
84	0xbedd4990	-0.43220186
85	0xbd137ef4	-0.036009744
86	0xbcd62e41	-0.026145102
87	0xbf261ba7	-0.64885944
88	0xbe3f4131	-0.18677212
89	0x3e01501a	0.12628213
90	0xbf6c946f	-0.9241399
91	0xbf38a206	-0.7212223
92	0xbebd5910	-0.36982012
93	0xbf428a1b	-0.7599198
94	0xbe10260e	-0.14077017
95	0x3e018db3	0.1265171
96	0xbf362c1c	-0.71161056
97	0xbefb8746	-0.49126643
98	0xbeea12fc	-0.4571761
99	0xbbe33a7f	-0.0069344635
100	0x3d662760	0.056189895
101	0xbe56d07c	-0.20977968
102	0xbe4518e1	-0.19247772
103	0xbe2427fb	-0.16030876
104	0xbf8063c6	-1.0030448
105	0xbcdc8093	-0.026916778
106	0xbe393bca	-0.18089214
107	0xbee8ae0c	-0.45445287
108	0x3dd9f8df	0.106431715
109	0xbf64ea93	-0.8942043
110	0xbe8e2ee3	-0.27770147
111	0xbee63b54	-0.4496714
112	0x3e081c7d	0.13292117
113	0x3df3b3cf	0.1189953
114	0xb9e7a05f	-0.0004417924
115	0xbe7df4c4	-0.24800402
116	0xbf00cc99	-0.5031219
117	0xbe2ea102	-0.17053607
118	0xbdbb8551	-0.091562875
119	0xbf1e504b	-0.6184127
120	0xb90c071c	-0.00013354089
121	0x3d8d1282	0.06888296
122	0xbf80c17a	-1.0059044
123	0xbf4ad5a4	-0.7923224
124	0xbe421d67	-0.18956529
125	0xbf36b492	-0.7136928
126	0xbd8de717	-0.069288425
127	0x3d82df4c	0.06390247

layers.0.uih.r_weight f4 [32, 32]
0	0x3e0487dd	0.12942453
1	0x3e0d1e02	0.13780978
2	0xbdb0b75d	-0.08628724
3	0xbe1bfc14	-0.15232879
4	0x3d5565d1	0.052099053
5	0x3e2d12dd	0.16901727
6	0x3d3f2b8d	0.046672393
7	0xbe813e15	-0.25242677
8	0x3e027ce8	0.1274296
9	0x3e0d49cd	0.13797684
10	0x3e22e7a7	0.15908681
11	0xbbc2cf0f	-0.0059450935
12	0xbdb709db	-0.08937427
13	0xbd6f578f	-0.05843311
14	0x3d766108	0.06015113
15	0xbd36301f	-0.044479486
16	0x3e7ebdcd	0.24877091
17	0xbe6341dd	-0.22193094
18	0xbe053d36	-0.13011631
19	0x3bf20986	0.007386389
20	0x3e89734a	0.2684577
21	0xbb5d05ee	-0.0033725458
22	0x3e4ea170	0.20178771
23	0x3e034114	0.12817794
24	0xbc80ba5d	-0.015713865
25	0xbdc22f51	-0.09481681
26	0xbcb3107d	-0.021858448
27	0x3eb0be6e	0.34520286
28	0x3e5632c8	0.20917809
29	0xbcba9daf	-0.022780268
30	0xbe88be0f	-0.26707503
31	0xbdd96f80	-0.1061697
32	0x3da9d0f9	0.082918115
33	0x3a590f82	0.0008280204
34	0xbdd58f24	-0.104276925
35	0x3d34871d	0.044074167
36	0xbe479ba6	-0.19492969
37	0x3de70f58	0.112822235
38	0xbd6bdc1d	-0.057582963
39	0xbe93597d	-0.28779212
40	0xbe4ba612	-0.1988757
41	0x3d942d1e	0.07235168
42	0xbe3d2335	-0.18470462
43	0x3e268f81	0.1626568
44	0xbe0a705c	-0.13519424
45	0xbe418040	-0.1889658
46	0xbe4a1ba7	-0.19737111
47	0xbe55525b	-0.20832197
48	0x3e7cb011	0.24676539
49	0xbbaf4d5b	-0.0053497977
50	0xbd8a7ad9	-0.067617126
51	0x3e6094ba	0.21931735
52	0x3ca9fd52	0.020750675
53	0x3dffdc7a	0.124932244
54	0x3df22cd5	0.11824957
55	0x3e099b6e	0.13438198
56	0x3e5f488c	0.21805018
57	0x3dc3e727	0.09565573
58	0x3e8489e2	0.25886446
59	0x3e454102	0.1926308
60	0xbbb06b9a	-0.005383921
61	0xbdd0d731	-0.101972945
62	0x3e6f4fc9	0.2337028
63	0xbca53f7c	-0.020171873
64	0x3e40a2a4	0.18812042
65	0x3cd07a6e	0.025449004
66	0xbe0914c3	-0.13386826
67	0xbcc0892c	-0.023502909
68	0x3e0a7f35	0.13525088
69	0x3e19e589	0.15028967
70	0x391cc763	0.00014951597
71	0xbde11548	-0.10990387
72	0x3de39f6a	0.1111439
73	0xbdde6be2	-0.10860421
74	0x3d5df83a	0.054191805
75	0x3bf6de7a	0.0075338455
76	0x3e14fd56	0.14549765
77	0x3e5cb0f9	0.21551885
78	0x3e6d6929	0.23184647
79	0x3d9873cd	0.07443962
80	0x3ebdbaab	0.3705648
81	0x3eb8cadc	0.3609227
82	0xbd1c3e47	-0.03814533
83	0xbd89abf8	-0.067222536
84	0xbd4dff20	-0.050292134
85	0x3df3c17d	0.11902139
86	0x3eb7a6f7	0.35869572
87	0x3ea6d3ad	0.3258337
88	0x3e419a7d	0.18906589
89	0x3b420c4c	0.002960938
90	0xbdd2bd3c	-0.1029
91	0x3d41a86c	0.04727976
92	0x3e32b92a	0.17453447
93	0xbe701f5b	-0.23449461
94	0xbd6ef03d	-0.058334578
95	0x3c81e2f5	0.015855292
96	0xbec6d33e	-0.3883304
97	0xbcad5e4d	-0.02116313
98	0x3d68e1a5	0.056855816
99	0xbec3706b	-0.38171706
100	0xbe2fc343	-0.1716433
101	0x3e1a3987	0.15061007
102	0x3dcf6c3e	0.101280674
103	0x3ca77e3b	0.020445934
104	0x3d61f45c	0.05516468
105	0x3e64f3bc	0.22358602
106	0xbc61a8ae	-0.0137731265
107	0x3e041404	0.1289826
108	0x3d107dba	0.035276152
109	0x3e8688d3	0.26276264
110	0xbc175d69	-0.009238579
111	0x3e7c5d2f	0.24644922
112	0x3e34b9a5	0.17648943
113	0xbedb7d3f	-0.42868993
114	0x3d86a593	0.065745495
115	0xbd828b84	-0.06374267
116	0x3efa5c78	0.48898673
117	0x3e4c904c	0.1997692
118	0xbeefe2dc	-0.46852767
119	0x3d102214	0.03518875
120	0xbea6e926	-0.32599753
121	0xbe7c2de7	-0.24626885
122	0xbe3132b1	-0.17304493
123	0xbe3c6db5	-0.18401225
124	0xbd4e1dd7	-0.050321426
125	0x3e086b60	0.1332221
126	0x3e190d26	0.14946422
127	0xbeb049ec	-0.34431398
128	0xbe9faf9b	-0.31188664
129	0xbd635712	-0.05550296
130	0x3e94bda8	0.29050946
131	0xbf0bd0f0	-0.5461569
132	0xbe5b0327	-0.21387921
133	0xbda41a77	-0.0801286
134	0xbe01eafe	-0.12687299
135	0xbc6b0185	-0.014343624
136	0x3e5a768a	0.21334282
137	0x3e49c2f3	0.19703273
138	0x3e5613e2	0.20906022
139	0x3d95ae14	0.073085934
140	0x3d7e4f31	0.06208724
141	0x3dae4159	0.08508558
142	0x3e90c560	0.28275585
143	0x3ce9bbbc	0.028531902
144	0xbd0225da	-0.03177438
145	0xbea8c710	-0.32964373
146	0xbdf996fd	-0.12187002
147	0xbe16b084	-0.14715773
148	0x3e3ff128	0.18744338
149	0x3e69bd58	0.22826135
150	0xbf0594ed	-0.5218037
151	0xbdf354f2	-0.118814364
152	0xbe80fec4	-0.2519437
153	0x3da56a10	0.080768704
154	0x3e43ea20	0.1913228
155	0xbe2db999	-0.16965331
156	0xbdaf1d22	-0.085504785
157	0x3ec2e1f7	0.38063022
158	0x3cf82361	0.030290307
159	0xbe3d853c	-0.18507856
160	0xbe77eea3	-0.24212126
161	0xbda9d00b	-0.08291634
162	0x3ce6b98b	0.028164646
163	0xbd14cda7	-0.036328938
164	0xbebf407a	-0.3735388
165	0x3ce9afe7	0.02852626
166	0xbe373b83	-0.17893796
167	0xbdbe611d	-0.09295867
168	0x3e49977e	0.19686696
169	0x3c6dbf4f	0.014510944
170	0xbd96865e	-0.07349847
171	0xbe7e3ffc	-0.24829096
172	0xbdf823ba	-0.12116189
173	0x3e261bdc	0.16221565
174	0xbdb7603a	-0.08953901
175	0x3df75c05	0.12078098
176	0xbded904a	-0.115997866
177	0x3cf29f27	0.029616905
178	0xbd60eca6	-0.054913186
179	0xbe3ead13	-0.1862071
180	0x3de18cd8	0.11013192
181	0x3d695889	0.0569692
182	0xbeb9cd54	-0.36289465
183	0x3d720d7c	0.05909489
184	0x3cb702e1	0.02234024
185	0x3e153f55	0.1457494
186	0xbde208e8	-0.11036855
187	0xbe0b072d	-0.13576956
188	0x3e5b5b1e	0.21421477
189	0x3e03bbab	0.12864558
190	0xbe190db6	-0.14946637
191	0xbe901712	-0.281426
192	0xbcc49551	-0.02399698
193	0x3e386ee3	0.1801105
194	0x3c802aba	0.015645374
195	0x3daafc70	0.0834893
196	0x3e20e02d	0.15710516
197	0x3c7f6a51	0.015589313
198	0xbeed2102	-0.46314245
199	0xbe3aa43c	-0.18226713
200	0x3e2a9dae	0.16661713
201	0xbe9f5381	-0.31118396
202	0xbd179d71	-0.037015382
203	0x3e6ff73f	0.2343416
204	0x3e80b46e	0.25137657
205	0xbc8e72fd	-0.017388815
206	0x3e465032	0.1936653
207	0x3e3829de	0.17984721
208	0xbec6166b	-0.3868898
209	0xbd796b19	-0.060893152
210	0x3ddb858e	0.10718833
211	0xbcf0c207	-0.029389394
212	0xbe42e682	-0.19033244
213	0xbe69180b	-0.22763078
214	0xbeee0a18	-0.46492076
215	0xbdd914f4	-0.105996996
216	0x3dcbb1df	0.099460356
217	0xbd13d7b6	-0.03609439
218	0x3d71362a	0.058889546
219	0x3e38f490	0.18062043
220	0xbe5edeb1	-0.21764638
221	0xbd2546b9	-0.04035065
222	0xbe1f10b3	-0.15533714
223	0xbdf2081c	-0.11817953
224	0x3dfa1428	0.12210876
225	0xbe8eecbe	-0.27914995
226	0x3debdd8b	0.11516865
227	0xbdd3f5b7	-0.10349601
228	0xbbf90630	-0.0075996146
229	0xbda457e7	-0.080245785
230	0xbc0f3679	-0.008741015
231	0xbd1e73e4	-0.03868474
232	0xbd97139f	-0.07376789
233	0xbe83fad0	-0.25777292
234	0xbdb47c08	-0.088127196
235	0x3e13c3a8	0.14430106
236	0xbe01ef8a	-0.12689033
237	0xba42857b	-0.0007420403
238	0xbe238768	-0.15969622
239	0xbe94da01	-0.29072574
240	0x3d56ca99	0.052439306
241	0x3d982f84	0.07430938
242	0x3ba50f9d	0.0050372616
243	0x3d1228c0	0.035683393
244	0xbe30b22e	-0.1725547
245	0xbe27186a	-0.16317907
246	0xbe35572e	-0.17709038
247	0xbe55f7b9	-0.2089528
248	0xbdbd9d97	-0.092585735
249	0xbd9266d5	-0.0714852
250	0xbe6804e6	-0.22658119
251	0xbe462b52	-0.19352463
252	0x3de1651f	0.110056154
253	0x3d961f45	0.07330183
254	0x3d2ff891	0.04296166
255	0x3e4b646c	0.19862527
