models/QLSTM_mse_hip_epochs10.pth (torch, 168347 bytes, 76 tensors)

layers.0.wfx.r_weight f4 [1, 32]
-0.5784386 -0.22335061 -0.55541784 -0.35505262 -0.46629146 -0.6589051 -0.59264237 -0.54901665
-0.07227849 -0.28626376 -0.41630912 -0.27476326 -0.5672903 -0.6866507 -0.28007576 -0.12845638
-0.5016852 -0.11463802 -0.7487776 0.104413025 -0.62432843 -0.18804939 -0.55182564 -0.34807283
-0.42290503 -0.5987341 -0.44662264 -0.7959455 -0.38611847 -0.4907604 -0.35306588 -0.8754386
00000000: 8d14 14bf 06b6 64be dd2f 0ebf 75c9 b5be
00000010: c1bd eebe 01ae 28bf 69b7 17bf 5b8c 0cbf
00000020: bf06 94bd 2a91 92be 7826 d5be c5ad 8cbe
00000030: f039 11bf 57c8 2fbf 1766 8fbe 128a 03be
00000040: 716e 00bf 57c7 eabd e4af 3fbf 7fd6 d53d
00000050: fdd3 1fbf 0590 40be 7244 0dbf 9a36 b2be
00000060: 0287 d8be a346 19bf b9ab e4be 16c3 4bbf
00000070: 52b1 c5be f244 fbbe 0dc5 b4be be1c 60bf

layers.0.wfx.i_weight f4 [1, 32]
0.5677579 0.31006986 -0.056421615 -0.023666186 0.102971986 0.11514724 0.1703041 -0.06056667
0.22538652 0.08615444 -0.1208664 -0.038471892 -0.05765261 0.03948475 0.025583487 0.2178169
-0.058304556 0.039275475 0.016626509 0.055258762 -0.06856292 -0.0072130207 0.12546237 0.08208678
-0.2133996 0.036783174 -0.021653958 0.19327845 -3.8081766e-05 0.27523327 0.08649181 0.08376182
00000000: 9558 113f 7ac1 9e3e 5a1a 67bd 97df c1bc
00000010: fae2 d23d 51d2 eb3d 3364 2e3e c214 78bd
00000020: b9cb 663e bd71 b03d ce88 f7bd b494 1dbd
00000030: 2525 6cbd c3ba 213d 7694 d13c 650b 5f3e
00000040: c2d0 6ebd 52df 203d 5134 883c 0357 623d
00000050: b76a 8cbd 345b ecbb 3579 003e 1d1d a83d
00000060: 6d85 5abe f4a9 163d a463 b1bc c9ea 453e
00000070: fcb9 1fb8 60eb 8c3e 9e22 b13d 518b ab3d

layers.0.wfx.j_weight f4 [1, 32]
-0.14587584 0.35700428 0.013605692 -0.1132465 0.03343433 0.051404674 -0.056880184 -0.06428553
0.30168226 0.20977624 -0.063499436 0.056102384 0.11414781 -0.052365042 0.005418298 0.06936081
-0.09345856 -0.04018645 -0.06963713 -0.01839849 0.03607326 0.016399084 0.26514238 -0.01139519
0.048329994 -0.09344446 0.07246656 0.06199077 0.04524763 -0.13905582 -0.048677273 -0.060914297
00000000: 7a60 15be 44c9 b63e 69ea 5e3c c8ed e7bd
00000010: 70f2 083d b58d 523d 32fb 68bd 22a8 83bd
00000020: 1976 9a3e 95cf 563e fe0b 82bd 9dcb 653d
00000030: 54c6 e93d ba7c 56bd fa8b b13b 0a0d 8e3d
00000040: 3467 bfbd 8c9a 24bd e99d 8ebd 6eb8 96bc
00000050: 8ec1 133d 5f57 863c bec0 873e e4b2 3abc
00000060: acf5 453d cf5f bfbd 5969 943d 09ea 7d3d
00000070: 9455 393d a664 0ebe d261 47bd 4581 79bd

layers.0.wfx.k_weight f4 [1, 32]
-0.17540942 -0.16444668 0.007990057 -0.08887067 0.05922694 -0.08282255 -0.03831636 0.13096681
0.034259893 -0.0071502044 -0.015467773 0.046619248 0.1942145 -0.012175906 0.12072995 0.09516149
0.01757286 -0.05516052 -0.044546098 -0.0822564 -0.07357874 -0.03952489 0.27807674 0.004396046
0.3854581 -0.10502021 -0.10790251 0.14276889 -0.03279671 -0.15174653 -0.06970137 -0.14503342
00000000: 879e 33be b664 28be bae8 023c d301 b6bd
00000010: f397 723d de9e a9bd 9ef1 1cbd 2a1c 063e
00000020: 1a54 0c3d 434c eabb 8b6c 7dbc d3f3 3e3d
00000030: 2ae0 463e 747d 47bc 4441 f73d 07e4 c23d
00000040: f5f4 8f3c ffef 61bd f875 36bd 0b76 a8bd
00000050: 73b0 96bd dae4 21bd 1360 8e3e b50c 903b
00000060: c45a c53e d614 d7bd fefb dcbd 0232 123e
00000070: d855 06bd 7163 1bbe 98bf 8ebd a483 14be

layers.0.wfx.bias f4 [128]
-0.52698815 -0.21273713 -0.83520496 -0.76490945 -0.40277284 -0.9331941 -0.4094279 -0.71683013
-0.09790221 -0.06984402 -0.49058723 -0.19212504 -0.61378896 -0.023603207 -0.63921297 0.023234883
-0.5262168 -0.7825958 -0.94541895 -0.10733953 -0.7984843 -0.5597078 -1.0857555 -0.9584739
-0.40289602 -0.64112926 -0.8592266 -0.6151498 -0.85007954 -1.0511111 -0.8479814 -0.3778989
-0.62288445 -0.39988837 -0.75107473 -0.9653199 -0.19352596 -1.124494 -0.555833 -0.71365976
0.022790425 -0.14694008 -0.5410924 -0.23323321 -0.48505038 -0.11233318 -0.6931282 -0.1937865
-0.71655834 -0.6785556 -0.93039024 -0.28427246 -1.0014925 -0.53279865 -0.5941645 -1.0226907
-0.33343607 -0.70858145 -0.8960726 -0.8737346 -0.96160555 -0.87798643 -0.7714127 -0.7271554
-0.44777745 -0.21740575 -0.8771204 -0.82614714 -0.18914439 -0.92695194 -0.7810794 -0.8618039
0.13272472 -0.146766 -0.9006987 -0.2204403 -0.45267853 -0.140459 -0.6889836 -0.08592584
-0.63565975 -0.7300773 -0.8800789 -0.13760784 -0.5513136 -0.52806544 -0.7377907 -1.0104218
-0.2209035 -0.532041 -0.85874176 -0.7659115 -0.78282666 -0.8245882 -0.79962987 -0.5940527
-0.7954881 -0.35236904 -0.807374 -0.8001157 -0.2278038 -0.8837621 -0.41816562 -0.86702603
-0.15608057 -0.109124936 -0.43324763 -0.15347782 -0.64367384 -0.06158664 -0.63931495 -0.122260824
-0.5739612 -0.779314 -0.9980435 -0.043306217 -0.8619004 -0.5349842 -0.7309152 -1.0205139
0.06076695 -0.58459115 -0.78888917 -0.71818054 -0.77379084 -0.73189354 -0.7005577 -0.7348161
00000000: b2e8 06bf c3d7 59be fecf 55bf 1bd1 43bf
00000010: 3e38 cebe cfe5 6ebf 89a0 d1be 2e82 37bf
00000020: f480 c8bd 620a 8fbd 402e fbbe 6dbc 44be
00000030: 4621 1dbf 835b c1bc 76a3 23bf 1557 be3c
00000040: 25b6 06bf 3358 48bf fa06 72bf d4d4 dbbd
00000050: 7869 4cbf 0349 0fbf 09fa 8abf 8c5e 75bf
00000060: 6348 cebe 0c21 24bf 46f6 5bbf 757a 1dbf
00000070: d09e 59bf cf8a 86bf 4f15 59bf f77b c1be
00000080: 5b75 1fbf 2bbe ccbe 6f46 40bf 341f 77bf
00000090: ab2b 46be 6bef 8fbf 124b 0ebf 68b2 36bf
000000a0: fcb2 ba3c 7677 16be 0885 0abf b0d4 6ebe
000000b0: 8658 f8be f00e e6bd da70 31bf f86f 46be
000000c0: 5e70 37bf d2b5 2dbf 0e2e 6ebf 298c 91be
000000d0: e830 80bf 7e65 08bf 2a1b 18bf 87e7 82bf
000000e0: 22b8 aabe 9865 35bf 0465 65bf 12ad 5fbf
000000f0: c82b 76bf b8c3 60bf 4d7b 45bf db26 3abf
00000100: 1643 e5be 9d9f 5ebe f68a 60bf 617e 53bf
00000110: 11af 41be b94c 6dbf d2f4 47bf 2e9f 5cbf
00000120: fde8 073e d449 16be 3194 66bf 1abb 61be
00000130: 7bc5 e7be 7cd4 0fbe 3b61 30bf e3f9 afbd
00000140: 99ba 22bf 59e6 3abf da4c 61bf 12e9 0cbe
00000150: e322 0dbf 4c2f 07bf dadf 3cbf 8055 81bf
00000160: 8734 62be d733 08bf 80d6 5bbf c712 44bf
00000170: 5467 48bf 3618 53bf 8bb4 4cbf d613 18bf
00000180: 1ca5 4bbf b769 b4be 10b0 4ebf 62d4 4cbf
00000190: 6645 69be 3c3e 62bf ce19 d6be 6bf5 5dbf
000001a0: 96d3 1fbe e57c dfbd a2d2 ddbe 4a29 1dbe
000001b0: cfc7 24bf 4642 7cbd 25aa 23bf e263 fabd
000001c0: 1fef 12bf 1f81 47bf c77f 7fbf dc61 31bd
000001d0: 81a5 5cbf b9f4 08bf 421d 3bbf 33a0 82bf
000001e0: c4e6 783d c4a7 15bf a4f4 49bf aeda 37bf
000001f0: 2817 46bf 605d 3bbf c057 33bf e81c 3cbf

layers.0.ufh.r_weight f4 [32, 32]
-0.005752675 -0.33926725 -0.17465764 0.21104576 -0.6544995 -0.14613771 0.11471546 -0.020214887
0.043024052 -0.30201066 0.12117992 0.3751736 0.018475184 -0.41820392 0.06795088 0.20131171
-0.069914766 0.098476596 -0.06660544 -0.19297567 0.20300491 -0.11597754 0.053184982 -0.03911682
0.05270583 -0.18437056 0.19863819 0.017694995 0.12120617 0.0554686 0.04704305 0.08586551
-0.18931831 -0.014093752 0.10912854 0.07981278 0.6311835 -0.044774126 0.02046393 -0.10436559
-0.026624084 0.22069527 0.053010598 0.20895553 0.029759487 0.38346225 0.08747584 0.027798804
-0.12898044 0.35539606 0.017870571 0.23059663 -0.19266093 0.12046737 0.13121694 -0.105767235
-0.23796198 0.4215294 -0.11141247 0.26300916 0.25490046 0.30387422 0.018853115 0.09507436
-0.29848406 -0.0047100685 0.0796007 -0.15445001 -0.13254844 0.07474302 -0.23560902 -0.13962774
-0.2789774 0.02379486 0.24559721 -0.13481829 -0.17179891 0.24142778 -0.051219795 0.07299053
-0.11797804 0.08515299 0.045009375 0.18040077 -0.09677525 -0.12528825 -0.3192776 -0.20764929
0.1287605 0.31636292 -0.1786657 -0.040337548 0.009828183 5.5669458e-05 0.14788733 0.13080686
0.0028549472 -0.098327436 -0.22022885 0.19296077 -0.118423164 0.013662251 0.08699059 -0.036177102
-0.11655506 -0.06416463 -0.17195089 -0.31307435 0.099460304 0.24376641 -0.0436271 -0.1012208
0.091747805 0.010535568 -0.1380766 -0.038298413 0.0060658986 -0.14052384 -0.20352855 -0.2525289
0.17619106 0.011466632 0.06255499 0.11268341 0.010017927 -0.14881377 -0.04166738 0.2608884
-0.09879664 -0.018408513 0.14905061 0.037946068 0.11440902 -0.1763972 0.10846346 -0.11922698
0.10166894 0.021437325 0.010776273 0.18405992 0.3533238 0.20988248 0.08689268 0.16299379
-0.0009580389 0.26953122 0.10819909 0.48711732 -0.046283275 0.26676053 -0.14374423 0.12379765
0.0675733 0.2403646 0.19924966 0.113700494 -0.02306906 -0.0099939 0.1694417 0.035870895
-0.04905114 -0.26558918 -0.20872459 0.2315928 0.015855514 0.109565854 0.07303193 0.03945087
-0.07636298 -0.1904012 -0.20266414 -0.23636743 -0.15550941 0.1900277 -0.13730055 -0.07617796
-0.15881677 0.0067692543 0.03640652 -0.04306017 -0.2952796 0.13260643 -0.10757639 0.016717639
0.12191009 -0.023703994 0.19643623 -0.04462087 0.25382167 0.051405724 0.12478065 0.03884917
0.12651454 0.033767782 -0.017303502 -0.17687829 0.23764178 0.017630512 -0.11053534 0.17770526
0.12303351 -0.032337334 -0.0915796 0.1591282 -0.029047802 0.06444738 0.07752819 -0.1338302
-0.098827675 0.0580661 -0.11661831 0.20323962 0.2153122 0.03922196 0.16409478 -0.14367533
0.14393425 -0.07334424 -0.0808259 0.3164379 0.08931576 0.11049128 0.07305616 0.017160207
0.016322419 -0.098125234 0.03246334 0.08156739 -0.23667815 0.049584135 0.2221212 -0.09667781
0.15429057 0.09510626 0.2502105 0.2720237 0.19826052 0.14548495 0.064896226 0.13737987
0.01223555 -0.07119799 0.10031695 0.033430938 0.27662325 0.062391788 0.2532465 -0.2064816
-0.15520065 -0.02557234 0.15524268 0.0013523751 -0.0918212 0.043561015 0.05997154 -0.10764122
00000000: ef80 bcbb 70b4 adbe 74d9 32be 611c 583e
00000010: 478d 27bf 20a5 15be f0ef ea3d b199 a5bc
00000020: fd39 303d 24a1 9abe 2e2d f83d c116 c03e
00000030: 4559 973c d31e d6be d529 8b3d a824 4e3e
00000040: 792f 8fbd 19ae c93d 6f68 88bd 6a9b 45be
00000050: 85e0 4f3e a285 edbd 7fd8 593d f538 20bd
00000060: 12e2 573d a3cb 3cbe cf67 4b3e 18f5 903c
00000070: f13a f83d 0b33 633d 37b0 403d 42da af3d
00000080: a9dc 41be 7be9 66bc c97e df3d e274 a33d
00000090: 3e95 213f 1365 37bd f9a3 a73c a0bd d5bd
000000a0: c01a dabc f1fd 613e a421 593d 70f8 553e
000000b0: 2bca f33c 2a55 c43e 8826 b33d 51ba e33c
000000c0: 7313 04be 79f6 b53e 4e65 923c 8621 6c3e
000000d0: e848 45be 99b7 f63d bc5d 063e 7e9c d8bd
000000e0: 4eac 73be b4d2 d73e 392c e4bd 23a9 863e
000000f0: 5082 823e 6795 9b3e d971 9a3c 59b6 c23d
00000100: e7d2 98be eb56 9abb b105 a33d 2528 1ebe
00000110: c7ba 07be de12 993d 7e43 71be 93fa 0ebe
00000120: 20d6 8ebe 70ed c23c d67d 7b3e ce0d 0abe
00000130: 0eec 2fbe d838 773e d9cb 51bd 0f7c 953d
00000140: 789e f1bd b164 ae3d c05b 383d fbba 383e
00000150: 1a32 c6bd 904b 00be 5b78 a3be 04a2 54be
00000160: cbd9 033e 52fa a13e 24f4 36be fc38 25bd
00000170: 6306 213c a07e 6938 c76f 173e 3cf2 053e
00000180: 111a 3b3b e55f c9bd ac83 61be 8297 453e
00000190: d887 f2bd a2d7 5f3c 1f28 b23d 712e 14bd
000001a0: 6bb4 eebd bf68 83bd e513 30be 484b a0be
000001b0: d8b1 cb3d e79d 793e 54b2 32bd da4c cfbd
000001c0: 46e6 bb3d 609d 2c3c f463 0dbe ccde 1cbd
000001d0: 72c4 c63b 7be5 0fbe ca69 50be 784b 81be
000001e0: 6e6b 343e 8ade 3b3c d51c 803d 8fc6 e63d
000001f0: 3b22 243c a362 18be 6aab 2abd 2a93 853e
00000200: e555 cabd 73cd 96bc b9a0 183e 566d 1b3d
00000210: 474f ea3d 78a1 34be 1722 de3d 462d f4bd
00000220: ce37 d03d 549d af3c f78e 303c 347a 3c3e
00000230: dbe6 b43e 6feb 563e caf4 b13d d8e7 263e
00000240: e724 7bba ffff 893e 7c97 dd3d 7167 f93e
00000250: 8893 3dbd d694 883e b031 13be 9f89 fd3d
00000260: df63 8a3d 2322 763e 1a08 4c3e cedb e83d
00000270: 53fb bcbc 74bd 23bc 2082 2d3e 5ced 123d
00000280: d9e9 48bd 4efb 87be e6bb 55be aa26 6d3e
00000290: 6ce3 813c 1064 e03d c491 953d 3c97 213d
000002a0: 3264 9cbd 88f8 42be 3087 4fbe 4e0a 72be
000002b0: dc3d 1fbe 9f96 423e 8498 0cbe 3103 9cbd
000002c0: dda0 22be 9fd0 dd3b 011f 153d dc5f 30bd
000002d0: e32e 97be fbc9 073e 0351 dcbd 6ef3 883c
000002e0: ffab f93d e12e c2bc 9426 493e 60c4 36bd
000002f0: eaf4 813e cf8e 523d ff8c ff3d 4f20 1f3d
00000300: 078d 013e 1650 0a3d 13c0 8dbc 951f 35be
00000310: 5e58 733e dd6d 903c 5a60 e2bd 5ef8 353e
00000320: fef8 fb3d 2774 04bd 168e bbbd 81f2 223e
00000330: a8f5 edbc fdfc 833d 1ac7 9e3d c90a 09be
00000340: 2a66 cabd b8d6 6d3d 95d5 eebd 0c1e 503e
00000350: cd7a 5c3e 35a7 203d 7608 283e a01f 13be
00000360: 8063 133e 8135 96bd 0d88 a5bd 2604 a23e
00000370: 2eeb b63d 4149 e23d 789e 953d 9093 8c3c
00000380: 98b6 853c e2f5 c8bd 47f8 043d ce0c a73d
00000390: c25b 72be bc18 4b3d bd73 633e 04ff c5bd
000003a0: 59fe 1d3e 12c7 c23d 971b 803e b146 8b3e
000003b0: ce04 4b3e 02fa 143e 50e8 843d 4fad 0c3e
000003c0: 9e77 483c 40d0 91bd f972 cd3d e1ee 083d
000003d0: 90a1 8d3e 888e 7f3d 86a9 813e ea6f 53be
000003e0: ebec 1ebe 157d d1bc f0f7 1e3e 2e42 b13a
000003f0: c10c bcbd 096d 323d b8a4 753d 0073 dcbd

layers.0.ufh.i_weight f4 [32, 32]
-0.011659135 0.21045974 -0.0979645 0.029715305 0.32574052 0.03599661 0.082690604 0.043961696
0.19015597 0.17917685 0.06984956 0.19180264 -0.34065217 0.09604597 0.062192325 -0.054540128
-0.04656223 0.09091089 -0.00860146 0.07844028 0.05227137 0.0032829496 0.061622623 -0.10775207
0.27808735 0.1667519 0.02078539 -0.09102161 0.20427696 0.023796782 0.05460742 0.1098618
-0.18007341 -0.04142513 0.018729845 0.039953496 -0.004536668 -0.041804254 0.025728682 -0.032749347
-0.045437988 0.06226457 0.031142576 0.0017523143 0.11786104 0.012416718 0.121018544 -0.04253337
-0.015957098 -0.027812954 0.15163153 -0.2058949 0.0021722745 -0.013726531 0.13723126 7.103202e-05
-0.01823807 0.17184862 -0.11842188 -0.1439398 0.21348546 0.02907268 0.07164968 -0.12695335
-0.017262045 0.0020023813 0.12474344 -0.022165125 0.0016988361 -0.0138040455 0.1301331 0.073327824
-0.027796876 -0.028747281 0.018938351 0.0858562 0.18928593 -0.10535422 -0.046552766 0.055560026
0.018167393 -0.12061664 -0.0048637763 0.08547033 0.13675931 0.03617396 -0.0060264273 -0.040397387
0.18138531 -0.0462687 0.16192412 -0.08001567 0.06853027 -0.044461492 0.011689708 0.0013834534
-0.17949371 -0.18300688 0.053590957 0.08022362 -0.2029806 0.007339141 0.12273279 -0.119585305
-0.08598855 -0.009834683 -0.014904817 -0.07676233 0.07244025 -0.10418795 0.17009945 0.053077523
-0.11812102 -0.01510566 0.06268299 -0.03871731 -0.08905253 0.03230654 0.042774294 0.06873024
-0.0062661613 0.18055715 -0.0069648344 0.013049676 -0.087029584 0.09963115 0.17722233 0.066435106
-0.1951997 -0.327132 0.101158135 0.07845061 -0.04618215 0.092493296 0.13606441 0.19179398
-0.22849795 -0.025397189 -0.0068733455 -0.1094565 -0.029058324 0.114834934 0.17564274 -0.07901306
-0.025790164 0.038130704 0.014796974 -0.19496599 -0.058333848 0.00917488 0.20244837 -0.049869977
0.14040487 0.029522944 -0.06340766 -0.24334633 -0.017325819 -0.05226314 -0.0004086227 0.0029184981
-0.14565206 0.019864306 0.03751389 -0.043772746 0.068336934 0.02451675 -0.008779455 0.10434635
0.077856444 0.1359389 -0.048951723 -0.24017006 0.006442476 0.012657399 0.13338558 -0.013773961
-0.054042436 -0.0072088004 -0.13413496 -0.0967546 -0.0069824806 0.009393163 0.019626018 -0.0699326
0.0913679 -0.020337353 -0.15859337 0.07883765 -0.08602256 -0.16241825 0.0015682472 -0.13598658
-0.07137374 0.18144518 -0.008495036 -0.027653009 0.10900844 -0.11656014 0.070123024 0.15032162
-0.24213862 0.12692983 -0.004420178 0.15113385 0.04520599 0.11267578 -0.13312462 0.051385503
0.021405429 0.07671308 -0.005010026 0.1332222 -0.07518776 0.10650535 -0.15720204 -0.036298387
0.018898997 -0.07819563 0.098274276 -0.010683796 0.026717313 0.0899945 -0.20403117 0.03487366
0.030998597 -0.09485756 0.089248724 0.011828886 -0.09228872 -0.035539787 0.008163041 -0.012464577
0.012942922 0.044863068 -0.11564209 -0.0762252 -0.11539911 0.34892356 0.087901674 0.026294991
-0.046546947 -0.040300462 -0.08193775 0.0017353373 -0.02906624 0.16683485 0.1386811 0.035915323
-0.055530567 0.23863795 0.07137357 0.12514044 0.07164262 0.06973096 0.095612325 0.09069595
00000000: f505 3fbc c282 573e 9da1 c8bd 836d f33c
00000010: 76c7 a63e 2e71 133d b159 a93d 2e11 343d
00000020: 3fb8 423e 237a 373e 490d 8f3d e967 443e
00000030: f669 aebe c0b3 c43d 61bd 7e3d 7865 5fbd
00000040: 09b8 3ebd 7d2f ba3d 23ed 0cbc 4ca5 a03d
00000050: 811a 563d c126 573b 0168 7c3d 1ead dcbd
00000060: 7761 8e3e 03c1 2a3e 1f46 aa3c 8a69 babd
00000070: fb2d 513e 78f1 c23c 08ac 5f3d 39ff e03d
00000080: 2a65 38be 66ad 29bd 556f 993c 47a6 233d
00000090: 54a8 94bb f03a 2bbd f5c4 d23c 2e24 06bd
000000a0: 2f1d 3abd 2209 7f3d b71e ff3c e9ad e53a
000000b0: 2161 f13d 7d6f 4b3c 92d8 f73d 7937 2ebd
000000c0: 76b8 82bc fed7 e3bc 4c45 1b3e 1dd6 52be
000000d0: b85c 0e3b 3ee5 60bc 5a86 0c3e 06f7 9438
000000e0: 0168 95bc 16f9 2f3e 2c87 f2bd f464 13be
000000f0: ef9b 5a3e d429 ee3c 11bd 923d 0f00 02be
00000100: 2269 8dbc 623a 033b 7d79 ff3d a393 b5bc
00000110: 7bab de3a 5d2a 62bc 9d41 053e e62c 963d
00000120: 46b6 e3bc 6b7f ebbc 9a24 9b3c 60d5 af3d
00000130: 2cd4 413e f4c3 d7bd 1dae 3ebd e992 633d
00000140: c9d3 943c db05 f7bd 5060 9fbb 120b af3d
00000150: a20a 0c3e 252b 143d 5679 c5bb bb77 25bd
00000160: 12bd 393e 4084 3dbd 70cf 253e 41df a3bd
00000170: 9959 8c3d 411d 36bd 3086 3f3c fe54 b53a
00000180: 33cd 37be 2866 3bbe 3182 5b3d 484c a43d
00000190: 25da 4fbe 2d7d f03b 545b fb3d 24e9 f4bd
000001a0: c41a b0bd a621 21bc 5533 74bc 9235 9dbd
000001b0: 8e5b 943d 7e60 d5bd 8d2e 2e3e d167 593d
000001c0: 6fe9 f1bd bb7d 77bc f15f 803d 0b96 1ebd
000001d0: 2c61 b6bd dd53 043d 1934 2f3d 71c2 8c3d
000001e0: 5f54 cdbb f9e3 383e 4439 e4bb 4fce 553c
000001f0: 913c b2bd 6b0b cc3d c579 353e 210f 883d
00000200: 6ee2 47be d87d a7be ff2b cf3d b7aa a03d
00000210: 7e29 3dbd 206d bd3d 7854 0b3e a465 443e
00000220: 5efb 69be c40d d0bc cd39 e1bb bb2a e0bd
00000230: b90b eebc 942e eb3d b1db 333e 99d1 a1bd
00000240: e545 d3bc f12e 1c3d 026f 723c 2aa5 47be
00000250: 79ef 6ebd 3c52 163c a04e 4f3e 7644 4cbd
00000260: 4bc6 0f3e 1ada f13c e0db 81bd c82f 79be
00000270: e0ee 8dbc e011 56bd 693c d6b9 4644 3f3b
00000280: d025 15be 78ba a23c 2aa8 193d 0d4b 33bd
00000290: 3cf4 8b3d 5ad7 c83c b4d7 0fbc 8ab3 d53d
000002a0: 3373 9f3d 9133 0b3e 9a81 48bd 24ef 75be
000002b0: 681b d33b fb60 4f3c 3b96 083e 2eac 61bc
000002c0: 9a5b 5dbd cd37 ecbb ad5a 09be 4727 c6bd
000002d0: 4bcd e4bb c8e5 193c bec6 a03c d338 8fbd
000002e0: 181f bb3d 859a a6bc 4d66 22be a275 a13d
000002f0: 992c b0bd f850 26be a58d cd3a 1140 0bbe
00000300: 652c 92bd c4cc 393e c32e 0bbc 9088 e2bc
00000310: d13f df3d 15b7 eebd a99c 8f3d e9ed 193e
00000320: 30f3 77be e5f9 013e 24d7 90bb d5c2 1a3e
00000330: eb29 393d 8fc2 e63d d251 08be 9b79 523d
00000340: 705a af3c bf1b 9d3d 252b a4bb 676b 083e
00000350: 0afc 99bd 7a1f da3d 92f9 20be 9ead 14bd
00000360: 12d2 9a3c 0825 a0bd 0644 c93d 170b 2fbc
00000370: 44de da3c 094f b83d 8ced 50be afd7 0e3d
00000380: c5f0 fd3c ae44 c2bd 09c8 b63d f2cd 413c
00000390: de01 bdbd 2b92 11bd 47be 053c 3a38 4cbc
000003a0: 8d0e 543c 56c2 373d c3d5 ecbd f51b 9cbd
000003b0: 5e56 ecbd 1ca6 b23e cb05 b43d 9868 d73c
000003c0: 03a8 3ebd 1912 25bd fbce a7bd 4274 e33a
000003d0: 531c eebc c1d6 2a3e 6b02 0e3e f21b 133d
000003e0: 0574 63bd 825d 743e 4e2c 923d d124 003e
000003f0: 5eb9 923d 1bcf 8e3d 65d0 c33d ccbe b93d

layers.0.ufh.j_weight f4 [32, 32]
-0.052454706 0.1752966 0.08109688 -0.07723218 0.0879919 0.017804118 -0.037893012 0.13108973
-0.093257174 0.06360167 -0.025733909 0.32321903 0.05492473 0.1299488 0.31070966 0.27398676
-0.06553397 0.05098177 -0.059519522 0.17896375 0.053334087 0.16650262 0.28065696 0.1884682
0.12599133 0.0038880613 0.062658474 0.06687469 0.0041760565 -0.1366464 -0.043553323 0.115590565
0.039047815 -0.22583903 0.0009299983 0.1550332 -0.095705144 0.10520819 0.034726445 -0.08609845
0.06280584 0.008630403 0.003323628 0.05834427 -0.064401366 -0.099317715 0.07269063 -0.07208422
0.13864367 0.10016404 0.06506382 -0.06035278 -0.03980459 -0.0847086 0.11617684 -0.088032134
-0.039795842 0.18983106 -0.15796468 0.063231945 0.13198832 -0.113929376 -0.06555993 0.13325387
-0.11446708 -0.27705732 -0.05172402 0.0008440999 -0.2385177 -0.021293908 -0.18038046 -0.047502916
-0.1268619 0.0035124873 -0.11610485 -0.17441452 0.09431372 -0.318311 -0.047794446 0.03631445
-0.08661451 -0.1692044 0.051195778 -0.13452677 -0.1333419 -0.14806853 -0.057605535 0.003466275
0.05357558 -0.30133632 -0.089113995 -0.10844455 -0.09030623 -0.11604249 -0.050675057 -0.28517148
0.01110341 -0.1611772 0.0012974227 0.052388966 -0.046356834 -0.07938444 0.071238585 -0.107806444
-0.08196836 0.06332988 -0.070070945 -0.041130353 0.0007115493 -0.26157582 -0.20377998 -0.06789626
0.017806374 0.036956664 -0.030651536 0.028374052 0.052565567 -0.062304802 -0.04311248 -0.038292404
-0.21353781 -0.21966644 -0.16986674 -0.012016355 0.048197996 0.011574765 0.12566563 -0.18727912
0.0344479 -0.28291532 0.013423314 0.015473243 -0.0703998 -0.06412201 -0.060383298 -0.13575388
-0.10446478 0.14802298 0.07266463 0.03757241 0.020290779 0.17818213 -0.07479033 -0.02177755
0.02697866 0.28225708 -0.031062435 0.015389905 -0.058967263 -0.03873305 0.17088863 0.020371137
0.09593037 0.16795655 0.05495926 0.13690513 0.07111138 -0.041195292 0.059991963 0.19210657
0.018810589 0.09600125 -0.13542305 0.10177222 0.0044918545 -0.058656394 -0.044747625 0.16743891
0.14616479 0.06635352 0.052454922 -0.010324144 0.14264263 -0.091308154 -0.115349315 -0.02616643
0.07734339 0.035169996 -0.12374353 0.030544873 0.06192457 -0.013920615 0.035065513 -0.060229503
0.037084498 -0.05089931 0.06813547 0.18034272 -0.032765307 -0.071041025 0.11747379 -0.10898248
0.057874717 -0.096701585 -0.06488258 -0.02137409 0.16851711 -0.02517538 -0.0050564837 0.10862536
0.19332942 0.10327448 0.0329451 -0.017239712 -0.008464113 -0.082494475 0.08651152 -0.14148001
-0.10291289 -0.1487552 0.016254898 -0.18328728 0.021997733 0.07438391 0.23976693 0.0093268985
0.08780836 -0.014296973 -0.08771659 -0.05857332 0.055562213 0.014518693 0.09318857 -0.0060936394
-0.09146722 0.0781081 0.123646036 0.05519379 -0.09273609 0.016223095 0.09817969 0.04191505
0.14437076 -0.08814352 -0.14062972 -0.17144695 0.014507073 0.22245307 0.079305544 -0.040785007
0.099726975 0.06263958 0.05748121 -0.07016983 -0.08452088 -0.0030013241 0.1718131 0.01167373
0.1233088 0.23770426 -0.022780716 0.05157314 0.07206397 -0.08796061 -0.08727828 0.097934335
00000000: bfda 56bd f480 333e 1f16 a63d e82b 9ebd
00000010: 1935 b43d f1d9 913c b435 1bbd 633c 063e
00000020: 9efd bebd 9841 823d ebcf d2bc f77c a53e
00000030: c1f8 603d 4c11 053e 5615 9f3e fe47 8c3e
00000040: ad36 86bd 43d2 503d beca 73bd 4642 373e
00000050: d874 5a3d aa7f 2a3e 45b2 8f3e cffd 403e
00000060: df03 013e d8ce 7e3b 1653 803d 99f5 883d
00000070: 4dd7 883b 09ed 0bbe f864 32bd bfba ec3d
00000080: 9af0 1f3d 5942 67be 21cb 733a 06c1 1e3e
00000090: 0f01 c4bd 6477 d73d 513d 0e3d 6254 b0bd
000000a0: 59a0 803d 8966 0d3c 3ad1 593b 67fa 6e3d
000000b0: dde4 83bd 1667 cbbd d3de 943d e4a0 93bd
000000c0: 9bf8 0d3e ce22 cd3d 2e40 853d 7a34 77bd
000000d0: 230a 23bd b47b adbd 20ee ed3d 314a b4bd
000000e0: f700 23bd 1363 423e 7ec1 21be c07f 813d
000000f0: f227 073e ce53 e9bd 4944 86bd b473 083e
00000100: b76d eabd 75da 8dbe 91dc 53bd 9646 5d3a
00000110: fc3d 74be 9070 aebc a8b5 38be 6b92 42bd
00000120: 16e8 01be c231 663b 61c8 edbd b899 32be
00000130: 8d27 c13d a9f9 a2be 1cc4 43bd 76be 143d
00000140: f362 b1bd eb43 2dbe aab2 513d 63c1 09be
00000150: c78a 08be 479f 17be c8f3 6bbd 722a 633b
00000160: 1172 5b3d c148 9abe 6681 b6bd 2d18 debd
00000170: 79f2 b8bd afa7 edbd a690 4fbd ff01 92be
00000180: 14eb 353c a30b 25be 480e aa3a d095 563d
00000190: aae0 3dbd 4f94 a2bd 89e5 913d a0c9 dcbd
000001a0: 07df a7bd 19b3 813d 5b81 8fbd 4d78 28bd
000001b0: 4487 3a3a 44ed 85be b3ab 50be 320d 8bbd
000001c0: acde 913c df5f 173d ee18 fbbc b370 e83c
000001d0: fe4e 573d 5233 7fbd b696 30bd 7fd8 1cbd
000001e0: a8a9 5abe 3df0 60be 8cf1 2dbe 3fe0 44bc
000001f0: 436b 453d 15a4 3d3c 7eae 003e 19c6 3fbe
00000200: 3e19 0d3d 47da 90be 76ed 5b3c 7c83 7d3c
00000210: c52d 90bd 6652 83bd 7a54 77bd 1103 0bbe
00000220: a1f1 d5bd 5693 173e 32d1 943d 87e5 193d
00000230: d938 a63c 6075 363e ac2b 99bd d566 b2bc
00000240: 5a02 dd3c 0084 903e a676 febc f125 7c3c
00000250: a887 71bd 8ca6 1ebd 6efd 2e3e 5fe1 a63c
00000260: 2477 c43d cdfc 2b3e f61c 613d dc30 0c3e
00000270: d8a2 913d 65bc 28bd 22ba 753d 96b7 443e
00000280: aa18 9a3c 4e9c c43d 57ac 0abe f46d d03d
00000290: 6830 933b b041 70bd 4949 37bd 1b75 2b3e
000002a0: 39ac 153e 5be4 873d f9da 563d 9926 29bc
000002b0: e910 123e c5ff babd 433c ecbd fb5a d6bc
000002c0: 3666 9e3d 6a0e 103d 3f6d fdbd 3e39 fa3c
000002d0: 9ea4 7d3d 4b13 64bc dba0 0f3d 36b3 76bd
000002e0: eae5 173d cb7b 50bd 9c8a 8b3d c3ab 383e
000002f0: ea34 06bd f57d 91bd 1996 f03d 3532 dfbd
00000300: 0a0e 6d3d 7b0b c6bd 28e1 84bd b718 afbc
00000310: c08f 2c3e 993c cebc dcb0 a5bb f976 de3d
00000320: 26f8 453e 9281 d33d 71f1 063d 4c3a 8dbc
00000330: 10ad 0abc ddf2 a8bd f42c b13d 23e0 10be
00000340: fec3 d2bd 4853 18be fe28 853c a9af 3bbe
00000350: 9734 b43c 9756 983d 7685 753e d9cf 183c
00000360: dfd4 b33d da3d 6abc c1a4 b3bd 94ea 6fbd
00000370: 3495 633d d0df 6d3c a6d9 be3d 27ad c7bb
00000380: 2a53 bbbd 24f7 9f3d 223a fd3d e212 623d
00000390: 6bec bdbd 4ce6 843c 6f12 c93d 1eaf 2b3d
000003a0: eed5 133e 9784 b4bd 3d01 10be ca8f 2fbe
000003b0: 13af 6d3c bdca 633e f26a a23d 2e0e 27bd
000003c0: a83d cc3d 2e49 803d 6b71 6b3d 33b5 8fbd
000003d0: 4819 adbd ddb1 44bb c6ef 2f3e 2c43 3f3c
000003e0: 5389 fc3d bf68 733e a09e babc 5b3e 533d
000003f0: 4696 933d b124 b4bd f4be b2bd cc91 c83d

layers.0.ufh.k_weight f4 [32, 32]
-0.02828604 -0.0004364548 -0.037998307 -0.16964518 0.051704008 0.035635475 -0.023374101 -0.13227487
-0.19904949 -0.041838642 0.05404937 0.039100822 0.016459502 -0.2370629 0.07348903 0.12442133
0.030780043 0.16505723 -0.09199318 -0.10322486 -0.11853335 0.12945919 0.16973254 0.13221782
-0.07802911 -0.17499761 -0.20951524 0.0290632 0.05561645 -0.033881094 0.069438584 0.1252423
0.099126175 0.17598695 0.00628702 0.044761036 -0.22855628 -0.021978572 -0.13743976 0.0021598942
-0.21505733 -0.039387014 -0.07373019 -0.14723216 -0.025005527 0.040633786 0.056149494 -0.005252863
-0.098770306 -0.21395594 0.055627886 -0.21221966 0.0019922073 -0.025224632 -0.042644225 0.03448813
-0.15258127 -0.0029770061 0.11631477 -0.1157251 -0.025360905 -0.12525025 -0.082275264 -0.13275616
-0.0695275 -0.22845358 -0.064059496 0.048717845 -0.06223159 -0.10156597 0.13102148 0.052080482
0.062099766 0.054169696 0.111577705 0.059947092 -0.03911045 -0.19319709 -0.1558778 0.06696501
0.0014426832 -0.049073644 -0.06811346 -0.121797614 0.043763403 -0.092983805 -0.034208298 -0.0074352287
0.10899591 -0.112748004 0.06086516 0.0675188 -0.08230402 0.022779733 0.015487059 -0.19090027
-0.06415452 -0.102843605 -0.12945445 0.081078745 0.29138702 -0.013197078 0.24562654 -0.029238628
0.18137874 -0.054457337 0.041566566 -0.047313668 -0.035023917 0.14429897 -0.022248562 -0.08352145
0.093702115 0.17092091 0.013048283 0.07783 -0.10620658 0.09078252 -0.04450371 0.052336447
0.054308254 0.37893847 0.0041422183 0.0022531163 0.042419445 0.07136199 0.037069324 0.14490283
0.004777385 -0.07973077 -0.05617891 0.044000022 0.14228728 -0.12804769 0.03449016 -0.12731272
-0.2956053 0.030525405 0.10554991 -0.041349582 0.043467782 0.078904025 0.14639321 0.057257183
-0.06309727 -0.15753493 0.036747098 -0.03934008 0.11058674 0.036417186 0.17811424 0.081950024
-0.15369283 0.064122766 0.16634439 -0.04379606 0.119208895 -0.005610298 0.014991166 -0.026731271
0.25310248 -0.14384462 -0.03008376 -0.028242815 0.20958383 -0.08095807 0.009228886 0.034144334
-0.07683523 0.10798671 -0.055753753 0.031564362 0.13249455 0.1918053 -0.032807615 -0.10366269
0.0139745865 0.12883686 0.0016084651 0.18502763 -0.016831327 -0.036318097 -0.0041034035 0.056787834
0.08340581 0.17876455 -0.007054873 0.050742947 -0.06081824 -0.0346274 -0.19582675 0.12798338
-0.01648082 0.1116683 -0.17026304 -0.1864122 -0.17940216 -0.07894289 -0.35506627 -0.12561497
0.20907843 -0.02883272 -0.23299456 -0.10408368 -0.17168288 -0.24740835 -0.01544205 -0.056909744
0.0018774334 -0.12687035 -0.033203483 -0.09451294 0.12889142 0.0024352479 -0.049850862 -0.055702873
-0.06182081 -0.42568928 -0.22609974 0.012893332 -0.027269544 0.066414006 -0.03106202 -0.28127384
0.10339305 0.031131748 0.030932842 0.08357343 0.009485643 0.13826007 -0.068015166 -0.058205076
0.09319306 0.0018117661 -0.12969494 0.05805569 0.07330052 -0.006296825 0.16293529 0.022329405
-0.09082769 0.01763107 0.0935333 -0.123170555 0.004771821 0.0823331 0.20240158 0.029232373
0.0085172085 -0.16611667 0.06579133 -0.10010223 0.055278253 0.13281667 -0.031713925 -0.02085664
00000000: 20b8 e7bc f9d3 e4b9 1da4 1bbd 77b7 2dbe
00000010: 95c7 533d 81f6 113d 0b7b bfbc 1073 07be
00000020: a1d3 4bbe ff5e 2bbd df62 5d3d 2f28 203d
00000030: 14d6 863c 9ec0 72be 6b81 963d 9cd0 fe3d
00000040: 6e26 fc3c c304 293e ec66 bcbd 8e67 d3bd
00000050: 9dc1 f2bd f390 043e 5ece 2d3e 1c64 073e
00000060: bacd 9fbd 9332 33be 2a8b 56be f315 ee3c
00000070: 13ce 633d e7c6 0abd d135 8e3d 843f 003e
00000080: aa02 cb3d ec35 343e 5903 ce3b 5957 373d
00000090: a80a 6abe 680c b4bc 02bd 0cbe 038d 0d3b
000000a0: fd37 5cbe 4754 21bd dbff 96bd 07c4 16be
000000b0: 64d8 ccbc 9d6f 263d 03fd 653d 3520 acbb
000000c0: 1648 cabd 4417 5bbe 11da 633d 1c50 59be
000000d0: b18f 023b e3a3 cebc b6ab 2ebd 6d43 0d3d
000000e0: 443e 1cbe e019 43bb 7036 ee3d 4801 edbd
000000f0: acc1 cfbc 9a41 00be ef7f a8bd 3bf1 07be
00000100: 6f64 8ebd bcef 69be a031 83bd 5d8c 473d
00000110: 8de6 7ebd d201 d0bd 7f2a 063e 5852 553d
00000120: 535c 7e3d 0be1 5d3d da82 e43d 158b 753d
00000130: 4732 20bd 75d5 45be 6e9e 1fbe f324 893d
00000140: 6a18 bd3a 7201 49bd 127f 8bbd 0771 f9bd
00000150: 4141 333d 4b6e bebd 001e 0cbd 38a3 f3bb
00000160: 3f39 df3d 6de8 e6bd bf4d 793d 4c47 8a3d
00000170: 038f a8bd 909c ba3c 6fbd 7d3c 5c7b 43be
00000180: 7263 83bd ab9f d2bd b58f 04be 9d0c a63d
00000190: ae30 953e 8f38 58bc 8685 7b3e d985 efbc
000001a0: 59bb 393e a80e 5fbd b441 2a3d facb 41bd
000001b0: 3d75 0fbd 1cc3 133e 9e42 b6bc 4b0d abbd
000001c0: e5e6 bf3d e405 2f3e 77c8 553c 5665 9f3d
000001d0: d682 d9bd 30ec b93d 8649 36bd be5e 563d
000001e0: 5572 5e3d 3904 c23e 72bb 873b 05a9 133b
000001f0: 03c0 2d3d 3c26 923d 01d6 173d 6861 143e
00000200: 9c8b 9c3b e349 a3bd db1b 66bd 5e39 343d
00000210: c2b3 113e ef1e 03be 8e45 0d3d 445e 02be
00000220: 9459 97be 6a10 fa3c 8d2a d83d 2e5e 29bd
00000230: 460b 323d 6f98 a13d 1ae8 153e 8286 6a3d
00000240: 2439 81bd d650 21be 2084 163d 1023 21bd
00000250: 4d7b e23d 302a 153d 9463 363e 6ad5 a73d
00000260: a761 1dbe cc52 833d 2f56 2a3e 7f63 33bd
00000270: cb23 f43d 97d6 b7bb 829d 753c 8afb dabc
00000280: a696 813e 014c 13be 3872 f6bc 7a5d e7bc
00000290: 259d 563e 58cd a5bd c134 173c eeda 0b3d
000002a0: ca5b 9dbd 2328 dd3d 0c5e 64bd a249 013d
000002b0: a7ac 073e 9c68 443e 4761 06bd 1b4d d4bd
000002c0: aaf5 643c cfed 033e 22d3 d23a e277 3d3e
000002d0: dae1 89bc 49c2 14bd d875 86bb 5c9a 683d
000002e0: aad0 aa3d 0e0e 373e 902c e7bb d6d7 4f3d
000002f0: 8c1c 79bd 76d5 0dbd cf86 48be 130e 033e
00000300: c902 87bc 5ab2 e43d 6f59 2ebe d7e2 3ebe
00000310: 33b5 37be cfac a1bd 3fcb b5be 36a1 00be
00000320: a818 563e 9932 ecbc 2096 6ebe d329 d5bd
00000330: a3cd 2fbe 9d58 7dbe a700 7dbc 311a 69bd
00000340: 3614 f63a 4dea 01be 6000 08bd 0090 c1bd
00000350: 1dfc 033e ae98 1f3b 6b30 4cbd b228 64bd
00000360: d137 7dbd f2f3 d9be b186 67be 8e3e 533c
00000370: 6164 dfbc 1104 883d c775 febc 2003 90be
00000380: bcbf d33d 0208 ff3c df66 fd3c 8c28 ab3d
00000390: ac69 1b3c 0c94 0d3e 894b 8bbd 7268 6ebd
000003a0: 01dc be3d c878 ed3a c0ce 04be cecb 6d3d
000003b0: 951e 963d 9955 cebb 82d8 263e 28ec b63c
000003c0: de03 babd 096f 903c 638e bf3d d840 fcbd
000003d0: f05c 9c3b 429e a83d 5c42 4f3e bb78 ef3c
000003e0: c38b 0b3c 7d1a 2abe 9bbd 863d 6602 cdbd
000003f0: 736b 623d 1801 083e 76e6 01bd 8bdb aabc

layers.0.wix.r_weight f4 [1, 32]
-0.6854024 -0.29567212 -0.27062392 -0.71445745 -0.21737032 -0.6619579 -0.3458673 -0.7297733
0.15186028 0.03411214 0.10191127 -0.093113735 -0.072644986 -0.35208914 -0.6448072 0.08417125
0.07330717 -0.46378627 -0.7056255 0.065194406 -0.30471763 0.13370883 -0.73934937 -0.76557803
0.44297916 -0.34135738 -0.302755 -0.7559191 -0.53167987 -0.557527 -0.63897586 -0.39534396
00000000: 8876 2fbf 5662 97be 388f 8abe afe6 36bf
00000010: 5396 5ebe 1376 29bf 8515 b1be 6cd2 3abf
00000020: 4381 1b3e 2cb9 0b3d dbb6 d03d 6ab2 bebd
00000030: e5c6 94bd 0745 b4be 1612 25bf fa61 ac3d
00000040: 1222 963d 6575 edbe dfa3 34bf a584 853d
00000050: f303 9cbe f8ea 083e 0046 3dbf ecfc 43bf
00000060: 2ace e23e 65c6 aebe b402 9bbe ea83 41bf
00000070: 2c1c 08bf 17ba 0ebf ec93 23bf 866a cabe

layers.0.wix.i_weight f4 [1, 32]
-0.14234634 0.07570341 -0.021623798 0.08800814 -0.08950745 0.08700058 -0.15995719 0.24898413
0.28488952 0.08371152 0.11895247 0.08638812 0.37571043 0.051909223 0.14884989 -0.06226941
0.007619473 -0.116698876 0.013942898 -0.1160915 0.21082456 0.29918715 -0.13796517 -0.29722005
0.18374467 0.15051278 0.2794183 -0.5251142 -0.0069997665 -0.13134347 -0.2610289 -0.16362816
00000000: 3dc3 11be 640a 9b3d 6424 b1bc 9d3d b43d
00000010: af4f b7bd 5c2d b23d d1cb 23be b2f5 7e3e
00000020: 0add 913e f270 ab3d 5a9d f33d 41ec b03d
00000030: 1e5d c03e c49e 543d 1b6c 183e 350e 7fbd
00000040: c6ac f93b d2ff eebd c170 643c 61c1 edbd
00000050: 65e2 573e 0f2f 993e be46 0dbe 3a2d 98be
00000060: 9027 3c3e 0620 1a3e ea0f 8f3e e26d 06bf
00000070: 4c5e e5bb e77e 06be 94a5 85be 248e 27be

layers.0.wix.j_weight f4 [1, 32]
0.09903223 0.048397925 -0.060885694 0.18948212 -0.21075572 -0.20856452 -0.04649743 0.083529115
-0.08615809 0.005230794 -0.1971212 -0.048448898 0.20294924 -0.0018722252 -0.12202661 0.043947957
0.0072945817 -0.057241347 0.13183849 -0.03557006 -0.058611877 0.036684703 -0.10064358 -0.21791418
0.23913561 -0.22170752 -0.09754086 -0.38060656 -0.08233469 -0.21823898 -0.14088602 0.0101348795
00000000: 69d1 ca3d e73c 463d 4763 79bd 9a07 423e
00000010: 59d0 57be f091 55be 1774 3ebd 5011 ab3d
00000020: a773 b0bd 1567 ab3b 24da 49be 5a72 46bd
00000030: edd1 4f3e 7465 f5ba 16e9 f9bd c602 343d
00000040: 6307 ef3b e775 6abd ab00 073e e9b1 11bd
00000050: 0213 70bd b342 163d 391e cebd e524 5fbe
00000060: f7df 743e 4c07 63be 81c3 c7bd ddde c2be
00000070: 179f a8bd 0a7a 5fbe 6d44 10be c40c 263c

layers.0.wix.k_weight f4 [1, 32]
-0.27391818 -0.18082316 -0.046732664 0.0009764742 -0.031997573 -0.037107725 0.022337707 0.24706115
-0.18777546 0.10239813 0.13044928 0.012234244 -0.12627266 -0.056969944 -0.08438992 0.074589476
0.027979927 -0.19593953 -0.01712426 0.036964096 -0.09420477 -0.016598048 -0.15421227 -0.17255856
-0.28190315 -0.3763751 0.3111722 0.061602563 0.2019506 0.041221946 0.023083482 -0.049517736
00000000: 013f 8cbe b529 39be c06a 3fbd 13fa 7f3a
00000010: e30f 03bd 45fe 17bd 91fd b63c 99fd 7c3e
00000020: 3648 40be 1cb6 d13d 7f94 053e 2372 483c
00000030: 9f4d 01be 5159 69bd 9fd4 acbd 5ec2 983d
00000040: 2936 e53c 5fa4 48be 2d48 8cbc aa67 173d
00000050: 6eee c0bd a1f8 87bc d2e9 1dbe 31b3 30be
00000060: 9c55 90be 3db4 c0be f651 9f3e f852 7c3d
00000070: 23cc 4e3e 58d8 283d 9219 bd3c 1cd3 4abd

layers.0.wix.bias f4 [128]
-0.08249932 0.1758475 -0.65134805 -0.90529644 0.059278384 -1.072701 -0.43743643 -0.9904417
0.3928841 0.32686463 -0.5200044 0.18926731 -0.65679276 0.17895982 -0.8453799 0.14513658
-0.59009457 -0.80633026 -0.9914361 0.321909 -0.3041716 -0.10180094 -1.0152082 -1.4987578
-0.03268728 -0.23160025 -0.9971155 -0.05286913 -0.63718605 -0.88913107 -0.7483783 -0.111925945
-0.43886718 0.1883085 -0.6519531 -0.94490266 0.08699103 -1.1882417 -0.5406955 -0.84032035
0.3603909 0.22550559 -0.50282586 0.102853656 -0.53393126 0.19044605 -0.7625434 0.19209641
-0.6929188 -0.7497793 -1.1791949 0.2884179 -1.0776914 -0.2148248 -0.8634435 -1.5546569
-0.21626829 -0.22429362 -0.79248077 -0.5349179 -0.93536615 -0.6723128 -0.5356289 -0.1385833
-0.29778555 0.26611978 -0.7328945 -0.76747745 0.08277194 -1.0287659 -0.75594926 -1.0697373
0.46149233 0.25217593 -0.91384447 0.04213006 -0.60013735 0.26073936 -0.7965702 0.12961398
-0.56403786 -0.73706204 -0.95564103 0.289963 -0.48041183 -0.053589575 -0.98929375 -1.498535
-0.16628882 -0.11407293 -0.84170425 -0.21213727 -0.64606756 -0.7577838 -0.7077031 -0.113215126
-0.30839145 0.13737103 -0.687874 -0.8701027 0.050226197 -1.0490924 -0.46861225 -1.122811
0.37121725 0.2517523 -0.4499386 0.18632178 -0.45237574 0.23615044 -0.8262297 0.1208613
-0.55201215 -0.79287547 -1.02921 0.30832294 -0.658505 -0.36274767 -0.7989729 -1.5763445
-0.10934043 -0.18779463 -0.85391855 -0.14204575 -0.6226127 -0.7066255 -0.5191107 -0.12178999
00000000: 67f5 a8bd 5e11 343e bfbe 26bf 82c1 67bf
00000010: e4cd 723d 444e 89bf abf7 dfbe 968d 7dbf
00000020: 1b28 c93e cd5a a73e 021f 05bf 4acf 413e
00000030: 9223 28bf 3e41 373e d16a 58bf af9e 143e
00000040: 7010 17bf a96b 4ebf c2ce 7dbf 42d1 a43e
00000050: 61bc 9bbe 037d d0bd 58f2 81bf 4cd7 bfbf
00000060: 19e3 05bd 9e28 6dbe f642 7fbf 4d8d 58bd
00000070: a01e 23bf 189e 63bf b895 3fbf 6e39 e5bd
00000080: 33b3 e0be f2d3 403e 66e6 26bf 24e5 71bf
00000090: 5a28 b23d 4e18 98bf 056b 0abf 3c1f 57bf
000000a0: 2885 b83e f0ea 663e 32b9 00bf f0a4 d23d
000000b0: b8af 08bf 4a04 433e 0b36 43bf ecb4 443e
000000c0: 2063 31bf 89f1 3fbf dcef 96bf 83ab 933e
000000d0: cbf1 89bf 08fb 5bbe a20a 5dbf fffe c6bf
000000e0: 6f75 5dbe 3aad 65be 05e0 4abf 61f0 08bf
000000f0: 2874 6fbf b11c 2cbf fa1e 09bf c8e8 0dbe
00000100: 5977 98be da40 883e f99e 3bbf 6779 44bf
00000110: 5684 a93d 9aae 83bf e485 41bf 27ed 88bf
00000120: b948 ec3e 341d 813e b6f1 69bf 9290 2c3d
00000130: 9aa2 19bf a17f 853e 06ec 4bbf 87b9 043e
00000140: c964 10bf 19b0 3cbf e4a4 74bf 0876 943e
00000150: 8af8 f5be be80 5bbd 5b42 7dbf ffcf bfbf
00000160: 9e47 2abe 119f e9bd ee79 57bf 833a 59be
00000170: af64 25bf 1efe 41bf 082c 35bf 55dd e7bd
00000180: 7ce5 9dbe feaa 0c3e 8318 30bf 0dbf 5ebf
00000190: fcb9 4d3d a948 86bf f2ed efbe 45b8 8fbf
000001a0: 3010 be3e ade5 803e 5a5e e6be 23cb 3e3e
000001b0: cb9d e7be 6cd1 713e ca83 53bf 2186 f73d
000001c0: ab50 0dbf e3f9 4abf 27bd 83bf 81dc 9d3e
000001d0: c993 28bf 10ba b9be 7d89 4cbf a8c5 c9bf
000001e0: e0ed dfbd 3c4d 40be 689a 5abf 7174 11be
000001f0: 8c63 1fbf 69e5 34bf 70e4 04bf 086d f9bd

layers.0.uih.r_weight f4 [32, 32]
-0.03869671 -0.37635094 -0.05064094 0.31087053 -0.674566 -0.21289209 0.33122888 0.114977285
0.100992136 -0.084716894 0.2066258 0.2970554 -0.066819765 -0.24467218 0.0008644061 0.19003257
0.055032026 0.04447133 0.008855754 0.112983376 -0.13615517 0.12878995 -0.19052291 -0.14718853
0.17162053 0.041293923 0.08643324 -0.10211321 0.015027615 0.15976125 -0.021201573 0.035576157
0.29285097 0.15611131 -0.20962304 -0.2787766 0.42595464 -0.19838117 -0.13299227 0.16830078
0.04204589 0.060908187 -0.39198655 -0.049130745 -0.21429893 0.6667846 0.023225434 -0.1662556
0.009502264 -0.00046671866 0.08167877 -0.03241661 -0.2390985 0.062202442 0.072472245 0.22426206
-0.3746788 0.32788172 -0.2187532 0.56810296 -0.0068508512 0.055456653 -0.180118 0.13993834
0.26960662 0.04328437 0.22911161 0.024557196 0.14042698 -0.035427976 -0.14106467 0.12447965
-0.12618335 -0.083200395 0.26277158 0.1164544 0.2152991 0.21021035 -0.1865503 0.17364122
0.02920788 0.092942156 -0.09268304 -0.039941255 0.0058200303 0.05118171 0.104781836 0.08604144
0.07598559 0.2572818 -0.07313213 -0.074308045 0.07093061 -0.2420847 -0.008623353 0.10377066
-0.027496865 0.007651961 -0.10448057 0.12472556 -0.26562467 -0.024182204 -0.08819559 0.010090899
-0.42266625 0.022182288 -0.055082873 -0.5859281 -0.17077269 -0.24724565 -0.07415725 0.07543868
-0.22730187 0.05283909 -0.059181914 -0.07224251 -0.2760877 -0.2773425 -0.30086675 0.15138331
-0.039350245 -0.280895 0.016182158 0.17619729 -0.009741837 0.19705966 -0.17306793 -0.048856102
0.10225718 0.15439825 0.18541262 -0.29615048 0.25352356 -0.06756938 0.09786266 0.0076288204
-0.09290694 -0.0460725 -0.2805376 0.12297547 0.23626854 0.63594246 -0.16890846 -0.14818135
0.08690695 0.18094976 0.1757967 0.23226607 -0.058802716 -0.059495613 -0.070208885 0.03186131
0.14223208 0.4617792 0.04640088 0.111749746 -0.047032055 0.17786771 0.24818541 0.21693735
0.037891574 -0.09575355 -0.0703159 0.16191277 0.024891963 -0.011276208 0.08857337 -0.26933897
-0.030745659 -0.110463746 -0.51399565 -0.10604634 0.18280935 0.32364768 -0.1317203 0.06461238
0.05361267 0.3146356 0.01121221 0.13009408 -0.24638847 -0.05385687 -0.110911824 -0.0032167127
0.036972873 0.19739977 -0.024518369 0.2146269 0.10270006 -0.17354164 0.15325078 -0.12574719
-0.2695364 -0.23525335 0.19678213 -0.039296854 0.121320456 0.03534958 0.08280823 -0.0796236
-0.0020525786 0.040508848 0.22424777 0.2037372 -0.006056671 -0.42727417 -0.06610401 0.2330263
0.2715947 0.007929108 0.15502773 -0.03453955 0.025848608 -0.004765692 0.10582521 0.09497991
-0.041094147 0.041542277 0.13222736 -0.25227287 -0.053187113 -0.20992853 0.18067272 -0.0769028
0.11688298 -0.027196921 -0.08842911 0.16356371 -0.068880565 -0.005255782 -0.14014867 -0.14846584
0.043076936 0.2365807 0.12856074 0.36571684 0.28585705 0.3362983 0.047093187 0.11149086
0.15371992 0.15962785 0.2483567 0.22269313 -0.04375528 -0.11234686 0.2086704 -0.11809839
0.11264339 0.21966484 -0.06419388 0.031622555 0.08385556 0.16685466 0.07142214 0.24248481
00000000: 7180 1ebd 12b1 c0be e06c 4fbd 6c2a 9f3e
00000010: 5bb0 2cbf 6200 5abe d596 a93e 3679 eb3d
00000020: f7d4 ce3d 0d80 adbd b795 533e a517 983e
00000030: cdd8 88bd 588b 7abe 5099 623a e697 423e
00000040: 4369 613d 9227 363d b917 113c d463 e73d
00000050: 436c 0bbe 83e1 033e 7018 43be 97b8 16be
00000060: 4bbd 2f3e d123 293d e903 b13d bb20 d1bd
00000070: 6336 763c 7498 233e ecae adbc 4eb8 113d
00000080: 90f0 953e a5db 1f3e 6ca7 56be cebb 8ebe
00000090: ba16 da3e 6f24 4bbe 202f 08be 0a57 2c3e
000000a0: 5038 2c3d dd7a 793d 76b2 c8be 523d 49bd
000000b0: 2e71 5bbe 65b2 2a3f 4443 be3c e83e 2abe
000000c0: 62af 1b3c ebb1 f4b9 3347 a73d 47c7 04bd
000000d0: 3dd6 74be fdc7 7e3d 546c 943d f4a4 653e
000000e0: e6d5 bfbe 1de0 a73e d700 60be 326f 113f
000000f0: 1b7d e0bb 8426 633d da70 38be ff4b 0f3e
00000100: e109 8a3e f44a 313d 3c9c 6a3e 2c2c c93c
00000110: 17cc 0f3e ed1c 11bd 4273 10be 30ef fe3d
00000120: 3536 01be f864 aabd ff89 863e a57f ee3d
00000130: 5e77 5c3e 6241 573e 0b07 3fbe 01cf 313e
00000140: 5d45 ef3c 7558 be3d 9bd0 bdbd 7199 23bd
00000150: f4b5 be3b eaa3 513d dc97 d63d 7f36 b03d
00000160: 559e 9b3d 71ba 833e 4cc6 95bd d12e 98bd
00000170: 1144 913d 0de5 77be f748 0dbc b685 d43d
00000180: 1b41 e1bc 4dbd fa3b e9f9 d5bd 1d70 ff3d
00000190: f5ff 87be c219 c6bc e49f b4bd 4c54 253c
000001a0: b667 d8be a1b7 b53c 949e 61bd 62ff 15bf
000001b0: 09df 2ebe f72d 7dbe c2df 97bd 987f 9a3d
000001c0: d2c1 68be cd6d 583d bc68 72bd e2f3 93bd
000001d0: 5e5b 8dbe d6ff 8dbe 350b 9abe 3a04 1b3e
000001e0: b92d 21bd 78d1 8fbe 7290 843c 106d 343e
000001f0: 3a9c 1fbc 02ca 493e b838 31be 561d 48bd
00000200: 366c d13d 931a 1e3e cedc 3d3e 09a1 97be
00000210: d7cd 813e d161 8abd 386c c83d 2ffb f93b
00000220: fe45 bebd 85b6 3cbd a0a2 8fbe 90da fb3d
00000230: 61f0 713e 20cd 223f 57f6 2cbe dabc 17be
00000240: 45fc b13d e54a 393e 0d04 343e 28d7 6d3e
00000250: 1edb 70bd acb1 73bd adc9 8fbd 0181 023d
00000260: 49a5 113e 536e ec3e d90e 3e3d 0ddd e43d
00000270: afa4 40bd f422 363e 5124 7e3e d324 5e3e
00000280: 3234 1b3d 701a c4bd c801 90bd 76cc 253e
00000290: 3bea cb3c d8bf 38bc f465 b53d cce6 89be
000002a0: 52de fbbc d13a e2bd 3895 03bf d32e d9bd
000002b0: 6032 3b3e 26b5 a53e b0e1 06be 7f53 843d
000002c0: f698 5b3d eb17 a13e 6bb3 373c 6237 053e
000002d0: 424d 7cbe 0599 5cbd bd25 e3bd 7ccf 52bb
000002e0: de70 173d 2a23 4a3e bfda c8bc 27c7 5b3e
000002f0: 6954 d23d e6b4 31be c6ed 1c3e dfc3 00be
00000300: ad00 8abe 41e6 70be 4181 493e bdf5 20bd
00000310: dc76 f83d b9ca 103d 5c97 a93d b311 a3bd
00000320: 8e84 06bb 9bec 253d 35a1 653e 7ca0 503e
00000330: 0a77 c6bb aec3 dabe 8a61 87bd 729e 6e3e
00000340: 760e 8b3e 17e9 013c 97bf 1e3e 5879 0dbd
00000350: 76c0 d33c 8629 9cbb e3ba d83d d484 c23d
00000360: 5652 28bd 3c28 2a3d 9c66 073e e929 81be
00000370: bbda 59bd 81f7 56be 4502 393e 377f 9dbd
00000380: 5860 ef3d 14cc debc 521a b5bd 3f7d 273e
00000390: 4111 8dbd b238 acbb 2283 0fbe 6e07 18be
000003a0: 7171 303d 3642 723e 6da5 033e 3d3f bb3e
000003b0: db5b 923e 4a2f ac3e c9e4 403d 5255 e43d
000003c0: c168 1d3e 7c75 233e 3851 7e3e ab09 643e
000003d0: bd38 33bd 1c16 e6bd b1ad 553e 92dd f1bd
000003e0: 94b1 e63d d2ef 603e 1578 83bd a786 013d
000003f0: 77bc ab3d f3db 2a3e c545 923d f04d 783e

layers.0.uih.i_weight f4 [32, 32]
0.076415285 0.1443601 -0.1679365 -0.10575459 0.18459989 -0.022214899 -0.0065388796 0.014221199
0.07580258 0.24839556 0.052428693 0.06492789 -0.2175328 0.080755934 0.04591522 -0.06346323
0.14642379 0.10523047 -0.029562607 0.04713737 -0.060620118 0.08244697 0.06747501 0.083933845
0.16008118 0.25981945 0.12969103 -0.056811392 -0.036117006 -0.14977987 0.06876842 0.052939966
0.068131685 -0.18088487 -0.042390235 -0.03608057 -0.08247145 0.06882309 0.1608653 0.03032663
-0.015683385 0.08697272 -0.19531311 -0.4265525 0.01478161 -0.18299331 0.025233852 -0.0023964648
-0.007829441 0.07474964 0.05368649 -0.30413225 -0.1587452 -0.29331076 0.06036437 0.16420457
0.13984787 -0.13615887 -0.08125388 0.18340841 0.10800665 0.13881743 0.07045512 -0.083880596
0.122304596 -0.06326705 0.12507305 -0.11539234 0.18193205 -0.15388663 0.2123107 0.022297114
0.043770798 0.15661977 -0.13902438 0.030986426 0.059399594 0.15294415 -0.030200953 -0.021827389
0.049332168 -0.048338853 -0.16245697 0.09610658 -0.072176695 0.06233163 -0.098003775 -0.027075393
0.16062382 -0.029780516 0.09756592 -0.053125832 -0.196665 0.032552984 0.13215682 0.0018571436
0.06785051 -0.09885772 -0.13423137 0.1161565 -0.13334638 0.08447944 0.054582357 -0.01372682
-0.12712625 -0.0379432 0.25608706 -0.030792996 0.12011568 0.04491819 0.04455779 0.030802196
-0.1521654 0.0030977705 -0.033432093 0.055056248 -0.12709337 0.01302461 0.15592544 0.074049376
0.0324906 0.09189124 0.12389525 -0.003087128 0.10975172 -0.079615854 0.11108621 -0.06398004
0.095627 0.11346217 -0.103473864 -0.06596968 -0.020107705 -0.10591096 0.05485069 -0.05557295
-0.014415718 -0.035645906 -0.2552455 -0.0461782 -0.0083871875 -0.08430708 -0.0053436398 0.0314754
-0.058351956 0.12784651 -0.08956892 -0.04260723 0.05354678 -0.18291745 0.024551975 0.06660464
-0.034014635 -0.046469353 -0.1626796 0.30615115 -0.08208627 0.07421044 0.008360456 0.1120607
0.0041812523 -0.14439963 0.18606059 -0.115289666 -0.10622887 0.060484707 -0.09775717 -0.002786071
-0.05334058 -0.095785975 0.17437229 -0.26981422 -0.06855072 -0.18767898 -0.06644944 -0.02896685
-0.024379695 0.015588346 -0.2131562 -0.2567828 0.03608693 -0.06257178 0.07512323 -0.06773577
-0.014712578 -0.13211179 -0.07119807 0.11205091 0.029140094 -0.12976137 0.10572303 -0.13132405
0.21998508 0.16459319 -0.0031121713 -0.012247197 0.1194854 -0.21197382 0.052247453 -0.07716651
-0.042999934 0.18079174 -0.1485576 0.107842766 0.26799712 0.2888472 0.0643924 -0.16272318
0.0083862515 0.04866516 -0.0623773 0.07697962 -0.18437693 -0.04663648 -0.1617879 -0.1398588
0.043551996 0.09692204 0.09111835 0.24004087 0.016630508 0.3030062 -0.11855327 0.30298117
0.09127511 -0.08556705 -0.17595948 -0.010611439 -0.06575106 -0.058794066 0.023877187 -0.07420893
-0.09066439 0.04004558 -0.1234509 -0.1510212 -0.14554287 -0.044469725 -0.11489239 0.18696031
-0.005725963 0.031356778 0.08949417 0.031043509 0.060637325 -0.11638285 -0.054439284 0.021110676
-0.0012973222 -0.10065484 -0.013792511 -0.14219175 0.006374251 -0.02365171 -0.0022413235 0.10492972
00000000: 9e7f 9c3d 22d3 133e 8cf7 2bbe dd95 d8bd
00000010: c107 3d3e 05fc b5bc 1944 d6bb 0800 693c
00000020: 623e 9b3d 685b 7e3e 78bf 563d eaf8 843d
00000030: ebc0 5ebe 5e63 a53d 9911 3c3d 03f9 81bd
00000040: 1ef0 153e 1383 d73d 482d f2bc 1d13 413d
00000050: cd4c 78bd f5d9 a83d 5730 8a3d 82e5 ab3d
00000060: 52ec 233e 0e07 853e bacd 043e 10b3 68bd
00000070: 6def 13bd e55f 19be 75d6 8c3d 94d7 583d
00000080: a088 8b3d e239 39be 62a1 2dbd 38c9 13bd
00000090: cbe6 a8bd 1ff3 8c3d e0b9 243e 8e6f f83c
000000a0: 717a 80bc c11e b23d 2900 48be 1765 dabe
000000b0: 912e 723c 9962 3bbe 39b7 ce3c 020e 1dbb
000000c0: 0e47 00bc 5716 993d 5de6 5b3d 39b7 9bbe
000000d0: 1a8e 22be d42c 96be a140 773d 3e25 283e
000000e0: 4834 0f3e 3b6d 0bbe 6f68 a6bd 6acf 3b3e
000000f0: 9732 dd3d 2826 0e3e c64a 903d 97c9 abbd
00000100: d57a fa3d 2892 81bd 2613 003e d252 ecbd
00000110: 654c 3a3e 7594 1dbe fa67 593e 70a8 b63c
00000120: 0249 333d ef60 203e 685c 0ebe 3fd7 fd3c
00000130: fd4c 733d 649d 1c3e fd67 f7bc 5acf b2bc
00000140: 8710 4a3d f6fe 45bd 1f5b 26be 87d3 c43d
00000150: 60d1 93bd 744f 7f3d 34b6 c8bd 37cd ddbc
00000160: 927a 243e 45f6 f3bc a4d0 c73d 799a 59bd
00000170: 8d62 49be 4756 053d 1e54 073e 666b f33a
00000180: 35f5 8a3d eb75 cabd f373 09be 76e3 ed3d
00000190: f48b 08be 8e03 ad3d c091 5f3d 75e6 60bc
000001a0: 622d 02be 546a 1bbd d81d 833e 9841 fcbc
000001b0: 36ff f53d 23fc 373d 3b82 363d e354 fc3c
000001c0: 3fd1 1bbe f703 4b3b 17f0 08bd a982 613d
000001d0: c424 02be 2c65 553c ebaa 1f3e 33a7 973d
000001e0: dd14 053d 7931 bc3d cbbc fd3d 6a51 4abb
000001f0: 83c5 e03d a30d a3bd 2b81 e33d f807 83bd
00000200: 17d8 c33d db5e e83d 1bea d3bd 1d1b 87bd
00000210: eab8 a4bc d8e7 d8bd 1eab 603d 76a0 63bd
00000220: e72f 6cbc 7101 12bd 8aaf 82be 5a25 3dbd
00000230: 6a6a 09bc 31a9 acbd b319 afbb 59ec 003d
00000240: 7602 6fbd 32ea 023e e96f b7bd eb84 2ebd
00000250: de53 5b3d b64e 3bbe 3921 c93c 0368 883d
00000260: ee52 0bbd a656 3ebd 7b95 26be d8bf 9c3e
00000270: d91c a8bd a5fb 973d 4bfa 083c 1580 e53d
00000280: e302 893b 7fdd 13be ab86 3e3e fd1c ecbd
00000290: 868e d9bd d0be 773d e934 c8bd 8496 36bb
000002a0: a77b 5abd 702b c4bd a68e 323e 1725 8abe
000002b0: 5264 8cbd eb2e 40be a516 88bd e34b edbc
000002c0: edb7 c7bc 4366 7f3c 9e45 5abe 0979 83be
000002d0: e4cf 133d a225 80bd 35da 993d 0db9 8abd
000002e0: 060d 71bc 5048 07be 4bd0 91bd f37a e53d
000002f0: 35b7 ee3c 2ae0 04be 5185 d83d d079 06be
00000300: c543 613e 1e8b 283e 92f5 4bbb 78a8 48bc
00000310: c3b4 f43d aa0f 59be 6d01 563d 7a09 9ebd
00000320: b320 30bd 7821 393e 7c1f 18be abdc dc3d
00000330: eb36 893e c8e3 933e 2ae0 833d e8a0 26be
00000340: 7d66 093c 1e55 473d 577f 7fbd 7ea7 9d3d
00000350: 4ecd 3cbe e505 3fbd baab 25be 2537 0fbe
00000360: 9463 323d 107f c63d 429c ba3d 46cd 753e
00000370: b43c 883c a123 9b3e 0fcc f2bd 5920 9b3e
00000380: 72ee ba3d c73d afbd b92e 34be 9adb 2dbc
00000390: 7ea8 86bd 0cd2 70bd 179a c33c dafa 97bd
000003a0: 40ae b9bd d606 243d d3d3 fcbd 4da5 1abe
000003b0: 3109 15be e325 36bd b44c ebbd 8672 3f3e
000003c0: dca0 bbbb f76f 003d b848 b73d f54e fe3c
000003d0: d85e 783d 225a eebd bafb 5ebd 4cf0 ac3c
000003e0: e90a aaba 2024 cebd fcf9 61bc b79a 11be
000003f0: 18df d03b 3bc1 c1bc 2be3 12bb 65e5 d63d
