models/QLSTM_mse_foot_epochs25.pth (torch, 168801 bytes, 76 tensors)

layers.0.wfx.r_weight f4 [1, 32]
-0.19513647 -0.31761938 0.28830624 -0.2554556 0.18958952 0.08429373 -0.03380504 -0.2778504
0.08506529 0.112905234 -0.29349178 0.07229424 0.028739681 -0.0072142826 -0.22507706 0.009880381
-0.12071841 0.17466167 0.18039498 0.62182474 -0.39257756 0.3069957 0.110703774 -0.18496603
-0.0071875644 -0.21345867 -0.41186804 -0.2005079 0.07955416 0.030661793 0.14095008 0.13661288
00000000: dbd1 47be 029f a2be e09c 933e 14cb 82be
00000010: c123 423e 31a2 ac3d 2777 0abd 6842 8ebe
00000020: b636 ae3d dc3a e73d 8e44 96be 010f 943d
00000030: 7b6f eb3c ca65 ecbb 9a7a 66be 52e1 213c
00000040: 373b f7bd 82da 323e 76b9 383e e82f 1f3f
00000050: edff c8be 8a2e 9d3e a9b8 e23d bc67 3dbe
00000060: a985 ebbb e994 5abe 5ee0 d2be f151 4dbe
00000070: 4bed a23d 712e fb3c 3855 103e 3fe4 0b3e

layers.0.wfx.i_weight f4 [1, 32]
0.13678698 -0.6815281 -0.42630282 -0.24208355 0.23839532 -0.07592654 0.09330684 -0.30772752
0.043876607 -0.23369007 -0.045752887 -0.118655354 -0.25035477 0.015534271 0.1304972 -0.06049785
-0.12272026 0.020276882 -0.03259211 -0.25896394 -0.0644594 -0.5014366 -0.09912557 -0.018172914
-0.46724617 -0.31627536 -0.5258744 -0.308184 -0.11798136 -0.06841088 -0.1344088 -0.054204985
00000000: e311 0c3e a078 2ebf 5d44 dabe c0e4 77be
00000010: e71d 743e 607f 9bbd a817 bf3d 768e 9dbe
00000020: f5b7 333d 734c 6fbe 6167 3bbd 9401 f3bd
00000030: 802e 80be 7483 7e3c 0fa1 053e 98cc 77bd
00000040: c254 fbbd b41b a63c 4e7f 05bd ec96 84be
00000050: 4a03 84bd 265e 00bf 5902 cbbd 5ddf 94bc
00000060: e43a efbe d8ee a1be b49f 06bf 4bca 9dbe
00000070: 36a0 f1bd 011b 8cbd 76a2 09be 0c06 5ebd

layers.0.wfx.j_weight f4 [1, 32]
0.12993945 0.5849337 0.07792372 -0.16037959 0.049866352 -0.07861132 -0.08657471 -0.24826698
-0.2299744 0.25339103 -0.08789908 -0.1609675 -0.082714 -0.03609028 0.17571066 0.05558194
-0.03176635 0.2194183 0.08482672 0.09707402 -0.26347294 -0.11920322 0.026274253 0.095273316
-0.24782923 0.1468217 -0.0047719935 -0.14058733 0.048813988 -0.067827694 0.08800056 0.10424575
00000000: d90e 053e 37be 153f 7996 9f3d 8c3a 24be
00000010: a940 4c3d f9fe a0bd 154e b1bd b339 7ebe
00000020: 697e 6bbe 78bc 813e 6f04 b4bd aad4 24be
00000030: f565 a9bd 67d3 13bd 7fed 333e e3a9 633d
00000040: 6f1d 02bd 31af 603e a2b9 ad3d bece c63d
00000050: ede5 86be d120 f4bd 1a3d d73c a81e c33d
00000060: f2c6 7dbe 6d58 163e 625e 9cbb 20f6 0fbe
00000070: 2df1 473d 3fe9 8abd a339 b43d cc7e d53d

layers.0.wfx.k_weight f4 [1, 32]
-0.13815522 -0.25204137 0.087371424 0.06990194 0.2853549 0.1785984 0.06824134 0.14425477
0.16712034 -0.008437747 0.07290091 0.13321745 -0.075558335 0.20048794 0.030829487 0.15446073
0.027782539 0.060528237 -0.07105912 0.011940864 -0.060573284 -0.077869296 -0.101921536 0.1866973
0.18992068 0.028616156 0.04568168 0.13142131 -0.056585927 0.09974023 -0.16862305 -0.09212532
00000000: 9078 0dbe 910b 81be caef b23d c028 8f3d
00000010: 0a1a 923e 80e2 363e 1ec2 8b3d 86b7 133e
00000020: 9821 2b3e 7a3e 0abc 134d 953d 286a 083e
00000030: 54be 9abd b64c 4d3e 1f8e fc3c f42a 1e3e
00000040: 3598 e33c 75ec 773d 7287 91bd 9da3 433c
00000050: b11b 78bd f079 9fbd 3dbc d0bd 942d 3f3e
00000060: 917a 423e 6e6c ea3c b71c 3b3d 4f93 063e
00000070: a5c6 67bd 9b44 cc3d 85ab 2cbe 33ac bcbd

layers.0.wfx.bias f4 [128]
-0.93774635 -1.0290282 -0.82393646 -1.1952583 -0.49484843 -1.0460193 -0.690911 -0.48728684
-0.50784665 -0.033604022 -0.6989359 -0.64739645 -1.1481181 -0.66225713 -0.4555658 -0.9424046
-1.0066822 -0.30277324 -0.1498291 -0.94444335 -0.4751215 0.04282453 -0.74698585 -0.6517002
-0.7812279 -1.0307258 -0.16849008 -0.10229454 -1.1029028 -1.0956343 0.28656426 -0.70381135
-1.0011902 -0.32014447 -1.0376501 -1.2084006 -0.61501926 -1.1492893 -0.75037456 -0.56366545
-0.58250874 -0.08437149 -0.58949906 -0.40096858 -1.1734115 -0.6064063 -0.3403997 -0.8866914
-0.54776824 -0.79124874 -0.40046662 -0.6194871 -0.15144558 0.03889876 -0.19409505 -1.2655871
-1.1910858 -0.52968645 0.11225119 -0.1293678 -0.82353586 -1.1521125 -0.12291803 -0.2943949
-0.95078963 -1.0226241 -0.92587465 -1.0494958 -0.73985445 -1.2427584 -1.0973969 -0.32850072
-0.16163717 -0.05675773 -0.6832757 -0.95078987 -0.978925 -1.0520196 -0.6087983 -0.96204764
-1.384141 -0.11885284 -0.20843287 -0.33720854 0.033760455 0.1645687 -1.7228307 -0.8089119
-0.6970121 -1.0954628 -0.054825842 -0.08201797 -1.2269111 -1.036256 -0.36787602 -0.49361482
-0.51194364 -0.517641 -1.172188 -1.2321355 -0.8215954 -0.8494761 -0.8904826 -0.62906224
-0.31212962 -0.04273689 -0.68578124 -0.88434076 -0.8985762 -0.900531 -0.6375151 -0.8859562
-0.97859794 -0.8565073 -0.59665287 -0.284192 -0.228919 -0.010440215 -0.9157939 -0.97880346
-1.1951594 -0.6291973 0.11451883 -0.057661608 -1.3380061 -1.0517024 -0.6391433 -0.6549938
00000000: 2510 70bf 32b7 83bf 80ed 52bf 39fe 98bf
00000010: c65c fdbe f6e3 85bf 8bdf 30bf a97d f9be
00000020: 3d02 02bf 5fa4 09bd 77ed 32bf c6bb 25bf
00000030: 89f5 92bf af89 29bf ec3f e9be 6e41 71bf
00000040: f6da 80bf 1805 9bbe cd6c 19be 0ac7 71bf
00000050: 2043 f3be c668 2f3d 773a 3fbf d3d5 26bf
00000060: 8dfe 47bf d3ee 83bf aa88 2cbe cd7f d1bd
00000070: eb2b 8dbf bf3d 8cbf 8db8 923e fb2c 34bf
00000080: 0027 80bf fae9 a3be b8d1 84bf dfac 9abf
00000090: e771 1dbf e91b 93bf 8c18 40bf 614c 10bf
000000a0: 4b1f 15bf f6ca acbd 69e9 16bf c14b cdbe
000000b0: 5932 96bf 713d 1bbf df48 aebe 35fe 62bf
000000c0: 8a3a 0cbf 478f 4abf f609 cdbe b596 1ebf
000000d0: 8d14 1bbe 4e54 1f3d dac0 46be c2fe a1bf
000000e0: 8075 98bf 8899 07bf f4e3 e53d fe78 04be
000000f0: 3fd3 52bf 6c78 93bf 73bc fbbd eeba 96be
00000100: f366 73bf 59e5 82bf 1f06 6dbf e155 86bf
00000110: 1a67 3dbf b512 9fbf 8077 8cbf 3f31 a8be
00000120: 3784 25be cb7a 68bd 28eb 2ebf f766 73bf
00000130: d49a 7abf 94a8 86bf 35da 1bbf c148 76bf
00000140: 882b b1bf 1e69 f3bd 6d6f 55be 99a6 acbe
00000150: 6748 0a3d b384 283e b785 dcbf da14 4fbf
00000160: 636f 32bf 2038 8cbf 1091 60bd 0af9 a7bd
00000170: 6c0b 9dbf 09a4 84bf 3f5a bcbe 15bb fcbe
00000180: bd0e 03bf 1f84 04bf 420a 96bf 9eb6 9dbf
00000190: 1354 52bf 4477 59bf abf6 63bf 390a 21bf
000001a0: 74cf 9fbe e10c 2fbd 5c8f 2fbf 2864 62bf
000001b0: 1709 66bf 3389 66bf 3134 23bf 07ce 62bf
000001c0: 6585 7abf 1044 5bbf 3ebe 18bf 9d81 91be
000001d0: be69 6abe 6f0d 2bbc 7871 6abf dd92 7abf
000001e0: fcfa 98bf 1313 21bf d988 ea3d 942e 6cbd
000001f0: c943 abbf 2f9e 86bf e59e 23bf acad 27bf

layers.0.ufh.r_weight f4 [32, 32]
-0.21525536 0.11832671 -0.029445915 0.14149182 -0.104328014 -0.4194134 0.1678073 0.21569254
0.18877734 0.19421633 -0.12216884 0.02560789 -0.10411859 -0.041033898 -0.33339667 -0.12244616
-0.11570016 0.1664073 -0.15144238 -0.2232839 -0.09257301 0.02080243 0.07681121 -0.20521569
0.06570831 0.07027483 -0.16197509 0.24114287 0.19309916 -0.04993419 0.1744103 0.017206
-0.10684695 0.0019107257 -0.15865605 -0.17991583 0.17048082 -0.17463642 -0.20860739 -0.2441057
0.23175438 -0.29016322 -0.1057662 0.2589641 0.12118151 -0.025115738 -0.48570007 0.23187976
0.056127615 -0.14973523 0.055933613 0.003036094 0.078484096 -0.08728014 -0.08345297 0.053415876
-0.2003338 -0.3886126 -0.26471037 0.37033248 0.06477863 -0.13194798 -0.14616835 -0.0132102445
0.0404021 0.21652485 0.009345827 0.0007015982 0.03135234 -0.10365209 0.09314082 0.07754337
-0.045788407 0.2228284 -0.039288945 0.0037436031 -0.0077520246 -0.070709445 -0.057709374 0.062074605
0.14447874 -0.08797205 0.23081538 -0.23643254 0.10794534 0.14190415 0.1891562 -0.04550402
0.14661409 -0.047830928 -0.045663305 0.13139138 -0.14090428 0.057573132 0.06647353 -0.044288147
-0.14879352 -0.16362883 0.04689255 0.17313409 -0.31091094 0.23046567 -0.10075626 -0.053512625
0.16976465 0.17837766 0.06551259 0.069351 0.14467372 0.18404149 0.011254193 0.018284824
0.21818878 -0.053085793 0.11842537 -0.021714998 0.07856912 0.096692264 0.14584386 0.08774056
0.08541659 0.023726253 -0.25745356 -0.3494528 0.006881224 -0.16582035 0.054256048 0.21821639
-0.14143132 0.23284037 -0.0034012024 0.15436612 0.06908284 -0.12576099 0.07053433 -0.10546392
-0.17817198 -0.16076799 0.0177522 -0.12149617 0.037523646 0.023016559 -0.006181135 -0.062576145
0.09445502 0.2020172 0.17451027 -0.042149704 -0.036085658 -0.24954233 0.01985842 -0.11178546
-0.120689146 -0.13095173 0.25160405 0.10219432 0.09937413 -0.012433482 0.20280041 0.014230672
-0.24442953 0.16896513 -0.02811831 0.13098226 0.16842714 0.028180387 -0.14677359 0.048656378
0.11673313 0.04891173 -0.26419917 -0.19431892 0.09283409 0.19509159 -0.0010671301 -0.0025501135
0.22667022 0.19559641 -0.17357744 -0.10013905 -0.07008802 -0.10517391 -0.09663594 -0.2000065
0.25137648 0.023411576 0.25113896 0.19487944 0.2093802 -0.21109693 0.044371556 -0.22836603
-0.16792206 -0.065614566 0.3130977 0.098316416 0.0074567655 -0.062446617 0.12906137 0.063496955
0.25751662 -0.07095433 -0.08917428 0.22782649 -0.08421151 0.22970478 0.13148038 0.12207278
0.05564233 0.15215726 -0.02579813 -0.07298317 0.20635928 0.055006362 -0.00984321 -0.1199347
0.051705632 -0.04526525 -0.03515851 -0.026167521 -0.08905583 -0.083174735 0.14936146 0.018183032
-0.16585027 -0.3694992 0.23339191 0.041361175 -0.014766164 -0.025607718 -0.07807684 0.059527777
-0.31353194 -0.24525319 0.120921664 0.27396005 0.03583871 -0.060870428 -0.12544361 0.07652363
-0.07679681 0.14473616 0.07680195 -0.008111371 0.22535361 0.1333978 0.09013698 0.0082063805
-0.08167597 -0.0069537642 -0.3520434 0.10899499 -0.022744343 0.14736791 -0.20837685 -0.06086127
00000000: e76b 5cbe 4655 f23d 8f38 f1bc 3be3 103e
00000010: eda9 d5bd 5abd d6be add5 2b3e 81de 5c3e
00000020: d94e 413e a5e0 463e a833 fabd a3c7 d13c
00000030: 213c d5bd 2913 28bd f8b2 aabe 0dc5 fabd
00000040: 35f4 ecbd ad66 2a3e b613 1bbe 89a4 64be
00000050: eb96 bdbd dc69 aa3c 324f 9d3d 1024 52be
00000060: 1492 863d 40ec 8f3d ccdc 25be 28ee 763e
00000070: c9bb 453e cb87 4cbd 9d98 323e 99f3 8c3c
00000080: 93d2 dabd 5171 fa3a bb76 22be db3b 38be
00000090: 8692 2e3e e4d3 32be 2d9d 55be d8f6 79be
000000a0: 0551 6d3e 4690 94be f39b d8bd f196 843e
000000b0: 032e f83d 85bf cdbc aead f8be e371 6d3e
000000c0: 12e6 653d 3154 19be a51a 653d 34f9 463b
000000d0: 45bc a03d eebf b2bd 64e9 aabd 9bca 5a3d
000000e0: 4e24 4dbe 3bf8 c6be 1e88 87be 389c bd3e
000000f0: a9aa 843d 5f1d 07be 28ad 15be c86f 58bc
00000100: ac7c 253d b1b8 5d3e 3d1f 193c 75eb 373a
00000110: 506b 003d 8c47 d4bd 9dc0 be3d 0fcf 9e3d
00000120: a08c 3bbd 212d 643e 72ed 20bd 3d57 753b
00000130: b204 febb 1dd0 90bd aa60 6cbd f141 7e3d
00000140: 3cf2 133e b12a b4bd de5a 6c3e 5f1b 72be
00000150: 7212 dd3d 524f 113e 2ab2 413e 6c62 3abd
00000160: 0122 163e 5dea 43bd 7209 3bbd 768b 063e
00000170: 3649 10be ced1 6b3d 4623 883d 7d67 35bd
00000180: 545d 18be 518e 27be 6712 403d 104a 313e
00000190: b82f 9fbe 31ff 6b3e 4c59 cebd 0e30 5bbd
000001a0: c9d6 2d3e a2a8 363e 772b 863d e607 8e3d
000001b0: 5925 143e 5f75 3c3e 8263 383c 0eca 953c
000001c0: e16c 5f3e 7d70 59bd 0089 f23d a7e3 b1bc
000001d0: d9e8 a03d 9806 c63d 1858 153e 53b1 b33d
000001e0: e5ee ae3d 8f5d c23c f4d0 83be 7aeb b2be
000001f0: e47b e13b cfcc 29be 973b 5e3d 1e74 5f3e
00000200: 5fd3 10be b56d 6e3e b5e6 5ebb 2712 1e3e
00000210: 4e7b 8d3d 7dc7 00be 4e74 903d 78fd d7bd
00000220: b772 36be 5da0 24be 106d 913c fcd2 f8bd
00000230: 65b2 193d 398d bc3c 1e8b cabb ec27 80bd
00000240: a271 c13d 99dd 4e3e d2b2 323e 2ba5 2cbd
00000250: 8ece 13bd 0688 7fbe 20ae a23c c6ef e4bd
00000260: df2b f7bd 3618 06be 3fd2 803e 414b d13d
00000270: aa84 cb3d ceb5 4bbc e9aa 4f3e c427 693c
00000280: bc4b 7abe 3205 2d3e 5f58 e6bc 3720 063e
00000290: 2a78 2c3e 8eda e63c d14b 16be e94b 473d
000002a0: c711 ef3d ab57 483d 1d45 87be 8afb 46be
000002b0: cd1f be3d 17c6 473e f2de 8bba ce1f 27bb
000002c0: 3d1c 683e 6d4a 483e 49be 31be b415 cdbd
000002d0: 4f8a 8fbd 6b65 d7bd 10e9 c5bd 81ce 4cbe
000002e0: 6bb4 803e a2c9 bf3c 4995 803e 7a8e 473e
000002f0: c367 563e cb29 58be f3be 353d c9d8 69be
00000300: c3f3 2bbe ee60 86bd 574e a03e 1e5a c93d
00000310: e257 f43b 06c8 7fbd aa28 043e b10a 823d
00000320: 38d9 833e 8150 91bd 01a1 b6bd 594b 693e
00000330: 1677 acbd bb37 6b3e cba2 063e 4b01 fa3d
00000340: 36e9 633d 1dcf 1b3e 9a56 d3bc 3378 95bd
00000350: d94f 533e 5a4e 613d 6a45 21bc 53a0 f5bd
00000360: 49c9 533d 0e68 39bd 5f02 10bd 455d d6bc
00000370: e762 b6bd 8457 aabd 36f2 183e 95f4 943c
00000380: a7d4 29be 002f bdbe 4afe 6e3e 566a 293d
00000390: c8ed 71bc 47c7 d1bc c0e6 9fbd 66d3 733d
000003a0: 4287 a0be a723 7bbe c7a5 f73d 7e44 8c3e
000003b0: 9ccb 123d 4553 79bd 4a74 00be 6cb8 9c3d
000003c0: a547 9dbd b735 143e 574a 9d3d 8ee5 04bc
000003d0: 19c3 663e 6f99 083e bd99 b83d 0e74 063c
000003e0: bb45 a7bd 67dc e3bb 083f b4be c438 df3d
000003f0: 5852 babc 9de7 163e be60 55be ab49 79bd

layers.0.ufh.i_weight f4 [32, 32]
0.1511531 0.07799495 -0.05514062 -0.09557314 0.002069373 0.13168402 -0.04477824 0.087510586
0.0059434236 0.061533146 0.009708476 -0.0647487 -0.022876818 -0.016007815 -0.3878705 0.19945331
-0.013945673 -0.29120708 -0.04107379 0.026501287 0.19182792 -0.1104251 0.09846017 -0.051128406
0.0048101163 -0.19104563 -0.04550215 -0.029130364 0.07633319 -0.15695107 0.0051253606 0.14064574
-0.031238234 -0.1292564 0.016614243 0.20142828 0.070101134 0.03626661 0.13092102 -0.08980344
-0.019307358 -0.18165578 0.0092875315 0.111301795 0.09675386 -0.0021679683 -0.04815978 0.10579477
0.11891729 0.2071088 0.06714233 -0.050263688 0.046926573 -0.14609441 -0.12723309 0.039837122
0.26768926 -0.057889145 -0.18510845 0.10122036 0.079830736 -0.00764039 -0.0069601014 0.16097248
0.016883232 -0.19582142 -0.18003717 0.065234154 -0.067255355 -0.14634594 -0.10158536 -0.17277603
0.18807168 -0.08915876 -0.2472088 -0.1593582 0.057969995 -0.103421666 -0.12557063 0.13954885
-0.13675961 -0.037037697 -0.021094259 -0.12218766 -0.18606463 -0.09979677 -0.04289452 0.0066636303
0.0011447091 0.026886974 0.008011122 0.073531166 0.11661542 -0.06673857 -0.0044917227 -0.24036412
0.13515407 0.11156277 0.0812513 -0.08644304 -0.049212545 -0.027452348 0.42510948 0.086060785
0.108843565 0.07341143 0.039983656 0.16987653 -0.041582175 -0.13104862 0.13529453 0.09910448
-0.0061901407 0.13423674 -0.02548244 0.27405834 0.10254586 0.014019204 0.09526144 0.103523776
-0.025195155 -0.06443565 -0.08788744 0.19311869 0.085846566 -0.024718966 -0.008778075 0.14423606
0.10396744 0.21709618 -0.009018426 0.057809774 -0.0949553 -0.010643057 0.03176268 0.26015526
-0.07314529 0.3639984 0.1851567 0.048267383 -0.10136619 0.18869744 0.20987463 -0.14935306
0.08081509 0.13944045 0.033047043 0.09352335 0.022986967 0.1056598 0.051389024 -0.14410962
-0.09979931 0.09818998 0.18932071 -0.0069655105 0.058072295 0.029223023 0.0038642792 0.4182571
0.05954743 -0.009412204 -0.15685661 -0.07864728 0.0020410125 0.03991754 0.045701094 -0.22028883
0.25170067 -0.11655089 -0.052773356 0.20328605 0.022576459 0.1872222 -0.12905642 -0.087408096
-0.06842651 -0.11193334 0.03691069 -0.13066939 0.27447298 -0.11685636 -0.22343686 -0.0714607
0.1552949 -0.014894309 -0.14344455 -0.30886993 -0.0046023685 0.14683062 0.013859854 -0.15552798
-0.09786976 -0.0058408077 -0.024573306 -0.016864276 -0.12589687 0.0640901 0.21793729 0.14192255
0.014925001 0.25125214 -0.041827545 -0.05898324 -0.19848771 0.20283392 -0.4205347 0.13462064
0.07455307 -0.14097941 0.082335964 0.011724685 -0.10790934 0.033720326 -0.10255731 0.011037638
0.2592506 -0.06862781 -0.08667989 0.052586816 0.04705718 -0.16461278 0.057927188 0.14534585
0.14859146 0.16442837 -0.13250028 0.029600002 0.03856228 0.18422599 0.06344729 0.24109985
-0.2631608 -0.12601605 0.22356802 -0.01810049 -0.0188851 -0.11931458 0.07637671 -0.0027207446
0.10374915 -0.042183958 -0.14969324 -0.22925948 0.14649299 0.15138474 -0.09150592 0.0643823
0.090556666 -0.04774473 0.20104526 0.04119033 -0.03157985 0.0402875 0.2569543 0.17055632
00000000: e1c7 1a3e d1bb 9f3d 21db 61bd dabb c3bd
00000010: 519e 073b 2dd8 063e 6369 37bd c038 b33d
00000020: 0dc1 c23b 2e0a 7c3d 4d10 1f3c f79a 84bd
00000030: 2a68 bbbc d222 83bc f696 c6be 7d3d 4c3e
00000040: 647c 64bc 1819 95be fe3c 28bd 3a19 d93c
00000050: 8a6e 443e 8e26 e2bd 7ca5 c93d 056c 51bd
00000060: 2e9e 9d3b 77a1 43be 7660 3abd cda2 eebc
00000070: 9354 9c3d c8b7 20be a4f2 a73b 7005 103e
00000080: 53e7 ffbc ca5b 04be 981a 883c 3743 4e3e
00000090: 2f91 8f3d 4c8c 143d 2910 063e deea b7bd
000000a0: 772a 9ebc f903 3abe bb2a 183c 32f2 e33d
000000b0: e326 c63d 7914 0ebb 3143 45bd eeaa d83d
000000c0: e88a f33d 5414 543e eb81 893d 4ce1 4dbd
000000d0: 1436 403d c699 15be 6449 02be 402c 233d
000000e0: 910e 893e 2b1d 6dbd 128d 3dbe 9f4c cf3d
000000f0: 4c7e a33d 3d5c fabb 9011 e4bb f8d5 243e
00000100: b44e 8a3c 6985 48be aa5b 38be 7c99 853d
00000110: 2dbd 89bd b6db 15be fc0b d0bd 33ec 30be
00000120: dd95 403e de98 b6bd 4e24 7dbe cc2e 23be
00000130: f271 6d3d bdce d3bd 9695 00be e5e5 0e3e
00000140: b60a 0cbe d7b4 17bd decd acbc 863d fabd
00000150: ba87 3ebe 4062 ccbd 2ab2 2fbd 955a da3b
00000160: 100a 963a 1242 dc3c 1541 033c 8297 963d
00000170: 11d4 ee3d 3bae 88bd 4d2f 93bb 0322 76be
00000180: d465 0a3e 067b e43d 1567 a63d 0c09 b1bd
00000190: 1893 49bd bfe3 e0bc f3a7 d93e a340 b03d
000001a0: 60e9 de3d bb58 963d e7c5 233d 1df4 2d3e
000001b0: 1252 2abd 9c31 06be a68a 0a3e 4af7 ca3d
000001c0: aad6 cabb 5b75 093e 8dc0 d0bc 6051 8c3e
000001d0: 9003 d23d ceb0 653c 6e18 c33d 4604 d43d
000001e0: 1266 cebc d7f6 83bd 55fe b3bd e8c0 453e
000001f0: 53d0 af3d 6e7f cabc ead1 0fbc 9eb2 133e
00000200: e2ec d43d 764e 5e3e 05c2 13bc f1c9 6c3d
00000210: ed77 c2bd 3760 2ebc 9519 023d 1233 853e
00000220: 33cd 95bd 005e ba3e b899 3d3e 05b4 453d
00000230: 1499 cfbd e739 413e 60e9 563e 02f0 18be
00000240: 6282 a53d 7ac9 0e3e 565c 073d 2c89 bf3d
00000250: 2a4f bc3c 2a64 d83d 4c7d 523d 7991 13be
00000260: 9563 ccbd d417 c93d 4add 413e f03e e4bb
00000270: 37dd 6d3d 1f65 ef3c d93f 7d3b cb25 d63e
00000280: 02e8 733d a535 1abc 059f 20be d311 a1bd
00000290: 82c2 053b 9380 233d 1231 3b3d 6593 61be
000002a0: e9de 803e 3cb2 eebd e028 58bd 382a 503e
000002b0: 44f2 b83c 2db7 3f3e 5e27 04be 0403 b3bd
000002c0: 3323 8cbd 4f3d e5bd aa2f 173d 32ce 05be
000002d0: b987 8c3e 6352 efbd a2cc 64be fd59 92bd
000002e0: a005 1f3e 4307 74bc 21e3 12be 3324 9ebe
000002f0: 77cf 96bb c45a 163e 7114 633c ba42 1fbe
00000300: f16f c8bd 3f64 bfbb f54d c9bc f326 8abc
00000310: 1ceb 00be ac41 833d f42a 5f3e 2554 113e
00000320: fe87 743c 1fa4 803e 5c53 2bbd 6998 71bd
00000330: 5d40 4bbe b2b3 4f3e 5350 d7be fed9 093e
00000340: 48af 983d e85c 10be c29f a83d e518 403c
00000350: 92ff dcbd 531e 0a3d 9109 d2bd 36d7 343c
00000360: 7fbc 843e bd8c 8cbd 3a85 b1bd 4665 573d
00000370: 08bf 403d 4190 28be 0f45 6d3d 8bd5 143e
00000380: 5c28 183e e95f 283e 27ae 07be b47b f23c
00000390: 7bf3 1d3d bda5 3c3e a7f0 813d e1e2 763e
000003a0: 03bd 86be 5a0a 01be 04ef 643e 7b47 94bc
000003b0: edb4 9abc 345b f4bd 646b 9c3d 854e 32bb
000003c0: 6f7a d43d 16c9 2cbd 2f49 19be ffc2 6abe
000003d0: 4202 163e 9a04 1b3e 7567 bbbd deda 833d
000003e0: c675 b93d fa8f 43bd cfde 4d3e 31b7 283d
000003f0: df59 01bd 8104 253d 848f 833e 51a6 2e3e

layers.0.ufh.j_weight f4 [32, 32]
0.05634021 -0.041592017 -0.21889387 0.026177166 0.078268446 -0.06820236 -0.00865645 -0.25603235
-0.12553562 -0.05147187 -0.11075548 -0.1464839 0.24245696 -0.003282763 -0.18026249 -0.049421716
0.06429437 0.12236939 -0.03311475 0.059298214 -0.16168366 -0.14720327 0.11454391 -0.018897397
0.08058794 -0.06277019 -0.124402836 -0.096044555 -0.029227816 0.045694113 0.04300504 -0.14167586
0.02173169 -0.12570609 -0.20861971 -0.11298524 -0.13865316 0.2637435 0.04003295 -0.005102586
0.15945919 -0.054034542 -0.04702239 -0.062330093 0.08115298 -0.23338738 -0.41375735 -0.06819929
-0.005660566 -0.17177756 -0.11979519 -0.011089455 0.043918446 0.0362426 0.039188884 0.13444406
-0.09360496 0.17069939 -0.41690665 -0.105149046 0.13419355 -0.115475975 -0.11894577 -0.13793506
-0.1570378 -0.112036556 -0.05092259 0.088449545 0.026292486 -0.12795743 -0.1610963 -0.19370677
-0.21344358 -0.115122996 -0.063753694 0.02819891 -0.08919349 0.044526935 0.15901355 -0.11980686
-0.23062113 -0.0043000164 0.024620172 -0.007251783 0.054426305 0.030539911 0.09833416 0.12598014
-0.04737885 0.021027073 -0.04297126 -0.19286592 -0.22384205 0.1519311 -0.057500083 0.15947172
0.20231768 0.10839025 0.011466333 0.10259385 -0.15303658 0.044182267 -0.07864735 0.17621692
0.0442577 0.07219775 0.09615053 0.040365808 -0.058132257 0.08909867 0.15066187 -0.09810518
-0.17038116 0.0065830885 -0.046369307 0.08401445 -0.1569559 -0.00070115126 0.010500911 -0.07456311
0.030731166 -0.08419145 0.04809787 -0.00017374396 0.054958448 0.051069204 0.110212795 -0.20925245
0.015887994 -0.10980324 -0.1731907 0.0021513866 0.044313654 0.25587654 0.036464144 -0.21298666
-0.134976 -0.041796226 0.022491947 0.11079526 -0.19267382 0.078098804 -0.18140155 0.108884886
0.06756819 -0.1336168 0.008020849 -0.045763288 -0.27504882 -0.003068411 -0.048832692 -0.099398255
-0.047837287 -0.24008128 -0.060723364 0.084954776 0.089237414 0.025558805 -0.071057834 0.13295512
0.10565043 -0.10614511 -0.062560365 -0.07816136 0.05072616 0.11801649 -0.06482477 -0.051013593
-0.115616836 -0.14815919 -0.044912618 -0.18094504 0.025435293 -0.17017642 -0.37225214 -0.020756852
0.02348515 0.10373469 -0.13630077 -0.0010544911 -0.016348852 -0.058640476 -0.05700534 0.08066182
-0.08556909 0.04198339 -0.28605565 -0.19573736 -0.07317973 -0.09712695 0.03407223 -0.16718629
-0.043047067 -0.062448777 -0.17838605 0.0007344129 -0.00784396 -0.029401785 0.1818099 -0.3284314
0.15432912 -0.04787422 -0.024398576 -0.01160109 -0.021122038 0.12201834 -0.07044164 0.14401065
0.15204477 -0.09313553 -0.019881083 0.052897003 -0.17800179 -0.10035971 -0.025619486 0.03831356
0.0411836 0.041643173 0.06587389 -0.05606282 0.08461069 0.11370526 0.08693803 0.020350067
0.14855292 -0.08138797 0.06378008 -0.07668388 0.15801291 0.1475388 0.02947383 0.09261005
0.079142794 0.20017841 -0.071270816 0.16040973 0.09280431 -0.14805402 0.20259368 0.024726609
-0.09189138 0.06650179 -0.14627416 0.3192311 0.0286055 -0.029870104 0.100762345 0.10012053
-0.07607205 0.018328184 -0.08458897 0.061642535 0.3153871 -0.01340282 0.19674842 0.31638736
00000000: fec4 663d 645c 2abd b725 60be 7f71 d63c
00000010: 354b a03d aead 8bbd c8d3 0dbc ac16 83be
00000020: 698c 00be 2bd4 52bd c5d3 e2bd e0ff 15be
00000030: a346 783e a023 57bb bb96 38be 6d6e 4abd
00000040: c4ac 833d ce9c fa3d 55a3 07bd afe2 723d
00000050: 6790 25be 74bc 16be ff95 ea3d b7ce 9abc
00000060: 4a0b a53d a88d 80bd eac6 febd 02b3 c4bd
00000070: 2c6f efbc c029 3b3d 0e26 303d 7a13 11be
00000080: a806 b23c 19b9 00be 68a0 55be ce64 e7bd
00000090: 18fb 0dbe 6309 873e 97f9 233d 9833 a7bb
000000a0: 4549 233e 5353 5dbd 8d9a 40bd d74d 7fbd
000000b0: 8933 a63d 1afd 6ebe 01d8 d3be 12ac 8bbd
000000c0: 457c b9bb 75e6 2fbe 2e57 f5bd 8cb0 35bc
000000d0: d4e3 333d 1f73 143d 8684 203d b4ab 093e
000000e0: f5b3 bfbd d2cb 2e3e ca74 d5be 6258 d7bd
000000f0: 096a 093e ab7e ecbd d799 f3bd d93e 0dbe
00000100: 84ce 20be 6c73 e5bd 3594 50bd 0925 b53d
00000110: 5763 d73c 4607 03be 6ef6 24be 115b 46be
00000120: f490 5abe 9bc5 ebbd 4c91 82bd 6701 e73c
00000130: 14ab b6bd e061 363d 73d4 223e 4d5d f5bd
00000140: f227 6cbe 27e7 8cbb 3eb0 c93c 5da0 edbb
00000150: 1eee 5e3d d62e fa3c 6c63 c93d f000 013e
00000160: 5310 42bd f840 ac3c a202 30bd a57e 45be
00000170: da36 65be d493 1b3e 3585 6bbd 8e4c 233e
00000180: 5e2c 4f3e b5fb dd3d 49dd 3b3c b91c d23d
00000190: 9fb5 1cbe 77f8 343d dd11 a1bd 3572 343e
000001a0: 9047 353d 6adc 933d 92ea c43d 9e56 253d
000001b0: 171c 6ebd 5d79 b63d 1b47 1a3e 5eeb c8bd
000001c0: 6678 2ebe f3b6 d73b beed 3dbd c50f ac3d
000001d0: 0cb9 20be 77cd 37ba 030c 2c3c 8bb4 98bd
000001e0: edbf fb3c 916c acbd 4602 453d 0a2f 36b9
000001f0: 1c1c 613d f12d 513d 3fb7 e13d 4646 56be
00000200: 8a27 823c 85e0 e0bd e758 31be 47fe 0c3b
00000210: 3c82 353d 4002 833e 6d5b 153d 2d19 5abe
00000220: 2637 0abe 8532 2bbd 0841 b83c a0e8 e23d
00000230: 494c 45be 44f2 9f3d 54c1 39be 0aff de3d
00000240: 3161 8a3d d8d2 08be e169 033c 4972 3bbd
00000250: 33d3 8cbe 6517 49bb ca04 48bd 5091 cbbd
00000260: 08f1 43bd ded7 75be 10b9 78bd c5fc ad3d
00000270: 1bc2 b63d b360 d13c c586 91bd 6325 083e
00000280: 415f d83d 9c62 d9bd a61f 80bd 1013 a0bd
00000290: 3cc6 4f3d a1b2 f13d d9c2 84bd a1f3 50bd
000002a0: 85c8 ecbd 0bb7 17be 4bf6 37bd a849 39be
000002b0: ad5d d03c ba42 2ebe d597 bebe 460a aabc
000002c0: ee63 c03c da72 d43d 6e92 0bbe da36 8aba
000002d0: 07ee 85bc ff30 70bd 6e7e 69bd 0632 a53d
000002e0: d93e afbd c6f6 2b3d e375 92be 606f 48be
000002f0: 41df 95bd 7fea c6bd 538f 0b3d e232 2bbe
00000300: 1f52 30bd 4aca 7fbd d5aa 36be 9e85 403a
00000310: f483 00bc 03dc f0bc 602c 3a3e 2928 a8be
00000320: 7408 1e3e c217 44bd 86df c7bc 8012 3ebc
00000330: 2008 adbc c0e4 f93d b543 90bd 8777 133e
00000340: a0b1 1b3e d7bd bebd a7dd a2bc 87aa 583d
00000350: 1a46 36be 6489 cdbd f5df d1bc aeee 1c3d
00000360: 22b0 283d 0892 2a3d e4e8 863d 21a2 65bd
00000370: 5f48 ad3d 4ede e83d 910c b23d 2fb5 a63c
00000380: 421e 183e bcae a6bd 219f 823d 700c 9dbd
00000390: 23ce 213e 6914 173e 1a73 f13c 57aa bd3d
000003a0: 9e15 a23d 92fb 4c3e 6ff6 91bd 7342 243e
000003b0: 3010 be3d 799b 17be b874 4f3e 758f ca3c
000003c0: 8c31 bcbd 1732 883d e5c8 15be 4272 a33e
000003d0: 1556 ea3c 26b2 f4bc 7d5c ce3d fe0b cd3d
000003e0: aacb 9bbd fd24 963c fb3c adbd e27c 7c3d
000003f0: 6b7a a13e 8097 5bbc 6b78 493e 86fd a13e

layers.0.ufh.k_weight f4 [32, 32]
0.0876097 -0.09843767 0.016012775 0.07810345 0.23483117 -0.13207409 -0.15487766 -0.0065273745
0.19436723 -0.056459654 0.19465587 0.110386625 0.00042717077 0.08678982 0.085502334 0.08803009
0.07407525 -0.32969603 0.21339639 0.05256558 0.10394585 -0.18001936 4.920672e-05 -0.037436184
-0.15797693 -0.09674356 0.070007205 -0.12748446 0.019067906 -0.02421316 -0.016485134 -0.06383922
-0.0042294716 -0.12146853 -0.09370331 -0.10421429 0.2738766 -0.07197141 -0.1665162 0.12027294
-0.03490914 -0.27641487 -0.021220146 -0.08260066 -0.045998216 -0.0041772537 0.03784899 0.093211204
0.026105138 -0.21793747 0.018194653 -0.15273659 -0.117663436 -0.105062395 -0.106215216 0.0016237344
0.014479034 0.041130602 -0.01686892 -0.053568155 -0.15521802 -0.019847084 -0.154963 -0.11815174
-0.01895728 0.15619712 0.14064425 -0.011327685 -0.1359529 -0.12950528 -0.04480026 0.06539206
0.31082034 0.025190953 0.02443151 0.025011556 -0.11949484 0.040460475 0.015636688 0.01217585
-0.11931705 0.14509892 0.064184844 0.14402121 -0.3286696 0.14077589 0.18989404 -0.23599753
-0.22260724 0.0061389403 -0.0917869 0.035237383 -0.012865083 0.0044449572 0.105952695 0.15666705
0.04449102 0.08170908 -0.22165221 0.114424765 -0.2171398 0.062875174 0.03133671 -0.14924312
-0.10742668 0.08269904 -0.29990247 0.07309479 -0.05773812 0.04087362 -0.18283483 -0.028711678
0.026370356 -0.12281967 -0.0992426 -0.03933169 0.066586204 0.02897981 0.033215877 0.10145858
-0.19104126 0.03584961 -0.1208945 0.25007752 -0.00080662355 -0.0410007 0.05510603 -0.05451176
0.0077179926 -0.04670016 0.20198895 0.10153648 0.023868972 0.19114292 0.07836443 -0.044408467
-0.17550299 -0.15338244 0.020740679 0.14010409 0.06410884 0.089594714 0.12432072 -0.040666778
0.031900775 -0.08206445 0.013318074 0.025508275 -0.030810004 -0.0056051323 -0.08341129 0.25148928
0.054337565 -0.023057276 0.011598293 -0.096799746 0.018483818 0.16233218 0.059691522 0.31072494
0.021900453 -0.020283949 -0.020723714 -0.059081577 -0.026437007 0.035495795 0.0244934 -0.00767517
-0.0074420483 -0.07112533 0.07523924 0.12691642 0.09165813 0.033718534 0.16843332 -0.033365272
0.039927825 0.09986712 0.045522995 -0.06576369 -0.013033801 -0.04465863 0.047238003 -0.11713613
0.10462281 0.01865002 0.0015038629 -0.054944474 0.054446794 -0.030305961 0.023514686 -0.06830079
-0.0041989 -0.08909092 0.25894594 -0.024780001 0.0065795123 0.045466065 -0.01660479 -0.044843983
0.009799724 0.1522998 0.02577035 0.14876936 0.14149502 0.06310126 -0.10699119 0.095208764
-0.12342895 0.0087530175 -0.15544695 -0.07557843 0.075984634 0.00615339 -0.280656 0.091541894
-0.18064527 -0.024575649 0.136939 0.008399146 -0.12619217 -0.2940835 0.074015915 0.22910658
0.13345617 0.02138885 -0.23633756 0.0011380331 -0.13969462 0.22062883 0.031009678 -0.04853056
0.07922106 0.034221176 0.1705332 -0.2472813 0.0042010513 -0.12583873 0.28257152 0.07456562
0.11918785 -0.0720777 -0.24693976 0.0030291337 -0.20836674 0.022470126 0.01951172 0.11122057
0.07299787 0.07728702 0.31434992 0.14016135 0.059882127 -0.084404394 -0.09908064 0.17753984
00000000: b76c b33d b099 c9bd 392d 833c b4f4 9f3d
00000010: 9577 703e 6e3e 07be 4098 1ebe 96e3 d5bb
00000020: 3408 473e 3d42 67bd de53 473e 6212 e23d
00000030: e4f5 df39 dcbe b13d d91b af3d 1f49 b43d
00000040: c4b4 973d ebcd a8be 9584 5a3e 014f 573d
00000050: 90e1 d43d ff56 38be 5063 4e38 af56 19bd
00000060: b4c4 21be 7d21 c6bd f05f 8f3d 498b 02be
00000070: 4c34 9c3c ad5a c6bc d50b 87bc 23be 82bd
00000080: 6197 8abb 7ec4 f8bd 85e7 bfbd 4d6e d5bd
00000090: 8e39 8c3e bf65 93bd 3983 2abe a951 f63d
000000a0: e3fc 0ebd 4086 8dbe dfd5 adbc 892a a9bd
000000b0: a068 3cbd 58e1 88bb 8b07 1b3d 84e5 be3d
000000c0: 71da d53c 002b 5fbe f40c 953c fb66 1cbe
000000d0: 87f9 f0bd f42a d7bd 5d87 d9bd 7cd3 d43a
000000e0: 7839 6d3c 9078 283d b030 8abc 486a 5bbd
000000f0: 79f1 1ebe 5a96 a2bc 9fae 1ebe 8af9 f1bd
00000100: 4c4c 9bbc 23f2 1f3e 0c05 103e c197 39bc
00000110: 3d37 0bbe 089d 04be 7a80 37bd 46ec 853d
00000120: d823 9f3e 425d ce3c 9724 c83c 09e5 cc3c
00000130: b6b9 f4bd e2b9 253d 8318 803c 377d 473c
00000140: 7f5c f4bd d094 143e 5873 833d 4c7a 133e
00000150: 6247 a8be 8e27 103e 9573 423e 56a9 71be
00000160: 27f3 63be 2a29 c93b c5fa bbbd 1355 103d
00000170: 12c8 52bc 01a7 913b bafd d83d 546d 203e
00000180: 373c 363d 1757 a73d ccf8 62be 8857 ea3d
00000190: e559 5ebe b3c4 803d ec5a 003d 30d3 18be
000001a0: 8502 dcbd 1d5e a93d d18c 99be b9b2 953d
000001b0: cf7e 6cbd 196b 273d 0e39 3bbe c134 ebbc
000001c0: a506 d83c e188 fbbd b43f cbbd 441a 21bd
000001d0: 595e 883d 1167 ed3c 5f0d 083d 84c9 cf3d
000001e0: 52a0 43be 0ad7 123d 8997 f7bd 290a 803e
000001f0: 9773 53ba 5af0 27bd dcb6 613d b947 5fbd
00000200: 37e7 fc3b ab48 3fbd 31d6 4e3e 5cf2 cf3d
00000210: dd88 c33c f8ba 433e 887d a03d a7e5 35bd
00000220: 0eb7 33be 4910 1dbe 5be8 a93c 7277 0f3e
00000230: 7f4b 833d 6f7d b73d dd9b fe3d 3592 26bd
00000240: 63aa 023d 6811 a8bd 0d34 5a3c bbf6 d03c
00000250: 4365 fcbc 42ab b7bb 8ad3 aabd 34c3 803e
00000260: 1191 5e3d 9de2 bcbc c406 3e3c f23e c6bd
00000270: 606b 973c 683a 263e 197f 743d 5717 9f3e
00000280: 9468 b33c 862a a6bc c7c4 a9bc 86ff 71bd
00000290: 6c92 d8bc 0a64 113d 62a6 c83c fe7f fbbb
000002a0: 6ddc f3bb 28aa 91bd 0817 9a3d 61f6 013e
000002b0: 42b7 bb3d 721c 0a3d c979 2c3e 06aa 08bd
000002c0: 5c8b 233d 2287 cc3d 5276 3a3d 1daf 86bd
000002d0: b98b 55bc f8eb 36bd a37c 413d 11e5 efbd
000002e0: 7c44 d63d edc7 983c 441d c53a 750d 61bd
000002f0: 9a03 5f3d 3544 f8bc dfa1 c03c 49e1 8bbd
00000300: ed96 89bb 4d75 b6bd 9094 843e 6eff cabc
00000310: f398 d73b a03a 3a3d c506 88bc 53ae 37bd
00000320: 068f 203c 7bf4 1b3e 571c d33c ff56 183e
00000330: 12e4 103e 3c3b 813d 321e dbbd d0fc c23d
00000340: 51c8 fcbd d168 0f3c 7c2d 1fbe ddc8 9abd
00000350: d59d 9b3d 60a2 c93b 25b2 8fbe 517a bb3d
00000360: 13fb 38be df52 c9bc bd39 0c3e 929c 093c
00000370: 8538 01be 1d92 96be a895 973d ea9a 6a3e
00000380: bca8 083e ab37 af3c 7902 72be 0e2a 953a
00000390: 1b0c 0fbe 86ec 613e 0208 fe3c fbc7 46bd
000003a0: a73e a23d 812b 0c3d 41a0 2e3e 4f37 7dbe
000003b0: f9a8 893b dedb 00be 37ad 903e dcb5 983d
000003c0: c218 f43d 799d 93bd c7dd 7cbe 6e84 463b
000003d0: 175e 55be 4513 b83c 0bd7 9f3c 9cc7 e33d
000003e0: e87f 953d a848 9e3d 79f2 a03e 7586 0f3e
000003f0: f646 753d 36dc acbd caea cabd 01cd 353e

layers.0.wix.r_weight f4 [1, 32]
-0.068043284 0.05724962 -0.47032487 0.23720193 -0.27532083 0.7389185 0.20539479 -0.29680625
-0.5275888 0.0713341 -0.20149763 0.09467606 -0.32808572 -0.11741021 -0.24383062 -0.2743185
0.8429383 -0.20452598 -0.045398504 -0.016767517 -0.20480734 0.16584489 0.04301168 0.017838826
0.372145 0.11371818 0.1400712 -0.0054511167 -0.19626439 -0.09308426 0.09897007 0.09020513
00000000: 475a 8bbd 947e 6a3d 6cce f0be 10e5 723e
00000010: daf6 8cbe c329 3d3f 0353 523e fdf6 97be
00000020: 0f10 07bf 9d17 923d 6555 4ebe 86e5 c13d
00000030: dafa a7be c474 f0bd bcae 79be 7973 8cbe
00000040: ceca 573f 426f 51be c8f3 39bd 085c 89bc
00000050: 04b9 51be 3ed3 293e 042d 303d bb22 923c
00000060: ca89 be3e 14e5 e83d d36e 0f3e 489f b2bb
00000070: 88f9 48be f6a2 bebd d2b0 ca3d 78bd b83d

layers.0.wix.i_weight f4 [1, 32]
0.32970345 -0.9631739 0.3897136 -0.06051611 -0.19055715 -0.16363133 -0.0073465165 -0.11560149
0.02847016 0.12269262 -0.07239676 0.33065954 -0.20327902 0.005780592 0.12549819 -0.11882268
-0.58097863 -0.2221463 0.024750363 -0.22873542 -0.18538538 -0.6152946 -0.22927314 0.22314951
-0.053200018 -0.03602573 -0.76042736 -0.23736566 0.06077776 0.09711839 0.096341476 0.12813553
00000000: e4ce a83e 9192 76bf 8a88 c73e bedf 77bd
00000010: 6a21 43be f98e 27be 0cbb f0bb 79c0 ecbd
00000020: 413a e93c 4546 fb3d c144 94bd 354c a93e
00000030: 6028 50be 1f6b bd3b 9982 003e 4e59 f3bd
00000040: 04bb 14bf 527a 63be 46c1 ca3c 9e39 6abe
00000050: aad5 3dbe f283 1dbf 94c6 6abe 4e81 643e
00000060: 43e8 59bd b78f 13bd 5eab 42bf fc0f 73be
00000070: 1af2 783d 02e6 c63d ae4e c53d f635 033e

layers.0.wix.j_weight f4 [1, 32]
0.27372983 0.32759959 -0.31112435 -0.40878808 -0.4229254 0.39227855 0.13030407 -0.23407066
-0.3601189 -0.00303486 -0.09374307 -0.061169237 -0.08599442 -0.29325792 0.19476105 0.047995392
-0.44271275 0.03897587 -0.0741193 0.21076357 -0.20346992 -0.089448445 -0.17085955 -0.03394451
0.1334532 0.020553876 -0.19123523 -0.007917412 -0.14334184 -0.105742306 -0.016766956 0.2072881
00000000: 5126 8c3e 22bb a73e b14b 9fbe ac4c d1be
00000010: ae89 d8be bcd8 c83e 6e6e 053e 38b0 6fbe
00000020: 8161 b8be 80e4 46bb 5efc bfbd 988c 7abd
00000030: d81d b0bd e725 96be 716f 473e d196 443d
00000040: 3fab e2be 29a5 1f3d dccb 97bd 68d2 573e
00000050: 6b5a 50be bf30 b7bd cef5 2ebe 6609 0bbd
00000060: f5a7 083e 9a60 a83c 2bd3 43be 08b8 01bc
00000070: 34c8 12be 6c8f d8bd db5a 89bc 5543 543e

layers.0.wix.k_weight f4 [1, 32]
0.2701018 0.053210456 -0.0581809 0.21989278 -0.20502754 0.027830314 0.028967723 -0.187082
0.25424817 -0.01687136 -0.2560845 0.42175552 -0.008540404 -0.055201977 0.3186667 -0.0152775245
0.13325614 0.0628395 -0.115824066 -0.34272847 0.051996026 -0.03581339 -0.075986564 0.1861063
0.17783283 0.22081016 0.20378913 -0.059363533 -0.13130228 0.20245688 -0.034639765 0.06805127
00000000: c84a 8a3e 35f3 593d 184f 6ebd 932b 613e
00000010: bdf2 51be 66fc e33c b84d ed3c 6c92 3fbe
00000020: d12c 823e ce35 8abc 821d 83be 57f0 d73e
00000030: 0ded 0bbc 781b 62bd 4828 a33e 954e 7abc
00000040: 4c74 083e ffb1 803d 2b35 edbd 1b7a afbe
00000050: c9f9 543d 10b1 12bd d89e 9bbd a692 3e3e
00000060: cf19 363e 0f1c 623e 19ae 503e 2d27 73bd
00000070: 1b74 06be db50 4f3e 6de2 0dbd 775e 8b3d

layers.0.wix.bias f4 [128]
-1.2971418 -0.50065196 -0.5460416 -1.496164 -0.95244646 -0.16855814 0.16471532 -0.4470253
-0.3346688 0.30890992 -0.5496989 -1.4398122 -1.9008443 -1.7672849 -0.4293366 -0.9726257
0.6289853 -0.13786553 -0.036761638 -0.55833143 -0.42638895 0.24022044 -0.32882872 -0.98772895
-1.3287176 -0.92807525 -0.06337267 -0.039909933 -0.7151526 -1.723697 0.67162436 0.2788284
-0.9640218 -0.12132599 -0.48634788 -1.6188924 -0.6947785 -0.8275326 -0.7193913 -0.3691032
-0.31868586 0.038304016 0.16877468 -1.5365778 -1.9049531 -1.3485324 -0.09174149 -0.8704145
-0.3564213 -0.7022964 0.10362063 -0.73950917 -0.042867005 0.25802624 -0.2793679 -1.4891009
-1.3089459 -0.2985524 0.24033621 0.01743028 -0.7670209 -1.8842318 -0.07923349 -0.093704164
-0.69760233 -0.33211675 -0.73252213 -1.2084072 -0.1894024 -1.1350509 0.010441099 -0.2591421
-0.027051747 0.13529776 -0.23298809 -1.4647974 -1.9747728 -1.4735359 -0.36945766 -0.7924179
0.28102148 0.07835714 -0.0712863 0.077727646 0.010476422 0.27337894 -0.64504915 -0.8423789
-1.4637334 -1.0964065 0.21297453 0.11536568 -1.002535 -1.8430501 -0.1791199 -0.19223581
-0.8819859 -0.15817069 -0.32393083 -1.239438 -0.33589104 -0.81137127 -0.72420365 -0.33453983
-0.105169564 0.14124607 1.2822375 -1.588119 -1.8707315 -1.1942415 -0.18897419 -0.8047498
-0.6754139 -0.20355208 0.112855606 -0.3338299 0.16530043 0.12752709 -0.7194889 -1.3815416
-1.4480549 -0.5612172 0.14943953 0.121799745 -1.055083 -1.8791574 -0.56165874 -0.5152192
00000000: be08 a6bf ba2a 00bf 62c9 0bbf 4d82 bfbf
00000010: 88d3 73bf 819a 2cbe 22ab 283e 80e0 e4be
00000020: b559 abbe 7129 9e3e 11b9 0cbf c44b b8bf
00000030: de4e f3bf 6436 e2bf 02d2 dbbe fffd 78bf
00000040: 2e05 213f 9f2c 0dbe 5f93 16bd cfee 0ebf
00000050: a74f dabe 59fc 753e 3d5c a8be cedb 7cbf
00000060: 6b13 aabf 5796 6dbf 88c9 81bd 9978 23bd
00000070: 3e14 37bf 1aa2 dcbf 93ef 2b3f 99c2 8e3e
00000080: 22ca 76bf c379 f8bd 9702 f9be de37 cfbf
00000090: 01dd 31bf 2dd9 53bf 072a 38bf 18fb bcbe
000000a0: cb2a a3be ace4 1c3d 45d3 2c3e 95ae c4bf
000000b0: 81d5 f3bf b69c acbf f6e2 bbbd 7cd3 5ebf
000000c0: da7c b6be b2c9 33bf 0e37 d43d 7950 3dbf
000000d0: 5095 2fbd 041c 843e 4f09 8fbe dc9a bebf
000000e0: 8a8b a7bf dcdb 98be b21a 763e f2c9 8e3c
000000f0: 7b5b 44bf 822e f1bf 2b45 a2bd f8e7 bfbd
00000100: 1196 32bf 350b aabe 9286 3bbf 16ad 9abf
00000110: b4f2 41be 5949 91bf 2511 2b3c 46ae 84be
00000120: a09b ddbc 7f8b 0a3e 6e94 6ebe 7b7e bbbf
00000130: 5bc5 fcbf d39c bcbf 8e29 bdbe e6db 4abf
00000140: 0ce2 8f3e b579 a03d 8dfe 91bd ac2f 9f3d
00000150: 4ca5 2b3c 53f8 8b3e f121 25bf 25a6 57bf
00000160: 9e5b bbbf 0c57 8cbf ff15 5a3e d744 ec3d
00000170: 1153 80bf 11e9 ebbf 356b 37be 77d9 44be
00000180: d4c9 61bf 7ff7 21be 43da a5be e8a5 9ebf
00000190: e9f9 abbe 07b6 4fbf 6965 39bf ce48 abbe
000001a0: 2463 d7bd cfa2 103e 5c20 a43f 7c47 cbbf
000001b0: 2174 efbf e8dc 98bf 7382 41be 1504 4ebf
000001c0: ede7 2cbf f56f 50be d720 e73d c1eb aabe
000001d0: 8444 293e 7696 023e 6d30 38bf 5bd6 b0bf
000001e0: dd59 b9bf eeab 0fbf ad06 193e 2572 f93d
000001f0: f60c 87bf 3b88 f0bf dec8 0fbf 68e5 03bf

layers.0.uih.r_weight f4 [32, 32]
0.21234666 -0.053357184 0.33980963 0.21313095 -0.20713528 -0.14413269 -0.14474156 0.05764884
-0.07863406 0.15831535 0.1313888 0.017268803 -0.21289095 0.057685807 -0.0067377724 -0.1975336
0.10884046 0.016010085 -0.08199155 -0.001022082 0.032742802 -0.22625867 -0.050121646 0.12981635
-0.043381665 -0.26141882 -0.09690746 -0.011085687 0.1710401 -0.09370041 -0.12194848 -0.019192016
-0.22871573 -0.19349171 0.13432948 0.068666525 0.17745191 0.06840099 0.16492607 0.06210472
0.23049337 -0.31839314 -0.15145417 0.12946433 -0.118823946 0.28410333 -0.09782281 -0.17313196
-0.02874088 -0.17043337 -0.037973125 0.0037056026 0.33871165 -0.029414106 0.090762965 -0.028895356
0.14100838 -0.11457394 -0.041351978 0.48848793 0.10549743 -0.0798994 0.17221473 -0.0557282
0.10819914 0.2223924 -0.02516399 -0.003510489 -0.27285972 -0.089780495 -0.13383086 0.07895217
-0.21534891 0.1563533 -0.09791037 -0.021277582 0.15346906 0.12434274 -0.0032277503 0.115063384
-0.037824575 0.12588713 0.025720794 -0.3348655 0.0004814574 -0.026577879 0.053507134 -0.040234994
-0.34339324 -0.07211942 -0.2886969 -0.19982716 -0.20268135 -0.091882594 -0.23454005 0.1462609
-0.0023207886 -0.3023635 0.11810068 0.0872486 0.045546424 0.23571147 -0.14396538 0.13793406
-0.22038476 -0.11954475 -0.022344688 -0.11653543 0.20000146 -0.015604466 0.11080322 -0.02453725
-0.25747696 -0.08214139 0.16782875 0.29516262 0.24138021 -0.18068948 0.27072328 0.119820386
-0.06922571 0.36984444 -0.25358668 0.043266002 -7.248445e-05 -0.2702929 -0.23699002 0.24902026
0.33784285 0.29826948 -0.109471746 -0.046911858 0.079496115 -0.11349479 -0.1396621 0.21775071
0.12802607 -0.111347556 0.018781185 -0.25439605 0.0714826 0.16593327 -0.12833494 0.00043745458
-0.24079628 0.2579638 -0.07186608 0.23910187 -0.079096965 0.074050434 0.04107747 -0.20364109
-0.06596826 -0.1326034 0.09597122 0.08532463 -0.30737603 -0.12704635 0.17591901 -0.0076064193
0.14463037 0.30029678 0.38184068 -0.061460152 0.101117454 0.006639372 0.10898846 -0.035887428
0.26589727 -0.20317702 0.27488375 -0.057576656 -0.07808053 0.15790862 0.12516303 0.124167666
0.1214386 -0.12373741 -0.42408106 -0.29450995 0.057818472 -0.14167514 -0.0047015836 0.21009675
-0.017824769 -0.07988606 0.034364663 0.10496379 0.115558185 0.08220323 0.23130134 -0.43735272
0.39929014 -0.116754234 0.42135054 0.08635947 0.36689112 -0.2562133 0.15201274 -0.13592184
0.30634013 -0.075347714 0.012975273 0.17396566 0.23065226 0.038297676 0.255735 -0.011174027
0.072424784 0.22231655 -0.1135518 0.17182817 0.056300472 0.20032248 -0.00485056 0.13093609
0.07970188 -0.032304347 -0.19972293 0.07152867 0.1958357 0.19853391 -0.10839691 -0.12509745
-0.020392772 -0.26805055 0.017241258 -0.19908783 0.013904406 0.068681575 0.05773203 0.032385673
-0.057994332 -0.28021917 -0.14711414 0.016965296 -0.052902065 0.030112283 -0.32319513 -0.025463825
0.033797733 -0.006366669 -0.2537137 -0.09265563 -0.06856375 -0.1894012 -0.01948502 0.11645259
0.27706063 -0.09469892 0.06743119 -0.10769935 -0.00738815 -0.20291884 0.18177465 -0.11753175
00000000: 6771 593e 108d 5abd 87fb ad3e 003f 5a3e
00000010: 451b 54be 8597 13be 2237 14be 3121 6c3d
00000020: e50a a1bd 6b1d 223e c98a 063e 4e77 8d3c
00000030: 1600 5abe f447 6c3d 88c8 dcbb 3f46 4abe
00000040: bfe7 de3d 9527 833c 30eb a7bd 62f7 85ba
00000050: 511d 063d 5ab0 67be 5b4c 4dbd 94ee 043e
00000060: f9b0 31bd b0d8 85be 6b77 c6bd bea0 35bc
00000070: 2325 2f3e 00e6 bfbd 20c0 f9bd 9338 9dbc
00000080: 7534 6abe b122 46be ab8d 093e 09a1 8c3d
00000090: f4b5 353e d115 8c3d 61e2 283e 8561 7e3d
000000a0: 7406 6c3e 6d04 a3be cd16 1bbe 4c92 043e
000000b0: f859 f3bd fe75 913e 5357 c8bd 8149 31be
000000c0: fe71 ebbc 1686 2ebe b589 1bbd b2d9 723b
000000d0: 9d6b ad3e daf5 f0bc efe1 b93d f4b5 ecbc
000000e0: 8064 103e bea5 eabd b160 29bd 171b fa3e
000000f0: 090f d83d 4ca2 a3bd 0f59 303e 4143 64bd
00000100: 8397 dd3d d5ba 633e b624 cebc 3b10 66bb
00000110: 45b4 8bbe d6de b7bd f50a 09be adb1 a13d
00000120: 6d84 5cbe 141b 203e 3b85 c8bd 534e aebc
00000130: fe26 1d3e 68a7 fe3d aa88 53bb 5aa6 eb3d
00000140: f1ed 1abd 8ee8 003e 6ab4 d23c 7e73 abbe
00000150: 1e6c fc39 dab9 d9bc 4c2a 5b3d 73cd 24bd
00000160: 3dd1 afbe 59b3 93bd 14d0 93be 7e9f 4cbe
00000170: b38b 4fbe f12c bcbd 442b 70be 6bc5 153e
00000180: 5f18 18bb 64cf 9abe c5de f13d 65af b23d
00000190: e38e 3a3d 595e 713e a96b 13be 963e 0d3e
000001a0: 8bac 61be e1d3 f4bd 350c b7bc 21aa eebd
000001b0: 2fcd 4c3e e0a9 7fbc ccec e23d 5802 c9bc
000001c0: 05d4 83be bf39 a8bd 4ddb 2b3e 8e1f 973e
000001d0: 602c 773e aa06 39be 3e9c 8a3e 6464 f53d
000001e0: 36c6 8dbd 405c bd3e 1dd6 81be b137 313d
000001f0: cb02 98b8 d563 8abe 83ad 72be 2bff 7e3e
00000200: bdf9 ac3e c7b6 983e b932 e0bd a626 40bd
00000210: dcce a23d f56f e8bd 9503 0fbe 0bfa 5e3e
00000220: 4419 033e 300a e4bd 00db 993c 3340 82be
00000230: 7865 923d 69ea 293e 3c6a 03be 295a e539
00000240: 4d93 76be d513 843e 862e 93bd 1fd7 743e
00000250: 97fd a1bd c1a7 973d d940 283d 4a87 50be
00000260: 5e1a 87bd 30c9 07be 8f8c c43d aebe ae3d
00000270: 6460 9dbe 7018 02be 1d24 343e 453f f9bb
00000280: fc19 143e 80c0 993e 9f80 c33e a4bd 7bbd
00000290: ab16 cf3d 178f d93b 5735 df3d b2fe 12bd
000002a0: b023 883e a30d 50be 90bd 8c3e 80d5 6bbd
000002b0: afe8 9fbd ccb2 213e bd2a 003e 9e4b fe3d
000002c0: cdb4 f83d 0a6a fdbd 2721 d9be 02ca 96be
000002d0: 10d3 6c3d 4a13 11be be0f 9abb 9a23 573e
000002e0: 4005 92bc 4d9b a3bd f6c1 0c3d 41f7 d63d
000002f0: c5a9 ec3d 2b5a a83d 42da 6c3e b2ec dfbe
00000300: c26f cc3e d81c efbd 42bb d73e 3cdd b03d
00000310: 27d9 bb3e 642e 83be 3aa9 1b3e 182f 0bbe
00000320: 9dd8 9c3e e74f 9abd 3d96 543c 0e24 323e
00000330: 1b30 6c3e 06de 1c3d b3ef 823e 4413 37bc
00000340: 7253 943d f3a6 633e d98d e8bd b9f3 2f3e
00000350: 539b 663d 5621 4d3e 72f1 9ebb 1c14 063e
00000360: bd3a a33d 9051 04bd 2b84 4cbe a07d 923d
00000370: 2789 483e 794c 4b3e 33ff ddbd 8c19 00be
00000380: be0e a7bc ec3d 89be 8a3d 8d3c aedd 4bbe
00000390: 4ecf 633c eda8 8c3d 6c78 6c3d d7a6 043d
000003a0: 778b 6dbd e378 8fbe 17a5 16be cefa 8a3c
000003b0: d6af 58bd 09ae f63c d579 a5be 8399 d0bc
000003c0: 7e6f 0a3d 7e9f d0bb c3e6 81be 3cc2 bdbd
000003d0: 276b 8cbd 63f2 41be 0c9f 9fbc b27e ee3d
000003e0: e4da 8d3e 82f1 c1bd 5d19 8a3d 7a91 dcbd
000003f0: 4b18 f2bb f5c9 4fbe 2223 3a3e 7cb4 f0bd

layers.0.uih.i_weight f4 [32, 32]
-0.083046146 -0.1824915 0.019837923 -0.024223398 -0.021252977 0.070045836 -0.12326543 -0.04653051
-0.13213398 0.004866928 -0.02185293 -0.026320172 0.004146365 -0.1361896 -0.08694048 -0.056028493
-0.111056134 -0.24048471 0.0016135355 0.11816849 0.15787387 -0.13857368 0.0030458113 -0.06350433
0.037126422 -0.113413036 -0.17893279 -0.24349901 -0.21137904 -0.020955646 0.16017704 0.17257571
-0.0010566424 -0.1719416 0.13591065 0.12678543 0.18507558 0.020763634 0.05582743 -0.03381683
0.14274243 -0.004234952 0.097797096 0.26284087 0.15729369 0.033712488 -0.2954544 0.15005133
0.018090561 -0.04047217 -0.10702637 -0.12540708 -0.14829719 0.027734712 -0.016783217 0.17184427
0.08273051 0.08830911 -0.18785812 0.045982745 -0.021591898 0.14562538 0.0967007 -0.0010302882
0.14429921 0.19251505 0.1608417 -0.0007790825 0.050653208 0.0499421 0.04777069 0.04605515
0.2889059 -0.14087982 0.075687975 0.055927504 -0.055698015 -0.044009153 0.042057287 -0.003322873
0.077053875 -0.070489764 -0.031789746 -0.050912574 -0.28585303 0.031933688 -0.010743239 -0.06351632
-0.13549984 -0.07291819 -0.06659226 -0.08043806 -0.16099317 -0.20765354 -0.019534718 -0.28254196
0.1254412 -0.13121761 -0.020354826 0.09491081 -0.083100595 -0.14543705 -0.07514006 -0.09220481
-0.09656502 0.108873434 -0.19037853 -0.073260665 0.0512505 -0.1297467 0.1994972 0.022801733
0.016541906 0.05124556 -0.048400108 0.22309884 -0.036004286 0.049475815 0.16572228 -0.03306625
0.01619979 -0.041306514 0.17372565 -0.038456224 -0.01754986 -0.10703436 -0.11108312 0.14028443
-0.073931806 -0.004646006 0.2150662 0.026253043 0.20088364 -0.2175062 0.044810317 0.19197823
-0.19548754 0.1751378 -0.21766998 0.0392101 0.045559797 -0.06773178 0.2733195 -0.055630997
-0.093735665 0.23688966 0.014942367 0.18011135 0.025632035 -0.056943092 -0.0038436549 0.07146587
-0.025217514 -0.07453495 0.025597213 0.049653213 0.07203238 0.05388782 -0.26512295 0.4437471
-0.02018151 -0.103031196 0.11408127 -0.19489612 0.20043094 0.2965464 -0.0012801671 -0.1120621
0.54447794 -0.2521832 -0.0048150234 0.07652157 0.048235424 0.13004127 -0.21380539 -0.020324718
0.3333784 -0.13955842 -0.018776521 0.15514478 0.12219798 -0.06944124 -0.102805465 0.12183862
0.071164936 0.010692523 -0.17803188 -0.023816284 -0.101746336 -0.1557941 -0.0317429 0.04872938
0.113850296 0.04778442 0.16955999 -0.0002528926 0.13174893 0.014320311 -0.24409722 -0.055394027
0.12176778 0.13669302 -0.10501859 0.060512796 -0.18189739 -0.06148211 -0.23086843 -0.11733727
-0.02635204 -0.11418149 0.13494363 0.19304155 -0.050981972 -0.16108005 -0.098852664 0.16324182
0.19413948 -0.2382765 0.062963024 0.0018517317 -0.203177 0.071573265 -0.00067564537 0.15370786
-0.008510353 0.1737436 0.2115783 0.06858671 0.1297228 -0.032361146 0.17324571 0.13581957
-0.033378877 0.17382824 0.17006361 0.05439942 -0.005630786 0.13384387 -0.1574289 -0.018728258
0.22001028 0.28682747 -0.018908491 -0.28127116 0.071409315 0.09296854 -0.2041759 0.04128515
-0.13104413 -0.18570809 0.073357165 0.047641583 -0.20489354 0.051880956 0.025586395 -0.05436988
00000000: 1914 aabd 0ddf 3abe 2483 a23c 2670 c6bc
00000010: b91a aebc 3174 8f3d 9672 fcbd c796 3ebd
00000020: 214e 07be c07a 9f3b ea04 b3bc 679d d7bc
00000030: 3bde 873b 4975 0bbe da0d b2bd 227e 65bd
00000040: 6671 e3bd a041 76be 447d d33a 5202 f23d
00000050: b0a9 213e 42e6 0dbe 3c9c 473b 8f0e 82bd
00000060: e011 183d 1845 e8bd 283a 37be ce57 79be
00000070: bf73 58be 2dab abbc 7305 243e b0b7 303e
00000080: 097f 8aba 7511 30be 292c 0b3e 0ad4 013e
00000090: 7484 3d3e 7f18 aa3c 4eab 643d 8483 0abd
000000a0: 122b 123e 5ac5 8abb d849 c83d 1493 863e
000000b0: 9911 213e 1b16 0a3d cd45 97be 0ea7 193e
000000c0: a832 943c 25c6 25bd a430 dbbd b76a 00be
000000d0: 38db 17be e833 e33c f57c 89bc f2f7 2f3e
000000e0: 9d6e a93d 68db b43d e15d 40be 6758 3c3d
000000f0: 7ee1 b0bc d21e 153e 040b c63d bc0a 87ba
00000100: 2cc3 133e aa22 453e b0b3 243e 573b 4cba
00000110: bd79 4f3d 1690 4c3d 33ab 433d 53a4 3c3d
00000120: 79eb 933e cd42 10be 4c02 9b3d 3d14 653d
00000130: 9a23 64bd f142 34bd 4344 2c3d 8fc4 59bb
00000140: 6cce 9d3d f05c 90bd f735 02bd b489 50bd
00000150: 545b 92be e6cc 023d 6904 30bc d814 82bd
00000160: 78c0 0abe 2256 95bd 8661 88bd b6bc a4bd
00000170: 65db 24be 21a3 54be 4607 a0bc 57a9 90be
00000180: a873 003e e95d 06be 2abf a6bc 9960 c23d
00000190: a530 aabd 73ed 14be 08e3 99bd e0d5 bcbd
000001a0: e2c3 c5bd 09f9 de3d 97f2 42be b009 96bd
000001b0: 0bec 513d 52dc 04be fe48 4c3e b3ca ba3c
000001c0: e482 873c dde6 513d 313f 46bd 0674 643e
000001d0: 3b79 13bd 27a7 4a3d 1ab3 293e 7a70 07bd
000001e0: 6cb5 843c 0531 29bd 23e5 313e 4684 1dbd
000001f0: b9c4 8fbc d534 dbbd 8c7f e3bd b9a6 0f3e
00000200: 8f69 97bd 863d 98bb 503a 5c3e 9f10 d73c
00000210: 71b4 4d3e f2b9 5ebe 068b 373d f195 443e
00000220: e32d 48be 5357 333e e1e4 5ebe c59a 203d
00000230: e99c 3a3d f6b6 8abd 89f0 8b3e 54dd 63bd
00000240: 7cf8 bfbd 3493 723e d4d0 743c 1c6f 383e
00000250: 46fa d13c 293d 69bd d4e5 7bbb b35c 923d
00000260: f694 cebc c8a5 98bd 3fb1 d13c 2b61 4b3d
00000270: b685 933d 7ab9 5c3d 32be 87be d232 e33e
00000280: b253 a5bc 0502 d3bd 71a3 e93d d992 47be
00000290: c53d 4d3e eed4 973e 48cb a7ba d080 e5bd
000002a0: e862 0b3f 281e 81be 58c7 9dbb 57b7 9c3d
000002b0: 8292 453d 8a29 053e cdef 5abe 0680 a6bc
000002c0: 93b0 aa3e 67e8 0ebe 38d1 99bc 46de 1e3e
000002d0: ef42 fa3d 3537 8ebd ac8b d2bd 8786 f93d
000002e0: ecbe 913d b12f 2f3c fd4d 36be 5e1a c3bc
000002f0: 6260 d0bd 7d88 1fbe d804 02bd 7598 473d
00000300: 582a e93d 99b9 433d 22a1 2d3e ac96 84b9
00000310: 31e9 063e bd9f 6a3c 9ff4 79be d9e4 62bd
00000320: 6361 f93d 41f9 0b3e fd13 d7bd 44dc 773d
00000330: 4f43 3abe aad4 7bbd c668 6cbe 864e f0bd
00000340: 3ce0 d7bc fcd7 e9bd aa2e 0a3e afac 453e
00000350: 79d2 50bd 2bf2 24be 4473 cabd dd28 273e
00000360: 80cc 463e c1fe 73be c2f2 803d ceb5 f23a
00000370: a20d 50be 0195 923d cb1d 31ba 9865 1d3e
00000380: 026f 0bbc d8e9 313e fba7 583e 3077 8c3d
00000390: 0ed6 043e 1f8d 04bd 5367 313e 4914 0b3e
000003a0: 4ab8 08bd 0800 323e 2825 2e3e edd1 5e3d
000003b0: 7582 b8bb 5e0e 093e 0b35 21be 016c 99bc
000003c0: 604a 613e 0ddb 923e fbe5 9abc c602 90be
000003d0: 0c3f 923d 4a66 be3d 7d13 51be 9e1a 293d
000003e0: 6f30 06be 432a 3ebe 483c 963d d223 433d
000003f0: 9dcf 51be 2081 543d 8f9a d13c f4b2 5ebd
