models/QLSTM_mse_foot_epochs9.pth (torch, 168723 bytes, 76 tensors)

layers.0.wfx.r_weight f4 [1, 32]
0	0xbe13a045	-0.14416607
1	0xbe2a33d5	-0.16621335
2	0x3e28073f	0.16409014
3	0xbda207af	-0.07911622
4	0x3e29225d	0.16517015
5	0x3df4f6d8	0.11961144
6	0x3e9dd353	0.3082529
7	0xbe57ade7	-0.21062432
8	0x3d75de9d	0.060026754
9	0x3da0ef18	0.078581035
10	0x3d907408	0.07053381
11	0xbd3fc104	-0.046814933
12	0x3d386c99	0.04502544
13	0x3d19c2a6	0.037539147
14	0x3da3b91d	0.07994292
15	0xbc180c2d	-0.009280247
16	0xbe14f523	-0.14546637
17	0x3e9022d0	0.2815156
18	0x3e6b9b63	0.23008494
19	0x3ece038d	0.40237084
20	0xbe9ff28c	-0.31239736
21	0x3ebbf8fd	0.367134
22	0x3e4824fc	0.19545358
23	0xbe053a3a	-0.13010493
24	0xbd3eaba5	-0.04655041
25	0xbdf2eea8	-0.11861926
26	0xbe944a40	-0.28962898
27	0xbe2cc2f8	-0.1687125
28	0x3ceae70c	0.028674625
29	0x3daee80c	0.08540353
30	0x3e3190a0	0.17340326
31	0x3c6923cc	0.014229726

layers.0.wfx.i_weight f4 [1, 32]
0	0x3dfa074e	0.122084245
1	0xbe99511a	-0.29944688
2	0xbe54f3ba	-0.207961
3	0xbe405955	-0.18784077
4	0x3e31fbe7	0.1738125
5	0x3c0921fd	0.00836992
6	0x3dbdbbef	0.09264361
7	0xbe1533cf	-0.14570545
8	0x3dc7ef98	0.09762496
9	0xbdaf44b6	-0.085580274
10	0xbd5595c6	-0.05214479
11	0xbe12ce60	-0.14336538
12	0xbe2d5207	-0.16925822
13	0x3e347745	0.17623623
14	0x3d3dba81	0.046320442
15	0xbcf5ea10	-0.030018836
16	0xbe68a3a8	-0.2271868
17	0xbd058821	-0.032600526
18	0xbbb453e9	-0.005503167
19	0xbe961459	-0.293124
20	0xbda25fa4	-0.07928398
21	0xbe97039d	-0.29494944
22	0xbd5e8123	-0.054322373
23	0x3dd697c4	0.10478166
24	0xbe9df11d	-0.30848017
25	0xbe0f7e28	-0.14012969
26	0xbec9a45d	-0.39383212
27	0xbe412996	-0.1886352
28	0xbe2c1b6e	-0.16807339
29	0xbd3a6706	-0.045508407
30	0xbde2399d	-0.11046145
31	0xb9e5fea7	-0.00043868014

layers.0.wfx.j_weight f4 [1, 32]
0	0x3df41295	0.11917607
1	0xbc896396	-0.01677112
2	0xbd28e2cc	-0.041231915
3	0xbe975224	-0.29554856
4	0x3dc3ed11	0.09566701
5	0xbde5d8a6	-0.11222963
6	0x3dbc0090	0.09179795
7	0xbe606ee3	-0.219173
8	0xbe4ca418	-0.19984472
9	0x3e10c4e5	0.1413761
10	0xbc9f76c4	-0.019465812
11	0x3d9e7d47	0.077387385
12	0xbd3f4526	-0.046696804
13	0x3d854eb1	0.0650915
14	0x3d9243e4	0.07141855
15	0x3e22ce9d	0.15899129
16	0x3e26c575	0.16286261
17	0xbdd3dfc8	-0.10345417
18	0x3d8ef219	0.0697977
19	0xbdccfcce	-0.10009156
20	0xbdea0330	-0.11426389
21	0x3c063ed9	0.008193695
22	0x3dfd04e5	0.12354449
23	0x3dddaf86	0.10824494
24	0xbd2bd535	-0.041951377
25	0xbbabd7b3	-0.005244219
26	0xbdce9ec5	-0.10088877
27	0xbe48f0de	-0.19623134
28	0xbcb5af51	-0.022178324
29	0x3e24566f	0.16048597
30	0x3d63cde9	0.055616293
31	0x3c972bc7	0.018453492

layers.0.wfx.k_weight f4 [1, 32]
0	0xbce0924d	-0.027413512
1	0xbe1d1f32	-0.15343931
2	0x3d2f7feb	0.0428466
3	0x3e260059	0.1621107
4	0x3cb3a0f2	0.02192733
5	0x3e3dcfbf	0.1853628
6	0xbd2b6682	-0.041845806
7	0x3dc6e6fc	0.097120255
8	0x3df0e450	0.11762297
9	0xbdcf781a	-0.101303294
10	0x3b9a9e95	0.0047186115
11	0x3d1f17fd	0.038841236
12	0x3cc50f09	0.02405502
13	0x3e1c3ba2	0.15257123
14	0x3e0120b8	0.12610137
15	0x3e5a2cd1	0.21306159
16	0x3da8323d	0.08212707
17	0xbd24f3d8	-0.04027161
18	0xbbaf3d95	-0.0053479173
19	0xbd5e9cff	-0.054348942
20	0xbd66f906	-0.05638983
21	0xbdab43bf	-0.08362531
22	0xbc5b1979	-0.013372772
23	0x3df09798	0.11747664
24	0x3e4a643f	0.19764803
25	0x3db042ea	0.08606513
26	0x3cbc9939	0.023022281
27	0x3e02aac9	0.12760462
28	0xbe0377b7	-0.12838636
29	0x3c79e74c	0.015252899
30	0xbdcca9a4	-0.09993294
31	0xbe3f404e	-0.18676874

layers.0.wfx.bias f4 [128]
0	0xbf58fa53	-0.84756964
1	0xbf383424	-0.7195456
2	0xbf36b1c2	-0.71364987
3	0xbf85271e	-1.0402563
4	0xbed418c0	-0.41425133
5	0xbf402f1f	-0.750719
6	0xbf08a35a	-0.53374255
7	0xbe81513f	-0.25257298
8	0xbe2efbb8	-0.1708821
9	0xbe8c5151	-0.2740579
10	0xbf0a9979	-0.5414043
11	0xbf1d36a9	-0.6141153
12	0xbf900bdd	-1.125362
13	0xbf342f75	-0.70384914
14	0xbe5b63e9	-0.21424831
15	0xbf2b57cb	-0.66930836
16	0xbf644dd3	-0.8918125
17	0xbdbb7f50	-0.09155142
18	0xbe7814f1	-0.24226739
19	0xbf02024f	-0.5078477
20	0xbd1d20da	-0.038361408
21	0xbce7cebe	-0.028296825
22	0xbe32761e	-0.1742787
23	0xbf0e77ee	-0.5565175
24	0xbf350c58	-0.7072196
25	0xbf282ed3	-0.6569645
26	0xbe09a3ee	-0.1344144
27	0xbe08c2cc	-0.13355559
28	0xbf6ed0ca	-0.93287337
29	0xbf6ef6ad	-0.9334515
30	0x3dd8507c	0.10562226
31	0xbf1bc4eb	-0.6084735
32	0xbf31e8da	-0.6949593
33	0xbf031e74	-0.5121834
34	0xbf1e841d	-0.6192034
35	0xbf96fc76	-1.1795795
36	0xbec7b03c	-0.39001644
37	0xbf6d0f3c	-0.9260137
38	0xbf118604	-0.56845117
39	0xbe057082	-0.130312
40	0xbe4d078a	-0.20022407
41	0xbe5cbb15	-0.21555741
42	0xbe5d151f	-0.21590088
43	0xbec2a6c9	-0.38017872
44	0xbf838a6d	-1.0276619
45	0xbeedd446	-0.46451014
46	0xbd4935c3	-0.049123537
47	0xbf37d5ef	-0.7181081
48	0xbeee593d	-0.46552458
49	0xbf2c7973	-0.67372817
50	0xbef35a6f	-0.47529933
51	0xbea25ab4	-0.31709826
52	0xbc7f5d22	-0.015586169
53	0xbd259412	-0.040424414
54	0xbd914c9f	-0.070946924
55	0xbf82d9f9	-1.022277
56	0xbf5d4490	-0.86432743
57	0xbed31d68	-0.41233373
58	0xbae49e5c	-0.0017442214
59	0xbde0ed27	-0.10982733
60	0xbf3a532a	-0.7278315
61	0xbf826d35	-1.0189577
62	0xbd40f7e3	-0.047111403
63	0xbe274a13	-0.16336851
64	0xbf1c9436	-0.6116365
65	0xbf2a4858	-0.6651664
66	0xbf38218c	-0.7192619
67	0xbf736a02	-0.9508363
68	0xbef79f0e	-0.48363537
69	0xbf90df58	-1.1318159
70	0xbf570ead	-0.8400677
71	0xbdb50e9e	-0.08840679
72	0xbd813e39	-0.06310696
73	0xbdca449c	-0.098763674
74	0xbeec0989	-0.46101025
75	0xbf6de9f2	-0.929351
76	0xbf85fa10	-1.0466938
77	0xbf6ecdac	-0.9328258
78	0xbe83ff27	-0.25780603
79	0xbf3f561e	-0.7474078
80	0xbf71ae18	-0.9440627
81	0xbdfbb26f	-0.12289893
82	0xbec46017	-0.3835456
83	0xbe8d015f	-0.2754011
84	0x3d77ddd5	0.06051429
85	0x3d1fd83c	0.039024577
86	0xbfa7b276	-1.3101337
87	0xbefbe4a5	-0.4919788
88	0xbf2ee192	-0.68312943
89	0xbf82be4f	-1.0214328
90	0xbcd5878b	-0.026065608
91	0xbe51357e	-0.20430562
92	0xbf910b23	-1.1331524
93	0xbf77bc0e	-0.96771324
94	0xbd41e14d	-0.047334004
95	0xbe3ac085	-0.18237503
96	0xbf0335af	-0.5125379
97	0xbedbfbe7	-0.42965624
98	0xbf55602b	-0.83349866
99	0xbf7e8842	-0.9942666
100	0xbef916ed	-0.48650303
101	0xbf3d9d80	-0.7406845
102	0xbf14292f	-0.5787534
103	0xbcfa29a2	-0.03053743
104	0xbe262b56	-0.16227469
105	0xbe327010	-0.17425561
106	0xbf002cb1	-0.50068194
107	0xbf396a65	-0.7242797
108	0xbf5d367c	-0.8641126
109	0xbf4cadb1	-0.7995253
110	0xbd20ca68	-0.03925553
111	0xbf2ea239	-0.6821628
112	0xbf2eec21	-0.68329054
113	0xbed437f7	-0.41448948
114	0xbf058af1	-0.5216513
115	0xbe3c8796	-0.18411097
116	0xbe88b460	-0.26700115
117	0xbd96f9bd	-0.073718525
118	0xbf3d26ee	-0.73887527
119	0xbf1b0a07	-0.60562176
120	0xbf85a888	-1.0442057
121	0xbf02fe33	-0.5116913
122	0x3c89e149	0.016831057
123	0xbda2c1d3	-0.07947125
124	0xbf8e55c2	-1.1119921
125	0xbf848a80	-1.0354767
126	0xbe88aa35	-0.26692358
127	0xbead4776	-0.33843583

layers.0.ufh.r_weight f4 [32, 32]
0	0xbe3a4aea	-0.1819264
1	0x3ddb0828	0.10694915
2	0xba9eb924	-0.001210962
3	0x3c9d57f1	0.019206973
4	0xbdb9ad52	-0.09066261
5	0xbe921dca	-0.28538352
6	0x3e2bf1a7	0.16791402
7	0x3e4ac581	0.19801904
8	0x3ccd7a0c	0.02508261
9	0x3dd76391	0.10517038
10	0xbd61e851	-0.055153195
11	0x3df2a8ec	0.118486255
12	0xbde6e674	-0.11274424
13	0xbdfcf1e9	-0.12350828
14	0xbe8d1732	-0.2755676
15	0xbe1bf0c1	-0.15228559
16	0xbe31bc9a	-0.17357102
17	0x3e0a907e	0.13531682
18	0xbe6055d1	-0.21907736
19	0xbe5f29aa	-0.21793237
20	0x3d3003a5	0.042972226
21	0x3cc6b505	0.024256239
22	0x3e1299bb	0.14316456
23	0xbe7e2268	-0.24817812
24	0x3cfd355a	0.03090923
25	0xbc1196ff	-0.008886098
26	0xbc9ffaef	-0.019528834
27	0x3e97e87e	0.29669565
28	0x3e44395c	0.19162506
29	0xbc8f2b77	-0.01747678
30	0x3e407057	0.18792854
31	0x3d2f877f	0.04285383
32	0xbe335397	-0.17512356
33	0x3dd6c8a3	0.10487487
34	0xbded27a3	-0.11579826
35	0xbe101755	-0.140714
36	0x3e847599	0.2587097
37	0xbd83642f	-0.06415593
38	0xbe28464a	-0.16433063
39	0xbe50fea9	-0.20409645
40	0x3e1ab922	0.15109685
41	0xbe55e5cf	-0.20888446
42	0xbdc18c22	-0.09450556
43	0x3e964363	0.29348287
44	0x3e1eb584	0.1549893
45	0x3cf3dc4b	0.02976813
46	0xbeadd9b3	-0.33955154
47	0x3e0ccf90	0.13751054
48	0x3df0e34c	0.117621034
49	0x3c36f6cd	0.01116724
50	0x3e020431	0.12696911
51	0x3d5599be	0.052148573
52	0x3db19eeb	0.08672889
53	0xbd9b6aa5	-0.075887
54	0xbc9da18d	-0.019242072
55	0x3dd246ed	0.10267434
56	0xbde84ce6	-0.11342792
57	0xbe3e1f4e	-0.1856663
58	0xbdeac457	-0.1146323
59	0x3e969f96	0.2941863
60	0x3b9702f6	0.0046085073
61	0xbe19681d	-0.14981122
62	0xbdea873e	-0.11451577
63	0x3c8531f9	0.01625918
64	0xbcda73de	-0.026666578
65	0x3d88d62e	0.066814765
66	0x3cb07bc3	0.02154339
67	0x3c81eca2	0.015859906
68	0xbd8d378d	-0.06895361
69	0xbe2c69a4	-0.16837174
70	0x3c803af0	0.015653104
71	0xbdef43aa	-0.11682828
72	0xbd5597d1	-0.052146737
73	0x3e627086	0.22113237
74	0x3d71dd94	0.059049204
75	0x3ba295d1	0.004961707
76	0xbcafc888	-0.021457925
77	0xbba35129	-0.0049840403
78	0xbe6cf7d4	-0.23141414
79	0x3e103f32	0.14086607
80	0x3dc96928	0.0983451
81	0xbd634488	-0.05548528
82	0x3e65a00d	0.22424336
83	0xbded8765	-0.1159809
84	0x3e289e0f	0.16466545
85	0x3dcc96f7	0.09989732
86	0x3e5676eb	0.20943801
87	0xbd4ca1ac	-0.04995887
88	0x3d6f0554	0.05835469
89	0x3d08f5e0	0.03343761
90	0x3cfa44c0	0.03055036
91	0x3db49e60	0.0881927
92	0xbc577437	-0.013150266
93	0x3d25e045	0.040497083
94	0x3c86a32e	0.016435232
95	0x3ca72e78	0.0204079
96	0xbe375235	-0.17902453
97	0xbe0c081f	-0.13674973
98	0x3db5f08a	0.0888377
99	0x3e32e6b9	0.17470826
100	0xbe95ccbf	-0.2925777
101	0x3e4e7cab	0.20164745
102	0xbdb53235	-0.08847467
103	0xbca77733	-0.02044258
104	0x3df6de74	0.12054148
105	0x3e44544d	0.19172783
106	0x3e266ac5	0.16251667
107	0x3d1f01ff	0.038820263
108	0x3ddccd7a	0.10781379
109	0x3e0c8178	0.13721263
110	0x3d13d6e9	0.036093626
111	0x3c4abae4	0.01237366
112	0x3e4147f8	0.1887511
113	0xbd5f3c27	-0.054500725
114	0x3daa7036	0.08322184
115	0x3dc1d5e8	0.094646275
116	0x3df397e5	0.11894206
117	0x3dcd6f40	0.10030985
118	0x3dbddcd5	0.09270636
119	0x3e370892	0.17874363
120	0x3e41d46e	0.18928692
121	0x3c7c3f40	0.015395939
122	0xbe697a5a	-0.2280058
123	0xbea6d17d	-0.32581702
124	0xbd9ce02f	-0.07659947
125	0xbe26d504	-0.16292197
126	0x3c43271f	0.011911183
127	0x3e494166	0.19653854
128	0xbe011eb6	-0.12609372
129	0x3e4be55c	0.19911712
130	0x3dba9182	0.09109785
131	0x3ddf525c	0.10904381
132	0xbcec4694	-0.028842248
133	0xbd712347	-0.058871534
134	0x3e0ba60d	0.13637562
135	0xbd15af44	-0.0365441
136	0xbd5e73bc	-0.05430959
137	0x3cf5947d	0.029978031
138	0xbdb369e8	-0.087604344
139	0xbdabb367	-0.08383828
140	0x3d495f6f	0.04916328
141	0xbcf52922	-0.02992684
142	0x3de05c41	0.10955096
143	0x3caa7dd2	0.020811949
144	0x3e2b76e9	0.1674458
145	0x3e13e6e9	0.14443554
146	0x3d422cef	0.047406133
147	0xbb3579ad	-0.0027690933
148	0xbea190d0	-0.31555796
149	0xbe3c3a89	-0.18381704
150	0x3daf7d37	0.08568805
151	0xbe7824ad	-0.2423274
152	0xbdb86173	-0.09002962
153	0xbdfa2ca0	-0.12215543
154	0x3db9463f	0.090466015
155	0x3e67c643	0.22634225
156	0x3e382b99	0.17985381
157	0xbdd442a2	-0.10364272
158	0x3e179a72	0.1480501
159	0xbdbb40e8	-0.09143239
160	0xbdca12e0	-0.09866881
161	0x3e56c27e	0.2097263
162	0x3d9cee1f	0.076626055
163	0x3d71f543	0.05907179
164	0x3e781223	0.24225669
165	0x3dc8ba15	0.09801117
166	0x3d1aeece	0.0378254
167	0x3e127302	0.14301684
168	0x3caa55d1	0.020792874
169	0x3af4b299	0.0018668949
170	0xbe53a805	-0.20669563
171	0xbe20a3fb	-0.15687554
172	0x3dc6bcb7	0.09703963
173	0x3e4dfecc	0.20116729
174	0x3dabfa9c	0.08397409
175	0x3df7ba0b	0.12096032
176	0x3e66260d	0.22475453
177	0x3e1b5bbc	0.15171713
178	0xbbef5b0c	-0.007304555
179	0xbe00e284	-0.12586409
180	0x3ce34f02	0.027747635
181	0xbcc9436b	-0.02456828
182	0xbd967922	-0.07347323
183	0xbe0828bc	-0.13296789
184	0x3e34b374	0.17646581
185	0x3d01ad32	0.031659313
186	0x3e6c8324	0.23096901
187	0x3e6e07cb	0.2324516
188	0x3d7c787e	0.061638348
189	0xbe35d778	-0.17757976
190	0xbcd5dc6e	-0.026106086
191	0xbe48fffe	-0.19628903
192	0xbe2fe42e	-0.17176887
193	0xbdba2838	-0.09089702
194	0x3ea03188	0.3128779
195	0x3ba2b966	0.004965949
196	0xbd1f7a99	-0.038935278
197	0xbcaa02e0	-0.020753324
198	0x3e2783c1	0.16358854
199	0x3e051825	0.12997492
200	0x3e26f2e4	0.16303593
201	0x3d8dd578	0.069254816
202	0xbe0d190b	-0.13779084
203	0x3e46a6f1	0.1939962
204	0xbd484cba	-0.048901297
205	0x3dd4ede3	0.10396936
206	0x3e11a95e	0.14224765
207	0x3df7295b	0.12068435
208	0x3dc751aa	0.09732373
209	0x3d8be00a	0.068298414
210	0xbda8f493	-0.08249774
211	0x3d59ffeb	0.053222578
212	0x3e8afed9	0.27147558
213	0x3dc1a88b	0.09455975
214	0xba176e63	-0.0005776642
215	0xbe455cea	-0.19273725
216	0x3dda7f8d	0.1066886
217	0xbe17bb76	-0.14817604
218	0xbd485acb	-0.048914712
219	0xbd9ce61b	-0.07661077
220	0x3cc20411	0.02368358
221	0xbb92e846	-0.0044832556
222	0x3d55eb8b	0.052226584
223	0xbdc64d58	-0.09682721
224	0xbe2c8a85	-0.16849716
225	0xbe6074b0	-0.21919513
226	0x3e94284c	0.28936994
227	0x3debc9b0	0.11513078
228	0xbdb587d9	-0.088638015
229	0x3d9217ef	0.07133471
230	0x3d83e226	0.06439619
231	0x3e43f3a9	0.19135918
232	0xbc4af743	-0.012388053
233	0xbe4fb681	-0.20284463
234	0x3e0f5864	0.13998562
235	0x3e397c75	0.18113883
236	0x3e2d5991	0.16928698
237	0xbcc0eabd	-0.023549432
238	0xbda30238	-0.079594076
239	0x3dcdf673	0.10056772
240	0xbe07e546	-0.13271055
241	0x3e265a44	0.16245371
242	0x3d5f3c60	0.054500937
243	0xbdb96424	-0.090523034
244	0x3deb82a3	0.11499526
245	0x3dbcc6b8	0.0921759
246	0x3e4c9f33	0.19982605
247	0xbc7745ee	-0.015092356
248	0xbd88bfa1	-0.06677175
249	0x3d829da8	0.06377727
250	0xbea2ffd3	-0.31835803
251	0x3e118f79	0.14214887
252	0xbd03bbd9	-0.032161567
253	0x3dd2f20d	0.10300074
254	0xbe974a8e	-0.29549068
255	0xbea64488	-0.3247416

layers.0.ufh.i_weight f4 [32, 32]
0	0x3d89394a	0.0670038
1	0x3e090441	0.13380529
2	0xbdc03fba	-0.09387155
3	0xbd8479b7	-0.06468528
4	0xbc85fdd2	-0.016356383
5	0x3d57507b	0.052566987
6	0xbd034658	-0.032049507
7	0x3d824de6	0.06362514
8	0x3caf694d	0.021412516
9	0xbd32199c	-0.043481454
10	0xbb97815a	-0.004623574
11	0xba8a1b54	-0.0010536709
12	0x3d23779f	0.039909
13	0xbd00139f	-0.031268712
14	0xbe8fdef7	-0.28099796
15	0x3d1b0112	0.037842818
16	0x3d10456c	0.035222456
17	0xbe55b2f8	-0.20869052
18	0xbce83f77	-0.028350575
19	0x3c83034f	0.015992789
20	0x3dbaf988	0.091296256
21	0xbd636077	-0.055511918
22	0x3ce36fcd	0.027763272
23	0xbcf1219b	-0.02943497
24	0xbb42383f	-0.0029635576
25	0xbe0774e4	-0.13228184
26	0x3c3123ba	0.0108117405
27	0x3bc31dda	0.0059544863
28	0xbc8a1671	-0.016856404
29	0xbd7c4055	-0.06158479
30	0xbcb7c4e2	-0.022432748
31	0x3dffe9b2	0.12495746
32	0x3c7c873e	0.015413104
33	0xbdfb1f40	-0.1226182
34	0x3c7c4459	0.015397155
35	0x3e143053	0.14471559
36	0x3d0a3e9d	0.03375112
37	0x3da6cd32	0.08144607
38	0x3e414fcd	0.18878098
39	0x3d76c167	0.060243037
40	0x3d92ce6d	0.07168279
41	0xbe800110	-0.2500081
42	0xbc84eacb	-0.01622524
43	0x3d2182df	0.03943145
44	0x3dbde965	0.09273032
45	0x3dcb5ac3	0.09929421
46	0xbdc04e3d	-0.09389923
47	0x3d6629be	0.056192152
48	0x3dfc5cd6	0.123223945
49	0x3d1bdea1	0.038054112
50	0x3cc39583	0.023875004
51	0xbe1bfe91	-0.15233828
52	0xba0a95cd	-0.0005286604
53	0xbd9fd640	-0.07804537
54	0xbe11e2da	-0.14246693
55	0x3e061346	0.1309329
56	0x3e1c7240	0.15277958
57	0xbb12104b	-0.0022287543
58	0x3d1f72fc	0.038928017
59	0xbd1aa7b7	-0.0377576
60	0x3de17007	0.11007696
61	0x3d414f7e	0.04719495
62	0x3d8a76a7	0.067609124
63	0x3dd51850	0.10405028
64	0x3d837222	0.064182535
65	0xbde308bc	-0.1108565
66	0xbdedce49	-0.116116114
67	0x3d355fbf	0.044280764
68	0xbd88d8ff	-0.06682014
69	0xbd0d78dc	-0.03453909
70	0xbd9b3383	-0.075781845
71	0xbe2c44e0	-0.16823149
72	0x3d8b5a76	0.068043634
73	0xbd877fc3	-0.066161655
74	0xbe0ee03d	-0.13952728
75	0x3d30512c	0.04304616
76	0x3d9cf48e	0.076638326
77	0xbdc41879	-0.0957498
78	0xbd6e1e19	-0.058134172
79	0xbcbdce1d	-0.023169572
80	0xbd9809eb	-0.07423767
81	0x3d82f3fc	0.063941926
82	0x3d7cc8f8	0.061715096
83	0xbccc3725	-0.024928639
84	0x3d1b53b3	0.03792162
85	0xbcc5fd98	-0.024168774
86	0xbd0350e8	-0.03205958
87	0x3d331015	0.04371651
88	0x3d3114d0	0.04323274
89	0x3df2ded9	0.11858911
90	0xbdcb7da4	-0.099360734
91	0x3dd86b27	0.10567313
92	0x3d0749b0	0.03302926
93	0xbcc03e7c	-0.023467295
94	0xbde3b025	-0.11117581
95	0xbe2f25e6	-0.17104301
96	0x3d83662f	0.06415974
97	0x3e026c88	0.12736714
98	0x3d52d083	0.051468384
99	0xbc530869	-0.012880423
100	0x3bda0976	0.00665396
101	0xbd9efea5	-0.07763413
102	0x3e77e48a	0.24208274
103	0x3d78100c	0.06056218
104	0x3e38561c	0.18001598
105	0x3cc6c532	0.024263952
106	0xbd9c46a4	-0.07630661
107	0x3dd646d6	0.1046273
108	0xbcec71e0	-0.028862894
109	0xbd0300ba	-0.031983115
110	0x3e315fef	0.17321752
111	0x3d8bce35	0.0682644
112	0x3abae5a5	0.0014259113
113	0x3df3a729	0.11897118
114	0x3c4d6a7f	0.012537598
115	0x3e691f58	0.22765863
116	0xbc34db8f	-0.011038675
117	0x39b85778	0.00035160384
118	0x3da6dd0b	0.08147629
119	0x3dc6ce37	0.09707301
120	0x3c55337a	0.013012761
121	0xbc9d48e1	-0.01919979
122	0x3d93aae4	0.07210329
123	0x3e1a4cd9	0.15068378
124	0x3cdd371d	0.02700382
125	0xbc19a0f5	-0.009376754
126	0xbbc58c18	-0.0060286634
127	0x3dd89660	0.10575557
128	0x3d10abef	0.03532022
129	0x3e8e236a	0.27761394
130	0x3c5731e2	0.013134452
131	0x3e0fc762	0.14040902
132	0x3d31ddfd	0.043424595
133	0x3b64bcb8	0.0034902524
134	0x3b1db9a5	0.0024066952
135	0x3e2811c9	0.16413034
136	0x3d069e08	0.032865554
137	0x3e991b18	0.29903483
138	0x3e895aad	0.26826993
139	0x3b6eeedd	0.0036458292
140	0xbd689340	-0.056781054
141	0x3e07c57b	0.13258927
142	0x3e8bc3b0	0.27297735
143	0xbe1f77c5	-0.15573032
144	0x3dd523a8	0.104071915
145	0x3db7e099	0.089783855
146	0xbd719649	-0.058981214
147	0x3d81e40c	0.063423246
148	0xbe3192bd	-0.17341132
149	0x3d86edcf	0.06588327
150	0xbd5406dd	-0.051764358
151	0x39f1ef0c	0.00046145206
152	0x3a364f83	0.0006954597
153	0xba05f979	-0.00051107217
154	0x3d790a18	0.06080064
155	0x3c1e9331	0.009678648
156	0x3d375034	0.044754222
157	0x3d1e5f5e	0.038665168
158	0x3e27f7e3	0.16403155
159	0x3e6ba0ee	0.23010609
160	0x3b349b83	0.0027558513
161	0x3ac7645f	0.0015212408
162	0xbdc76a08	-0.09737021
163	0xbe01f82b	-0.12692325
164	0x3bd21e53	0.0064123063
165	0x3d48e16b	0.0490431
166	0x3d4fc4d9	0.050724838
167	0xbd5114d7	-0.051045265
168	0x3e67a9c8	0.2262336
169	0xbbc6b79e	-0.0060643693
170	0x3cfa1527	0.030527664
171	0x3e3520de	0.17688319
172	0x3c8ebc4a	0.017423768
173	0x3de326c3	0.110913776
174	0xbe1bbeca	-0.15209499
175	0xbe2861b7	-0.16443525
176	0x3c9b4f1e	0.018958624
177	0xbd7d81d8	-0.061891407
178	0x3df74162	0.12073018
179	0xbcff0945	-0.03113235
180	0x3d890449	0.066902705
181	0xbe12ee3f	-0.14348696
182	0xbe00f4b3	-0.12593345
183	0x3bcbdd19	0.0062214253
184	0x3ddd0231	0.107914336
185	0x3c6e2708	0.014535673
186	0x3ca2217e	0.019791361
187	0xbdef3611	-0.11680234
188	0xbd8ad9ed	-0.06779847
189	0x3d9137d8	0.070907295
190	0xbd4a8dea	-0.049451746
191	0xbd7666ba	-0.06015656
192	0xbd0157ef	-0.031578
193	0xbc361af3	-0.011114824
194	0xb7ec5377	-2.8172259e-05
195	0xbcec361a	-0.028834391
196	0xbcad465d	-0.021151716
197	0x3cc849b4	0.024449207
198	0x3dd1d284	0.10245231
199	0x3bda63a7	0.0066647115
200	0xbd5464d3	-0.051853966
201	0x3e396897	0.18106304
202	0x3d35e27b	0.04440544
203	0xbc8ccf61	-0.01718873
204	0xbe064667	-0.13112794
205	0x3d3c7ab1	0.046015445
206	0xbe9a64af	-0.3015494
207	0x3c8191fc	0.015816681
208	0x3dbd6d2e	0.0924934
209	0xbdb6038b	-0.088873945
210	0x3b333c93	0.0027349337
211	0xbd88b1ea	-0.066745594
212	0xbe45382c	-0.19259709
213	0xbc5faa3f	-0.01365143
214	0xbddb74c9	-0.107156344
215	0xbd377957	-0.044793453
216	0x3e839bdb	0.25704846
217	0xbd9bcb2b	-0.076071106
218	0x3dd78368	0.10523111
219	0x3d72f06b	0.05931131
220	0xbd91fab6	-0.071278974
221	0xbd91888c	-0.071061224
222	0x3dfee058	0.12445134
223	0x3e024e5f	0.12725209
224	0x3e06507b	0.13116638
225	0x3e1c425f	0.15259694
226	0xbb64b83d	-0.0034899854
227	0xbd19af61	-0.03752077
228	0x3dc5f83c	0.096664876
229	0x3e118166	0.14209518
230	0x3d76de3c	0.060270533
231	0x3e39d582	0.18147853
232	0xbdaef26d	-0.08542333
233	0x3b8ca34f	0.004291929
234	0x3dda422e	0.10657154
235	0xbcbae6ea	-0.022815187
236	0x3b87ccbb	0.004144279
237	0xbd461cdd	-0.04836737
238	0x3d3a0eb2	0.04542417
239	0xbd3a3d7b	-0.04546879
240	0x3d3b661a	0.04575167
241	0x3d9cf65a	0.07664175
242	0xbd37f2d8	-0.04490933
243	0xbe1d0a8b	-0.15336053
244	0xbdf19ab0	-0.117970824
245	0x3c22a02b	0.009925882
246	0xbe30ab38	-0.17252815
247	0x3dbe434c	0.092901796
248	0x3d5eff90	0.054442942
249	0xbd8a8f4a	-0.067656115
250	0x3d80a20a	0.062809065
251	0xbbe06a8f	-0.0068486403
252	0x3d1de619	0.038549516
253	0x3d90c126	0.0706809
254	0x3e2f9ba8	0.17149222
255	0x3d4a1e88	0.049345523

layers.0.ufh.j_weight f4 [32, 32]
0	0x3d721179	0.059098694
1	0xbc83df57	-0.016097708
2	0xbe4f97ab	-0.202727
3	0x3d422d19	0.04740629
4	0xba4e1404	-0.0007861259
5	0xbc0c21b9	-0.008552962
6	0xbd964aa0	-0.07338452
7	0xbdf65676	-0.1202821
8	0xbdd10fc2	-0.10208084
9	0xbc32e753	-0.01091941
10	0xbd3575ac	-0.044301674
11	0x3b4223b1	0.0029623325
12	0x3e685863	0.22689967
13	0xbdc386ce	-0.09547196
14	0x3bf283ab	0.00740095
15	0x3c2d61cd	0.0105824
16	0xbb075736	-0.0020651347
17	0x3e1d44f8	0.1535834
18	0xbd2ab0f1	-0.04167265
19	0x3d6baa5e	0.05753552
20	0x3c858a7d	0.016301388
21	0xbe1ba030	-0.15197825
22	0x3dd38de1	0.10329796
23	0xbc2b2113	-0.010444897
24	0x3d237ae8	0.039912134
25	0x3ca68038	0.020324811
26	0xbd07630e	-0.03305345
27	0xbd72aee2	-0.059248812
28	0xbcb59ac8	-0.022168532
29	0xbcb97672	-0.022639487
30	0x3d919191	0.07107843
31	0xbdb0b4a6	-0.08628206
32	0xbd08d61a	-0.03340731
33	0xbd813d40	-0.06310511
34	0xbe96b18f	-0.2943234
35	0xbe128f41	-0.1431246
36	0xbe1f5f2f	-0.15563653
37	0x3e2b8316	0.16749224
38	0xbcad6da4	-0.021170445
39	0xbe0423a0	-0.12904215
40	0x3d7c2b33	0.061564635
41	0xbe2923e8	-0.16517603
42	0x3d3199dd	0.043359626
43	0xbcc82866	-0.024433326
44	0xbcb23135	-0.02175198
45	0xbdf2445c	-0.11829445
46	0xbec10f35	-0.37706915
47	0xbdf50083	-0.11962988
48	0xbd519288	-0.051165134
49	0xbe1b89b9	-0.15189256
50	0xbb6f7246	-0.0036536618
51	0xbc90ca6c	-0.017674647
52	0x3df051a3	0.11734321
53	0xbc34d2ae	-0.011036558
54	0x3dd94a35	0.10609857
55	0x3de32aec	0.11092171
56	0xbddfaf6f	-0.10922133
57	0x3e4c0de5	0.19927175
58	0xbe130d49	-0.14360537
59	0xbdc72266	-0.09723358
60	0x3e1938f9	0.1496314
61	0xbe54cc65	-0.20781095
62	0xbda35acf	-0.07976305
63	0xbd8e1808	-0.06938177
64	0xbdd03ab5	-0.101674475
65	0xbe424837	-0.1897286
66	0xbd8cee79	-0.068814225
67	0xbc3aa897	-0.011392734
68	0xbdad2d64	-0.08455923
69	0xbd5841af	-0.052797016
70	0xbd97dc29	-0.07415039
71	0xbe074b8e	-0.13212416
72	0xbdcf4d79	-0.101221986
73	0xbd1fa6ce	-0.038977437
74	0xbe0e7bab	-0.13914363
75	0xbdc78262	-0.097416654
76	0xbdd8da01	-0.10588456
77	0xbd8ee5f7	-0.06977456
78	0x3e2713fd	0.16316219
79	0xbd071c30	-0.032985866
80	0xbe1e86c0	-0.1548109
81	0xbda7f742	-0.082014576
82	0x3d1d0562	0.03833521
83	0xbcc7ebfd	-0.02440452
84	0xbd8e403a	-0.06945844
85	0x3ad55c53	0.0016278125
86	0x3d202bdb	0.039104324
87	0x3d23b68a	0.039969005
88	0xbd0b240b	-0.03396992
89	0xbc73d348	-0.014881916
90	0xbd77df86	-0.060515903
91	0xbdb8bee4	-0.090207845
92	0xbe1b5c16	-0.15171847
93	0x3e24a5e8	0.16078913
94	0x3c38038c	0.011231314
95	0xbd0d4f2b	-0.03449933
96	0x3deb3711	0.114851125
97	0x3e29ad54	0.16570026
98	0x3d1dd4c3	0.038532984
99	0x3d9209cc	0.07130775
100	0xbe02baad	-0.12766524
101	0xbca29480	-0.019846201
102	0xbe012719	-0.12612571
103	0x3d912d23	0.07088687
104	0xbd18a9b6	-0.037271224
105	0x3d9b250c	0.075754255
106	0x3d727f9f	0.05920374
107	0x3d8dabb3	0.06917515
108	0xbd79d83c	-0.060997233
109	0x3d6271e2	0.05528439
110	0x3dd52e21	0.10409189
111	0xbe139fde	-0.14416453
112	0xbd23f504	-0.040028587
113	0x3da64b4b	0.0811983
114	0x3d2ec088	0.04266408
115	0x3dca7856	0.098862335
116	0xbe3c30af	-0.18377946
117	0x3af9cd0c	0.0019058301
118	0xbd913151	-0.070894845
119	0xbda257c6	-0.07926898
120	0xbb046477	-0.0020201483
121	0xbcdfadd1	-0.027304562
122	0xb94ddc5e	-0.00019632417
123	0x3cce690d	0.025196576
124	0x3cd069a7	0.025441004
125	0x3d270e3a	0.040785052
126	0x3d43bc01	0.047786716
127	0xbdc7a7dc	-0.097488135
128	0x3b5b1c00	0.0033433437
129	0x3c16f14c	0.009212803
130	0x397dd40a	0.00024206951
131	0x3cdeedcc	0.027213
132	0x3d967a99	0.073476024
133	0x3e7e5d74	0.24840337
134	0x3db4e0c7	0.088319354
135	0xbcd125b5	-0.025530675
136	0xbe15ec1b	-0.14640848
137	0xbd3acd74	-0.04560609
138	0xbd730831	-0.059333984
139	0x3c99b378	0.018762335
140	0xbe00528f	-0.12531494
141	0x3e0128a4	0.1261316
142	0xbe015398	-0.12629545
143	0xbcf43f0e	-0.029815223
144	0x3d45713d	0.048203696
145	0xbd800bb4	-0.06252232
146	0xbc05d389	-0.00816811
147	0xbb62cf1e	-0.0034608315
148	0xbe7ec11b	-0.24878351
149	0xbb969a39	-0.0045960215
150	0xbda312ac	-0.07962546
151	0xbb61a0c6	-0.0034428104
152	0xbcac2334	-0.02101288
153	0xbe696b00	-0.22794724
154	0x3cfa20e5	0.030533263
155	0x3d1e3dde	0.03863322
156	0xbd467231	-0.048448745
157	0x3d9c8f1b	0.07644483
158	0xbd20aac6	-0.039225362
159	0x3e067bb3	0.13133125
160	0x3d705dd0	0.058683217
161	0xbdd0e6e9	-0.102002926
162	0xbc9f3441	-0.019434096
163	0xbd254006	-0.04034426
164	0x3e01873a	0.12649241
165	0x3e29f45b	0.1659712
166	0xbb9ab878	-0.0047216974
167	0xbdc31ecf	-0.09527361
168	0x3c920054	0.017822422
169	0xbe6c96ce	-0.23104402
170	0xbd4bdbc1	-0.04977012
171	0xbd8e21b5	-0.06940023
172	0x3d09d6c8	0.033652097
173	0xbdbdaa66	-0.092610165
174	0xbea6da94	-0.32588637
175	0xbd8c2e05	-0.06844715
176	0x3dcf27f9	0.10115046
177	0xbce14338	-0.027497873
178	0x3b0a6fa5	0.0021123674
179	0xbdb9dbfa	-0.0907516
180	0x3e296f3b	0.16546337
181	0x3d4c3a6d	0.049860407
182	0xbd39702b	-0.045272987
183	0x3a99b1dd	0.0011725981
184	0x3d5cb782	0.053885944
185	0x3e2855ee	0.1643903
186	0xbea0bca8	-0.31393933
187	0xbe374022	-0.17895558
188	0xbdfbdd73	-0.122980975
189	0xbe223d4b	-0.15843694
190	0xbd0e6515	-0.034764368
191	0xbe6a5ecb	-0.22887723
192	0xbd1d9c23	-0.03847898
193	0xbc00f987	-0.007871992
194	0xbddb75d3	-0.107158326
195	0xbcb97b0a	-0.022641677
196	0xbc065c9f	-0.0082007935
197	0xbc12d481	-0.008961798
198	0x3dd4604b	0.10369929
199	0xbe67ee15	-0.22649415
200	0xbd21e0eb	-0.03952114
201	0xbd940930	-0.07228315
202	0xbd857cc6	-0.06517939
203	0xbac41c60	-0.001496207
204	0xbd826e76	-0.06368725
205	0x3d5a73d5	0.053333122
206	0xbd2c0e43	-0.04200579
207	0x3deee5e0	0.11664939
208	0x3e164f86	0.14678773
209	0xbdd790f2	-0.10525693
210	0xbd873a92	-0.06602968
211	0x3c2d3d0c	0.010573637
212	0x3c1037f6	0.008802405
213	0x3ce0460c	0.027377151
214	0xbc07d1ee	-0.008289797
215	0x3c35f9b1	0.011106894
216	0x3de31ab0	0.110890746
217	0x3d1c1ea5	0.038115162
218	0x3d9297fc	0.07157895
219	0x3cfb7f55	0.030700365
220	0xbbc26748	-0.0059327222
221	0x3da95dd1	0.08269847
222	0x3d636ada	0.055521823
223	0xbd108d49	-0.03529099
224	0x3d1c3f96	0.038146578
225	0x3d9091d3	0.07059064
226	0x3d01e0bf	0.031708475
227	0xbd681407	-0.056659725
228	0x3e1bd664	0.15218502
229	0x3dc73b39	0.09728093
230	0xbc592644	-0.013253752
231	0x3d588bd8	0.05286774
232	0xbc25d888	-0.010122426
233	0x3dfcd2f3	0.12344923
234	0xbd4159a4	-0.04720463
235	0x3e044b2d	0.12919302
236	0xbb5e7247	-0.0033942626
237	0xbcc296da	-0.023753572
238	0xbd2fa644	-0.042883173
239	0xbd457be8	-0.04821387
240	0xbd0f728b	-0.035021346
241	0x3d2c575e	0.042075507
242	0xbe2627ae	-0.16226074
243	0x3e131e59	0.14367045
244	0x3d6e141a	0.05812464
245	0x3d08c770	0.033393323
246	0xbd078abe	-0.0330913
247	0x3e18d3fd	0.14924617
248	0x3db169a2	0.08662726
249	0x3d15301c	0.036422834
250	0xbd761e4d	-0.06008749
251	0xbd8f87ac	-0.07008299
252	0x3e5a8cba	0.21342745
253	0x3d0dbccd	0.034603883
254	0x3e11e3a9	0.14247002
255	0x3e082f60	0.13299322

layers.0.ufh.k_weight f4 [32, 32]
0	0x3ddafd9a	0.10692902
1	0x3a1f5306	0.000607774
2	0x3d86956b	0.06571468
3	0x3e092234	0.13391954
4	0x3e08df2a	0.1336638
5	0xbd931c83	-0.071831726
6	0xbd2575f7	-0.040395703
7	0x3dbe1506	0.09281354
8	0x3de755c5	0.11295656
9	0x3dde8e25	0.10866956
10	0x3d9531bc	0.07284877
11	0x3d3c7f6a	0.04601995
12	0x3d30034d	0.042971898
13	0x3aaa1756	0.0012976925
14	0x3e07c886	0.13260087
15	0xbd1ef8d4	-0.03881152
16	0x3de8ad34	0.11361161
17	0xbe889488	-0.2667582
18	0x3d0114d4	0.031514004
19	0x3db99a68	0.09062654
20	0x3d412145	0.04715087
21	0xbdda9ff5	-0.10675041
22	0xbd1180eb	-0.035523336
23	0xbc6147d4	-0.013750035
24	0xbc877524	-0.01653535
25	0xbddad90b	-0.10685929
26	0x3d49fc2d	0.04931276
27	0xbdba8fcf	-0.091094606
28	0xbd4a577f	-0.04939985
29	0x3d1bdcb9	0.038052294
30	0xbc0278f5	-0.007963409
31	0xbca937d0	-0.020656496
32	0xbd269476	-0.040668927
33	0xbd4bf5b1	-0.049794856
34	0xbde028b5	-0.10945264
35	0xbd89bdda	-0.067256644
36	0x3e1187d0	0.14211965
37	0xbc377919	-0.0111983055
38	0xbddcba8a	-0.10777767
39	0x3d7c7105	0.06163122
40	0xbd303765	-0.04302158
41	0xbe8c8afe	-0.27449793
42	0xbd97319d	-0.0738251
43	0x3d463181	0.048387054
44	0x3d8810d7	0.06643837
45	0xbcb1ad3a	-0.021689046
46	0x3a88dd08	0.0010441849
47	0x3e005214	0.1253131
48	0x3d0871ab	0.033311527
49	0xbe277343	-0.16352563
50	0xbc938892	-0.018009458
51	0xbdaaf187	-0.08346849
52	0xbd5688b7	-0.052376475
53	0xbcd91da9	-0.0265034
54	0xbce9e712	-0.028552566
55	0xbd32a32b	-0.04361264
56	0x3d261822	0.04055036
57	0x3c1d1eb4	0.00958984
58	0xbd9af397	-0.07565992
59	0xbdf107f7	-0.11769097
60	0xbe24994d	-0.16074105
61	0x3d0bb061	0.034103755
62	0xbda14a50	-0.07875502
63	0xbe5bd308	-0.21467221
64	0x3caf7919	0.021420049
65	0x3dceffa3	0.101073526
66	0x3e30be30	0.17260051
67	0xb91b057c	-0.00014783995
68	0xbe2aa038	-0.16662681
69	0xbd8ed664	-0.069744855
70	0xbd320e92	-0.043470927
71	0x3dbc11ce	0.091830835
72	0x3e3079a2	0.17233899
73	0x3dcd179a	0.10014267
74	0x3e43cf76	0.19122109
75	0x3cac664f	0.021044878
76	0xbd9e3047	-0.07724052
77	0xbd09a1e8	-0.03360167
78	0x3d26fef3	0.040770482
79	0x3b3caf96	0.002879118
80	0xbe186b62	-0.14884713
81	0x3d9f3105	0.077730216
82	0xbb78eeee	-0.003798421
83	0x3d4f861a	0.050665
84	0xbe22952c	-0.15877217
85	0x3d738352	0.05945141
86	0x3debaa7f	0.11507129
87	0xbe4bb811	-0.19894435
88	0xbdc57ab1	-0.09642542
89	0xbd9c6c3b	-0.07637831
90	0xbd8f87be	-0.07008313
91	0x3dac3506	0.08408551
92	0xbcb359be	-0.021893378
93	0x3da59316	0.08084695
94	0x3e377e94	0.1791938
95	0x3e33db35	0.1756409
96	0x3cded118	0.027199313
97	0x3c6a92dd	0.0143172415
98	0xbe5ee18a	-0.21765724
99	0x3daa4491	0.08313859
100	0xbe2bc844	-0.16775614
101	0x3d83c8f6	0.06434815
102	0x3d28020f	0.04101759
103	0xbe3210ed	-0.17389269
104	0xbdea5bd1	-0.11443294
105	0xbc48e8f6	-0.0122625735
106	0xbe88adcf	-0.26695105
107	0x3decffdc	0.11572239
108	0xbd2cc3a3	-0.04217876
109	0x3caaf698	0.020869538
110	0xbe275ccf	-0.16343997
111	0xbd310811	-0.043220583
112	0x3d9b12b7	0.07571929
113	0xbce9c0a1	-0.028534235
114	0xbe130d32	-0.14360502
115	0xbc89023e	-0.016724702
116	0x3bfa2adf	0.007634505
117	0x3e073450	0.1320355
118	0x3c4804a7	0.01220814
119	0x3dc139af	0.094348304
120	0xbdb4ee66	-0.088345334
121	0x3d619df4	0.055082276
122	0xbdd873e9	-0.10568983
123	0x3e4da2bb	0.20081608
124	0xbd4fff3e	-0.050780527
125	0xbdb62146	-0.08893065
126	0x3bff61ec	0.0077936556
127	0xbbd293ff	-0.006426334
128	0xb8af3b8c	-8.355742e-05
129	0xbe0bfaf6	-0.13669953
130	0x3e6fdc67	0.2342392
131	0x3dcbca85	0.09950737
132	0xbc0c6a25	-0.008570229
133	0x3e0be486	0.13661394
134	0x3d258430	0.040409267
135	0x3d9d6a09	0.0768624
136	0xbc868807	-0.016422285
137	0x3d3b7250	0.045763314
138	0xbd488815	-0.048957903
139	0x3d771efc	0.060332283
140	0x3d915ecd	0.0709816
141	0x3dcca194	0.09991756
142	0x3c57403a	0.013137871
143	0x3c34bbc6	0.011031097
144	0x3cee601e	0.029098567
145	0xbe43c109	-0.19116606
146	0xbcc8f6db	-0.024531772
147	0xbdbaa816	-0.09114091
148	0x3daffdeb	0.08593353
149	0x3d5fffa5	0.05468716
150	0xbe14ba9c	-0.14524311
151	0x3e25194b	0.1612293
152	0x3d05f2a3	0.0327021
153	0xbc8c362d	-0.017115677
154	0x3e3bfc72	0.18358019
155	0xbe0055eb	-0.12532775
156	0x3e010741	0.12600423
157	0x3e2bace4	0.16765171
158	0xbc2e591c	-0.0106413625
159	0x3e3afc25	0.18260248
160	0x3dc4d0e2	0.09610154
161	0xbd409463	-0.047016513
162	0xbca1a908	-0.01973392
163	0xbd1a91ca	-0.03773669
164	0xbcbbf4e2	-0.022943918
165	0x3d9d449b	0.07679101
166	0x3d4c1724	0.049826756
167	0xbce02ca4	-0.027365036
168	0x3e4a865c	0.19777817
169	0x3c572e58	0.013133608
170	0x3d1bd49a	0.03804455
171	0xbc8486e6	-0.016177606
172	0x3df5e8b7	0.120072775
173	0x3da44d87	0.080226
174	0x3e11ed65	0.14250715
175	0x3d6610eb	0.056168478
176	0x3de4d84f	0.1117407
177	0xbd14a419	-0.03628931
178	0xbb45042e	-0.0030062306
179	0x3c56f013	0.013118762
180	0xbd97ef25	-0.0741866
181	0xbd5988ad	-0.05310886
182	0xbd0820b6	-0.03323432
183	0xbd899d9a	-0.06719513
184	0x3d729553	0.059224438
185	0x3d5986b9	0.053106997
186	0xbd95753c	-0.07297751
187	0xbdff6462	-0.124703184
188	0x3d3339d6	0.04375633
189	0xbd023313	-0.03178699
190	0xbccc1d4a	-0.02491631
191	0xbe014981	-0.12625696
192	0x3d8be966	0.068316266
193	0xbdeb4138	-0.11487049
194	0x3e097b2e	0.13425896
195	0x3be851b4	0.007089818
196	0x3da428aa	0.080155686
197	0x3ca3f32b	0.020013412
198	0xba39a6f1	-0.0007082066
199	0x3d281238	0.041033
200	0xbbb9b1a1	-0.005666927
201	0x3caed3be	0.0213412
202	0xbd667ea7	-0.05627313
203	0x3cbedd00	0.02329874
204	0x3e5bff73	0.21484165
205	0x3d990764	0.07472113
206	0xbe21fd55	-0.15819295
207	0x3c364ecd	0.011127186
208	0xbd404dd9	-0.04694924
209	0xbd458749	-0.04822472
210	0xbe2848b9	-0.16433991
211	0xbdb61beb	-0.08892044
212	0xbd9a609e	-0.075379595
213	0x3d31dbd5	0.04342254
214	0xbe68b8dd	-0.2272677
215	0x3d896e35	0.067104734
216	0xbe01155c	-0.12605804
217	0xbd863937	-0.065538816
218	0x3d84566a	0.06461795
219	0xbc6cb13a	-0.014446551
220	0xbdd4cb74	-0.10390368
221	0xbe7d3d79	-0.24730481
222	0xbdc84ff0	-0.09780872
223	0x3d11aee7	0.03556719
224	0x3e04b69b	0.12960283
225	0x3cadd09b	0.021217635
226	0xbdd18da7	-0.10232096
227	0xbd099ad6	-0.03359493
228	0xbe05ad17	-0.1305431
229	0x3e090a10	0.13382745
230	0x3dc1ae3a	0.09457059
231	0xbc2397b4	-0.009984899
232	0x3cd4fcdc	0.025999479
233	0xbda60bd9	-0.081077285
234	0x3dd38379	0.10327811
235	0xbe2a57b2	-0.16635016
236	0x3de77c39	0.113029905
237	0xbd4e2027	-0.05032363
238	0x3dd3b7c2	0.103377834
239	0x3def84e6	0.1169527
240	0x3e0341f0	0.12818122
241	0xbdaa6d00	-0.08321571
242	0xbdc08d3e	-0.0940194
243	0xba876f39	-0.001033283
244	0xbdbe22f5	-0.09284011
245	0x3d153951	0.036431614
246	0x3d86deb9	0.0658545
247	0x3e24db74	0.1609934
248	0x3dc832d3	0.09775319
249	0x3e05a608	0.13051617
250	0x3e5cda46	0.2156764
251	0x3dbf0e20	0.09328866
252	0x3d069ebe	0.032866232
253	0x3b88e44e	0.0041776067
254	0x3c877b26	0.016538214
255	0x3dfbdf2a	0.122984245

layers.0.wix.r_weight f4 [1, 32]
0	0x3d88e775	0.06684772
1	0x3e00668e	0.12539122
2	0xbe8a140e	-0.26968426
3	0x3e202c50	0.15641904
4	0xbe0be1c1	-0.13660337
5	0x3f363bfd	0.71185285
6	0x3c8f83fd	0.017518992
7	0xbeb062da	-0.34450418
8	0xbe570357	-0.20997368
9	0x3d97bd75	0.07409183
10	0xbe9bf89b	-0.30463108
11	0x3df23c2b	0.118278824
12	0xbe84e842	-0.2595845
13	0xbdf0c867	-0.11756974
14	0xbe72056f	-0.23634885
15	0xbe9f0486	-0.3105814
16	0x3f299094	0.66236234
17	0xbe773376	-0.24140725
18	0xbd99ee01	-0.07516099
19	0x3b808e75	0.003923232
20	0xbe8bf217	-0.27333137
21	0x3e0950b0	0.13409686
22	0xbdb42000	-0.08795166
23	0x3ceece00	0.029150963
24	0x3ddec122	0.10876681
25	0x3c2fed7c	0.010737773
26	0x3de6aad2	0.1126305
27	0xbe52820c	-0.20557421
28	0xbe748e94	-0.23882514
29	0xbca8f023	-0.020622319
30	0x3d3bfd1f	0.045895692
31	0x3df09509	0.11747176

layers.0.wix.i_weight f4 [1, 32]
0	0x3eb07322	0.3446284
1	0xbf3fd8ce	-0.7494019
2	0x3e1722d5	0.14759381
3	0xbdff1b67	-0.124563985
4	0xbdd1b1b1	-0.1023897
5	0xbe5e1028	-0.2168585
6	0x3de26be9	0.110557385
7	0xbd225c03	-0.03963853
8	0x3dbdfdb7	0.09276908
9	0x3d822016	0.06353776
10	0x3d5565e2	0.052099116
11	0x3eb8d656	0.36101025
12	0xbe44691f	-0.19180726
13	0x3d1d050c	0.03833489
14	0xbd3bab3d	-0.045817602
15	0xbe37afb6	-0.17938122
16	0xbeccab03	-0.39974222
17	0xbd6f42c6	-0.05841329
18	0x3cd909ff	0.026494024
19	0x3bea3ca1	0.007148341
20	0xbd0a11f3	-0.033708524
21	0xbe79c9ff	-0.24393462
22	0xbd8270ab	-0.06369146
23	0x3e6064bc	0.21913427
24	0xbded3ba6	-0.11583643
25	0xbc68f48b	-0.01421846
26	0xbefb8ea1	-0.49132255
27	0xbe13b4f8	-0.14424503
28	0x3d869b52	0.06572594
29	0xbc4759f5	-0.0121674435
30	0x3d73e983	0.059548866
31	0x3ddac90f	0.1068288

layers.0.wix.j_weight f4 [1, 32]
0	0x3e7c5034	0.2463997
1	0x3e84f300	0.25966644
2	0xbebe8424	-0.3721019
3	0xbebbe8bd	-0.36701003
4	0xbee26136	-0.4421479
5	0x3e8083c1	0.2510052
6	0x3e2ded71	0.16985108
7	0x3b8e4c8c	0.004342621
8	0xbe81bf5b	-0.25341305
9	0x3d463297	0.04838809
10	0xbe64efa2	-0.22357038
11	0xbdcfb421	-0.10141779
12	0xbda7d10b	-0.08194169
13	0xbe289842	-0.16464332
14	0x3d80fe77	0.06298535
15	0xbcced6f5	-0.025248984
16	0xbe9e2dd4	-0.3089434
17	0x3de4f078	0.11178678
18	0xbdc4ee58	-0.09615773
19	0x3e048157	0.12939964
20	0xbe237d26	-0.15965709
21	0xbd344b37	-0.044017043
22	0xbe2b02e4	-0.16700321
23	0x3dbe7950	0.09300482
24	0x3e063bf4	0.13108808
25	0xbc1d16c7	-0.00958795
26	0xbe0fde15	-0.14049561
27	0x3d8990c0	0.06717062
28	0xbe4e4da8	-0.20146811
29	0xbd97a764	-0.07404974
30	0xbcfb42b6	-0.030671459
31	0x3e710c8a	0.2353994

layers.0.wix.k_weight f4 [1, 32]
0	0x3e3600b9	0.17773713
1	0xbd47aebc	-0.048750624
2	0xbcb93e6f	-0.022612778
3	0x3e2250e4	0.1585117
4	0xbd6ab1e6	-0.057298563
5	0x3c8b4ab7	0.0170034
6	0x3bfdf51a	0.0077501656
7	0xbda3e1e8	-0.080020726
8	0x3d9cffb5	0.0766596
9	0x3b1dd399	0.002408242
10	0xbdd1b2d0	-0.10239184
11	0x3ec304e0	0.38089657
12	0x3cb4bc1e	0.022062358
13	0x3cf48cc8	0.029852286
14	0x3dc3d73c	0.09562537
15	0xbc63bf2b	-0.013900558
16	0x3e9fca27	0.31208917
17	0x3d524aaf	0.051340755
18	0xbe5bbb23	-0.21458106
19	0xbe68b5ae	-0.22725555
20	0x3bed8c6b	0.007249405
21	0x3bd5c136	0.0065232767
22	0xbd59b40c	-0.05315022
23	0x3e03f825	0.12887628
24	0x3e272880	0.16324043
25	0x3e4692a3	0.19391875
26	0x3cd8093b	0.026371589
27	0xba88ea85	-0.0010445869
28	0xbe435d9c	-0.19078678
29	0x3e47f47f	0.19526862
30	0xbcbcf2a2	-0.023064915
31	0x3dc1ae2e	0.0945705

layers.0.wix.bias f4 [128]
0	0xbf046879	-0.5172191
1	0xbebf16f4	-0.373222
2	0xbea1a368	-0.31569982
3	0xbf855f52	-1.0419714
4	0xbe9c5597	-0.3053405
5	0xbbf3d012	-0.0074405754
6	0xbd7e4bb3	-0.06208391
7	0xbd517450	-0.051136315
8	0xbc93f142	-0.018059377
9	0x3ea7eaa1	0.32796195
10	0xbddddc9f	-0.10833096
11	0xbf5d0b16	-0.8634504
12	0xbfbb91ad	-1.4653832
13	0xbf965a96	-1.1746395
14	0xbaae4ab9	-0.0013297416
15	0xbf1a17f9	-0.6019283
16	0x3ec990d3	0.39368305
17	0x3e7f7d35	0.24950106
18	0xbd43dad1	-0.0478161
19	0xbe35c8e2	-0.17752412
20	0x3dffbfb8	0.12487739
21	0x3e97aed8	0.29625583
22	0x3d826dd3	0.063686036
23	0xbea75c4c	-0.32687604
24	0xbf579b2b	-0.8422114
25	0xbed35f59	-0.41283682
26	0x3d8714ad	0.065957405
27	0x3d280b8f	0.041026648
28	0xbeb52b9c	-0.35384834
29	0xbf9b64c5	-1.2140127
30	0x3f2c3adf	0.6727733
31	0x3f09d9c7	0.53847927
32	0xbefc8f57	-0.4932811
33	0xbdd40a70	-0.10353553
34	0xbed1d922	-0.40985972
35	0xbf874c3d	-1.0570141
36	0xbe6765ba	-0.225974
37	0xbe8784dd	-0.26468554
38	0xbedbe9ac	-0.42951715
39	0x3d908127	0.07055884
40	0x3d9f1aaa	0.07768758
41	0x3d15f9e1	0.036615256
42	0x3df782a3	0.12085464
43	0xbf5d39c8	-0.8641629
44	0xbfbbfbad	-1.468618
45	0xbf68734c	-0.9080093
46	0x3ed865ea	0.42265254
47	0xbeff8bcc	-0.49911344
48	0xbe8dc5e7	-0.2769005
49	0xbe03a631	-0.12856366
50	0xbe61284e	-0.21988031
51	0xbd8d0e34	-0.06887475
52	0x3e89cc91	0.26913884
53	0x3e89bec1	0.26903346
54	0x3e813ccc	0.25241697
55	0xbf5a71cd	-0.85329896
56	0xbf332cff	-0.69990534
57	0xbe5b2868	-0.21402133
58	0x3e572996	0.21011958
59	0x3db2bf5d	0.08727906
60	0xbeda44cb	-0.4263061
61	0xbfa44f78	-1.2836752
62	0x3e876d46	0.26450557
63	0x3e1b3731	0.15157773
64	0xbe90862b	-0.28227362
65	0xbdfe9718	-0.124311626
66	0xbeaba4db	-0.33524212
67	0xbf4730d6	-0.7780889
68	0xbd3d7032	-0.046249576
69	0xbf703d95	-0.93843967
70	0x3cb22eec	0.02175089
71	0x3e128d6f	0.14311765
72	0x3e394e70	0.18096328
73	0x3e7130ce	0.23553774
74	0xbc494da6	-0.012286579
75	0xbf71202d	-0.9418972
76	0xbfd05ad1	-1.6277715
77	0xbf6bbde0	-0.920866
78	0xbca63f9a	-0.020294
79	0xbf090a58	-0.5353141
80	0xbd40f8af	-0.047112163
81	0x3e923c75	0.2856175
82	0xbe7959be	-0.2435064
83	0x3e9bc694	0.3042494
84	0x3ebb895e	0.3662824
85	0x3ead3675	0.3383061
86	0xbdbd560d	-0.092449285
87	0xbe91af29	-0.2845395
88	0xbf704a52	-0.93863404
89	0xbf45205b	-0.77002496
90	0x3e5be353	0.21473436
91	0x3e0d6d2e	0.1381118
92	0xbf1b0e3f	-0.6056861
93	0xbf9d835a	-1.230571
94	0x3e54e175	0.2078913
95	0x3dc0b7d2	0.09410061
96	0xbe5a9f49	-0.21349825
97	0xbe0d8cdf	-0.1382327
98	0xbe7c0093	-0.24609594
99	0xbf6958cd	-0.91151124
100	0xbe14882e	-0.14505073
101	0xbefa2f51	-0.48864225
102	0xbeac1dc2	-0.33616453
103	0x3efd05cc	0.49418485
104	0x3e5cd2f2	0.21564844
105	0x3c7b8a99	0.0153528685
106	0x3f8ee10e	1.1162431
107	0xbf6e7270	-0.9314337
108	0xbfbc6833	-1.4719299
109	0xbf36d16d	-0.7141331
110	0x3e5a1e28	0.21300566
111	0xbee13ec9	-0.43993214
112	0xbee91923	-0.4552699
113	0x3dff890d	0.12477312
114	0xbe296ef2	-0.16546229
115	0x3a3a1f63	0.0007100014
116	0x3f035617	0.5130324
117	0x3e3ccd1a	0.18437615
118	0xbe392227	-0.18079434
119	0xbf0f83cd	-0.5606049
120	0xbf6aa5b9	-0.9165912
121	0xbebcde91	-0.36888555
122	0x3e2b7856	0.16745123
123	0x3e2f439b	0.17115633
124	0xbf109a35	-0.564853
125	0xbfb3e518	-1.4054289
126	0xbd979159	-0.0740077
127	0xbdfb4244	-0.122684985

layers.0.uih.r_weight f4 [32, 32]
0	0x3e25a712	0.16177014
1	0x3cb1bc9b	0.02169638
2	0x3e4e5956	0.20151266
3	0x3de63425	0.112404145
4	0xbe6bfe1c	-0.23046154
5	0xbe041862	-0.12899926
6	0xbe2f9e94	-0.17150337
7	0x3d672afa	0.05643747
8	0xbe7a3927	-0.24435864
9	0x3c55bb08	0.01304508
10	0x3e1bbfd7	0.152099
11	0xbe1dacc0	-0.1539793
12	0xbe23cd03	-0.15996175
13	0xbce1e5a0	-0.027575314
14	0xbcec0b91	-0.028814109
15	0xbe343a12	-0.17600277
16	0x3d18ced5	0.037306625
17	0xbd07fa59	-0.033197735
18	0xbd9b50d5	-0.07583777
19	0xbd81bcab	-0.06334814
20	0x3e34694e	0.17618296
21	0xbe4bfe37	-0.19921194
22	0xbdb32aea	-0.087484196
23	0x3e18cbee	0.14921543
24	0xbde79653	-0.11307969
25	0xbea02739	-0.31279925
26	0x3d59285c	0.053017005
27	0x3d5623a3	0.05228008
28	0x3c9a6d97	0.018851085
29	0xba92ae24	-0.0011190814
30	0xbdfcb5a4	-0.12339333
31	0x3dc2b510	0.09507191
32	0xbe99c1a8	-0.3003056
33	0xbe8b3b92	-0.27193886
34	0xbbd6df10	-0.006557353
35	0x3dfe0daa	0.1240495
36	0x3dcb372b	0.09922632
37	0x3db41f0f	0.087949865
38	0x3d81a664	0.063305646
39	0x3c60c14b	0.01371796
40	0x3ea0b5a7	0.3138859
41	0xbe2f1fb0	-0.17101932
42	0xbe4d78c3	-0.20065598
43	0x3e57529f	0.21027611
44	0xbe10e523	-0.14149909
45	0x3e591b71	0.21201874
46	0xbe3f0d6b	-0.18657462
47	0xbd254168	-0.04034558
48	0x3d41b591	0.047292296
49	0xbe2bb1b1	-0.16767003
50	0xbd0daa82	-0.034586437
51	0x3d701b77	0.058619943
52	0x3e9a72d4	0.30165732
53	0x3b043111	0.0020170847
54	0x3d1d55e4	0.03841199
55	0xbd5abf89	-0.05340532
56	0x3e0c3a34	0.13694078
57	0xbd921dca	-0.07134588
58	0x3d55a364	0.052157775
59	0x3e98dab4	0.29854357
60	0x3cf0e6f4	0.029407002
61	0xbd982738	-0.074293554
62	0x3d08a90b	0.033364337
63	0x3d722322	0.059115537
64	0x3d769fa3	0.060210835
65	0x3d64805c	0.055786476
66	0x3c632879	0.01386463
67	0xbd9adef2	-0.07562055
68	0xbda10b2f	-0.07863461
69	0x3d4031b9	0.04692242
70	0xbe082f79	-0.1329936
71	0x3dd17d7a	0.10229011
72	0xbe60d0f5	-0.21954711
73	0x3d28794f	0.041131314
74	0xbdedb62c	-0.11607012
75	0xbda1967b	-0.0789003
76	0x3d7afc4d	0.06127577
77	0x3e3f15e3	0.18660693
78	0x3d9ef8ad	0.07762275
79	0x3e191b71	0.14951874
80	0xbe2eb299	-0.17060317
81	0x3dbf1a4f	0.0933119
82	0x3cc2cbe3	0.023778861
83	0xbe88d7d1	-0.26727155
84	0x3d0f4097	0.034973707
85	0xbd5f13a3	-0.054462086
86	0x3dc40ceb	0.095727764
87	0x3e0c2459	0.1368574
88	0xbe822c42	-0.2542439
89	0x3c9ef96d	0.019406045
90	0xbe891bec	-0.26779115
91	0xbe66838a	-0.22511116
92	0xbe3ddd28	-0.18541396
93	0xbe32abae	-0.17448303
94	0xbe969f7e	-0.29418558
95	0x3e8969ad	0.26838437
96	0xbd305efe	-0.04305934
97	0xbe5d4fc2	-0.21612456
98	0xbc11f07e	-0.008907435
99	0x3e429cf2	0.19005182
100	0xbd9e706d	-0.07736287
101	0x3e7d5e0d	0.24742909
102	0xbe677adb	-0.2260546
103	0x3e48eac8	0.19620812
104	0xbe7ad3e5	-0.24494894
105	0x3d09cf91	0.033645216
106	0xbdc9a1fb	-0.098453484
107	0xbd42c5ff	-0.047552105
108	0x3e1ae6e9	0.15127148
109	0xbdd5abba	-0.10433145
110	0x3c94b5ac	0.018153034
111	0xbccd6aab	-0.025075277
112	0xbe034a64	-0.12821347
113	0xbcb76c2d	-0.02239045
114	0x3dd53b67	0.10411721
115	0x3e59025e	0.2119231
116	0x3e78c7bd	0.24294944
117	0xbe1758e1	-0.14779998
118	0x3e385a70	0.18003249
119	0xbd5224b0	-0.05130452
120	0xbd2fd425	-0.042926926
121	0x3eb85d60	0.3600874
122	0xbe0aa7b4	-0.13540536
123	0xba31684f	-0.00067675574
124	0xbd0fd944	-0.03511931
125	0xbe72975d	-0.23690553
126	0xbe4520a3	-0.19250731
127	0x3e76c137	0.24097143
128	0x3eb49bf4	0.35275233
129	0x3d92c70f	0.07166874
130	0xbd29c353	-0.04144604
131	0xbda06a07	-0.07832723
132	0x3e206dd6	0.15666899
133	0xbea1b998	-0.3158691
134	0xbe27db65	-0.16392286
135	0x3dab6ff0	0.0837096
136	0x3cd25452	0.025674973
137	0xbe120ac5	-0.14261921
138	0x3d0b48fa	0.034005143
139	0xbe3ff59c	-0.18746036
140	0x3dbba6ac	0.091626495
141	0x3dee1828	0.11625701
142	0x3e186c3d	0.1488504
143	0xbd863826	-0.06553678
144	0xbe0357ad	-0.12826414
145	0x3e707a18	0.23484075
146	0xbe4db471	-0.20088364
147	0x3e8f644f	0.28006217
148	0xbe470699	-0.1943611
149	0xbd34a9d0	-0.04410726
150	0x3e23bb21	0.15989353
151	0xbe8a2d6b	-0.26987776
152	0xbdcbea67	-0.09956818
153	0xbe4a95ee	-0.19783756
154	0x3e0f6d7f	0.14006613
155	0x3e91eea5	0.28502384
156	0xbdd35273	-0.1031846
157	0xbe012f24	-0.12615639
158	0x3e1153cd	0.14192124
159	0xbda43b6f	-0.080191486
160	0xbc037363	-0.008023116
161	0x3e116455	0.1419843
162	0x3e60b1d8	0.21942842
163	0xbe30e3c4	-0.17274386
164	0x3e849b75	0.25899854
165	0x3d69393d	0.056939352
166	0xbd7202b0	-0.059084594
167	0x3ac75810	0.001520874
168	0x3e1415aa	0.14461389
169	0xbe2ee96a	-0.17081228
170	0x3e0408a7	0.12893926
171	0x3d840423	0.064461015
172	0xbcf828c9	-0.030292885
173	0x3dcfded8	0.10149926
174	0x3e418845	0.18899639
175	0x3d2d5725	0.042319436
176	0x3dc4112e	0.09573589
177	0xbc2ab793	-0.010419744
178	0xbe85923d	-0.26088133
179	0xbe6a6b85	-0.22892578
180	0x3e2b4aac	0.16727704
181	0xbda23fac	-0.07922301
182	0x3d8d8c14	0.069114834
183	0x3dd5b5a6	0.10435037
184	0x3ce700f5	0.028198699
185	0xbe5e0315	-0.21680863
186	0xbd012016	-0.03152474
187	0x3de0f555	0.10984293
188	0xba68e080	-0.0008883551
189	0xbcf4e80c	-0.029895805
190	0x3d2d4cb8	0.042309493
191	0xbea39f76	-0.31957597
192	0x3e2f3542	0.1711016
193	0xbdfcae63	-0.12337949
194	0x3ec89701	0.39177707
195	0xbb51e9a8	-0.003203014
196	0x3eb47377	0.35244343
197	0xbecffaf4	-0.4062115
198	0x3b5bf77e	0.0033564265
199	0xbde72e28	-0.112881005
200	0x3e19b451	0.15010192
201	0xbda50dfb	-0.08059307
202	0xbddf99fb	-0.10918041
203	0x3d9cc138	0.07654041
204	0x3e80cf08	0.25157952
205	0xbdc9e9e1	-0.09859062
206	0x3e138ee2	0.14409974
207	0xbd74c3a9	-0.05975691
208	0xbda67727	-0.08128195
209	0x3ddd8958	0.10817212
210	0xbdf9f6e0	-0.12205291
211	0x3e2833b8	0.16425979
212	0x3e325730	0.17416072
213	0x3e84feec	0.2597574
214	0xbde0ad62	-0.1097057
215	0x3d023a37	0.0317938
216	0x3cbd5f58	0.023116753
217	0xbde80120	-0.113283396
218	0xbe817e11	-0.25291494
219	0x3ddc7b7b	0.107657395
220	0x3c668a3e	0.014071045
221	0x3e32cf4a	0.17461887
222	0xbde23432	-0.11045112
223	0xbe37623e	-0.1790857
224	0x3c8de022	0.017318789
225	0xbe8f9b66	-0.28048247
226	0xbd00e20b	-0.03146557
227	0xbe58c74b	-0.21169774
228	0x3e056274	0.13025838
229	0x3d00f1e2	0.031480677
230	0x3d96c134	0.07361069
231	0xbca2e774	-0.019885756
232	0x3e265faa	0.1624743
233	0xbe480c1d	-0.19535871
234	0xbdfdc24a	-0.12390573
235	0x3dc1ade0	0.09456992
236	0x3d18dddb	0.037320953
237	0x3d2e010e	0.042481475
238	0xbe8e6d15	-0.27817598
239	0x3c7229d1	0.014780478
240	0x3e73565d	0.23763414
241	0x3e4450fd	0.1917152
242	0xbe8710b8	-0.26379943
243	0xbdd865b8	-0.10566276
244	0xbd7e6e43	-0.062116873
245	0xbe2cc858	-0.168733
246	0x3c444140	0.011978447
247	0x3db686b0	0.08912408
248	0x3e8de36e	0.27712578
249	0xbe4203be	-0.1894674
250	0xbcfc1fd1	-0.03077689
251	0xbde3387b	-0.11094757
252	0x3d211fdc	0.039337024
253	0xbe4e6bb4	-0.20158273
254	0x3c6398bf	0.013891398
255	0xbe789cfa	-0.24278632
