models/QLSTM_qal_neck_epochs10.pth (torch, 168801 bytes, 76 tensors)

layers.0.wfx.r_weight f4 [1, 32]
-0.39024252 -0.50719386 -0.3733985 -0.50448006 -0.30711058 -0.5699847 -0.3666303 -0.586888
0.10777365 -0.43497375 -0.87514997 -0.6827646 0.12596753 -0.33752137 -0.2150959 -0.75767154
-0.50207615 -0.3598188 -0.48764881 -0.5614219 -0.1670453 -0.24298275 -0.6531547 -0.37547866
-0.20355421 -0.4700287 -0.25835335 -0.5676086 -0.15153004 -0.49378356 -0.1729683 -0.4424549
00000000: decd c7be 75d7 01bf 172e bfbe 9b25 01bf
00000010: 993d 9dbe 84ea 11bf f7b6 bbbe 4b3e 16bf
00000020: 6eb8 dc3d e1b4 debe d409 60bf a9c9 2ebf
00000030: a2fd 003e 9acf acbe 1a42 5cbe c3f6 41bf
00000040: 1088 00bf 2b3a b8be 1bad f9be 58b9 0fbf
00000050: ec0d 2bbe 78d0 78be 2535 27bf bd3e c0be
00000060: 8470 50be 9aa7 f0be e446 84be cc4e 11bf
00000070: b12a 1bbe 33d1 fcbe 9a1e 31be 7389 e2be

layers.0.wfx.i_weight f4 [1, 32]
-0.06888706 -0.042280708 -0.1377041 0.022834111 -0.20437445 -0.2071361 -0.12966105 -0.036515456
-0.00016421465 -0.18090712 -0.1455032 -0.1316561 -0.14791256 -0.0850719 -0.045894936 0.038722426
-0.08182294 0.06693018 -0.069767304 -0.06458494 -0.13234396 -0.04795111 -0.090563856 -0.02084156
-0.08167257 -0.15659039 0.01701594 -0.17368905 -0.08465078 -0.11920355 -0.0030070082 -0.026172524
00000000: a914 8dbd 892e 2dbd 4e02 0dbe 9a0e bb3c
00000010: 8947 51be 7c1b 54be dec5 04be 3b91 15bd
00000020: 0931 2cb9 b73f 39be cafe 14be dbd0 06be
00000030: 6476 17be 2d3a aebd 54fc 3bbd 689b 1e3d
00000040: c992 a7bd b112 893d 29e2 8ebd 1c45 84bd
00000050: 2d85 07be 6268 44bd 8b79 b9bd ebbb aabc
00000060: f343 a7bd 3b59 20be 0365 8b3c 8bdb 31be
00000070: 635d adbd fe20 f4bd 3a11 45bb c367 d6bc

layers.0.wfx.j_weight f4 [1, 32]
-0.010001439 -0.12958129 -0.08172061 -0.0790121 -0.0909803 -0.09014099 -0.15654369 -0.025525749
0.0070376685 0.04549406 -0.2510918 -0.085176416 0.018541548 -0.011897632 -0.16283521 0.017677734
-0.023174573 -0.09611877 -0.08221276 -0.15949343 -0.28766054 0.039879594 -0.119844675 -0.107932344
-0.14361742 0.059402063 0.25773755 0.048634946 -0.19640322 -0.15442835 -0.040999223 0.26102772
00000000: 13dd 23bc f5b0 04be 235d a7bd 19d1 a1bd
00000010: e153 babd d79b b8bd fd4c 20be 601b d1bc
00000020: 3e9c e63b fb57 3a3d 1b8f 80be f970 aebd
00000030: 72e4 973c 49ee 42bc 46be 26be e5d0 903c
00000040: 9ad8 bdbc ebd9 c4bd 2a5f a8bd 3f52 23be
00000050: 3e48 93be c958 233d 2071 f5bd a20b ddbd
00000060: 7210 13be 944f 733d 2df6 833e 7035 473d
00000070: ed1d 49be 7722 1ebe cdee 27bd 6da5 853e

layers.0.wfx.k_weight f4 [1, 32]
0.0072414163 0.053237025 -0.09668079 -0.061648235 -0.03359483 -0.028634291 -0.09149163 -0.08805589
-0.025218116 -0.13171446 -0.15531683 -0.0323774 -0.13347866 -0.19168197 0.01066265 0.06936075
0.07711502 0.021576092 -0.10699135 0.12935275 -0.26359978 -0.020448789 0.11421606 -0.04832795
0.028722977 0.13445717 -0.044891756 0.12636122 0.029485656 -0.01732133 0.12506333 0.14577812
00000000: 6749 ed3b 110f 5a3d 9400 c6bd dc82 7cbd
00000010: bc9a 09bd 7692 eabc f75f bbbd a556 b4bd
00000020: 3996 cebc 28e0 06be 600b 1fbe 2a9e 04bd
00000030: a1ae 08be 4748 44be 65b2 2e3c 020d 8e3d
00000040: 7bee 9d3d 58c0 b03c 481e dbbd 0c75 043e
00000050: 8df6 86be 3884 a7bc 1cea e93d 87f3 45bd
00000060: 734c eb3c 24af 093e 6be0 37bd d664 013e
00000070: e78b f13c 76e5 8dbc 9a10 003e dc46 153e

layers.0.wfx.bias f4 [128]
-1.8306402 -1.6211658 -1.8380806 -1.898541 -1.8773174 -1.8694316 -1.7773776 -1.9410435
-1.3641849 -1.8443413 -0.22461268 -1.327915 -0.7266806 -1.7826936 -1.8259392 -1.4412669
-1.5632704 -0.08483846 -1.9319679 -0.05756635 -0.4459859 -1.921461 -0.3161156 -1.9702866
-1.818276 -1.7645537 -1.8584569 -0.33890802 -0.11833573 -1.805318 -1.6717088 -0.1690378
-1.8593287 -1.7844613 -1.8429471 -1.9530838 -1.825769 -1.8213146 -1.703377 -1.8451561
-1.5049437 -1.7701656 -0.25741976 -1.2627839 -0.9425013 -1.5690328 -1.7959987 -1.5124351
-1.614349 -0.0969189 -1.8037604 -0.083609775 -0.40353218 -1.852019 -0.25721458 -1.8426242
-1.8308028 -1.7858365 -1.7766203 -0.16112994 -0.03478929 -1.7950939 -1.8042532 -0.3292162
-1.8251868 -1.7223334 -1.7776222 -1.8782172 -2.0135803 -1.8139691 -1.6988611 -1.8240832
-1.121368 -1.8144253 -0.2961785 -1.3178614 -0.39321813 -1.6567041 -1.8022573 -1.5456206
-1.7263948 0.034344766 -1.8593951 -0.0012370903 -0.33823776 -1.8848797 -0.2586288 -1.9017525
-1.873472 -1.8563951 -2.1151369 -0.16724841 -0.35860443 -1.8206482 -1.7878368 -0.21393386
-1.7899776 -1.7710243 -1.7673119 -1.8569323 -1.847603 -1.8372937 -1.6986828 -1.8567829
-1.440439 -1.6968021 -0.24729648 -1.2690219 -0.48580834 -1.3660916 -1.8290155 -1.6897826
-1.6920426 -0.08114622 -1.8111159 -0.07235345 -0.5396677 -1.8342626 -0.33287984 -1.9353384
-1.8511517 -1.7500801 -1.8197032 -0.2515663 -0.07687919 -1.7636908 -1.881854 -0.17442733
00000000: 6b52 eabf 5c82 cfbf 3a46 ebbf 6403 f3bf
00000010: f04b f0bf 8949 efbf 1c81 e3bf 1d74 f8bf
00000020: 9c9d aebf 6013 ecbf de00 66be 1ef9 a9bf
00000030: bd07 3abf 4e2f e4bf 60b8 e9bf 6f7b b8bf
00000040: 3f19 c8bf c9bf adbd b94a f7bf b1ca 6bbd
00000050: 4458 e4be 6ff2 f5bf e7d9 a1be 5a32 fcbf
00000060: 45bd e8bf e5dc e1bf eae1 edbf 5a85 adbe
00000070: 015a f2bd a914 e7bf 8efa d5bf 3f18 2dbe
00000080: 7cfe edbf 3a69 e4bf b1e5 ebbf a6fe f9bf
00000090: ccb2 e9bf d620 e9bf 4208 dabf 132e ecbf
000000a0: ffa1 c0bf c994 e2bf 86cc 83be e7a2 a1bf
000000b0: c447 71bf 11d6 c8bf 49e3 e5bf 7997 c1bf
000000c0: fda2 cebf 6b7d c6bd 9fe1 e6bf 9a3b abbd
000000d0: c59b cebe f50e edbf a1b1 83be 1cdb ebbf
000000e0: bf57 eabf 4a96 e4bf 4b68 e3bf 3fff 24be
000000f0: 377f 0ebd a3c5 e5bf c5f1 e6bf 078f a8be
00000100: b99f e9bf 6c75 dcbf 2089 e3bf 6c69 f0bf
00000110: 80de 00c0 2430 e8bf 4874 d9bf 8f7b e9bf
00000120: fd88 8fbf 173f e8bf b5a4 97be afaf a8bf
00000130: e353 c9be e10e d4bf 5eb0 e6bf e5d6 c5bf
00000140: 81fa dcbf 19ad 0c3d a900 eebf dd25 a2ba
00000150: 802d adbe bd43 f1bf fe6a 84be a06c f3bf
00000160: eecd efbf 5b9e edbf 675e 07c0 2b43 2bbe
00000170: 009b b7be 000b e9bf d6d7 e4bf 7a11 5bbe
00000180: fc1d e5bf edb0 e2bf 4737 e2bf f5af edbf
00000190: 417e ecbf 712c ebbf 706e d9bf 10ab edbf
000001a0: 4e60 b8bf d030 d9bf 4a3b 7dbe 4f6f a2bf
000001b0: dfbb f8be 17dc aebf 2e1d eabf cc4a d8bf
000001c0: da94 d8bf fd2f a6bd a5d2 e7bf 0c2e 94bd
000001d0: aa27 0abf 1ec9 eabf 3a6f aabe 2bb9 f7bf
000001e0: 8af2 ecbf a002 e0bf 09ec e8bf 4ccd 80be
000001f0: d672 9dbd 9fc0 e1bf 98e0 f0bf 149d 32be

layers.0.ufh.r_weight f4 [32, 32]
0.3071765 0.09442378 -0.02822658 0.15658517 -0.056496136 0.1961375 0.05341673 0.10272703
0.28085732 -0.02258786 -0.28519487 0.14896956 0.024460172 0.21748774 -0.0479564 0.12440082
0.2057705 -0.04716825 -0.25077957 0.39074865 -0.1565413 -0.12304194 0.016688742 -0.10509648
0.0012076859 -0.08825139 -0.22890788 0.07224611 -0.1129923 0.09004089 -0.13873751 0.18936677
0.03380424 0.12554398 -0.038314547 0.16320133 -0.011935547 -0.025589282 0.009377044 0.09621599
0.2913756 0.11121266 -0.19739796 0.08724647 -0.15114973 -0.07216025 -0.23393387 -0.017697567
-0.35426956 -0.027852274 0.15703036 -0.3244823 -0.07609906 0.13958168 0.24859942 0.06582211
-0.16063333 -0.32244092 -0.15890731 -0.1979643 -0.23481287 -0.10563449 -0.022142798 -0.29532027
0.08153986 -0.10666521 -0.26695982 0.07522912 -0.20490088 0.11805938 0.095492356 0.06573233
0.32056963 0.049172 -0.124346666 0.089118406 0.32205832 -0.13057679 -0.20164333 -0.24175529
-0.23524971 0.055853777 -0.09144014 0.06617891 0.049800087 -0.0799876 0.04968081 0.22556704
-0.0062746117 -0.20460454 -0.112454176 0.06262253 0.142 0.058911562 0.110162005 0.555263
-0.23362437 -0.18581419 -0.09453244 0.14614722 -0.099338144 -0.03790952 0.12230729 -0.054492097
-0.11561556 0.04461077 0.36859766 0.18320987 0.097662985 -0.15657814 0.049755845 -0.044232566
-0.008115446 0.23678723 0.091810696 0.20124066 0.3528952 0.08148361 0.072564416 -0.122966
0.029483622 -0.19337204 -0.029813424 0.108877935 0.2258832 0.11235771 0.037235234 0.25235453
0.17307691 -0.09698581 -0.023835005 -0.09601023 -0.01796269 0.109884664 0.029085763 0.038753144
-0.38144922 -0.0046923766 0.36955798 0.08790284 0.07022199 -0.27428037 0.026982015 -0.2736014
0.00836812 0.26243493 0.13208647 0.30176145 0.089868 0.24792224 0.19963153 -0.13372687
-0.02593861 0.03508633 -0.10343012 0.25141588 0.003105521 0.08223815 -0.15161806 0.19647059
0.0976409 0.043026444 -0.1444175 0.0130502125 0.07090912 0.004812562 -0.15367019 0.09659817
0.07894309 -0.075918116 0.024409128 -0.030417487 0.22171631 -0.025306065 0.07605227 -0.21925762
0.0945058 0.06089176 0.20405734 0.24514572 0.07227493 -0.026325457 0.08031699 0.11316178
-0.020506108 -0.09907005 -0.038259886 0.09674075 0.17576145 0.020064568 -0.1292009 0.2606894
0.16016659 0.115416825 0.004223094 -0.32785118 -0.23468544 -0.17563404 -0.17140964 0.0036273587
-0.08969648 0.018888155 0.11996866 -0.017521879 -0.1206837 0.09642309 -0.12644173 -0.19292134
0.063285775 -0.069871284 0.044357862 0.02533864 -0.028795421 0.039661534 0.12349 0.0864094
-0.2681429 -0.2653428 -0.21687566 -0.09358926 0.033680372 -0.031095767 -0.12292264 -0.10253325
-0.0504989 -0.060070526 0.10922796 0.17348711 -0.04321891 -0.042964134 0.12058916 -0.20977873
-0.23506023 -0.026050113 0.16546462 0.22625676 0.093872145 -0.11215735 -0.04357187 -0.15464917
0.24440585 0.3734863 -0.04207048 0.056356546 -0.18183273 0.097116984 0.026212603 0.21748914
-0.108118474 0.22414145 0.031507935 -0.10012043 -0.037162524 0.020362586 0.027182152 0.30379367
00000000: 3d46 9d3e 4161 c13d 6e3b e7bc dd57 203e
00000010: 7e68 67bd 45d8 483e 80cb 5a3d 8d62 d23d
00000020: 88cc 8f3e 2d0a b9bc 1005 92be 7a8b 183e
00000030: b360 c83c 1bb5 5e3e ee6d 44bd dbc5 fe3d
00000040: 80b5 523e 7f33 41bd 2e66 80be 3510 c83e
00000050: 5d4c 20be 6afd fbbd d4b6 883c d33c d7bd
00000060: 374b 9e3a 25bd b4bd d466 6abe c5f5 933d
00000070: 8268 e7bd 5c67 b83d 3511 0ebe 5de9 413e
00000080: 5176 0a3d 9a8e 003e b7ef 1cbd 401e 273e
00000090: 508d 43bc 9da0 d1bc 2ca2 193c e40c c53d
000000a0: 2f2f 953e 77c3 e33d b122 4abe 47ae b23d
000000b0: ffc6 1abe c1c8 93bd 5c8c 6fbe 7dfa 90bc
000000c0: d262 b5be 742a e4bc 91cc 203e 8b22 a6be
000000d0: d3d9 9bbd 80ee 0e3e d990 7e3e becd 863d
000000e0: 107d 24be fa16 a5be 99b8 22be 27b7 4abe
000000f0: c972 70be e556 d8bd d064 b5bc 3834 97be
00000100: 5ffe a63d 4a73 dabd f5ae 88be ba11 9a3d
00000110: 89d1 51be 1ec9 f13d 7f91 c33d ac9e 863d
00000120: b421 a43e 9468 493d 77a9 febd b683 b63d
00000130: d4e4 a43e ecb5 05be 977b 4ebe b38e 77be
00000140: 4de5 70be eec6 643d f844 bbbd cf88 873d
00000150: 2dfb 4b3d 8ad0 a3bd 1b7e 4b3d 0cfb 663e
00000160: 429b cdbb da83 51be 604e e6bd 3e40 803d
00000170: 7368 113e 404d 713d 9e9c e13d b725 0e3f
00000180: 3a3b 6fbe 1346 3ebe 399a c1bd 9ea7 153e
00000190: cc71 cbbd 0347 1bbd 3f7c fa3d 1b33 5fbd
000001a0: dac7 ecbd c8b9 363d d5b8 bc3e 5e9b 3b3e
000001b0: 8803 c83d 0556 20be c9cc 4b3d 352d 35bd
000001c0: a6f6 04bc 5a78 723e 3f07 bc3d 0812 4e3e
000001d0: aeae b43e e1e0 a63d a79c 943d 99d5 fbbd
000001e0: a387 f13c 5203 46be 483b f4bc 65fb de3d
000001f0: ed4d 673e cd1b e63d f983 183d 9d34 813e
00000200: 133b 313e 7fa0 c6bd a141 c3bc 03a1 c4bd
00000210: 7e26 93bc 360b e13d 4445 ee3c 9ebb 1e3d
00000220: 504d c3be 82c2 99bb b436 bd3e 6706 b43d
00000230: 8cd0 8f3d 7a6e 8cbe 6309 dd3c 7c15 8cbe
00000240: 701a 093c df5d 863e ad41 073e 7a80 9a3e
00000250: b70c b83d 54df 7d3e 356c 4c3e b2ef 08be
00000260: 357d d4bc afb6 0f3d 2cd3 d3bd 95b9 803e
00000270: ff85 4b3b 7a6c a83d c441 1bbe 962f 493e
00000280: f4f7 c73d 7f3c 303d 2ee2 13be 8fd0 553c
00000290: cd38 913d b2b2 9d3b b85b 1dbe 43d5 c53d
000002a0: eaac a13d f57a 9bbd a7f5 c73c 182e f9bc
000002b0: 9a09 633e aa4e cfbc 4bc1 9b3d 1285 60be
000002c0: 428c c13d a369 793d 68f4 503e 7b07 7b3e
000002d0: e104 943d 7ca8 d7bc 3c7d a43d 5dc1 e73d
000002e0: 6dfc a7bc 3de5 cabd 66b6 1cbd 0420 c63d
000002f0: cffa 333e 735e a43c 3e4d 04be 1579 853e
00000300: b602 243e a85f ec3d e161 8a3b 1cdc a7be
00000310: 6151 70be 69d9 33be 0286 2fbe fbb8 6d3b
00000320: cab2 b7bd 55bb 9a3c 21b2 f53d 0b8a 8fbc
00000330: 0429 f7bd 7879 c53d f179 01be 2c8d 45be
00000340: f99b 813d ad18 8fbd 97b0 353d fb92 cf3c
00000350: 60e4 ebbc 2274 223d 53e8 fc3d 69f7 b03d
00000360: 074a 89be 03db 87be a714 5ebe baab bfbd
00000370: 6ef4 093d 8dbc febc ddbe fbbd f4fc d1bd
00000380: efd7 4ebd 830c 76bd e9b2 df3d 9ba6 313e
00000390: 5006 31bd 29fb 2fbd 73f7 f63d 3cd0 56be
000003a0: a1b3 70be 0c67 d5bc 8f6f 293e daaf 673e
000003b0: 0a40 c03d c1b2 e5bd 6b78 32bd 5a5c 1ebe
000003c0: 8745 7a3e 9939 bf3e 1852 2cbd 1fd6 663d
000003d0: 5c32 3abe 45e5 c63d d0bb d63c 79b5 5e3e
000003e0: 386d ddbd 5685 653e 770e 013d f10b cdbd
000003f0: bb37 18bd 70cf a63c 1bad de3c d88a 9b3e

layers.0.ufh.i_weight f4 [32, 32]
0.0076383413 0.0043263463 0.055346295 -0.062369138 0.15018597 0.069613 0.09229706 -0.042793475
-0.048945908 0.015408889 0.0029629709 0.0075963256 0.07582886 -0.013673354 0.11345849 0.07750478
0.07179761 0.1481849 0.19342397 0.19151829 0.120240785 -0.2012376 0.000544961 0.11544844
0.27538705 -0.06752955 0.11976351 0.070580766 0.16654423 0.020743959 0.011248144 0.14781968
-0.0337045 0.0017561591 -0.110238574 0.08613092 -0.0851838 0.021736003 -0.14203697 -0.06695238
0.10164294 -0.0805731 0.26383007 -0.117912546 0.1344162 -0.07875751 -0.19521712 -0.14380991
-0.09335836 0.006561765 -0.08322328 0.040952433 0.023079516 -0.035225317 0.18873005 0.007969379
0.055401184 0.1503259 0.05792338 0.0013224378 0.24099118 -0.025487786 -0.089613914 -0.087377846
0.048710663 -0.13409272 -0.036447074 0.067144684 0.12092462 0.030732714 0.06351675 0.04948737
-0.014870315 0.029971018 0.2572075 0.046279065 0.18201627 -0.09487324 -0.038914874 -0.22334252
0.20969634 0.056565013 -0.01928549 0.037158206 0.0071345237 0.04798182 -0.050808128 0.086126074
-0.1285378 -0.106245525 0.18649177 -0.035372633 -0.15670604 0.08017429 -0.06573367 0.024654455
0.025585275 0.1253112 -0.07527791 -0.061819486 -0.15621391 -0.0650598 -0.19178145 0.07283117
0.05705551 -0.0036857044 0.03481963 0.07805494 -0.14950685 0.19017664 -0.07957737 0.022204285
-0.012804832 -0.19245669 -0.03813864 -0.07837033 -0.009620176 -0.16541968 0.08401852 -0.15571919
-0.069578275 0.12320807 -0.05701165 -0.044299997 0.12946934 -0.119634055 -0.17168641 -0.13274373
-0.06591813 -0.015861318 -0.072702445 -0.10602497 0.0993044 -0.08470922 0.019373171 0.04967228
-0.021781454 0.21399528 0.23522054 0.29232857 0.040638752 0.18901311 -0.007136413 -0.11629342
-0.15749052 0.04510342 0.0012203894 0.043306116 0.13174835 0.0034616922 -0.10756312 0.19544242
0.00207686 -0.111158065 0.09878217 -0.0135001615 0.220946 -0.025533581 0.087227315 0.18712232
0.06145847 -0.13231756 0.061636068 0.101889916 -0.05371832 0.067046575 0.07347519 -0.037284464
-0.12837009 -0.1019177 0.06249211 -0.12988774 0.08418575 0.06712138 0.021204155 -0.1330002
-0.10544029 0.06734928 -0.16256973 0.14392026 0.13306437 0.006256988 -0.1282121 -0.032152902
0.09512583 -0.12277921 -0.17813866 0.028101945 0.057458483 -0.22283642 -0.05336596 0.207886
0.16341019 0.008978508 0.11258456 0.023319747 -0.27814454 0.10792921 -0.13537471 -0.011017317
0.09805505 -0.015483052 -0.23357144 0.14763209 -0.23466203 -0.17580642 0.10401086 0.009367413
-0.14196056 -0.099713035 0.029242588 -0.3925275 -0.42288837 -0.11916612 -0.020631198 -0.091082685
-0.15744504 0.050327078 -0.21902652 -0.28415397 -0.11110999 0.039723817 0.14045388 -0.18721753
0.0134999985 -0.022595277 0.0071900473 -0.07910312 0.08624904 -0.038672805 0.080490224 -0.0823167
0.06580445 0.16335644 -0.1734521 0.20152278 -0.031983536 0.14113328 0.017534673 -0.034930274
0.1230636 -0.18967748 0.23653348 -0.1691193 0.006043397 -0.20511337 0.028385647 -0.030687377
0.086763814 0.06434996 0.002356458 -0.010170366 -0.019067585 0.040574994 0.11198097 0.05530851
00000000: 0d4b fa3b 06c4 8d3b ccb2 623d c876 7fbd
00000010: 5aca 193e 4391 8e3d 3e06 bd3d 3648 2fbd
00000020: 817b 48bd 9175 7c3c 672e 423b 99ea f83b
00000030: 294c 9b3d 3406 60bc ed5c e83d d3ba 9e3d
00000040: a00a 933d c8bd 173e ef10 463e 5f1d 443e
00000050: cd40 f63d 3b11 4ebe b7db 0e3a 3b70 ec3d
00000060: 88ff 8c3e ef4c 8abd 9246 f53d a68c 903d
00000070: 928a 2a3e 3cef a93c 234a 383c 0b5e 173e
00000080: bb0d 0abd ec2e e63a c3c4 e1bd 6865 b03d
00000090: d874 aebd b40f b23c 2472 11be 541e 89bd
000000a0: 2c2a d03d 8203 a5bd bc14 873e 227c f1bd
000000b0: 66a4 093e 9e4b a1bd ffe6 47be e842 13be
000000c0: ab32 bfbd 1304 d73b f870 aabd bdbd 273d
000000d0: 4111 bd3c 6c48 10bd 7342 413e 0092 023c
000000e0: 5aec 623d 08ef 193e 1141 6d3d a655 ad3a
000000f0: 64c6 763e c3cb d0bc 8087 b7bd 28f3 b2bd
00000100: d584 473d 9a4f 09be 8749 15bd 2783 893d
00000110: 54a7 f73d 2cc3 fb3c 1215 823d 45b3 4a3d
00000120: 9fa2 73bc c885 f53c b4b0 833e 1e8f 3d3d
00000130: 7962 3a3e e74c c2bd 3465 1fbd e7b3 64be
00000140: a3ba 563e b7b0 673d 9bfc 9dbc 3433 183d
00000150: b9c8 e93b 9688 443d 2f1c 50bd de62 b03d
00000160: 6a9f 03be 4197 d9bd b3f7 3e3e e5e2 10bd
00000170: 8c77 20be 6b32 a43d 609f 86bd 24f8 c93c
00000180: 3698 d13c 9451 003e 4e2b 9abd 6e36 7dbd
00000190: 8af6 1fbe 133e 85bd 5b62 44be 8228 953d
000001a0: 0ab3 693d dc8b 71bb 079f 0e3d 45db 9f3d
000001b0: 5318 19be aabd 423e 76f9 a2bd c3e5 b53c
000001c0: 5ccb 51bc 5e13 45be 4337 1cbd a080 a0bd
000001d0: f19d 1dbc c763 29be e711 ac3d da74 1fbe
000001e0: 0e7f 8ebd 8354 fc3d 0c85 69bd ea73 35bd
000001f0: 9c93 043e b302 f5bd 90ce 2fbe f9ed 07be
00000200: 1600 87bd 98ef 81bc 05e5 94bd 9f23 d9bd
00000210: 1b60 cb3d 077c adbd 7cb4 9e3c 2975 4b3d
00000220: 056f b2bc 9421 5b3e a7dd 703e 17ac 953e
00000230: d274 263d a78c 413e 92d8 e9bb 3f2b eebd
00000240: 3245 21be 5dbe 383d 79f5 9f3a c161 313d
00000250: 0ae9 063e 8fdd 623b 0e4a dcbd 0f22 483e
00000260: ee1b 083b d7a6 e3bd 4e4e ca3d c82f 5dbc
00000270: ab3f 623e cd2b d1bc 3ca4 b23d fe9c 3f3e
00000280: e0bb 7b3d 417e 07be 1a76 7c3d a9ab d03d
00000290: be07 5cbd b74f 893d 297a 963d 98b7 18bd
000002a0: 7373 03be 3aba d0bd baf7 7f3d 4b01 05be
000002b0: 9469 ac3d ef76 893d 56b4 ad3c 3431 08be
000002c0: 14f1 d7bd 6bee 893d ae78 26be d55f 133e
000002d0: 0742 083e 6b07 cd3b 084a 03be c3b2 03bd
000002e0: 55d1 c23d ab73 fbbd fb69 36be 0d36 e63c
000002f0: 9659 6b3d 3b2f 64be 4496 5abd 11e0 543e
00000300: 0055 273e 981a 133c bc92 e63d 0e09 bf3c
00000310: f668 8ebe fd09 dd3d ab9f 0abe fa81 34bc
00000320: 16d1 c83d a0ac 7dbc 5a2d 6fbe de2c 173e
00000330: 3e4b 70be 9906 34be a503 d53d c779 193c
00000340: 1c5e 11be 5936 ccbd 278e ef3c 5df9 c8be
00000350: d384 d8be 5e0d f4bd c202 a9bc 8f89 babd
00000360: 4639 21be c423 4e3d 7d48 60be a17c 91be
00000370: a28d e3bd 71b5 223d 24d3 0f3e f4b5 3fbe
00000380: 192f 5d3c bb19 b9bc 7d9a eb3b d100 a2bd
00000390: 56a3 b03d 6067 1ebd 0fd8 a43d a895 a8bd
000003a0: 7cc4 863d e946 273e 6d9d 31be fd5b 4e3e
000003b0: 2b01 03bd 3e85 103e e0a4 8f3c 0c13 0fbd
000003c0: c508 fc3d d03a 42be d535 723e 9c2d 2dbe
000003d0: b007 c63b 3d09 52be 0489 e83c 1864 fbbc
000003e0: 3ab1 b13d e9c9 833d ce6e 1a3b 9ba1 26bc
000003f0: a033 9cbc f731 263d 4756 e53d 2d8b 623d

layers.0.ufh.j_weight f4 [32, 32]
0.024888042 -0.06906026 0.029183008 -0.012984325 0.12183631 -0.032241926 -0.22225085 -0.0077181365
0.004895713 -0.026694732 0.14161064 -0.06546595 0.10249437 0.19365887 0.06800266 -0.18501982
0.083283395 0.163333 -0.12269168 0.19135487 0.13320896 0.025038773 0.0014739878 0.14931408
0.08162627 -0.17368641 0.081719816 0.14904672 0.045750953 0.08300855 -0.12623282 0.35113
-0.011518756 0.03510469 0.10545046 -0.005749006 0.14855735 0.23398377 0.15688518 -0.028244467
0.0010391424 -0.07385243 -0.38726673 -0.036986183 -0.22323062 -0.046732426 0.057528377 0.09452335
-0.09953305 -0.2038698 0.021921294 -0.21822773 -0.29320616 -0.029180393 0.06665669 -0.085444875
0.08303878 0.025898736 -0.1809574 -0.027466714 -0.17057797 0.033666167 0.012104979 -0.23614883
-0.114539616 0.04790652 0.0030328494 -0.10812036 0.1416193 -0.106451035 -0.04718634 -0.060805928
0.114060305 0.1873987 0.38744193 0.08240854 0.2177556 0.14675406 -0.19698478 -0.13163684
-0.09284844 0.17272402 0.027208705 0.31995466 0.3746254 0.17541498 0.12783296 0.20820859
0.10303968 -0.0064171855 0.3488191 0.04940644 0.4252319 -0.00563882 0.090311944 0.19317539
-0.036187798 -0.040999398 -0.08365184 0.025067719 0.10884519 -0.075692475 -0.027141964 0.09414869
-0.041174117 -0.08084244 0.0965058 -0.09283419 -0.03115381 -0.016597208 0.085345514 0.092373624
-0.09421188 0.049764782 0.17004448 -0.07107201 -0.13713272 0.05797861 0.21262123 -0.11396198
0.061617956 -0.14356911 -0.26140904 -0.028415365 -0.09636509 0.039696563 0.06845186 -0.22070266
0.06871307 -0.013361725 0.16875155 -0.0077881776 -0.054678902 0.07393295 -0.006816867 0.16183992
0.06957291 0.039255485 -0.070211396 -0.16139184 -0.3292373 -0.19010997 -0.1264912 0.09697906
0.053212896 -0.19088744 0.07544436 -0.32570782 -0.054678485 -0.09520112 0.30069703 -0.04331495
-0.08839016 0.08389897 -0.26790893 -0.024400033 0.051889088 -0.019002728 0.05647803 -0.32752258
-0.02584577 -0.05998226 -0.05186963 0.010900666 0.0826461 -0.016481668 0.17209886 -0.038415503
0.122706234 0.09361333 0.21296209 0.17283972 0.10436688 0.11562026 0.028990898 -0.11711794
0.03596299 0.098710194 0.14151855 0.14050259 0.29319495 0.12230004 -0.010935803 0.06758547
0.14280564 0.073645905 0.10467814 0.090721145 0.10460272 0.019722221 -0.11164113 0.18976957
0.10187731 0.06627047 0.17205048 0.037518993 -0.009566872 0.15748075 -0.029850438 0.0648054
0.1244898 -0.080772765 -0.3128761 0.14382954 -0.058123462 -0.06153936 0.135941 0.18695872
0.055672538 -0.21522169 -0.020817358 -0.21941446 -0.26418895 -0.07119741 -0.17348433 -0.0138821015
-0.14300507 -0.10054505 -0.20875292 -0.16748616 -0.19293752 -0.097373396 -0.1973492 -0.16015063
-0.005867022 -0.039930735 0.05000959 -0.056721255 -0.16999127 0.07512969 -0.064071134 0.06259196
-0.012822931 -0.063192695 -0.057286277 0.11054631 -0.22611405 0.16031794 0.10948153 -0.078465305
-0.023339834 -0.11311314 -0.18550889 -0.06268043 -0.18803638 -0.062360227 -0.023372028 -0.026058963
-0.057568487 0.07273132 0.15930903 -0.09265589 -0.17669061 -0.12038784 -0.12184357 0.0640067
00000000: 02e2 cb3c 776f 8dbd 3411 ef3c 35bc 54bc
00000010: 5185 f93d 1c10 04bd ba95 63be 6ce8 fcbb
00000020: 386c a03b e9ae dabc 6102 113e 0313 86bd
00000030: 91e8 d13d 834e 463e fb44 8b3d d675 3dbe
00000040: 7c90 aa3d c440 273e c745 fbbd 88f2 433e
00000050: ee67 083e 1d1e cd3c d332 c13a cae5 183e
00000060: ad2b a73d dada 31be b85c a73d b49f 183e
00000070: 5a65 3b3d 6300 aa3d 2d43 01be 50c7 b33e
00000080: 2ab9 3cbc efc9 0f3d 69f6 d73d 2862 bcbb
00000090: 6b1f 183e 7199 6f3e 82a6 203e f160 e7bc
000000a0: d533 883a f13f 97bd d347 c6be d37e 17bd
000000b0: 9196 64be 806a 3fbd e0a2 6b3d 7595 c13d
000000c0: fcd7 cbbd 3fc3 50be 4994 b33c 1777 5fbe
000000d0: 1e1f 96be b80b efbc 4d83 883d b9fd aebd
000000e0: 3c10 aa3d 9629 d43c e64c 39be e001 e1bc
000000f0: feab 2ebe 89e5 093d f653 463c 00d1 71be
00000100: bf93 eabd a139 443d c5c2 463b 356e ddbd
00000110: a604 113e 0003 dabd 7746 41bd a30f 79bd
00000120: 7398 e93d 72e5 3f3e ca5e c63e cfc5 a83d
00000130: 53fb 5e3e b246 163e 61b6 49be cfcb 06be
00000140: 5327 bebd 91de 303e cae4 de3c 19d1 a33e
00000150: e7ce bf3e fc9f 333e a5e6 023e a234 553e
00000160: 7806 d33d 4147 d2bb 6b98 b23e 685e 4a3d
00000170: ffb7 d93e dac5 b8bb 78f5 b83d c5cf 453e
00000180: a839 14bd fcee 27bd a851 abbd d15a cd3c
00000190: 3aea de3d a804 9bbd d358 debc 07d1 c03d
000001a0: 31a6 28bd b990 a5bd d5a4 c53d da1f bebd
000001b0: 4636 ffbc def6 87bc a1c9 ae3d 622e bd3d
000001c0: 28f2 c0bd 28d6 4b3d 2420 2e3e 348e 91bd
000001d0: 856c 0cbe fb7a 6d3d 61b9 593e e664 e9bd
000001e0: 1c63 7c3d c803 13be 68d7 85be 57c7 e8bc
000001f0: 0f5b c5bd dd98 223d 7d30 8c3d e1ff 61be
00000200: 70b9 8c3d 23eb 5abc 35cd 2c3e f833 ffbb
00000210: fcf6 5fbd 296a 973d 0660 dfbb 5db9 253e
00000220: 3e7c 8e3d 5cca 203d feca 8fbd e743 25be
00000230: cb91 a8be 30ac 42be e986 01be f59c c63d
00000240: c4f5 593d ff77 43be 9382 9a3d 2dc3 a6be
00000250: 8cf6 5fbd cef8 c2bd f6f4 993e 046b 31bd
00000260: e605 b5bd 39d3 ab3d 5c2b 89be 94e2 c7bc
00000270: a789 543d 9cab 9bbc 8255 673d 0ab1 a7be
00000280: 82ba d3bc f5af 75bd 4075 54bd b598 323c
00000290: 5c42 a93d 9004 87bc af3a 303e 9359 1dbd
000002a0: 684d fb3d 58b8 bf3d bc12 5a3e e5fc 303e
000002b0: 4ebe d53d 51ca ec3d 527e ed3c 88db efbd
000002c0: ee4d 133d 9228 ca3d 3dea 103e e9df 0f3e
000002d0: a61d 963e 7278 fa3d 152c 33bc 406a 8a3d
000002e0: a43b 123e aad3 963d 7e61 d63d 02cc b93d
000002f0: f339 d63d 7f90 a13c 1ba4 e4bd f452 423e
00000300: 0da5 d03d d0b8 873d 002e 303e 84ad 193d
00000310: 5fbe 1cbc a242 213e e888 f4bc b2b8 843d
00000320: 82f4 fe3d 316c a5bd 4c31 a0be 0d48 133e
00000330: de12 6ebd b210 7cbd 1e34 0b3e 1b72 3f3e
00000340: e308 643d 1363 5cbe 2a89 aabc 2fae 60be
00000350: c643 87be f3cf 91bd e0a5 31be c171 63bc
00000360: ec6f 12be 90ea cdbd 53c3 55be 7e81 2bbe
00000370: 6a91 45be b46b c7bd e915 4abe 87fe 23be
00000380: 2640 c0bb 698e 23bd dbd6 4c3d 8c54 68bd
00000390: 3112 2ebe 98dd 993d ba37 83bd 3730 803d
000003a0: 4517 52bc 2c6b 81bd 04a5 6abd 1b66 e23d
000003b0: 718a 67be 632a 243e da37 e03d 6bb2 a0bd
000003c0: 2e33 bfbc dda7 e7bd 0bf6 3dbe 995e 80bd
000003d0: 9c8c 40be 706d 7fbd b276 bfbc 9b79 d5bc
000003e0: efcc 6bbd 29f4 943d e821 233e 5fc2 bdbd
000003f0: 62ee 34be e68d f6bd 1f89 f9bd f215 833d

layers.0.ufh.k_weight f4 [32, 32]
-0.07071177 0.040282376 -0.08991008 -0.0548387 0.03477469 0.03493478 -0.01824658 -0.028390732
0.10364194 0.046877474 -0.20914397 0.074291244 -0.04390085 0.04666676 0.045326788 0.11593823
-0.113769434 -0.19914421 0.054975405 -0.19305196 -0.15310551 0.038813885 0.023488184 0.011910807
-0.14320186 0.17785975 -0.09914444 -0.23465686 -0.24832717 0.13514583 -0.048353713 0.003459501
-0.0073627527 -0.034512516 0.14398094 -0.023027524 0.10038757 -0.05969632 0.09745886 -0.07557923
0.011606473 0.014704699 0.25758064 0.007824167 0.3074294 0.097854696 -0.10072554 0.051963843
-0.07934628 0.22837359 0.032470103 0.2872376 0.30881244 0.17179316 0.14738214 0.101224974
0.054833706 0.06536859 0.12211088 0.20946892 0.12895791 -0.014357641 0.17339246 0.3564874
-0.046454933 0.15473488 0.087528214 0.11090812 0.034244444 0.016533809 -0.027584672 -0.08327054
0.01656122 0.17046256 -0.024428768 0.043822885 0.0943286 -0.028028844 -0.09100244 0.05275787
0.07419573 0.013673841 0.047075607 0.11530362 0.04409158 -0.028423551 -0.05040998 0.0766368
0.1051984 0.026619116 0.12561803 0.053220186 0.11138067 0.16516227 0.006233202 0.18340676
-0.020718805 -0.07586689 0.07692402 0.012721427 0.0036667725 -0.046239268 -0.15678805 0.10273023
-0.032003164 0.19897455 0.010741495 -0.061427202 0.11914122 -0.35125634 -0.13197498 0.001105096
-0.09884342 0.07347313 0.03356436 -0.09028524 0.06635442 0.26536703 0.019631734 0.00090126874
0.11550562 -0.0013602832 0.064905204 0.050816774 0.31248856 -0.1895723 -0.031328388 0.06284404
-0.050906837 -0.055828195 -0.020317396 0.113629 0.17586474 -0.04177101 0.0023765094 0.028146762
0.05239965 0.052839365 -0.23415811 0.1250384 0.05431694 0.0113519 0.003507717 0.02696662
-0.019176502 0.18068822 0.13494998 0.16770917 -0.09606636 0.14552657 -0.25072372 -0.0791015
-0.13352916 -0.08198028 0.15219642 0.018765416 0.15291038 0.06970713 -0.052711193 0.27252877
0.1589033 -0.17887397 -0.02833046 -0.032713458 0.16510367 0.11255058 -0.0873162 -0.011264806
0.10707661 0.11094567 0.0715884 0.02270877 -0.21156776 0.108588524 -0.037835907 -0.012258252
-0.032779343 -0.07285252 -0.058856044 0.027387539 0.14046139 -0.16826744 -0.07850227 -0.0024187334
0.13502982 0.04661624 0.13632658 0.15125123 0.21872732 0.18820111 -0.04983968 0.26842803
0.13472386 0.06527434 0.012626328 -0.020179238 0.017735071 0.054433614 -0.036390606 -0.015101082
-0.070767716 0.113030784 0.020219248 -0.17277448 0.08834538 -0.04499784 0.0040526325 0.24293154
-0.06795396 -0.048652507 0.022173682 0.018726215 -0.19558379 0.036046498 0.06397155 -0.14597559
-0.09934774 0.020130504 -0.11825137 -0.16808976 0.20052786 0.13844939 -0.08530528 -0.30302843
-0.050578255 0.09560352 -0.050775096 -0.013169896 0.006633875 0.036726244 -0.03612785 0.09437896
0.29173687 0.16826348 -0.0007523555 0.006041194 -0.018479757 -0.21373361 0.08266243 0.019327505
-0.068870954 -0.13255563 0.06958771 -0.22406109 0.06704478 0.1429109 -0.06775569 -0.061012257
0.0045716814 0.004011283 -0.052283898 -0.155537 0.31953514 -0.06346558 0.058873784 -0.26756385
00000000: 55d1 90bd 22ff 243d c722 b8bd 8b9e 60bd
00000010: e86f 0e3d c617 0f3d da79 95bc ae93 e8bc
00000020: 3a42 d43d 9802 403d d629 56be 0226 983d
00000030: 61d1 33bd a525 3f3d 95a8 393d 0671 ed3d
00000040: f3ff e8bd 76ec 4bbe e42d 613d 6aaf 45be
00000050: b1c7 1cbe 4ffb 1e3d 4b6a c03c 8c25 433c
00000060: 82a3 12be de20 363e 3d0c cbbd e349 70be
00000070: 7a49 7ebe ab63 0a3e 8b0e 46bd ccb8 623b
00000080: 3f43 f1bb ff5c 0dbd bd6f 133e 38a4 bcbc
00000090: 0098 cd3d 2184 74bd 8398 c73d 49c9 9abd
000000a0: 1329 3e3c faeb 703c 9ce1 833e ef30 003c
000000b0: 6367 9d3e 0b68 c83d 3149 cebd 0ad8 543d
000000c0: 4d80 a2bd c4da 693e 5fff 043d cf10 933e
000000d0: aa1c 9e3e 8cea 2f3e 58eb 163e 0a4f cf3d
000000e0: 4f99 603d f8df 853d 4515 fa3d 057f 563e
000000f0: 8b0d 043e 503c 6bbc cb8d 313e 8485 b63e
00000100: 8747 3ebd d272 1e3e fe41 b33d cc23 e33d
00000110: e743 0c3d e971 873c 40f9 e1bc bf89 aabd
00000120: 65ab 873c bd8d 2e3e d71e c8bc a07f 333d
00000130: 5a2f c13d bf9c e5bc 7d5f babd a318 583d
00000140: eef3 973d 3f08 603c 5ad2 403d 4e24 ec3d
00000150: 5f99 343d 82d8 e8bc b27a 4ebd c1f3 9c3d
00000160: 4272 d73d 5510 da3c 03a2 003e 69fd 593d
00000170: 8c1b e43d 4c20 293e e33f cc3b fbce 3b3e
00000180: 7cba a9bc 1a60 9bbd 578a 9d3d 886d 503c
00000190: 3c4e 703b 6365 3dbd 0c8d 20be 3a64 d23d
000001a0: c015 03bd fcbf 4b3e 18fd 2f3c 179b 7bbd
000001b0: 5000 f43d dfd7 b3be 7324 07be ded8 903a
000001c0: 6b6e cabd 1579 963d c87a 093d 78e7 b8bd
000001d0: d3e4 873d 30de 873e bbd2 a03c 1f43 6c3a
000001e0: 368e ec3d 884b b2ba 05ed 843d 4025 503d
000001f0: 80fe 9f3e 3e1f 42be 3252 00bd 60b4 803d
00000200: b083 50bd 1bac 64bd ab70 a6bc 52b6 e83d
00000210: e315 343e 1418 2bbd 36bf 1b3b 0a94 e63c
00000220: 04a1 563d 176e 583d 25c7 6fbe 110a 003e
00000230: 717b 5e3d 52fd 393c bae1 653b 1ae9 dc3c
00000240: 0a18 9dbc 5506 393e 5430 0a3e f4bb 2b3e
00000250: 71be c4bd eb04 153e dc5e 80be f8ff a1bd
00000260: debb 08be 47e5 a7bd 61d9 1b3e eeb9 993c
00000270: 8a94 1c3e 9dc2 8e3d b1e7 57bd e488 8b3e
00000280: 8cb7 223e bd2a 37be 4815 e8bc 8cfe 05bd
00000290: f010 293e eb80 e63d d6d2 b2bd 0590 38bc
000002a0: fb4a db3d 7c37 e33d f09c 923d be07 ba3c
000002b0: 38a5 58be a963 de3d d3f9 1abd d6d6 48bc
000002c0: a243 06bd b433 95bd 0913 71bd d55b e03c
000002d0: 1cd5 0f3e 4d4e 2cbe ccc5 a0bd 9d83 1ebb
000002e0: 4245 0a3e acf0 3e3d 3299 0b3e 9ae1 1a3e
000002f0: 0efa 5f3e cbb7 403e b124 4cbd 666f 893e
00000300: 0df5 093e 8eae 853d a8de 4e3c ee4e a5bc
00000310: 2449 913c c8f5 5e3d 510e 15bd 876a 77bc
00000320: aaee 90bd af7c e73d d6a2 a53c cbeb 30be
00000330: 6cee b43d a84f 38bd f2cb 843b 0cc3 783e
00000340: 722b 8bbd da47 47bd 95a5 b53c b867 993c
00000350: 1e47 48be 7ea5 133d 8403 833d a07a 15be
00000360: d476 cbbd bae8 a43c c62d f2bd b91f 2cbe
00000370: 2d57 4d3e adc5 0d3e 89b4 aebd 8b26 9bbe
00000380: 252b 4fbd c7cb c33d 8cf9 4fbd 8cc6 57bc
00000390: fa60 d93b 426e 163d ccfa 13bd c249 c13d
000003a0: 895e 953e 434d 2c3e b939 45ba 35f5 c53b
000003b0: dc62 97bc fcdc 5abe ec4a a93d b754 9e3c
000003c0: 370c 8dbd aabc 07be 0084 8e3d 4570 65be
000003d0: c64e 893d 3c57 123e 7fc3 8abd fde7 79bd
000003e0: 0bce 953b 1571 833b a427 56bd 1745 1fbe
000003f0: 1c9a a33e 3efa 81bd a325 713d 21fe 88be

layers.0.wix.r_weight f4 [1, 32]
-1.0155979 -0.717228 -0.7992476 -0.92681384 -0.42332116 -1.2321669 -0.48843035 -1.0328871
-0.575055 -0.51420635 -0.30377147 -0.6608579 -0.04361114 -0.44968864 -0.9157781 -0.41357836
-0.9091077 0.046857327 -0.50373465 -0.034555662 0.20021881 -0.8020921 -0.26160368 -0.39618152
-0.5538636 -0.6849648 -0.35804254 -0.23358518 0.09443844 -0.69648975 -0.6966038 -0.045378465
00000000: 1dff 81bf 419c 37bf 7e9b 4cbf ac43 6dbf
00000010: 8dbd d8be a5b7 9dbf 8b13 fabe a535 84bf
00000020: ce36 13bf 07a3 03bf ef87 9bbe fc2d 29bf
00000030: 98a1 32bd 973d e6be 6f70 6abf 8bc0 d3be
00000040: 48bb 68bf 78ed 3f3d c1f4 00bf 3d8a 0dbd
00000050: 2906 4d3e e855 4dbf ebf0 85be 4ed8 cabe
00000060: 01ca 0dbf da59 2fbf 5a51 b7be f430 6fbe
00000070: f168 c13d 274d 32bf a054 32bf c5de 39bd

layers.0.wix.i_weight f4 [1, 32]
-0.17549624 -0.12481036 -0.24413168 0.35960805 0.0004129079 -0.119467005 -0.282934 -0.13529314
-0.08582898 -0.0027097866 0.02234256 0.013782649 -0.05220041 -0.4309193 -0.022414638 -0.0970484
-0.019322982 -0.13628176 -0.31328863 -0.037291218 -0.08954677 -0.08183277 -0.04666581 -0.11423498
-0.43985564 -0.15588136 -0.30908358 -0.11393511 -0.3189538 -0.105129346 0.08397877 -0.25713718
00000000: 49b5 33be 939c ffbd a8fd 79be 8c1e b83e
00000010: 8f7b d839 1eab f4bd badc 90be 498a 0abe
00000020: 1bc7 afbd ad96 31bb bf07 b73c 9fd0 613c
00000030: 19d0 55bd 74a1 dcbe e79e b7bc 50c1 c6bd
00000040: 3b4b 9ebc 728d 0bbe 5e67 a0be adbe 18bd
00000050: 4c64 b7bd f097 a7bd a624 3fbd 07f4 e9bd
00000060: c234 e1be 5d9f 1fbe 3440 9ebe d056 e9bd
00000070: ea4d a3be 0e4e d7bd 10fd ab3d 7ca7 83be

layers.0.wix.j_weight f4 [1, 32]
-0.09230109 -0.12753628 -0.40451157 -0.62113434 0.14142784 -0.13538592 -0.47697857 -0.1549552
0.02800634 0.053314496 0.094735034 0.10526709 -0.010250124 0.4534325 0.015684001 -0.04457938
0.09345518 -0.1018544 0.3239544 0.08693434 -0.07607346 0.1555693 0.2149463 -0.18320988
-0.044982012 0.2551536 -0.28971016 0.06845928 -0.16559729 -0.084799595 -0.055082493 -0.07132866
00000000: 5b08 bdbd df98 02be 241c cfbe a902 1fbf
00000010: 76d2 103e 9ba2 0abe 8936 f4be 93ac 1ebe
00000020: 8d6d e53c 4d60 5a3d 7104 c23d 4696 d73d
00000030: 23f0 27bc 4e28 e83e bc7b 803c de98 36bd
00000040: 6e65 bf3d 0a99 d0bd 5add a53e a20a b23d
00000050: 67cc 9bbd 8f4d 1f3e e21a 5c3e 5f9b 3bbe
00000060: 0f3f 38bd 7ea3 823e e454 94be 6134 8c3d
00000070: 5692 29be 69ab adbd 2e9e 61bd c314 92bd

layers.0.wix.k_weight f4 [1, 32]
0.20276387 0.11566519 0.08858818 0.5281015 -0.2990229 -0.35661536 0.111431144 0.10124853
0.45222786 0.10544124 -0.19111331 -0.03558914 0.09367769 -0.19638042 0.19704567 0.13721484
0.03984054 -0.02517145 0.10283716 0.16573977 0.2619218 0.006775459 0.12950964 0.35733783
-0.014091008 0.005947483 0.27112585 0.120164774 0.26961023 -0.18920118 -0.054112364 -0.033223163
00000000: 55a1 4f3e dfe1 ec3d b86d b53d a931 073f
00000010: 8819 99be 4a96 b6be 0336 e43d 645b cf3d
00000020: 698a e73e 94f1 d73d 35b3 43be ebc5 11bd
00000030: 17da bf3d f317 49be 57c6 493e 0c82 0c3e
00000040: d62f 233d 5b34 cebc 4a9c d23d b0b7 293e
00000050: 9d1a 863e ab04 de3b 2d9e 043e fcf4 b63e
00000060: f9dd 66bc 1ae3 c23b 02d1 8a3e f318 f63d
00000070: 5a0a 8a3e f4bd 41be eda4 5dbd 0315 08bd

layers.0.wix.bias f4 [128]
-3.1318905 -2.5282238 -3.066447 -3.0234144 -2.847207 -3.0914533 -3.0747578 -3.2017314
-1.3576868 -3.0639052 0.13671373 -1.3890762 -0.5395859 -2.045921 -3.4028301 -1.8481269
-1.9785959 0.15808928 -3.2240994 0.20981048 -0.22584201 -3.0114694 -0.04901721 -2.7801063
-3.2255847 -2.9607322 -1.735611 -0.1360593 0.08209503 -3.051509 -2.483146 -0.01031478
-3.199712 -2.7083452 -2.9953263 -3.116322 -2.725172 -3.088692 -2.870234 -3.251028
-1.8353691 -2.9091008 -0.009468334 -1.2391505 -0.67946386 -1.9344093 -3.3229356 -1.901845
-2.1131902 0.27187514 -3.0325794 0.19840215 -0.2390311 -2.9727957 -0.07440165 -2.9032898
-3.0775661 -2.8748882 -1.9994767 0.12406316 0.14733496 -2.8324754 -2.556907 0.11387715
-3.0976796 -2.652068 -2.9046237 -2.9657445 -2.8795218 -3.1277642 -2.8744366 -3.2233121
-1.1469544 -2.922701 -0.097184375 -1.489845 -0.1655801 -1.7845117 -3.312851 -1.7412584
-2.0303974 0.21699958 -3.1477878 0.14255232 -0.14008397 -3.0394475 -0.07487974 -2.6496718
-3.1690333 -3.0328462 -2.0982475 0.015056227 0.003491899 -2.954477 -2.6470094 -0.009171088
-3.132093 -2.9717393 -2.8884008 -2.9817507 -2.7030704 -3.1054184 -2.812044 -3.2508852
-1.4624412 -2.7533948 0.23227623 -1.2656149 -0.3339875 -1.7935414 -3.3407931 -2.0833209
-2.179185 0.17050414 -2.9933047 0.23747829 -0.30274618 -2.9273489 -0.11041844 -2.7610588
-3.1161866 -2.859388 -1.912524 0.04381416 0.24898514 -2.8222675 -3.0027957 0.11888466
00000000: e570 48c0 6bce 21c0 ab40 44c0 9f7f 41c0
00000010: a438 36c0 5fda 45c0 d5c8 44c0 2be9 4cc0
00000020: aec8 adbf 0617 44c0 affe 0b3e 40cd b1bf
00000030: 4d22 0abf 5ff0 02c0 f8c7 59c0 6c8f ecbf
00000040: a142 fdbf 28e2 213e a557 4ec0 8fd8 563e
00000050: 2143 67be eabb 40c0 45c6 48bd 43ed 31c0
00000060: fb6f 4ec0 a37c 3dc0 8028 debf 2153 0bbe
00000070: 7021 a83d ec4b 43c0 ddeb 1ec0 53ff 28bc
00000080: 15c8 4cc0 8755 2dc0 6db3 3fc0 d271 47c0
00000090: 3869 2ec0 21ad 45c0 eab1 37c0 d810 50c0
000000a0: 60ed eabf b52e 3ac0 1221 1bbc 7c9c 9ebf
000000b0: 58f1 2dbf b99a f7bf faaa 54c0 a86f f3bf
000000c0: 823e 07c0 3833 8b3e c815 42c0 ef29 4b3e
000000d0: 92c4 74be 4942 3ec0 e45f 98bd 80cf 39c0
000000e0: d8f6 44c0 2bfe 37c0 daee ffbf d314 fe3d
000000f0: fade 163e 4747 35c0 5da4 23c0 6c38 e93d
00000100: 6240 46c0 7bbb 29c0 5be5 39c0 c2ce 3dc0
00000110: 164a 38c0 4a2d 48c0 c5f6 37c0 bf4a 4ec0
00000120: 67cf 92bf 880d 3bc0 9a08 c7bd 3eb3 bebf
00000130: d48d 29be e16a e4bf c005 54c0 8ee1 debf
00000140: 08f2 01c0 2335 5e3e 5b75 49c0 3cf9 113e
00000150: 2c72 0fbe 4f86 42c0 8d5a 99bd 3994 29c0
00000160: 71d1 4ac0 271a 42c0 b049 06c0 65ae 763c
00000170: 58d8 643b 2716 3dc0 9a68 29c0 5542 16bc
00000180: 3674 48c0 fa30 3ec0 8fdb 38c0 01d5 3ec0
00000190: 1bff 2cc0 2dbf 46c0 87f8 33c0 810e 50c0
000001a0: 4631 bbbf 9f37 30c0 d2d9 6d3e abff a1bf
000001b0: 6900 abbe c492 e5bf 8ecf 55c0 2155 05c0
000001c0: c477 0bc0 a398 2e3e 4e92 3fc0 822d 733e
000001d0: 8c01 9bbe af59 3bc0 1023 e2bd 30b5 30c0
000001e0: 9a6f 47c0 3700 37c0 96cd f4bf 7a76 333d
000001f0: f6f5 7e3e 08a0 34c0 ce2d 40c0 cd79 f33d

layers.0.uih.r_weight f4 [32, 32]
-0.14856026 0.2679553 0.19860849 0.025261989 -0.10721023 0.072937556 0.17490067 -0.06301457
-0.08018005 0.08384897 -0.29676005 -0.07447491 -0.16149518 -0.14940327 0.14205292 0.05591893
-0.09888072 0.07430118 0.08989897 0.16344602 0.13134356 0.09057788 -0.17451678 0.057155773
-0.19176896 -0.14332984 -0.19464795 0.12307384 -0.13611408 -0.12308596 0.07067072 -0.050644334
-0.20717983 -0.0308458 -0.0038366902 -0.06876745 -0.20611045 -0.06475817 0.07526943 0.12198727
0.32232654 0.08983107 -0.06693613 0.170908 -0.27371114 -0.14405969 0.044303454 0.09853842
-0.3081496 -0.23851281 0.13958596 -0.06493419 0.08952009 -0.08548209 -0.17769618 -0.23692028
-0.027645433 -0.1272294 -0.15365808 -0.014273205 0.11498536 0.082634054 0.02577243 -0.06972856
-0.19177333 -0.43355253 0.091873854 0.008501745 0.11264547 0.18970923 0.2023061 0.18546134
0.071472704 -0.14352152 0.41039938 -0.046426475 0.41773343 0.17558905 0.08903902 -0.09888585
-0.09654804 0.20083852 -0.038474444 0.15257181 0.07335569 0.051991258 0.074176386 0.4134813
-0.2620288 -0.16099639 0.2773011 0.33135703 -0.15780297 0.110771224 0.09743482 -0.0026057544
0.13949132 -0.16934466 0.019158388 0.029465986 0.10390663 -0.104092956 -0.17199537 0.06774631
-0.35979652 -0.10822636 0.21457893 0.15903978 0.06054698 0.105567314 -0.022268774 -0.32211226
-0.0051579056 0.028834758 0.46949938 0.24956805 0.16729593 0.17002907 0.3590911 0.042786535
-0.18529199 -0.2447535 0.23763196 0.47394535 0.08259871 -0.016362721 0.087590046 0.18707263
0.13376011 -0.16571775 0.109196655 0.24672994 0.08482795 0.1350923 0.18773401 -0.06451457
-0.25258183 -0.04031046 0.3025403 0.13523315 0.22664736 -0.19700573 -0.0654217 -0.14139687
0.040947784 0.42684928 0.15650834 0.20114447 -0.10359426 -0.028838014 0.2110648 0.29157305
0.04968497 -0.07866375 0.037038676 0.08635591 0.2659862 0.19273914 0.013392737 0.4625924
-0.085050546 -0.2660168 -0.08818069 -0.26872903 -0.145047 0.13474643 -0.016169077 0.075251475
0.25576928 -0.18814145 0.07348257 0.23453474 0.3232756 -0.26880342 0.069337234 -0.093701154
0.18821113 -0.17391679 0.26369122 0.065121315 0.10228055 -0.043413304 -0.057541586 0.040448777
-0.04648928 -0.053923793 0.30124936 -0.03236876 -0.009643002 -0.14147118 0.000172318 0.07307731
0.1243892 0.08967125 -0.035252992 -0.09947754 0.019077366 -0.22752842 -0.16622776 -0.06163332
-0.22221807 -0.18997635 -0.053530112 -0.14664686 -0.14201055 -0.23035176 -0.0229583 0.15757957
-0.08938032 -0.1644822 -0.1280406 -0.010273559 0.040121518 -0.012525968 -0.09397537 -0.19238928
0.07737056 0.19177976 -0.037011288 0.1784348 0.20485783 0.13820225 -0.10880376 -0.16339612
-0.0022643649 -0.23736116 0.17950028 -0.04172676 -0.03417192 -0.1384797 -0.13884155 0.089218006
-0.23721232 0.14858267 0.05049037 -0.03590088 -0.13508844 0.03183503 -0.16582674 0.020257592
0.044276174 -0.009887256 0.13284074 0.041721288 -0.22833364 0.121189415 -0.052523524 -0.09706102
0.25716516 0.14041942 -0.06536799 0.16868271 -0.2409639 0.298639 -0.095200926 0.060108233
00000000: 2e20 18be 7031 893e 0660 4b3e 3bf2 ce3c
00000010: 0991 dbbd 4960 953d 2919 333e c80d 81bd
00000020: 7035 a4bd 02b9 ab3d eff0 97be 4d86 98bd
00000030: fe5e 25be 2cfd 18be 5276 113e 3f0b 653d
00000040: fa81 cabd 382b 983d f41c b83d 655e 273e
00000050: ed7e 063e e580 b93d 87b4 32be 2c1c 6a3d
00000060: 155f 44be 0fc5 12be cb51 47be 230e fc3d
00000070: 7d61 0bbe 7e14 fcbd cfbb 903d 6f70 4fbd
00000080: f326 54be 55b0 fcbc fb70 7bbb f3d5 8cbd
00000090: 9e0e 53be ee9f 84bd dc26 9a3d 76d4 f93d
000000a0: fc07 a53e 5af9 b73d cf15 89bd 8202 2f3e
000000b0: de23 8cbe 6284 13be 8a77 353d 83ce c93d
000000c0: c9c5 9dbe b43c 74be 9fef 0e3e 37fc 84bd
000000d0: 4f56 b73d 3c11 afbd fdf5 35be 3b9b 72be
000000e0: ad78 e2bc 6d48 02be 8b58 1dbe 29da 69bc
000000f0: 727d eb3d 0b3c a93d b420 d33c d9cd 8ebd
00000100: 3a60 44be 99fa ddbe 5c28 bc3d e74a 0b3c
00000110: abb2 e63d 2343 423e 5529 4f3e 94e9 3d3e
00000120: 4860 923d 4ef7 12be de1f d23e b029 3ebd
00000130: 28e1 d53e 9ecd 333e 175a b63d aa84 cabd
00000140: fbba c5bd 9da8 4d3e 6197 1dbd c93b 1c3e
00000150: 823b 963d c9f4 543d cae9 973d d2b3 d33e
00000160: a428 86be 3ddc 24be 69fa 8d3e a1a7 a93e
00000170: 1a97 21be 06dc e23d e88b c73d 4ec5 2abb
00000180: d0d6 0e3e b068 2dbe 0df2 9c3c a762 f13c
00000190: 00cd d43d b02e d5bd 8e1f 30be 94be 8a3d
000001a0: 4037 b8be c8a5 ddbd 94ba 5b3e 53db 223e
000001b0: 1c00 783d ad33 d83d 016d b6bc e6eb a4be
000001c0: a603 a9bb df36 ec3c 3962 f03e c48e 7f3e
000001d0: a04f 2b3e 1a1c 2e3e cada b73e ef40 2f3d
000001e0: 2fbd 3dbe a9a0 7abe cb55 733e f7a8 f23e
000001f0: 8329 a93d 1d0b 86bc 6962 b33d f88f 3f3e
00000200: 69f8 083e eab1 29be 7fa2 df3d c6a6 7c3e
00000210: 47ba ad3d a355 0a3e 583d 403e 3720 84bd
00000220: 6852 81be 951c 25bd 90e6 9a3e 8f7a 0a3e
00000230: 3f16 683e dfbb 49be d0fb 85bd 57ca 10be
00000240: ddb8 273d fd8b da3e b943 203e d1f8 4d3e
00000250: 3a29 d4bd b33d ecbc 5f21 583e 1049 953e
00000260: 7882 4b3d 761a a1bd deb5 173d 5edb b03d
00000270: 582f 883e 695d 453e 366d 5b3c e9d8 ec3e
00000280: fb2e aebd 5b33 88be 1498 b4bd da96 89be
00000290: 3387 14be f8fa 093e 0375 84bc 721d 9a3d
000002a0: 31f4 823e 27a8 40be 087e 963d e029 703e
000002b0: 6184 a53e 9aa0 89be ae00 8e3d 64e6 bfbd
000002c0: 6bba 403e 3e17 32be 8902 873e 535e 853d
000002d0: 7778 d13d 26d2 31bd bab0 6bbd 9ead 253d
000002e0: 8b6b 3ebd 32df 5cbd 5b3d 9a3e 1b95 04bd
000002f0: affd 1dbc d2dd 10be 43b0 3439 8fa9 953d
00000300: c4bf fe3d 8fa5 b73d 7165 10bd e1ba cbbd
00000310: 2348 9c3c 36fd 68be 9c37 2abe 3873 7cbd
00000320: 228d 63be 2989 42be 6442 5bbd 982a 16be
00000330: 376b 11be 55e1 6bbe 0b13 bcbc 8a5c 213e
00000340: 070d b7bd 066e 28be 131d 03be 6e52 28bc
00000350: 7656 243d b839 4dbc 2976 c0bd b201 45be
00000360: 7574 9e3d ea61 443e 2699 17bd 9db7 363e
00000370: 40c6 513e e484 0d3e 81d4 debd 5051 27be
00000380: bd65 14bb ce0e 73be ecce 373e aee9 2abd
00000390: dbf7 0bbd 9fcd 0dbe 7b2c 0ebe eeb7 b63d
000003a0: c9e7 72be 0e26 183e fdce 4e3d cd0c 13bd
000003b0: a054 0abe 7365 023d 7cce 29be 40f3 a53c
000003c0: ef5a 353d 28fe 21bc 6707 083e f1e3 2a3d
000003d0: 4bd0 69be 2832 f83d e822 57bd eec7 c6bd
000003e0: 27ab 833e 1cca 0f3e a7df 85bd 29bb 2c3e
000003f0: 3ebf 76be 36e7 983e b4f8 c2bd 0d34 763d

layers.0.uih.i_weight f4 [32, 32]
0.039296605 -0.017625507 0.009174927 -0.11178722 0.13136792 0.16885415 0.13163817 0.01043033
-0.121533476 -0.04691201 0.18814597 -0.015141401 0.051663622 0.075302154 0.16178454 0.102747634
0.049371276 0.09228342 0.08739116 0.086828925 0.18419354 -0.05062586 0.13024716 0.194207
0.05676976 -0.12813362 0.16002405 -0.026943877 0.08302947 0.14787726 0.07302796 0.06142997
-0.07456897 0.22225288 -0.12120809 0.07893683 0.01745052 -0.025353037 -0.19248948 -0.07672015
0.14223646 -0.021822825 0.20002446 -0.026724057 0.17509641 -0.023364333 -0.3747069 -0.00816016
-0.08807596 0.080221884 -0.13228804 0.07044028 0.02671213 -0.015504278 0.12819977 -0.20839848
0.10397492 0.1278525 0.055333294 0.3301277 0.19317572 -0.068555586 -0.092830166 0.31767565
-0.012507711 -0.06491331 -0.06783625 -0.005925551 0.2992474 -0.10690013 0.06212902 0.078720346
0.08330601 0.099031396 0.0643883 -0.18861347 0.21098436 0.11328578 0.06619883 -0.09666001
0.041194413 0.22525293 0.18266127 0.06426441 0.124861196 0.12378204 0.14904234 0.074693754
0.14859605 -0.013581677 0.22243349 -0.17605978 0.08481742 0.074097134 -0.1278496 0.043331057
-0.004141563 0.120351054 -0.23263545 -0.10729657 -0.100332275 -0.045706727 -0.060324464 -0.037725296
0.0640541 0.1284255 -0.358706 0.051817857 -0.28291923 0.21569052 0.008374806 0.019649735
-0.115556575 -0.34782645 -0.1204276 -0.15477905 -0.26543257 -0.15657973 -0.0020209793 -0.03850839
-0.049708672 0.010806101 -0.1368026 -0.20693429 -0.031753354 -0.10635571 -0.027012803 -0.14128302
-0.083330095 -0.077519864 0.13517494 0.081671774 0.15477823 0.17687623 0.1172996 -0.06321467
0.03150423 0.20300989 0.1365103 0.17770937 0.15097994 0.28420237 -0.057145003 -0.078834645
-0.11407339 0.0161066 -0.03518249 0.2467832 0.21725182 -0.20613645 0.12780069 0.07824198
0.0603364 0.19237243 0.14850058 0.39144713 0.22444482 -0.0056558833 0.011584196 0.46024945
-0.06546761 -0.17510785 0.07815625 0.10296409 0.005372828 -0.023944795 0.1130498 -0.20394312
-0.15633632 -0.07252985 0.09768684 -0.039093595 0.0990618 -0.0017764488 -0.08786402 -0.19221888
0.002273887 0.20303084 -0.03564136 0.22473669 0.016886264 -0.040636826 0.08468428 0.13302167
0.05091996 -0.11371035 -0.120268695 0.08329987 0.19003521 0.020561233 -0.16002059 0.15875418
0.1428309 0.09826234 -0.040468212 -0.17052118 -0.17546695 0.17102431 -0.024019651 -0.038544033
0.24619336 0.045145962 -0.48076195 0.072294556 -0.2516316 -0.12544969 0.1709303 0.0034273716
-0.06438788 -0.29361972 -0.026103884 -0.25645626 -0.32556897 -0.08883428 -0.2726487 -0.243705
-0.12554163 0.12773483 -0.27683035 -0.3164269 -0.0741247 -0.049362026 0.09655004 -0.34256977
-0.104173005 0.19962 -0.03844899 -0.17797558 0.030549321 0.078851074 0.047401696 0.036032315
0.082881615 0.16983868 -0.26166135 0.14543916 -0.088928446 -0.05627063 0.023010846 -0.07303916
0.019382136 -0.13056076 0.04475969 -0.0034499613 0.046534803 -0.058130775 0.072046675 -0.18193576
0.08055633 -0.20754842 0.034207873 -0.098908186 -0.16939805 -0.04873593 -0.02870848 -0.04970356
00000000: 7af5 203d 5e63 90bc 6f52 163c b3f0 e4bd
00000010: 5085 063e 1ae8 2c3e 28cc 063e fae3 2a3c
00000020: 8be6 f8bd cf26 40bd 56a9 403e a413 78bc
00000030: 3c9d 533d 0438 9a3d d9aa 253e 5a6d d23d
00000040: 8939 4a3d 17ff bc3d 23fa b23d 5dd3 b13d
00000050: 3b9d 3c3e 105d 4fbd 835f 053e 33de 463e
00000060: 6887 683d 7635 03be 58dd 233e 68b9 dcbc
00000070: 5b0b aa3d 236d 173e af8f 953d fe9d 7b3d
00000080: 9eb7 98bd 4296 633e f23b f8bd a2a9 a13d
00000090: 65f4 8e3c 2cb1 cfbc f61b 45be 741f 9dbd
000000a0: 6fa6 113e c8c5 b2bc 36d3 4c3e 69ec dabc
000000b0: 794c 333e 8f66 bfbc 95d9 bfbe 31b2 05bc
000000c0: 2b61 b4bd 5f4b a43d 8476 07be fe42 903d
000000d0: 66d3 da3c a805 7ebc cd46 033e 6966 55be
000000e0: cef0 d43d c4eb 023e 2aa5 623d 7f06 a93e
000000f0: dbcf 453e df66 8cbd be1d bebd 62a6 a23e
00000100: 24ed 4cbc 45f1 84bd bbed 8abd 202b c2bb
00000110: f536 993e 75ee dabd 007b 7e3d 2238 a13d
00000120: 579c aa3d f9d0 ca3d 03de 833d e423 41be
00000130: 490c 583e 6002 e83d 4193 873d aff5 c5bd
00000140: 79bb 283d b4a8 663e 8e0b 3b3e 0f9d 833d
00000150: 3ab7 ff3d 7081 fd3d 8e9e 183e 0af9 983d
00000160: 9029 183e af85 5ebc 9bc5 633e 0449 34be
00000170: c1b4 ad3d 3dc0 973d 01eb 02be e87b 313d
00000180: f3b5 87bb 9d7a f63d fd37 6ebe 4ebe dbbd
00000190: 027b cdbd fa36 3bbd c916 77bd d785 1abd
000001a0: cc2e 833d f981 033e 50a8 b7be f63e 543d
000001b0: cada 90be fadd 5c3e 7b36 093c 7bf8 a03c
000001c0: eda8 ecbd 4f16 b2be bfa2 f6bd 667e 1ebe
000001d0: c7e6 87be 7056 20be 6872 04bb f9ba 1dbd
000001e0: 529b 4bbd 130c 313c fb15 0cbe 95e6 53be
000001f0: ce0f 02bd 06d1 d9bd f449 ddbc 7fac 10be
00000200: f8a8 aabd bcc2 9ebd 4d6b 0a3e 8843 a73d
00000210: 2f7e 1e3e 0b1f 353e c63a f03d b176 81bd
00000220: 940a 013d d3e1 4f3e 5bc9 0b3e 72f9 353e
00000230: 7c9a 1a3e f982 913e e110 6abd 0f74 a1bd
00000240: 4f9f e9bd fdf1 833c 841b 10bd bcb4 7c3e
00000250: 4377 5e3e 6f15 53be 2fde 023e 553d a03d
00000260: 4d23 773d 47fd 443e 8910 183e c26b c83e
00000270: ddd4 653e fd54 b9bb a4cb 3d3c d1a5 eb3e
00000280: e213 86bd 794f 33be 6210 a03d d6de d23d
00000290: 8c0e b03b e027 c4bc a786 e73d 77d6 50be
000002a0: a116 20be 888a 94bd 0a10 c83d 9b20 20bd
000002b0: eae0 ca3d bbd7 e8ba 0df2 b3bd 07d5 44be
000002c0: 7e05 153b 51e7 4f3e adfc 11bd 6021 663e
000002d0: 1055 8a3c cd72 26bd f46e ad3d d536 083e
000002e0: 7391 503d f9e0 e8bd 6f4f f6bd 1f99 aa3d
000002f0: 9798 423e 0870 a83c 70dc 23be 7590 223e
00000300: 4342 123e c43d c93d ffc1 25bd 1b9d 2ebe
00000310: 9cad 33be ff20 2f3e dcc4 c4bc 59e0 1dbd
00000320: 1d1a 7c3e f9ea 383d 6e26 f6be 2b0f 943d
00000330: dbd5 80be e275 00be 5a08 2f3e c19d 603b
00000340: cbdd 83bd 5355 96be d0d7 d5bc 3c4e 83be
00000350: fab0 a6be bfee b5bd 9c98 8bbe ce8d 79be
00000360: fc8d 00be ebcc 023e b5bc 8dbe b502 a2be
00000370: b1ce 97bd d62f 4abd 07bc c53d 4e65 afbe
00000380: a858 d5bd 2f69 4c3e b07c 1dbd 3b3f 36be
00000390: 9242 fa3c ac7c a13d 4828 423d 9f96 133d
000003a0: d6bd a93d 31ea 2d3e 7af8 85be 01ee 143e
000003b0: 1e20 b6bd 087c 66bd 3e81 bc3c 8e95 95bd
000003c0: 49c7 9e3c b8b1 05be f055 373d bf18 62bb
000003d0: 479b 3e3d 891a 6ebd 358d 933d 5e4d 3abe
000003e0: b8fa a43d 9387 54be 8e1d 0c3d 6090 cabd
000003f0: af76 2dbe 549f 47bd 0c2e ebbc f695 4bbd
