models/QLSTM_qal_epochs19.pth (torch, 168347 bytes, 76 tensors)

layers.0.wfx.r_weight f4 [1, 32]
00000000: b345 49bf 8727 acbd 0d03 7dbf e8fc e9be
00000010: 3e46 0bbf 95e9 54bf ac9f 02bf f0a2 4bbf
00000020: cdc0 4abf 2bb6 32bf 19c9 b2bd b0ea 003d
00000030: d23b 1ebf c177 0cbf b2d2 15bf 128c 5ebf
00000040: ebc8 2ebf a55b a1be 9ddf 55bf 6d63 bcbe
00000050: cd92 2cbf 02a9 69bf 0f58 5abf 6adb 36bf
00000060: e936 63bf 973f 5bbf 23b8 15bf fdf1 1cbf
00000070: a963 61bf 93f8 74bf 3f73 2fbf 2175 54bf
-0.7862198 -0.08405977 -0.9883278 -0.45700765 -0.54404056 -0.8316892 -0.5102489 -0.795455
-0.7920044 -0.69809216 -0.087297626 0.031473815 -0.6181003 -0.5487023 -0.5852462 -0.8693248
-0.68275326 -0.31515232 -0.8354433 -0.36794606 -0.674115 -0.9127351 -0.85290617 -0.7142855
-0.8875566 -0.85643905 -0.58484095 -0.61306745 -0.88042694 -0.95691794 -0.68535227 -0.82991225

layers.0.wfx.i_weight f4 [1, 32]
00000000: ba80 dd3d ad67 b1be 7d14 11bd d84c 28be
00000010: 75c6 a5bd 71e6 adbf e255 673e a5a7 b63e
00000020: e5ab bfbc a9b6 593d 030f f33d a679 073e
00000030: ca75 14be 36e2 f43d 5ae5 ed3c a8f1 fd3d
00000040: a682 fdbc 0244 d63c f520 05be 7ad3 afbd
00000050: 95c5 203e a5a6 b03e d6b1 9e3e f625 053d
00000060: 1009 1abe f4d4 9b3e 485f 95be 9136 12be
00000070: 85c8 843e 5f48 cb3e 36c1 7bbe d4a8 fcbd
0.10815568 -0.3464941 -0.03541993 -0.16435564 -0.08094493 -1.358595 0.22591355 0.35674778
-0.023397395 0.053152714 0.11868098 0.13229999 -0.14498058 0.11957209 0.029040027 0.12399608
-0.030946087 0.026155476 -0.13000853 -0.08585258 0.15700372 0.3450214 0.30995053 0.032506905
-0.1504252 0.30435908 -0.29174256 -0.14278628 0.25934234 0.39703652 -0.24585423 -0.12336889

layers.0.wfx.j_weight f4 [1, 32]
00000000: b196 893d ef15 013e 9cea 313d 475d 3d3e
00000010: 1884 8ebb 895d 493d fd67 e33d 789e 7b3e
00000020: 1a8c 8dbc 9571 edbd 68b1 f0bd 9123 3bbd
00000030: 34e6 873d a8a2 2fbd b90f b23e 6049 6cbd
00000040: d0e4 9c3d 2b18 983d 33ac 73bc fa6b 6d3e
00000050: a8ce 3b3e b9d5 b33c 7121 b23d be28 1f3e
00000060: c597 843e bcf9 d63e 1d0e 1fbe 652f 81be
00000070: dc34 74bc 76c0 1b3e 2749 cb3e a133 eb3d
0.06718195 0.12606023 0.04343663 0.18492614 -0.004349243 0.049161468 0.111038186 0.2457217
-0.01727872 -0.1159393 -0.117525876 -0.045688216 0.06635705 -0.04287973 0.3477762 -0.057687163
0.0766083 0.07426485 -0.014872598 0.23185721 0.18340552 0.021952497 0.08697785 0.15542886
0.2589704 0.41987407 -0.15532728 -0.25231472 -0.014905181 0.15210137 0.39704248 0.11484457

layers.0.wfx.k_weight f4 [1, 32]
00000000: ec81 723d 3542 c7bc 5df8 ea3c 70c7 213d
00000010: e7f6 9c3c 5da2 1dbf 99f9 e33d 75b4 2c3d
00000020: 58cc 8c3c 5d10 73bd 152f 883d 7d68 1c3e
00000030: 9c2a 773d 9070 c83d c164 643e c1e7 e53d
00000040: fd15 8ebc abb6 70bd f708 32bc c29a 933e
00000050: eb62 823d 6645 293e 0b65 433e 00ef 72bd
00000060: 71bc 3f3e 3e6c cf3d c933 d93b 872b ddbd
00000070: 8541 fb3d 1f86 96bd 2e78 f6bd d65e ae3c
0.059205934 -0.024323562 0.028682882 0.03949684 0.019160701 -0.6157587 0.11131591 0.042164285
0.017187282 -0.059341777 0.06649605 0.15274234 0.06034337 0.097870946 0.2230406 0.11225844
-0.01734447 -0.058767956 -0.010866395 0.28829008 0.06366523 0.1653038 0.19081514 -0.05930996
0.18724228 0.101280674 0.0066284877 -0.10799318 0.12268356 -0.073498 -0.12034641 0.021285456

layers.0.wfx.bias f4 [128]
00000000: 09b2 e6bf dbbb a5bd a278 01c0 80db 00c0
00000010: 2ddf d3bf 6cbf 7d3e a439 03c0 0c65 10bf
00000020: 4e51 03c0 4dac 05c0 4972 bc3e 57c6 63be
00000030: 011f efbf 9009 f8bf 596b b3bf dd26 edbf
00000040: c81e a8be 9573 6cbd e3ff eebf 2396 bcbf
00000050: 2b51 e1bf 9534 1bbe ede0 a3bf 809d efbf
00000060: d578 93bf e111 cfbe da01 eabe cfe0 a6bf
00000070: 5654 e9bf 920a d5bf 3d27 bdbf 3a50 f7bf
00000080: e332 06c0 3e3f 37bf ff08 06c0 c3ba f5bf
00000090: 780e 02c0 afa8 55be cf26 08c0 45ee 31bf
000000a0: f8ec c7bf 1c18 fdbf 974c f13d 24be 363e
000000b0: a7cd e0bf 5a5a 07c0 1e95 1fc0 4293 f3bf
000000c0: 5b85 c1be 93c3 a9be effa d4bf e0a8 b1bf
000000d0: 9101 debf 43f5 03bf 0068 05c0 f3d7 01c0
000000e0: c4a4 5fbf 5818 24bf dd90 b6be a1fb b1bf
000000f0: 1801 f6bf 2792 a4bf 4947 08bf ce74 09c0
00000100: b6bf d5bf 4832 f6be dcb1 ebbf 0ff3 08c0
00000110: 2c3d febf 583e 333e c932 ffbf ce21 37bf
00000120: 5fed febf 5bd9 fbbf 898e 903e 6f06 a9be
00000130: 5f9a f1bf e954 f9bf e131 dfbf 0df4 f5bf
00000140: 46a8 b6be 569b 3ebe 0750 01c0 d5a3 73bf
00000150: 54af c3bf c20e 49bd 83ec 9dbf ec61 e8bf
00000160: f8f4 63bf afca aebe 36b3 39bf 7aaf 53bf
00000170: 1d5d 01c0 ede9 b4bf 4879 b4bf 78a5 eabf
00000180: 50cc 03c0 5990 3cbf 15b1 0dc0 60b8 f8bf
00000190: 05f0 f6bf 7daa 80bf 130b 00c0 739a 2ebf
000001a0: 5203 fdbf a4ed febf 369e 5f3e dde7 a1be
000001b0: e042 efbf 5cf3 06c0 f0d3 03c0 b7e0 eebf
000001c0: 5ab2 1dbf 1092 98be eea7 ddbf 8a64 e0bf
000001d0: 33fa bfbf dc2d 8dbe 3d21 8dbf e8a8 05c0
000001e0: 08bb babf 0f02 38bf a03b 9fbe 3d35 e7bf
000001f0: d647 15c0 d9b4 ebbf 91bd 3fbf 2755 f2bf
-1.8023082 -0.08092471 -2.0229878 -2.0133972 -1.6552483 0.24780053 -2.050393 -0.56404185
-2.0518374 -2.0886414 0.36805943 -0.2224363 -1.8681337 -1.9377918 -1.4017135 -1.8527485
-0.32835984 -0.057727415 -1.867184 -1.4733318 -1.7602895 -0.15156777 -1.2803017 -1.871994
-1.152125 -0.40443328 -0.45704538 -1.3037356 -1.8228862 -1.6643851 -1.47776 -1.9321358
-2.0968559 -0.71580875 -2.094299 -1.919762 -2.032133 -0.20865129 -2.1273687 -0.69504195
-1.5619192 -1.9772983 0.117821865 0.1784597 -1.756276 -2.1148896 -2.4934764 -1.9029315
-0.37797055 -0.33157024 -1.6639079 -1.3879662 -1.7344228 -0.51546115 -2.0844727 -2.0288055
-0.8736079 -0.64099646 -0.35657397 -1.3904916 -1.9219084 -1.2857102 -0.5323377 -2.1477542
-1.669913 -0.48085237 -1.8413653 -2.1398351 -1.9862418 0.17504251 -1.9937373 -0.71535957
-1.991619 -1.9675707 0.28233746 -0.3301272 -1.8875235 -1.9479038 -1.7437097 -1.9215103
-0.35675257 -0.18613943 -2.0205095 -0.9517186 -1.5287881 -0.04908634 -1.2337803 -1.8154883
-0.8904567 -0.3413901 -0.7253908 -0.8268963 -2.0213082 -1.4133888 -1.4099512 -1.8331747
-2.0593452 -0.7365776 -2.2139332 -1.9431267 -1.9291998 -1.0052029 -2.000676 -0.6820442
-1.9766638 -1.9916272 0.21837696 -0.3162221 -1.8692284 -2.1086035 -2.0598106 -1.8662328
-0.6160027 -0.29798937 -1.7316873 -1.7530682 -1.499823 -0.2757405 -1.1025769 -2.0884342
-1.4588327 -0.7187814 -0.31100178 -1.8063122 -2.3325095 -1.8414565 -0.7489863 -1.8932236

layers.0.ufh.r_weight f4 [32, 32]
00000000: ff4a 213d ffc6 cebd a36d 533e e0b4 31be
00000010: b742 433e 8678 0dbf ff44 4a3d 1d60 e03d
00000020: 9725 9fbd 4ea1 8e3d 767c 133d e078 37bd
00000030: 6f4c 293d 204e 893e c369 1abe 6f25 513e
00000040: aa67 493e 6c5b 923e c909 413e 5599 96bd
00000050: 2037 64be 15d3 e5bd a0fb 8d3e 36d4 3dbe
00000060: 85e6 933e 2e63 563e b1e5 04be 0bbf 58be
00000070: 981d 033e 71b3 14be f137 913e ef7c e33d
00000080: 6c06 843e 7f53 a9be 75a4 9f3e cb55 123e
00000090: 68af be3e 8fcd b0be 5009 943e caaa 0abf
000000a0: 5900 ac3e 1978 e73d 89cd 44be 8fe3 633d
000000b0: 30b7 04bc bd7e 433e 9313 903d b75e f43d
000000c0: 7fb4 f5be 2532 c5be dea3 3cbe e977 38be
000000d0: 46f6 c5be 5de8 77bf 9e42 21bf 81d5 12bd
000000e0: f3f7 17be cfab f2be d811 03bc a959 67be
000000f0: 3057 b03e 62a3 cbbe 6afa 2abe 41e9 913e
00000100: 1ca0 89be 9f23 16be 46c0 1cbe cd3d dd3d
00000110: 4319 31be 711d bfbd ad9d c1be 93c4 09be
00000120: d573 7d3e 056b 21be 86b5 0bbe f77d 22be
00000130: fa7a c4bb 11c4 b1bc 27c6 76be 274d 9b3e
00000140: 9318 143e bdb4 d03e 077f d63c f833 e0bd
00000150: b7ac 303e 4c8b c43d af2b bf3d f157 26bd
00000160: abee 4f3e 5865 103f d197 e6bd 681b 50be
00000170: 38bf 223e 6c8a 70be ccde b9be bd48 4ebe
00000180: 87e5 f3bc e089 3abe 8476 c73d 76b2 283d
00000190: 2832 c4bd 72e4 25be eccb 78ba 10e9 ddbd
000001a0: d025 44bd 9957 1a3d e31f b4bc 0943 053e
000001b0: a0c5 b6be 42c0 5e3e 2902 5b3c c5da af3e
000001c0: 31cc 993e 71a3 633e 52c2 bb3d bff6 60be
000001d0: 1933 be3d 8d9d 9e3e f404 523e e1e3 6a3e
000001e0: dc0c b93c 87b5 b93d 4ec0 393e 083c 3a3d
000001f0: c74d 1fbe 13a6 d7bd 5d5c 04be e899 a0bd
00000200: 9665 893d 55b9 893e 7473 483e ec06 72bd
00000210: e7c2 a03d f0ae c7bd 2d66 8d3e 6c62 813e
00000220: 8692 b6bd 6067 8fbd 699e f4bd 7de6 5dbd
00000230: 5195 063e f11e 21bd ccd0 adbc 656b f2bd
00000240: cd6d 1b3e c736 b7bd 1760 25be 5ca7 b63d
00000250: 58d9 cdbd da4d 7dbe 9c75 bdbe a33c 1f3e
00000260: b6fb 06bc e637 07bf 238c c83d 337f 993d
00000270: 7e86 e1ba 65dc 293e 6ee2 39be 0737 103e
00000280: 9f11 0d3f 07a5 1e3d c61f b23e d77f d5bc
00000290: 543d ae3e 759d 043f 5965 903d 2370 0cbe
000002a0: d936 913e 1216 823e 2fdb c5bc 26f6 2f3e
000002b0: dbed 733e 20c0 2a3f b35c 373e 5087 23bd
000002c0: 9a94 023f b977 563e 7792 393e e82f e63e
000002d0: 7a45 4ebd c09d 883e 4cf5 3abe 8dd0 5cbd
000002e0: 1c6e 8a3e 13ea 2ebe 7d41 243f e2dd 993d
000002f0: c8b5 243e 5c28 8a3e 337d 9a3e 49f4 053f
00000300: 33ac 0fbe 197c ae3d d1f1 28be fa87 e63d
00000310: 6d6f 8a3c 1677 18be d9fb dc3d 2187 383e
00000320: 03d5 853c 5bd8 a3bd 66a2 ff3d 0ef0 40be
00000330: 48ea 18be 499b 50bc 36e4 74be 92ed 3fbd
00000340: 05e4 7a3e 1f41 a1be e048 36bd 4157 ee3d
00000350: b7d3 24bd 6ff4 6abe 5a5b 883e 1c2a 38be
00000360: 8735 c4bb 7adc e5bd baed 5dbd b010 903d
00000370: 9b26 8cbd a870 e93d 5701 72be 81ce 7ebe
00000380: 5240 82bd 6d4e 5e3e 456d e6bd b873 e9bd
00000390: 7e1f 083e 19c5 e13e 251d 2fbe 857f e63e
000003a0: 54cf 07bf df61 50be a1bd 9d3e afa8 6dbe
000003b0: 8e9a b5bd 549f 14bd ba67 8b3e 1a24 73be
000003c0: d04c e33e 4e33 a73e 4698 40be 7415 143e
000003d0: cfb7 113e de5c 513f d85d 043f 5872 debc
000003e0: 45fa 5e3c 72c8 743f 2140 483c 038f a73e
000003f0: 04c6 66be 5b76 6a3e 1e43 553d 8652 ee3d
0.039378162 -0.10096549 0.20647292 -0.17354155 0.19068418 -0.5526203 0.049382206 0.10955832
-0.077708416 0.0696436 0.036007367 -0.04479301 0.04133266 0.26817417 -0.15079407 0.20424436
0.19668451 0.28585374 0.18851389 -0.073534645 -0.22286654 -0.11221901 0.27731037 -0.18537983
0.2888681 0.20936272 -0.12978245 -0.21166627 0.12804258 -0.14521576 0.28362992 0.111078136
0.2578615 -0.33071515 0.31180158 0.1429054 0.372432 -0.3453183 0.28913355 -0.54166853
0.33594015 0.11302204 -0.1921903 0.05563694 -0.008100316 0.19091316 0.070349835 0.11932128
-0.4798927 -0.3851482 -0.18421885 -0.18014492 -0.38664454 -0.96838933 -0.62992275 -0.035848144
-0.14840679 -0.47396705 -0.00799986 -0.22592796 0.3444152 -0.3977309 -0.16697088 0.2849827
-0.26879966 -0.14662026 -0.15307721 0.10802803 -0.17294793 -0.093317874 -0.3781561 -0.13453893
0.24751218 -0.15763481 -0.13643464 -0.15868364 -0.0059961053 -0.021699937 -0.24099027 0.303323
0.144625 0.40762892 0.026183618 -0.10947412 0.17253385 0.09596881 0.09334504 -0.04061121
0.20305888 0.5640464 -0.112594254 -0.20322955 0.15893257 -0.23490304 -0.36302793 -0.20144935
-0.029772533 -0.18216658 0.09739402 0.04118582 -0.09579879 -0.16200426 -0.0009490836 -0.10835469
-0.047887623 0.037681196 -0.021987861 0.13013853 -0.3569765 0.21753028 0.013367214 0.34346595
0.30038598 0.22230317 0.09167923 -0.21969126 0.0928709 0.30979577 0.20509702 0.22938491
0.02258914 0.09067827 0.18139765 0.045467407 -0.15557013 -0.10529723 -0.12925859 -0.07841855
0.06708829 0.2689921 0.19575292 -0.059088632 0.07849675 -0.097501636 0.27617016 0.25270402
-0.08914666 -0.07002139 -0.11944277 -0.05417489 0.13142897 -0.03933615 -0.021217726 -0.1183689
0.15178604 -0.08945995 -0.16149937 0.0891864 -0.10051221 -0.2473673 -0.3700379 0.15550475
-0.0082387235 -0.5281967 0.09792354 0.074949645 -0.001720622 0.1658798 -0.18152782 0.14083491
0.5510501 0.0387316 0.34789866 -0.026061935 0.34031165 0.5180276 0.070505805 -0.13714652
0.28362158 0.25407463 -0.024152366 0.17183742 0.23821203 0.6669941 0.17906456 -0.039923966
0.51008 0.20944108 0.18122278 0.44958425 -0.050359227 0.26682854 -0.18257636 -0.053909827
0.27037132 -0.1708148 0.6416243 0.07513024 0.16084969 0.26983917 0.30173644 0.52325875
-0.14030533 0.085197635 -0.16498496 0.11256404 0.016898835 -0.14889178 0.10790224 0.18020298
0.016336923 -0.08000251 0.12482147 -0.18841574 -0.14933121 -0.012732335 -0.2391518 -0.046857424
0.24501045 -0.31494996 -0.044503093 0.11637736 -0.04024097 -0.22944807 0.26632196 -0.17984813
-0.0059878263 -0.11223693 -0.05418179 0.07034433 -0.06843301 0.113984406 -0.23633324 -0.24883462
-0.063599244 0.21709605 -0.1125131 -0.11399025 0.13293263 0.44095686 -0.17100962 0.45019165
-0.5305073 -0.20349835 0.30808738 -0.23208879 -0.088673696 -0.03628476 0.27227575 -0.2374424
0.4439454 0.3265633 -0.18808088 0.14461309 0.14230274 0.8178233 0.51705694 -0.027154133
0.013609474 0.95618355 0.012222321 0.32726297 -0.22536474 0.22896712 0.05206596 0.11636834

layers.0.ufh.i_weight f4 [32, 32]
00000000: 6934 74bb 8c8d 503e 672c 86bd 0b73 c5bc
00000010: 7d1c e73d 6ca3 febd 3685 4b3d b359 943d
00000020: 4e46 9ebc 8286 353d 2d3e 413d 0e2b 34be
00000030: bbe5 bf3d 00c5 77bd 1e35 9a3a efac a1bd
00000040: 3270 59bd a760 03be 4ae5 8dbd 4bdb f53d
00000050: dde2 853e 6e0d 80be b6aa 4bbc d6aa 443e
00000060: 6035 2cbe b2c8 8ebe 2d6d 373e 36a7 3bbe
00000070: 2032 a73c 106c cabd e7b5 91bd 2d91 36bc
00000080: 1b29 7b3e a36c 28be 70b9 34be 0193 093e
00000090: 351f bd3d c750 15bf a9a0 513e 1d94 903d
000000a0: 9cce ca3d e8b7 0dbd 7c38 31be b6f1 463e
000000b0: a767 773e 7360 0b3e b742 8a3d d97c 2f3d
000000c0: 12e3 a8bd 01ac fb39 7271 03be 0403 a7bd
000000d0: ff5e 9e3d 5018 9fbd 932f 1a3e 519e 733d
000000e0: 35e4 8bbe f577 fa3d 82a5 a33d e081 453e
000000f0: 9010 703e 50f4 923e add8 af3e 28cb 00bc
00000100: 45da 6e3e 085b dfbd 2250 f6bc 275a 5abd
00000110: d695 ba3d a491 c93b 3848 22be 811f 82be
00000120: fc21 35be 543d 3dbe b2cd 5c3e 8a2d 32bd
00000130: 70d6 6a3e 6283 f1ba 5d15 fc3d f269 1bbe
00000140: 90ad 063f b8fe 8cbc 69fd b4be 6a60 1e3c
00000150: 6594 1b3e 716a 93be f58e 503e cdd5 653e
00000160: 8c02 81bd 6783 a73e ae50 303a b288 423d
00000170: 6c32 863d b4dc ddbd df5e e5be 4e28 6b3e
00000180: 8bce c83a dc8d aa3d f946 573d 2871 1a3e
00000190: def1 143e f189 903d 21ab 803e 4073 973d
000001a0: df2f 03be 2b55 3d3d 50c5 8c3d 51e6 f0bb
000001b0: de90 173e 0509 563e 8991 783e b5b7 643d
000001c0: 4303 7d3e 219e 363e 114f c0bd 4347 413e
000001d0: 5e32 3bbc a793 9fbd 64ac 0ebe 3b32 82bc
000001e0: 6719 f93d 2a4c d73d 9704 fabd aec6 9a3c
000001f0: 2b6a 373e 1e42 8e3d 6b06 653c 799e f43d
00000200: 4450 ba3c 7899 0cbe fb6b d9bc f698 1bbd
00000210: ecc8 78bd afaf bc3e be46 0cbd a615 043e
00000220: 1590 983c a936 423e 9f1b 2ebe 43a6 39be
00000230: 1e5c 963c 89f8 693e d584 02bc 3965 fbbd
00000240: 5115 b6be f983 82bd 8cf8 383e eb8b 443c
00000250: 4edf 2f3d f3bd 65be 863d babd 6e62 3ebe
00000260: fc0e 873e dd09 c0be 899c 6d3d d14f 91bd
00000270: ccdf 85be 1298 fabc b293 43bd e341 39bd
00000280: 4571 9e3c 0063 2e3e 9fd1 6bbb dff5 d43d
00000290: 7c01 283e bac2 953e fb7a 12be 7d81 0e3e
000002a0: c671 673e f145 693c 64db c7bd 0f82 693d
000002b0: 04e1 49bd 591b 353e a4ff 393d 7d9e 423e
000002c0: 07d5 b63e dba3 9bbd 8001 b63e 13b8 a63e
000002d0: 2685 ac3e 4393 b13c d965 05be f51a c3bd
000002e0: 2ced 7f3e 1fb9 17bf 72bd f8be 3cc4 233e
000002f0: 7517 98be b635 243d b2d2 273f f5fe 2f3e
00000300: e942 65be 8ce9 85be 78c5 52bd c186 9bbd
00000310: 5d3e bfbc c5a8 303d 6cb9 34bd 50c6 be3d
00000320: 2aad 39be e7fb 9a3d 014e 56be 0596 823e
00000330: 1659 17be da83 373d df21 f73c 7458 5fbe
00000340: 3f6b b8be 5b2d 1cbe d0ea 81bd 7956 8bbc
00000350: a618 cabe d57d e3bc 62b7 8c3e 0868 653d
00000360: 067f ab3b dddf 7b3e 9a09 a93e 26bf 843e
00000370: 9906 363e 32be b03c 5625 81be 84b8 16bd
00000380: 4dbe a33d 6bfa 953e 5372 cebd 9a4c 6e3b
00000390: 816d 5cbd cdf9 4f3f 61f2 9fbe 752d 80be
000003a0: e269 4b3e a392 4cbc 290f ae3d 7976 30be
000003b0: c014 0d3e fd5e 52bd b208 f33d d28e 233e
000003c0: bc5b 5f3e 7f99 503e a809 eb3d b5b7 78bd
000003d0: 8210 8a3d 3d9c 3ebe a02d 0fbf 9532 e63c
000003e0: 5efa 953e 62f5 dabe d606 703e 0512 5dbc
000003f0: 746c 69be cf1d 96be 7475 1dbe ab1c 60bd
-0.0037262684 0.20366496 -0.06551438 -0.024102708 0.112847306 -0.12433514 0.049687587 0.07243671
-0.019320633 0.04431773 0.047178436 -0.17594549 0.093699895 -0.06049061 0.0011765098 -0.078943126
-0.053085513 -0.12829839 -0.06928499 0.120047174 0.26149645 -0.25010246 -0.012430837 0.19205794
-0.16817236 -0.27887493 0.17912741 -0.18325505 0.020409644 -0.098838925 -0.07114773 -0.011143011
0.24527399 -0.16447692 -0.17648864 0.13434984 0.09234468 -0.5832638 0.20471443 0.070595
0.09902689 -0.034599215 -0.17306703 0.19428143 0.24160634 0.13611011 0.06751006 0.042843673
-0.08246435 0.00048002604 -0.12836245 -0.08154872 0.07732963 -0.07768309 0.1505721 0.059477154
-0.27322546 0.12229911 0.079905525 0.19287825 0.23443818 0.2870202 0.34344998 -0.007860936
0.2332545 -0.10906035 -0.030067507 -0.053308632 0.0911061 0.006151395 -0.15847862 -0.2541466
-0.17688745 -0.18480426 0.21562842 -0.04350046 0.22933364 -0.0018425996 0.12308762 -0.15177134
0.52608585 -0.017211303 -0.35349587 0.009666542 0.15193327 -0.28792146 0.20367034 0.2244484
-0.06299314 0.3271744 0.00067258894 0.047493644 0.06552586 -0.108331114 -0.44798943 0.22964594
0.0015320344 0.08327839 0.05255792 0.15082228 0.1454539 0.0705756 0.2513056 0.07395029
-0.1281123 0.0462238 0.06873572 -0.0073516746 0.14801356 0.20901878 0.24274267 0.05583926
0.24708275 0.17833759 -0.09390081 0.1887484 -0.011425583 -0.07791834 -0.1393295 -0.015893092
0.12163048 0.10512574 -0.12207907 0.018893566 0.17911594 0.069462046 0.013978581 0.11944289
0.022743352 -0.13730419 -0.026540747 -0.03798767 -0.06073849 0.36852786 -0.034247153 0.12898883
0.018623391 0.18966164 -0.17002724 -0.1812983 0.018354472 0.22848715 -0.00796624 -0.12275166
-0.35563138 -0.06372828 0.18063563 0.01199625 0.04293757 -0.22435741 -0.09093766 -0.18592235
0.2637862 -0.37507525 0.05801061 -0.07095302 -0.26147306 -0.03059009 -0.047748275 -0.04522885
0.01934112 0.17029953 -0.0035983098 0.10398459 0.16406816 0.29250127 -0.14304726 0.13916583
0.22601995 0.014237867 -0.09758642 0.0570088 -0.049286857 0.17686214 0.045409814 0.19005771
0.35709402 -0.07599612 0.3554802 0.32562312 0.33695334 0.021676665 -0.13027133 -0.09526626
0.24992818 -0.5926685 -0.48582035 0.15992826 -0.29705396 0.040090285 0.6555587 0.17187102
-0.22388805 -0.26154745 -0.051457852 -0.07594062 -0.023345167 0.0431297 -0.044122145 0.09315169
-0.18132463 0.07567578 -0.20928194 0.2550508 -0.14780077 0.044803478 0.030167518 -0.21811086
-0.36019322 -0.15251677 -0.06343615 -0.017009007 -0.3947193 -0.027769962 0.2748366 0.056007415
0.0052336482 0.24597116 0.33015138 0.25927085 0.17775954 0.021575067 -0.25223798 -0.03679706
0.07995281 0.29292616 -0.10080399 0.0036361576 -0.05381537 0.8124054 -0.31239608 -0.2503468
0.1986461 -0.012486133 0.08498985 -0.17232694 0.13777447 -0.05136012 0.11866893 0.1597245
0.21812338 0.20371054 0.11476451 -0.06072207 0.0674143 -0.18614288 -0.55928993 0.028100291
0.29292578 -0.42765337 0.23440108 -0.013493066 -0.22795278 -0.29319617 -0.15376836 -0.05471484

layers.0.ufh.j_weight f4 [32, 32]
00000000: 59bd 15bd 1190 46be 09d0 b8bd d4c2 c2bd
00000010: a68a 08be b08e 4a3e 52d7 903d cb90 83bd
00000020: 1ac5 85be ad87 813c a738 d9bd e7ca e33d
00000030: a908 2cbe 7b19 29bc e051 173e 2710 f5bb
00000040: 2257 cfbb f98e 043c 9127 483d 3b81 04be
00000050: c48b f8bb 4e35 bbbc 5a53 0fbe 98e5 d03d
00000060: d176 a2be 767c 38be 5250 a73e 8d3c 873e
00000070: 8c49 32bd ddc2 4f3d 7a17 ea3d 57b9 e5bd
00000080: 0364 33be 2d39 48bd 9395 26be 213b e8bd
00000090: 8ec1 15be 84ab 0e3e 0bb4 6dbd ae98 8a3e
000000a0: e1b2 053d c860 24bb 301a e13c 0144 6c3d
000000b0: e7cd 2cbd 7c5f 47be 536d 9ebd 2b19 b1be
000000c0: 6e6e 533e b18f 30be b3db 3ebe 84d9 0abe
000000d0: b32c ccbe 1301 19bc 1fab 0b3e 863a 5bbe
000000e0: 578f 243d 8bf7 293f 25d6 8fbe e707 04be
000000f0: a3f1 75be 2cf4 02bd 4af7 7e3c ab9c 25be
00000100: 5584 21be 9b03 bbbd 8216 a0bc ea0c 7e3d
00000110: ba91 9bbc cbc7 c03d 7dc9 86bd ee94 40be
00000120: bbfc a5bc abcd 323e c16f ce3d 0598 6ebd
00000130: e343 6dbd 8e0f 2cbe b6d6 be3c f0f4 713d
00000140: e4bb fbbd 5302 123e e5cc 983d e318 3dbe
00000150: 9839 83be 8e73 45be 64c6 b43d 69a7 eebd
00000160: a90c 3fbe 3d45 a7be 2288 0fbe d5d2 bdbd
00000170: 0b2c d03d 5eaf aabd 403d 29bd d325 123e
00000180: 5c8c 7d3e 915b 2abe 12e5 573d 2922 32be
00000190: 7f35 3abe 7272 0bbd eebb 9b3d 051f 1e3d
000001a0: 4c3f a3bd 5ad7 9f3c 8fb3 67bc 8a2f 97bc
000001b0: e662 7c3d fc67 eb3d 3e52 12be 91ee 313e
000001c0: 0eb6 e0bd 78ea 4e3e 4699 1e3e 5b17 a6be
000001d0: 1df0 5bbd 7869 94bc e499 56be 30f8 f5bd
000001e0: 68dd 37bd 2fef 81bd bc81 063d 703a f13d
000001f0: becb 6f3e 44ca 773e 0be8 a43e 2ccd 5c3d
00000200: 7fa9 59bc 93c2 69bd 06ff 48be 5c07 0b3e
00000210: 0536 95bc bb01 4ebe fb84 30be f2c9 f5bd
00000220: 7961 36be 30d3 04be 81c4 82b9 bc9d 463d
00000230: e026 593d 550d a63d 7edc 10be e77d 253e
00000240: 5d6a 823e 5c4a a9be a5a2 823c f072 b1bd
00000250: dc96 bcbe 4379 65bd 1ebf c5bd 1559 85bd
00000260: cfe5 8fbe d09c 5ebd e465 abbb d996 833d
00000270: ea18 4cbd db1b b63d 800f ad3d 9f52 b8bb
00000280: 2712 443d d48a 8f3e 6bad 43be 2c44 5dbd
00000290: 2a77 6ebd 7ea9 d23d daca 54be f1dc 0c3e
000002a0: 14e8 533d c232 12bd 1d46 76bc 9eef d43b
000002b0: 10bb 373e 781d 383b 3a5f 97be 583b c43e
000002c0: 2c2d 413d eaa3 afbd cc48 49be 40b1 12be
000002d0: 65ee 3b3e db77 0bbf 3c6b 21bf f812 92be
000002e0: bfbe b83c 26f9 0abe ac87 d93d 401a ad3e
000002f0: 37c3 253d 8423 5ebe d7b6 a33d b202 ecbd
00000300: e443 48be 65b9 d2bd c312 60bd 36a4 073e
00000310: 6ef0 f13d ad9f 17be d22a 0e3e 9306 bbbe
00000320: 036f 51ba 5d9c cdbd 9e9d aebc 96cb 1fbe
00000330: 9663 7dbe 72b5 f83d 4407 683e 4a5f b8bd
00000340: 2e1b d63d f149 5bbe 6058 b33c 042b 0ebe
00000350: 57ea e5be 66a8 733e f2ef 533e 7dea af3d
00000360: 8554 eabc 9c88 303e 8731 20bf 8327 82be
00000370: c06b 69be 34f7 7a3d 128a 52be cdca 3bbd
00000380: c080 dcbd 50dd 0abf 3924 a33d 9771 ac3b
00000390: 2249 733d 274a 3fbd c7a9 173e 6af8 84be
000003a0: 6980 173d 86c0 d23d f032 e2bd f5e6 aebb
000003b0: 745d 1b3d 8cc9 053e d4bc b2bd d277 a63d
000003c0: e3f3 6dbe cd17 a73e ded4 a93d 601d 42bd
000003d0: ef47 a0bd 5735 ae3a a125 13be 7ae9 143e
000003e0: 3b94 44bd 3afc 9fbe 11b2 233f c6d1 b43e
000003f0: 0f27 5a3e 0cc3 e33d 6b06 91be 8729 2e3e
-0.03655753 -0.19390894 -0.090240546 -0.09509817 -0.1333414 0.19780993 0.07072319 -0.064241014
-0.2612694 0.015811766 -0.10606509 0.11122685 -0.16800179 -0.010321016 0.14777327 -0.007478732
-0.0063275257 0.008090728 0.04886586 -0.12939923 -0.0075850207 -0.022852566 -0.1399664 0.102000415
-0.31731275 -0.18016228 0.32678467 0.26413384 -0.04352717 0.050722945 0.11430259 -0.112169914
-0.1751862 -0.048882652 -0.16267996 -0.11339403 -0.14624617 0.13932616 -0.05803303 0.2706961
0.032641295 -0.00250821 0.027478307 0.05768204 -0.04218855 -0.19470018 -0.07735696 -0.34589514
0.20647594 -0.17242314 -0.18638496 -0.13559538 -0.39877853 -0.009338635 0.13639496 -0.21409044
0.040175762 0.66393346 -0.28093067 -0.1289364 -0.24017958 -0.03197114 0.015561888 -0.16173045
-0.15773137 -0.09131547 -0.019541983 0.062024035 -0.018990386 0.094131075 -0.065813996 -0.18806812
-0.020262113 0.17461269 0.10079909 -0.058250446 -0.05792607 -0.16802809 0.023295742 0.05907148
-0.12291697 0.14258699 0.074609555 -0.18466525 -0.25629878 -0.19282362 0.088269025 -0.11653025
-0.18657173 -0.32670012 -0.14016774 -0.09268729 0.101646505 -0.0833423 -0.04131818 0.14272241
0.24760574 -0.16636492 0.052708693 -0.17395844 -0.1818447 -0.03404469 0.07604204 0.0386038
-0.07971057 0.019511867 -0.014141931 -0.018455286 0.061617754 0.11494443 -0.14289185 0.17376162
-0.10972224 0.2020663 0.15488157 -0.32439694 -0.053695787 -0.018116698 -0.20957142 -0.12010229
-0.044888884 -0.06344449 0.032838568 0.11778724 0.23417565 0.24198252 0.32208285 0.053906605
-0.01328504 -0.057070326 -0.19628534 0.13577026 -0.018214235 -0.20117848 -0.17238228 -0.12001409
-0.1781062 -0.12971187 -0.0002494194 0.04849027 0.05301559 0.08108012 -0.14146611 0.16161309
0.25471774 -0.33064544 0.015946696 -0.08664501 -0.36833847 -0.056023847 -0.09655593 -0.06511132
-0.28105018 -0.054348767 -0.005230652 0.06425256 -0.049828447 0.08892032 0.08450222 -0.0056250836
0.047868874 0.28035605 -0.19109122 -0.054020092 -0.058219112 0.10286234 -0.20780507 0.13756157
0.051735 -0.035692938 -0.015031365 0.006498291 0.17942452 0.0028093737 -0.2956484 0.38326526
0.04716222 -0.08576186 -0.19656676 -0.14325428 0.18352659 -0.5447976 -0.6305425 -0.28530097
0.022551892 -0.13571605 0.106215805 0.3380909 0.040469375 -0.21693236 0.07993858 -0.115239516
-0.19557148 -0.102892675 -0.054705393 0.13246235 0.118134364 -0.14807005 0.13883522 -0.36528453
-0.00079892593 -0.100395896 -0.021315392 -0.15605006 -0.2474502 0.12143983 0.22659022 -0.0900255
0.10454403 -0.21414925 0.021892726 -0.13883597 -0.4490535 0.23794708 0.20697 0.08589647
-0.028604755 0.17239612 -0.6257557 -0.2542077 -0.2279501 0.061270908 -0.20560482 -0.045847703
-0.107667446 -0.54243946 0.07965893 0.0052625644 0.059395917 -0.046701577 0.14810859 -0.25970775
0.036987696 0.10290627 -0.11044872 -0.005337591 0.03793092 0.13065165 -0.08727422 0.08128323
-0.23237567 0.32635346 0.08292554 -0.047391295 -0.0782622 0.0013291043 -0.14369823 0.14542189
-0.047992926 -0.3124712 0.6394358 0.35316294 0.21303962 0.111211866 -0.2832521 0.17008029

layers.0.ufh.k_weight f4 [32, 32]
00000000: 29d3 d63d b015 5c3d 7bbd cdbd a65c b83c
00000010: 6cc1 143e dff2 88be d0c6 013d d94e 953d
00000020: 0ed8 803d 5ec8 243e 13d9 0c3e 0b19 e33c
00000030: cd59 9d3d 571a fa3d d3ed f23c 46c5 953c
00000040: e8b9 80bd 7961 0c3e c2bd 0ebd 8702 ccbb
00000050: 284f 06bc c0cd 703e 6d14 9e3d 65cb 18bd
00000060: 4d3f 043d d6c2 9a3e 4698 423e 6d5b b33e
00000070: cfe0 bc3d 8271 3f3d 25cb 023e 1dfd 973d
00000080: 7ad0 2bbe 71a0 79be f818 96bd 34fc 973c
00000090: 9861 8abd 0c0a c4be 14ab 25be 5bfd e1bd
000000a0: 3b3b d4be f4d8 afbd 8e20 0fbe b088 3b3c
000000b0: 0fd2 3f3d cb98 a23d 94e3 063c 3c55 03be
000000c0: f5e5 0cbe 8f04 dcbd 0d88 24be 1403 1cbf
000000d0: c6a7 46bd 1c70 ad3d d9e6 16be fa40 ea3d
000000e0: a313 663d c5d0 b5bb 84fc 62be 117c e3be
000000f0: a70d 0abe cb65 30be 1665 e33d 8db3 573d
00000100: 871e dfbd 05f8 26be 2bb1 223d 989f e6bd
00000110: a227 a8bd dc6b 4fbe e552 1abe 0456 8fbc
00000120: a6a2 f03d aec3 9d3d c790 49bd 02b4 bfbd
00000130: 8ee3 78be 2f5d 35be 7cbb 86bc c66d 3ebd
00000140: 7112 9abe fcae 70be 7b6c c5bd 38bd 02bc
00000150: 3db5 b13d d819 c5bd 2fd4 30be c333 b23d
00000160: 0a8e 6c3e 7bda e5be a777 91bd 3402 40be
00000170: cc1d dabd e97d 193e cd6b 78be 166d 1d3e
00000180: 1ccc 4d3e 3fae 993e 904c 2c3d 8f77 253d
00000190: 1c7b 6d3e df04 673d 08d4 bcbd 8093 943e
000001a0: cbe4 0fbd 9faa 113e 842f 673d 0df6 88bd
000001b0: db28 d83a 995d e33d 8e3d 10bd 8134 7cbd
000001c0: 90dd 763e a92b b63d a488 2e3c 9b43 343c
000001d0: 84fe da3e 453f c53e c8a7 aa3e 9118 533e
000001e0: e76f 6e3e aeab 8c3e 9171 283c b8c7 ea3c
000001f0: dd30 863e f40b 983e 7fba 4dbc 334d 75bd
00000200: 5a9c 3b3c a1c1 60be 1b0a a4bd 28ed 643d
00000210: e9d1 9bbd 9496 9ebd 7cb9 133e f1dd 943e
00000220: 9de1 c13e d8d9 963e 641d e33d d2ae 453d
00000230: 6f1e 153c 1e70 7abd ba3f 7d3d fd71 2abe
00000240: 5a58 49be 0266 96bd 48d8 89bd 44fd 0fbd
00000250: 77a7 6b3e 9028 9ebb 5030 1b3e 50ba 6a3e
00000260: 479c a53d aad7 203e b242 623d ca4c ac3d
00000270: 14e8 7d3d ba0d ebbd 3662 19be 91ac 2fbe
00000280: c72b be3e f837 bfbe 13ac 33be 1525 833e
00000290: bc26 2c3e 9987 36bf 8536 bf3e f0d3 703d
000002a0: 2866 243f 7e4a 093f 1ccc 37be 44a6 3dbe
000002b0: 24e7 723e 20fb 84bd e57a abbe 41b9 42be
000002c0: 4962 f03d fca9 06bc a77c 513e 5939 a9be
000002d0: c6c9 3ebc 426a 62bd c4ab e63b a9f5 26be
000002e0: 5751 1fbd 7c26 283f 2820 183f febe 193e
000002f0: 04a5 e0bd bb8f 01be 6ecf 23bd 7788 793e
00000300: 91ca 39be 9eb7 5bbd e914 ffbc 3539 b7bd
00000310: a66d ce3c 0bbc b3be 7188 b7be e80f 363d
00000320: 776f 5cbe 240c c0bd 24c7 fdbd 7cab a5bd
00000330: ce26 273c 02cd 05bd abae e9bd 1b08 c13d
00000340: 783c 95bd 57d5 1cbd f0c3 c6bd debd 203d
00000350: 49fc e83d cf67 2ebe fc1c fcbd dd09 1a3d
00000360: 0929 debd e960 1a3e c594 19be 50cd 76be
00000370: ad93 323d 83cb e7bd 8bf1 063e c68f fcbc
00000380: 2c66 00be 91b7 493e c216 f8bc baea 5f3e
00000390: 5ea7 92bb 10b8 313e 2e6d 0d3b 8684 61bd
000003a0: a2b2 f33b 8b97 593b 7602 1e3e 6275 23be
000003b0: 667f 8c3d 9f85 273b 9eb1 6a3c 0839 00be
000003c0: c6dc 54bc c256 013e 8ed3 7dbd ed3d 613e
000003d0: 69a0 01be d18d eabc 519e 933e 1ccb b3bd
000003e0: 3589 413c 8659 10bd 2f1b 42be 0203 313e
000003f0: 88bc 113e ec17 03be 9e3e ccbc 33a2 babc
0.10489494 0.05373162 -0.10045906 0.022505116 0.1452691 -0.26747796 0.031683743 0.072904296
0.06291209 0.16092059 0.13754682 0.027721902 0.07683144 0.12212055 0.029654419 0.018282544
-0.06285459 0.13709058 -0.034848936 -0.006225887 -0.008197583 0.23515987 0.0771874 -0.037303347
0.03228693 0.30226773 0.190034 0.3503069 0.09222566 0.04673911 0.12772806 0.074213244
-0.16778746 -0.2437761 -0.07328981 0.018552877 -0.06756896 -0.38288915 -0.16178542 -0.11034652
-0.4145144 -0.085863024 -0.13977262 0.011446163 0.046831187 0.07939299 0.00823297 -0.12825483
-0.13759597 -0.10743057 -0.16067524 -0.60942197 -0.048499845 0.08468649 -0.14736499 0.114381745
0.05617107 -0.005548569 -0.2216664 -0.44430593 -0.1348177 -0.17226331 0.11103265 0.052661467
-0.108944945 -0.1630555 0.03971974 -0.11260909 -0.08210684 -0.20255989 -0.15070684 -0.01749707
0.11749773 0.077033386 -0.049210336 -0.09360506 -0.24305555 -0.17711328 -0.016446821 -0.046491407
-0.30092195 -0.23504251 -0.09639832 -0.007979684 0.086771466 -0.0962407 -0.17268442 0.08701279
0.23101059 -0.4489325 -0.071029 -0.1875084 -0.106502146 0.14989437 -0.24259873 0.15373644
0.20097393 0.30015752 0.042065203 0.040397223 0.23191494 0.05640113 -0.09220129 0.29018784
-0.035130303 0.14225243 0.0564418 -0.066875555 0.0016491668 0.11101837 -0.035214953 -0.06157351
0.24107957 0.08895046 0.010652695 0.0110024465 0.42772305 0.38524833 0.33331132 0.2061484
0.23284875 0.2747473 0.010280983 0.028659686 0.26209155 0.2969662 -0.012556671 -0.059888076
0.011450851 -0.21948864 -0.0800974 0.055890232 -0.076083966 -0.07743564 0.14426225 0.29075578
0.37867442 0.29463077 0.1108959 0.048262425 0.009101494 -0.06114208 0.061828353 -0.16645046
-0.1966261 -0.07343675 -0.067307055 -0.035153642 0.23013102 -0.004826613 0.15155149 0.22922635
0.08086448 0.1570727 0.055239387 0.08413084 0.061988905 -0.114772275 -0.14978871 -0.17155673
0.37142774 -0.37347388 -0.1754611 0.2561423 0.16811651 -0.71300656 0.37346283 0.05879587
0.6421838 0.5362929 -0.17948955 -0.18520457 0.23720986 -0.06493211 -0.334922 -0.19015981
0.117374964 -0.008219238 0.20457707 -0.33051565 -0.011644786 -0.055277117 0.007039519 -0.1630465
-0.03889593 0.6568372 0.59424067 0.15014264 -0.10968974 -0.12652485 -0.039992742 0.24368463
-0.18143679 -0.053641908 -0.0311379 -0.08946458 0.025198769 -0.35104403 -0.35846284 0.044448763
-0.21526895 -0.09377316 -0.12391499 -0.08089349 0.010202123 -0.032666214 -0.114102684 0.09425374
-0.07286924 -0.038289394 -0.09705341 0.03924357 0.113762446 -0.17031787 -0.12310216 0.037607063
-0.108476706 0.15076031 -0.14998157 -0.24101758 0.043597866 -0.11318114 0.13178079 -0.030830275
-0.12538975 0.19698931 -0.03028429 0.21866885 -0.004475518 0.1735537 0.0021579969 -0.055058025
0.007437066 0.00332019 0.15430626 -0.15962747 0.06860237 0.0025561822 0.014324574 -0.12521756
-0.01299209 0.12630752 -0.061969332 0.21996279 -0.12658848 -0.028632076 0.28831723 -0.087789744
0.011812498 -0.035241626 -0.18955682 0.17286304 0.14232075 -0.12802094 -0.024932202 -0.02278242

layers.0.wix.r_weight f4 [1, 32]
00000000: a022 b7bf 8fd9 253a 4e41 bcbf 27f4 8bbf
00000010: fc53 b0bf c0db 80be 6977 0dbf 85da b83d
00000020: 6246 7abf 3a5d 54bf 7bf5 7c3e 4ece 63bc
00000030: 697e b9bf 3679 80bf 64e8 83bf 2ffc 5bbf
00000040: 15d7 7abe 6506 8cbd e932 91bf 06c6 4bbf
00000050: 5512 19bf e1f3 30be 539c 1ebf df5f 90bf
00000060: 4521 d7be 9ae2 6fbe b24f 693c 4b01 30bf
00000070: 7179 64bf 19af 02bf e214 b4be b523 b9bf
-1.4307442 0.0006326669 -1.470743 -1.0933884 -1.377563 -0.25167656 -0.5526033 0.09026054
-0.97763646 -0.8295475 0.24703018 -0.013904167 -1.4491702 -1.0036991 -1.0305295 -0.85931677
-0.2449611 -0.06837157 -1.1343662 -0.79599035 -0.597936 -0.17280532 -0.6195728 -1.1279258
-0.4201757 -0.23426285 0.014240192 -0.6875197 -0.89247805 -0.5104843 -0.35172182 -1.4464022

layers.0.wix.i_weight f4 [1, 32]
00000000: 3386 c3bd a050 b83e 2997 a8be bf55 0abe
00000010: 2b63 d9bd 7f80 8d3d 307d f43d dd21 8cbe
00000020: 7de7 d53d ece0 883e 6235 863d c9f0 59bc
00000030: 25ee 913c fe7f b7be 0168 063e dc4c 343e
00000040: 1446 50be 093d f73d 9c30 9cbd 1ff3 bebe
00000050: 2ad6 6cbe b2f8 153b 8b4f 40be 7582 673d
00000060: 238e 843e 629a 3f3e 0e34 fbbd ccef ddbe
00000070: ff9a b6bc f9b3 26bf 82e8 35be e67e 053d
-0.09547081 0.35999012 -0.32927826 -0.13509272 -0.10614618 0.06909274 0.1193794 -0.27369586
0.104445435 0.26734102 0.06553151 -0.013302037 0.017813751 -0.35839838 0.13125612 0.17607445
-0.20339233 0.120721884 -0.07626459 -0.37294862 -0.23128572 0.002288383 -0.18780343 0.056520898
0.25889692 0.18711236 -0.12265788 -0.43347013 -0.022290705 -0.65118366 -0.17764476 0.032591723

layers.0.wix.j_weight f4 [1, 32]
00000000: 0ff0 fcbe 62c4 6bbe 7024 7fbf fe15 92be
00000010: 3ebf 8a3e 3a6d 983d 9a13 6b3e a09b 933d
00000020: 2e07 1cbe 8cc2 96bc 6a8d a13d 3ae9 eb3d
00000030: 5a5e 2bbd f11c 17be 834e 3f3d c3cb 05be
00000040: 921d 90be 2d87 d2bc 90d3 c93e ecb8 183f
00000050: b57b 443f fa0c 723e 30f8 edbd c73d 1cbe
00000060: d33f efbe 591e e6bd a41f b0bd 1a0a d3bd
00000070: c370 db3e a34c 00be a957 433c 0513 433e
-0.494019 -0.23024133 -0.99664974 -0.28532404 0.2709903 0.07442708 0.22956696 0.072074175
-0.15237114 -0.018403314 0.07888301 0.11519094 -0.041838028 -0.14757134 0.046705734 -0.1306601
-0.2814756 -0.025699222 0.39419222 0.5965717 0.7675126 0.23637763 -0.11619604 -0.15257941
-0.46728382 -0.11236257 -0.08599785 -0.10304661 0.42859468 -0.12529235 0.011922755 0.19050224

layers.0.wix.k_weight f4 [1, 32]
00000000: 3069 24be 62b1 22bb 9f38 acbd c179 01be
00000010: c571 33bb cecf ca3c 59ca 8f3d 2da6 0dbe
00000020: 7931 e8be 25e3 743e 8938 67be 875d b4bd
00000030: 44c2 833d fa86 4b3e 859f 8dbc 59db 1e3e
00000040: 30cc 44be 06eb 423e 2c6f 943d 6a76 83be
00000050: 2629 913d 1acf 1f3d aa36 603b 5356 083f
00000060: 54fe 603e 150f 51bd c624 72bd 949e 83be
00000070: c154 db3d 8d6d 4cbe caa2 5d3e 4db4 3b3e
-0.16055751 -0.0024824967 -0.08409237 -0.12644102 -0.0027381044 0.024757292 0.07021017 -0.13832922
-0.45350245 0.23914774 -0.2258016 -0.088069014 0.064335376 0.19875708 -0.017287979 0.15513362
-0.19218516 0.19034967 0.07247767 -0.2567628 0.070879266 0.039015867 0.003421227 0.5325672
0.21972018 -0.051039774 -0.0591171 -0.25706923 0.10709525 -0.19963665 0.2164413 0.18330498

layers.0.wix.bias f4 [128]
00000000: 7e5c 3dc0 5b95 e9be e9e3 2dc0 c24c 32c0
00000010: 5ef1 50c0 e972 9fbf a119 23c0 20a5 4d3d
00000020: 4052 24c0 2080 3ac0 419a fe3e 4082 933e
00000030: 3ae0 54c0 eda2 43c0 87f2 dbbf b13a 28c0
00000040: 7963 d13d 40fc 993e 295b 0ac0 a796 91bf
00000050: e9be c9bf eb00 ff3e 2d36 f6be 2959 2ac0
00000060: fd7c 2ebf ff99 3a3e b8dd d2be b5f8 45bf
00000070: 131e 12c0 5aed f7be 900c acbf 328a 4ac0
00000080: 4af3 35c0 8295 d4be 7c99 2ac0 05e2 40c0
00000090: cef5 45c0 bf31 b9bf 97e3 0cc0 7d44 80be
000000a0: 38d1 f8bf 3805 30c0 0dbb 413f 0a90 033f
000000b0: 3cc3 5bc0 a376 49c0 f6e9 1fc0 09f9 22c0
000000c0: 9e5b 16be ce3f 623d 0280 1bc0 a6a5 92bf
000000d0: 4946 c2bf e7af 34bd 48be 4bbf a38b 34c0
000000e0: 01f9 06bf 9d1f 9fbd d92f f3be 21fc 24bf
000000f0: d03b 01c0 fab4 38bf a149 a6bf cfc2 3bc0
00000100: 04e5 43c0 7e55 0cbf 8e13 1ec0 77b2 3ac0
00000110: 2c3b 3cc0 3327 a8bf f910 0fc0 ad84 2dbe
00000120: 8c12 05c0 74c3 38c0 4a83 e53e 39d7 933e
00000130: 4b9c 56c0 b10e 4cc0 d9bb e1bf 166d 2cc0
00000140: 8a65 0dbe 1de1 253e 8c84 1bc0 3b9f 81bf
00000150: 95b7 e3bf 0419 f9bc 81a8 70bf 9d6f 39c0
00000160: 70e5 5abf eeb1 bdbd c461 1ebf 7bd9 15bf
00000170: 7843 e6bf 0125 03bf c84a 98bf 6951 4ac0
00000180: 4e47 43c0 5b67 74be 666d 2ac0 8944 43c0
00000190: 8bf4 4ec0 673a bbbf c0bb 17c0 02bb 9fbd
000001a0: e733 19c0 ffe0 3ac0 ce0d 003f 57ac a73e
000001b0: 0a18 56c0 3196 48c0 acf0 f7bf bbeb 28c0
000001c0: 26a1 24be f334 923d 4c7d 3ac0 5035 98bf
000001d0: 6263 d7bf cb43 ae3d 10f5 32bf 9177 31c0
000001e0: 911a 13bf c611 32be 8153 09bf ed7e 55bf
000001f0: 171e 11c0 9a30 13bf a070 94bf 6860 4fc0
-2.9587703 -0.45621762 -2.7170355 -2.785935 -3.264732 -1.2456943 -2.5484393 0.050206304
-2.5675201 -2.9140701 0.4972706 0.2881031 -3.3261857 -3.0568192 -1.7183388 -2.6285822
0.10224051 0.30075264 -2.161814 -1.13741 -1.5761386 0.49805388 -0.48088208 -2.661692
-0.68159467 0.18222807 -0.41184783 -0.7733262 -2.2830856 -0.48423272 -1.3441334 -3.1646848
-2.8429742 -0.41520315 -2.665618 -3.0137951 -3.0931277 -1.4468306 -2.201391 -0.25052252
-1.9438848 -2.7503185 0.7567604 0.5139166 -3.4337912 -3.147866 -2.4986548 -2.54645
-0.14683387 0.05523663 -2.429688 -1.1456802 -1.5177699 -0.044113066 -0.7958722 -2.8210227
-0.527237 -0.07769702 -0.47497442 -0.6444722 -2.0192757 -0.7215115 -1.299122 -2.9337652
-3.060853 -0.5481795 -2.4699435 -2.9171426 -2.9411116 -1.3136963 -2.235411 -0.16945143
-2.079257 -2.8869295 0.44826728 0.2887514 -3.3532894 -3.1883967 -1.7635452 -2.694158
-0.13808265 0.16199155 -2.429965 -1.0126718 -1.77904 -0.030407436 -0.94007117 -2.8974373
-0.85506344 -0.09262453 -0.6186793 -0.58534974 -1.798934 -0.5122834 -1.1897821 -3.161219
-3.051227 -0.23867552 -2.6629272 -3.051058 -3.2336757 -1.4627198 -2.3708344 -0.07799341
-2.3937929 -2.9199827 0.50021064 0.32748672 -3.3452172 -3.134167 -1.9370322 -2.6393878
-0.16077098 0.071390055 -2.9138975 -1.189127 -1.6827204 0.08509024 -0.69905186 -2.7729228
-0.5746241 -0.17389593 -0.5364304 -0.833968 -2.2674615 -0.57496035 -1.159687 -3.2402592

layers.0.uih.r_weight f4 [32, 32]
00000000: 84bb d9bd 4658 4d3d 8da8 b0bd 6cef 55be
00000010: 3096 fb3d c098 a0bd ca4f 57be 17b5 503e
00000020: 6eb8 973d d238 c8bd 9094 153d a1ec 863d
00000030: 392c 113d 3a26 ec3d a5d3 cf3c eeef 113e
00000040: 1752 8d3e e77b 113e ceb9 e5bd 8f99 24be
00000050: a338 61bd bb59 323e 1d2b 48bd 4e6e 573d
00000060: 904b 5cbd 2b78 2ebc 5fb1 cbbc 0a87 8cbe
00000070: ff72 a2bc de0c c43e 6919 83bd 0339 063c
00000080: 10df c03e 0137 9cbe 09cb 90bd eaa7 5dbe
00000090: 8850 fe3e 8b43 b53e 5f0b 233e 4f8b 2cbe
000000a0: 7cff 573e 7086 7cbe 03e5 0fbd fe22 933c
000000b0: 2c2e f93d dc24 823e d5c2 98bc 598b 8dbc
000000c0: 80b0 34bf f201 1fbf c068 833d 890b adbe
000000d0: f78e d2be e343 f6be 5c85 34be 2e87 babc
000000e0: 5c02 61be 6f36 3fbf ad2c 05be 4081 f7be
000000f0: 9ce9 d03d d774 3bbf bdf9 853d edcb 8e3e
00000100: 5cad 47be 0a3c a3be e41a 5c3e b009 253e
00000110: 35b2 553e e23b 973e 39ad 4ebe 7e29 9fbb
00000120: ed56 953c e1f9 b4bd e13e 26be 2a1c 89bd
00000130: 3cd6 cb3d 34b8 5e3e 7945 2c3c c033 9b3e
00000140: e05e 6abd 77d4 a53e 3540 23be 34a1 a4bc
00000150: a96f 533e aa67 e4bd 33bd aa3b 9f3f 2dbe
00000160: 9917 753e dba9 8a3e 3f72 3abe 4ad0 ddbd
00000170: 82d4 c83d 3905 43be bc6c 83be 73d0 393e
00000180: 5eda 873d e406 a1bd 8005 93be 2dc3 583e
00000190: 7bdd d7bd 088d 413e 0537 783c 0206 7dbe
000001a0: 0b64 603e d066 6bbe 8753 10be 09e3 1b3d
000001b0: 16ba db3d c620 313c 5b1a 0a3c ac09 b6bc
000001c0: 2460 bb3c f1a9 22bd 9fca f43d b78d e5bd
000001d0: 7bf5 4bba e463 093d 70a2 29bb ba3d 203e
000001e0: 1999 513b a991 08be e5d5 03be 694a 78bc
000001f0: a37f 9abd f201 6a3e e4c1 ee3d 2e84 c9bd
00000200: 4aed 64be 67ea 733e 66c8 d33d b3aa ca3c
00000210: 5386 b8bd 376a 09be ef67 843e 8ef8 3d3e
00000220: 4870 2e3e b6d8 9dbe 1e40 21be 55cd 073d
00000230: a737 c2bd 5122 41be 36a2 8cbd 8595 1cbd
00000240: 965a 9c3d de4e c7be fe42 b33d 754c c9bd
00000250: f0d4 4cbc c343 7d3d b9fe 86be 50c4 e3bd
00000260: ff88 d8bd 9e48 0dbf d821 d23e ad15 6d3e
00000270: 2c50 353c ee27 4abe af47 103e c41d 9d3c
00000280: 2cf3 3c3f c2bc 3e3e 6bf3 833e 0234 bc3e
00000290: 6cbf 023e 5d6d 5a3c c958 ab3d 8a79 95be
000002a0: 2bd6 3d3e d260 b83e 1185 7dbe 296a 1abe
000002b0: 50e8 013f d144 293f 0a50 723e 4718 d2bd
000002c0: 218d abbd 65b4 4fbf 110b 983d 333e 6c3e
000002d0: e5d4 44be f312 7fbf 7abf 25bf ed97 283e
000002e0: ec4e dc3e 2774 b0bf 6e58 293f acd0 f9bd
000002f0: f8ab bc3d d236 bdbe f4bd 49bc e7c6 de3e
00000300: 4344 25be 1e05 c63e 87fe bcbe 786f c03d
00000310: 7d39 e7bd 6028 dcbe 51c9 8b3e 4be5 d73d
00000320: 15e0 a93e f185 883e 5171 b6bc 067f 983e
00000330: e506 dbbd 7ce5 98be 7056 c1bd 32be a73e
00000340: 097c a33d 0f1e 96be e38e 363d 9f24 553e
00000350: 7780 cf3e f51e 5b3e 6b0a 2a3d 3e27 fcbd
00000360: d424 e23e 9948 8c3e 8a65 1e3e fa1f 0abe
00000370: 3c2f 7cbe 83a0 903d 89a3 e4be 2f44 98be
00000380: 1340 7abd 32e9 83bd c347 8dbe d488 3abd
00000390: 74f0 d7bd 7672 8abe ee39 8abd d053 343d
000003a0: 1515 abbe b741 a03d 2c83 a63d 3d40 2f3d
000003b0: 96b9 e03d 7572 43be 1ea8 7b3e 26de 62be
000003c0: ce9e 143f 0492 3b3f c132 45bd 477d 753d
000003d0: 8b3b 3e3d c860 1f3f 410c a43e 62b6 d43d
000003e0: 8460 9f3c 9a76 483f 8424 9dbd 2f6e f33e
000003f0: 0761 013c 74bb 513f 1e82 513c 16aa 4ebd
-0.10631469 0.050133012 -0.086258985 -0.20892113 0.12284505 -0.07841635 -0.21026531 0.2038158
0.07408224 -0.097764626 0.036518633 0.06588102 0.035442565 0.11530729 0.025369475 0.14251682
0.27601692 0.14207421 -0.1121708 -0.16074203 -0.054985654 0.17417042 -0.04886924 0.05259543
-0.053783 -0.010648767 -0.02486485 -0.27446777 -0.019830225 0.38291067 -0.06401331 0.008192304
0.37670183 -0.30510715 -0.07069976 -0.21646085 0.49670815 0.35403094 0.15922306 -0.16850017
0.21093553 -0.24660659 -0.035130512 0.017961022 0.1216701 0.25418746 -0.01864759 -0.01727836
-0.7058182 -0.62112343 0.06416464 -0.33797863 -0.411247 -0.48098668 -0.17628998 -0.022769537
-0.21973556 -0.74692434 -0.13005324 -0.48340797 0.102008075 -0.7322516 0.065417744 0.27889958
-0.19499725 -0.31881744 0.21494633 0.16116977 0.20868762 0.29537874 -0.20183267 -0.004857241
0.018229926 -0.08836723 -0.16234924 -0.06694825 0.09952971 0.21749955 0.01051461 0.3031292
-0.057219386 0.3238866 -0.15942462 -0.020096399 0.20648064 -0.11152585 0.0052105426 -0.16918801
0.23934783 0.27082714 -0.18207644 -0.108307436 0.09806158 -0.19044961 -0.25668895 0.18145923
0.06633447 -0.078626424 -0.28715134 0.21168204 -0.10540291 0.18901455 0.015149836 -0.24709323
0.21913163 -0.22988439 -0.14094363 0.038058314 0.107288525 0.010811036 0.008429135 -0.022221409
0.022872992 -0.03971285 0.119527094 -0.112086706 -0.0007780415 0.03354253 -0.0025884174 0.15648547
0.0031982122 -0.13336815 -0.12874563 -0.0151544595 -0.07543876 0.22852305 0.116580755 -0.098396644
-0.22356144 0.23819886 0.10340957 0.024739599 -0.09009995 -0.13419424 0.25860545 0.18551847
0.1703502 -0.308294 -0.15747115 0.033154804 -0.09483271 -0.18860747 -0.06866877 -0.03822853
0.076344654 -0.38927358 0.08753012 -0.09829036 -0.01250194 0.0618322 -0.26366213 -0.11121428
-0.10573005 -0.5518893 0.41041446 0.231528 0.011066478 -0.19741794 0.14089845 0.019179232
0.7380855 0.18626693 0.2577165 0.3675843 0.12768334 0.013331738 0.08366544 -0.2919429
0.1853873 0.36011368 -0.24757792 -0.1507956 0.50745106 0.6612063 0.23663345 -0.10258537
-0.083765276 -0.81134635 0.07423986 0.23070602 -0.19221838 -0.9963829 -0.64745295 0.16464205
0.43028963 -1.3785447 0.6615056 -0.12198004 0.09212488 -0.36955887 -0.012313355 0.43511125
-0.16139321 0.3867578 -0.3691294 0.09396261 -0.11290262 -0.42999554 0.2730203 0.10541781
0.33178774 0.2666469 -0.02227083 0.2978441 -0.106946744 -0.29862583 -0.09440315 0.32762295
0.07982642 -0.29319808 0.04456986 0.20814751 0.40527698 0.21398528 0.04151384 -0.12312172
0.44168723 0.27399138 0.15468422 -0.1348876 -0.24627393 0.07061865 -0.44656017 -0.2973952
-0.061096262 -0.06440963 -0.27593812 -0.045540646 -0.1054391 -0.27040452 -0.067493305 0.044025242
-0.33414522 0.07825034 0.08130488 0.04278587 0.10972898 -0.1908663 0.2457585 -0.22155055
0.58054817 0.7326968 -0.048144106 0.059933927 0.046443503 0.6225705 0.320406 0.10386349
0.019455202 0.7830597 -0.076729804 0.47545 0.007896668 0.81926656 0.01278737 -0.050455175

layers.0.uih.i_weight f4 [32, 32]
00000000: 2475 483d 80cd 5d3e 7075 8f3e c2a8 6dbd
00000010: 8ab9 033d d6f0 a2bd 0067 bb3d 12b5 093e
00000020: 5b6d 4d3e b36e 3ebd b158 2abc 39f1 f83b
00000030: dda4 c03d 1eb0 78be 50e6 4f3e 0114 93bd
00000040: 2f8e 00bc 81b3 d83b 302c febd e42d 9b3d
00000050: e194 3b3e 2ae3 c6bd caab 6c3e cb51 d53c
00000060: cef2 c8bc 52ee 32be ec0c f03d b187 03bd
00000070: bb22 0c3e 294d 17bd c956 f6bb 4b7e 853e
00000080: 686d 883e 7ed5 033e 790c 603d 321d b23d
00000090: 65b6 443d 5cdf 8d3e e816 873e 60ec 05be
000000a0: 0bb7 3f3e db3b 04bd 81c1 97bd 3a28 1b3e
000000b0: a78c bc3e afee 6cbc dfae 6f3e 0791 c93c
000000c0: 53fc 2b3d 8fb4 0abe 7332 af3c afa0 4d3d
000000d0: dc5d a3be cd9b c7be 901c 91be 0d09 253e
000000e0: 1864 913e f912 bdbe c0c2 293e b392 fdbd
000000f0: 79ed 8fbe bb42 2fbf eea8 803e 7a24 ad3e
00000100: 6119 8b3e 67c8 db34 f13f eabc 03ee 2fbd
00000110: 03db 6f3d 2481 903d b3c6 45bd 0e1a cdbe
00000120: 29c2 ba3c 73d9 86bd 3653 143d 6d10 90bd
00000130: ebae 89bc 6a43 5abd fe6c e73e 3058 13be
00000140: b9ca 1c3e c149 253e a5e8 e2be f952 1ebd
00000150: be49 4f3e 34e3 d0bd fa34 813e b27a 113e
00000160: f8b7 b3bd 6288 2b3c 4d46 52bc 38ca 67bd
00000170: 2dff 1abd 7be9 663d 86f7 d4be 79d3 d03d
00000180: 030d 3f3e f185 353e 6c7b dc3d 50b7 f5bb
00000190: 1d6a 1dbd f635 7a3e 74c3 713c da35 5c3b
000001a0: f236 f5bd 4dec 2bbe 27d8 adbd 2967 99bd
000001b0: 1cf6 383d 71bd 5d3e d1ce 843e 8b95 89bd
000001c0: 504b db3e 0f31 e93d b98c 2c3c c9c1 24bb
000001d0: e6fa 0ebe 5a31 d13c 9008 06bd 808e 3ebd
000001e0: 124c bfbd 0ecd 0b3d 8380 77be 157c 71bd
000001f0: 8ff7 663e 28d1 013e 2c9f 573b d10f 51bd
00000200: 1f55 7d3d 268d 7dbc b4e5 2a3d 02b7 5d3b
00000210: d617 a23d 87e2 4c3e b546 89bd 9f7a 5a3c
00000220: 2564 7a3d 3dba 323e 8e41 98bd 91a9 073d
00000230: 863a 28bd 6830 213e 4eda 79bd 784f 29bc
00000240: e5b0 6abe 7820 87be 5285 6d3e 8075 1cbd
00000250: 0b4e 23bd 7229 2cbe 5952 3dbd 0275 f9bd
00000260: ea5e 9f3e 912e bbbe c365 4a3e 9e15 4ebe
00000270: 03d5 29be 0c29 81be b1fe 3bbd 8983 b43c
00000280: a058 95bc ff5d 3b3e 5673 d3bd d6fa 78bd
00000290: d60e cb3d 71df 9ebd a4a6 63be b5bc 59bc
000002a0: a3b3 853d 2410 17bd 3c56 243e d194 2c3e
000002b0: 0d13 1e3d 3616 343e e98f e2bd 005e a33e
000002c0: 288b 7b3e fd72 9cbe 3360 f23e e438 743e
000002d0: 1236 533e 63b9 513d bbd5 153b d445 d8bd
000002e0: 7062 443e eed0 9fbe 45c5 8cbe 9063 973d
000002f0: a1c4 7bbe 0d6a 243d ed8a ed3e 093f 163e
00000300: b14c 3fbe 9c32 a0be d7e8 47be bbc5 5dbe
00000310: 951e 02bb d88c 37be dad9 1e3e 443f 033e
00000320: 0625 2cbe 3db6 cebd b20b 09be c9ac 763d
00000330: 46b0 c5bc a47a d93c 670a f1bd 4d22 8fbe
00000340: 8441 babe 5aab 613e 4a88 86ba 381f ac3c
00000350: 0eff d0be 1841 7c3e d61c 8f3c 91b9 7d3e
00000360: 96d4 b1bd 1f69 393e d3da ef3e df4f 2a3e
00000370: 4c5e a23d 6a56 d73d 925e adbe 43ab 80be
00000380: 59f4 b93e 13d1 d13d e124 133c 3cdf febc
00000390: 26ac f9bd b7f7 a63b d26d 8bbe c60f de3d
000003a0: 2bf6 443e f057 a43c 40cf 98bd df94 7b3d
000003b0: 4cee af3d 3f67 213e cd02 a33d 1d2f fa3c
000003c0: fee7 253e adc7 2ebe 34ec b13d 0a2b d9bd
000003d0: 4a3f a93e bb82 5b3d 3b2f 6dbd b765 9abd
000003e0: d73e 9dbd 5af8 a8bd aade af3e a86b a03e
000003f0: c9e1 693e e639 c63e c376 7b3b e364 8e3d
0.04893984 0.21660423 0.28019285 -0.058022268 0.032159366 -0.07956092 0.09150505 0.13447979
0.20061247 -0.04649229 -0.010397122 0.0075971154 0.09406445 -0.24285933 0.20302701 -0.0718155
-0.007846399 0.0066131954 -0.12410772 0.07577112 0.18318512 -0.09711297 0.23112407 0.026039978
-0.02452984 -0.17473724 0.11721215 -0.032111827 0.13685124 -0.03693882 -0.00751767 0.26072916
0.2664597 0.1287441 0.054699395 0.08696975 0.048025507 0.27709472 0.26384664 -0.13078451
0.18722169 -0.032283645 -0.07409955 0.15152064 0.3682606 -0.0144612035 0.23406552 0.024605287
0.041988682 -0.1354544 0.02138636 0.050202068 -0.31907547 -0.38986054 -0.28342104 0.16116734
0.28396678 -0.36928537 0.16578197 -0.12381496 -0.28110865 -0.684612 0.25128883 0.33816892
0.271678 4.093774e-07 -0.028594943 -0.042951595 0.058558475 0.070558816 -0.048285197 -0.4005894
0.02279766 -0.06584444 0.03621217 -0.07034383 -0.01680704 -0.053286947 0.45200342 -0.1438911
0.15311708 0.16141416 -0.4431812 -0.038653348 0.20242974 -0.101995856 0.2523573 0.14206961
-0.08775324 0.010469528 -0.012834144 -0.056589335 -0.03784101 0.056375008 -0.41595095 0.10196585
0.18657307 0.17726876 0.10765728 -0.007498659 -0.038431276 0.24434647 0.014756072 0.0033601434
-0.119733706 -0.1678936 -0.084884934 -0.07490379 0.045156583 0.21654297 0.25939038 -0.06717976
0.42830896 0.1138631 0.010531598 -0.002513992 -0.13962898 0.025536228 -0.03272301 -0.046522617
-0.09340681 0.034131102 -0.24170117 -0.058956224 0.22555374 0.12677443 0.003290127 -0.051040474
0.061848756 -0.015475547 0.04172297 0.0033831005 0.079147026 0.20008288 -0.067029394 0.013334899
0.06113066 0.17453857 -0.074343786 0.033120696 -0.041071437 0.15741122 -0.060999207 -0.010333888
-0.22919042 -0.2639196 0.23195389 -0.038197994 -0.03986935 -0.16812685 -0.04622111 -0.121805206
0.311271 -0.36558965 0.19765382 -0.20125434 -0.16585164 -0.2522663 -0.04589719 0.022035377
-0.018230736 0.18297575 -0.10324733 -0.06078609 0.09914939 -0.07757462 -0.22231537 -0.01328962
0.065284036 -0.036880627 0.16048521 0.16853644 0.038592387 0.17586598 -0.11062605 0.31907654
0.24564803 -0.3055648 0.4733902 0.23849827 0.20626095 0.05120219 0.002286299 -0.10560194
0.19178176 -0.31214088 -0.27494255 0.07392037 -0.24586727 0.0401402 0.46395054 0.14672484
-0.18681599 -0.31288612 -0.19522415 -0.2165746 -0.0019854654 -0.17924821 0.15512791 0.12817103
-0.16810998 -0.10093353 -0.13383368 0.060223375 -0.024131905 0.026547737 -0.11769562 -0.27955857
-0.3637811 0.22038022 -0.0010264006 0.02101098 -0.4081959 0.24634206 0.017469805 0.24777819
-0.08683126 0.18106507 0.46846637 0.16632031 0.07928142 0.10514529 -0.33861214 -0.25130662
0.36319235 0.10244956 0.008980961 -0.031112306 -0.12191038 0.005095448 -0.27232224 0.10842852
0.1923453 0.020061463 -0.07461405 0.06142127 0.085903734 0.15762042 0.079595186 0.030540043
0.16201779 -0.17068358 0.0868763 -0.10603912 0.33056098 0.05359147 -0.05790637 -0.07538932
-0.076780014 -0.08250494 0.34349567 0.31332135 0.22840036 0.38716048 0.0038370348 0.06952836
