models/QLSTM_qal_neck_epochs20.pth (torch, 168801 bytes, 76 tensors)

layers.0.wfx.r_weight f4 [1, 32]
00000000: bb87 cabe 2306 02bf e519 bfbe df45 00bf
00000010: 3e0d 9dbe 5cd5 11bf 168f bdbe c77c 15bf
00000020: dc9a 67bc 9907 dcbe d5e3 90bf 0cb6 38bf
00000030: c7ad cfbd 8451 acbe be81 5abe ca9c 42bf
00000040: 73ff 03bf e133 03bf a514 f7be d736 3dbf
00000050: ca8d e1be 0d6c 7dbe 306e 60bf 1a43 c2be
00000060: 45f3 4ebe 8463 f1be ab8f 86be 8d08 66bf
00000070: 4c86 83be 78df fabe 5bbe 32be 9575 1ebf
-0.3955668 -0.50790614 -0.37324443 -0.50106615 -0.30674165 -0.56966186 -0.37023228 -0.5839352
-0.014136042 -0.42974547 -1.1319529 -0.7215278 -0.10140567 -0.3365594 -0.21338555 -0.7602049
-0.5156166 -0.51251036 -0.48257938 -0.73911804 -0.4405349 -0.2474825 -0.8766813 -0.3794182
-0.20209987 -0.47146237 -0.26281485 -0.898568 -0.25688398 -0.48998618 -0.17455427 -0.61898166

layers.0.wfx.i_weight f4 [1, 32]
00000000: d675 7fbd 7deb cebc c8b4 01be 280f b43c
00000010: 1943 46be ed9f 47be b9a6 fcbd dc66 21bd
00000020: 39f1 303c 6624 2cbe 6135 63be c469 a1bd
00000030: ff3f ddbd b82f 96bd b067 31bd 29a1 433c
00000040: b33a 9fbd 3b6c d3bc fcf8 90bd 0baf 5abe
00000050: e075 c43c 2d5d 31bd 4fe6 e9bc 4423 58bc
00000060: c589 97bd c925 1bbe cacf e2bb db01 83be
00000070: 6bd0 dcbd 0218 f4bd a6d1 223b e79c fdbd
-0.062368236 -0.025258774 -0.12666619 0.021979883 -0.19361533 -0.194946 -0.12336487 -0.039404735
0.010799699 -0.1681076 -0.22188331 -0.07881501 -0.10803222 -0.073333204 -0.043311775 0.011940279
-0.07774868 -0.025808444 -0.0707874 -0.21355836 0.023981988 -0.04330175 -0.028552203 -0.013192002
-0.07399324 -0.15151133 -0.006921743 -0.25587353 -0.1078194 -0.119186416 0.0024844198 -0.12383442

layers.0.wfx.j_weight f4 [1, 32]
00000000: 5f11 55bb 0712 07be e71b 9bbd 5cbf 8bbd
00000010: c113 bcbd 13a9 a0bd 7e45 18be 51c9 d6bc
00000020: 6a83 5e3c 7f4b 303d 4ecc adbe 0adc 7cbd
00000030: 82a7 c6bc 5a2f 693c 6bc3 24be 0157 4a3d
00000040: c4ad 39bd 3295 7abd 1731 adbd ba64 f1bd
00000050: b3a0 c3bc 0ae8 333d 2df5 33bc 5b53 d5bd
00000060: 07c5 0abe 0cf3 793d a0a2 753e 391f 153e
00000070: 4f7c 81be ecb3 15be 9968 16bd 5e6e aa3e
-0.0032511575 -0.1319047 -0.07573681 -0.06823608 -0.09183455 -0.07844748 -0.14870259 -0.026219042
0.013581136 0.04304075 -0.33944935 -0.061733283 -0.024249796 0.014232481 -0.16090171 0.04939938
-0.04533173 -0.06117744 -0.08456629 -0.1178679 -0.023880338 0.04392246 -0.010983747 -0.104162894
-0.13551722 0.061022803 0.23987818 0.14562692 -0.25290152 -0.14619416 -0.036720846 0.33287328

layers.0.wfx.k_weight f4 [1, 32]
00000000: 1159 883c 5626 6c3d 124c b1bd 5c33 57bd
00000010: d0d8 bdbc ed4f 8cbc 2f83 99bd d7ae a6bd
00000020: 88ed 22bd d706 05be 4e7b 72be e146 153c
00000030: 10d9 7fbe 2a97 4abe 2cad f63b 8f5b 813d
00000040: 2ad3 8b3d d852 0f3d a078 d4bd 566f 0b3e
00000050: 5c9f 81be 4909 8bbb c30a 883d 5a05 24bd
00000060: d8ba ad3c 8625 103e 4440 f8bc 6d42 683e
00000070: ef2a 933b b807 2abc 6b5f 053e 785b 553e
0.016644033 0.057653747 -0.086570874 -0.052539214 -0.023174673 -0.017127955 -0.074957244 -0.08138817
-0.03977731 -0.1299089 -0.2367985 0.009111137 -0.24985147 -0.19784227 0.007527968 0.063162915
0.06827386 0.034991115 -0.1037457 0.1361669 -0.25316894 -0.0042430502 0.06642678 -0.040044166
0.021207258 0.14076814 -0.030304082 0.2268159 0.004491202 -0.010377817 0.1302468 0.20835674

layers.0.wfx.bias f4 [128]
00000000: 6de0 f1bf 218d e0bf d0ee f4bf 87bb fbbf
00000010: 386e febf 935f f7bf 5aed ecbf a15a febf
00000020: f428 f9bf 92c5 f6bf 30b1 1cbf d0f0 ecbf
00000030: f91e 03c0 1f45 02c0 1fcb eebf a7c5 e1bf
00000040: 16bf f2bf c501 8abd b729 ffbf 7cbb d6bb
00000050: c01b cdbf 2ba1 febf 17a9 c3be 867e 05c0
00000060: 2e77 f0bf a702 ecbf 4110 0ac0 09e0 dbbe
00000070: ee49 dabd e1c8 f1bf ae98 e7bf a704 90be
00000080: 354e f4bf 4f08 f1bf 211f f4bf a422 00c0
00000090: ff48 f6bf e9a7 efbf 20c8 e5bf e298 f2bf
000000a0: 5975 f2bf 33ba ecbf c7af ddbe b20d efbf
000000b0: 07cf f6bf c472 ecbf 9886 eabf 1040 e6bf
000000c0: 631e f1bf c10f 92bd 10b7 efbf 6ec9 0abd
000000d0: 5d4f abbf a038 f6bf 9416 86be 0ea8 f7bf
000000e0: a7c9 f1bf 7261 eebf 3627 03c0 d5fd 0cbf
000000f0: 7454 bdbd 453b f0bf 761d f4bf 685a 0fbf
00000100: e600 f1bf 968d ecbf 0c49 eebf a18d f8bf
00000110: b1eb 06c0 b56c eebf 9f4f e4bf e07b efbf
00000120: 3aad ddbf 3637 f4bf 722e fabe 7b03 ebbf
00000130: 85ad e5bf 8be2 fbbf eee4 ebbf aa1f f0bf
00000140: f584 01c0 197c 943d ab48 f6bf dcff 203d
00000150: c0f3 b0bf c0fe f8bf 4476 bebe 591f 00c0
00000160: 7cc6 f7bf 8905 f7bf 16ab 12c0 d33b 28bf
00000170: 2d56 d2be b9c1 f3bf 9bb5 f6bf c1bb 01bf
00000180: 7e23 edbf 33c0 edbf 2258 ebbf 0a41 f5bf
00000190: 3635 fabf 6bde f2bf 0699 e4bf db6b f3bf
000001a0: f27a f4bf f844 e5bf f186 0dbf a83a e9bf
000001b0: 97e7 e8bf 4e51 ddbf 7cb7 eebf adf3 fcbf
000001c0: 5d78 f7bf ca64 90bd e8ce efbf 45fb b8bd
000001d0: bf0b f1bf d909 f5bf 251e debe 698c 01c0
000001e0: 5de8 f3bf b286 ebbf 1165 04c0 e54e 17bf
000001f0: 442e 10be 3ea3 ecbf 3a0e fbbf a667 a9be
-1.8896614 -1.7543069 -1.913538 -1.9666604 -1.9877386 -1.9326042 -1.8509934 -1.9871408
-1.9465623 -1.9279044 -0.61207867 -1.851099 -2.0487654 -2.0354688 -1.8655738 -1.7638444
-1.8964565 -0.06738619 -1.9934605 -0.0065531116 -1.6024094 -1.9892935 -0.38214943 -2.0858474
-1.8786371 -1.843831 -2.157242 -0.42944363 -0.10658632 -1.8889428 -1.8093469 -0.2812855
-1.9086367 -1.883066 -1.9072 -2.0021143 -1.9241027 -1.8723117 -1.7951698 -1.8952906
-1.8942062 -1.8494323 -0.4329817 -1.8676054 -1.928193 -1.8472524 -1.8322325 -1.79883
-1.8837398 -0.07131911 -1.8727741 -0.033883505 -1.3383595 -1.923603 -0.261891 -1.9348161
-1.8889664 -1.8623488 -2.0492682 -0.55074817 -0.09244624 -1.8768088 -1.9071491 -0.55997324
-1.8828399 -1.8480709 -1.8616042 -1.9418222 -2.1081355 -1.8626925 -1.7836798 -1.8709679
-1.731849 -1.9079349 -0.4886356 -1.8360437 -1.7943579 -1.967851 -1.8429239 -1.8759663
-2.02374 0.07250232 -1.9240927 0.039306507 -1.3824387 -1.9452744 -0.37199605 -2.0019133
-1.9357448 -1.9298564 -2.2916923 -0.65716285 -0.41081372 -1.9043494 -1.9274172 -0.50677115
-1.8526456 -1.857428 -1.8386271 -1.9160473 -1.9547489 -1.8974127 -1.7859199 -1.901729
-1.910002 -1.7911673 -0.5528403 -1.8221025 -1.8195676 -1.7290437 -1.8649745 -1.9761864
-1.9333607 -0.07050474 -1.8735018 -0.09032301 -1.883171 -1.914363 -0.43382373 -2.024195
-1.9055287 -1.8400481 -2.0686686 -0.5910476 -0.14080149 -1.8487318 -1.9613717 -0.3308689

layers.0.ufh.r_weight f4 [32, 32]
00000000: bb46 9d3e 6a60 c13d 903a e7bc 1558 203e
00000010: 225b 67bd 4fd8 483e ffca 5a3d 7862 d23d
00000020: a6cc 8f3e c106 b9bc aac2 a7be be8f 183e
00000030: b303 c83c f2be 5e3e e86b 44bd 38c7 fe3d
00000040: 35b5 523e df0c 7abd e565 80be 6329 ad3e
00000050: 7c38 20be a4fb fbbd 2450 ab3c 0e3d d7bd
00000060: 7987 9e3a ddbd b4bd fc64 6abe b82a 9b3d
00000070: 6039 febd b969 b83d 0311 0ebe 55a4 373e
00000080: 1f7d 0a3d 1f8f 003e 2be9 1cbd 4f1e 273e
00000090: 2c83 43bc d989 d1bc 03be 193c 960e c53d
000000a0: 3b30 953e 42c6 e33d 9ac0 11be bcac b23d
000000b0: 1da6 1abe 3ac1 93bd 728c 6fbe 51d6 90bc
000000c0: ea62 b5be b6e0 5e3c 3dcd 203e e5db 9dbe
000000d0: 22f4 9bbd f1ee 0e3e 2e68 873e 34cc 863d
000000e0: 197d 24be 5616 a5be 86b7 22be fbda 4fbe
000000f0: 9e0e 2bbe 8755 d8bd 0856 b5bc dcd1 b2be
00000100: 2502 a73d 6b75 dabd 73ae 88be a311 9a3d
00000110: 97ce 51be 88cb f13d 8391 c33d 389e 863d
00000120: 7c22 a43e 1069 493d 20ba f3bd fe7d b63d
00000130: 4aed a43e 5fb2 05be 8a7b 4ebe a98e 77be
00000140: 5ee7 70be 6cc7 d73d 8943 bbbd e5c7 f73d
00000150: 9364 4c3d c0ce a3bd 972f 493d 9bfa 663e
00000160: 8d98 cdbb ff82 51be a24c e6bd 5a7c 9f3d
00000170: 65e9 143e 8451 713d e49d e13d a551 253f
00000180: 0b3a 6fbe 8347 3ebe d698 c1bd 36a7 153e
00000190: 706e cbbd e242 1bbd 9d7c fa3d 1733 5fbd
000001a0: 08c6 ecbd 08b8 363d dcc6 e13e 6f9a 3b3e
000001b0: 5edf c73d 5a57 20be fbcb 4b3d 7839 35bd
000001c0: eb13 05bc f6a2 2d3e 8f08 bc3d a7e8 523e
000001d0: 1c32 b43e 45e1 a63d 203e 7d3d 12d7 fbbd
000001e0: 7984 f13c c002 46be 2440 f4bc ece8 c33d
000001f0: cf54 573e 2e1d e63d 3b85 183d d11a 5c3e
00000200: f33d 313e 8c9d c6bd 7439 c3bc 1b9f c4bd
00000210: 56f2 92bc e70a e13d 2454 ee3c 7abf 1e3d
00000220: f549 c3be c675 99bb b10f ea3e 262b b43d
00000230: 41fc 8f3d 3964 8cbe 2118 dd3c dd14 8cbe
00000240: c509 093c 9d3c 253e 4d43 073e ddef 933e
00000250: 60e3 b93d 62e2 7d3e dc54 383e 26ee 08be
00000260: 9271 d4bc 79b6 0f3d 70c6 d3bd a587 743e
00000270: 0a26 ddbb 8371 a83d 1840 1bbe 0734 f33d
00000280: 99f6 c73d bd3c 303d 9de3 13be ebc8 553c
00000290: e337 913d ea89 9d3b b45b 1dbe ded4 c53d
000002a0: f6ac a13d 797b 9bbd 05f8 25bb ed5a f9bc
000002b0: f51f 633e f754 cfbc e2c0 9b3d d084 60be
000002c0: e289 c13d ade2 7d3d 0df4 503e fe27 833e
000002d0: 58e0 933d 19a9 d7bc b846 af3d 09c1 e73d
000002e0: 5100 a8bc b8e5 cabd e2c6 1cbd 6a1a df3d
000002f0: 416c 183e 4b60 a43c c84d 04be 5519 9b3e
00000300: af01 243e 2a5d ec3d c63d 8a3b a3dc a7be
00000310: 0b53 70be ebda 33be d687 2fbe 1b7e 6d3b
00000320: 8db8 b7bd 71a9 9a3c 1589 293e 648c 8fbc
00000330: 8740 f7bd 3a67 c53d 4a7a 01be b191 45be
00000340: 8b9a 813d 8e30 c5bd 1cb0 353d f764 9a3c
00000350: c4cf f1bc 6770 223d 0015 fa3d bbf6 b03d
00000360: 4d4a 89be 63db 87be 4715 5ebe 0040 ddbd
00000370: a7d8 463d 20cb febc fac1 fbbd 343d 48be
00000380: 18d9 4ebd 7d10 76bd 09b2 df3d 85a6 313e
00000390: 3804 31bd f0fc 2fbd fff5 f63d 92d0 56be
000003a0: 3ab4 70be 596c d5bc f3b8 453e e6ae 673e
000003b0: fb5e c03d 23b3 e5bd 8b78 32bd cb5d 1ebe
000003c0: 4e44 7a3e e8a6 a83e 7053 2cbd e2dc 5f3d
000003d0: 5ef0 39be 49e5 c63d 5c91 8a3c 52b5 5e3e
000003e0: fd6d ddbd 3185 653e be0d 013d 981e dabd
000003f0: ad34 03bd 3dcc a63c 94a6 de3c 9f5e 873e
0.30718026 0.09442218 -0.028226167 0.156586 -0.056483395 0.19613765 0.05341625 0.10272688
0.28085822 -0.022586228 -0.32765704 0.14898583 0.024415826 0.21752527 -0.04795447 0.12440342
0.20576937 -0.06104743 -0.2507774 0.33820638 -0.15646547 -0.12303856 0.020912237 -0.10509692
0.0012094817 -0.08825276 -0.22890085 0.07576507 -0.12413287 0.0900454 -0.13873677 0.17933781
0.03381073 0.12554596 -0.038308304 0.16320156 -0.011933129 -0.025578426 0.009383681 0.09621923
0.2913836 0.11121799 -0.14233628 0.08724353 -0.1510243 -0.072145894 -0.2339342 -0.017680319
-0.35427028 0.01360338 0.15703292 -0.3083183 -0.07614924 0.13958336 0.2644667 0.065819174
-0.16063346 -0.32243603 -0.15890321 -0.20298378 -0.16704795 -0.10563188 -0.02213575 -0.34925735
0.08154706 -0.10666927 -0.26695594 0.07522895 -0.20488964 0.11806399 0.095492385 0.065731466
0.3205756 0.04917246 -0.11900735 0.0891075 0.32212287 -0.13056324 -0.20164314 -0.24175514
-0.2352576 0.105360836 -0.09143741 0.12098674 0.049900603 -0.07998419 0.04911765 0.22556536
-0.006274289 -0.20460127 -0.11245085 0.0778739 0.14542158 0.05891563 0.11016443 0.64577705
-0.23361985 -0.18581967 -0.09452979 0.14614567 -0.09933174 -0.03790558 0.12230799 -0.054492082
-0.11561209 0.0446091 0.4409703 0.1832063 0.09759401 -0.15658322 0.049755078 -0.04424426
-0.008122425 0.16956696 0.0918132 0.20596562 0.3519448 0.081484355 0.061826825 -0.12296881
0.029482113 -0.19336987 -0.02981574 0.09565911 0.21028446 0.11236034 0.037236433 0.21494605
0.17308788 -0.096980184 -0.023831107 -0.096006595 -0.01793782 0.109884076 0.029092856 0.038756825
-0.38142362 -0.004683229 0.45715097 0.087972924 0.070305355 -0.27420214 0.026989045 -0.27359667
0.008364146 0.16136403 0.13209267 0.2889394 0.090765715 0.2479339 0.18001121 -0.13372096
-0.02593306 0.03508613 -0.10340583 0.2387987 -0.0067489194 0.08224776 -0.15161169 0.11875158
0.09763832 0.043026675 -0.14442296 0.013048391 0.07090738 0.0048077004 -0.15367013 0.09659742
0.07894318 -0.0759191 -0.0025324833 -0.030438865 0.2218016 -0.02530907 0.07605149 -0.21925664
0.09450127 0.061983753 0.20405598 0.2561645 0.072205245 -0.02632575 0.085584104 0.113161154
-0.020507963 -0.099070966 -0.038275607 0.1089371 0.14885046 0.020065447 -0.12920296 0.30292764
0.16016267 0.11541207 0.0042187897 -0.3278552 -0.23469178 -0.1756398 -0.17141661 0.0036238495
-0.08970747 0.018879624 0.16556199 -0.017522998 -0.120728545 0.096388295 -0.12644306 -0.19293858
0.06328305 -0.09628402 0.044357404 0.018846972 -0.029518016 0.039657976 0.12211037 0.0864081
-0.268145 -0.26534566 -0.21687804 -0.10803223 0.04854646 -0.031102717 -0.122928575 -0.19554597
-0.050500005 -0.06007432 0.109226294 0.17348678 -0.043216914 -0.04296583 0.12058639 -0.20978001
-0.23506251 -0.02605264 0.19308834 0.22625312 0.09393116 -0.11215808 -0.04357199 -0.15465467
0.24440119 0.3293984 -0.04207176 0.05465401 -0.18158099 0.097117014 0.016915016 0.21748856
-0.10811994 0.2241409 0.031507246 -0.106503665 -0.032032657 0.02036106 0.02717904 0.26439378

layers.0.ufh.i_weight f4 [32, 32]
00000000: a164 fa3b 8ba7 8d3b 91b3 623d d576 7fbd
00000010: 97ca 193e 1892 8e3d f506 bd3d f947 2fbd
00000020: bb7b 48bd 646f 7c3c 27e1 0d3c b61a f83b
00000030: 9a5f 9b3d f05b 60bc 075c e83d b5b9 9e3d
00000040: 2006 933d dd7e 073e 1010 463e 0378 4f3e
00000050: fd0e f53d 4f10 4ebe a4e0 7cbb 5d6f ec3d
00000060: 65ff 8c3e 884c 8abd 8c41 f53d 540c 833d
00000070: a1d4 173e 1deb a93c 6252 383c 4c24 3b3e
00000080: 030f 0abd 5735 e53a eac4 e1bd 9163 b03d
00000090: 2076 aebd 1114 b23c 5f73 11be 271f 89bd
000000a0: d81e d03d e607 a5bd edee a43e c97e f1bd
000000b0: 4020 0a3e 4d5a a1bd b4e7 47be 8546 13be
000000c0: 6c36 bfbd ccbb 92bc 2770 aabd ae80 c03c
000000d0: f40d d43c aa4a 10bd ed7e 423e b57c 023c
000000e0: 6dea 623d 4bef 193e d43a 6d3d 77af 0d3c
000000f0: 2462 903e 79cb d0bc 6c87 b7bd 0dba 62be
00000100: 3e87 473d 2b50 09be c648 15bd 2f83 893d
00000110: 09a7 f73d 63c4 fb3c 3616 823d 50b3 4a3d
00000120: eba5 73bc f780 f53c a070 913e 527d 3d3d
00000130: 0382 3a3e a858 c2bd 4967 1fbd 2cb4 64be
00000140: a1b9 563e e98e 043d 4101 9ebc 608c 3d3d
00000150: e557 da3b 098d 443d ca67 6dbd bd62 b03d
00000160: f19e 03be f696 d9bd 35f6 3e3e 1763 69bd
00000170: 1ad6 20be 0b32 a43d 309d 86bd 37a1 7f3d
00000180: 4a9b d13c 4151 003e 472a 9abd cc35 7dbd
00000190: 45f6 1fbe 993e 85bd c062 44be 1928 953d
000001a0: a7bc 693d bb8c 71bb b58b 053d 6ce1 9f3d
000001b0: f3f2 18be dfb8 423e 10fa a2bd 04dd b53c
000001c0: 5ec1 51bc 708e 3abe c937 1cbd d5ba 7bbd
000001d0: b720 19bc 2c63 29be 8912 b43d 3074 1fbe
000001e0: 237e 8ebd ff54 fc3d 6c83 69bd 876b 2dbd
000001f0: 6fab f83d f503 f5bd 51ce 2fbe 4812 1ebe
00000200: 32fd 86bd 1800 82bc b2e4 94bd 3a23 d9bd
00000210: 8c61 cb3d f67b adbd 6ab0 9e3c 7474 4b3d
00000220: d02f b2bc 7921 5b3e b436 8e3e ffa6 953e
00000230: 89c8 273d d587 413e 9eeb e9bb cc2c eebd
00000240: f547 21be 18ca 143c fb36 9f3a e19d 143d
00000250: 6ea9 083e ac30 633b 99b6 cebd 0721 483e
00000260: d30c 083b 05a7 e3bd 0647 ca3d bc42 85bc
00000270: acf6 5f3e a13c d1bc 0ba2 b23d 6bbf e33d
00000280: dbbd 7b3d 157e 07be 7078 7c3d d9ab d03d
00000290: 5e05 5cbd 5451 893d 927b 963d 11b6 18bd
000002a0: 9870 03be 48b9 d0bd 4c35 8c3d 0902 05be
000002b0: e676 ac3d 7d73 893d 38b5 ad3c 8130 08be
000002c0: 8bf1 d7bd 24cc 093d 7978 26be 3eb6 013e
000002d0: 89cb 073e 210b cd3b 4a6c 02be 01b3 03bd
000002e0: 04d1 c23d a673 fbbd a969 36be 4d02 643c
000002f0: ff8e 3c3d 1f2f 64be 4a96 5abd dc4d 3a3e
00000300: 5d54 273e ed2f 133c 0491 e63d ea09 bf3c
00000310: 0269 8ebe a807 dd3d 64a0 0abe 7f88 34bc
00000320: 4dcb c83d 8ba9 7dbc c293 8fbe b12f 173e
00000330: 4ed0 6fbe a102 34be 1304 d53d afa7 193c
00000340: 3a5c 11be 08e0 89bd 2e8c ef3c a8c8 d0be
00000350: 6320 d8be 1e0e f4bd b564 b2bc 9588 babd
00000360: 9338 21be e91e 4e3d 9c47 60be 7ed6 8cbe
00000370: da39 e9bd bbb4 223d 68d2 0f3e 2f6e 37be
00000380: 842a 5d3c 0218 b9bc 778d eb3b 1401 a2bd
00000390: cba1 b03d b769 1ebd 51d7 a43d 2996 a8bd
000003a0: c4c0 863d b946 273e 16ae 2ebe b658 4e3e
000003b0: 61ea 02bd b182 103e 75a3 8f3c 1911 0fbd
000003c0: 5309 fc3d 7307 21be 5e35 723e 41be 14be
000003d0: 3ed0 bb3b 6b09 52be adfa e33c fa62 fbbc
000003e0: 0fb1 b13d e3c8 833d 2c43 1a3b 0e76 13bb
000003f0: 063c abbc b82f 263d 5655 e53d 9dd0 a53d
0.0076413904 0.004322951 0.05534703 -0.062369186 0.15018688 0.06961459 0.092298426 -0.042793248
-0.048946124 0.015407417 0.0086596375 0.0075715436 0.07586594 -0.013693795 0.11345678 0.077502646
0.071789026 0.13231988 0.19342065 0.20260625 0.119657494 -0.20123409 -0.0038586045 0.11544678
0.275386 -0.067528784 0.11975393 0.06398836 0.14827205 0.020741994 0.01125011 0.18275565
-0.033705723 0.001748721 -0.110238865 0.08612741 -0.08518624 0.021738084 -0.14204167 -0.06695395
0.10162133 -0.08058147 0.32213536 -0.117917605 0.13488865 -0.07878552 -0.19521981 -0.1438237
-0.09336552 -0.017911814 -0.083221726 0.02349886 0.02588556 -0.035227455 0.18993731 0.007964303
0.055399347 0.1503269 0.05791743 0.008647791 0.28199875 -0.025487648 -0.089613765 -0.22141285
0.04871296 -0.13409488 -0.036446355 0.067144744 0.12092406 0.030733293 0.06351893 0.049487412
-0.014871101 0.029968722 0.2840624 0.046262093 0.18213658 -0.09489566 -0.03891686 -0.22334355
0.2096925 0.032362852 -0.019287707 0.04627645 0.00666331 0.047986064 -0.05796031 0.08612583
-0.128536 -0.10624497 0.18648608 -0.056979265 -0.15706673 0.080173574 -0.0657295 0.062409606
0.025586743 0.12530996 -0.07527595 -0.061818883 -0.15621288 -0.0650608 -0.19178295 0.07283039
0.05706468 -0.0036857564 0.032603938 0.07806668 -0.14936428 0.19015835 -0.07957852 0.022200115
-0.01280245 -0.18218398 -0.03813914 -0.061457474 -0.009346179 -0.16541737 0.08792598 -0.15571666
-0.069576524 0.12320899 -0.0570101 -0.042338874 0.12142073 -0.11963645 -0.17168547 -0.15436661
-0.06591262 -0.015869185 -0.07270183 -0.10602422 0.09930715 -0.08470909 0.01937123 0.049671605
-0.021751314 0.21399488 0.2777611 0.2922897 0.04096273 0.18899472 -0.0071386835 -0.11629638
-0.15750106 0.009081386 0.0012147123 0.036283378 0.13345882 0.0034666462 -0.100934215 0.19543849
0.0020759597 -0.11115841 0.09876828 -0.016267173 0.21871442 -0.025541605 0.087223135 0.111204945
0.061460357 -0.1323169 0.061638296 0.10189027 -0.053716056 0.06704965 0.07347788 -0.037283007
-0.1283592 -0.101915896 0.06846103 -0.12989058 0.084211156 0.06711481 0.021204576 -0.13299753
-0.105441175 0.03364195 -0.16256894 0.12667176 0.13261236 0.00625743 -0.12736621 -0.032153133
0.09512523 -0.122779176 -0.17813744 0.013916564 0.04603481 -0.222836 -0.053365983 0.18193763
0.16340776 0.008983594 0.11258128 0.023320157 -0.2781449 0.10792476 -0.13537747 -0.011018871
0.098044015 -0.015482317 -0.28042418 0.14764287 -0.23419306 -0.17579128 0.10401168 0.009378358
-0.14195338 -0.06732184 0.029241648 -0.4077809 -0.4221221 -0.11916755 -0.021776536 -0.09108082
-0.15744238 0.050322447 -0.21902317 -0.27507395 -0.113879874 0.03972314 0.14045107 -0.17913125
0.013498906 -0.022594456 0.007188495 -0.07910362 0.086246096 -0.038675036 0.08048881 -0.08231766
0.06579736 0.16335572 -0.17058596 0.20151028 -0.031961802 0.14112355 0.017533997 -0.034928415
0.12306466 -0.15725498 0.2365317 -0.14525701 0.0057316115 -0.20511405 0.027829492 -0.030686844
0.08676349 0.064348005 0.0023538573 -0.0022500786 -0.020902645 0.040572852 0.11197917 0.080964305

layers.0.ufh.j_weight f4 [32, 32]
00000000: eade cb3c 1370 8dbd fa09 ef3c dabd 54bc
00000010: 8784 f93d 1a14 04bd 5096 63be 84f4 fcbb
00000020: d8a6 a03b 2ab5 dabc 4b8c 363e 0217 86bd
00000030: 2e4b d23d f851 463e 3245 8b3d 8f77 3dbe
00000040: b38f aa3d d7c4 e33d 1446 fbbd 15cd 383e
00000050: 72ea 083e 7e1c cd3c 7b9f 5ebc 97e5 183e
00000060: 862b a73d 2ddb 31be 4659 a73d ea9e 123e
00000070: 5591 bc3c deff a93d 8743 01be 1cf4 9c3e
00000080: b7a5 3cbc e0cc 0f3d 87f6 d73d c160 bcbb
00000090: 7823 183e fb98 6f3e 74a6 203e 8d5d e7bc
000000a0: f690 883a d43e 97bd e83e eebe fe2c 17bd
000000b0: 57ca 64be f91e 3fbd 31a9 6b3d 7897 c13d
000000c0: 8bd2 cbbd ff59 b9bd 3da6 b33c a8d9 5cbe
000000d0: 2b5b 95be bd07 efbc b45e bd3d dcfc aebd
000000e0: 8310 aa3d b82a d43c 4343 39be 25cf 92b9
000000f0: 3bdd c0bd 8eee 093d a567 463c ecec 1cbe
00000100: ca93 eabd 803b 443d 39ba 463b 3e6e ddbd
00000110: 8005 113e 3d04 dabd a248 41bd 5d10 79bd
00000120: 539e e93d 92e5 3f3e b888 da3e 81cf a83d
00000130: 4b77 5f3e 1e4e 163e a8b5 49be abce 06be
00000140: 3526 bebd 9345 9d3d 0cea de3c 2b17 8d3e
00000150: a7c2 c03e cc9f 333e fd3c dd3d 2035 553e
00000160: 2d06 d33d 8f4c d2bb 6699 b23e 2a84 da3c
00000170: b7a8 bc3e 2bc4 b8bb fff4 b83d 78e7 e43d
00000180: 6e39 14bd b2ea 27bd b651 abbd f25b cd3c
00000190: 3eec de3d d505 9bbd c457 debc 4bd2 c03d
000001a0: 96a2 28bd df8f a5bd 1bf8 043e 8b0d bebd
000001b0: f334 00bd d5c2 87bc 6ecb ae3d 422d bd3d
000001c0: 00ef c0bd 2e5e 393d eb20 2e3e f2e6 abbd
000001d0: e24b 0cbe d37b 6d3d a5de 573e 0363 e9bd
000001e0: f764 7c3d 8103 13be 09d4 85be b55c 13bd
000001f0: 8dff 9ebd 179a 223d 8d31 8c3d ced7 87be
00000200: 24b8 8c3d add7 5abc 2bcc 2c3e c032 ffbb
00000210: 1200 60bd cd66 973d 9756 dfbb c7b9 253e
00000220: d370 8e3d a6c6 203d 3204 0dbd 2f41 25be
00000230: 2dec a8be 96ad 42be e386 01be f29a c63d
00000240: 32f9 593d 99e8 04be 4581 9a3d 5338 99be
00000250: ff2e 5dbd faf7 c2bd 646e 9e3e 166a 31bd
00000260: 5704 b5bd 3dd4 ab3d 0d2b 89be 9b03 5dbc
00000270: 2433 f63d ecb4 9bbc f259 673d 0f69 c8be
00000280: 27bb d3bc 05b5 75bd 4d77 54bd 1695 323c
00000290: 2a41 a93d c702 87bc 833a 303e cf5a 1dbd
000002a0: 914a fb3d c8b6 bf3d 7b74 633e 1af3 303e
000002b0: 9959 d63d 46c0 ec3d 5a79 ed3c 94dc efbd
000002c0: c043 133d 97c2 ec3c 2be9 103e 37d2 d33d
000002d0: 5cb2 963e 5778 fa3d e16b 9dbc a268 8a3d
000002e0: b73a 123e 5cd3 963d 3159 d63d 2e0d ad3d
000002f0: 5743 9e3d 268b a13c 47a5 e4bd 4a4a fa3d
00000300: f5a4 d03d 45bc 873d fa2e 303e 02b1 193d
00000310: 1bbc 1cbc 2743 213e 7d81 f4bc 10ba 843d
00000320: defc fe3d 1269 a5bd fb46 b6be ce4d 133e
00000330: 29bd 6ebd cc23 7cbd 0934 0b3e 6e75 3f3e
00000340: fb11 643d a4e0 1dbe 7188 aabc e02e 5cbe
00000350: ce5c 87be c0cd 91bd 3348 22be f953 63bc
00000360: 4f6f 12be 15e8 cdbd 91c0 55be 70c3 2abe
00000370: 223d 34be 516b c7bd a914 4abe 7b72 c4bd
00000380: 8935 c0bb 7a8a 23bd b4da 4c3d cc51 68bd
00000390: 6012 2ebe aade 993d f136 83bd 1c31 803d
000003a0: ce03 52bc 4e69 81bd 4fb2 51bd e66e e23d
000003b0: e1b6 67be 652a 243e 3238 e03d adb0 a0bd
000003c0: 1a25 bfbc 3ad4 bcbd 23f6 3dbe ecd6 56bd
000003d0: fa5b 41be c86a 7fbd ed06 cabc 1c73 d5bc
000003e0: c8c9 6bbd ebf4 943d d024 233e 216b c3bd
000003f0: 3791 27be 348e f6bd 7e87 f9bd dcb2 913d
0.024886567 -0.06906142 0.029179562 -0.012984717 0.12183481 -0.032245733 -0.22225308 -0.007719578
0.004902702 -0.026697714 0.17826955 -0.06547357 0.10268246 0.19367206 0.06800307 -0.18502639
0.0832819 0.111215286 -0.12269226 0.18046983 0.13370684 0.025038 -0.013587828 0.14931332
0.08162598 -0.17368765 0.081713244 0.14318433 0.023018518 0.08300756 -0.12623416 0.3065499
-0.011514119 0.035107493 0.10545068 -0.0057488387 0.1485728 0.23398201 0.15688497 -0.02824285
0.0010419178 -0.073850304 -0.4653237 -0.036908142 -0.22342812 -0.046660397 0.0575344 0.094527185
-0.09952267 -0.090503685 0.021929855 -0.21567404 -0.29171118 -0.029178495 0.09246579 -0.08544323
0.083039306 0.025899276 -0.18092065 -0.00028001625 -0.09417196 0.03367477 0.012109672 -0.15324754
-0.1145397 0.047908306 0.00303234 -0.10812043 0.14162254 -0.1064534 -0.04718841 -0.06080662
0.11407151 0.18739918 0.42682433 0.08242703 0.2182285 0.14678237 -0.19698203 -0.13164775
-0.09284631 0.07679286 0.027211212 0.27556738 0.37648508 0.17541426 0.10802648 0.20821047
0.10303912 -0.006417818 0.3488266 0.026674349 0.3684747 -0.0056386194 0.09031104 0.11176962
-0.03618758 -0.040995307 -0.083651945 0.025068257 0.10884903 -0.07569472 -0.02714146 0.0941511
-0.04117068 -0.08084082 0.1298527 -0.09279927 -0.031300496 -0.016572395 0.08534895 0.09237148
-0.09420586 0.045255832 0.17004745 -0.08393659 -0.13700822 0.057979416 0.21081026 -0.11395838
0.061619725 -0.14356805 -0.26138332 -0.035977084 -0.07763586 0.039697733 0.068453886 -0.26531833
0.068710595 -0.013357085 0.16874759 -0.0077880323 -0.054687567 0.073926546 -0.0068157422 0.1618415
0.06955113 0.039251946 -0.03442783 -0.16138147 -0.32992688 -0.1901153 -0.12649111 0.09697522
0.053216167 -0.12979354 0.075441875 -0.29925784 -0.053999897 -0.09519954 0.30943596 -0.043314062
-0.088387184 0.083900906 -0.26790658 -0.013489629 0.12021473 -0.019007169 0.056482263 -0.39142653
-0.025846077 -0.059987087 -0.051871587 0.010899803 0.08264382 -0.016480817 0.1720982 -0.03841668
0.12270082 0.09361035 0.22212403 0.17280236 0.10466308 0.11560111 0.028988529 -0.11711994
0.035953283 0.028901381 0.14151447 0.1034283 0.29432952 0.12229984 -0.01921648 0.067582384
0.1428021 0.07364532 0.10466231 0.084497795 0.07727688 0.019719671 -0.11164337 0.12221201
0.10187713 0.066277064 0.1720542 0.037522323 -0.009566332 0.15748273 -0.029846901 0.06480801
0.12450574 -0.08076681 -0.3560103 0.14385149 -0.058285866 -0.061557576 0.13594069 0.1869714
0.05568121 -0.15417725 -0.020817013 -0.21502256 -0.26437992 -0.07119322 -0.15847854 -0.013875001
-0.14300273 -0.10054032 -0.2087424 -0.16676116 -0.17601445 -0.09737266 -0.19734444 -0.09592148
-0.005865757 -0.039926983 0.05001326 -0.056718633 -0.16999197 0.07513173 -0.064069636 0.06259367
-0.01281829 -0.063189134 -0.05119544 0.110563084 -0.22628357 0.16031797 0.109482184 -0.07846198
-0.023333121 -0.092201665 -0.18550925 -0.05245106 -0.18882743 -0.062357694 -0.024661506 -0.026055865
-0.05756548 0.07273277 0.15932012 -0.095419176 -0.16363989 -0.12038842 -0.12184046 0.07114193

layers.0.ufh.k_weight f4 [32, 32]
00000000: 04d2 90bd e6ff 243d f524 b8bd 0f9f 60bd
00000010: d96e 0e3d 3613 0f3d 1f7a 95bc 5594 e8bc
00000020: e444 d43d 8101 403d 6880 67be 7224 983d
00000030: d0f0 34bd ed23 3f3d 31a8 393d ef72 ed3d
00000040: d6ff e8bd 5c1c 38be 612d 613d 1a11 3ebe
00000050: d155 1dbe 23fa 1e3d e00a ed3c ea25 433c
00000060: b2a3 12be d120 363e cc10 cbbd 1086 68be
00000070: 9174 6cbe 0663 0a3e 5e11 46bd cf30 d53c
00000080: e2fb f0bb 3d63 0dbd 8070 133e 63a8 bcbc
00000090: c09b cd3d 5b81 74bd be99 c73d dfc9 9abd
000000a0: 71e6 3d3c fadf 703c 0136 8f3e f4a8 ff3b
000000b0: a777 9d3e 345d c83d a34a cebd 23c9 543d
000000c0: f48b a2bd 86e1 5d3e f7fb 043d 2cf6 aa3e
000000d0: 7505 9e3e 68ec 2f3e c06c 023e 7d4d cf3d
000000e0: 429b 603d 7fdf 853d e706 fa3d 01bd 5f3e
000000f0: 1899 be3d 3e3e 6bbc 638e 313e 7dac ce3e
00000100: d744 3ebd b072 1e3e dc40 b33d 0024 e33d
00000110: bf49 0c3d 5667 873c a1fc e1bc b289 aabd
00000120: decd 873c 958d 2e3e 67dd a8bc ac83 333d
00000130: 14f5 c03d 736e e5bc 845e babd f516 583d
00000140: 56f2 973d c295 74bc 92d1 403d 0a87 d03d
00000150: f570 333d f1d3 e8bc 76a3 70bd bcf3 9c3d
00000160: b572 d73d 7407 da3c 47a3 003e 8515 5e3d
00000170: 8bec a23d a91f 293e 512d cc3b 68bd 263e
00000180: bbb7 a9bc 0660 9bbd 0e89 9d3d db69 503c
00000190: 6a88 703b b068 3dbd 768d 20be bb63 d23d
000001a0: d114 03bd 9fbf 4b3e 631a 303d f591 7bbd
000001b0: 5b25 f43d c9d5 b3be 1824 07be 8c1b 903a
000001c0: dd6f cabd 61e7 323d eb7a 093d 7cce bbbd
000001d0: 46dd 893d 4bde 873e 40f1 653c 70f6 6b3a
000001e0: 098e ec3d cadc b2ba c7ef 843d 0432 633d
000001f0: 8cf0 9b3e 901f 42be 6a55 00bd ae1d d13a
00000200: 3a8e 50bd ceab 64bd 2f86 a6bc 97b5 e83d
00000210: 9413 343e ee20 2bbd ee94 1b3b 6d8d e63c
00000220: 4ba7 563d 4169 583d ca13 95be 6e01 003e
00000230: 24f5 603d c9d6 393c 7fc3 653b 77ec dc3c
00000240: bb1b 9dbc f580 153e 3a2f 0a3e b2c8 073e
00000250: 866b bebd 4f03 153e 1d69 81be 5101 a2bd
00000260: 41bd 08be 97e8 a7bd ced0 1b3e c315 223d
00000270: efc3 173e c7c0 8e3d f2f2 57bd 3efb 803e
00000280: 68b6 223e 6f2b 37be 8519 e8bc 5700 06bd
00000290: 5c0e 293e be80 e63d f1d3 b2bd 2898 38bc
000002a0: 6948 db3d 8535 e33d 7971 a23d 4cc5 b93c
000002b0: cad1 58be 5b53 de3d cbfc 1abd 57dc 48bc
000002c0: 1e45 06bd 70d8 9abd 4915 71bd a422 423d
000002d0: dcba 0e3e b64f 2cbe ddc4 aabd f6a2 1ebb
000002e0: 6844 0a3e 01f0 3e3d bd94 0b3e 558e 1e3e
000002f0: 8edc 423e 51b7 403e 7727 4cbd 9c17 893e
00000300: a7f4 093e 29b2 853d 2be1 4e3c 514e a5bc
00000310: ec4d 913c 00f5 5e3d cd0d 15bd 5960 77bc
00000320: c9ed 90bd 127e e73d 7103 813a c0de 30be
00000330: bad1 b53d aa2e 38bd 88f5 843b 45c5 783e
00000340: 7d25 8bbd f86c 8fbd e3ab b53c 4060 03bc
00000350: 95e3 45be 4da5 133d 9e2f 893d 367a 15be
00000360: 2076 cbbd 50e8 a43c 461a f2bd 196a 30be
00000370: 8447 623e 09c6 0d3e 1eb5 aebd 1d08 c1be
00000380: 122d 4fbd 0ccd c33d 51fb 4fbd ebc5 57bc
00000390: 4152 d93b b16b 163d 5efb 13bd f349 c13d
000003a0: df5e 953e 7b4d 2c3e 8f68 49ba 1464 c63b
000003b0: bcd9 96bc b9d8 5abe f34b a93d a858 9e3c
000003c0: 6d0a 8dbd 5032 f3bd 7984 8e3d ec2a 62be
000003d0: cae9 893d 1157 123e ec8c 89bd fbe6 79bd
000003e0: afcf 953b b36f 833b b81c 56bd ad89 1cbe
000003f0: 6245 a73e e4fa 81bd 6523 713d 2dd9 84be
-0.07071307 0.040283106 -0.08991424 -0.05483919 0.03477368 0.03493043 -0.018246708 -0.028391043
0.10364702 0.046876434 -0.22607577 0.074288264 -0.04417497 0.04666512 0.045326415 0.115941875
-0.11376922 -0.17979568 0.054974917 -0.18561211 -0.15364768 0.038812768 0.02893585 0.011910895
-0.14320257 0.17785956 -0.09915313 -0.22707391 -0.23091342 0.13514337 -0.048356406 0.02602425
-0.0073542455 -0.03451847 0.14398384 -0.023029512 0.100394726 -0.059693675 0.09746121 -0.07558035
0.011590586 0.014701838 0.2797089 0.007802123 0.3075535 0.09783402 -0.100728296 0.05194963
-0.0793685 0.21668062 0.032466855 0.3339094 0.30863538 0.17180026 0.12736797 0.101222016
0.054835565 0.06536769 0.12208348 0.21849443 0.09306544 -0.014358101 0.17339472 0.40365973
-0.04645237 0.15473437 0.08752605 0.11090851 0.034250017 0.016528767 -0.027586283 -0.083270445
0.016577657 0.17046197 -0.020613385 0.043826744 0.09421745 -0.028006768 -0.09100059 0.05275627
0.07419269 -0.014928283 0.04707486 0.10182007 0.043808896 -0.028421374 -0.05874964 0.07663676
0.105199255 0.026614882 0.12562285 0.05421974 0.07955273 0.16515984 0.006230988 0.1628319
-0.020717492 -0.075866744 0.07692157 0.01272055 0.0036702403 -0.046242416 -0.15678963 0.10272928
-0.032002274 0.19897316 0.042993914 -0.061418492 0.119211875 -0.35124043 -0.13197362 0.0010994538
-0.098846175 0.04367769 0.03356449 -0.09170243 0.06731658 0.26536784 0.014034569 0.00090012606
0.115505286 -0.0013646123 0.064910464 0.05546762 0.3045696 -0.18957353 -0.031331457 0.001595428
-0.050916888 -0.05582791 -0.020327656 0.113627605 0.17585593 -0.04177945 0.0023739892 0.028143609
0.052405637 0.052834753 -0.2911666 0.12500545 0.054921284 0.011342713 0.0035059152 0.026968224
-0.019178262 0.14599974 0.13494578 0.13260153 -0.09297852 0.14552043 -0.25275508 -0.07910407
-0.13353445 -0.0819866 0.15216371 0.039571535 0.14820836 0.06970363 -0.052721925 0.25191683
0.15889895 -0.17887662 -0.028332481 -0.032715168 0.16509384 0.112550244 -0.08731831 -0.011266746
0.107071705 0.110941924 0.079317994 0.022677086 -0.21173778 0.108557425 -0.03783874 -0.012259564
-0.03278076 -0.075608134 -0.05885819 0.047396317 0.13938469 -0.16827282 -0.0833833 -0.002420602
0.13502657 0.046615604 0.13630958 0.15483983 0.19029447 0.1881993 -0.049842324 0.26775825
0.13472234 0.06528122 0.012626926 -0.020178946 0.017737351 0.05443287 -0.036390115 -0.015098655
-0.07076604 0.11303343 0.0009842945 -0.17272472 0.08877893 -0.044966377 0.00405759 0.24294002
-0.0679426 -0.07003206 0.022176689 -0.008018553 -0.19325097 0.036046315 0.066985354 -0.14597401
-0.0993464 0.020130306 -0.118214175 -0.17227973 0.22097594 0.13845076 -0.08530639 -0.37701502
-0.05058009 0.09560594 -0.050776783 -0.013169746 0.00663212 0.036723796 -0.036128394 0.09437933
0.29173943 0.16826431 -0.0007683122 0.0060544107 -0.01841437 -0.21371736 0.08266439 0.019329384
-0.06886754 -0.11874831 0.06958861 -0.22086686 0.06734045 0.14291026 -0.06716332 -0.061011296
0.004571877 0.0040111183 -0.052273482 -0.15286894 0.32670122 -0.06346682 0.058871645 -0.25946942

layers.0.wix.r_weight f4 [1, 32]
00000000: fd69 85bf 43c7 46bf 1e16 50bf 5d5c 6fbf
00000010: af1a ecbe f22b 9ebf 90f6 f5be c82d 87bf
00000020: 47ee 4ebf 2a96 0fbf ef29 89be 56cb 4bbf
00000030: 469c 2ebf 9997 0ebf c134 67bf 10f6 f7be
00000040: 4fdb 8bbf 7164 323e d377 02bf 66ff ea3d
00000050: 74ca ccbc 2bce 5cbf 566c 0abe 85d5 edbe
00000060: 1955 10bf 9012 40bf 3f91 0cbf bc3e 8fbe
00000070: 5f74 473e d0df 39bf 2b7a 39bf 9af3 3dbb
-1.042297 -0.776478 -0.8128375 -0.9350031 -0.46114108 -1.2357161 -0.48039675 -1.0560846
-0.8083233 -0.5608851 -0.26789805 -0.7960714 -0.68207204 -0.5570007 -0.9031487 -0.48429918
-1.0926303 0.17421128 -0.5096409 0.11474495 -0.02499888 -0.8625209 -0.1351789 -0.46451965
-0.5637985 -0.75028324 -0.5490913 -0.2797755 0.19477986 -0.72607136 -0.7245204 -0.002898431

layers.0.wix.i_weight f4 [1, 32]
00000000: 7dca 31be 1a6f 37be ec5e 84be 89c4 bb3e
00000010: 5740 d23c 05dc e8bd d74b 8cbe 4bf9 03be
00000020: ba77 d9bd 29a0 da3c fd1b 8e3a 698a c7bd
00000030: 8e4b efbc 3113 eebe e6d3 29bd 907f b4bd
00000040: 4faa 4abd 504d 1abe d409 a3be f77c 213c
00000050: d823 32be d470 70bd c38f 20bd dccf 02be
00000060: d908 dcbe 4e62 08be c9a8 a9be e773 e9bd
00000070: 8a30 8cbe 402a febd 1c9a d93d 1e0b 7bbe
-0.173624 -0.17913476 -0.2585367 0.36673382 0.025665445 -0.113700904 -0.2740161 -0.12888066
-0.10618539 0.026687698 0.0010842081 -0.097431965 -0.029210832 -0.46499017 -0.041461848 -0.08813393
-0.049478825 -0.15068555 -0.31843436 0.009856454 -0.17396486 -0.05870135 -0.0391996 -0.12774605
-0.429755 -0.1331875 -0.33136585 -0.1139906 -0.27380782 -0.12410402 0.10625097 -0.2451596

layers.0.wix.j_weight f4 [1, 32]
00000000: 27c9 44bd 758e 14be 00ba b7be 5034 1cbf
00000010: 72a6 963d d2c1 d3bd 3f7e eebe 0bc4 25be
00000020: 87ef 1b3e 4c7f 7b3d 0623 863e b80d 513e
00000030: 7a36 1cbe 2e07 dd3e d588 cc3c 5e21 cbbd
00000040: cac0 033d 44b7 0ebe f259 c13e a8b3 853d
00000050: 0ddf febe eb1c 1a3e a970 ca3d e23a 63be
00000060: 7da4 2cbd 22d0 673e 35da c9be 2b7f 81bd
00000070: 9cd7 c2bd 1503 e0bd 932a d6bd cbed 4bbe
-0.048043396 -0.14507468 -0.35884094 -0.6101732 0.07355966 -0.10339703 -0.46580693 -0.16188066
0.15228091 0.061400697 0.26198596 0.2041539 -0.15255156 0.4316954 0.02496759 -0.09918474
0.03216628 -0.13937098 0.37763935 0.06528407 -0.4977955 0.15050094 0.098847695 -0.22190431
-0.042149056 0.2263799 -0.3942429 -0.063230835 -0.095137805 -0.10938088 -0.10457339 -0.1991493

layers.0.wix.k_weight f4 [1, 32]
00000000: 44b2 4f3e f963 243e 8043 103e bd00 123f
00000010: fc28 a1be 6fc3 b4be 6ee8 f83d 3280 fd3d
00000020: 5378 2b3f 1d09 d13d 2fbf 8dbe d118 5f3c
00000030: be7c d83e 5583 44be c283 3d3e 1494 5e3e
00000040: 4f96 813d d035 713d 488a e73d aa9d 403e
00000050: 874e 623f a7ab 113b 63da 573e bd81 c73e
00000060: 5a7c f5bc 85dc ee3b b8e5 aa3e 3298 ef3d
00000070: c775 b93e 412f 28be 1023 91bb b490 20bd
0.20282847 0.16053762 0.14088249 0.57032377 -0.3147658 -0.35305354 0.121537074 0.12377967
0.66980475 0.10206816 -0.27684924 0.013616757 0.4228267 -0.19190724 0.18507293 0.21736175
0.06327497 0.05888921 0.11305672 0.18810144 0.88401073 0.0022227557 0.21079402 0.3896617
-0.029966522 0.0072894716 0.33378386 0.11698951 0.3622267 -0.16424276 -0.0044292286 -0.0392005

layers.0.wix.bias f4 [128]
00000000: 5630 5fc0 9092 47c0 e388 5dc0 3be5 5cc0
00000010: a552 60c0 4495 5ac0 eaaf 5dc0 6146 61c0
00000020: a693 3ec0 9bee 64c0 a834 23bd 8b9b 3bc0
00000030: 6705 36c0 72db 4dc0 6fef 67c0 b479 47c0
00000040: 210a 58c0 93c9 8a3e db4f 67c0 dbc5 be3e
00000050: 2112 95bf c646 5fc0 41fc 00bc 382a 63c0
00000060: 5105 67c0 c9f0 5dc0 f237 48c0 5fa8 25be
00000070: 2e05 343e 00f9 65c0 ca65 47c0 2179 21bd
00000080: 3045 62c0 d531 51c0 2449 5bc0 6d4b 5dc0
00000090: 0cbb 56c0 347d 5cc0 e3d5 58c0 3445 64c0
000000a0: d187 4cc0 d7b0 5bc0 de64 6dbe 3568 3ec0
000000b0: 19ce 3fc0 9bba 47c0 c614 64c0 52d4 42c0
000000c0: 2639 5ac0 b7d4 f73e a960 5dc0 c713 923e
000000d0: 5414 a8bf 72b3 5ac0 dff1 cfba 4b8f 61c0
000000e0: 8c06 5dc0 90f6 55c0 d8b8 4cc0 ed95 b5bc
000000f0: 1152 723e 65a9 57c0 5bd7 47c0 ef65 9f3d
00000100: 852d 5dc0 82d2 52c0 e3fd 56c0 8b6c 56c0
00000110: 5d21 5bc0 70e1 5dc0 9fd2 57c0 bd36 61c0
00000120: e34d 28c0 5597 5ac0 1045 87be 0875 49c0
00000130: 8342 0dc0 173c 38c0 74bb 63c0 c6eb 3cc0
00000140: ffa7 5ac0 1827 b73e 8583 62c0 ba4e 973e
00000150: 4e76 55bf 5b6d 5ec0 f6d8 df3c c348 4dc0
00000160: 7e27 62c0 bb6c 60c0 8710 44c0 111a e6bd
00000170: 6fcd 8e3d 751f 5ac0 2714 57c0 2d28 fcbd
00000180: b49e 5ec0 653e 62c0 e281 53c0 f557 54c0
00000190: 145b 55c0 0646 5ec0 87be 50c0 c751 64c0
000001a0: 029a 36c0 0054 50c0 34b9 343e 578e 3ec0
000001b0: 816c 21c0 a057 3cc0 ac97 64c0 5082 48c0
000001c0: fe7c 59c0 dbe1 6d3e 18f3 59c0 f789 aa3e
000001d0: 8d26 91bf 3c9a 57c0 ab9f 19be 3f3c 57c0
000001e0: b0f1 5ac0 df6d 56c0 82a2 48c0 9a10 01be
000001f0: d597 903e 658a 54c0 3812 60c0 e08a c73d
-3.4873252 -3.1183205 -3.46148 -3.451491 -3.5050442 -3.4153605 -3.463862 -3.5199206
-2.9777617 -3.5770633 -0.03984514 -2.9313686 -2.8440797 -3.2165189 -3.6239889 -3.1168032
-3.3756182 0.27106914 -3.614249 0.37260327 -1.1646158 -3.4886947 -0.007872642 -3.5494518
-3.6096995 -3.4678214 -3.1284146 -0.1617751 0.17580101 -3.5933228 -3.1155877 -0.03942216
-3.5354729 -3.2686665 -3.4263391 -3.4577286 -3.3551664 -3.4451418 -3.3880546 -3.5667238
-3.1957896 -3.4326684 -0.23183009 -2.9751103 -2.9969542 -3.1207645 -3.563768 -3.044209
-3.409738 0.48404476 -3.4590247 0.28530714 -1.3131204 -3.4172025 -0.001586493 -3.524371
-3.4535246 -3.343174 -3.198782 -0.022166217 0.23664118 -3.369714 -3.1225193 0.07783114
-3.4559033 -3.2940984 -3.359246 -3.350375 -3.4239113 -3.4668846 -3.3722303 -3.518966
-2.6297538 -3.4154866 -0.26419878 -3.147768 -2.2071846 -2.8786676 -3.5583162 -2.9518905
-3.4165037 0.35772014 -3.5392773 0.2955225 -0.83383644 -3.4754245 0.027325135 -3.207566
-3.5336604 -3.5066364 -3.0635087 -0.112354405 0.06972777 -3.40817 -3.360605 -0.123123504
-3.4784365 -3.5350583 -3.3048024 -3.3178685 -3.333684 -3.473024 -3.2616289 -3.5674913
-2.85315 -3.255127 0.17648774 -2.9774377 -2.5222476 -2.9428482 -3.5717573 -3.1329536
-3.398254 0.23230688 -3.4054623 0.33308384 -1.133989 -3.3687887 -0.15002315 -3.3630521
-3.4210014 -3.350456 -3.1349187 -0.12603989 0.2824084 -3.320947 -3.501112 0.09743285

layers.0.uih.r_weight f4 [32, 32]
00000000: e118 18be 7e30 893e 5c61 4b3e 35fc ce3c
00000010: 4069 dbbd 4362 953d 4d1a 333e 8c0f 81bd
00000020: 1c26 a4bd 80bc ab3d cb13 9abe f058 98bd
00000030: 57de 25be e4cd 18be 497a 113e 761c 653d
00000040: a882 cabd 0f18 813d c924 b83d f8c0 113e
00000050: b397 053e 248c b93d 3652 31be 7412 6a3d
00000060: 6c5d 44be 2cca 12be 8e42 47be e086 023e
00000070: 6510 11be 750b fcbd 68bd 903d a764 35bd
00000080: 691b 54be 216d fcbc d8ea 78bb dbd1 8cbd
00000090: 560a 53be f679 84bd 7a3a 9a3d 1ee3 f93d
000000a0: d713 a53e f009 b83d ebcf ccbd 8be8 2e3e
000000b0: a078 8bbe 7168 13be 8976 353d 3015 ca3d
000000c0: d1c2 9dbe b9e4 3ebe 33f5 0e3e 58b7 a7bd
000000d0: bca1 be3d 110c afbd 6ee1 39be 90a0 72be
000000e0: 7467 e2bc 943c 02be fe53 1dbe 371e 0cbd
000000f0: 457a 193e 6351 a93d 75af d33c d990 fdbd
00000100: 8854 44be 8dfe ddbe 3e2e bc3d 3b42 0b3c
00000110: d2cb e63d bf4a 423e de28 4f3e d5e6 3d3e
00000120: 5b88 923d fcfb 12be 0f0a e23e f1a3 3ebd
00000130: 01d0 d53e 3ee3 333e 5b5a b63d a687 cabd
00000140: 00da c5bd 512e 543e 8b85 1dbd fcd2 293e
00000150: e4ce 983d eafb 543d 971e 313d 5eb0 d33e
00000160: 1329 86be 38da 24be 9bfb 8d3e 9997 a23e
00000170: ba2f 22be 50e0 e23d ad90 c73d a4c4 4a3d
00000180: 4fde 0e3e af73 2dbe 670b 9d3c da50 f13c
00000190: a1e2 d43d 181f d5bd 231e 30be 4abf 8a3d
000001a0: 8c32 b8be f4b1 ddbd d005 8f3e 6fcd 223e
000001b0: 3588 793d 3f3b d83d cf7b b6bc a2f0 a4be
000001c0: a595 aabb c894 753c 7564 f03e 3bee 983e
000001d0: 1b8d 2b3e 611c 2e3e 6040 c13e cc26 2f3d
000001e0: 0bc0 3dbe d29d 7abe 6a50 733e 4d1e f83e
000001f0: 4ac0 ba3d deed 85bc 9b64 b33d 24e4 2e3e
00000200: d20a 093e 33a8 29be 58af df3d 03ae 7c3e
00000210: ae0d ae3d bd55 0a3e 9f48 403e 0b14 84bd
00000220: 1742 81be a5e8 24bd 0937 c93e 4ed1 0a3e
00000230: a902 693e 4743 49be e3e3 85bd 1dbc 10be
00000240: 7d9e 273d 4b00 c53e 104f 203e 5c85 893e
00000250: 53b6 cdbd 2bb4 ebbc 81af 633e 7f4e 953e
00000260: aaa4 4b3d d726 a1bd 8b6c 183d 7a7a de3d
00000270: ffb9 853e 556a 453e 1528 5c3c df28 ee3e
00000280: 5d37 aebd a032 88be 1eb0 b4bd c098 89be
00000290: 778f 14be adf3 093e 6d74 84bc ca19 9a3d
000002a0: 2bfb 823e c9b0 40be 52e4 9a3d ef03 703e
000002b0: 4375 a53e 4aa1 89be 73fd 8d3d 8ad2 bfbd
000002c0: feb3 403e 8679 44be 7100 873e 8848 823d
000002d0: df89 d23d d4e4 31bd 8458 a5bd e793 253d
000002e0: aa7a 3ebd b2ef 5cbd 882b 9a3e aee8 33bd
000002f0: 65af ffbc 32df 10be b4ba 2939 42b6 c33d
00000300: a5af fe3d bd93 b73d 787e 10bd 28c9 cbbd
00000310: 4d1c 9c3c b907 69be 9843 2abe fe8b 7cbd
00000320: 3596 63be d893 42be 2d50 50bd 321a 16be
00000330: a713 11be ccff 6bbe 4a2a bcbc 2243 213e
00000340: a316 b7bd 3c33 17be 431d 03be 7006 453c
00000350: 549d 253d 1a62 4dbc 1cda 4abd 9efe 44be
00000360: 786c 9e3d 6b5f 443e b394 17bd 3c29 4d3e
00000370: cd22 643e 9f7c 0d3e aaea debd 3cbd 5ebe
00000380: 16e5 14bb 5615 73be fdcd 373e 4deb 2abd
00000390: f6ec 0bbd b0d0 0dbe cc30 0ebe ffb1 b63d
000003a0: 10ef 72be 3825 183e 90c6 ac3d c212 13bd
000003b0: c021 0abe 8747 023d 76ce 29be d290 a53c
000003c0: 242e 353d 1a8c cfbc bd05 083e 3dec 803d
000003d0: 3c8f 6abe 7a37 f83d 0196 3abd 8bc8 c6bd
000003e0: aba9 833e 64c9 0f3e 83de 85bd 557b 343e
000003f0: 6008 6ebe 48e5 983e 6e09 c3bd 190a 5b3d
-0.1485324 0.2679481 0.19861358 0.025266746 -0.10713434 0.072941326 0.17490502 -0.063017935
-0.08015081 0.08385563 -0.30093226 -0.074388385 -0.16198097 -0.14922291 0.14206804 0.055935346
-0.09888202 0.06303417 0.08991391 0.14233768 0.1304615 0.09059933 -0.17316517 0.057146505
-0.19176263 -0.14334935 -0.19458982 0.12746763 -0.1416641 -0.12306873 0.070673764 -0.044285443
-0.20713581 -0.030813755 -0.0037981775 -0.06875964 -0.20609412 -0.06468575 0.07530685 0.12201522
0.322417 0.089862704 -0.10000595 0.17080896 -0.27240467 -0.1439531 0.044302497 0.098673224
-0.30812696 -0.18641938 0.13960724 -0.08189267 0.09308192 -0.08547223 -0.18152401 -0.23694062
-0.02763722 -0.12718421 -0.15364072 -0.034208503 0.14988048 0.082674764 0.0258405 -0.12381143
-0.19172871 -0.4335827 0.091885075 0.008499677 0.112693444 0.18973826 0.20230433 0.18545087
0.07154914 -0.14353937 0.441483 -0.046543065 0.41760257 0.17567155 0.08903953 -0.09889154
-0.09660721 0.20720793 -0.038457435 0.1658439 0.07461336 0.051998056 0.043242063 0.41345495
-0.26203212 -0.16098869 0.27731022 0.31756285 -0.15838519 0.110779405 0.097443916 0.049503937
0.13951991 -0.16938661 0.019170476 0.029457498 0.103947885 -0.10406321 -0.17198996 0.06774767
-0.35976064 -0.108249575 0.27934122 0.15898679 0.060920913 0.10558175 -0.022275833 -0.32214838
-0.0052058273 0.0149890855 0.46951643 0.29869255 0.16753046 0.17003013 0.37744427 0.04276161
-0.1853029 -0.24474266 0.23761144 0.48460618 0.091187075 -0.016348775 0.08759423 0.17079216
0.13383034 -0.16568069 0.10922116 0.24675755 0.08498703 0.13509269 0.18777703 -0.064491354
-0.25245735 -0.04026093 0.392998 0.13556406 0.22754921 -0.1965457 -0.065376066 -0.1413426
0.04092263 0.38476786 0.1565516 0.26859558 -0.10044541 -0.028772434 0.22234918 0.2916145
0.049717583 -0.07868736 0.03721289 0.10863204 0.26118466 0.19278844 0.013437291 0.46515557
-0.085066535 -0.26601124 -0.08822654 -0.26874352 -0.14507852 0.13471861 -0.016168797 0.0752445
0.2558225 -0.18817438 0.0756308 0.23439 0.32316026 -0.26880866 0.06933107 -0.09366329
0.18818662 -0.19186983 0.26367524 0.063614905 0.10280203 -0.043431118 -0.08073524 0.040424254
-0.0465037 -0.05393953 0.30111337 -0.043923073 -0.031211564 -0.14147642 0.00016186648 0.09556247
0.12435845 0.08963726 -0.03527686 -0.09950477 0.019056464 -0.22756852 -0.16627347 -0.061656944
-0.22225268 -0.1900171 -0.05085771 -0.1465843 -0.14167653 -0.23046798 -0.022969384 0.15748265
-0.089398645 -0.14765638 -0.12804131 0.012025461 0.040433243 -0.012535596 -0.04952441 -0.19237754
0.077355325 0.19177024 -0.037007045 0.20035261 0.222789 0.1381707 -0.10884602 -0.21751875
-0.0022719554 -0.23738608 0.17949672 -0.041728307 -0.03416153 -0.13849139 -0.13885802 0.08920669
-0.23724008 0.14857948 0.0843631 -0.03590656 -0.13489437 0.031806495 -0.16582665 0.020210657
0.044233456 -0.02533536 0.13283439 0.06295059 -0.22906202 0.12119956 -0.04555321 -0.09706219
0.25715384 0.14041668 -0.06536581 0.17625172 -0.23245382 0.29862428 -0.09523283 0.053476427

layers.0.uih.i_weight f4 [32, 32]
00000000: 4d0a 213d 9b9c 90bc 4d49 163c c8f0 e4bd
00000010: f884 063e 9bea 2c3e f1cb 063e 59e3 2a3c
00000020: b8bc f8bd 4f36 40bd afc1 623e a6db 7abc
00000030: 522d 553d 1109 9a3d 56a7 253e 0a6f d23d
00000040: e3ee 493d d71f c13d 36eb b23d 029f c73d
00000050: f763 3d3e 7f4a 4fbd 88ce ff3d 9cd8 463e
00000060: 7b81 683d 9732 03be 51c5 233e d027 37bd
00000070: 1333 ad3d 656a 173e a194 953d dbd1 833d
00000080: 4eb9 98bd 5b8a 633e 083a f8bd 7b9d a13d
00000090: 2302 8f3c cc96 cfbc 7c20 45be 7125 9dbd
000000a0: da7e 113e 6621 b3bc 98c2 713e 6a42 dbbc
000000b0: 133c 343e f764 c0bc d1db bfbe 0071 06bc
000000c0: 4d84 b4bd 54b2 633d a473 07be 7413 033e
000000d0: 65b9 f73c 7f2b 7ebc 64d4 223e 586b 55be
000000e0: 8be7 d43d e5ec 023e 1fac 623d 4494 cf3e
000000f0: 582a 523e 9660 8cbd 0e1b bebd 7793 b43e
00000100: f9b9 4cbc 43fc 84bd 4aee 8abd a0fe c1bb
00000110: 4235 993e aeed dabd 3a76 7e3d c637 a13d
00000120: 9fc4 aa3d b2c8 ca3d f1db b43d b63c 41be
00000130: 4410 593e e5d7 e73d 5c8a 873d ed06 c6bd
00000140: 4c96 283d 7d17 7d3e 1607 3b3e bac8 9e3d
00000150: 02b2 023e 648f fd3d 381e 233e f7f4 983d
00000160: a72d 183e 554d 5ebc 61b2 633e 4e63 53be
00000170: 42ea ec3d cbbe 973d 88e5 02be 0b4a 403d
00000180: ac3d 87bb 0378 f63d 8733 6ebe e6ba dbbd
00000190: 3277 cdbd e43a 3bbd 5e1e 77bd 848a 1abd
000001a0: dc65 833d ad82 033e b5df c6be d89d 543d
000001b0: d2b8 90be 97cc 5c3e 9517 093c a692 a03c
000001c0: f4a0 ecbd 452d bcbe 0fa4 f6bd ae0d 2cbe
000001d0: 057c 87be 3650 20be 16a7 78bc e39c 1dbd
000001e0: 218b 4bbd c845 313c f113 0cbe c946 59be
000001f0: c38c 5dbd 69d9 d9bd 8742 ddbc 1b89 2cbe
00000200: 0696 aabd afe0 9ebd 2a6b 0a3e 7646 a73d
00000210: 0b81 1e3e 7b1e 353e 2b2d f03d 1279 81bd
00000220: 43ac 013d f7e1 4f3e fbb6 213e 82be 353e
00000230: 448b 1b3e 1473 913e 4323 6abd ae93 a1bd
00000240: 94d4 e9bd cb83 3d3b 2345 10bd 7bc6 963e
00000250: 825a 613e ca09 53be 7192 2e3e 7630 a03d
00000260: 5721 773d 47ff 443e 20ed 173e 3dd6 df3e
00000270: e144 6e3e 5762 bbbb 0fe3 3c3c 886e e53e
00000280: c70f 86bd c04e 33be 0415 a03d 0be0 d23d
00000290: 0c8a b03b 57f7 c3bc b48d e73d 44d3 50be
000002a0: e809 20be 6588 94bd a0db e33d 4f4d 20bd
000002b0: a7da cb3d 2f31 e7ba a2f2 b3bd 83d0 44be
000002c0: 774b 143b 45bb 5f3e 89f7 11bd ad9c 813e
000002d0: 9d32 9e3c f076 26bd 48f9 e03d d938 083e
000002e0: 768d 503d 55e2 e8bd af51 f6bd 0ecd 9d3d
000002f0: 0cc3 513e d87e a83c 91dc 23be d2e3 0e3e
00000300: ab3e 123e 774f c93d dfcc 25bd 989d 2ebe
00000310: 00ad 33be b517 2f3e dcd3 c4bc 39ee 1dbd
00000320: 0400 7c3e 6401 393d 4c74 05bf d94c 943d
00000330: 4912 81be ad7a 00be be0a 2f3e 2743 603b
00000340: 42c0 83bd c994 aebe 8cdf d5bc d815 a4be
00000350: 985d a8be aaeb b5bd 3566 9fbe 2089 79be
00000360: 8989 00be ffc4 023e 29b7 8dbe 3449 a4be
00000370: 0392 f4bd ab3c 4abd fdb4 c53d 3414 b6be
00000380: 475c d5bd b369 4c3e 6d8a 1dbd 7040 36be
00000390: 8602 fa3c 7073 a13d 8315 423d e38e 133d
000003a0: a0b3 a93d d8e7 2d3e cdad 8abe 8add 143e
000003b0: df6b b6bd 76d9 66bd a579 bc3c c594 95bd
000003c0: 57c4 9e3c d9bc 10be 0047 373d 9797 d3bc
000003d0: 17ef 373d b21f 6ebd 8e81 483d 6a4f 3abe
000003e0: 68fa a43d 7d89 54be ef03 0c3d d2cf dcbd
000003f0: f25b 43be c1b3 47bd 1256 ebbc 5f8a 4fbd
0.039316464 -0.0176528 0.00917275 -0.11178738 0.13136661 0.1688637 0.13163735 0.0104301805
-0.1214537 -0.046926793 0.22144197 -0.015311157 0.052045174 0.075212605 0.16177115 0.10275085
0.049300086 0.09429901 0.08736269 0.09747125 0.18495165 -0.050608154 0.124905646 0.19418567
0.056764107 -0.12812267 0.15993239 -0.044715703 0.08457007 0.1478668 0.07303739 0.06436511
-0.07457219 0.22220747 -0.121204436 0.07891365 0.017457074 -0.02534046 -0.19250673 -0.07673157
0.14208546 -0.021866512 0.23609388 -0.026765067 0.17601041 -0.023485644 -0.37472394 -0.008205652
-0.08814297 0.05558999 -0.13227707 0.1280039 0.03023977 -0.0155133 0.15901333 -0.2084173
0.10395726 0.1278568 0.05533993 0.40542805 0.20523965 -0.0685436 -0.09282504 0.35268757
-0.012495511 -0.064934276 -0.06783731 -0.0059202462 0.29923445 -0.10689865 0.06212447 0.07871966
0.08338284 0.09901561 0.08831013 -0.18870816 0.21197611 0.113204755 0.06618187 -0.0966929
0.04115896 0.24715991 0.18264422 0.07753129 0.12763217 0.12380865 0.15929496 0.07468598
0.14861165 -0.013568242 0.22236015 -0.2064335 0.11568119 0.07409438 -0.12782872 0.046945613
-0.004127225 0.12034609 -0.23261844 -0.107290074 -0.100325 -0.04571046 -0.060331695 -0.037729755
0.064159125 0.12842818 -0.3884255 0.051908344 -0.28266007 0.2156242 0.008367439 0.019601177
-0.11554137 -0.36753288 -0.120430104 -0.16802093 -0.26461807 -0.15655598 -0.015176555 -0.038479697
-0.04969323 0.01081986 -0.13679482 -0.21218409 -0.05408932 -0.10637171 -0.027009262 -0.16849177
-0.08329396 -0.07757699 0.13517442 0.08167736 0.15478913 0.17687409 0.11727365 -0.063219205
0.031658422 0.20301042 0.15792458 0.17748454 0.15189844 0.2840811 -0.057162534 -0.07889496
-0.11417499 0.0028917666 -0.035222184 0.29448304 0.22007182 -0.20609203 0.1704805 0.07821743
0.06033453 0.19238006 0.1483655 0.43718138 0.23268463 -0.00571851 0.011528744 0.4481089
-0.06545978 -0.1751051 0.078165084 0.10296639 0.00538755 -0.023921652 0.113063246 -0.20393091
-0.15628779 -0.07252578 0.111258745 -0.039136227 0.09953814 -0.0017638559 -0.08786513 -0.19220166
0.0022627988 0.21848781 -0.03563646 0.25314847 0.019311244 -0.04064077 0.109850466 0.13302936
0.050916158 -0.113712944 -0.12027299 0.07705127 0.2048456 0.020568296 -0.16002108 0.13954094
0.14281718 0.0982961 -0.040478583 -0.17052305 -0.17546463 0.17098887 -0.024026804 -0.038557265
0.24609381 0.04516734 -0.5213058 0.0724122 -0.25209263 -0.12546797 0.17093942 0.0034219713
-0.06433155 -0.3409789 -0.026107572 -0.32047915 -0.32883906 -0.0888284 -0.31132665 -0.24368715
-0.12552465 0.1277046 -0.27678803 -0.320871 -0.11941912 -0.049374264 0.096536614 -0.3556229
-0.10417991 0.19962196 -0.03846209 -0.17798018 0.030518781 0.07883346 0.047383796 0.03602494
0.08286214 0.16982973 -0.27085724 0.14537635 -0.089072935 -0.05635973 0.023007223 -0.07303766
0.019380732 -0.1413454 0.044745445 -0.02582912 0.04490575 -0.058135696 0.048951678 -0.18194357
0.08055574 -0.20755573 0.03418344 -0.10781826 -0.19078043 -0.04875541 -0.028727565 -0.05066907
