models/QLSTM_mse_epochs9.pth (torch, 168269 bytes, 76 tensors)

layers.0.wfx.r_weight f4 [1, 32]
000000 e2 61 1c bf eb 2e 82 be 33 17 11 bf de f0 bd be
       -0.6108686 -0.2542642 -0.56676024 -0.3709783
000010 ce 7f ca be d8 a9 21 bf 78 81 0b bf bf b3 04 bf
       -0.39550632 -0.63149786 -0.5449443 -0.5183677
000020 c6 11 4a bd e4 79 90 be 90 ce c1 be 0e dd 8d be
       -0.049333356 -0.28217995 -0.37852907 -0.27707714
000030 d1 34 04 bf ad c0 2b bf b0 59 92 be 65 a6 09 be
       -0.5164309 -0.67090875 -0.2858405 -0.1344238
000040 b8 d8 04 bf 20 31 a9 bd 24 9f 3a bf 91 12 37 3d
       -0.51893187 -0.08261323 -0.7289908 0.04469544
000050 ab 72 19 bf fd bc 2d be 4f 40 07 bf 4c f7 a7 be
       -0.59940594 -0.16966625 -0.528325 -0.3280586
000060 35 40 c4 be 0f 6e 1a bf 7f cf d4 be 29 0c 50 bf
       -0.38330236 -0.60324186 -0.41564557 -0.81268555
000070 4b d5 b5 be 74 60 ea be b9 fe c4 be ee 91 65 bf
       -0.35514292 -0.45776713 -0.38475588 -0.89675796

layers.0.wfx.i_weight f4 [1, 32]
000000 73 3c 0a 3f 00 e9 88 3e e7 83 9c bd 66 47 39 bc
       0.5399849 0.26740265 -0.07642346 -0.011308527
000010 34 54 ef 3d bf 80 00 3e ce a5 15 3e 88 88 2b bd
       0.11685982 0.12549113 0.1461403 -0.041878253
000020 5c 2a 64 3e 44 d3 c7 3d ea c4 cd bd 55 16 81 bc
       0.22281784 0.097570926 -0.10047324 -0.015757719
000030 c8 0e 47 bd fc b6 da 3c 69 2b 72 3d 9b 51 83 3e
       -0.04859808 0.026698582 0.05912343 0.25648198
000040 06 e7 fe bc 8d ce 23 3c ce fd 1d 3d 59 c6 c2 3d
       -0.03111602 0.009997976 0.038572125 0.09510488
000050 51 48 6b bd 27 b6 b2 3c fd 00 0b 3e 9f b3 6e 3d
       -0.057442013 0.021815373 0.13574596 0.05827677
000060 1e bc 40 be 4f 7f 1d 3d 97 39 20 3b 07 00 0f 3e
       -0.18821761 0.03845149 0.0024448389 0.13964854
000070 17 a7 02 3d a5 76 95 3e 09 45 ed 3d 17 9c 8d 3d
       0.03189763 0.2919208 0.11585433 0.069145374

layers.0.wfx.j_weight f4 [1, 32]
000000 fe 5c 00 be e9 c9 c2 3e 9f 38 6d 3d 83 41 8f bd
       -0.12535474 0.3804467 0.057915326 -0.06994917
000010 aa 7f c4 3c f3 88 ad 3d cc 5d c4 3b 02 46 2e bc
       0.023986656 0.084733866 0.005992627 -0.010636808
000020 86 53 9e 3e a0 21 5a 3e b7 e8 ad bd 9d 02 93 3d
       0.30923098 0.2130189 -0.084916525 0.07178233
000030 01 fd cb 3d 65 54 0a bd ca 8d 17 3d 42 27 a9 3d
       0.09960366 -0.03377189 0.037000455 0.08259441
000040 e6 04 89 bd a9 72 5d bc bb b8 34 bd a3 ae b7 3c
       -0.066903874 -0.013516107 -0.044121485 0.02242214
000050 e5 92 8f 3b 4b eb 8d bb 39 a8 67 3e 79 37 f9 bc
       0.004381525 -0.0043310276 0.22622766 -0.03042196
000060 4c 13 0e 3d f6 9b c9 bd 8d 78 96 3d de c7 33 3d
       0.03468637 -0.098442 0.07347212 0.04389178
000070 6a 34 8d 3d bb 8e 1a be 28 c3 85 bd 76 14 f2 bc
       0.06894763 -0.1509351 -0.06531364 -0.029550772

layers.0.wfx.k_weight f4 [1, 32]
000000 0a 4b f8 bd 7b a3 04 be cf 58 f1 3c 55 10 6b bd
       -0.121236876 -0.12952988 0.029461293 -0.057388622
000010 6c 99 3b 3d f3 79 e6 bd bb 6c 88 bd 45 4b d1 3d
       0.04580061 -0.11253729 -0.06661364 0.10219435
000020 a3 7c 70 3d df ef 10 3c a5 58 29 bd 62 c3 8f 3d
       0.058712613 0.008846252 -0.041344304 0.07019688
000030 11 ee 2a 3e 41 13 2f bc c7 82 e5 3d 0c 10 37 3d
       0.16692378 -0.010685743 0.112065844 0.044693038
000040 d9 34 20 3d 4e e1 9b bd 16 c3 25 bc 7e cb 57 bd
       0.0391129 -0.07611333 -0.010117313 -0.0526843
000050 a0 a8 42 bd 97 8e a0 bc ea 69 74 3e e7 ea c4 bc
       -0.047524095 -0.019599242 0.23868528 -0.024037791
000060 e7 78 b4 3e 3e 9c 98 bd 0f 6f 06 be 28 ee 26 3e
       0.3524849 -0.07451676 -0.13128303 0.16301787
000070 f0 2e 54 bd b7 26 37 be 80 f5 0b bd 82 bc e8 bd
       -0.051802576 -0.17885862 -0.034169674 -0.1136408

layers.0.wfx.bias f4 [128]
000000 d0 0f 0b bf 78 25 3f be 02 2c 46 bf d6 30 3f bf
       -0.54321 -0.18666637 -0.774109 -0.7468389
000010 c0 20 ac be 3c 60 70 bf 58 5a b6 be 49 f3 32 bf
       -0.33618736 -0.9389684 -0.35615802 -0.69902474
000020 e2 f0 98 bd 79 61 ae bd 66 ae e0 be 0f f5 22 be
       -0.0746782 -0.08514685 -0.43883055 -0.15913795
000030 f9 b3 10 bf 8b 36 97 bb 33 7f 17 bf 1e b0 62 bc
       -0.56524616 -0.0046146563 -0.59178466 -0.013835935
000040 2d d5 f5 be c2 d4 3d bf e9 c3 68 bf 57 29 03 be
       -0.48014203 -0.7415277 -0.90923935 -0.12808739
000050 54 66 40 bf 33 85 06 bf 0a 38 83 bf 3a 79 76 bf
       -0.7515614 -0.52546996 -1.0251477 -0.9627873
000060 51 6b b9 be 29 85 13 bf 19 16 50 bf 71 28 1e bf
       -0.36214688 -0.5762506 -0.8128372 -0.6178046
000070 a7 e6 5c bf f9 b9 7e bf c9 f7 56 bf a6 4e b2 be
       -0.8628945 -0.9950252 -0.8397184 -0.3482563
000080 ff dd 26 bf b3 f2 c1 be 8d af 3e bf d8 7d 66 bf
       -0.6518249 -0.37880477 -0.7448662 -0.9003577
000090 f1 18 13 be 77 fd 8c bf 78 3c 0a bf b6 87 29 bf
       -0.14364983 -1.1014851 -0.5399852 -0.66222703
0000a0 3b 91 39 3c 23 2a 24 be ef 51 f7 be ff 98 52 be
       0.01132613 -0.16031699 -0.48304698 -0.20566176
0000b0 d8 7c d8 be a6 12 e3 bd 49 92 2a bf 2f 0b 37 be
       -0.42282748 -0.11087541 -0.66629463 -0.1787536
0000c0 46 24 2b bf 2f c6 2c bf a0 63 64 bf a9 84 9d be
       -0.66852224 -0.67489904 -0.89214516 -0.30765274
0000d0 35 f8 77 bf c1 28 fc be 78 eb 04 bf 3a 72 80 bf
       -0.9686311 -0.49249843 -0.51921797 -1.0034859
0000e0 e5 0c 95 be a9 4d 20 bf b4 fe 56 bf 5d d4 5c bf
       -0.291114 -0.626185 -0.83982396 -0.8626154
0000f0 ae e8 69 bf 54 d4 53 bf 96 ee 39 bf 40 7b 31 bf
       -0.91370666 -0.8274586 -0.7262968 -0.6932869
000100 10 e9 d0 be bb f8 45 be 1a 48 5a bf 54 cf 41 bf
       -0.40802813 -0.19333164 -0.8526627 -0.7570698
000110 1a 1a 24 be 32 55 61 bf 61 23 44 bf 45 6c 4e bf
       -0.16025582 -0.8802062 -0.76616484 -0.80633956
000120 f2 d3 04 3e 11 ea 09 be 4a 7c 58 bf 6c 66 3c be
       0.12971476 -0.13468195 -0.8456465 -0.18398446
000130 86 81 ec be d8 6b 03 be cc 87 22 bf 9c bf 5d bd
       -0.4619257 -0.12834108 -0.6348846 -0.05413781
000140 ee 66 17 bf 2a 17 33 bf da 7e 55 bf ad 91 ee bd
       -0.59141433 -0.6995722 -0.83396685 -0.11648879
000150 03 94 11 bf 1b c3 ef be 99 73 36 bf ba b6 82 bf
       -0.5686647 -0.4682854 -0.7127014 -1.0212014
000160 2e c3 5e be 62 21 f3 be 71 91 58 bf 4b 1b 3c bf
       -0.21754143 -0.47486407 -0.84596926 -0.73479146
000170 4d c4 3b bf 0f b3 53 bf 3a 69 45 bf ff e0 12 bf
       -0.73346406 -0.82695097 -0.7711369 -0.57374567
000180 53 31 3c bf ff e4 9f be 2c eb 42 bf 4e 5c 3e bf
       -0.7351276 -0.31229398 -0.76140094 -0.74359596
000190 3d f9 74 be 55 d7 65 bf 12 c1 df be 33 57 61 bf
       -0.23923202 -0.89781696 -0.43701988 -0.8802368
0001a0 46 c9 08 be e0 71 db bd 37 24 df be 4b e0 fc bd
       -0.1335803 -0.10715079 -0.43582317 -0.12347468
0001b0 6a 67 25 bf ac f5 3b bd 31 1a 20 bf 4a f3 a4 bd
       -0.6461092 -0.045888588 -0.62539965 -0.08054216
0001c0 40 ce 07 bf 70 ff 48 bf d9 49 74 bf 86 f7 a4 bc
       -0.5304909 -0.78514767 -0.9542518 -0.02013756
0001d0 91 67 59 bf fa 3f 0d bf b0 79 3f bf 52 ff 84 bf
       -0.84923655 -0.55175745 -0.74795055 -1.0390418
0001e0 60 fe 01 3d d3 32 09 bf ef 32 4c bf 90 05 2d bf
       0.03173673 -0.53593177 -0.7976522 -0.6758661
0001f0 53 26 46 bf 8e 89 3d bf a5 09 28 bf ae 2b 31 bf
       -0.7740223 -0.74038017 -0.65639716 -0.69207275

layers.0.ufh.r_weight f4 [32, 32]
000000 1f 53 d8 bc f5 cf a6 be 63 bd 2e be 3d 8b 55 3e
       -0.026406823 -0.32580534 -0.17064433 0.20853896
000010 07 19 2a bf 55 0f 1a be 9c 7b ed 3d 28 32 a8 bc
       -0.6644444 -0.15044911 0.11595842 -0.020531729
000020 c7 e4 84 3c 3c 7e a6 be 12 83 db 3d 91 32 b2 3e
       0.01622237 -0.32518184 0.10718359 0.34804204
000030 bc 6a 88 3c 8b 6a ce be 8b ce 90 3d a8 5f 47 3e
       0.016652457 -0.4031566 0.07070645 0.19470084
000040 f8 77 86 bd 6a 3a c9 3d 85 af 92 bd 3b 43 65 be
       -0.06565851 0.09825595 -0.07162384 -0.22388928
000050 ed 8b 48 3e d5 a7 e0 bd 2e 22 56 3d c5 cb 1d bd
       0.19584627 -0.109695114 0.05227869 -0.038524408
000060 59 74 8b 3c 35 e2 48 be d8 d3 49 3e 39 57 05 bc
       0.017023252 -0.19617541 0.19709718 -0.008138471
000070 0d 3e fe 3d b3 f0 42 3d 88 8f 10 3d 7b ae 8e 3d
       0.12414179 0.04759283 0.035293132 0.06966873
000080 c1 ce 2a be 33 c7 32 3c fc b7 04 3e 2c ff ca 3d
       -0.16680433 0.010911751 0.1296081 0.099119514
000090 3d c9 11 3f 65 65 64 bd f2 30 52 bc af 31 01 be
       0.5694769 -0.05576076 -0.012829052 -0.12616609
0000a0 db b4 52 bc 96 73 54 3e 26 4b c8 3c de 4b 5b 3e
       -0.012860502 0.20747218 0.024449896 0.2141566
0000b0 7c da 60 3c bd ca b1 3e 14 ea b0 3d a8 d4 e9 3c
       0.013723966 0.3472499 0.08638397 0.028543785
0000c0 08 8a d0 bd c1 85 ab 3e 44 73 1c 3c 76 ad 85 3e
       -0.10182577 0.33500484 0.009548966 0.26108903
0000d0 27 bf 5f be 9b af ce 3d 22 4a e5 3d cb 57 eb bd
       -0.21850263 0.10092088 0.1119578 -0.114913546
0000e0 5f ff 3d be 86 fc e3 3e 52 21 0a be e2 07 9a 3e
       -0.18554448 0.44528598 -0.13489273 0.3008414
0000f0 c3 8e 79 3e 42 6a 91 3e 65 dd 47 3d 6b c9 fa 3d
       0.24370866 0.2840138 0.048795123 0.12245449
000100 74 8b 98 be fb 4a a6 3c ac 6c a2 3d f3 fd 1e be
       -0.29793894 0.020299425 0.07930884 -0.15526561
000110 65 cb 06 be 16 93 9c 3d bb db 77 be 1a 38 0c be
       -0.13163526 0.07645242 -0.24204914 -0.13693276
000120 ea f3 8b be ad 4f b7 3c d0 15 7c 3e a3 cf e4 bd
       -0.2733453 0.02237686 0.24617696 -0.11172416
000130 ba 0f 2b be 38 0f 66 3e e7 a4 50 bd 13 18 8e 3d
       -0.16705218 0.22466743 -0.050938513 0.069381855
000140 1f 50 fb bd 5d 44 b6 3d d3 30 35 3d 97 3b 51 3e
       -0.12271141 0.08899758 0.044236016 0.20432888
000150 87 27 cf bd 0d 6d 07 be 4b 88 a4 be 05 ca 54 be
       -0.10114961 -0.13225193 -0.32135233 -0.2078019
000160 81 98 ca 3d 42 67 a2 3e 94 3f 34 be 4c e0 ac bc
       0.09892369 0.31719404 -0.17602378 -0.021103047
000170 38 d8 3b 3c f5 cf 00 3c 77 f3 18 3e 18 90 08 3e
       0.011465125 0.007862081 0.14936624 0.13336217
000180 2d a7 dd 3b 07 48 98 bd fe 08 64 be 4f 9f 47 3e
       0.0067643137 -0.07435613 -0.22269055 0.19494365
000190 d7 96 04 be 5a c8 8f 3c 59 6f b8 3d 5d c8 0d bd
       -0.12948166 0.01755159 0.09005613 -0.03461491
0001a0 1a fc 02 be 7d cb 1f bd 2d 29 28 be bc fb 92 be
       -0.12791482 -0.03901242 -0.16421957 -0.28707683
0001b0 35 6f cd 3d 2a e7 32 3e 59 42 33 bd bc d6 d3 bd
       0.10030977 0.17470995 -0.043764446 -0.10343692
0001c0 74 17 bb 3d 0c 07 1e 3c fd 46 0e be 9e 07 b8 bc
       0.09135333 0.009645235 -0.13894267 -0.02246457
0001d0 de 45 fb 3b 2d fc 12 be d4 43 52 be 07 6f 81 be
       0.007668241 -0.1435401 -0.20533687 -0.2528002
0001e0 d8 bd 16 3e c4 c1 a6 3c 81 0e 85 3d 0f aa 05 3e
       0.14720857 0.020356067 0.06496907 0.13053153
0001f0 32 a6 33 3c 85 f6 16 be 5f 8d 0b bd 1f 20 8f 3e
       0.010964917 -0.14742477 -0.03407037 0.27954194
000200 c0 c0 98 bd d4 d3 db 3c ef 7c 2a 3e df 1f 59 3d
       -0.07458639 0.026834406 0.16649221 0.05300891
000210 2d f6 98 3d 81 f0 2d be 4e 69 a6 3d a6 be 05 be
       0.07468829 -0.16986276 0.08125554 -0.13061008
000220 66 45 b8 3d 3c fd fb 3c 13 4b 2f bc e6 23 11 3e
       0.08997612 0.0307604 -0.010699051 0.1417385
000230 be b4 af 3e 7f e5 3d 3e 28 83 c1 3d 5e f1 37 3e
       0.34317583 0.18544577 0.09448844 0.17963168
000240 ed 51 b7 3c 65 37 7c 3e 6b 21 e2 3d 8d b3 ee 3e
       0.022377932 0.24630506 0.1104153 0.4662136
000250 ce 81 94 bd 3e ef 7c 3e 20 a1 2b be 13 82 f0 3d
       -0.07251321 0.24700639 -0.16760683 0.1174356
000260 a3 07 4b 3d 64 f6 87 3e 7d 7e 3e 3e b8 6c 15 3e
       0.04956783 0.2655517 0.18602939 0.14592254
000270 7e 1c 01 bd ff 56 ed bc 27 01 4b 3e 25 dc 85 3d
       -0.031521313 -0.028972147 0.19824658 0.0653613
000280 32 dc 2b bd 1c 18 7b be f3 94 55 be 3c c1 6d 3e
       -0.04195804 -0.24520916 -0.20857601 0.23218244
000290 51 56 b1 3c 06 99 df 3d 4e 33 9a 3d 51 f7 20 3d
       0.021647604 0.10917859 0.07529317 0.03929836
0002a0 60 14 86 bd 0d a1 5e be c7 ad 51 be ba 2b 60 be
       -0.06546855 -0.21741123 -0.20476447 -0.2189168
0002b0 0c 54 21 be 08 af 31 3e a1 88 0d be 42 20 6b bd
       -0.15754718 0.17351925 -0.13821651 -0.05740381
0002c0 7b 68 1e be b0 21 be 3a 83 e9 16 3d c3 6f a9 bc
       -0.15469544 0.0014505889 0.036843788 -0.020683175
0002d0 74 cc 96 be 9a 59 0a 3e 7c 69 e3 bd 18 c9 86 3c
       -0.2945286 0.13510743 -0.11104104 0.01645331
0002e0 bf c4 06 3e 54 32 a5 bc 75 15 49 3e 36 52 34 bd
       0.1316099 -0.0201656 0.19637091 -0.044023715
0002f0 36 58 80 3e 0d 5f 43 3d 6e 4c 07 3e da 1a 6b 3d
       0.250673 0.04769807 0.1321275 0.057398655
000300 0a f2 eb 3d e8 07 98 3b 27 86 52 bc 0a d3 38 be
       0.11520775 0.0046396144 -0.012849367 -0.18049255
000310 60 f5 77 3e ab c7 4c 3c 86 af ed bd 3a f3 35 3e
       0.24214697 0.012498776 -0.11605744 0.17768565
000320 11 0a b6 3d 90 d4 23 bd eb 71 cd bd 80 ce 09 3e
       0.08888639 -0.039997637 -0.10031494 0.1345768
000330 bc b9 07 bd 59 2c 90 3d b2 20 a1 3d d1 f1 ff bd
       -0.033136114 0.07039709 0.07867564 -0.12497295
000340 36 8e cb bd 5f 84 68 3d dc dc f0 bd 2c d1 3a 3e
       -0.09939234 0.056766864 -0.117608756 0.18243855
000350 e3 4f 53 3e 78 51 0a 3d 2e 91 2a 3e 21 a6 13 be
       0.20635943 0.0337691 0.16656944 -0.14418842
000360 69 41 1d 3e b6 4b aa bd cf 62 ad bd ce ff 97 3e
       0.15356983 -0.08315222 -0.08466112 0.2968735
000370 fb a9 b6 3d 4a 91 d1 3d 86 a3 7b 3d e6 03 3b 3b
       0.0891914 0.1023279 0.061435245 0.002853626
000380 5e e5 d2 3c 59 4a e8 bd b2 9f 03 3d e5 7b a5 3d
       0.025744136 -0.11342306 0.03213472 0.08080272
000390 d1 3e 73 be 37 6e 43 3d 78 b9 5d 3e 5a a2 c5 bd
       -0.23754431 0.04771253 0.21652782 -0.09650107
0003a0 b6 f7 13 3e b8 13 b9 3d e5 4b 7f 3e 87 71 81 3e
       0.14449963 0.09036964 0.24931295 0.25281927
0003b0 4d b8 48 3e d4 ae 3e 3e c5 ac 85 3d c8 45 18 3e
       0.19601555 0.18621379 0.06527094 0.1487037
0003c0 0d 07 56 3c ce be 93 bd c3 c3 cf 3d a6 20 63 3d
       0.0130632045 -0.072141275 0.101447605 0.055451058
0003d0 01 96 8c 3e d4 60 85 3d 7a a1 82 3e 86 4f 53 be
       0.27458194 0.06512609 0.25513822 -0.20635805
0003e0 3b c0 2d be 2e c3 ec bc a4 0c 1e 3e bd 4f e9 bb
       -0.16967861 -0.028901663 0.1543451 -0.0071201012
0003f0 6b f5 bf bd 75 72 25 3d d4 f7 64 3d 7f 8c f4 bd
       -0.09372982 0.040392358 0.05590041 -0.1194086

layers.0.ufh.i_weight f4 [32, 32]
000000 b2 16 81 bc 87 24 41 3e 78 4b bd bd 7c 00 00 3d
       -0.015757892 0.1886159 -0.0924291 0.031250462
000010 3f 7d 9b 3e 85 4c 31 3d 3e 98 bb 3d 40 7c 45 3d
       0.30368993 0.043285865 0.09159897 0.048214197
000020 97 59 34 3e 0e 45 4b 3e 5c 14 b4 3d 00 a3 26 3e
       0.17612301 0.19850561 0.08792946 0.16273117
000030 a2 20 a8 be b8 49 ee 3d 8f f8 83 3d 0c da 55 bd
       -0.32837397 0.116351545 0.06443893 -0.0522099
000040 96 00 42 bd 6d 26 ab 3d 3f d0 c7 bb af bd 6b 3d
       -0.04736384 0.083569385 -0.006097823 0.057553943
000050 d2 a0 74 3d 03 4e 9d 3c d1 be 86 3d 86 57 dc bd
       0.059723683 0.019202238 0.06579364 -0.10758881
000060 c4 43 9b 3e a5 61 36 3e a7 14 c2 3c 7d 34 a1 bd
       0.3032514 0.17810686 0.023691488 -0.078713395
000070 33 d1 4b 3e 78 11 25 3d 81 cd 9a 3d f1 91 0a 3e
       0.19904022 0.040299863 0.07558728 0.13532235
000080 23 a9 15 be a1 23 64 bd 3f df fe 3c 50 5c dc 3c
       -0.14615302 -0.05569804 0.031112311 0.026899487
000090 14 9b 54 bc 72 5c 60 bd 20 15 40 3d 5d 58 6c bd
       -0.012976427 -0.054775663 0.046895146 -0.057701457
0000a0 97 2e 84 bd f1 61 43 3d c2 24 0f 3c bc 58 98 bc
       -0.06454199 0.047700826 0.008736791 -0.018597
0000b0 58 c8 da 3d d4 c1 2c 3d a1 c9 c9 3d f4 23 84 bd
       0.10682744 0.042177036 0.09852911 -0.0645217
0000c0 a9 7c 33 bd c8 56 54 bb f1 ce 04 3e 0c 43 4f be
       -0.043820057 -0.0032400358 0.12969567 -0.2024042
0000d0 90 e0 8c bc fc 55 3a bd fb 24 15 3e 10 aa 71 3c
       -0.017196923 -0.045492157 0.14564888 0.014750019
0000e0 b4 dd e0 bc 8c cb 1e 3e 17 e7 00 be 65 fb 2a be
       -0.027449466 0.15507334 -0.12588154 -0.16697462
0000f0 4a ff 3d 3e 46 e0 8a 3c 4a a7 25 3d 46 15 25 be
       0.18554416 0.016952645 0.040442742 -0.16121396
000100 63 bb 8e bc 87 df ce 3c 42 0c f9 3d e6 4d b8 bc
       -0.017423337 0.02525307 0.12160541 -0.022498082
000110 77 dc 9f bb 4f b3 55 bc c5 56 fc 3d 7d 5f 8f 3d
       -0.0048785764 -0.013043239 0.123212375 0.07000635
000120 89 3a 11 3d ce bf 14 3a 62 c0 4f 3c 7c 45 dc 3d
       0.035456214 0.0005674333 0.012680145 0.107554406
000130 67 1d 45 3e 8a 0d d1 bd e2 96 44 bd 96 06 0c 3d
       0.19249497 -0.102076605 -0.047995456 0.03418597
000140 51 1b aa 3c 5f 82 ef bd 73 4e a4 bb b1 cb 8d 3d
       0.020764979 -0.11694788 -0.0050142347 0.06923617
000150 e1 4e 07 3e a6 dd d6 3c 7e 1d 0a bc 23 b8 26 bd
       0.13213684 0.026228737 -0.008429883 -0.04070295
000160 fc ae 3b 3e 60 4d 38 bd 05 fb 22 3e b6 49 88 bd
       0.1832847 -0.044995666 0.15916069 -0.06654684
000170 18 06 94 3d de 32 35 bd 22 48 1a 3c cd 3a 96 bb
       0.07227725 -0.044237964 0.009416612 -0.0045846463
000180 c2 46 3f be 7b fa 21 be 4b 50 50 3d bf 2b 9f 3d
       -0.18679336 -0.15818207 0.050857823 0.07772016
000190 eb 7d 40 be 28 41 bd 3b 0b 05 f4 3d b3 71 f6 bd
       -0.18798034 0.0057755895 0.11915024 -0.12033405
0001a0 6d 4e 59 bd 85 c4 82 3c 2e 36 e9 bc b7 22 49 bd
       -0.05305331 0.015962848 -0.028468218 -0.049105372
0001b0 69 83 9a 3d 57 0e 06 be 61 41 2c 3e ce ec 72 3d
       0.07544596 -0.13091408 0.16821815 0.059307866
0001c0 d1 1f e7 bd 30 88 81 bc 9a c7 7b 3d 1b 52 59 bc
       -0.112853654 -0.01581201 0.06146965 -0.013264204
0001d0 17 de b7 bd de 10 aa 3c cf 71 19 3d cc e3 8a 3d
       -0.08977907 0.020759996 0.037462052 0.0678173
0001e0 4c 6b 90 bc c1 2a 38 3e f5 e8 19 bc fe 48 37 3c
       -0.017629288 0.1798506 -0.00939392 0.011186836
0001f0 63 ad b0 bd 21 aa ce 3d 0a d9 34 3e 26 4c 8a 3d
       -0.08626821 0.10091043 0.17660919 0.067528054
000200 86 1a 34 be 5f 56 97 be ff 06 e1 3d 99 12 a6 3d
       -0.17588243 -0.29558083 0.109876625 0.08109016
000210 a8 d1 26 bd 76 1c ac 3d c5 d2 12 3e aa 7a 2f 3e
       -0.040727288 0.08403866 0.14338215 0.17136636
000220 8c 93 4e be 1b ff 83 bc 78 60 fb bc 4e 68 a5 bd
       -0.20173472 -0.016112855 -0.030685648 -0.08076535
000230 a4 18 bb bc 32 f1 be 3d 68 ce 23 3e af d2 09 be
       -0.022838898 0.09323348 0.15996706 -0.13459276
000240 03 ed 42 bd 7e 16 0b 3d c4 95 32 39 f3 cb 36 be
       -0.047589313 0.033956997 0.00017031195 -0.17851238
000250 f8 bb 84 bd 5f 69 bc bc 5b 37 3e 3e d1 1e 4e bd
       -0.06481165 -0.022999464 0.18575804 -0.050322358
000260 31 29 dc 3d 4d 8a 5e 3d 45 c5 97 bd e8 70 57 be
       0.10750044 0.054331113 -0.07410673 -0.21039164
000270 3a b0 17 bd 4d 0a 5d bd ba da 94 3c 4b c1 e9 3c
       -0.037033297 -0.0539649 0.018170703 0.028534552
000280 50 67 1a be 87 31 a6 3c b8 6d 17 3d 42 9e 37 bd
       -0.15078473 0.020287288 0.03696987 -0.04482866
000290 41 16 8d 3d 4c eb c0 3c c0 8d 09 bc b3 5f d4 3d
       0.0688901 0.023549698 -0.008395612 0.10369816
0002a0 64 40 88 3d 12 62 04 3e 78 f0 5c bd c9 9b 6d be
       0.066529065 0.12928036 -0.053940266 -0.23203959
0002b0 2a 62 e6 3b 29 a0 9b bc 80 f0 07 3e 82 ae 51 bc
       0.007030745 -0.018997269 0.13275337 -0.012797954
0002c0 cd 15 6c bd db ca d0 bb f9 8b 0a be 5d a9 a5 bd
       -0.05763798 -0.0063718385 -0.13529958 -0.08088944
0002d0 ec ed 00 bc 3b 84 9d 3a 15 b0 a3 3c 0e fc 8e bd
       -0.007869225 0.0012017557 0.019981423 -0.06981669
0002e0 15 fd 9c 3d 97 81 c1 bc 8d bb 21 be c9 01 95 3d
       0.07665459 -0.023621364 -0.15794201 0.07275731
0002f0 fc df b1 bd b9 fb 23 be 99 3e ab bb de f5 14 be
       -0.086853 -0.16013993 -0.005225968 -0.14546916
000300 eb 84 91 bd 9b 89 26 3e 97 be d2 ba 55 b5 d1 bc
       -0.0710543 0.1626343 -0.0016078529 -0.025599161
000310 f6 19 ba 3d b7 20 ea bd 1a f0 8d 3d 36 60 17 3e
       0.09086983 -0.11432021 0.06930561 0.14782795
000320 1e 66 54 be 86 5f f5 3d 81 33 83 3a b7 35 2e 3e
       -0.2074208 0.1198111 0.0010009856 0.17012678
000330 a5 3f 2c 3d a4 70 bb 3d a2 1d 05 be 58 cb 19 3d
       0.042052884 0.09152344 -0.12999585 0.03754744
000340 e4 29 cc 3c 2c 2c 9b 3d 7f be be bb ef 29 04 3e
       0.024922319 0.075767845 -0.0058210487 0.12906621
000350 64 ba b1 bd b7 3a fb 3d c2 5a 24 be 13 99 14 bd
       -0.08678129 0.12267058 -0.16050246 -0.036278795
000360 54 0f 13 bb 07 2c 96 bd aa e6 c6 3d cc f6 54 3c
       -0.0022439556 -0.07332616 0.097119644 0.012998294
000370 b4 ce 02 3d 03 98 b2 3d 2f 06 45 be c1 6f 57 3d
       0.03193541 0.087204 -0.1924064 0.05259681
000380 78 e1 21 3d 4e f5 f0 bd 28 92 bc 3d 8b 4a 57 3c
       0.039521664 -0.11765538 0.092075646 0.013140331
000390 a6 4a e6 bd 0d 1d 11 bd 53 7a 10 3c d1 9f 71 bc
       -0.11244707 -0.035428096 0.008818227 -0.014747576
0003a0 f6 a8 89 bc d4 90 54 3d 04 5b d6 bd 1a 54 d7 bd
       -0.0168042 0.05189593 -0.104665786 -0.10514088
0003b0 73 ee ea bd 20 41 bc 3e fb bb b4 3d d8 5d 43 3d
       -0.11471262 0.36768436 0.08824917 0.04769692
0003c0 a9 8c 39 bd 99 b6 41 bd 13 43 a7 bd a0 bc c6 bc
       -0.04530016 -0.04729328 -0.0816709 -0.024259865
0003d0 3e 93 e6 bc de d4 2c 3e d1 5a 0e 3e d3 09 13 3d
       -0.028146382 0.16878077 0.13901831 0.03589804
0003e0 f3 4e a1 bd 7d b1 75 3e c0 62 92 3d be d9 03 3e
       -0.078763865 0.23993488 0.07147741 0.12876031
0003f0 34 5f 8b 3d 0e 07 83 3d 42 4d d0 3d ea b1 e3 3d
       0.06805268 0.0639783 0.10170986 0.11117919

layers.0.ufh.j_weight f4 [32, 32]
000000 7a ba 66 bd b9 66 52 3e 24 6b a3 3d 35 0a 9f bd
       -0.05633018 0.20546998 0.0797942 -0.07765619
000010 11 7c 85 3d b3 da 91 3c 7b 3a 17 bd 31 6d 03 3e
       0.065178044 0.01780448 -0.036921006 0.12834622
000020 5a c8 e5 bd 54 f7 98 3d 52 33 1f bd 6d 01 97 3e
       -0.11219855 0.07469049 -0.038867302 0.29493275
000030 9a 17 70 3d 0f f4 09 3e d1 05 9f 3e 93 4b 8f 3e
       0.05861626 0.13472007 0.31059125 0.27987346
000040 ba cb 50 bd 2b 43 4c 3d 64 87 6f bd 80 22 1c 3e
       -0.05097554 0.049868744 -0.058478728 0.15247536
000050 19 32 2d 3d 37 bc 29 3e 1b 2b 90 3e d2 b5 40 3e
       0.042284105 0.16575705 0.28157887 0.18819359
000060 8e 88 1d 3e 1b 4a a1 b8 1b 98 6e 3d c4 f2 95 3d
       0.15384123 -7.6908815e-05 0.058250528 0.073216945
000070 b9 f1 f6 3b e6 a3 11 be ea c3 2a bd 1f a7 f0 3d
       0.00753614 -0.14222679 -0.041690744 0.11750626
000080 c6 3f 63 3c db 90 7f be 7d 9a 9a bc 56 d8 05 3e
       0.013870185 -0.24957602 -0.018872494 0.13070807
000090 61 a6 77 bd 07 5a a3 3d 32 45 1b bc 2b bf fc bd
       -0.060461406 0.07976156 -0.009476947 -0.1234115
0000a0 71 3d fc 3c b8 7a da 3b 55 c9 d3 3c b8 29 1e 3d
       0.030791016 0.0066674612 0.025852839 0.038614005
0000b0 d8 24 62 bd 09 20 cd bd 52 f0 38 3d 7c f8 b3 bd
       -0.05521092 -0.10015876 0.045151062 -0.08787629
0000c0 83 7d e3 3d 9e 05 98 3d 96 f8 43 3d c7 e1 ad bd
       0.11107924 0.074229464 0.047844492 -0.08490329
0000d0 71 0a 1f bc fe e6 68 bd 18 c9 0d 3e 87 e1 9e bd
       -0.009707079 -0.056860916 0.13846242 -0.0775786
0000e0 25 e9 81 bc 7b 8c 32 3e 9e 73 1b be 48 a0 33 3d
       -0.015858242 0.17436402 -0.15180823 0.043854028
0000f0 64 88 d8 3d b5 53 c6 bd d0 eb 49 bd 98 20 dd 3d
       0.105728894 -0.096839346 -0.049297154 0.107972324
000100 23 9d ef bd 88 c0 85 be 1c 90 64 bd 34 d2 eb ba
       -0.11699893 -0.26123452 -0.055801496 -0.0017991723
000110 b1 30 62 be 0c 7f c0 bc 5f 49 3b be 0f e3 49 bd
       -0.22088887 -0.02349808 -0.18289708 -0.049288806
000120 18 f4 e7 bd 69 8a c6 ba 73 7b 03 be 90 b9 15 be
       -0.11325854 -0.0015147451 -0.12840061 -0.14621568
000130 2f 08 b7 3d 4a b9 aa be 67 47 4a bd c0 65 f9 3c
       0.08937108 -0.3334449 -0.0493845 0.030444026
000140 c7 54 b1 bd 48 28 2a be 79 15 4d 3d 12 93 e2 bd
       -0.08658748 -0.16616929 0.050069306 -0.11063208
000150 ab 68 09 be bb 84 1c be 68 67 70 bd 1a c2 51 3b
       -0.13418834 -0.15285008 -0.058692366 0.0032006563
000160 9f 05 99 3d 08 94 9a be 29 8a b8 bd dd de e9 bd
       0.07471775 -0.30191064 -0.09010727 -0.11419461
000170 77 97 b9 bd 49 c2 f1 bd 1f 0e 78 bd dd 70 99 be
       -0.09062093 -0.11804635 -0.060560342 -0.2996892
000180 eb e6 06 3c 0a 9c 1c be 67 b1 9b 39 96 0e 54 3d
       0.008233766 -0.15293899 0.0002969608 0.051771723
000190 bf 7c f1 bc 4f 4f a0 bd 0e ba 8e 3d 63 58 d6 bd
       -0.029478429 -0.07827627 0.06969081 -0.10466077
0001a0 24 cd 7c bd 58 37 5f 3d 3b 25 9d bd f3 3a 5b bc
       -0.061719075 0.05449614 -0.07673117 -0.013380754
0001b0 75 74 11 ba 03 06 91 be fb 01 50 be 76 0e a3 bd
       -0.00055486645 -0.283249 -0.20313255 -0.079617426
0001c0 82 56 79 3c e7 4f 22 3d 1e 07 01 bd c1 dc 52 3d
       0.015218379 0.039626982 -0.031500928 0.05148006
0001d0 17 99 41 3d 47 17 79 bd bd ff 2a bd a6 a4 1c bd
       0.04726514 -0.060813215 -0.041747797 -0.03824296
0001e0 e7 e2 57 be 89 e2 5d be bc fe 2c be 8d 74 3e bc
       -0.2108265 -0.21668448 -0.16894048 -0.011624468
0001f0 d9 11 4f 3d 99 be 5a 3c 1d b7 fd 3d 0c a2 45 be
       0.05055413 0.013351106 0.12388442 -0.19300097
000200 cc c0 35 3c 5d 61 84 be f5 4f 2e 3a 91 21 12 3c
       0.01109333 -0.25855532 0.0006649488 0.008919136
000210 18 24 5b bd 4e c3 97 bd a2 e4 b6 bd 62 cf 0d be
       -0.05350122 -0.07410298 -0.08930327 -0.13848642
000220 13 fb a7 bd a7 c8 13 3e a5 51 88 3d a8 40 76 3d
       -0.082021855 0.14432012 0.066561975 0.060120255
000230 f7 e7 d6 3c cb 80 1a 3e 52 b7 b8 bd 13 1b 31 bd
       0.026233656 0.15088193 -0.090193406 -0.04323871
000240 70 66 a6 3b 2a e5 86 3e d4 f8 1b bd 66 51 00 3d
       0.0050781295 0.26346713 -0.038079098 0.031327628
000250 7f 82 fc bc 98 45 11 bc b9 ee 2c 3e 23 4d b2 3c
       -0.030823944 -0.00886669 0.1688794 0.021765297
000260 16 e4 4e 3d 36 7b 3f 3e fa b2 78 3d e4 0d 2c 3e
       0.05051049 0.18699345 0.06071756 0.16802174
000270 30 a1 5c 3d 9b 81 b8 bc 35 f2 aa 3d 6b ce 5e 3e
       0.053864658 -0.022522738 0.083469786 0.2175843
000280 0b 05 54 3c 38 f1 a1 3d 7e 36 0c be 38 90 d0 3d
       0.012940655 0.07907337 -0.13692662 0.101837575
000290 0c f6 4e 3c 5c c2 71 bd 64 dd 29 bd e0 9b 2e 3e
       0.012631904 -0.059023246 -0.0414709 0.17051649
0002a0 df 32 f5 3d 36 a6 75 3d d2 9a 63 3d e4 e4 f5 bc
       0.119725935 0.059972964 0.05556757 -0.03001637
0002b0 1a 30 14 3e b7 3e 95 bd 05 82 ed bd 47 56 0b bd
       0.14471474 -0.072873525 -0.11597065 -0.034017827
0002c0 4f 92 96 3d 79 c8 0e 3d b5 f4 fc bd ef db 95 3c
       0.07352125 0.034859154 -0.12351362 0.01829335
0002d0 8d c5 8d 3d 29 cf 69 bc 5c 1a 1d 3d 30 b3 75 bd
       0.069224454 -0.014270582 0.038355216 -0.05998534
0002e0 b1 e0 60 3d 6c 13 5c bd c2 46 8e 3d 75 85 2c 3e
       0.054901782 -0.05372946 0.0694709 0.16847785
0002f0 ae e5 0b bd e0 e8 89 bd c0 dd ea 3d c1 dd fa bd
       -0.034154586 -0.067338705 0.11468077 -0.122493275
000300 2b d8 3c 3d a4 b4 f6 bd 18 56 87 bd ad c0 b5 bc
       0.04610459 -0.12046173 -0.06608218 -0.022186602
000310 e2 52 14 3e cc b3 d4 bc 39 01 50 bc 30 81 d2 3d
       0.14484742 -0.02596464 -0.012695604 0.10278547
000320 38 04 28 3e be b6 e0 3d db a9 c3 3c db 0e 26 bd
       0.1640786 0.10972355 0.023884704 -0.04054151
000330 9b 6a f7 bb 63 bd a5 bd b9 c8 ab 3d 04 94 15 be
       -0.00755055 -0.08092763 0.08387894 -0.14607245
000340 6a 84 d0 bd 1d fa 1b be 40 bf 71 3c 7e dc 52 be
       -0.10181506 -0.1523213 0.01475507 -0.20591924
000350 ac f0 ae 3c 09 54 88 3d 42 43 76 3e b7 05 21 3c
       0.021354996 0.066566534 0.24049094 0.009828023
000360 3d 44 82 3d 8a fc 53 bc 6e f0 b7 bd ef 60 5c bd
       0.06360672 -0.012938628 -0.08981405 -0.05380338
000370 2b 4c 6e 3d 5a b9 65 3c d4 4b ac 3d 01 14 85 bc
       0.05817811 0.014021242 0.084129006 -0.01624489
000380 3c 85 bd bd 12 61 cf 3d f4 f3 fe 3d b4 a2 5f 3d
       -0.09253928 0.101259366 0.12448874 0.054598525
000390 eb 4a c9 bd 5d 24 62 3c eb 73 c4 3d 62 9a 27 3d
       -0.098287426 0.013802615 0.09592422 0.040918715
0003a0 31 f7 fd 3d 34 e0 ae bd c8 64 15 be 28 92 4a be
       0.12400664 -0.08538857 -0.14589226 -0.19782317
0003b0 c5 2f 9e 3c 2f 61 58 3e e3 95 a3 3d 05 60 47 bd
       0.019309888 0.21130823 0.07987573 -0.048675556
0003c0 de 2a cb 3d 9b 60 86 3d 8f e7 6b 3d 31 29 c2 bd
       0.09920286 0.06561395 0.05759388 -0.09480513
0003d0 2e 0b ab bd f0 41 12 bc 06 b9 2c 3e 57 ae 3c 3c
       -0.08351742 -0.008926854 0.16867456 0.011516175
0003e0 dd a7 d1 3d 75 d6 6e 3e a2 bb bf bc f1 21 38 3d
       0.102370955 0.23323996 -0.0234049 0.044954244
0003f0 7d c3 90 3d 65 3c ae bd 9f f8 b7 bd 37 99 b1 3d
       0.070685364 -0.08507613 -0.089829676 0.086718015

layers.0.ufh.k_weight f4 [32, 32]
000000 8b 50 21 bd b3 97 84 bc 97 7f 0a bd 15 0c 2b be
       -0.039383452 -0.016185617 -0.033813085 -0.16703828
000010 2e c0 64 3d ea 52 10 3d 6f 2c 71 bc ad b0 08 be
       0.05584734 0.035235323 -0.014720066 -0.13348646
000020 a3 dc 37 be eb f7 60 bd 17 a8 39 3d d6 b5 c3 3c
       -0.1795526 -0.054923933 0.04532632 0.023890417
000030 4b 38 4e 3c f0 6a 5d be 8f 8c 97 3d 9f 85 04 3e
       0.0125866635 -0.21622825 0.07399856 0.12941597
000040 e5 57 ef 3c 2d f7 24 3e 6a ff c0 bd f3 a3 9c bd
       0.029216716 0.16109915 -0.09423716 -0.07648458
000050 9b e3 e6 bd c6 9f 04 3e 2e f5 32 3e d5 66 08 3e
       -0.11273881 0.12951574 0.17476341 0.13320477
000060 8a fa 3e bd b7 19 2f be d5 15 56 be db 3d e6 3c
       -0.04662565 -0.17099653 -0.20906766 0.028105667
000070 d4 45 51 3d a5 fa 00 bd 25 9a 9c 3d c9 49 10 3e
       0.051091984 -0.031489033 0.07646588 0.14090647
000080 b3 3b 6e 3d 20 17 14 3e f2 2f 9e bc be f2 ac 3c
       0.058162402 0.14461946 -0.019309971 0.021111842
000090 e9 ae 50 be 29 51 4f 3b 13 84 e6 bd ae b8 de 3c
       -0.20379223 0.0031634069 -0.1125566 0.027187672
0000a0 45 14 4e be 3f 6e 93 bd 1b bd 5d bd 68 50 e9 bd
       -0.2012492 -0.07198762 -0.054135423 -0.113922894
0000b0 95 43 b3 bc 9e 5b 09 3d e1 fc 59 3d 92 20 0e 3d
       -0.021882812 0.03353464 0.05321968 0.03469903
0000c0 51 66 fd bd da fd 41 be ff 65 19 3d 51 e1 3c be
       -0.12373031 -0.18944493 0.037450787 -0.18445326
0000d0 af 9b d5 bc 67 67 2a bd 00 b1 33 bc 21 88 61 3d
       -0.026075212 -0.04160252 -0.010967493 0.055061463
0000e0 32 1d e8 bd b3 75 0c bd 28 76 0e 3e dc 65 14 be
       -0.113336936 -0.034291934 0.1391226 -0.14491981
0000f0 0e e8 88 ba 90 64 d3 bd 6c d4 e6 bd 02 77 26 be
       -0.0010445134 -0.10321915 -0.11270985 -0.16256335
000100 9b 5e a1 bd 4a c2 81 be d0 1e 86 bd aa 76 3e 3d
       -0.07879373 -0.25343543 -0.06548846 0.046499886
000110 d2 3f 87 bd 4e ef d4 bd c6 b8 04 3e a5 80 59 3d
       -0.0660397 -0.10397206 0.1296111 0.0531012
000120 cf e4 1d 3d d8 0b 0d 3d 17 bb dd 3d 9b 9f 2a 3d
       0.038548287 0.034435123 0.108267 0.041656118
000130 3f 34 2b bd 06 63 35 be 56 b2 1f be bd b8 6d 3d
       -0.041797873 -0.17713556 -0.15595374 0.05803751
000140 9c 27 13 bb 08 3e 43 bd 7f fa 8c bd 97 36 b9 bd
       -0.002245403 -0.04766658 -0.06883716 -0.09043615
000150 20 7e 2f 3d e7 5a bd bd 8f 59 e1 bc f1 dd e4 bb
       0.04284489 -0.09245854 -0.027508525 -0.0069844653
000160 67 c8 c4 3d f3 03 f8 bd 35 22 79 3d 57 d6 4e 3d
       0.09608536 -0.12110128 0.060823638 0.05049738
000170 fd a3 a7 bd c3 11 c5 3c a0 8d 8d 3b 30 d5 59 be
       -0.08185575 0.024056321 0.0043198615 -0.21272731
000180 a1 f1 5f bd 7b 4d af bd a8 62 02 be 72 f6 a4 3d
       -0.054673795 -0.085597 -0.12732947 0.08054818
000190 85 47 8e 3e 72 ec 6b bc 89 2a 77 3e 43 ab f7 bc
       0.2778894 -0.014399635 0.2413732 -0.030233031
0001a0 71 d2 2f 3e 20 33 9f bd b6 2a 29 3d cf 17 8b bd
       0.17170121 -0.07773423 0.041300498 -0.067916505
0001b0 32 67 0c bd e9 c9 2e 3e 1b d1 a4 bc 19 fd 82 bd
       -0.034278102 0.1706921 -0.02011924 -0.06395931
0001c0 b4 9c c2 3d c9 44 2e 3e 21 66 54 3c 2f 89 ae 3d
       0.09502545 0.17018427 0.012963803 0.085222594
0001d0 3a 61 e5 bd 52 4d c9 3d df c6 3d bd 56 4e 55 3d
       -0.11200185 0.09829201 -0.046332236 0.05207666
0001e0 e8 3f e6 3c 00 b1 c1 3e 06 69 8c 3b 9e 96 6a bb
       0.028106645 0.37830353 0.0042849807 -0.0035795341
0001f0 59 4e 29 3d e5 65 8f 3d bb 5a 0e 3d e1 9e 14 3e
       0.041334484 0.07001857 0.034754496 0.14513732
000200 54 67 b8 bc 03 49 e7 bd 04 eb 94 bd 0f bb f2 3c
       -0.022510208 -0.11293223 -0.07271388 0.029630212
000210 5d c2 18 3e fa 9c ed bd 1b 08 65 3d 02 9f fb bd
       0.14917894 -0.116022065 0.055915933 -0.12286188
000220 96 7e a8 be f8 a9 1f 3d f4 4d b7 3d c5 6f 86 bd
       -0.32909077 0.038980454 0.08950415 -0.06564287
000230 86 bb 74 3d 00 8d 91 3d 69 07 13 3e e1 f9 97 3d
       0.05974915 0.07106972 0.14358296 0.074207075
000240 71 fe b2 bd 31 7a 0a be 45 e2 c2 3c 31 98 5c bd
       -0.08739937 -0.13523175 0.023789534 -0.05385608
000250 04 66 aa 3d 18 02 2c 3c a8 69 4c 3e 0d 20 ba 3d
       0.08320239 0.010498546 0.1996218 0.090881445
000260 b6 12 2e be 95 3d 12 3d 1a 9f 38 3e ac 9b 94 bd
       -0.16999325 0.03570326 0.18029442 -0.072562546
000270 c7 64 08 3e be f9 57 3c 8d a9 3d bc 4e ed 61 bd
       0.13319694 0.013182102 -0.011576069 -0.055157952
000280 df 1c 83 3e 54 b8 24 be c4 27 e9 bc f5 cd ea bc
       0.25607964 -0.1608594 -0.028461345 -0.028662661
000290 6f 8c 5a 3e fd b0 a5 bd 79 29 e5 3b 03 fe 0e 3d
       0.21342634 -0.080903985 0.0069934693 0.034910213
0002a0 69 57 8c bd 25 53 d2 3d 9e 85 59 bd f3 69 3e 3d
       -0.0685261 0.10269765 -0.053105943 0.04648776
0002b0 c4 86 09 3e 2a f4 1e 3e 77 ff 01 bd 75 53 b8 bd
       0.13430315 0.15522829 -0.03173777 -0.09000293
0002c0 f8 94 50 3c 98 7b 05 3e 5f 47 ff 3a 92 ba 55 3e
       0.012730829 0.13035429 0.0019476226 0.20871952
0002d0 24 69 af bc 7b 48 16 bd ca e7 9a bb 0b 29 68 3d
       -0.02141244 -0.036690217 -0.0047273384 0.056679767
0002e0 2a ff 7d 3d 5b ca 35 3e e2 98 d9 bb 9c e2 45 3d
       0.06201092 0.17752974 -0.0066405395 0.048311815
0002f0 4c a1 76 bd 68 39 0e bd 32 ff 48 be bf 33 fe 3d
       -0.06021242 -0.034722716 -0.196286 0.124122135
000300 7d f5 e5 bc a9 46 b0 3d 77 7d 2e be 1b eb 3b be
       -0.02807116 0.08607227 -0.17040049 -0.18351404
000310 4c 46 3f be 6a f1 98 bd 4c 2d af be 7d b4 fd bd
       -0.1867916 -0.07467921 -0.34214246 -0.12387941
000320 9f d9 44 3e c5 98 1f 3b 63 61 63 be 91 01 07 be
       0.19223641 0.0024352532 -0.22205119 -0.13184191
000330 06 8e 28 be 72 a4 6a be fb 7a 66 bc 20 5d b7 bd
       -0.16460428 -0.22914293 -0.014067407 -0.08953309
000340 6e f2 d1 bb c6 f9 f6 bd 82 fd 0e bd 67 e0 00 be
       -0.0064070737 -0.12059359 -0.034909733 -0.12585603
000350 ba 3e 0b 3e 63 f8 da bb 5d 4a 2d bd 82 58 5f bd
       0.13598147 -0.006682442 -0.042307246 -0.054527767
000360 a7 4c 9f bd 73 28 da be 30 e9 65 be 11 29 9e 3c
       -0.07778292 -0.42608985 -0.22452235 0.019306691
000370 b2 f5 bb bc df a6 98 3d 8b 9b eb bc df 38 99 be
       -0.022944305 0.07453703 -0.028760692 -0.29926202
000380 61 6b d7 3d b2 38 20 3c 39 73 09 3d f2 4e aa 3d
       0.10518528 0.009779142 0.03355715 0.08315839
000390 87 9d 67 3c 5f 5d 0d 3e 35 bd 87 bd 55 14 77 bd
       0.014136679 0.1380515 -0.06627885 -0.060322125
0003a0 81 1f ab 3d 76 2b 82 3c 40 15 04 be 05 20 19 3d
       0.08355618 0.015889864 -0.12898731 0.03738405
0003b0 4e de 90 3d 6f cb 54 3b a5 2c 27 3e 5e 7c bc 3c
       0.07073651 0.0032469889 0.16325624 0.023008522
0003c0 ed e3 b9 bd c6 1c 9c 3c a6 bb c1 3d c0 43 13 be
       -0.090766765 0.019056689 0.09459619 -0.14381313
0003d0 52 e5 35 3b 75 5a b1 3d a1 ca 50 3e 7f 1a f2 3c
       0.0027755094 0.086598314 0.20389797 0.02955365
0003e0 19 7e 21 3d 96 27 2f be d5 90 83 3d a8 31 d6 bd
       0.039426897 -0.17104945 0.06424109 -0.1045869
0003f0 69 24 64 3d 1a cb 02 3e be 51 10 bd bf b3 d8 bc
       0.055698786 0.1277279 -0.035234205 -0.026452897

layers.0.wix.r_weight f4 [1, 32]
000000 84 f1 24 bf 08 56 85 be 9a 0d 81 be 10 7d 28 bf
       -0.64431024 -0.260422 -0.2520569 -0.6581583
000010 74 67 3c be e9 54 2c bf 8a 9e 9a be 95 41 2c bf
       -0.18398839 -0.6731706 -0.3019908 -0.6728757
000020 19 d5 22 3e 8f 9d 03 3d 96 17 1e 3e 30 02 7a bd
       0.15901603 0.03213268 0.15438685 -0.061037242
000030 6f cc a1 bd 93 3b b5 be 6d bc 22 bf 77 2a ff 3d
       -0.07900321 -0.35397014 -0.63568765 0.124592714
000040 e8 81 14 3e e7 7f f8 be 68 4a 2c bf d1 89 70 3d
       0.1450268 -0.48535082 -0.67301035 0.058725182
000050 52 97 89 be 7e df 15 3e 68 9b 33 bf 30 b5 3d bf
       -0.2687326 0.14636037 -0.70159006 -0.74104595
000060 7f a6 f9 3e a7 b6 93 be a2 41 68 be 9b 24 30 bf
       0.4875984 -0.2885029 -0.22681287 -0.68805856
000070 89 af 0a bf bb d4 0d bf 9b 37 24 bf 88 b2 cf be
       -0.54174095 -0.55402726 -0.6414735 -0.40565896

layers.0.wix.i_weight f4 [1, 32]
000000 e1 3b 0c be e2 53 8f 3d 62 db f6 bc d3 c2 17 3d
       -0.13694717 0.06998421 -0.030133907 0.037051033
000010 cd 1d d4 bd 57 c9 ec 3d d5 05 16 be 00 89 8d 3e
       -0.103572465 0.1156184 -0.14650662 0.27643585
000020 b6 b9 89 3e fe 06 8d 3d 06 6e b8 3d d9 21 d4 3d
       0.268995 0.06886099 0.0900536 0.103580184
000030 f6 20 f7 3e 9c 4b 54 3d 5c fd 3b 3e 7a 43 a7 bd
       0.48267335 0.05182992 0.18358368 -0.08167167
000040 21 9e e8 3c 02 68 12 be 9b 2e 0e 3d a9 a9 06 be
       0.028395714 -0.14297488 0.034712415 -0.13150658
000050 e1 66 6d 3e 88 29 8a 3e 74 0a ad bd 23 e4 89 be
       0.23183776 0.2698481 -0.084492594 -0.26931867
000060 0b 0a 46 3e e3 5a 30 3e 57 3d 84 3e 3c da f7 be
       0.19339769 0.1722217 0.2582805 -0.48408687
000070 03 66 c8 3c 68 68 0a be 1b e3 8d be 2c a4 15 be
       0.024462705 -0.1351639 -0.2771233 -0.14613408

layers.0.wix.j_weight f4 [1, 32]
000000 c9 3a 01 3e 65 bb e5 3c e9 d8 59 bd 21 fb 3d 3e
       0.12620081 0.028043458 -0.053185377 0.1855283
000010 09 e7 5d be 1a 16 5b be fe ea 84 bd 8f 19 04 3e
       -0.21670164 -0.2139515 -0.06490134 0.12900375
000020 d6 07 c4 bd 5d db 1e 3c fe 9e 36 be 16 73 13 bd
       -0.09571807 0.009695855 -0.17834088 -0.035998426
000030 1e 18 68 3e 55 0a 1c bc b9 89 11 be b3 fe 92 3c
       0.2266545 -0.009523948 -0.14212693 0.017943716
000040 9a a6 66 3c f9 39 a8 bd 28 1e 2c 3e 6d cb 1b bd
       0.014077807 -0.082141824 0.16808379 -0.0380358
000050 35 88 4f bc 8f bb a5 3d 25 be 89 bd 96 b9 3d be
       -0.012666752 0.080924146 -0.0672572 -0.18527827
000060 7e 09 6f 3e cc bf 4f be 42 58 a4 bd 56 a6 d7 be
       0.23343465 -0.20288008 -0.08024646 -0.42119092
000070 4f be e6 bd c8 80 3f be e8 c7 f7 bd 55 bc 68 bb
       -0.11266767 -0.1870147 -0.12098676 -0.0035512645

layers.0.wix.k_weight f4 [1, 32]
000000 9b 6f 5d be 9a b0 3d be 8b 59 85 bd 23 5d ec 3c
       -0.21624605 -0.185244 -0.065112196 0.028853005
000010 ce ca 21 bd d0 ae e5 bb 68 b5 87 3d d5 27 94 3e
       -0.03950005 -0.0070093647 0.06626397 0.2893664
000020 d6 36 4f be d7 85 ba 3d 45 af 25 3e 88 78 31 3d
       -0.20235762 0.09107559 0.16180141 0.04332784
000030 ff f9 10 be 2f 00 1b bd 79 f1 98 bd e3 68 ab 3d
       -0.14157866 -0.037841972 -0.07467932 0.08369615
000040 9a d7 a3 3d 09 fa 27 be 6b 47 34 bc ad a0 97 3c
       0.08000107 -0.16403975 -0.0110033555 0.018509233
000050 60 9f a2 bd a8 a3 84 bd e3 75 14 be f0 a6 15 be
       -0.079405546 -0.064765275 -0.14498095 -0.14614463
000060 ca 58 8f be db cc b7 be 3e 8a 9e 3e 3c 66 b3 3c
       -0.27997428 -0.3589848 0.30964845 0.021899335
000070 ab e5 6e 3e 2c 18 f9 3c 16 09 46 3d 3b 03 40 bd
       0.23329799 0.030407034 0.04834851 -0.04687808

layers.0.wix.bias f4 [128]
000000 3d 05 47 bd 96 11 2b 3e ab 38 28 bf 71 d2 54 bf
       -0.04858898 0.16705927 -0.6571147 -0.8313361
000010 dc ba 31 3d db ac 87 bf a4 0c c9 be 99 68 6c bf
       0.043391094 -1.0599626 -0.39267457 -0.92347103
000020 0d f7 c9 3e 27 5b 9c 3e 4e 0b e7 be 51 c0 64 3e
       0.39446297 0.30538294 -0.45125812 0.22338988
000030 f8 7a 2a bf ec c0 45 3e 65 dd 4e bf 6c a2 35 3e
       -0.66593885 0.19311875 -0.8080657 0.1773774
000040 d5 bf 07 bf 45 2c 4b bf 65 2a 6b bf d6 b6 9a 3e
       -0.5302709 -0.79364425 -0.91861564 0.30217618
000050 f5 21 7d be a9 9c be bd 48 85 6a bf 54 e9 b7 bf
       -0.24719985 -0.09307224 -0.9160962 -1.4368081
000060 d6 92 b4 3b 95 84 43 be 70 b4 75 bf b5 36 3b 3d
       0.0055106683 -0.19093545 -0.9597845 0.04570647
000070 2e f9 1d bf 83 a6 5a bf c7 40 2e bf ab d9 86 bd
       -0.61708343 -0.85410327 -0.6806759 -0.065844856
000080 4c 9d ce be d4 2b 55 3e ad 3d 21 bf 58 4f 5e bf
       -0.40354383 0.208175 -0.62984735 -0.8683982
000090 01 7a 9e 3d d8 89 91 bf 26 d0 f2 be c5 9a 40 bf
       0.07738114 -1.1370192 -0.4742443 -0.7523616
0000a0 7a b6 a9 3e e4 59 45 3e 4b 7a ec be 20 98 06 3e
       0.3314703 0.19272572 -0.46187052 0.13143969
0000b0 23 f8 f2 be af 80 52 3e 12 76 2f bf 0a 6d 74 3e
       -0.47454938 0.20556901 -0.68539536 0.2386972
0000c0 8c 29 1e bf d8 63 3f bf 1e 0d 8f bf ff 94 82 3e
       -0.61782146 -0.74761724 -1.1175878 0.255043
0000d0 0c 55 84 bf 4e f7 68 be bf 9b 3f bf f8 d1 c0 bf
       -1.0338454 -0.22750589 -0.74847025 -1.5064077
0000e0 c0 be 32 be a6 2d 33 be 87 de 44 bf c0 50 f2 be
       -0.17455578 -0.17497882 -0.7690205 -0.47327232
0000f0 cb 80 63 bf 15 6a 29 bf 7a e6 07 bf ab 16 c8 bd
       -0.888684 -0.66177493 -0.53086054 -0.097699486
000100 25 30 79 be 0b 84 8c 3e da 7d 39 bf 47 21 39 bf
       -0.24334772 0.2744449 -0.7245766 -0.723164
000110 2e e0 a2 3d c2 4d 7a bf 00 1c 40 bf 95 f2 7e bf
       0.07952915 -0.977749 -0.75042725 -0.995889
000120 80 3a df 3e fd 85 6e 3e a0 94 63 bf 80 1b c8 3d
       0.4359932 0.232933 -0.8889866 0.0977087
000130 a1 ce 0a bf 1b d6 88 3e 17 b4 43 bf 89 e1 1e 3e
       -0.5422154 0.2672585 -0.7644667 0.15515722
000140 4e 22 e6 be eb 71 35 bf 44 dd 61 bf 62 34 86 3e
       -0.44948047 -0.7087695 -0.8822825 0.2621184
000150 41 99 de be 46 8c 43 bb fd be 6d bf c0 f2 b8 bf
       -0.43476298 -0.0029838248 -0.9286955 -1.4449081
000160 88 a7 12 be db 44 cb bd b3 12 53 bf 35 b1 65 be
       -0.1432172 -0.099252425 -0.8245041 -0.2243088
000170 9f dd 21 bf 21 66 33 bf 46 7f 28 bf 0d d4 72 bd
       -0.6322879 -0.7007771 -0.65819204 -0.05928426
000180 33 e0 9e be 51 38 04 3e 08 1c 2a bf 4a 87 4b bf
       -0.31030425 0.12912108 -0.6644902 -0.7950331
000190 87 8b 27 3d 9a a8 7c bf d2 37 d4 be 3d 77 87 bf
       0.040904548 -0.98694766 -0.41448838 -1.0583264
0001a0 08 1d ab 3e 76 bf 5a 3e 7f 61 c1 be ca 4d 79 3e
       0.33420587 0.21362099 -0.37769696 0.2434608
0001b0 06 e8 d3 be 48 e4 84 3e fb 31 39 bf 62 d9 1b 3e
       -0.41387957 0.25955415 -0.7234189 0.15219644
0001c0 65 aa ee be 57 f1 3b bf 7c 83 82 bf e4 73 87 3e
       -0.46614376 -0.7341513 -1.0196376 0.26455605
0001d0 25 f8 19 bf 9a d8 97 be 3e 14 3d bf 50 f2 c5 bf
       -0.60144264 -0.2965744 -0.7385901 -1.5464573
0001e0 df 5b 53 bd c5 aa 1d be 83 fa 50 bf 10 48 0c be
       -0.051601287 -0.15397175 -0.8163225 -0.13699365
0001f0 8e 9d 10 bf 85 4e 2c bf a5 5b fa be a7 22 db bd
       -0.5649041 -0.6730731 -0.48898044 -0.10699969

layers.0.uih.r_weight f4 [32, 32]
000000 0e f4 1e bd c2 a3 c3 be 37 d8 64 bd 3d 0c 9f 3e
       -0.038806967 -0.38210875 -0.05587026 0.31064025
000010 a5 2c 30 bf a9 bf 5c be f5 65 a5 3e 43 24 fd 3d
       -0.6881812 -0.21557488 0.3230435 0.12360432
000020 1d 5b df 3d 45 97 f7 bd 35 ed 50 3e ef 1c 92 3e
       0.1090605 -0.12089399 0.20402987 0.285377
000030 bc d7 92 bd 7f dd 6c be 2c 2f f5 3b 1f 2a 4a 3e
       -0.07170054 -0.23131369 0.00748243 0.1974263
000040 18 24 16 3d a3 05 4f 3d 24 17 4a 3c e9 96 d2 3d
       0.036655515 0.050542485 0.012334619 0.1028269
000050 32 e7 13 be bc 99 23 3e 7b b6 36 be 7b ef 14 be
       -0.14443663 0.15976614 -0.17843048 -0.1454448
000060 24 4f 19 3e 63 dc d8 3c 9c 69 af 3d 0e 72 f0 bd
       0.14971596 0.026472276 0.08565065 -0.11740504
000070 df 2b b1 3b b4 2d 25 3e ff 22 18 bd 1a d0 a9 ba
       0.005406841 0.16130716 -0.03714275 -0.0012955696
000080 3d 6e 86 3e fd 76 4d 3e 51 c8 52 be 32 26 9f be
       0.2625598 0.20064922 -0.20584227 -0.31083828
000090 1f 98 cb 3e c2 26 2f be 3d 80 00 be d7 c7 2f 3e
       0.39764497 -0.17104629 -0.12548919 0.17166077
0000a0 27 43 85 3d be c6 27 3d 4b fc d8 be 28 4e 01 bd
       0.06506949 0.04096102 -0.42379984 -0.031568676
0000b0 78 fd 44 be 41 f0 22 3f dd 8e 39 3d d5 8b 17 be
       -0.19237316 0.6364785 0.04530226 -0.14799435
0000c0 92 bd ca bc 64 5b e2 3c e8 fa 71 3d d2 59 6d 3c
       -0.024748597 0.02763147 0.059077173 0.014486747
0000d0 d0 56 8b be 95 41 94 3d 1a 6b 3c 3d 17 5f 59 3e
       -0.2721467 0.07239071 0.046000578 0.2122768
0000e0 8f 65 cf be 9f b5 b0 3e f1 a2 81 be f4 0b 0c 3f
       -0.4050717 0.34513566 -0.25319627 0.5470574
0000f0 dd ea aa 3c 50 fe 24 3d 49 ae 1d be f2 04 26 3e
       0.020863945 0.040281594 -0.15398516 0.16212824
000100 6f e2 8a 3e 05 99 9e 3d a1 26 72 3e 94 bd d0 3c
       0.2712588 0.0774403 0.23647548 0.025481023
000110 39 57 02 3e ee 7c f6 bc 13 00 12 be 52 ce 04 3e
       0.12728585 -0.030088868 -0.14257841 0.1296933
000120 a2 c1 01 be 23 56 c6 bd 57 bb 83 3e ea fc 0c 3e
       -0.12671521 -0.09684398 0.25728866 0.13768354
000130 3a 43 65 3e 0f 2d 32 3e 37 64 3c be 21 59 1c 3e
       0.22388926 0.17400001 -0.18397604 0.15268375
000140 a9 55 fc 3c 1c ea b4 3d 0b fe bf bd 61 3a 5e bc
       0.030802565 0.08833715 -0.09374627 -0.013563723
000150 74 61 13 3c 41 87 56 3d f7 ad bf 3d 93 14 b1 3d
       0.008995403 0.052375082 0.09359353 0.08646502
000160 34 e1 2e 3d 6c df 85 3e e2 5b 8d bd fc b3 43 bd
       0.04269524 0.2614702 -0.06902291 -0.04777907
000170 f7 7c 8c 3d 0d ee 71 be 37 ea 1a bb c8 99 01 3e
       0.06859773 -0.23625965 -0.0023638138 0.12656319
000180 ad f1 54 bc e1 79 c1 3c a6 88 db bd 53 12 fd 3d
       -0.012997073 0.023617687 -0.10719423 0.12357011
000190 66 4f 90 be 36 98 bb bc e2 2e af bd 3b ba 2b 3c
       -0.28185576 -0.022899728 -0.08553864 0.0104814125
0001a0 db d6 db be 1e 43 7e 3d c3 fe 48 bd 93 45 11 bf
       -0.4293736 0.062075727 -0.049071085 -0.56746787
0001b0 57 b2 2e be bf 65 95 be 88 c3 9a bd ad 8f 8d 3d
       -0.17060219 -0.2917919 -0.07556826 0.069121696
0001c0 00 eb 6d be df cb 50 3d b0 bb 75 bd 05 9b 8d bd
       -0.23234177 0.050975677 -0.059993446 -0.06914333
0001d0 d3 0e 88 be 98 2c 92 be a1 34 9b be 56 49 1a 3e
       -0.2657381 -0.28549647 -0.3031359 0.15067038
0001e0 50 e4 91 bd 29 a0 8d be 8e 83 86 3c 0a 78 2e 3e
       -0.07123625 -0.27661255 0.016420152 0.17037979
0001f0 fd 0a 2d bc fb 97 50 3e 32 e4 1c be 8f 53 b6 bc
       -0.010561702 0.20370476 -0.15321425 -0.02225664
000200 8e b3 06 3e fd c4 fa 3d 0a 9f 31 3e 6b 7c a0 be
       0.13154432 0.12244604 0.17345825 -0.31344923
000210 c5 e3 61 3e 3b f7 26 bd bc 08 e3 3d 04 92 d0 3c
       0.22059543 -0.04076312 0.1108565 0.02546025
000220 e4 69 c3 bd ef 55 39 bd f0 79 8c be 41 35 c1 3d
       -0.095416814 -0.04524797 -0.2743678 0.094339855
000230 fa 4a 83 3e ff 44 26 3f 90 02 3c be 71 fd 00 be
       0.2564314 0.6494903 -0.18360353 -0.1259668
000240 3d 50 6b 3d 36 06 4f 3e 9e 35 23 3e 87 3b 5f 3e
       0.057449568 0.20217213 0.15938422 0.21800052
000250 a3 68 c1 bd 18 00 28 bd 8d ae 5a bd ad bf 14 3d
       -0.09443786 -0.041015714 -0.05338912 0.03631561
000260 b1 90 fb 3d 3d fe e9 3e 8a ab e0 3c a6 97 b9 3d
       0.12283457 0.4570178 0.027425546 0.09062128
000270 ff f0 9b bc e7 a0 4a 3e 17 92 8d 3e c9 15 7f 3e
       -0.019035814 0.19787942 0.2765052 0.24910654
000280 39 10 f7 3c 98 23 de bd c0 a6 99 bd 72 f8 23 3e
       0.030159103 -0.10846633 -0.07502508 0.16012743
000290 4f 50 0e 3d 9f 64 52 bc af 9a b7 3d f4 92 89 be
       0.034744557 -0.012841373 0.089650504 -0.2686993
0002a0 c4 28 b5 bc 7d da 16 be ce 4d 03 bf 7d b8 c0 bd
       -0.022114165 -0.14731784 -0.51290596 -0.09410188
0002b0 cd 28 3a 3e 11 91 a3 3e 49 48 07 be b4 41 90 3d
       0.18179627 0.31946614 -0.13211168 0.07043782
0002c0 09 15 3b 3d b9 6f a4 3e cb 54 2e 3c 1d 02 16 3e
       0.045674358 0.32116488 0.010640333 0.14649244
0002d0 6c bd 77 be 44 03 65 bd 5f c2 da bd 6c 5a 77 bb
       -0.24193352 -0.055911317 -0.106816046 -0.0037743105
0002e0 97 de 4f 3d 7b d9 48 3e cc 25 e4 bc 65 b6 47 3e
       0.050749388 0.19614212 -0.027850054 0.19503172
0002f0 80 65 e6 3d c0 d8 36 be bb c7 28 3e 08 03 fa bd
       0.11249828 -0.17856121 0.16482441 -0.122076094
000300 13 7d 90 be db 9f 8b be 03 02 4b 3e 55 35 26 bd
       -0.28220424 -0.27270398 0.19824986 -0.040578205
000310 b6 69 1e 3e 5a d3 1d 3d 6e d7 99 3d 3e c5 99 bd
       0.15470013 0.03853164 0.07511793 -0.07508324
000320 28 8a da bc 53 3b 28 3d 3e 81 63 3e 3e fc 40 3e
       -0.026677206 0.0410722 0.2221727 0.18846223
000330 32 37 33 ba 87 c1 ca be 4e 3a 7f bd 22 44 69 3e
       -0.0006836533 -0.39600775 -0.062311463 0.22779897
000340 96 1b 89 3e 77 70 03 3c 2a 75 1f 3e d0 c9 7d bd
       0.2677886 0.008022419 0.15572038 -0.06196004
000350 20 e2 28 3d 8c e5 b9 3c 50 27 df 3d 93 25 c3 3d
       0.041231275 0.022692464 0.1089617 0.09528651
000360 20 ea 93 bc d5 81 4d 3d cc 2c 0a 3e d7 6b 80 be
       -0.018055975 0.050172646 0.13493651 -0.25082275
000370 dc e7 64 bd c7 7c 5b be f6 34 26 3e 1b 3b d4 bd
       -0.05588518 -0.21434318 0.1623114 -0.10362836
000380 e0 b0 ff 3d fa 24 2a bd 73 f7 b5 bd a8 4e 27 3e
       0.12484908 -0.04153917 -0.08885088 0.16338599
000390 f7 99 87 bd bd 7c d3 bb 36 34 0b be 94 01 1c be
       -0.06621163 -0.006454079 -0.13594136 -0.15234977
0003a0 12 3f 0b 3d 21 f7 69 3e ed 2d 02 3e 6d 2d c0 3e
       0.033995695 0.22848178 0.12712832 0.37534657
0003b0 1a d6 8d 3e 27 97 b5 3e e0 2b 2d 3d ac 82 03 3e
       0.2770241 0.35466883 0.04227817 0.12842816
0003c0 ca 36 18 3e 47 42 22 3e 38 bd 7d 3e e7 89 7b 3e
       0.1486465 0.15845595 0.24779212 0.24564324
0003d0 91 5b 16 bd 6c 04 f4 bd ea 36 57 3e 52 86 ee bd
       -0.03670842 -0.11914906 0.21017042 -0.11646713
0003e0 44 fc ba 3d de 12 5f 3e eb a4 7f bd a7 e4 06 3d
       0.09130147 0.21784541 -0.062413137 0.032932904
0003f0 8b fa a9 3d 02 14 29 3e 09 45 7b 3d d3 c1 6c 3e
       0.082997404 0.16511539 0.061345134 0.23120813
