models/QLSTM_qal_epochs17.pth (torch, 168347 bytes, 76 tensors)

layers.0.wfx.r_weight f4 [1, 32]
000000 d4 0f 49 bf 7d 72 aa bd 08 05 7c bf b1 b0 e0 be
       -0.78539777 -0.08322618 -0.9844518 -0.43884805
000010 e7 5d 0a bf 48 a8 33 bf 10 85 06 bf f0 ec 3d bf
       -0.54049534 -0.7017865 -0.5254679 -0.7418966
000020 c6 b6 4e bf 79 bc 2e bf e8 c2 c7 bd b4 74 87 3a
       -0.8074764 -0.68256336 -0.09753972 0.0010334463
000030 40 0f 1d bf 29 89 0a bf 00 54 1f bf 25 c3 60 bf
       -0.61351395 -0.5411554 -0.6223755 -0.87797767
000040 16 0a 24 bf 71 4c 92 be 3e ab 4b bf f4 4a b0 be
       -0.6407789 -0.28573945 -0.7955817 -0.34432185
000050 01 e8 3c bf de c8 60 bf e8 a0 4e bf 8d f8 32 bf
       -0.7379151 -0.878065 -0.80714273 -0.6991051
000060 47 3c 84 bf 91 3e 4f bf 31 12 0d bf c5 81 12 bf
       -1.0330895 -0.80954844 -0.5510588 -0.5722926
000070 99 23 54 bf c6 54 70 bf d3 69 34 bf 19 de 51 bf
       -0.8286682 -0.93879354 -0.70473975 -0.8197952

layers.0.wfx.i_weight f4 [1, 32]
000000 e4 7d c4 3d 5e 6f ab be 21 3c 4e bd 4b e2 05 be
       0.09594324 -0.33483404 -0.050350312 -0.13074605
000010 55 e9 c7 bd 2f 30 a9 bf 6c 5d 66 3e 35 03 f3 3e
       -0.097613014 -1.321783 0.22496575 0.47463384
000020 31 0e 27 bd 4f 16 8a 3d 66 85 cf 3d de fd 04 3e
       -0.04078502 0.06742536 0.101328656 0.12987468
000030 a1 d5 0b be d3 64 1c 3e 70 81 30 bd 85 e9 af 3d
       -0.13655712 0.15272836 -0.04309219 0.08589462
000040 dc bf f1 bc 69 c4 12 3c e8 1a 2f be 7d c7 5f bd
       -0.029510431 0.008957961 -0.17100108 -0.054633606
000050 32 42 22 3e c0 24 aa 3e 8c 47 87 3e 4f b4 41 3d
       0.15845564 0.33231163 0.26421773 0.047291096
000060 77 34 30 be f3 06 94 3e af c6 52 be a8 df 52 be
       -0.17207514 0.28911552 -0.20583604 -0.2059313
000070 af 1e a8 3e fb d4 c5 3e 44 a7 4b be 64 eb 0c be
       0.3283591 0.38639054 -0.19888026 -0.1376167

layers.0.wfx.j_weight f4 [1, 32]
000000 b8 f6 7e 3d 01 36 db 3c fe d6 25 3d 5f 65 34 3e
       0.062247008 0.02675915 0.040488236 0.17616795
000010 b3 36 eb 3b e8 cc 9c 3d 92 7c 90 3d d8 e8 5a 3e
       0.0071781515 0.0765627 0.0705501 0.21377885
000020 44 fd a7 bd 2f bd d6 bd 38 ee de bd d4 83 36 bd
       -0.082026035 -0.10485303 -0.1088528 -0.044559315
000030 45 c9 7e 3d 68 59 05 bd 52 c4 ab 3e 3e e0 11 bd
       0.062203664 -0.032555968 0.33548218 -0.035614245
000040 6a c9 5e 3d 79 f9 d2 3d 08 3b 3d 3d cb 77 4e 3e
       0.054391302 0.103014894 0.046198875 0.20162885
000050 25 bd 23 3e 9a 9a 9a 3c 3e a6 07 3c 2f 87 2e 3e
       0.15990122 0.018872548 0.008279381 0.17043756
000060 de ef 3f 3e 2b 7b b7 3e 42 76 0e be 9e c9 e7 bd
       0.18743846 0.35836157 -0.139123 -0.11317752
000070 59 41 c2 ba eb e3 33 3e 35 dd 00 3f fc 9a f6 3d
       -0.00148205 0.17567413 0.50337535 0.1204128

layers.0.wfx.k_weight f4 [1, 32]
000000 9f b6 58 3d 21 94 79 bd f2 56 80 3d 42 e9 9d 3c
       0.052908536 -0.060932282 0.062665835 0.019276265
000010 16 80 b1 3c 57 61 ef be 53 63 93 3d 31 b3 da 3d
       0.021667521 -0.46753952 0.07196679 0.10678709
000020 c8 59 27 3b 9f 01 24 bd d7 dc 1c 3d 12 68 0e 3e
       0.0025535692 -0.04004061 0.038296547 0.13906887
000030 e6 b7 78 3d 0a 81 ca 3d 4d b9 56 3e 2f 6a c5 3d
       0.060722254 0.098878935 0.20969124 0.096393935
000040 34 fe 6c bd 3c c2 96 bd 61 9f db bc 66 7e 6a 3e
       -0.057859614 -0.07361266 -0.026809396 0.2289978
000050 ee f9 50 3d 10 4a 21 3e b2 c4 60 3e 36 ad 3a bd
       0.0510196 0.15750909 0.21950033 -0.045575343
000060 cd 78 41 3e 03 35 b3 3d d2 f4 bb 3c 00 e8 af bd
       0.18893738 0.087503456 0.022943888 -0.08589172
000070 60 51 f7 3d 62 f2 04 be 07 87 be bd e6 e1 09 3d
       0.12076068 -0.12983087 -0.09303098 0.0336627

layers.0.wfx.bias f4 [128]
000000 74 ff e3 bf 10 4e 7c bd 2b e7 00 c0 fc ab 00 c0
       -1.7812333 -0.061597884 -2.0141094 -2.010497
000010 40 3f d2 bf 2c c4 85 3e fc 63 01 c0 31 6f 1f bf
       -1.6425552 0.2612623 -2.0217276 -0.6227904
000020 2f 81 00 c0 20 b7 05 c0 0c f0 b6 3e b9 4c 58 be
       -2.0078847 -2.089302 0.35730016 -0.21123017
000030 05 eb ee bf e2 b0 f6 bf d4 4e a7 bf a0 0e ed bf
       -1.8665472 -1.927273 -1.3070931 -1.8520088
000040 2b e9 90 be 71 22 a2 bd 3b 85 e4 bf 3a 1c bc bf
       -0.28302893 -0.079167254 -1.7853159 -1.4696114
000050 90 2e d7 bf 08 9f 1d be fd a6 9f bf df 9b e9 bf
       -1.6811085 -0.15392697 -1.2472836 -1.8250693
000060 80 07 8e bf 32 d6 b0 be a7 c4 ed be 57 e5 a1 bf
       -1.1096039 -0.34538418 -0.46439096 -1.2648114
000070 10 41 de bf 4a 8a ca bf c4 8e b9 bf de 31 f6 bf
       -1.7363605 -1.5823452 -1.4496694 -1.9233968
000080 af c6 04 c0 64 dc 34 bf dd 67 04 c0 ce f0 f0 bf
       -2.0746267 -0.7064879 -2.0688393 -1.8823488
000090 cf e5 00 c0 4d ac d3 be 09 d5 05 c0 f7 f2 1b bf
       -2.0140264 -0.41342393 -2.0911276 -0.6091761
0000a0 02 92 c6 bf d4 3c f8 bf 08 43 ab 3d 7e c5 15 3e
       -1.5513308 -1.9393563 0.083623946 0.14626119
0000b0 36 0e e0 bf 4c 08 06 c0 1b 2e 1c c0 44 d1 f0 bf
       -1.7504337 -2.0942564 -2.440314 -1.8813863
0000c0 be 3a ad be 94 66 9e be e1 8a d0 bf 50 db a9 bf
       -0.3383388 -0.30937636 -1.6292382 -1.3270054
0000d0 d2 c3 ca bf b5 2d 05 bf 79 bc 02 c0 eb 43 00 c0
       -1.584101 -0.5202287 -2.0427535 -2.0041454
0000e0 94 75 50 bf aa 28 18 bf 87 1f d6 be 35 b7 b6 bf
       -0.8142941 -0.5943705 -0.41820928 -1.427466
0000f0 51 34 e7 bf 4f 7e 98 bf 78 2f dc be 1b 1a 09 c0
       -1.8062841 -1.1913546 -0.43004966 -2.1422184
000100 01 61 d2 bf f1 5c dc be ea e0 e3 bf 88 de 09 c0
       -1.6435853 -0.4303966 -1.7803013 -2.1542072
000110 df ba f9 bf 6f a6 6c 3e 8a c3 f7 bf 35 2e 28 bf
       -1.9510154 0.23110364 -1.9356549 -0.65695506
000120 d2 8d f6 bf 66 00 fb bf 1a 56 70 3e 81 54 9d be
       -1.926203 -1.9609497 0.23470345 -0.30728534
000130 94 65 f0 bf ba a7 f6 bf 45 1a d7 bf d8 f9 ef bf
       -1.8780999 -1.9269936 -1.6804892 -1.8748121
000140 4c a7 ae be 58 bb 3f be a5 4d fc bf 12 9e 72 bf
       -0.34112012 -0.1872381 -1.9711195 -0.94772446
000150 9a 8d ab bf b9 0f b0 bd 77 f6 92 bf 1a 92 e8 bf
       -1.3402588 -0.08596749 -1.1481465 -1.8169587
000160 ee dd 45 bf 71 f1 af be 11 4d 3f bf aa 3e 3e bf
       -0.7729176 -0.34363893 -0.7472697 -0.7431437
000170 99 74 f3 bf c4 3a a5 bf 69 0f ab bf ce ab e6 bf
       -1.9019958 -1.2908559 -1.3364078 -1.8021181
000180 03 93 03 c0 ec 5b 3c bf 55 47 0a c0 da 95 f5 bf
       -2.055848 -0.7357776 -2.1606038 -1.9186356
000190 68 09 f5 bf e0 0c 89 bf 24 fd f9 bf 09 4d 19 bf
       -1.9143496 -1.0707054 -1.9530377 -0.5988317
0001a0 da e9 f8 bf c8 4f fa bf 14 b4 5b 3e 96 e1 98 be
       -1.9446366 -1.9555597 0.21455413 -0.29859608
0001b0 7c 87 ed bf dc 77 05 c0 ae cc 04 c0 c0 91 ec bf
       -1.8556972 -2.0854406 -2.0749927 -1.8481979
0001c0 99 e3 1b bf e5 0f 99 be 00 f2 da bf f4 ea cd bf
       -0.6089416 -0.2989494 -1.7105103 -1.6087327
0001d0 f6 29 ba bf a1 e4 91 be b9 e0 82 bf 5e e3 02 c0
       -1.4544055 -0.28494743 -1.022483 -2.0451274
0001e0 0a c6 a7 bf 19 04 30 bf f2 c8 a5 be 00 64 db bf
       -1.3107312 -0.6875625 -0.32379872 -1.7139893
0001f0 f6 93 0e c0 f1 a7 db bf e6 ac 3d bf c1 96 f1 bf
       -2.2277808 -1.7160627 -0.7409195 -1.8874131

layers.0.ufh.r_weight f4 [32, 32]
000000 37 57 21 3d ad eb cc bd e2 79 53 3e 65 b4 31 be
       0.039389815 -0.10005889 0.20651963 -0.17353971
000010 37 42 43 3e 12 d4 0c bf 27 8c 4a 3d 4b 58 e4 3d
       0.19068228 -0.55011094 0.049450066 0.11149653
000020 98 32 9f bd 19 ac 8e 3d 9c e1 82 3d 9c 5b 90 bd
       -0.07773322 0.06966419 0.06390688 -0.07048723
000030 cd 4e 29 3d 2f 4e 89 3e 99 80 1a be 14 22 51 3e
       0.041334916 0.26817462 -0.15088119 0.20423156
000040 24 8e 35 3e fc 19 9c 3e 6c 11 41 3e 55 58 93 bd
       0.17730004 0.30488575 0.18854302 -0.071945824
000050 2d 66 64 be 2b 44 d7 bd 26 86 8e 3e 08 ce 3d be
       -0.22304602 -0.10511049 0.27836722 -0.18535626
000060 a2 79 92 3e 56 30 4e 3e ae 21 04 be a6 d7 56 be
       0.28608423 0.20135626 -0.12903473 -0.20980701
000070 ba 4f 03 3e 3a b5 13 be 48 54 91 3e 99 7f e3 3d
       0.12823382 -0.14424601 0.28384614 0.11108322
000080 7e 0f 84 3e ed 52 9f be ba 94 9f 3e ec 6a 13 3e
       0.2579307 -0.31117955 0.31168157 0.14396256
000090 a6 b8 be 3e 7c ac 71 be c3 ce 90 3e af 42 07 bf
       0.3725025 -0.23600954 0.28282747 -0.52836126
0000a0 2c e8 a5 3e 7d a6 e8 3d 75 cf 66 be de 88 9e 3c
       0.32403696 0.1135988 -0.22540076 0.019352373
0000b0 6e d4 08 bc 48 9d 42 3e 5a 5a b5 3d e7 86 e9 3d
       -0.008351428 0.1900531 0.08855124 0.11402684
0000c0 ba 49 dd be d1 9e ba be 42 05 2e be 42 de 3d be
       -0.4322031 -0.36449292 -0.16994193 -0.18541816
0000d0 74 6a dd be 2a d4 75 bf b6 e8 2d bf 3a 5e 0c bd
       -0.4324528 -0.9602686 -0.67933214 -0.03426955
0000e0 56 74 79 be 95 e0 e2 be 4e bc 28 bd af 99 47 be
       -0.24360785 -0.44311967 -0.041195206 -0.1949222
0000f0 43 24 ab 3e db 1b d0 be 4c f2 48 be 6d b4 92 3e
       0.33426103 -0.40646252 -0.19623679 0.2865328
000100 7d 9e 89 be 75 d1 0f be 3a 57 1c be fa 33 dd 3d
       -0.2687873 -0.14044745 -0.1526765 0.10800929
000110 75 1a 31 be ba 92 bd bd 7b c3 c1 be 47 af fb bd
       -0.17295249 -0.092565015 -0.37844452 -0.12289291
000120 b1 b3 7d 3e 55 7b 21 be 5c 2c 57 be a0 d3 1b be
       0.24775578 -0.15769704 -0.21013016 -0.15217447
000130 fc 45 c4 bb 10 d3 b1 bc f2 b4 76 be ac 75 9b 3e
       -0.005989788 -0.021707088 -0.24092463 0.30363214
000140 c6 a4 03 3e 07 9c d8 3e 4b 91 d6 3c 7a cb ce bd
       0.12855825 0.4230654 0.026192328 -0.10097404
000150 b9 e9 30 3e 60 a5 7b 3d 1b c5 c0 3d 77 c3 26 bd
       0.17276658 0.06143701 0.09412595 -0.040713754
000160 5f 71 4c 3e 0e dc 07 3f c5 ad e2 bd 26 4d 50 be
       0.19965123 0.5307015 -0.110683 -0.2034193
000170 0a 2b 24 3e ed 06 76 be c3 7e b9 be ee 45 4e be
       0.16032043 -0.2402608 -0.36229524 -0.20143864
000180 7c e4 f3 bc 8f de 34 be 73 98 c7 3d cd ae 28 3d
       -0.029772036 -0.17663024 0.09745874 0.041182328
000190 f0 31 c4 bd d3 d2 23 be df 51 6b ba a7 f5 e1 bd
       -0.09579837 -0.15998392 -0.00089767383 -0.110331826
0001a0 33 dd 43 bd 21 5b 1a 3d c6 dd d1 bb 16 72 1b 3e
       -0.047818374 0.037684564 -0.0064046113 0.15180239
0001b0 4e c6 b6 be f7 bf 5e 3e 8f 29 5b 3c a6 d6 af 3e
       -0.3569817 0.21752916 0.013376608 0.3434345
0001c0 b8 0c 96 3e 3e 90 7e 3e ad b4 bb 3d 26 42 60 be
       0.2930658 0.24859712 0.091653205 -0.21900234
0001d0 14 21 be 3d da 91 a6 3e 6b 97 51 3e f2 ea 6a 3e
       0.09283653 0.3253315 0.20467918 0.22941187
0001e0 a8 a1 c9 3c e5 c7 9f 3d ea eb 36 3e d6 f8 36 3d
       0.024613217 0.07801799 0.17863432 0.044670902
0001f0 a3 3f 1f be e3 9c dc bd 86 66 07 be 05 96 a0 bd
       -0.15551619 -0.10772111 -0.13222703 -0.07841114
000200 cf 65 89 3d 3d c8 88 3e 1a 60 48 3e 80 fd 71 bd
       0.067088716 0.2671527 0.1956791 -0.059079647
000210 e2 c0 a0 3d 8c 82 c6 bd 88 6c 8d 3e 54 82 81 3e
       0.078492895 -0.096928686 0.27621865 0.25294745
000220 95 96 b6 bd ca 61 8f bd 57 49 e8 bd fa 52 5d bd
       -0.0891544 -0.07001074 -0.113421135 -0.05403421
000230 46 95 06 3e 38 23 21 bd a4 db aa bc 0e 8c f2 bd
       0.13142881 -0.039340228 -0.020856686 -0.118431196
000240 75 82 21 3e 18 9d 17 bd 52 61 25 be 39 60 b2 3d
       0.15772422 -0.03701505 -0.16150406 0.08709759
000250 6b 5c ce bd 05 24 5a be 8c 49 bd be 5a 45 1f 3e
       -0.10076221 -0.21302803 -0.36970174 0.155538
000260 84 34 0a bc 2d 74 04 bf 21 d4 c6 3d 9b 79 95 3d
       -0.008435372 -0.5173977 0.09708429 0.07298585
000270 64 35 08 bb ea da 25 3e e6 13 3b be b8 37 10 3e
       -0.0020783776 0.1619679 -0.1826931 0.14083755
000280 cd 06 0d 3f c0 cd a1 3d 9b b3 b2 3e 9d 28 cf bc
       0.550885 0.07900572 0.34902653 -0.02528792
000290 d3 2d ae 3e cd 3f 0b 3f c1 2a 90 3d f4 66 15 be
       0.34019336 0.5439423 0.07039405 -0.14590055
0002a0 3f 44 92 3e 9c f3 81 3e 64 7d 32 bd f1 12 34 3e
       0.28567693 0.25381172 -0.043576613 0.1758535
0002b0 b1 de 73 3e 02 be 2a 3f be 7c 37 3e 0f 92 1b bd
       0.23815419 0.6669618 0.17918679 -0.03798109
0002c0 25 92 ff 3e 6f 73 85 3e 31 57 3c 3e 60 af e3 3e
       0.49916187 0.2606463 0.18392636 0.44469738
0002d0 91 76 63 bd bc 7d 8b 3e c2 f2 26 be 7a 84 5b bd
       -0.055532996 0.27244365 -0.16303542 -0.053593136
0002e0 40 12 81 3e b5 5f 88 be a7 9d 22 3f 04 97 c1 3d
       0.25209236 -0.2663552 0.6352181 0.09452632
0002f0 e4 c0 25 3e af 7d 91 3e 3d e2 92 3e d7 ee 05 3f
       0.16186863 0.284162 0.2868823 0.52317566
000300 ca b4 0f be c3 83 82 3d c4 79 29 be 00 7f e6 3d
       -0.1403381 0.06372788 -0.16550356 0.11254692
000310 00 55 8a 3c d3 5c 1d be 35 f5 dd 3d 09 69 36 3e
       0.016886234 -0.15367441 0.10837785 0.17813505
000320 7e 3d 83 3c 66 fc a3 bd 90 56 17 3e cd f0 5d be
       0.016020533 -0.080071256 0.14779115 -0.2167389
000330 be ed 18 be 83 2b 50 bc b8 4c 75 be 33 7e 40 bd
       -0.14934441 -0.0127056865 -0.23955047 -0.046995353
000340 67 6f 93 3e 00 d3 8c be 5b 37 37 bd c0 af e6 3d
       0.2879593 -0.2750473 -0.044730525 0.112639904
000350 5f 0b 29 bd 39 18 2a be 97 18 85 3e 55 14 38 be
       -0.04127061 -0.16610803 0.25995323 -0.17976506
000360 8c ad 42 3b 4c b9 b0 bd 7e b9 7a bd 9c cb 93 3d
       0.0029705493 -0.086290926 -0.061212055 0.0721657
000370 73 bf 89 bd 88 12 d1 3d 67 3f 76 be 5d df 7e be
       -0.06725969 0.10208613 -0.24047624 -0.24889894
000380 d8 ae 80 bd 1d f8 35 3e 0f a4 e4 bd dd 88 ef bd
       -0.06283349 0.17770429 -0.11164104 -0.116960265
000390 dc c0 07 3e ca 24 ac 3e 03 d8 2d be fe ec e5 3e
       0.13257164 0.33621818 -0.16976933 0.44907373
0003a0 12 df 07 bf 64 6c 52 be 21 fc 8e 3e a3 e7 42 be
       -0.53074753 -0.2054916 0.27926734 -0.19033675
0003b0 d6 53 b4 bd f6 74 14 bd b7 70 8b 3e 17 ca 71 be
       -0.08805053 -0.036244355 0.27234432 -0.23612247
0003c0 ef b3 cb 3e 05 e5 93 3e 33 b1 4c be e5 7d 48 3e
       0.39785716 0.28885666 -0.19989471 0.19579275
0003d0 b1 9d 2e 3e dd 3e 4b 3f d5 c9 06 3f 94 99 ef bc
       0.17052342 0.79392797 0.5265172 -0.029248036
0003e0 8c e5 f6 3d 06 28 6c 3f a2 d1 48 3d e9 ce b4 3e
       0.12055501 0.9224857 0.049028046 0.3531411
0003f0 0c ba 5c be b3 1f 67 3e 25 cf 8d 3d e8 28 ee 3d
       -0.21555346 0.22570686 0.06924275 0.11628896

layers.0.ufh.i_weight f4 [32, 32]
000000 1e 3a 74 bb 78 69 4f 3e 74 1f 86 bd 9b 76 c5 bc
       -0.0037266086 0.20255077 -0.06548968 -0.024104407
000010 1d 1a e7 3d 20 4d 00 be cb 01 4b 3d 1f 94 91 3d
       0.112842776 -0.12529421 0.049562257 0.0710833
000020 bc 78 9e bc 38 85 35 3d b2 9f 2c 3d f5 05 2f be
       -0.01934468 0.0443165 0.042144485 -0.17092116
000030 1f e6 bf 3d 67 c6 77 bd 9c 50 bf 3a 54 b6 a1 bd
       0.09370064 -0.060491946 0.0014596167 -0.078961045
000040 93 60 5d bd 0d e9 07 be 40 f4 8d bd f8 d3 f5 3d
       -0.05404718 -0.13272496 -0.069313526 0.120033205
000050 f1 b8 85 3e c6 cb 85 be 88 60 2a bc 3e a8 44 3e
       0.26117662 -0.2613203 -0.010398991 0.19204804
000060 2f 9e 2f be f2 c1 8b be df 4f 37 3e 3d d7 3a be
       -0.17150186 -0.27296406 0.17901562 -0.1824617
000070 fa 90 a6 3c 16 38 d2 bd 95 b3 91 bd fa 7e 36 bc
       0.020332802 -0.10264604 -0.07114331 -0.011138672
000080 03 a7 7a 3e c7 f2 30 be 0e b2 37 be ac a5 0f 3e
       0.24477772 -0.17280112 -0.17939016 0.14028043
000090 22 ca b9 3d 04 96 09 bf 8b 46 4e 3e 25 a5 08 3e
       0.09071757 -0.5374453 0.20144098 0.13344248
0000a0 35 62 ce 3d 9e e7 02 bd cc f5 29 be a7 1f 2f 3e
       0.10077325 -0.03195917 -0.1659767 0.17101918
0000b0 85 d7 77 3e c6 78 0e 3e 07 c8 13 3d da 73 09 3d
       0.24203308 0.13913259 0.036079433 0.03355775
0000c0 01 df 88 bd 46 ff 6f 3b 4b e2 fe bd e3 c1 89 bd
       -0.066831596 0.003662066 -0.12445506 -0.06726434
0000d0 38 c6 4f 3d 2e 77 ac bd 1d 18 26 3e 77 9a 84 3d
       0.050726146 -0.08421169 0.16220136 0.06474774
0000e0 3d 30 a6 be ff 9d ff 3d a0 f6 fc 3d c6 f1 47 3e
       -0.32458678 0.12481307 0.123517275 0.19525823
0000f0 a5 05 6f 3e 69 a6 93 3e 15 0f b1 3e 20 69 f3 bb
       0.23341997 0.28837898 0.3458182 -0.0074283034
000100 ea df 6e 3e e4 fa ba bd 7f 3c f5 bc 6f 41 5a bd
       0.23327604 -0.09129885 -0.029936073 -0.05328506
000110 8d 9a ba 3d df 3b 06 3c 87 5c 22 be 90 9d 82 be
       0.091115095 0.008192985 -0.15855609 -0.25510836
000120 5f ba 34 be 68 43 3d be 81 a3 62 3e 24 67 02 bc
       -0.1764922 -0.18482745 0.22132684 -0.007959161
000130 da d7 6a 3e 2f ed f4 ba 03 77 fb 3d bd 5a 1b be
       0.22933903 -0.0018686409 0.12278559 -0.15171333
000140 60 56 06 3f bb be 4c bc 03 11 b5 be 89 87 6f 3c
       0.5247555 -0.012496646 -0.3536454 0.014619716
000150 08 f4 1b 3e 23 e8 98 be 59 fb 4f 3e a0 c9 65 3e
       0.1522981 -0.29864606 0.20310725 0.22440195
000160 8a 5b 89 bd 1d 7d a5 3e ea 02 7a 3c e6 88 5e 3d
       -0.06706913 0.32322016 0.015259484 0.054329775
000170 13 ce 84 3d a5 2c f6 bd 1c fe e4 be 8c 2b 6b 3e
       0.06484618 -0.12020234 -0.4472512 0.2296583
000180 6a 1f ca 3a 2b 5a b6 3d 10 84 57 3d 85 72 1a 3e
       0.0015420739 0.08903917 0.05261618 0.15082748
000190 86 f0 14 3e 4c f5 8f 3d 00 b5 80 3e ed 6e 99 3d
       0.14544877 0.070292085 0.25138092 0.074918605
0001a0 f5 f6 02 be 07 69 3d 3d a8 83 ae 3d bc fc 0d bc
       -0.12789519 0.04624274 0.08521205 -0.008666214
0001b0 b5 91 17 3e e6 06 56 3e bd 3a 78 3e 72 d8 64 3d
       0.14801677 0.20901069 0.24241157 0.05587048
0001c0 a9 3b 66 3e 5b e7 0d 3e 98 6b c0 bd 2d 21 42 3e
       0.22483696 0.13857786 -0.09395522 0.18957968
0001d0 d6 dc 47 bc 43 f8 e4 bd f8 57 0c be 5e 4b 82 bc
       -0.0121986475 -0.11180165 -0.13705432 -0.015905079
0001e0 93 76 f3 3d b7 42 c2 3d bb 51 e8 bd ff b2 69 3c
       0.118878506 0.09485381 -0.11343714 0.014263867
0001f0 ed 85 37 3e 3e 1b 98 3d 5c 2d 7c 3c 37 9f f4 3d
       0.17922182 0.07427071 0.015391674 0.1194443
000200 51 4e ba 3c 81 f5 07 be f5 5e d9 bc 50 98 1b bd
       0.022742422 -0.13277246 -0.026534537 -0.037987053
000210 e9 c9 78 bd 97 9d bc 3e b6 fb 0b bd 2a 8f 06 3e
       -0.06073943 0.36838982 -0.034175597 0.1314055
000220 5e 54 99 3c 55 34 42 3e f5 c5 13 be 8c 47 53 be
       0.018716987 0.18965276 -0.14430983 -0.20632762
000230 28 5e 96 3c 6e fe 69 3e 3c 22 02 bc 67 54 fb bd
       0.018355444 0.22850963 -0.007942732 -0.12271958
000240 69 39 b6 be 31 bc 2a bd 1f fc 38 3e 92 c2 38 3c
       -0.35590675 -0.04168338 0.18064927 0.011276858
000250 02 84 2f 3d ab 38 5b be 95 b9 b7 bd 80 60 3e be
       0.0428505 -0.21408336 -0.08970944 -0.185915
000260 e0 5f 87 3e 4b 1d c0 be 09 78 6a 3d 31 0a 93 bd
       0.26440334 -0.3752235 0.05724338 -0.07179678
000270 06 cb 85 be fa 77 d2 bc 99 07 46 bd 76 42 39 bd
       -0.26131457 -0.025691975 -0.04834709 -0.045229398
000280 f3 7e a1 3c 71 06 31 3e d8 c6 e9 ba 16 71 d6 3d
       0.019713854 0.17287613 -0.0017835749 0.10470788
000290 43 2f 28 3e dc 1d 93 3e b2 54 0f be 68 b0 1b 3e
       0.16424279 0.28733718 -0.13997152 0.15204012
0002a0 d8 6f 70 3e cb 9f 73 3c eb 68 b4 bc e2 55 19 bc
       0.23480165 0.014869641 -0.022022685 -0.009358855
0002b0 e2 04 49 bd be 2c 35 3e 0c 9b 1d 3d 84 d5 43 3e
       -0.049076922 0.17692849 0.038477942 0.19124418
0002c0 b6 16 a9 3e d0 ba 8c bd c6 b3 b6 3e 1f 98 a5 3e
       0.3302514 -0.06871569 0.3568403 0.32342622
0002d0 0e 44 ad 3e a1 93 19 bc c2 c2 fc bd fa c4 c2 bd
       0.33840984 -0.009373576 -0.123418346 -0.095102265
0002e0 22 a9 5c 3e 20 48 18 bf 2b 31 db be 20 c2 2c 3e
       0.21548894 -0.59485054 -0.4281095 0.16870928
0002f0 91 00 98 be 8d 51 2c 3d c4 ba 32 3f 46 f6 2f 3e
       -0.29687932 0.04206996 0.6981623 0.1718379
000300 98 51 65 be c7 fd 81 be 13 fe 53 bd ee 9a 9b bd
       -0.22394407 -0.2538893 -0.051755976 -0.0759791
000310 b1 23 bf bc 56 c5 5a 3d b7 ac 35 bd 46 b8 d9 3d
       -0.023332449 0.05341085 -0.044354167 0.106308505
000320 ec 07 3a be 0f 02 9b 3d 29 aa 37 be 20 1b 79 3e
       -0.18167084 0.07568752 -0.17936005 0.24326754
000330 5d 5d 17 be b6 be 37 3d cc 7b 04 3d 89 83 5f be
       -0.14781709 0.04485961 0.032344624 -0.2182752
000340 97 b5 ad be e9 c7 9c bd e5 60 81 bd d9 8d b9 bc
       -0.33927605 -0.07655317 -0.06317309 -0.022650646
000350 e0 f5 c7 be ce ac 45 3d 90 89 87 3e e2 e1 65 3d
       -0.39054775 0.048260503 0.2647214 0.05612362
000360 8a c3 a0 3c f3 24 82 3e 0e c8 9d 3e 7a ac 84 3e
       0.01962449 0.25418815 0.30816692 0.2591284
000370 9b 21 36 3e fe db b8 3c 00 60 85 be fe d1 16 bd
       0.17786257 0.022565838 -0.26049805 -0.036821358
000380 af ca a2 3d a5 f7 aa 3e 9d 9c bd bd 62 8d 01 bb
       0.07948815 0.33392063 -0.09258387 -0.0019768109
000390 4d d1 55 bd 2f df 47 3f b2 46 9e be 06 44 9e be
       -0.052201558 0.78074926 -0.3091331 -0.30911273
0003a0 15 1d 49 3e 83 80 6f bc b7 5b 64 3d 88 61 0e be
       0.1964 -0.014618042 0.05575153 -0.13904393
0003b0 ed 5f 0c 3e 8e 68 63 bd da 7d 27 3e b6 1f 28 3e
       0.13708468 -0.055519633 0.16356602 0.16418347
0003c0 2b f4 46 3e 64 0f 57 3e f8 f5 eb 3d 8c 1a 7a bd
       0.1942908 0.21001965 0.11521524 -0.061060473
0003d0 1b 0f b5 3d 18 99 46 be 18 2b 1c bf 61 85 d8 3c
       0.08840772 -0.19394338 -0.61003256 0.026430788
0003e0 39 c7 99 3e 4c af e1 be 97 99 2f 3e 37 ce c4 bc
       0.30034807 -0.44079053 0.17148434 -0.024024112
0003f0 1b 8d 84 be ac b5 99 be 6d 42 f0 bd bb 90 5e bd
       -0.25888905 -0.30021417 -0.1173142 -0.054337244

layers.0.ufh.j_weight f4 [32, 32]
000000 59 bb 15 bd 4a 38 46 be 43 e3 b8 bd 3b c1 c2 bd
       -0.03655562 -0.1935741 -0.09027722 -0.09509512
000010 0b 8a 08 be 60 50 4a 3e 59 ed 90 3d a2 ac 81 bd
       -0.13333909 0.19757223 0.070765205 -0.06331755
000020 c4 c2 85 be f3 99 81 3c d7 ea c3 bd e0 25 a5 3d
       -0.26125157 0.015820479 -0.095662765 0.08063865
000030 83 08 2c be c7 09 29 bc 75 47 17 3e 4f d6 f5 bb
       -0.16800122 -0.0103172725 0.14773352 -0.007502354
000040 a1 a8 07 3b d0 01 7b 3c 2c 11 48 3d 22 49 06 be
       0.0020699876 0.015320256 0.0488445 -0.13113835
000050 ce 1c f1 bb 8a cb ee bb 3a e0 0e be d4 e8 d0 3d
       -0.00735817 -0.0072874473 -0.13952723 0.102006584
000060 00 32 a2 be ff c8 2a be 05 62 a6 3e dc 6f 85 3e
       -0.31678772 -0.16678236 0.32496658 0.26061904
000070 c9 47 32 bd 3c b7 64 3d 50 51 ea 3d 89 ba e5 bd
       -0.04352549 0.05583881 0.114412904 -0.112172194
000080 dd 81 33 be 3b e7 10 bd bd 62 22 be 7a e8 ea bd
       -0.17530008 -0.03537677 -0.15857978 -0.11470123
000090 c2 de 14 be 3c 66 52 3e 53 7f 8e bd 07 97 4f 3e
       -0.145381 0.20546812 -0.06957879 0.20272456
0000a0 95 9f d2 3c 52 b7 07 bb c2 aa da ba bb cd ad 3d
       0.02571086 -0.0020708633 -0.001668297 0.084865056
0000b0 76 3e 2d bd 25 8a 45 be 3c 28 c1 bd a3 f0 b0 be
       -0.042295896 -0.19290979 -0.09431502 -0.3455859
0000c0 54 e8 17 3e 2f 3d 2f be 60 79 35 be 5e 28 e2 bd
       0.1483472 -0.17113183 -0.17722082 -0.11042856
0000d0 63 e0 cc be 94 b6 a4 bc 77 01 d2 3d e5 26 59 be
       -0.40014943 -0.020106591 0.10254186 -0.21206243
0000e0 8f 7e 4c bc 7e a0 19 3f 92 43 80 be 92 df b9 bd
       -0.012481346 0.60010517 -0.25051552 -0.09075846
0000f0 9c 8d 6d be fb bd 22 bd cd 4a da 3c 99 0e 25 be
       -0.23198551 -0.03973196 0.026646996 -0.1611885
000100 79 87 21 be b3 d8 af bd 9b f4 a0 bc 01 14 7e 3d
       -0.15774335 -0.08586254 -0.019647887 0.062030796
000110 25 8b 9b bc f6 f1 bc 3d 3a b0 86 bd 50 7f 32 be
       -0.018987248 0.09225838 -0.06576581 -0.17431378
000120 91 64 a6 bc 5c c3 32 3e 77 58 93 3d 50 2f bc bd
       -0.020311626 0.17457336 0.07194608 -0.09188712
000130 5a 4c 6d bd e3 14 2c be 4e bb ba 3c 64 16 72 3d
       -0.057934143 -0.16804843 0.022794392 0.059103385
000140 ce 0f fa bd cf 3e 38 3e 47 d3 98 3d ea 43 3f be
       -0.12210046 0.1799271 0.07462173 -0.18678251
000150 ab 94 83 be 53 00 33 be 05 54 b2 3d 4f b1 ee bd
       -0.25699362 -0.17480592 0.08707432 -0.11654913
000160 09 ff 42 be 85 47 a3 be 20 a3 13 be 1e d1 c0 bd
       -0.190426 -0.31890503 -0.14417696 -0.09414886
000170 80 e9 d0 3d 21 08 95 bd 86 ce 15 bd c1 20 12 3e
       0.102007866 -0.07276941 -0.03657391 0.14270307
000180 b9 8a 7d 3e a0 13 31 be ea d9 57 3d c4 20 32 be
       0.2475995 -0.17292643 0.052698053 -0.17395312
000190 e9 35 3a be 2a fe 0a bd 2e b2 9b 3d 9f 8a 39 3d
       -0.18184628 -0.033933796 0.076023445 0.045298215
0001a0 90 2b a3 bd 9a bd 9f 3c ae 18 7d bd 36 0a f6 3c
       -0.07967293 0.019499589 -0.061791115 0.030034166
0001b0 c4 5b 7c 3d c4 68 eb 3d 79 a1 12 be e0 f9 31 3e
       0.061610952 0.11494592 -0.1431941 0.17380476
0001c0 6d 32 fc bd 74 e7 f4 3d 06 96 1e 3e d0 f0 a6 be
       -0.123143055 0.11958209 0.15486917 -0.326056
0001d0 d4 83 5d bd 6d d1 53 bd 72 c7 57 be 4a 03 f6 bd
       -0.0540808 -0.051713396 -0.21072176 -0.12012346
0001e0 5f 18 42 bd ff ef 85 bd 17 97 04 3d f3 3f eb 3d
       -0.047386523 -0.06539916 0.032370653 0.11486807
0001f0 33 20 70 3e 13 ab 7f 3e cb c8 a4 3e d2 bd 5c 3d
       0.23449783 0.24967603 0.32184443 0.053891964
000200 f0 a8 59 bc 64 e3 72 bd d6 fb 48 be b9 07 0b 3e
       -0.013284907 -0.059298888 -0.19627318 0.13577165
000210 1c 33 95 bc 2b d7 4b be 5d 7c 30 be 6a 2c f8 bd
       -0.018212847 -0.19906299 -0.17234941 -0.12117846
000220 58 63 36 be 22 d1 04 be 74 79 d2 3c 6c ea ce 3d
       -0.17811334 -0.12970403 0.025692679 0.10103306
000230 77 22 59 3d cf 0d a6 3d 27 bc 10 be b5 7c 25 3e
       0.053011384 0.081081025 -0.14134274 0.16160853
000240 9b 10 7a 3e 64 00 bd be d1 8f 82 3c 1c 4d b1 bd
       0.24420397 -0.3691436 0.015937718 -0.086572856
000250 44 84 bc be 42 91 8b bd dd a7 c4 bd c5 54 85 bd
       -0.3681966 -0.06814815 -0.0960233 -0.06510309
000260 60 7e 8f be 74 19 58 bd 99 b8 0a bc 7a c4 80 3d
       -0.28026104 -0.05275865 -0.008466863 0.06287475
000270 d6 b2 4b bd 8e fd b3 3d c7 36 a9 3d dd 59 b8 bb
       -0.049731098 0.08788596 0.08262401 -0.005625947
000280 de 80 43 3d 9f 5e 85 3e 62 88 43 be c0 61 5f bd
       0.04773032 0.26048753 -0.19094995 -0.05453658
000290 1a 86 6e bd 98 b8 06 3e c0 f0 54 be e9 fb 0e 3e
       -0.058233358 0.13156354 -0.20794964 0.13963284
0002a0 20 e7 4c 3d b2 f8 12 bd 16 21 93 bd cd 2d 9b 3d
       0.050025105 -0.035881706 -0.07184045 0.07577095
0002b0 2a 92 37 3e eb 07 38 3b d3 b4 91 be f5 b3 c4 3e
       0.17926851 0.0028080891 -0.2845827 0.38418546
0002c0 18 72 3e bc 4b ec 01 be 90 1f 47 be 02 1c 0d be
       -0.011623882 -0.12687795 -0.19445634 -0.13780215
0002d0 e6 1d 26 3e 3f 11 15 bf b3 65 25 bf 72 28 92 be
       0.16222343 -0.5822944 -0.64608306 -0.28546482
0002e0 43 2d c7 bc db 18 20 be 61 22 d1 3d 11 b3 9c 3e
       -0.024313575 -0.15634482 0.102116354 0.30605367
0002f0 33 7c 54 3d 53 37 6b be e3 ad ce 3d 18 8a ec bd
       0.051876258 -0.22970323 0.1009176 -0.11549777
000300 53 3b 48 be 51 d1 aa bd 17 10 60 bd 89 ad 07 3e
       -0.1955388 -0.08340705 -0.054702844 0.13249792
000310 b4 f0 f1 3d 74 e0 14 be 3b 27 0e 3e 7c de c0 be
       0.118134886 -0.14538747 0.13882153 -0.37669742
000320 25 ea 95 ba c3 74 cd bd ab 11 59 3d f0 ed ca bd
       -0.0011437578 -0.10032036 0.052995365 -0.09908664
000330 69 62 7d be f5 b9 f8 3d e5 ec 67 3e 3d 5d b8 bd
       -0.24744572 0.121448435 0.22648962 -0.09002159
000340 62 7d 8e 3d f9 b4 99 be 85 55 b3 3c 2f de 06 be
       0.069575086 -0.30020884 0.021891365 -0.13170694
000350 3c 01 e4 be 02 56 4c 3e 14 99 59 3e ee 0e b0 3d
       -0.44532192 0.19954684 0.21249801 0.085965976
000360 6a 43 a1 bc fb e3 17 3e 31 72 1d bf 13 eb 81 be
       -0.019685466 0.14833061 -0.6150237 -0.2537466
000370 34 89 6a be 32 e2 3b 3d de 7c 4a be 5d c0 3b bd
       -0.22903901 0.045870014 -0.19774196 -0.04583775
000380 1e f3 db bd 5f 8d 01 bf 33 fe a6 3d 59 be 19 3c
       -0.1073973 -0.5060634 0.081539534 0.009383761
000390 e4 ab 6a 3d 71 d5 29 be 38 e4 25 3e 85 bf 83 be
       0.057292834 -0.16585328 0.1620034 -0.25732055
0003a0 7c 2d 65 3d a5 da cc 3d 63 43 dd bd 34 a6 84 bc
       0.05595158 0.10002641 -0.108038686 -0.016192533
0003b0 ff 3d 1b 3d 2d ed 04 3e 45 fa 91 bd fa 5f a2 3d
       0.03790092 0.129811 -0.07127813 0.07928462
0003c0 e3 0c 52 be b8 22 93 3e b5 5e 90 3d e1 5c 9b bd
       -0.20512728 0.28737426 0.07049314 -0.075860746
0003d0 24 28 bf bd 1b 03 d0 bc 1d 76 d4 bd 19 2d 15 3e
       -0.09333828 -0.025392106 -0.10374091 0.14567985
0003e0 cf f3 88 bd b2 03 90 be e1 bd 1a 3f 2c f8 9e 3e
       -0.06687128 -0.2812782 0.6044598 0.31048715
0003f0 5e 76 66 3e 12 9b c7 3d ee de a6 be 6c 12 2e 3e
       0.22506091 0.09746374 -0.32591957 0.16999215

layers.0.ufh.k_weight f4 [32, 32]
000000 00 d5 d6 3d f3 53 63 3d 5b bd cd bd e2 3d b8 3c
       0.10489845 0.055499982 -0.10045882 0.022490446
000010 eb c0 14 3e 03 db 88 be 46 d1 01 3d d3 25 99 3d
       0.14526717 -0.26729593 0.03169372 0.074779175
000020 d9 d4 80 3d 52 c9 24 3e 10 0e 09 3e 9c 45 54 3d
       0.062905975 0.16092423 0.1338427 0.051824197
000030 95 57 9d 3d 8f 1b fa 3d 13 7d f4 3c 87 f1 95 3c
       0.076827206 0.12212288 0.029844796 0.018303646
000040 8f 0d 88 bd 68 7f 0a 3e 30 e3 0e bd 47 bc bf bb
       -0.06643211 0.13525164 -0.03488463 -0.005851302
000050 8b c9 07 bc cc 78 77 3e a2 9a 9e 3d 7f c7 18 bd
       -0.008287798 0.24167174 0.077443376 -0.03729963
000060 8e b9 f1 3c 09 ee 99 3e 7e 1d 44 3e 35 6c b2 3e
       0.029507425 0.3006442 0.19151875 0.3484818
000070 bf 0f bd 3d 7b fb 43 3d 56 e8 02 3e c4 fc 97 3d
       0.09231519 0.047847252 0.12783942 0.07421258
000080 7a 3e 2b be e0 5e 4a be 03 61 8b bd e7 6a 8a 3c
       -0.16723052 -0.19762754 -0.06805613 0.016896678
000090 ba 9f 89 bd d5 45 be be 5c b8 2a be fc 39 c5 bd
       -0.067199185 -0.37162653 -0.1667189 -0.096302
0000a0 74 c1 d3 be ad 7b a9 bd 2b 15 10 be 17 a5 0f bb
       -0.4135853 -0.082755424 -0.14070575 -0.002191847
0000b0 bc c4 40 3d 08 ca a1 3d 88 1e 18 3c 51 e8 09 be
       0.04706262 0.078998625 0.009284623 -0.13467528
0000c0 58 e3 18 be ad ab be bd 6e d4 29 be 03 1f 1b bf
       -0.14930475 -0.09310088 -0.16584942 -0.60594195
0000d0 d9 d6 93 bd 1e 6a e7 3d f5 9b 92 bd b3 e1 f1 3d
       -0.07218713 0.11299537 -0.07158653 0.11810627
0000e0 ae 7c c1 3d 86 fb 1b 3d 93 51 66 be 90 85 d0 be
       0.09447609 0.03808167 -0.22492056 -0.407269
0000f0 10 c5 16 be 1b 68 35 be 2a be 0f 3e 44 7a 61 3d
       -0.14723611 -0.17715494 0.14037386 0.055048242
000100 45 1d df bd 30 11 23 be bf 49 22 3d cd a7 e6 bd
       -0.108942546 -0.15924525 0.03962111 -0.11262474
000110 e2 23 a8 bd 7f 79 51 be 37 63 1a be 1a 97 5b bc
       -0.08209969 -0.20456503 -0.1507691 -0.013402725
000120 f3 a9 f0 3d ff b9 9d 3d 8c e4 2d bd c6 14 02 be
       0.11751165 0.077014916 -0.042454287 -0.12703237
000130 d7 e2 78 be 51 5c 35 be ec 90 83 bc ee 5a 3e bd
       -0.24305283 -0.17710997 -0.016060315 -0.046473436
000140 38 a7 94 be f5 cc 3d be 4b 7d c5 bd ab 1b 3e bc
       -0.29033828 -0.18535216 -0.09643038 -0.011603276
000150 0f 54 b3 3d ee 70 85 bd dc da 2e be 4e 2f b2 3d
       0.08756267 -0.0651568 -0.17075676 0.08700429
000160 d6 7b 6c 3e a0 a1 e2 be 15 05 8f bd 66 1d 3c be
       0.23094115 -0.44263935 -0.06983391 -0.1837059
000170 43 76 d9 bd 9a b7 29 3e ce ed 78 be 7c 6e 1d 3e
       -0.1061826 0.16573945 -0.24309465 0.15374178
000180 bc cb 4d 3e 9a 2a 9f 3e 62 6a 2c 3d 68 7e 25 3d
       0.2009725 0.3108719 0.042093642 0.040403754
000190 40 7b 6d 3e 91 07 6c 3d 2c e0 bc bd 39 22 95 3e
       0.23191547 0.057624403 -0.09222445 0.29127672
0001a0 e0 a5 0f bd bf a6 11 3e 74 f8 d2 3c 90 6d 86 bc
       -0.0350703 0.14223765 0.025753237 -0.016409665
0001b0 11 a3 d7 3a 1f 5e e3 3d bd 42 10 bd ab fe 7b bd
       0.0016451796 0.111019365 -0.035219897 -0.061522167
0001c0 6b 5c 6d 3e a4 69 0a 3e d6 2a 2e 3c 73 12 5d 3c
       0.23179786 0.13516861 0.01063033 0.013493168
0001d0 c5 53 db 3e f8 5f cb 3e dc 49 aa 3e f7 1b 53 3e
       0.4283735 0.39721656 0.33259475 0.20616136
0001e0 f3 70 6f 3e 7e 68 82 3e d1 c2 4c 3c f4 5a fb 3c
       0.2338293 0.25470346 0.01249762 0.030683018
0001f0 65 29 86 3e 6b ae 94 3e f5 64 4d bc c2 50 75 bd
       0.26203457 0.2903932 -0.012536277 -0.05989147
000200 ad b1 3b 3c 46 b3 63 be 22 03 a4 bd 6d f6 64 3d
       0.011455935 -0.22236356 -0.0800841 0.055899072
000210 97 d3 9b bd cd fd 9b bd 7f af 13 3e 9e 91 93 3e
       -0.07608717 -0.07616768 0.14422415 0.28822035
000220 d5 e3 c1 3e c6 d9 96 3e 6f 73 c1 3d 8c b9 65 3d
       0.37869135 0.29463023 0.09445845 0.056085154
000230 3d 1f 15 3c f7 70 7a bd 0d ce 7c 3d 63 7d 2a be
       0.009101686 -0.061142888 0.061719943 -0.16649394
000240 cd 01 5b be 93 5e ea bd 40 f2 89 bd d1 2c 0f bd
       -0.21387406 -0.1144382 -0.06735659 -0.03495485
000250 b9 2d 6b 3e 50 b3 02 bd 03 94 1b 3e 54 bc 6a 3e
       0.2296666 -0.031909287 0.1519318 0.22923404
000260 03 ea a1 3d 00 8c 18 3e 7c da 63 3d 35 d7 ab 3d
       0.07905962 0.14897156 0.055628285 0.08390657
000270 f8 a1 7d 3d 03 c4 f0 bd 05 77 1a be 78 ab 2f be
       0.061922044 -0.11756136 -0.15084465 -0.17155254
000280 42 45 be 3e 09 ea b5 be 07 25 32 be 27 60 83 3e
       0.37162215 -0.35530117 -0.17396937 0.25659296
000290 ae 3b 2c 3e 4d 54 2b bf db f7 bc 3e eb 2a 54 3d
       0.16819641 -0.6692551 0.3690785 0.051798742
0002a0 4c f2 24 3f 93 2b 09 3f 7c 64 65 be 79 09 6a bd
       0.64432216 0.53582114 -0.22401613 -0.05713794
0002b0 13 cd 72 3e 45 77 84 bd df 15 a7 be 56 51 41 be
       0.23711042 -0.06468061 -0.32633874 -0.18878683
0002c0 cd 2f e0 3c 29 74 cd bd 30 cc 52 3e e2 43 a2 be
       0.027366543 -0.100319214 0.20585704 -0.31692415
0002d0 07 05 0f bb fa 4b cb bd 38 6d 48 39 e0 91 26 be
       -0.0021823065 -0.09926601 0.00019114173 -0.16266584
0002e0 2f 65 14 bd aa 70 1f 3f ea fd 22 3f 1b 5d 17 3e
       -0.03622931 0.62281287 0.6366869 0.1478161
0002f0 7a e5 e1 bd 7f c4 22 be 68 c3 52 bd e6 b3 79 3e
       -0.11030097 -0.1589527 -0.051455885 0.24385032
000300 25 cc 39 be 96 68 99 bd 97 d2 00 bd 0b 3d b7 bd
       -0.18144281 -0.07490651 -0.031450834 -0.0894719
000310 96 66 ce 3c 7b 8f b5 be b7 af b7 be a2 c6 25 3d
       0.025195401 -0.3546103 -0.35876247 0.040472634
000320 9e f7 5c be 04 f2 bf bd ac da 1b be 92 fa eb bd
       -0.21578833 -0.09372333 -0.15220135 -0.11522402
000330 f0 1d 27 3c ce d7 05 bd cd bb e7 bd ea 81 c0 3d
       0.010200009 -0.03267651 -0.11315117 0.09399779
000340 23 d4 dc bd 32 a3 9b bd d9 9b c6 bd 62 a6 f5 3c
       -0.10782649 -0.075994864 -0.09697694 0.029986564
000350 3d 1d e4 3d 6e 59 46 be 6e 2b f6 bd 29 2a 1a 3d
       0.11138389 -0.19370052 -0.12020002 0.037637863
000360 c3 98 ea bd f7 35 09 3e d0 53 2b be d8 c8 72 be
       -0.11454918 0.13399492 -0.1673119 -0.23709428
000370 30 9e 2f 3d 60 2e d5 bd e3 c9 06 3e c4 90 fc bc
       0.04287547 -0.10409236 0.13162951 -0.030830748
000380 19 f4 fe bd 36 5b 49 3e e5 d9 1b bd 84 9a 61 3e
       -0.12448902 0.196637 -0.038049597 0.220316
000390 ae 4d 7e bb d9 e0 dd 3d 76 a7 16 3c 0e 1e aa bd
       -0.0038803625 0.10833902 0.009195199 -0.08306514
0003a0 ca 7c 41 3c 90 4c ad ba 04 50 28 3e ff 88 25 be
       0.011809537 -0.001322167 0.16436774 -0.16165541
0003b0 86 7e 8d 3d 45 f6 95 3b c2 ee de bb b3 4a e2 bd
       0.06908898 0.0045764768 -0.0068033645 -0.11049404
0003c0 72 9c b2 3c 0d f6 2a 3e 92 26 66 bd d7 aa 63 3e
       0.021803115 0.16695423 -0.056189127 0.22233139
0003d0 1f a0 d4 bd d8 5b 91 bc 04 d8 89 3e f0 92 c0 bd
       -0.10382103 -0.01774399 0.2692262 -0.09403026
0003e0 9b 2c 4a 3c f8 b6 54 bd 46 db 04 be 3c 56 49 3e
       0.012339736 -0.051932305 -0.12974271 0.19661802
0003f0 3b 23 1b 3e 02 59 15 bd ea ad f7 bc f1 3d cb bc
       0.15150158 -0.036461838 -0.030234296 -0.02480981

layers.0.wix.r_weight f4 [1, 32]
000000 0d 71 b1 bf d2 41 b8 3c 3a c3 b5 bf db e7 8d bf
       -1.3862625 0.022492323 -1.4200203 -1.1086382
000010 13 f6 ac bf f0 6e 2b be 6f 39 f6 be b2 8b ab 3d
       -1.3512596 -0.16741538 -0.48090693 0.08376254
000020 b4 1d 7b bf 6b 46 47 bf ff e3 72 3e b8 a4 36 bd
       -0.980922 -0.77841824 0.23719786 -0.04459068
000030 27 b2 b4 bf 9c ad 72 bf 26 7f 80 bf 29 c6 5d bf
       -1.4116868 -0.94796157 -1.0038803 -0.86630493
000040 2e 0d 66 be 2a 3f 83 bd e5 2c 8d bf 9d 80 47 bf
       -0.22465965 -0.06408532 -1.1029326 -0.77930623
000050 27 30 f7 be d2 e5 35 be f5 43 1f bf 86 0e 8e bf
       -0.48278925 -0.1776345 -0.6221307 -1.1098182
000060 b5 68 ca be 6e a0 58 be 85 8d 82 bd 7a 80 2d bf
       -0.3953301 -0.21154949 -0.06374649 -0.67774165
000070 40 b8 5f bf 30 76 f6 be c4 ba 8d be 09 ac b2 bf
       -0.8739052 -0.48137045 -0.27681553 -1.3958751

layers.0.wix.i_weight f4 [1, 32]
000000 c4 dc 6d bd a0 74 7a 3e 3f 5e 93 be 6a ed 67 be
       -0.058071867 0.24458551 -0.28782842 -0.2264916
000010 39 1e 96 bd a7 bb 0f 3e 6e 7f 06 3e c8 47 a6 be
       -0.07329983 0.14036427 0.13134548 -0.3247664
000020 34 74 a3 3d 22 84 31 3e 14 86 b9 3d 2a 83 36 3b
       0.07981148 0.17335561 0.090587765 0.0027849176
000030 62 48 76 3d b5 af a7 be 7e 69 b6 3d ea d3 13 3e
       0.060127623 -0.3275124 0.0890684 0.14436308
000040 3c 4c 59 be 75 49 dd 3d 70 24 b1 bd 5d 36 b1 be
       -0.21220487 0.108050264 -0.08649528 -0.34611788
000050 30 19 94 be b4 ab b7 3c 34 f2 58 be 45 29 cd 3c
       -0.28925467 0.022420742 -0.21186143 0.025044093
000060 b0 27 84 3e e0 9b 47 3e a7 c9 c2 bd d2 1f e4 be
       0.2581153 0.19493055 -0.095111184 -0.44555527
000070 85 f9 e5 bc 54 74 34 bf 09 c2 13 be 47 bb c0 3d
       -0.028073082 -0.7049 -0.14429487 0.0941072

layers.0.wix.j_weight f4 [1, 32]
000000 8a 87 0d bf d7 4e 62 be 24 1f 84 bf bf 1e 81 be
       -0.5528494 -0.22100388 -1.0322003 -0.2521877
000010 1b f3 70 3e 1c 65 b3 3c d8 8d 9e 3e 11 e8 ea 3d
       0.23530237 0.021898799 0.30967593 0.114700444
000020 6f 7e eb bd 91 4e 84 bd 2e 80 a8 3d 75 f7 e8 3d
       -0.11498725 -0.06460298 0.08227573 0.11375324
000030 a8 b0 16 bd cc 1b 6a be 26 4b 12 bd e9 7e bf bd
       -0.036789566 -0.22862166 -0.0357162 -0.09350378
000040 73 0c 89 be dc 3c 3b 3b 58 f0 b8 3e b1 f8 11 3f
       -0.2676731 0.002857021 0.36120868 0.570201
000050 aa 7b 2a 3f c1 f0 64 3e 3f b7 bd bd 38 7c 1c be
       0.66594946 0.22357465 -0.09263467 -0.1528176
000060 48 a1 bb be 7e 99 dc bd d2 51 9f bc 83 9f b1 bd
       -0.36646485 -0.10771464 -0.019448195 -0.086730026
000070 53 91 d8 3e 2b 52 fb bd 52 2e a7 bd dd fc 18 3e
       0.42298374 -0.12271532 -0.08163132 0.1494021

layers.0.wix.k_weight f4 [1, 32]
000000 cb df 16 be 32 e0 b0 3c 1f c1 27 be 93 7d 24 be
       -0.14733808 0.02159128 -0.16382264 -0.16063528
000010 7a bf ac bc ce e8 be 3d 18 75 ad 3d 2c ec 3f be
       -0.021087397 0.09321748 0.084695995 -0.18742436
000020 47 a1 e7 be 97 57 78 3e 11 ea 4e be a6 ac c1 bd
       -0.45240232 0.24252163 -0.20206477 -0.09456758
000030 61 3b 90 3d c1 ed 76 3e e2 2b 83 3d 23 67 b9 3d
       0.07042576 0.24114133 0.06404854 0.09052875
000040 37 7e 72 be 44 18 30 3e a4 86 ae 3d 20 a1 a3 be
       -0.2368096 0.17196757 0.085217744 -0.31958866
000050 9a f2 6b bd 33 d7 eb 3c 77 52 a1 bd 2d 19 02 3f
       -0.05760441 0.028789138 -0.07877057 0.50819665
000060 bd 03 04 3e 66 ed c9 bd b1 5b 9c bc 3c 32 96 be
       0.12892051 -0.09859733 -0.01908669 -0.293352
000070 b3 e6 22 3d 3d 84 1a be 70 da 3a 3e a4 d2 23 3e
       0.039770793 -0.15089507 0.1824739 0.15998322

layers.0.wix.bias f4 [128]
000000 54 23 35 c0 be d3 b0 be 99 8b 25 c0 79 2d 2b c0
       -2.8302813 -0.34536546 -2.5866454 -2.6746504
000010 0f 18 4f c0 cf 73 99 bf 73 8a 19 c0 7c 23 d9 3d
       -3.2358434 -1.1988467 -2.3990753 0.10602471
000020 c1 96 1d c0 73 76 33 c0 ae a2 03 3f a4 a7 8b 3e
       -2.4623263 -2.8041046 0.51420105 0.27276337
000030 b5 b6 51 c0 bc 77 3f c0 93 53 c9 bf 3d 54 21 c0
       -3.2767766 -2.991683 -1.572863 -2.5207665
000040 a6 a6 b7 3d fa ea 9f 3e 79 58 06 c0 2c d0 7c bf
       0.089673325 0.3123396 -2.09915 -0.98755145
000050 44 ad af bf 90 7d e9 3e ca fb b4 be f1 59 23 c0
       -1.3724751 0.4560361 -0.3534835 -2.5523646
000060 e6 3e 1e bf c5 4d 40 3e 5b 8d f2 be 98 db 44 bf
       -0.61814725 0.18779667 -0.4737347 -0.76897573
000070 70 a3 11 c0 51 7b e4 be 5c 5d 9c bf 23 9f 45 c0
       -2.2756004 -0.44625333 -1.2215991 -3.087838
000080 35 cf 2e c0 56 95 9c be ca 0c 25 c0 c9 b4 38 c0
       -2.731397 -0.30582684 -2.5789056 -2.8860343
000090 71 eb 3e c0 78 0d af bf f4 b8 ff bf 12 d1 88 be
       -2.9831202 -1.3675985 -1.9978318 -0.26722008
0000a0 02 a8 e2 bf ba b8 2d c0 f2 34 3a 3f b0 e7 f1 3e
       -1.7707522 -2.7143998 0.7273704 0.47247076
0000b0 ec 9c 56 c0 8a 01 46 c0 70 a1 19 c0 aa 4c 1f c0
       -3.3533278 -3.093844 -2.4004784 -2.4890542
0000c0 eb 56 f0 bd 77 bb a1 3d 46 9b 12 c0 73 fa 8e bf
       -0.11735328 0.07897084 -2.2907271 -1.1170181
0000d0 65 53 b8 bf 59 ba 3d bd 12 05 48 bf 07 80 2c c0
       -1.440045 -0.046320293 -0.78132737 -2.6953142
0000e0 48 8b d8 be 04 5b 4b bd 3d 0e f1 be e6 1d 2a bf
       -0.42293763 -0.049647346 -0.47081175 -0.6645187
0000f0 12 a6 ef bf aa 75 36 bf 12 96 9f bf 9c c2 36 c0
       -1.8722556 -0.7127329 -1.2467673 -2.855628
000100 e7 70 3e c0 b1 b9 cb be fe b2 15 c0 6a 06 32 c0
       -2.975641 -0.3979011 -2.3390498 -2.7816415
000110 57 cd 39 c0 8c 47 98 bf 0a 16 03 c0 77 f6 d0 bd
       -2.903158 -1.1896834 -2.0482202 -0.102032594
000120 0c f0 fe bf 84 59 2f c0 ff 7a e3 3e e0 fb 83 3e
       -1.9917006 -2.7398386 0.44429776 0.25778103
000130 64 6f 52 c0 16 79 47 c0 c6 87 d1 bf a4 18 25 c0
       -3.2880487 -3.1167655 -1.636956 -2.579629
000140 ee c2 fb bd 65 ca 2d 3e 06 fd 0d c0 3a 89 67 bf
       -0.12293039 0.16971739 -2.2185683 -0.90443766
000150 bd fb c6 bf ad fa ef bc 46 a1 59 bf 87 27 2c c0
       -1.5545574 -0.029294336 -0.8501171 -2.6899126
000160 79 fb 5d bf f8 c8 93 bd 18 5b 01 bf 03 84 fe be
       -0.8671184 -0.07216066 -0.50529623 -0.49710092
000170 e5 1f cf bf 49 5f de be d5 59 8a bf 11 70 45 c0
       -1.6181608 -0.43432072 -1.0808665 -3.084965
000180 3d df 3e c0 60 f4 80 be 33 30 26 c0 19 8d 3f c0
       -2.9823754 -0.25186443 -2.5966918 -2.992987
000190 74 9e 4a c0 bf 83 b3 bf 82 70 10 c0 e0 66 9b bd
       -3.1659212 -1.4024581 -2.256867 -0.07587981
0001a0 4b 97 12 c0 05 51 33 c0 91 34 f8 3e ec 74 a0 3e
       -2.2904842 -2.80182 0.48477605 0.31339204
0001b0 70 85 51 c0 7a 33 41 c0 03 bc ec bf 94 bb 27 c0
       -3.2737694 -3.0187669 -1.8494877 -2.6208239
0001c0 1f 4d f4 bd fd 55 d1 3d 6c 4a 35 c0 92 e2 99 bf
       -0.11928772 0.10221479 -2.8326674 -1.2022269
0001d0 70 ea c1 bf 60 59 cb 3d dd 8a 17 bf 2b b0 2d c0
       -1.514967 0.09929156 -0.59196264 -2.7138774
0001e0 25 e5 fb be 91 4d 1f be 5a 01 fe be cc 7f 5d bf
       -0.4919826 -0.15556933 -0.49610406 -0.8652313
0001f0 a3 63 07 c0 f5 d6 08 bf 8d 49 86 bf 61 a9 4b c0
       -2.1154563 -0.53453 -1.0491196 -3.182213

layers.0.uih.r_weight f4 [32, 32]
000000 5d aa d9 bd a8 ed 55 3d 28 9d b0 bd c7 0f 56 be
       -0.10628197 0.0522286 -0.08623725 -0.20904456
000010 bf a9 fb 3d da bd a5 bd b8 35 58 be 24 39 52 3e
       0.12288236 -0.08092852 -0.21114242 0.2052961
000020 6c d9 95 3d c9 31 c8 bd ed d8 84 3d 06 14 34 3d
       0.073168606 -0.09775121 0.06486688 0.04396441
000030 9e 33 11 3d f4 1f ec 3d 36 21 d6 3c 42 e7 11 3e
       0.035449617 0.11529532 0.026138883 0.14248374
000040 99 3f 87 3e 6b 57 20 3e 29 49 e5 bd e7 71 23 be
       0.2641571 0.15658347 -0.11195595 -0.15961419
000050 c3 6b 58 bd 5b f4 38 3e 14 ec 54 bd 1e 97 56 3d
       -0.052837145 0.18061964 -0.051982954 0.05239021
000060 50 9a 4d bd 4d 44 ec bc fd ba ae bc 47 c0 8c be
       -0.050195992 -0.028841162 -0.021329397 -0.27490446
000070 2d 9f a5 bc ab eb c3 3e 2f 61 83 bd bf 27 06 3c
       -0.020217502 0.38265738 -0.06415021 0.008188187
000080 3e 72 bf 3e 16 67 73 be c6 b9 ba bd 02 6e 57 be
       0.37391847 -0.23769793 -0.09117465 -0.21038058
000090 f2 59 f8 3e 68 c7 ae 3e 46 60 0c 3e 72 d3 1d be
       0.48506123 0.3413651 0.137086 -0.15412691
0000a0 20 92 1a 3e 5f 2a 74 be d0 d1 20 bd 57 ef 58 3c
       0.15094805 -0.23844288 -0.039262593 0.013240657
0000b0 69 11 fb 3d 48 0c 83 3e 13 b8 7a bd 5f 25 4d bd
       0.1225918 0.25595307 -0.061210703 -0.050084468
0000c0 06 08 24 bf 95 de 17 bf 72 20 1e 3d 73 e1 ac be
       -0.6407474 -0.5932401 0.03860516 -0.33765754
0000d0 3e 13 bd be ea 03 ee be 7c 9e 59 be d8 fa 33 bd
       -0.36928743 -0.4648736 -0.21251863 -0.043940395
0000e0 dd 39 5e be 25 ad 34 bf f6 e2 1d be 04 fd ff be
       -0.2170176 -0.705767 -0.1541861 -0.49997723
0000f0 8d e3 34 3d 4a e0 34 bf 76 8d 85 3d 9d ab 92 3e
       0.04416232 -0.7065474 0.06521122 0.28646556
000100 a5 a4 47 be 25 1a a8 be d8 0a 5d 3e c6 5b 25 3e
       -0.194964 -0.32832447 0.21586168 0.1614829
000110 9f a3 55 3e 47 b5 9a 3e 0b 27 4b be 42 88 a4 bc
       0.20863198 0.3021643 -0.19839112 -0.020084504
000120 da 3e a8 3c 1b 67 b4 bd 4b ed 4f be 1f 90 c0 bd
       0.020537782 -0.08808728 -0.20305364 -0.09402489
000130 ac bd cb 3d dd a9 5e 3e 4d 97 3f 3c c4 fd 9a 3e
       0.099482864 0.21744485 0.011693788 0.30271733
000140 d1 77 8a bd 73 b2 a3 3e 16 a6 23 be be 2b ec bc
       -0.067611344 0.31972083 -0.15981326 -0.028829452
000150 5f 55 52 3e 95 25 e0 bd 42 28 03 3c c7 bb 2c be
       0.20540379 -0.10944668 0.008005204 -0.16868506
000160 65 ff 75 3e 83 20 86 3e 8d a8 2d be 9e bf bc bd
       0.24023207 0.2619668 -0.16958828 -0.092162356
000170 28 fc d5 3d 84 dd 3f be f0 7e 84 be 99 d5 39 3e
       0.104484856 -0.18736845 -0.25878096 0.18147887
000180 36 e9 87 3d 2c 05 90 bd f3 e6 92 be 40 bf 58 3e
       0.06636278 -0.070322365 -0.28691825 0.21166706
000190 3c db d7 bd ec a7 3e 3e 7f 43 7f 3c 9a 0b 7f be
       -0.105398625 0.18618745 0.015580057 -0.2490677
0001a0 da 64 60 3e 1f 63 6b be f4 0d e8 bd 01 b9 7c 3d
       0.21913472 -0.2298703 -0.11330786 0.06169987
0001b0 f9 a4 db 3d 97 7d 31 3c da 87 0d 3c 63 ef b8 bc
       0.107248254 0.010833166 0.008638347 -0.022575086
0001c0 67 a9 c6 3c d4 41 d1 bc 0d d0 f5 3d 69 1c f2 bd
       0.0242507 -0.025544085 0.12002573 -0.11821825
0001d0 69 5f 6c ba f9 66 82 3d 6f 69 d7 bb b8 19 20 3e
       -0.0009016903 0.06367297 -0.006573848 0.15634811
0001e0 65 f5 4f bb f6 0e 0d be 9b 69 f7 bd ed 5b ae bc
       -0.003173196 -0.13775238 -0.120806895 -0.021284068
0001f0 74 44 99 bd b7 b0 72 3e e3 42 f4 3d c1 66 c9 bd
       -0.074837595 0.23700224 0.1192682 -0.09834052
000200 91 dc 64 be 62 d7 74 3e 8d 56 d3 3d 89 e2 c9 3c
       -0.22349764 0.23910287 0.103192426 0.024644153
000210 83 72 b8 bd e0 94 0a be 78 24 84 3e 6d c0 46 3e
       -0.090062164 -0.13533354 0.25809073 0.19409342
000220 51 f8 2e 3e 86 df 9d be 15 06 21 be ab 99 41 3d
       0.17086913 -0.30834597 -0.15724976 0.04726569
000230 fa 38 c2 bd 57 29 41 be 4f d5 89 bd 29 a4 1b bd
       -0.09483524 -0.18863426 -0.067301385 -0.037998352
000240 9b 8a 92 3d 79 73 b5 be 00 49 b3 3d 5b d9 c9 bd
       0.07155343 -0.3543966 0.08754158 -0.098559104
000250 c6 59 3b bc 93 df 75 3d ef 6a 87 be 3f 11 e4 bd
       -0.011434978 0.06002767 -0.2644877 -0.11136102
000260 48 f2 e2 bd a4 d4 0f bf 01 27 d1 3e 40 a3 64 3e
       -0.11081368 -0.5618384 0.4085007 0.223279
000270 dc d1 28 3c 5f a4 53 be 0c 59 10 3e 96 5b 9d 3c
       0.010303941 -0.20668171 0.14096469 0.01920871
000280 45 c1 3c 3f 63 79 79 3e 11 9e 85 3e e3 99 be 3e
       0.73732406 0.24362712 0.26097158 0.3722678
000290 ec ef 02 3e 7a c8 e1 3c 00 e3 a8 3d 59 ad 9f be
       0.12786835 0.027561415 0.08246422 -0.3118694
0002a0 62 1b 45 3e d2 97 b8 3e 0c ae 70 be ec 1e 10 be
       0.19248727 0.3605333 -0.23503894 -0.14074296
0002b0 53 92 01 3f 68 0d 29 3f 0a 08 85 3e 4d ed c7 bd
       0.506139 0.6603608 0.25982696 -0.097620584
0002c0 f5 16 8c bd 68 aa 3b bf 93 80 a2 3d f6 3e 55 3e
       -0.06840316 -0.73306894 0.0793468 0.20824799
0002d0 4a 98 4d be 9b 2e 74 bf 96 a1 2b bf b0 08 23 3e
       -0.20077625 -0.95383614 -0.67043436 0.15921283
0002e0 d8 1a c4 3e 78 aa b3 bf 54 2f 32 3f a0 43 2b be
       0.3830173 -1.4036398 0.69603467 -0.16725016
0002f0 e6 8d a1 3d fd fb d0 be 0f 5e da bc a2 15 de 3e
       0.07888393 -0.40817252 -0.026656179 0.4337588
000300 72 a7 25 be d0 85 b6 3e 8c 5e be be 75 18 c0 3d
       -0.16177157 0.35648966 -0.3718151 0.09379665
000310 8c f8 e6 bd 92 a6 db be 1b b8 88 3e 08 99 de 3d
       -0.11277875 -0.4290052 0.2670296 0.10869032
000320 b4 d5 a9 3e 87 0b 88 3e d5 72 ae bc fa 42 92 3e
       0.33170855 0.26571295 -0.02129499 0.28566724
000330 d2 e1 da bd 4e f1 98 be ba c9 bd bd 45 66 a8 3e
       -0.10687603 -0.298716 -0.09266992 0.32890525
000340 87 12 b0 3d 1c 11 8c be 22 5e 2b 3d ed 1d 5e 3e
       0.08597284 -0.27356803 0.04183782 0.21691103
000350 f4 fd cd 3e 68 82 48 3e 5d af 76 3d 20 50 fb bd
       0.40232813 0.19580996 0.060225833 -0.12271142
000360 08 11 e4 3e 62 07 83 3e 4b 19 fd 3d d1 b2 eb bd
       0.44544244 0.2559157 0.1235834 -0.11508716
000370 6b c0 82 be 9a 84 68 3d f0 cc ee be 4b 9f 98 be
       -0.25537428 0.056767084 -0.4664073 -0.2980903
000380 26 95 8c bd 70 2f b3 bd be ed 99 be 1c e5 02 bd
       -0.06864385 -0.08749282 -0.30064195 -0.031956777
000390 67 c5 dd bd 0e d4 ab be 57 07 10 bd 55 a8 3f 3d
       -0.10828667 -0.33560222 -0.03516325 0.046791393
0003a0 b4 25 a5 be b4 20 95 3d 6b 06 9b 3d ff 16 7e 3d
       -0.32255328 0.07281628 0.075695835 0.06203365
0003b0 d6 aa e7 3d 48 e0 40 be 6c 3f 65 3e 65 4e 58 be
       0.11311881 -0.18835557 0.22387475 -0.21123655
0003c0 35 8f 06 3f 0e b4 2f 3f d2 d3 24 bd 41 ec 64 3d
       0.52562267 0.68634117 -0.04024107 0.05588937
0003d0 90 51 c2 3b 36 f6 1c 3f 54 bd a9 3e 8b e8 eb 3d
       0.005930133 0.6131319 0.33152258 0.115189634
0003e0 21 e7 8f bb 11 6d 41 3f 2a cf a8 bc f7 9c eb 3e
       -0.0043915664 0.7555705 -0.020606596 0.46018192
0003f0 21 44 1e 3d 0f e2 4a 3f 45 44 76 3d a4 97 51 bd
       0.03863919 0.7925119 0.0601237 -0.051170006
