models/QLSTM_mse_epochs17.pth (torch, 168347 bytes, 76 tensors)

layers.0.wfx.r_weight f4 [1, 32]
0	0xbf1aeb52	-0.6051532
1	0xbed4613c	-0.41480434
2	0xbf1c3652	-0.61020386
3	0xbec11de0	-0.37718105
4	0xbf2c1dee	-0.6723317
5	0xbf2ad3b1	-0.66729265
6	0xbf294929	-0.6612726
7	0xbf126e29	-0.5719934
8	0xbe24e2ef	-0.16102193
9	0xbeb18bcf	-0.34676978
10	0xbee3375e	-0.4437818
11	0xbefd46be	-0.49468035
12	0xbf1c04e9	-0.6094499
13	0xbf44dafd	-0.7689665
14	0xbea97b53	-0.331019
15	0xbeccb643	-0.39982805
16	0xbf1dc3f6	-0.6162714
17	0xbdee093c	-0.11622855
18	0xbf3bb629	-0.7332483
19	0x3e19d033	0.15020828
20	0xbf1b6121	-0.6069508
21	0xbeaca115	-0.33716646
22	0xbf0979d6	-0.5370153
23	0xbeb17edc	-0.346671
24	0xbf47e63d	-0.7808569
25	0xbf314586	-0.6924671
26	0xbee97fc4	-0.4560529
27	0xbf57eda2	-0.84346974
28	0xbecfb60e	-0.40568584
29	0xbeec721d	-0.46180812
30	0xbec6ca8d	-0.3882641
31	0xbf7e170b	-0.9925391

layers.0.wfx.i_weight f4 [1, 32]
0	0x3f1abd25	0.6044486
1	0x3ed67714	0.41887724
2	0xbde24a80	-0.11049366
3	0xbd1e024a	-0.0385764
4	0x3de19e6c	0.11016545
5	0x3de14469	0.10999376
6	0x3e48ba42	0.19602302
7	0xbd22f567	-0.039784815
8	0x3e43b8a6	0.19113407
9	0x3dcd6797	0.10029524
10	0xbe01cead	-0.12676497
11	0x3dab9a93	0.08379092
12	0xbe125479	-0.14290036
13	0x3dd75777	0.105147295
14	0x3cf72e00	0.030173302
15	0x3e698181	0.22803308
16	0xbbb3e801	-0.0054903035
17	0x3afdecdf	0.0019372961
18	0x3d26116e	0.040543966
19	0x3e254f92	0.16143635
20	0xbd43d362	-0.047809012
21	0xbc98cbd2	-0.018651877
22	0x3e047b1d	0.12937589
23	0x3d9590e3	0.073030256
24	0xbe99c6ba	-0.3003443
25	0x3e056265	0.13025816
26	0xbd3955a6	-0.045247696
27	0x3e83ec59	0.25766256
28	0x3b9524eb	0.00455152
29	0x3e8476d0	0.25871897
30	0x3e02d9c0	0.12778378
31	0x3d22550b	0.039631885

layers.0.wfx.j_weight f4 [1, 32]
0	0xbdf441a2	-0.11926581
1	0x3eeac840	0.45855904
2	0x3d554c74	0.052074865
3	0xbe0dc092	-0.13842991
4	0x3e6138b7	0.21994291
5	0x3d97597e	0.07390116
6	0xbd9456a7	-0.0724309
7	0xbde1e9e7	-0.110309415
8	0x3e8278cf	0.25482795
9	0x3e89060c	0.26762426
10	0x3c8263e0	0.015916765
11	0x3d32b7f3	0.04363246
12	0x3e0bbdfb	0.1364669
13	0xbdf30299	-0.1186573
14	0x3bb5ce97	0.005548309
15	0x37752e47	1.4613913e-05
16	0xbcd50ad9	-0.02600615
17	0xbd21ee8b	-0.039534133
18	0xbd00c549	-0.031438146
19	0xbd8ffb69	-0.070303746
20	0x3dbe6125	0.092958726
21	0x3d9159bb	0.07097193
22	0x3e9db522	0.30802256
23	0xba05ae99	-0.00050995644
24	0x3c5bff37	0.013427547
25	0xbe27b216	-0.16376528
26	0x3d770581	0.060307983
27	0x3dc9cb64	0.09853247
28	0x3da61c4c	0.08110866
29	0xbe2f2e96	-0.17107615
30	0xbcf79cfb	-0.030226221
31	0xbd9ecc1e	-0.07753776

layers.0.wfx.k_weight f4 [1, 32]
0	0xbe3b43ab	-0.18287532
1	0xbe48cf84	-0.19610411
2	0xbc88a6a5	-0.016681025
3	0xbdbc51c7	-0.09195285
4	0x3cb63679	0.022242771
5	0xbd83ed2c	-0.06441721
6	0xbd0d05cd	-0.03442936
7	0x3e059d58	0.13048303
8	0x3c64130d	0.013920558
9	0xbcbaf7e1	-0.022823276
10	0xbcd37633	-0.025813198
11	0x3db6e54b	0.08930453
12	0x3e26c0b5	0.1628445
13	0xbd526285	-0.051363487
14	0x3d94bb6e	0.07262312
15	0x3db7184e	0.089401826
16	0x3d3dfd52	0.046384163
17	0xbdd16e5f	-0.1022613
18	0xbd93fa9f	-0.072255366
19	0x3c868467	0.016420556
20	0xbd4cf695	-0.050039846
21	0xbc3bfe26	-0.011474168
22	0x3e591360	0.21198797
23	0xbc51f995	-0.012815853
24	0x3eece5eb	0.46269163
25	0xbbc3f2e7	-0.005979884
26	0xbe11db81	-0.1424389
27	0x3e02f2e5	0.1278797
28	0xbd61a7c4	-0.055091634
29	0xbe3d897c	-0.18509477
30	0xbcaef80d	-0.021358514
31	0xbe09787e	-0.1342487

layers.0.wfx.bias f4 [128]
0	0xbf223386	-0.6335987
1	0xbe89fd76	-0.26951188
2	0xbf7983a6	-0.97466505
3	0xbf693e96	-0.91111124
4	0xbf09f7d8	-0.53893805
5	0xbf85c533	-1.0450805
6	0xbf1ca8f5	-0.6119531
7	0xbf59ed01	-0.85127264
8	0xbdee8223	-0.11645915
9	0xbcfa5adf	-0.030560909
10	0xbf386279	-0.7202526
11	0xbe84593f	-0.2584934
12	0xbf41fa84	-0.7577288
13	0xbdf5962a	-0.11991532
14	0xbf480f67	-0.781485
15	0xbe83691d	-0.25666133
16	0xbf2ff73a	-0.6873661
17	0xbf6b9bcd	-0.9203461
18	0xbf839d9a	-1.0282471
19	0xbd710419	-0.0588418
20	0xbf6cc407	-0.92486614
21	0xbf41d00d	-0.75708085
22	0xbf9704d1	-1.1798345
23	0xbf7e1a10	-0.9925852
24	0xbf21436c	-0.629935
25	0xbf689f62	-0.908682
26	0xbf76619b	-0.96242684
27	0xbf47f145	-0.78102523
28	0xbf829a3d	-1.020332
29	0xbf96964a	-1.1764615
30	0xbf7ea183	-0.994652
31	0xbf0d2a1f	-0.55142397
32	0xbf443ce7	-0.7665543
33	0xbf101b5c	-0.5629175
34	0xbf706501	-0.9390412
35	0xbf8af0b1	-1.0854703
36	0xbea10715	-0.31450716
37	0xbf976f20	-1.1830788
38	0xbf430951	-0.7618609
39	0xbf543f1e	-0.8290881
40	0x3cd9f256	0.026604813
41	0xbd9007ec	-0.07032761
42	0xbf461672	-0.77378
43	0xbe7744b1	-0.24147297
44	0xbf2d6608	-0.6773381
45	0xbe000bf6	-0.12504563
46	0xbf5ab3a5	-0.85430366
47	0xbec941d5	-0.39308038
48	0xbf619c17	-0.881288
49	0xbf5be8d9	-0.8590217
50	0xbf7d2d2c	-0.9889705
51	0xbe8113f8	-0.25210547
52	0xbf892fc9	-1.0717708
53	0xbf306bab	-0.6891429
54	0xbf4bd1c1	-0.79616934
55	0xbf8793a1	-1.0591928
56	0xbf1333b7	-0.57500786
57	0xbf8b2402	-1.0870364
58	0xbf83ec11	-1.0306417
59	0xbf941631	-1.1569272
60	0xbf84c20a	-1.0371716
61	0xbf81f0d5	-1.0151621
62	0xbf6dd521	-0.92903334
63	0xbf90b272	-1.1304457
64	0xbf1a6a21	-0.6031819
65	0xbec27d34	-0.37986147
66	0xbf7fcff7	-0.99926704
67	0xbf7d9ee1	-0.99070555
68	0xbead07bb	-0.3379496
69	0xbf7af628	-0.98031855
70	0xbf7242d7	-0.9463324
71	0xbf7a3ef5	-0.97752315
72	0x3e40365a	0.18770733
73	0xbd82802e	-0.063721046
74	0xbf820da2	-1.016041
75	0xbe804985	-0.2505609
76	0xbf155247	-0.5832867
77	0xbe3909db	-0.18070166
78	0xbf5af23b	-0.85525864
79	0xbe965e81	-0.29368976
80	0xbf47262f	-0.7779264
81	0xbf6401fc	-0.8906553
82	0xbf754f78	-0.95824385
83	0xbe092474	-0.13392812
84	0xbf270ae1	-0.65250975
85	0xbf34023e	-0.7031592
86	0xbf6fc4c1	-0.936596
87	0xbf853f33	-1.0409912
88	0xbed7d989	-0.42158154
89	0xbf32d95e	-0.69862926
90	0xbf7ef468	-0.99591684
91	0xbf7b1980	-0.98085785
92	0xbf6a2015	-0.91455203
93	0xbf790ffa	-0.97290003
94	0xbf704e4f	-0.9386949
95	0xbf3d4ee2	-0.7394849
96	0xbf5acee8	-0.85471964
97	0xbf0404e2	-0.5156995
98	0xbf70127d	-0.9377821
99	0xbf7160a2	-0.94288075
100	0xbe8aaff4	-0.27087367
101	0xbf7ed3ed	-0.99542123
102	0xbf1af00e	-0.60522544
103	0xbf77775e	-0.96666515
104	0xbe22e711	-0.15908457
105	0xbd92b1c8	-0.07162815
106	0xbf33a3f6	-0.7017206
107	0xbe3570f2	-0.17718866
108	0xbf5785d0	-0.84188557
109	0xbdc076b5	-0.093976416
110	0xbf4e8db2	-0.8068496
111	0xbea3e009	-0.32006863
112	0xbf441d4d	-0.7660721
113	0xbf732e53	-0.9499256
114	0xbf8d6bd1	-1.1048528
115	0x3d30fa4d	0.043207455
116	0xbf720264	-0.945349
117	0xbf3f1983	-0.746483
118	0xbf75b455	-0.9597829
119	0xbf898e3f	-1.0746535
120	0xbd438f14	-0.04774387
121	0xbf392639	-0.7232395
122	0xbf6f7575	-0.935386
123	0xbf524e0a	-0.8215033
124	0xbf7a1481	-0.97687536
125	0xbf688f9d	-0.90844136
126	0xbf5012a0	-0.8127842
127	0xbf42b8e3	-0.76063365

layers.0.ufh.r_weight f4 [32, 32]
0	0xbb4f5af0	-0.0031639896
1	0xbea2ab82	-0.31771475
2	0xbe319c1a	-0.17344704
3	0x3e57b6ca	0.21065822
4	0xbf293223	-0.6609213
5	0xbe157bda	-0.14598027
6	0x3df0047e	0.11719607
7	0xbcab0718	-0.020877406
8	0x3e0d9c5e	0.1382918
9	0xbeb3e93f	-0.3513889
10	0x3df2a51a	0.11847897
11	0x3ed8f3b3	0.42373428
12	0x3c8b311c	0.01699119
13	0xbf0a811b	-0.5410325
14	0x3d8b3110	0.06796467
15	0x3e51ecbf	0.20500468
16	0xbd8fd68a	-0.07023342
17	0x3dc844c2	0.097787395
18	0xbd8957f2	-0.06706227
19	0xbe17257b	-0.14760391
20	0x3e4dd096	0.200991
21	0xbdeb852a	-0.115000084
22	0x3d433eeb	0.047667425
23	0xbd20e88a	-0.039284267
24	0x3ce780e0	0.028259695
25	0xbe3977cb	-0.18112104
26	0x3e4b05f0	0.19826484
27	0x3cc24a09	0.023716943
28	0x3dfac364	0.12244299
29	0x3d647397	0.055774298
30	0x3d39f18e	0.04539638
31	0x3dbec5bc	0.093150586
32	0xbe36e4f6	-0.17860779
33	0x3df1fc23	0.118156694
34	0x3ddc53dd	0.10758183
35	0x3d9dd26c	0.077061504
36	0x3f54bda8	0.8310189
37	0xbd310154	-0.043214157
38	0x3cb0ffd6	0.021606367
39	0xbdd7b063	-0.1053169
40	0x3e515ce1	0.20445587
41	0x3eeabd45	0.45847526
42	0x3d26b269	0.04069749
43	0x3f020563	0.5078947
44	0x3d0c0adc	0.034190044
45	0x3f02ab65	0.5104278
46	0x3dabd905	0.083910026
47	0x3e0c9f3c	0.13732618
48	0xbdfbb520	-0.12290406
49	0x3eb04b2d	0.34432355
50	0x3c1c809f	0.00955215
51	0x3eb28d26	0.34873313
52	0xbe5479ba	-0.2074956
53	0x3df8d80a	0.12150581
54	0x3e04a6cc	0.12954253
55	0xbddce83b	-0.10786482
56	0xbe19cc18	-0.15019262
57	0x3ee5ffce	0.44921726
58	0xbdf360ce	-0.118836984
59	0x3e810f3d	0.25206938
60	0x3e7efd57	0.24901329
61	0x3e917a2f	0.2841353
62	0x3d016679	0.031591866
63	0x3e07b154	0.13251239
64	0xbe977e13	-0.29588374
65	0xbc19237b	-0.009346838
66	0x3da258cd	0.07927094
67	0xbe1e01c3	-0.1543036
68	0xbe0791b0	-0.13239169
69	0x3d997dac	0.07494673
70	0xbe70d2fc	-0.23517984
71	0xbe0e9c8a	-0.13926902
72	0xbe66a250	-0.22522855
73	0x3df9e047	0.12200981
74	0x3e7b5095	0.24542458
75	0xbe03f909	-0.12887968
76	0xbe2ef448	-0.17085373
77	0x3e7bab95	0.24577172
78	0xbd50e43b	-0.050998908
79	0x3da68b07	0.08131986
80	0xbdf2863b	-0.11842009
81	0x3daeffc1	0.08544875
82	0x3d38a264	0.045076743
83	0x3e2e28cd	0.17007752
84	0xbdc4c54b	-0.09607943
85	0xbe0289fb	-0.12747948
86	0xbea21a29	-0.31660584
87	0xbe548d03	-0.20756917
88	0x3defd40b	0.11710366
89	0x3ea18b70	0.31551695
90	0xbe36e2fa	-0.17860022
91	0xbd25f399	-0.040515516
92	0x3c22b0ad	0.009929818
93	0x39b745f0	0.00034956587
94	0x3e1886d0	0.14895177
95	0x3e02ed66	0.12785873
96	0x3ba1527a	0.004923162
97	0xbde0b034	-0.10971108
98	0xbe61dd35	-0.2205704
99	0x3e45837d	0.1928844
100	0xbdeaebf0	-0.11470783
101	0x3c625d8f	0.013816251
102	0x3db2ddc5	0.087337054
103	0xbd1377bc	-0.03600286
104	0x3c8e5038	0.017372236
105	0x3aa75b4c	0.0012768297
106	0xbe2fe38a	-0.17176643
107	0xbea74a62	-0.32673937
108	0x3dcab44d	0.09897671
109	0x3ea17a33	0.31538543
110	0xbd31f46e	-0.043445997
111	0xbdbff38e	-0.09372626
112	0x3dbbbd64	0.09166983
113	0x3c277dae	0.0102228355
114	0xbe0d6c75	-0.13810904
115	0xbd80dd3d	-0.06292198
116	0x3be61cf6	0.0070224954
117	0xbe1148dc	-0.1418795
118	0xbe4f6707	-0.20254146
119	0xbe814916	-0.25251073
120	0x3e2fb1cb	0.17157666
121	0x3c31368f	0.01081623
122	0x3d8035fa	0.06260295
123	0x3ddebe7b	0.10876175
124	0x3c1f7e17	0.009734652
125	0xbe18760f	-0.14888786
126	0xbd25389f	-0.0403372
127	0x3e859bfb	0.26095566
128	0xbdb9ca97	-0.09071844
129	0x3a25ff4d	0.0006332293
130	0x3e1746bf	0.14773081
131	0x3d0c8478	0.03430602
132	0x3e1851f6	0.14875016
133	0xbe369abc	-0.17832464
134	0x3dd9df7a	0.10638328
135	0xbdfc8d94	-0.123316914
136	0x3d70340c	0.058643386
137	0x3d454124	0.048157826
138	0x3c4c8c2f	0.012484594
139	0x3e8026ce	0.25029606
140	0x3eaff2e2	0.34364992
141	0x3f037b9e	0.513605
142	0x3db12053	0.086487435
143	0x3e56235e	0.20911929
144	0x3ac2efe9	0.0014872524
145	0x3e84a093	0.25903758
146	0x3dd70f5e	0.10500978
147	0x3ecb8771	0.3975177
148	0xbd4588b1	-0.048226062
149	0x3e87cfc2	0.26525694
150	0xbe1eb8cc	-0.15500182
151	0x3df95ba8	0.12175685
152	0x3d9ee6b6	0.07758848
153	0x3e7ca3a9	0.24671806
154	0x3e49904d	0.19683953
155	0x3dbd20b6	0.09234755
156	0xbd02bb2a	-0.031916775
157	0xbca00f3a	-0.01953851
158	0x3e2f467c	0.17116731
159	0x3d4d3710	0.05010134
160	0xbd3e934d	-0.046527196
161	0xbe866aae	-0.26253265
162	0xbe55a173	-0.20862369
163	0x3e6d1e74	0.23156148
164	0x3c65ea3e	0.0140328985
165	0x3de02654	0.109448105
166	0x3d95eb14	0.07320228
167	0x3d21f2e7	0.03953829
168	0xbc2e21d8	-0.010628186
169	0xbd2d7048	-0.042343408
170	0xbe4fdc38	-0.2029885
171	0xbe5f6dc3	-0.21819215
172	0xbe1fb1cb	-0.15595166
173	0x3e7efa05	0.24900062
174	0xbe0ca158	-0.13733423
175	0xbd84e630	-0.06489217
176	0xbe227958	-0.15866601
177	0x3bd3c5dc	0.0064627957
178	0x3d150706	0.03638365
179	0xbcf065e4	-0.02934546
180	0xbe969a89	-0.29414776
181	0x3e0689c1	0.13138486
182	0xbddb4b56	-0.107077286
183	0x3c8957f8	0.01676558
184	0x3df3dbfb	0.11907192
185	0xbcba281e	-0.022724207
186	0x3e490ce7	0.19633828
187	0xbd42e215	-0.04757889
188	0x3e81e128	0.25367093
189	0x3d52711c	0.0513774
190	0x3e0164d5	0.1263612
191	0x3d3b69f4	0.04575534
192	0x3dfeb730	0.12437284
193	0x3d176ffa	0.036972024
194	0xbc88b23f	-0.016686557
195	0xbe35167e	-0.17684361
196	0x3e69b158	0.22821558
197	0x3c8b4bb5	0.017003873
198	0xbde374d4	-0.111062676
199	0x3e35c8f9	0.17752446
200	0x3e2bf737	0.16793524
201	0xbde525cd	-0.111888506
202	0xbdbc1a66	-0.091847226
203	0x3e104812	0.14089993
204	0xbcee79f8	-0.029110894
205	0x3df46298	0.11932868
206	0x3d9ecd1d	0.07753966
207	0xbe0ab5bd	-0.1354589
208	0xbdcb2b27	-0.0992034
209	0x3d6d4e2e	0.057935886
210	0xbdee4b2a	-0.1163543
211	0x3e5d0e0f	0.21587394
212	0x3e5b5b0c	0.2142145
213	0x3d1ec78b	0.038764518
214	0x3e2676a8	0.16256201
215	0xbe1335f1	-0.14376046
216	0x3e097388	0.13422978
217	0xbd999659	-0.0749938
218	0xbda57de8	-0.08080655
219	0x3ea01086	0.31262606
220	0x3db724ef	0.089425914
221	0x3de230a4	0.11044434
222	0x3d93aa94	0.072102696
223	0x3c9e07ab	0.019290766
224	0x3c824cd4	0.015905775
225	0xbdbf49c4	-0.093402416
226	0x3d05f917	0.032708254
227	0x3da6a34f	0.081366174
228	0xbe6dca1c	-0.2322163
229	0x3d49d579	0.04927585
230	0x3e633455	0.22187932
231	0xbdc6841b	-0.09693166
232	0x3e0280c9	0.1274444
233	0x3d306de6	0.043073557
234	0x3e7fbd52	0.24974564
235	0x3e8d2883	0.2756997
236	0x3e4ab60c	0.19796008
237	0x3e0cfbe9	0.13767971
238	0x3d84a22d	0.06476245
239	0x3e0de7b2	0.13857916
240	0x3c4769b4	0.012171198
241	0xbd927c97	-0.0715267
242	0x3dcd6f59	0.100310035
243	0x3d698b22	0.057017453
244	0x3e8d6777	0.27618
245	0x3d8024fa	0.06257053
246	0x3e812864	0.25226128
247	0xbe537d08	-0.20653164
248	0xbe24f1a8	-0.1610781
249	0xbccb35a9	-0.02480586
250	0x3e1ed0d8	0.15509355
251	0x3a8b4997	0.001062679
252	0xbdbc42e8	-0.09192449
253	0x3d31ff20	0.043456197
254	0x3d74c24d	0.059755612
255	0xbdd52a9d	-0.104085185

layers.0.ufh.i_weight f4 [32, 32]
0	0xbc6919dc	-0.014227357
1	0x3e545598	0.20735776
2	0xbdc8efc0	-0.09811354
3	0x3cf5acdc	0.029989652
4	0x3e9c7398	0.3055694
5	0x3d1699b7	0.036767688
6	0x3da33a1a	0.07970066
7	0x3d360136	0.04443475
8	0x3d8cfb01	0.06883813
9	0x3d8d69a1	0.06904913
10	0x3d8f8615	0.07007996
11	0x3e59eb93	0.2128127
12	0xbeac339e	-0.3363313
13	0x3cb5e147	0.022202147
14	0x3d802349	0.0625673
15	0xbd86d41d	-0.06583426
16	0xbd42a2e0	-0.04751861
17	0x3dbad599	0.09122772
18	0xbc0f047a	-0.008729095
19	0x3d3b71af	0.045762714
20	0x3d5953f1	0.05305857
21	0x3b2d6e6a	0.0026463517
22	0x3d7d3e58	0.061827034
23	0xbddcc512	-0.10779776
24	0x3e898c22	0.26864725
25	0x3e29c8e2	0.16580537
26	0x3cac125e	0.021004852
27	0xbdb7c06b	-0.08972248
28	0x3e509c8e	0.20372221
29	0x3cc02550	0.023455292
30	0x3d5a7831	0.05333728
31	0x3de305e0	0.11085105
32	0xbe4ce70a	-0.2001001
33	0xbd831755	-0.064009346
34	0x3d0eddff	0.03487968
35	0x3d3a28b6	0.04544898
36	0xbc2af36d	-0.010434014
37	0xbd1f93a9	-0.03895918
38	0x3cf98e71	0.03046343
39	0xbd090e41	-0.03346086
40	0x3c1157da	0.008871043
41	0x3cf7bbeb	0.030240973
42	0x3d286177	0.041108575
43	0xbdfb6d03	-0.12276652
44	0x3e0eef5c	0.13958496
45	0x3c25ff4c	0.010131668
46	0x3dfa9266	0.122349545
47	0xbd219283	-0.039446365
48	0xbce6c9a1	-0.028172316
49	0xbc68f7b6	-0.014219215
50	0x3e19f730	0.15035701
51	0xbe931486	-0.28726596
52	0xbc2e48f1	-0.010637508
53	0x3be8e4e8	0.007107366
54	0x3e1ba523	0.15199713
55	0x3af25418	0.0018488197
56	0x3caa5a03	0.020794874
57	0x3e0c986e	0.13730022
58	0xbde4d474	-0.11173335
59	0xbe224e62	-0.15850213
60	0x3e5fcb00	0.21854782
61	0x3d18e379	0.03732631
62	0x3d8da0e5	0.06915454
63	0xbe1814db	-0.14851706
64	0xbc96ea4d	-0.01842227
65	0x3ab425b9	0.0013744152
66	0x3e002eab	0.12517802
67	0xbcb48860	-0.022037685
68	0x3bc3f2ba	0.005979863
69	0xbc62426b	-0.013809781
70	0x3e05cbac	0.13065976
71	0x3d95bc37	0.0731129
72	0xbd85140f	-0.064979665
73	0xbb552ce6	-0.0032527982
74	0x3ca28d0e	0.01984265
75	0x3d9f7c86	0.07787423
76	0x3e425846	0.18978986
77	0xbdc6f82b	-0.09715303
78	0xbd3e7e19	-0.046506975
79	0x3d447212	0.04796035
80	0x3c90f4d0	0.01769486
81	0xbdf67c9d	-0.12035487
82	0xbba28634	-0.004959846
83	0x3d64d228	0.055864483
84	0x3e0ab6d8	0.13546312
85	0x3d1aeedd	0.037825454
86	0xbbe81b12	-0.007083305
87	0xbd25aee3	-0.040449988
88	0x3e368470	0.17823958
89	0xbd3b071b	-0.045661073
90	0x3e25d2e5	0.16193731
91	0xbd9fb563	-0.07798269
92	0x3d8c5ed5	0.06854025
93	0xbd367ce9	-0.044552717
94	0x3c2bb806	0.010480886
95	0x3ab9e504	0.0014182632
96	0xbe37cf8b	-0.17950265
97	0xbe37fff4	-0.17968732
98	0x3d5ba197	0.0536209
99	0x3da4aadc	0.08040401
100	0xbe4de979	-0.20108594
101	0x3bf75826	0.00754835
102	0x3dfc825b	0.12329551
103	0xbdf47d2d	-0.11937938
104	0xbda760b0	-0.081727386
105	0xbcd389b1	-0.025822492
106	0xbc6fcf6f	-0.014636858
107	0xbd998a76	-0.074971125
108	0x3d96c284	0.0736132
109	0xbe0c4bbe	-0.13700768
110	0x3e2e50f6	0.17023072
111	0x3d4b818a	0.049684085
112	0xbdf28b4b	-0.11842974
113	0xbc6c3245	-0.014416282
114	0x3d807fb7	0.0627436
115	0xbcfdbf7f	-0.030975102
116	0xbdb6d24f	-0.08926832
117	0x3d05e877	0.0326924
118	0x3d33197b	0.043725472
119	0x3d8cd322	0.06876208
120	0xbbf25bc2	-0.0073961923
121	0x3e384174	0.17993718
122	0xbbe10662	-0.006867216
123	0x3c86de44	0.016463406
124	0xbdb11c72	-0.08648004
125	0x3dcd316d	0.10019193
126	0x3e35377e	0.1769695
127	0x3d789d2a	0.06069676
128	0xbe3bd730	-0.18343806
129	0xbeb8fc24	-0.36129868
130	0x3dd6ff03	0.104978584
131	0x3da30830	0.07960546
132	0xbce67fcd	-0.028137112
133	0x3dc09592	0.09403528
134	0x3e0d7af9	0.13816442
135	0x3e454864	0.19265896
136	0xbe569cbe	-0.2095823
137	0x3bd32954	0.0064441357
138	0xbb2e2832	-0.0026574251
139	0xbe276eae	-0.16350815
140	0xbcb90d87	-0.022589458
141	0x3d45e9f2	0.04831881
142	0x3e348d49	0.17632021
143	0xbd425ec9	-0.047453675
144	0xbce536ee	-0.027980294
145	0x3d26e8ee	0.040749483
146	0x3c6594a7	0.014012492
147	0xbe571992	-0.21005848
148	0xbd584dcf	-0.05280858
149	0x3cc34b4d	0.023839617
150	0x3e55494a	0.20828739
151	0xbd4aca28	-0.049509197
152	0x3e41dbf7	0.18931566
153	0x3ccfe9d8	0.02538006
154	0xbd7f0b72	-0.062266774
155	0xbe83b376	-0.25722855
156	0xbc86421a	-0.016388942
157	0xbd4cf0f0	-0.050034463
158	0x3bf88867	0.00758462
159	0x3b8f1c94	0.0043674204
160	0xbe143326	-0.14472637
161	0x3ce0c775	0.027438859
162	0x3d19527c	0.03743218
163	0xbd32a8c2	-0.04361797
164	0x3d8b1c34	0.06792489
165	0x3cc92a6b	0.02455636
166	0xbc04a417	-0.008095763
167	0x3dd5eba6	0.10445337
168	0x3d430d3f	0.047620054
169	0x3dbb2cbd	0.091393925
170	0xbd4818ba	-0.048851706
171	0xbe73938f	-0.23786758
172	0x3bdd4079	0.0067520705
173	0xbd0f57f3	-0.034995984
174	0x3e08b662	0.13350824
175	0xbc243390	-0.010022059
176	0xbd5dd888	-0.05416158
177	0xbbe90c43	-0.0071120574
178	0xbe096485	-0.13417251
179	0xbda0367c	-0.07822892
180	0xbbdda5e4	-0.0067641605
181	0x3c1b880e	0.009492887
182	0x3ca0b3f3	0.019617056
183	0xbd8f3c1a	-0.06993885
184	0x3db704c4	0.08936456
185	0xbca315cd	-0.019907856
186	0xbe2253bd	-0.15852256
187	0x3da2319a	0.07919617
188	0xbdafd7af	-0.0858606
189	0xbe263ced	-0.16234179
190	0x3adcd864	0.0016849157
191	0xbe0a78b5	-0.13522609
192	0xbd8d7baf	-0.069083564
193	0x3e3895f0	0.18025947
194	0xbc089743	-0.008336845
195	0xbce545c7	-0.027987374
196	0x3df4ea09	0.11958701
197	0xbdf0554a	-0.117350176
198	0x3d8c826d	0.06860814
199	0x3e190ead	0.14947005
200	0xbe525471	-0.20540024
201	0x3e629f6f	0.22131132
202	0xbb9d2e7a	-0.0047968
203	0x3e282e32	0.16423872
204	0x3d307faa	0.0430905
205	0x3e125a2d	0.14292212
206	0xbe08bd81	-0.1335354
207	0x3d393e7b	0.0452256
208	0x3cb20132	0.021729086
209	0x3d9b2133	0.075746916
210	0xbbb18caa	-0.00541838
211	0x3e0e6842	0.13906959
212	0xbd99e54b	-0.07514437
213	0x3ddc0921	0.10743929
214	0xbe25f02f	-0.16204904
215	0xbd15a149	-0.036530767
216	0x3c1690dc	0.009189811
217	0xbd978bf7	-0.07399743
218	0x3dc87171	0.09787262
219	0xbc08eef5	-0.008357753
220	0x3cd1057c	0.02551531
221	0x3db5f419	0.088844486
222	0xbe5376c3	-0.20650773
223	0x3d328301	0.043581966
224	0x3d03748b	0.032093566
225	0xbdcdb3fa	-0.100440934
226	0x3db6e860	0.08931041
227	0x3c3ffc2a	0.011717835
228	0xbdbb1151	-0.09134162
229	0xbd127252	-0.035753556
230	0x3c01477e	0.00789058
231	0xbc4d9add	-0.012549129
232	0x3d29522f	0.041338142
233	0x3e022a17	0.12711369
234	0xbdec2e4a	-0.115322664
235	0xbd942688	-0.07233912
236	0xbded5294	-0.11588016
237	0x3ea6d594	0.32584822
238	0x3db400c2	0.08789207
239	0x3cef9e94	0.02925042
240	0xbd3ec137	-0.046570983
241	0xbd26ab29	-0.040690575
242	0xbda8178b	-0.082076155
243	0xbc7159b5	-0.0147308605
244	0xbceb7f2d	-0.028747166
245	0x3e2af874	0.1669634
246	0x3e0d6e2e	0.13811561
247	0x3d12f5e7	0.035879042
248	0xbd5e725d	-0.054308284
249	0x3e7403e2	0.23829606
250	0x3d924813	0.07142653
251	0x3df90eb5	0.12161008
252	0x3d91a6c9	0.0711189
253	0x3d8e631c	0.06952497
254	0x3dc3a4f5	0.095529474
255	0x3dbc67f8	0.09199518

layers.0.ufh.j_weight f4 [32, 32]
0	0xbd29e0c0	-0.041474104
1	0x3e1cf477	0.15327631
2	0x3da9631a	0.08270855
3	0xbd9c18fa	-0.076219514
4	0x3dd69ee2	0.10479523
5	0x3c9b00ac	0.018921219
6	0xbd17dcfe	-0.03707599
7	0x3e0801f5	0.13281997
8	0xbd45f5a7	-0.048329975
9	0x3e74a45c	0.23890823
10	0xbcd8a69f	-0.026446639
11	0x3eae048d	0.33987847
12	0x3d6a6953	0.05722935
13	0x3e1a9a62	0.15097955
14	0x3e9f563d	0.31120482
15	0x3e8d66ab	0.27617392
16	0xbd842ddb	-0.06454059
17	0x3d5bc107	0.053650882
18	0xbd713e2d	-0.058897186
19	0x3e1e206e	0.15442058
20	0x3d65ef8e	0.05613666
21	0x3e2c110c	0.16803378
22	0x3e947dc6	0.29002208
23	0x3e41ce1a	0.18926278
24	0x3e080c73	0.13285999
25	0x3bd90448	0.006622825
26	0x3d818475	0.06324092
27	0x3d7c6436	0.061619006
28	0x3b4d72c3	0.003134892
29	0xbe0bcedc	-0.1365313
30	0xbd1b3d7c	-0.037900433
31	0x3e0406ea	0.12893263
32	0x3c59b2dc	0.013287272
33	0xbe94a68a	-0.2903331
34	0xbc11222e	-0.008858247
35	0x3e2426c4	0.16030413
36	0xbe5e8688	-0.21731007
37	0x3dd3e72e	0.103468284
38	0x3cf88ebf	0.030341504
39	0xbd9adebe	-0.07562016
40	0x3d322180	0.04348898
41	0xbdbed3b3	-0.09317722
42	0xbb94ce04	-0.0045411605
43	0x3d670f7a	0.056411244
44	0xbd88ac41	-0.0667348
45	0xbc1b7977	-0.009489409
46	0x3d9063b7	0.07050269
47	0xbd93f57a	-0.07224555
48	0x3dfd5b8e	0.12370978
49	0x3dd0de86	0.10198693
50	0x3d7beb14	0.061503485
51	0xbd803df5	-0.06261817
52	0xbd574b99	-0.05256233
53	0xbdd7a746	-0.10529952
54	0x3dde94fd	0.10868261
55	0xbdb5604b	-0.08856257
56	0xbcd4fe51	-0.026000174
57	0x3e406e35	0.1879204
58	0xbe1f29be	-0.15543267
59	0x3d08993b	0.033349257
60	0x3e04fcc1	0.12987043
61	0xbdd53931	-0.10411299
62	0xbd96f8b6	-0.073716566
63	0x3dd4296e	0.103594646
64	0xbdedcfa9	-0.11611874
65	0xbe880d2d	-0.26572552
66	0xbd552c91	-0.052044455
67	0x3aa12c42	0.0012296515
68	0xbe77bbb4	-0.24192697
69	0xbcabffc6	-0.020995986
70	0xbe388d9f	-0.18022774
71	0xbd418abf	-0.04725146
72	0xbd4c6904	-0.04990484
73	0xbd19ef11	-0.037581507
74	0xbded77aa	-0.1159509
75	0xbe3015a5	-0.17195757
76	0x3dc33870	0.09532249
77	0xbe7afc10	-0.24510217
78	0xbd43e067	-0.04782143
79	0x3d044124	0.032288685
80	0xbdb1cf83	-0.08682158
81	0xbe2c4694	-0.16823798
82	0x3d52234f	0.051303204
83	0xbdf28066	-0.11840896
84	0xbe090859	-0.1338209
85	0xbe16ae27	-0.14714871
86	0xbd66f834	-0.05638905
87	0x3b677028	0.0035314653
88	0x3d554eb1	0.052077
89	0xbe9a1c92	-0.30099922
90	0xbdb640e6	-0.08899097
91	0xbdd1fa4e	-0.1025282
92	0xbdb7a11c	-0.08966276
93	0xbdecb5d7	-0.11558121
94	0xbd5207c8	-0.051276952
95	0xbe94b790	-0.29046297
96	0x3c1fb461	0.0097475955
97	0xbe23df84	-0.16003233
98	0x3a5c96b8	0.0008414793
99	0x3d56730f	0.052355822
100	0xbd43f7ac	-0.04784362
101	0xbda2312d	-0.07919536
102	0x3d916fc3	0.07101395
103	0xbddcc573	-0.10779848
104	0xbd572de0	-0.052533984
105	0xbd04e917	-0.032448854
106	0xbd90ea06	-0.070758864
107	0xbd32d731	-0.043662254
108	0x3a6c09b8	0.0009004134
109	0xbe9b209a	-0.3029831
110	0xbe50d6a0	-0.20394373
111	0xbd94b9de	-0.07262014
112	0x3c921d30	0.017836183
113	0x3d192574	0.037389234
114	0xbcfaae03	-0.030600553
115	0x3d476835	0.048683364
116	0x3d5736fb	0.052542668
117	0xbd820503	-0.06348612
118	0xbd2d7a24	-0.04235281
119	0xbd1c9ef4	-0.038237527
120	0xbe6353c2	-0.2219992
121	0xbe616d4a	-0.22014347
122	0xbe2e0345	-0.16993435
123	0xbc170a39	-0.009218746
124	0x3d471ceb	0.048611563
125	0x3c435d7c	0.011924144
126	0x3e005759	0.1253332
127	0xbe452dc4	-0.1925574
128	0x3d3d185e	0.046165816
129	0xbe96da2e	-0.29463333
130	0x3c1adc59	0.009451949
131	0x3c78cbe6	0.015185332
132	0xbd989c11	-0.07451642
133	0xbd83bbdd	-0.064323165
134	0xbd779431	-0.06044406
135	0xbe07ead3	-0.13273172
136	0x3dd018fb	0.10161015
137	0x3e629bb5	0.2212971
138	0x3d80382e	0.062607154
139	0x3e1462e4	0.14490849
140	0x3cbc9f54	0.023025192
141	0x3e6edcb3	0.23326378
142	0xbd9a9e46	-0.075497195
143	0x3cdee956	0.027210873
144	0x3cb0429f	0.021516142
145	0x3e9033f6	0.28164643
146	0xbd0990a7	-0.033585217
147	0x3e07da9f	0.13266991
148	0xbd73242a	-0.05936066
149	0xbd5c0f61	-0.053725604
150	0x3e3240bc	0.17407507
151	0x3ca75c89	0.020429866
152	0x3da8dbc5	0.08245043
153	0x3e315c18	0.17320287
154	0x3d5b5baa	0.053554215
155	0x3e0383ca	0.12843242
156	0x3d91ed58	0.07125348
157	0xbd22d34c	-0.03975229
158	0x3d8dd923	0.06926181
159	0x3e464c78	0.19365108
160	0x3c9b9e25	0.018996308
161	0x3dbf1ff2	0.09332265
162	0xbe0add02	-0.1356087
163	0x3dd092f3	0.10184278
164	0xbb233969	-0.0024906045
165	0xbd6f1fde	-0.05838
166	0xbd371fdc	-0.044708118
167	0x3e2bbb80	0.16770744
168	0x3dd49b3f	0.10381173
169	0xbc96bdd4	-0.018401064
170	0x3d560abb	0.052256327
171	0xbc8ab226	-0.01693065
172	0x3e12b7e4	0.14327961
173	0xbdfe2ecb	-0.12411269
174	0xbdebcf36	-0.11514132
175	0xbcc86e02	-0.024466518
176	0x3d9e5f52	0.07733025
177	0x3d115b9f	0.035487767
178	0xbdfcd206	-0.12344746
179	0x3d23430f	0.039858874
180	0x3d80571b	0.06266614
181	0xbc7ba495	-0.015359064
182	0x3d1769f2	0.03696627
183	0xbd766547	-0.06015518
184	0x3d0a7536	0.033803187
185	0xbd579483	-0.052631866
186	0x3d8bbf9f	0.06823658
187	0x3e3817fe	0.17977902
188	0xbd047177	-0.03233477
189	0xbd9078a3	-0.0705426
190	0x3df1ead8	0.11812371
191	0xbde7c222	-0.11316325
192	0x3d76ac9f	0.060223218
193	0xbdc6644c	-0.09687099
194	0xbd851f72	-0.06500138
195	0xbcadd1c9	-0.021218197
196	0x3e2ecea1	0.1707101
197	0xbcccdb58	-0.025006935
198	0xbb67f118	-0.0035391506
199	0x3dde321a	0.108494
200	0x3d9ea5d8	0.07746476
201	0x3e1b8860	0.15188742
202	0x3d0b93c3	0.034076463
203	0xbd211b61	-0.03933275
204	0xbc08417f	-0.008316397
205	0xbdaff221	-0.08591104
206	0x3db200b1	0.08691538
207	0xbe09166a	-0.13387457
208	0xbdd3d37c	-0.10343072
209	0xbe18df6a	-0.14928976
210	0x3c84189d	0.016125018
211	0xbe5978f3	-0.21237545
212	0x3cb82635	0.022479156
213	0x3d99ce25	0.07510022
214	0x3e748457	0.23878609
215	0x3c163a12	0.0091691185
216	0x3dacad93	0.08431544
217	0xbc6c81cf	-0.014435246
218	0xbdb34ba2	-0.0875466
219	0xbd72ebdf	-0.059306975
220	0x3d62a6ae	0.05533474
221	0x3c667c93	0.014067787
222	0x3dbe2916	0.0928518
223	0xbbc009fa	-0.0058605643
224	0xbdb7a9e4	-0.08967951
225	0x3dab0102	0.083498016
226	0x3dfdb488	0.12387949
227	0x3d626987	0.05527642
228	0xbdbe320a	-0.09286888
229	0x3c853942	0.016262654
230	0x3dca006f	0.09863364
231	0x3d2c0ab7	0.042002406
232	0x3df54db5	0.11977712
233	0xba138d9e	-0.00056287076
234	0xbe0ffceb	-0.14061324
235	0xbe233e10	-0.15941644
236	0x3c747cec	0.014922362
237	0x3e69d7c6	0.22836217
238	0x3da29fa9	0.07940609
239	0xbd01dd45	-0.03170516
240	0x3dcc3263	0.09970548
241	0x3d7ff360	0.06248796
242	0x3d6b8d33	0.057507705
243	0xbd851f3f	-0.065001
244	0xbdac5280	-0.08414173
245	0xbb6a1b92	-0.0035722
246	0x3e303ae5	0.17209966
247	0x3c3ef524	0.011655126
248	0x3dfdb856	0.12388675
249	0x3e73b9ed	0.23801394
250	0xbcbad090	-0.022804528
251	0x3d4f733c	0.050647005
252	0x3d93aa6c	0.0721024
253	0xbdb4673c	-0.08808753
254	0xbdb12e87	-0.086514525
255	0x3dceb848	0.100937426

layers.0.ufh.k_weight f4 [32, 32]
0	0xbcee61dc	-0.029099397
1	0xbc125304	-0.008930925
2	0xbd170af8	-0.036875695
3	0xbe2d0c74	-0.16899282
4	0x3d48c048	0.0490115
5	0x3d147e3b	0.036253195
6	0xbca1736e	-0.019708361
7	0xbe07480d	-0.13211079
8	0xbe13ad54	-0.14421588
9	0xbd25db5c	-0.0404924
10	0x3d5a1c45	0.053249616
11	0x3d3bf972	0.045892186
12	0x3c9011d3	0.017586624
13	0xbe13a698	-0.14419019
14	0x3d95efe5	0.07321147
15	0x3e0be083	0.13659863
16	0x3cf29c08	0.029615417
17	0x3e29bd28	0.16576064
18	0xbdbc8614	-0.09205261
19	0xbd93ff6a	-0.07226451
20	0xbdf35cea	-0.11882956
21	0x3e03671a	0.12832299
22	0x3e305883	0.17221265
23	0x3e079604	0.1324082
24	0xbdb1abdb	-0.08675357
25	0xbe32832e	-0.17432854
26	0xbe56820a	-0.20948043
27	0x3d005918	0.031334966
28	0x3d68ef54	0.056868866
29	0xbd0c2740	-0.03421712
30	0x3d917f4f	0.0710436
31	0x3e0984ed	0.13429613
32	0x3df5f6ec	0.12009987
33	0x3e2f678b	0.17129342
34	0x3c0b1229	0.008488216
35	0x3d3af2ed	0.04564183
36	0xbe5b2bb1	-0.21403386
37	0xbcba9c7b	-0.022779694
38	0xbe0dffaa	-0.1386706
39	0x3b9cb9d0	0.0047828928
40	0xbdf37ba6	-0.118888184
41	0x3d841559	0.06449384
42	0xbd8e18c5	-0.06938318
43	0xbdf659a0	-0.12028813
44	0xbc8579c1	-0.016293408
45	0x3e1facf7	0.15593325
46	0x3d86ee82	0.065884605
47	0xbcc008a4	-0.02344162
48	0xbdd3a54a	-0.10334261
49	0xbe473d39	-0.19456948
50	0x3d793ce7	0.060849097
51	0xbe533917	-0.20627247
52	0x3b4411a7	0.0029917748
53	0xbd2e7b5b	-0.04259811
54	0xbc8dd875	-0.017315129
55	0x3d1b89ad	0.037973095
56	0xbe5a5189	-0.21320166
57	0xbcfba256	-0.030717056
58	0x3dfcf84a	0.12352045
59	0xbdcba875	-0.0994424
60	0xbca6c4b6	-0.020357471
61	0xbde2beb8	-0.11071533
62	0xbdcee3a8	-0.10102016
63	0xbe26b249	-0.16278948
64	0xbd931cfc	-0.07183263
65	0xbe674f6a	-0.22588888
66	0xbd831a45	-0.06401495
67	0x3d471828	0.04860702
68	0xbd7beca5	-0.06150498
69	0xbdd012db	-0.101598464
70	0x3e0611a7	0.13092671
71	0x3d54f6e1	0.051993255
72	0x3ce69c0c	0.02815058
73	0xbd886de9	-0.06661589
74	0x3de3e5b6	0.11127798
75	0x3d28a2ad	0.041170765
76	0xbd2024ca	-0.039097585
77	0xbe47447f	-0.19459723
78	0xbe1fa280	-0.15589333
79	0x3d5f9260	0.054582953
80	0x3ad0c68b	0.0015928311
81	0xbd47c9ee	-0.04877656
82	0xbd8b01eb	-0.06787475
83	0xbde0c4f3	-0.10975065
84	0x3d304439	0.043033812
85	0xbdc031ea	-0.0938452
86	0xbd0b647f	-0.034031387
87	0xbbf2c6ad	-0.007408938
88	0x3de18f74	0.1101369
89	0xbde9f258	-0.114231765
90	0x3d793de6	0.060850047
91	0x3d8f2f85	0.069914855
92	0xbda8256c	-0.08210263
93	0x3cbcf300	0.02306509
94	0x3c69846d	0.014252764
95	0xbe499aa6	-0.196879
96	0xbd809833	-0.0627903
97	0xbdd1e1d6	-0.10248153
98	0xbe04a03b	-0.12951748
99	0x3da5a8a8	0.08088809
100	0x3e945739	0.28972796
101	0xbc5966ae	-0.01326911
102	0x3e7bd24c	0.2459194
103	0xbcef9c73	-0.029249405
104	0x3e0dc293	0.13843755
105	0xbd123ba5	-0.035701413
106	0x3d29fc15	0.04150017
107	0xbd45572f	-0.048178848
108	0xbd0ed4cc	-0.034870908
109	0x3df78426	0.12085752
110	0xbcb4d59f	-0.022074519
111	0xbda6c644	-0.08143285
112	0x3dc07b2e	0.09398495
113	0x3e2ed11f	0.17071961
114	0x3c57ee35	0.013179352
115	0x3d886728	0.066603005
116	0xbdd79c77	-0.1052789
117	0x3db6719b	0.08908387
118	0xbd35ce74	-0.044386342
119	0x3d567074	0.052353337
120	0x3d4d12c4	0.050066724
121	0x3ec1a594	0.3782164
122	0x3b83d5b7	0.0040232795
123	0x3abe6102	0.001452476
124	0x3d2d88f1	0.042366926
125	0x3d926526	0.07148199
126	0x3d18fa38	0.037348002
127	0x3e13417d	0.1438045
128	0x3c66080f	0.014040007
129	0xbd6e25f2	-0.058141656
130	0xbd5a55e3	-0.053304564
131	0x3d353e5f	0.044248935
132	0x3e13243d	0.14369293
133	0xbe050159	-0.12988795
134	0x3d23c39f	0.03998148
135	0xbe033e24	-0.12816674
136	0xbe4b3ab8	-0.19846618
137	0x3db9ae7a	0.09066482
138	0x3de65205	0.11246113
139	0xbd7d0f71	-0.061782304
140	0x3d4a5e1b	0.049406152
141	0x3ddaf9e2	0.106921926
142	0x3e19e7e9	0.15029873
143	0x3ca6dac0	0.02036798
144	0xbd89bbf0	-0.06725299
145	0xbe1b0a3b	-0.15140621
146	0x3d16fee5	0.03686418
147	0xbdd33056	-0.10311954
148	0x3de4dad0	0.11174548
149	0x3d1f4452	0.038883515
150	0x3e3475ca	0.17623058
151	0x3da880ee	0.082277164
152	0xbe3022fc	-0.17200845
153	0x3d6eec7a	0.05833099
154	0x3e2c4912	0.16824749
155	0xbcf20138	-0.029541597
156	0x3df35abd	0.11882541
157	0xba755979	-0.0009359341
158	0xb62de200	-2.5910558e-06
159	0xbd269a74	-0.04067464
160	0x3e8186ac	0.2529806
161	0xbe15f29a	-0.14643326
162	0xbcf55922	-0.029949728
163	0xbce789b9	-0.028263913
164	0x3e5824c8	0.21107781
165	0xbda61604	-0.08109668
166	0x3c126d7d	0.008937237
167	0x3d0b69aa	0.034036316
168	0xbd2a12f4	-0.04152198
169	0x3e2806c7	0.16408835
170	0xbd63d1a4	-0.05561985
171	0x3d0605ad	0.032720257
172	0x3e081cd0	0.13292241
173	0x3e8376a2	0.25676447
174	0xbd0666ba	-0.03281281
175	0xbdd2b94c	-0.10289249
176	0x3c645782	0.013936879
177	0x3e03cc28	0.12870848
178	0x3ad071f0	0.0015903097
179	0x3e2ae862	0.1669021
180	0xbc8c32a9	-0.017114
181	0xbd1587f1	-0.036506597
182	0xbb95a7ac	-0.004567107
183	0x3d687446	0.056751512
184	0x3da56c81	0.08077336
185	0x3e374608	0.17897809
186	0xbbe88f42	-0.007097156
187	0x3d4f36fb	0.050589543
188	0xbd79a0dc	-0.060944423
189	0xbd0e0fed	-0.034683157
190	0xbe48b90d	-0.19601841
191	0x3e041894	0.12900001
192	0xbcc34a28	-0.023839071
193	0x3dc9d4b9	0.09855027
194	0xbe2edbcb	-0.17076032
195	0xbe3ed030	-0.18634105
196	0xbe3eccbc	-0.18632787
197	0xbda14876	-0.07875149
198	0xbeb63a70	-0.3559146
199	0xbe010c5b	-0.1260237
200	0x3dc35dfb	0.0953941
201	0xbe284622	-0.16433004
202	0xbe6dc3f2	-0.23219278
203	0xbe09c248	-0.13453019
204	0xbe2fbc81	-0.17161752
205	0xbec0f063	-0.376834
206	0xbc8109f9	-0.015751826
207	0xbd9f136a	-0.07767375
208	0x3a9c1109	0.0011906932
209	0xbe0182f4	-0.12647611
210	0xbd088dd2	-0.033338375
211	0xbdf0a7da	-0.11750765
212	0x3e009f0f	0.12560676
213	0x3b955d54	0.0045582447
214	0xbd5980a7	-0.053101208
215	0xbd64bf94	-0.055846766
216	0xbd409f2d	-0.0470268
217	0xbed9bf1e	-0.42528623
218	0xbe676a5c	-0.22599167
219	0x3c98e00c	0.018661521
220	0xbcdeb56b	-0.027186116
221	0x3d885378	0.066565454
222	0xbd0d0d5f	-0.03443658
223	0xbe923539	-0.2855623
224	0x3dd12ffd	0.10214231
225	0x3cf23303	0.02956534
226	0x3cff2eaf	0.03115019
227	0x3dab44c7	0.083627276
228	0x3c3061fc	0.010765549
229	0x3e0d9211	0.13825251
230	0xbd8c0823	-0.068374895
231	0xbd6eaeff	-0.058272358
232	0x3dcbd597	0.099528484
233	0x3cca3867	0.024685098
234	0xbe047690	-0.12935853
235	0x3d620716	0.05518254
236	0x3d9679a8	0.07347423
237	0x3cd699a5	0.02619631
238	0x3e26ce96	0.16289744
239	0x3ca04ea9	0.019568758
240	0xbdba6dff	-0.09103011
241	0x3c909dc8	0.017653361
242	0x3dbf7844	0.09349111
243	0xbe09b20a	-0.13446823
244	0x3b84456f	0.0040365974
245	0x3daa3ccb	0.083123766
246	0x3e4e5e76	0.20153221
247	0x3cef1632	0.029185388
248	0x3c51f908	0.012815721
249	0xbe29c70c	-0.16579837
250	0x3d86ce4b	0.06582316
251	0xbdcab958	-0.09898633
252	0x3d624904	0.055245414
253	0x3e07d8d5	0.13266309
254	0xbd0573f9	-0.032581303
255	0xbcab4a99	-0.020909594

layers.0.wix.r_weight f4 [1, 32]
0	0xbf6edd5c	-0.9330652
1	0xbed30bfc	-0.4122008
2	0xbecfa8ff	-0.4055862
3	0xbf438151	-0.76369196
4	0xbe4c3d1a	-0.19945183
5	0xbf336f49	-0.7009168
6	0xbf0546db	-0.5206124
7	0xbf53bfb8	-0.82714415
8	0x3e45c92e	0.19315025
9	0x3e205438	0.15657127
10	0xbdd158f6	-0.10222046
11	0xbdc482ad	-0.09595237
12	0xbe86f60d	-0.26359597
13	0xbeb60048	-0.3554709
14	0xbf417dc6	-0.7558254
15	0xbcfc872e	-0.030826177
16	0xbdef47bc	-0.11683604
17	0xbf1a4346	-0.602589
18	0xbf400cee	-0.7501973
19	0x3e8f1d32	0.27951962
20	0xbed4afbe	-0.4154033
21	0xbd483c81	-0.048885826
22	0xbf496e44	-0.78683877
23	0xbf470ec1	-0.7775689
24	0x3e48b4a6	0.19600162
25	0xbeb6d57a	-0.35709745
26	0xbec8a2ad	-0.39186612
27	0xbf7b708e	-0.9821862
28	0xbf2bd8f7	-0.6712794
29	0xbf238132	-0.6386901
30	0xbf3e8dde	-0.7443522
31	0xbef8aec8	-0.48570848

layers.0.wix.i_weight f4 [1, 32]
0	0xbd729b8a	-0.059230365
1	0x3e9741ae	0.29542297
2	0xbd6da1b8	-0.058015555
3	0x3db4acb8	0.08822006
4	0xbe03c5be	-0.12868401
5	0x3e18eb18	0.14933431
6	0xbe0836af	-0.1330211
7	0x3ea9dbd2	0.33175522
8	0x3ea1f52e	0.3163237
9	0x3d98c3c3	0.074592136
10	0x3e298938	0.16556251
11	0x3df9b690	0.12193024
12	0x3ec7c96c	0.3902086
13	0x3d28f1ff	0.04124641
14	0x3e373dce	0.1789467
15	0xbd861afe	-0.06548117
16	0xbc9ffe55	-0.019530455
17	0xbe0768da	-0.13223591
18	0x3cec4b6e	0.028844561
19	0xbdbbdd99	-0.09173126
20	0x3e80ba22	0.25142008
21	0x3ee72ca8	0.45151258
22	0xbd09dd0a	-0.033658065
23	0xbe9ff609	-0.31242397
24	0x3e79575d	0.24349733
25	0x3cc9b5d0	0.024622828
26	0x3e75f030	0.24017406
27	0xbf180368	-0.593802
28	0x3c26e405	0.0101862
29	0xbe2e9038	-0.17047203
30	0xbe4deff4	-0.20111066
31	0xbe8d6b96	-0.27621144

layers.0.wix.j_weight f4 [1, 32]
0	0x3daddea5	0.08489732
1	0x3e77a75e	0.2418494
2	0xbddaf599	-0.10691375
3	0x3dd10975	0.10206882
4	0xbe7fc9c2	-0.24979308
5	0xbe461a5b	-0.19345991
6	0xbe375643	-0.17904
7	0xbc5771d8	-0.013149701
8	0xbe0b2196	-0.13587031
9	0x3c8faaba	0.017537463
10	0xbe3fb788	-0.18722355
11	0xbc3379b4	-0.010954309
12	0x3df33798	0.11875838
13	0xbb0e8099	-0.002174413
14	0xbdaca579	-0.08429999
15	0x3e03e4d5	0.12880261
16	0x3d13f601	0.03612328
17	0xbcb38b8f	-0.021917133
18	0x3e1a87e8	0.15090907
19	0x3d10dce0	0.035366893
20	0x3ab13307	0.0013519236
21	0x3e0a2e43	0.1349421
22	0xbdb84a9c	-0.089986056
23	0xbe597605	-0.21236427
24	0x3e8c123f	0.2735767
25	0xbec4686b	-0.38360915
26	0xbddc89f5	-0.10768501
27	0xbee090d6	-0.438605
28	0xbd6a3daa	-0.057187714
29	0xbe8344de	-0.2563848
30	0xbd33e757	-0.043921795
31	0x3da818ac	0.08207831

layers.0.wix.k_weight f4 [1, 32]
0	0xbe957803	-0.29193124
1	0xbe72ce0d	-0.23711415
2	0xbd976f2a	-0.0739425
3	0xbcb4c0db	-0.022064617
4	0xbd5d2671	-0.05399174
5	0x3bd26c08	0.0064215697
6	0x3dcdf23b	0.100559674
7	0x3e923ac5	0.28560463
8	0xbe164b11	-0.14677073
9	0x3dd995cc	0.106242746
10	0x3df7b2b6	0.12094633
11	0xbcd5205b	-0.026016405
12	0xbe05f410	-0.13081384
13	0xbd8eb0b1	-0.06967295
14	0xbd1aba04	-0.037775055
15	0x3e1df511	0.15425517
16	0x3ce5529c	0.027993493
17	0xbe3acc4a	-0.18241993
18	0x3d795116	0.060868345
19	0x3d6f9ce7	0.058499243
20	0xbc6a132a	-0.014286796
21	0xbc8d0ec0	-0.017218947
22	0xbd732588	-0.059361964
23	0xbe61b4c8	-0.22041619
24	0xbea09923	-0.31366834
25	0xbeba15f3	-0.3634487
26	0x3e63b8e5	0.222385
27	0x3d2530d3	0.040329766
28	0x3e8e8ccb	0.27841792
29	0x3d0851b7	0.033281054
30	0x3d23d4ca	0.039997853
31	0xbe5317b7	-0.20614515

layers.0.wix.bias f4 [128]
0	0xbec1d9b9	-0.37861422
1	0x3de7891a	0.11305447
2	0xbf7ea7f6	-0.9947504
3	0xbf9a5db4	-1.2059846
4	0x3d8cf0d4	0.06881872
5	0xbfa33e9e	-1.2753484
6	0xbf44568c	-0.7669456
7	0xbfa7d9cc	-1.3113341
8	0x3ef8e983	0.48615655
9	0x3ef4b062	0.4779082
10	0xbf800517	-1.0001553
11	0x3e6a9d32	0.22911528
12	0xbf75f678	-0.96079206
13	0x3e1479a4	0.14499527
14	0xbf9bcfdd	-1.217281
15	0xbe67ac46	-0.22624311
16	0xbf7b4e53	-0.9816639
17	0xbf8eb955	-1.1150309
18	0xbfa8f993	-1.3201164
19	0x3efcedc2	0.49400145
20	0xbf26919e	-0.65065944
21	0xbee82c59	-0.45346335
22	0xbfb1e8ed	-1.3899208
23	0xbfcc7739	-1.5973884
24	0xbe951f33	-0.29125366
25	0xbe8c92ef	-0.2745585
26	0xbfa20e32	-1.2660582
27	0xbea92ab1	-0.33040383
28	0xbf7160ee	-0.9428853
29	0xbf9be242	-1.2178423
30	0xbf88bbf1	-1.0682355
31	0xbe816d22	-0.25278574
32	0xbf36c443	-0.7139322
33	0x3d5cb27d	0.053881157
34	0xbf7fc600	-0.999115
35	0xbfa3fb17	-1.2811002
36	0x3db773e9	0.08957655
37	0xbfb36330	-1.4014645
38	0xbf6940af	-0.91114324
39	0xbf94c07e	-1.1621244
40	0x3ee5ad69	0.44858864
41	0x3eb34314	0.35012114
42	0xbf7464e0	-0.95466423
43	0x3de5ec8b	0.112267576
44	0xbf734e51	-0.95041376
45	0x3df8ab7c	0.12142083
46	0xbf8dd7f9	-1.1081535
47	0xbca40072	-0.020019744
48	0xbf8c41f1	-1.0957624
49	0xbf857fef	-1.0429667
50	0xbfb3b3c8	-1.403924
51	0x3ef60da2	0.48057276
52	0xbfb0b7cb	-1.3806089
53	0xbec3eb93	-0.38265666
54	0xbfa10871	-1.2580701
55	0xbfd6083f	-1.6721267
56	0xbed153cf	-0.40884253
57	0xbec7b305	-0.3900377
58	0xbf8e414b	-1.1113676
59	0xbf6216bd	-0.88315946
60	0xbf9af305	-1.2105414
61	0xbf8794ad	-1.0592247
62	0xbf5e0492	-0.86725724
63	0xbe83289e	-0.25616926
64	0xbf33eb2e	-0.7028073
65	0x3e14747f	0.14497565
66	0xbf87caa0	-1.0608711
67	0xbf967c33	-1.1756653
68	0x3d359dfb	0.044340115
69	0xbfa55eb6	-1.2919528
70	0xbf8b242d	-1.0870415
71	0xbfb6b2be	-1.4273298
72	0x3f047356	0.5173849
73	0x3ec0bdf0	0.3764491
74	0xbf9d9d23	-1.2313579
75	0x3dd7c1d0	0.10535014
76	0xbf7ad108	-0.97975206
77	0x3e560bff	0.20903014
78	0xbf960b0f	-1.1722125
79	0xbe1bbaa0	-0.1520791
80	0xbf703734	-0.93834233
81	0xbf7e114c	-0.9924514
82	0xbfa01a9b	-1.2508119
83	0x3ed0b48c	0.40762746
84	0xbf39412f	-0.7236509
85	0xbe769998	-0.24082029
86	0xbfbb72c9	-1.4644405
87	0xbfcf591a	-1.6199067
88	0xbeeacaff	-0.45858
89	0xbe89baf3	-0.26900443
90	0xbf9488e2	-1.1604273
91	0xbeeaf241	-0.4588795
92	0xbf828797	-1.0197629
93	0xbf8ba69c	-1.091022
94	0xbf83e137	-1.0303105
95	0xbe834a25	-0.25642505
96	0xbf057ffd	-0.5214842
97	0x3bb80d64	0.0056168307
98	0xbf81046f	-1.0079478
99	0xbf985ff7	-1.1904286
100	0x3c6919d2	0.014227347
101	0xbfa2cec4	-1.271935
102	0xbf4af4c3	-0.79279727
103	0xbfabaf37	-1.3412846
104	0x3ee69805	0.45037857
105	0x3eb2bed7	0.34911224
106	0xbf5c4f6f	-0.86058706
107	0x3e202413	0.15638761
108	0xbf3ab306	-0.7292942
109	0x3e61c6ae	0.22048447
110	0xbf92dd4a	-1.1473782
111	0xbd4fd106	-0.05073645
112	0xbf7b0e69	-0.98068863
113	0xbf86074f	-1.047098
114	0xbfa17d1f	-1.2616309
115	0x3ee36777	0.44414875
116	0xbf77b428	-0.9675927
117	0xbf0bbcf0	-0.5458517
118	0xbf92a6c4	-1.1457143
119	0xbfdbe877	-1.7180318
120	0xbec0fc31	-0.37692407
121	0xbe868bdb	-0.26278576
122	0xbf961975	-1.1726519
123	0xbeb2697a	-0.34846097
124	0xbf67e938	-0.9059024
125	0xbf879418	-1.059207
126	0xbf5431ee	-0.82888687
127	0xbe729155	-0.23688252

layers.0.uih.r_weight f4 [32, 32]
0	0xbd2019bd	-0.039087046
1	0xbeb65d26	-0.35617942
2	0xbd442a9b	-0.047892194
3	0x3e9f3e20	0.31102085
4	0xbf316ef7	-0.69309944
5	0xbe5606ef	-0.20901082
6	0x3eac5017	0.33654854
7	0x3dedf106	0.11618237
8	0x3e2051e2	0.15656236
9	0xbde6d1f3	-0.112705134
10	0x3e4d8cfc	0.20073313
11	0x3eadb01c	0.33923423
12	0xbd805b02	-0.06267358
13	0xbebe3b9d	-0.37154856
14	0x3b4a6221	0.0030881243
15	0x3e5cf861	0.21579124
16	0x3d5e9f64	0.054351225
17	0x3d32774c	0.0435708
18	0x3c067b51	0.008208112
19	0x3e241d32	0.16026762
20	0xbe111bf4	-0.1417082
21	0x3e022b4f	0.12711833
22	0xbe41aa99	-0.18912734
23	0xbe172bd7	-0.14762817
24	0x3e138e52	0.1440976
25	0x3d328c9a	0.04359112
26	0x3dadc39d	0.08484576
27	0xbdc3b878	-0.09556669
28	0x3c9de7f6	0.019275647
29	0x3e262aff	0.16227339
30	0xbc5c7601	-0.013455869
31	0x3d39e5bc	0.045385107
32	0x3e96072e	0.29302353
33	0x3e9e20a1	0.3088427
34	0xbe5bc3db	-0.21461432
35	0xbe963855	-0.29339853
36	0x3f15105f	0.58228105
37	0xbe4d77a3	-0.20065169
38	0xbe07d1e2	-0.13263658
39	0x3e2d8606	0.16945657
40	0x3e3c6dc6	0.1840125
41	0x3e1b8892	0.15188816
42	0xbec55a45	-0.38545433
43	0x3de20148	0.11035401
44	0xbe46c6a6	-0.19411716
45	0x3f53b09b	0.82691354
46	0x3c5b7e81	0.01339686
47	0xbe3e2075	-0.18567069
48	0x3b168eb0	0.0022973232
49	0x3c9a447b	0.018831482
50	0x3d9114d8	0.07084054
51	0xbce4c36c	-0.027925216
52	0xbe6b653d	-0.22987838
53	0x3d9c4edb	0.07632228
54	0x3d996d53	0.07491555
55	0x3e616b33	0.2201355
56	0xbea9913f	-0.33118626
57	0x3ebad21b	0.36488423
58	0xbe68b946	-0.22726926
59	0x3f1e981a	0.6195084
60	0xbae2cbfa	-0.0017303221
61	0x3d167a12	0.03673751
62	0xbe4b8efe	-0.19878766
63	0x3e24e474	0.16102773
64	0x3e8889f4	0.2666775
65	0x3d2b878c	0.041877314
66	0x3e6aa1cb	0.22913282
67	0x3cc7a803	0.024372106
68	0x3e11c67d	0.14235874
69	0xbd102d80	-0.035199642
70	0xbe0f6188	-0.14002049
71	0x3dfe4e8e	0.12417327
72	0xbd29442e	-0.041324787
73	0x3d1fea5a	0.039041854
74	0x3e864a04	0.26228344
75	0x3e0368fb	0.12833016
76	0x3e5b814b	0.2143604
77	0x3e92b47f	0.28653333
78	0xbe3f6f47	-0.18694793
79	0x3e248bd9	0.16068973
80	0x3cf19c8e	0.029493596
81	0x3dbdf89d	0.09275935
82	0xbdbe5f8a	-0.092955664
83	0xbd571a88	-0.052515537
84	0x3bc76c1d	0.006085886
85	0x3d4692cf	0.04847985
86	0x3dd8991c	0.10576078
87	0x3db0bf8f	0.08630287
88	0x3d620fa6	0.055190705
89	0x3e838424	0.25686753
90	0xbd95b444	-0.073097736
91	0xbd9a0dcd	-0.075221635
92	0x3d8f6f8e	0.07003699
93	0xbe7a06f9	-0.24416722
94	0xbc2f4d3b	-0.0106995655
95	0x3dcaff4e	0.09911977
96	0xbd11b99c	-0.0355774
97	0xbc3acb96	-0.011401078
98	0xbdd730bc	-0.10507342
99	0x3dfe1896	0.12407033
100	0xbe871fea	-0.26391536
101	0xbcc81335	-0.024423221
102	0xbdb4f668	-0.08836061
103	0x3c2057d1	0.009786562
104	0xbe9e0128	-0.30860257
105	0x3da12dee	0.078700885
106	0xbd5e8b9b	-0.054332357
107	0xbf192fce	-0.5983857
108	0xbe3003d8	-0.17188966
109	0xbdf84d5b	-0.121241294
110	0xbd985249	-0.0743757
111	0x3d73aeca	0.059492864
112	0xbe689f4e	-0.2271702
113	0x3d58930d	0.052874614
114	0xbd73a09b	-0.059479337
115	0xbdc54ddd	-0.09633992
116	0xbe8de873	-0.27716407
117	0xbe8f5adb	-0.27999005
118	0xbe9954d7	-0.2994754
119	0x3e1b18ec	0.15146226
120	0xbd509caa	-0.050930656
121	0xbe91f841	-0.28509715
122	0x3c850082	0.016235594
123	0x3e34a174	0.17639714
124	0xbc26af2e	-0.010173602
125	0x3e48ae7b	0.19597809
126	0xbe3249a3	-0.17410903
127	0xbd690c8a	-0.056896724
128	0x3daa8743	0.083265804
129	0x3e2940b3	0.16528587
130	0x3e370611	0.17873408
131	0xbe9c2233	-0.30494842
132	0x3e665ea2	0.22497037
133	0xbd8bb8b5	-0.068223394
134	0x3dc2d44e	0.0951315
135	0x3b8a16d5	0.0042141476
136	0xbe795a8c	-0.24350947
137	0xbe5f20d9	-0.21789874
138	0xbe88435b	-0.26613888
139	0x3d5ebea9	0.054381046
140	0x3e80e192	0.25172096
141	0x3f37e06d	0.7182682
142	0xbe2c6026	-0.16833553
143	0xbe1d6974	-0.15372258
144	0x3da1621f	0.07880043
145	0x3e3b50ec	0.18292588
146	0x3e2ea013	0.17053251
147	0x3dbf6d24	0.09346989
148	0xbd5c6c56	-0.053814255
149	0xbd36dbca	-0.0446432
150	0xbd8b21ec	-0.067935795
151	0x3ce355bd	0.027750844
152	0x3e2103bb	0.1572408
153	0x3ee131a7	0.43983194
154	0x3d3282c9	0.043581758
155	0x3e088e65	0.13335569
156	0xbd4e3761	-0.050345782
157	0x3e37b5a4	0.17940384
158	0x3e80ca76	0.25154465
159	0x3e490442	0.1963053
160	0x3cfbcafa	0.030736435
161	0xbdceb7c1	-0.10093642
162	0xbd8fba99	-0.070180126
163	0x3e25d3bf	0.16194056
164	0x3d032bc1	0.03202415
165	0xbc3b600d	-0.0114364745
166	0x3db59b7a	0.088675454
167	0xbe89d0de	-0.26917166
168	0x3d600746	0.054694436
169	0x3d6e2187	0.058137443
170	0xbf038545	-0.5137523
171	0xbda5c05c	-0.0809333
172	0x3e3c1acf	0.18369602
173	0x3ee58e20	0.44834995
174	0xbe06f88a	-0.13180748
175	0x3d785749	0.060630117
176	0x3d55b432	0.0521738
177	0x3ea1b0b6	0.31580132
178	0x3c305a77	0.010763756
179	0x3e0c367a	0.13692656
180	0xbe7e5788	-0.24838078
181	0xbd609d79	-0.054837678
182	0xbddd3eee	-0.108030185
183	0xbb43b91c	-0.0029864972
184	0x3cebd02a	0.028785784
185	0x3e47fa1c	0.19529003
186	0xbcca1417	-0.024667783
187	0x3e5da767	0.2164589
188	0x3dd37d23	0.10326602
189	0xbe312cec	-0.17302293
190	0x3e1ef017	0.15521275
191	0xbe048e41	-0.1294489
192	0xbe87f50c	-0.26554143
193	0xbe62b71d	-0.22140165
194	0x3e4a05c4	0.19728762
195	0xbd1f9c5a	-0.038967468
196	0x3dd19763	0.10233953
197	0x3d0fedff	0.03513908
198	0x3dad0577	0.08448308
199	0xbda23234	-0.07919732
200	0x3c967b3e	0.018369313
201	0xbd8c9a76	-0.068653986
202	0x3e662f1e	0.22478911
203	0x3e3755a6	0.17903766
204	0xbb848efe	-0.0040453663
205	0xbee8874b	-0.4541572
206	0xbd86fdad	-0.065913536
207	0x3e77b0cd	0.24188538
208	0x3e8ae8a7	0.27130625
209	0x3c025de8	0.007956959
210	0x3e1fdb3c	0.15610975
211	0xbcb1bd57	-0.02169673
212	0x3ceb8891	0.028751643
213	0xbad86ef7	-0.0016512562
214	0x3dd6d515	0.10489861
215	0x3dc252f1	0.09488476
216	0xbd40fa3b	-0.04711364
217	0x3d1bfb34	0.038081363
218	0x3e07c4c6	0.13258657
219	0xbe814cea	-0.25253993
220	0xbd564296	-0.052309595
221	0xbe564d8a	-0.20928016
222	0x3e38396d	0.17990656
223	0xbd9bbb2a	-0.07604058
224	0x3df09967	0.11748009
225	0xbcbb95c7	-0.022898568
226	0xbdb4f65e	-0.08836053
227	0x3e274444	0.16334635
228	0xbd7cdbd7	-0.061733093
229	0xbbad11db	-0.0052816696
230	0xbe0ef84d	-0.13961907
231	0xbe17edb1	-0.14836766
232	0x3c3fffb2	0.011718677
233	0x3e37b74f	0.1794102
234	0x3e034b72	0.12821749
235	0x3ebd918e	0.37025112
236	0x3e930bae	0.28719848
237	0x3eac5267	0.33656618
238	0x3d414911	0.047188822
239	0x3df41ed4	0.119199425
240	0x3e1cdaad	0.15317793
241	0x3e231d43	0.15929131
242	0x3e7e7115	0.24847825
243	0x3e78cc89	0.24296774
244	0xbd34200b	-0.04397587
245	0xbde25e10	-0.11053097
246	0x3e55b8f3	0.20871334
247	0xbdf212ec	-0.11820015
248	0x3ddbd4c6	0.10733943
249	0x3e61468b	0.21999566
250	0xbd83fe66	-0.06445007
251	0x3d01e097	0.031708326
252	0x3dace9d1	0.084430344
253	0x3e2b8a17	0.16751896
254	0x3d92e899	0.07173271
255	0x3e79d26e	0.24396679
