models/QLSTM_mse_batch10_epochs5.pth (torch, 237565 bytes, 76 tensors)

r_weight f4 [1, 32]
0.11616932 -0.0017737368 -0.15021005 -0.52874523 -0.22566476 -0.2676339 -0.0885905 -0.7184559
0.09174961 -0.29672167 -0.40461618 0.08770845 -0.48079345 -0.5715225 -0.3604269 -0.23289804
-0.10664497 -0.5702805 -0.30104002 -0.25354317 -0.15312168 -0.3622604 0.047642257 -0.4657998
-0.15573959 -0.006709681 -0.45052084 -0.119885996 -0.15175068 -0.30538857 -0.3008613 -0.6045965
00000000: 2eea ed3d bb7c e8ba aad0 19be d95b 07bf
00000010: aa14 67be 4f07 89be f06e b5bd baec 37bf
00000020: 38e7 bb3d e7eb 97be da29 cfbe 7da0 b33d
00000030: 8f2a f6be 4c4f 12bf e089 b8be d37c 6ebe
00000040: ae68 dabd e7fd 11bf eb21 9abe 69d0 81be
00000050: eecb 1cbe 327a b9be 8724 433d 507d eebe
00000060: 337a 1fbe e2dc dbbb abaa e6be ca86 f5bd
00000070: 8864 1bbe e45b 9cbe 7e0a 9abe d6c6 1abf

i_weight f4 [1, 32]
-0.11519601 0.038006954 0.0009500983 -0.10082449 0.10569051 0.106698774 0.19593275 0.028059559
-0.076147035 -0.11193836 -0.02609035 -0.04574024 -0.038775727 0.021514721 0.12699421 0.32486856
0.056787565 -0.028753987 0.04928963 0.19298258 -0.09191685 -0.08834801 0.03079483 0.24502142
0.115187936 0.14985403 0.045762587 -0.002609124 0.025330966 -0.0039638905 -0.010677317 0.093803726
00000000: e3eb ebbd 2ead 1b3d 0510 793a 127d cebd
00000010: 4474 d83d e384 da3d 98a2 483e 29dd e53c
00000020: faf2 9bbd f03f e5bd 6ebb d5bc 1e5a 3bbd
00000030: 4cd3 1ebd a43f b03c c50a 023e 2c55 a63e
00000040: 149a 683d 7b8d ebbc ece3 493d 3a9d 453e
00000050: e73e bcbd cdef b4bd 7045 fc3c e5e6 7a3e
00000060: a7e7 eb3d 5673 193e 8d71 3b3d d6fd 2abb
00000070: e382 cf3c 86e3 81bb eaef 2ebc 2b1c c03d

j_weight f4 [1, 32]
0.093942724 0.0032427406 0.14785956 0.12623474 0.040588412 -0.12167213 0.09693781 -0.042997375
0.17863093 -0.008332611 0.007124129 0.18514962 -0.17123878 0.095030785 -0.2936168 -0.23551157
0.1086555 -0.11588808 -0.16692494 -0.034418415 0.11057432 0.11812762 -0.07197796 0.07975764
-0.04914319 0.070980206 0.025388764 -0.107296444 -0.18945253 0.16353573 0.028061952 0.17243825
00000000: 0b65 c03d 2984 543b 7f68 173e ae43 013e
00000010: 0940 263d 3d2f f9bd 5587 c63d 041e 30bd
00000020: 07eb 363e 8185 08bc 8771 e93b dd97 3d3e
00000030: 3859 2fbe 809f c23d f154 96be f229 71be
00000040: c686 de3d bb56 edbd 5fee 2abe 53fa 0cbd
00000050: ca74 e23d e5ec f13d 2e69 93bd f957 a33d
00000060: 5f4a 49bd 125e 913d 19fc cf3c 3dbe dbbd
00000070: d8ff 41be e975 273e 2ee2 e53c a793 303e

k_weight f4 [1, 32]
0.083314836 0.0066699986 -0.008937134 0.027666979 -0.004613037 0.11130691 0.057954047 0.06512174
0.08601143 0.08724271 -0.0075568245 -0.008438245 0.20534055 0.017270634 0.025109624 0.10294357
0.10444407 -0.23916252 -0.15539949 -0.10544511 0.088335454 -0.13283475 0.06020242 0.005596785
0.04737388 0.085038796 0.07193758 -0.06860935 -0.124391906 0.011397123 0.18674302 -0.13703348
00000000: f8a0 aa3d 0190 da3b 0f6d 12bc dca5 e23c
00000010: f628 97bb e1f4 e33d 3961 6d3d 8c5e 853d
00000020: c326 b03d 4eac b23d 3d9f f7bb 9140 0abc
00000030: cb44 523e 257b 8d3c b3b2 cd3c 14d4 d23d
00000040: c6e6 d53d 05e7 74be 0b21 1fbe 9bf3 d7bd
00000050: 38e9 b43d d505 08be d096 763d 3c65 b73b
00000060: 1d0b 423d d228 ae3d 0354 933d 0f83 8cbd
00000070: 2fc1 febd 00bb 3a3c 9039 3f3e 8152 0cbe

bias f4 [128]
-0.13025764 -0.20796572 -0.23460251 -0.14285105 -0.09291856 -0.61103743 -0.2872156 -0.60394
-0.3441672 -0.110732794 -0.16479622 -0.06709882 -0.38033828 -0.4103561 -0.15917324 -0.26498082
-0.10710899 -0.19128416 -0.21720889 -0.16032232 -0.6331436 -0.19538924 -0.02236117 -0.35726535
-0.06329777 -0.20835543 -0.4153059 -0.14323801 -0.33021984 -0.70810527 -0.121929735 -0.6299103
-0.06272201 -0.3970897 -0.36343938 -0.2608528 -0.13085274 -0.2891219 -0.37288412 -0.67839277
-0.23453696 -0.108336546 -0.09706697 -0.036925595 -0.25165844 -0.35008892 -0.1553635 -0.24890512
-0.1342104 -0.21580203 -0.055307556 -0.16502874 -0.4367618 -0.26742426 -0.07894919 -0.17072432
-0.08423712 -0.27265579 -0.3968232 -0.11519639 -0.30979836 -0.41574788 -0.12360125 -0.36837512
-0.10534987 -0.3918025 -0.25009066 -0.06598465 -0.23895611 -0.1742804 -0.52078277 -0.5158561
-0.2260093 -0.09818711 -0.3164627 -0.089349665 -0.2601856 -0.5356545 -0.2110145 -0.33696944
-0.23963895 -0.14290017 -0.08984052 -0.29743296 -0.6007222 -0.19942763 -0.1687608 -0.17741208
-0.05013594 -0.23184793 -0.43280143 -0.2761278 -0.31546843 -0.40280136 -0.10929389 -0.26060545
0.00484449 -0.29614806 -0.16954565 -0.24616279 -0.09950175 -0.1966791 -0.21637566 -0.5418684
-0.12568781 -0.018944263 -0.15675628 -0.08830818 -0.30444014 -0.45481092 -0.13893111 -0.18003188
-0.013502514 -0.11554235 -0.23123138 -0.22511138 -0.44702896 -0.26785642 -0.058397006 -0.23708643
-0.06791386 -0.33430937 -0.29690656 0.012271964 -0.39366618 -0.43776 -0.12730317 -0.43891478
00000000: 4262 05be f7f4 54be a43b 70be 8c47 12be
00000010: 164c bebd f36c 1cbf ec0d 93be d09b 1abf
00000020: af36 b0be e0c7 e2bd 57c0 28be 1b6b 89bd
00000030: b3bb c2be 321a d2be 4ffe 22be 91ab 87be
00000040: f55b dbbd ffdf 43be 026c 5ebe 892b 24be
00000050: b315 22bf 1e14 48be c62e b7bc 7ceb b6be
00000060: 43a2 81bd 205b 55be faa2 d4be fcac 12be
00000070: 9312 a9be 6346 35bf 4cb6 f9bd cd41 21bf
00000080: 6674 80bd 574f cbbe ba14 babe 808e 85be
00000090: 43fe 05be c907 94be abea bebe 26ab 2dbf
000000a0: 752a 70be 8ddf ddbd 0ccb c6bd 4b3f 17bd
000000b0: 60d9 80be db3e b3be 9c17 1fbe fce0 7ebe
000000c0: 736e 09be 35fb 5cbe 2d8a 62bd 4bfd 28be
000000d0: 3e9f dfbe d5eb 88be 1db0 a1bd 5bd2 2ebe
000000e0: 8384 acbd 8a99 8bbe 692c cbbe 16ec ebbd
000000f0: e49d 9ebe e8dc d4be a722 fdbd aa9b bcbe
00000100: acc1 d7bd 569a c8be e20b 80be f622 87bd
00000110: e9b0 74be 9076 32be 0552 05bf 250f 04bf
00000120: fb6e 67be 5316 c9bd 6607 a2be f5fc b6bd
00000130: 0c37 85be a720 09bf 2f14 58be 4287 acbe
00000140: ea63 75be 6c54 12be 4efe b7bd 2249 98be
00000150: eec8 19bf c236 4cbe a2cf 2cbe 83ab 35be
00000160: 585b 4dbd 8b69 6dbe 2698 ddbe 9f60 8dbe
00000170: 1485 a1be fb3b cebe 7ad5 dfbd 146e 85be
00000180: 87be 9e3b b8a0 97be 609d 2dbe 1912 7cbe
00000190: 93c7 cbbd 3f66 49be 9591 5dbe e3b7 0abf
000001a0: 4eb4 00be 0031 9bbc b884 20be ebda b4bd
000001b0: 94df 9bbe fadc e8be f543 0ebe 475a 38be
000001c0: a639 5dbc 78a1 ecbd ebc7 6cbe 9983 66be
000001d0: fbe0 e4be 7a24 89be b331 6fbd c9c6 72be
000001e0: 6c16 8bbd 992a abbe 2304 98be 5910 493c
000001f0: 9d8e c9be 1422 e0be c35b 02be 70b9 e0be

r_weight f4 [32, 32]
-0.12573266 0.01699176 -0.038697995 -0.18733545 -0.08871743 0.0023113266 0.078361884 0.123985074
-0.389367 0.0065015904 0.12774526 -0.07225811 -0.122309394 -0.23592821 0.08838711 -0.1462566
-0.14512244 0.1831717 -0.09488514 -0.06855337 0.050707143 -0.037547573 0.0035941156 -0.13898654
-0.17879215 -0.03780464 -0.23063496 0.01161223 -0.34315583 -0.24819951 0.053261343 -0.10992023
0.1389851 -0.14311531 -0.06107204 -0.07152561 0.15178625 0.22591221 -0.16726449 0.060555797
0.029629577 0.26065543 -0.23002654 -0.19066367 0.038898636 0.23551533 -0.029960755 -0.12839928
-0.14292316 0.06981927 0.024391195 0.07189758 0.043467972 0.12042976 -0.053214986 -0.0103019895
-0.13868034 -0.007752251 0.06063304 0.1302077 0.06713152 -0.14970422 0.17792422 0.34380206
0.19800754 -0.18378966 -0.20424289 -0.22963761 0.2599478 0.119260386 -0.15576597 -0.14999083
-0.24605906 0.07978281 -0.051058583 0.1151061 0.13847278 -0.11552283 -0.049316086 0.12245817
0.077208005 -0.19693261 -0.05611621 -0.16452989 0.135797 0.23385178 -0.30026487 -0.25926125
-0.1316803 -0.029620629 -0.10695246 0.12276627 0.056365926 -0.13898097 -0.23449677 -0.2501858
0.25855833 -0.058117714 -0.26594803 -0.18455766 0.25839743 -0.06487429 -0.0028031701 0.1846239
0.057903893 -0.21883048 -0.16735214 0.092789195 -0.021589575 0.1764343 -0.050033435 -0.12949865
-0.14254329 -0.11759143 0.2530206 0.042643014 0.056333303 -0.27077153 0.23903008 0.07070037
-0.004756819 0.20299628 -0.18203077 0.1918108 -0.11036958 0.26335862 -0.32468125 -0.28593862
0.084982306 -0.097897165 -0.0115929395 0.07228396 -0.12519398 0.15046333 -0.16727108 0.10594652
-0.11485121 0.27750504 0.13637482 -0.057495013 0.035384446 0.038215503 0.21042593 -0.059335407
-0.009166562 0.21592031 0.11930172 -0.21731366 -0.10326123 0.16339289 0.17306511 0.09863784
-0.08358599 -0.08588271 -0.054324962 0.057096418 -0.31398812 -0.37122262 0.10282334 0.2865495
0.051375505 0.26472566 0.26964924 0.012077815 0.030743059 0.122774296 0.3349957 -0.10536836
0.107292935 -0.04793315 0.36176598 0.27236247 0.13016793 -0.05551085 -0.10699307 0.1350177
-0.07105278 0.1104121 0.053433027 0.1276613 -0.010560813 0.189828 -0.007495217 0.2870376
0.13904533 0.012226167 0.026229922 0.008720613 0.1584397 0.0065925824 0.022385677 0.28717735
0.073808156 0.059280273 0.14167775 0.1850519 -0.60228014 0.19451912 -0.18776427 -0.027140202
0.24228448 0.17751016 0.0072065303 -0.030745307 -0.1140672 -0.19228923 0.025445595 0.11793837
0.16277248 0.18168335 -0.08508606 0.056758992 -0.16061838 -0.07287227 -0.052848026 0.21673422
-0.17779903 -0.22646007 0.18440185 -0.3143085 -0.029714763 0.07918989 0.12112424 -0.21219029
0.22509813 -0.015818326 -0.1442779 -0.043617208 -0.21580642 0.13009468 0.08408243 0.013632184
0.07403176 0.086701035 -0.25768673 -0.10124236 0.16255912 0.05979276 -0.008266008 -0.064781316
0.07392518 -0.19133243 -0.13304995 0.02209377 0.14078163 -0.09465372 0.08353747 -0.076533146
0.24243158 -0.1439455 -0.007872169 -0.07942613 0.03314697 -0.033668336 -0.012940867 -0.14247891
00000000: 10c0 00be 4e32 8b3c ca81 1ebd ddd4 3fbe
00000010: 7cb1 b5bd a079 173b 327c a03d e3eb fd3d
00000020: 1d5b c7be 4b0b d53b a7cf 023e 0ffc 93bd
00000030: 597d fabd 2a97 71be 4d04 b53d 4ac4 15be
00000040: fa9a 14be 5d91 3b3e 2453 c2bd b665 8cbd
00000050: 4bb2 4f3d 7ccb 19bd 418b 6b3b 7d52 0ebe
00000060: 4a15 37be 0ad9 1abd 922b 6cbe 3941 3e3c
00000070: 1fb2 afbe 0328 7ebe 9128 5a3d dc1d e1bd
00000080: 1c52 0e3e d28c 12be ad26 7abd 057c 92bd
00000090: db6d 1b3e 8855 673e 6247 2bbe 5b09 783d
000000a0: bab9 f23c a174 853e 148c 6bbe 563d 43be
000000b0: 2d54 1f3d ee2a 713e 4270 f5bc 1a7b 03be
000000c0: 735a 12be 68fd 8e3d 0bd0 c73c 0a3f 933d
000000d0: 790b 323d e1a3 f63d f5f7 59bd adc9 28bc
000000e0: 3802 0ebe 9806 febb 5a5a 783d 2b55 053e
000000f0: 407c 893d 104c 19be c431 363e d306 b03e
00000100: 7dc2 4a3e 5b33 3cbe 0c25 51be 1f26 6bbe
00000110: e117 853e ca3e f43d 1d81 1fbe 3297 19be
00000120: e8f6 7bbe 2b65 a33d ce22 51bd bfbc eb3d
00000130: cfcb 0d3e 3c97 ecbd aaff 49bd 59cb fa3d
00000140: 3b1f 9e3d b4a8 49be 1cda 65bd 867a 28be
00000150: 5e0e 0b3e d776 6f3e 51bc 99be e4bd 84be
00000160: 33d7 06be f6a6 f2bc e409 dbbd e26c fb3d
00000170: f5df 663d 0751 0ebe ec1f 70be 5a18 80be
00000180: c261 843e d70c 6ebd 572a 88be affc 3cbe
00000190: ab4c 843e d0dc 84bd 64b5 37bb 0c0e 3d3e
000001a0: a22c 6d3d 1915 60be 5c5e 2bbe 4308 be3d
000001b0: 9fdc b0bc 31ab 343e dcef 4cbd 4b9b 04be
000001c0: def6 11be c7d3 f0bd eb8b 813e 71aa 2e3d
000001d0: c0bd 663d 91a2 8abe 4dc4 743e 5bcb 903d
000001e0: 17df 9bbb 42de 4f3e 4666 3abe 0d6a 443e
000001f0: 7209 e2bd f1d6 863e 9f3c a6be 8c66 92be
00000200: 340b ae3d 4f7e c8bd 50f0 3dbc 9d09 943d
00000210: da32 00be 0f13 1a3e 1c49 2bbe 7dfa d83d
00000220: 1c37 ebbd 2415 8e3e d7a5 0b3e e47f 6bbd
00000230: 48ef 103d dc87 1c3d e579 573e af09 73bd
00000240: 592f 16bc 371a 5d3e 7654 f43d 7987 5ebe
00000250: a07a d3bd 7750 273e fb37 313e a302 ca3d
00000260: 222f abbd 46e3 afbd da83 5ebd efdd 693d
00000270: 0dc3 a0be e410 bebe 0b95 d23d 9eb6 923e
00000280: 1f6f 523d 1f8a 873e 770f 8a3e 07e2 453c
00000290: ded8 fb3c 1771 fb3d 8e84 ab3e 5ecb d7bd
000002a0: 66bc db3d 8d55 44bd 6439 b93e 1873 8b3e
000002b0: be4a 053e 585f 63bd 2f1f dbbd 1442 0a3e
000002c0: 1f84 91bd bd1f e23d 97dc 5a3d a5b9 023e
000002d0: 4307 2dbc 4562 423e 709a f5bb 98f6 923e
000002e0: e661 0e3e 4350 483c 22e0 d63c e7e0 0e3c
000002f0: 043e 223e 9706 d83b 2b62 b73c e908 933e
00000300: bb28 973d dfcf 723d f913 113e 3f7e 3d3e
00000310: 082f 1abf 0530 473e 4745 40be 2155 debc
00000320: 6c19 783e 39c5 353e c224 ec3b 95dd fbbc
00000330: 109c e9bd 78e7 44be 4873 d03c ac89 f13d
00000340: d4ad 263e 330b 3a3e 9a41 aebd 1e7c 683d
00000350: 2579 24be 0f3e 95bd 2c77 58bd 93ef 5d3e
00000360: f310 36be 26e5 67be d7d3 3c3e 0bed a0be
00000370: 606c f3bc 4f2e a23d fc0f f83d 6948 59be
00000380: 2080 663e 6f95 81bc 96bd 13be f5a7 32bd
00000390: 5cfc 5cbe 8a37 053e 6933 ac3d 8659 5f3c
000003a0: f79d 973d 5090 b13d 84ef 83be 2858 cfbd
000003b0: e675 263e 41e9 743d 276e 07bc 11ac 84bd
000003c0: 1666 973d a6ec 43be 3f3e 08be fefd b43c
000003d0: 0f29 103e cfd9 c1bd b115 ab3d 69bd 9cbd
000003e0: fc3f 783e 7366 13be 45fa 00bc 2baa a2bd
000003f0: 1ec5 073d cfe7 09bd ee05 54bc fee5 11be

i_weight f4 [32, 32]
-0.02370082 0.18958162 -0.09401597 0.14472765 0.02926456 -0.082204476 -0.010510261 -0.018949041
-0.00864232 -0.014532987 0.12274467 0.01624593 0.093562506 -0.07608683 -0.037143756 0.010774019
-0.033825997 -0.07988626 -0.17880215 -0.038997307 -0.113529675 -0.22761777 0.05898018 -0.044483252
-0.1660503 0.026202662 0.02848112 -0.045672473 0.060701303 -0.14288169 -0.028465463 0.0039493036
0.08347258 0.035431117 -0.15357041 -0.028779443 -0.05986102 0.1157762 -0.08422879 0.070310384
-0.094300166 -0.13608588 -0.17696461 -0.26240864 0.17394224 -0.23020954 0.06130088 0.03329593
-0.092606485 -0.06425947 -0.20051779 -0.040333718 -0.1744958 -0.1634492 -0.057633217 -0.116527624
-0.11463485 0.058730587 -0.10932281 -0.15764621 -0.14324228 -0.011022676 -0.186494 -0.15220271
-0.16104016 0.008708425 -0.08043491 0.031952187 0.19086441 -0.09177288 -0.18843147 -0.0007191657
-0.22343841 -0.31778264 0.3496294 0.043629903 -0.12866516 -0.077406056 -0.14553712 -0.0111374585
0.13340317 0.123462655 -0.079191655 0.10780472 0.13501585 0.048282813 -0.07121614 -0.09724743
-0.023139982 0.044990584 0.12274643 -0.039279725 -0.23623943 0.050676122 -0.012794418 -0.09655974
0.13662563 -0.046463788 0.03995227 0.0059457463 0.23439108 0.10980242 0.07407174 0.061176967
0.011097854 -0.32321835 -0.04515261 -0.18001562 0.07395003 0.13211894 -0.072300896 0.13639057
-0.069883555 -0.21837206 0.27130213 0.24986957 -0.04665769 -0.07669893 0.17102729 0.028696986
-0.041390013 -0.0340534 0.018646706 0.18602383 -0.08381447 -0.17343707 -0.14534739 0.06159167
-0.05889557 0.19005804 -0.067684524 0.41528195 -0.2505931 -0.14392087 0.070594065 0.17725621
-0.08518553 -0.0962377 -0.24797949 0.00784877 -0.13912876 -0.08523862 -0.04500053 0.025578009
-0.05587482 -0.17706127 -0.29224652 -0.24585158 -0.11392952 -0.10571859 -0.121550925 -0.065882236
-0.20213231 -0.067421325 0.004056711 -0.054017548 -0.18531723 -0.050216474 -0.26944998 -0.14985609
-0.0064379806 -0.20709696 0.041404907 0.0360676 -0.0061432784 0.05873572 -0.03874281 0.031848226
-0.0589652 0.27604783 0.15686844 0.052046105 -0.008759736 -0.031224059 0.07602501 0.07710406
-0.09703266 0.47634408 0.24383582 -0.06555891 0.07108532 0.17679435 0.14889224 0.1836501
-0.0032529884 0.13665862 0.033900496 0.020674637 0.11332384 0.010514344 0.20486641 0.11354205
0.039833378 0.15726532 -0.15867135 -0.14243554 0.017182766 0.11381291 -0.058109213 -0.07782859
0.031061213 0.0044650733 -0.08650028 -0.034859095 -0.036520995 -0.1092197 0.26434842 0.041205037
-0.040788844 0.21612486 -0.16932084 -0.14697559 -0.07804106 -0.29629454 0.17168742 0.07448068
-0.013239482 0.025086911 0.044178672 0.012184769 0.36685458 0.14151233 -0.061168958 -0.02077522
0.003528112 -0.05447933 -0.0151663115 -0.07715526 -0.086186215 0.27528688 0.04801203 0.003942669
-0.113997154 -0.20445223 0.109200716 0.2083014 -0.20986979 -0.046689443 -0.15149589 -0.13166626
-0.092938974 -0.036646962 -0.034716815 -0.224959 -0.020916423 -0.05833156 -0.12467564 -0.017636081
0.13451892 -0.1216221 0.048488315 -0.15702449 -0.102477126 -0.25755596 -0.081566654 -0.044920303
00000000: 3928 c2bc af21 423e 728b c0bd 7c33 143e
00000010: 3bbc ef3c d25a a8bd 3b33 2cbc 053b 9bbc
00000020: 8498 0dbc c41b 6ebc 8f61 fb3d 2f16 853c
00000030: b39d bf3d 69d3 9bbd 0d24 18bd 8385 303c
00000040: 218d 0abd 689b a3bd e917 37be a4bb 1fbd
00000050: 3f82 e8bd a214 69be 3495 713d 1234 36bd
00000060: 1709 2abe f7a6 d63c 3d51 e93c 0f13 3bbd
00000070: eea1 783d 944f 12be 6730 e9bc 2969 813b
00000080: acf3 aa3d 3820 113d 9041 1dbe dec2 ebbc
00000090: d430 75bd 131c ed3d 2580 acbd e4fe 8f3d
000000a0: 7220 c1bd 195a 0bbe 3636 35be 6d5a 86be
000000b0: ea1d 323e 0dbc 6bbe a216 7b3d 5061 083d
000000c0: 78a8 bdbd 789a 83bd 8954 4dbe f834 25bd
000000d0: 07af 32be 3a5f 27be cf10 6cbd 09a6 eebd
000000e0: adc5 eabd 7c8f 703d a3e4 dfbd 026e 21be
000000f0: 1bae 12be 7498 34bc 48f8 3ebe 07db 1bbe
00000100: b6e7 24be c8ad 0e3c 0fbb a4bd 4ce0 023d
00000110: f671 433e 6bf3 bbbd 2ef4 40be 6586 3cba
00000120: 0acd 64be 68b4 a2be a002 b33e 45b5 323d
00000130: cdc0 03be 1187 9ebd af07 15be e379 36bc
00000140: d79a 083e fdd9 fc3d 3c2f a2bd b9c8 dc3d
00000150: 9841 0a3e 33c4 453d c5d9 91bd a929 c7bd
00000160: 0f90 bdbc 0c48 383d 7b62 fb3d c7e3 20bd
00000170: c0e8 71be c491 4f3d ae9f 51bc 1dc1 c5bd
00000180: 97e7 0b3e d050 3ebd fea4 233d 89d4 c23b
00000190: 3704 703e 17e0 e03d edb2 973d b394 7a3d
000001a0: c6d3 353c e07c a5be f1f1 38bd 0456 38be
000001b0: 1d73 973d 304a 073e 7e12 94bd f8a9 0b3e
000001c0: 1c1f 8fbd ed9c 5fbe 1de8 8a3e cfdd 7f3e
000001d0: 221c 3fbd 5414 9dbd c721 2f3e f115 eb3c
000001e0: 9388 29bd 947b 0bbd fac0 983c 087d 3e3e
000001f0: eca6 abbd 7d99 31be f2d5 14be 8c47 7c3d
00000200: 7b3c 71bd 939e 423e 2f9e 8abd d69f d43e
00000210: bd4d 80be fe5f 13be 9f93 903d a782 353e
00000220: c075 aebd 4518 c5bd 56ee 7dbe 2198 003c
00000230: c577 0ebe 9691 aebd 7a52 38bd f988 d13c
00000240: ffdc 64bd 8d4f 35be 56a1 95be 84c0 7bbe
00000250: e153 e9bd fd82 d8bd b1ef f8bd 44ed 86bd
00000260: c6fb 4ebe 3114 8abd 29ee 843b 8141 5dbd
00000270: cdc3 3dbe caaf 4dbd 59f5 89be e073 19be
00000280: b2f5 d2bb 3a11 54be 3198 293d 9fbb 133d
00000290: 8e4d c9bb de94 703d c8b0 1ebd 4973 023d
000002a0: 7e85 71bd 2456 8d3e 1fa2 203e 4c2e 553d
000002b0: ff84 0fbc 99c9 ffbc 00b3 9b3d bce8 9d3d
000002c0: 0fb9 c6bd 5fe3 f33e 19b0 793e c043 86bd
000002d0: 2e95 913d 9409 353e 3577 183e c60e 3c3e
000002e0: 1730 55bb 3df0 0b3e 3fdb 0a3d db5d a93c
000002f0: 5416 e83d 5b44 2c3c 80c8 513e bc88 e83d
00000300: 5328 233d 290a 213e be7a 22be 9fda 11be
00000310: dfc2 8c3c be16 e93d ed03 6ebd 9964 9fbd
00000320: 1674 fe3c c04f 923b 0f27 b1bd 69c8 0ebd
00000330: 0a97 15bd 94ae dfbd ad58 873e 9dc6 283d
00000340: 3412 27bd d64f 5d3e 7162 2dbe c580 16be
00000350: fed3 9fbd ebb3 97be d4ce 2f3e 5489 983d
00000360: 6aea 58bc 1183 cd3c b2f4 343d a0a2 473c
00000370: 5dd4 bb3e 9ce8 103e 4d8c 7abd cb30 aabc
00000380: e637 673b b825 5fbd 1f7c 78bc 9403 9ebd
00000390: 6682 b0bd 67f2 8c3e 43a8 443d 8131 813b
000003a0: 5777 e9bd ed5b 51be a0a4 df3d f64c 553e
000003b0: 1be8 56be 6e3d 3fbd bd21 1bbe 85d3 06be
000003c0: ca56 bebd 201b 16bd 3833 0ebd a75b 66be
000003d0: eb58 abbc 13ed 6ebd f155 ffbd 8b79 90bc
000003e0: 54bf 093e 0215 f9bd af9b 463d 07cb 20be
000003f0: 87df d1bd 60de 83be 6b0c a7bd 5afe 37bd

j_weight f4 [32, 32]
0.014005476 0.05652324 0.031201929 0.047669806 0.036248725 -0.06035376 -0.042868372 -0.10759901
-0.05106183 -0.27554372 -0.07003935 -0.00968016 -0.034055512 -0.08619063 -0.24289794 -0.092730485
0.10346635 -0.22332855 -0.31181693 -0.06974749 0.06493304 -0.19985561 0.015415516 -0.362037
0.048005596 -0.17298241 -0.041996952 -0.24592495 -0.054322075 0.012567126 -0.3796475 -0.038236275
0.09514414 0.08846126 0.0035529095 -0.03808752 -0.026092831 0.09880254 0.09562481 0.03284948
0.037669156 -0.21742041 -0.1354449 0.1769637 -0.20401245 0.121547505 0.0308681 0.064119816
-0.039467856 -0.097972184 0.05074227 0.06627312 0.008846184 -0.016945092 0.07563181 0.070341855
0.07973181 -0.017251981 0.10635266 -0.032973338 -0.035790086 0.08533394 -0.14298175 0.029704874
0.0070312307 0.09453661 -0.2874908 0.014741938 0.20782131 -0.08721911 0.13087484 -0.040780544
-0.062277175 0.052850254 -0.06722113 0.059535507 0.079986766 0.18926193 -0.16595036 0.07344638
0.12660435 -0.048040602 0.023477698 0.099721804 -0.02130994 -0.06004143 -0.00379289 -0.10318499
0.12792298 -0.1565977 -0.008588129 -0.049863394 -0.013553831 0.007886235 -0.004035739 -0.030774204
-0.15818585 -0.007990504 -0.008131674 0.039352395 -0.36409745 -0.06257511 0.040442575 0.012791235
0.109415144 -0.043400947 -0.11132816 -0.08961321 -0.055801548 0.051348675 -0.030585175 -0.056444347
-0.09232853 0.15052353 0.2060593 0.067399316 -0.1050751 -0.0386904 0.049715832 0.08412133
0.014110314 -0.050928164 0.20954332 0.20938616 -0.21120273 0.1030611 0.04779296 0.05438455
0.054453135 -0.05768933 0.28165463 -0.25127488 -0.0014862507 0.064995944 -0.043532442 -0.06306743
-0.03610556 -0.030954229 0.17180587 0.15723683 -0.17472948 0.037006393 -0.04141181 -0.087116964
0.1045559 -0.019349774 -0.10341577 0.02219163 0.026641905 0.1428136 -0.05292585 0.064633794
-0.018557768 -0.09474717 -0.066078044 -0.160384 -0.0298383 0.16886613 0.16319673 0.01605807
0.10494339 -0.031587534 0.11177215 -0.024131576 -0.00785724 0.1322589 -0.024876406 -0.050283838
-0.100742765 -0.14379641 0.24130173 0.020516535 0.056740332 -0.07569556 -0.06296002 0.08817425
-0.0063301353 -0.12821129 0.038446814 -0.14919445 0.067879654 0.04743123 0.10186198 0.119361416
0.09671182 0.11274854 0.01561578 -0.068750806 0.19606341 0.11231491 0.06863214 -0.02844223
-0.07311879 0.0456024 -0.021823587 0.021431856 0.15500313 0.19655643 -0.00059046183 -0.18482566
-0.045047775 0.09902013 -0.096522436 -0.022296544 -0.02816401 -0.101230204 -0.12794296 -0.023954298
-0.061336465 -0.19046411 -0.39296165 -0.13134095 -0.1486589 -0.08890718 -0.07093191 -0.27826723
-0.05848675 -0.047170624 -0.03287707 -0.17622092 0.1004582 -0.039751265 -0.02639897 -0.024614487
0.017120758 -0.046004836 -0.111822404 -0.06885635 0.02342359 -0.11091596 0.06021672 0.084851965
-0.13907339 -0.043423675 -0.19570032 0.067910165 -0.09680434 -0.009576495 -0.13057575 -0.0012594594
-0.008056107 -0.09897764 0.070702724 -0.21794453 -0.0396439 0.02953934 -0.10131904 -0.11311528
-0.03150471 0.06448908 -0.13304076 0.031679038 -0.1386411 0.008616056 0.087071866 -0.024946889
00000000: 3977 653c ea84 673d 309b ff3c 6a41 433d
00000010: 8b79 143d 8135 77bd bf96 2fbd df5c dcbd
00000020: 3626 51bd 1114 8dbe ca70 8fbd 8999 1ebc
00000030: cb7d 0bbd b784 b0bd 3dba 78be 7be9 bdbd
00000040: 2ae6 d33d 3db0 64be 78a6 9fbe c6d7 8ebd
00000050: 9dfb 843d f3a6 4cbe 5c91 7c3c ea5c b9be
00000060: 84a1 443d 4d22 31be ff04 2cbd c0d3 7bbe
00000070: d380 5ebd 59e6 4d3c 2861 c2be a49d 1cbd
00000080: eeda c23d 2d2b b53d eed7 683b a901 1cbd
00000090: a2c0 d5bc fc58 ca3d f1d6 c33d 2d8d 063d
000000a0: f94a 1a3d 75a3 5ebe 11b2 0abe f935 353e
000000b0: a4e8 50be e6ed f83d 19df fc3c 4051 833d
000000c0: 0ca9 21bd a4a5 c8bd 20d7 4f3d 34ba 873d
000000d0: 96ef 103c 6fd0 8abc dae4 9a3d 640f 903d
000000e0: 6e4a a33d 0754 8dbc 6ccf d93d 0d0f 07bd
000000f0: a098 12bd 90c3 ae3d cf69 12be a357 f33c
00000100: 3d66 e63b 699c c13d fe31 93be 2b88 713c
00000110: 1ccf 543e ef9f b2bd 0e04 063e 8009 27bd
00000120: 5a16 7fbd 8279 583d 3bab 89bd 81db 733d
00000130: 1ad0 a33d e1cd 413e e4ee 29be 0e6b 963d
00000140: 92a4 013e 39c6 44bd 4d54 c03c f23a cc3d
00000150: 2f92 aebc 01ee 75bd 2392 78bb a752 d3bd
00000160: 3efe 023e 265b 20be 39b5 0cbc 8f3d 4cbd
00000170: e310 5ebc 4435 013c 3c3e 84bb 2f1a fcbc
00000180: 79fb 21be 9aea 02bc b63a 05bc fa2f 213d
00000190: fb6a babe 6127 80bd 1da7 253d 5492 513c
000001a0: 0c15 e03d 31c5 31bd 0500 e4bd 2187 b7bd
000001b0: 2a90 64bd fd52 523d c38d fabc 3032 67bd
000001c0: be16 bdbd d722 1a3e 3601 533e a708 8a3d
000001d0: 9d31 d7bd d379 1ebd d4a2 4b3d ce47 ac3d
000001e0: f22e 673c 0d9a 50bd 8692 563e 5369 563e
000001f0: 8745 58be b311 d33d 8dc2 433d 55c2 5e3d
00000200: 400a 5f3d a64b 6cbd 0935 903e 1aa7 80be
00000210: 4cce c2ba 981c 853d 134f 32bd 7f29 81bd
00000220: 6ce3 13bd b993 fdbc e1ed 2f3e b102 213e
00000230: 49ec 32be 0494 173d 6e9f 29bd 616a b2bd
00000240: 6721 d63d 6b83 9ebc a6cb d3bd 39cb b53c
00000250: 2040 da3c ba3d 123e c7c8 58bd b95e 843d
00000260: 7606 98bc ce0a c2bd ed53 87bd b43b 24be
00000270: 736f f4bc 3eeb 2c3e 0b1d 273e 378c 833c
00000280: 8fec d63d ee61 01bd cce8 e43d 95af c5bc
00000290: a7bb 00bc e16e 073e 9bc9 cbbc 6df6 4dbd
000002a0: 3952 cebd 5e3f 13be cd17 773e 4b12 a83c
000002b0: 8d68 683d 4606 9bbd 2ff1 80bd b494 b43d
000002c0: 066d cfbb d249 03be 687a 1d3d 6ec6 18be
000002d0: 7d04 8b3d 4047 423d 049d d03d c273 f43d
000002e0: d910 c63d b5e8 e63d 54d9 7f3c 39cd 8cbd
000002f0: d9c4 483e 5c05 e63d 028f 8c3d aeff e8bc
00000300: 4ebf 95bd 95c9 3a3d 61c7 b2bc dc91 af3c
00000310: 24b9 1e3e 1746 493e 39c9 1aba f042 3dbe
00000320: 0484 38bd 11cb ca3d 8ead c5bd 3ea7 b6bc
00000330: 36b8 e6bc c851 cfbd 7b03 03be ce3b c4bc
00000340: f23b 7bbd 0609 43be 4532 c9be 3e7e 06be
00000350: 0a3a 18be f814 b6bd c044 91bd 0b79 8ebe
00000360: cd8f 6fbd fc35 41bd 1baa 06bd 4273 34be
00000370: 07bd cd3d 39d2 22bd a742 d8bc 52a4 c9bc
00000380: d540 8c3c 916f 3cbd 2503 e5bd 8f04 8dbd
00000390: d4e2 bf3c e827 e3bd cfa5 763d dec6 ad3d
000003a0: 4169 0ebe 06dd 31bd aa65 48be 7c14 8b3d
000003b0: 5b41 c6bd bbe6 1cbc a6b5 05be 7214 a5ba
000003c0: c3fd 03bc cab4 cabd 97cc 903d da2c 5fbe
000003d0: a461 22bd 7cfc f13c 5b80 cfbd fca8 e7bd
000003e0: 150b 01bd da12 843d d63b 08be e1c1 013d
000003f0: eff7 0dbe 5c2a 0d3c bc52 b23d 6b5d ccbc

k_weight f4 [32, 32]
-0.01699372 0.010018607 -0.07804583 -0.00037764557 0.08702496 -0.09715837 0.08804063 0.022630285
0.05635282 -0.11302029 -0.08846114 0.08165159 -0.1442452 0.015535324 -0.049284246 0.108453214
-0.14659402 0.09100457 -0.025650281 0.047473427 -0.12498845 -0.036703322 -0.09480943 0.10995262
-0.18761918 -0.008348745 0.18652275 0.08079254 0.11964359 0.19859137 0.049664196 -0.004501194
-0.00877354 -0.07665199 0.14366592 -0.044507787 0.016430572 0.22362767 0.035974495 0.12117987
-0.21273243 0.18246737 0.1186189 -0.019882062 0.11788946 -0.13234067 0.25323287 0.06626896
0.06368334 0.32124963 0.062395178 0.03568917 0.0207249 0.23928188 0.22871758 0.25908548
-0.07533158 -0.004544644 0.2538885 0.03203327 0.17227796 0.075666204 0.16136764 0.049160108
0.13812275 -0.033443857 0.026240824 -0.033220492 -0.09326369 0.020209676 0.05212425 0.045120552
-0.07406527 0.032911506 -0.056570355 -0.056644794 0.10120362 -0.08714068 -0.10934012 -0.05540559
0.030603247 -0.0012460765 0.24534439 -0.008545414 0.10575498 -0.08249699 0.14395663 0.029300215
-0.1126846 0.18205716 -0.019027736 0.26934773 -0.13428143 0.0767671 -0.08408773 -0.017916359
0.31446394 -0.11106668 0.009067872 0.069829404 -0.38997912 -0.026577411 0.11359061 -0.017844746
0.3765517 0.28858203 -0.2242714 -0.0023477327 0.11916089 -0.013274894 0.33090743 0.1559816
-0.36784464 0.018208405 0.14892653 -0.37066934 -0.08398514 -0.013882156 0.3359345 0.17997572
-0.07291803 0.027207999 0.07080931 0.21347725 0.26697674 0.09459429 0.29406348 -0.10574847
-0.046831995 -0.17669317 -0.016633654 -0.19026433 -0.17486395 -0.08898223 -0.00785227 -0.0045148446
-0.38971373 0.057939123 0.20615236 0.12061951 -0.08713938 -0.01005895 0.14324555 -0.0844978
0.04646493 0.14959536 0.25850856 -0.039848566 -0.002352032 -0.009838523 0.034511983 0.31134155
-0.16689146 -0.1363387 0.15792361 -0.04006356 -0.0039447807 0.031571873 0.16451883 0.09999931
0.03933552 -0.049839605 0.02528417 0.10695794 0.19354321 -0.03424012 -0.03557409 0.0029535862
0.08322314 0.052740768 0.036227725 0.0019874629 0.03685977 0.0647958 0.13235441 0.05493511
0.077081785 0.027354553 -0.029775932 0.046222914 -0.024529666 0.24175067 0.2751574 0.036592726
0.1865342 0.07544877 0.064274035 0.03708576 0.09021365 -0.033284456 0.023613133 0.055421025
-0.04717531 0.044926707 0.13479894 -0.026088834 -0.19588281 0.08947442 0.07912777 0.10574251
0.008074584 -0.21949425 -0.17701924 0.12688984 -0.17308609 -0.024626661 -0.16125199 -0.022200173
0.037057545 -0.0031960504 0.06134449 0.056958526 -0.06405936 -0.027633065 -0.29615512 -0.11478312
-0.03359649 0.027458725 -0.13805369 -0.10225868 0.031018522 0.10487809 -0.21882987 -0.014236639
0.13767332 -0.019601583 0.063916355 0.039708704 -0.100365005 0.06390781 0.111670874 0.09544244
0.01083578 -0.16474217 -0.07654168 -0.061388828 -0.032847732 0.002712798 0.065443195 0.08871433
-0.18683735 0.034054037 0.2973918 0.045576617 0.034950443 -0.06635741 0.03390397 0.0888926
0.041649345 -0.036633547 0.14817944 0.08542158 -0.13415554 -0.08162929 0.12170421 -0.0029757207
00000000: 6a36 8bbc 1525 243c 7ed6 9fbd bbfe c5b9
00000010: 243a b23d f8fa c6bd a54e b43d 2663 b93c
00000020: 37d2 663d 2f77 e7bd 1d2b b5bd f338 a73d
00000030: 04b5 13be df87 7e3c 47de 49bd b81c de3d
00000040: be1c 16be 9b60 ba3d 8a20 d2bc 7f73 423d
00000050: f2f9 ffbd 3956 16bd 722b c2bd d72e e13d
00000060: 3e1f 40be 2dc9 08bc d2ff 3e3e 8f76 a53d
00000070: b307 f53d 895b 4b3e af6c 4b3d c17e 93bb
00000080: e5be 0fbc b8fb 9cbd 291d 133e cc4d 36bd
00000090: 6899 863c a7fe 643e fe59 133d 272d f83d
000000a0: 88d6 59be bad8 3a3e 77ee f23d b5df a2bc
000000b0: 0770 f13d 5084 07be bda7 813e 05b8 873d
000000c0: 696c 823d d57a a43e 1692 7f3d cf2e 123d
000000d0: 44c7 a93c 4f06 753e f134 6a3e daa6 843e
000000e0: 7247 9abd 3deb 94bb acfd 813e 5135 033d
000000f0: a269 303e e2f6 9a3d 8f3d 253e 1c5c 493d
00000100: 0d70 0d3e 6dfc 08bd fff6 d63c 3612 08bd
00000110: 0901 bfbd c38e a53c 3d80 553d 54d0 383d
00000120: 88af 97bd 37ce 063d 51b6 67bd 5f04 68bd
00000130: d843 cf3d d076 b2bd b6ed dfbd f9f0 62bd
00000140: a9b3 fa3c 6453 a3ba 8f3b 7b3e 1002 0cbc
00000150: 1196 d83d 2ff4 a8bd 5e69 133e 0107 f03c
00000160: 2fc7 e6bd 316d 3a3e 0ee0 9bbc f2e7 893e
00000170: 1281 09be 1238 9d3d 3036 acbd 54c5 92bc
00000180: 6b01 a13e ed76 e3bd 6991 143c b802 8f3d
00000190: 58ab c7be dfb8 d9bc 32a2 e83d 252f 92bc
000001a0: 62cb c03e 06c1 933e 67a7 65be 6bdc 19bb
000001b0: a00a f43d f17e 59bc b36c a93e a4b9 1f3e
000001c0: 2256 bcbe cb29 953c 3280 183e 5fc8 bdbe
000001d0: 6700 acbd fc71 63bc 9bff ab3e 8e4b 383e
000001e0: 0c56 95bd 4fe3 de3c 7904 913d c899 5a3e
000001f0: 2db1 883e a7ba c13d 7d8f 963e a792 d8bd
00000200: e8d2 3fbd 0eef 34be 4d43 88bc a7d4 42be
00000210: 890f 33be 513c b6bd cfa6 00bc 43f1 93bb
00000220: 8f88 c7be 9351 6d3d 9b19 533e 5d07 f73d
00000230: 2276 b2bd 4bce 24bc f6ae 123e 2f0d adbd
00000240: 0352 3e3d 872f 193e 3c5b 843e 4038 23bd
00000250: 8d24 1abb c231 21bc 705c 0d3d 2968 9f3e
00000260: 98e5 2abe 5f9c 0bbe bab6 213e b019 24bd
00000270: 3843 81bb 8251 013d a077 283e 70cc cc3d
00000280: 481e 213d 9d24 4cbd bf20 cf3c c40c db3d
00000290: 3130 463e 5e3f 0cbd 23b6 11bd f490 413b
000002a0: e570 aa3d b406 583d 8663 143d 1840 023b
000002b0: 45fa 163d a9b3 843d ea87 073e a303 613d
000002c0: 0edd 9d3d a816 e03c a8ec f3bc 3d54 3d3d
000002d0: 70f2 c8bc 7d8d 773e 6ee1 8c3e 41e2 153d
000002e0: d202 3f3e e284 9a3d 1ba2 833d 3de7 173d
000002f0: efc1 b83d 4855 08bd 5470 c13c 2801 633d
00000300: e63a 41bd 1105 383d bc08 0a3e 40b8 d5bc
00000310: 8195 48be 5d3e b73d be0d a23d 878f d83d
00000320: 434b 043c 1ac3 60be 8844 35be 69ef 013e
00000330: 7b3d 31be dabd c9bc 3e1f 25be 23dd b5bc
00000340: a7c9 173d d474 51bb 5c44 7b3d 584d 693d
00000350: 8e31 83bd bd5e e2bc a5a1 97be 6a13 ebbd
00000360: 799c 09bd 1ff1 e03c f25d 0dbe 006d d1bd
00000370: 8e1a fe3c 53ca d63d f014 60be cb40 69bc
00000380: 3cfa 0c3e 8093 a0bc 94e6 823d 98a5 223d
00000390: 2b8c cdbd 19e2 823d b3b3 e43d 5377 c33d
000003a0: 8e88 313c 2cb2 28be e2c1 9cbd da72 7bbd
000003b0: 588b 06bd 33c9 313b 1507 863d dcaf b53d
000003c0: 4a52 3fbe 3f7c 0b3d bd43 983e 8cae 3a3d
000003d0: 3228 0f3d 65e6 87bd e4de 0a3d 530d b63d
000003e0: 8198 2a3d 0f0d 16bd 5abc 173e 82f1 ae3d
000003f0: 1260 09be 422d a7bd 0f40 f93d 4f04 43bb

r_weight f4 [1, 32]
-0.1679007 -0.14142819 -0.1940693 0.43368813 -0.024489667 -0.27432328 -0.6365889 -0.36434343
0.0676005 -0.1428658 -0.28917634 -0.1895092 -0.42455468 0.058651213 0.15804416 -0.15259923
-0.09158284 -0.2109998 -0.124974504 -0.046330977 -0.33518448 -0.47870162 0.15217043 -0.3549845
0.26020858 -0.091721036 0.07883372 0.07542423 -0.24920402 0.06709724 -0.05742924 0.036711413
00000000: 29ee 2bbe 8dd2 10be 1aba 46be 5f0c de3e
00000010: 8e9e c8bc 1a74 8cbe 7df7 22bf 398b babe
00000020: 2272 8a3d 6a4b 12be ec0e 94be b30e 42be
00000030: 3b5f d9be 413c 703d 54d6 213e f942 1cbe
00000040: c98f bbbd 5510 58be a2f2 ffbd 8dc5 3dbd
00000050: 4d9d abbe 6118 f5be 91d2 1b3e 87c0 b5be
00000060: 0f3a 853e 3dd8 bbbd 9373 a13d 0578 9a3d
00000070: 572f 7fbe 476a 893d ec3a 6bbd b55e 163d

i_weight f4 [1, 32]
-0.049522236 -0.05324703 -0.23324616 0.027005985 0.08273535 0.10294132 -0.28367883 -0.09040079
0.011871801 -0.01619036 0.03052527 0.03422072 -0.16023268 0.25133774 -0.12657245 -0.009891067
-0.008545822 -0.021059772 -0.018354496 -0.12863316 -0.2113347 0.09903139 0.066301405 -0.109772034
-0.12667783 -0.0081496695 0.07786662 0.03616194 0.036620192 0.31604594 -0.006584712 0.04868723
00000000: d4d7 4abd 8f19 5abd 15d8 6ebe a83b dd3c
00000010: 2771 a93d e6d2 d23d 5a3e 91be 0d24 b9bd
00000020: f181 423c a5a1 84bc 2210 fa3c 072b 0c3d
00000030: 0914 24be 57af 803e 359c 01be 240e 22bc
00000040: c703 0cbc 8b85 acbc 2b5c 96bc 69b8 03be
00000050: 2068 58be f8d0 ca3d 08c9 873d 29d0 e0bd
00000060: d5b7 01be 3186 05bc 8978 9f3d 8b1e 143d
00000070: 0eff 153d c6d0 a13e 91c4 d7bb 436c 473d

j_weight f4 [1, 32]
-0.03647745 0.17687923 -0.16040538 0.08111558 0.2503621 0.055352252 0.033193547 -0.057211675
0.026082668 0.103706785 -0.0076178857 -0.015660914 -0.030268898 -0.06033232 0.01097469 -0.081896506
0.052658416 -0.13813886 0.12188472 -0.1739254 -0.16556637 -0.23175271 -0.0574592 0.118194215
-0.067149356 0.015096116 -0.13025403 -0.20137745 -0.12683186 0.20671205 0.11161303 0.30343834
00000000: 6169 15bd d41f 353e 4f41 24be ed1f a63d
00000010: 762f 803e 0bb9 623d f5f5 073d ca56 6abd
00000020: 52ab d53c 3964 d43d 759f f9bb 514b 80bc
00000030: 7bf6 f7bc 061f 77bd 30cf 333c 5bb9 a7bd
00000040: 5ab0 573d 4674 0dbe b29e f93d 8019 32be
00000050: 3b8a 29be 9550 6dbe 575a 6bbd cf0f f23d
00000060: 9a85 89bd b355 773c 5061 05be e435 4ebe
00000070: 36e0 01be 53ac 533e 5f95 e43d 455c 9b3e

k_weight f4 [1, 32]
0.014376125 0.11597202 -0.024710795 -0.05481353 -0.04838109 -0.127224 -0.11544447 -0.06986169
-0.1232244 0.003516563 0.25545526 0.012328326 0.028689118 0.118494585 0.08564478 -0.06697955
0.09741668 0.16076122 -0.15427583 -0.24140987 0.014574434 0.0317037 -0.008819478 -0.14691162
-0.12792833 0.23709247 0.0978824 0.19681966 -0.017155468 0.5197342 0.09199747 -0.18964154
00000000: d789 6b3c bd82 ed3d 4b6e cabc 2784 60bd
00000010: 402b 46bd 0247 02be 266e ecbd a513 8fbd
00000020: 135d fcbd 2376 663b 08cb 823e bffc 493c
00000030: 7105 eb3c 4aad f23d 8866 af3d 932c 89bd
00000040: 6582 c73d 979e 243e 7cfa 1dbe 2634 77be
00000050: 9bc9 6e3c bddb 013d 927f 10bc 0070 16be
00000060: a5ff 02be 5ec8 723e 9176 c83d 188b 493e
00000070: a089 8cbc 4d0d 053f 2b69 bc3d 6431 42be

bias f4 [128]
0.041451138 -0.2581045 -0.167974 0.12935199 0.022763373 -0.37974465 -0.0027377 -0.32631314
-0.2445466 0.07622558 -0.03510032 0.09891378 -0.09203234 0.009756333 0.07581524 0.23702028
0.10189715 0.087771304 -0.0038805811 -0.0946346 -0.50003767 -0.02218786 0.08953868 -0.071321525
0.19421087 -0.0017926894 0.106242016 0.14252818 -0.03320809 -0.304696 0.24804313 -0.20912026
0.111928925 -0.26246014 -0.15525472 0.014543107 0.19854182 -0.20051734 0.039266713 -0.47262794
-0.20320067 0.040397555 0.028026849 0.17315076 -0.2012944 -0.14186776 0.042788047 0.11135408
0.016636942 0.06908291 0.017024249 -0.06407943 -0.27716607 0.03533085 0.21715333 0.11789031
0.21096008 -0.06490785 -0.16761914 0.13811351 -0.23663734 0.035804488 0.23834793 -0.057885226
0.090714954 -0.34156054 -0.12065491 0.07280746 0.15599301 -0.0065672463 -0.14341871 -0.30546033
-0.2540371 -0.058339294 -0.19475695 0.09166524 -0.19193266 -0.23334566 0.0682338 0.04612423
-0.10658229 0.10586178 0.11962168 -0.20959648 -0.3619629 -0.08358924 0.08974334 0.16359971
0.11903834 0.114740066 0.17386061 0.07110912 -0.14093226 -0.042171136 0.21202634 -0.2291709
0.16248898 -0.11451143 -0.12573175 0.07939995 -0.024871884 -0.114178054 -0.15507998 -0.43607286
-0.13720012 0.063327864 0.03424427 0.16762717 -0.07713913 -0.08469407 0.08286231 0.23987414
0.0493513 0.0725035 -0.00035797412 -0.0016892876 -0.32625863 -0.0472739 0.25850412 0.066321425
0.27519447 0.2955312 0.037547637 0.27283418 -0.00390973 0.024029037 0.24858303 -0.18887097
00000000: abc8 293d 4626 84be 6001 2cbe d974 043e
00000010: 417a ba3c e46d c2be fc6a 33bb 8412 a7be
00000020: 6d6a 7abe 281c 9c3d 5ac5 0fbd 4f93 ca3d
00000030: 747b bcbd 07d9 1f3c 0545 9b3d 72b5 723e
00000040: 74af d03d 71c1 b33d 5951 7ebb c9cf c1bd
00000050: 7802 00bf 51c3 b5bc 0e60 b73d 0511 92bd
00000060: 37df 463e adf8 eaba 6a95 d93d e8f2 113e
00000070: 3505 08bd 1d01 9cbe 05ff 7d3e 9f23 56be
00000080: fe3a e53d 2d61 86be 18fb 1ebe 3646 6e3c
00000090: 8c4e 4b3e 6b54 4dbe 22d6 203d 4afc f1be
000000a0: d613 50be e877 253d 9098 e53c 6f4e 313e
000000b0: 1f20 4ebe c845 11be 8542 2f3d 9c0d e43d
000000c0: 324a 883c 577b 8d3d 7076 8b3c 143c 83bd
000000d0: b6e8 8dbe 15b7 103d 715d 5e3e 7a70 f13d
000000e0: eb05 583e 68ee 84bd 5aa4 2bbe a16d 0d3e
000000f0: 0f51 72be baa7 123d 7b11 743e 0f19 6dbd
00000100: c3c8 b93d 06e1 aebe ec19 f7bd 141c 953d
00000110: a2bc 1f3e 0e32 d7bb 5bdc 12be 4c65 9cbe
00000120: 2711 82be 2ff5 6ebd 5e6e 47be fcba bb3d
00000130: ff89 44be 2af2 6ebe 2abe 8b3d c3ec 3c3d
00000140: d147 dabd 10ce d83d 36fc f43d 76a0 56be
00000150: 3453 b9be d630 abbd 5bcb b73d af86 273e
00000160: 60ca f33d d7fc ea3d 8408 323e a9a1 913d
00000170: 8c50 10be a4bb 2cbd 6f1d 593e c7ab 6abe
00000180: 8363 263e f884 eabd d3bf 00be 719c a23d
00000190: 1fc0 cbbc 2fd6 e9bd 49cd 1ebe f144 dfbe
000001a0: 307e 0cbe 0ab2 813d b843 0c3d 75a6 2b3e
000001b0: 1ffb 9dbd 1674 adbd b7b3 a93d 91a1 753e
000001c0: 9724 4a3d b77c 943d 79ae bbb9 166b ddba
000001d0: 5f0b a7be 47a2 41bd a75a 843e 87d3 873d
000001e0: 4ae6 8c3e de4f 973e 8dcb 193d ecb0 8b3e
000001f0: 311d 80bb 8bd8 c43c 8d8c 7e3e 6467 41be

r_weight f4 [32, 32]
-0.05937961 -0.030876664 0.042420704 -0.13028207 0.17569305 -0.16419812 -0.04676508 0.21441168
0.19482832 0.041448135 0.10797135 -0.03240959 0.17888297 0.17283398 -0.14352016 0.11047422
0.048459545 -0.00635496 0.14570713 -0.108428866 0.19651674 0.19798961 0.21717207 -0.16619156
0.095861055 0.21001779 -0.18436359 0.1440521 0.06749612 0.02308393 0.013936265 -0.31370375
0.038759463 0.10214881 -0.014633428 0.14431483 0.24693282 0.06843265 -0.024464667 -0.034003247
-0.1312961 0.23659217 0.12750979 0.064538404 -0.14962022 -0.092833064 0.07938353 0.26954782
-0.09679027 0.16643617 -0.08978143 -0.035672054 -0.07119511 0.20424122 0.12424032 0.24566634
0.11591171 0.10465019 0.048016056 0.14325875 0.22007816 -0.17180365 0.06320608 -0.08717796
0.01330337 0.013952466 0.28532863 -0.18527126 0.40573636 -0.061022855 -0.25915727 -0.09474465
0.057676762 -0.19010507 -0.0068577235 0.0350951 -0.09377314 -0.02151894 -0.013174604 0.2321923
-0.08115204 -0.24511828 0.00046884894 0.038596906 -0.21533108 0.1523921 -0.30213276 -0.14151849
-0.17483312 0.16522053 -0.15980268 -0.15210877 0.13860974 -0.015484402 -0.19203281 0.2149769
-0.03163375 -0.16446367 -0.32487613 0.13137875 -0.07433374 -0.23643826 0.13677283 -0.09162082
0.16445427 -0.27876323 -0.4031435 0.031976767 -0.07793388 0.011474483 0.11350031 0.14910835
0.020191113 -0.21733588 0.10947982 -0.0019239513 0.083862856 -0.54269457 0.26459345 0.025781106
0.109970376 0.13173345 -0.149898 0.12503743 -0.0028935694 -0.18088967 -0.29859698 -0.20771062
0.017401237 -0.048200373 -0.19302748 -0.1289597 -0.30306205 -0.12574157 0.24771805 0.20335488
0.079345405 0.07472221 -0.05471289 0.1805598 0.06275141 -0.12216941 0.0627962 0.0816212
0.0038422097 0.26990867 0.39955798 -0.18074733 0.12895429 -0.06760954 -0.15923284 0.40866536
-0.03252266 -0.23865928 0.10933822 -0.23136692 -0.107785985 -0.45047307 0.35220757 0.15506388
0.03878118 -0.03707708 0.133751 0.19229668 -0.01498632 -0.17189342 -0.046661947 -0.2584212
-0.2023408 0.24675398 0.1486219 -0.109068766 0.05978981 -0.32349578 0.20091884 0.13155644
0.07340314 0.32345405 0.43476367 0.053030062 0.21387617 0.44163972 -0.20000231 -0.087581776
-0.04331285 -0.39051172 0.034215186 -0.29836082 -0.20949334 0.10496592 0.2514691 0.31848803
-0.15926379 0.1003291 0.14824215 -0.06645285 -0.25899735 0.27619204 -0.19152589 0.24939206
0.048960477 0.047201876 0.07444494 0.055922028 0.13830115 -0.15167014 0.21778743 -0.00018023327
0.16150822 0.0036538402 -0.22849868 0.26703992 -0.019080427 -0.16334447 -0.03559784 -0.057438932
0.079575464 0.04409418 0.32424372 0.09722606 -0.11371335 0.163204 0.12825246 -0.15425493
-0.038514283 -0.14382403 0.100311115 0.06281583 0.07842408 -0.16064326 0.03831185 0.21603511
0.06614797 0.039525073 -0.50412625 -0.12636195 0.20030242 0.121536724 0.2163278 0.19569927
-0.22435343 -0.32736316 -0.26752195 0.21383227 0.016124781 0.08304184 0.2223098 0.10018492
0.108067244 0.14428852 -0.061654244 0.16902342 -0.008908672 -0.26603547 -0.14728789 -0.24845
00000000: 0938 73bd 0ff1 fcbc 55c1 2d3d aa68 05be
00000010: e1e8 333e 8d23 28be be8c 3fbd bc8e 5b3e
00000020: 1381 473e 85c5 293d 1520 dd3d ebbf 04bd
00000030: 192d 373e 64fb 303e f3f6 12be 4f40 e23d
00000040: 847d 463d 453d d0bb 4034 153e f40f debd
00000050: af3b 493e cabd 4a3e 5b62 5e3e 1f2e 2abe
00000060: cd52 c43d e70e 573e cfc9 3cbe 6582 133e
00000070: 683b 8a3d 831a bd3c ef54 643c c79d a0be
00000080: 3ec2 1e3d 6533 d13d 0cc1 6fbc 44c7 133e
00000090: f5db 7c3e 6b26 8c3d 206a c8bc fd46 0bbd
000000a0: 7c72 06be 3845 723e ed91 023e b62c 843d
000000b0: 0b36 19be 431f bebd d593 a23d 2c02 8a3e
000000c0: fa39 c6bd 3e6e 2a3e 54df b7bd dc1c 12bd
000000d0: bece 91bd 9c24 513e b571 fe3d f58f 7b3e
000000e0: 1e63 ed3d d752 d63d 7cac 443d 6cb2 123e
000000f0: 2b5c 613e 4ced 2fbe 3072 813d 5c8a b2bd
00000100: 61f6 593c e298 643c 9816 923e c0b7 3dbe
00000110: adbc cf3e 1af3 79bd 43b0 84be 7c09 c2bd
00000120: 783e 6c3d e7aa 42be c1b6 e0bb e1bf 0f3d
00000130: 220c c0bd 7d48 b0bc 4bda 57bc d1c3 6d3e
00000140: 0a33 a6bd 4900 7bbe d7cf f539 ca17 1e3d
00000150: c07f 5cbe ad0c 1c3e 25b1 9abe 39ea 10be
00000160: 7407 33be 922f 293e 50a3 23be 67c2 1bbe
00000170: b6ef 0d3e 4ab2 7dbc 40a4 44be e822 5c3e
00000180: 6492 01bd 2a69 28be 2a56 a6be 2788 063e
00000190: 4a3c 98bd df1c 72be 2d0e 0c3e b2a3 bbbd
000001a0: b366 283e 0eba 8ebe d368 cebe 12fa 023d
000001b0: cc9b 9fbd 78ff 3b3c da72 e83d dcaf 183e
000001c0: d567 a53c 4c8d 5ebe f536 e03d 182d fcba
000001d0: 4ac0 ab3d 08ee 0abf cb78 873e e632 d33c
000001e0: 2638 e13d 22e5 063e dc7e 19be d009 003e
000001f0: 0aa2 3dbb 243b 39be b4e1 98be 18b2 54be
00000200: 0a8d 8e3c c16d 45bd ffa8 45be 030e 04be
00000210: f32a 9bbe 66c2 00be cda9 7d3e 433c 503e
00000220: d87f a23d f507 993d a01a 60bd abe4 383e
00000230: d083 803d f533 fabd 4b9b 803d 0429 a73d
00000240: 95cd 7b3b 7831 8a3e dd92 cc3e d415 39be
00000250: 980c 043e df76 8abd ef0d 23be 963c d13e
00000260: 7b36 05bd 1963 74be b7ec df3d 73eb 6cbe
00000270: e6be dcbd 68a4 e6be 8d54 b43e 11c9 1e3e
00000280: 04d9 1e3d 23de 17bd 06f6 083e 6ce9 443e
00000290: 2f89 75bc d404 30be 9920 3fbd c94f 84be
000002a0: 6d32 4fbe 13ad 7c3e 5730 183e 725f dfbd
000002b0: 29e6 743d 3da1 a5be abbd 4d3e bbb6 063e
000002c0: 6354 963d c59b a53e 5899 de3e 0d36 593d
000002d0: 5b02 5b3e 9a1e e23e 68cd 4cbe 135e b3bd
000002e0: d168 31bd 27f1 c7be 3925 0c3d c0c2 98be
000002f0: 6c85 56be 5ff8 d63d 8fc0 803e dd10 a33e
00000300: 0c16 23be 5879 cd3d cacc 173e 6f18 88bd
00000310: 4d9b 84be 0b69 8d3e 5d1f 44be a260 7f3e
00000320: c88a 483d c156 413d 9776 983d 7f0e 653d
00000330: d19e 0d3e 6b4f 1bbe ab03 5f3e 00fd 3cb9
00000340: 6962 253e 4475 6f3b 8ffb 69be 75b9 883e
00000350: 8e4e 9cbc c643 27be 0acf 11bd 1645 6bbd
00000360: 76f8 a23d 199c 343d 4603 a63e 751e c73d
00000370: 8be2 e8bd f31e 273e 9d54 033e 01f5 1dbe
00000380: 27c1 1dbd 9b46 13be ea6f cd3d 96a5 803d
00000390: ce9c a03d ab7f 24be e3ec 1c3d 4f38 5d3e
000003a0: 9678 873d 0be5 213d 6b0e 01bf 0765 01be
000003b0: 141c 4d3e 3fe8 f83d 0985 5d3e 6465 483e
000003c0: e8bc 65be 259c a7be a3f8 88be d9f6 5a3e
000003d0: 1e18 843c d711 aa3d 2ea5 633e c02d cd3d
000003e0: 5c52 dd3d 5fc0 133e 2989 7cbd 7a14 2d3e
000003f0: aef5 11bc cd35 88be a3d2 16be ad69 7ebe

i_weight f4 [32, 32]
-0.009594067 0.14550954 0.007725944 0.09632318 -0.04308602 0.19100967 0.012460244 0.061944954
0.12450922 -0.09987367 -0.09296162 -0.06256491 0.073512174 0.17397684 -0.22456807 -0.10493215
-0.12303826 0.029789152 -0.21754256 0.07462812 -0.015763192 -0.094889484 0.19388941 -0.20497225
0.042175066 0.04717194 -0.055170026 0.029634377 -0.014512407 0.069034696 -0.29593974 -0.08586884
-0.060671087 0.012499655 -0.15391055 -0.13249695 0.09957318 0.1409932 -0.29127383 0.1442264
0.10069474 -0.20882799 -0.016243402 -0.067859195 0.10322516 0.104964405 -0.13133812 -0.16013667
0.07038592 -0.053729046 -0.19124626 0.037386335 -0.04601825 -0.016251575 0.09154737 -0.19812265
0.03374736 0.04844613 0.022022238 -0.006197972 0.01862339 -0.18958047 -0.37359726 -0.2676913
-0.04706655 -0.020359842 -0.24543369 -0.18134294 0.03676066 -0.2386046 -0.18717933 0.13515949
-0.114988305 -0.27248982 0.22018087 -0.016288746 0.09958454 0.19281416 -0.22547704 -0.12882346
0.1441126 0.09808822 -0.0341416 0.21109578 0.009456836 -0.07841946 -0.046884343 -0.18349732
-0.14159879 0.07251611 0.042936333 -0.14499368 -0.15279919 0.10866827 -0.19861074 -0.12652296
-0.06325477 -0.068515964 0.050744083 -0.01323799 0.11680153 -0.008021026 -0.040019527 -0.017015005
0.065778546 -0.23092632 0.15618497 -0.18884274 0.03023814 0.32894453 -0.2278261 0.037704907
0.023900444 -0.05503194 0.24298356 0.14394759 0.078863494 -0.18445516 -0.0043176156 -0.063841835
0.20908381 -0.027541919 0.0067311027 0.01582388 -0.09297449 -0.2682167 -0.37674123 -0.0037691465
-0.0139892595 0.118383065 0.020191662 -0.10827584 -0.0879252 0.23305492 -0.10800683 0.091593795
0.11021429 -0.08285816 -0.121178195 0.042158302 0.01891816 0.339616 -0.13731763 -0.08402857
-0.03211253 -0.20532103 -0.33543843 -0.17679323 -0.004146355 -0.06606598 0.20356992 -0.08573122
-0.044664532 0.15819441 -0.014668273 0.1300356 -0.22210105 0.1438987 -0.48547557 -0.23149826
-0.067195095 -0.13491184 -0.034782838 0.08921055 -0.13814759 0.13144341 0.27268246 0.12979403
-0.10564389 0.2746489 0.1729729 0.015836809 0.07940686 -0.10391443 0.25767043 0.22800215
-0.10510931 0.31926012 0.39995876 -0.07940953 -0.041792896 0.10253012 -0.18219006 0.35515276
-0.15179044 -0.08665054 0.16948254 -0.083336264 0.127411 0.032344196 0.51061815 0.20233066
-0.021092998 0.04597246 0.12233576 -0.029435925 -0.15430847 -0.056438986 0.033572618 -0.0051343655
0.0863408 0.3156986 -0.2141509 0.14599602 0.07197409 0.024740117 0.3604543 0.095594905
-0.24975626 0.26960996 -0.17988817 -0.11173293 -0.05794028 -0.113095105 0.06549071 0.10012833
-0.017097946 -0.060579255 0.042223033 0.005866561 0.049713057 0.112056494 0.20300922 -0.029771408
0.008593973 -0.0103470795 0.2543656 -0.1665276 0.014810636 -0.051741164 -0.06819273 0.10110503
-0.09358801 -0.383939 0.07888347 -0.011026691 -0.007915671 -0.017819328 -0.2067265 -0.11265904
0.027619684 -0.045998298 -0.12173299 -0.021540938 0.1854015 -0.09376945 0.1160939 -0.20447771
0.23734464 -0.3397553 -0.005768739 0.12718122 -0.08048233 -0.016647246 -0.28848937 0.16579928
00000000: 6f30 1dbc 7400 153e ea29 fd3b 1645 c53d
00000010: f77a 30bd 0a98 433e 0d26 4c3c feb9 7d3d
00000020: b1fe fe3d 918a ccbd a962 bebd 0822 80bd
00000030: 8d8d 963d fc26 323e 2cf5 65be abe6 d6bd
00000040: 7cfb fbbd 6108 f43c 7ac3 5ebe a1d6 983d
00000050: cf21 81bc 6b55 c2bd f28a 463e 3fe4 51be
00000060: c3bf 2c3d 5d37 413d f7f9 61bd cbc3 f23c
00000070: 72c5 6dbc 1062 8d3d 6a85 97be 01dc afbd
00000080: 3f82 78bd 5acb 4c3c ba9a 1dbe 48ad 07be
00000090: 06ed cb3d 8560 103e d821 95be 16b0 133e
000000a0: 0b39 ce3d 01d7 55be e210 85bc c3f9 8abd
000000b0: b667 d33d 94f7 d63d 807d 06be defa 23be
000000c0: 7e26 903d fd12 5cbd 0fd6 43be 6a22 193d
000000d0: a27d 3cbd 0622 85bc 307d bb3d aae0 4abe
000000e0: ac3a 0a3d 736f 463d fb67 b43c 5c18 cbbb
000000f0: 1490 983c 6221 42be 2448 bfbe d60e 89be
00000100: dbc8 40bd afc9 a6bc f852 7bbe f7b1 39be
00000110: 5992 163d c454 74be f0ab 3fbe 4067 0a3e
00000120: fd7e ebbd c983 8bbe 1877 613e fa6f 85bc
00000130: fbf2 cb3d 1371 453e 74e3 66be 4cea 03be
00000140: 4192 133e 7ae2 c83d 10d8 0bbd 7e29 583e
00000150: d8f0 1a3c 629a a0bd cc09 40bd b9e6 3bbe
00000160: 46ff 10be 5483 943d 02de 2f3d 3979 14be
00000170: 6477 1cbe 788d de3d 9d60 4bbe 3c8f 01be
00000180: b88b 81bd 1952 8cbd 07d9 4f3d 28e4 58bc
00000190: a435 ef3d 9f6a 03bc 84eb 23bd 0d63 8bbc
000001a0: e7b6 863d f377 6cbe f4ee 1f3e fe5f 41be
000001b0: fab5 f73c 6b6b a83e 3f4b 69be 7670 1a3d
000001c0: ddca c33c 2c69 61bd afd0 783e ff66 133e
000001d0: 2f83 a13d d0e1 3cbe c97a 8dbb 82bf 82bd
000001e0: 111a 563e 979f e1bc 9590 dc3b 15a1 813c
000001f0: 6969 bebd b353 89be 3ae4 c0be c903 77bb
00000200: 3533 65bc d272 f23d fc68 a53c b9bf ddbd
00000210: 2112 b4bd f3a5 6e3e af32 ddbd 8795 bb3d
00000220: 08b8 e13d 8ab1 a9bd 462c f8bd 2fae 2c3d
00000230: 42fa 9a3c 26e2 ad3e fe9c 0cbe 2c17 acbd
00000240: 6e88 03bd ad3f 52be 96be abbe 4909 35be
00000250: 26de 87bb 9a4d 87bd a274 503e da93 afbd
00000260: 28f2 36bd b7fd 213e 3253 70bc 0d28 053e
00000270: 756e 63be 2e5a 133e 4190 f8be e10d 6dbe
00000280: 959d 89bd 5426 0abe 7378 0ebd 05b4 b63d
00000290: 9076 0dbe 1a99 063e 099d 8b3e bae8 043e
000002a0: d35b d8bd c89e 8c3e cf1f 313e 32bc 813c
000002b0: 10a0 a23d 17d1 d4bd 61ed 833e 6579 693e
000002c0: 8d43 d7bd 1076 a33e 65c7 cc3e 77a1 a2bd
000002d0: 072f 2bbd 50fb d13d 0890 3abe 95d6 b53e
000002e0: f46e 1bbe d775 b1bd d58c 2d3e 34ac aabd
000002f0: 0778 023e 597b 043d dfb7 023f c52f 4f3e
00000300: 39cb acbc 9e4d 3c3d 2c8b fa3d 9c23 f1bc
00000310: 0a03 1ebe 912c 67bd 7183 093d 2e3e a8bb
00000320: 72d3 b03d 3fa3 a13e 604a 5bbe fb7f 153e
00000330: 2767 933d c9ab ca3c 778d b83e 43c7 c33d
00000340: 1bc0 7fbe 510a 8a3e 9b34 38be 3cd4 e4bd
00000350: c952 6dbd 689e e7bd fe1f 863d 1510 cd3d
00000360: fe10 8cbc f421 78bd 0ff2 2c3d 483c c03b
00000370: eb9f 4b3d e07d e53d a6e1 4f3e 2be3 f3bc
00000380: bccd 0c3c cc86 29bc 353c 823e 3686 2abe
00000390: 4fa8 723c 8bee 53bd a1a8 8bbd 2710 cf3d
000003a0: 12ab bfbd a793 c4be a88d a13d 4ba9 34bc
000003b0: bbb0 01bc d7f9 91bc 1db0 53be c8b9 e6bd
000003c0: ad42 e23c b668 3cbd 254f f9bd 9f76 b0bc
000003d0: e4d9 3d3e 330a c0bd a3c2 ed3d 9b62 51be
000003e0: 790a 733e 68f4 adbe b107 bdbb cb3b 023e
000003f0: ebd3 a4bd ce5f 88bc e1b4 93be 49c7 293e
