models/QLSTM_qal_hip_epochs10.pth (torch, 168347 bytes, 76 tensors)

layers.0.wfx.r_weight f4 [1, 32]
0	0xbf3e43a0	-0.7432194
1	0xbc59354b	-0.013257335
2	0xbf6e80fc	-0.93165565
3	0xbefa5ed6	-0.4890048
4	0xbf08fe59	-0.53513104
5	0x3dc14f30	0.09438932
6	0xbf06f204	-0.52713037
7	0xbf159240	-0.58426285
8	0xbf367309	-0.7126928
9	0xbf29a598	-0.662683
10	0xbe450276	-0.1923922
11	0xb9f8cfba	-0.00047457014
12	0xbf110b8b	-0.5665824
13	0xbf02b641	-0.5105935
14	0xbeeecc10	-0.46640062
15	0xbf5b9c99	-0.85785824
16	0xbf031dfa	-0.51217616
17	0xbe764637	-0.24050222
18	0xbf272142	-0.6528512
19	0xbe312f8a	-0.17303291
20	0xbef60338	-0.4804933
21	0xbf440f12	-0.76585495
22	0xbee785af	-0.4521918
23	0xbf278442	-0.65436184
24	0xbf4dadb6	-0.80343187
25	0xbf2c8bf6	-0.67401063
26	0xbe63c55f	-0.2224326
27	0xbebea484	-0.3723489
28	0xbf287504	-0.6580355
29	0xbf3449df	-0.7042522
30	0xbec3d96a	-0.3825181
31	0xbf443b38	-0.7665286

layers.0.wfx.i_weight f4 [1, 32]
0	0x3d0379fe	0.032098763
1	0xbdeebf61	-0.116575964
2	0xbe1a1362	-0.15046456
3	0xbe23c3ff	-0.15992735
4	0xbdbfa531	-0.0935768
5	0xbdedf51b	-0.11619016
6	0x3e165fc6	0.14684972
7	0x3dc611dd	0.09671376
8	0x3db768f1	0.08955563
9	0x3e05bfe1	0.13061477
10	0x3d431e6f	0.047636446
11	0x3dc3365b	0.09531852
12	0xbcb31dd0	-0.021864802
13	0x3e543c17	0.20726047
14	0xbdb4452a	-0.088022545
15	0x3ca2d3a2	0.019876305
16	0xbad569ad	-0.0016282104
17	0xbc6c1861	-0.014410109
18	0xbe4143fa	-0.18873587
19	0xbe02ba99	-0.12766494
20	0x3d5a9f52	0.053374596
21	0x3e79e6ea	0.24404493
22	0x3e1615ca	0.1465675
23	0x3d9b4ba8	0.0758279
24	0xbd61a4d6	-0.05508884
25	0x3e1f004a	0.15527454
26	0xbbe5f707	-0.0070179733
27	0xbe1f6ee6	-0.15569648
28	0x3e8aee10	0.27134752
29	0x3ecaadde	0.39585775
30	0xbd2b58e0	-0.041832805
31	0xbdb856da	-0.090009406

layers.0.wfx.j_weight f4 [1, 32]
0	0x3d3c740e	0.046009116
1	0x3dd92fe0	0.106048346
2	0x3dfefb0d	0.12450228
3	0x3de9cb32	0.114157096
4	0x3c8108a4	0.01575119
5	0x3d018fce	0.031631283
6	0x3dcfaec6	0.10140757
7	0x3e158a03	0.14603429
8	0x3db7fb5d	0.089834906
9	0xbdab3a1f	-0.08360695
10	0xbc8fc374	-0.017549254
11	0xbdcc9118	-0.09988612
12	0x3da4d3a3	0.08048179
13	0xbd40c571	-0.047063295
14	0x3eb70175	0.357433
15	0x3db075fa	0.08616252
16	0xbc81526c	-0.015786372
17	0x3d7021bf	0.058625933
18	0x3d416bf7	0.047222104
19	0x3e55efc3	0.20892243
20	0x3d4f18cb	0.050560754
21	0x3cb16f3b	0.021659484
22	0x3d37d105	0.04487707
23	0x3e4d69c5	0.20059879
24	0x3e07f9ad	0.13278838
25	0x3e2cad96	0.16863093
26	0x3e275d7a	0.16344252
27	0x3d00420e	0.031312995
28	0xbd2d6872	-0.042335935
29	0x3c0069c6	0.007837718
30	0x3f13346c	0.57501864
31	0x3e3b7392	0.18305805

layers.0.wfx.k_weight f4 [1, 32]
0	0x3dfa6e89	0.12228114
1	0x3dc77517	0.0973913
2	0x3e0a4815	0.1350406
3	0x3d8257f6	0.063644335
4	0x3d4c8c19	0.049938295
5	0xbe031127	-0.12799512
6	0xbb9a8f97	-0.0047168243
7	0x3d2f51a2	0.04280246
8	0xbdc16fed	-0.09445176
9	0xbd8e22b8	-0.06940216
10	0x3dadcf5d	0.08486817
11	0x3d1f1526	0.038838528
12	0x3db72a83	0.08943655
13	0x3db71cc5	0.08941034
14	0x3e4b77f5	0.19869979
15	0x3d3bb272	0.045824476
16	0xbd4beb7f	-0.049785133
17	0xbd2860c9	-0.041107927
18	0x3d6da463	0.0580181
19	0x3e484e99	0.19561233
20	0x3cf8895d	0.030338937
21	0x3de5ba20	0.11217141
22	0x3e790ea4	0.24321991
23	0xbd9e2e0c	-0.077236265
24	0x3db2f54e	0.087381944
25	0x3d649f46	0.055815957
26	0x3be90d25	0.0071121627
27	0x3d100e31	0.035169784
28	0xbd0e0185	-0.034669418
29	0xbe1b4054	-0.15161258
30	0x3ce6d7c9	0.028179066
31	0x3e113aa2	0.14182523

layers.0.wfx.bias f4 [128]
0	0xbfcabb54	-1.5838418
1	0xbe4e751d	-0.20161863
2	0xbff59cd9	-1.9188491
3	0xbff35dd0	-1.9013004
4	0xbfceb11d	-1.6147801
5	0xbde19ed9	-0.11016626
6	0xbfcdec61	-1.6087762
7	0xbefcb9fb	-0.49360642
8	0xbfc23835	-1.5173403
9	0xbff04d53	-1.8773597
10	0x3e219053	0.15777712
11	0xbe00066b	-0.12502448
12	0xbff98e77	-1.9496602
13	0xbfeee434	-1.8663392
14	0xbf6125c9	-0.8794828
15	0xbfd49651	-1.6608373
16	0xbe373b7e	-0.17893788
17	0xbd7edac5	-0.062220354
18	0xbf94c7d3	-1.1623482
19	0xbf99d106	-1.2016914
20	0xbf3d4998	-0.7394042
21	0xbdee283b	-0.11628767
22	0xbf4f70eb	-0.81031674
23	0xbfbb6c9c	-1.464252
24	0xbf2603b4	-0.648494
25	0xbe4de99b	-0.20108645
26	0xbe4db7eb	-0.2008969
27	0xbf90364b	-1.1266569
28	0xbfac4b21	-1.3460428
29	0xbf8339d9	-1.0252029
30	0xbf31e059	-0.6948295
31	0xbff69468	-1.926404
32	0xbffa5628	-1.9557543
33	0xbedc9786	-0.43084353
34	0xbfea134e	-1.8287141
35	0xbfe51034	-1.789557
36	0xbfee6f82	-1.862778
37	0xbe986f48	-0.297724
38	0xbfc795b6	-1.5592563
39	0xbeea180a	-0.45721465
40	0xbf656f76	-0.896232
41	0xbfd6472f	-1.6740474
42	0x3d21215b	0.03933845
43	0x3b135fae	0.002248745
44	0xbfd7b87d	-1.6853176
45	0xbffa384f	-1.9548434
46	0xbffd5a3b	-1.9793161
47	0xbfbc48c6	-1.4709709
48	0xbe78c4a5	-0.24293764
49	0xbe684488	-0.22682393
50	0xbf8a8094	-1.0820489
51	0xbf663a10	-0.89932346
52	0xbf1e814b	-0.61916035
53	0xbf00b1c0	-0.50271225
54	0xbfa4cf49	-1.2875758
55	0xbfd59cd9	-1.6688491
56	0xbea49b60	-0.32149792
57	0xbeeff256	-0.46864575
58	0xbe460e65	-0.19341429
59	0xbf919f16	-1.1376674
60	0xbf9f9240	-1.2466507
61	0xbf74323d	-0.9538916
62	0xbe40339d	-0.18769689
63	0xc0032927	-2.0493867
64	0xbfb0d8e2	-1.3816187
65	0xbe6462e9	-0.22303356
66	0xbfb2e884	-1.3977208
67	0xc0019a02	-2.025025
68	0xbfe701c2	-1.8047411
69	0x3e2bccc5	0.16777332
70	0xbfb5a695	-1.4191462
71	0xbea4f051	-0.32214597
72	0xbfafb73c	-1.3727794
73	0xbfdf4e10	-1.7445698
74	0xbd0f2cbd	-0.034954775
75	0xbe28d766	-0.16488418
76	0xbfefe92e	-1.8743036
77	0xbfed78b6	-1.8552463
78	0xbfad7e6e	-1.3554208
79	0xbfc96a37	-1.5735539
80	0xbe42483d	-0.18972869
81	0xbdeee12e	-0.11664043
82	0xbfb5b84d	-1.4196869
83	0xbf482f3a	-0.7819706
84	0xbea18535	-0.3154694
85	0xbdf5d241	-0.120029934
86	0xbf0eeba7	-0.55828327
87	0xbfbd6e14	-1.4799218
88	0xbec1accb	-0.37827143
89	0xbe562a50	-0.20914578
90	0xbe11fe85	-0.14257248
91	0xbf02ff9f	-0.51171297
92	0xbfb536ed	-1.4157387
93	0xbf81de63	-1.0145992
94	0xbf1aff24	-0.60545564
95	0xbfd31b7f	-1.6492766
96	0xbfefd342	-1.8736346
97	0xbf05dc5d	-0.5228937
98	0xbff7621d	-1.9326817
99	0xbfe48496	-1.7852962
100	0xbfe8f5b7	-1.8199986
101	0xbe7282dd	-0.23682733
102	0xbfb81ce7	-1.438382
103	0xbeb790e8	-0.35852742
104	0xbfbff583	-1.4996799
105	0xbfda6c62	-1.7064326
106	0x3deb811f	0.11499237
107	0xbe7882bd	-0.24268623
108	0xbfde47b1	-1.7365628
109	0xbff410d5	-1.9067637
110	0xbfbd30db	-1.4780535
111	0xbfc288fd	-1.5198056
112	0xbedb7beb	-0.4286798
113	0xbe4dcf32	-0.2009857
114	0xbfa77943	-1.3083881
115	0xbf92750e	-1.1441972
116	0xbf0f17b2	-0.5589553
117	0xbe81b01f	-0.25329682
118	0xbefcce9f	-0.4937639
119	0xbfde26da	-1.7355607
120	0xbee3fbd9	-0.44528082
121	0xbeea712b	-0.45789465
122	0x3ba16bc8	0.0049261786
123	0xbf7dbedd	-0.9911936
124	0xbfd33af9	-1.6502372
125	0xbf8e9131	-1.1138059
126	0xbed13c52	-0.40866333
127	0xbfd9a4a6	-1.7003372

layers.0.ufh.r_weight f4 [32, 32]
0	0x3d21ce2d	0.039503265
1	0xbd659cb4	-0.056057647
2	0x3e50ee82	0.20403484
3	0xbe31b5de	-0.17354533
4	0x3e42b80a	0.19015518
5	0xbf0340a3	-0.512705
6	0x3d3d285c	0.046181068
7	0x3e35ff6c	0.17773217
8	0xbdaa653f	-0.083200924
9	0x3d8e096a	0.06935389
10	0x3dc7f5c5	0.09763674
11	0xbdb7e409	-0.08979041
12	0x3d29239d	0.04129373
13	0x3e8936d0	0.2679963
14	0xbe20bd5e	-0.15697238
15	0x3e4db2b3	0.200877
16	0x3dff4315	0.12463967
17	0x3e81e761	0.2537184
18	0x3e42bd8d	0.1901762
19	0xbdb42baa	-0.08797391
20	0xbe631360	-0.2217536
21	0xbe29a5e2	-0.16567186
22	0x3e903764	0.2816726
23	0xbe3e5784	-0.18588072
24	0x3e7986c0	0.2436781
25	0x3e04954e	0.1294758
26	0xbe1c8194	-0.15283805
27	0xbe59fbc0	-0.21287441
28	0x3deff15d	0.11715958
29	0xbdfc8e7e	-0.12331866
30	0x3e950266	0.29103392
31	0x3de338a7	0.1109479
32	0x3e8766fc	0.26445758
33	0xbddf0b5d	-0.10890839
34	0x3e9bf023	0.30456647
35	0x3de685d6	0.11255996
36	0x3ed5f17c	0.417858
37	0x3e51b586	0.20479402
38	0x3e4f6a32	0.20255354
39	0xbe14fa5e	-0.14548633
40	0x3e876cce	0.264502
41	0x3da10342	0.078619495
42	0xbe8bbfb6	-0.272947
43	0xbbdfb8d2	-0.006827452
44	0x3b8cd6d0	0.0042980686
45	0x3e31bd97	0.17357479
46	0x3e0f4371	0.1399057
47	0x3d8e5b18	0.069509685
48	0xbea0150c	-0.31266057
49	0xbea90b9c	-0.3301667
50	0xbe37b406	-0.17939767
51	0xbd9cd694	-0.07658115
52	0xbeeaa139	-0.45826128
53	0xbf493e31	-0.7861052
54	0xbf17aa2a	-0.59244025
55	0xbd337500	-0.04381275
56	0xbe715c93	-0.2357047
57	0xbe9a68bc	-0.3015803
58	0xbabf609f	-0.0014600939
59	0xbd901fac	-0.07037291
60	0x3ea240df	0.31690118
61	0xbe9dcce1	-0.30820373
62	0xbe382bad	-0.17985411
63	0x3ea02973	0.31281623
64	0xbe8a4476	-0.27005357
65	0xbd645735	-0.05574723
66	0xbe1e90a3	-0.15484862
67	0x3de21d0c	0.110406965
68	0xbe30cb85	-0.17265137
69	0xbdea559e	-0.114421114
70	0xbecf187c	-0.40448368
71	0xbd48b380	-0.04899931
72	0x3e75173c	0.23934644
73	0xbe21ae29	-0.15789093
74	0xbe1d109a	-0.15338364
75	0xbdcc3cec	-0.099725574
76	0xbbce52ce	-0.006296492
77	0xbcb25f3b	-0.021773925
78	0xbe6e5e29	-0.23278107
79	0x3e9adb41	0.30245402
80	0x3d27f1ca	0.041002072
81	0x3ed5d832	0.41766506
82	0x3cf080b8	0.029358253
83	0xbdd1f583	-0.10251906
84	0x3e36b588	0.17842686
85	0xbd0236c3	-0.031790506
86	0x3d822113	0.06353965
87	0xbd2aa195	-0.041658003
88	0x3e39edcb	0.18157117
89	0x3eb5e317	0.35524818
90	0xbddedcf8	-0.1088199
91	0xbe9400bb	-0.28906807
92	0x3e0bddea	0.13658872
93	0xbe89ada6	-0.26890296
94	0xbed2655d	-0.4109296
95	0xbe4de23b	-0.20105831
96	0xbcf43956	-0.029812496
97	0xbdea24fe	-0.11432837
98	0x3dc0c9cf	0.09413492
99	0x3d2d4af6	0.042307816
100	0xbdc5cad4	-0.09657827
101	0xbe0831bb	-0.1330022
102	0xbc7f84c7	-0.015595621
103	0xbdd18768	-0.10230905
104	0xbd6d002e	-0.0578615
105	0x3d1a95d9	0.037740562
106	0x3d4488d6	0.04798206
107	0x3dc5975e	0.096480116
108	0xbeb6c4b0	-0.35696936
109	0x3e5f144b	0.21785085
110	0x3c29441e	0.010331182
111	0x3eadfd43	0.33982286
112	0x3e3f761b	0.18697397
113	0x3e550aaf	0.20804857
114	0x3db7f537	0.08982318
115	0xbe79cb9f	-0.24394082
116	0x3db356f0	0.087568164
117	0x3e913aa3	0.2836505
118	0x3e445042	0.19171241
119	0x3e6c1945	0.23056515
120	0x3cb3b178	0.02193521
121	0x3c8b668e	0.017016675
122	0x3e0d065e	0.1377196
123	0x3c733c47	0.014845914
124	0xbe30c9b8	-0.1726445
125	0xbde051bc	-0.109530896
126	0xbe104859	-0.14090098
127	0xbda0bede	-0.07848905
128	0x3d898ac6	0.06715922
129	0x3e610902	0.21976092
130	0x3e469257	0.19391762
131	0xbd723f92	-0.059142657
132	0x3da0c4e0	0.07850051
133	0xbdb9ec0a	-0.09078224
134	0x3e939006	0.2882082
135	0x3e560da9	0.20903648
136	0xbdbaba4a	-0.09117563
137	0xbd8e9427	-0.069618516
138	0xbd800163	-0.062502645
139	0xbd88de9f	-0.066830866
140	0x3e06a2f5	0.131481
141	0xbd21b886	-0.039482616
142	0xbbe3f1b4	-0.0069563035
143	0xbdef5ebd	-0.11687992
144	0x3e2b1994	0.16708976
145	0xbe03c061	-0.12866355
146	0xbe2760bc	-0.16345495
147	0x3d896b1d	0.06709883
148	0xbdb39e35	-0.0877041
149	0xbe592f7c	-0.2120952
150	0xbeac8e1b	-0.33702168
151	0x3e1ef85b	0.15524428
152	0xbc234d49	-0.009967157
153	0xbee3a80c	-0.44464147
154	0x3da49e31	0.08037985
155	0x3e05b572	0.13057497
156	0x3c0a266c	0.008432012
157	0x3e6ed9ed	0.2332532
158	0xbe4dd35f	-0.20100163
159	0x3e0fecad	0.14055128
160	0x3f0b1743	0.5433237
161	0x3eb465af	0.35233828
162	0x3eaa195a	0.33222467
163	0xbd332fcc	-0.043746755
164	0x3ea9c8ae	0.3316092
165	0x3ef42a79	0.47688654
166	0x3d72570f	0.059165057
167	0xbd2c8182	-0.042115696
168	0x3e8b13fc	0.27163684
169	0x3e7b1b10	0.24522042
170	0xbe80574e	-0.25066608
171	0xbdbf8f11	-0.093534596
172	0x3e74a94a	0.23892704
173	0x3f2a9c50	0.66644764
174	0x3e31f2af	0.17377733
175	0xbcdfeac7	-0.02733363
176	0xbd7b3177	-0.06132647
177	0x3e39ff3c	0.1816377
178	0x3e2615ff	0.16219328
179	0x3ec2551b	0.37955555
180	0xbcf881ad	-0.030335272
181	0x3e84e549	0.2595618
182	0xbe22958c	-0.1587736
183	0xbd24aeba	-0.040205695
184	0x3e5b39df	0.21408795
185	0xbefa9ca2	-0.48947626
186	0x3f1dda0c	0.6166084
187	0x3e1c6048	0.15271103
188	0x3e267ec7	0.16259299
189	0x3e94baf6	0.2904889
190	0x3ea1d617	0.3160865
191	0x3f0607cb	0.5235564
192	0xbe093182	-0.13397792
193	0x3d83ba22	0.064319864
194	0xbe0725d8	-0.1319803
195	0x3dd5c163	0.10437276
196	0x3cdf0504	0.027224071
197	0xbe5747c5	-0.21023472
198	0x3de21c3f	0.11040544
199	0x3e2a6640	0.16640568
200	0x3d41a11e	0.047272794
201	0xbdab73d4	-0.08371702
202	0x3d3aaf14	0.045577124
203	0xbe904d9b	-0.28184208
204	0xbe17b701	-0.14815904
205	0xbc83f228	-0.01610668
206	0xbe5b41ab	-0.21411769
207	0xbcc7d2a3	-0.024392432
208	0x3eb44e1c	0.35215843
209	0xbe4d69a6	-0.20059833
210	0xbcc96cce	-0.024588015
211	0x3e2f39d8	0.1711191
212	0xbd017069	-0.031601343
213	0xbdd8536a	-0.10562785
214	0x3e8b02be	0.2715053
215	0xbe38e1ce	-0.18054888
216	0x3c9498b7	0.018139226
217	0x3bc46aa7	0.0059941593
218	0xbd92b9e9	-0.07164366
219	0x3dcee787	0.10102754
220	0xbcd2a0ae	-0.025711384
221	0x3dc5e9d2	0.09663738
222	0xbe568780	-0.20950127
223	0xbe7b83e5	-0.24562033
224	0xbd51397b	-0.05108021
225	0x3e192581	0.14955713
226	0xbdb0d17c	-0.08633706
227	0xbdcc7fff	-0.09985351
228	0x3dd7ff21	0.10546709
229	0xbe083c88	-0.13304341
230	0xbd9864b8	-0.074410856
231	0x3e705cdf	0.23472928
232	0xbf08351c	-0.5320604
233	0xbe4ad464	-0.19807583
234	0x3e99f4c3	0.3006955
235	0xbd6ed1bc	-0.058305487
236	0xbdcd3099	-0.10019035
237	0xbcbba9b3	-0.022908067
238	0x3e3f69f0	0.18692756
239	0xbe4f68c5	-0.2025481
240	0x3e87d404	0.26528943
241	0x3eae70a4	0.34070313
242	0xbe2efcf7	-0.17088686
243	0x3e14b168	0.145208
244	0x3e74064a	0.23830524
245	0x3f295eed	0.6616047
246	0x3ee82e9e	0.45348066
247	0xbca55fc4	-0.020187266
248	0x3de11d1d	0.10991881
249	0x3f2df9cb	0.6795928
250	0xbcafad53	-0.021444952
251	0x3eb6882e	0.35650772
252	0xbe4a9fed	-0.1978757
253	0x3e22fc86	0.15916643
254	0x3d53314a	0.051560678
255	0x3ddb0176	0.10693638

layers.0.ufh.i_weight f4 [32, 32]
0	0xbb615f08	-0.0034388918
1	0x3e4459e6	0.19174919
2	0xbd86d642	-0.06583835
3	0xbcc38bfd	-0.023870463
4	0x3de678ce	0.112535104
5	0xbe04c4ae	-0.12965652
6	0x3d500702	0.050787933
7	0x3dce0336	0.10059206
8	0xbcad59a6	-0.021160912
9	0x3d3583a7	0.044315007
10	0x3c3a02f1	0.01135324
11	0xbe17131f	-0.14753388
12	0x3dbfc384	0.093634635
13	0xbd77f4cc	-0.06053619
14	0x3ba7bdc0	0.0051190555
15	0xbda2eaa7	-0.07954913
16	0xbd99bde8	-0.07506925
17	0xbe103705	-0.14083488
18	0xbd8ef106	-0.06979565
19	0x3de0a22a	0.1096843
20	0x3e88e1d2	0.26734787
21	0xbe6b65b4	-0.22988015
22	0x3cb4437c	0.022004835
23	0x3e457dfa	0.19286337
24	0xbe390143	-0.18066888
25	0xbe76460c	-0.24050158
26	0x3e25a0b9	0.16174592
27	0xbe451da0	-0.19249582
28	0x3cc106f4	0.023562886
29	0xbd8e9224	-0.06961468
30	0xbda7f529	-0.082010575
31	0xbc36183e	-0.011114178
32	0x3e5f9bd7	0.21836792
33	0xbe5ea872	-0.21743944
34	0xbe2d75c6	-0.16939458
35	0x3d967924	0.073473245
36	0x3db27ed4	0.08715597
37	0x3e623686	0.22091112
38	0x3e0c26c8	0.13686669
39	0xbc80a9bc	-0.015705936
40	0x3d716d6d	0.058942247
41	0xbcc0a2cd	-0.02351513
42	0xbdcfa0ba	-0.10138078
43	0x3dd3e130	0.103456855
44	0x3e8ee331	0.27907708
45	0x3e2d80ff	0.1694374
46	0xbd2796ed	-0.04091542
47	0xbb27597b	-0.0025535512
48	0xbcad0f46	-0.021125447
49	0xbcf9f632	-0.030512903
50	0xbd66133f	-0.0561707
51	0xbd133cb7	-0.035946574
52	0xbcc5e24e	-0.024155762
53	0xbdfbb97e	-0.12291239
54	0x3e3725d4	0.17885524
55	0x3e05c652	0.13063934
56	0xbe8d7ffa	-0.276367
57	0xba916468	-0.0011092545
58	0x3e22aba2	0.15885785
59	0x3e6fcb62	0.23417428
60	0x3e181174	0.14850408
61	0x3e7a7f55	0.24462636
62	0x3ee31b7e	0.44356912
63	0x3c97f22e	0.018548097
64	0x3e6df909	0.2323953
65	0xbdcaaec4	-0.09896615
66	0xbcf568c5	-0.029957185
67	0xbd5d630e	-0.054049544
68	0x3dbb559b	0.09147187
69	0xbd096d79	-0.033551667
70	0xbe2186ca	-0.15774074
71	0xbe274990	-0.16336656
72	0xbe3138f8	-0.17306888
73	0xbe3d09b6	-0.18460736
74	0x3e29ddce	0.16588518
75	0x3ba6d6d6	0.0050915284
76	0x3e6ac2bc	0.22925848
77	0xbadaede3	-0.0016702976
78	0x3e06b88c	0.13156337
79	0xbe1d759a	-0.15376893
80	0x3ee64970	0.44977903
81	0x3bea4f89	0.0071505946
82	0xbeb10d46	-0.3458044
83	0x3c627fb9	0.013824397
84	0x3e2ac06b	0.16674964
85	0xbea3d2a2	-0.31996638
86	0x3e6aaba1	0.22917034
87	0x3e65ae21	0.22429706
88	0xbdba2083	-0.09088232
89	0x3e8834c9	0.26602772
90	0x3a44d96a	0.0007509204
91	0x3cc75c74	0.024336077
92	0x3d8a1f38	0.06744236
93	0xbdb8fe62	-0.09032895
94	0xbed9fa74	-0.42573893
95	0x3e6adb18	0.2293514
96	0x3af07aaf	0.001834711
97	0xbc80647d	-0.015672917
98	0x3d4e5226	0.05037131
99	0x3e1b4ca3	0.15165953
100	0x3e149e3c	0.14513487
101	0x3dc97ad7	0.09837883
102	0x3e80c31d	0.2514886
103	0x3d78128f	0.060564574
104	0xbe09249f	-0.13392876
105	0x3d3f65be	0.04672789
106	0x3d11cf03	0.035597812
107	0x3d1fb016	0.038986288
108	0x3e17852a	0.14796892
109	0x3e55af58	0.2086767
110	0x3e7e58f3	0.24838619
111	0x3d595d2f	0.053067382
112	0x3e3d78cd	0.18503113
113	0x3e24f5c2	0.16109374
114	0xbdc2eac9	-0.09517438
115	0x3e365816	0.1780704
116	0xbd27b736	-0.040946208
117	0xbdc2a50e	-0.09504138
118	0xbe089716	-0.13338885
119	0xbc8492e8	-0.016183332
120	0x3e00ba0b	0.1257097
121	0x3de58f82	0.112090126
122	0xbdd1518e	-0.102206334
123	0xbb8e16ef	-0.00433623
124	0x3e3065fd	0.17226405
125	0x3da1f006	0.07907109
126	0xbb6ba448	-0.0035956074
127	0x3df4bb63	0.11949804
128	0x3cbd0aca	0.023076434
129	0xbe3634ab	-0.17793529
130	0xbcda254d	-0.026629115
131	0xbd1b2252	-0.037874527
132	0xbd78eb04	-0.060771003
133	0x3eb77ed6	0.35838956
134	0xbd07319f	-0.033006307
135	0x3d67e5d9	0.056615684
136	0x3c9465da	0.018114973
137	0x3e424661	0.1897216
138	0xbe39116e	-0.18073055
139	0xbe423ed1	-0.18969275
140	0x3c95d664	0.018290706
141	0x3e69d282	0.22834209
142	0xbb681cb4	-0.00354175
143	0xbdf8b4f8	-0.12143892
144	0xbe9d5fad	-0.30737057
145	0xbcb42a80	-0.021992922
146	0x3e36e5c9	0.17861094
147	0x3a351200	0.0006907284
148	0x3d07d413	0.033161234
149	0xbe30c54e	-0.17262766
150	0xbdce6b40	-0.1007905
151	0xbe3e3d23	-0.1857801
152	0x3e92e4d7	0.28690216
153	0xbead57f2	-0.3385616
154	0x3dabfb1f	0.08397507
155	0xbd8852fd	-0.06656454
156	0xbe8341af	-0.2563605
157	0xbd1498db	-0.036278587
158	0xbd2afc52	-0.041744538
159	0xbd38a0ea	-0.045075335
160	0x3c901b56	0.01759116
161	0x3d42e47c	0.04758118
162	0x3c238109	0.009979495
163	0x3dd2f895	0.103013195
164	0x3e2a1113	0.16608076
165	0x3e459756	0.19296011
166	0xbe1c8d95	-0.15288384
167	0xbd0913c6	-0.033466123
168	0x3e5a0b2c	0.21293324
169	0x3c8f231a	0.017472792
170	0x3bf25a21	0.007395998
171	0x3cfe2917	0.031025453
172	0xbd53c295	-0.05169924
173	0x3e3097c4	0.17245394
174	0x3c423922	0.011854442
175	0x3e3fe36c	0.18739098
176	0x3ec7023e	0.38868898
177	0x3ddb76f8	0.10716051
178	0x3ec52034	0.38501132
179	0x3e973704	0.2953416
180	0x3e68e5b0	0.22743869
181	0xbd999395	-0.07498852
182	0xbd656b28	-0.056010395
183	0xbdaa514d	-0.08316288
184	0x3e5aa0f4	0.21350461
185	0xbf1ec657	-0.6202139
186	0xbec1bb2e	-0.3783812
187	0x3e1f365e	0.15548083
188	0xbea7f2f4	-0.32802546
189	0x3c444fde	0.011981932
190	0x3f335197	0.7004637
191	0x3e3626ce	0.1778824
192	0xbe610afb	-0.21976845
193	0xbe394591	-0.18092944
194	0xbd3bb024	-0.045822278
195	0xbda34392	-0.079718724
196	0xbcbfd3f5	-0.023416499
197	0x3cedf8ed	0.029049361
198	0xbd1997ed	-0.037498403
199	0x3de8e8a1	0.113724954
200	0xbe0e3d5e	-0.13890597
201	0x3d9ae6aa	0.07563527
202	0xbd8600ad	-0.06543098
203	0x3d9d5633	0.07682457
204	0xbe16a947	-0.14713012
205	0x3d34ca84	0.044138446
206	0xbca22470	-0.019792765
207	0xbe5be5a5	-0.21474321
208	0xbe0dd1f6	-0.13849625
209	0xbdcdf7df	-0.10057043
210	0xbd6b31e7	-0.057420637
211	0xbc6d41b2	-0.014480995
212	0xbeac5f58	-0.33666492
213	0xbb84c6c7	-0.0040520164
214	0x3e733ca0	0.23753595
215	0x3d6ce72a	0.057837643
216	0x3d42e229	0.047578964
217	0x3e360ad9	0.17777576
218	0x3ec99747	0.39373228
219	0x3ea0adc7	0.31382582
220	0x3e3b4333	0.18287353
221	0x3ca57ff0	0.020202607
222	0xbe6bc467	-0.2302414
223	0xbd1537ee	-0.03643029
224	0x3dce0177	0.10058873
225	0x3e220756	0.15823111
226	0xbde7b7a7	-0.11314326
227	0x3d3d6e9f	0.046248075
228	0xbd8aea06	-0.06782918
229	0x3de7736d	0.113013126
230	0xbe873d8e	-0.2641415
231	0xbcf8d468	-0.03037472
232	0x3e192667	0.14956056
233	0xbcd02b93	-0.025411403
234	0x3d37fa3e	0.044916384
235	0xbd9323e8	-0.07184583
236	0x3de3c218	0.11121005
237	0xbd9b5045	-0.075836696
238	0x3e678181	0.22607996
239	0x3e3f6a71	0.18692948
240	0x3d3ca54e	0.046056084
241	0x3e2ee325	0.17078836
242	0x3d3317d2	0.04372389
243	0xbde173d5	-0.11008421
244	0x3d80f27e	0.06296252
245	0xbe32c5f3	-0.17458324
246	0xbf1a5708	-0.6028905
247	0xbc3c3a9c	-0.011488583
248	0x3e667538	0.22505653
249	0xbe958bb7	-0.29208156
250	0xbc733c5c	-0.014845934
251	0xbe0e5678	-0.13900173
252	0xbe37b7a0	-0.17941141
253	0xbe6e0530	-0.23244166
254	0xbe75ba39	-0.2399682
255	0xbdb216ca	-0.08695753

layers.0.ufh.j_weight f4 [32, 32]
0	0xbd145dba	-0.036222197
1	0xbe8460b5	-0.25855032
2	0xbdbdfc82	-0.09276678
3	0xbdc1abcc	-0.09456596
4	0xbe08de9b	-0.13366167
5	0x3e52c6f4	0.20583707
6	0x3d8c8d93	0.06862941
7	0xbdc739b9	-0.097278066
8	0xbe87c31a	-0.26516038
9	0x3c84713d	0.016167277
10	0xbe0e8352	-0.13917282
11	0x3ce7f823	0.028316563
12	0xbe2c036e	-0.16798183
13	0xbc2a6767	-0.01040063
14	0x3e142af2	0.14469507
15	0xbc027b3a	-0.00796395
16	0x3c5b4a6c	0.013384443
17	0xbcbd4a5e	-0.02310675
18	0x3d3bece3	0.04588021
19	0xbe2aea82	-0.1669102
20	0xbc81ca3a	-0.0158435
21	0x3c1db3d6	0.009625396
22	0xbe293397	-0.16523586
23	0x3dd3b035	0.10336343
24	0xbe93d5be	-0.2887401
25	0xbe0fde6a	-0.14049688
26	0x3ebbd025	0.3668224
27	0x3e8308c0	0.25592613
28	0xbd2c0143	-0.04199339
29	0x3db88c21	0.090111025
30	0x3de6daf2	0.11272229
31	0xbde5ec31	-0.112266906
32	0xbe189c3d	-0.1490335
33	0xbdc7e06a	-0.097596005
34	0xbe0cf9d7	-0.13767181
35	0xbe078886	-0.13235673
36	0xbe099a45	-0.13437755
37	0x3dda5b06	0.106618926
38	0xbd695ce0	-0.056973338
39	0x3da4933a	0.08035894
40	0x3e0119a3	0.12607436
41	0xbc5c0e97	-0.013431213
42	0x3d025e3e	0.031828158
43	0x3ce76c20	0.0282498
44	0xbd2d8eab	-0.042372387
45	0xbe476d8d	-0.19475384
46	0x3bb21218	0.005434286
47	0xbe777544	-0.24165827
48	0x3d76e94a	0.060281076
49	0xbdaede94	-0.08538547
50	0xbe43ca91	-0.19120242
51	0xbd284234	-0.04107876
52	0xbe9c442d	-0.30520764
53	0xbd1f6921	-0.038918618
54	0x3da75917	0.081712894
55	0xbe1d25a0	-0.15346384
56	0xbd856409	-0.06513221
57	0x3ea9d0d1	0.33167127
58	0x3c056c57	0.008143506
59	0x3b370d36	0.0027931458
60	0xbe7c49ec	-0.24637574
61	0xbde3d60e	-0.11124812
62	0x3de3f93d	0.11131523
63	0xbdfbc51f	-0.12293457
64	0xbe20601b	-0.15661661
65	0xbe1ef870	-0.15524459
66	0xbcaed9be	-0.021344062
67	0x3d824aa4	0.06361893
68	0xbca0bcf5	-0.019621352
69	0x3e0709e7	0.13187371
70	0xbd770757	-0.060309734
71	0xbe4c1271	-0.1992891
72	0xbcd77381	-0.026300194
73	0x3e328dda	0.17436925
74	0xbdf454eb	-0.11930259
75	0xbd1a3d26	-0.037655972
76	0xbd6c58eb	-0.057701986
77	0xbe2cd11b	-0.16876642
78	0x3cfd6501	0.030931951
79	0x3d718fb1	0.058974925
80	0xbdce9da7	-0.100886635
81	0x3dfecf80	0.12441921
82	0x3d93d0cf	0.072175615
83	0xbe4d4f23	-0.2004972
84	0xbe8e2140	-0.27759743
85	0xbe08e05b	-0.13366835
86	0x3d88439d	0.06653521
87	0xbdec65ca	-0.11542852
88	0xbe37162e	-0.17879555
89	0xbe629392	-0.22126606
90	0xbe235384	-0.15949827
91	0xbdd924f3	-0.10602751
92	0x3dd90716	0.10597055
93	0x3d05d62e	0.03267496
94	0xbd6ee4fc	-0.058323845
95	0x3e12afd8	0.14324892
96	0x3e7de43e	0.24794099
97	0xbe4e06eb	-0.20119826
98	0x3d6635e9	0.056203756
99	0xbe31d321	-0.17365696
100	0xbe39bd0e	-0.18138525
101	0xbce6956f	-0.028147427
102	0x3d9d54f0	0.07682216
103	0x3d229ff3	0.03970332
104	0xbda9d492	-0.08292498
105	0x3c9fb29d	0.01949435
106	0xbd00fb78	-0.03148982
107	0x3c6968bd	0.014246163
108	0x3d7c78b2	0.06163854
109	0x3deb677e	0.11494349
110	0xbdfd54db	-0.123697005
111	0x3e355473	0.17707996
112	0xbdef6239	-0.11688656
113	0x3e1d1f1f	0.15343903
114	0x3e1b7707	0.15182124
115	0xbe9dcb04	-0.3081895
116	0xbd82ff66	-0.0639637
117	0xbce9d21f	-0.028542576
118	0xbe5caaba	-0.21549502
119	0xbdf359ec	-0.118823856
120	0x3c53c652	0.012925701
121	0xbcce848a	-0.025209684
122	0x3dc2cfaf	0.09512269
123	0x3e09fb09	0.13474669
124	0x3e7d107a	0.24713317
125	0x3e66923b	0.2251672
126	0x3ea888b0	0.32916784
127	0x3d5e016b	0.05420057
128	0xbc57d8aa	-0.013174215
129	0xbde74885	-0.11293129
130	0xbe47271c	-0.19448513
131	0x3e0b2b38	0.13590705
132	0xbc8f267d	-0.017474407
133	0xbe36c3a8	-0.17848074
134	0xbe318bab	-0.17338435
135	0xbe22c433	-0.15895157
136	0xbe3582d4	-0.17725688
137	0xbe04bcd9	-0.12962665
138	0xbbcef568	-0.006315876
139	0x3da49891	0.08036912
140	0x3d59407d	0.053040016
141	0x3da5ff29	0.081053086
142	0xbe0da392	-0.13831928
143	0x3e26305c	0.16229385
144	0x3e73023d	0.23731323
145	0xbe8547e7	-0.2603142
146	0x3c864b28	0.01639326
147	0xbdb3227d	-0.087468125
148	0xbebcf502	-0.36905676
149	0xbc91978b	-0.017772457
150	0xbdebfb80	-0.11522579
151	0xbd82ff71	-0.06396378
152	0xbe86799d	-0.2626466
153	0x3c678950	0.014131859
154	0x3cffc207	0.03122045
155	0x3cc126b3	0.023578024
156	0xbd4d2fe3	-0.050094496
157	0x3d85f090	0.06540024
158	0x3dcb8baa	0.09938748
159	0xbbb1e942	-0.005429418
160	0x3d76a12e	0.060212307
161	0x3d5c84b3	0.05383749
162	0xbe2689eb	-0.16263549
163	0xbd625516	-0.055256926
164	0xbd275cb0	-0.040859878
165	0x3e3db0d5	0.18524487
166	0xbe241ba2	-0.16026166
167	0x3e4daad5	0.20084698
168	0x3dca4db7	0.09878104
169	0xbd1c92a7	-0.038225796
170	0x3e3d88da	0.18509236
171	0x3e603984	0.2189694
172	0x3e3a2342	0.18177512
173	0xbbb741fb	-0.0055925823
174	0xbe3cf9c7	-0.18454657
175	0x3ed10f78	0.40832114
176	0xbd2b5651	-0.041830365
177	0xbda3ef4d	-0.080046274
178	0xbe5d8d32	-0.21635893
179	0x3c28f47a	0.010312194
180	0x3de17ee9	0.11010534
181	0xbf26d447	-0.6516766
182	0xbf164a75	-0.5870736
183	0xbe880ad3	-0.26570758
184	0x3d6bd3d4	0.057575062
185	0xbe2d3b9e	-0.16917273
186	0x3e627850	0.22116208
187	0x3e9bf716	0.3046195
188	0x3e0fa2b5	0.14026912
189	0xbeaa93a2	-0.3331576
190	0x3df178aa	0.11790593
191	0xbddbde24	-0.10735729
192	0xbe466875	-0.19375785
193	0x3d03db9a	0.03219185
194	0xbd683bcf	-0.056697663
195	0x3e041d2e	0.12901756
196	0x3df211a6	0.118197724
197	0xbe2feaee	-0.17179462
198	0x3e0c9c5f	0.13731526
199	0xbea0c480	-0.31399918
200	0x3d139d2e	0.03603857
201	0xbdd27b62	-0.1027744
202	0xbd3ca892	-0.0460592
203	0xbd9003e6	-0.070319936
204	0xbe7d1cca	-0.24718013
205	0x3df9b5de	0.121928915
206	0x3e371afd	0.17881389
207	0xbdcf513f	-0.10122918
208	0x3db1a992	0.08674921
209	0xbdf9b8d7	-0.121934585
210	0x3cecb6f5	0.028895834
211	0xbdde7f47	-0.1086412
212	0xbeea16c4	-0.45720494
213	0x3e716d30	0.23576808
214	0x3e764ff6	0.2405394
215	0x3d9c28b0	0.07624948
216	0xbd3204ea	-0.043461718
217	0x3ddde7a6	0.10835199
218	0xbf179b6f	-0.5922155
219	0xbe802055	-0.25024667
220	0xbe875014	-0.26428282
221	0x3d228828	0.03968063
222	0xbe667767	-0.22506486
223	0xbd3a3ef5	-0.045470197
224	0xbdffc287	-0.12488275
225	0xbe531eec	-0.20617265
226	0x3da88980	0.08229351
227	0x3cb63381	0.022241356
228	0x3d499d29	0.049222145
229	0xbb8bd3ca	-0.0042671906
230	0x3e20d73e	0.15707108
231	0xbe14ac72	-0.14518908
232	0xbd37012b	-0.04467885
233	0x3dcf0049	0.10107476
234	0xbe48fd74	-0.19627935
235	0x3bc1501a	0.0058994414
236	0x3d601e1b	0.05471621
237	0x3e0af0c2	0.13568404
238	0xbe1b7790	-0.15182328
239	0x3c723c17	0.014784834
240	0xbda1dabd	-0.07903049
241	0x3e598729	0.21242966
242	0x3de31600	0.110881805
243	0xbdf1de51	-0.118099816
244	0xbe0f9776	-0.14022622
245	0xbdace575	-0.08442203
246	0xbe329321	-0.17438938
247	0x3d9a591e	0.07536529
248	0xbdf1e9d6	-0.11812179
249	0xbdee4fd5	-0.116363205
250	0x3e92a4bc	0.28641307
251	0x3e6d960b	0.23201768
252	0x3e7149ed	0.23563357
253	0x3daf1743	0.08549359
254	0xbe9f1478	-0.31070304
255	0x3e12bcd0	0.14329839

layers.0.ufh.k_weight f4 [32, 32]
0	0x3dd6d193	0.10489192
1	0x3d04fff5	0.032470662
2	0xbdd01bec	-0.10161576
3	0x3cbf85d6	0.023379248
4	0x3e14a2fe	0.14515302
5	0xbe72b3bd	-0.23701377
6	0x3ce5018f	0.027954845
7	0x3d64142f	0.05568331
8	0x3d82092d	0.063494064
9	0x3e24e8b4	0.16104394
10	0xbc31d530	-0.0108540505
11	0x3da807c8	0.08204609
12	0x3d9d312c	0.076753944
13	0x3df9afba	0.1219172
14	0x3cc20161	0.023682298
15	0x3c8c2879	0.017109143
16	0xbd9a43da	-0.07532473
17	0x3ea46d67	0.32114717
18	0xbd0f2e78	-0.034956425
19	0x3c6f3ec5	0.014602368
20	0xbcfe2af6	-0.031026345
21	0x3e97ac9d	0.2962388
22	0x3d754e9f	0.059889432
23	0xbd19a313	-0.037509035
24	0x3d5ee8a6	0.05442109
25	0x3e9c3ea4	0.3051654
26	0x3e68335a	0.22675839
27	0x3e979002	0.29602057
28	0x3db5de96	0.088803455
29	0x3d21f2d2	0.039538212
30	0x3dfbd919	0.122972675
31	0x3d984201	0.07434464
32	0xbe092fff	-0.13397215
33	0xbe190fa8	-0.14947379
34	0xbd35cc5d	-0.04438435
35	0x3cdc31b1	0.026879163
36	0xbda70582	-0.081553474
37	0xbe944dbe	-0.28965563
38	0xbe1e5237	-0.1546105
39	0xbe0fae1f	-0.14031266
40	0xbedba36d	-0.4289812
41	0xbdcc69f3	-0.09981146
42	0xbd6313b8	-0.055438727
43	0x3c6b3c95	0.014357706
44	0x3d20c4d9	0.03925023
45	0x3d90c400	0.07068634
46	0xbcc945e2	-0.024569456
47	0xbe36f427	-0.17866574
48	0xbdd0b6b2	-0.10191096
49	0xbd7ec289	-0.062197242
50	0xbdd88a3f	-0.10573243
51	0xbf1e8f73	-0.61937636
52	0xbd9fd524	-0.07804325
53	0x3d1027cd	0.035194207
54	0xbad4474f	-0.0016195568
55	0x3da387c7	0.07984882
56	0x3c5fdf20	0.013664037
57	0x3d50bd2c	0.05096166
58	0xbe80f268	-0.2518494
59	0xbea3830e	-0.31935924
60	0xbe331e1a	-0.17491952
61	0xbe0ea238	-0.13929069
62	0x3e6ec55e	0.23317477
63	0x3dabe1e7	0.08392697
64	0xbdddf506	-0.1083775
65	0xbe1d2bbe	-0.15348718
66	0x3d272368	0.04080525
67	0xbde81ffd	-0.11334226
68	0xbda7d19a	-0.08194275
69	0xbe7f4a34	-0.2493065
70	0xbe165801	-0.14682008
71	0xbdbeb043	-0.09310963
72	0x3e08b1ad	0.13349028
73	0x3d9e9318	0.077429
74	0xbe02c4af	-0.12770341
75	0xbd8f0fa6	-0.069854066
76	0xbe78ec19	-0.24308814
77	0xbe35ba5c	-0.17746872
78	0xbc8595fa	-0.016306866
79	0xbd2fcddc	-0.042920932
80	0xbe400052	-0.18750122
81	0xbd93c68d	-0.07215605
82	0xbdc5b45f	-0.09653544
83	0xbcb27ae1	-0.021787109
84	0x3da2ff29	0.07958824
85	0x3d81d6d4	0.06339803
86	0xbe249c93	-0.16075353
87	0x3db0bcc7	0.086297564
88	0x3e674619	0.22585334
89	0xbea33aba	-0.31880742
90	0xbb0599b2	-0.00203858
91	0xbe10cd32	-0.14140776
92	0xbdbbccd8	-0.0916993
93	0x3e1a62f5	0.15076812
94	0xbe6bc2f4	-0.23023587
95	0x3e1da2f1	0.15394188
96	0x3e4d8676	0.20070824
97	0x3eac1a30	0.3361373
98	0x3d2bab69	0.041911516
99	0x3d25d767	0.040488627
100	0x3e6d7cbb	0.23192112
101	0x3d1f9ed8	0.038969845
102	0xbdc4cde7	-0.09609585
103	0x3e9c025c	0.3047055
104	0xbd02b786	-0.031913303
105	0x3e11aadb	0.14225332
106	0x3d4bffb6	0.04980441
107	0xbcbefce7	-0.023313953
108	0x3ad6c3d4	0.0016385266
109	0x3de304ec	0.11084923
110	0xbd23a93e	-0.039956324
111	0xbd7df6ae	-0.06200283
112	0x3e467ca7	0.19383489
113	0x3e1305ac	0.14357632
114	0x3c6070f0	0.013698801
115	0x3d058540	0.03259778
116	0x3ed33589	0.41251782
117	0x3ebf8410	0.37405443
118	0x3e9f2a82	0.31087118
119	0x3e51e968	0.20499194
120	0x3e8237d4	0.25433218
121	0x3e282b70	0.1642282
122	0x3d9a4043	0.07531788
123	0xbb4ba8ce	-0.0031075957
124	0x3e829d6a	0.25510722
125	0x3e83c553	0.25736484
126	0xbc331c9d	-0.010932115
127	0xbd74685d	-0.05966984
128	0x3c3bd051	0.011463241
129	0xbe35f291	-0.17768313
130	0xbda37bf7	-0.07982629
131	0x3d659524	0.056050435
132	0xbd9bad52	-0.076014176
133	0xbcde65f9	-0.027148234
134	0x3e1113ea	0.14167753
135	0x3e7bd88d	0.24594326
136	0x3ebedea2	0.3727923
137	0x3e96dd16	0.2946555
138	0x3def1232	0.11673392
139	0x3cf4ddcb	0.029890915
140	0x3c14e758	0.00908836
141	0xbd7a9355	-0.061175663
142	0x3d5e474c	0.054267213
143	0xbe2bceaf	-0.16778062
144	0xbe3d63fe	-0.18495175
145	0xbe507a42	-0.20359138
146	0xbd8a9929	-0.06767494
147	0xbd592b15	-0.0530196
148	0x3e67b595	0.22627862
149	0xbd7c23c5	-0.06155755
150	0x3ded8a10	0.11598599
151	0x3e6b4b1a	0.22977868
152	0x3dbf4447	0.09339195
153	0x3e1481e0	0.14502668
154	0x3d5fb5c3	0.0546167
155	0x3d5aff23	0.053465974
156	0x3d6bdd64	0.05758418
157	0xbe0689ab	-0.13138454
158	0xbe181f26	-0.14855632
159	0xbe2f8299	-0.17139663
160	0x3eb6d457	0.35708877
161	0xbe7f0160	-0.24902868
162	0xbe3958c2	-0.18100265
163	0x3e8722b7	0.26393673
164	0x3e2a2c79	0.16618527
165	0xbf1d152e	-0.6136044
166	0x3ebafc80	0.36520767
167	0x3e263fbf	0.16235255
168	0x3f1ca0fa	0.6118313
169	0x3f09ae50	0.53781605
170	0xbead6736	-0.33867806
171	0xbb8ad6f6	-0.004237051
172	0x3e6f4a12	0.233681
173	0xbd89a832	-0.06721534
174	0xbec05254	-0.3756281
175	0xbe4e7786	-0.20162782
176	0x3d031a03	0.03200723
177	0x3d440412	0.047855444
178	0x3e4b31dc	0.19843239
179	0xbeb06c7f	-0.34457776
180	0xbd17c59f	-0.0370537
181	0xbd7a0db4	-0.061048225
182	0x3c02c512	0.007981556
183	0xbe16f176	-0.14740548
184	0xbd70885b	-0.05872379
185	0x3f40f7e1	0.75378233
186	0x3f51a285	0.8188861
187	0x3d288a6f	0.041147646
188	0xbda3d898	-0.08000296
189	0xbd66d15e	-0.05635201
190	0x3dd1eaa0	0.10249829
191	0x3e744d18	0.23857534
192	0xbe39869c	-0.18117756
193	0xbd82864e	-0.06373273
194	0xbcf86fa0	-0.030326664
195	0xbdbbc72b	-0.09168848
196	0x3ce0ca58	0.027440235
197	0xbea953c0	-0.3307171
198	0xbeb9bd06	-0.36277026
199	0x3dda51e9	0.10660154
200	0xbe59d52d	-0.21272726
201	0xbdc725ca	-0.097240046
202	0xbe6f513c	-0.23370832
203	0xbdc38f99	-0.095488735
204	0x3c2515e4	0.01007602
205	0xbd0a406a	-0.033752836
206	0xbe05ba06	-0.13059244
207	0x3dbab3dc	0.09116337
208	0xbe4f5214	-0.20246154
209	0xbe26b9b6	-0.1628178
210	0xbdbcc3ee	-0.09217058
211	0x3d1a932f	0.03773802
212	0x3e028420	0.12745714
213	0xbe8c3043	-0.2738057
214	0xbdb41a0e	-0.08794032
215	0x3d317744	0.04332663
216	0xbe119919	-0.14218558
217	0x3dd4e7fc	0.1039581
218	0xbe755a7f	-0.23960303
219	0xbe27d10b	-0.16388337
220	0x3c2cb67e	0.010541556
221	0xbd619a10	-0.055078566
222	0x3e10f603	0.14156346
223	0xbcf45487	-0.029825462
224	0xbe18d684	-0.14925581
225	0x3e89401a	0.26806718
226	0xbd5eaf83	-0.0543666
227	0x3e5ea9de	0.21744487
228	0x3b850e7c	0.0040605646
229	0xbca87fa3	-0.020568674
230	0xba252ce7	-0.00063009415
231	0xbc22255a	-0.009896601
232	0x3d98c186	0.07458787
233	0x3d2a2a53	0.04154427
234	0x3da2f908	0.07957655
235	0xbde91027	-0.11380034
236	0x3d71ff45	0.059081335
237	0x3cdd3c4a	0.027006287
238	0x3c345333	0.011006164
239	0xbd9757d3	-0.07389798
240	0xbc932071	-0.017959805
241	0x3da80108	0.08203322
242	0xbd8cf7b7	-0.06883185
243	0x3e5ff813	0.21871977
244	0xbdb007f2	-0.085952654
245	0x3d92ca53	0.071674965
246	0x3e59ed65	0.21281965
247	0xbd402308	-0.04690841
248	0x3e0b0cbf	0.13579081
249	0xbd56330e	-0.052294783
250	0x3d9fcf5c	0.078032225
251	0x3d8783b1	0.06616915
252	0x3e219ab7	0.15781675
253	0x3c46e2cb	0.012139033
254	0xbdc9d943	-0.098558925
255	0xbd28d4dd	-0.041218627

layers.0.wix.r_weight f4 [1, 32]
0	0xbf93033a	-1.148536
1	0x3e0ba47a	0.13636962
2	0xbf9db9e9	-1.232236
3	0xbf6770b8	-0.9040637
4	0xbfa1a388	-1.2628031
5	0x3e47db90	0.1951735
6	0xbea4daf4	-0.32198298
7	0x3dc3902c	0.09548983
8	0xbf177d5a	-0.59175646
9	0xbf0cd046	-0.550053
10	0x3e012992	0.12613514
11	0x3cf4387f	0.029812096
12	0xbfbce3ae	-1.4756982
13	0xbf71596c	-0.9427707
14	0xbf255398	-0.6458068
15	0xbf2147db	-0.6300027
16	0xbe6a7732	-0.22897032
17	0xbd92cfd9	-0.0716855
18	0xbf5b4d69	-0.85664994
19	0xbf2abaf6	-0.6669153
20	0xbd1068da	-0.035256244
21	0xbe463942	-0.1935778
22	0xbef59c39	-0.4797075
23	0xbf3e6d27	-0.74385303
24	0x3e120171	0.14258362
25	0xbe6ace5f	-0.22930287
26	0x3dd51617	0.10404604
27	0xbf202e2c	-0.6257045
28	0xbf3183e9	-0.69341904
29	0xbecd9fa4	-0.4016086
30	0x3cdb1d04	0.026747234
31	0xbfa36a37	-1.2766789

layers.0.wix.i_weight f4 [1, 32]
0	0x3b069a91	0.0020538906
1	0x3e1db4da	0.1540102
2	0xbe7b01fd	-0.24512477
3	0xbe60e9f6	-0.21964249
4	0xbd56b2cd	-0.05241661
5	0xbda309e9	-0.079608746
6	0x3c5dcc1f	0.013537436
7	0xbe7c943b	-0.2466592
8	0x3de7be5c	0.11315605
9	0x3e448acc	0.19193572
10	0xbb0f9f3b	-0.0021914977
11	0xbc4388d4	-0.011934478
12	0xbd57d0bd	-0.052689303
13	0xbeb1e63d	-0.3474597
14	0x3dc336b7	0.095319204
15	0x3de754b6	0.11295454
16	0xbe7bc146	-0.24585447
17	0x3d7e20d1	0.062043015
18	0xbd7a289e	-0.06107389
19	0xbe760bb0	-0.24027896
20	0xbdb7f66c	-0.08982548
21	0xbb0da8ae	-0.0021615434
22	0xbd89920a	-0.06717308
23	0x3c07d0bb	0.008289511
24	0x3e067d37	0.13133703
25	0x3e254db1	0.16142918
26	0xbd1b808c	-0.03796439
27	0xbe6586c0	-0.22414684
28	0xbdc84bf9	-0.09780116
29	0xbeeba8b7	-0.46027157
30	0x3d237de0	0.039914966
31	0x3d23727a	0.039904095

layers.0.wix.j_weight f4 [1, 32]
0	0xbeefa425	-0.4680492
1	0xbd40f659	-0.047109935
2	0xbf4cebce	-0.8004731
3	0xbe92eb9d	-0.28695384
4	0x3dfce124	0.1234763
5	0xbd2a990a	-0.041649856
6	0x3e8f1bf8	0.27951026
7	0x3e4fba38	0.2028588
8	0xbdfc3909	-0.12315566
9	0xbc998b0b	-0.018743059
10	0x3c4f8c72	0.012667762
11	0x3de2da3c	0.11076781
12	0xbd506222	-0.050874837
13	0xbe4f0e6c	-0.20220345
14	0x3aa0a930	0.0012257453
15	0xbe302ca8	-0.17204535
16	0xbe98b68c	-0.29826772
17	0xbd4631ca	-0.048387326
18	0x3df517d2	0.11967434
19	0x3e974ce5	0.29550853
20	0x3e0e3824	0.13888603
21	0x3e44361c	0.19161266
22	0xbd434a96	-0.047678553
23	0xbe9bcc92	-0.30429512
24	0xbe939352	-0.28823334
25	0xbd824499	-0.0636074
26	0x3cd4e090	0.025985986
27	0xbe0b87e0	-0.13626051
28	0x3e656fb5	0.22405894
29	0xbdd80cd5	-0.105493225
30	0xbe5a9b1a	-0.21348229
31	0x3e1d6eba	0.1537427

layers.0.wix.k_weight f4 [1, 32]
0	0xbdf02ee5	-0.117276944
1	0x3ce605b4	0.028078891
2	0xbd4e56b3	-0.05037565
3	0xbe244728	-0.16042769
4	0xbd1f921d	-0.038957704
5	0x3c1beb90	0.009516612
6	0xbcfeec7c	-0.031118624
7	0xbe2a5b79	-0.16636457
8	0xbe2af5b1	-0.16695286
9	0x3e279021	0.16363575
10	0xbcdc7e12	-0.026915584
11	0xbdc50347	-0.09619766
12	0x3ce766dc	0.02824729
13	0x3e377fd6	0.1791986
14	0xbb6230c9	-0.0034513942
15	0x3daf5a95	0.08562199
16	0xbe611b63	-0.21983103
17	0x3e276a0b	0.16349046
18	0x3dc773e2	0.097389
19	0xbdd783ca	-0.10523184
20	0xbda38b7a	-0.079855874
21	0x3d42e05d	0.04757725
22	0x3d923b73	0.07140245
23	0x3ed43f38	0.41454482
24	0x3d2d1403	0.042255413
25	0xbddec8b0	-0.10878122
26	0x3ca3eacc	0.02000942
27	0xbe01cf45	-0.12676723
28	0x3d575bb9	0.052577708
29	0xbe153dcb	-0.14574353
30	0x3cfdee88	0.03099753
31	0x3dff5d7c	0.124690026

layers.0.wix.bias f4 [128]
0	0xc0010629	-2.016001
1	0xbe62f2cd	-0.22162934
2	0xc00774c1	-2.116501
3	0xc005b08d	-2.0889008
4	0xc02ec365	-2.730676
5	0xbf22e06b	-0.63623685
6	0xbfaeaf68	-1.364728
7	0x3c963b33	0.018338775
8	0xbf9e8d25	-1.2386824
9	0xbffd2c12	-1.9779074
10	0x3ebb0bf3	0.36532554
11	0x3e561bd6	0.20909056
12	0xc034d3e9	-2.825434
13	0xc0152bcc	-2.3307981
14	0xbf7bd016	-0.9836439
15	0xbfcf31cc	-1.6187072
16	0x3daed8d4	0.085374504
17	0x3e9e498c	0.30915487
18	0xbf75219a	-0.95754397
19	0xbf806f39	-1.0033942
20	0xbeaa0551	-0.3320718
21	0x3ea7f6f5	0.328056
22	0x3de6bfec	0.11267075
23	0xbfd39aa9	-1.6531574
24	0xbdb34401	-0.08753205
25	0x3e22efe8	0.1591183
26	0xbd9dde9a	-0.077084735
27	0xbf0021d6	-0.5005163
28	0xbfa6dc5c	-1.3035998
29	0xbe783a79	-0.24241056
30	0xbe9f6692	-0.31132942
31	0xc022f540	-2.5462189
32	0xbfee797c	-1.8630824
33	0xbe297091	-0.16546847
34	0xbfe91795	-1.8210322
35	0xc00dc011	-2.2148478
36	0xc013fa86	-2.3121657
37	0xbede5554	-0.43424475
38	0xbf947a25	-1.1599776
39	0xbe3fb9de	-0.18723246
40	0xbf2fb16a	-0.6863009
41	0xbff9000c	-1.9453139
42	0x3f0212a0	0.5080967
43	0x3ed72098	0.42017055
44	0xc0408104	-3.0078745
45	0xc01c9901	-2.4468386
46	0xbfc62993	-1.5481437
47	0xbfc862c4	-1.5655141
48	0xbd83d46c	-0.06437001
49	0x3de2cfb1	0.1107477
50	0xbf8ea328	-1.1143541
51	0xbf3e1cfb	-0.7426297
52	0xbeab2386	-0.3342554
53	0xbd23434d	-0.039859105
54	0xbed18f5d	-0.4092969
55	0xbfe30d2b	-1.7738394
56	0x3dad8950	0.08473456
57	0xbc6fb67e	-0.014630912
58	0xbe065b4b	-0.13120763
59	0xbe92f0e9	-0.28699425
60	0xbf8dfbf8	-1.109252
61	0xbeecac9f	-0.4622545
62	0xbf02a936	-0.51039445
63	0xc00bac81	-2.1824038
64	0xc0102feb	-2.2529247
65	0xbe29d088	-0.16583455
66	0xbfd25a72	-1.6433852
67	0xc01341b5	-2.3008854
68	0xc014629a	-2.3185182
69	0xbed7f611	-0.4217992
70	0xbf947d4f	-1.1600741
71	0xbdda128f	-0.10648071
72	0xbf7ca85d	-0.986944
73	0xbff14266	-1.8848388
74	0x3eda31a7	0.42616007
75	0x3e343b93	0.17600851
76	0xc03bed33	-2.9363525
77	0xc02b4f67	-2.6767213
78	0xbf8ce7ff	-1.10083
79	0xbfcb7521	-1.589512
80	0xbd0d216f	-0.034455713
81	0x3e795b39	0.24351205
82	0xbf8f8b39	-1.1214362
83	0xbf1548c5	-0.5831416
84	0xbefed6bf	-0.49773213
85	0xbcea8c08	-0.028631225
86	0xbf03da16	-0.5150465
87	0xbfd2db47	-1.6473168
88	0xbe2d1e03	-0.1690598
89	0x3d6fae14	0.058515623
90	0x3cd0fb6f	0.025510518
91	0xbe5f114a	-0.21783939
92	0xbf72173e	-0.94566715
93	0xbeb4ecd5	-0.35336939
94	0xbee75652	-0.45183045
95	0xc01ebf44	-2.480424
96	0xc00fd2c5	-2.2472394
97	0xbdfe61d2	-0.124210015
98	0xbfe97867	-1.8239869
99	0xc014fc86	-2.3279128
100	0xc02109a3	-2.5162132
101	0xbf1310f3	-0.5744774
102	0xbf9fc4ec	-1.2481971
103	0x3d91316a	0.07089503
104	0xbfb1ea58	-1.3899641
105	0xbff9684f	-1.9484957
106	0x3ec0ae7d	0.37633124
107	0x3e57f4e1	0.21089508
108	0xc0377727	-2.8666475
109	0xc01ee0dd	-2.4824746
110	0xbf88e3d8	-1.0694532
111	0xbfcbf1ba	-1.5933144
112	0xbcbcfa90	-0.023068696
113	0x3e5c483b	0.21511929
114	0xbfc5f9e1	-1.5466882
115	0xbf52681a	-0.82190096
116	0xbed969cb	-0.42463526
117	0x3dfab106	0.12240796
118	0xbe5ee494	-0.21766883
119	0xbfdce468	-1.7257204
120	0xbdefa272	-0.11700906
121	0xbd9308cb	-0.071794115
122	0xbd0946f1	-0.03351492
123	0xbedf4adf	-0.4361181
124	0xbfb7a00a	-1.4345715
125	0xbebe6dac	-0.37193048
126	0xbedb000a	-0.42773467
127	0xc024b819	-2.5737364

layers.0.uih.r_weight f4 [32, 32]
0	0xbdd99e35	-0.10625879
1	0x3da032ca	0.07822187
2	0xbdb3ea82	-0.08784963
3	0xbe58569b	-0.21126787
4	0x3df7313f	0.1206994
5	0xbdd11f03	-0.10210993
6	0xbe43acd2	-0.19108894
7	0x3e79b677	0.24386011
8	0x3dc758b5	0.097337164
9	0xbdca7699	-0.09885902
10	0x3d7cc805	0.06171419
11	0x3d66a558	0.056310028
12	0x3d1554dc	0.03645788
13	0x3deb7711	0.114973195
14	0xbbb6c365	-0.005577492
15	0x3e1157bd	0.14193626
16	0x3e728793	0.2368453
17	0x3dcc6ab6	0.09981291
18	0xbe02fbba	-0.12791339
19	0xbe14be91	-0.1452582
20	0xbc82c905	-0.015964994
21	0x3e3defe4	0.18548542
22	0xbd054808	-0.032539397
23	0x3d631226	0.05543723
24	0xbd82548c	-0.06363782
25	0xbd261f61	-0.04055727
26	0xbd814e93	-0.06313815
27	0xbe8d1481	-0.27554706
28	0xbc8bbea4	-0.017058678
29	0x3eb936ca	0.36174613
30	0xbdeac2ca	-0.11462934
31	0x3c030060	0.007995695
32	0x3ea4c511	0.321816
33	0x3c8f99d2	0.017529402
34	0xbe10234c	-0.14075965
35	0xbe6503fa	-0.22364798
36	0x3ebee8f4	0.37287104
37	0x3eaba634	0.3352524
38	0x3dfafa59	0.12254781
39	0x3d6374f0	0.055531442
40	0x3d7f7867	0.062370684
41	0xbe8c82dd	-0.2744359
42	0xbe1ee974	-0.15518743
43	0x3d4bf137	0.049790587
44	0x3cb80510	0.022463351
45	0x3e33fdbf	0.17577265
46	0xbd344b48	-0.044017106
47	0xbdc48285	-0.09595207
48	0xbede4c52	-0.43417603
49	0xbef49a0f	-0.47773787
50	0xbdf570a6	-0.119843766
51	0xbe8b9869	-0.27264717
52	0xbe945611	-0.28971913
53	0xbe939346	-0.28823298
54	0xbe2ee003	-0.17077641
55	0xbdc596f6	-0.09647934
56	0x3d9eab4e	0.077475175
57	0xbef5c831	-0.48004296
58	0xbdc80c2b	-0.09767946
59	0xbed9cfa2	-0.42541224
60	0xbdbd2459	-0.092354484
61	0xbf048498	-0.5176482
62	0x3b56ebb1	0.0032794292
63	0x3e6e1530	0.2325027
64	0xbe57d08c	-0.21075648
65	0xbe7ccc65	-0.24687345
66	0x3e313eea	0.17309156
67	0x3e24b2c2	0.16083816
68	0x3e5046c0	0.20339489
69	0x3e3cf5e3	0.18453173
70	0xbe42f042	-0.19036964
71	0x3c897cf6	0.016783219
72	0xbcaf942d	-0.02143296
73	0xbdaa3385	-0.08310608
74	0xbe04cb44	-0.12968165
75	0xbd6bb59e	-0.05754625
76	0x3dc724c6	0.09723811
77	0x3e5f3be1	0.21800186
78	0xbc0fc4e1	-0.008774967
79	0x3e9bf4f2	0.30460316
80	0xbddb7689	-0.10715968
81	0x3e7b67ba	0.24551287
82	0xbe32ea16	-0.17472109
83	0xbe043524	-0.12910897
84	0x3e93c217	0.28859016
85	0xbde28e92	-0.110623494
86	0x3cdb6bd7	0.02678482
87	0xbe2d3e4f	-0.169183
88	0x3e5cbc1c	0.21556133
89	0x3e027d0f	0.12743019
90	0xbe410e50	-0.18853116
91	0xbdd64faa	-0.104644135
92	0x3dafe3c4	0.08588365
93	0xbe420124	-0.18945748
94	0xbe8fb47c	-0.28067386
95	0x3e2c96ab	0.1685435
96	0x3d7edb36	0.062220775
97	0xbcabfc30	-0.020994276
98	0xbe9f107f	-0.31067273
99	0x3e5e638a	0.21717659
100	0xbde165af	-0.11005723
101	0x3dfe4fcc	0.12417564
102	0x3d2ad8f6	0.041710816
103	0xbe5b5c89	-0.21422018
104	0x3e6a9c71	0.2291124
105	0xbe6b8d18	-0.23003042
106	0xbd941209	-0.072300024
107	0x3da44fd5	0.08023039
108	0x3dde6de8	0.10860807
109	0x3c732516	0.014840385
110	0xbb4604fe	-0.0030215378
111	0xbc6891ee	-0.014194949
112	0xbd67a278	-0.056551427
113	0xbcbb2360	-0.022844017
114	0x3dd74a48	0.10512215
115	0xbe225863	-0.1585403
116	0x3d0015a1	0.031270627
117	0x3e503e69	0.20336308
118	0x3d7983c1	0.060916666
119	0x3e1d6d79	0.15373792
120	0x3a43cb70	0.0007468974
121	0xbe150692	-0.14553288
122	0xbddebeb5	-0.10876218
123	0xbc020e57	-0.007937989
124	0xbd8ee960	-0.069781065
125	0x3e8dc246	0.2768728
126	0x3dd61adc	0.10454342
127	0xbdcf7172	-0.1012906
128	0xbe60bc41	-0.21946813
129	0x3e25171e	0.161221
130	0x3df46b25	0.11934499
131	0x3cce2adc	0.025166921
132	0xbdb2a309	-0.08722503
133	0xbd401249	-0.046892438
134	0x3e83eb7d	0.257656
135	0x3e377f45	0.17919643
136	0x3e2b633f	0.16737078
137	0xbe9f9c88	-0.3117411
138	0xbdfd0157	-0.12353771
139	0x3d2472a0	0.040148377
140	0xbdc0633b	-0.09393927
141	0xbe432618	-0.190575
142	0xbd2555ae	-0.040364914
143	0xbd07b7b8	-0.033134192
144	0x3dec4025	0.11535672
145	0xbeba31cf	-0.36366126
146	0x3db5b07a	0.08871551
147	0xbcde4f33	-0.027137375
148	0xbd214d1c	-0.039380178
149	0x3d88c682	0.06678487
150	0xbe6458d2	-0.22299507
151	0xbddc21a6	-0.107486054
152	0xbdadcd23	-0.08486392
153	0xbef5dc6f	-0.4801974
154	0x3ed4ca26	0.41560477
155	0x3e63e5de	0.22255656
156	0x3c5d98d5	0.0135252075
157	0xbe81966f	-0.25310084
158	0x3e3741ac	0.17896146
159	0x3cc5b6d1	0.024135025
160	0x3f334c47	0.70038265
161	0x3f10b616	0.5652784
162	0x3e8bb0fb	0.27283463
163	0x3ecfa23e	0.40553468
164	0x3dbcc1ed	0.09216676
165	0x3e0eee69	0.13958134
166	0x3d4e2fc5	0.050338525
167	0x3d325aa4	0.043543473
168	0x3e35a6c8	0.17739403
169	0x3ea50c6b	0.32236037
170	0xbeee6d75	-0.46567884
171	0xbebb3080	-0.3656044
172	0x3efd48b2	0.49469525
173	0x3f27eb94	0.6559384
174	0x3e9adbe4	0.30245888
175	0xbda5caae	-0.08095299
176	0xbe96fe3f	-0.2949085
177	0xbf3dc737	-0.741321
178	0x3da7b444	0.0818868
179	0x3e852008	0.26001
180	0xbe420156	-0.18945822
181	0xbf26eabd	-0.6520193
182	0xbeea2d63	-0.45737752
183	0x3d9ba108	0.07599074
184	0x3eb585bd	0.35453597
185	0xbf9f0192	-1.2422354
186	0x3f461f9f	0.77392
187	0xbe0b15e2	-0.13582566
188	0x3d4f0929	0.050545845
189	0xbe79b109	-0.2438394
190	0xbd5f23bd	-0.054477442
191	0x3ee57fa8	0.44823956
192	0xbe194b64	-0.14970165
193	0x3e8edb9f	0.27901933
194	0xbe97248b	-0.29520068
195	0x3dae1c27	0.085014634
196	0xbdb4cba8	-0.08827907
197	0xbee1fb1f	-0.44136903
198	0x3e6aff7d	0.22949024
199	0x3d9e6fe1	0.07736183
200	0x3eb13eee	0.34618324
201	0x3e7ad3f9	0.24494924
202	0xbe216e7b	-0.15764801
203	0x3e62c657	0.22145973
204	0xbdd54c1c	-0.10414907
205	0xbea4fb9a	-0.32223207
206	0xbdfc40b7	-0.12317031
207	0x3ea0e91a	0.31427842
208	0x3e362331	0.17786862
209	0xbe269c9f	-0.16270684
210	0x3da2f590	0.079569936
211	0x3e32b162	0.17450479
212	0x3ecfed7e	0.4061088
213	0x3e19be5d	0.15014024
214	0x3cdd18a9	0.026989298
215	0xbdf96fb2	-0.12179507
216	0x3ef6d2be	0.4820766
217	0x3ea720c3	0.32642183
218	0x3ddd1548	0.10795075
219	0xbe1573e3	-0.14594989
220	0xbe8280d4	-0.25488913
221	0x3c69ed93	0.0142778335
222	0xbebe3d62	-0.37156206
223	0xbe88c240	-0.267107
224	0x3c9e7863	0.019344514
225	0xbe0725c6	-0.13198003
226	0xbe89f070	-0.26941252
227	0xbc87292c	-0.016499124
228	0xbce802fa	-0.028321732
229	0xbeabcdf8	-0.3355558
230	0xb9449eae	-0.0001875113
231	0xbd8d0ed7	-0.06887596
232	0xbe9c60af	-0.30542514
233	0x3dbd3c18	0.092399776
234	0x3e066d5e	0.13127658
235	0x3de5cac3	0.11220314
236	0x3e369fd6	0.1783441
237	0xbd8c9395	-0.068640865
238	0x3e15edb5	0.1464146
239	0xbdf11305	-0.11771206
240	0x3eaf4e2e	0.34239334
241	0x3f2153cf	0.63018507
242	0x3dbfecd1	0.09371341
243	0xbd351bc2	-0.044215925
244	0xbdb15201	-0.08658219
245	0x3eecf5b8	0.4628122
246	0x3e9fa5a1	0.31181052
247	0x3e27a2f9	0.16370763
248	0xbe764416	-0.2404941
249	0x3ef89388	0.48550057
250	0x3d5e7ea4	0.054319993
251	0x3edd7060	0.43249798
252	0x3dbd91db	0.09256335
253	0x3f2308d8	0.6368537
254	0x3d13dd7e	0.036099903
255	0x3b3b6993	0.0028596863
