models/QLSTM_qal_hip_epochs15.pth (torch, 168347 bytes, 76 tensors)

layers.0.wfx.r_weight f4 [1, 32]
-0.82628274 -0.10389152 -1.0401542 -0.5052135 -0.51779723 -0.5160362 -0.5867559 -0.74696046
-0.8009412 -0.63671964 -0.11065151 0.044752896 -0.6059947 -0.55774367 -0.58431184 -0.9162867
-0.62558293 -0.28966835 -0.7177106 -0.37753752 -0.74876654 -0.8588544 -0.8325759 -0.6944446
-0.9443395 -0.80854017 -0.28253445 -0.5406223 -0.80875343 -0.9035145 -0.59198976 -0.7953654
00000000: 4487 53bf 14c5 d4bd c623 85bf ac55 01bf
00000010: 5c8e 04bf f31a 04bf a235 16bf cd38 3fbf
00000020: 7c0a 4dbf 0f00 23bf 429d e2bd d04e 373d
00000030: 7822 1bbf 4ac8 0ebf 7695 15bf c491 6abf
00000040: 3426 20bf 694f 94be e2bb 37bf 994c c1be
00000050: 2aaf 3fbf e2dd 5bbf b223 55bf 1fc7 31bf
00000060: 3cc0 71bf 7dfc 4ebf 5ba8 90be 3966 0abf
00000070: 770a 4fbf ba4c 67bf a48c 17bf 119d 4bbf

layers.0.wfx.i_weight f4 [1, 32]
0.04382926 -0.3994813 -0.111314364 -0.16732174 -0.09634024 -1.0239804 0.14979447 0.33784482
-0.07940343 0.11484233 0.09019232 0.080205895 -0.074943215 0.14572792 -0.12932047 0.06354689
-0.032590773 0.010800271 -0.114977844 -0.09157133 -0.002935813 0.2833807 0.10870721 0.06283548
-0.19982988 0.22196786 -0.081870385 -0.19178219 0.23761238 0.39590272 -0.33570638 -0.095629066
00000000: 4f86 333d d088 ccbe c9f8 e3bd 6456 2bbe
00000010: 084e c5bd ca11 83bf b963 193e fff9 ac3e
00000020: 449e a2bd 7532 eb3d c0b6 b83d fd42 a43d
00000030: d47b 99bd b339 153e 966c 04be df24 823d
00000040: e77d 05bd 9ff3 303c 8179 ebbd c089 bbbd
00000050: c566 40bb 4617 913e e3a1 de3d e3af 803d
00000060: 34a0 4cbe 8b4b 633e a9ab a7bd 8d62 44be
00000070: a950 733e c3b3 ca3e b5e1 abbe 2cd9 c3bd

layers.0.wfx.j_weight f4 [1, 32]
0.07927455 0.11822293 0.03254789 0.21575658 -0.010629486 0.037605595 0.065909974 0.12151313
-0.07579515 -0.059485264 -0.08283029 -0.116320655 0.057839964 -0.0503991 0.4513187 -0.027677022
-0.0019748814 0.09551919 0.087689154 0.18895593 0.055615537 -0.039993647 -0.068263546 0.22298853
0.16250691 0.26395053 0.036277484 -0.09385197 -0.042807363 0.05176244 0.6231424 0.13367818
00000000: b25a a23d dd1e f23d f050 053d 4bef 5c3e
00000010: 4c27 2ebc 5308 1a3d cffb 863d e0db f83d
00000020: 7d3a 9bbd d2a6 73bd eda2 a9bd 8639 eebd
00000030: 99e9 6c3d 496f 4ebd 3f13 e73e ecba e2bc
00000040: 036d 01bb 919f c33d 5f96 b33d aa7d 413e
00000050: 1ecd 633d 61d0 23bd c2cd 8bbd 1b57 643e
00000060: 3668 263e 8624 873e b397 143d 7635 c0bd
00000070: c656 2fbd da04 543d 4386 1f3f efe2 083e

layers.0.wfx.k_weight f4 [1, 32]
0.007870899 0.019837286 0.07303297 0.019624483 0.059653915 -0.4366772 0.026328947 0.107909665
-0.031723607 -0.047019035 0.045655493 0.06590723 0.057566926 0.11048361 0.21977188 0.11219348
-0.0054365136 -0.044843953 -0.031317864 0.2368174 0.057190876 0.1730105 0.24430399 -0.092126615
0.19039907 0.13970631 -0.035826653 0.01206572 0.0076578152 -0.11855421 -0.19942462 0.02799497
00000000: f1f4 003c ce81 a23c 4f92 953d 86c3 a03c
00000010: aa57 743d 2794 dfbe ceaf d73c beff dc3d
00000020: 9df0 01bd 0897 40bd 4101 3b3d 5ffa 863d
00000030: 4ccb 6b3d 3b45 e23d e10b 613e b2c5 e53d
00000040: c824 b2bb 4bae 37bd 2947 00bd 4380 723e
00000050: fb40 6a3d aa29 313e d32a 7a3e e1ac bcbd
00000060: f9f7 423e 2c0f 0f3e f8be 12bd 4caf 453c
00000070: 69ee fa3b 8dcc f2bd f835 4cbe b555 e53c

layers.0.wfx.bias f4 [128]
-1.7211852 -0.11817143 -1.9453819 -2.0235205 -1.6671277 0.1505513 -1.9497906 -0.5732021
-1.9208629 -2.087577 0.29468578 -0.16057438 -1.9195058 -1.8924737 -1.2287642 -1.7821786
-0.27092105 -0.074094675 -1.7147192 -1.382609 -1.3484017 -0.1417944 -1.1094868 -1.7947564
-0.93585837 -0.32096395 -0.40124387 -1.3066404 -1.6175735 -1.5010648 -1.1902604 -1.9664499
-2.08733 -0.6180839 -2.02798 -1.8593879 -1.9603119 -0.51509744 -1.9541417 -0.5956146
-1.4405311 -1.8976427 0.115646556 0.11599457 -1.7482579 -2.0529315 -2.378508 -1.7918222
-0.35882756 -0.30078888 -1.4903169 -1.2232476 -1.431204 -0.5285949 -1.7820544 -1.9147422
-0.55020505 -0.59594554 -0.25628203 -1.3516164 -1.684023 -1.1111948 -0.24083093 -2.130417
-1.6218827 -0.3316534 -1.6637295 -2.1416705 -1.8678652 0.26007226 -1.878496 -0.56683433
-1.7914957 -1.9999356 0.15559737 -0.2539101 -1.9122148 -1.9439808 -1.5484108 -1.8437563
-0.3039793 -0.12443698 -1.9041468 -0.87563777 -0.97989124 -0.05535009 -0.9800745 -1.7810142
-0.69022214 -0.27877653 -0.42142352 -0.6784702 -1.7929034 -1.2086195 -1.1322826 -1.8209325
-2.0235198 -0.6991053 -2.0972428 -1.94063 -1.879293 -0.90078413 -1.894323 -0.54782987
-1.8919932 -1.9226887 0.19355215 -0.30034235 -1.835949 -2.055947 -1.909799 -1.8530539
-0.53560024 -0.2596542 -1.644443 -1.4259628 -1.2718945 -0.28078502 -0.80486125 -2.039585
-1.0240842 -0.6241649 -0.12551779 -1.5349734 -2.1047447 -1.5548116 -0.6876044 -1.8577759
00000000: cc4f dcbf dd03 f2bd 4602 f9bf 5c81 01c0
00000010: 7164 d5bf 1f2a 1a3e bd92 f9bf 5fbd 12bf
00000020: d6de f5bf dd9a 05c0 0ee1 963e 9c6d 24be
00000030: 5eb2 f5bf 943c f2bf 2548 9dbf 6e1e e4bf
00000040: 2ab6 8abe f3be 97bd eb7b dbbf 55f9 b0bf
00000050: 6d98 acbf 8d32 11be aa03 8ebf 94ba e5bf
00000060: 6a94 6fbf 6355 a4be d66f cdbe fe3f a7bf
00000070: a60c cfbf e422 c0bf 745a 98bf a1b4 fbbf
00000080: d196 05c0 bf3a 1ebf 6dca 01c0 6c00 eebf
00000090: 80eb fabf 6ddd 03bf 5121 fabf 337a 18bf
000000a0: 5363 b8bf f5e5 f2bf 1ad8 ec3d 908e ed3d
000000b0: eac6 dfbf 3b63 03c0 7a39 18c0 6e5a e5bf
000000c0: 3fb8 b7be 0001 9abe b4c2 bebf 6193 9cbf
000000d0: b131 b7bf ff51 07bf 5c1a e4bf 4616 f5bf
000000e0: 3dda 0cbf e38f 18bf 6637 83be c401 adbf
000000f0: 118e d7bf a23b 8ebf 629c 76be c158 08c0
00000100: da99 cfbf 79ce a9be 17f5 d4bf 2111 09c0
00000110: 3516 efbf 3128 853e 8f72 f0bf 0e1c 11bf
00000120: bb4f e5bf e4fd ffbf eb54 1f3e 8100 82be
00000130: 74c3 f4bf 5dd4 f8bf 5332 c6bf 3500 ecbf
00000140: 2da3 9bbe d1d8 febd 15bb f3bf cc29 60bf
00000150: 27da 7abf c7b6 62bd 2ae6 7abf 46f8 e3bf
00000160: 66b2 30bf ccbb 8ebe d3c4 d7be 39b0 2dbf
00000170: dc7d e5bf 0bb4 9abf a3ee 90bf 5114 e9bf
00000180: 5981 01c0 91f8 32bf 3a39 06c0 9066 f8bf
00000190: ac8c f0bf ca99 66bf 2d79 f2bf 943e 0cbf
000001a0: d52c f2bf aa1a f6bf 8932 463e 79c6 99be
000001b0: 6000 ebbf a394 03c0 4b74 f4bf df30 edbf
000001c0: 191d 09bf 65f1 84be 1c7d d2bf f385 b6bf
000001d0: 70cd a2bf 0ec3 8fbe 630b 4ebf 9088 02c0
000001e0: 3115 83bf 45c9 1fbf bc87 00be 027a c4bf
000001f0: 23b4 06c0 1104 c7bf d806 30bf 9acb edbf

layers.0.ufh.r_weight f4 [32, 32]
0.038519774 -0.06497152 0.20484224 -0.17357257 0.19031066 -0.54024065 0.056121647 0.15949242
-0.07627044 0.069787875 0.12326872 -0.053517498 0.04126366 0.26833114 -0.163886 0.20420107
0.19613455 0.2798457 0.18970643 -0.07211949 -0.21245454 -0.13698168 0.30984518 -0.1862257
0.26644176 0.21234235 -0.12010254 -0.19122767 0.1283853 -0.09415768 0.27014098 0.11037891
0.27367088 -0.29335696 0.25855345 0.14586163 0.39315554 -0.10600681 0.22739463 -0.50169146
0.35329187 0.12430932 -0.2818002 0.044884644 -0.007648486 0.17700838 0.12631896 0.07783756
-0.4359662 -0.3951102 -0.11351845 -0.23314612 -0.47161612 -0.9141306 -0.745561 0.008838047
-0.21051775 -0.4394034 0.08130604 -0.18874305 0.32737178 -0.38561732 -0.13852605 0.3090989
-0.2697938 -0.09079805 -0.156776 0.10979738 -0.17245553 -0.08085507 -0.38542944 -0.061181415
0.2429627 -0.15701093 -0.2039934 -0.11140254 -0.0062972005 -0.021414947 -0.23252511 0.30386236
0.10114063 0.4196001 0.026010133 -0.092538655 0.17358635 0.042980164 0.08536152 -0.04125821
0.18160023 0.47530276 -0.109570324 -0.25573137 0.14306575 -0.2441466 -0.38621715 -0.20184164
-0.030660149 -0.16801342 0.09529098 0.041995157 -0.09612601 -0.13984981 -0.0046869665 -0.12643573
-0.051002275 0.03749088 0.046744503 0.08923176 -0.35692883 0.21785806 -0.0020414013 0.34396267
0.25741902 0.22725822 0.089951955 -0.22900029 0.08279276 0.31488585 0.2111758 0.23017614
0.0022177864 0.08175744 0.1294101 0.035616755 -0.16687329 -0.093277074 -0.15553762 -0.07887057
0.06698747 0.23999432 0.19487427 -0.059277352 0.07846493 -0.081904896 0.27861306 0.22573686
-0.09132519 -0.069894485 -0.06703571 -0.052816257 0.1314629 -0.03946238 -0.016399581 -0.11816022
0.12974302 -0.08769332 -0.16195141 0.06054695 -0.101805836 -0.19962704 -0.35767952 0.15493803
-0.00066070317 -0.50091946 0.09013785 0.107144885 -0.00088559586 0.20794708 -0.18434103 0.14073537
0.5385312 0.191847 0.35116002 -0.05009032 0.3404387 0.5939635 0.044359893 -0.21748267
0.2604453 0.24541062 -0.09094932 0.19975458 0.2390683 0.667087 0.17576882 -0.026504898
0.41708118 0.24882968 0.17696394 0.39279628 -0.110150315 0.2696348 -0.20129237 -0.047985326
0.2711231 -0.3397554 0.5739636 0.12864351 0.133157 0.24865408 0.30867672 0.52632225
-0.13912117 0.11388167 -0.1505508 0.11070798 0.019021636 -0.19499387 0.09759495 0.20686883
0.033764333 -0.08122691 0.07696137 -0.22449805 -0.14904878 -0.013768706 -0.23531252 -0.043829177
0.2668081 -0.22212952 -0.04319043 0.13636155 0.0095916055 -0.18338533 0.24493296 -0.17835945
0.03264739 -0.105648234 -0.06278418 0.07000835 -0.038588915 0.09277696 -0.20363249 -0.24730414
-0.08072633 0.2551772 -0.05743582 -0.12418185 0.12190666 0.21795157 -0.11094144 0.44148114
-0.57390916 -0.23184104 0.33777747 -0.11816561 -0.09319812 -0.013879872 0.23668629 -0.19227174
0.39789742 0.3526487 -0.2597348 0.25146124 0.24534282 0.7697892 0.5347321 -0.06660984
0.07526278 0.81463027 -0.081877045 0.35431635 -0.21859117 0.20213747 -0.012563258 0.09205409
00000000: e9c6 1d3d ca0f 85bd 2ac2 513e 02bd 31be
00000010: cce0 423e 364d 0abf d0df 653d fb51 233e
00000020: ad33 9cbd f2ec 8e3d 5074 fc3d 2a35 5bbd
00000030: 1504 293d b362 893e bbd1 27be 161a 513e
00000040: 7fd7 483e f047 8f3e 6742 423e 62b3 93bd
00000050: af8d 59be ed44 0cbe 07a4 9e3e f3b1 3ebe
00000060: 0e6b 883e 4670 593e 52f8 f5bd 30d1 43be
00000070: 7077 033e bed5 c0bd eb4f 8a3e 570e e23d
00000080: 971e 8c3e e232 96be 1e61 843e c05c 153e
00000090: af4b c93e 191a d9bd 23da 683e da6e 00bf
000000a0: ace2 b43e e295 fe3d 1e48 90be f6d8 373d
000000b0: 27a0 fabb af41 353e c259 013e 4c69 9f3d
000000c0: f636 dfbe e24b cabe 5c7c e8bd dbbd 6ebe
000000d0: ab77 f1be 7704 6abf 16dd 3ebf 75cd 103c
000000e0: f791 57be 7cf9 e0be c883 a63d dc45 41be
000000f0: 469d a73e a26f c5be c6d9 0dbe 3642 9e3e
00000100: 6a22 8abe 54f4 b9bd e389 20be 73dd e03d
00000110: 2f98 30be 5897 a5bd 0257 c5be 5d99 7abd
00000120: 37cb 783e 79c7 20be a5e3 50be 0427 e4bd
00000130: bf58 cebb 666e afbc 101b 6ebe d993 9b3e
00000140: d222 cf3d d3d5 d63e 3413 d53c e884 bdbd
00000150: 9fc0 313e f80b 303d 05d2 ae3d 5efe 28bd
00000160: 69f5 393e e25a f33e 6866 e0bd 39ef 82be
00000170: d47f 123e 9101 7abe 41be c5be 93af 4ebe
00000180: fe2a fbbc b60b 2cbe eb27 c33d 1d03 2c3d
00000190: b7dd c4bd ca34 0fbe 2095 99bb 5e78 01be
000001a0: c3e7 50bd 0990 193d 2a77 3f3d 24bf b63d
000001b0: 60bf b6be 2f16 5f3e 08c9 05bb e01b b03e
000001c0: 6dcc 833e 61b6 683e bb38 b83d 0d7f 6abe
000001d0: 408f a93d b838 a13e 783e 583e 4bb3 6b3e
000001e0: 4858 113b 7270 a73d 1584 043e e0e2 113d
000001f0: d5e0 2abe 0d08 bfbd 4145 1fbe e586 a1bd
00000200: ba30 893d 12c1 753e 1f8d 473e cfcc 72bd
00000210: 39b2 a03d c1bd a7bd 5fa6 8e3e 9027 673e
00000220: b408 bbbd d724 8fbd 054a 89bd dc55 58bd
00000230: 369e 063e 4ea3 21bd 6a58 86bc fcfd f1bd
00000240: 5bdb 043e 8e98 b3bd 97d6 25be 1400 783d
00000250: 947f d0bd 086b 4cbe c521 b7be 13a8 1e3e
00000260: 0a33 2dba 423c 00bf 319a b83d c76e db3d
00000270: 5527 68ba 14f0 543e e5c3 3cbe ef1c 103e
00000280: 2edd 093f 8a73 443e 3fcb b33e 822b 4dbd
00000290: fb4d ae3e fe0d 183f b8b2 353d c7b3 5ebe
000002a0: 1659 853e ec4c 7b3e a343 babd 778c 4c3e
000002b0: 52ce 743e 37c6 2a3f befc 333e cd20 d9bc
000002c0: aa8b d53e 35cd 7e3e 0936 353e 981c c93e
000002d0: 7d96 e1bd 930d 8a3e 961f 4ebe 438c 44bd
000002e0: a6d0 8a3e 6bf4 adbe 47ef 123f 20bb 033e
000002f0: 4f5a 083e 2d9f 7e3e e00a 9e3e 0ebd 063f
00000300: c875 0ebe cb3a e93d fd29 1abe deba e23d
00000310: 43d3 9b3c 79ac 47be dcdf c73d 6cd5 533e
00000320: 784c 0a3d 4b5a a6bd ec9d 9d3d d1e2 65be
00000330: 3ea0 18be 2396 61bc c4f5 70be 3986 33bd
00000340: 129b 883e ec75 63be 73e8 30bd 5da2 0b3e
00000350: 1c26 1d3c 5dc9 3bbe b5cf 7a3e dca3 36be
00000360: 45b9 053d 1a5e d8bd fe94 80bd 8a60 8f3d
00000370: 690f 1ebd d901 be3d 0985 50be 4c3d 7dbe
00000380: d953 a5bd 96a6 823e d341 6bbd 0e53 febd
00000390: 33aa f93d b22e 5f3e 4435 e3bd d109 e23e
000003a0: b6eb 12bf bd67 6dbe 2bf1 ac3e d000 f2bd
000003b0: a8de bebd 6768 63bc e45d 723e e2e2 44be
000003c0: 36b9 cb3e 5f8e b43e f6fb 84be 87bf 803e
000003d0: 263b 7b3e e810 453f 34e4 083f bd6a 88bd
000003e0: 5f23 9a3d 9c8b 503f 27af a7bd f468 b53e
000003f0: 5dd6 5fbe 20fd 4e3e 20d6 4dbc db86 bc3d

layers.0.ufh.i_weight f4 [32, 32]
-0.0037737375 0.1734181 -0.06559622 -0.024082936 0.11290678 -0.12653236 0.05098015 0.058276266
-0.025041716 0.044497553 0.04371413 -0.12071485 0.09365032 -0.06048168 0.0023559604 -0.07930042
-0.06054281 -0.07064908 -0.068931 0.096725784 0.25739342 -0.25604245 0.021015901 0.1922925
-0.16410182 -0.2615701 0.1968873 -0.19790821 0.018940529 -0.054537706 -0.06386679 -0.011120891
0.21007629 -0.23639528 -0.22274029 0.08684493 0.10820698 -0.38781166 0.18093601 0.050563514
0.035865538 -0.02007686 -0.10294283 0.10506308 0.2588048 0.13263711 -0.01590887 0.021813886
-0.064046144 -0.030345978 -0.06496908 -0.11086302 -0.03316048 -0.086260065 0.07254326 0.12295206
-0.33889 0.06807617 0.18538754 0.21262728 0.17287701 0.28447765 0.25845638 0.018043896
0.23358727 -0.11938427 -0.030708924 -0.053638224 0.0912982 0.0061173537 -0.15481146 -0.21909052
-0.17376943 -0.18455787 0.15478584 0.037092887 0.22917561 -0.0016506376 0.13431096 -0.15182017
0.48929384 0.002986875 -0.35427326 0.008251066 0.15694074 -0.31622806 0.2441709 0.22408193
-0.07935838 0.2842669 -0.010315774 0.05145591 0.06788965 -0.09583162 -0.4160443 0.22946158
0.0013495603 0.056755155 0.05219604 0.15094608 0.14546598 0.07074019 0.25400963 0.07457987
-0.13375174 0.046921715 0.09088067 0.041024905 0.14797531 0.20886177 0.24381751 0.05493192
0.17962524 0.12674691 -0.09392664 0.18708682 -0.021138093 -0.110983334 -0.10743103 -0.016302345
0.1414162 0.12922683 -0.10096402 0.028589007 0.17739452 0.07749521 0.014650181 0.11936352
0.02300106 -0.16261221 -0.02670569 -0.038071655 -0.060696162 0.3723657 -0.03527884 0.09702273
0.015897969 0.18964927 -0.18347347 -0.18182002 0.018262658 0.22853705 -0.0019661519 -0.123516366
-0.33110353 0.00072148273 0.18172298 -0.009801438 0.03063075 -0.17591017 -0.11527957 -0.18568708
0.27522674 -0.34735242 0.08622438 -0.082975365 -0.26088712 -0.020956542 -0.025096057 -0.045018382
0.015049618 0.14420903 -0.0047953995 0.10185517 0.17048432 0.23272352 -0.15835081 0.09432425
0.22426413 0.024598265 -0.044078052 -0.028153073 -0.053705085 0.17630208 0.0022497599 0.1783754
0.3101187 -0.019584423 0.38267604 0.26145297 0.27918774 -0.08859468 -0.12829658 -0.07964371
0.23309879 -0.643976 -0.371946 0.17121539 -0.32044 0.05400265 0.7159666 0.17496921
-0.2236209 -0.2470798 -0.049673636 -0.0778786 -0.023856968 0.052625097 -0.0516208 0.08786297
-0.16661835 0.07327154 -0.112502955 0.16455662 -0.14746971 0.04521282 0.010548736 -0.2212376
-0.26015636 -0.107253365 -0.057365473 -0.028216252 -0.38357186 0.06657736 0.24463299 0.05404097
-0.0038791457 0.19130881 0.3727291 0.27176446 0.16691434 0.004777588 -0.28006965 -0.036228634
0.11301432 0.28397843 -0.066232614 0.034550946 -0.06997677 0.6751474 -0.30085248 -0.18951902
0.1796541 -0.02359704 0.059022527 -0.09086457 0.12458326 -0.044762626 0.22649033 0.18115811
0.135536 0.1781289 0.05293895 -0.017175116 0.12953858 -0.13110127 -0.5397263 0.0045434143
0.33529502 -0.38329548 0.08701418 -0.047265332 -0.20574608 -0.28722024 -0.05384409 -0.08132666
00000000: cf50 77bb 8494 313e 5057 86bd 9449 c5bc
00000010: ab3b e73d b391 01be 90d0 503d 18b3 6e3d
00000020: 4924 cdbc 1143 363d 960d 333d 5939 f7bd
00000030: bdcb bf3d a3bb 77bd 7566 1a3b 4268 a2bd
00000040: bdfb 77bd 77b0 90bd b22b 8dbd 2b18 c63d
00000050: 12c9 833e ff17 83be 8a29 ac3c 53e8 443e
00000060: 4f0a 28be 84ec 85be d39c 493e 73a8 4abe
00000070: 2b29 9b3c ee62 5fbd 97cc 82bd 6634 36bc
00000080: 3d1e 573e 9b11 72be 0816 64be c1db b13d
00000090: 9f9b dd3d 408f c6be 4a47 393e b01b 4f3d
000000a0: bee7 123d 3a78 a4bc b1d3 d2bd 502b d73d
000000b0: 1082 843e 06d2 073e 5253 82bc 09b3 b23c
000000c0: a02a 83bd 2198 f8bc 820e 85bd 270c e3bd
000000d0: 49d3 07bd 1ea9 b0bd 9091 943d 4ace fb3d
000000e0: fd82 adbe 856b 8b3d 3bd6 3d3e f7ba 593e
000000f0: ac06 313e 0ea7 913e 6554 843e cbd0 933c
00000100: 8031 6f3e bd7f f4bd 4891 fbbc c1b3 5bbd
00000110: 8dfa ba3d 1574 c83b e586 1ebe 4459 60be
00000120: 9df0 31be bdfc 3cbe 2e80 1e3e b6ee 173d
00000130: 03ad 6a3e 355a d8ba d088 093e bf76 1bbe
00000140: b984 fa3e 72bf 433b 4e63 b5be 7b2f 073c
00000150: 13b5 203e a5e8 a1be f007 7a3e bc75 653e
00000160: a586 a2bd 6e8b 913e 7e03 29bc 6fc3 523d
00000170: bb09 8b3d 5e43 c4bd c203 d5be faf7 6a3e
00000180: bbe3 b03a 1878 683d 84cb 553d 9c91 1a3e
00000190: 09f5 143e 3ce0 903d 8d0d 823e 55bd 983d
000001a0: 37f6 08be fc30 403d a51f ba3d bb09 283d
000001b0: d786 173e dcdf 553e 4cab 793e 4b00 613d
000001c0: aeef 373e f1c9 013e 9c5c c0bd b093 3f3e
000001d0: cb29 adbc 3b4b e3bd cd04 dcbd 7f8c 85bc
000001e0: 69cf 103e 0a54 043e 39c6 cebd 7e33 ea3c
000001f0: e9a6 353e cfb5 9e3d 5007 703c dc74 f43d
00000200: b86c bc3c d183 26be e4c5 dabc 06f1 1bbd
00000210: 8a9c 78bd b8a6 be3e 8c80 10bd dab3 c63d
00000220: 753c 823c 6b33 423e 78e0 3bbe 072f 3abe
00000230: 929b 953c 9e05 6a3e 8eda 00bb 26f6 fcbd
00000240: 6786 a9be e321 3d3a 9715 3a3e 3696 20bc
00000250: 57ed fa3c cc21 34be b217 ecbd c124 3ebe
00000260: 85ea 8c3e 2dd8 b1be 6896 b03d fdee a9bd
00000270: ff92 85be 0ead abbc 3f96 cdbc 3265 38bd
00000280: ac92 763c 88ab 133e ba22 9dbb 7299 d03d
00000290: 7193 2e3e 134f 6e3e b726 22be 132d c13d
000002a0: 7fa5 653e 4d82 c93c 308b 34bd 46a1 e6bc
000002b0: ddf9 5bbd 8888 343e b570 133b 0aa8 363e
000002c0: e1c7 9e3e 836f a0bc 1dee c33e 2add 853e
000002d0: b2f1 8e3e 2171 b5bd 2e60 03be 3e1c a3bd
000002e0: 73b1 6e3e 9cdb 24bf b56f bebe 1653 2f3e
000002f0: b610 a4be e231 5d3d 9649 373f 212b 333e
00000300: e1fc 64be 7d02 7dbe 9576 4bbd d17e 9fbd
00000310: b06f c3bc 6a8d 573d 5570 53bd 80f1 b33d
00000320: 009e 2abe 640f 963d f367 e6bd 8881 283e
00000330: 4d02 17be 1431 393d 9bd4 2c3c 1c8c 62be
00000340: 3733 85be a7a7 dbbd 0ff8 6abd c525 e7bc
00000350: 8863 c4be b659 883d 1281 7a3e 105a 5d3d
00000360: 4439 7ebb 75e6 433e 59d6 be3e b624 8b3e
00000370: 98eb 2a3e 508d 9c3b 4a65 8fbe 7a64 14bd
00000380: 0d74 e73d 9f65 913e f7a4 87bd 4b85 0d3d
00000390: fb4f 8fbd 76d6 2c3f 5609 9abe 4611 42be
000003a0: 3ff7 373e 944e c1bc 9bc1 713d 3417 babd
000003b0: 8225 ff3d 0459 37bd 15ed 673e 8381 393e
000003c0: f3c9 0a3e 6c67 363e 83d6 583d d4b2 8cbc
000003d0: c3a5 043e 693f 06be 812b 0abf ece0 943b
000003e0: caab ab3e 4e3f c4be 7e34 b23d 4b99 41bd
000003f0: 1aaf 52be 880e 93be 9f8b 5cbd 988e a6bd

layers.0.ufh.j_weight f4 [32, 32]
-0.036677927 -0.23914802 -0.09210246 -0.094976194 -0.13332509 0.19931893 0.066280216 -0.087865084
-0.26482093 0.01587332 -0.0682701 0.04505787 -0.16793717 -0.01053396 0.14579886 -0.008142365
-0.04431281 -0.013650232 0.05021104 -0.17540826 -0.026792822 0.020474365 -0.18417004 0.10282338
-0.32779515 -0.14409211 0.34567654 0.23760046 -0.04843282 0.082146645 0.10300406 -0.11195611
-0.15419978 0.03194235 -0.16170064 -0.079746515 -0.16793561 0.14705427 -0.06602467 0.20632008
0.033853203 0.0070106382 -0.0028145793 0.004242869 -0.045159772 -0.18509448 -0.025482625 -0.29301146
0.15568905 -0.11902787 -0.20105474 -0.039518315 -0.36194846 -0.08263313 0.11484252 -0.16627301
-0.0007301148 0.50356597 -0.16404685 -0.08855693 -0.20020378 -0.11113445 0.12016601 -0.1738054
-0.15751131 -0.11337064 -0.021811347 0.063380815 -0.019506754 0.1258756 -0.060988363 -0.1564666
-0.024818964 0.1750046 0.045262996 -0.083324276 -0.05783592 -0.1684717 0.03645156 0.061182845
-0.16751486 0.1805807 0.0692957 -0.1965023 -0.25842723 -0.11758838 0.09186139 -0.11584897
-0.17225908 -0.2719081 -0.16707413 -0.08801589 0.10795715 -0.0017999096 -0.032820664 0.14285782
0.2479342 -0.19289388 0.05549773 -0.17397903 -0.18131629 -0.052016065 0.0705918 0.020781534
-0.08323115 0.019449111 -0.07611688 -0.011209904 0.061677884 0.11455218 -0.12570655 0.17507133
-0.17850591 0.13619311 0.15587334 -0.32623488 -0.07842884 -0.017679181 -0.24320337 -0.11923705
-0.018332833 -0.009401946 0.06345347 0.10578019 0.23632719 0.21531855 0.3276107 0.054518543
-0.01314663 -0.1008293 -0.19483675 0.13615425 -0.017969765 -0.20801851 -0.17591354 -0.13485415
-0.17817874 -0.12970941 -0.04104084 0.065515 0.05306579 0.08098863 -0.14572865 0.16113387
0.20050274 -0.33767164 0.017362822 -0.09598458 -0.3711864 -0.03739009 -0.13490592 -0.06378267
-0.26774862 -0.025664404 -0.0057904567 0.022347407 -0.0466014 0.06335054 0.092106424 -0.0053191166
0.0672052 0.13692407 -0.16491558 -0.05417319 -0.048138328 0.13310991 -0.19376728 0.16512981
0.089217044 -0.033784997 -0.06840272 0.057387386 0.18215093 -0.008948485 -0.22813985 0.39837787
-0.08638333 -0.08816793 -0.18287633 -0.046057943 0.11978727 -0.59292835 -0.5994868 -0.27966723
0.01651079 -0.1399014 0.121716276 0.30889437 0.09444927 -0.30962917 0.15752037 -0.10459055
-0.19625063 -0.05875647 -0.052336514 0.13405631 0.11545355 -0.17094113 0.15417105 -0.31457973
0.015991012 -0.100965075 -0.050248835 -0.029875468 -0.24740942 0.1227742 0.18978217 -0.09705369
0.13614096 -0.17068726 0.028080193 -0.07377004 -0.42126364 0.16004935 0.2569945 0.082433924
-0.06005638 0.13399325 -0.5912055 -0.2362127 -0.23203716 0.06404353 -0.21894431 -0.047254927
-0.13138422 -0.47119054 0.07411755 -0.020706272 0.07716981 -0.12371593 0.15984853 -0.21417555
0.04951991 0.086673856 -0.103268534 0.06585168 0.05264977 0.12455761 -0.123272665 0.040191963
-0.15461548 0.23871435 0.120949715 -0.13258635 -0.15267207 0.018097967 -0.1247938 0.09019515
-0.071627416 -0.21298395 0.5483052 0.3066128 0.19349018 0.14028367 -0.41255078 0.17205118
00000000: 983b 16bd 38e3 74be 37a0 bcbd e182 c2bd
00000010: 5f86 08be 431a 4c3e ecbd 873d 9cf2 b3bd
00000020: 9c96 87be c408 823c 32d1 8bbd 9a8e 383d
00000030: b9f7 2bbe a196 2cbc 4c4c 153e 8e67 05bc
00000040: 5981 35bd 39a5 5fbc 17aa 4d3d 399e 33be
00000050: 9f7c dbbc dbb9 a73c 1297 3cbe 1095 d23d
00000060: c4d4 a7be e28c 13be 84fc b03e 894d 733e
00000070: 7e61 46bd 803c a83d cbf3 d23d 3f49 e5bd
00000080: 8ce6 1dbe fbd5 023d da94 25be 2452 a3bd
00000090: 50f7 2bbe 6595 163e f137 87bd 9245 533e
000000a0: a8a9 0a3d 7fb9 e53b ce74 38bb c407 8b3b
000000b0: 74f9 38bd 6889 3dbe f0c0 d0bc 9905 96be
000000c0: f36c 1f3e e2c4 f3bd 4be1 4dbe f5dd 21bd
000000d0: 4f51 b9be 8f3b a9bd 8e32 eb3d 7943 2abe
000000e0: 2d65 3fba b3e9 003f e6fb 27be 565d b5bd
000000f0: 3802 4dbe 759a e3bd 9919 f63d 0bfa 31be
00000100: a54a 21be de2e e8bd b6ad b2bc cdcd 813d
00000110: a1cc 9fbc 89e5 003e efce 79bd c838 20be
00000120: 2451 cbbc 6834 333e b165 393d eba5 aabd
00000130: 5ce5 6cbd d883 2cbe 3b4e 153d dd9a 7a3d
00000140: 0489 2bbe 26ea 383e e7ea 8d3d e637 49be
00000150: 9350 84be 2dd2 f0bd d321 bc3d 3a42 edbd
00000160: af64 30be 8a37 8bbe 7b15 2bbe ad41 b4bd
00000170: a318 dd3d f2ea ebba f66e 06bd 5249 123e
00000180: 77e2 7d3e f985 45be 9651 633d 8f27 32be
00000190: faaa 39be cc0e 55bd 6f92 903d 093e aa3c
000001a0: 1875 aabd be53 9f3c 2be3 9bbd bfa9 37bc
000001b0: f3a1 7c3d 559a ea3d 38b9 00be e645 333e
000001c0: 41ca 36be 3576 0b3e 439d 1f3e 4208 a7be
000001d0: 4d9f a0bd eed3 90bc 4e0a 79be 8e32 f4bd
000001e0: bd2e 96bc 9f0a 1abc e5f3 813d 49a3 d83d
000001f0: c1ff 713e 777c 5c3e 97bc a73e d64e 5f3d
00000200: f664 57bc 987f cebd 4983 47be 056c 0b3e
00000210: 5435 93bc ce02 55be ae22 34be 3517 0abe
00000220: 7d74 36be 8bd2 04be 711a 28bd ba2c 863d
00000230: 845b 593d 5edd a53d e439 15be 4700 253e
00000240: 9750 4d3e 4ce3 acbe 7a3c 8e3c 9093 c4bd
00000250: 250c bebe 5a26 19bd c724 0abe 7da0 82bd
00000260: 5916 89be 283e d2bc dfbd bdbb e911 b73c
00000270: 1ce1 3ebd eebd 813d 4ba2 bc3d fc4b aebb
00000280: e1a2 893d d335 0c3e a1df 28be b5e4 5dbd
00000290: b22c 45bd f74d 083e ee6a 46be ca17 293e
000002a0: 6db7 b63d 2362 0abd ba16 8cbd 090f 6b3d
000002b0: c685 3a3e ab9c 12bc 7e9d 69be 2ff8 cb3e
000002c0: bee9 b0bd 6391 b4bd ef43 3bbe 41a7 3cbd
000002d0: 0753 f53d 27ca 17bf f877 19bf 8b30 8fbe
000002e0: a341 873c 5042 0fbe 6246 f93d 6727 9e3e
000002f0: 9e6e c13d b787 9ebe 054d 213e 9233 d6bd
00000300: edf5 48be a0aa 70bd d05e 56bd 0f46 093e
00000310: e972 ec3d 310b 2fbe 04df 1d3e 9810 a1be
00000320: 95ff 823c c7c6 cebd b9d1 4dbd 66bd f4bc
00000330: e558 7dbe 0a71 fb3d 4256 423e 16c4 c6bd
00000340: 8968 0b3e a4c8 2ebe 6f08 e63c bf14 97bd
00000350: deaf d7be fae3 233e c894 833e 1ed3 a83d
00000360: aefd 75bd 8735 093e 3e59 17bf bee1 71be
00000370: 269b 6dbe 4129 833d f032 60be 628e 41bd
00000380: 9689 06be e33f f1be f1ca 973d 33a0 a9bc
00000390: 350b 9e3d c75e fdbd 55af 233e d650 5bbe
000003a0: 64d5 4a3d 1082 b13d 747e d3bd 3fdd 863d
000003b0: 49a7 573d 0f18 ff3d 6176 fcbd 54a0 243d
000003c0: 8553 1ebe 8971 743e 7cb4 f73d b7c4 07be
000003d0: 1156 1cbe 3042 943c e493 ffbd 3cb8 b83d
000003e0: 65b1 92bd 7718 5abe bb5d 0c3f 5afc 9c3e
000003f0: 4a22 463e 86a6 0f3e db39 d3be 2f2e 303e

layers.0.ufh.k_weight f4 [32, 32]
0.10495132 0.060951047 -0.100397795 0.022847518 0.14526682 -0.2523647 0.03198855 0.09183858
0.05996142 0.16107765 0.059516236 0.09658862 0.076783285 0.122096 0.03005137 0.017723976
-0.043535616 0.17781156 -0.035806056 0.033773616 -0.0090818 0.25363553 0.08602079 -0.03737962
0.03895305 0.3421426 0.21098623 0.32499272 0.09449002 0.028968839 0.13890465 0.07424935
-0.19724119 -0.1421454 -0.0696046 0.0059981868 -0.072353646 -0.43603894 -0.121193714 -0.10701886
-0.41809472 -0.095855586 -0.08628429 0.02954242 0.046615608 0.096573025 -0.016246725 -0.10853958
-0.08472535 -0.12506157 -0.17550229 -0.59881777 -0.037213467 0.09181167 -0.020689389 0.077094726
0.063412026 0.08102456 -0.3311716 -0.3356826 -0.15232058 -0.08802815 0.05808752 0.03349608
-0.10834036 -0.18737076 0.040112287 -0.11340705 -0.08215521 -0.20233268 -0.15829118 -0.07203641
0.119332395 0.07703741 -0.10774107 -0.11011992 -0.2432474 -0.1771678 -0.00762578 -0.049441844
-0.25765163 -0.1849085 -0.09452305 -0.042909898 0.06391982 -0.033204418 -0.20080978 0.08659238
0.2304662 -0.41779163 -0.029612051 -0.17733575 -0.10930247 0.14972892 -0.22243194 0.15429717
0.20078212 0.37379038 0.04305883 0.040159445 0.23182502 0.05975962 -0.09070726 0.33963853
-0.031096922 0.14222679 0.022224745 0.0003621851 0.0015638346 0.111146875 -0.038314175 -0.061021194
0.2323876 0.107033655 0.010599697 0.053328842 0.4335824 0.39387116 0.33153158 0.20547582
0.2340896 0.20239751 0.04907967 0.026372362 0.26252955 0.24080056 0.0013969226 -0.06003264
0.011295607 -0.20379592 -0.079873756 0.055966303 -0.076061204 -0.06477177 0.14292142 0.24352726
0.3771197 0.2946718 0.11807346 0.0053717764 0.009135045 -0.061179213 0.05594133 -0.16688184
-0.181617 -0.1444884 -0.066730365 -0.04189011 0.2215193 -0.017872645 0.1187855 0.22943002
0.07429605 0.17667326 0.06885099 0.076783314 0.060270645 -0.13389072 -0.15904999 -0.17144313
0.36402425 -0.28556928 -0.17589414 0.255303 0.16845264 -0.6633443 0.36892685 0.1682316
0.6642198 0.5317338 -0.20825106 -0.12531248 0.23424523 -0.062124655 -0.35491872 -0.18906163
-0.00044039902 -0.09342893 0.22469722 -0.32382014 -0.0025480213 -0.06885901 -0.0065555032 -0.15650147
-0.102427825 0.6914319 0.7052827 0.12660544 -0.07522509 -0.10992049 0.028813964 0.23873402
-0.18237789 -0.07561794 -0.025298294 -0.091965385 0.026045471 -0.39749038 -0.35929203 0.05766151
-0.23193203 -0.093424045 -0.19137411 -0.08196361 0.010943219 -0.03370194 -0.118742 0.09869797
-0.14118606 -0.0679704 -0.09912512 0.043390695 0.13403806 -0.2749792 -0.046916384 0.04007333
-0.10313002 0.12549093 -0.19947083 -0.16870782 0.046071004 -0.05704327 0.115279905 -0.030680463
-0.10166969 0.22643793 -0.052729867 0.23783924 -0.013041009 0.15608943 -0.031904917 -0.06784783
0.008294354 0.031380717 0.18507496 -0.1587134 0.052488886 0.0044902475 0.0006664576 -0.15367891
0.013477638 0.1456754 -0.03194816 0.21811318 -0.12923606 0.03744984 0.2469401 -0.055122294
0.039312363 -0.06715171 -0.0089989295 0.11977158 0.12403734 -0.013777882 0.05382898 -0.0014984685
00000000: b8f0 d63d cea7 793d 5c9d cdbd b82a bb3c
00000010: d3c0 143e f235 81be 6d06 033d de15 bc3d
00000020: 1b9a 753d 8af1 243e 4cc7 733d 41d0 c53d
00000030: 8e40 9d3d 780d fa3d 4a2e f63c df31 913c
00000040: 6752 32bd 3c14 363e 5fa9 12bd 3456 0a3d
00000050: d4cb 14bc 84dc 813e ab2b b03d 5f1b 19bd
00000060: 3c8d 1f3d 512d af3e c60c 583e 7265 a63e
00000070: fc83 c13d 0f50 ed3c 053d 0e3e 0b10 983d
00000080: 98f9 49be 908e 11be db8c 8ebd 708c c43b
00000090: 262e 94bd 7f40 dfbe 6934 f8bd b42c dbbd
000000a0: 8310 d6be ef4f c4bd d1b5 b0bd f202 f23c
000000b0: 02f0 3e3d 14c8 c53d da17 85bc 004a debd
000000c0: 7c84 adbd 2410 00be dfb6 33be 1f4c 19bf
000000d0: 266d 18bd c207 bc3d cb7c a9bc d7e3 9d3d
000000e0: 2ade 813d 34f0 a53d 538f a9be 97de abbe
000000f0: edf9 1bbe 1a48 b4bd 2eed 6d3d 3033 093d
00000100: 8de1 ddbd 1fde 3fbe c84c 243d f541 e8bd
00000110: fe40 a8bd 4c30 4fbe 1517 22be d387 93bd
00000120: 8b64 f43d cac5 9d3d 5aa7 dcbd 8d86 e1bd
00000130: d915 79be 7a6b 35be aee1 f9bb 8883 4abd
00000140: eaea 83be a758 3dbe 4d95 c1bd 4ac2 2fbd
00000150: 65e8 823d 5b01 08bd 14a1 4dbe 5957 b13d
00000160: 55ff 6b3e c9e8 d5be f994 f2bc 8197 35be
00000170: f9d9 dfbd 8a52 193e 33c5 63be 1400 1e3e
00000180: d499 4d3e 7461 bf3e 755e 303d 3b7e 243d
00000190: 8a63 6d3e 81c6 743d bac4 b9bd 1ae5 ad3e
000001a0: f9be febc e6a3 113e ab10 b63c a9e3 bd39
000001b0: 95f9 cc3a f9a0 e33d 53ef 1cbd 5cf1 79bd
000001c0: 04f7 6d3e 7634 db3d 5aaa 2d3c 586f 5a3d
000001d0: 83fe dd3e 7ba9 c93e 82be a93e 4168 523e
000001e0: 2fb5 6f3e 4b41 4f3e c407 493d da0a d83c
000001f0: 466a 863e 6c94 763e f218 b73a c9e4 75bd
00000200: 3611 393c e1af 50be da94 a3bd ec3c 653d
00000210: fac5 9bbd 10a7 84bd fe59 123e 365f 793e
00000220: d515 c13e 39df 963e 80d0 f13d ba05 b03b
00000230: 28ab 153c 0e97 7abd bc22 653d 13e3 2abe
00000240: cff9 39be c4f4 13be eea9 88bd f794 2bbd
00000250: f5d5 623e a769 92bc d045 f33d b4ef 6a3e
00000260: 8728 983d d6e9 343e bf01 8d3d 9240 9d3d
00000270: 5ade 763d a61a 09be 00de 22be ca8e 2fbe
00000280: 6361 ba3e 2336 92be 981d 34be 13b7 823e
00000290: d97e 2c3e efd0 29bf fbe3 bc3e e844 2c3e
000002a0: 4f0a 2a3f b51f 083f c43f 55be ea51 00be
000002b0: fbdd 6f3e 6c76 7ebd e8b7 b5be 5f99 41be
000002c0: 5be5 e6b9 ab57 bfbd 0717 663e c1cb a5be
000002d0: b4fc 26bb f405 8dbd 8ccf d6bb ec41 20be
000002e0: aec5 d1bd ae01 313f 688d 343f dba4 013e
000002f0: 9d0f 9abd fe1d e1bd 430b ec3c b176 743e
00000300: 45c1 3abe 94dd 9abd 5e3e cfbc 5958 bcbd
00000310: 505d d53c dc83 cbbe 20f5 b7be 7a2e 6c3d
00000320: 977f 6dbe 1b55 bfbd 93f7 43be 8adc a7bd
00000330: 304b 333c 0c0b 0abd 012f f3bd 2922 ca3d
00000340: 1493 10be 1134 8bbd 1c02 cbbd 71ba 313d
00000350: 4641 093e 13ca 8cbe 652b 40bd ef23 243d
00000360: d535 d3bd b280 003e 1542 4cbe bec1 2cbe
00000370: f3b4 3c3d 34a6 69bd df17 ec3d 9855 fbbc
00000380: 3338 d0bd 58df 673e 46fb 57bd 218c 733e
00000390: f5a9 55bc e8d5 1f3e bbae 02bd cef3 8abd
000003a0: 0be5 073c 1189 003d 4a84 3d3e c485 22be
000003b0: 96fe 563d ed22 933b 36b5 2e3a 015e 1dbe
000003c0: 50d1 5c3c ef2b 153e 13dc 02bd 1059 5f3e
000003d0: 7556 04be 0165 193d dedd 7c3e eac7 61bd
000003e0: 0006 213d d686 89bd 3f70 13bc cd4a f53d
000003f0: 4a07 fe3d a0bc 61bc c77b 5c3d 4268 c4ba

layers.0.wix.r_weight f4 [1, 32]
-1.3604578 0.13807881 -1.3909091 -1.0534868 -1.3291847 -0.18020755 -0.43660402 0.1480354
-0.88129014 -0.69876677 0.20321533 -0.007186632 -1.4654318 -0.9857483 -0.922395 -0.76850474
-0.23020221 -0.08608459 -1.087277 -0.76358706 -0.40118587 -0.19486466 -0.59360844 -0.9948852
-0.11414739 -0.21791409 -0.028829426 -0.6834745 -0.86650145 -0.46326235 -0.117942125 -1.3817701
00000000: 7b23 aebf 8864 0d3e 4f09 b2bf a8d8 86bf
00000010: b922 aabf 5488 38be 908a dfbe 9896 173e
00000020: 3b9c 61bf 61e2 32bf ae17 503e d77d ebbb
00000030: 4593 bbbf 005a 7cbf 1422 6cbf babc 44bf
00000040: 21ba 6bbe 1e4d b0bd e52b 8bbf 717a 43bf
00000050: 3c68 cdbe 9a8a 47be b9f6 17bf ccb0 7ebf
00000060: 1bc6 e9bd df24 5fbe b02b ecbc 2ff8 2ebf
00000070: 0ad3 5dbf b930 edbe a48b f1bd d8dd b0bf

layers.0.wix.i_weight f4 [1, 32]
-0.04580479 0.22142413 -0.29310852 -0.15267171 -0.07017807 0.07568902 0.097697616 -0.24810496
0.13603185 0.16425744 0.057504572 -0.017966619 0.012331099 -0.36035407 0.23492914 0.13228336
-0.2065612 0.074783154 -0.12061546 -0.2903423 -0.25516102 -0.028614528 -0.22048444 0.0161785
0.18666619 0.18586285 -0.12716424 -0.443984 -0.08219855 -0.64441794 -0.06579401 0.039305788
00000000: ce9d 3bbd 02bd 623e 5212 96be f955 1cbe
00000010: 85b9 8fbd d802 9b3d b015 c83d 3a0f 7ebe
00000020: ef4b 0b3e 1a33 283e ea89 6b3d bb2e 93bc
00000030: 6108 4a3c 5480 b8be 4491 703e 4a75 073e
00000040: c784 53be e927 993d 3d05 f7bd bfa7 94be
00000050: 77a4 82be 0469 eabc acc6 61be c688 843c
00000060: 6c25 3f3e d552 3e3e 5837 02be df51 e3be
00000070: b757 a8bd 93f8 24bf 03bf 86bd 1bff 203d

layers.0.wix.j_weight f4 [1, 32]
-0.48726538 -0.15783206 -1.0736359 -0.22574826 0.20312016 -0.057207257 0.25208497 0.1925282
-0.15064402 -0.049933992 0.060742132 0.14076407 -0.065771334 -0.20805453 -0.04980606 -0.17905958
-0.27488515 -0.05540407 0.30692172 0.38825354 0.5323745 0.22983629 0.0025249582 -0.19985098
-0.40682724 -0.053735808 0.0019822423 0.0044697924 0.37594405 -0.07836769 -0.16067004 0.11974308
00000000: d97a f9be ba9e 21be e76c 89bf 8d2a 67be
00000010: bbfe 4f3e 2852 6abd 4811 813e 1d26 453e
00000020: 6d42 1abe 9687 4cbd becc 783d 7524 103e
00000030: 1fb3 86bd 3f0c 55be 7001 4cbd 655b 37be
00000040: bfbd 8cbe 61ef 62bd d824 9d3e 2bc9 c63e
00000050: b249 083f 345a 6b3e c579 253b bca5 4cbe
00000060: a94b d0be 141a 5cbd 82e8 013b 5677 923b
00000070: bd7b c03e 3d7f a0bd b086 24be dc3b f53d

layers.0.wix.k_weight f4 [1, 32]
-0.114026465 0.008048347 -0.12512897 -0.19926374 0.029244265 0.02389645 0.09776815 -0.17472805
-0.44874746 0.23022422 -0.14568181 -0.057442896 0.030139463 0.21957506 0.11480809 0.11641269
-0.2255394 0.18664503 0.06991521 -0.248003 -0.0091342935 0.01286895 -0.06904708 0.472457
0.22886597 -0.09214449 -0.041059848 -0.24981292 0.070681624 -0.16900063 0.15214117 0.13916343
00000000: b586 e9bd 37dd 033c cf21 00be cb0b 4cbe
00000010: ab91 ef3c 7dc2 c33c ab3a c83d e9eb 32be
00000020: 3ac2 e5be e6bf 6b3e 9d2d 15be 3e49 6bbd
00000030: 09e7 f63c 49d8 603e 8120 eb3d c769 ee3d
00000040: cdf3 66be e01f 3f3e b52f 8f3d 80f4 7dbe
00000050: 01a8 15bc 4ad8 523c 8e68 8dbd e2e5 f13e
00000060: d75b 6a3e 40b6 bcbd 5f2e 28bd f5ce 7fbe
00000070: 87c1 903d 800e 2dbe e5ca 1b3e dc80 0e3e

layers.0.wix.bias f4 [128]
-2.576715 -0.30301353 -2.454617 -2.5748672 -3.1246326 -1.0055386 -2.0509648 0.015093069
-2.1941555 -2.6599789 0.4835015 0.24244176 -3.1736114 -2.8511994 -1.4432613 -2.3446188
0.082709864 0.3386897 -1.877185 -1.0551819 -1.0184971 0.46594563 -0.23461257 -2.458774
-0.3896739 0.19451295 -0.41750398 -0.72215974 -1.9051174 -0.4290819 -1.0156683 -2.931266
-2.5923057 -0.2954061 -2.3514378 -2.726426 -2.8123007 -1.0400622 -1.8734714 -0.18790872
-1.4389771 -2.6121178 0.7395583 0.5031436 -3.312552 -3.002047 -2.2022398 -2.3069715
-0.14218107 0.05748211 -1.9844298 -0.971908 -1.1922626 -0.0491807 -0.7030373 -2.5316832
-0.2343228 -0.049536165 -0.34457988 -0.5155322 -1.5452564 -0.60630697 -0.9908099 -2.7489102
-2.873261 -0.34806144 -2.213168 -2.7585213 -2.7657568 -0.97561544 -1.9073733 -0.11122326
-1.6752912 -2.5715463 0.467953 0.25419027 -3.2399526 -3.0417569 -1.4587591 -2.3446877
-0.05685193 0.22487572 -1.9822018 -0.86022484 -1.1168659 -0.043485485 -0.7380934 -2.5413275
-0.6148735 -0.022612697 -0.28055105 -0.41065127 -1.4605951 -0.39269435 -0.75227904 -2.943131
-2.880543 -0.2097521 -2.4819944 -2.8939912 -3.0346875 -1.2691892 -2.0109015 -0.017258722
-2.0824542 -2.7010996 0.48971355 0.2629324 -3.1715927 -2.9304323 -1.5454814 -2.3933806
-0.082608365 0.14915018 -2.5649343 -1.1533111 -1.2255193 0.09616466 -0.4990963 -2.5326884
-0.30646172 -0.12028245 -0.3722726 -0.7791286 -1.9716976 -0.4654888 -0.94428986 -3.0997202
00000000: e6e8 24c0 9724 9bbe 7218 1dc0 a0ca 24c0
00000010: fbf9 47c0 7db5 80bf 0243 03c0 eb48 773c
00000020: 0b6d 0cc0 183d 2ac0 828d f73e a742 783e
00000030: 731c 4bc0 0d7a 36c0 c9bc b8bf 3c0e 16c0
00000040: ca63 a93d bd68 ad3e 9947 f0bf 3310 87bf
00000050: 1d5e 82bf 6d90 ee3e 473e 70be 8e5c 1dc0
00000060: 5683 c7be 672e 473e 15c3 d5be 76df 38bf
00000070: e3da f3bf 9fb0 dbbe 6b01 82bf dd99 3bc0
00000080: 56e8 25c0 783f 97be f57d 16c0 c37d 2ec0
00000090: bcfc 33c0 c220 85bf e9cd efbf 256b 40be
000000a0: 6730 b8bf f02c 27c0 b153 3d3f 05ce 003f
000000b0: da00 54c0 8a21 40c0 7ff1 0cc0 6ca5 13c0
000000c0: ea97 11be 5c72 6b3d cc01 febf f6ce 78bf
000000d0: 109c 98bf b471 49bd 41fa 33bf 1907 22c0
000000e0: 51f2 6fbe 6fe6 4abd c66c b0be ebf9 03bf
000000f0: f6ca c5bf ef36 1bbf b8a5 7dbf 25ee 2fc0
00000100: 82e3 37c0 1c35 b2be 8ba4 0dc0 9d8b 30c0
00000110: 2902 31c0 efc1 79bf cf24 f4bf 05c9 e3bd
00000120: f16f d6bf 3794 24c0 8997 ef3e 3a25 823e
00000130: 625b 4fc0 25ac 42c0 9eb8 babf 5d0f 16c0
00000140: 92dd 68bd d245 663e cab8 fdbf b237 5cbf
00000150: 76f5 8ebf d61d 32bd b0f3 3cbf 1ca5 22c0
00000160: 5a68 1dbf 433e b9bc 63a4 8fbe e240 d2be
00000170: c8f4 babf 3c0f c9be 5c95 40bf 425c 3cc0
00000180: d15a 38c0 41c9 56be ffd8 1ec0 2737 39c0
00000190: 5238 42c0 cb74 a2bf 9cb2 00c0 2a62 8dbc
000001a0: ee46 05c0 d1de 2cc0 bcbb fa3e 139f 863e
000001b0: 60fb 4ac0 348c 3bc0 56d2 c5bf 262d 19c0
000001c0: 932e a9bd d3ba 183e e227 24c0 b39f 93bf
000001d0: d1dd 9cbf faf1 c43d 8d89 ffbe 9117 22c0
000001e0: 8de8 9cbe a556 f6bd 849a bebe f974 47bf
000001f0: 9660 fcbf 8c54 eebe fbbc 71bf d161 46c0

layers.0.uih.r_weight f4 [32, 32]
-0.106457055 0.050868258 -0.07652235 -0.21448606 0.123168536 -0.06141262 -0.20767058 0.20282422
0.07087084 -0.09973819 0.10968524 0.074925505 0.03575228 0.11566273 0.048703622 0.14366515
0.2780811 0.108348094 -0.121974945 -0.11484066 -0.058474317 0.19311473 -0.008784295 0.052004702
-0.069907494 -0.0016983693 -0.03216994 -0.24432707 -0.025642822 0.34373233 -0.09199519 0.009138387
0.3484192 -0.0975621 -0.102270454 -0.14237984 0.46166056 0.29084063 0.1520826 -0.050787758
0.08816694 -0.22776453 -0.10203337 -0.0139794145 0.08706427 0.24489224 -0.1387004 -0.00040244087
-0.5822454 -0.5952708 -0.026290134 -0.3189898 -0.39410824 -0.3771761 -0.23290476 -0.037679784
-0.08881508 -0.6405129 -0.18306677 -0.51097715 -0.030067151 -0.6602338 0.019330868 0.26356706
-0.20178165 -0.2660932 0.19426431 0.1568987 0.2036556 0.24504612 -0.19699366 -0.03456598
0.023832498 -0.08348438 -0.17449129 -0.05591905 0.097484656 0.2197006 -0.005033049 0.3049265
-0.09605041 0.29945847 -0.1529096 -0.105204985 0.23160279 -0.1078122 0.029422604 -0.1669956
0.22930819 0.21171957 -0.17497997 -0.07916183 0.073339015 -0.1885404 -0.22024174 0.1743224
0.06575737 -0.07819723 -0.29432935 0.21123764 -0.10420698 0.14029464 0.031674847 -0.24623805
0.2058702 -0.2312643 -0.05205535 0.07206281 0.107912794 0.01270065 0.036952164 -0.012604626
-0.013046042 -0.031946078 0.10966576 -0.13974287 -0.0039524916 0.1269233 0.03276085 0.14900316
-0.014139388 -0.1077921 -0.13414916 0.019179298 -0.08158947 0.2648978 0.09465049 -0.09910021
-0.22269969 0.2220448 0.10736541 0.020503072 -0.08676865 -0.10658596 0.2671077 0.20760229
0.1565967 -0.30944893 -0.12237126 0.04222834 -0.094281904 -0.1898629 -0.027585125 -0.028086899
0.05966515 -0.3956475 0.07504614 -0.028873343 -0.018527308 0.075209215 -0.21810018 -0.109595105
-0.11019422 -0.5350482 0.40314645 0.22836813 0.013977565 -0.25551742 0.17076337 0.020559162
0.71288514 0.38081467 0.2501589 0.3817295 0.110546924 0.06934659 0.033046033 -0.20363049
0.10929122 0.3467907 -0.29111877 -0.10778921 0.4795017 0.6439349 0.34963724 -0.079077855
-0.08386069 -0.7338073 0.026776552 0.20585091 -0.20962402 -0.91409147 -0.6422794 0.09121107
0.32999098 -1.3165319 0.67890036 -0.20713423 -0.0058613056 -0.36277395 -0.054738197 0.41678956
-0.17114939 0.33722755 -0.341203 0.09621918 -0.112711154 -0.4705309 0.2703952 0.12049896
0.36611244 0.2634566 -0.100056306 0.27686238 -0.10922746 -0.3032948 -0.1277052 0.32380033
0.10242317 -0.22203508 0.061024606 0.17723751 0.4459317 0.17652363 -0.0050069164 -0.13214397
0.4618859 0.23206824 0.13882732 -0.20516647 -0.21112181 0.047521263 -0.42395082 -0.28815606
-0.025240233 -0.094311334 -0.30415377 -0.09620935 -0.10508984 -0.32111827 -0.037611242 -0.013930746
-0.34509498 0.05305919 0.14482385 0.10524564 0.120440945 -0.13030659 0.21804227 -0.19592199
0.47513554 0.70280063 0.017692128 0.03136164 0.016965156 0.58403355 0.35856742 0.09591198
-0.0878988 0.62637156 0.028892757 0.48647118 0.039633445 0.77128124 0.08280091 -0.03433668
00000000: 2806 dabd 3c5b 503d c0b7 9cbd 3ca2 5bbe
00000010: c93f fc3d cd8b 7bbd 99a7 54be 27b1 4f3e
00000020: bb24 913d 8943 ccbd a8a2 e03d 8b72 993d
00000030: fc70 123d 95e0 ec3d 737d 473d f51c 133e
00000040: a560 8e3e 9be5 dd3d 00ce f9bd 9431 ebbd
00000050: c482 6fbd debf 453e 01ec 0fbc e202 553d
00000060: a92b 8fbd d19b deba a1c4 03bd e030 7abe
00000070: e510 d2bc affd af3e f967 bcbd 2cb9 153c
00000080: 0064 b23e a3ce c7bd 2c73 d1bd 05cc 11be
00000090: c65e ec3e 10e9 943e 8bbb 1b3e d306 50bd
000000a0: de90 b43d 1b3b 69be dff6 d0bd ea09 65bc
000000b0: c14e b23d 08c5 7a3e 7a07 0ebe b3fe d2b9
000000c0: 090e 15bf ab63 18bf 685e d7bc a252 a3be
000000d0: 8ec8 c9be 3a1d c1be 967e 6ebe 1e56 1abd
000000e0: aee4 b5bd a7f8 23bf db75 3bbe 66cf 02bf
000000f0: 634f f6bc 1505 29bf c55b 9e3c 43f2 863e
00000100: d99f 4ebe 5e3d 88be 39ed 463e 0eaa 203e
00000110: 188b 503e 5fed 7a3e b5b8 49be 0f95 0dbd
00000120: 5f3c c33c dcf9 aabd d8ad 32be 600b 65bd
00000130: 09a6 c73d 32f9 603e 46ec a4bb 541f 9c3e
00000140: 14b6 c4bd 9f52 993e 5694 1cbe b675 d7bd
00000150: 4829 6d3e a5cc dcbd ac07 f13c e500 2bbe
00000160: c4cf 6a3e 04cd 583e f32d 33be 991f a2bd
00000170: c432 963d bc10 41be 0d87 61be 9281 323e
00000180: cdab 863d df25 a0bd 56b2 96be ae4e 583e
00000190: 786a d5bd 66a9 0f3e 7cbd 013d d425 7cbe
000001a0: a3cf 523e 8cd0 6cbe fe37 55bd ab95 933d
000001b0: 6201 dd3d 6316 503c 275b 173d a283 4ebc
000001c0: 11bf 55bc e4d9 02bd 7198 e03d c118 0fbe
000001d0: e783 81bb 2ef8 013e 3e30 063d 4994 183e
000001e0: e4a8 67bc 1bc2 dcbd 665e 09be e71d 9d3c
000001f0: 6118 a7bd afa0 873e 1ed8 c13d 0df5 cabd
00000200: 630b 64be b65f 633e 65e2 db3d 0ff6 a73c
00000210: c3b3 b1bd bd49 dabd 57c2 883e b295 543e
00000220: e35a 203e 1770 9ebe c89d fabd a0f7 2c3d
00000230: df16 c1bd 6c6b 42be 33fa e1bc 7f16 e6bc
00000240: 7263 743d 4f92 cabe cab1 993d ca87 ecbc
00000250: 95c6 97bc 4a07 9a3d a755 5fbe 6673 e0bd
00000260: 82ad e1bd ebf8 08bf 3669 ce3e 56d9 693e
00000270: 2802 653c 2ed3 82be 98dc 2e3e b06b a83c
00000280: a47f 363f 24fa c23e d414 803e 0d72 c33e
00000290: 6d66 e23d 9605 8e3d 475b 073d 8384 50be
000002a0: 13d4 df3d 8d8e b13e 850d 95be 97c0 dcbd
000002b0: 3f81 f53e ebd8 243f a703 b33e 92f3 a1bd
000002c0: 27bf abbd ccda 3bbf 805a db3c 95ca 523e
000002d0: aea7 56be e601 6abf 6c6c 24bf dfcc ba3d
000002e0: 94f4 a83e 1e84 a8bf 6acc 2d3f ff1a 54be
000002f0: 3210 c0bb 82bd b9be 2935 60bd 7165 d53e
00000300: c941 2fbe 17a9 ac3e 29b2 aebe 900e c53d
00000310: 1bd5 e6bd 6de9 f0be 3d71 8a3e 29c8 f63d
00000320: 1773 bb3e c9e3 863e 52ea ccbd e8c0 8d3e
00000330: a6b2 dfbd 7549 9bbe 27c5 02be 28c9 a53e
00000340: 3dc3 d13d 2a5d 63be f0f4 793d c07d 353e
00000350: 2951 e43e 9cc2 343e 0f11 a4bb c050 07be
00000360: 4f7c ec3e 4ca3 6d3e c028 0e3e 2917 52be
00000370: 5130 58be a8a5 423d 1510 d9be 3189 93be
00000380: 9bc4 cebc 4d26 c1bd 0bba 9bbe 6809 c5bd
00000390: 5839 d7bd 9d69 a4be 3f0e 1abd c93d 64bc
000003a0: 4ab0 b0be 9854 593d b44c 143e 078b d73d
000003b0: bea9 f63d 176f 05be 7946 5f3e c69f 48be
000003c0: f744 f33e beea 333f 15ef 903c 1075 003d
000003d0: 83fa 8a3c 3983 153f 2696 b73e 806d c43d
000003e0: 4904 b4bd e359 203f 81b0 ec3c c012 f93e
000003f0: ae56 223d b072 453f 8693 a93d 9ea4 0cbd

layers.0.uih.i_weight f4 [32, 32]
0.04851242 0.18738627 0.28050283 -0.05581827 0.032516625 -0.09716415 0.109721385 0.113318294
0.22199723 -0.045295916 -0.021844279 0.046944343 0.0939978 -0.2427161 0.20990692 -0.07164899
-0.019736243 0.06265177 -0.11845751 0.10015457 0.16707359 -0.10029131 0.2486661 0.035163887
0.024890022 -0.14148208 0.14138141 -0.053385857 0.122584425 -0.07279575 0.014737701 0.25966224
0.27674067 0.07297297 0.06754768 0.08907474 0.036278993 0.31336373 0.23262976 -0.15639333
0.17853905 -0.029651064 -0.016527722 0.10219784 0.31416184 -0.047641862 0.3300922 -0.005020327
0.11087016 -0.15695722 -0.02556769 0.067106254 -0.27877262 -0.3484742 -0.2533522 0.12833793
0.20082368 -0.2812849 0.16279936 -0.1495001 -0.3003699 -0.6670313 0.31562215 0.3151631
0.27433532 -0.025185741 -0.020482333 -0.042276874 0.0591253 0.07012748 -0.041565537 -0.39593324
0.019289462 -0.06710401 -0.023651976 -0.0645627 -0.017714432 -0.052195035 0.41556117 -0.14736973
0.15710004 0.23600838 -0.43586105 -0.079948366 0.1650967 -0.06530418 0.2804466 0.1404751
-0.09731839 0.051714625 -0.018011935 -0.0121932 -0.034000307 0.039602943 -0.47413376 0.10441903
0.18592075 0.15186618 0.10628528 -0.012199272 -0.036730893 0.2679269 0.013963921 0.023774212
-0.1168212 -0.16561809 -0.05632999 -0.0140709225 0.044746045 0.21526396 0.29591793 -0.065895334
0.38543615 0.16372912 0.012968389 -0.0050264047 -0.14998186 0.013966353 -0.032874975 -0.04127802
-0.07426535 0.08289472 -0.20828617 -0.040662985 0.22604811 0.09378089 0.053263646 -0.050977524
0.061574224 -0.0063028024 0.034549814 0.0045034336 0.07750621 0.19159712 -0.06594272 -0.002062442
0.08063999 0.17506197 -0.090004705 0.009725285 -0.04172758 0.15745462 -0.08014265 -0.015399214
-0.22288969 -0.22009052 0.23278444 -0.008132336 -0.042809628 -0.20372319 -0.08960647 -0.11942974
0.33598462 -0.34786898 0.22900794 -0.2392472 -0.17353636 -0.28905985 -0.024767209 0.020770766
-0.030880162 0.10400502 -0.11216547 -0.05535489 0.09784493 -0.074086614 -0.24729748 0.032825805
0.09233272 0.00808856 0.15409324 0.039349183 0.018433213 0.17003793 -0.0790744 0.27671808
0.20331298 -0.25970182 0.47708854 0.23991571 0.24791747 -0.0014794061 -0.0144088995 -0.1210549
0.2028097 -0.3151117 -0.22327724 0.014127711 -0.2577343 0.046811882 0.5427279 0.12536937
-0.19060679 -0.29342842 -0.21169235 -0.22023037 -0.010630176 -0.1844827 0.11608046 0.13089912
-0.20854943 -0.11191341 -0.05975413 -0.016821962 -0.024177367 0.030075926 -0.15214884 -0.30141786
-0.3101091 0.18858527 -0.0204402 -0.0022986995 -0.38760844 0.26273426 0.016566675 0.2294605
-0.16307169 0.07409183 0.43072113 0.10053625 0.06278429 0.10677757 -0.3834514 -0.25304413
0.35892114 0.14784051 -0.030494738 0.022768266 -0.10765222 -0.014340957 -0.22302635 0.08962019
0.1611536 0.033729076 -0.00079769985 0.07087818 0.1350641 0.20373558 0.05967314 0.06317804
0.051490717 -0.20207492 0.14894572 -0.16687046 0.30564484 -0.007726021 -0.053933036 -0.04882462
-0.0044549624 -0.13331304 0.26855478 0.26349 0.25898013 0.4221321 0.035853464 0.08950588
00000000: f6b4 463d 30e2 3f3e 119e 8f3e b3a1 64bd
00000010: 2730 053d fffd c6bd 9bb5 e03d 6c13 e83d
00000020: 3e53 633e 3688 39bd c6f2 b2bc b648 403d
00000030: eb81 c03d 928a 78be d7f1 563e b5bc 92bd
00000040: e7ad a1bc 924f 803d da99 f2bd d71d cd3d
00000050: 5715 2b3e 8865 cdbd 53a2 7e3e 0208 103d
00000060: 29e6 cb3c aee0 10be 4ac6 103e 21ab 5abd
00000070: 8b0d fb3d f015 95bd 6676 713c 73f2 843e
00000080: f4b0 8d3e da72 953d 7056 8a3d d16c b63d
00000090: 4899 143d 3671 a03e 7f36 6e3e 9325 20be
000000a0: f1d2 363e cae6 f2bc 2565 87bc 1a4d d13d
000000b0: d2d9 a03e 1d24 43bd d801 a93e 8e81 a4bb
000000c0: e50f e33d 65b9 20be 5573 d1bc 016f 893d
000000d0: 49bb 8ebe 366b b2be 61b7 81be 056b 033e
000000e0: b9a4 4d3e 9304 90be e0b4 263e 8e16 19be
000000f0: 15ca 99be 90c2 2abf 3a99 a13e 0f5d a13e
00000100: ae75 8c3e 5452 cebc 91ca a7bc 842a 2dbd
00000110: 5f2d 723d ff9e 8f3d a040 2abd c3b7 cabe
00000120: ef04 9e3c d46d 89bd cac1 c1bc 7339 84bd
00000130: db1d 91bc 76ca 55bd 6fc4 d43e 17e8 16be
00000140: d5de 203e 2eac 713e 2e29 dfbe f8bb a3bd
00000150: 1c0f 293e 33be 85bd b296 8f3e b4d8 0f3e
00000160: dd4e c7bd b7d2 533d c48d 93bc fdc5 47bc
00000170: e843 0bbd b236 223d a9c1 f2be a5d9 d53d
00000180: 0262 3e3e cf82 1b3e 19ac d93d 75df 47bc
00000190: 2273 16bd b72d 893e eec8 643c 23c2 c23c
000001a0: f43f efbd ca97 29be 47ba 66bd ba89 66bc
000001b0: a147 373d 286e 5c3e 8e82 973e 22f4 86bd
000001c0: e357 c53e 9ba8 273e 5e79 543c 8ab4 a4bb
000001d0: d894 19be 21d3 643c e9a7 06bd 2413 29bd
000001e0: 6f18 98bd b5c4 a93d f848 55be 3b8e 26bd
000001f0: 2879 673e 3210 c03d fb2a 5a3d cfcd 50bd
00000200: 4135 7c3d bd87 cebb 1b84 0d3d 8a91 933b
00000210: 93bb 9e3d 0932 443e fa0c 87bd 092a 07bb
00000220: 9426 a53d 7243 333e 6354 b8bd cd56 1f3c
00000230: 8aea 2abd c93b 213e d421 a4bd fc4c 7cbc
00000240: 323d 64be 695f 61be 0b5f 6e3e 7d3d 05bc
00000250: 2659 2fbd d09c 50be 9983 b7bd 9497 f4bd
00000260: 2d06 ac3e e21b b2be 0f81 6a3e 38fd 74be
00000270: 84b3 31be a7ff 93be 9ae4 cabc 7427 aa3c
00000280: 65f8 fcbc 9500 d53d 03b7 e5bd cfbb 62bd
00000290: ec62 c83d b9ba 97bd 8d3b 7dbe 5a74 063d
000002a0: f018 bd3d e185 043c 9eca 1d3e 9c2c 213d
000002b0: 4001 973c 6c1e 2e3e c2f1 a1bd fead 8d3e
000002c0: 4731 503e a3f7 84be f344 f43e 77ac 753e
000002d0: 14de 7d3e a2e8 c1ba 4e13 6cbc a2eb f7bd
000002e0: 59ad 4f3e 5256 a1be caa2 64be ea77 673c
000002f0: c0f5 83be d1bd 3f3d 37f0 0a3f d460 003e
00000300: 6d2e 43be 403c 96be e1c5 58be 1284 61be
00000310: 312a 2ebc 08e9 3cbe 98bb ed3d 6b0a 063e
00000320: fb8d 55be dc32 e5bd bfc0 74bd 36ce 89bc
00000330: 9d0f c6bc ca61 f63c e8cc 1bbe 7153 9abe
00000340: 9fc6 9ebe 7f1c 413e 3572 a7bc c7a5 16bb
00000350: 9d74 c6be 1b85 863e d6b6 873c b1f7 6a3e
00000360: 44fc 26be 75bd 973d 7b87 dc3e f3e5 cd3d
00000370: 0d95 803d 33ae da3d be53 c4be 008f 81be
00000380: 83c4 b73e 8163 173e 1ad0 f9bc 8484 ba3c
00000390: c478 dcbd 55f6 6abc 0561 64be ca8a b73d
000003a0: 7305 253e 8027 0a3d bb1c 51ba 9428 913d
000003b0: 3e4e 0a3e 0fa0 503e d36b 743d 7d63 813d
000003c0: eee7 523d baec 4ebe 3a85 183e 17e0 2abe
000003d0: 7b7d 9c3e 902a fdbb e3e8 5cbd 53fc 47bd
000003e0: effa 91bb 3783 08be 0380 893e 29e8 863e
000003f0: 0b99 843e b321 d83e 15db 123d dc4e b73d
