models/QLSTM_qal_neck_epochs5.pth (torch, 168723 bytes, 76 tensors)

layers.0.wfx.r_weight f4 [1, 32]
0	0xbebc4023	-0.36767682
1	0xbee327dd	-0.4436635
2	0xbea4d32a	-0.32192355
3	0xbefb79f4	-0.4911648
4	0xbe7d0c5d	-0.24711747
5	0xbf0cd4e2	-0.55012333
6	0xbea3dc8b	-0.32004198
7	0xbf1312e4	-0.574507
8	0x3ea408f2	0.32038075
9	0xbeb8a8f3	-0.36066398
10	0xbf30406d	-0.68848306
11	0xbee88e66	-0.4542114
12	0x3e620d48	0.22075379
13	0xbe0ca2a3	-0.13733916
14	0xbe555857	-0.2083448
15	0xbefecee1	-0.4976721
16	0xbcab62de	-0.020921167
17	0xbe90efa1	-0.28307822
18	0xbef0822f	-0.46974322
19	0xbef3c7b9	-0.47613314
20	0xbdcee7ca	-0.10102804
21	0xbe50d7a4	-0.2039476
22	0xbef7c940	-0.4839573
23	0xbe9a0f6b	-0.30089888
24	0xbe2396cf	-0.15975498
25	0xbed94981	-0.42438892
26	0xbe7e3df3	-0.24828319
27	0xbee078fd	-0.43842307
28	0xbdfefa19	-0.12450046
29	0xbed8b584	-0.42325985
30	0xbdb1d506	-0.08683209
31	0xbea2fe8f	-0.31834838

layers.0.wfx.i_weight f4 [1, 32]
0	0xbda27ff4	-0.07934561
1	0xbdacfd84	-0.08446792
2	0xbe2a984d	-0.1665966
3	0x3cd9b38c	0.026574872
4	0xbe49e5e0	-0.19716597
5	0xbe80a655	-0.251269
6	0xbe0920ed	-0.13391466
7	0xbcca3ad1	-0.024686249
8	0xbd8e6cb2	-0.06954326
9	0xbe2d7400	-0.16938782
10	0xbde21071	-0.11038292
11	0x3dd4d341	0.10391856
12	0xbdad1739	-0.08451695
13	0xbe2d873f	-0.16946124
14	0xbd44183e	-0.04787468
15	0x3d354619	0.044256303
16	0xbdac9344	-0.08426526
17	0x3dcaebe2	0.09908272
18	0xbd418173	-0.047242593
19	0xbd09b5d3	-0.033620667
20	0xbd0b54d5	-0.03401645
21	0xbc8d547c	-0.0172522
22	0xbe3b239b	-0.18275301
23	0xbd272173	-0.040803384
24	0xbdbf19d6	-0.093311
25	0xbe157e60	-0.1459899
26	0x3d6c0f36	0.057631694
27	0xbe10aab3	-0.14127617
28	0xbdd7e731	-0.10542143
29	0xbdbd18a4	-0.092332155
30	0xbcd070a2	-0.025444333
31	0x3cc8f9fc	0.024533264

layers.0.wfx.j_weight f4 [1, 32]
0	0xbcdf0589	-0.027224319
1	0xbe385ae8	-0.18003428
2	0xbdb8b965	-0.09019736
3	0xbdb7fac0	-0.08983374
4	0xbe0d448f	-0.13795684
5	0xbdfa650b	-0.12226304
6	0xbe1c5e21	-0.15270282
7	0xbd376ed6	-0.044783436
8	0x3c3036bf	0.01075524
9	0x3d4a23e8	0.04935065
10	0xbe3b6ab0	-0.18302417
11	0xbe049fb6	-0.1295155
12	0x3bd713f7	0.0065636593
13	0x3d9428ad	0.07234321
14	0xbe45578c	-0.19271678
15	0x3d1004bc	0.035160765
16	0x3df0a06b	0.11749347
17	0xbdc9329a	-0.098241046
18	0xbd88f25d	-0.06686852
19	0xbe2224e1	-0.1583438
20	0xbd90b9c9	-0.07066686
21	0x3bff858d	0.007797903
22	0xbe15f669	-0.1464478
23	0xbe460357	-0.19337212
24	0xbe2f3bdf	-0.17112683
25	0x3d08c01a	0.033386327
26	0x3e5b78ae	0.21432754
27	0xbd172ffe	-0.036911003
28	0xbd85564a	-0.06510599
29	0xbe1c875c	-0.1528601
30	0xbd5c5b3c	-0.053797945
31	0x3e3e9661	0.18612053

layers.0.wfx.k_weight f4 [1, 32]
0	0xbc386245	-0.011253898
1	0x3bba2dff	0.0056817527
2	0xbe0ffb23	-0.14060645
3	0xbdad09b6	-0.08449118
4	0xbd8f677b	-0.07002159
5	0xbd87ed52	-0.06637062
6	0xbded30a5	-0.11581544
7	0xbdde2c73	-0.10848322
8	0xbd89d032	-0.06729163
9	0xbdf43d81	-0.119257934
10	0xbdc88e7f	-0.09792804
11	0x3ca1c10a	0.019745369
12	0xbd9d563f	-0.07682466
13	0xbdf8e75a	-0.12153502
14	0x3b6d2829	0.0036187267
15	0xbc2bc6f7	-0.010484449
16	0xbcaf143a	-0.02137195
17	0x3d4f34c9	0.05058745
18	0xbe173160	-0.14764929
19	0x3e06f02b	0.13177554
20	0xbea674a0	-0.32510853
21	0xbd8775f7	-0.06614297
22	0x3e02993e	0.1275377
23	0xbcc58fba	-0.024116386
24	0x3cf16523	0.029467171
25	0x3e0dc315	0.13843949
26	0xbc4b2c81	-0.012400747
27	0x3da1560e	0.07877742
28	0x3d914022	0.070923105
29	0xbd830ed1	-0.063993104
30	0x3dc2c7b7	0.09510749
31	0x3e2e3fc3	0.1701651

layers.0.wfx.bias f4 [128]
0	0xbfcfab67	-1.6224183
1	0xbf626449	-0.88434273
2	0xbfc3f0cd	-1.5307862
3	0xbfcf3b2c	-1.6189933
4	0xbf9d9005	-1.2309576
5	0xbfd69517	-1.6764249
6	0xbfb98e6f	-1.4496592
7	0xbfdc4c02	-1.7210696
8	0xbea016d2	-0.3126741
9	0xbf9c766b	-1.2223638
10	0xbd4135e5	-0.04717054
11	0xbe803131	-0.2503753
12	0xbe96a52f	-0.294229
13	0xbeccad7f	-0.39976117
14	0xbfdb3e38	-1.7128363
15	0xbed66b3d	-0.4187869
16	0xbe9dfe75	-0.30858198
17	0xbd85b31c	-0.06528303
18	0xbfd38000	-1.6523438
19	0xbd46d84e	-0.048546128
20	0xbe22a4ad	-0.15883131
21	0xbfc117bc	-1.5085368
22	0xbe380529	-0.17970718
23	0xbfa596fc	-1.2936702
24	0xbfc899c9	-1.5671932
25	0xbf9fb539	-1.247718
26	0xbf032386	-0.5122608
27	0xbe774662	-0.24147943
28	0xbdd857ad	-0.10563598
29	0xbfb86078	-1.440444
30	0xbf80b190	-1.0054188
31	0xbe0196a6	-0.12655124
32	0xbfd75416	-1.6822536
33	0xbf898f76	-1.0746906
34	0xbfc3badc	-1.52914
35	0xbfe06749	-1.753152
36	0xbf975573	-1.1822952
37	0xbfcf4ac2	-1.6194689
38	0xbf9f91b2	-1.2466338
39	0xbfd39a52	-1.653147
40	0xbf06a003	-0.5258791
41	0xbf8d5dca	-1.1044247
42	0xbdde009d	-0.10839961
43	0xbe81d41d	-0.25357142
44	0xbe776f23	-0.24163489
45	0xbed97066	-0.42468566
46	0xbfd7b62a	-1.6852467
47	0xbf154a29	-0.58316284
48	0xbea2acf7	-0.31772587
49	0xbda512e1	-0.080602415
50	0xbfb9f2f4	-1.4527268
51	0xbd80e314	-0.06293312
52	0xbe1e629c	-0.15467304
53	0xbfab2c9a	-1.3372986
54	0xbe50a3be	-0.20374963
55	0xbfa78824	-1.3088422
56	0xbfbc566f	-1.4713877
57	0xbfa5b177	-1.2944783
58	0xbf2128ef	-0.62953085
59	0xbd57a99d	-0.05265199
60	0xbceed6a7	-0.029155089
61	0xbf994904	-1.1975408
62	0xbf98a977	-1.1926717
63	0xbe297dbf	-0.16551875
64	0xbfd09893	-1.6296562
65	0xbf8033b5	-1.001578
66	0xbfb54437	-1.4161443
67	0xbfc903a2	-1.5704234
68	0xbfbd3f82	-1.4785006
69	0xbfcdb2e7	-1.6070222
70	0xbf956b47	-1.1673363
71	0xbfd22c14	-1.6419702
72	0xbe765dc7	-0.2405921
73	0xbf8f1ee9	-1.1181308
74	0xbe2f5356	-0.17121634
75	0xbe9230a6	-0.2855274
76	0xbe149583	-0.14510159
77	0xbeb1faef	-0.3476176
78	0xbfd705be	-1.6798627
79	0xbed8d766	-0.42351836
80	0xbe886e1a	-0.266465
81	0x3c15d67c	0.009145375
82	0xbfc58174	-1.5430131
83	0xbc355a7d	-0.011068937
84	0xbdee766f	-0.11643683
85	0xbfb6afca	-1.4272397
86	0xbdd5717b	-0.10422035
87	0xbf99f994	-1.202929
88	0xbfd36454	-1.6514993
89	0xbfa87028	-1.3159227
90	0xbf685245	-0.90750533
91	0xbd1669da	-0.03672204
92	0xbe891dc9	-0.26780537
93	0xbfb44dac	-1.4086204
94	0xbf84c0ef	-1.0371379
95	0xbdc65e52	-0.09685959
96	0xbfc9b466	-1.5758178
97	0xbfb0d070	-1.381361
98	0xbfaf4bcb	-1.3695005
99	0xbfcca1fd	-1.5986935
100	0xbf8a1428	-1.0787401
101	0xbfca0e60	-1.5785637
102	0xbf9c0856	-1.2190044
103	0xbfd5914d	-1.6684967
104	0xbeedad71	-0.46421388
105	0xbf600401	-0.8750611
106	0xbd6acf7b	-0.057326775
107	0xbe847de1	-0.25877288
108	0xbdd91777	-0.10600179
109	0xbe5cdeb8	-0.21569335
110	0xbfda5780	-1.7057953
111	0xbf3f1d7c	-0.74654365
112	0xbea63005	-0.3245851
113	0xbd78da03	-0.060754787
114	0xbfb7aeb5	-1.4350191
115	0xbcb16beb	-0.021657905
116	0xbe4fa4a8	-0.20277655
117	0xbfa44a2b	-1.2835134
118	0xbe1e582a	-0.1546332
119	0xbfa0ecf1	-1.2572309
120	0xbfccebdb	-1.6009477
121	0xbf86191a	-1.047641
122	0xbefba6ce	-0.491507
123	0xbda3c8c6	-0.07997279
124	0xbc8a84c9	-0.01690902
125	0xbf9e5d59	-1.2372237
126	0xbfd1f08f	-1.6401538
127	0xbd91be2d	-0.07116351

layers.0.ufh.r_weight f4 [32, 32]
0	0x3e9d45f7	0.3071744
1	0x3dc136d4	0.09434286
2	0xbce7497e	-0.028233286
3	0x3e205668	0.15657961
4	0xbd67173c	-0.056418642
5	0x3e48d85e	0.19613788
6	0x3d5accd5	0.053418
7	0x3dd26148	0.10272461
8	0x3e8fa73c	0.28057277
9	0xbcb968dc	-0.022633009
10	0xbe520c00	-0.2051239
11	0x3e179a87	0.14805041
12	0x3d05e2e4	0.032687083
13	0x3e5e876a	0.21731344
14	0xbd447009	-0.047958408
15	0x3dfe7e6f	0.12426459
16	0x3e54a60a	0.20766464
17	0xbd6c8eae	-0.057753257
18	0xbe8065b5	-0.25077596
19	0x3ecdc0e8	0.40186238
20	0xbe2225f8	-0.15834796
21	0xbdfbf6c8	-0.12302929
22	0x3c56c36d	0.013108117
23	0xbdd74622	-0.10511424
24	0x3a9cfd03	0.0011977259
25	0xbdb4c356	-0.0882632
26	0xbe6aed3c	-0.2294206
27	0x3d7858ce	0.060631566
28	0xbd7ce22b	-0.061739128
29	0x3db86dd9	0.09005327
30	0xbe0e2542	-0.138814
31	0x3e2ff7d6	0.17184386
32	0x3d0a6c16	0.033794485
33	0x3dffab8e	0.12483893
34	0xbd1e0ef4	-0.03858848
35	0x3e26f84c	0.16305655
36	0xbc488482	-0.012238624
37	0xbcd2a567	-0.025713636
38	0x3c16664f	0.009179666
39	0x3dc4f1ed	0.09616456
40	0x3e8fb72a	0.2806943
41	0x3de349ac	0.11098036
42	0xbe924fa5	-0.2857639
43	0x3db436fd	0.08799551
44	0xbd8556be	-0.065106854
45	0xbd9550be	-0.07290791
46	0xbe6f97b2	-0.23397711
47	0xbca4adb5	-0.020102361
48	0xbea85d10	-0.328835
49	0xbcf573a6	-0.029962372
50	0x3e209dc9	0.1568519
51	0xbeafbb1c	-0.3432244
52	0xbd9676f6	-0.07346909
53	0x3e0e9fa6	0.13928089
54	0x3e1ac4d6	0.1511415
55	0x3d86eedc	0.065885276
56	0xbe24790e	-0.16061804
57	0xbea578a8	-0.32318616
58	0xbe25752d	-0.1615798
59	0xbe288ef1	-0.16460778
60	0xbeba9654	-0.36442816
61	0xbdd8ba98	-0.10582465
62	0xbcb73c60	-0.022367656
63	0xbe43304c	-0.19061393
64	0x3da6eb04	0.081502944
65	0xbddaa90e	-0.10676776
66	0xbe88b595	-0.26701036
67	0x3d9a1082	0.0752268
68	0xbe521655	-0.20516331
69	0x3df1a83b	0.117996655
70	0x3dc3a386	0.09552674
71	0x3d869815	0.06571976
72	0x3ea34f88	0.31896615
73	0x3d49a52b	0.049229782
74	0xbe1c5da5	-0.15270098
75	0x3db6a9b8	0.0891909
76	0x3ea07c36	0.31344765
77	0xbe06238b	-0.13099496
78	0xbe4e7f3b	-0.20165722
79	0xbe77c8e1	-0.24197723
80	0xbe6f33de	-0.2335963
81	0x3cf06a4a	0.029347558
82	0xbdbb3f11	-0.09142888
83	0xbc18382f	-0.009290739
84	0x3d3dc837	0.046333518
85	0xbda3db9a	-0.0800087
86	0x3d56382f	0.052299675
87	0x3e66d98a	0.22543922
88	0xbbce9988	-0.0063049234
89	0xbe5183cd	-0.20460434
90	0xbde5c5d3	-0.112193726
91	0x3d25d16f	0.040482935
92	0x3e113d27	0.14183484
93	0x3d70fa40	0.058832407
94	0x3de1773f	0.110090725
95	0x3ec6af0f	0.38805434
96	0xbe6f39a8	-0.23361838
97	0xbe3e59cf	-0.18588947
98	0xbdc18be1	-0.09450508
99	0x3e15aa20	0.14615679
100	0xbdcb41c6	-0.09924655
101	0xbd1b3656	-0.037893616
102	0x3dfaa459	0.12238378
103	0xbd5f358d	-0.05449443
104	0xbde60c1b	-0.11232778
105	0x3d372b21	0.044718865
106	0x3e6228f5	0.22085936
107	0x3e384429	0.17994751
108	0x3db962ba	0.09052034
109	0xbe1eceb0	-0.15508533
110	0x3d4bd0e2	0.049759753
111	0xbd32c13a	-0.043641306
112	0x3ae527e8	0.0017483206
113	0x3eaad49d	0.33365336
114	0x3dbc09aa	0.09181531
115	0x3e47b87b	0.19503967
116	0x3eb355b7	0.35026333
117	0x3da6edab	0.081508
118	0x3e05d692	0.13070133
119	0xbdfb9743	-0.1228471
120	0x3cf1d068	0.029518321
121	0xbe460384	-0.19337279
122	0xbcf3d371	-0.029763909
123	0x3e36e48e	0.17860624
124	0x3e8274f7	0.25479862
125	0x3de629d4	0.11238447
126	0x3d1870fc	0.037217125
127	0x3e7547f4	0.23953229
128	0x3e31564f	0.1731808
129	0xbdc6fe44	-0.09716466
130	0xbcc2a85b	-0.023761919
131	0xbdc49554	-0.095987946
132	0xbc8393bc	-0.016061656
133	0x3de12fcb	0.10995444
134	0x3cf0d1e5	0.02939696
135	0x3d1ed979	0.038781617
136	0xbec3221f	-0.3811197
137	0xbb96368d	-0.0045841397
138	0x3e900bd2	0.28134018
139	0x3da4bc61	0.08043743
140	0x3d85788c	0.06517133
141	0xbe8aad30	-0.27085257
142	0x3cdd1545	0.026987681
143	0xbe8bb616	-0.27287358
144	0x3d41aa14	0.04728134
145	0x3e8b037d	0.271511
146	0x3e0761fc	0.13220972
147	0x3e80d82a	0.2516492
148	0x3d75bc77	0.059994187
149	0x3e7e106a	0.24810949
150	0x3e57b574	0.21065313
151	0xbe084bd7	-0.1331018
152	0xbcd3fcf4	-0.025877453
153	0x3d0faab9	0.035074923
154	0xbddb20cd	-0.10699616
155	0x3e9bd39f	0.30434892
156	0xbce9f2b2	-0.028558109
157	0x3da8f98a	0.08250721
158	0xbe1b8507	-0.15187465
159	0x3e2812b5	0.16413386
160	0x3dc7edd4	0.09762159
161	0x3d30279b	0.04300652
162	0xbe13eaf2	-0.14445093
163	0x3c55bb39	0.013045126
164	0x3d90cb31	0.07070006
165	0x3b9c5def	0.00477194
166	0xbe1d6604	-0.15370947
167	0x3dc5d0b7	0.0965895
168	0x3da2b0db	0.07943889
169	0xbd9b7d6b	-0.07592281
170	0x3db94955	0.0904719
171	0xbcfb97d1	-0.03071204
172	0x3e64110b	0.22272126
173	0xbcd1865b	-0.025576761
174	0x3d9bbdd7	0.076045685
175	0xbe6094f3	-0.2193182
176	0x3dc00e7a	0.09377761
177	0x3d7f7797	0.06236991
178	0x3e50f18e	0.20404646
179	0x3e4b1ac8	0.19834435
180	0x3d930fd3	0.071807526
181	0xbcd7eadd	-0.026357109
182	0x3d8afad2	0.067861214
183	0x3de7a11d	0.11310027
184	0xbca81f4f	-0.020522742
185	0xbdcae854	-0.09907594
186	0xbd1b37d7	-0.03789505
187	0x3d8938d5	0.06700293
188	0x3e5b033e	0.21387956
189	0x3ca3dcb5	0.020002702
190	0xbe045238	-0.12921989
191	0x3e6fd999	0.2342285
192	0x3e240c81	0.16020395
193	0x3dec56ec	0.115400165
194	0x3b8bd1b9	0.0042669442
195	0xbea7dafa	-0.32784253
196	0xbe6fd007	-0.234192
197	0xbe33c8d6	-0.17557082
198	0xbe2f32f9	-0.17109288
199	0x3b6dae4c	0.003626722
200	0xbdb01ebd	-0.08599613
201	0x3c9a4923	0.018833702
202	0x3dd77803	0.10520937
203	0xbc069596	-0.008214375
204	0xbdb1b1e6	-0.086765096
205	0x3dc8ad9b	0.097987376
206	0xbe01795f	-0.12643956
207	0xbe455195	-0.19269402
208	0x3d8633bf	0.065528385
209	0x3d3c5e11	0.045988146
210	0x3d359b4b	0.044337552
211	0x3dcc873b	0.09986731
212	0xbcd9b755	-0.026576677
213	0x3d22b895	0.039726812
214	0x3e0810f7	0.13287722
215	0x3db12ed6	0.08651511
216	0xbe894659	-0.26811484
217	0xbe87e37a	-0.26540738
218	0xbe608d1c	-0.21928829
219	0x3d6cb126	0.05778613
220	0xbcbe98e1	-0.023266258
221	0xbcfe2772	-0.031024668
222	0xbdfbcf46	-0.12295394
223	0x3cb07fc1	0.021545293
224	0xbd4ed3b5	-0.05049487
225	0xbd75dded	-0.060026098
226	0x3ddfbfa9	0.10925228
227	0x3e31a8c6	0.17349538
228	0xbd312406	-0.043247245
229	0xbd2ff33c	-0.042956576
230	0x3df702c0	0.120610714
231	0xbe56ce89	-0.20977224
232	0xbe704101	-0.23462297
233	0xbcd51fd1	-0.026016148
234	0x3e165cd6	0.14683852
235	0x3e669ba2	0.22520307
236	0x3dafad8e	0.08578025
237	0xbde4e9a9	-0.1117738
238	0xbd32722f	-0.043565925
239	0xbe1e2f3c	-0.15447706
240	0x3e8020be	0.2502498
241	0x3ed563fe	0.4167785
242	0xbd2c5042	-0.042068727
243	0x3d9a2aab	0.075276695
244	0xbe3922e0	-0.1807971
245	0x3dc6ee81	0.0971346
246	0x3d2b02ef	0.041750845
247	0x3e5eb8aa	0.21750131
248	0xbddd68e8	-0.10811025
249	0x3e658c0a	0.22416702
250	0x3d0273eb	0.03184883
251	0xbdd3ec6b	-0.103478275
252	0xbd054d73	-0.032544564
253	0x3ca6dc71	0.020368787
254	0x3cdf3750	0.027248055
255	0x3e938308	0.28810906

layers.0.ufh.i_weight f4 [32, 32]
0	0x3bfa1e25	0.007632988
1	0x3b8f1283	0.0043662204
2	0x3d62b331	0.05534667
3	0xbd7f7064	-0.062363043
4	0x3e19bd3a	0.1501359
5	0x3d8e91b3	0.06961384
6	0x3dbcfc61	0.09227825
7	0xbd2f44dc	-0.04279028
8	0xbd4a5a4d	-0.049402524
9	0x3c7c9bbc	0.015417989
10	0xbd95fcee	-0.07323633
11	0x3bdb5dc0	0.0066945255
12	0x3d9e62b2	0.077336684
13	0xbc60b8d5	-0.013715942
14	0x3de85c94	0.11345783
15	0x3d9ee79b	0.07759019
16	0x3d935d45	0.07195524
17	0x3e0ea1d2	0.13928917
18	0x3e4611f8	0.19342792
19	0x3e14ec05	0.1454316
20	0x3df107de	0.11769079
21	0xbe4e0eea	-0.20122877
22	0x3bd50d00	0.006501794
23	0x3dec5c97	0.115410976
24	0x3e8cff91	0.27538732
25	0xbd8a408c	-0.067505926
26	0x3df5be52	0.11999191
27	0x3d4c2fc7	0.04985025
28	0x3e3600e9	0.17773785
29	0x3ca9d33c	0.020730607
30	0x3c38e983	0.011286142
31	0x3de16fb6	0.11007635
32	0xbd09ee4b	-0.03367452
33	0x3b149c4c	0.0022676168
34	0xbde1c01e	-0.110229716
35	0x3db09efa	0.086240724
36	0xbdad5606	-0.08463673
37	0x3cb2ba59	0.021817373
38	0xbe11121f	-0.14167069
39	0xbd890169	-0.06689722
40	0x3dd5abb0	0.104331374
41	0xbda51a85	-0.08061699
42	0x3e908e23	0.28233442
43	0xbe0256c0	-0.12728405
44	0x3de3109e	0.11087154
45	0xbd915499	-0.07096214
46	0xbe47e61f	-0.19521378
47	0xbe135015	-0.14386018
48	0xbdc33258	-0.09531087
49	0x3d20d152	0.039262123
50	0xbdaa3848	-0.08311516
51	0x3dd1b076	0.102387354
52	0x3c876f69	0.016532617
53	0xbd0f4a1a	-0.034982778
54	0x3e4f01db	0.20215552
55	0x3c0d232f	0.008614345
56	0x3d62aa41	0.055338148
57	0x3e1a1a9a	0.1504921
58	0x3d686232	0.05673427
59	0x3d2a38d3	0.041558098
60	0x3e6a2227	0.2286459
61	0xbccf8d47	-0.025335921
62	0xbdb6dcd3	-0.089288376
63	0xbbf2c0b1	-0.0074082245
64	0x3d479feb	0.048736494
65	0xbe0921a0	-0.13391733
66	0xbd152249	-0.03640965
67	0x3d898a82	0.067158714
68	0x3df819fe	0.121143326
69	0x3cfbf08b	0.030754348
70	0x3d8247d8	0.06361359
71	0x3d4ac055	0.04949983
72	0xbc4bfc12	-0.012450235
73	0x3cf5ad6b	0.029989919
74	0x3e193fd2	0.14965752
75	0x3d33c393	0.043887686
76	0x3e25f82d	0.16207953
77	0xbdc0c18d	-0.09411917
78	0xbd1f5ec2	-0.038908727
79	0xbe641e20	-0.22277117
80	0x3e59a7fc	0.21255487
81	0x3d210fd4	0.039321736
82	0xbc9dd54e	-0.01926675
83	0x3bfbeaa2	0.0076878825
84	0x394d24ef	0.00019564082
85	0x3d44c95c	0.048043594
86	0xbd090bbe	-0.033458464
87	0x3db0a9e2	0.086261526
88	0xbe039c63	-0.12852626
89	0xbdd977b7	-0.10618537
90	0x3e3f7c4b	0.18699758
91	0xbceda0eb	-0.029007396
92	0xbe2cb665	-0.16866453
93	0x3da43624	0.08018139
94	0xbd8659cc	-0.06560096
95	0xbcc4c162	-0.024017993
96	0x3cd1a951	0.025593432
97	0x3e004eb7	0.12530027
98	0xbd9a3b14	-0.075307995
99	0xbd7d51b6	-0.061845504
100	0xbe1fd7d2	-0.15609673
101	0xbd853b73	-0.0650548
102	0xbe44598a	-0.19174781
103	0x3d95223f	0.072819225
104	0x3d6f0db4	0.058362678
105	0xbb76ea61	-0.0037676322
106	0x3d8e696b	0.06953701
107	0x3daa0a23	0.08302715
108	0xbe130d98	-0.14360654
109	0x3e41c313	0.18922071
110	0xbda2ffee	-0.07958971
111	0x3cb56833	0.022144413
112	0xbcae3267	-0.021264268
113	0xbe0aa5f3	-0.13539867
114	0xbd1c435d	-0.03815018
115	0xbd2c6693	-0.04209001
116	0xbc56c69a	-0.013108874
117	0xbe2962cc	-0.16541594
118	0x3d9dea4e	0.07710706
119	0xbe1f7c54	-0.15574771
120	0xbd8e8460	-0.06958842
121	0x3dfc40f2	0.12317075
122	0xbd6d0155	-0.0578626
123	0xbcd283c7	-0.025697602
124	0x3e2c9d9d	0.16857
125	0xbdf50017	-0.11962908
126	0xbe2fdb3c	-0.17173475
127	0xbd32e1dd	-0.04367243
128	0xbd86d0f1	-0.06582821
129	0xbc7d1517	-0.015446923
130	0xbd949cef	-0.07256495
131	0xbdd9098d	-0.10597525
132	0x3dcdbf98	0.10046309
133	0xbdad1b88	-0.08452517
134	0x3ca102ce	0.019654658
135	0x3d4babd9	0.049724434
136	0xbc95ff6e	-0.018310275
137	0x3e5b2702	0.21401599
138	0x3dd98ed6	0.10622947
139	0x3e90eb81	0.28304675
140	0xbb295091	-0.0025835375
141	0x3e441e4e	0.19152185
142	0xbbe89c3f	-0.007098704
143	0xbde9afbd	-0.114104725
144	0xbe28b048	-0.16473496
145	0x3dc8d22c	0.09805712
146	0x3ab4f8d1	0.0013807063
147	0x3e0522bb	0.1300153
148	0x3dac40f5	0.08410827
149	0x3b7e2146	0.0038777157
150	0xbde8f6b7	-0.11375182
151	0x3e48759c	0.19576114
152	0x3b0c6691	0.002142344
153	0xbde2b111	-0.11068929
154	0x3dc9101b	0.09817525
155	0x3da2148d	0.07914076
156	0x3e3181c7	0.17334662
157	0xbccdb29a	-0.025109578
158	0x3db2cc69	0.087303944
159	0x3e938718	0.28814006
160	0x3d7bc46e	0.061466627
161	0xbe077060	-0.13226461
162	0x3d7c8714	0.061652258
163	0x3dd0afc5	0.101897754
164	0xbd5bb41e	-0.05363857
165	0x3d89515b	0.067049704
166	0x3d968704	0.07349971
167	0xbd18b483	-0.037281524
168	0xbe03713a	-0.12836161
169	0xbdd0b75e	-0.101912245
170	0xbcf37cea	-0.02972265
171	0xbe03d2a8	-0.12873328
172	0x3d949e05	0.07256702
173	0x3d8a7ce5	0.06762103
174	0x3cadb7d4	0.02120582
175	0xbe07dbdc	-0.13267463
176	0xbdd19a1c	-0.10234472
177	0x3d92a9eb	0.071613155
178	0xbe26782a	-0.16256776
179	0x3dfb1502	0.12259866
180	0x3dfda70c	0.12385377
181	0x3bcd43c2	0.006264181
182	0xbe06e509	-0.13173307
183	0xbd03606e	-0.032074384
184	0x3dc2d23f	0.095127575
185	0xbdfb62dd	-0.12274716
186	0xbe3633a8	-0.17793143
187	0x3d9e9691	0.07743562
188	0x3ca36e9a	0.0199502
189	0xbe6430b4	-0.22284204
190	0xbd5a740f	-0.05333334
191	0x3e63ec38	0.22258079
192	0x3e2753df	0.16340588
193	0x3c1177a9	0.008878627
194	0x3de69d2c	0.11260447
195	0x3cbef60e	0.023310687
196	0xbe8e6183	-0.2780877
197	0x3ddd1143	0.10794308
198	0xbe0aaef4	-0.13543302
199	0xbc34b54e	-0.0110295545
200	0x3dc4cd2c	0.09609446
201	0xbc806675	-0.015673855
202	0xbdcc1c9d	-0.09966395
203	0x3e1746fd	0.14773174
204	0xbe64217f	-0.22278403
205	0xbe358693	-0.17727117
206	0x3dd503b8	0.104011
207	0x3c0cab21	0.008585722
208	0xbe162020	-0.14660692
209	0xbddea431	-0.10871161
210	0x3cefa4b7	0.029253347
211	0xbe9b004f	-0.30273673
212	0xbed27db0	-0.41111517
213	0xbdf3eea6	-0.11910753
214	0xbd1bbf9f	-0.03802454
215	0xbdbad51a	-0.09122677
216	0xbe214490	-0.15748811
217	0x3d4dfb69	0.05028859
218	0xbe613df6	-0.21996292
219	0xbe9cd6c3	-0.306326
220	0xbd205bc8	-0.03915003
221	0x3d22b048	0.039718896
222	0x3e0f980f	0.1402285
223	0xbe14e7fd	-0.14541622
224	0x3c5d3a42	0.013502659
225	0xbcb98c3e	-0.02264988
226	0x3beb8234	0.0071871523
227	0xbda20786	-0.07911591
228	0x3db0bc1b	0.08629628
229	0xbd1e662e	-0.038671665
230	0x3da4d987	0.080493025
231	0xbda89924	-0.08232334
232	0x3d87df0d	0.066343404
233	0x3e274368	0.16334307
234	0xbe17d086	-0.14825639
235	0x3e4f3b38	0.20237434
236	0xbcca97a5	-0.024730513
237	0x3e104de4	0.14092213
238	0x3c8fa0c4	0.017532714
239	0xbd0faf3b	-0.035079222
240	0x3dfdeefa	0.12399097
241	0xbe4634cd	-0.1935608
242	0x3e7235f3	0.23653392
243	0xbe2c8605	-0.16848
244	0x3c1c4ce1	0.009539814
245	0xbe520c36	-0.2051247
246	0x3ce9a418	0.028520629
247	0xbcfb31f0	-0.03066346
248	0x3db1b319	0.08676738
249	0x3d83b7bc	0.06431529
250	0x3b0b66e1	0.0021271037
251	0xbd46e623	-0.04855932
252	0x3b748731	0.0037312026
253	0x3d262b24	0.040568486
254	0x3de54e71	0.11196602
255	0x3d8280e3	0.063722394

layers.0.ufh.j_weight f4 [32, 32]
0	0x3ccbfb46	0.02490009
1	0xbd8d70b9	-0.06906266
2	0x3cef68c9	0.02922477
3	0xbc549f4d	-0.012977433
4	0x3df9c724	0.12196186
5	0xbd03efe4	-0.0322112
6	0xbe639311	-0.2222407
7	0xbbfcac8f	-0.0077110003
8	0x3bae1341	0.005312354
9	0xbcda5e4b	-0.02665629
10	0x3ddd63d0	0.10810053
11	0xbd85c6b4	-0.0653204
12	0x3db9388e	0.0904399
13	0x3e46c127	0.1940962
14	0x3d8b4798	0.06800765
15	0xbe3d220d	-0.1847002
16	0x3da4bdde	0.08044027
17	0x3e2fe39b	0.17176668
18	0xbdfb3b7b	-0.122672044
19	0x3e597a08	0.21237957
20	0x3dff6017	0.124694996
21	0x3ccd6cc3	0.025076276
22	0x3bf32482	0.0074201236
23	0x3e18fc92	0.14940098
24	0x3da7334c	0.08164081
25	0xbe31cbbf	-0.17362879
26	0x3da79037	0.08181804
27	0x3e452670	0.19252944
28	0x3d2f7ac4	0.042841688
29	0x3daa117b	0.083041154
30	0xbe013d22	-0.12620977
31	0x3ea5d624	0.3238994
32	0xbc3e71c7	-0.011623806
33	0x3d0b5410	0.034015715
34	0x3dd76f62	0.105192915
35	0xbbc174c6	-0.005903813
36	0x3e17565d	0.14779039
37	0x3e6f7420	0.23384142
38	0x3e203931	0.15646817
39	0xbce80bd8	-0.02832596
40	0xbc82f087	-0.015983833
41	0xbd98c5a2	-0.074595705
42	0xbe6f29cf	-0.23355792
43	0xbd304d46	-0.043042444
44	0xbe24f5b4	-0.16109353
45	0xbd5dffd2	-0.054199047
46	0x3d6b594a	0.0574582
47	0x3db93803	0.090438865
48	0xbde70f02	-0.112821594
49	0xbe7cbc2c	-0.24681157
50	0x3cb20855	0.021732489
51	0xbe5b8cd5	-0.21440442
52	0xbe75fab9	-0.24021424
53	0xbcf33af8	-0.029691204
54	0x3d474d2c	0.04865758
55	0xbdb04552	-0.08606972
56	0x3da9a939	0.0828423
57	0x3ccdcd14	0.025122203
58	0xbe3afaf0	-0.18259788
59	0xbe04476f	-0.12917875
60	0xbe0eff50	-0.13964581
61	0x3d084abd	0.0332744
62	0x3c37ca7f	0.011217712
63	0xbea146b5	-0.31499258
64	0xbdea7ff8	-0.11450189
65	0x3d442410	0.047885954
66	0x3b49dbd2	0.003080119
67	0xbddd6ca2	-0.10811736
68	0x3e1194e2	0.1421695
69	0xbdd9f264	-0.106419355
70	0xbd40ad69	-0.047040377
71	0xbd7907fc	-0.06079863
72	0x3deb9c59	0.1150443
73	0x3e3ff096	0.1874412
74	0x3e906f65	0.28209987
75	0x3da1fbc9	0.07909352
76	0x3e4bc633	0.19899826
77	0x3e17569a	0.1477913
78	0xbe49b553	-0.19698076
79	0xbe05d6b3	-0.13070183
80	0xbd9b85dc	-0.07593891
81	0x3e4a6fc7	0.19769202
82	0x3cdf6036	0.027267557
83	0x3e9993c1	0.2999554
84	0x3ebae17c	0.36500156
85	0x3e33bd14	0.17552596
86	0x3e1af327	0.15131818
87	0x3e55636d	0.20838709
88	0x3dd314a4	0.10306671
89	0xbbd069ec	-0.006360283
90	0x3eb1d225	0.3473064
91	0x3dd7ea72	0.10542764
92	0x3ed6855b	0.41898617
93	0xbbb4a432	-0.0055127377
94	0x3db8c896	0.09022634
95	0x3e3a628f	0.1820166
96	0xbd143368	-0.036181837
97	0xbd281e75	-0.04104467
98	0xbdab5890	-0.08366501
99	0x3ccd34fd	0.02504968
100	0x3ddeecaa	0.10884984
101	0xbd9b0498	-0.075692356
102	0xbcde662e	-0.027148332
103	0x3dc0ce94	0.09414402
104	0xbd2d73d0	-0.042346776
105	0xbda59c80	-0.08086491
106	0x3d2e39fa	0.04253576
107	0xbdbe318e	-0.092867956
108	0xbca5d284	-0.020241983
109	0xbc8d4ab3	-0.017247533
110	0x3daeca3b	0.08534666
111	0x3dbd3549	0.09238679
112	0xbdc2d6d1	-0.09513629
113	0x3d3a229f	0.045443173
114	0x3e2e2034	0.17004472
115	0xbd8856a6	-0.06657152
116	0xbe15973d	-0.14608474
117	0x3d6d524b	0.05793981
118	0x3e425e40	0.18981266
119	0xbde983e2	-0.11402108
120	0x3d7c6ed7	0.061629143
121	0xbe130788	-0.14358342
122	0xbe85e192	-0.2614866
123	0xbbd643cc	-0.0065388437
124	0xbe196f3d	-0.1498384
125	0x3d2293e5	0.039691824
126	0x3d8c0424	0.06836727
127	0xbe1161e1	-0.14197494
128	0x3d8cd316	0.06876199
129	0xbc5a46d6	-0.013322553
130	0x3e2cf2a7	0.1688944
131	0xbbfe08b1	-0.007752501
132	0xbd5df564	-0.0541891
133	0x3d97abef	0.074058406
134	0xbbde892c	-0.0067912545
135	0x3e25c132	0.1618698
136	0x3d8d0a26	0.06886701
137	0x3d20e6ad	0.03928249
138	0xbdc9f636	-0.09861414
139	0xbe21a3fb	-0.1578521
140	0xbe94de85	-0.2907602
141	0xbe3f9296	-0.18708262
142	0xbe017c09	-0.12644972
143	0x3dc93b48	0.0982576
144	0x3d45d434	0.048298076
145	0xbe32ee10	-0.17473626
146	0x3d9a79bb	0.075427495
147	0xbe6a9cb6	-0.22911343
148	0xbd68a3cb	-0.05679683
149	0xbdc2ebb2	-0.095176116
150	0x3e890876	0.26764268
151	0xbd30e61d	-0.043188203
152	0xbdb4e4f4	-0.08832732
153	0x3dac066f	0.083996646
154	0xbe8a07ce	-0.2695908
155	0xbd0b32d2	-0.033984013
156	0xbd0516d7	-0.032492485
157	0xbc9b340a	-0.018945713
158	0x3d67b41d	0.056568254
159	0xbe5a8f1a	-0.21343651
160	0xbcd3a5ba	-0.02583586
161	0xbd75d483	-0.06001712
162	0xbd546f77	-0.051864114
163	0x3c327cd3	0.010894018
164	0x3da99a73	0.08281412
165	0xbc86fcc9	-0.01647796
166	0x3e3047c4	0.17214876
167	0xbd1d599c	-0.038415536
168	0x3dfaa102	0.12237741
169	0x3dbfb73c	0.09361121
170	0x3e330388	0.17481816
171	0x3e30dff9	0.17272939
172	0x3dcd2cfd	0.100183465
173	0x3ded52b7	0.11588042
174	0x3ced7e47	0.028990878
175	0xbdefba48	-0.11705452
176	0x3d1e0b69	0.0385851
177	0x3dd08e80	0.1018343
178	0x3e10ef5d	0.1415381
179	0x3e03dbf3	0.12876873
180	0x3e958f63	0.29210958
181	0x3dfa8a90	0.1223346
182	0xbc0168ce	-0.007898523
183	0x3d8a8180	0.067629814
184	0x3e123e76	0.1428164
185	0x3d96d1fe	0.073642716
186	0x3dd560c6	0.10418849
187	0x3da56969	0.08076746
188	0x3db06d88	0.086146414
189	0x3ca1d905	0.019756803
190	0xbde4ca61	-0.11171413
191	0x3e460d14	0.19340926
192	0x3dd09d02	0.10186197
193	0x3d86f338	0.06589359
194	0x3e3012fb	0.1719474
195	0x3d1967d1	0.037452523
196	0xbc20e13c	-0.009819325
197	0x3e21374c	0.1574375
198	0xbcf5b9c0	-0.029995799
199	0x3d84a75c	0.06477234
200	0x3df0c48b	0.117562376
201	0xbda60225	-0.08105878
202	0xbe6d49c2	-0.23172668
203	0x3e15d8f4	0.14633542
204	0xbd61cc45	-0.055126447
205	0xbd847be4	-0.06468943
206	0x3e0b3032	0.13592604
207	0x3e3dd9b3	0.18540077
208	0x3d2677bf	0.040641543
209	0xbe54d642	-0.20784858
210	0xbcab59cb	-0.02091684
211	0xbe30396d	-0.17209406
212	0xbe82d7f1	-0.25555375
213	0xbd922281	-0.07135487
214	0xbe401aab	-0.18760173
215	0xbc697d5c	-0.014251079
216	0xbe1276e1	-0.14303161
217	0xbdce3b83	-0.10069945
218	0xbe56fad7	-0.20994125
219	0xbe00ca90	-0.12577271
220	0xbe2d56e4	-0.16927677
221	0xbdc7adbd	-0.09749935
222	0xbe4a5b06	-0.19761285
223	0xbe13d2b2	-0.14435843
224	0xbbc06156	-0.0058709783
225	0xbd2376de	-0.039908282
226	0x3d4cbbd8	0.04998383
227	0xbd685854	-0.05672486
228	0xbe2e1938	-0.17001808
229	0x3d99d760	0.07511783
230	0xbd83392f	-0.06407391
231	0x3d802f32	0.06259002
232	0xbc4f5036	-0.012653401
233	0xbd816b43	-0.06319287
234	0xbd7ded7a	-0.061994053
235	0x3de4415f	0.11145281
236	0xbe5efb01	-0.21775438
237	0x3e2476d5	0.16060956
238	0x3de03593	0.109477185
239	0xbda0a90f	-0.07844745
240	0xbcbe1531	-0.023203464
241	0xbdca905e	-0.09890817
242	0xbe3df7fd	-0.18551631
243	0xbcff3cec	-0.03115698
244	0xbe41150a	-0.18855682
245	0xbd7f7cf9	-0.062375043
246	0xbcdd300f	-0.027000455
247	0xbcd5d33d	-0.026101703
248	0xbd6bd579	-0.05757663
249	0x3d94ece0	0.07271743
250	0x3e2322c9	0.15931238
251	0xbd857df1	-0.06518162
252	0xbe4029e0	-0.18765974
253	0xbdf69198	-0.120394886
254	0xbdf97fcd	-0.12182579
255	0x3db85285	0.09000114

layers.0.ufh.k_weight f4 [32, 32]
0	0xbd90d5b3	-0.0707201
1	0x3d24b790	0.04021412
2	0xbdb833a2	-0.08994223
3	0xbd60ab83	-0.054851066
4	0x3d0e3d65	0.03472652
5	0x3d0f0fd4	0.034927204
6	0xbc95d614	-0.018290557
7	0xbce8a8fb	-0.028400889
8	0x3dd4929c	0.10379526
9	0x3d3fe38a	0.046847858
10	0xbdc96c74	-0.09835139
11	0x3d973066	0.07382278
12	0xbcfb9bb2	-0.03071389
13	0x3d4098b7	0.04702064
14	0x3d399d21	0.045315865
15	0x3ded4357	0.1158511
16	0xbdf17b15	-0.11791054
17	0xbe04e625	-0.12978418
18	0x3d611a08	0.054956466
19	0xbe0b5fe7	-0.13610803
20	0xbe0f444b	-0.13990895
21	0x3d1ede79	0.038786385
22	0x3d00ac5a	0.031414367
23	0x3c4206e9	0.011842468
24	0xbe12a467	-0.14320527
25	0x3e361483	0.17781262
26	0xbdcba80e	-0.09944163
27	0xbe6c0bba	-0.23051348
28	0xbe5d7fae	-0.21630737
29	0x3e0a61e2	0.13513902
30	0xbd4612e8	-0.048357874
31	0x3d95baf0	0.07311046
32	0xbbf17d65	-0.0073696845
33	0xbd0bf3a5	-0.034167904
34	0x3e135cdc	0.14390892
35	0xbcbbab06	-0.022908699
36	0x3dcd6662	0.100292936
37	0xbd74dc44	-0.059780374
38	0x3dc7d8e8	0.097581685
39	0xbd9aa8be	-0.07551716
40	0x3c43441d	0.011918095
41	0x3c7d02f3	0.015442598
42	0x3e283c17	0.16429172
43	0xbbab9cdc	-0.005237205
44	0x3e7c9291	0.24665286
45	0x3dcb3f0b	0.09924134
46	0xbdce492e	-0.10072552
47	0x3d59106f	0.052994188
48	0xbd099f97	-0.033599462
49	0x3dedd8a5	0.11613587
50	0x3d0585fa	0.032598473
51	0x3e0819de	0.13291118
52	0x3e8b7f53	0.27245578
53	0x3e2ffead	0.17186995
54	0x3e23030b	0.1591913
55	0x3dd02844	0.1016393
56	0x3d60961e	0.054830663
57	0x3d865a85	0.06560234
58	0x3e0143fe	0.12623593
59	0x3e226c60	0.15861654
60	0x3e0f2b51	0.13981368
61	0xbc6d2272	-0.014473544
62	0x3e3199f5	0.17343886
63	0x3e39f4c0	0.18159771
64	0xbd3e5307	-0.0464659
65	0x3e1e8a6b	0.1548249
66	0x3db340f7	0.087526254
67	0x3de31ff7	0.11090081
68	0x3d0c8c8d	0.034313727
69	0x3c879860	0.01655215
70	0xbce20465	-0.027589986
71	0xbdaa8bb9	-0.08327431
72	0x3caf7ed8	0.021422789
73	0x3e2e8d56	0.17046103
74	0x3cfcd600	0.030863762
75	0x3d50ce8d	0.050978232
76	0x3d862cb9	0.06551499
77	0xbce5e64f	-0.028063921
78	0xbdba62db	-0.091008864
79	0x3d567269	0.052355204
80	0x3d848a4b	0.0647169
81	0x3dbe0ecb	0.09280165
82	0x3d40e7fe	0.047096245
83	0x3e145dda	0.14488927
84	0x3d4c5b22	0.0498916
85	0xbce861c7	-0.028366936
86	0xbbfa008e	-0.0076294607
87	0x3d9cd16c	0.076571316
88	0x3dd76bca	0.10518606
89	0x3cdaa932	0.026692007
90	0x3e00a33f	0.12562273
91	0x3db2ce6c	0.08730778
92	0x3e5059fc	0.20346826
93	0x3e29257c	0.16518205
94	0x3bca69b9	0.006177154
95	0x3e568891	0.20950533
96	0xbca9c2b9	-0.020722734
97	0xbd9b44bf	-0.07581472
98	0x3d9d8f10	0.07693303
99	0x3c50a867	0.012735463
100	0x3b709981	0.003671259
101	0xbd3d5ac1	-0.046229128
102	0xbe2084f3	-0.15675716
103	0x3dd2673a	0.10273595
104	0xbcf724cc	-0.030168913
105	0x3e4bd171	0.19904114
106	0x3c8450f8	0.01615189
107	0xbd743da4	-0.059629098
108	0x3de5965f	0.11210322
109	0xbeb2b584	-0.3490411
110	0xbe07248d	-0.13197537
111	0x3abf3162	0.0014586861
112	0xbdcc4e3a	-0.09975858
113	0x3e09a062	0.13440087
114	0x3d09969c	0.033590898
115	0xbd334306	-0.04376509
116	0x3d85c025	0.06530789
117	0x3e87e133	0.26539
118	0x3d0cda64	0.03438796
119	0x3a806cd5	0.000979806
120	0x3dec8eb9	0.1155066
121	0xbaaebe75	-0.0013331907
122	0x3d85c474	0.06531611
123	0x3dc553ff	0.096351616
124	0x3e94fee0	0.29100704
125	0xbe421a04	-0.18955237
126	0xbd007586	-0.03136208
127	0x3e06157f	0.13094138
128	0xbd50daf8	-0.050990075
129	0xbd66bc26	-0.056331776
130	0xbca7aebb	-0.02046906
131	0x3de89882	0.113572136
132	0x3e33b96a	0.17551199
133	0xbd2b6d1e	-0.04185211
134	0x3b1623d8	0.0022909548
135	0x3ce6433c	0.028108232
136	0x3d54a0be	0.05191111
137	0x3d58b285	0.052904624
138	0xbdb248c8	-0.08705288
139	0x3df56201	0.119815834
140	0xbbefb989	-0.0073158187
141	0x3c814cd3	0.015783703
142	0x3b62603e	0.0034542228
143	0x3ce12bbb	0.027486673
144	0xbd1e6237	-0.038667884
145	0x3e673d7c	0.22582048
146	0x3e0a2ba5	0.13493212
147	0x3e6440fb	0.22290413
148	0xbdbd46bb	-0.092420064
149	0x3e14ebf4	0.14543134
150	0xbe6c1956	-0.2305654
151	0xbda28e15	-0.07937256
152	0xbe08c774	-0.13357335
153	0xbda855d7	-0.08219498
154	0x3e1a26ae	0.15053818
155	0xbcb194e5	-0.021677444
156	0x3e349cfe	0.17638013
157	0x3d8edb7c	0.06975457
158	0xbd58bda9	-0.05291525
159	0x3e6635b8	0.2248143
160	0x3e22b5b6	0.1588963
161	0xbe371d66	-0.17882308
162	0xbce81a9b	-0.028332999
163	0xbd0604f3	-0.032719564
164	0x3e291717	0.16512714
165	0x3de68213	0.112552784
166	0xbdb2ddd5	-0.08733717
167	0xbc389af7	-0.011267415
168	0x3dde2961	0.10847736
169	0x3de32527	0.110910706
170	0x3d967a23	0.073475145
171	0x3cd539e0	0.026028574
172	0xbe55dc03	-0.20884709
173	0x3dded42e	0.10880314
174	0xbd1afdab	-0.037839573
175	0xbc49e68f	-0.012323036
176	0xbd0358d1	-0.032067124
177	0xbd101983	-0.03518058
178	0xbd710f16	-0.058852278
179	0x3caa09aa	0.020756561
180	0x3e138b25	0.14408548
181	0xbe2c4b5c	-0.16825622
182	0xbd6c6e3b	-0.05772231
183	0xbb1f000d	-0.0024261505
184	0x3e0a4343	0.13502221
185	0x3d3ef2b5	0.046618182
186	0x3e0bb85c	0.13644546
187	0x3e19e693	0.15029363
188	0x3e8821ab	0.26588187
189	0x3e40ba80	0.18821144
190	0xbd4c1866	-0.049827956
191	0x3e906d6f	0.2820849
192	0x3e09f01f	0.13470505
193	0x3d8583cd	0.0651928
194	0x3c4de2c3	0.012566271
195	0xbca56ea7	-0.020194365
196	0x3c8f9b34	0.017530061
197	0x3d5ec4e3	0.054386985
198	0xbd15340e	-0.036426596
199	0xbc777a29	-0.015104809
200	0xbd8ccb00	-0.06874657
201	0x3de742ae	0.11292015
202	0x3d34ddd0	0.04415685
203	0xbe3b1d64	-0.1827293
204	0x3db18485	0.08667854
205	0xbd38b9da	-0.045099117
206	0x3b844fc0	0.0040378273
207	0x3e777794	0.24166709
208	0xbd831e48	-0.0640226
209	0x3cac1733	0.021007156
210	0x3cb53ef8	0.022124752
211	0x3d0ac6c7	0.033880975
212	0xbe3a8006	-0.182129
213	0x3d1350e1	0.035965804
214	0x3d6a02ec	0.057131693
215	0xbe15aded	-0.14617129
216	0xbdcb846b	-0.09937366
217	0x3ca35cbc	0.01994168
218	0xbdf322a7	-0.11871844
219	0xbe3c4220	-0.183846
220	0x3e300c77	0.17192255
221	0x3e0d9d2e	0.1382949
222	0xbdaf2c36	-0.085533544
223	0xbe5b83f5	-0.21437056
224	0xbd4f2af4	-0.050578073
225	0x3dc3c963	0.09559896
226	0xbd4fe53a	-0.050755717
227	0xbc57bf3c	-0.013168152
228	0x3bd925f2	0.006626838
229	0x3d16746d	0.036732126
230	0xbd13e124	-0.036103383
231	0x3dc149f1	0.09437931
232	0x3e953788	0.2914393
233	0x3e2c49f9	0.16825093
234	0x3d89749c	0.067116946
235	0x3bcb952d	0.0062128515
236	0xbc88a15a	-0.0166785
237	0xbe5ad9bd	-0.21372123
238	0x3da94d3b	0.08266684
239	0x3c9f5eb6	0.019454341
240	0xbd881699	-0.06644935
241	0xbdf38077	-0.11889737
242	0x3d8e8797	0.069594555
243	0xbe50fdbf	-0.20409296
244	0x3d8b1fb2	0.06793155
245	0x3e125794	0.14291221
246	0xbda35741	-0.07975627
247	0xbd79da4f	-0.06099921
248	0x3b959144	0.004564436
249	0x3b83db01	0.00402391
250	0xbd56949d	-0.052387822
251	0xbe212cb0	-0.15739703
252	0x3eaf7f2e	0.34276718
253	0xbd81fcc3	-0.063470386
254	0x3d710ef9	0.05885217
255	0xbe7069da	-0.23477879

layers.0.wix.r_weight f4 [1, 32]
0	0xbf5dd055	-0.86646014
1	0xbef1da61	-0.47236922
2	0xbf1b579a	-0.60680544
3	0xbf4465cb	-0.76717824
4	0xbe739058	-0.23785532
5	0xbf89f5bf	-1.0778121
6	0xbec060c6	-0.37573832
7	0xbf63e3ab	-0.8901927
8	0xbe8c23d6	-0.2737109
9	0xbe57202b	-0.21008365
10	0xbea72136	-0.32642525
11	0xbe1a9392	-0.15095356
12	0x3da19bb2	0.07891025
13	0xbde7f94d	-0.11326847
14	0xbf5e3401	-0.867981
15	0x3d447762	0.047965415
16	0xbe652a3b	-0.22379391
17	0xbcb7544e	-0.022379067
18	0xbecdf55f	-0.40226266
19	0xbe0246d0	-0.12722325
20	0x3e32c3b7	0.17457472
21	0xbf1ad14a	-0.604756
22	0xbe84aaed	-0.25911656
23	0xbe81b31e	-0.25331968
24	0xbeb596ff	-0.35466763
25	0xbedce754	-0.4314524
26	0xbe996d9d	-0.2996644
27	0xbe806570	-0.2507739
28	0xbc050053	-0.008117753
29	0xbed35769	-0.41277626
30	0xbefc785c	-0.49310577
31	0xbdadc29a	-0.08484383

layers.0.wix.i_weight f4 [1, 32]
0	0xbe24a41d	-0.16078229
1	0x3cf73ae8	0.030179456
2	0xbe5072bf	-0.20356272
3	0x3ead8bab	0.3389562
4	0xbcbcbfb7	-0.023040636
5	0xbe05ebba	-0.13078204
6	0xbe84bdc4	-0.2592603
7	0xbd9ac450	-0.07556975
8	0xbd395d71	-0.04525513
9	0x3c8b98b8	0.017040595
10	0xbb59dfa5	-0.0033244875
11	0x3e239faa	0.15978876
12	0x3c3da1fc	0.011574265
13	0xbe827b19	-0.2548454
14	0xbca0633f	-0.019578574
15	0xbda42d5a	-0.080164626
16	0x3c47d511	0.012196795
17	0xbdf3c4cd	-0.11902771
18	0xbe905a07	-0.28193685
19	0xbd033c92	-0.032040186
20	0xbd8513ca	-0.06497915
21	0xbd39da73	-0.045374345
22	0xbc9c002c	-0.01904305
23	0x3d47d6bc	0.04878877
24	0xbed4aca4	-0.41537964
25	0xbdb49f0e	-0.088194
26	0xbe7c78f3	-0.24655513
27	0xbde2dc5d	-0.11077187
28	0xbea1d8ce	-0.3161072
29	0xbd25af3a	-0.040450312
30	0x3cb06d76	0.02153657
31	0xbe8dd64b	-0.27702555

layers.0.wix.j_weight f4 [1, 32]
0	0xbdd92e2a	-0.10604508
1	0xbe05d5b2	-0.130698
2	0xbeb8a706	-0.3606493
3	0xbf08ef34	-0.53489995
4	0x3df0b0a7	0.11752444
5	0xbe049e90	-0.12951112
6	0xbeb906a8	-0.3613789
7	0xbe38a84b	-0.18032949
8	0xbce1284b	-0.027485033
9	0x3c5482d2	0.012970643
10	0x3d44714d	0.047959615
11	0xbca47c37	-0.020078762
12	0x3d2ddc15	0.042446215
13	0x3ead252f	0.3381743
14	0xbdb82b0e	-0.08992587
15	0xbd3913a2	-0.04518474
16	0x3bd776c7	0.0065754387
17	0xbd7d48e8	-0.061837107
18	0x3e6a1479	0.22859372
19	0x3db5ed61	0.08883167
20	0x3cc2b517	0.023767991
21	0x3dc156a3	0.09440353
22	0x3e763a12	0.2404559
23	0xbdfd18a3	-0.12358215
24	0xbdb8c09d	-0.09021113
25	0x3e45bd4a	0.1931049
26	0xbd6e2fe2	-0.058151133
27	0x3db7c4c6	0.089730784
28	0xbe1e9456	-0.15486273
29	0x3c19e9c6	0.009394115
30	0xbd64ae70	-0.05583042
31	0x3d22ec3f	0.039776083

layers.0.wix.k_weight f4 [1, 32]
0	0x3e2d6e73	0.16936664
1	0x3d789200	0.06068611
2	0x3cf8325f	0.030297456
3	0x3ed21d07	0.4103777
4	0xbe0fc37d	-0.14039417
5	0xbec46142	-0.38355452
6	0x3df55a58	0.11980122
7	0x3d852db1	0.065028556
8	0xbc8bae58	-0.017050907
9	0x3d53a846	0.05167415
10	0xbe174b70	-0.14774871
11	0xbc27c42e	-0.010239644
12	0xbc6821fb	-0.014168258
13	0xbd7362b5	-0.059420306
14	0x3e26210e	0.16223547
15	0x3d84a56f	0.064768665
16	0x3d83c8d7	0.064347915
17	0xbc47ffd2	-0.012206988
18	0x3d104e36	0.035230838
19	0x3e253e48	0.1613704
20	0x3dc0c81d	0.094131686
21	0x3c4bbaf7	0.012434713
22	0x3dc13c8e	0.09435378
23	0x3ea9a848	0.331362
24	0xbd4d1cff	-0.05007648
25	0xbc96dc3f	-0.018415568
26	0x3e5c3b31	0.21506955
27	0x3e21e9d1	0.1581185
28	0x3e830398	0.2558868
29	0xbe2f2489	-0.17103781
30	0xbd580fe3	-0.052749526
31	0xbc802253	-0.015641367

layers.0.wix.bias f4 [128]
0	0xc00ae1e0	-2.1700363
1	0xbf725fd5	-0.9467748
2	0xbff1c511	-1.8888265
3	0xbff36460	-1.9015007
4	0xbf9a3727	-1.2048081
5	0xc00fb42b	-2.2453716
6	0xbfeb3846	-1.8376548
7	0xc00b7548	-2.1790333
8	0xbe86bb81	-0.2631493
9	0xbfa26438	-1.2686834
10	0x3e34530b	0.17609803
11	0xbe2d948a	-0.16951194
12	0xbe5abce2	-0.21361116
13	0xbe9eae72	-0.30992466
14	0xc031d74d	-2.778766
15	0xbec5b40b	-0.38613924
16	0xbe98c895	-0.29840532
17	0x3da16297	0.07880133
18	0xc000e8a7	-2.0142
19	0x3defb8ba	0.11705156
20	0xbd99dd88	-0.07512957
21	0xbfc7c12a	-1.5605824
22	0xbd0b0d19	-0.033948038
23	0xbf92ce06	-1.1469123
24	0xc008acc6	-2.1355453
25	0xbfb11062	-1.3833125
26	0xbe98b01e	-0.29821867
27	0xbdfad763	-0.12248113
28	0x3c9c714c	0.019096993
29	0xbfde51fb	-1.7368768
30	0xbf834b1b	-1.0257295
31	0xbbd5c57a	-0.006523785
32	0xc0167472	-2.3508573
33	0xbf828555	-1.019694
34	0xbfe7c483	-1.8106846
35	0xc0077f1e	-2.1171336
36	0xbf8e10ac	-1.1098838
37	0xc00a2033	-2.1582153
38	0xbfbac11c	-1.4590182
39	0xc012f8db	-2.296439
40	0xbf14b792	-0.58092606
41	0xbf904c73	-1.127333
42	0x3d8079ae	0.062732086
43	0xbe158946	-0.14603147
44	0xbca35ab9	-0.01994072
45	0xbe925f88	-0.2858851
46	0xc02e10e2	-2.7197804
47	0xbf10f96b	-0.5663058
48	0xbe96c5b6	-0.29447716
49	0x3e2b559b	0.16731875
50	0xbfdf9268	-1.7466555
51	0x3e152997	0.14566647
52	0xbd892e0b	-0.06698235
53	0xbfb809ea	-1.4378026
54	0xbdbb38a9	-0.091416664
55	0xbfa7088d	-1.3049484
56	0xbfe18b4e	-1.7620637
57	0xbfb3c022	-1.4043009
58	0xbee706cd	-0.45122376
59	0x3e0440af	0.129153
60	0x3d6db941	0.058038
61	0xbf9e68a3	-1.2375683
62	0xbf8baeee	-1.0912759
63	0x3dcb5b41	0.09929515
64	0xc00e2276	-2.2208533
65	0xbf8201af	-1.0156764
66	0xbfd5d7b9	-1.6706458
67	0xbfdfa231	-1.7471372
68	0xbfa589b3	-1.2932647
69	0xc00d2710	-2.2055092
70	0xbfafd3d9	-1.3736526
71	0xc013e4ec	-2.3108473
72	0xbe87bc00	-0.2651062
73	0xbf8ead16	-1.1146572
74	0xbcd42fdd	-0.02590173
75	0xbe5437cb	-0.20724408
76	0xbcd01a59	-0.025403189
77	0xbe6b3ca8	-0.22972357
78	0xc0293c10	-2.644291
79	0xbea6f059	-0.32605246
80	0xbe847a95	-0.25874773
81	0x3e025021	0.12725879
82	0xbfea584e	-1.8308198
83	0x3d5cfc53	0.053951573
84	0xbc97df30	-0.018539041
85	0xbfc05ced	-1.5028359
86	0xbc4ff09c	-0.012691643
87	0xbf8a01ed	-1.0781838
88	0xc0076856	-2.1157432
89	0xbfb9e7b1	-1.4523832
90	0xbf18b53b	-0.59651536
91	0x3d517f92	0.05114705
92	0xbd10afa5	-0.035323758
93	0xbfc22c5e	-1.516979
94	0xbf8718bc	-1.0554423
95	0x3b31efed	0.0027151064
96	0xc0097af4	-2.1481295
97	0xbfc9f4f0	-1.5777874
98	0xbfc8b4b9	-1.5680152
99	0xbff4f66a	-1.91377
100	0xbf78f7c7	-0.9725308
101	0xbfffa450	-1.9972019
102	0xbfb02a3d	-1.376289
103	0xc0139924	-2.306222
104	0xbecf25ba	-0.4045847
105	0xbf5d0d28	-0.863482
106	0x3e66c502	0.2253609
107	0xbe136662	-0.14394525
108	0xbcc3f823	-0.023922032
109	0xbe2fb48c	-0.17158717
110	0xc02d2d76	-2.7058997
111	0xbf3e5b2a	-0.74357855
112	0xbeb6908f	-0.35657164
113	0x3ddcc0cb	0.1077896
114	0xbfcf21e5	-1.6182219
115	0x3e2d361f	0.16915177
116	0xbd94daaf	-0.07268273
117	0xbfa8dd8b	-1.319261
118	0xbc2598a0	-0.010107189
119	0xbf89e292	-1.0772269
120	0xc00069b6	-2.006452
121	0xbf8b2e6f	-1.0873545
122	0xbe912dbd	-0.28355208
123	0x3dc7392a	0.097277
124	0x3e3ce90d	0.18448277
125	0xbfa66a0d	-1.3001114
126	0xbff5654d	-1.917154
127	0x3db10a48	0.08644539

layers.0.uih.r_weight f4 [32, 32]
0	0xbe18278e	-0.14858839
1	0x3e890f06	0.26769274
2	0x3e4b5ffb	0.19860832
3	0x3ccebaef	0.025235621
4	0xbddb50a6	-0.10708742
5	0x3d95650d	0.072946645
6	0x3e331c55	0.17491277
7	0xbd8114b6	-0.063027784
8	0xbda3f009	-0.080047674
9	0x3dab5b4f	0.08367025
10	0xbe858608	-0.2607882
11	0xbd9aacbb	-0.07552477
12	0xbe18f8fd	-0.14938731
13	0xbe194606	-0.14968118
14	0x3e11739f	0.14204262
15	0x3d63a4c0	0.05557704
16	0xbdc686c6	-0.09693675
17	0x3d9d2f7f	0.07675075
18	0x3db81976	0.08989231
19	0x3e1f3a1b	0.15549509
20	0x3e03f176	0.12885079
21	0x3db997e2	0.090621725
22	0xbe33a897	-0.1754478
23	0x3d6a4372	0.057193227
24	0xbe4467bd	-0.19180198
25	0xbe12cf83	-0.14336972
26	0xbe4816a0	-0.19539881
27	0x3dd35f02	0.10320856
28	0xbdda9dc7	-0.10674625
29	0xbdfc007f	-0.12304782
30	0x3d901cb6	0.07036726
31	0xbd714355	-0.058902103
32	0xbe5436df	-0.20724057
33	0xbd083288	-0.033251315
34	0xbbadd72b	-0.005305191
35	0xbd8edf63	-0.069762014
36	0xbe5465f8	-0.20742023
37	0xbd86168e	-0.06547271
38	0x3d97ba41	0.07408572
39	0x3df924a5	0.121651925
40	0x3e9f2f3e	0.3109073
41	0x3db5e790	0.08882058
42	0xbd20a838	-0.039222926
43	0x3e2b5a2e	0.1673362
44	0xbe54e0f4	-0.20788938
45	0xbe104d6f	-0.14092039
46	0x3d342623	0.043981683
47	0x3dc13529	0.094339676
48	0xbe8abf64	-0.27099144
49	0xbe93d28c	-0.28871572
50	0x3e0e3aee	0.13889667
51	0xbdaec1fc	-0.08533093
52	0x3db1a31a	0.08673687
53	0xbdb1f3d6	-0.08689086
54	0xbe85f1d7	-0.26161072
55	0xbe735475	-0.23762687
56	0xbce35bc7	-0.027753724
57	0xbe058a5d	-0.13041063
58	0xbe2052d5	-0.15656598
59	0xbc87148d	-0.016489292
60	0x3d4511c6	0.048112653
61	0x3da73c44	0.08165792
62	0x3cc7d034	0.024391271
63	0xbd7fce60	-0.062452674
64	0xbe44975f	-0.19198368
65	0xbede1e63	-0.43382558
66	0x3dbbf2ce	0.09177171
67	0x3c0b36c1	0.008496941
68	0x3de4b7a7	0.111678414
69	0x3e4205b1	0.18947484
70	0x3e4f68a8	0.20254767
71	0x3e3dd8f6	0.18539795
72	0x3d8d69db	0.06904956
73	0xbe12da5f	-0.14341114
74	0x3e9cc0f1	0.30615953
75	0xbd3b16dd	-0.0456761
76	0x3ecf7702	0.40520483
77	0x3e328a1a	0.17435494
78	0x3db629fc	0.08894727
79	0xbdcbd098	-0.099518955
80	0xbdc38a7c	-0.09547898
81	0x3e594685	0.21218307
82	0xbd1d8c4b	-0.038463872
83	0x3e060dc7	0.13091193
84	0x3d90cfe8	0.07070905
85	0x3d5481d1	0.051881615
86	0x3dcbe9e7	0.09956723
87	0x3ed3a1c9	0.4133437
88	0xbe863db8	-0.26218963
89	0xbe24fb84	-0.1611157
90	0x3e8e2f35	0.2777039
91	0x3eb212aa	0.34779865
92	0xbe2da81b	-0.16958658
93	0x3de22482	0.110421196
94	0x3dc6f595	0.0971481
95	0xbd941e8e	-0.0723239
96	0x3e0ee69e	0.13955161
97	0xbe2db824	-0.16964775
98	0x3c9e1ac8	0.01929988
99	0x3cf1b8fb	0.02950715
100	0x3dd57acf	0.104238145
101	0xbdd507a8	-0.10401851
102	0xbe2fcd09	-0.17168058
103	0x3d8ab49b	0.06772729
104	0xbeb67924	-0.35639298
105	0xbddcf651	-0.107891686
106	0x3e03560c	0.12825793
107	0x3e1cecd4	0.15324718
108	0x3d40522c	0.046953365
109	0x3ddb3fb1	0.107055075
110	0xbcb61f3f	-0.022231696
111	0xbea45fdb	-0.32104382
112	0x3c0a2f2c	0.008434098
113	0x3d994a05	0.07484821
114	0x3ef0673e	0.46953768
115	0x3e3eb337	0.18623053
116	0x3e2555ba	0.16145983
117	0x3e2e35cf	0.17012714
118	0x3ebd93b5	0.37026754
119	0x3d30b43d	0.04314064
120	0xbe3d8ee6	-0.18511543
121	0xbe7aa877	-0.24478327
122	0x3e72ab44	0.23698145
123	0x3efedef0	0.49779463
124	0x3d9ed096	0.07754628
125	0xbc853c35	-0.01626406
126	0x3db341ce	0.087527856
127	0x3e4d9d4b	0.20079534
128	0x3e09a7bc	0.13442892
129	0xbe2a2bcf	-0.16618274
130	0x3de0cc2a	0.10976441
131	0x3e7c8871	0.24661423
132	0x3dba575f	0.09098696
133	0x3e0accdc	0.1355471
134	0x3e418bc1	0.18900968
135	0xbd83cc13	-0.064354084
136	0xbe818409	-0.25296047
137	0xbd24fe6a	-0.04028169
138	0x3e6ee9d4	0.23331386
139	0x3def910e	0.11697589
140	0x3e4aa94b	0.19791143
141	0xbe45c216	-0.19312319
142	0xbd85de43	-0.06536534
143	0xbe0fa2b5	-0.14026912
144	0x3db97009	0.09054572
145	0x3ecacbb7	0.39608547
146	0x3e210aee	0.15726826
147	0x3de5468d	0.11195097
148	0xbe12130c	-0.14265078
149	0xbce69f9e	-0.028152283
150	0x3e264408	0.1623689
151	0x3e968a39	0.2940233
152	0x3d4d2659	0.0500854
153	0xbda0edf3	-0.07857885
154	0x3cf0cc2d	0.029394234
155	0x3d94aa75	0.072590746
156	0x3e7d8f8f	0.24761795
157	0x3e465309	0.19367613
158	0x3c4c58f5	0.012472381
159	0x3ecc2f62	0.398799
160	0xbdae6d61	-0.08516956
161	0xbe883c99	-0.26608732
162	0xbdb4db29	-0.08830864
163	0xbe899a24	-0.26875412
164	0xbe154859	-0.1457838
165	0x3e09ce3c	0.13457578
166	0xbc85a752	-0.016315136
167	0x3d9a0094	0.075196415
168	0x3e836837	0.25665447
169	0xbe40b368	-0.18818438
170	0x3da638d0	0.08116305
171	0x3e6fc5b3	0.2341526
172	0x3ea4634b	0.32107005
173	0xbe89dc29	-0.2692578
174	0x3d8de9a0	0.06929326
175	0xbdc09252	-0.094029084
176	0x3e3f72f0	0.18696189
177	0xbe247eb6	-0.16063961
178	0x3e86fbb4	0.2636391
179	0x3d01bd9c	0.031674966
180	0x3dcfd19d	0.101474024
181	0xbd327301	-0.043566708
182	0xbd74ed17	-0.05979642
183	0x3d254e2c	0.040357754
184	0xbd3ed839	-0.046592925
185	0xbd5d2aaa	-0.053995766
186	0x3e9a97d8	0.30193973
187	0xbd4948c2	-0.049141653
188	0x3c3d3e2a	0.011550466
189	0xbe112553	-0.14174394
190	0x3865ba94	5.477162e-05
191	0x3d9649fb	0.073383294
192	0x3dff3431	0.124611266
193	0x3db7007f	0.089356415
194	0xbd10246d	-0.03519099
195	0xbdcb9f2f	-0.09942471
196	0x3ca7aa3b	0.020466914
197	0xbe68c1a5	-0.2273012
198	0xbe292705	-0.16518791
199	0xbd7c96f4	-0.061667398
200	0xbe609ee4	-0.21935612
201	0xbe42b19a	-0.19013062
202	0x3bf01746	0.007326993
203	0xbe0a182c	-0.13485783
204	0xbdc80989	-0.09767444
205	0xbe69c876	-0.22830376
206	0xbcbc001f	-0.022949276
207	0x3e21f2e3	0.1581531
208	0xbdb5b0ee	-0.08871637
209	0xbd960f9c	-0.07327196
210	0xbe031d43	-0.12804131
211	0x3bb41655	0.0054958262
212	0x3d1f22de	0.03885161
213	0xbc4955af	-0.012288495
214	0xbdf12339	-0.11774296
215	0xbe459deb	-0.19298522
216	0x3d9eb02f	0.07748448
217	0x3e440bd5	0.19145139
218	0xbd2715cc	-0.04079227
219	0x3e78aea9	0.24285378
220	0x3e14b574	0.14522344
221	0x3e0db338	0.13837898
222	0xbddefc99	-0.10888023
223	0xbdf7ee2c	-0.121059746
224	0xbb134a69	-0.0022474772
225	0xbe72e6eb	-0.237209
226	0x3e37ebd8	0.17961061
227	0xbd2aab22	-0.04166711
228	0xbd0c426e	-0.03424304
229	0xbe0dc43e	-0.13844392
230	0xbe0e1397	-0.1387466
231	0x3db6cc12	0.08925642
232	0xbe729131	-0.23688199
233	0x3e1849b1	0.14871861
234	0x3d20c36b	0.039248865
235	0xbd19926a	-0.037493147
236	0xbe131fa7	-0.14367543
237	0x3d04c2c5	0.03241231
238	0xbe29c597	-0.16579281
239	0x3ca89af5	0.020581702
240	0x3d552442	0.05203653
241	0x3d12ef83	0.035872947
242	0x3e080a36	0.13285145
243	0x3d7a358d	0.061086226
244	0xbe67ee8c	-0.22649592
245	0x3df85c48	0.12126976
246	0xbd06c3a8	-0.032901436
247	0xbdc6bb9e	-0.09703754
248	0x3e83b089	0.25720623
249	0x3e0fe842	0.14053443
250	0xbd84cb17	-0.06484049
251	0x3e295c1b	0.16539042
252	0xbe6cc00c	-0.23120135
253	0x3e98e93f	0.29865453
254	0xbdc2750c	-0.09494981
255	0x3d41d334	0.04732056
