models/QLSTM_mse_epochs13.pth (torch, 168347 bytes, 76 tensors)

layers.0.wfx.r_weight f4 [1, 32]
0	0xbf1a4a9c	-0.60270095
1	0xbe9399d5	-0.28828302
2	0xbf152ecf	-0.5827455
3	0xbebb4aa1	-0.36580375
4	0xbf13f5af	-0.5779676
5	0xbf28f689	-0.6600118
6	0xbf21b5d1	-0.63168055
7	0xbf0ec713	-0.55772513
8	0xbddd1676	-0.107953
9	0xbea0f93e	-0.31440157
10	0xbee7c57b	-0.45267853
11	0xbec71efc	-0.38890827
12	0xbf16410b	-0.58693
13	0xbf3b6314	-0.73198056
14	0xbe9bf333	-0.30458984
15	0xbe46c8a0	-0.1941247
16	0xbf10b09b	-0.5651948
17	0xbe047d04	-0.12938315
18	0xbf3e98f7	-0.74452156
19	0x3e0de576	0.13857064
20	0xbf22b310	-0.6355448
21	0xbe8143ec	-0.25247133
22	0xbf08bb96	-0.53411233
23	0xbeb1da4b	-0.34736857
24	0xbf17b037	-0.5925326
25	0xbf2a74f9	-0.66584736
26	0xbee8fac8	-0.4550383
27	0xbf562008	-0.83642626
28	0xbecc8670	-0.39946318
29	0xbef9cf33	-0.48790893
30	0xbeb38090	-0.35059023
31	0xbf73c361	-0.9522

layers.0.wfx.i_weight f4 [1, 32]
0	0x3f1e5f33	0.6186401
1	0x3ec90f3e	0.3926944
2	0xbda0fffb	-0.078613244
3	0xbcb43488	-0.021997705
4	0x3df7d9bd	0.12102077
5	0x3df379c1	0.11888457
6	0x3e4b7bbd	0.19871421
7	0xbceef2ad	-0.029168451
8	0x3e5a9800	0.21347046
9	0x3dc1550b	0.09440049
10	0xbdddb110	-0.108247876
11	0x3c3d7260	0.011562914
12	0xbda8c662	-0.082409635
13	0x3d97155e	0.07377122
14	0x3d2abd4f	0.041684445
15	0x3e799502	0.24373248
16	0xbd113296	-0.035448633
17	0x3cfa2f41	0.03054011
18	0x3d050d38	0.03248331
19	0x3dd83529	0.105570145
20	0xbd1695b0	-0.036763847
21	0x3c49fb77	0.01232802
22	0x3e17643f	0.14784335
23	0x3dadb63b	0.08482023
24	0xbe8bf418	-0.27334666
25	0x3db08c2e	0.08620487
26	0xbcba593b	-0.022747627
27	0x3e4fcadf	0.20292233
28	0x3c36bf72	0.011154043
29	0x3e87a2a4	0.26491272
30	0x3e10427a	0.14087859
31	0x3d116601	0.03549767

layers.0.wfx.j_weight f4 [1, 32]
0	0xbe12ba50	-0.14328885
1	0x3ecce043	0.40014848
2	0x3cde2f18	0.027122065
3	0xbe045a29	-0.12925018
4	0x3dadc48c	0.08484754
5	0x3d6e099c	0.058114633
6	0xbdb3ef1f	-0.08785843
7	0xbdb96834	-0.09053078
8	0x3e8d8be2	0.27645785
9	0x3e79c075	0.24389823
10	0xbd0a2ad7	-0.03373226
11	0x3d71a648	0.05899647
12	0x3dd775bf	0.10520505
13	0xbda97b29	-0.08275444
14	0x3c024638	0.007951312
15	0x3ce6a083	0.02815271
16	0xbd86dbcb	-0.06584891
17	0xbd1d98a1	-0.038475636
18	0xbd708fe4	-0.058730975
19	0xbd0a57dd	-0.0337752
20	0x3d619dcb	0.055082124
21	0x3d0f5a85	0.034998436
22	0x3e8be73d	0.27324858
23	0xbc00735c	-0.007840004
24	0x3d5f4550	0.05450946
25	0xbe099079	-0.13434018
26	0x3d836ea9	0.06417591
27	0x3dbbb650	0.09165633
28	0x3d980464	0.074227124
29	0xbe20d284	-0.15705305
30	0xbcf5c2a8	-0.030000046
31	0xbd9bda0d	-0.07609949

layers.0.wfx.k_weight f4 [1, 32]
0	0xbe5c55d9	-0.21517123
1	0xbe38b516	-0.18037829
2	0x3ba79cd0	0.005115129
3	0xbdadb5c0	-0.08481932
4	0x3d9062c3	0.07050087
5	0xbd7f25d6	-0.062291943
6	0xbd187c4c	-0.037227914
7	0x3e1a4bd7	0.15067993
8	0x3cde64e5	0.02714772
9	0xbc02996c	-0.007971149
10	0xbc384681	-0.011247278
11	0x3d950f71	0.07278336
12	0x3e3e6ea7	0.18596898
13	0xbd02794d	-0.031853963
14	0x3dd90f43	0.10598614
15	0x3dfd05a8	0.123545945
16	0x3d0ec83b	0.034858923
17	0xbd917b00	-0.071035385
18	0xbd31e213	-0.04342849
19	0xbd2bdd6a	-0.041959204
20	0xbd700a69	-0.058603678
21	0xbd137ac6	-0.036005758
22	0x3e8bfd04	0.27341473
23	0x3b51014d	0.0031891644
24	0x3eee9392	0.46596962
25	0xbdad2183	-0.084536575
26	0xbdfd6c15	-0.12374131
27	0x3e112bb1	0.14176823
28	0xbd13b40a	-0.03606037
29	0xbe1ff4de	-0.15620753
30	0xbd4a39bc	-0.049371466
31	0xbe08aa0f	-0.13346122

layers.0.wfx.bias f4 [128]
0	0xbf1611e7	-0.58621067
1	0xbe7b6005	-0.24548347
2	0xbf6c20c6	-0.9223751
3	0xbf59f8a5	-0.85145026
4	0xbefcbe4a	-0.4936393
5	0xbf7f12bb	-0.99637955
6	0xbf079105	-0.5295566
7	0xbf4ebd22	-0.80757344
8	0xbdd2b490	-0.10288346
9	0xbd5ad5ae	-0.053426437
10	0xbf239842	-0.639042
11	0xbe694116	-0.22778735
12	0xbf32253f	-0.69588083
13	0xbd878790	-0.06617653
14	0xbf3bd704	-0.7337496
15	0xbda47674	-0.08030406
16	0xbf26e0ba	-0.65186656
17	0xbf5f8dbc	-0.87325644
18	0xbf81744d	-1.0113617
19	0xbda40dba	-0.08010431
20	0xbf641fb4	-0.89110875
21	0xbf2bb9a5	-0.67080146
22	0xbf94d7c2	-1.1628344
23	0xbf7c3a0f	-0.9852609
24	0xbf06e95f	-0.52699846
25	0xbf4473b2	-0.7673904
26	0xbf6cfa4a	-0.9256941
27	0xbf3d6c5d	-0.73993474
28	0xbf71b1bc	-0.94411826
29	0xbf8f7628	-1.1207933
30	0xbf721d94	-0.9457638
31	0xbee5474e	-0.44780964
32	0xbf2b972a	-0.67027533
33	0xbef519f7	-0.47871372
34	0xbf5d1a5c	-0.86368346
35	0xbf855d7a	-1.0419152
36	0xbe865be9	-0.26241997
37	0xbf95a0e0	-1.168972
38	0xbf333676	-0.70004976
39	0xbf4cd75c	-0.8001611
40	0x3cf563a2	0.029954735
41	0xbdee2da2	-0.116297975
42	0xbf2f5fb1	-0.6850539
43	0xbe78a440	-0.24281406
44	0xbf1a4ac2	-0.6027032
45	0xbdf44f43	-0.119291805
46	0xbf4d949f	-0.803049
47	0xbe9de7fd	-0.30841056
48	0xbf5383cb	-0.82622975
49	0xbf46d249	-0.7766462
50	0xbf790f14	-0.9728863
51	0xbe85d188	-0.26136422
52	0xbf87e5c0	-1.0616989
53	0xbf1e82fd	-0.6191862
54	0xbf31a66f	-0.6939458
55	0xbf85e9e3	-1.0462002
56	0xbeee6829	-0.46563843
57	0xbf685996	-0.907617
58	0xbf7c0cd2	-0.9845706
59	0xbf8482d4	-1.0352426
60	0xbf834550	-1.0255527
61	0xbf791e30	-0.9731169
62	0xbf5c21a3	-0.85988826
63	0xbf72266e	-0.9458989
64	0xbf04e1a1	-0.5190678
65	0xbe9639c7	-0.29340956
66	0xbf75cb7d	-0.96013623
67	0xbf6e41ab	-0.9306895
68	0xbe8b595c	-0.27216613
69	0xbf792a3c	-0.9733007
70	0xbf63324d	-0.8874863
71	0xbf70fd7a	-0.94136775
72	0x3e27c99e	0.16385505
73	0xbde02c8d	-0.109459974
74	0xbf786d0f	-0.9704141
75	0xbe71399a	-0.2355713
76	0xbf0afabf	-0.5428886
77	0xbe19db33	-0.15025024
78	0xbf4d484a	-0.8018843
79	0xbe1dd66e	-0.1541383
80	0xbf3dfe49	-0.74216133
81	0xbf52f18a	-0.8239981
82	0xbf7274ad	-0.94709283
83	0xbe02f690	-0.12789369
84	0xbf1c1207	-0.6096501
85	0xbf220466	-0.6328796
86	0xbf6044d6	-0.87605035
87	0xbf850780	-1.0392914
88	0xbea1cb09	-0.31600216
89	0xbf1e3941	-0.6180611
90	0xbf733314	-0.94999814
91	0xbf5a29b3	-0.8521988
92	0xbf5faf4d	-0.8737686
93	0xbf697ea5	-0.9120887
94	0xbf6909e6	-0.9103073
95	0xbf2d194a	-0.67616713
96	0xbf5a093b	-0.85170335
97	0xbed365d4	-0.41288626
98	0xbf65e7b6	-0.8980669
99	0xbf6364b4	-0.88825536
100	0xbe845a7c	-0.25850284
101	0xbf71e301	-0.94487005
102	0xbf06c9ec	-0.5265186
103	0xbf6cae7a	-0.9245373
104	0xbe1f8c32	-0.15580824
105	0xbdbcd81b	-0.09220906
106	0xbf1736c7	-0.5906796
107	0xbe22351a	-0.15840569
108	0xbf3f96e7	-0.74839634
109	0xbd9250c1	-0.07144309
110	0xbf3df843	-0.7420694
111	0xbe699d0b	-0.22813813
112	0xbf357463	-0.7088072
113	0xbf5fb6f0	-0.87388515
114	0xbf86fef5	-1.0546557
115	0xbbe54c14	-0.0069975946
116	0xbf644a90	-0.89176273
117	0xbf251c9e	-0.6449679
118	0xbf53fc01	-0.828064
119	0xbf8643f5	-1.0489489
120	0x3ccd6a08	0.025074974
121	0xbf2feadf	-0.6871776
122	0xbf6069f2	-0.8766166
123	0xbf47a5dc	-0.77987456
124	0xbf64d275	-0.8938363
125	0xbf531775	-0.8245767
126	0xbf47eafc	-0.7809293
127	0xbf3eac14	-0.7448132

layers.0.ufh.r_weight f4 [32, 32]
0	0xbbbb8051	-0.0057220836
1	0xbeadb205	-0.3392488
2	0xbe32dc83	-0.17466931
3	0x3e581de2	0.2110515
4	0xbf281da9	-0.6567026
5	0xbe159e87	-0.14611255
6	0x3dec7d20	0.11547303
7	0xbca6121b	-0.020272305
8	0x3d49b852	0.049248047
9	0xbea298f3	-0.31757316
10	0x3df88a30	0.12135732
11	0x3ec7ad28	0.38999295
12	0x3c973c8c	0.018461488
13	0xbef264f7	-0.47342655
14	0x3d8af9dc	0.06785938
15	0x3e4dc1dd	0.20093484
16	0xbd8f39c0	-0.06993437
17	0x3dc9ba40	0.098499775
18	0xbd886161	-0.066591986
19	0xbe3c9614	-0.18416625
20	0x3e4f9a84	0.20273787
21	0xbded8c89	-0.115990706
22	0x3d584835	0.052803237
23	0xbd20322b	-0.039110344
24	0x3d561c06	0.05227282
25	0xbe3c3a1d	-0.18381543
26	0x3e4b611c	0.19861263
27	0x3c9599a0	0.01826173
28	0x3df8a669	0.12141115
29	0x3d62bead	0.055357624
30	0x3d417006	0.047225975
31	0x3db11fba	0.086486295
32	0xbe434aad	-0.19071455
33	0x3d5f00a4	0.05444397
34	0x3ddada34	0.1068615
35	0x3d99288c	0.07478437
36	0x3f409ab0	0.75236034
37	0xbd47e547	-0.04880264
38	0x3c9159c6	0.017743003
39	0xbde0cfc6	-0.1097713
40	0x3d83718c	0.06418142
41	0x3ea134c3	0.31485566
42	0x3d43043d	0.047611464
43	0x3eaeba82	0.3412667
44	0x3ccff754	0.02538649
45	0x3edf1430	0.4357009
46	0x3da98cff	0.08278846
47	0x3d6f6591	0.05844647
48	0xbe038e4d	-0.12847252
49	0x3eb38af1	0.3506694
50	0x3c3f68b6	0.01168268
51	0x3e83e6f8	0.25762153
52	0xbe49719b	-0.19672243
53	0x3dfb4e0a	0.12270744
54	0x3df4cec8	0.11953503
55	0xbddd7a79	-0.108143754
56	0xbe46099b	-0.19339602
57	0x3edee006	0.4353029
58	0xbdef10c2	-0.11673118
59	0x3e85ddb5	0.26145712
60	0x3e7f9d87	0.24962436
61	0x3e97deed	0.29662266
62	0x3c23c7d3	0.009996372
63	0x3de0c639	0.10975308
64	0xbe98bdb6	-0.29832238
65	0xbb72dff2	-0.0037059751
66	0x3da2c739	0.07948155
67	0xbe1e2b48	-0.15446198
68	0xbe08ad4d	-0.13347359
69	0x3d9902d1	0.0747124
70	0xbe714df4	-0.23564893
71	0xbe0efe4b	-0.13964193
72	0xbe7655f8	-0.24056232
73	0x3d620e9a	0.055189706
74	0x3e7b83a4	0.24561936
75	0xbe04e444	-0.12977701
76	0xbe2ff39e	-0.17182776
77	0x3e70a320	0.23499727
78	0xbd51ee3c	-0.05125259
79	0x3d9a453a	0.07532735
80	0xbdf1c141	-0.118044384
81	0x3dae4c70	0.08510673
82	0x3d38269c	0.044958696
83	0x3e3aadbf	0.18230341
84	0xbdc62273	-0.096745394
85	0xbe007445	-0.12544353
86	0xbea372ad	-0.31923428
87	0xbe54a61e	-0.20766494
88	0x3e045747	0.12923919
89	0x3ea1ecd9	0.31626013
90	0xbe370225	-0.17871912
91	0xbd25ae7a	-0.040449597
92	0x3c205ff1	0.009788499
93	0x387c99ab	6.0224596e-05
94	0x3e175a99	0.14780654
95	0x3e05a610	0.13051629
96	0x3b37f83d	0.0028071546
97	0xbdcc2906	-0.09968762
98	0xbe61860c	-0.22023791
99	0x3e458198	0.19287717
100	0xbdedbb4d	-0.116079904
101	0x3c5fcf3a	0.0136602465
102	0x3db1ef51	0.08688224
103	0xbd143949	-0.036187444
104	0xbd12f91a	-0.035882093
105	0xbd4c53ed	-0.049884725
106	0xbe30092f	-0.17191003
107	0xbea19004	-0.31555188
108	0x3dcba48c	0.09943494
109	0x3e9477b8	0.28997588
110	0xbd328e1d	-0.04359256
111	0xbdcf49b4	-0.1012148
112	0x3dbbf771	0.09178055
113	0x3c2c710b	0.010524998
114	0xbe0d660f	-0.13808464
115	0xbd29517a	-0.041337468
116	0x3bc9064d	0.0061347843
117	0xbe0fed6e	-0.14055416
118	0xbe505f2b	-0.20348804
119	0xbe814a1d	-0.25251856
120	0x3e329def	0.1744306
121	0x3c3539a2	0.011061104
122	0x3d8011bd	0.06253383
123	0x3de6548b	0.11246594
124	0x3c244872	0.010027038
125	0xbe185bc3	-0.14878754
126	0xbd2aeac2	-0.04172779
127	0x3e85629c	0.26051795
128	0xbdcbf3b3	-0.09958591
129	0x3be51e26	0.0069921194
130	0x3e18081a	0.1484684
131	0x3d13fbea	0.036128916
132	0x3e1606f8	0.14651096
133	0xbe35f77b	-0.17770188
134	0x3ddc523d	0.10757873
135	0xbdf7f9c8	-0.12108189
136	0x3da1b3d6	0.07895629
137	0x3d1ce105	0.038300533
138	0x3c2cdbfb	0.010550494
139	0x3e78cdeb	0.24297301
140	0x3eb41cc5	0.351782
141	0x3eaafa41	0.33394054
142	0x3db02c86	0.08602242
143	0x3e3122dd	0.17298456
144	0x3788e893	1.6320764e-05
145	0x3e895b7e	0.26827615
146	0x3dda90cb	0.10672148
147	0x3eed68e0	0.46369076
148	0xbd3dde4c	-0.046354577
149	0x3e88e977	0.2674062
150	0xbe15e14c	-0.14636725
151	0x3dfc66ab	0.1232427
152	0x3d95d777	0.07316487
153	0x3e762324	0.24036843
154	0x3e4a612f	0.19763635
155	0x3dea637f	0.114447586
156	0xbcc79817	-0.024364514
157	0xbc45a66f	-0.012063607
158	0x3e2b86ff	0.16750716
159	0x3d1e77e6	0.038688563
160	0xbd493bea	-0.049129404
161	0xbe861afc	-0.26192462
162	0xbe55c093	-0.20874242
163	0x3e6d2739	0.23159494
164	0x3c5ffe27	0.0136714345
165	0x3de06020	0.109558344
166	0x3d956b84	0.072958976
167	0x3d218c96	0.039440714
168	0xbd72ef91	-0.0593105
169	0xbe146c43	-0.14494424
170	0xbe4fa1e6	-0.20276603
171	0xbe6535ab	-0.22383754
172	0xbe1f4689	-0.15554251
173	0x3e519303	0.20466237
174	0xbe0ca616	-0.13735232
175	0xbd958f23	-0.07302692
176	0xbe22ac15	-0.15885957
177	0x3bdd9eda	0.0067633213
178	0x3d150056	0.036377273
179	0xbd08b2ff	-0.03337383
180	0xbe973154	-0.29529822
181	0x3e07a900	0.13248062
182	0xbddc2f7f	-0.10751247
183	0x3c88f0e5	0.01671643
184	0x3df9f4e5	0.12204913
185	0xbcc02bc7	-0.023458375
186	0x3e491f56	0.1964086
187	0xbd36cae4	-0.044627085
188	0x3e81f5ac	0.25382745
189	0x3d5286a1	0.051397923
190	0x3dff9b9c	0.12480852
191	0x3d1f6eec	0.038924143
192	0x3e01f787	0.1269208
193	0x3cfdb57b	0.030970326
194	0xbc8d5d4a	-0.017256398
195	0xbe3505b6	-0.1767796
196	0x3e6d224c	0.23157614
197	0x3c909174	0.017647482
198	0xbde1eb28	-0.110311806
199	0x3e3622cd	0.17786713
200	0x3e122f81	0.14275934
201	0xbd976367	-0.07392006
202	0xbdbae708	-0.09126097
203	0x3e12ff86	0.14355287
204	0xbcec3643	-0.028834468
205	0x3dc1a43f	0.094551556
206	0x3d9ef6ca	0.07761915
207	0xbe0a297c	-0.13492388
208	0xbdca4aa9	-0.098775215
209	0x3d6e201f	0.0581361
210	0xbdeead73	-0.116541766
211	0x3e44c035	0.19213946
212	0x3e5c9ee2	0.21544984
213	0x3d2070d6	0.03917011
214	0x3e27d845	0.16391094
215	0xbe131e36	-0.14366993
216	0x3e0a9c5f	0.13536213
217	0xbd967c4c	-0.073479265
218	0xbda54db2	-0.0807146
219	0x3ea23c4a	0.31686622
220	0x3db6fb54	0.08934656
221	0x3de22d6d	0.110438205
222	0x3d95d5d6	0.073161766
223	0x3c8d0479	0.017214047
224	0x3c85128c	0.016244195
225	0xbdc64a47	-0.09682136
226	0x3d04ffc0	0.032470465
227	0x3da702a6	0.08154802
228	0xbe6f4b2e	-0.23368523
229	0x3d4b1a6d	0.04958575
230	0x3e637e30	0.22216105
231	0xbdc5f85e	-0.09666513
232	0x3dfb0415	0.12256638
233	0x3d894679	0.06702895
234	0x3e801b66	0.25020903
235	0x3e8c1b1d	0.27364436
236	0x3e4b0142	0.19824699
237	0x3e039067	0.12848054
238	0x3d84d7ae	0.0648645
239	0x3e0cf75e	0.13766238
240	0x3c48111a	0.012211109
241	0xbd91d7f1	-0.07121266
242	0x3dcd72c4	0.100316554
243	0x3d2410ed	0.040055204
244	0x3e8d9dcc	0.27659452
245	0x3d7f335d	0.062304843
246	0x3e81a424	0.25320542
247	0xbe5371bc	-0.20648855
248	0xbe1ea1ef	-0.1549146
249	0xbccdb7fb	-0.025112143
250	0x3e1ef17e	0.1552181
251	0x3ac56113	0.0015058838
252	0xbdbc1ccd	-0.09185181
253	0x3d3278e4	0.04357232
254	0x3d75d16a	0.060014166
255	0xbddbde64	-0.10735777

layers.0.ufh.i_weight f4 [32, 32]
0	0xbc4174c1	-0.011807621
1	0x3e4b9125	0.19879587
2	0xbdc8bbb8	-0.098014295
3	0x3cf3f20d	0.029778505
4	0x3ea2411d	0.31690302
5	0x3d1391d3	0.03602774
6	0x3da951d6	0.08267562
7	0x3d344b0c	0.044016883
8	0x3e0b5c61	0.13609459
9	0x3e05d4f4	0.13069516
10	0x3d8f0875	0.06984035
11	0x3e44ad6b	0.19206779
12	0xbeae59d6	-0.34052914
13	0x3d353c47	0.044246938
14	0x3d7ec78e	0.06220203
15	0xbd67bfb5	-0.05657931
16	0xbd3e8c6e	-0.046520643
17	0x3dba3207	0.09091573
18	0xbc0ca25b	-0.00858363
19	0x3d89b9b6	0.06724875
20	0x3d5631fc	0.052293763
21	0x3b55442f	0.0032541861
22	0x3d7d13d4	0.061786488
23	0xbddcad3a	-0.10775228
24	0x3e8c6398	0.27419734
25	0x3e2ad8c5	0.16684254
26	0x3caab4ac	0.020838104
27	0xbdbbb4f0	-0.091653705
28	0x3e5121cf	0.20423053
29	0x3cc31873	0.02381537
30	0x3d6018b5	0.054711062
31	0x3de1617b	0.11004921
32	0xbe424882	-0.18972972
33	0xbd8fe942	-0.07026912
34	0x3ccb6ff6	0.02483366
35	0x3d2df392	0.042468615
36	0xbcd9d185	-0.026589165
37	0xbd27850a	-0.04089836
38	0x3cb7b894	0.02242688
39	0xbd15410f	-0.036438998
40	0xbd2c144f	-0.042011555
41	0x3d256dbc	0.040387854
42	0x3cf568af	0.029957144
43	0xbd7c2656	-0.061559997
44	0x3dfc92e8	0.12332708
45	0x3c53e8cd	0.012933922
46	0x3df6b029	0.12045319
47	0xbd74c510	-0.059758246
48	0xbc9b34ab	-0.018946012
49	0xbcc024eb	-0.023455104
50	0x3e1b0c5a	0.1514143
51	0xbe86ec88	-0.26352334
52	0xbb20353e	-0.0024445797
53	0xbc8df346	-0.017327916
54	0x3e0bab49	0.13639559
55	0x39e7524d	0.00044121072
56	0x3a90f58b	0.0011059506
57	0x3e207381	0.15669061
58	0xbdee2f9b	-0.11630174
59	0xbe12c99a	-0.14334717
60	0x3e5b0daa	0.21391931
61	0x3d08588a	0.033287562
62	0x3d842c79	0.06453795
63	0xbdef10eb	-0.11673149
64	0xbc8ddbef	-0.017316787
65	0x3b567d87	0.0032728629
66	0x3dff591a	0.12468167
67	0xbcb5e9e2	-0.02220625
68	0x3bcdbdd3	0.0062787323
69	0xbc62791c	-0.01382282
70	0x3e054920	0.13016176
71	0x3d96076c	0.07325634
72	0xbd6492c9	-0.055804048
73	0xbc6dd1e2	-0.014515372
74	0x3c9b23d9	0.018937992
75	0x3da94f07	0.082670264
76	0x3e41ddc3	0.18932252
77	0xbdc18115	-0.094484486
78	0xbd3eb085	-0.04655506
79	0x3d5f2ea4	0.05448784
80	0x3c944e0e	0.018103626
81	0xbdf6f5b0	-0.1205858
82	0xbb9f386a	-0.00485902
83	0x3da589ac	0.080828995
84	0x3e0bfc0e	0.1367037
85	0x3d14464c	0.036199853
86	0xbbc3ff51	-0.005981364
87	0xbd258168	-0.040406615
88	0x3e350a19	0.17679633
89	0xbd3dd27e	-0.04634332
90	0x3e25c389	0.16187872
91	0xbda40da2	-0.08010413
92	0x3d8c50fb	0.06851383
93	0xbd363e97	-0.044493284
94	0x3c3f6122	0.011680873
95	0x3a9c9330	0.0011945721
96	0xbe37d372	-0.17951754
97	0xbe3b90a3	-0.18316893
98	0x3d5b456d	0.053533006
99	0x3da4544d	0.080238916
100	0xbe4f5f82	-0.20251277
101	0x3bf09871	0.007342391
102	0x3dfb78bd	0.122788884
103	0xbdf4e07c	-0.119568795
104	0xbda76ae2	-0.08174683
105	0xbc011b0e	-0.0078799855
106	0xbc743f79	-0.014907711
107	0xbda3c3d8	-0.079963386
108	0x3d947e8d	0.072507
109	0xbdd949fe	-0.10609816
110	0x3e2e2bef	0.17008947
111	0x3d575b9d	0.052577604
112	0xbdf1e9d9	-0.11812181
113	0xbc773627	-0.0150885945
114	0x3d80607e	0.062684044
115	0xbd2f7f8f	-0.04284626
116	0xbdb65672	-0.08903207
117	0x3d04319f	0.032273885
118	0x3d2f7511	0.042836253
119	0x3d8cbd68	0.06872064
120	0xbc1a8347	-0.009430713
121	0x3e38c1a4	0.18042618
122	0xbbe46311	-0.0069698174
123	0x3c579c87	0.013159878
124	0xbdb23a16	-0.08702485
125	0x3dcc1993	0.099658154
126	0x3e3581e3	0.17725329
127	0x3d87e5d8	0.06635636
128	0xbe4bbc04	-0.19895941
129	0xbeb2653c	-0.3484286
130	0x3dd0f7ea	0.10203536
131	0x3da0ddf8	0.07854837
132	0xbd147a63	-0.03624953
133	0x3dbdc19b	0.09265443
134	0x3e0a36b8	0.13497436
135	0x3e431bd0	0.19053578
136	0xbe643761	-0.2228675
137	0xbc0830bb	-0.0083123995
138	0xbbfe283a	-0.00775626
139	0xbe02528d	-0.12726803
140	0xbced774e	-0.028987553
141	0x3d9e630c	0.077337354
142	0x3e330eb1	0.17486073
143	0xbda24b36	-0.079245016
144	0xbcda380e	-0.026638057
145	0x3d1d50e1	0.03840721
146	0x3c6bd7a5	0.014394675
147	0xbe5106cd	-0.2041275
148	0xbd74aeab	-0.05973689
149	0x3c0dc79d	0.008653549
150	0x3e4e5125	0.20148142
151	0xbd4ca42c	-0.049961254
152	0x3e26b03f	0.1627817
153	0x3cde628e	0.027146604
154	0xbd82408c	-0.063599676
155	0xbe7a8fab	-0.24468867
156	0xbc920145	-0.017822871
157	0xbd546bbc	-0.051860556
158	0xbb03cebd	-0.002011224
159	0x3bc80924	0.0061046053
160	0xbe153674	-0.14571553
161	0x3cafc4f6	0.021456223
162	0x3d19a75b	0.03751312
163	0xbd3334a1	-0.043751363
164	0x3d8b59ad	0.06804214
165	0x3cc8e896	0.024524968
166	0xbc0f3552	-0.00874074
167	0x3dd5c189	0.104373045
168	0x3d6c6133	0.057709884
169	0x3de75b05	0.112966575
170	0xbd488df1	-0.04896349
171	0xbe7856fe	-0.24251935
172	0x3bd52414	0.006504545
173	0xbcaaaed4	-0.020835318
174	0x3e089500	0.13338089
175	0xbc5568c7	-0.013025469
176	0xbd5d5ba9	-0.054042492
177	0xbbeb5c29	-0.007182617
178	0xbe095958	-0.13412988
179	0xbdbef13d	-0.09323356
180	0xbbe674cf	-0.0070329676
181	0x3c19545e	0.009358494
182	0x3ca11cd0	0.01966706
183	0xbd8f3905	-0.069932975
184	0x3db9c1a6	0.09070139
185	0xbca70af8	-0.020390972
186	0xbe225c8a	-0.15855613
187	0x3da162b3	0.078801535
188	0xbdb028ae	-0.08601509
189	0xbe264a77	-0.16239344
190	0x3ac7cc79	0.0015243433
191	0xbe0b91c5	-0.13629825
192	0xbd9270c7	-0.07150417
193	0x3e3cdd0a	0.18443695
194	0xbc0b7da0	-0.008513838
195	0xbce3924f	-0.027779726
196	0x3df53227	0.119724564
197	0xbdeee4b5	-0.11664716
198	0x3d8f784a	0.07005365
199	0x3e19c996	0.15018305
200	0xbe6a6bfb	-0.22892754
201	0x3e26ab2e	0.16276237
202	0xbb93c2f6	-0.004509325
203	0x3e244583	0.16042142
204	0x3d391479	0.04518554
205	0x3e1fa04b	0.1558849
206	0xbe0862ea	-0.13318983
207	0x3d4fc59d	0.050725568
208	0x3caf7443	0.021417743
209	0x3d9cf295	0.07663456
210	0xbba79957	-0.005114715
211	0x3e1bf750	0.15231061
212	0xbd99ed94	-0.075160176
213	0x3dda5d3d	0.10662315
214	0xbe213dbb	-0.15746205
215	0xbd14d356	-0.03633436
216	0x3c90ab61	0.017659845
217	0xbd9ec873	-0.077530764
218	0x3dc90b81	0.09816647
219	0xbc2f1361	-0.010685773
220	0x3cda2e5e	0.026633438
221	0x3db7f4a5	0.08982209
222	0xbe510f5e	-0.20416018
223	0x3d0fe8b0	0.035134017
224	0x3cfcb818	0.030849501
225	0xbdc4a8db	-0.09602519
226	0x3db6c973	0.08925142
227	0x3c416897	0.011804721
228	0xbdbb4807	-0.091445975
229	0xbd11a180	-0.03555441
230	0x3c054542	0.008134188
231	0xbc4c6eb7	-0.012477568
232	0x3cda9ba4	0.026685543
233	0x3d90c628	0.07069045
234	0xbdecefd2	-0.115691796
235	0xbd911b1e	-0.0708525
236	0xbdec59fc	-0.11540601
237	0x3ea63e56	0.32469434
238	0x3db3f53d	0.0878701
239	0x3ce13405	0.027490625
240	0xbd3e9677	-0.046530213
241	0xbd2531d0	-0.040330708
242	0xbda7d445	-0.08194784
243	0x3aab6930	0.0013077613
244	0xbceec73a	-0.029147733
245	0x3e2ae08e	0.16687223
246	0x3e0e0d84	0.13872343
247	0x3d1311a2	0.035905488
248	0xbd5787a7	-0.052619603
249	0x3e746ec9	0.23870386
250	0x3d923110	0.07138264
251	0x3e0009b9	0.12503709
252	0x3d929b84	0.071585685
253	0x3d8eb702	0.069685
254	0x3dc3bab9	0.09557099
255	0x3db9a17a	0.09064002

layers.0.ufh.j_weight f4 [32, 32]
0	0xbd5628f2	-0.052285142
1	0x3e244351	0.16041304
2	0x3da6561d	0.081218936
3	0xbd9e5f85	-0.07733063
4	0x3dc76dcf	0.09737741
5	0x3c92326c	0.017846309
6	0xbd1b9eb4	-0.037993148
7	0x3e0629b9	0.13101853
8	0xbdad4f34	-0.084623724
9	0x3dd1896e	0.10231291
10	0xbcd259a1	-0.025677504
11	0x3ea80067	0.32812807
12	0x3d611ccf	0.054959115
13	0x3e196556	0.14980063
14	0x3e9f1eb3	0.3107811
15	0x3e8b9a48	0.27266145
16	0xbd8681e9	-0.06567747
17	0x3d50a751	0.050940815
18	0xbd73d921	-0.059533242
19	0x3e20d350	0.1570561
20	0x3d5a98d3	0.0533684
21	0x3e2a5eff	0.166378
22	0x3e8fd19e	0.28089613
23	0x3e40fc77	0.18846308
24	0x3e06f6cd	0.13180085
25	0x3b9ab637	0.0047214287
26	0x3d80370c	0.06260499
27	0x3d88b0d5	0.06674353
28	0x3b8b4876	0.0042505814
29	0xbe0c08c5	-0.1367522
30	0xbd325ec7	-0.043547418
31	0x3dee5342	0.11636974
32	0x3d16ad8c	0.0367866
33	0xbe8434f2	-0.25821644
34	0xbb191e14	-0.0023363875
35	0x3e22de0a	0.15905014
36	0xbe220050	-0.15820432
37	0x3dd7efd9	0.10543794
38	0x3d1f91fd	0.038957585
39	0xbda5903b	-0.080841504
40	0x3d8b7891	0.068101056
41	0xbd2b29aa	-0.04178778
42	0xbafb8677	-0.0019189854
43	0x3d3c7199	0.046006773
44	0xbd8235fd	-0.06357954
45	0xbd7db843	-0.061943304
46	0x3d923cf9	0.07140536
47	0xbd6a2dd4	-0.05717261
48	0x3e096dbe	0.1342077
49	0x3dcba786	0.09944062
50	0x3d828917	0.06373804
51	0xbd897a8a	-0.067128256
52	0xbd3514c0	-0.044209242
53	0xbdb36a31	-0.08760489
54	0x3de8b292	0.113621846
55	0xbdb54e6d	-0.08852849
56	0xbd53c57f	-0.05170202
57	0x3e4977df	0.19674633
58	0xbe208cb4	-0.15678674
59	0x3d598c8a	0.053112544
60	0x3e02da24	0.12778527
61	0xbde19e97	-0.11016577
62	0xbd8d60c1	-0.0690322
63	0x3e047e72	0.1293886
64	0xbdea61f4	-0.11444464
65	0xbe8c9fff	-0.27465817
66	0xbd53f397	-0.051745977
67	0x3a70527e	0.0009167566
68	0xbe771daf	-0.24132417
69	0xbcae2afd	-0.021260733
70	0xbe38aa50	-0.18033719
71	0xbd428486	-0.047489665
72	0xbd94ae5d	-0.0725982
73	0xbc4b7b2b	-0.012419502
74	0xbdedcdf4	-0.11611548
75	0xbe37e702	-0.17959216
76	0x3dc130bf	0.09433126
77	0xbe88ff5f	-0.26757333
78	0xbd43ab4a	-0.047770776
79	0x3d19d83c	0.037559733
80	0xbdb17b72	-0.086661234
81	0xbe2d36cd	-0.16915436
82	0x3d51d583	0.05122901
83	0xbe0bc208	-0.13648236
84	0xbe088ef3	-0.13335781
85	0xbe178f9f	-0.14800881
86	0xbd6b20af	-0.057404216
87	0x3b63dcf7	0.0034769156
88	0x3d556af1	0.05210394
89	0xbe9a7155	-0.3016459
90	0xbdb6658a	-0.08906086
91	0xbdde28b4	-0.10847607
92	0xbdb8d9c5	-0.09025911
93	0xbded7ca3	-0.11596038
94	0xbd4f8537	-0.050664153
95	0xbe922403	-0.285431
96	0x3c348807	0.01101876
97	0xbe249d97	-0.16075741
98	0x3aa740e4	0.0012760428
99	0x3d56a3e8	0.052402407
100	0xbd43389f	-0.04766142
101	0xbda28f38	-0.07937473
102	0x3d91f489	0.071267195
103	0xbddcdc18	-0.10784167
104	0xbd6f78f8	-0.058464974
105	0x3d026ae9	0.03184024
106	0xbd8f974c	-0.070112795
107	0xbd37aea7	-0.044844296
108	0x3a2c620a	0.0006575888
109	0xbe81d7b4	-0.2535988
110	0xbe50b745	-0.20382412
111	0xbd8c3ebd	-0.06847904
112	0x3c91ae7f	0.017783402
113	0x3d1751fd	0.036943424
114	0xbcfb2c99	-0.030660914
115	0x3d045b84	0.03231384
116	0x3d57395b	0.052544933
117	0xbd7f4ffd	-0.062332142
118	0xbd30d0b4	-0.043167785
119	0xbd1cd877	-0.038292374
120	0xbe5c2810	-0.21499658
121	0xbe611609	-0.21981062
122	0xbe2df56b	-0.16988151
123	0xbc44777a	-0.011991376
124	0x3d4575ed	0.048208166
125	0x3c3dd911	0.011587397
126	0x3e00ab9a	0.12565461
127	0xbe3fe23b	-0.18738644
128	0x3d0e422a	0.034731068
129	0xbe944936	-0.28962106
130	0x3c494a93	0.012285846
131	0x3c808c69	0.015691953
132	0xbd9acf96	-0.07559125
133	0xbd84088d	-0.064469434
134	0xbd72addf	-0.059247848
135	0xbe0aa26e	-0.13538525
136	0xbc8ad9f3	-0.01694963
137	0x3e1c1268	0.15241396
138	0x3d90ad72	0.07064332
139	0x3d9c3fdd	0.076293685
140	0x3ca39742	0.019969586
141	0x3e4cdb3f	0.20005511
142	0xbd9ad560	-0.07560229
143	0xbc72c0e2	-0.014816495
144	0x3cce8e70	0.025214404
145	0x3e901bdf	0.28146264
146	0xbd03622b	-0.032076042
147	0x3d2bec16	0.041973196
148	0xbd77c18b	-0.06048731
149	0xbd221b90	-0.039577067
150	0x3e2b674e	0.16738626
151	0x3ca3bf25	0.019988606
152	0x3dce801a	0.10083027
153	0x3e30076d	0.17190333
154	0x3d5fabd8	0.054607242
155	0x3e097c25	0.13426264
156	0x3d8e9b8f	0.06963264
157	0xbd295fad	-0.04135101
158	0x3d6e6fc7	0.058212068
159	0x3e45e5bc	0.19325918
160	0x3c9acffa	0.018898
161	0x3dbfe2e3	0.09369447
162	0xbe0aabe7	-0.13542138
163	0x3dd078a0	0.101792574
164	0xba97ed8f	-0.0011591184
165	0xbd7028d2	-0.05863268
166	0xbd3763d7	-0.04477295
167	0x3e2b834f	0.16749309
168	0x3e05986d	0.13046427
169	0x3d19c723	0.037543427
170	0x3d56fb75	0.0524859
171	0xbc79aee1	-0.015239448
172	0x3e121d7c	0.1426906
173	0xbddf62d7	-0.10907524
174	0xbdec2a2e	-0.11531483
175	0xbccf79b1	-0.025326582
176	0x3d9e8299	0.07739753
177	0x3d100d75	0.035169084
178	0xbdfd59af	-0.123706214
179	0x3cc380c8	0.023865119
180	0x3d7dcd4b	0.06196336
181	0xbc651b58	-0.01398357
182	0x3d0fff0b	0.035155337
183	0xbd76af03	-0.060225498
184	0x3d14591d	0.036217798
185	0xbd51149d	-0.05104505
186	0x3d8b9152	0.06814827
187	0x3e38a604	0.1803208
188	0xbd062ded	-0.032758642
189	0xbd916b11	-0.071004994
190	0x3df0b359	0.11752958
191	0xbddf4904	-0.109025985
192	0x3d6d83ac	0.0579869
193	0xbdcae030	-0.099060416
194	0xbd84d2eb	-0.06485542
195	0xbcaee388	-0.02134873
196	0x3e2f4dd9	0.1711954
197	0xbcce69c5	-0.02519692
198	0xbba5735a	-0.0050491514
199	0x3dde56c5	0.10856394
200	0x3e109439	0.14119042
201	0x3e084c4f	0.1331036
202	0x3d0726cf	0.032995995
203	0xbcf51489	-0.029917018
204	0xbc080964	-0.00830302
205	0xbdcf37e9	-0.10118086
206	0x3db13ad4	0.08653799
207	0xbe0eeb86	-0.13957033
208	0xbdd2c48f	-0.10291397
209	0xbe184f18	-0.14873922
210	0x3c857b34	0.0162941
211	0xbe4332ca	-0.19062343
212	0x3cb1552d	0.02164706
213	0x3d98754a	0.07444246
214	0x3e759a55	0.23984654
215	0x3c1894b1	0.009312795
216	0x3da996cd	0.08280716
217	0xbc6f954d	-0.014622998
218	0xbdb394fa	-0.087686494
219	0xbd6ff75e	-0.058585517
220	0x3d635adc	0.055506572
221	0x3c6c77ff	0.014432906
222	0x3dbe90d4	0.093049675
223	0xbbcc73f7	-0.00623941
224	0xbdbb21eb	-0.09137329
225	0x3d9f934a	0.07791765
226	0x3dfd215b	0.12359878
227	0x3d61f7ce	0.055167966
228	0xbdbd7333	-0.09250488
229	0x3c84de25	0.016219208
230	0x3dc916f5	0.09818832
231	0x3d2b937f	0.04188871
232	0x3e060bdc	0.13090461
233	0xbd4048a5	-0.04694428
234	0xbe100478	-0.14064205
235	0xbe2cf28e	-0.16889402
236	0x3c6e169e	0.01453176
237	0x3e65b842	0.2243357
238	0x3da25d91	0.079280026
239	0xbd1c0e3f	-0.038099524
240	0x3dcc2cc4	0.09969476
241	0x3d803ebb	0.06261965
242	0x3d6b6af5	0.05747505
243	0xbd97f525	-0.074198045
244	0xbdad1972	-0.08452119
245	0xbb4a09ec	-0.0030828668
246	0x3e2fff05	0.17187126
247	0x3c3f1951	0.011663751
248	0x3dff4e36	0.124660894
249	0x3e7375a4	0.23775345
250	0xbcbade5e	-0.022811111
251	0x3d530668	0.05151978
252	0x3d938ede	0.07204984
253	0xbdb4269d	-0.087964274
254	0xbdb2b198	-0.087252796
255	0x3dc892c2	0.09793617

layers.0.ufh.k_weight f4 [32, 32]
0	0xbce8b976	-0.028408747
1	0x3a03e7d8	0.0005031801
2	0xbd1b8032	-0.037964053
3	0xbe2da971	-0.16959168
4	0x3d499227	0.049211647
5	0x3d126299	0.03573856
6	0xbcbfec2c	-0.023428045
7	0xbe0764a5	-0.13221987
8	0xbe490b4a	-0.19633213
9	0xbd543134	-0.051804736
10	0x3d5ca67f	0.05386972
11	0x3d39ba60	0.045343757
12	0x3c866522	0.016405646
13	0xbe3a1e23	-0.18175559
14	0x3d966613	0.07343688
15	0x3e02a3a0	0.1275773
16	0x3cfbf0cb	0.030754467
17	0x3e29123c	0.16510862
18	0xbdbc5613	-0.09196105
19	0xbdcaff2c	-0.099119514
20	0xbdf388fa	-0.118913606
21	0x3e0418af	0.12900041
22	0x3e2e4153	0.17017107
23	0x3e0768d5	0.13223584
24	0xbda0c377	-0.07849782
25	0xbe33488f	-0.17508148
26	0xbe5685b6	-0.20949444
27	0x3cecc2d9	0.028901504
28	0x3d644838	0.055732936
29	0xbd0b467e	-0.034002773
30	0x3d8e77f0	0.0695647
31	0x3dff7eb6	0.1247534
32	0x3de21ff3	0.1104125
33	0x3e2efa03	0.1708756
34	0x3bef62b1	0.007305466
35	0x3d347904	0.044060722
36	0xbe7f117c	-0.24909014
37	0xbcd0e9c6	-0.025502097
38	0xbe0bcde4	-0.1365276
39	0x39955b79	0.00028487647
40	0xbe2b8376	-0.16749367
41	0xbc5a897e	-0.013338445
42	0xbd953231	-0.07284964
43	0xbe137113	-0.14398603
44	0xbcb63178	-0.022240385
45	0x3dd3eb2f	0.10347592
46	0x3d71a76f	0.058997568
47	0xbbb3f01a	-0.005491269
48	0xbdd2b184	-0.10287765
49	0xbe57e7ac	-0.2108447
50	0x3d62d195	0.055375654
51	0xbe6adb82	-0.22935298
52	0x3a339aea	0.0006851392
53	0xbcdb15b6	-0.026743751
54	0xbd2af4bd	-0.041737307
55	0x3d0df5a1	0.034658078
56	0xbe33704e	-0.1752331
57	0xbb692ca5	-0.0035579589
58	0x3df4d52c	0.11954722
59	0xbde9a4f3	-0.11408415
60	0xbcd341df	-0.025788246
61	0xbdfe8c46	-0.12429099
62	0xbdb0d51b	-0.08634397
63	0xbe095871	-0.13412644
64	0xbd8e4694	-0.069470555
65	0xbe6a3ce8	-0.22874796
66	0xbd832171	-0.06402863
67	0x3d47ebfa	0.04880903
68	0xbd7ff10d	-0.062485743
69	0xbdd0035e	-0.10156892
70	0x3e064023	0.13110404
71	0x3d55af58	0.052169174
72	0x3d5a33e4	0.053272143
73	0x3c4d18d4	0.0125181265
74	0x3de49f9c	0.111632556
75	0x3d4eb9a9	0.050470028
76	0xbd1feac1	-0.03904224
77	0xbe3184d2	-0.17335823
78	0xbe1f8a9f	-0.15580224
79	0x3d80e0f6	0.06292908
80	0x3ac62def	0.001511989
81	0xbd48dad5	-0.04903682
82	0xbd8b6f92	-0.0680839
83	0xbdf5b150	-0.1199671
84	0x3d33a214	0.04385574
85	0xbdbe6258	-0.09296101
86	0xbd0c81f4	-0.03430362
87	0xbbf39e88	-0.00743467
88	0x3dda4165	0.10657004
89	0xbde71632	-0.1128353
90	0x3d7980af	0.060913738
91	0x3d8a69e0	0.06758475
92	0xbda8ad85	-0.08236221
93	0x3cbaf798	0.02282314
94	0x3c7f57bb	0.015584881
95	0xbe437fbf	-0.190917
96	0xbd836457	-0.06415623
97	0xbdd6be76	-0.10485546
98	0xbe048a5c	-0.12943405
99	0x3da6034f	0.081061
100	0x3e94c7ce	0.2905869
101	0xbc584445	-0.0131998705
102	0x3e7b8788	0.2456342
103	0xbcef44ec	-0.02920767
104	0x3e2f93b4	0.17146188
105	0xbd29b7a0	-0.041434884
106	0x3d2a6dcb	0.041608613
107	0xbd3a80de	-0.045533054
108	0xbd0f778f	-0.03502613
109	0x3e0a54e1	0.13508941
110	0xbcb5e871	-0.022205563
111	0xbdaafe7d	-0.08349321
112	0x3dc004c5	0.0937591
113	0x3e2f09c7	0.17093574
114	0x3c55a2d7	0.013039312
115	0x3d9b8f9a	0.07595749
116	0xbdd94bbe	-0.1061015
117	0x3db9dce3	0.09075334
118	0xbd36946f	-0.04457515
119	0x3d56630f	0.052340563
120	0x3d619463	0.055073153
121	0x3ec205fd	0.37895194
122	0x3b87538d	0.004129833
123	0x3b1387ae	0.0022511291
124	0x3d2dc537	0.042424407
125	0x3d923b05	0.07140163
126	0x3d17e93f	0.037087675
127	0x3e147172	0.14496401
128	0x3bd4f9df	0.0064995135
129	0xbdbf0448	-0.093269885
130	0xbd62c51f	-0.05536377
131	0x3d33dece	0.043913655
132	0x3e148de5	0.14507253
133	0xbe03ee81	-0.12883951
134	0x3d0d7097	0.034531202
135	0xbe0348e4	-0.12820774
136	0xbe886318	-0.26638103
137	0x3d0836ca	0.033255376
138	0x3dd79d4f	0.10528051
139	0xbd8929f2	-0.066974536
140	0x3d354324	0.044253483
141	0x3d88af89	0.06674106
142	0x3e1689d2	0.14701012
143	0x3d3c4357	0.045962658
144	0xbd83e787	-0.06440645
145	0xbe20294f	-0.15640758
146	0x3d169043	0.036758672
147	0xbd9ffdfe	-0.07812117
148	0x3de02a5e	0.10945581
149	0x3d11a2ae	0.035555534
150	0x3e36e673	0.17861347
151	0x3da7ef0e	0.08199893
152	0xbe29915b	-0.16559355
153	0x3d862ea5	0.065518655
154	0x3e2b4028	0.16723692
155	0xbd308101	-0.043091778
156	0x3df43615	0.11924378
157	0xbba61d11	-0.005069383
158	0x3c626a7d	0.013819334
159	0xbcc1a2e1	-0.023637237
160	0x3e819c73	0.25314674
161	0xbe14cda4	-0.1453157
162	0xbcf661ee	-0.030075993
163	0xbce77093	-0.028251922
164	0x3e57c0d7	0.21069656
165	0xbda5df10	-0.080991864
166	0x3c16cbac	0.009203833
167	0x3d0bd086	0.03413441
168	0xbd84c71a	-0.06483288
169	0x3df5e9e7	0.12007504
170	0xbd645c72	-0.055752225
171	0x3cf72666	0.030169677
172	0x3e07be65	0.13256223
173	0x3e736886	0.23770341
174	0xbd066a76	-0.032816373
175	0xbdd3cf29	-0.10342247
176	0x3c650516	0.013978263
177	0x3e03e862	0.12881616
178	0x3acebf03	0.0015773479
179	0x3e33f925	0.1757551
180	0xbc8991da	-0.01679318
181	0xbd1487c4	-0.03626229
182	0xbb896930	-0.0041934475
183	0x3d688eb7	0.05677673
184	0x3dad1cef	0.08452784
185	0x3e371680	0.17879677
186	0xbbe72ab4	-0.007054651
187	0x3d500eac	0.050795242
188	0xbd793e31	-0.060850326
189	0xbd0de80a	-0.034645118
190	0xbe488961	-0.19583656
191	0x3e0318a6	0.12802371
192	0xbc88a7be	-0.016681548
193	0x3dda4773	0.10658159
194	0xbe2e5b69	-0.17027058
195	0xbe3edd61	-0.18639137
196	0xbe3a8ca1	-0.18217708
197	0xbda186b1	-0.078870185
198	0xbeb5cde2	-0.3550864
199	0xbe00a160	-0.1256156
200	0x3e2f5b48	0.17124665
201	0xbd5f84a4	-0.054569855
202	0xbe6e76dc	-0.23287529
203	0xbdeea6ab	-0.11652883
204	0xbe2fb911	-0.17160441
205	0xbe97b916	-0.29633397
206	0xbc7c7628	-0.01540903
207	0xbd719d6f	-0.05898803
208	0x3b03b95d	0.0020099499
209	0xbe01e213	-0.12683897
210	0xbd07bb84	-0.033137813
211	0xbdbdd658	-0.092693985
212	0x3e0418d4	0.12900096
213	0x3b30b0fe	0.0026960964
214	0xbd4d2fd6	-0.050094448
215	0xbd640dd1	-0.05567724
216	0xbd6cc81d	-0.05780803
217	0xbeda1ff5	-0.42602506
218	0xbe677c8f	-0.22606109
219	0x3c558be9	0.013033845
220	0xbcde735a	-0.027154613
221	0x3d8809e2	0.0664251
222	0xbcfe77ce	-0.031062987
223	0xbe8ffbf7	-0.2812192
224	0x3dd3bab3	0.103383444
225	0x3cfcdbae	0.03086647
226	0x3cfd6966	0.030934047
227	0x3dab2414	0.08356491
228	0x3c31682e	0.010828061
229	0x3e0d92fa	0.13825598
230	0xbd8b6478	-0.06806272
231	0xbd6e75e2	-0.05821789
232	0x3da74d2f	0.081690185
233	0x3c2febb3	0.010737347
234	0xbe04d615	-0.12972291
235	0x3d61f023	0.055160653
236	0x3d963cb1	0.07335795
237	0x3b7a8829	0.003822813
238	0x3e26e24e	0.16297266
239	0x3cb57652	0.022151146
240	0xbdb9fb45	-0.09081129
241	0x3c90921a	0.017647792
242	0x3dbf9404	0.093544036
243	0xbe0106e0	-0.12600279
244	0x3b9b7c52	0.0047450447
245	0x3da8a8d7	0.08235329
246	0x3e4f50a5	0.20245607
247	0x3cef7088	0.029228464
248	0x3bd59db7	0.006519045
249	0xbe2a2583	-0.16615872
250	0x3d86c11e	0.06579803
251	0xbdcd43ab	-0.10022672
252	0x3d6265f4	0.05527301
253	0x3e07fd70	0.13280272
254	0xbd0205b3	-0.031743716
255	0xbcab96f2	-0.020946

layers.0.wix.r_weight f4 [1, 32]
0	0xbf571c15	-0.84027225
1	0xbeb20a38	-0.3477342
2	0xbec09290	-0.37611818
3	0xbf434a9e	-0.7628573
4	0xbe70a2a1	-0.23499538
5	0xbf33a786	-0.70177495
6	0xbef333ff	-0.47500607
7	0xbf4adc1b	-0.79242104
8	0x3e3a9a66	0.18222961
9	0x3dc61a74	0.09673014
10	0xbc2c738b	-0.010525594
11	0xbdeed89b	-0.11662408
12	0xbe35f558	-0.17769372
13	0xbeb57f16	-0.3544852
14	0xbf363182	-0.7116929
15	0x3d9872d0	0.07443774
16	0xbd54a4c9	-0.051914964
17	0xbf08462e	-0.53232086
18	0xbf384cbf	-0.71992105
19	0x3e27925e	0.16364428
20	0xbeb67d47	-0.35642454
21	0x3d2d98d9	0.042382095
22	0xbf3f4b66	-0.74724424
23	0xbf45846b	-0.7715518
24	0x3ead9d9a	0.33909303
25	0xbec21dfe	-0.37913507
26	0xbeb82425	-0.35965076
27	0xbf6260f3	-0.8842918
28	0xbf1c2470	-0.609931
29	0xbf1a428a	-0.6025778
30	0xbf36d05a	-0.7141167
31	0xbef55aed	-0.47920933

layers.0.wix.i_weight f4 [1, 32]
0	0xbdae71c3	-0.08517792
1	0x3e25db81	0.16197015
2	0xbda22687	-0.07917505
3	0x3da5ecbc	0.08101794
4	0xbdc1f24a	-0.09470041
5	0x3dd8b9ce	0.105823144
6	0xbe2745a2	-0.16335157
7	0x3e9d58cf	0.30731818
8	0x3e9a09fe	0.30085748
9	0x3da174fa	0.0788364
10	0x3e327a06	0.17429361
11	0x3dcfdc2a	0.10149415
12	0x3ec6f11b	0.38855824
13	0x3d411dca	0.04714755
14	0x3e21f9c8	0.1581794
15	0xbdba7f7a	-0.091063455
16	0x3cf35868	0.029705241
17	0xbe0bc27a	-0.13648406
18	0x3d32ec68	0.043682486
19	0xbdfa5d0e	-0.1222478
20	0x3e873d9d	0.26414195
21	0x3ecaa28a	0.39577132
22	0xbdb26d85	-0.087122954
23	0xbe95198e	-0.2912106
24	0x3e68bf25	0.22729166
25	0x3de2cb95	0.110739864
26	0x3e8da69b	0.27666172
27	0xbf13f51a	-0.5779587
28	0x3c1ba80a	0.009500513
29	0xbe16cfd0	-0.14727712
30	0xbe76e131	-0.24109341
31	0xbe7ad244	-0.24494272

layers.0.wix.j_weight f4 [1, 32]
0	0x3da9ee75	0.08297435
1	0x3ddef094	0.108857304
2	0xbd8ba648	-0.06818825
3	0x3ded5539	0.115885206
4	0xbe6fa3de	-0.23402354
5	0xbe639413	-0.22224455
6	0xbdf5cab2	-0.12001552
7	0x3d0d962b	0.03456704
8	0xbdf07a53	-0.117420815
9	0x3c56594a	0.013082812
10	0xbe388f47	-0.18023406
11	0xbd1693f1	-0.03676218
12	0x3e3ad4d9	0.18245257
13	0xbbaafed6	-0.005218367
14	0xbdc748b2	-0.097306624
15	0x3d68ba5c	0.05681835
16	0x3d1170fa	0.035508133
17	0xbd23ba2e	-0.039972477
18	0x3e2b63b8	0.16737258
19	0xbceb3527	-0.028711868
20	0xbac0db72	-0.0014713837
21	0x3d9853cd	0.07437859
22	0xbd9d693f	-0.0768609
23	0xbe5bb299	-0.21454848
24	0x3e838f7e	0.25695413
25	0xbeb27846	-0.34857386
26	0xbdbc5d51	-0.09197486
27	0xbececc52	-0.4039026
28	0xbd721c38	-0.059108943
29	0xbe71208c	-0.23547572
30	0xbdcae20a	-0.09906395
31	0x3d08f561	0.033437137

layers.0.wix.k_weight f4 [1, 32]
0	0xbe9d13a0	-0.30679035
1	0xbe6299ca	-0.22128978
2	0xbd34fef8	-0.04418847
3	0x3bb43a30	0.0055001006
4	0xbd84b7f3	-0.06480398
5	0x39601d6a	0.00021373262
6	0x3d4a9dab	0.04946677
7	0x3e870022	0.2636729
8	0xbe350bbd	-0.17680259
9	0x3dc3d2da	0.09561701
10	0x3dd16b33	0.10225525
11	0x3c30dcd2	0.010794835
12	0xbe1e4530	-0.1545608
13	0xbd584e4a	-0.052809037
14	0xbd97f478	-0.074196756
15	0x3de6fe54	0.11278978
16	0x3d3cbf99	0.04608116
17	0xbe3c288d	-0.18374844
18	0x3c46271a	0.0120942835
19	0x3d5d3aaf	0.054011043
20	0xbd7e616e	-0.062104635
21	0xbda045b0	-0.07825792
22	0xbdfbef29	-0.123014756
23	0xbe413a7e	-0.18869969
24	0xbea7ba9a	-0.32759553
25	0xbeb4d1cf	-0.3531632
26	0x3e827940	0.2548313
27	0x3d4d5325	0.05012812
28	0x3e69b6e8	0.2282368
29	0x3bd51ab3	0.006503427
30	0x3cc8d087	0.024513496
31	0xbe1e8988	-0.15482152

layers.0.wix.bias f4 [128]
0	0xbe5f4af1	-0.21805932
1	0x3e3feef8	0.18743503
2	0xbf571ec5	-0.84031326
3	0xbf8c6346	-1.0967796
4	0x3d7b75b1	0.061391536
5	0xbf9a8828	-1.2072802
6	0xbf208679	-0.6270519
7	0xbf97d743	-1.1862568
8	0x3ee59f99	0.44848326
9	0x3ecec331	0.40383294
10	0xbf44bc15	-0.7684949
11	0x3e5918fe	0.2120094
12	0xbf4e4b10	-0.80583286
13	0x3e308164	0.17236859
14	0xbf876dd1	-1.0580388
15	0x3bbdce93	0.005792448
16	0xbf506faa	-0.81420386
17	0xbf8013ec	-1.000608
18	0xbf95c45a	-1.1700547
19	0x3ed7717f	0.42078778
20	0xbef05735	-0.46941534
21	0xbe628e1e	-0.22124526
22	0xbf98f45c	-1.1949573
23	0xbfc94145	-1.5723044
24	0xbdd7ad93	-0.105311535
25	0xbe8a1058	-0.26965594
26	0xbf9419f7	-1.1570424
27	0xbe2b45a7	-0.16725789
28	0xbf4fc124	-0.81154084
29	0xbf88a965	-1.0676695
30	0xbf6b6ac0	-0.9195976
31	0xbe502a19	-0.20328559
32	0xbf15b218	-0.58474874
33	0x3e120700	0.14260483
34	0xbf646c81	-0.89228064
35	0xbf933058	-1.1499128
36	0x3da7bfca	0.08190878
37	0xbfa68065	-1.3007933
38	0xbf4044f0	-0.7510519
39	0xbf858f36	-1.043433
40	0x3ed2b6f2	0.411552
41	0x3e90e795	0.28301683
42	0xbf411abd	-0.75431424
43	0x3dc3eb4b	0.09566363
44	0xbf48e121	-0.7846852
45	0x3e24900e	0.16070578
46	0xbf7af77c	-0.9803388
47	0x3de2b00a	0.11068733
48	0xbf7537af	-0.9578809
49	0xbf6ef64f	-0.9334459
50	0xbfa64856	-1.2990825
51	0x3ec33b4d	0.3813118
52	0xbfa054f4	-1.2525926
53	0xbe968fe3	-0.29406652
54	0xbf85a2db	-1.0440325
55	0xbfcfca3f	-1.6233596
56	0xbe8ea156	-0.27857465
57	0xbea1cab4	-0.31599963
58	0xbf7c44b6	-0.98542345
59	0xbf3553a0	-0.70830727
60	0xbf8b7fde	-1.0898397
61	0xbf620180	-0.8828354
62	0xbf3030f1	-0.6882468
63	0xbe40cb76	-0.18827614
64	0xbeee3494	-0.4652449
65	0x3e890c6e	0.26767296
66	0xbf69b0f5	-0.9128564
67	0xbf807637	-1.0036076
68	0x3d542eb1	0.05180234
69	0xbf962220	-1.1729164
70	0xbf6e825a	-0.9316765
71	0xbfa26b6b	-1.2689031
72	0x3efa9ee5	0.48949352
73	0x3e9fb132	0.31189877
74	0xbf8de7e6	-1.1086395
75	0x3d9a315a	0.07528944
76	0xbf4bb107	-0.79567
77	0x3e7e4147	0.24829589
78	0xbf82b3f9	-1.0211173
79	0x3ddb980f	0.10722362
80	0xbf48807d	-0.7832106
81	0xbf677493	-0.90412253
82	0xbf8fedc6	-1.1244438
83	0x3eb46d57	0.3523967
84	0xbf1ef50e	-0.62092674
85	0xbe3f5bb5	-0.18687327
86	0xbf9f9062	-1.2465937
87	0xbfcb505e	-1.5883901
88	0xbe928028	-0.286134
89	0xbe351911	-0.17685343
90	0xbf859741	-1.0436784
91	0xbea128ee	-0.3147654
92	0xbf5b9a5b	-0.857824
93	0xbf755d29	-0.95845276
94	0xbf619e66	-0.8813232
95	0xbe29431c	-0.16529506
96	0xbec3b269	-0.38222054
97	0x3dcdfd64	0.10058096
98	0xbf604fe0	-0.8762188
99	0xbf874750	-1.0568638
100	0x3bc31901	0.0059539084
101	0xbf96b3f3	-1.1773666
102	0xbf25447f	-0.6455764
103	0xbfa337b0	-1.275137
104	0x3ed3e881	0.41388324
105	0x3e98d908	0.29853082
106	0xbf33b40c	-0.70196605
107	0x3e39fa5f	0.18161915
108	0xbf1fc864	-0.62415147
109	0x3e7c1ce1	0.24620391
110	0xbf85acd6	-1.044337
111	0x3db3609e	0.08758663
112	0xbf49f1de	-0.78884685
113	0xbf772c27	-0.96551746
114	0xbf96f7e0	-1.1794395
115	0x3ec9e75a	0.3943432
116	0xbf494191	-0.7861567
117	0xbef9bc9f	-0.4877672
118	0xbf79cd42	-0.97578824
119	0xbfd461b0	-1.6592312
120	0xbe6f2788	-0.23354924
121	0xbe5ad903	-0.21371846
122	0xbf864dbd	-1.0492474
123	0xbe73a3c7	-0.23792945
124	0xbf50efc8	-0.8161588
125	0xbf66a77b	-0.90099305
126	0xbf2b412c	-0.6689632
127	0xbe228496	-0.1587089

layers.0.uih.r_weight f4 [32, 32]
0	0xbd216439	-0.03940222
1	0xbec11395	-0.37710252
2	0xbd50623e	-0.05087494
3	0x3e9f1809	0.31073025
4	0xbf2e56bb	-0.6810109
5	0xbe59f5ca	-0.21285167
6	0x3eaa1dd7	0.3322589
7	0x3deb2cc1	0.114831455
8	0x3dddde79	0.10833449
9	0xbd9fcb90	-0.07802498
10	0x3e53a079	0.20666684
11	0x3ea02726	0.31279868
12	0xbd894292	-0.067021504
13	0xbe95b58a	-0.29240066
14	0x3a35a239	0.0006928775
15	0x3e42c8f2	0.19021967
16	0x3d61a5e1	0.055089835
17	0x3d366e99	0.044539068
18	0x3c115d23	0.008872303
19	0x3df703b4	0.12061253
20	0xbe0bcb6b	-0.13651817
21	0x3e03f095	0.12884744
22	0xbe43aa43	-0.19107918
23	0xbe16b28f	-0.14716552
24	0x3e30d094	0.17267066
25	0x3d280a99	0.04102573
26	0x3db1160a	0.08646782
27	0xbdd189a1	-0.10231329
28	0x3c7a8be5	0.0152921425
29	0x3e23eeed	0.16009112
30	0xbcaaff74	-0.020873763
31	0x3d0f4140	0.034974337
32	0x3ea2739b	0.31728825
33	0x3e782596	0.24233088
34	0xbe50db63	-0.2039619
35	0xbe92516e	-0.2857775
36	0x3f022aed	0.5084675
37	0xbe4ddb1e	-0.20103118
38	0xbdf9fd6d	-0.1220654
39	0x3e272633	0.16323166
40	0x3dae7a2b	0.085193954
41	0x3da61cf2	0.0811099
42	0xbec87c17	-0.39157173
43	0x3ce99bc5	0.02851666
44	0xbe57d419	-0.21077003
45	0x3f396611	0.72421366
46	0x3c8afa79	0.016965138
47	0xbe24085d	-0.16018815
48	0x3c316dad	0.010829371
49	0xba7e219f	-0.0009694341
50	0x3d8f3c13	0.0699388
51	0xbd51875e	-0.051154487
52	0xbe7b984b	-0.24569814
53	0x3d8a1c28	0.06743652
54	0x3d6c5068	0.05769387
55	0x3e6032df	0.21894406
56	0xbeb4b3b8	-0.35293365
57	0x3ebd530f	0.3697743
58	0xbe6579dc	-0.22409767
59	0x3f17e651	0.5933581
60	0xbbe3325f	-0.006933495
61	0x3d42216d	0.04739516
62	0xbe3724af	-0.17885087
63	0x3e3d8c7c	0.18510622
64	0x3e8a4dff	0.2701263
65	0x3d359a11	0.044336382
66	0x3e6a78dc	0.22897667
67	0x3cc8d0ae	0.024513569
68	0x3e11ba05	0.14231117
69	0xbd1162a3	-0.035494458
70	0xbe107706	-0.14107904
71	0x3dfef358	0.12448758
72	0xbda5397a	-0.080676034
73	0xbd44de4b	-0.048063558
74	0x3e868dd0	0.2628007
75	0x3df8e248	0.12152535
76	0x3e5c7b1c	0.21531337
77	0x3e707a91	0.23484255
78	0xbe3f22ff	-0.18665694
79	0x3e32bf7a	0.17455855
80	0x3cedf43e	0.029047128
81	0x3dbe1df7	0.09283059
82	0xbdbe0926	-0.09279089
83	0xbd1e31d0	-0.038621724
84	0x3bc0b156	0.005880515
85	0x3d5197c1	0.051170114
86	0x3dd6aedf	0.10482573
87	0x3db02078	0.08599943
88	0x3d9d448c	0.0767909
89	0x3e83d146	0.257456
90	0xbd960764	-0.073256284
91	0xbd98c001	-0.07458497
92	0x3d90f00d	0.07077036
93	0xbe77cf4f	-0.24200176
94	0xbc0de727	-0.008661068
95	0x3dd4411f	0.10363983
96	0xbce1e0e0	-0.027573049
97	0x3b91ddaa	0.0044514732
98	0xbdd5f9c1	-0.104480274
99	0x3dff16c3	0.12455513
100	0xbe88ba6f	-0.26704738
101	0xbcc61480	-0.024179697
102	0xbdb4d3d9	-0.08829469
103	0x3c258638	0.010102801
104	0xbeb8e5f8	-0.36112952
105	0x3c854e01	0.016272547
106	0xbd612c9d	-0.054974187
107	0xbf17818f	-0.59182066
108	0xbe2eebef	-0.17082189
109	0xbe40a895	-0.18814309
110	0xbd97ab1d	-0.07405684
111	0x3d9a2b13	0.07527747
112	0xbe68c54f	-0.22731517
113	0x3d5847a0	0.052802682
114	0xbd72788a	-0.059196986
115	0xbd98c3d3	-0.074592255
116	0xbe8d39a2	-0.27583033
117	0xbe8e02c8	-0.27736497
118	0xbe99fe28	-0.30076718
119	0x3e1b0c5e	0.15141436
120	0xbd2c4a9b	-0.042063337
121	0xbe9038b2	-0.28168255
122	0x3c83d9de	0.016095098
123	0x3e3445e7	0.1760479
124	0xbc1e2057	-0.009651265
125	0x3e49c1e6	0.19702873
126	0xbe315814	-0.17318755
127	0xbd4ab749	-0.0494912
128	0x3dddf1c8	0.10837132
129	0x3e3c45c6	0.18385991
130	0x3e3ebe82	0.1862736
131	0xbe994f13	-0.2994314
132	0x3e7d3228	0.24726164
133	0xbd8e14ab	-0.06937536
134	0x3dcd189b	0.10014459
135	0x3bb5c900	0.0055476427
136	0xbe24f232	-0.16108015
137	0xbdf748e0	-0.12074447
138	0xbe8ed819	-0.27899244
139	0x3e01a21e	0.12659499
140	0x3e73affd	0.23797603
141	0x3f27f5df	0.65609545
142	0xbe2e4dc4	-0.17021853
143	0xbe18d4d2	-0.14924935
144	0x3db2f991	0.08739007
145	0x3e38f88d	0.18063565
146	0x3e315095	0.17315896
147	0x3e375ca5	0.17906435
148	0xbd6b9e23	-0.057523858
149	0xbd6e226d	-0.0581383
150	0xbd974655	-0.07386462
151	0x3cf9e22c	0.030503355
152	0x3e10dd0b	0.14146821
153	0x3eec8239	0.46193102
154	0x3d38a67f	0.045080658
155	0x3dee4e0d	0.11635981
156	0xbd423ad2	-0.047419377
157	0x3e339d3a	0.17540446
158	0x3e7e537d	0.24836536
159	0x3e64c8c9	0.22342218
160	0x3d1b29b9	0.037881587
161	0xbdbcb62d	-0.09214435
162	0xbd8ff0d4	-0.07028356
163	0x3e25ddaa	0.1619784
164	0x3ccbceef	0.024878947
165	0xbc391120	-0.011295587
166	0x3db55304	0.088537246
167	0xbe89e915	-0.2693564
168	0xbb2ea529	-0.0026648736
169	0xbd723ae4	-0.059138194
170	0xbf039c54	-0.5141041
171	0xbdbf3e20	-0.09338021
172	0x3e3b3f26	0.18285808
173	0x3ebaabba	0.36459142
174	0xbe06f1f4	-0.13178235
175	0x3d8a92db	0.06766292
176	0x3d5b4a94	0.05353792
177	0x3ea11bee	0.3146662
178	0x3c371027	0.011173285
179	0x3e0d6d88	0.13811314
180	0xbe7c62a7	-0.24647008
181	0xbd5d626d	-0.054048944
182	0xbde2dd70	-0.11077392
183	0xbb5315f2	-0.0032209125
184	0x3d173968	0.03691998
185	0x3e4ab064	0.1979385
186	0xbcc9dd56	-0.024641674
187	0x3e5bc32c	0.21461171
188	0x3dd27895	0.102769054
189	0xbe31ba37	-0.17356192
190	0x3e1ce047	0.1531993
191	0xbe00a80f	-0.1256411
192	0xbe8a1c05	-0.26974502
193	0xbe6f1cc8	-0.23350823
194	0x3e498771	0.19680573
195	0xbd20c1b9	-0.03924725
196	0x3de0def6	0.109800264
197	0x3d1121cf	0.035432633
198	0x3da92cb3	0.08260479
199	0xbda24fc0	-0.07925367
200	0x3c0ae5e7	0.008477665
201	0xbbf31ed9	-0.007419449
202	0x3e662a5d	0.22477098
203	0x3e40bf46	0.18822965
204	0xbbb78c5b	-0.0056014485
205	0xbed39e1d	-0.41331568
206	0xbd872638	-0.065990865
207	0x3e6e50ec	0.23273057
208	0x3e8b27ac	0.27178705
209	0x3c03c2c1	0.008042038
210	0x3e1ee2f1	0.15516259
211	0xbd33beda	-0.043883182
212	0x3cd5e57c	0.026110403
213	0xbb8e16b8	-0.0043362044
214	0x3dd84f18	0.10561961
215	0x3dc294b0	0.09501016
216	0xbd4a5262	-0.049394973
217	0x3d26beed	0.040709425
218	0x3e07abb2	0.1324909
219	0xbe8135cc	-0.25236356
220	0xbd5a373b	-0.053275328
221	0xbe56d6c6	-0.20980367
222	0x3e3951b9	0.18097581
223	0xbd9ca73b	-0.07649084
224	0x3deedb7a	0.116629556
225	0xbcd242e7	-0.025666667
226	0xbdb533e4	-0.08847788
227	0x3e2768e3	0.16348605
228	0xbd852621	-0.06501413
229	0xbbaba4aa	-0.0052381353
230	0xbe0f73f5	-0.14009078
231	0xbe17fbaa	-0.14842096
232	0x3c9fc7b3	0.019504404
233	0x3e54e11a	0.20788994
234	0x3e03a9d2	0.1285775
235	0x3ebc9fb8	0.36840606
236	0x3e925e71	0.28587678
237	0x3eac8762	0.3369704
238	0x3d40aa9c	0.047037706
239	0x3de38436	0.111092016
240	0x3e1d57e9	0.15365566
241	0x3e237288	0.15961659
242	0x3e7e4ee1	0.24834777
243	0x3e696c4a	0.22795215
244	0xbd33f742	-0.043936975
245	0xbde62956	-0.11238353
246	0x3e55a18a	0.20862404
247	0xbdf1ecf4	-0.11812773
248	0x3de882bc	0.113530606
249	0x3e61bca8	0.22044623
250	0xbd8383d8	-0.064216316
251	0x3d02142f	0.03175753
252	0x3dababad	0.08382354
253	0x3e2ad352	0.16682175
254	0x3d92472d	0.07142482
255	0x3e78aee3	0.24285464
