models/QLSTM_mse_epochs8.pth (torch, 168269 bytes, 76 tensors)

layers.0.wfx.r_weight f4 [1, 32]
00000000: 6840 23bf f65b 57be c014 05bf 5477 bbbe
00000010: 7d21 afbe 1409 1dbf a4db 06bf 1a3f 03bf
00000020: 6236 1cbd ef37 87be 43d2 a2be 4af7 73be
00000030: c0fd f9be 251f 27bf 2324 8fbe ea3f fdbd
00000040: 4446 05bf acfb 7ebd 72d8 3cbf 0ebb 053d
00000050: c947 1bbf dc56 1bbe 4091 03bf 8a91 a6be
00000060: 9882 9abe f959 0ebf f92f d8be 9a1b 48bf
00000070: 2c5b b9be 2fb3 f0be b86e c1be e0f6 53bf
-0.6377015 -0.21031174 -0.51984787 -0.36614478 -0.34205237 -0.6134198 -0.52678895 -0.5126816
-0.0381378 -0.2640986 -0.31801042 -0.23824802 -0.48826408 -0.652819 -0.27957258 -0.12365706
-0.5206034 -0.06225173 -0.7376777 0.032649092 -0.6065641 -0.15169853 -0.5139351 -0.32532912
-0.3017776 -0.5560604 -0.422241 -0.78167117 -0.3620237 -0.47011706 -0.37779784 -0.82798576

layers.0.wfx.i_weight f4 [1, 32]
00000000: ca17 fc3e 41ed 8c3e d8d7 48bd d0f6 193c
00000010: 8dd0 ce3d 96e7 e33d 2257 bb3d 8c37 19bd
00000020: ca48 6b3e 006a df3d 7f64 d9bd 3cf2 a8bb
00000030: d7f1 debb b9c7 903c 755e 2c3d ab0f 5f3e
00000040: d0e7 80bd 69fd 82bc db28 4a3d 137a 0f3e
00000050: 4729 5dbd 6cd3 143d 98a0 a13d df0c 2d3d
00000060: 3cda 3ebe 85ff 0a3d f44c f0ba dec2 f03d
00000070: d8a2 b03c d5fd 8a3e cde1 7c3d c50b be3d
0.492369 0.2752476 -0.04903397 0.009397224 0.10098372 0.11128156 0.09147479 -0.03740649
0.22976986 0.1090889 -0.10614871 -0.0051558297 -0.006803732 0.01767336 0.04208227 0.2178332
-0.06294215 -0.015989976 0.04935537 0.14011411 -0.053994443 0.03633444 0.07891959 0.042248603
-0.18637937 0.03393509 -0.0018333481 0.11755918 0.021562025 0.27146783 0.061738778 0.092795886

layers.0.wfx.j_weight f4 [1, 32]
00000000: 3c8e 01be 8c75 ba3e 8694 803d b09f 8bbd
00000010: a057 ec3c cbae cd3d 4a2c 663c b8b3 cd3b
00000020: 4b0a a13e 9481 4a3e e24d dcbd c952 5f3d
00000030: 72c3 033e 929f bcbc 4284 833c 8cbb c13d
00000040: 8b26 45bd 9ffc ebbc 1290 67bd b8d8 263d
00000050: e007 3dbd 4081 debc 1c80 4d3e 22a3 9ebc
00000060: 7c10 b93c ccc7 debd fd55 8f3d 66fb 0d3c
00000070: 6160 213d cea4 33be b285 98bd 2b08 94bd
-0.12651914 0.36417806 0.062783286 -0.06817567 0.028850377 0.10043105 0.014048645 0.0062775277
0.31453165 0.19775993 -0.107570425 0.05452231 0.12867525 -0.023025308 0.016054276 0.094596
-0.04813246 -0.028806983 -0.05653388 0.040734023 -0.04615009 -0.02716124 0.20068401 -0.019364897
0.022590868 -0.10877952 0.06998823 0.008665895 0.039398555 -0.17543337 -0.07447375 -0.072281204

layers.0.wfx.k_weight f4 [1, 32]
00000000: 70bd 11be 5fcf ecbd 7c44 fb3c b966 9abd
00000010: fee8 723d 5749 bfbd c66c 8ebd e863 f33d
00000020: f530 803d 94f1 b03b 5218 29bd 0801 8f3c
00000030: f6b6 4d3e 0273 4abb c731 bb3d 0d6e 8c3d
00000040: 6aa0 8b3d 19c7 29bd 4054 bdbc 2907 eabd
00000050: 9060 83bd acb1 85bd 38db 643e 1ee2 46bc
00000060: ef4f a03e 481e 9abd 44a8 14be 4419 3c3e
00000070: 906a 98bd 1d63 45be bcce febc a09a 05be
-0.14232421 -0.115629904 0.030672304 -0.07539124 0.05930423 -0.0934016 -0.06954341 0.1188429
0.06259338 0.005399892 -0.04128296 0.017456546 0.20089325 -0.0030891304 0.09140354 0.06856928
0.06817706 -0.04144964 -0.023111463 -0.11427147 -0.06414902 -0.06528029 0.2234925 -0.0121388715
0.31310984 -0.07525307 -0.14517313 0.18369013 -0.074422 -0.1927609 -0.031104438 -0.13047266

layers.0.wfx.bias f4 [128]
00000000: 4b12 0abf 4099 34be c5d3 35bf 39e3 2dbf
00000010: e018 9abe 6f7f 6dbf a3c7 98be 4203 24bf
00000020: cc91 8dbd 104c a7bd 7085 bfbe 7e0a 02be
00000030: cd51 0cbf 0bf1 163c e6bc 04bf 0c5f a33a
00000040: 8301 e1be 0430 31bf 9c31 5dbf 0a60 07be
00000050: 6ccb 30bf f17f eabe 122f 76bf 8b29 75bf
00000060: 0697 a1be 0a22 fbbe bab7 41bf 2f40 10bf
00000070: 32e9 4bbf 915b 6cbf f4a9 42bf 4203 8bbe
00000080: 54e7 1dbf 3d86 c6be 7338 2cbf 3597 55bf
00000090: 26f7 00be cf91 8cbf 1ac2 ecbe b8b7 1fbf
000000a0: efe5 c03b 80a6 2ebe 8a66 cfbe aa52 34be
000000b0: c346 d5be 9175 d8bd 9570 17bf 9792 35be
000000c0: 1ebf 15bf 071a 28bf 985b 5abf a786 9cbe
000000d0: 6b78 75bf 1108 d3be ab5d f6be 75c4 7fbf
000000e0: 1d77 6bbe 5ed4 09bf 494b 44bf 0cec 50bf
000000f0: 421e 5cbf ca7d 3ebf fc4b 2cbf e372 24bf
00000100: d9c4 c9be bc8f 30be 51e4 47bf 1015 2fbf
00000110: 9478 10be f65f 59bf 2907 33bf d287 42bf
00000120: 1572 ec3d fe18 16be abfd 4abf 54d4 33be
00000130: 529c c9be 436b 06be d492 10bf 0e8a b7bc
00000140: d913 0fbf 507f 23bf 6ffa 49bf 9899 06be
00000150: 9550 11bf 57b3 e0be afa2 28bf 2312 81bf
00000160: 102d 2dbe 5b2b d2be b711 48bf 538d 2fbf
00000170: 6960 2bbf 2bbf 4ebf 4cc8 38bf 780e 11bf
00000180: 22aa 34bf 340b 79be 89ab 2fbf b9a5 2cbf
00000190: 6619 5fbe 862a 5abf 9a29 d6be 9c79 57bf
000001a0: fa71 00be 41b3 d6bd 7531 9ebe 7ba3 d3bd
000001b0: 372f 14bf beea 26bd 5678 15bf 639c 0cbd
000001c0: 47ad f8be 5024 34bf 9d8d 6abf efc8 d9bc
000001d0: d007 4ebf 2555 0abf 2dcc 39bf 8949 84bf
000001e0: 7d86 fd3c 6ff3 e5be d76a 42bf a924 14bf
000001f0: e836 39bf 3a7b 37bf c6bb 27bf 12f2 25bf
-0.5393416 -0.17636585 -0.7102626 -0.6792484 -0.30097103 -0.92772573 -0.2983981 -0.6406747
-0.06912574 -0.08168805 -0.37406492 -0.12699315 -0.5481232 0.009212743 -0.51850736 0.0012464239
-0.43946466 -0.6921389 -0.8640382 -0.1322023 -0.690604 -0.45800737 -0.96165574 -0.95766515
-0.31560534 -0.49049407 -0.7567097 -0.56347936 -0.796527 -0.9232722 -0.7604058 -0.27150923
-0.61681104 -0.3877429 -0.67273635 -0.8343385 -0.1259428 -1.0981997 -0.46241838 -0.6238971
0.005886785 -0.17055702 -0.4050792 -0.17609659 -0.4165555 -0.10569299 -0.5915616 -0.17731701
-0.58494747 -0.65664715 -0.8529601 -0.30571482 -0.9588687 -0.41217092 -0.48118338 -0.99909145
-0.22994657 -0.5383967 -0.76677376 -0.8161018 -0.8598367 -0.7441069 -0.6730344 -0.64237803
-0.39407995 -0.1724233 -0.7808276 -0.68391514 -0.14108497 -0.8491205 -0.699328 -0.75988495
0.11545197 -0.14657971 -0.79293317 -0.17561466 -0.39377075 -0.13126855 -0.5647404 -0.022404697
-0.5588966 -0.6386614 -0.78897756 -0.13144529 -0.56763583 -0.43886825 -0.65873235 -1.008366
-0.16911721 -0.41048703 -0.7815203 -0.6857502 -0.66943985 -0.8076045 -0.7218063 -0.566627
-0.705721 -0.2432068 -0.68621117 -0.6744037 -0.21787032 -0.85221136 -0.41828614 -0.84169936
-0.12543479 -0.10483409 -0.30897108 -0.10333916 -0.57884544 -0.04075121 -0.58386743 -0.03432883
-0.485697 -0.7036791 -0.91622335 -0.02658507 -0.8048067 -0.5403617 -0.7257717 -1.0334941
0.030947918 -0.44912288 -0.75944275 -0.5786844 -0.72349405 -0.71672404 -0.65520895 -0.64822495

layers.0.ufh.r_weight f4 [32, 32]
00000000: c98e cbbc 0739 b6be 14a7 2ebe 0382 553e
00000010: 1a0b 26bf ebe3 1abe 7086 f03d 769a a3bc
00000020: 20d9 c3bc 2275 a1be 1ff7 dd3d c4e1 a23e
00000030: 4fb2 833c f6d4 b6be 9993 903d 7764 423e
00000040: e85b 87bd 08aa c63d 5e71 94bd 37a3 81be
00000050: 2a39 4a3e b3bc e3bd b24c 563d 13b6 1dbd
00000060: a68e 9dba e00b 4bbe 2850 493e 2dbe 06bc
00000070: c04c fb3d ef1c 433d 3062 123d d69a 8d3d
00000080: c8fc 0cbe 1787 08bd 723b f23d 36e1 db3d
00000090: ded3 023f 02b4 76bd 1b55 16bc 0f93 fbbd
000000a0: b2f0 0ebd a8e6 323e d5d7 7a3c 69af 403e
000000b0: 18a5 cdbb 4a03 ab3e 8690 c73d cfab 023d
000000c0: 1ed3 aabd cb17 a93e 7b55 9c3c ae80 813e
000000d0: 32ac 4cbe d3ce e33d 2d13 d63d 41ef ecbd
000000e0: 0927 5fbe 9895 df3e 9d99 f9bd 99ae 9c3e
000000f0: 3850 843e 1f74 9a3e 7cae 5a3d 796b d13d
00000100: 626f 97be 32ff e63b 9447 a33d f48e 1ebe
00000110: 8dff 01be f303 9c3d d2c4 77be e077 0cbe
00000120: 11bc 9bbe 704c d83c 479d 7b3e c264 01be
00000130: 53ea 2abe 9a9c 693e ff45 4fbd 83e0 773d
00000140: 4f19 fbbd e50c b63d 9f22 363d fca9 453e
00000150: 2fce cebd 306a 06be cfd8 a4be 89df 54be
00000160: e1f5 c03d 62cd a23e 9416 34be d8f1 b8bc
00000170: a7bb 3e3c 79a6 f73b 0d5c 193e 92ef 073e
00000180: 31dd 023c ab88 89bd 72d2 63be e2fe 473e
00000190: bdbd 09be 22b6 8d3c 77c7 b73d 1874 0ebd
000001a0: 6660 20be 7f9d cdbc f3fd 28be c149 93be
000001b0: f48c ce3d c8c2 0d3e 0f56 33bd d69d cebd
000001c0: 48f1 bb3d 6da7 283c 8d0b 0ebe b2ed 94bc
000001d0: 100f 053c da72 12be 53ef 52be 3770 81be
000001e0: 69cc 1c3e 9526 b03c b284 853d b0b7 043e
000001f0: 6845 373c 922f 17be 80eb 0bbd 1b52 8e3e
00000200: 2f93 6abd 7d9a 163d 099e 273e 02e6 683d
00000210: e871 443d f0fb 2ebe 875f a23d 076b 05be
00000220: a083 bb3d e886 263c f228 8cbc 6c51 ee3d
00000230: f341 ac3e 4cbe 273e fa93 c53d 1413 323e
00000240: 766b 013d 5d7a 7a3e 285e e93d eca3 f13e
00000250: 8113 9abd 205c 803e 7f7c 35be 429d f03d
00000260: 4f22 da3c 9e15 873e e2c3 423e 68f3 163e
00000270: 66da e1bc 41b2 f0bc e450 4a3e aa4f 603d
00000280: 31a4 2bbd ec54 7cbe a69f 55be 4ff4 6d3e
00000290: 0990 df3c 7f04 df3d edba 993d ade8 203d
000002a0: 2205 b4bd bbe1 60be 644b 52be 4627 62be
000002b0: 07eb 20be 4632 1f3e f495 0dbe 67f8 7bbd
000002c0: e620 1ebe 55bc a23a b013 173d 65ee 90bc
000002d0: f444 96be 650b 0b3e 5e4c e3bd a599 863c
000002e0: dff0 fd3d 73e6 a5bc fc19 493e 1aaf 3dbd
000002f0: a842 803e ac87 413d 550c 073e d624 6c3d
00000300: 94d7 ed3d 6924 52bc 9f85 4bbc 01eb 38be
00000310: e974 733e d1df 4d3c 2f04 ebbd c212 363e
00000320: 335d 7a3d f4d6 3cbd a25d cbbd 4b5f 0e3e
00000330: 3962 0ebd 0200 a53d 720d a23d 8311 fbbd
00000340: 3d78 ccbd e761 613d fcee f0bd 8ae8 2e3e
00000350: 13eb 513e ae11 0a3d b24d 2a3e 9ec7 13be
00000360: 132c 233e 35c3 aabd aacd adbd e9e7 973e
00000370: 9f3a b63d 3cb8 d13d 80b1 7b3d fae4 ef3b
00000380: d82d d23c 561f d4bd 910d 033d 1073 a53d
00000390: 066d 75be 38e7 443d 02c8 5d3e da4f c5bd
000003a0: 5efd 333e 7203 dd3d 7d2d 7f3e 72d5 863e
000003b0: 6755 493e ba43 5a3e 5ff8 853d 6dc1 173e
000003c0: 1149 583c ee61 94bd 460b d03d 134d 843d
000003d0: feb9 8c3e 799f 853d 9fd2 823e e452 53be
000003e0: 0a47 37be 39be f0bc 0810 1e3e f205 dfbb
000003f0: 869a bfbd b9e3 253d 777a 653d 5751 f2bd
-0.024848359 -0.35590383 -0.17055923 0.20850377 -0.6486069 -0.15126006 0.11744392 -0.019971114
-0.023907244 -0.31534678 0.1083815 0.3181287 0.016076235 -0.3570935 0.07059402 0.18983637
-0.066093266 0.097004 -0.072481856 -0.25319836 0.19748369 -0.11119976 0.052319236 -0.038503718
-0.0012020662 -0.19828749 0.19659483 -0.008224052 0.12270498 0.047635015 0.03573817 0.06914298
-0.13768303 -0.033331957 0.118277445 0.10736315 0.51104534 -0.060230263 -0.009175564 -0.122839086
-0.034897514 0.17470801 0.015310247 0.18816914 -0.006275784 0.33400947 0.097443625 0.03190213
-0.08341049 0.33025965 0.019083729 0.25293487 -0.19987562 0.11123433 0.10452876 -0.115690716
-0.21792234 0.43668818 -0.121875025 0.30601957 0.25842452 0.30166718 0.053389058 0.10225577
-0.29577166 0.0070494646 0.07972637 -0.1548422 -0.12695141 0.07617941 -0.24196175 -0.13717604
-0.3041692 0.026403636 0.24571715 -0.12636092 -0.1669095 0.22813645 -0.050603863 0.060516845
-0.122606866 0.08889178 0.04446661 0.19303125 -0.1009792 -0.13126445 -0.32196662 -0.20788397
0.09421898 0.3179732 -0.17586738 -0.022576258 0.0116414195 0.007557687 0.14976521 0.13274983
0.007987306 -0.067155205 -0.22248247 0.19530824 -0.13451286 0.017298762 0.08973592 -0.034778684
-0.15661773 -0.025099514 -0.16503124 -0.28767207 0.100854784 0.13843834 -0.043783244 -0.100886986
0.0917688 0.010293824 -0.13871594 -0.018179748 0.008121267 -0.14301625 -0.20599107 -0.25280926
0.15312351 0.021502772 0.0651945 0.12960696 0.011185981 -0.1476424 -0.034160137 0.27797017
-0.05726927 0.036768425 0.1636888 0.056859978 0.047960192 -0.17088294 0.07928377 -0.13029109
0.09155965 0.010164 -0.017109368 0.11636624 0.33644065 0.16381186 0.09647365 0.1739009
0.031596623 0.2446074 0.11394912 0.47195375 -0.07523251 0.25070286 -0.17723273 0.117487445
0.026627688 0.2638368 0.19020036 0.1474129 -0.02756996 -0.029381873 0.1975742 0.054763474
-0.041904632 -0.2464177 -0.20861682 0.23237728 0.027290361 0.108895294 0.075063564 0.039284397
-0.087900415 -0.2196111 -0.20536572 -0.22085294 -0.15714656 0.15546522 -0.13826734 -0.06151619
-0.15442237 0.0012415746 0.03688401 -0.0176918 -0.29349482 0.13578565 -0.1109855 0.016430685
0.12399458 -0.020251488 0.19638819 -0.046309568 0.25050855 0.047248527 0.13188298 0.057652317
0.11613384 -0.012826064 -0.0124219945 -0.18058397 0.23775066 0.012565569 -0.11475407 0.17780593
0.061124038 -0.046103433 -0.099299684 0.13903539 -0.03476164 0.08056642 0.07912721 -0.122591995
-0.09983871 0.055025008 -0.11764333 0.17080894 0.2049983 0.033708267 0.16631201 -0.14431617
0.15934782 -0.08338014 -0.08486493 0.2966912 0.088979 0.10240218 0.061448574 0.0073209973
0.025656626 -0.10357539 0.03199536 0.08078587 -0.2396737 0.04807207 0.21658328 -0.09634371
0.1757712 0.10791673 0.24919696 0.2633472 0.19661485 0.21314898 0.06541514 0.1481988
0.013201014 -0.07245241 0.101584 0.06460013 0.2748565 0.065245576 0.25551316 -0.20637089
-0.17898193 -0.02938758 0.15435803 -0.0068061287 -0.09355645 0.040500376 0.056024995 -0.118319206

layers.0.ufh.i_weight f4 [32, 32]
00000000: f438 93bc 121b 523e 6ac0 bdbd 1174 f83c
00000010: 1a59 a03e 56f0 323d 551d bd3d e99f 443d
00000020: 3adb 693e 244e 2b3e a0f3 b23d f5fe 3f3e
00000030: 37b3 aabe 25e1 0e3e 3918 833d 4449 55bd
00000040: 2812 40bd 99a7 a93d 4cad debb ac7d ae3d
00000050: 4da1 6f3d d6ce 893c e082 853d 4f3c dcbd
00000060: 6702 943e e7fe 343e 96d7 bc3c 5bfb 9fbd
00000070: e14d 4b3e 6f74 283d 5f2a 9c3d 1922 093e
00000080: 787c edbd 20a4 8fbd 5ec8 9e3c d45f 713c
00000090: e4eb cf3a dec6 46bd 807b 893d 1cec 81bd
000000a0: a1d2 80bd fd3f 323d 18da 2f3c 633b f23c
000000b0: e159 9d3d e6d3 263d 17f1 cf3d 13ad 06bd
000000c0: 4b6f dfbc fbb6 f03b bf69 fd3d 3a98 36be
000000d0: 7783 13bd 9301 65bd 4bbc 1d3e c5b4 a23c
000000e0: 0b2a 15bc b4a8 1f3e 92d0 ffbd f78b 19be
000000f0: 241c 423e 4580 023d a98a 7a3d a991 43be
00000100: 6b71 86bc 6767 5b3c 85fe f83d 88e7 b8bc
00000110: b8d2 4dbc 6496 56bc 742b fc3d 8639 8f3d
00000120: f28f 303d d155 e0ba 54cd 5b3c 197f cf3d
00000130: 55fc 443e aefd d2bd 2a24 44bd 18d8 1d3d
00000140: 71db a63c eee0 efbd 5d24 aabb 552a 603d
00000150: e3ca 053e 7cff ce3c 2923 05bc 76bf 26bd
00000160: d9d6 393e a9e5 38bd 7cd0 223e 5257 88bd
00000170: 397c 933d b53e 36bd 354a 193c 0f83 afbb
00000180: 906d 3ebe 06f3 33be 71a0 513d 5d7a 9f3d
00000190: 538b 41be 738d b73b d5d5 f33d 20b6 f6bd
000001a0: 703b 8dbd 7ba5 023d ddda e4bc b6ca 83bd
000001b0: 77b1 9a3d b55d ffbd 666c 2c3e 4877 6a3d
000001c0: 37cb e7bd b911 80bc 2041 7b3d 7b3e 02bd
000001d0: 799f babd 78bb a63c df2d 193d b9e1 8a3d
000001e0: 3fbf 83bc 4b3b 383e 3613 1bbc 88d0 383c
000001f0: d6e1 b0bd fc24 ce3d e6f1 343e 5557 863d
00000200: aef4 22be 85b0 9fbe 22d3 d83d a7f9 993d
00000210: 319e 8cbc 4138 b33d 55f4 1b3e 9c50 2e3e
00000220: a500 53be b31c 8cbc 0854 e0bc 0d79 c3bd
00000230: 1ba2 25bd d2de d43d db78 213e 13d2 f4bd
00000240: a4d5 17bd 5c33 373d e95d 95bb f12c 4bbe
00000250: c03a a5bd 26a5 06bd 1176 4a3e 646c 42bd
00000260: cd6f e63d 7cb5 503d 0aca 9abd e268 4dbe
00000270: ad97 1fbd 490e 37bd 128d e63c 986d 453b
00000280: 162e 19be 4da7 353c 4335 183d 3309 37bd
00000290: 51d3 8a3d 4de9 bd3c 098b 09bc 075c d43d
000002a0: 1698 403d 9d5b 103e 1de6 5cbd 8b66 6fbe
000002b0: ebeb ce3b 5d37 c1bc d10d 083e 933a 5fbc
000002c0: 0627 6dbd 7d13 d0bb 8d8b 0abe 6c3a a5bd
000002d0: adf3 fbbb e566 8b3a 5949 a43c 6af4 8ebd
000002e0: 195e 953d d921 bcbc 17b8 21be 4483 933d
000002f0: d60f b2bd a500 24be 9562 a8bb b696 15be
00000300: 1ca5 90bd 8525 3b3e 3a8a 19bb 09c1 d4bc
00000310: 3b78 ad3d 1d1d e9bd ab44 8e3d 86a8 173e
00000320: a0bb 33be 5502 e63d 7d62 3f3a 0a78 3c3e
00000330: faf5 2c3d d93f af3d fd2f 05be f391 223d
00000340: 835e cc3c f521 9a3d ee12 b6bb 9c3c 103e
00000350: ec53 b2bd a32e f93d 52cb 23be e184 14bd
00000360: aee3 aabb 93e5 97bd d1d5 c63d 044a 7a3c
00000370: c352 033d f406 b33d 7444 45be 83ec 5f3d
00000380: dd0f 243d fcfd d6bd ae02 bc3d 238e 583c
00000390: e963 e2bd 82d5 11bd 9fd8 0b3c 2fc8 71bc
000003a0: 1199 9abc ddb0 203d ad54 d7bd 10c6 dbbd
000003b0: 2355 eabd ed1a bf3e fc8b b43d db55 5a3d
000003c0: b9cf 38bd 5c3a 41bd b51b a7bd 0436 0fbc
000003d0: 0854 ddbc 4c30 2d3e 0ffa 0d3e 0f1f 133d
000003e0: ca29 b2bd 3bbc 753e ef53 923d 55b6 023e
000003f0: 5224 8b3d 341a 833d 824c d03d 22d8 e33d
-0.017971493 0.20518139 -0.09265216 0.030328782 0.3131798 0.043686233 0.0923411 0.048004065
0.22837535 0.16729027 0.08737874 0.18749602 -0.33339855 0.13953073 0.064011045 -0.052071825
-0.046892315 0.0828392 -0.006795561 0.08520064 0.058503438 0.01682226 0.06519103 -0.107536905
0.28908083 0.17675363 0.023052018 -0.07811614 0.19853927 0.041126665 0.07625269 0.13391913
-0.11596006 -0.07013726 0.019382652 0.01473232 0.0015863148 -0.0485295 0.06713009 -0.063438624
-0.06290174 0.043518055 0.01073315 0.029569333 0.07683159 0.040729426 0.10153406 -0.0328799
-0.027274748 0.0073460317 0.12373685 -0.17831507 -0.036014047 -0.055909704 0.1540386 0.019861588
-0.009104262 0.15591699 -0.124909535 -0.14994799 0.18956047 0.03186061 0.061167393 -0.19098534
-0.016411504 0.013391352 0.12157921 -0.02257134 -0.012562446 -0.013097379 0.123129755 0.069933936
0.043106027 -0.0017115419 0.013415653 0.10131664 0.19236882 -0.10302292 -0.04788605 0.03853616
0.02036831 -0.11712824 -0.005192323 0.05472787 0.13065676 0.025268309 -0.008126059 -0.040709935
0.18148364 -0.045140896 0.15899843 -0.0665728 0.07201428 -0.044493396 0.009356071 -0.0053561996
-0.18596482 -0.17573175 0.0511784 0.07787011 -0.18900804 0.005601579 0.119060196 -0.12046456
-0.068961024 0.031896096 -0.027936393 -0.064351484 0.0755338 -0.12469045 0.16838226 0.05724266
-0.11318057 -0.01563345 0.061341405 -0.031797867 -0.09112448 0.020353064 0.03739726 0.067813344
-0.016082404 0.17991368 -0.009465029 0.0112801865 -0.08636825 0.10065648 0.17670402 0.06559626
-0.1591365 -0.3118936 0.105871454 0.075183205 -0.017165275 0.08750964 0.15229924 0.17022938
-0.20605715 -0.017103529 -0.02738382 -0.09544573 -0.0404378 0.10394062 0.15768759 -0.11954131
-0.037068978 0.044726714 -0.004558314 -0.19841363 -0.08067846 -0.03287234 0.19771601 -0.04746665
0.11251793 0.050954327 -0.07558067 -0.20059541 -0.03896301 -0.044691358 0.02814344 0.0030125137
-0.14958987 0.011087251 0.03716017 -0.044686507 0.06778587 0.023182536 -0.008394965 0.10369115
0.04702004 0.14097448 -0.05393039 -0.23378961 0.0063147447 -0.02358597 0.1328652 -0.013624805
-0.057898544 -0.0063499794 -0.13529797 -0.08067784 -0.0076889605 0.0010635523 0.020054506 -0.06980212
0.07293338 -0.022965359 -0.15792881 0.07202771 -0.08694427 -0.16015871 -0.005138705 -0.14608273
-0.07062742 0.18276031 -0.0023428337 -0.025970953 0.08470198 -0.11382506 0.06946691 0.1481038
-0.17552042 0.112309135 0.00073007477 0.18405166 0.04222677 0.085571 -0.13006587 0.03968997
0.02494741 0.07526008 -0.005556456 0.1408562 -0.08707413 0.121670984 -0.1599553 -0.036259536
-0.00521513 -0.07416835 0.09708751 0.015276436 0.03206135 0.087415606 -0.19264394 0.054668915
0.04005419 -0.104976624 0.091801986 0.013217482 -0.110542126 -0.035604008 0.008535533 -0.0147572
-0.018871816 0.03923117 -0.105141975 -0.10731137 -0.1144202 0.3732523 0.088157624 0.053304534
-0.045119975 -0.047174796 -0.081595816 -0.008740906 -0.027017608 0.16912955 0.13864921 0.03591829
-0.08699377 0.23997585 0.07144915 0.12764867 0.06794037 0.06401482 0.10170843 0.111252084

layers.0.ufh.j_weight f4 [32, 32]
00000000: 07bc 5bbd 59f5 3b3e a200 a13d eeac 9fbd
00000010: 2ce0 803d 4e5b 8f3c 1ee4 14bd 6584 033e
00000020: 433f 05be d9f2 7d3d b40d 1fbd a04f 893e
00000030: 1083 6b3d 4ecf 2a3e fdff 9e3e 4e56 903e
00000040: 97c2 4dbd 1724 4c3d 5a29 72bd 60fd 013e
00000050: 893c 253d 3e57 283e c894 903e e19c 403e
00000060: 4307 253e 75e3 b5ba 811c 6f3d a32e 993d
00000070: 0c6f d93b 7ddf 10be 569c 2bbd 5194 ec3d
00000080: b3cb 6c3c 8bf1 6abe b693 aebc 8f0f 033e
00000090: 1b41 64bd 1265 963d 568c 2cbc fdfe 00be
000000a0: 9fd0 c93c 5111 853c 4bc0 d13c 4c9c 263d
000000b0: 9758 a1bd 1011 edbd 8dc2 653d f5b5 c1bd
000000c0: eda8 e33d 8a8f a13d fb03 583d 2038 80bd
000000d0: 0095 af3c 2030 20bd 53ad 193e e491 a4bd
000000e0: 90e9 e1ba 230a 403e 5882 16be acb6 553d
000000f0: 7c76 f03d 8763 a0bd 79ea 2bbd 4c52 033e
00000100: cba9 edbd 2498 8bbe c7c1 64bd 83dd f2ba
00000110: 02ec 63be 212f c3bc 74f9 3abe e5d0 49bd
00000120: 27bf 1fbe f9ce 60ba 629f 03be f801 17be
00000130: 461c b53d 7c8e aabe aacd 4abd ec80 043d
00000140: f7aa b1bd 4fa8 2abe 51ee 4c3d 0a18 febd
00000150: f035 0abe 07b8 1cbe bb5b 6fbd 8def 533b
00000160: 1eed b73d 00a5 9abe 8eb1 b8bd a44e ecbd
00000170: e6f1 b9bd e9db f2bd 3406 78bd 2b3f 99be
00000180: f0ed 023c e436 12be 2c83 3b3a b9cf 543d
00000190: 5587 fabc 873d a0bd 8132 8f3d 85f8 d5bd
000001a0: 302d 33bd 026a a13d 4fb6 9dbd 8ca2 4e3b
000001b0: 7670 e9b9 86c0 95be 830e 50be b4d3 9ebd
000001c0: 028b 763c 9627 213d da47 00bd 48b6 7e3d
000001d0: d132 433d 6c80 78bd 3d47 29bd 6294 1cbd
000001e0: 527a 4fbe 3b99 5dbe f7c1 2cbe da92 4bbc
000001f0: 8639 503d 9347 553c cba7 fd3d 7f0b 45be
00000200: f0c5 cc3c 4202 84be 57e6 2e3a 0a10 483c
00000210: 87aa 80bd 70f0 9ebd 0a3e b4bd 3c03 0dbe
00000220: 5f96 b8bd 8687 1f3e 6573 823d 0323 9c3d
00000230: efb1 223c 93de 1c3e adcd a9bd 5949 93bd
00000240: c20d 2b3c b0cb 863e 1141 09bd 8f7d 423d
00000250: c31b 24bc abb6 5c3b a161 2b3e e649 a93c
00000260: 1f35 333d 411a 473e 1345 883d 1264 2c3e
00000270: 3fd7 7d3d 0ab9 25bc 8c42 b23d af8a 633e
00000280: d704 4e3c 6ffd 993d 9939 0cbe 95e2 d03d
00000290: 5efc 573c 7d14 72bd c59a 29bd 599b 2e3e
000002a0: f969 de3d b892 423d 23ed 623d 3d64 dbbc
000002b0: d825 143e cc7f a1bd 30c2 edbd 4a04 06bd
000002c0: 3268 963d daba 0d3d dce0 fcbd d7dc 8f3c
000002d0: 3d0c 8e3d 9507 68bc 0605 1a3d 78e3 75bd
000002e0: ba60 833d 6911 5cbd ff50 8e3d 4321 2c3e
000002f0: 49d9 0bbd aa67 8abd 7d42 ea3d 6c08 f9bd
00000300: bce7 433d 8751 ffbd 4645 89bd 58c5 b8bc
00000310: e446 0a3e ae3a d8bc 77a4 4cbc 6cb2 d23d
00000320: dfcd 0f3e 3c5b b43d 63ae c93c 0374 3fbd
00000330: 8f0b 0fbc 2aae a8bd 69e8 ab3d e41d 08be
00000340: eeeb d0bd 9f78 1cbe aed5 6f3c 6fb6 58be
00000350: f876 ac3c bfbc 873d db36 773e 93e0 213c
00000360: 2648 8a3d 599c 5fbc 3be8 b8bd 5b6a 5cbd
00000370: ebb3 6b3d bcf2 6c3c 5def ab3d 79cb 77bc
00000380: 39fb bcbd ad03 bc3d c0a7 fe3d f8d7 5f3d
00000390: a4f4 c0bd ca7a 633c a4e8 c33d 8839 273d
000003a0: 69bd d73d a1c2 d0bd f155 15be b4c3 52be
000003b0: e401 993c 924b 453e 8fc9 a33d 3e02 56bd
000003c0: bc4a cb3d 15c9 863d d668 6b3d 2631 c4bd
000003d0: 807f abbd fe5b 0fbc 3c62 2c3e c3c7 3c3c
000003e0: 9bc5 cc3d e6bf 6e3e 1b8e c0bc 738d 393d
000003f0: 78c1 903d 05f6 adbd 7c5f b7bd b9bf ae3d
-0.053646114 0.18355311 0.07861449 -0.077966556 0.062927574 0.017499592 -0.036350362 0.12843473
-0.13012414 0.061999176 -0.038831428 0.26818562 0.057498038 0.16680643 0.3105468 0.28190845
-0.050234403 0.049839105 -0.059121467 0.12694311 0.040340934 0.1643953 0.2823851 0.18809845
0.16116051 -0.0013876992 0.058376793 0.074795984 0.0066355523 -0.14147754 -0.04189714 0.115517266
0.014452863 -0.22943704 -0.021310668 0.12798904 -0.055726152 0.073434964 -0.010531506 -0.1259727
0.024635611 0.016243609 0.025604388 0.0406764 -0.07878225 -0.1157552 0.05609374 -0.09458534
0.111162044 0.07888706 0.05273817 -0.06260705 0.021433353 -0.039108396 0.15007524 -0.08035639
-0.0017235745 0.18753867 -0.1469816 0.052176163 0.11741349 -0.07831483 -0.041971657 0.12824363
-0.11604651 -0.27264512 -0.055848863 -0.001852915 -0.22257999 -0.023826184 -0.18259221 -0.049271483
-0.15600263 -0.0008575763 -0.12853768 -0.14746845 0.08843283 -0.33311832 -0.049512543 0.032349512
-0.08675187 -0.16665767 0.050031964 -0.12406929 -0.13497138 -0.15304576 -0.05843709 0.0032338828
0.089807734 -0.3020401 -0.09018241 -0.11538437 -0.090793416 -0.11858351 -0.06055279 -0.29931006
0.007991299 -0.14278752 0.000715303 0.051955912 -0.03058211 -0.078242354 0.06992055 -0.10447792
-0.043744266 0.078815475 -0.07700788 0.003152999 -0.00044525013 -0.29248446 -0.20318036 -0.07755223
0.0150477905 0.039344393 -0.031318523 0.062185556 0.047655884 -0.060669348 -0.041327704 -0.038227446
-0.20261505 -0.21640484 -0.16870867 -0.012425149 0.05083611 0.013017553 0.123855196 -0.19242667
0.024996728 -0.25782973 0.00066718966 0.012210855 -0.062825255 -0.077607036 -0.088008955 -0.13770765
-0.09013056 0.15579042 0.06369666 0.076238655 0.009930118 0.1531928 -0.08291183 -0.07191724
0.010440292 0.26327276 -0.033509318 0.047483023 -0.010016385 0.0033678215 0.16736461 0.02066512
0.043751832 0.19443609 0.066538 0.16835049 0.061972853 -0.0101149175 0.08704099 0.22220872
0.012574396 0.07519042 -0.13693847 0.10199467 0.013182728 -0.05910157 -0.041407365 0.17051448
0.108600564 0.047503203 0.055401932 -0.026781196 0.14467561 -0.078857034 -0.11609304 -0.032718934
0.073440924 0.034602024 -0.12347576 0.01756136 0.06935928 -0.014161964 0.037602447 -0.060031384
0.064149335 -0.05372754 0.069490425 0.16809563 -0.034142766 -0.067580536 0.11438463 -0.121598095
0.04782842 -0.12466722 -0.06702666 -0.022555038 0.13503605 -0.026395168 -0.012490383 0.102879375
0.14043377 0.08806464 0.024619287 -0.046741497 -0.008730783 -0.08236344 0.08393938 -0.13292652
-0.1020125 -0.15280388 0.014638348 -0.21163343 0.021052822 0.06627797 0.2414202 0.009880203
0.067520425 -0.013648116 -0.090286694 -0.053812366 0.05754463 0.014462169 0.08395264 -0.015124195
-0.092276044 0.091803886 0.124343395 0.054649323 -0.094216615 0.013884256 0.09565857 0.04082635
0.10534174 -0.101933725 -0.14583565 -0.20582467 0.01867766 0.19267109 0.079974286 -0.052248232
0.09926364 0.06581322 0.057473026 -0.09579687 -0.08373928 -0.00874996 0.16834348 0.011522236
0.09998628 0.23315391 -0.023505261 0.045300912 0.07068151 -0.0849419 -0.08953759 0.08532662

layers.0.ufh.k_weight f4 [32, 32]
00000000: 3779 22bd 2c44 10bd 7693 0cbd bed1 2abe
00000010: b506 193d 7ebc 103d 236e 6dbc 573a 08be
00000020: 10c5 22be a05b 23bd 1387 3d3d e958 363d
00000030: ecc0 373c ee43 34be 9b7f 973d b69e 013e
00000040: def4 ea3c 2821 253e 6f28 c1bd 0c99 8cbd
00000050: 0bc3 e6bd dc10 043e 83e6 333e 7075 083e
00000060: ba9a 52bd a372 2ebe eca9 55be 9f37 dc3c
00000070: 05ac 523d 2025 02bd d808 9c3d 1866 0c3e
00000080: d9d7 a33d cbf3 ee3d 21bd 88bc d652 023d
00000090: 79f5 4fbe 66e5 09bc fb76 ecbd e1d3 a33c
000000a0: 530b 5fbe 2445 73bd 2024 57bd 6439 fabd
000000b0: 49fe 12bd 5f75 753c 089d 893d 5853 df3a
000000c0: 9ed5 0fbe 6787 56be 2f8b 443d af26 42be
000000d0: 9790 84bc c2a2 62bc 4d40 bbbc f5cb 4a3d
000000e0: b503 c6bd cdf4 edbc c9e3 173e d013 17be
000000f0: baeb 603c a83c ddbd 44f7 fcbd faee 0fbe
00000100: c04c a3bd da4d 80be feec 85bd 61ce 3d3d
00000110: 07f1 88bd 9fc5 d4bd 865f 043e aad5 593d
00000120: 91b1 553d 5e16 433d df86 dd3d bc51 493d
00000130: b736 29bd c800 45be 03bf 1fbe 5b95 7a3d
00000140: 6c0a 33bb bbb1 41bd 11ea 8cbd 343d b0bd
00000150: 8896 303d 75b3 bebd 1d49 ddbc 61fc e4bb
00000160: 0c71 cc3d 7f0b f7bd dadc 783d 0b73 543d
00000170: 14f6 a7bd 11d9 c43c eab8 8e3b 62d6 5abe
00000180: 3a98 5ebd 1838 9ebd 2676 02be e006 a53d
00000190: a1f7 8d3e 9d50 68bc a4aa 763e 9d16 f8bc
000001a0: 2d4b 3f3e 97f7 b2bd d72f 263d 31c2 9ebd
000001b0: d1bd 0abd eb6d 243e db2c a3bc 1f57 81bd
000001c0: 828c c23d f08a 2e3e 34d5 563c 6b56 c43d
000001d0: eaec e3bd ab0b ca3d 7fc8 3fbd 2c3f 553d
000001e0: 9ca6 913c 0fcc c13e 0db8 8c3b 2f4f 56bb
000001f0: 5cbb 2a3d 3ad3 8f3d 8705 0f3d 40ff 143e
00000200: 3424 dcba 02aa f0bd f918 99bd fe91 023d
00000210: 5d4c 133e 2135 f5bd ddd9 6f3d cb09 01be
00000220: 848a a9be d4f9 4b3d 2c68 b73d 7a1c 7fbd
00000230: 8625 373d 8906 a83d ca15 1a3e d23b a23d
00000240: f89a b7bd 7d0a 14be 6ce6 e03c 3747 0ebd
00000250: 67a3 913d 343e b53c 501f 3f3e 9e71 b73d
00000260: 78de 32be deb9 023d 0719 3c3e 711d 92bd
00000270: 93d6 0e3e dc77 7d3c 3fcc 39bc 113b 6fbd
00000280: 69fb 823e 9af4 1cbe aa09 eabc 40df eabc
00000290: fe9e 5b3e b2fe a4bd 10e4 d63b 456b 0e3d
000002a0: 9415 60bd be6c e23d a2cb 5abd 7de5 7b3d
000002b0: ea85 093e 96b7 103e c1e0 01bd 61de babd
000002c0: d039 513c ff0e 063e 9bc0 013b 720b 6a3e
000002d0: c528 b2bc f774 15bd 1f14 93bb 212a 683d
000002e0: f904 773d e91d 363e 2eeb d8bb 62af 4b3d
000002f0: c807 76bd 29af 0dbd 07a9 48be 7027 fa3d
00000300: dbca e7bc b3bf a33d 5f26 2ebe a0ff 3bbe
00000310: b070 40be 661f 9abd eed1 aebe 7e0e fdbd
00000320: f7c2 423e 52c0 48bc 5f8b 62be cacd 04be
00000330: 3afc 27be 8c7f 54be 63a2 6dbc 0995 a1bd
00000340: f64d ddbb 4895 f8bd 9058 0ebd 7d81 13be
00000350: 38d2 0c3e 53a5 ecbb 4ce6 2abd 9671 5fbd
00000360: 27a8 81bd 8e26 dabe 11d0 65be e117 963c
00000370: 8f5a c2bc 0e77 973d dcf4 efbc d6f1 98be
00000380: 1588 d63d 46d0 593c b374 083d f2ce a93d
00000390: a249 573c 565f 0d3e 1558 87bd 7c12 77bd
000003a0: efa4 853d 90c3 0f3c 0482 03be 0a96 2b3d
000003b0: 9645 8f3d bfeb 1b3c dd3b 273e 9eda c03c
000003c0: 97f3 b9bd bd83 9a3c 6764 c13d 9d3f 12be
000003d0: ee8e 063b 4c75 b03d 372d 513e 0919 f23c
000003e0: df9b 323d 8d4c 2fbe 7934 833d 1655 d4bd
000003f0: acf6 623d d2ff 023e e043 10bd 48e6 d2bc
-0.03966638 -0.035221264 -0.034320317 -0.16681573 0.037359912 0.03533601 -0.014491591 -0.13303505
-0.15895486 -0.039882302 0.046271395 0.044518385 0.01121543 -0.17604038 0.07397386 0.126582
0.028681215 0.1612593 -0.0943154 -0.06865129 -0.1126767 0.12897056 0.17568402 0.13326049
-0.05141709 -0.17035918 -0.20865601 0.026881991 0.05143358 -0.031773686 0.07618874 0.1371082
0.08000154 0.116675936 -0.016691746 0.03181728 -0.20308484 -0.008416509 -0.11546131 0.019998493
-0.21781664 -0.05939211 -0.052524686 -0.12217978 -0.035887036 0.014981597 0.067194045 0.0017038388
-0.14046332 -0.2095009 0.0479843 -0.18960069 -0.016182227 -0.01383275 -0.02285781 0.049510915
-0.09668676 -0.029047394 0.14832987 -0.14753652 0.013728077 -0.10802585 -0.1235185 -0.14056006
-0.07973623 -0.25059396 -0.06539343 0.046339396 -0.06686597 -0.10389256 0.12927064 0.05318228
0.052171294 0.047628753 0.1081674 0.049150214 -0.041311946 -0.1923858 -0.15600209 0.061177593
-0.0027319444 -0.047288638 -0.06880582 -0.086054236 0.043112308 -0.093115725 -0.027012402 -0.0069880937
0.099824995 -0.120627396 0.060757495 0.051867526 -0.082012326 0.024029287 0.0043555396 -0.21370843
-0.054344393 -0.07725543 -0.12740383 0.08057952 0.27727988 -0.014179376 0.24088532 -0.03028422
0.18681021 -0.0873863 0.040572967 -0.07751883 -0.03387243 0.16057555 -0.01991885 -0.06315445
0.09499456 0.17045188 0.013112355 0.095867954 -0.11129172 0.09865507 -0.046822067 0.0520622
0.01777964 0.37850997 0.0042944015 -0.0032701006 0.041682586 0.0702271 0.03491738 0.14550495
-0.0016795457 -0.117511764 -0.07475466 0.03187751 0.14384599 -0.11973024 0.05855738 -0.12601392
-0.33113492 0.0497988 0.08955416 -0.062283017 0.04471352 0.082043715 0.15047374 0.07921566
-0.08965105 -0.14457126 0.027453624 -0.034735885 0.07111245 0.022124387 0.18664289 0.08957218
-0.17467678 0.031915538 0.18368922 -0.07134522 0.13949041 0.015470471 -0.0113402 -0.05840594
0.25582436 -0.15327683 -0.028569061 -0.028670907 0.2144737 -0.08056392 0.006557949 0.03477027
-0.05470808 0.11055897 -0.053416856 0.061498154 0.1342999 0.14132532 -0.031708483 -0.09124447
0.012770131 0.13091658 0.001979864 0.22855929 -0.021747956 -0.0364885 -0.0044884826 0.056680802
0.060307477 0.17784847 -0.0066198325 0.049727805 -0.060066015 -0.034590874 -0.19595729 0.12214553
-0.028294971 0.07995548 -0.17006825 -0.18359232 -0.18792987 -0.0752552 -0.3414454 -0.1235628
0.19019686 -0.012252884 -0.22123478 -0.12969127 -0.1640481 -0.2075178 -0.014504048 -0.07889754
-0.0067536784 -0.12137848 -0.03475243 -0.14404865 0.13752067 -0.0072218566 -0.041723534 -0.054551683
-0.06330901 -0.4260754 -0.22442652 0.018321933 -0.023724822 0.07395755 -0.029291563 -0.29872006
0.10475174 0.013294285 0.033314418 0.08291425 0.013140114 0.13805899 -0.06608597 -0.060320362
0.06525599 0.008774653 -0.12842566 0.041891135 0.06995694 0.0095166555 0.1633143 0.023541745
-0.09079664 0.018861646 0.09442978 -0.14282079 0.002053197 0.086161226 0.20427404 0.029552953
0.04360568 -0.17119046 0.06406493 -0.10367791 0.055411026 0.127929 -0.03522098 -0.025744572

layers.0.wix.r_weight f4 [1, 32]
00000000: ed9e 1dbf 2271 86be 99fe 32be 7703 17bf
00000010: e71c 21be c120 29bf b791 5ebe 066d 19bf
00000020: ddba 163e 0a78 483c aa65 6e3e e360 36bd
00000030: 19e0 8abc 93c0 b2be a8f1 11bf ca4c 023e
00000040: 6437 2c3e ff50 f3be 1677 2cbf ded3 8a3c
00000050: 1680 53be db22 0d3e 1777 30bf 9f82 3fbf
00000060: 1299 073f fce4 7bbe 41bc 48be df1d 1cbf
00000070: 51aa fcbe ba3c f7be 932e 20bf e2d7 c2be
-0.61570626 -0.26258188 -0.17479934 -0.5898966 -0.15733682 -0.66065603 -0.21735273 -0.5993198
0.1471972 0.012235651 0.2328097 -0.044525992 -0.016952561 -0.34912547 -0.57009363 0.12724605
0.16818005 -0.47522733 -0.6736921 0.01694673 -0.2065433 0.13782828 -0.68931717 -0.74808687
0.5296794 -0.2459907 -0.19603063 -0.6098308 -0.4934869 -0.48288518 -0.62571067 -0.3805533

layers.0.wix.i_weight f4 [1, 32]
00000000: f43b 35be 0cd6 ed3c 8ea0 1ebd a857 933d
00000010: 5920 e4bd 1167 b73d 055d 36be f63b 943e
00000020: 62d9 843e b1a1 773d b1d8 833d 007e c33d
00000030: 08d1 013f 53af 473d c606 483e cfc8 78bd
00000040: 64bf 4c3d b807 07be 8c99 173d fc15 1cbe
00000050: 8cc4 6e3e fbc5 4c3e 3cd1 74bd 808b 89be
00000060: 4647 4a3e b43d 143e a03d 833e ab50 eabe
00000070: 23eb a5bb 766e dfbd 603c 80be f27f ffbd
-0.17698652 0.02903273 -0.038727336 0.071944535 -0.11138982 0.08955205 -0.17808922 0.28951997
0.259471 0.060456935 0.06437815 0.09545517 0.5070958 0.048751187 0.19533834 -0.06073838
0.04998721 -0.13186538 0.037011668 -0.15242761 0.23317164 0.19997399 -0.059769854 -0.26864243
0.19753751 0.14476663 0.25632954 -0.4576467 -0.005063431 -0.109097406 -0.25046062 -0.124755755

layers.0.wix.j_weight f4 [1, 32]
00000000: dabb d13d 16f7 05bc 2686 02bd a8c2 343e
00000010: ae16 58be 3a25 7fbe d7c2 9abd f319 083e
00000020: 1829 bcbd 0571 f33b bd6b 4fbe 5227 21bd
00000030: 77ee 543e a085 18bc 5462 1cbe afa4 bd3a
00000040: ac0e a23c 3aad a4bd 3e48 173e 3973 c5bc
00000050: 7418 5fbd 630c 9b3d bd87 a0bd a29e 4fbe
00000060: 3778 693e db0e 1fbe bb07 d6bd 5bb6 dcbe
00000070: 6d13 ddbd 7d8d 48be 1afe 35be 8435 89bc
0.10240908 -0.008176586 -0.031866215 0.1765238 -0.21102402 -0.24916545 -0.07556694 0.13291149
-0.091875255 0.0074292445 -0.20255943 -0.03934414 0.20794092 -0.009309202 -0.15271884 0.0014468635
0.019782387 -0.08040853 0.14773652 -0.024102794 -0.05446668 0.07570722 -0.0783839 -0.20275357
0.22799765 -0.1553301 -0.10450693 -0.43107876 -0.10794721 -0.19585223 -0.17772713 -0.016749151

layers.0.wix.k_weight f4 [1, 32]
00000000: 0b34 4fbe 519b 2dbe e75d 28bd 0715 e93c
00000010: 68b5 2abd e27d e13c 0537 ae3d a778 ad3e
00000020: 3778 4abe 46bf c13d a9bc 0a3e 34ca 283d
00000030: 4f7c 17be b669 1bbd fdcb 99bd 7982 8d3d
00000040: 3edd 773d d035 3dbe b564 ccbc 9c4e 1a3d
00000050: bebd b3bd 9dcc b7bc 4710 62be a700 0dbe
00000060: 08f0 85be af18 a9be 1e86 b43e dba8 ac3c
00000070: a833 873e 7b1a 263d e0c8 193d 581c d63a
-0.20234697 -0.1695378 -0.041105177 0.02845241 -0.04167691 0.027525846 0.08506588 0.33881113
-0.19772421 0.09460311 0.1354853 0.04120846 -0.14793514 -0.03794261 -0.07509611 0.06909651
0.060513727 -0.18477559 -0.024950365 0.037672624 -0.08776425 -0.022436434 -0.22076522 -0.1376978
-0.26159692 -0.33026645 0.35258573 0.02107661 0.26406598 0.040552597 0.037545085 0.0016335351

layers.0.wix.bias f4 [128]
00000000: 2d46 3bbc 92b3 2b3e fa28 19bf d503 39bf
00000010: 01c3 7b3d f309 74bf 0268 9bbe 2177 4fbf
00000020: 8ee9 be3e f229 913e a2ae 9ebe 5859 673e
00000030: 7c48 1cbf 1837 483e 3ec0 2dbf 67f6 513e
00000040: 2ccd e0be cf00 3dbf f96a 54bf 1fdc 8a3e
00000050: 0c46 51be c4e5 20bd 705c 4fbf 1fe5 aebf
00000060: 2009 533d 1d34 2bbe 6c09 5abf 4d14 e03d
00000070: 5f2c 13bf be0f 46bf 9250 16bf 969e a8bc
00000080: 3631 c4be 2f7e 773e 04c3 0abf 2b53 42bf
00000090: 1e5f b73d 69e3 8dbf 968f d3be 3d70 2dbf
000000a0: 51f8 9a3e 5f5a 323e 07c5 a8be 0a54 1b3e
000000b0: 1549 babe 002c 593e 5313 13bf 3c27 7b3e
000000c0: f604 fabe d635 27bf c087 87bf aa76 543e
000000d0: ce04 74bf 0003 62be db84 24bf b94e bcbf
000000e0: a3d5 f7bd bebe 12be c090 30bf 74bb debe
000000f0: 9cde 58bf 9b97 19bf ced2 eabe e561 d3bd
00000100: 1028 22be a12b 8e3e c068 20bf 81a5 12bf
00000110: 4fbf c63d 03b9 66bf a145 24bf 229b 61bf
00000120: 6401 d73e 8d7d 563e 31cb 45bf b710 013e
00000130: f277 e5be f8d8 863e 833d 1fbf 139f 3d3e
00000140: 8680 d2be 897e 1abf c676 46bf 0e3c 823e
00000150: 8326 c2be b72e f83c 42e3 55bf 71c2 b3bf
00000160: 5301 9bbd 6d31 6dbd 8bbb 39bf d7b9 2bbe
00000170: a827 0dbf 7fc9 24bf d0e3 15bf 647f 12bb
00000180: 3b25 90be d92b 083e 26f8 16bf 0f85 30bf
00000190: fad4 723d e03e 65bf 5eca 90be 274d 71bf
000001a0: 23df a13e daf9 413e 6530 8bbe 144a 853e
000001b0: e325 afbe 82d9 7e3e d470 1fbf 3765 323e
000001c0: 2bf2 bdbe fcbe 2abf 2e6e 75bf c643 6b3e
000001d0: c65a 0bbf 3b63 7bbe 89ca 2cbf 9edf c0bf
000001e0: d844 263c a318 ddbd 6651 36bf 9828 c2bd
000001f0: dc4e f7be ed9d 0cbf 3239 d0be 0bdc 48bd
-0.011430305 0.1676772 -0.5982815 -0.7227147 0.061465267 -0.9532768 -0.3035279 -0.8104115
0.37287563 0.28352314 -0.3099261 0.22592676 -0.610481 0.19552267 -0.67871463 0.20504151
-0.43906534 -0.7382936 -0.8297573 0.27121064 -0.20436877 -0.03928162 -0.81000423 -1.3663672
0.051522374 -0.16719098 -0.85170627 0.10941372 -0.5748958 -0.7736777 -0.5871669 -0.020583432
-0.38318795 0.24169229 -0.5420382 -0.75908154 0.08953689 -1.1085025 -0.41320485 -0.6774939
0.30267575 0.17417286 -0.3296282 0.15168777 -0.36383882 0.21208191 -0.5745136 0.24526685
-0.4883191 -0.6531652 -1.0588303 0.20748392 -0.9531983 -0.22071457 -0.6426522 -1.4711524
-0.12101295 -0.14330575 -0.6897087 -0.4350239 -0.84714675 -0.59996957 -0.45863956 -0.10321406
-0.15835595 0.2776766 -0.62659836 -0.5728379 0.09704458 -0.90126055 -0.64168745 -0.8812734
0.41993248 0.20946331 -0.7726317 0.12604032 -0.44818074 0.2633741 -0.62203234 0.18517713
-0.4111368 -0.6034933 -0.77524984 0.25436443 -0.37920007 0.030295713 -0.8354989 -1.4043714
-0.07568612 -0.057908464 -0.7255179 -0.16770111 -0.55138636 -0.6436996 -0.5855074 -0.0022353763
-0.28153405 0.13297977 -0.58972394 -0.6895303 0.05928514 -0.89549065 -0.28279394 -0.9425835
0.31615552 0.18942967 -0.2718536 0.2603308 -0.34208593 0.2488766 -0.6228154 0.17421423
-0.37098822 -0.6669767 -0.95871246 0.22975072 -0.54435384 -0.24549572 -0.67496544 -1.5068243
0.01014825 -0.10795715 -0.71217954 -0.09480399 -0.48302352 -0.54928476 -0.40668637 -0.049037974

layers.0.uih.r_weight f4 [32, 32]
00000000: c01b 1bbd 616a d4be 1962 64bd 0028 9f3e
00000010: 6728 30bf 4d01 60be 54ea a53e 78be fc3d
00000020: 280e 893d 28a7 02be 5df1 523e eb05 823e
00000030: f779 92bd 0abd 55be 3f97 df3b 22c6 463e
00000040: 13f5 133d 4442 503d faf5 253c 5e85 953d
00000050: 4124 12be 89c0 1e3e 4628 37be 65e1 14be
00000060: 3e6f 0b3e 2347 d03c f904 ab3d 9950 f4bd
00000070: 1c37 243b 10b6 233e 71a7 18bd dd68 24bb
00000080: 4d64 8e3e 7b09 503e 2bf8 6cbe 653c 9fbe
00000090: cffb b63e 51a9 27be c586 20be 4e2b 233e
000000a0: c97a 723d 1c0a 293d d736 e3be 69dc 50bd
000000b0: 9dd3 58be a8be 1e3f 829e 503d 3240 0dbe
000000c0: 596e 2abc 90f6 213d 3702 a43d 3db0 f73c
000000d0: 83c6 99be f592 d33d 8b60 853d 2748 623e
000000e0: bc0a dfbe 4c5e 9f3e c979 79be eb3d 0b3f
000000f0: ae45 1e3c 4c57 fb3c ecf3 0dbe 37dc 2e3e
00000100: 5550 8d3e 01c7 893d 867e 723e f15b ce3c
00000110: d281 023e 3c90 f7bc 8b56 12be 7144 043e
00000120: 3983 25be 3624 bdbd 9be8 833e ebd2 ff3d
00000130: 8594 663e dd1e 223e 9fa7 3bbe 600d 1a3e
00000140: 48db f83c f3da b63d 2ded bdbd ee76 d3bc
00000150: 0581 163c 28d8 543d 745c c63d cba7 b03d
00000160: 9a04 2c3d 59d9 853e fcd1 8dbd b22a 3abd
00000170: cddb 8b3d 9838 72be 7a16 31bb a128 043e
00000180: f71c 2ebc 2551 1f3d 8b61 dbbd 6cd6 fc3d
00000190: a0d1 90be 16ba b5bc 6caf b0bd 7973 283c
000001a0: 1506 e5be cb94 be3d 65b6 4abd beae 10bf
000001b0: e8cf 2dbe 7428 a1be 10ea 99bd b0a8 913d
000001c0: 46d5 6dbe 0955 523d 724e 72bd c505 81bd
000001d0: fa13 89be 2d39 91be 4f5e 9abe 544b 1a3e
000001e0: d61e 7fbd 85d6 8cbe 33fb 8a3c f92f 303e
000001f0: 43d7 27bc 57f0 503e 6b4d 1dbe 1de1 95bc
00000200: ca63 153e e51d 083e 23ca 243e 5d67 9fbe
00000210: 75b0 4f3e b828 1ebd 415f b43d 5d0f 9b3c
00000220: 5f8d adbd 9c42 04bd 0bf6 92be 36b2 ae3d
00000230: 801e 773e 1df7 223f 3ff0 3abe 2ead 06be
00000240: 5f12 883d e396 583e 0d32 2e3e e0bd 773e
00000250: 81ef edbd f854 bdbc 402b 3dbd 934f 173d
00000260: 4e8c d53d 482a e53e 188f d53c a1b7 bb3d
00000270: 0d05 c5bc e74e 473e 3c7a 8b3e faae 863e
00000280: 3f3e 013d 81e5 e0bd 637e 9abd 5cfb 233e
00000290: 2e35 2c3d fcd2 64bc b650 b43d 16cd 89be
000002a0: 3c06 21bd 61e9 12be 7158 03bf 83a2 bfbd
000002b0: d695 3a3e bfdb 9b3e 0c1b 07be 4b01 863d
000002c0: beb0 3d3d 77ea a43e a370 2d3c 6cc0 183e
000002d0: fe79 79be 71dc 66bd 12d2 d8bd a1a7 7ebb
000002e0: d78b 303d b982 483e 5907 eabc 43ab 483e
000002f0: a8f9 e43d 254d 38be 821a 273e d8ab fcbd
00000300: e207 90be 778d 99be f058 4b3e a98c 25bd
00000310: 2ee2 193e 630d 163d 1da1 993d 22ea 99bd
00000320: 6743 65bd 8472 e73c e011 643e eb35 3f3e
00000330: cf68 ccba 45af c6be 1988 7fbd d933 6f3e
00000340: 1153 883e ed5a 133c a049 1f3e 66d0 a2bd
00000350: 9605 343d e11d 953c 85da e43d d851 c23d
00000360: 7a38 76bc 04e3 483d 4012 093e ff52 80be
00000370: a4c0 68bd 91ac 5bbe ee0b 283e c671 ddbd
00000380: fd60 fd3d 2e84 0ebd e701 b6bd b57b 273e
00000390: 448e 88bd 1ba4 d8bb 0e6c 0bbe 8ee5 1bbe
000003a0: 92c7 783d 2a4a 7a3e bcf8 013e d8a4 c53e
000003b0: e125 8e3e b0f8 b73e 16a7 2c3d c046 fd3d
000003c0: 6901 183e 0fa6 223e e7b3 7d3e a0ee 813e
000003d0: 2c82 13bd 22af f5bd db40 583e be94 eebd
000003e0: 38a8 a03d ded0 5e3e ab45 7fbd 5a91 043d
000003f0: f101 aa3d 81da 283e 6bae 7b3d 903e 6b3e
-0.03786826 -0.4148741 -0.055757616 0.31085205 -0.6881165 -0.21875496 0.3240534 0.123410165
0.06692153 -0.12759078 0.20599885 0.2539514 -0.07152169 -0.20872894 0.00682345 0.19411519
0.036122393 0.050844446 0.010129446 0.073008284 -0.14271642 0.15503134 -0.17886457 -0.14539106
0.13616654 0.025424546 0.08350558 -0.11929435 0.0025057262 0.1598742 -0.03726906 -0.0025086917
0.27810898 0.20316117 -0.23141544 -0.31100765 0.3573899 -0.16373183 -0.1567641 0.15934488
0.05919913 0.041269407 -0.44377777 -0.05099145 -0.21174474 0.6200967 0.050932415 -0.1379402
-0.0104022855 0.03954178 0.08008235 0.030235404 -0.30034265 0.10330764 0.06512555 0.22097836
-0.43562877 0.3112663 -0.24362864 0.54391354 0.009660168 0.030681275 -0.1386258 0.17076193
0.2760035 0.0672741 0.23681077 0.025190325 0.12744835 -0.030220143 -0.14290826 0.12916733
-0.16163339 -0.09235422 0.257634 0.12491401 0.22517593 0.15832086 -0.18325661 0.15044165
0.030377999 0.0892848 -0.09273753 -0.025813546 0.009186034 0.051963955 0.09685603 0.08625754
0.041996576 0.26142386 -0.06924817 -0.045450874 0.06829033 -0.23654401 -0.0027021454 0.12906124
-0.010627023 0.038895745 -0.10711964 0.12345585 -0.2828493 -0.02218346 -0.08627209 0.010281437
-0.44731203 0.09305724 -0.04949035 -0.56516635 -0.16973841 -0.31476176 -0.07515347 0.07112253
-0.23225889 0.051350627 -0.059156843 -0.062999286 -0.26773053 -0.28363934 -0.30150077 0.15067798
-0.062285267 -0.27507415 0.016965484 0.172058 -0.0102441935 0.20404182 -0.15361564 -0.018295819
0.14588848 0.13292654 0.16092734 -0.31133547 0.20282157 -0.03861305 0.08807231 0.018928224
-0.0847423 -0.032290086 -0.2870334 0.08530085 0.24132729 0.63658315 -0.18255709 -0.13152
0.06644129 0.21151309 0.1701128 0.24193525 -0.11617947 -0.023111805 -0.046183825 0.036941122
0.104271516 0.4475882 0.026069209 0.09165884 -0.02405026 0.19463693 0.27241695 0.26305372
0.031553503 -0.109812744 -0.075436376 0.16013855 0.042042904 -0.013966318 0.08804457 -0.2691428
-0.039312586 -0.1434684 -0.51306826 -0.093571685 0.1822122 0.3044109 -0.13193911 0.06543215
0.046311133 0.32210132 0.010585937 0.14917153 -0.24362943 -0.056362573 -0.10586943 -0.0038857239
0.04310211 0.19581117 -0.028567957 0.19596581 0.11180431 -0.17998178 0.16318706 -0.12337464
-0.28131014 -0.29990742 0.19858146 -0.040417347 0.15027687 0.03663386 0.07501433 -0.075153604
-0.055972483 0.028252847 0.22272444 0.18672912 -0.00155952 -0.38805595 -0.062385652 0.23359622
0.26625875 0.008993846 0.1555543 -0.07949905 0.04395064 0.018202724 0.11174492 0.09488267
-0.0150281135 0.049044624 0.13385868 -0.2506332 -0.05682434 -0.21452548 0.16410801 -0.10812716
0.12372015 -0.034794025 -0.088870816 0.16355784 -0.0666776 -0.00661136 -0.13615438 -0.15224287
0.0607372 0.24442354 0.12692541 0.38602328 0.27763274 0.3593192 0.042151533 0.1236701
0.14844288 0.15883659 0.24775659 0.2537737 -0.036012813 -0.119962946 0.2111849 -0.11649464
0.07844585 0.21759364 -0.0623223 0.03236518 0.083011515 0.16489603 0.061445635 0.22973084

layers.0.uih.i_weight f4 [32, 32]
00000000: 255a b63d a704 103e fb25 26be fe82 d2bd
00000010: 4281 2d3e 7c23 47bc 4507 373c 5bd8 953b
00000020: e5c8 c73d ef2a 593e 1f03 903d bde2 103d
00000030: b27c 5ebe 4476 b13d 6ee0 3a3d a582 32bd
00000040: c97b 1e3e cccd b83d 2b29 e3bc 2559 4e3d
00000050: 9473 50bd 7413 6e3d 0d0a 963d ddf0 aa3d
00000060: e618 3c3e c1f7 793e f03b fb3d 577b 15bd
00000070: 715b 15bd c7d7 1bbe 97dd a53d 1219 813d
00000080: 52c3 2c3d c5cd f2bd 41b6 d7bb a11c 25bd
00000090: 8375 15bd 1455 233d 792b 183e 4980 92bc
000000a0: 9b21 eebb 669b ec3d 9e4c 43be bae1 bebe
000000b0: 45c0 adbd c817 2fbe 166b 09bd ec4a 52bd
000000c0: f196 61bd db02 b33d c0fc 423c 10e3 7cbe
000000d0: 4766 51be 05a1 74be 8b71 7bbc 0366 093e
000000e0: 4774 213e 8f71 04be 59a9 7bbd d6e1 103e
000000f0: 4260 be3d 5c58 063e f002 e73b ad38 dfbd
00000100: 0d85 003e 8e6e 2fbd 34a2 fc3d 19df ecbd
00000110: f69a 183e 83fa 18be 93f8 5f3e ae9e cd3c
00000120: 9f04 623d 2daf 413e 20b5 15be 060e e43b
00000130: 5e37 6e3d 1b6e 0d3e f4e1 24bd 9e1d fd3b
00000140: 2ba1 5c3d 2b20 41bd e468 2bbe 97aa 893d
00000150: f509 bdbd ac80 7f3d 4c1c e0bd 4f93 e5bc
00000160: a59b 1e3e d992 13bd 02f2 c93d f94e c1bc
00000170: a7df 4bbe 6210 003d c6b3 023e f997 523c
00000180: 41bd 3d3d b0fb c7bd 8875 0cbe d72f ea3d
00000190: 67dd 07be 85bc a93d 0c32 6c3d 0486 15bc
000001a0: 7cf8 e7bd 38e6 3a3a c15f 7a3e 48eb bcbc
000001b0: de4a 023e 6e0a d63c 035b 313d d5e1 0d3d
000001c0: b330 1fbe 0eea 3c3c a7ad 18bd ff00 6f3d
000001d0: 946c 00be 32bd ae3c 5216 163e 9f11 943d
000001e0: 3a9a 0b3d d88b ab3d 3ab5 f43d ad0d bc3b
000001f0: c3e7 ef3d 7757 bdbd 8677 d43d e7a5 a0bd
00000200: ed96 553d d661 2d3e 9eae 95bd 297a 84bd
00000210: cea9 43bc 2135 c5bd 0127 ba3d 3b73 4cbd
00000220: 5c18 ba3c e302 9cba 778b 7dbe 3409 e9bc
00000230: 3845 97bd ac16 b8bd d667 30bd 5ec3 da3c
00000240: 7928 adbd 5205 0e3e edbf 01be 1d83 15bd
00000250: e6e7 023b f5b7 0bbe f2c0 25bd 2c78 483d
00000260: 35e1 8bbd 6548 32bd 38a2 16be 797d 883e
00000270: 914c 39bd 0f2c 913d 4965 943c 9b62 1c3e
00000280: 4824 42bc 1c6f 1cbe 7f18 413e 9e72 eabd
00000290: be33 d8bd d025 723d 96e6 d2bd 7a4a faba
000002a0: 3059 8cbd 2352 acbd 893e 2e3e a481 86be
000002b0: 5f84 8dbd 8422 4bbe f3de 7ebd 22d3 3cbd
000002c0: a0dc d1bc 2d6b 853c 7f78 5bbe 05da 76be
000002d0: 866a d63c 7322 4fbd 5a05 923d 21c7 8abd
000002e0: 716a 03bd c993 04be fc33 93bd ca10 da3d
000002f0: e0fc f93c fe46 0cbe 0b4d c63d fee9 0ebe
00000300: 13c5 713e 8cc1 323e b3d4 613b 9bdd 3cbc
00000310: a84a 083e 7f91 4ebe f730 7a3d 7548 a7bd
00000320: 31c1 e73c cb51 453e dfa0 0cbe e05d 223e
00000330: 8784 893e 3a09 8c3e d5da 853d 89b7 28be
00000340: f177 003c 3aa1 573d a4e0 72bd 5d21 c33d
00000350: a6e5 4bbe d90d 15bd 0499 1ebe d1b2 10be
00000360: 35c5 6a3c 4e8a de3d f4e6 bc3d f703 833e
00000370: 6768 d03c 68e0 a63e dfe9 cfbd c67e a43e
00000380: 82b9 ce3d 5c34 c8bd ec60 3abe aba3 0abc
00000390: c030 9fbd 3f12 64bd 5e6d da3c 84c8 96bd
000003a0: ec6b e9bd d6d8 6c3d 67c3 dfbd fe4c 3dbe
000003b0: 9967 10be a4ea fdbc f3c5 f1bd d460 443e
000003c0: a3ea 91bc 3e34 043d 617c b83d 0b5a a33c
000003d0: b188 693d c585 dfbd 66ce 3cbd 7512 a73c
000003e0: b1f8 dcbc f52f d8bd 1c1c 50bc 722c 24be
000003f0: a0fc 0e3c 83e0 9dbc 75e0 183c 9263 e53d
0.089039125 0.14064275 -0.16225426 -0.10278891 0.16943839 -0.012154456 0.011171167 0.0045729107
0.097551145 0.21207784 0.07031845 0.035372484 -0.21727255 0.086651355 0.04562419 -0.043581624
0.15476908 0.09023628 -0.027729591 0.050377984 -0.050891474 0.05812402 0.07326136 0.08346722
0.18368873 0.24410917 0.122672915 -0.03649458 -0.03646416 -0.15219031 0.080989055 0.0630361
0.04217846 -0.11855654 -0.0065830057 -0.040310506 -0.03648902 0.03987606 0.14860334 -0.017883437
-0.0072671897 0.115530774 -0.19072196 -0.3728159 -0.08483938 -0.17098916 -0.03354939 -0.051340982
-0.05507559 0.08740779 0.011901081 -0.24695992 -0.20449172 -0.23889549 -0.015346895 0.1341782
0.15767013 -0.12933944 -0.0614408 0.1414865 0.092957035 0.13119644 0.0070499107 -0.10899482
0.12550755 -0.042830043 0.12335625 -0.1156599 0.14902863 -0.14939313 0.21872167 0.025100078
0.05518019 0.1891448 -0.14619875 0.0069596795 0.05815827 0.13811533 -0.04025455 0.007724478
0.05386464 -0.04714982 -0.16739231 0.067219906 -0.09230415 0.06237857 -0.10942897 -0.028024344
0.15489061 -0.036028717 0.098606125 -0.023597227 -0.19909535 0.031265624 0.1276389 0.012853616
0.046323065 -0.097648025 -0.1371671 0.11434906 -0.13268052 0.0828791 0.057664916 -0.00912619
-0.113266915 0.0007129642 0.2445059 -0.02306141 0.12723872 0.02612802 0.043299686 0.0346392
-0.15545921 0.011530412 -0.037274983 0.05835056 -0.1254142 0.02133045 0.14656952 0.072299235
0.03408263 0.083762825 0.11948629 0.005738935 0.11714127 -0.09245198 0.1037436 -0.07844143
0.052145887 0.16931853 -0.07308696 -0.06468613 -0.01194234 -0.09629274 0.09089471 -0.04991458
0.022716694 -0.0011902716 -0.24760233 -0.028446771 -0.07386249 -0.08988699 -0.043067776 0.026704486
-0.08454985 0.13869217 -0.1267087 -0.036501992 0.0019974648 -0.13644393 -0.04046721 0.04894273
-0.06830064 -0.043526072 -0.14710319 0.26658228 -0.045239035 0.07088482 0.018114703 0.1527199
-0.01184947 -0.1527676 0.18857001 -0.11447643 -0.10556744 0.059118092 -0.10297887 -0.0019095682
-0.06852949 -0.08414104 0.17016043 -0.26270783 -0.069100134 -0.19837385 -0.06222434 -0.04609979
-0.025617898 0.016286457 -0.21432684 -0.24106605 0.026173841 -0.050569963 0.07129927 -0.06776262
-0.032083932 -0.12947 -0.071876496 0.106477335 0.030516088 -0.13698956 0.096826635 -0.13956448
0.23610334 0.17456645 0.0034459054 -0.011527444 0.13309729 -0.2017269 0.061081853 -0.08168117
0.028290363 0.19269483 -0.13733242 0.15856123 0.26858923 0.2735079 0.065358795 -0.16476263
0.007841096 0.052643992 -0.059296265 0.09527848 -0.19911823 -0.03639016 -0.15488058 -0.14130713
0.014329244 0.10866223 0.09223738 0.25588962 0.025440408 0.32593083 -0.10152029 0.3212797
0.100939766 -0.09775612 -0.18201035 -0.008461873 -0.0777297 -0.055681463 0.026663478 -0.07362464
-0.113975376 0.05782398 -0.10925942 -0.18486401 -0.1410202 -0.030995674 -0.11805334 0.19177562
-0.017812079 0.032276385 0.090080984 0.019940397 0.057015125 -0.109141864 -0.046095274 0.020394543
-0.026974054 -0.10556022 -0.012702014 -0.1603258 0.008727223 -0.019272095 0.0093308585 0.11200632
